"builtin.module"() ({
  "func.func"() <{function_type = () -> (), sym_name = "func1"}> ({
    %0 = "arith.constant"() <{value = true}> : () -> i1
    %1 = "arith.constant"() <{value = 4.537600e+04 : f16}> : () -> f16
    %2 = "arith.constant"() <{value = 1744215945 : i64}> : () -> i64
    %3 = "arith.constant"() <{value = 23669 : i16}> : () -> i16
    %4 = "arith.constant"() <{value = 1.30309133E+9 : f32}> : () -> f32
    %5 = "arith.constant"() <{value = 6.441600e+04 : f16}> : () -> f16
    %6 = "arith.constant"() <{value = 0x4DB0D1B6 : f32}> : () -> f32
    %7 = "arith.constant"() <{value = 5.907200e+04 : f16}> : () -> f16
    %8 = "arith.constant"() <{value = -8308 : i16}> : () -> i16
    %9 = "arith.constant"() <{value = 4.720000e+04 : f16}> : () -> f16
    %10 = "arith.constant"() <{value = 1.10696013E+9 : f32}> : () -> f32
    %11 = "arith.constant"() <{value = 910136434 : i64}> : () -> i64
    %12 = "arith.constant"() <{value = 2.217600e+04 : f16}> : () -> f16
    %13 = "arith.constant"() <{value = false}> : () -> i1
    %14 = "arith.constant"() <{value = true}> : () -> i1
    %15 = "arith.constant"() <{value = true}> : () -> i1
    %16 = "arith.constant"() <{value = 0 : index}> : () -> index
    %17 = "arith.constant"() <{value = 1 : index}> : () -> index
    %18 = "arith.constant"() <{value = 2 : index}> : () -> index
    %19 = "arith.constant"() <{value = 3 : index}> : () -> index
    %20 = "arith.constant"() <{value = 4 : index}> : () -> index
    %21 = "arith.constant"() <{value = 5 : index}> : () -> index
    %22 = "arith.constant"() <{value = 6 : index}> : () -> index
    %23 = "arith.constant"() <{value = 7 : index}> : () -> index
    %24 = "arith.constant"() <{value = 8 : index}> : () -> index
    %25 = "arith.constant"() <{value = 9 : index}> : () -> index
    %26 = "arith.constant"() <{value = 10 : index}> : () -> index
    %27 = "arith.constant"() <{value = 11 : index}> : () -> index
    %28 = "arith.constant"() <{value = 12 : index}> : () -> index
    %29 = "arith.constant"() <{value = 13 : index}> : () -> index
    %30 = "arith.constant"() <{value = 14 : index}> : () -> index
    %31 = "arith.constant"() <{value = 15 : index}> : () -> index
    %32 = "arith.constant"() <{value = 16 : index}> : () -> index
    %33 = "arith.constant"() <{value = 17 : index}> : () -> index
    %34 = "arith.constant"() <{value = 18 : index}> : () -> index
    %35 = "arith.constant"() <{value = 19 : index}> : () -> index
    %36 = "arith.constant"() <{value = 20 : index}> : () -> index
    %37 = "arith.constant"() <{value = 21 : index}> : () -> index
    %38 = "arith.constant"() <{value = 22 : index}> : () -> index
    %39 = "arith.constant"() <{value = 23 : index}> : () -> index
    %40 = "arith.constant"() <{value = 24 : index}> : () -> index
    %41 = "arith.constant"() <{value = 25 : index}> : () -> index
    %42 = "arith.constant"() <{value = 26 : index}> : () -> index
    %43 = "arith.constant"() <{value = 27 : index}> : () -> index
    %44 = "arith.constant"() <{value = 28 : index}> : () -> index
    %45 = "arith.constant"() <{value = 29 : index}> : () -> index
    %46 = "arith.constant"() <{value = 30 : index}> : () -> index
    %47 = "arith.constant"() <{value = 31 : index}> : () -> index
    %48 = "tensor.empty"() : () -> tensor<5x14xi64>
    %49 = "tensor.empty"(%39) : (index) -> tensor<?xi32>
    %50 = "tensor.empty"(%39, %33) : (index, index) -> tensor<?x?x5xi1>
    %51 = "tensor.empty"(%36) : (index) -> tensor<?xi1>
    %52 = "tensor.empty"() : () -> tensor<4xi64>
    %53 = "tensor.empty"() : () -> tensor<4x13x5xi1>
    %54 = "tensor.empty"() : () -> tensor<4xi1>
    %55 = "tensor.empty"(%47) : (index) -> tensor<?xi32>
    %56 = "tensor.empty"() : () -> tensor<13xf32>
    %57 = "tensor.empty"() : () -> tensor<5x14xi64>
    %58 = "tensor.empty"() : () -> tensor<5x14xi16>
    %59 = "tensor.empty"(%41) : (index) -> tensor<?x13x5xf32>
    %60 = "tensor.empty"() : () -> tensor<13xi16>
    %61 = "tensor.empty"(%17) : (index) -> tensor<?xf32>
    %62 = "tensor.empty"(%25, %34, %31) : (index, index, index) -> tensor<?x?x?xf16>
    %63 = "tensor.empty"() : () -> tensor<4xi64>
    %64 = "memref.alloc"() <{operandSegmentSizes = array<i32: 0, 0>}> : () -> memref<4x13x5xi1>
    %65 = "memref.alloc"(%22) <{operandSegmentSizes = array<i32: 1, 0>}> : (index) -> memref<?xi1>
    %66 = "memref.alloc"() <{operandSegmentSizes = array<i32: 0, 0>}> : () -> memref<4x13x5xi32>
    %67 = "memref.alloc"() <{operandSegmentSizes = array<i32: 0, 0>}> : () -> memref<13xi32>
    %68 = "memref.alloc"(%33) <{operandSegmentSizes = array<i32: 1, 0>}> : (index) -> memref<?xi64>
    %69 = "memref.alloc"() <{operandSegmentSizes = array<i32: 0, 0>}> : () -> memref<4x13x5xi1>
    %70 = "memref.alloc"(%47, %47) <{operandSegmentSizes = array<i32: 2, 0>}> : (index, index) -> memref<?x?x5xi32>
    %71 = "memref.alloc"() <{operandSegmentSizes = array<i32: 0, 0>}> : () -> memref<4xf32>
    %72 = "memref.alloc"(%30) <{operandSegmentSizes = array<i32: 1, 0>}> : (index) -> memref<?xi64>
    %73 = "memref.alloc"() <{operandSegmentSizes = array<i32: 0, 0>}> : () -> memref<5x14xi1>
    %74 = "memref.alloc"(%20) <{operandSegmentSizes = array<i32: 1, 0>}> : (index) -> memref<?xi64>
    %75 = "memref.alloc"() <{operandSegmentSizes = array<i32: 0, 0>}> : () -> memref<4x13x5xi16>
    %76 = "memref.alloc"() <{operandSegmentSizes = array<i32: 0, 0>}> : () -> memref<13xi1>
    %77 = "memref.alloc"() <{operandSegmentSizes = array<i32: 0, 0>}> : () -> memref<4xi32>
    %78 = "memref.alloc"() <{operandSegmentSizes = array<i32: 0, 0>}> : () -> memref<4x13x5xi64>
    %79 = "memref.alloc"(%24) <{operandSegmentSizes = array<i32: 1, 0>}> : (index) -> memref<?x13x5xf32>
    %80 = "spirv.GL.Floor"(%6) : (f32) -> f32
    %81 = "math.round"(%9) <{fastmath = #arith.fastmath<none>}> : (f16) -> f16
    %82 = "spirv.GL.Floor"(%10) : (f32) -> f32
    %83 = "math.floor"(%12) <{fastmath = #arith.fastmath<none>}> : (f16) -> f16
    %84 = "spirv.CL.u_min"(%11, %11) : (i64, i64) -> i64
    "bufferization.dealloc_tensor"(%60) : (tensor<13xi16>) -> ()
    %85 = "arith.constant"() <{value = 1 : i32}> : () -> i32
    %86 = "vector.broadcast"(%85) : (i32) -> vector<4xi32>
    %87 = "vector.reduction"(%86) <{fastmath = #arith.fastmath<none>, kind = #vector.kind<add>}> : (vector<4xi32>) -> i32
    %88 = "arith.constant"() <{value = 0 : i32}> : () -> i32
    %89 = "math.fpowi"(%12, %88) <{fastmath = #arith.fastmath<none>}> : (f16, i32) -> f16
    %90 = "tensor.empty"() : () -> tensor<5x4x13xi1>
    %91 = "linalg.transpose"(%53, %90) <{permutation = array<i64: 2, 0, 1>}> ({
    ^bb0(%arg0: i1, %arg1: i1):
      "linalg.yield"(%arg0) : (i1) -> ()
    }) : (tensor<4x13x5xi1>, tensor<5x4x13xi1>) -> tensor<5x4x13xi1>
    %92 = "spirv.GL.Fma"(%82, %80, %10) : (f32, f32, f32) -> f32
    %93 = "arith.ori"(%11, %84) : (i64, i64) -> i64
    %94 = "spirv.IsInf"(%12) : (f16) -> i1
    %95 = "vector.splat"(%42) : (index) -> vector<5x14xindex>
    %96 = "bufferization.clone"(%77) : (memref<4xi32>) -> memref<4xi32>
    %97 = "vector.broadcast"(%8) : (i16) -> vector<1xi16>
    %98 = "vector.extract"(%97) <{static_position = array<i64: 0>}> : (vector<1xi16>) -> i16
    %99 = "vector.broadcast"(%15) : (i1) -> vector<14xi1>
    %100 = "vector.maskedload"(%65, %16, %99, %99) : (memref<?xi1>, index, vector<14xi1>, vector<14xi1>) -> vector<14xi1>
    %101 = "spirv.IsNan"(%4) : (f32) -> i1
    %102 = "vector.matrix_multiply"(%97, %97) <{lhs_columns = 1 : i32, lhs_rows = 1 : i32, rhs_columns = 1 : i32}> : (vector<1xi16>, vector<1xi16>) -> vector<1xi16>
    %103 = "spirv.CL.s_max"(%88, %88) : (i32, i32) -> i32
    %104 = "spirv.CL.ceil"(%1) : (f16) -> f16
    %105 = "spirv.GL.Sinh"(%4) : (f32) -> f32
    %106 = "math.fpowi"(%5, %103) <{fastmath = #arith.fastmath<none>}> : (f16, i32) -> f16
    %107 = "spirv.CL.rsqrt"(%104) : (f16) -> f16
    %108 = "spirv.FOrdLessThanEqual"(%6, %82) : (f32, f32) -> i1
    %109 = "spirv.Not"(%8) : (i16) -> i16
    %110 = "spirv.CL.s_min"(%84, %2) : (i64, i64) -> i64
    %111 = "tensor.cast"(%59) : (tensor<?x13x5xf32>) -> tensor<13x13x5xf32>
    %112 = "index.ceildivs"(%41, %38) : (index, index) -> index
    %113 = "vector.broadcast"(%6) : (f32) -> vector<f32>
    %114 = "vector.transfer_write"(%113, %59, %19, %35, %22) <{operandSegmentSizes = array<i32: 1, 1, 3, 0>, permutation_map = affine_map<(d0, d1, d2) -> ()>}> : (vector<f32>, tensor<?x13x5xf32>, index, index, index) -> tensor<?x13x5xf32>
    %115 = "vector.broadcast"(%107) : (f16) -> vector<13x5xf16>
    %116 = "vector.broadcast"(%12) : (f16) -> vector<5xf16>
    %117:2 = "vector.scan"(%115, %116) <{inclusive = true, kind = #vector.kind<add>, reduction_dim = 0 : i64}> : (vector<13x5xf16>, vector<5xf16>) -> (vector<13x5xf16>, vector<5xf16>)
    %118 = "spirv.GL.FSign"(%80) : (f32) -> f32
    %119 = "arith.remf"(%92, %105) <{fastmath = #arith.fastmath<none>}> : (f32, f32) -> f32
    %120 = "spirv.FOrdGreaterThan"(%1, %9) : (f16, f16) -> i1
    %121 = "math.log2"(%4) <{fastmath = #arith.fastmath<none>}> : (f32) -> f32
    %122 = "spirv.CL.sin"(%82) : (f32) -> f32
    %123 = "math.roundeven"(%62) <{fastmath = #arith.fastmath<none>}> : (tensor<?x?x?xf16>) -> tensor<?x?x?xf16>
    %124 = "spirv.CL.round"(%5) : (f16) -> f16
    %125 = "index.ceildivs"(%26, %36) : (index, index) -> index
    %126 = "spirv.FNegate"(%104) : (f16) -> f16
    %127 = "index.divu"(%25, %35) : (index, index) -> index
    %128 = "index.castu"(%23) : (index) -> i32
    %129 = "vector.flat_transpose"(%100) <{columns = 7 : i32, rows = 2 : i32}> : (vector<14xi1>) -> vector<14xi1>
    %130 = "math.round"(%104) <{fastmath = #arith.fastmath<none>}> : (f16) -> f16
    %131 = "math.expm1"(%107) <{fastmath = #arith.fastmath<none>}> : (f16) -> f16
    %132 = "affine.if"(%41, %26, %27, %38) ({
      %223 = "vector.shuffle"(%97, %102) <{mask = [1]}> : (vector<1xi16>, vector<1xi16>) -> vector<1xi16>
      %224 = "math.tan"(%80) <{fastmath = #arith.fastmath<none>}> : (f32) -> f32
      %225 = "vector.multi_reduction"(%100, %100) <{kind = #vector.kind<xor>, reduction_dims = []}> : (vector<14xi1>, vector<14xi1>) -> vector<14xi1>
      %226 = "index.divu"(%30, %112) : (index, index) -> index
      %227 = "tensor.rank"(%51) : (tensor<?xi1>) -> index
      "memref.assume_alignment"(%74) <{alignment = 16 : i32}> : (memref<?xi64>) -> ()
      %228 = "index.shru"(%227, %40) : (index, index) -> index
      %229 = "index.divs"(%47, %127) : (index, index) -> index
      "affine.yield"(%104) : (f16) -> ()
    }, {
      %223 = "arith.shrsi"(%103, %103) : (i32, i32) -> i32
      %224 = "vector.broadcast"(%33) : (index) -> vector<13xindex>
      %225 = "vector.broadcast"(%0) : (i1) -> vector<13xi1>
      %226 = "vector.broadcast"(%92) : (f32) -> vector<13xf32>
      "vector.scatter"(%79, %16, %19, %20, %224, %225, %226) : (memref<?x13x5xf32>, index, index, index, vector<13xindex>, vector<13xi1>, vector<13xf32>) -> ()
      %227 = "index.mul"(%19, %27) : (index, index) -> index
      %228 = "vector.broadcast"(%88) : (i32) -> vector<5xi32>
      %229 = "vector.broadcast"(%120) : (i1) -> vector<5xi1>
      %230 = "vector.maskedload"(%70, %16, %16, %18, %229, %228) : (memref<?x?x5xi32>, index, index, index, vector<5xi1>, vector<5xi32>) -> vector<5xi32>
      %231 = "index.shrs"(%27, %34) : (index, index) -> index
      %232 = "math.copysign"(%4, %10) <{fastmath = #arith.fastmath<none>}> : (f32, f32) -> f32
      %233 = "index.bool.constant"() <{value = true}> : () -> i1
      %234 = "index.xor"(%125, %18) : (index, index) -> index
      "affine.yield"(%124) : (f16) -> ()
    }) {condition = affine_set<(d0, d1, d2, d3) : (d2 == 0, d0 floordiv 128 >= 0, -d0 >= 0)>} : (index, index, index, index) -> f16
    %133 = "vector.broadcast"(%103) : (i32) -> vector<2xi32>
    %134 = "spirv.BitwiseXor"(%133, %133) : (vector<2xi32>, vector<2xi32>) -> vector<2xi32>
    %135 = "spirv.Unordered"(%4, %92) : (f32, f32) -> i1
    %136 = "spirv.GL.FMin"(%12, %5) : (f16, f16) -> f16
    %137 = "spirv.CL.fabs"(%12) : (f16) -> f16
    %138 = "arith.divf"(%80, %80) <{fastmath = #arith.fastmath<none>}> : (f32, f32) -> f32
    %139 = "spirv.GL.Exp"(%80) : (f32) -> f32
    %140 = "spirv.CL.tanh"(%80) : (f32) -> f32
    %141 = "spirv.CL.log"(%140) : (f32) -> f32
    %142 = "spirv.GL.Round"(%6) : (f32) -> f32
    %143 = "spirv.FNegate"(%136) : (f16) -> f16
    %144 = "memref.alloca"() <{operandSegmentSizes = array<i32: 0, 0>}> : () -> memref<4xi32>
    %145 = "spirv.BitwiseAnd"(%133, %133) : (vector<2xi32>, vector<2xi32>) -> vector<2xi32>
    %146 = "tensor.empty"() : () -> tensor<13xi16>
    %147 = "math.fpowi"(%4, %88) <{fastmath = #arith.fastmath<none>}> : (f32, i32) -> f32
    %148 = "arith.negf"(%142) <{fastmath = #arith.fastmath<none>}> : (f32) -> f32
    %149 = "spirv.GL.SSign"(%110) : (i64) -> i64
    %150 = "math.fma"(%141, %82, %80) <{fastmath = #arith.fastmath<none>}> : (f32, f32, f32) -> f32
    %151 = "spirv.BitwiseXor"(%133, %133) : (vector<2xi32>, vector<2xi32>) -> vector<2xi32>
    %152 = "arith.xori"(%0, %101) : (i1, i1) -> i1
    %153 = "spirv.CL.fabs"(%140) : (f32) -> f32
    %154 = "spirv.FOrdGreaterThanEqual"(%82, %140) : (f32, f32) -> i1
    %155 = "vector.broadcast"(%154) : (i1) -> vector<1xi1>
    %156 = "vector.mask"(%155) ({
      %223 = "vector.multi_reduction"(%102, %102) <{kind = #vector.kind<minui>, reduction_dims = []}> : (vector<1xi16>, vector<1xi16>) -> vector<1xi16>
      "vector.yield"(%223) : (vector<1xi16>) -> ()
    }) : (vector<1xi1>) -> vector<1xi16>
    %157 = "spirv.GL.FAbs"(%105) : (f32) -> f32
    %158 = "tensor.rank"(%48) : (tensor<5x14xi64>) -> index
    %159 = "math.copysign"(%124, %12) <{fastmath = #arith.fastmath<none>}> : (f16, f16) -> f16
    %160 = "spirv.Not"(%11) : (i64) -> i64
    %161 = "index.mul"(%27, %26) : (index, index) -> index
    %162 = "vector.shuffle"(%100, %100) <{mask = [0, 2, 3, 4, 7, 9, 12, 13, 16, 18, 19, 22, 23, 25, 27]}> : (vector<14xi1>, vector<14xi1>) -> vector<15xi1>
    %163 = "affine.apply"(%37, %16, %34) <{map = affine_map<(d0, d1, d2) -> (d2 * 2 + d0 + d1 + 1 - 1)>}> : (index, index, index) -> index
    %164 = "spirv.CL.tanh"(%80) : (f32) -> f32
    %165 = "tensor.insert"(%94, %91, %17, %16, %19) : (i1, tensor<5x4x13xi1>, index, index, index) -> tensor<5x4x13xi1>
    %166 = "bufferization.to_tensor"(%75) : (memref<4x13x5xi16>) -> tensor<4x13x5xi16>
    %167 = "spirv.FUnordLessThanEqual"(%105, %82) : (f32, f32) -> i1
    %168 = "index.sizeof"() : () -> index
    %169 = "spirv.BitwiseOr"(%133, %133) : (vector<2xi32>, vector<2xi32>) -> vector<2xi32>
    %170 = "spirv.CL.round"(%137) : (f16) -> f16
    %171 = "spirv.CL.rsqrt"(%140) : (f32) -> f32
    %172 = "math.fpowi"(%140, %103) <{fastmath = #arith.fastmath<none>}> : (f32, i32) -> f32
    %173 = "memref.cast"(%79) : (memref<?x13x5xf32>) -> memref<13x13x?xf32>
    %174 = "spirv.CL.u_max"(%109, %3) : (i16, i16) -> i16
    %175 = "bufferization.to_tensor"(%70) : (memref<?x?x5xi32>) -> tensor<?x?x5xi32>
    %176 = "vector.flat_transpose"(%129) <{columns = 7 : i32, rows = 2 : i32}> : (vector<14xi1>) -> vector<14xi1>
    %177 = "spirv.IEqual"(%11, %149) : (i64, i64) -> i1
    %178 = "arith.subi"(%15, %167) : (i1, i1) -> i1
    %179 = "spirv.CL.sqrt"(%5) : (f16) -> f16
    %180 = "memref.atomic_rmw"(%80, %71, %17) <{kind = 2 : i64}> : (f32, memref<4xf32>, index) -> f32
    %181 = "math.ctpop"(%54) : (tensor<4xi1>) -> tensor<4xi1>
    %182 = "math.tanh"(%171) <{fastmath = #arith.fastmath<none>}> : (f32) -> f32
    %183 = "index.ceildivs"(%25, %39) : (index, index) -> index
    %184 = "spirv.GL.FSign"(%5) : (f16) -> f16
    %185 = "spirv.CL.erf"(%143) : (f16) -> f16
    %186 = "spirv.IEqual"(%103, %103) : (i32, i32) -> i1
    %187 = "math.fma"(%82, %153, %105) <{fastmath = #arith.fastmath<none>}> : (f32, f32, f32) -> f32
    %188 = "math.cos"(%118) <{fastmath = #arith.fastmath<none>}> : (f32) -> f32
    %189 = "index.divu"(%19, %27) : (index, index) -> index
    %190 = "vector.splat"(%45) : (index) -> vector<5x14xindex>
    %191 = "memref.alloc"() <{operandSegmentSizes = array<i32: 0, 0>}> : () -> memref<4xi64>
    %192 = "tensor.empty"() : () -> tensor<i64>
    %193 = "linalg.dot"(%52, %191, %192) <{operandSegmentSizes = array<i32: 2, 1>}> ({
    ^bb0(%arg0: i64, %arg1: i64, %arg2: i64):
      %223 = "arith.muli"(%arg0, %arg1) : (i64, i64) -> i64
      %224 = "arith.addi"(%arg2, %223) : (i64, i64) -> i64
      "linalg.yield"(%224) : (i64) -> ()
    }) {linalg.memoized_indexing_maps = [affine_map<(d0) -> (d0)>, affine_map<(d0) -> (d0)>, affine_map<(d0) -> ()>]} : (tensor<4xi64>, memref<4xi64>, tensor<i64>) -> tensor<i64>
    %194 = "memref.load"(%70, %16, %16, %17) <{nontemporal = false}> : (memref<?x?x5xi32>, index, index, index) -> i32
    %195 = "spirv.BitwiseXor"(%133, %133) : (vector<2xi32>, vector<2xi32>) -> vector<2xi32>
    %196 = "memref.alloca_scope"() ({
      %223 = "index.xor"(%42, %168) : (index, index) -> index
      %224 = "affine.if"(%25, %38, %37) ({
        "memref.copy"(%72, %68) : (memref<?xi64>, memref<?xi64>) -> ()
        %256 = "affine.max"(%18, %19, %38, %27) <{map = affine_map<(d0, d1, d2, d3) -> (d2 ceildiv 8)>}> : (index, index, index, index) -> index
        "affine.vector_store"(%176, %69, %28, %189, %18) <{map = affine_map<(d0, d1, d2) -> (d0, d1, d2)>}> : (vector<14xi1>, memref<4x13x5xi1>, index, index, index) -> ()
        %257 = "memref.alloc"(%158) <{operandSegmentSizes = array<i32: 1, 0>}> : (index) -> memref<?xi1>
        %258 = "vector.broadcast"(%47) : (index) -> vector<14xindex>
        %259 = "vector.broadcast"(%6) : (f32) -> vector<14xf32>
        "vector.scatter"(%71, %17, %258, %129, %259) : (memref<4xf32>, index, vector<14xindex>, vector<14xi1>, vector<14xf32>) -> ()
        %260 = "arith.cmpf"(%184, %1) <{predicate = 15 : i64}> : (f16, f16) -> i1
        %261 = "vector.splat"(%24) : (index) -> vector<4x13x5xindex>
        %262 = "affine.max"(%34, %41, %183, %17) <{map = affine_map<(d0, d1, d2, d3) -> (d2 - d1)>}> : (index, index, index, index) -> index
        %263 = "memref.alloc"() <{operandSegmentSizes = array<i32: 0, 0>}> : () -> memref<13xi16>
        "affine.yield"(%263) : (memref<13xi16>) -> ()
      }, {
        %256 = "memref.atomic_rmw"(%84, %191, %17) <{kind = 7 : i64}> : (i64, memref<4xi64>, index) -> i64
        %257 = "index.xor"(%223, %125) : (index, index) -> index
        %258 = "arith.ori"(%15, %120) : (i1, i1) -> i1
        %259 = "arith.mulf"(%136, %170) <{fastmath = #arith.fastmath<none>}> : (f16, f16) -> f16
        %260 = "arith.mulf"(%6, %157) <{fastmath = #arith.fastmath<none>}> : (f32, f32) -> f32
        %261 = "index.shl"(%43, %127) : (index, index) -> index
        %262 = "bufferization.clone"(%71) : (memref<4xf32>) -> memref<4xf32>
        %263 = "index.divu"(%127, %43) : (index, index) -> index
        %264 = "memref.alloc"() <{operandSegmentSizes = array<i32: 0, 0>}> : () -> memref<13xi16>
        "affine.yield"(%264) : (memref<13xi16>) -> ()
      }) {condition = affine_set<(d0, d1, d2) : (-(d2 ceildiv 2) >= 0, d2 >= 0)>} : (index, index, index) -> memref<13xi16>
      %225 = "math.roundeven"(%4) <{fastmath = #arith.fastmath<none>}> : (f32) -> f32
      %226 = "math.floor"(%124) <{fastmath = #arith.fastmath<none>}> : (f16) -> f16
      %227 = "index.xor"(%42, %37) : (index, index) -> index
      %228 = "vector.load"(%96, %18) : (memref<4xi32>, index) -> vector<4x13x5xi32>
      %229 = "tensor.empty"() : () -> tensor<70xi64>
      %230 = "tensor.unpack"(%57, %229, %30) <{inner_dims_pos = array<i64: 0>, outer_dims_perm = array<i64: 0>, static_inner_tiles = array<i64: -9223372036854775808>}> : (tensor<5x14xi64>, tensor<70xi64>, index) -> tensor<70xi64>
      %231 = "vector.bitcast"(%228) : (vector<4x13x5xi32>) -> vector<4x13x5xi32>
      %232 = "index.divs"(%41, %16) : (index, index) -> index
      %233 = "index.divu"(%27, %39) : (index, index) -> index
      %234 = "vector.broadcast"(%103) : (i32) -> vector<14xi32>
      %235 = "vector.maskedload"(%67, %16, %176, %234) : (memref<13xi32>, index, vector<14xi1>, vector<14xi32>) -> vector<14xi32>
      %236 = "math.copysign"(%1, %5) <{fastmath = #arith.fastmath<none>}> : (f16, f16) -> f16
      %237 = "memref.realloc"(%71) : (memref<4xf32>) -> memref<14xf32>
      %238 = "math.ctpop"(%11) : (i64) -> i64
      %239 = "index.divs"(%125, %23) : (index, index) -> index
      %240 = "math.tanh"(%170) <{fastmath = #arith.fastmath<none>}> : (f16) -> f16
      %241 = "arith.shrsi"(%14, %15) : (i1, i1) -> i1
      %242 = "math.cos"(%153) <{fastmath = #arith.fastmath<none>}> : (f32) -> f32
      %243 = "tensor.collapse_shape"(%50) <{reassociation = [[0, 1], [2]]}> : (tensor<?x?x5xi1>) -> tensor<?x5xi1>
      %244 = "arith.remf"(%6, %4) <{fastmath = #arith.fastmath<none>}> : (f32, f32) -> f32
      "affine.vector_store"(%100, %65, %36) <{map = affine_map<(d0) -> (d0)>}> : (vector<14xi1>, memref<?xi1>, index) -> ()
      %245 = "arith.mulf"(%105, %92) <{fastmath = #arith.fastmath<none>}> : (f32, f32) -> f32
      %246 = "math.log"(%184) <{fastmath = #arith.fastmath<none>}> : (f16) -> f16
      %247 = "vector.mask"(%129) ({
        %256 = "vector.multi_reduction"(%235, %234) <{kind = #vector.kind<minsi>, reduction_dims = []}> : (vector<14xi32>, vector<14xi32>) -> vector<14xi32>
        "vector.yield"(%256) : (vector<14xi32>) -> ()
      }) : (vector<14xi1>) -> vector<14xi32>
      %248 = "memref.alloc"(%31) <{operandSegmentSizes = array<i32: 1, 0>}> : (index) -> memref<?x14xi32>
      "linalg.broadcast"(%49, %248) <{dimensions = array<i64: 1>}> ({
      ^bb0(%arg0: i32, %arg1: i32):
        "linalg.yield"(%arg0) : (i32) -> ()
      }) : (tensor<?xi32>, memref<?x14xi32>) -> ()
      %249 = "math.atan"(%61) <{fastmath = #arith.fastmath<none>}> : (tensor<?xf32>) -> tensor<?xf32>
      %250 = "vector.shuffle"(%102, %97) <{mask = [0, 1]}> : (vector<1xi16>, vector<1xi16>) -> vector<2xi16>
      %251 = "tensor.empty"(%223) : (index) -> tensor<?xi32>
      %252 = "linalg.map"(%55, %55, %251) ({
      ^bb0(%arg0: i32, %arg1: i32):
        %256 = "arith.addi"(%120, %135) : (i1, i1) -> i1
        %257 = "affine.apply"(%36, %239, %35) <{map = affine_map<(d0, d1, d2) -> (d1 - 128)>}> : (index, index, index) -> index
        "affine.store"(%103, %67, %39) <{map = affine_map<(d0) -> (d0)>}> : (i32, memref<13xi32>, index) -> ()
        %258 = "vector.multi_reduction"(%155, %155) <{kind = #vector.kind<add>, reduction_dims = []}> : (vector<1xi1>, vector<1xi1>) -> vector<1xi1>
        %259 = "math.ctpop"(%175) : (tensor<?x?x5xi32>) -> tensor<?x?x5xi32>
        %260 = "arith.cmpi"(%15, %14) <{predicate = 1 : i64}> : (i1, i1) -> i1
        %261 = "math.ipowi"(%14, %154) : (i1, i1) -> i1
        %262 = "math.log1p"(%184) <{fastmath = #arith.fastmath<none>}> : (f16) -> f16
        %263 = "math.sqrt"(%7) <{fastmath = #arith.fastmath<none>}> : (f16) -> f16
        %264 = "math.atan"(%143) <{fastmath = #arith.fastmath<none>}> : (f16) -> f16
        %265 = "math.fma"(%153, %105, %4) <{fastmath = #arith.fastmath<none>}> : (f32, f32, f32) -> f32
        %266 = "index.maxs"(%45, %36) : (index, index) -> index
        "memref.store"(%88, %248, %16, %29) <{nontemporal = false}> : (i32, memref<?x14xi32>, index, index) -> ()
        %267 = "vector.transfer_read"(%78, %41, %46, %161, %84) <{operandSegmentSizes = array<i32: 1, 3, 1, 0>, permutation_map = affine_map<(d0, d1, d2) -> (d1, d2)>}> : (memref<4x13x5xi64>, index, index, index, i64) -> vector<5x14xi64>
        %268 = "arith.shrsi"(%149, %149) : (i64, i64) -> i64
        %269 = "vector.bitcast"(%235) : (vector<14xi32>) -> vector<14xi32>
        %270 = "arith.mulf"(%105, %171) <{fastmath = #arith.fastmath<none>}> : (f32, f32) -> f32
        %271 = "math.exp"(%59) <{fastmath = #arith.fastmath<none>}> : (tensor<?x13x5xf32>) -> tensor<?x13x5xf32>
        %272 = "math.expm1"(%105) <{fastmath = #arith.fastmath<none>}> : (f32) -> f32
        %273 = "arith.shrui"(%103, %arg1) : (i32, i32) -> i32
        %274 = "vector.broadcast"(%84) : (i64) -> vector<14xi64>
        "vector.compressstore"(%74, %16, %100, %274) : (memref<?xi64>, index, vector<14xi1>, vector<14xi64>) -> ()
        %275 = "vector.broadcast"(%arg0) : (i32) -> vector<i32>
        %276 = "vector.transfer_write"(%275, %49, %19) <{operandSegmentSizes = array<i32: 1, 1, 1, 0>, permutation_map = affine_map<(d0) -> ()>}> : (vector<i32>, tensor<?xi32>, index) -> tensor<?xi32>
        %277 = "index.ceildivs"(%28, %18) : (index, index) -> index
        %278 = "vector.shuffle"(%129, %129) <{mask = [2, 3, 5, 6, 8, 9, 10, 11, 13, 15, 18, 19, 20, 22, 24, 26]}> : (vector<14xi1>, vector<14xi1>) -> vector<16xi1>
        %279 = "arith.subi"(%108, %186) : (i1, i1) -> i1
        %280 = "arith.minsi"(%103, %88) : (i32, i32) -> i32
        %281 = "memref.alloca"(%36) <{operandSegmentSizes = array<i32: 1, 0>}> : (index) -> memref<?xi32>
        %282 = "index.maxu"(%41, %25) : (index, index) -> index
        %283 = "vector.insertelement"(%arg1, %234, %31) : (i32, vector<14xi32>, index) -> vector<14xi32>
        %284 = "affine.apply"(%37, %17, %277, %232, %40) <{map = affine_map<(d0, d1, d2, d3)[s0] -> ((d3 + 2) ceildiv 64)>}> : (index, index, index, index, index) -> index
        %285 = "math.roundeven"(%122) <{fastmath = #arith.fastmath<none>}> : (f32) -> f32
        %286 = "bufferization.clone"(%77) : (memref<4xi32>) -> memref<4xi32>
        "linalg.yield"(%arg0) : (i32) -> ()
      }) : (tensor<?xi32>, tensor<?xi32>, tensor<?xi32>) -> tensor<?xi32>
      %253 = "linalg.copy"(%229, %229) <{operandSegmentSizes = array<i32: 1, 1>}> ({
      ^bb0(%arg0: i64, %arg1: i64):
        "linalg.yield"(%arg0) : (i64) -> ()
      }) : (tensor<70xi64>, tensor<70xi64>) -> tensor<70xi64>
      %254 = "memref.cast"(%76) : (memref<13xi1>) -> memref<13xi1>
      "memref.assume_alignment"(%248) <{alignment = 2 : i32}> : (memref<?x14xi32>) -> ()
      "memref.copy"(%74, %68) : (memref<?xi64>, memref<?xi64>) -> ()
      %255 = "tensor.empty"(%27) : (index) -> tensor<?xi16>
      "memref.alloca_scope.return"(%255) : (tensor<?xi16>) -> ()
    }) : () -> tensor<?xi16>
    "affine.store"(%186, %65, %18) <{map = affine_map<(d0) -> (d0)>}> : (i1, memref<?xi1>, index) -> ()
    %197 = "vector.broadcast"(%44) : (index) -> vector<14xindex>
    "vector.scatter"(%69, %17, %19, %18, %197, %100, %176) : (memref<4x13x5xi1>, index, index, index, vector<14xindex>, vector<14xi1>, vector<14xi1>) -> ()
    %198 = "spirv.CL.rsqrt"(%118) : (f32) -> f32
    %199 = "arith.remf"(%198, %10) <{fastmath = #arith.fastmath<none>}> : (f32, f32) -> f32
    %200 = "vector.broadcast"(%31) : (index) -> vector<5xindex>
    %201 = "vector.broadcast"(%94) : (i1) -> vector<5xi1>
    %202 = "vector.broadcast"(%88) : (i32) -> vector<5xi32>
    "vector.scatter"(%66, %16, %28, %16, %200, %201, %202) : (memref<4x13x5xi32>, index, index, index, vector<5xindex>, vector<5xi1>, vector<5xi32>) -> ()
    %203 = "spirv.CL.s_abs"(%160) : (i64) -> i64
    %204 = "arith.constant"() <{value = 5.497600e+04 : f16}> : () -> f16
    %205 = "spirv.CL.log"(%157) : (f32) -> f32
    %206 = "affine.parallel"() <{lowerBoundsGroups = dense<1> : tensor<3xi32>, lowerBoundsMap = affine_map<() -> (0, 0, 0)>, reductions = [9], steps = [1, 1, 1], upperBoundsGroups = dense<1> : tensor<3xi32>, upperBoundsMap = affine_map<() -> (14, 13, 13)>}> ({
    ^bb0(%arg0: index, %arg1: index, %arg2: index):
      %223 = "index.casts"(%46) : (index) -> i32
      "affine.yield"(%164) : (f32) -> ()
    }) : () -> memref<14x13x13xf32>
    %207 = "spirv.LogicalNotEqual"(%101, %177) : (i1, i1) -> i1
    %208 = "spirv.CL.log"(%153) : (f32) -> f32
    %209 = "spirv.CL.pow"(%185, %137) : (f16, f16) -> f16
    %210 = "math.ctpop"(%57) : (tensor<5x14xi64>) -> tensor<5x14xi64>
    %211 = "index.xor"(%24, %28) : (index, index) -> index
    %212 = "spirv.IsInf"(%157) : (f32) -> i1
    "scf.parallel"(%40, %161, %42, %46, %28, %22) <{operandSegmentSizes = array<i32: 2, 2, 2, 0>}> ({
    ^bb0(%arg0: index, %arg1: index):
      %223 = "vector.bitcast"(%100) : (vector<14xi1>) -> vector<14xi1>
      %224 = "vector.extract"(%155) <{static_position = array<i64: 0>}> : (vector<1xi1>) -> i1
      %225 = "math.ctpop"(%160) : (i64) -> i64
      %226 = "tensor.empty"() : () -> tensor<13x5xf32>
      %227 = "linalg.broadcast"(%56, %226) <{dimensions = array<i64: 1>}> ({
      ^bb0(%arg2: f32, %arg3: f32):
        "linalg.yield"(%arg2) : (f32) -> ()
      }) : (tensor<13xf32>, tensor<13x5xf32>) -> tensor<13x5xf32>
      %228 = "vector.broadcast"(%103) : (i32) -> vector<i32>
      %229 = "vector.transfer_write"(%228, %55, %183) <{operandSegmentSizes = array<i32: 1, 1, 1, 0>, permutation_map = affine_map<(d0) -> ()>}> : (vector<i32>, tensor<?xi32>, index) -> tensor<?xi32>
      %230 = "arith.negf"(%205) <{fastmath = #arith.fastmath<none>}> : (f32) -> f32
      %231 = "math.round"(%209) <{fastmath = #arith.fastmath<none>}> : (f16) -> f16
      "scf.execute_region"() ({
        %240 = "vector.matrix_multiply"(%129, %223) <{lhs_columns = 14 : i32, lhs_rows = 1 : i32, rhs_columns = 1 : i32}> : (vector<14xi1>, vector<14xi1>) -> vector<1xi1>
        %241 = "vector.flat_transpose"(%133) <{columns = 1 : i32, rows = 2 : i32}> : (vector<2xi32>) -> vector<2xi32>
        %242 = "index.and"(%40, %arg0) : (index, index) -> index
        %243 = "math.fpowi"(%143, %103) <{fastmath = #arith.fastmath<none>}> : (f16, i32) -> f16
        %244 = "vector.broadcast"(%205) : (f32) -> vector<13xf32>
        %245 = "vector.fma"(%244, %244, %244) : (vector<13xf32>, vector<13xf32>, vector<13xf32>) -> vector<13xf32>
        %246 = "index.divu"(%19, %42) : (index, index) -> index
        %247 = "vector.splat"(%108) : (i1) -> vector<5x14xi1>
        %248 = "tensor.empty"(%arg0) : (index) -> tensor<?x13xi32>
        %249 = "linalg.broadcast"(%55, %248) <{dimensions = array<i64: 1>}> ({
        ^bb0(%arg2: i32, %arg3: i32):
          "linalg.yield"(%arg2) : (i32) -> ()
        }) : (tensor<?xi32>, tensor<?x13xi32>) -> tensor<?x13xi32>
        %250 = "math.fma"(%170, %7, %104) <{fastmath = #arith.fastmath<none>}> : (f16, f16, f16) -> f16
        %251 = "math.ipowi"(%8, %8) : (i16, i16) -> i16
        %252 = "vector.broadcast"(%183) : (index) -> vector<5xindex>
        %253 = "vector.broadcast"(%212) : (i1) -> vector<5xi1>
        %254 = "vector.broadcast"(%203) : (i64) -> vector<5xi64>
        "vector.scatter"(%74, %16, %252, %253, %254) : (memref<?xi64>, index, vector<5xindex>, vector<5xi1>, vector<5xi64>) -> ()
        "bufferization.dealloc_tensor"(%193) : (tensor<i64>) -> ()
        %255 = "arith.remf"(%143, %5) <{fastmath = #arith.fastmath<none>}> : (f16, f16) -> f16
        %256 = "index.sizeof"() : () -> index
        %257 = "math.tan"(%198) <{fastmath = #arith.fastmath<none>}> : (f32) -> f32
        %258 = "vector.insert"(%177, %176) <{static_position = array<i64: 4>}> : (i1, vector<14xi1>) -> vector<14xi1>
        "scf.yield"() : () -> ()
      }) : () -> ()
      %232 = "math.exp"(%171) <{fastmath = #arith.fastmath<none>}> : (f32) -> f32
      %233 = "arith.floordivsi"(%13, %0) : (i1, i1) -> i1
      %234 = "index.add"(%39, %43) : (index, index) -> index
      %235 = "arith.mulf"(%140, %139) <{fastmath = #arith.fastmath<none>}> : (f32, f32) -> f32
      %236 = "math.ceil"(%111) <{fastmath = #arith.fastmath<none>}> : (tensor<13x13x5xf32>) -> tensor<13x13x5xf32>
      %237 = "memref.load"(%66, %18, %16, %18) <{nontemporal = false}> : (memref<4x13x5xi32>, index, index, index) -> i32
      "vector.warp_execute_on_lane_0"(%16) <{warp_size = 32 : i64}> ({
        %240 = "linalg.transpose"(%63, %52) <{permutation = array<i64: 0>}> ({
        ^bb0(%arg2: i64, %arg3: i64):
          "linalg.yield"(%arg2) : (i64) -> ()
        }) : (tensor<4xi64>, tensor<4xi64>) -> tensor<4xi64>
        %241 = "index.bool.constant"() <{value = false}> : () -> i1
        %242 = "vector.flat_transpose"(%223) <{columns = 7 : i32, rows = 2 : i32}> : (vector<14xi1>) -> vector<14xi1>
        %243 = "arith.muli"(%84, %11) : (i64, i64) -> i64
        %244 = "tensor.collapse_shape"(%111) <{reassociation = [[0, 1], [2]]}> : (tensor<13x13x5xf32>) -> tensor<169x5xf32>
        "affine.vector_store"(%133, %67, %21) <{map = affine_map<(d0) -> (d0)>}> : (vector<2xi32>, memref<13xi32>, index) -> ()
        "affine.store"(%174, %75, %16, %36, %42) <{map = affine_map<(d0, d1, d2) -> (d0, d1, d2)>}> : (i16, memref<4x13x5xi16>, index, index, index) -> ()
        %245 = "math.log2"(%139) <{fastmath = #arith.fastmath<none>}> : (f32) -> f32
        "vector.yield"() : () -> ()
      }) : (index) -> ()
      %238 = "arith.constant"() <{value = 0 : i64}> : () -> i64
      %239 = "vector.transfer_read"(%191, %112, %238) <{operandSegmentSizes = array<i32: 1, 1, 1, 0>, permutation_map = affine_map<(d0) -> ()>}> : (memref<4xi64>, index, i64) -> vector<i64>
      "scf.yield"() : () -> ()
    }) : (index, index, index, index, index, index) -> ()
    %213 = "spirv.GL.Pow"(%12, %126) : (f16, f16) -> f16
    %214 = "memref.alloc"(%19) <{operandSegmentSizes = array<i32: 1, 0>}> : (index) -> memref<?xi32>
    "linalg.transpose"(%55, %214) <{permutation = array<i64: 0>}> ({
    ^bb0(%arg0: i32, %arg1: i32):
      "linalg.yield"(%arg0) : (i32) -> ()
    }) : (tensor<?xi32>, memref<?xi32>) -> ()
    %215 = "spirv.IEqual"(%103, %103) : (i32, i32) -> i1
    %216 = "spirv.CL.s_max"(%84, %160) : (i64, i64) -> i64
    %217 = "tensor.from_elements"(%143, %209, %12, %126) : (f16, f16, f16, f16) -> tensor<4xf16>
    %218 = "linalg.copy"(%192, %192) <{operandSegmentSizes = array<i32: 1, 1>}> ({
    ^bb0(%arg0: i64, %arg1: i64):
      "linalg.yield"(%arg0) : (i64) -> ()
    }) : (tensor<i64>, tensor<i64>) -> tensor<i64>
    %219 = "vector.broadcast"(%126) : (f16) -> vector<5x14xf16>
    %220 = "vector.broadcast"(%135) : (i1) -> vector<5x14xi1>
    %221 = "vector.broadcast"(%88) : (i32) -> vector<5x14xi32>
    %222 = "vector.gather"(%217, %23, %221, %220, %219) : (tensor<4xf16>, index, vector<5x14xi32>, vector<5x14xi1>, vector<5x14xf16>) -> vector<5x14xf16>
    "vector.print"(%97) <{punctuation = #vector.punctuation<newline>}> : (vector<1xi16>) -> ()
    "vector.print"(%99) <{punctuation = #vector.punctuation<newline>}> : (vector<14xi1>) -> ()
    "vector.print"(%100) <{punctuation = #vector.punctuation<newline>}> : (vector<14xi1>) -> ()
    "vector.print"(%102) <{punctuation = #vector.punctuation<newline>}> : (vector<1xi16>) -> ()
    "vector.print"(%113) <{punctuation = #vector.punctuation<newline>}> : (vector<f32>) -> ()
    "vector.print"(%129) <{punctuation = #vector.punctuation<newline>}> : (vector<14xi1>) -> ()
    "vector.print"(%133) <{punctuation = #vector.punctuation<newline>}> : (vector<2xi32>) -> ()
    "vector.print"(%155) <{punctuation = #vector.punctuation<newline>}> : (vector<1xi1>) -> ()
    "vector.print"(%176) <{punctuation = #vector.punctuation<newline>}> : (vector<14xi1>) -> ()
    "vector.print"(%219) <{punctuation = #vector.punctuation<newline>}> : (vector<5x14xf16>) -> ()
    "vector.print"(%220) <{punctuation = #vector.punctuation<newline>}> : (vector<5x14xi1>) -> ()
    "vector.print"(%221) <{punctuation = #vector.punctuation<newline>}> : (vector<5x14xi32>) -> ()
    "vector.print"(%222) <{punctuation = #vector.punctuation<newline>}> : (vector<5x14xf16>) -> ()
    "vector.print"(%0) <{punctuation = #vector.punctuation<newline>}> : (i1) -> ()
    "vector.print"(%1) <{punctuation = #vector.punctuation<newline>}> : (f16) -> ()
    "vector.print"(%2) <{punctuation = #vector.punctuation<newline>}> : (i64) -> ()
    "vector.print"(%3) <{punctuation = #vector.punctuation<newline>}> : (i16) -> ()
    "vector.print"(%4) <{punctuation = #vector.punctuation<newline>}> : (f32) -> ()
    "vector.print"(%5) <{punctuation = #vector.punctuation<newline>}> : (f16) -> ()
    "vector.print"(%6) <{punctuation = #vector.punctuation<newline>}> : (f32) -> ()
    "vector.print"(%7) <{punctuation = #vector.punctuation<newline>}> : (f16) -> ()
    "vector.print"(%8) <{punctuation = #vector.punctuation<newline>}> : (i16) -> ()
    "vector.print"(%9) <{punctuation = #vector.punctuation<newline>}> : (f16) -> ()
    "vector.print"(%10) <{punctuation = #vector.punctuation<newline>}> : (f32) -> ()
    "vector.print"(%11) <{punctuation = #vector.punctuation<newline>}> : (i64) -> ()
    "vector.print"(%12) <{punctuation = #vector.punctuation<newline>}> : (f16) -> ()
    "vector.print"(%13) <{punctuation = #vector.punctuation<newline>}> : (i1) -> ()
    "vector.print"(%14) <{punctuation = #vector.punctuation<newline>}> : (i1) -> ()
    "vector.print"(%15) <{punctuation = #vector.punctuation<newline>}> : (i1) -> ()
    "vector.print"(%80) <{punctuation = #vector.punctuation<newline>}> : (f32) -> ()
    "vector.print"(%82) <{punctuation = #vector.punctuation<newline>}> : (f32) -> ()
    "vector.print"(%84) <{punctuation = #vector.punctuation<newline>}> : (i64) -> ()
    "vector.print"(%88) <{punctuation = #vector.punctuation<newline>}> : (i32) -> ()
    "vector.print"(%92) <{punctuation = #vector.punctuation<newline>}> : (f32) -> ()
    "vector.print"(%94) <{punctuation = #vector.punctuation<newline>}> : (i1) -> ()
    "vector.print"(%101) <{punctuation = #vector.punctuation<newline>}> : (i1) -> ()
    "vector.print"(%103) <{punctuation = #vector.punctuation<newline>}> : (i32) -> ()
    "vector.print"(%104) <{punctuation = #vector.punctuation<newline>}> : (f16) -> ()
    "vector.print"(%105) <{punctuation = #vector.punctuation<newline>}> : (f32) -> ()
    "vector.print"(%107) <{punctuation = #vector.punctuation<newline>}> : (f16) -> ()
    "vector.print"(%108) <{punctuation = #vector.punctuation<newline>}> : (i1) -> ()
    "vector.print"(%109) <{punctuation = #vector.punctuation<newline>}> : (i16) -> ()
    "vector.print"(%110) <{punctuation = #vector.punctuation<newline>}> : (i64) -> ()
    "vector.print"(%118) <{punctuation = #vector.punctuation<newline>}> : (f32) -> ()
    "vector.print"(%120) <{punctuation = #vector.punctuation<newline>}> : (i1) -> ()
    "vector.print"(%122) <{punctuation = #vector.punctuation<newline>}> : (f32) -> ()
    "vector.print"(%124) <{punctuation = #vector.punctuation<newline>}> : (f16) -> ()
    "vector.print"(%126) <{punctuation = #vector.punctuation<newline>}> : (f16) -> ()
    "vector.print"(%135) <{punctuation = #vector.punctuation<newline>}> : (i1) -> ()
    "vector.print"(%136) <{punctuation = #vector.punctuation<newline>}> : (f16) -> ()
    "vector.print"(%137) <{punctuation = #vector.punctuation<newline>}> : (f16) -> ()
    "vector.print"(%139) <{punctuation = #vector.punctuation<newline>}> : (f32) -> ()
    "vector.print"(%140) <{punctuation = #vector.punctuation<newline>}> : (f32) -> ()
    "vector.print"(%141) <{punctuation = #vector.punctuation<newline>}> : (f32) -> ()
    "vector.print"(%142) <{punctuation = #vector.punctuation<newline>}> : (f32) -> ()
    "vector.print"(%143) <{punctuation = #vector.punctuation<newline>}> : (f16) -> ()
    "vector.print"(%149) <{punctuation = #vector.punctuation<newline>}> : (i64) -> ()
    "vector.print"(%153) <{punctuation = #vector.punctuation<newline>}> : (f32) -> ()
    "vector.print"(%154) <{punctuation = #vector.punctuation<newline>}> : (i1) -> ()
    "vector.print"(%157) <{punctuation = #vector.punctuation<newline>}> : (f32) -> ()
    "vector.print"(%160) <{punctuation = #vector.punctuation<newline>}> : (i64) -> ()
    "vector.print"(%164) <{punctuation = #vector.punctuation<newline>}> : (f32) -> ()
    "vector.print"(%167) <{punctuation = #vector.punctuation<newline>}> : (i1) -> ()
    "vector.print"(%170) <{punctuation = #vector.punctuation<newline>}> : (f16) -> ()
    "vector.print"(%171) <{punctuation = #vector.punctuation<newline>}> : (f32) -> ()
    "vector.print"(%174) <{punctuation = #vector.punctuation<newline>}> : (i16) -> ()
    "vector.print"(%177) <{punctuation = #vector.punctuation<newline>}> : (i1) -> ()
    "vector.print"(%179) <{punctuation = #vector.punctuation<newline>}> : (f16) -> ()
    "vector.print"(%184) <{punctuation = #vector.punctuation<newline>}> : (f16) -> ()
    "vector.print"(%185) <{punctuation = #vector.punctuation<newline>}> : (f16) -> ()
    "vector.print"(%186) <{punctuation = #vector.punctuation<newline>}> : (i1) -> ()
    "vector.print"(%198) <{punctuation = #vector.punctuation<newline>}> : (f32) -> ()
    "vector.print"(%203) <{punctuation = #vector.punctuation<newline>}> : (i64) -> ()
    "vector.print"(%205) <{punctuation = #vector.punctuation<newline>}> : (f32) -> ()
    "vector.print"(%207) <{punctuation = #vector.punctuation<newline>}> : (i1) -> ()
    "vector.print"(%208) <{punctuation = #vector.punctuation<newline>}> : (f32) -> ()
    "vector.print"(%209) <{punctuation = #vector.punctuation<newline>}> : (f16) -> ()
    "vector.print"(%212) <{punctuation = #vector.punctuation<newline>}> : (i1) -> ()
    "vector.print"(%213) <{punctuation = #vector.punctuation<newline>}> : (f16) -> ()
    "vector.print"(%215) <{punctuation = #vector.punctuation<newline>}> : (i1) -> ()
    "vector.print"(%216) <{punctuation = #vector.punctuation<newline>}> : (i64) -> ()
    "func.return"() : () -> ()
  }) : () -> ()
  "func.func"() <{function_type = (index, tensor<?xf16>, memref<?x13x5xi1>) -> (), sym_name = "func2", sym_visibility = "nested"}> ({
  ^bb0(%arg0: index, %arg1: tensor<?xf16>, %arg2: memref<?x13x5xi1>):
    %0 = "arith.constant"() <{value = true}> : () -> i1
    %1 = "arith.constant"() <{value = 4.537600e+04 : f16}> : () -> f16
    %2 = "arith.constant"() <{value = 1744215945 : i64}> : () -> i64
    %3 = "arith.constant"() <{value = 23669 : i16}> : () -> i16
    %4 = "arith.constant"() <{value = 1.30309133E+9 : f32}> : () -> f32
    %5 = "arith.constant"() <{value = 6.441600e+04 : f16}> : () -> f16
    %6 = "arith.constant"() <{value = 0x4DB0D1B6 : f32}> : () -> f32
    %7 = "arith.constant"() <{value = 5.907200e+04 : f16}> : () -> f16
    %8 = "arith.constant"() <{value = -8308 : i16}> : () -> i16
    %9 = "arith.constant"() <{value = 4.720000e+04 : f16}> : () -> f16
    %10 = "arith.constant"() <{value = 1.10696013E+9 : f32}> : () -> f32
    %11 = "arith.constant"() <{value = 910136434 : i64}> : () -> i64
    %12 = "arith.constant"() <{value = 2.217600e+04 : f16}> : () -> f16
    %13 = "arith.constant"() <{value = false}> : () -> i1
    %14 = "arith.constant"() <{value = true}> : () -> i1
    %15 = "arith.constant"() <{value = true}> : () -> i1
    %16 = "arith.constant"() <{value = 0 : index}> : () -> index
    %17 = "arith.constant"() <{value = 1 : index}> : () -> index
    %18 = "arith.constant"() <{value = 2 : index}> : () -> index
    %19 = "arith.constant"() <{value = 3 : index}> : () -> index
    %20 = "arith.constant"() <{value = 4 : index}> : () -> index
    %21 = "arith.constant"() <{value = 5 : index}> : () -> index
    %22 = "arith.constant"() <{value = 6 : index}> : () -> index
    %23 = "arith.constant"() <{value = 7 : index}> : () -> index
    %24 = "arith.constant"() <{value = 8 : index}> : () -> index
    %25 = "arith.constant"() <{value = 9 : index}> : () -> index
    %26 = "arith.constant"() <{value = 10 : index}> : () -> index
    %27 = "arith.constant"() <{value = 11 : index}> : () -> index
    %28 = "arith.constant"() <{value = 12 : index}> : () -> index
    %29 = "arith.constant"() <{value = 13 : index}> : () -> index
    %30 = "arith.constant"() <{value = 14 : index}> : () -> index
    %31 = "arith.constant"() <{value = 15 : index}> : () -> index
    %32 = "arith.constant"() <{value = 16 : index}> : () -> index
    %33 = "arith.constant"() <{value = 17 : index}> : () -> index
    %34 = "arith.constant"() <{value = 18 : index}> : () -> index
    %35 = "arith.constant"() <{value = 19 : index}> : () -> index
    %36 = "arith.constant"() <{value = 20 : index}> : () -> index
    %37 = "arith.constant"() <{value = 21 : index}> : () -> index
    %38 = "arith.constant"() <{value = 22 : index}> : () -> index
    %39 = "arith.constant"() <{value = 23 : index}> : () -> index
    %40 = "arith.constant"() <{value = 24 : index}> : () -> index
    %41 = "arith.constant"() <{value = 25 : index}> : () -> index
    %42 = "arith.constant"() <{value = 26 : index}> : () -> index
    %43 = "arith.constant"() <{value = 27 : index}> : () -> index
    %44 = "arith.constant"() <{value = 28 : index}> : () -> index
    %45 = "arith.constant"() <{value = 29 : index}> : () -> index
    %46 = "arith.constant"() <{value = 30 : index}> : () -> index
    %47 = "arith.constant"() <{value = 31 : index}> : () -> index
    %48 = "tensor.empty"() : () -> tensor<5x14xi64>
    %49 = "tensor.empty"(%16) : (index) -> tensor<?xi32>
    %50 = "tensor.empty"(%46, %35) : (index, index) -> tensor<?x?x5xi1>
    %51 = "tensor.empty"(%37) : (index) -> tensor<?xi1>
    %52 = "tensor.empty"() : () -> tensor<4xi64>
    %53 = "tensor.empty"() : () -> tensor<4x13x5xi1>
    %54 = "tensor.empty"() : () -> tensor<4xi1>
    %55 = "tensor.empty"(%25) : (index) -> tensor<?xi32>
    %56 = "tensor.empty"() : () -> tensor<13xf32>
    %57 = "tensor.empty"() : () -> tensor<5x14xi64>
    %58 = "tensor.empty"() : () -> tensor<5x14xi16>
    %59 = "tensor.empty"(%47) : (index) -> tensor<?x13x5xf32>
    %60 = "tensor.empty"() : () -> tensor<13xi16>
    %61 = "tensor.empty"(%30) : (index) -> tensor<?xf32>
    %62 = "tensor.empty"(%31, %36, %23) : (index, index, index) -> tensor<?x?x?xf16>
    %63 = "tensor.empty"() : () -> tensor<4xi64>
    %64 = "memref.alloc"() <{operandSegmentSizes = array<i32: 0, 0>}> : () -> memref<4x13x5xi1>
    %65 = "memref.alloc"(%30) <{operandSegmentSizes = array<i32: 1, 0>}> : (index) -> memref<?xi1>
    %66 = "memref.alloc"() <{operandSegmentSizes = array<i32: 0, 0>}> : () -> memref<4x13x5xi32>
    %67 = "memref.alloc"() <{operandSegmentSizes = array<i32: 0, 0>}> : () -> memref<13xi32>
    %68 = "memref.alloc"(%43) <{operandSegmentSizes = array<i32: 1, 0>}> : (index) -> memref<?xi64>
    %69 = "memref.alloc"() <{operandSegmentSizes = array<i32: 0, 0>}> : () -> memref<4x13x5xi1>
    %70 = "memref.alloc"(%38, %35) <{operandSegmentSizes = array<i32: 2, 0>}> : (index, index) -> memref<?x?x5xi32>
    %71 = "memref.alloc"() <{operandSegmentSizes = array<i32: 0, 0>}> : () -> memref<4xf32>
    %72 = "memref.alloc"(%22) <{operandSegmentSizes = array<i32: 1, 0>}> : (index) -> memref<?xi64>
    %73 = "memref.alloc"() <{operandSegmentSizes = array<i32: 0, 0>}> : () -> memref<5x14xi1>
    %74 = "memref.alloc"(%36) <{operandSegmentSizes = array<i32: 1, 0>}> : (index) -> memref<?xi64>
    %75 = "memref.alloc"() <{operandSegmentSizes = array<i32: 0, 0>}> : () -> memref<4x13x5xi16>
    %76 = "memref.alloc"() <{operandSegmentSizes = array<i32: 0, 0>}> : () -> memref<13xi1>
    %77 = "memref.alloc"() <{operandSegmentSizes = array<i32: 0, 0>}> : () -> memref<4xi32>
    %78 = "memref.alloc"() <{operandSegmentSizes = array<i32: 0, 0>}> : () -> memref<4x13x5xi64>
    %79 = "memref.alloc"(%40) <{operandSegmentSizes = array<i32: 1, 0>}> : (index) -> memref<?x13x5xf32>
    %80 = "scf.execute_region"() ({
      %212 = "bufferization.clone"(%69) : (memref<4x13x5xi1>) -> memref<4x13x5xi1>
      %213 = "vector.broadcast"(%12) : (f16) -> vector<5xf16>
      %214 = "vector.reduction"(%213) <{fastmath = #arith.fastmath<none>, kind = #vector.kind<add>}> : (vector<5xf16>) -> f16
      %215 = "index.xor"(%27, %38) : (index, index) -> index
      %216 = "arith.mulf"(%6, %4) <{fastmath = #arith.fastmath<none>}> : (f32, f32) -> f32
      %217 = "tensor.cast"(%52) : (tensor<4xi64>) -> tensor<?xi64>
      %218 = "vector.transfer_read"(%78, %40, %37, %32, %11) <{operandSegmentSizes = array<i32: 1, 3, 1, 0>, permutation_map = affine_map<(d0, d1, d2) -> (d2)>}> : (memref<4x13x5xi64>, index, index, index, i64) -> vector<5xi64>
      %219 = "math.fma"(%6, %10, %6) <{fastmath = #arith.fastmath<none>}> : (f32, f32, f32) -> f32
      %220 = "tensor.insert"(%2, %217, %16) : (i64, tensor<?xi64>, index) -> tensor<?xi64>
      %221 = "scf.while"(%73) ({
      ^bb0(%arg3: memref<5x14xi1>):
        %231 = "index.casts"(%2) : (i64) -> index
        %232 = "memref.alloc"() <{operandSegmentSizes = array<i32: 0, 0>}> : () -> memref<5x14xi16>
        %233 = "vector.broadcast"(%6) : (f32) -> vector<1xf32>
        %234 = "vector.broadcast"(%14) : (i1) -> vector<1xi1>
        %235 = "vector.mask"(%234) ({
          %241 = "vector.multi_reduction"(%233, %233) <{kind = #vector.kind<mul>, reduction_dims = []}> : (vector<1xf32>, vector<1xf32>) -> vector<1xf32>
          "vector.yield"(%241) : (vector<1xf32>) -> ()
        }) : (vector<1xi1>) -> vector<1xf32>
        %236 = "math.ctpop"(%53) : (tensor<4x13x5xi1>) -> tensor<4x13x5xi1>
        %237 = "arith.minsi"(%8, %3) : (i16, i16) -> i16
        %238 = "tensor.collapse_shape"(%53) <{reassociation = [[0, 1], [2]]}> : (tensor<4x13x5xi1>) -> tensor<52x5xi1>
        %239 = "index.and"(%34, %23) : (index, index) -> index
        %240 = "arith.cmpf"(%9, %9) <{predicate = 4 : i64}> : (f16, f16) -> i1
        "scf.condition"(%13, %arg3) : (i1, memref<5x14xi1>) -> ()
      }, {
      ^bb0(%arg3: memref<5x14xi1>):
        %231 = "vector.broadcast"(%13) : (i1) -> vector<4xi1>
        %232 = "vector.broadcast"(%14) : (i1) -> vector<4x4xi1>
        %233 = "vector.outerproduct"(%231, %231, %232) <{kind = #vector.kind<minui>}> : (vector<4xi1>, vector<4xi1>, vector<4x4xi1>) -> vector<4x4xi1>
        %234 = "arith.constant"() <{value = 0 : i32}> : () -> i32
        %235 = "vector.broadcast"(%234) : (i32) -> vector<i32>
        %236 = "vector.transfer_write"(%235, %55, %47) <{operandSegmentSizes = array<i32: 1, 1, 1, 0>, permutation_map = affine_map<(d0) -> ()>}> : (vector<i32>, tensor<?xi32>, index) -> tensor<?xi32>
        %237 = "index.divu"(%39, %44) : (index, index) -> index
        %238 = "math.log"(%6) <{fastmath = #arith.fastmath<none>}> : (f32) -> f32
        %239 = "math.roundeven"(%1) <{fastmath = #arith.fastmath<none>}> : (f16) -> f16
        %240 = "affine.apply"(%215, %215, %237, %43) <{map = affine_map<(d0, d1, d2, d3) -> (d2 - d1)>}> : (index, index, index, index) -> index
        %241 = "vector.load"(%70, %16, %16, %20) : (memref<?x?x5xi32>, index, index, index) -> vector<4xi32>
        %242 = "index.add"(%32, %37) : (index, index) -> index
        %243 = "math.log1p"(%10) <{fastmath = #arith.fastmath<none>}> : (f32) -> f32
        %244 = "arith.cmpf"(%10, %6) <{predicate = 8 : i64}> : (f32, f32) -> i1
        %245 = "index.sub"(%240, %arg0) : (index, index) -> index
        %246 = "bufferization.clone"(%66) : (memref<4x13x5xi32>) -> memref<4x13x5xi32>
        %247 = "index.maxu"(%19, %29) : (index, index) -> index
        "memref.copy"(%70, %70) : (memref<?x?x5xi32>, memref<?x?x5xi32>) -> ()
        %248 = "math.copysign"(%12, %12) <{fastmath = #arith.fastmath<none>}> : (f16, f16) -> f16
        %249 = "arith.muli"(%14, %14) : (i1, i1) -> i1
        "scf.yield"(%73) : (memref<5x14xi1>) -> ()
      }) : (memref<5x14xi1>) -> memref<5x14xi1>
      %222 = "arith.constant"() <{value = 0 : i32}> : () -> i32
      %223 = "vector.broadcast"(%222) : (i32) -> vector<4xi32>
      %224 = "vector.broadcast"(%6) : (f32) -> vector<5x14xf32>
      %225 = "vector.fma"(%224, %224, %224) : (vector<5x14xf32>, vector<5x14xf32>, vector<5x14xf32>) -> vector<5x14xf32>
      %226 = "index.or"(%16, %42) : (index, index) -> index
      "bufferization.dealloc_tensor"(%61) : (tensor<?xf32>) -> ()
      "scf.parallel"(%41, %34, %25) <{operandSegmentSizes = array<i32: 1, 1, 1, 0>}> ({
      ^bb0(%arg3: index):
        %231 = "index.add"(%24, %215) : (index, index) -> index
        %232 = "vector.broadcast"(%6) : (f32) -> vector<13xf32>
        %233 = "vector.fma"(%232, %232, %232) : (vector<13xf32>, vector<13xf32>, vector<13xf32>) -> vector<13xf32>
        %234 = "tensor.empty"(%23) : (index) -> tensor<5x?x13xf32>
        %235 = "linalg.transpose"(%59, %234) <{permutation = array<i64: 2, 0, 1>}> ({
        ^bb0(%arg4: f32, %arg5: f32):
          "linalg.yield"(%arg4) : (f32) -> ()
        }) : (tensor<?x13x5xf32>, tensor<5x?x13xf32>) -> tensor<5x?x13xf32>
        %236 = "linalg.copy"(%48, %57) <{operandSegmentSizes = array<i32: 1, 1>}> ({
        ^bb0(%arg4: i64, %arg5: i64):
          "linalg.yield"(%arg4) : (i64) -> ()
        }) : (tensor<5x14xi64>, tensor<5x14xi64>) -> tensor<5x14xi64>
        %237 = "math.roundeven"(%62) <{fastmath = #arith.fastmath<none>}> : (tensor<?x?x?xf16>) -> tensor<?x?x?xf16>
        %238 = "arith.shrui"(%222, %222) : (i32, i32) -> i32
        "memref.copy"(%arg2, %arg2) : (memref<?x13x5xi1>, memref<?x13x5xi1>) -> ()
        %239 = "tensor.dim"(%217, %16) : (tensor<?xi64>, index) -> index
        %240 = "math.atan2"(%7, %9) <{fastmath = #arith.fastmath<none>}> : (f16, f16) -> f16
        %241 = "tensor.cast"(%51) : (tensor<?xi1>) -> tensor<5xi1>
        %242 = "arith.cmpi"(%15, %14) <{predicate = 3 : i64}> : (i1, i1) -> i1
        "affine.vector_store"(%233, %79, %22, %35, %35) <{map = affine_map<(d0, d1, d2) -> (d0, d1, d2)>}> : (vector<13xf32>, memref<?x13x5xf32>, index, index, index) -> ()
        %243 = "tensor.empty"() : () -> tensor<4xi1>
        %244 = "memref.realloc"(%71) : (memref<4xf32>) -> memref<14xf32>
        %245 = "vector.splat"(%3) : (i16) -> vector<4x13x5xi16>
        %246 = "tensor.insert"(%2, %63, %17) : (i64, tensor<4xi64>, index) -> tensor<4xi64>
        "scf.yield"() : () -> ()
      }) : (index, index, index) -> ()
      %227 = "arith.mulf"(%6, %10) <{fastmath = #arith.fastmath<none>}> : (f32, f32) -> f32
      %228 = "math.tanh"(%5) <{fastmath = #arith.fastmath<none>}> : (f16) -> f16
      %229 = "index.floordivs"(%40, %16) : (index, index) -> index
      %230 = "tensor.empty"(%37) : (index) -> tensor<?x14xi1>
      "scf.yield"(%230) : (tensor<?x14xi1>) -> ()
    }) : () -> tensor<?x14xi1>
    %81 = "index.or"(%45, %44) : (index, index) -> index
    %82 = "arith.constant"() <{value = 1 : i32}> : () -> i32
    %83 = "vector.broadcast"(%82) : (i32) -> vector<2xi32>
    %84 = "spirv.BitwiseOr"(%83, %83) : (vector<2xi32>, vector<2xi32>) -> vector<2xi32>
    %85 = "spirv.FUnordLessThanEqual"(%5, %5) : (f16, f16) -> i1
    %86 = "scf.while"(%0) ({
    ^bb0(%arg3: i1):
      %212 = "math.roundeven"(%5) <{fastmath = #arith.fastmath<none>}> : (f16) -> f16
      %213 = "vector.shuffle"(%83, %83) <{mask = [0, 1, 2, 3]}> : (vector<2xi32>, vector<2xi32>) -> vector<4xi32>
      %214 = "math.tanh"(%1) <{fastmath = #arith.fastmath<none>}> : (f16) -> f16
      %215 = "affine.apply"(%37, %33) <{map = affine_map<(d0)[s0] -> (0)>}> : (index, index) -> index
      %216 = "index.casts"(%32) : (index) -> i32
      %217 = "arith.remf"(%10, %10) <{fastmath = #arith.fastmath<none>}> : (f32, f32) -> f32
      %218 = "vector.broadcast"(%arg3) : (i1) -> vector<13xi1>
      %219 = "vector.maskedload"(%73, %19, %16, %218, %218) : (memref<5x14xi1>, index, index, vector<13xi1>, vector<13xi1>) -> vector<13xi1>
      %220 = "affine.for"(%35) <{lowerBoundMap = affine_map<() -> (0)>, operandSegmentSizes = array<i32: 0, 0, 1>, step = 1 : index, upperBoundMap = affine_map<() -> (123)>}> ({
      ^bb0(%arg4: index, %arg5: index):
        "affine.yield"(%29) : (index) -> ()
      }) : (index) -> index
      "scf.condition"(%0, %15) : (i1, i1) -> ()
    }, {
    ^bb0(%arg3: i1):
      %212 = "bufferization.to_tensor"(%76) : (memref<13xi1>) -> tensor<13xi1>
      %213 = "affine.load"(%74, %44) <{map = affine_map<(d0) -> (d0)>}> : (memref<?xi64>, index) -> i64
      %214 = "arith.subi"(%14, %arg3) : (i1, i1) -> i1
      %215 = "vector.insertelement"(%82, %83, %21) : (i32, vector<2xi32>, index) -> vector<2xi32>
      %216 = "scf.parallel"(%41, %27, %32, %43, %47, %39, %60) <{operandSegmentSizes = array<i32: 2, 2, 2, 1>}> ({
      ^bb0(%arg4: index, %arg5: index):
        %233 = "index.mul"(%30, %23) : (index, index) -> index
        %234 = "vector.broadcast"(%3) : (i16) -> vector<13x14xi16>
        %235 = "vector.broadcast"(%8) : (i16) -> vector<14xi16>
        %236:2 = "vector.scan"(%234, %235) <{inclusive = true, kind = #vector.kind<maxsi>, reduction_dim = 0 : i64}> : (vector<13x14xi16>, vector<14xi16>) -> (vector<13x14xi16>, vector<14xi16>)
        %237 = "index.and"(%arg5, %27) : (index, index) -> index
        %238 = "math.powf"(%4, %10) <{fastmath = #arith.fastmath<none>}> : (f32, f32) -> f32
        %239 = "memref.cast"(%69) : (memref<4x13x5xi1>) -> memref<?x13x?xi1>
        %240 = "arith.remf"(%12, %9) <{fastmath = #arith.fastmath<none>}> : (f16, f16) -> f16
        %241 = "index.maxs"(%45, %17) : (index, index) -> index
        %242 = "vector.broadcast"(%7) : (f16) -> vector<f16>
        %243 = "vector.transfer_write"(%242, %62, %40, %39, %28) <{operandSegmentSizes = array<i32: 1, 1, 3, 0>, permutation_map = affine_map<(d0, d1, d2) -> ()>}> : (vector<f16>, tensor<?x?x?xf16>, index, index, index) -> tensor<?x?x?xf16>
        %244 = "arith.cmpi"(%arg3, %13) <{predicate = 4 : i64}> : (i1, i1) -> i1
        %245 = "arith.mulf"(%7, %1) <{fastmath = #arith.fastmath<none>}> : (f16, f16) -> f16
        %246 = "arith.remf"(%10, %6) <{fastmath = #arith.fastmath<none>}> : (f32, f32) -> f32
        %247 = "vector.broadcast"(%2) : (i64) -> vector<i64>
        %248 = "vector.transfer_write"(%247, %63, %27) <{operandSegmentSizes = array<i32: 1, 1, 1, 0>, permutation_map = affine_map<(d0) -> ()>}> : (vector<i64>, tensor<4xi64>, index) -> tensor<4xi64>
        %249 = "vector.load"(%76, %25) : (memref<13xi1>, index) -> vector<4x13x5xi1>
        "affine.store"(%82, %66, %19, %21, %26) <{map = affine_map<(d0, d1, d2) -> (d0, d1, d2)>}> : (i32, memref<4x13x5xi32>, index, index, index) -> ()
        %250 = "vector.load"(%68, %16) : (memref<?xi64>, index) -> vector<5x14xi64>
        %251 = "arith.divf"(%6, %4) <{fastmath = #arith.fastmath<none>}> : (f32, f32) -> f32
        "scf.reduce"(%60) ({
        ^bb0(%arg6: tensor<13xi16>, %arg7: tensor<13xi16>):
          %252 = "arith.mulf"(%7, %7) <{fastmath = #arith.fastmath<none>}> : (f16, f16) -> f16
          %253 = "arith.shrui"(%82, %82) : (i32, i32) -> i32
          %254 = "arith.remf"(%10, %10) <{fastmath = #arith.fastmath<none>}> : (f32, f32) -> f32
          %255 = "arith.cmpi"(%3, %3) <{predicate = 5 : i64}> : (i16, i16) -> i1
          %256 = "math.ctlz"(%60) : (tensor<13xi16>) -> tensor<13xi16>
          %257 = "bufferization.to_tensor"(%69) : (memref<4x13x5xi1>) -> tensor<4x13x5xi1>
          %258 = "arith.addf"(%1, %7) <{fastmath = #arith.fastmath<none>}> : (f16, f16) -> f16
          "memref.store"(%11, %72, %16) <{nontemporal = false}> : (i64, memref<?xi64>, index) -> ()
          "scf.reduce.return"(%60) : (tensor<13xi16>) -> ()
        }) : (tensor<13xi16>) -> ()
        "scf.yield"() : () -> ()
      }) : (index, index, index, index, index, index, tensor<13xi16>) -> tensor<13xi16>
      %217 = "linalg.copy"(%48, %48) <{operandSegmentSizes = array<i32: 1, 1>}> ({
      ^bb0(%arg4: i64, %arg5: i64):
        "linalg.yield"(%arg4) : (i64) -> ()
      }) : (tensor<5x14xi64>, tensor<5x14xi64>) -> tensor<5x14xi64>
      %218 = "tensor.empty"() : () -> tensor<4x13x5xi1>
      %219 = "linalg.map"(%64, %64, %218) ({
      ^bb0(%arg4: i1, %arg5: i1):
        %233 = "math.floor"(%1) <{fastmath = #arith.fastmath<none>}> : (f16) -> f16
        %234 = "index.xor"(%43, %41) : (index, index) -> index
        %235 = "memref.alloc"() <{operandSegmentSizes = array<i32: 0, 0>}> : () -> memref<4x13x5xi32>
        %236 = "index.bool.constant"() <{value = false}> : () -> i1
        %237 = "arith.xori"(%13, %arg5) : (i1, i1) -> i1
        %238 = "arith.ori"(%arg5, %13) : (i1, i1) -> i1
        %239 = "math.atan"(%10) <{fastmath = #arith.fastmath<none>}> : (f32) -> f32
        %240 = "index.add"(%20, %18) : (index, index) -> index
        %241 = "bufferization.to_memref"(%52) : (tensor<4xi64>) -> memref<4xi64>
        %242 = "arith.subi"(%8, %8) : (i16, i16) -> i16
        %243 = "math.fma"(%12, %5, %5) <{fastmath = #arith.fastmath<none>}> : (f16, f16, f16) -> f16
        %244 = "arith.remf"(%5, %1) <{fastmath = #arith.fastmath<none>}> : (f16, f16) -> f16
        %245 = "tensor.extract"(%54, %16) : (tensor<4xi1>, index) -> i1
        %246 = "index.floordivs"(%27, %47) : (index, index) -> index
        %247 = "arith.divf"(%10, %6) <{fastmath = #arith.fastmath<none>}> : (f32, f32) -> f32
        %248 = "index.maxs"(%29, %28) : (index, index) -> index
        %249 = "vector.broadcast"(%40) : (index) -> vector<14xindex>
        %250 = "vector.broadcast"(%14) : (i1) -> vector<14xi1>
        %251 = "vector.broadcast"(%11) : (i64) -> vector<14xi64>
        "vector.scatter"(%74, %16, %249, %250, %251) : (memref<?xi64>, index, vector<14xindex>, vector<14xi1>, vector<14xi64>) -> ()
        %252 = "arith.addi"(%arg5, %85) : (i1, i1) -> i1
        %253 = "math.atan"(%5) <{fastmath = #arith.fastmath<none>}> : (f16) -> f16
        %254 = "bufferization.to_tensor"(%241) : (memref<4xi64>) -> tensor<4xi64>
        %255 = "memref.alloc"() <{operandSegmentSizes = array<i32: 0, 0>}> : () -> memref<5x14xi64>
        %256 = "arith.muli"(%15, %arg4) : (i1, i1) -> i1
        %257 = "vector.broadcast"(%6) : (f32) -> vector<13xf32>
        %258 = "vector.fma"(%257, %257, %257) : (vector<13xf32>, vector<13xf32>, vector<13xf32>) -> vector<13xf32>
        %259 = "math.floor"(%arg1) <{fastmath = #arith.fastmath<none>}> : (tensor<?xf16>) -> tensor<?xf16>
        %260 = "arith.divui"(%85, %85) : (i1, i1) -> i1
        %261 = "math.expm1"(%1) <{fastmath = #arith.fastmath<none>}> : (f16) -> f16
        "affine.store"(%11, %74, %42) <{map = affine_map<(d0) -> (d0)>}> : (i64, memref<?xi64>, index) -> ()
        %262 = "affine.apply"(%39, %27, %27) <{map = affine_map<(d0, d1, d2) -> (d1 - 128)>}> : (index, index, index) -> index
        %263 = "vector.broadcast"(%236) : (i1) -> vector<13xi1>
        %264 = "vector.maskedload"(%arg2, %16, %16, %18, %263, %263) : (memref<?x13x5xi1>, index, index, index, vector<13xi1>, vector<13xi1>) -> vector<13xi1>
        %265 = "arith.andi"(%82, %82) : (i32, i32) -> i32
        %266 = "arith.divf"(%6, %10) <{fastmath = #arith.fastmath<none>}> : (f32, f32) -> f32
        %267 = "arith.xori"(%85, %0) : (i1, i1) -> i1
        "linalg.yield"(%245) : (i1) -> ()
      }) : (memref<4x13x5xi1>, memref<4x13x5xi1>, tensor<4x13x5xi1>) -> tensor<4x13x5xi1>
      %220 = "index.mul"(%19, %46) : (index, index) -> index
      %221 = "bufferization.clone"(%69) : (memref<4x13x5xi1>) -> memref<4x13x5xi1>
      %222 = "affine.max"(%21, %21, %81, %25, %arg0) <{map = affine_map<(d0, d1, d2, d3)[s0] -> ((d3 + 2) ceildiv 64)>}> : (index, index, index, index, index) -> index
      %223 = "vector.broadcast"(%82) : (i32) -> vector<5x14xi32>
      %224 = "vector.broadcast"(%82) : (i32) -> vector<14xi32>
      %225:2 = "vector.scan"(%223, %224) <{inclusive = false, kind = #vector.kind<mul>, reduction_dim = 0 : i64}> : (vector<5x14xi32>, vector<14xi32>) -> (vector<5x14xi32>, vector<14xi32>)
      %226 = "math.log2"(%62) <{fastmath = #arith.fastmath<none>}> : (tensor<?x?x?xf16>) -> tensor<?x?x?xf16>
      %227 = "memref.cast"(%79) : (memref<?x13x5xf32>) -> memref<13x?x5xf32>
      %228 = "tensor.empty"() : () -> tensor<70xi64>
      %229 = "tensor.unpack"(%57, %228, %30) <{inner_dims_pos = array<i64: 0>, outer_dims_perm = array<i64: 0>, static_inner_tiles = array<i64: -9223372036854775808>}> : (tensor<5x14xi64>, tensor<70xi64>, index) -> tensor<70xi64>
      %230 = "vector.broadcast"(%4) : (f32) -> vector<4xf32>
      %231 = "vector.fma"(%230, %230, %230) : (vector<4xf32>, vector<4xf32>, vector<4xf32>) -> vector<4xf32>
      %232 = "index.floordivs"(%28, %32) : (index, index) -> index
      "scf.yield"(%13) : (i1) -> ()
    }) : (i1) -> i1
    %87 = "index.maxs"(%20, %17) : (index, index) -> index
    %88 = "spirv.GL.UMax"(%83, %83) : (vector<2xi32>, vector<2xi32>) -> vector<2xi32>
    %89 = "vector.matrix_multiply"(%83, %83) <{lhs_columns = 2 : i32, lhs_rows = 1 : i32, rhs_columns = 1 : i32}> : (vector<2xi32>, vector<2xi32>) -> vector<1xi32>
    %90 = "tensor.empty"() : () -> tensor<70xi64>
    %91 = "tensor.unpack"(%48, %90, %30) <{inner_dims_pos = array<i64: 0>, outer_dims_perm = array<i64: 0>, static_inner_tiles = array<i64: -9223372036854775808>}> : (tensor<5x14xi64>, tensor<70xi64>, index) -> tensor<70xi64>
    %92 = "spirv.GL.FMin"(%10, %4) : (f32, f32) -> f32
    %93 = "spirv.GL.RoundEven"(%6) : (f32) -> f32
    %94 = "spirv.GL.Floor"(%4) : (f32) -> f32
    %95 = "spirv.BitFieldSExtract"(%83, %11, %11) : (vector<2xi32>, i64, i64) -> vector<2xi32>
    %96 = "math.fpowi"(%9, %82) <{fastmath = #arith.fastmath<none>}> : (f16, i32) -> f16
    %97 = "tensor.splat"(%10) : (f32) -> tensor<4xf32>
    %98 = "math.log10"(%1) <{fastmath = #arith.fastmath<none>}> : (f16) -> f16
    %99 = "affine.apply"(%43, %20, %35) <{map = affine_map<(d0, d1)[s0] -> (d0 * 64)>}> : (index, index, index) -> index
    %100 = "spirv.CL.rsqrt"(%94) : (f32) -> f32
    %101 = "vector.create_mask"(%41, %23, %22) : (index, index, index) -> vector<4x13x5xi1>
    %102 = "arith.cmpi"(%2, %2) <{predicate = 8 : i64}> : (i64, i64) -> i1
    %103 = "spirv.IsInf"(%93) : (f32) -> i1
    %104 = "spirv.CL.ceil"(%92) : (f32) -> f32
    %105 = "scf.parallel"(%25, %42, %34, %82) <{operandSegmentSizes = array<i32: 1, 1, 1, 1>}> ({
    ^bb0(%arg3: index):
      %212 = "index.xor"(%arg0, %32) : (index, index) -> index
      %213 = "index.floordivs"(%41, %34) : (index, index) -> index
      %214 = "math.absi"(%58) : (tensor<5x14xi16>) -> tensor<5x14xi16>
      %215 = "linalg.copy"(%61, %61) <{operandSegmentSizes = array<i32: 1, 1>}> ({
      ^bb0(%arg4: f32, %arg5: f32):
        "linalg.yield"(%arg4) : (f32) -> ()
      }) : (tensor<?xf32>, tensor<?xf32>) -> tensor<?xf32>
      %216 = "index.sizeof"() : () -> index
      %217 = "index.shl"(%46, %216) : (index, index) -> index
      %218 = "math.fpowi"(%1, %82) <{fastmath = #arith.fastmath<none>}> : (f16, i32) -> f16
      %219 = "tensor.unpack"(%57, %90, %30) <{inner_dims_pos = array<i64: 0>, outer_dims_perm = array<i64: 0>, static_inner_tiles = array<i64: -9223372036854775808>}> : (tensor<5x14xi64>, tensor<70xi64>, index) -> tensor<70xi64>
      %220 = "math.floor"(%97) <{fastmath = #arith.fastmath<none>}> : (tensor<4xf32>) -> tensor<4xf32>
      %221 = "arith.subi"(%0, %0) : (i1, i1) -> i1
      %222 = "vector.flat_transpose"(%83) <{columns = 1 : i32, rows = 2 : i32}> : (vector<2xi32>) -> vector<2xi32>
      %223 = "math.ctlz"(%51) : (tensor<?xi1>) -> tensor<?xi1>
      %224 = "index.or"(%45, %87) : (index, index) -> index
      %225 = "vector.extract"(%89) <{static_position = array<i64: 0>}> : (vector<1xi32>) -> i32
      %226 = "vector.flat_transpose"(%222) <{columns = 1 : i32, rows = 2 : i32}> : (vector<2xi32>) -> vector<2xi32>
      %227 = "index.maxu"(%81, %41) : (index, index) -> index
      "scf.reduce"(%82) ({
      ^bb0(%arg4: i32, %arg5: i32):
        %228 = "math.atan"(%6) <{fastmath = #arith.fastmath<none>}> : (f32) -> f32
        %229 = "math.log"(%56) <{fastmath = #arith.fastmath<none>}> : (tensor<13xf32>) -> tensor<13xf32>
        "memref.store"(%11, %72, %16) <{nontemporal = false}> : (i64, memref<?xi64>, index) -> ()
        %230 = "arith.shrui"(%14, %14) : (i1, i1) -> i1
        %231 = "memref.load"(%76, %23) <{nontemporal = false}> : (memref<13xi1>, index) -> i1
        %232 = "math.ceil"(%5) <{fastmath = #arith.fastmath<none>}> : (f16) -> f16
        %233 = "math.floor"(%arg1) <{fastmath = #arith.fastmath<none>}> : (tensor<?xf16>) -> tensor<?xf16>
        %234 = "index.floordivs"(%arg0, %36) : (index, index) -> index
        "scf.reduce.return"(%arg4) : (i32) -> ()
      }) : (i32) -> ()
      "scf.yield"() : () -> ()
    }) : (index, index, index, i32) -> i32
    %106 = "math.exp"(%59) <{fastmath = #arith.fastmath<none>}> : (tensor<?x13x5xf32>) -> tensor<?x13x5xf32>
    "affine.store"(%11, %72, %41) <{map = affine_map<(d0) -> (d0)>}> : (i64, memref<?xi64>, index) -> ()
    %107 = "math.powf"(%97, %97) <{fastmath = #arith.fastmath<none>}> : (tensor<4xf32>, tensor<4xf32>) -> tensor<4xf32>
    %108 = "vector.broadcast"(%19) : (index) -> vector<4xindex>
    %109 = "vector.broadcast"(%14) : (i1) -> vector<4xi1>
    %110 = "vector.broadcast"(%94) : (f32) -> vector<4xf32>
    "vector.scatter"(%79, %16, %21, %16, %108, %109, %110) : (memref<?x13x5xf32>, index, index, index, vector<4xindex>, vector<4xi1>, vector<4xf32>) -> ()
    %111 = "spirv.BitFieldUExtract"(%83, %2, %2) : (vector<2xi32>, i64, i64) -> vector<2xi32>
    %112 = "spirv.CL.u_min"(%83, %83) : (vector<2xi32>, vector<2xi32>) -> vector<2xi32>
    %113 = "tensor.empty"(%25) : (index) -> tensor<?xi1>
    %114 = "linalg.map"(%51, %113) ({
    ^bb0(%arg3: i1):
      %212 = "math.powf"(%12, %5) <{fastmath = #arith.fastmath<none>}> : (f16, f16) -> f16
      %213 = "arith.shrsi"(%85, %14) : (i1, i1) -> i1
      "scf.execute_region"() ({
        "bufferization.dealloc_tensor"(%arg1) : (tensor<?xf16>) -> ()
        %245 = "index.divu"(%87, %45) : (index, index) -> index
        "affine.store"(%13, %69, %32, %25, %41) <{map = affine_map<(d0, d1, d2) -> (d0, d1, d2)>}> : (i1, memref<4x13x5xi1>, index, index, index) -> ()
        %246 = "index.bool.constant"() <{value = false}> : () -> i1
        %247 = "vector.broadcast"(%31) : (index) -> vector<5xindex>
        %248 = "vector.broadcast"(%15) : (i1) -> vector<5xi1>
        %249 = "vector.broadcast"(%11) : (i64) -> vector<5xi64>
        "vector.scatter"(%72, %16, %247, %248, %249) : (memref<?xi64>, index, vector<5xindex>, vector<5xi1>, vector<5xi64>) -> ()
        %250 = "arith.divsi"(%103, %arg3) : (i1, i1) -> i1
        %251 = "tensor.insert"(%2, %63, %19) : (i64, tensor<4xi64>, index) -> tensor<4xi64>
        %252 = "vector.load"(%65, %16) : (memref<?xi1>, index) -> vector<13xi1>
        %253 = "math.tanh"(%62) <{fastmath = #arith.fastmath<none>}> : (tensor<?x?x?xf16>) -> tensor<?x?x?xf16>
        %254 = "vector.splat"(%92) : (f32) -> vector<4xf32>
        %255 = "vector.transpose"(%101) <{transp = [2, 1, 0]}> : (vector<4x13x5xi1>) -> vector<5x13x4xi1>
        %256 = "memref.atomic_rmw"(%82, %70, %16, %16, %17) <{kind = 11 : i64}> : (i32, memref<?x?x5xi32>, index, index, index) -> i32
        %257 = "index.ceildivu"(%40, %arg0) : (index, index) -> index
        "memref.assume_alignment"(%73) <{alignment = 1 : i32}> : (memref<5x14xi1>) -> ()
        "memref.copy"(%71, %71) : (memref<4xf32>, memref<4xf32>) -> ()
        %258 = "memref.alloca"(%26) <{operandSegmentSizes = array<i32: 1, 0>}> : (index) -> memref<?xi16>
        "scf.yield"() : () -> ()
      }) : () -> ()
      %214 = "bufferization.clone"(%64) : (memref<4x13x5xi1>) -> memref<4x13x5xi1>
      "memref.assume_alignment"(%66) <{alignment = 2 : i32}> : (memref<4x13x5xi32>) -> ()
      %215 = "arith.divsi"(%8, %3) : (i16, i16) -> i16
      %216 = "arith.subi"(%8, %3) : (i16, i16) -> i16
      %217 = "vector.load"(%arg2, %16, %22, %16) : (memref<?x13x5xi1>, index, index, index) -> vector<4xi1>
      %218 = "math.fma"(%10, %100, %104) <{fastmath = #arith.fastmath<none>}> : (f32, f32, f32) -> f32
      %219 = "math.log10"(%92) <{fastmath = #arith.fastmath<none>}> : (f32) -> f32
      %220 = "arith.mulf"(%4, %6) <{fastmath = #arith.fastmath<none>}> : (f32, f32) -> f32
      %221 = "vector.broadcast"(%82) : (i32) -> vector<1x1xi32>
      %222 = "vector.outerproduct"(%89, %89, %221) <{kind = #vector.kind<maxsi>}> : (vector<1xi32>, vector<1xi32>, vector<1x1xi32>) -> vector<1x1xi32>
      %223 = "bufferization.to_memref"(%51) : (tensor<?xi1>) -> memref<?xi1>
      %224 = "math.floor"(%100) <{fastmath = #arith.fastmath<none>}> : (f32) -> f32
      %225 = "tensor.generate"(%99) ({
      ^bb0(%arg4: index):
        %245 = "index.sub"(%21, %arg0) : (index, index) -> index
        %246 = "vector.bitcast"(%217) : (vector<4xi1>) -> vector<4xi1>
        %247 = "math.ctpop"(%arg3) : (i1) -> i1
        %248 = "memref.cast"(%64) : (memref<4x13x5xi1>) -> memref<4x13x5xi1>
        "tensor.yield"(%4) : (f32) -> ()
      }) : (index) -> tensor<?xf32>
      %226 = "math.log2"(%61) <{fastmath = #arith.fastmath<none>}> : (tensor<?xf32>) -> tensor<?xf32>
      %227 = "memref.load"(%75, %16, %27, %18) <{nontemporal = false}> : (memref<4x13x5xi16>, index, index, index) -> i16
      %228 = "arith.mulf"(%7, %1) <{fastmath = #arith.fastmath<none>}> : (f16, f16) -> f16
      %229 = "index.xor"(%17, %36) : (index, index) -> index
      %230 = "math.atan"(%5) <{fastmath = #arith.fastmath<none>}> : (f16) -> f16
      %231 = "tensor.generate"(%33) ({
      ^bb0(%arg4: index, %arg5: index):
        %245 = "math.atan"(%104) <{fastmath = #arith.fastmath<none>}> : (f32) -> f32
        %246 = "math.ctlz"(%57) : (tensor<5x14xi64>) -> tensor<5x14xi64>
        %247 = "vector.load"(%73, %16, %28) : (memref<5x14xi1>, index, index) -> vector<13xi1>
        %248 = "arith.remf"(%9, %7) <{fastmath = #arith.fastmath<none>}> : (f16, f16) -> f16
        "tensor.yield"(%8) : (i16) -> ()
      }) : (index) -> tensor<?x14xi16>
      %232 = "math.atan"(%4) <{fastmath = #arith.fastmath<none>}> : (f32) -> f32
      %233 = "arith.divf"(%5, %9) <{fastmath = #arith.fastmath<none>}> : (f16, f16) -> f16
      %234 = "vector.multi_reduction"(%101, %13) <{kind = #vector.kind<mul>, reduction_dims = [0, 1, 2]}> : (vector<4x13x5xi1>, i1) -> i1
      %235 = "arith.cmpf"(%104, %92) <{predicate = 12 : i64}> : (f32, f32) -> i1
      %236 = "vector.mask"(%101) ({
        %245 = "vector.multi_reduction"(%101, %101) <{kind = #vector.kind<add>, reduction_dims = []}> : (vector<4x13x5xi1>, vector<4x13x5xi1>) -> vector<4x13x5xi1>
        "vector.yield"(%245) : (vector<4x13x5xi1>) -> ()
      }) : (vector<4x13x5xi1>) -> vector<4x13x5xi1>
      %237 = "arith.remf"(%10, %104) <{fastmath = #arith.fastmath<none>}> : (f32, f32) -> f32
      %238 = "math.round"(%12) <{fastmath = #arith.fastmath<none>}> : (f16) -> f16
      %239 = "vector.broadcast"(%arg0) : (index) -> vector<5xindex>
      %240 = "vector.broadcast"(%arg3) : (i1) -> vector<5xi1>
      %241 = "vector.broadcast"(%3) : (i16) -> vector<5xi16>
      "vector.scatter"(%75, %17, %25, %17, %239, %240, %241) : (memref<4x13x5xi16>, index, index, index, vector<5xindex>, vector<5xi1>, vector<5xi16>) -> ()
      %242 = "arith.cmpf"(%6, %4) <{predicate = 15 : i64}> : (f32, f32) -> i1
      %243 = "memref.atomic_rmw"(%82, %67, %25) <{kind = 8 : i64}> : (i32, memref<13xi32>, index) -> i32
      %244 = "affine.min"(%arg0, %29, %21, %41) <{map = affine_map<(d0, d1, d2, d3) -> (d2 ceildiv 8)>}> : (index, index, index, index) -> index
      "linalg.yield"(%15) : (i1) -> ()
    }) : (tensor<?xi1>, tensor<?xi1>) -> tensor<?xi1>
    %115 = "math.cos"(%92) <{fastmath = #arith.fastmath<none>}> : (f32) -> f32
    %116 = "vector.shuffle"(%89, %89) <{mask = [0, 1]}> : (vector<1xi32>, vector<1xi32>) -> vector<2xi32>
    %117 = "math.fma"(%1, %9, %9) <{fastmath = #arith.fastmath<none>}> : (f16, f16, f16) -> f16
    %118 = "spirv.FOrdLessThanEqual"(%6, %6) : (f32, f32) -> i1
    %119 = "spirv.ULessThan"(%11, %2) : (i64, i64) -> i1
    %120 = "vector.flat_transpose"(%89) <{columns = 1 : i32, rows = 1 : i32}> : (vector<1xi32>) -> vector<1xi32>
    %121 = "math.exp2"(%1) <{fastmath = #arith.fastmath<none>}> : (f16) -> f16
    %122 = "spirv.GL.SAbs"(%82) : (i32) -> i32
    %123 = "arith.shrui"(%2, %11) : (i64, i64) -> i64
    %124 = "arith.mulf"(%93, %93) <{fastmath = #arith.fastmath<none>}> : (f32, f32) -> f32
    %125 = "index.add"(%33, %33) : (index, index) -> index
    %126 = "affine.parallel"() <{lowerBoundsGroups = dense<1> : tensor<2xi32>, lowerBoundsMap = affine_map<() -> (0, 0)>, reductions = [4], steps = [1, 1], upperBoundsGroups = dense<1> : tensor<2xi32>, upperBoundsMap = affine_map<() -> (4, 4)>}> ({
    ^bb0(%arg3: index, %arg4: index):
      %212 = "index.maxs"(%18, %31) : (index, index) -> index
      "affine.yield"(%85) : (i1) -> ()
    }) : () -> memref<4x4xi1>
    %127 = "memref.alloc"() <{operandSegmentSizes = array<i32: 0, 0>}> : () -> memref<5x14xi64>
    "memref.tensor_store"(%48, %127) : (tensor<5x14xi64>, memref<5x14xi64>) -> ()
    %128 = "arith.floordivsi"(%15, %103) : (i1, i1) -> i1
    %129 = "spirv.CL.s_min"(%82, %122) : (i32, i32) -> i32
    %130 = "math.expm1"(%100) <{fastmath = #arith.fastmath<none>}> : (f32) -> f32
    %131 = "arith.minui"(%129, %129) : (i32, i32) -> i32
    %132 = "tensor.extract"(%57, %19, %24) : (tensor<5x14xi64>, index, index) -> i64
    %133 = "math.fma"(%10, %93, %100) <{fastmath = #arith.fastmath<none>}> : (f32, f32, f32) -> f32
    %134 = "arith.remf"(%10, %100) <{fastmath = #arith.fastmath<none>}> : (f32, f32) -> f32
    %135 = "spirv.SGreaterThan"(%2, %132) : (i64, i64) -> i1
    %136 = "index.sizeof"() : () -> index
    %137 = "spirv.CL.rsqrt"(%4) : (f32) -> f32
    %138 = "arith.xori"(%14, %135) : (i1, i1) -> i1
    %139 = "arith.minsi"(%132, %132) : (i64, i64) -> i64
    %140 = "spirv.LogicalNotEqual"(%13, %13) : (i1, i1) -> i1
    %141 = "spirv.IEqual"(%2, %11) : (i64, i64) -> i1
    %142 = "index.mul"(%39, %28) : (index, index) -> index
    %143 = "spirv.GL.Floor"(%12) : (f16) -> f16
    %144 = "spirv.BitReverse"(%3) : (i16) -> i16
    %145 = "math.floor"(%6) <{fastmath = #arith.fastmath<none>}> : (f32) -> f32
    %146 = "spirv.CL.sin"(%7) : (f16) -> f16
    %147 = "spirv.CL.round"(%1) : (f16) -> f16
    %148 = "spirv.GL.InverseSqrt"(%146) : (f16) -> f16
    %149 = "index.casts"(%144) : (i16) -> index
    %150 = "spirv.IsInf"(%143) : (f16) -> i1
    %151 = "math.fma"(%12, %7, %146) <{fastmath = #arith.fastmath<none>}> : (f16, f16, f16) -> f16
    %152 = "math.ceil"(%146) <{fastmath = #arith.fastmath<none>}> : (f16) -> f16
    "memref.copy"(%68, %74) : (memref<?xi64>, memref<?xi64>) -> ()
    %153 = "index.maxs"(%87, %125) : (index, index) -> index
    %154 = "spirv.CL.erf"(%148) : (f16) -> f16
    %155 = "tensor.rank"(%arg1) : (tensor<?xf16>) -> index
    %156 = "arith.negf"(%104) <{fastmath = #arith.fastmath<none>}> : (f32) -> f32
    %157 = "spirv.CL.s_abs"(%129) : (i32) -> i32
    %158 = "math.absi"(%15) : (i1) -> i1
    %159 = "index.mul"(%22, %26) : (index, index) -> index
    %160 = "tensor.cast"(%49) : (tensor<?xi32>) -> tensor<13xi32>
    %161 = "math.log2"(%97) <{fastmath = #arith.fastmath<none>}> : (tensor<4xf32>) -> tensor<4xf32>
    %162 = "spirv.FUnordLessThanEqual"(%146, %1) : (f16, f16) -> i1
    %163 = "spirv.CL.fabs"(%6) : (f32) -> f32
    %164 = "tensor.extract"(%53, %17, %28, %17) : (tensor<4x13x5xi1>, index, index, index) -> i1
    %165 = "spirv.GL.Floor"(%12) : (f16) -> f16
    %166 = "spirv.BitReverse"(%3) : (i16) -> i16
    %167 = "spirv.BitwiseOr"(%83, %83) : (vector<2xi32>, vector<2xi32>) -> vector<2xi32>
    %168 = "arith.cmpf"(%163, %92) <{predicate = 7 : i64}> : (f32, f32) -> i1
    %169 = "spirv.GL.FAbs"(%9) : (f16) -> f16
    %170 = "index.xor"(%18, %46) : (index, index) -> index
    %171 = "spirv.GL.Round"(%7) : (f16) -> f16
    %172 = "index.floordivs"(%34, %34) : (index, index) -> index
    %173 = "spirv.CL.fmin"(%104, %93) : (f32, f32) -> f32
    %174 = "vector.broadcast"(%0) : (i1) -> vector<2xi1>
    %175 = "vector.mask"(%174) ({
      %212 = "vector.multi_reduction"(%83, %83) <{kind = #vector.kind<maxui>, reduction_dims = []}> : (vector<2xi32>, vector<2xi32>) -> vector<2xi32>
      "vector.yield"(%212) : (vector<2xi32>) -> ()
    }) : (vector<2xi1>) -> vector<2xi32>
    %176 = "spirv.BitFieldInsert"(%83, %83, %82, %3) : (vector<2xi32>, vector<2xi32>, i32, i16) -> vector<2xi32>
    %177 = "memref.atomic_rmw"(%11, %78, %17, %28, %18) <{kind = 7 : i64}> : (i64, memref<4x13x5xi64>, index, index, index) -> i64
    %178 = "spirv.GL.Sinh"(%169) : (f16) -> f16
    %179 = "math.atan"(%94) <{fastmath = #arith.fastmath<none>}> : (f32) -> f32
    %180 = "math.ceil"(%146) <{fastmath = #arith.fastmath<none>}> : (f16) -> f16
    %181 = "memref.load"(%70, %16, %16, %19) <{nontemporal = false}> : (memref<?x?x5xi32>, index, index, index) -> i32
    %182 = "math.expm1"(%146) <{fastmath = #arith.fastmath<none>}> : (f16) -> f16
    %183 = "arith.remf"(%10, %94) <{fastmath = #arith.fastmath<none>}> : (f32, f32) -> f32
    %184 = "index.sizeof"() : () -> index
    %185 = "math.exp"(%93) <{fastmath = #arith.fastmath<none>}> : (f32) -> f32
    %186 = "spirv.CL.erf"(%169) : (f16) -> f16
    %187 = "spirv.GL.Pow"(%6, %173) : (f32, f32) -> f32
    %188 = "spirv.GL.Sqrt"(%187) : (f32) -> f32
    %189 = "spirv.GL.FMix"(%147, %7, %9) : (f16, f16, f16) -> f16
    %190 = "math.exp"(%59) <{fastmath = #arith.fastmath<none>}> : (tensor<?x13x5xf32>) -> tensor<?x13x5xf32>
    %191 = "math.fma"(%10, %6, %187) <{fastmath = #arith.fastmath<none>}> : (f32, f32, f32) -> f32
    %192 = "spirv.FUnordEqual"(%148, %7) : (f16, f16) -> i1
    %193 = "spirv.CL.log"(%189) : (f16) -> f16
    %194 = "spirv.CL.fabs"(%169) : (f16) -> f16
    %195 = "math.sqrt"(%12) <{fastmath = #arith.fastmath<none>}> : (f16) -> f16
    %196 = "vector.load"(%75, %16, %20, %17) : (memref<4x13x5xi16>, index, index, index) -> vector<4xi16>
    %197 = "affine.max"(%87, %40, %170) <{map = affine_map<(d0, d1, d2) -> (d2 * 2 + d0 + d1 + 1 - 1)>}> : (index, index, index) -> index
    %198 = "spirv.CL.s_min"(%8, %3) : (i16, i16) -> i16
    %199 = "spirv.BitFieldUExtract"(%196, %122, %166) : (vector<4xi16>, i32, i16) -> vector<4xi16>
    %200 = "spirv.ULessThan"(%2, %132) : (i64, i64) -> i1
    %201 = "spirv.GL.FAbs"(%169) : (f16) -> f16
    %202 = "index.divu"(%136, %136) : (index, index) -> index
    %203 = "index.ceildivs"(%24, %24) : (index, index) -> index
    %204 = "arith.ceildivsi"(%13, %141) : (i1, i1) -> i1
    %205 = "math.ctpop"(%53) : (tensor<4x13x5xi1>) -> tensor<4x13x5xi1>
    "affine.store"(%11, %72, %26) <{map = affine_map<(d0) -> (d0)>}> : (i64, memref<?xi64>, index) -> ()
    %206 = "math.ipowi"(%53, %53) : (tensor<4x13x5xi1>, tensor<4x13x5xi1>) -> tensor<4x13x5xi1>
    %207 = "math.fma"(%1, %9, %143) <{fastmath = #arith.fastmath<none>}> : (f16, f16, f16) -> f16
    %208 = "index.and"(%99, %197) : (index, index) -> index
    %209 = "vector.extract"(%89) <{static_position = array<i64: 0>}> : (vector<1xi32>) -> i32
    %210 = "spirv.GL.FSign"(%169) : (f16) -> f16
    %211 = "spirv.BitwiseXor"(%196, %196) : (vector<4xi16>, vector<4xi16>) -> vector<4xi16>
    "vector.print"(%83) <{punctuation = #vector.punctuation<newline>}> : (vector<2xi32>) -> ()
    "vector.print"(%89) <{punctuation = #vector.punctuation<newline>}> : (vector<1xi32>) -> ()
    "vector.print"(%101) <{punctuation = #vector.punctuation<newline>}> : (vector<4x13x5xi1>) -> ()
    "vector.print"(%120) <{punctuation = #vector.punctuation<newline>}> : (vector<1xi32>) -> ()
    "vector.print"(%174) <{punctuation = #vector.punctuation<newline>}> : (vector<2xi1>) -> ()
    "vector.print"(%196) <{punctuation = #vector.punctuation<newline>}> : (vector<4xi16>) -> ()
    "vector.print"(%0) <{punctuation = #vector.punctuation<newline>}> : (i1) -> ()
    "vector.print"(%1) <{punctuation = #vector.punctuation<newline>}> : (f16) -> ()
    "vector.print"(%2) <{punctuation = #vector.punctuation<newline>}> : (i64) -> ()
    "vector.print"(%3) <{punctuation = #vector.punctuation<newline>}> : (i16) -> ()
    "vector.print"(%4) <{punctuation = #vector.punctuation<newline>}> : (f32) -> ()
    "vector.print"(%5) <{punctuation = #vector.punctuation<newline>}> : (f16) -> ()
    "vector.print"(%6) <{punctuation = #vector.punctuation<newline>}> : (f32) -> ()
    "vector.print"(%7) <{punctuation = #vector.punctuation<newline>}> : (f16) -> ()
    "vector.print"(%8) <{punctuation = #vector.punctuation<newline>}> : (i16) -> ()
    "vector.print"(%9) <{punctuation = #vector.punctuation<newline>}> : (f16) -> ()
    "vector.print"(%10) <{punctuation = #vector.punctuation<newline>}> : (f32) -> ()
    "vector.print"(%11) <{punctuation = #vector.punctuation<newline>}> : (i64) -> ()
    "vector.print"(%12) <{punctuation = #vector.punctuation<newline>}> : (f16) -> ()
    "vector.print"(%13) <{punctuation = #vector.punctuation<newline>}> : (i1) -> ()
    "vector.print"(%14) <{punctuation = #vector.punctuation<newline>}> : (i1) -> ()
    "vector.print"(%15) <{punctuation = #vector.punctuation<newline>}> : (i1) -> ()
    "vector.print"(%82) <{punctuation = #vector.punctuation<newline>}> : (i32) -> ()
    "vector.print"(%85) <{punctuation = #vector.punctuation<newline>}> : (i1) -> ()
    "vector.print"(%92) <{punctuation = #vector.punctuation<newline>}> : (f32) -> ()
    "vector.print"(%93) <{punctuation = #vector.punctuation<newline>}> : (f32) -> ()
    "vector.print"(%94) <{punctuation = #vector.punctuation<newline>}> : (f32) -> ()
    "vector.print"(%100) <{punctuation = #vector.punctuation<newline>}> : (f32) -> ()
    "vector.print"(%103) <{punctuation = #vector.punctuation<newline>}> : (i1) -> ()
    "vector.print"(%104) <{punctuation = #vector.punctuation<newline>}> : (f32) -> ()
    "vector.print"(%118) <{punctuation = #vector.punctuation<newline>}> : (i1) -> ()
    "vector.print"(%119) <{punctuation = #vector.punctuation<newline>}> : (i1) -> ()
    "vector.print"(%122) <{punctuation = #vector.punctuation<newline>}> : (i32) -> ()
    "vector.print"(%129) <{punctuation = #vector.punctuation<newline>}> : (i32) -> ()
    "vector.print"(%132) <{punctuation = #vector.punctuation<newline>}> : (i64) -> ()
    "vector.print"(%135) <{punctuation = #vector.punctuation<newline>}> : (i1) -> ()
    "vector.print"(%137) <{punctuation = #vector.punctuation<newline>}> : (f32) -> ()
    "vector.print"(%140) <{punctuation = #vector.punctuation<newline>}> : (i1) -> ()
    "vector.print"(%141) <{punctuation = #vector.punctuation<newline>}> : (i1) -> ()
    "vector.print"(%143) <{punctuation = #vector.punctuation<newline>}> : (f16) -> ()
    "vector.print"(%144) <{punctuation = #vector.punctuation<newline>}> : (i16) -> ()
    "vector.print"(%146) <{punctuation = #vector.punctuation<newline>}> : (f16) -> ()
    "vector.print"(%147) <{punctuation = #vector.punctuation<newline>}> : (f16) -> ()
    "vector.print"(%148) <{punctuation = #vector.punctuation<newline>}> : (f16) -> ()
    "vector.print"(%150) <{punctuation = #vector.punctuation<newline>}> : (i1) -> ()
    "vector.print"(%154) <{punctuation = #vector.punctuation<newline>}> : (f16) -> ()
    "vector.print"(%157) <{punctuation = #vector.punctuation<newline>}> : (i32) -> ()
    "vector.print"(%162) <{punctuation = #vector.punctuation<newline>}> : (i1) -> ()
    "vector.print"(%163) <{punctuation = #vector.punctuation<newline>}> : (f32) -> ()
    "vector.print"(%164) <{punctuation = #vector.punctuation<newline>}> : (i1) -> ()
    "vector.print"(%165) <{punctuation = #vector.punctuation<newline>}> : (f16) -> ()
    "vector.print"(%166) <{punctuation = #vector.punctuation<newline>}> : (i16) -> ()
    "vector.print"(%169) <{punctuation = #vector.punctuation<newline>}> : (f16) -> ()
    "vector.print"(%171) <{punctuation = #vector.punctuation<newline>}> : (f16) -> ()
    "vector.print"(%173) <{punctuation = #vector.punctuation<newline>}> : (f32) -> ()
    "vector.print"(%178) <{punctuation = #vector.punctuation<newline>}> : (f16) -> ()
    "vector.print"(%186) <{punctuation = #vector.punctuation<newline>}> : (f16) -> ()
    "vector.print"(%187) <{punctuation = #vector.punctuation<newline>}> : (f32) -> ()
    "vector.print"(%188) <{punctuation = #vector.punctuation<newline>}> : (f32) -> ()
    "vector.print"(%189) <{punctuation = #vector.punctuation<newline>}> : (f16) -> ()
    "vector.print"(%192) <{punctuation = #vector.punctuation<newline>}> : (i1) -> ()
    "vector.print"(%193) <{punctuation = #vector.punctuation<newline>}> : (f16) -> ()
    "vector.print"(%194) <{punctuation = #vector.punctuation<newline>}> : (f16) -> ()
    "vector.print"(%198) <{punctuation = #vector.punctuation<newline>}> : (i16) -> ()
    "vector.print"(%200) <{punctuation = #vector.punctuation<newline>}> : (i1) -> ()
    "vector.print"(%201) <{punctuation = #vector.punctuation<newline>}> : (f16) -> ()
    "vector.print"(%210) <{punctuation = #vector.punctuation<newline>}> : (f16) -> ()
    "func.return"() : () -> ()
  }) : () -> ()
}) : () -> ()
