"builtin.module"() ({
  "func.func"() <{function_type = (tensor<?x?xi32>) -> (), sym_name = "func1"}> ({
  ^bb0(%arg0: tensor<?x?xi32>):
    %0 = "arith.constant"() <{value = 1617153242 : i64}> : () -> i64
    %1 = "arith.constant"() <{value = 1.25514035E+9 : f32}> : () -> f32
    %2 = "arith.constant"() <{value = 2.740800e+04 : f16}> : () -> f16
    %3 = "arith.constant"() <{value = 1103576230 : i32}> : () -> i32
    %4 = "arith.constant"() <{value = 968611444 : i64}> : () -> i64
    %5 = "arith.constant"() <{value = 1.769600e+04 : f16}> : () -> f16
    %6 = "arith.constant"() <{value = 1.14186611E+9 : f32}> : () -> f32
    %7 = "arith.constant"() <{value = false}> : () -> i1
    %8 = "arith.constant"() <{value = false}> : () -> i1
    %9 = "arith.constant"() <{value = true}> : () -> i1
    %10 = "arith.constant"() <{value = 904915843 : i32}> : () -> i32
    %11 = "arith.constant"() <{value = 0x4D9ABFA9 : f32}> : () -> f32
    %12 = "arith.constant"() <{value = false}> : () -> i1
    %13 = "arith.constant"() <{value = 22919 : i16}> : () -> i16
    %14 = "arith.constant"() <{value = 4.832000e+04 : f16}> : () -> f16
    %15 = "arith.constant"() <{value = true}> : () -> i1
    %16 = "arith.constant"() <{value = 0 : index}> : () -> index
    %17 = "arith.constant"() <{value = 1 : index}> : () -> index
    %18 = "arith.constant"() <{value = 2 : index}> : () -> index
    %19 = "arith.constant"() <{value = 3 : index}> : () -> index
    %20 = "arith.constant"() <{value = 4 : index}> : () -> index
    %21 = "arith.constant"() <{value = 5 : index}> : () -> index
    %22 = "arith.constant"() <{value = 6 : index}> : () -> index
    %23 = "arith.constant"() <{value = 7 : index}> : () -> index
    %24 = "arith.constant"() <{value = 8 : index}> : () -> index
    %25 = "arith.constant"() <{value = 9 : index}> : () -> index
    %26 = "arith.constant"() <{value = 10 : index}> : () -> index
    %27 = "arith.constant"() <{value = 11 : index}> : () -> index
    %28 = "arith.constant"() <{value = 12 : index}> : () -> index
    %29 = "arith.constant"() <{value = 13 : index}> : () -> index
    %30 = "arith.constant"() <{value = 14 : index}> : () -> index
    %31 = "arith.constant"() <{value = 15 : index}> : () -> index
    %32 = "arith.constant"() <{value = 16 : index}> : () -> index
    %33 = "arith.constant"() <{value = 17 : index}> : () -> index
    %34 = "arith.constant"() <{value = 18 : index}> : () -> index
    %35 = "arith.constant"() <{value = 19 : index}> : () -> index
    %36 = "arith.constant"() <{value = 20 : index}> : () -> index
    %37 = "arith.constant"() <{value = 21 : index}> : () -> index
    %38 = "arith.constant"() <{value = 22 : index}> : () -> index
    %39 = "arith.constant"() <{value = 23 : index}> : () -> index
    %40 = "arith.constant"() <{value = 24 : index}> : () -> index
    %41 = "arith.constant"() <{value = 25 : index}> : () -> index
    %42 = "arith.constant"() <{value = 26 : index}> : () -> index
    %43 = "arith.constant"() <{value = 27 : index}> : () -> index
    %44 = "arith.constant"() <{value = 28 : index}> : () -> index
    %45 = "arith.constant"() <{value = 29 : index}> : () -> index
    %46 = "arith.constant"() <{value = 30 : index}> : () -> index
    %47 = "arith.constant"() <{value = 31 : index}> : () -> index
    %48 = "tensor.empty"() : () -> tensor<29x13x13xi1>
    %49 = "tensor.empty"() : () -> tensor<29x13x13xi1>
    %50 = "tensor.empty"() : () -> tensor<13x13xf16>
    %51 = "tensor.empty"() : () -> tensor<29x29xi32>
    %52 = "tensor.empty"() : () -> tensor<29x13x13xf16>
    %53 = "tensor.empty"(%32) : (index) -> tensor<?xf16>
    %54 = "tensor.empty"(%17, %35) : (index, index) -> tensor<?x?x13xf32>
    %55 = "tensor.empty"() : () -> tensor<29x29xi1>
    %56 = "tensor.empty"(%40) : (index) -> tensor<?x13x13xf16>
    %57 = "tensor.empty"(%42) : (index) -> tensor<?x13xi16>
    %58 = "tensor.empty"() : () -> tensor<29xi16>
    %59 = "tensor.empty"(%32) : (index) -> tensor<?x13x13xi16>
    %60 = "tensor.empty"(%35) : (index) -> tensor<?xi32>
    %61 = "tensor.empty"(%17) : (index) -> tensor<?x29xf16>
    %62 = "tensor.empty"(%22) : (index) -> tensor<?xf32>
    %63 = "tensor.empty"() : () -> tensor<29xf32>
    %64 = "memref.alloc"() <{operandSegmentSizes = array<i32: 0, 0>}> : () -> memref<13x13xi32>
    %65 = "memref.alloc"(%37) <{operandSegmentSizes = array<i32: 1, 0>}> : (index) -> memref<?x13x13xf32>
    %66 = "memref.alloc"(%43) <{operandSegmentSizes = array<i32: 1, 0>}> : (index) -> memref<?x13x13xf16>
    %67 = "memref.alloc"() <{operandSegmentSizes = array<i32: 0, 0>}> : () -> memref<29x13x13xi1>
    %68 = "memref.alloc"(%28) <{operandSegmentSizes = array<i32: 1, 0>}> : (index) -> memref<?x13xi32>
    %69 = "memref.alloc"() <{operandSegmentSizes = array<i32: 0, 0>}> : () -> memref<29x29xi1>
    %70 = "memref.alloc"() <{operandSegmentSizes = array<i32: 0, 0>}> : () -> memref<29x29xi1>
    %71 = "memref.alloc"() <{operandSegmentSizes = array<i32: 0, 0>}> : () -> memref<29xi64>
    %72 = "memref.alloc"() <{operandSegmentSizes = array<i32: 0, 0>}> : () -> memref<29x29xi64>
    %73 = "memref.alloc"(%21) <{operandSegmentSizes = array<i32: 1, 0>}> : (index) -> memref<?x13xi16>
    %74 = "memref.alloc"(%38, %44, %25) <{operandSegmentSizes = array<i32: 3, 0>}> : (index, index, index) -> memref<?x?x?xi64>
    %75 = "memref.alloc"() <{operandSegmentSizes = array<i32: 0, 0>}> : () -> memref<13x13xi32>
    %76 = "memref.alloc"(%23) <{operandSegmentSizes = array<i32: 1, 0>}> : (index) -> memref<?x13xi64>
    %77 = "memref.alloc"() <{operandSegmentSizes = array<i32: 0, 0>}> : () -> memref<29xi1>
    %78 = "memref.alloc"() <{operandSegmentSizes = array<i32: 0, 0>}> : () -> memref<29x13x13xf32>
    %79 = "memref.alloc"(%20, %30, %47) <{operandSegmentSizes = array<i32: 3, 0>}> : (index, index, index) -> memref<?x?x?xi16>
    %80 = "linalg.matmul"(%70, %69, %55) <{operandSegmentSizes = array<i32: 2, 1>}> ({
    ^bb0(%arg1: i1, %arg2: i1, %arg3: i1):
      %209 = "arith.andi"(%arg1, %arg2) : (i1, i1) -> i1
      %210 = "arith.ori"(%arg3, %209) : (i1, i1) -> i1
      "linalg.yield"(%210) : (i1) -> ()
    }) {linalg.memoized_indexing_maps = [affine_map<(d0, d1, d2) -> (d0, d2)>, affine_map<(d0, d1, d2) -> (d2, d1)>, affine_map<(d0, d1, d2) -> (d0, d1)>]} : (memref<29x29xi1>, memref<29x29xi1>, tensor<29x29xi1>) -> tensor<29x29xi1>
    "affine.for"() <{lowerBoundMap = affine_map<() -> (0)>, operandSegmentSizes = array<i32: 0, 0, 0>, step = 1 : index, upperBoundMap = affine_map<() -> (17)>}> ({
    ^bb0(%arg1: index):
      "affine.yield"() : () -> ()
    }) : () -> ()
    %81 = "arith.remui"(%13, %13) : (i16, i16) -> i16
    %82 = "vector.broadcast"(%3) : (i32) -> vector<2xi32>
    %83 = "spirv.BitwiseOr"(%82, %82) : (vector<2xi32>, vector<2xi32>) -> vector<2xi32>
    %84 = "spirv.BitFieldInsert"(%82, %82, %4, %3) : (vector<2xi32>, vector<2xi32>, i64, i32) -> vector<2xi32>
    %85 = "spirv.GL.Floor"(%14) : (f16) -> f16
    %86 = "spirv.GL.SClamp"(%4, %4, %4) : (i64, i64, i64) -> i64
    %87 = "spirv.GL.SClamp"(%4, %86, %4) : (i64, i64, i64) -> i64
    %88 = "arith.muli"(%9, %7) : (i1, i1) -> i1
    %89 = "spirv.CL.round"(%1) : (f32) -> f32
    %90 = "index.sub"(%43, %33) : (index, index) -> index
    %91 = "spirv.FUnordGreaterThan"(%89, %6) : (f32, f32) -> i1
    %92 = "spirv.SGreaterThan"(%13, %13) : (i16, i16) -> i1
    %93 = "spirv.INotEqual"(%3, %3) : (i32, i32) -> i1
    %94 = "spirv.GL.RoundEven"(%85) : (f16) -> f16
    %95 = "math.sqrt"(%56) <{fastmath = #arith.fastmath<none>}> : (tensor<?x13x13xf16>) -> tensor<?x13x13xf16>
    %96 = "spirv.LogicalOr"(%93, %7) : (i1, i1) -> i1
    %97 = "math.absi"(%0) : (i64) -> i64
    %98 = "spirv.CL.tanh"(%85) : (f16) -> f16
    %99 = "spirv.GL.UMax"(%82, %82) : (vector<2xi32>, vector<2xi32>) -> vector<2xi32>
    %100 = "memref.realloc"(%77) : (memref<29xi1>) -> memref<27xi1>
    %101 = "spirv.BitFieldSExtract"(%82, %86, %0) : (vector<2xi32>, i64, i64) -> vector<2xi32>
    %102 = "arith.addi"(%93, %15) : (i1, i1) -> i1
    %103 = "spirv.LogicalNotEqual"(%15, %9) : (i1, i1) -> i1
    %104 = "spirv.CL.rint"(%14) : (f16) -> f16
    %105 = "vector.broadcast"(%91) : (i1) -> vector<13xi1>
    "vector.compressstore"(%67, %28, %16, %21, %105, %105) : (memref<29x13x13xi1>, index, index, index, vector<13xi1>, vector<13xi1>) -> ()
    "affine.store"(%92, %70, %17, %24) <{map = affine_map<(d0, d1) -> (d0, d1)>}> : (i1, memref<29x29xi1>, index, index) -> ()
    %106 = "spirv.GL.Fma"(%98, %5, %94) : (f16, f16, f16) -> f16
    %107 = "spirv.GL.SClamp"(%3, %10, %3) : (i32, i32, i32) -> i32
    %108 = "spirv.GL.Sinh"(%5) : (f16) -> f16
    %109 = "math.log2"(%56) <{fastmath = #arith.fastmath<none>}> : (tensor<?x13x13xf16>) -> tensor<?x13x13xf16>
    %110 = "spirv.BitwiseOr"(%82, %82) : (vector<2xi32>, vector<2xi32>) -> vector<2xi32>
    %111 = "arith.mulf"(%5, %85) <{fastmath = #arith.fastmath<none>}> : (f16, f16) -> f16
    %112 = "spirv.GL.Cos"(%104) : (f16) -> f16
    %113 = "index.maxu"(%34, %29) : (index, index) -> index
    %114 = "spirv.SLessThan"(%3, %107) : (i32, i32) -> i1
    %115 = "spirv.BitwiseOr"(%82, %82) : (vector<2xi32>, vector<2xi32>) -> vector<2xi32>
    %116 = "arith.shrui"(%96, %114) : (i1, i1) -> i1
    %117 = "spirv.GL.FMix"(%14, %94, %104) : (f16, f16, f16) -> f16
    %118 = "arith.floordivsi"(%13, %13) : (i16, i16) -> i16
    %119 = "spirv.CL.cos"(%85) : (f16) -> f16
    %120 = "math.ipowi"(%49, %48) : (tensor<29x13x13xi1>, tensor<29x13x13xi1>) -> tensor<29x13x13xi1>
    %121 = "spirv.ULessThan"(%87, %0) : (i64, i64) -> i1
    %122 = "spirv.GL.Atan"(%117) : (f16) -> f16
    %123 = "vector.broadcast"(%13) : (i16) -> vector<i16>
    %124 = "vector.transfer_write"(%123, %57, %22, %19) <{operandSegmentSizes = array<i32: 1, 1, 2, 0>, permutation_map = affine_map<(d0, d1) -> ()>}> : (vector<i16>, tensor<?x13xi16>, index, index) -> tensor<?x13xi16>
    %125 = "spirv.GL.FClamp"(%117, %106, %108) : (f16, f16, f16) -> f16
    %126 = "spirv.CL.sqrt"(%125) : (f16) -> f16
    %127 = "tensor.cast"(%58) : (tensor<29xi16>) -> tensor<?xi16>
    %128 = "spirv.SLessThanEqual"(%82, %82) : (vector<2xi32>, vector<2xi32>) -> vector<2xi1>
    %129 = "spirv.FNegate"(%85) : (f16) -> f16
    "affine.store"(%91, %69, %42, %35) <{map = affine_map<(d0, d1) -> (d0, d1)>}> : (i1, memref<29x29xi1>, index, index) -> ()
    %130 = "tensor.rank"(%56) : (tensor<?x13x13xf16>) -> index
    %131 = "math.sqrt"(%108) <{fastmath = #arith.fastmath<none>}> : (f16) -> f16
    %132 = "arith.mulf"(%117, %85) <{fastmath = #arith.fastmath<none>}> : (f16, f16) -> f16
    %133 = "math.tan"(%61) <{fastmath = #arith.fastmath<none>}> : (tensor<?x29xf16>) -> tensor<?x29xf16>
    %134 = "index.maxu"(%24, %37) : (index, index) -> index
    %135 = "tensor.generate"(%34, %17) ({
    ^bb0(%arg1: index, %arg2: index):
      %209 = "index.divs"(%22, %17) : (index, index) -> index
      %210 = "index.sub"(%27, %19) : (index, index) -> index
      %211 = "vector.broadcast"(%113) : (index) -> vector<27xindex>
      %212 = "vector.broadcast"(%9) : (i1) -> vector<27xi1>
      %213 = "vector.broadcast"(%13) : (i16) -> vector<27xi16>
      "vector.scatter"(%73, %16, %22, %211, %212, %213) : (memref<?x13xi16>, index, index, vector<27xindex>, vector<27xi1>, vector<27xi16>) -> ()
      %214 = "math.absi"(%60) : (tensor<?xi32>) -> tensor<?xi32>
      "tensor.yield"(%86) : (i64) -> ()
    }) : (index, index) -> tensor<?x?xi64>
    %136 = "vector.splat"(%126) : (f16) -> vector<13x13xf16>
    %137 = "math.exp"(%61) <{fastmath = #arith.fastmath<none>}> : (tensor<?x29xf16>) -> tensor<?x29xf16>
    %138 = "math.exp"(%53) <{fastmath = #arith.fastmath<none>}> : (tensor<?xf16>) -> tensor<?xf16>
    %139 = "index.shrs"(%26, %19) : (index, index) -> index
    %140 = "vector.reduction"(%82) <{fastmath = #arith.fastmath<none>, kind = #vector.kind<minsi>}> : (vector<2xi32>) -> i32
    %141 = "vector.broadcast"(%108) : (f16) -> vector<29x29xf16>
    %142 = "spirv.GL.Fma"(%98, %5, %106) : (f16, f16, f16) -> f16
    %143 = "spirv.CL.sqrt"(%14) : (f16) -> f16
    %144 = "spirv.GL.UMax"(%4, %86) : (i64, i64) -> i64
    "memref.copy"(%76, %76) : (memref<?x13xi64>, memref<?x13xi64>) -> ()
    %145 = "math.round"(%56) <{fastmath = #arith.fastmath<none>}> : (tensor<?x13x13xf16>) -> tensor<?x13x13xf16>
    %146 = "spirv.FUnordEqual"(%6, %1) : (f32, f32) -> i1
    %147 = "spirv.UGreaterThanEqual"(%4, %86) : (i64, i64) -> i1
    "memref.assume_alignment"(%79) <{alignment = 1 : i32}> : (memref<?x?x?xi16>) -> ()
    %148 = "math.ceil"(%112) <{fastmath = #arith.fastmath<none>}> : (f16) -> f16
    %149 = "math.absi"(%91) : (i1) -> i1
    %150 = "spirv.CL.cos"(%106) : (f16) -> f16
    %151 = "vector.broadcast"(%98) : (f16) -> vector<29xf16>
    %152:2 = "vector.scan"(%141, %151) <{inclusive = false, kind = #vector.kind<maxf>, reduction_dim = 1 : i64}> : (vector<29x29xf16>, vector<29xf16>) -> (vector<29x29xf16>, vector<29xf16>)
    %153 = "affine.if"(%31) ({
      %209 = "math.ctpop"(%48) : (tensor<29x13x13xi1>) -> tensor<29x13x13xi1>
      %210 = "arith.divsi"(%96, %93) : (i1, i1) -> i1
      %211 = "memref.alloc"() <{operandSegmentSizes = array<i32: 0, 0>}> : () -> memref<13x13xi16>
      %212 = "vector.broadcast"(%13) : (i16) -> vector<29x13x13xi16>
      %213 = "vector.broadcast"(%121) : (i1) -> vector<29x13x13xi1>
      %214 = "vector.broadcast"(%107) : (i32) -> vector<29x13x13xi32>
      %215 = "vector.gather"(%211, %21, %90, %214, %213, %212) : (memref<13x13xi16>, index, index, vector<29x13x13xi32>, vector<29x13x13xi1>, vector<29x13x13xi16>) -> vector<29x13x13xi16>
      %216 = "scf.index_switch"(%18) <{cases = array<i64: 1, 2, 3>}> ({
        %222 = "math.log1p"(%143) <{fastmath = #arith.fastmath<none>}> : (f16) -> f16
        %223 = "index.or"(%90, %30) : (index, index) -> index
        %224 = "linalg.matmul"(%50, %50, %50) <{operandSegmentSizes = array<i32: 2, 1>}> ({
        ^bb0(%arg1: f16, %arg2: f16, %arg3: f16):
          %239 = "arith.mulf"(%arg1, %arg2) <{fastmath = #arith.fastmath<none>}> : (f16, f16) -> f16
          %240 = "arith.addf"(%arg3, %239) <{fastmath = #arith.fastmath<none>}> : (f16, f16) -> f16
          "linalg.yield"(%240) : (f16) -> ()
        }) {linalg.memoized_indexing_maps = [affine_map<(d0, d1, d2) -> (d0, d2)>, affine_map<(d0, d1, d2) -> (d2, d1)>, affine_map<(d0, d1, d2) -> (d0, d1)>]} : (tensor<13x13xf16>, tensor<13x13xf16>, tensor<13x13xf16>) -> tensor<13x13xf16>
        %225 = "vector.splat"(%17) : (index) -> vector<13x13xindex>
        %226 = "index.shl"(%40, %46) : (index, index) -> index
        %227 = "math.absf"(%94) <{fastmath = #arith.fastmath<none>}> : (f16) -> f16
        %228 = "math.absf"(%14) <{fastmath = #arith.fastmath<none>}> : (f16) -> f16
        %229 = "index.sub"(%37, %25) : (index, index) -> index
        %230 = "math.cttz"(%58) : (tensor<29xi16>) -> tensor<29xi16>
        %231 = "index.floordivs"(%32, %113) : (index, index) -> index
        %232 = "arith.cmpf"(%98, %85) <{predicate = 13 : i64}> : (f16, f16) -> i1
        %233 = "arith.floordivsi"(%93, %15) : (i1, i1) -> i1
        %234 = "index.divu"(%231, %29) : (index, index) -> index
        %235 = "tensor.rank"(%135) : (tensor<?x?xi64>) -> index
        %236 = "math.absf"(%56) <{fastmath = #arith.fastmath<none>}> : (tensor<?x13x13xf16>) -> tensor<?x13x13xf16>
        %237 = "tensor.empty"(%33, %18, %41) : (index, index, index) -> tensor<?x?x?xi16>
        %238 = "linalg.transpose"(%79, %237) <{permutation = array<i64: 2, 0, 1>}> ({
        ^bb0(%arg1: i16, %arg2: i16):
          "linalg.yield"(%arg1) : (i16) -> ()
        }) : (memref<?x?x?xi16>, tensor<?x?x?xi16>) -> tensor<?x?x?xi16>
        "scf.yield"(%213) : (vector<29x13x13xi1>) -> ()
      }, {
        %222 = "math.ceil"(%62) <{fastmath = #arith.fastmath<none>}> : (tensor<?xf32>) -> tensor<?xf32>
        %223 = "math.round"(%104) <{fastmath = #arith.fastmath<none>}> : (f16) -> f16
        %224 = "bufferization.clone"(%71) : (memref<29xi64>) -> memref<29xi64>
        %225 = "vector.reduction"(%82) <{fastmath = #arith.fastmath<none>, kind = #vector.kind<minsi>}> : (vector<2xi32>) -> i32
        %226 = "index.sub"(%32, %26) : (index, index) -> index
        "memref.copy"(%67, %67) : (memref<29x13x13xi1>, memref<29x13x13xi1>) -> ()
        %227 = "memref.alloca"(%44) <{operandSegmentSizes = array<i32: 1, 0>}> : (index) -> memref<?xi1>
        %228 = "memref.realloc"(%71) : (memref<29xi64>) -> memref<27xi64>
        %229 = "arith.minsi"(%9, %121) : (i1, i1) -> i1
        %230 = "vector.insert"(%10, %82) <{static_position = array<i64: 0>}> : (i32, vector<2xi32>) -> vector<2xi32>
        %231 = "index.shrs"(%36, %134) : (index, index) -> index
        %232 = "math.copysign"(%108, %112) <{fastmath = #arith.fastmath<none>}> : (f16, f16) -> f16
        "vector.print"(%141) <{punctuation = #vector.punctuation<newline>}> : (vector<29x29xf16>) -> ()
        %233 = "index.floordivs"(%26, %139) : (index, index) -> index
        %234 = "index.castu"(%147) : (i1) -> index
        %235 = "arith.remsi"(%86, %86) : (i64, i64) -> i64
        "scf.yield"(%213) : (vector<29x13x13xi1>) -> ()
      }, {
        %222 = "tensor.rank"(%59) : (tensor<?x13x13xi16>) -> index
        %223 = "vector.flat_transpose"(%82) <{columns = 1 : i32, rows = 2 : i32}> : (vector<2xi32>) -> vector<2xi32>
        %224 = "affine.apply"(%22, %24, %26) <{map = affine_map<(d0, d1)[s0] -> ((d0 ceildiv 64) mod 8)>}> : (index, index, index) -> index
        %225 = "memref.alloc"() <{operandSegmentSizes = array<i32: 0, 0>}> : () -> memref<29x13x13xf16>
        %226 = "vector.broadcast"(%94) : (f16) -> vector<13x13xf16>
        %227 = "vector.broadcast"(%93) : (i1) -> vector<13x13xi1>
        %228 = "vector.broadcast"(%3) : (i32) -> vector<13x13xi32>
        %229 = "vector.gather"(%225, %42, %22, %134, %228, %227, %226) : (memref<29x13x13xf16>, index, index, index, vector<13x13xi32>, vector<13x13xi1>, vector<13x13xf16>) -> vector<13x13xf16>
        %230 = "vector.broadcast"(%13) : (i16) -> vector<29xi16>
        %231 = "vector.multi_reduction"(%212, %230) <{kind = #vector.kind<and>, reduction_dims = [1, 2]}> : (vector<29x13x13xi16>, vector<29xi16>) -> vector<29xi16>
        %232 = "vector.splat"(%31) : (index) -> vector<29xindex>
        %233 = "affine.load"(%74, %24, %40, %46) <{map = affine_map<(d0, d1, d2) -> (d0, d1, d2)>}> : (memref<?x?x?xi64>, index, index, index) -> i64
        %234 = "vector.broadcast"(%10) : (i32) -> vector<13xi32>
        %235:2 = "vector.scan"(%228, %234) <{inclusive = true, kind = #vector.kind<minsi>, reduction_dim = 0 : i64}> : (vector<13x13xi32>, vector<13xi32>) -> (vector<13x13xi32>, vector<13xi32>)
        %236 = "math.exp"(%143) <{fastmath = #arith.fastmath<none>}> : (f16) -> f16
        %237 = "index.divu"(%46, %134) : (index, index) -> index
        %238 = "tensor.rank"(%57) : (tensor<?x13xi16>) -> index
        %239 = "linalg.copy"(%55, %55) <{operandSegmentSizes = array<i32: 1, 1>}> ({
        ^bb0(%arg1: i1, %arg2: i1):
          "linalg.yield"(%arg1) : (i1) -> ()
        }) : (tensor<29x29xi1>, tensor<29x29xi1>) -> tensor<29x29xi1>
        %240 = "vector.insertelement"(%13, %230, %18) : (i16, vector<29xi16>, index) -> vector<29xi16>
        %241 = "bufferization.to_memref"(%59) : (tensor<?x13x13xi16>) -> memref<?x13x13xi16>
        "bufferization.dealloc_tensor"(%61) : (tensor<?x29xf16>) -> ()
        %242 = "math.expm1"(%6) <{fastmath = #arith.fastmath<none>}> : (f32) -> f32
        "scf.yield"(%213) : (vector<29x13x13xi1>) -> ()
      }, {
        %222 = "affine.min"(%43, %42) <{map = affine_map<(d0, d1) -> ((d0 floordiv 8) floordiv 32)>}> : (index, index) -> index
        %223 = "tensor.empty"(%222) : (index) -> tensor<?x13x13x27xf16>
        %224 = "linalg.broadcast"(%56, %223) <{dimensions = array<i64: 3>}> ({
        ^bb0(%arg1: f16, %arg2: f16):
          "linalg.yield"(%arg1) : (f16) -> ()
        }) : (tensor<?x13x13xf16>, tensor<?x13x13x27xf16>) -> tensor<?x13x13x27xf16>
        %225 = "vector.load"(%65, %16, %26, %28) : (memref<?x13x13xf32>, index, index, index) -> vector<29x13x13xf32>
        %226 = "arith.addf"(%6, %6) <{fastmath = #arith.fastmath<none>}> : (f32, f32) -> f32
        %227 = "memref.atomic_rmw"(%4, %76, %16, %16) <{kind = 10 : i64}> : (i64, memref<?x13xi64>, index, index) -> i64
        "memref.copy"(%71, %71) : (memref<29xi64>, memref<29xi64>) -> ()
        %228 = "tensor.cast"(%53) : (tensor<?xf16>) -> tensor<11xf16>
        %229 = "vector.broadcast"(%107) : (i32) -> vector<13x13x13x13xi32>
        %230 = "vector.contract"(%214, %214, %229) <{indexing_maps = [affine_map<(d0, d1, d2, d3, d4) -> (d4, d0, d1)>, affine_map<(d0, d1, d2, d3, d4) -> (d4, d2, d3)>, affine_map<(d0, d1, d2, d3, d4) -> (d0, d1, d2, d3)>], iterator_types = [#vector.iterator_type<parallel>, #vector.iterator_type<parallel>, #vector.iterator_type<parallel>, #vector.iterator_type<parallel>, #vector.iterator_type<reduction>], kind = #vector.kind<minui>}> : (vector<29x13x13xi32>, vector<29x13x13xi32>, vector<13x13x13x13xi32>) -> vector<13x13x13x13xi32>
        %231 = "math.ipowi"(%91, %8) : (i1, i1) -> i1
        %232 = "math.log10"(%150) <{fastmath = #arith.fastmath<none>}> : (f16) -> f16
        %233 = "math.cos"(%126) <{fastmath = #arith.fastmath<none>}> : (f16) -> f16
        %234 = "tensor.empty"() : () -> tensor<29xi1>
        %235 = "math.log2"(%5) <{fastmath = #arith.fastmath<none>}> : (f16) -> f16
        %236 = "math.log10"(%11) <{fastmath = #arith.fastmath<none>}> : (f32) -> f32
        %237 = "math.cos"(%129) <{fastmath = #arith.fastmath<none>}> : (f16) -> f16
        %238 = "tensor.cast"(%58) : (tensor<29xi16>) -> tensor<?xi16>
        "scf.yield"(%213) : (vector<29x13x13xi1>) -> ()
      }) : (index) -> vector<29x13x13xi1>
      %217 = "vector.splat"(%142) : (f16) -> vector<29x13x13xf16>
      %218 = "affine.apply"(%134, %32) <{map = affine_map<(d0)[s0] -> ((-d0) mod 2 + 128)>}> : (index, index) -> index
      %219 = "math.sqrt"(%119) <{fastmath = #arith.fastmath<none>}> : (f16) -> f16
      %220 = "arith.divui"(%93, %147) : (i1, i1) -> i1
      %221 = "memref.alloc"() <{operandSegmentSizes = array<i32: 0, 0>}> : () -> memref<13x13xi1>
      "affine.yield"(%221) : (memref<13x13xi1>) -> ()
    }, {
      %209 = "scf.execute_region"() ({
        %218 = "index.sub"(%38, %44) : (index, index) -> index
        %219 = "index.shrs"(%90, %38) : (index, index) -> index
        %220 = "linalg.copy"(%61, %61) <{operandSegmentSizes = array<i32: 1, 1>}> ({
        ^bb0(%arg1: f16, %arg2: f16):
          "linalg.yield"(%arg1) : (f16) -> ()
        }) : (tensor<?x29xf16>, tensor<?x29xf16>) -> tensor<?x29xf16>
        %221 = "math.ctpop"(%92) : (i1) -> i1
        %222 = "index.maxu"(%35, %37) : (index, index) -> index
        %223 = "vector.broadcast"(%129) : (f16) -> vector<29xf16>
        %224:2 = "vector.scan"(%141, %223) <{inclusive = false, kind = #vector.kind<maxf>, reduction_dim = 1 : i64}> : (vector<29x29xf16>, vector<29xf16>) -> (vector<29x29xf16>, vector<29xf16>)
        %225 = "arith.remsi"(%13, %13) : (i16, i16) -> i16
        %226 = "arith.negf"(%142) <{fastmath = #arith.fastmath<none>}> : (f16) -> f16
        %227 = "math.sqrt"(%106) <{fastmath = #arith.fastmath<none>}> : (f16) -> f16
        "memref.copy"(%67, %67) : (memref<29x13x13xi1>, memref<29x13x13xi1>) -> ()
        %228 = "math.cos"(%6) <{fastmath = #arith.fastmath<none>}> : (f32) -> f32
        %229 = "math.ctlz"(%121) : (i1) -> i1
        %230 = "tensor.extract"(%57, %16, %19) : (tensor<?x13xi16>, index, index) -> i16
        %231 = "arith.shli"(%86, %4) : (i64, i64) -> i64
        %232 = "arith.remui"(%3, %3) : (i32, i32) -> i32
        %233 = "vector.broadcast"(%142) : (f16) -> vector<29xf16>
        %234:2 = "vector.scan"(%141, %233) <{inclusive = false, kind = #vector.kind<maxf>, reduction_dim = 0 : i64}> : (vector<29x29xf16>, vector<29xf16>) -> (vector<29x29xf16>, vector<29xf16>)
        "scf.yield"(%37) : (index) -> ()
      }) : () -> index
      %210 = "math.log2"(%117) <{fastmath = #arith.fastmath<none>}> : (f16) -> f16
      "scf.if"(%92) ({
        %218 = "math.tan"(%122) <{fastmath = #arith.fastmath<none>}> : (f16) -> f16
        %219 = "arith.divf"(%6, %11) <{fastmath = #arith.fastmath<none>}> : (f32, f32) -> f32
        %220 = "arith.andi"(%107, %10) : (i32, i32) -> i32
        %221 = "index.maxu"(%21, %35) : (index, index) -> index
        %222 = "vector.flat_transpose"(%82) <{columns = 1 : i32, rows = 2 : i32}> : (vector<2xi32>) -> vector<2xi32>
        %223 = "arith.divui"(%7, %92) : (i1, i1) -> i1
        %224 = "vector.insertelement"(%3, %222, %40) : (i32, vector<2xi32>, index) -> vector<2xi32>
        %225 = "affine.apply"(%32, %31, %42, %35) <{map = affine_map<(d0, d1, d2, d3) -> (d3)>}> : (index, index, index, index) -> index
        "scf.yield"() : () -> ()
      }, {
        %218 = "arith.shrui"(%121, %146) : (i1, i1) -> i1
        %219 = "math.absf"(%6) <{fastmath = #arith.fastmath<none>}> : (f32) -> f32
        %220 = "index.maxs"(%47, %43) : (index, index) -> index
        %221 = "memref.alloca"(%33) <{operandSegmentSizes = array<i32: 1, 0>}> : (index) -> memref<?x13x13xi1>
        %222 = "tensor.empty"(%39) : (index) -> tensor<?xi16>
        %223 = "vector.transpose"(%141) <{transp = [0, 1]}> : (vector<29x29xf16>) -> vector<29x29xf16>
        %224 = "bufferization.clone"(%71) : (memref<29xi64>) -> memref<29xi64>
        %225 = "math.ctpop"(%arg0) : (tensor<?x?xi32>) -> tensor<?x?xi32>
        "scf.yield"() : () -> ()
      }) : (i1) -> ()
      %211 = "tensor.generate"(%41, %47) ({
      ^bb0(%arg1: index, %arg2: index, %arg3: index):
        %218 = "arith.divf"(%112, %106) <{fastmath = #arith.fastmath<none>}> : (f16, f16) -> f16
        %219 = "math.fma"(%108, %5, %129) <{fastmath = #arith.fastmath<none>}> : (f16, f16, f16) -> f16
        %220 = "math.ctpop"(%60) : (tensor<?xi32>) -> tensor<?xi32>
        %221 = "bufferization.clone"(%67) : (memref<29x13x13xi1>) -> memref<29x13x13xi1>
        "tensor.yield"(%126) : (f16) -> ()
      }) : (index, index) -> tensor<?x?x13xf16>
      %212 = "vector.broadcast"(%142) : (f16) -> vector<29xf16>
      %213:2 = "vector.scan"(%141, %212) <{inclusive = true, kind = #vector.kind<mul>, reduction_dim = 1 : i64}> : (vector<29x29xf16>, vector<29xf16>) -> (vector<29x29xf16>, vector<29xf16>)
      %214 = "index.maxs"(%19, %45) : (index, index) -> index
      %215 = "bufferization.clone"(%72) : (memref<29x29xi64>) -> memref<29x29xi64>
      %216 = "math.exp"(%129) <{fastmath = #arith.fastmath<none>}> : (f16) -> f16
      %217 = "memref.alloc"() <{operandSegmentSizes = array<i32: 0, 0>}> : () -> memref<13x13xi1>
      "affine.yield"(%217) : (memref<13x13xi1>) -> ()
    }) {condition = affine_set<(d0) : (-8 == 0, 136 == 0)>} : (index) -> memref<13x13xi1>
    %154 = "spirv.CL.log"(%119) : (f16) -> f16
    %155 = "memref.load"(%70, %29, %17) <{nontemporal = false}> : (memref<29x29xi1>, index, index) -> i1
    %156 = "math.ctlz"(%91) : (i1) -> i1
    %157 = "spirv.GL.Pow"(%119, %154) : (f16, f16) -> f16
    %158 = "spirv.CL.s_max"(%86, %0) : (i64, i64) -> i64
    %159 = "spirv.GL.Ceil"(%5) : (f16) -> f16
    %160 = "spirv.CL.floor"(%1) : (f32) -> f32
    %161 = "spirv.CL.pow"(%94, %125) : (f16, f16) -> f16
    %162 = "arith.minsi"(%107, %3) : (i32, i32) -> i32
    %163 = "tensor.dim"(%52, %17) : (tensor<29x13x13xf16>, index) -> index
    %164 = "spirv.GL.FClamp"(%150, %161, %119) : (f16, f16, f16) -> f16
    %165 = "tensor.extract"(%135, %16, %16) : (tensor<?x?xi64>, index, index) -> i64
    %166 = "spirv.CL.s_min"(%86, %158) : (i64, i64) -> i64
    %167 = "math.fma"(%150, %106, %126) <{fastmath = #arith.fastmath<none>}> : (f16, f16, f16) -> f16
    %168 = "index.mul"(%37, %21) : (index, index) -> index
    %169 = "index.maxu"(%47, %113) : (index, index) -> index
    %170 = "spirv.GL.FClamp"(%117, %106, %104) : (f16, f16, f16) -> f16
    %171 = "index.add"(%29, %47) : (index, index) -> index
    %172 = "spirv.IsNan"(%142) : (f16) -> i1
    %173 = "vector.broadcast"(%38) : (index) -> vector<27xindex>
    %174 = "vector.broadcast"(%114) : (i1) -> vector<27xi1>
    %175 = "vector.broadcast"(%13) : (i16) -> vector<27xi16>
    "vector.scatter"(%73, %16, %25, %173, %174, %175) : (memref<?x13xi16>, index, index, vector<27xindex>, vector<27xi1>, vector<27xi16>) -> ()
    %176 = "spirv.GL.Cosh"(%106) : (f16) -> f16
    %177 = "affine.if"(%17) ({
      %209 = "vector.broadcast"(%164) : (f16) -> vector<29xf16>
      %210 = "index.divu"(%22, %40) : (index, index) -> index
      %211 = "math.ctlz"(%114) : (i1) -> i1
      %212 = "math.cttz"(%8) : (i1) -> i1
      %213 = "tensor.empty"(%23) : (index) -> tensor<?x13x13x11xf16>
      %214 = "linalg.broadcast"(%56, %213) <{dimensions = array<i64: 3>}> ({
      ^bb0(%arg1: f16, %arg2: f16):
        "linalg.yield"(%arg1) : (f16) -> ()
      }) : (tensor<?x13x13xf16>, tensor<?x13x13x11xf16>) -> tensor<?x13x13x11xf16>
      %215 = "arith.shrui"(%96, %146) : (i1, i1) -> i1
      %216 = "vector.extract"(%82) <{static_position = array<i64: 1>}> : (vector<2xi32>) -> i32
      %217 = "math.absi"(%0) : (i64) -> i64
      "affine.yield"(%1) : (f32) -> ()
    }, {
      %209 = "vector.broadcast"(%93) : (i1) -> vector<29x13x13xi1>
      %210 = "arith.shrui"(%4, %87) : (i64, i64) -> i64
      %211 = "index.xor"(%45, %38) : (index, index) -> index
      %212 = "math.ctpop"(%172) : (i1) -> i1
      %213 = "arith.constant"() <{value = 0 : i32}> : () -> i32
      %214 = "vector.transfer_read"(%68, %33, %33, %213) <{operandSegmentSizes = array<i32: 1, 2, 1, 0>, permutation_map = affine_map<(d0, d1) -> ()>}> : (memref<?x13xi32>, index, index, i32) -> vector<i32>
      %215 = "vector.broadcast"(%89) : (f32) -> vector<29x13x13xf32>
      %216 = "vector.fma"(%215, %215, %215) : (vector<29x13x13xf32>, vector<29x13x13xf32>, vector<29x13x13xf32>) -> vector<29x13x13xf32>
      %217 = "index.add"(%90, %18) : (index, index) -> index
      %218 = "vector.insertelement"(%107, %82, %19) : (i32, vector<2xi32>, index) -> vector<2xi32>
      "affine.yield"(%11) : (f32) -> ()
    }) {condition = affine_set<(d0) : (d0 ceildiv 64 >= 0)>} : (index) -> f32
    %178 = "vector.broadcast"(%89) : (f32) -> vector<13x13xf32>
    %179 = "vector.fma"(%178, %178, %178) : (vector<13x13xf32>, vector<13x13xf32>, vector<13x13xf32>) -> vector<13x13xf32>
    %180 = "bufferization.to_memref"(%62) : (tensor<?xf32>) -> memref<?xf32>
    %181 = "spirv.LogicalNot"(%146) : (i1) -> i1
    %182 = "spirv.GL.SAbs"(%107) : (i32) -> i32
    %183 = "index.floordivs"(%21, %28) : (index, index) -> index
    %184 = "arith.remui"(%147, %103) : (i1, i1) -> i1
    %185 = "spirv.GL.FClamp"(%106, %142, %143) : (f16, f16, f16) -> f16
    %186 = "index.divs"(%171, %168) : (index, index) -> index
    %187 = "math.absf"(%142) <{fastmath = #arith.fastmath<none>}> : (f16) -> f16
    %188 = "spirv.GL.SMin"(%182, %182) : (i32, i32) -> i32
    %189 = "index.sizeof"() : () -> index
    %190 = "spirv.GL.Sinh"(%14) : (f16) -> f16
    %191 = "spirv.GL.SClamp"(%182, %182, %182) : (i32, i32, i32) -> i32
    %192 = "spirv.ULessThan"(%107, %191) : (i32, i32) -> i1
    %193 = "arith.remf"(%2, %190) <{fastmath = #arith.fastmath<none>}> : (f16, f16) -> f16
    %194 = "spirv.GL.Cosh"(%104) : (f16) -> f16
    %195 = "spirv.CL.ceil"(%125) : (f16) -> f16
    %196 = "index.mul"(%34, %24) : (index, index) -> index
    %197 = "spirv.LogicalAnd"(%15, %147) : (i1, i1) -> i1
    %198 = "math.sqrt"(%176) <{fastmath = #arith.fastmath<none>}> : (f16) -> f16
    %199 = "index.ceildivu"(%33, %44) : (index, index) -> index
    %200 = "spirv.GL.SClamp"(%188, %191, %3) : (i32, i32, i32) -> i32
    %201 = "spirv.LogicalNot"(%7) : (i1) -> i1
    %202 = "vector.transfer_read"(%56, %16, %171, %47, %2) <{operandSegmentSizes = array<i32: 1, 3, 1, 0>, permutation_map = affine_map<(d0, d1, d2) -> (d2)>}> : (tensor<?x13x13xf16>, index, index, index, f16) -> vector<11xf16>
    %203 = "spirv.CL.s_abs"(%188) : (i32) -> i32
    %204 = "math.log10"(%117) <{fastmath = #arith.fastmath<none>}> : (f16) -> f16
    %205 = "bufferization.clone"(%69) : (memref<29x29xi1>) -> memref<29x29xi1>
    %206 = "bufferization.to_memref"(%48) : (tensor<29x13x13xi1>) -> memref<29x13x13xi1>
    %207 = "scf.parallel"(%36, %47, %24, %20, %47, %29, %1) <{operandSegmentSizes = array<i32: 2, 2, 2, 1>}> ({
    ^bb0(%arg1: index, %arg2: index):
      %209 = "index.add"(%arg1, %169) : (index, index) -> index
      %210 = "tensor.rank"(%49) : (tensor<29x13x13xi1>) -> index
      %211 = "arith.divf"(%6, %89) <{fastmath = #arith.fastmath<none>}> : (f32, f32) -> f32
      %212 = "index.divs"(%32, %arg2) : (index, index) -> index
      %213 = "bufferization.to_memref"(%61) : (tensor<?x29xf16>) -> memref<?x29xf16>
      %214 = "math.ceil"(%2) <{fastmath = #arith.fastmath<none>}> : (f16) -> f16
      %215 = "arith.constant"() <{value = 4.601600e+04 : f16}> : () -> f16
      %216 = "math.ctlz"(%59) : (tensor<?x13x13xi16>) -> tensor<?x13x13xi16>
      %217 = "tensor.empty"(%38) : (index) -> tensor<?x13x13xf16>
      %218 = "linalg.map"(%56, %56, %56, %217) ({
      ^bb0(%arg3: f16, %arg4: f16, %arg5: f16):
        %228 = "math.expm1"(%arg4) <{fastmath = #arith.fastmath<none>}> : (f16) -> f16
        %229 = "math.log10"(%61) <{fastmath = #arith.fastmath<none>}> : (tensor<?x29xf16>) -> tensor<?x29xf16>
        %230 = "arith.andi"(%87, %144) : (i64, i64) -> i64
        %231 = "tensor.cast"(%58) : (tensor<29xi16>) -> tensor<?xi16>
        %232 = "index.floordivs"(%169, %18) : (index, index) -> index
        %233 = "affine.load"(%72, %45, %46) <{map = affine_map<(d0, d1) -> (d0, d1)>}> : (memref<29x29xi64>, index, index) -> i64
        %234 = "memref.alloc"() <{operandSegmentSizes = array<i32: 0, 0>}> : () -> memref<29x29xi32>
        "linalg.transpose"(%51, %234) <{permutation = array<i64: 1, 0>}> ({
        ^bb0(%arg6: i32, %arg7: i32):
          "linalg.yield"(%arg6) : (i32) -> ()
        }) : (tensor<29x29xi32>, memref<29x29xi32>) -> ()
        %235 = "arith.minsi"(%182, %107) : (i32, i32) -> i32
        %236 = "memref.atomic_rmw"(%154, %213, %16, %41) <{kind = 2 : i64}> : (f16, memref<?x29xf16>, index, index) -> f16
        %237 = "index.divu"(%196, %arg1) : (index, index) -> index
        %238 = "math.ctlz"(%4) : (i64) -> i64
        %239 = "bufferization.clone"(%205) : (memref<29x29xi1>) -> memref<29x29xi1>
        %240 = "tensor.cast"(%217) : (tensor<?x13x13xf16>) -> tensor<11x13x13xf16>
        %241 = "index.floordivs"(%40, %41) : (index, index) -> index
        %242 = "vector.multi_reduction"(%82, %3) <{kind = #vector.kind<or>, reduction_dims = [0]}> : (vector<2xi32>, i32) -> i32
        %243 = "tensor.empty"() : () -> tensor<13x13xi64>
        %244 = "vector.broadcast"(%4) : (i64) -> vector<29x13x13xi64>
        %245 = "vector.broadcast"(%103) : (i1) -> vector<29x13x13xi1>
        %246 = "vector.broadcast"(%200) : (i32) -> vector<29x13x13xi32>
        %247 = "vector.gather"(%243, %113, %17, %246, %245, %244) : (tensor<13x13xi64>, index, index, vector<29x13x13xi32>, vector<29x13x13xi1>, vector<29x13x13xi64>) -> vector<29x13x13xi64>
        %248 = "math.cos"(%54) <{fastmath = #arith.fastmath<none>}> : (tensor<?x?x13xf32>) -> tensor<?x?x13xf32>
        %249 = "math.ceil"(%157) <{fastmath = #arith.fastmath<none>}> : (f16) -> f16
        %250 = "vector.create_mask"(%44) : (index) -> vector<29xi1>
        %251 = "tensor.cast"(%231) : (tensor<?xi16>) -> tensor<11xi16>
        %252 = "tensor.from_elements"(%13, %13, %13, %13, %13, %13, %13, %13, %13, %13, %13, %13, %13, %13, %13, %13, %13, %13, %13, %13, %13, %13, %13, %13, %13, %13, %13, %13, %13, %13, %13, %13, %13, %13, %13, %13, %13, %13, %13, %13, %13, %13, %13, %13, %13, %13, %13, %13, %13, %13, %13, %13, %13, %13, %13, %13, %13, %13, %13, %13, %13, %13, %13, %13, %13, %13, %13, %13, %13, %13, %13, %13, %13, %13, %13, %13, %13, %13, %13, %13, %13, %13, %13, %13, %13, %13, %13, %13, %13, %13, %13, %13, %13, %13, %13, %13, %13, %13, %13, %13, %13, %13, %13, %13, %13, %13, %13, %13, %13, %13, %13, %13, %13, %13, %13, %13, %13, %13, %13, %13, %13, %13, %13, %13, %13, %13, %13, %13, %13, %13, %13, %13, %13, %13, %13, %13, %13, %13, %13, %13, %13, %13, %13, %13, %13, %13, %13, %13, %13, %13, %13, %13, %13, %13, %13, %13, %13, %13, %13, %13, %13, %13, %13, %13, %13, %13, %13, %13, %13, %13, %13, %13, %13, %13, %13, %13, %13, %13, %13, %13, %13, %13, %13, %13, %13, %13, %13, %13, %13, %13, %13, %13, %13, %13, %13, %13, %13, %13, %13, %13, %13, %13, %13, %13, %13, %13, %13, %13, %13, %13, %13, %13, %13, %13, %13, %13, %13, %13, %13, %13, %13, %13, %13, %13, %13, %13, %13, %13, %13, %13, %13, %13, %13, %13, %13, %13, %13, %13, %13, %13, %13, %13, %13, %13, %13, %13, %13, %13, %13, %13, %13, %13, %13, %13, %13, %13, %13, %13, %13, %13, %13, %13, %13, %13, %13, %13, %13, %13, %13, %13, %13, %13, %13, %13, %13, %13, %13, %13, %13, %13, %13, %13, %13, %13, %13, %13, %13, %13, %13, %13, %13, %13, %13, %13, %13, %13, %13, %13, %13, %13, %13, %13, %13, %13, %13, %13, %13, %13, %13, %13, %13, %13, %13, %13, %13, %13, %13, %13, %13, %13, %13, %13, %13, %13, %13, %13, %13, %13, %13, %13, %13, %13, %13, %13, %13, %13, %13, %13, %13, %13, %13, %13, %13, %13, %13, %13, %13, %13, %13, %13, %13, %13, %13, %13, %13, %13, %13, %13, %13, %13, %13, %13, %13, %13, %13, %13, %13, %13, %13, %13, %13, %13, %13, %13, %13, %13, %13, %13, %13, %13, %13, %13, %13, %13, %13, %13, %13, %13, %13, %13, %13, %13, %13, %13, %13, %13, %13, %13, %13, %13, %13, %13, %13, %13, %13, %13, %13, %13, %13, %13, %13, %13, %13, %13, %13, %13, %13, %13, %13, %13, %13, %13, %13, %13, %13, %13, %13, %13, %13, %13, %13, %13, %13, %13, %13, %13, %13, %13, %13, %13, %13, %13, %13, %13, %13, %13, %13, %13, %13, %13, %13, %13, %13, %13, %13, %13, %13, %13, %13, %13, %13, %13, %13, %13, %13, %13, %13, %13, %13, %13, %13, %13, %13, %13, %13, %13, %13, %13, %13, %13, %13, %13, %13, %13, %13, %13, %13, %13, %13, %13, %13, %13, %13, %13, %13, %13, %13, %13, %13, %13, %13, %13, %13, %13, %13, %13, %13, %13, %13, %13, %13, %13, %13, %13, %13, %13, %13, %13, %13, %13, %13, %13, %13, %13, %13, %13, %13, %13, %13, %13, %13, %13, %13, %13, %13, %13, %13, %13, %13, %13, %13, %13, %13, %13, %13, %13, %13, %13, %13, %13, %13, %13, %13, %13, %13, %13, %13, %13, %13, %13, %13, %13, %13, %13, %13, %13, %13, %13, %13, %13, %13, %13, %13, %13, %13, %13, %13, %13, %13, %13, %13, %13, %13, %13, %13, %13, %13, %13, %13, %13, %13, %13, %13, %13, %13, %13, %13, %13, %13, %13, %13, %13, %13, %13, %13, %13, %13, %13, %13, %13, %13, %13, %13, %13, %13, %13, %13, %13, %13, %13, %13, %13, %13, %13, %13, %13, %13, %13, %13, %13, %13, %13, %13, %13, %13, %13, %13, %13, %13, %13, %13, %13, %13, %13, %13, %13, %13, %13, %13, %13, %13, %13, %13, %13, %13, %13, %13, %13, %13, %13, %13, %13, %13, %13, %13, %13, %13, %13, %13, %13, %13, %13, %13, %13, %13, %13, %13, %13, %13, %13, %13, %13, %13, %13, %13, %13, %13, %13, %13, %13, %13, %13, %13, %13, %13, %13, %13, %13, %13, %13, %13, %13, %13, %13, %13, %13, %13, %13, %13, %13, %13, %13, %13, %13, %13, %13, %13, %13, %13, %13, %13, %13, %13, %13, %13, %13, %13, %13, %13, %13, %13, %13, %13, %13, %13, %13, %13, %13, %13, %13, %13, %13, %13, %13, %13, %13, %13, %13, %13, %13, %13, %13, %13, %13, %13, %13, %13, %13, %13, %13, %13, %13, %13, %13, %13, %13, %13, %13, %13, %13, %13, %13, %13, %13, %13, %13, %13, %13, %13, %13, %13, %13, %13, %13, %13, %13, %13, %13, %13, %13, %13, %13, %13, %13, %13, %13, %13, %13, %13, %13, %13, %13, %13, %13, %13, %13, %13, %13, %13, %13, %13, %13, %13, %13, %13, %13, %13, %13, %13, %13, %13, %13, %13, %13, %13, %13, %13, %13, %13, %13, %13, %13, %13, %13, %13, %13, %13, %13, %13, %13, %13, %13, %13, %13, %13, %13, %13, %13, %13, %13, %13, %13, %13, %13, %13, %13, %13, %13, %13, %13, %13, %13, %13, %13, %13, %13, %13, %13, %13, %13, %13, %13, %13, %13, %13, %13, %13, %13, %13, %13, %13, %13, %13, %13, %13, %13, %13, %13, %13, %13, %13, %13, %13, %13, %13, %13, %13, %13, %13, %13, %13, %13, %13, %13, %13, %13, %13, %13, %13, %13, %13, %13, %13, %13, %13, %13, %13, %13, %13, %13, %13, %13, %13, %13, %13, %13, %13, %13, %13, %13, %13, %13, %13, %13, %13, %13, %13, %13, %13, %13, %13, %13, %13, %13, %13, %13, %13, %13, %13, %13, %13, %13, %13, %13, %13, %13, %13, %13, %13, %13, %13, %13, %13, %13, %13, %13, %13, %13, %13, %13, %13, %13, %13, %13, %13, %13, %13, %13, %13, %13, %13, %13, %13, %13, %13, %13, %13, %13, %13, %13, %13, %13, %13, %13, %13, %13, %13, %13, %13, %13, %13, %13, %13, %13, %13, %13, %13, %13, %13, %13, %13, %13, %13, %13, %13, %13, %13, %13, %13, %13, %13, %13, %13, %13, %13, %13, %13, %13, %13, %13, %13, %13, %13, %13, %13, %13, %13, %13, %13, %13, %13, %13, %13, %13, %13, %13, %13, %13, %13, %13, %13, %13, %13, %13, %13, %13, %13, %13, %13, %13, %13, %13, %13, %13, %13, %13, %13, %13, %13, %13, %13, %13, %13, %13, %13, %13, %13, %13, %13, %13, %13, %13, %13, %13, %13, %13, %13, %13, %13, %13, %13, %13, %13, %13, %13, %13, %13, %13, %13, %13, %13, %13, %13, %13, %13, %13, %13, %13, %13, %13, %13, %13, %13, %13, %13, %13, %13, %13, %13, %13, %13, %13, %13, %13, %13, %13, %13, %13, %13, %13, %13, %13, %13, %13, %13, %13, %13, %13, %13, %13, %13, %13, %13, %13, %13, %13, %13, %13, %13, %13, %13, %13, %13, %13, %13, %13, %13, %13, %13, %13, %13, %13, %13, %13, %13, %13, %13, %13, %13, %13, %13, %13, %13, %13, %13, %13, %13, %13, %13, %13, %13, %13, %13, %13, %13, %13, %13, %13, %13, %13, %13, %13, %13, %13, %13, %13, %13, %13, %13, %13, %13, %13, %13, %13, %13, %13, %13, %13, %13, %13, %13, %13, %13, %13, %13, %13, %13, %13, %13, %13, %13, %13, %13, %13, %13, %13, %13, %13, %13, %13, %13, %13, %13, %13, %13, %13, %13, %13, %13, %13, %13, %13, %13, %13, %13, %13, %13, %13, %13, %13, %13, %13, %13, %13, %13, %13, %13, %13, %13, %13, %13, %13, %13, %13, %13, %13, %13, %13, %13, %13, %13, %13, %13, %13, %13, %13, %13, %13, %13, %13, %13, %13, %13, %13, %13, %13, %13, %13, %13, %13, %13, %13, %13, %13, %13, %13, %13, %13, %13, %13, %13, %13, %13, %13, %13, %13, %13, %13, %13, %13, %13, %13, %13, %13, %13, %13, %13, %13, %13, %13, %13, %13, %13, %13, %13, %13, %13, %13, %13, %13, %13, %13, %13, %13, %13, %13, %13, %13, %13, %13, %13, %13, %13, %13, %13, %13, %13, %13, %13, %13, %13, %13, %13, %13, %13, %13, %13, %13, %13, %13, %13, %13, %13, %13, %13, %13, %13, %13, %13, %13, %13, %13, %13, %13, %13, %13, %13, %13, %13, %13, %13, %13, %13, %13, %13, %13, %13, %13, %13, %13, %13, %13, %13, %13, %13, %13, %13, %13, %13, %13, %13, %13, %13, %13, %13, %13, %13, %13, %13, %13, %13, %13, %13, %13, %13, %13, %13, %13, %13, %13, %13, %13, %13, %13, %13, %13, %13, %13, %13, %13, %13, %13, %13, %13, %13, %13, %13, %13, %13, %13, %13, %13, %13, %13, %13, %13, %13, %13, %13, %13, %13, %13, %13, %13, %13, %13, %13, %13, %13, %13, %13, %13, %13, %13, %13, %13, %13, %13, %13, %13, %13, %13, %13, %13, %13, %13, %13, %13, %13, %13, %13, %13, %13, %13, %13, %13, %13, %13, %13, %13, %13, %13, %13, %13, %13, %13, %13, %13, %13, %13, %13, %13, %13, %13, %13, %13, %13, %13, %13, %13, %13, %13, %13, %13, %13, %13, %13, %13, %13, %13, %13, %13, %13, %13, %13, %13, %13, %13, %13, %13, %13, %13, %13, %13, %13, %13, %13, %13, %13, %13, %13, %13, %13, %13, %13, %13, %13, %13, %13, %13, %13, %13, %13, %13, %13, %13, %13, %13, %13, %13, %13, %13, %13, %13, %13, %13, %13, %13, %13, %13, %13, %13, %13, %13, %13, %13, %13, %13, %13, %13, %13, %13, %13, %13, %13, %13, %13, %13, %13, %13, %13, %13, %13, %13, %13, %13, %13, %13, %13, %13, %13, %13, %13, %13, %13, %13, %13, %13, %13, %13, %13, %13, %13, %13, %13, %13, %13, %13, %13, %13, %13, %13, %13, %13, %13, %13, %13, %13, %13, %13, %13, %13, %13, %13, %13, %13, %13, %13, %13, %13, %13, %13, %13, %13, %13, %13, %13, %13, %13, %13, %13, %13, %13, %13, %13, %13, %13, %13, %13, %13, %13, %13, %13, %13, %13, %13, %13, %13, %13, %13, %13, %13, %13, %13, %13, %13, %13, %13, %13, %13, %13, %13, %13, %13, %13, %13, %13, %13, %13, %13, %13, %13, %13, %13, %13, %13, %13, %13, %13, %13, %13, %13, %13, %13, %13, %13, %13, %13, %13, %13, %13, %13, %13, %13, %13, %13, %13, %13, %13, %13, %13, %13, %13, %13, %13, %13, %13, %13, %13, %13, %13, %13, %13, %13, %13, %13, %13, %13, %13, %13, %13, %13, %13, %13, %13, %13, %13, %13, %13, %13, %13, %13, %13, %13, %13, %13, %13, %13, %13, %13, %13, %13, %13, %13, %13, %13, %13, %13, %13, %13, %13, %13, %13, %13, %13, %13, %13, %13, %13, %13, %13, %13, %13, %13, %13, %13, %13, %13, %13, %13, %13, %13, %13, %13, %13, %13, %13, %13, %13, %13, %13, %13, %13, %13, %13, %13, %13, %13, %13, %13, %13, %13, %13, %13, %13, %13, %13, %13, %13, %13, %13, %13, %13, %13, %13, %13, %13, %13, %13, %13, %13, %13, %13, %13, %13, %13, %13, %13, %13, %13, %13, %13, %13, %13, %13, %13, %13, %13, %13, %13, %13, %13, %13, %13, %13, %13, %13, %13, %13, %13, %13, %13, %13, %13, %13, %13, %13, %13, %13, %13, %13, %13, %13, %13, %13, %13, %13, %13, %13, %13, %13, %13, %13, %13, %13, %13, %13, %13, %13, %13, %13, %13, %13, %13, %13, %13, %13, %13, %13, %13, %13, %13, %13, %13, %13, %13, %13, %13, %13, %13, %13, %13, %13, %13, %13, %13, %13, %13, %13, %13, %13, %13, %13, %13, %13, %13, %13, %13, %13, %13, %13, %13, %13, %13, %13, %13, %13, %13, %13, %13, %13, %13, %13, %13, %13, %13, %13, %13, %13, %13, %13, %13, %13, %13, %13, %13, %13, %13, %13, %13, %13, %13, %13, %13, %13, %13, %13, %13, %13, %13, %13, %13, %13, %13, %13, %13, %13, %13, %13, %13, %13, %13, %13, %13, %13, %13, %13, %13, %13, %13, %13, %13, %13, %13, %13, %13, %13, %13, %13, %13, %13, %13, %13, %13, %13, %13, %13, %13, %13, %13, %13, %13, %13, %13, %13, %13, %13, %13, %13, %13, %13, %13, %13, %13, %13, %13, %13, %13, %13, %13, %13, %13, %13, %13, %13, %13, %13, %13, %13, %13, %13, %13, %13, %13, %13, %13, %13, %13, %13, %13, %13, %13, %13, %13, %13, %13, %13, %13, %13, %13, %13, %13, %13, %13, %13, %13, %13, %13, %13, %13, %13, %13, %13, %13, %13, %13, %13, %13, %13, %13, %13, %13, %13, %13, %13, %13, %13, %13, %13, %13, %13, %13, %13, %13, %13, %13, %13, %13, %13, %13, %13, %13, %13, %13, %13, %13, %13, %13, %13, %13, %13, %13, %13, %13, %13, %13, %13, %13, %13, %13, %13, %13, %13, %13, %13, %13, %13, %13, %13, %13, %13, %13, %13, %13, %13, %13, %13, %13, %13, %13, %13, %13, %13, %13, %13, %13, %13, %13, %13, %13, %13, %13, %13, %13, %13, %13, %13, %13, %13, %13, %13, %13, %13, %13, %13, %13, %13, %13, %13, %13, %13, %13, %13, %13, %13, %13, %13, %13, %13, %13, %13, %13, %13, %13, %13, %13, %13, %13, %13, %13, %13, %13, %13, %13, %13, %13, %13, %13, %13, %13, %13, %13, %13, %13, %13, %13, %13, %13, %13, %13, %13, %13, %13, %13, %13, %13, %13, %13, %13, %13, %13, %13, %13, %13, %13, %13, %13, %13, %13, %13, %13, %13, %13, %13, %13, %13, %13, %13, %13, %13, %13, %13, %13, %13, %13, %13, %13, %13, %13, %13, %13, %13, %13, %13, %13, %13, %13, %13, %13, %13, %13, %13, %13, %13, %13, %13, %13, %13, %13, %13, %13, %13, %13, %13, %13, %13, %13, %13, %13, %13, %13, %13, %13, %13, %13, %13, %13, %13, %13, %13, %13, %13, %13, %13, %13, %13, %13, %13, %13, %13, %13, %13, %13, %13, %13, %13, %13, %13, %13, %13, %13, %13, %13, %13, %13, %13, %13, %13, %13, %13, %13, %13, %13, %13, %13, %13, %13, %13, %13, %13, %13, %13, %13, %13, %13, %13, %13, %13, %13, %13, %13, %13, %13, %13, %13, %13, %13, %13, %13, %13, %13, %13, %13, %13, %13, %13, %13, %13, %13, %13, %13, %13, %13, %13, %13, %13, %13, %13, %13, %13, %13, %13, %13, %13, %13, %13, %13, %13, %13, %13, %13, %13, %13, %13, %13, %13, %13, %13, %13, %13, %13, %13, %13, %13, %13, %13, %13, %13, %13, %13, %13, %13, %13, %13, %13, %13, %13, %13, %13, %13, %13, %13, %13, %13, %13, %13, %13, %13, %13, %13, %13, %13, %13, %13, %13, %13, %13, %13, %13, %13, %13, %13, %13, %13, %13, %13, %13, %13, %13, %13, %13, %13, %13, %13, %13, %13, %13, %13, %13, %13, %13, %13, %13, %13, %13, %13, %13, %13, %13, %13, %13, %13, %13, %13, %13, %13, %13, %13, %13, %13, %13, %13, %13, %13, %13, %13, %13, %13, %13, %13, %13, %13, %13, %13, %13, %13, %13, %13, %13, %13, %13, %13, %13, %13, %13, %13, %13, %13, %13, %13, %13, %13, %13, %13, %13, %13, %13, %13, %13, %13, %13, %13, %13, %13, %13, %13, %13, %13, %13, %13, %13, %13, %13, %13, %13, %13, %13, %13, %13, %13, %13, %13, %13, %13, %13, %13, %13, %13, %13, %13, %13, %13, %13, %13, %13, %13, %13, %13, %13, %13, %13, %13, %13, %13, %13, %13, %13, %13, %13, %13, %13, %13, %13, %13, %13, %13, %13, %13, %13, %13, %13, %13, %13, %13, %13, %13, %13, %13, %13, %13, %13, %13, %13, %13, %13, %13, %13, %13, %13, %13, %13, %13, %13, %13, %13, %13, %13, %13, %13, %13, %13, %13, %13, %13, %13, %13, %13, %13, %13, %13, %13, %13, %13, %13, %13, %13, %13, %13, %13, %13, %13, %13, %13, %13, %13, %13, %13, %13, %13, %13, %13, %13, %13, %13, %13, %13, %13, %13, %13, %13, %13, %13, %13, %13, %13, %13, %13, %13, %13, %13, %13, %13, %13, %13, %13, %13, %13, %13, %13, %13, %13, %13, %13, %13, %13, %13, %13, %13, %13, %13, %13, %13, %13, %13, %13, %13, %13, %13, %13, %13, %13, %13, %13, %13, %13, %13, %13, %13, %13, %13, %13, %13, %13, %13, %13, %13, %13, %13, %13, %13, %13, %13, %13, %13, %13, %13, %13, %13, %13, %13, %13, %13, %13, %13, %13, %13, %13, %13, %13, %13, %13, %13, %13, %13, %13, %13, %13, %13, %13, %13, %13, %13, %13, %13, %13, %13, %13, %13, %13, %13, %13, %13, %13, %13, %13, %13, %13, %13, %13, %13, %13, %13, %13, %13, %13, %13, %13, %13, %13, %13, %13, %13, %13, %13, %13, %13, %13, %13, %13, %13, %13, %13, %13, %13, %13, %13, %13, %13, %13, %13, %13, %13, %13, %13, %13, %13, %13, %13, %13, %13, %13, %13, %13, %13, %13, %13, %13, %13, %13, %13, %13, %13, %13, %13, %13, %13, %13, %13, %13, %13, %13, %13, %13, %13, %13, %13, %13, %13, %13, %13, %13, %13, %13, %13, %13, %13, %13, %13, %13, %13, %13, %13, %13, %13, %13, %13, %13, %13, %13, %13, %13, %13, %13, %13, %13, %13, %13, %13, %13, %13, %13, %13, %13, %13, %13, %13, %13, %13, %13, %13, %13, %13, %13, %13, %13, %13, %13, %13, %13, %13, %13, %13, %13, %13, %13, %13, %13, %13, %13, %13, %13, %13, %13, %13, %13, %13, %13, %13, %13, %13, %13, %13, %13, %13, %13, %13, %13, %13, %13, %13, %13, %13, %13, %13, %13, %13, %13, %13, %13, %13, %13, %13, %13, %13, %13, %13, %13, %13, %13, %13, %13, %13, %13, %13, %13, %13, %13, %13, %13, %13, %13, %13, %13, %13, %13, %13, %13, %13, %13, %13, %13, %13, %13, %13, %13, %13, %13, %13, %13, %13, %13, %13, %13, %13, %13, %13, %13, %13, %13, %13, %13, %13, %13, %13, %13, %13, %13, %13, %13, %13, %13, %13, %13, %13, %13, %13, %13, %13, %13, %13, %13, %13, %13, %13, %13, %13, %13, %13, %13, %13, %13, %13, %13, %13, %13, %13, %13, %13, %13, %13, %13, %13, %13, %13, %13, %13, %13, %13, %13, %13, %13, %13, %13, %13, %13, %13, %13, %13, %13, %13, %13, %13, %13, %13, %13, %13, %13, %13, %13, %13, %13, %13, %13, %13, %13, %13, %13, %13, %13, %13, %13, %13, %13, %13, %13, %13, %13, %13, %13, %13, %13, %13, %13, %13, %13, %13, %13, %13, %13, %13, %13, %13, %13, %13, %13, %13, %13, %13, %13, %13, %13, %13, %13, %13, %13, %13, %13, %13, %13, %13, %13, %13, %13, %13, %13, %13, %13, %13, %13, %13, %13, %13, %13, %13, %13, %13, %13, %13, %13, %13, %13, %13, %13, %13, %13, %13, %13, %13, %13, %13, %13, %13, %13, %13, %13, %13, %13, %13, %13, %13, %13, %13, %13, %13, %13, %13, %13, %13, %13, %13, %13, %13, %13, %13, %13, %13, %13, %13, %13, %13, %13, %13, %13, %13, %13, %13, %13, %13, %13, %13, %13, %13, %13, %13, %13, %13, %13, %13, %13, %13, %13, %13, %13, %13, %13, %13, %13, %13, %13, %13, %13, %13, %13, %13, %13, %13, %13, %13, %13, %13, %13, %13, %13, %13, %13, %13, %13, %13, %13, %13, %13, %13, %13, %13, %13, %13, %13, %13, %13, %13, %13, %13, %13, %13, %13, %13, %13, %13, %13, %13, %13, %13, %13, %13, %13, %13, %13, %13, %13, %13, %13, %13, %13, %13, %13, %13, %13, %13, %13, %13, %13, %13, %13, %13, %13, %13, %13, %13, %13, %13, %13, %13, %13, %13, %13, %13, %13, %13, %13, %13, %13, %13, %13, %13, %13, %13, %13, %13, %13, %13, %13, %13, %13, %13, %13, %13, %13, %13, %13, %13, %13, %13, %13, %13, %13, %13, %13, %13, %13, %13, %13, %13, %13, %13, %13, %13, %13, %13, %13, %13, %13, %13, %13, %13, %13, %13, %13, %13, %13, %13, %13, %13, %13, %13, %13, %13, %13, %13, %13, %13, %13, %13, %13, %13, %13, %13, %13, %13, %13, %13, %13, %13, %13, %13, %13, %13, %13, %13, %13, %13, %13, %13, %13, %13, %13, %13, %13, %13, %13, %13, %13, %13, %13, %13, %13, %13, %13, %13, %13, %13, %13, %13, %13, %13, %13, %13, %13, %13, %13, %13, %13, %13, %13, %13, %13, %13, %13, %13, %13, %13, %13, %13, %13, %13, %13, %13, %13, %13, %13, %13, %13, %13, %13, %13, %13, %13, %13, %13, %13, %13, %13, %13, %13, %13, %13, %13, %13, %13, %13, %13, %13, %13, %13, %13, %13, %13, %13, %13, %13, %13, %13, %13, %13, %13, %13, %13, %13, %13, %13, %13, %13, %13, %13, %13, %13, %13, %13, %13, %13, %13, %13, %13, %13, %13, %13, %13, %13, %13, %13, %13, %13, %13, %13, %13, %13, %13, %13, %13, %13, %13, %13, %13, %13, %13, %13, %13, %13, %13, %13, %13, %13, %13, %13, %13, %13, %13, %13, %13, %13, %13, %13, %13, %13, %13, %13, %13, %13, %13, %13, %13, %13, %13, %13, %13, %13, %13, %13, %13, %13, %13, %13, %13, %13, %13, %13, %13, %13, %13, %13, %13, %13, %13, %13, %13, %13, %13, %13, %13, %13, %13, %13, %13, %13, %13, %13, %13, %13, %13, %13, %13, %13, %13, %13, %13, %13, %13, %13, %13, %13, %13, %13, %13, %13, %13, %13, %13, %13, %13, %13, %13, %13, %13, %13, %13, %13, %13, %13, %13, %13, %13, %13, %13, %13, %13, %13, %13, %13, %13, %13, %13, %13, %13, %13, %13, %13, %13, %13, %13, %13, %13, %13, %13, %13, %13, %13, %13, %13, %13, %13, %13, %13, %13, %13, %13, %13, %13, %13, %13, %13, %13, %13, %13, %13, %13, %13, %13, %13, %13, %13, %13, %13, %13, %13, %13, %13, %13, %13, %13, %13, %13, %13, %13, %13, %13, %13, %13, %13, %13, %13, %13, %13, %13, %13, %13, %13, %13, %13, %13, %13, %13, %13, %13, %13, %13, %13, %13, %13, %13, %13, %13, %13, %13, %13, %13, %13, %13, %13, %13, %13, %13, %13, %13, %13, %13, %13, %13, %13, %13, %13, %13, %13, %13, %13, %13, %13, %13, %13, %13, %13, %13, %13, %13, %13, %13, %13, %13, %13, %13, %13, %13, %13, %13, %13, %13, %13, %13, %13, %13, %13, %13, %13, %13, %13, %13, %13, %13, %13, %13, %13, %13, %13, %13, %13, %13, %13, %13, %13, %13, %13, %13, %13, %13, %13, %13, %13, %13, %13, %13, %13, %13, %13, %13, %13, %13, %13, %13, %13, %13, %13, %13, %13, %13, %13, %13, %13, %13, %13, %13, %13, %13, %13, %13, %13, %13, %13, %13, %13, %13, %13, %13, %13, %13, %13, %13, %13, %13, %13, %13, %13, %13, %13, %13, %13, %13, %13, %13, %13, %13, %13, %13, %13, %13, %13, %13, %13, %13, %13, %13, %13, %13, %13, %13, %13, %13, %13, %13, %13, %13, %13, %13, %13, %13, %13, %13, %13, %13, %13, %13, %13, %13, %13, %13, %13, %13, %13, %13, %13, %13, %13, %13, %13, %13, %13, %13, %13, %13, %13, %13, %13, %13, %13, %13, %13, %13, %13, %13, %13, %13, %13, %13, %13, %13, %13, %13, %13, %13, %13, %13, %13, %13, %13, %13, %13, %13, %13, %13, %13, %13, %13, %13, %13, %13, %13, %13, %13, %13, %13, %13, %13, %13, %13, %13, %13, %13, %13, %13, %13, %13, %13, %13, %13, %13, %13, %13, %13, %13, %13, %13, %13, %13, %13, %13, %13, %13, %13, %13, %13, %13, %13, %13, %13, %13, %13, %13, %13, %13, %13, %13, %13, %13, %13, %13, %13, %13, %13, %13, %13, %13, %13, %13, %13, %13, %13, %13, %13, %13, %13, %13, %13, %13, %13, %13, %13, %13, %13, %13, %13, %13, %13, %13, %13, %13, %13, %13, %13, %13, %13, %13, %13, %13, %13, %13, %13, %13, %13, %13, %13, %13, %13, %13, %13, %13, %13, %13, %13, %13, %13, %13, %13, %13, %13, %13, %13, %13, %13, %13, %13, %13, %13, %13, %13, %13, %13, %13, %13, %13, %13, %13, %13, %13, %13, %13, %13, %13, %13, %13, %13, %13, %13, %13, %13, %13, %13, %13, %13, %13, %13, %13, %13, %13, %13, %13, %13, %13, %13, %13, %13, %13, %13, %13, %13, %13, %13, %13, %13, %13, %13, %13, %13, %13, %13, %13, %13, %13, %13, %13, %13, %13, %13, %13, %13, %13, %13, %13, %13, %13, %13, %13, %13, %13, %13, %13, %13, %13, %13, %13, %13, %13, %13, %13, %13, %13, %13, %13, %13, %13, %13, %13, %13, %13, %13, %13, %13, %13, %13, %13, %13, %13, %13, %13, %13, %13, %13, %13, %13, %13, %13, %13, %13, %13, %13, %13, %13, %13, %13, %13, %13, %13, %13, %13, %13, %13, %13, %13, %13, %13, %13, %13, %13, %13, %13, %13, %13, %13, %13, %13, %13, %13, %13, %13, %13, %13, %13, %13, %13, %13, %13, %13, %13, %13, %13, %13, %13, %13, %13, %13, %13, %13, %13, %13, %13, %13, %13, %13, %13, %13, %13, %13, %13, %13, %13, %13, %13, %13, %13, %13, %13, %13, %13, %13, %13, %13, %13, %13, %13, %13, %13, %13, %13, %13, %13, %13, %13, %13, %13, %13, %13, %13, %13, %13, %13, %13, %13, %13, %13, %13, %13, %13, %13, %13, %13, %13, %13, %13, %13, %13, %13, %13, %13, %13, %13, %13, %13, %13, %13, %13, %13, %13, %13, %13, %13, %13, %13, %13, %13, %13, %13, %13, %13, %13, %13, %13, %13, %13, %13, %13, %13, %13, %13, %13, %13, %13, %13, %13, %13, %13, %13, %13, %13, %13, %13, %13, %13, %13, %13, %13, %13, %13, %13, %13, %13, %13, %13, %13, %13, %13, %13, %13, %13, %13, %13, %13, %13, %13, %13, %13, %13, %13, %13, %13, %13, %13, %13, %13, %13, %13, %13, %13, %13, %13, %13, %13, %13, %13, %13, %13, %13, %13, %13, %13, %13, %13, %13, %13, %13, %13, %13, %13, %13, %13, %13, %13, %13, %13, %13, %13, %13, %13, %13, %13, %13, %13, %13, %13, %13, %13, %13, %13, %13, %13, %13, %13, %13, %13, %13, %13, %13, %13, %13, %13, %13, %13, %13, %13, %13, %13, %13, %13, %13, %13, %13, %13, %13, %13, %13, %13, %13, %13, %13, %13, %13, %13, %13, %13, %13, %13, %13, %13, %13, %13, %13, %13, %13, %13, %13, %13, %13, %13, %13, %13, %13, %13, %13, %13, %13, %13, %13, %13, %13, %13, %13, %13, %13, %13, %13, %13, %13, %13, %13, %13, %13, %13, %13, %13, %13, %13, %13, %13, %13, %13, %13, %13, %13, %13, %13, %13, %13, %13, %13, %13, %13, %13, %13, %13, %13, %13, %13, %13, %13, %13, %13, %13, %13, %13, %13, %13, %13, %13, %13, %13, %13, %13, %13, %13, %13, %13, %13, %13, %13, %13, %13, %13, %13, %13, %13, %13, %13, %13, %13, %13, %13, %13, %13, %13, %13, %13, %13, %13, %13, %13, %13, %13, %13, %13, %13, %13, %13, %13, %13, %13, %13, %13, %13, %13, %13, %13, %13, %13, %13, %13, %13, %13, %13, %13, %13, %13, %13, %13, %13, %13, %13, %13, %13, %13, %13, %13, %13, %13, %13, %13, %13, %13, %13, %13, %13, %13, %13, %13, %13, %13, %13, %13, %13, %13, %13, %13, %13, %13, %13, %13, %13, %13, %13, %13, %13, %13, %13, %13, %13, %13, %13, %13, %13, %13, %13, %13, %13, %13, %13, %13, %13, %13, %13, %13, %13, %13, %13, %13, %13, %13, %13, %13, %13, %13, %13, %13, %13, %13, %13, %13, %13, %13, %13, %13, %13, %13, %13, %13, %13, %13, %13, %13, %13, %13, %13, %13, %13, %13, %13, %13, %13, %13, %13, %13, %13, %13, %13, %13, %13, %13, %13, %13, %13, %13, %13, %13, %13, %13, %13, %13, %13, %13, %13, %13, %13, %13, %13, %13, %13, %13, %13, %13, %13, %13, %13, %13, %13, %13, %13, %13, %13, %13, %13, %13, %13, %13, %13, %13, %13, %13, %13, %13, %13, %13, %13, %13, %13, %13, %13, %13, %13, %13, %13, %13, %13, %13, %13, %13, %13, %13, %13, %13, %13, %13, %13, %13, %13, %13, %13, %13, %13, %13, %13, %13, %13, %13, %13, %13, %13, %13, %13, %13, %13, %13, %13, %13, %13, %13, %13, %13, %13, %13, %13, %13, %13, %13, %13, %13, %13, %13, %13, %13, %13, %13, %13, %13, %13, %13, %13, %13, %13, %13, %13, %13, %13, %13, %13, %13, %13, %13, %13, %13, %13, %13, %13, %13, %13, %13, %13, %13, %13, %13, %13, %13, %13, %13, %13, %13, %13, %13, %13, %13, %13, %13, %13, %13, %13, %13, %13, %13, %13, %13, %13, %13, %13, %13, %13, %13, %13, %13, %13, %13, %13, %13, %13, %13, %13, %13, %13, %13, %13, %13, %13, %13, %13, %13, %13, %13, %13, %13, %13, %13, %13, %13, %13, %13, %13, %13, %13, %13, %13, %13, %13, %13, %13, %13, %13, %13, %13, %13, %13, %13, %13, %13, %13, %13, %13, %13, %13, %13, %13, %13, %13, %13, %13, %13, %13, %13, %13, %13, %13, %13, %13, %13, %13, %13, %13, %13, %13, %13, %13, %13, %13, %13, %13, %13, %13, %13, %13, %13, %13, %13, %13, %13, %13, %13, %13, %13, %13, %13, %13, %13, %13, %13, %13, %13, %13, %13, %13, %13, %13, %13, %13, %13, %13, %13, %13, %13, %13, %13, %13, %13, %13, %13, %13, %13, %13, %13, %13, %13, %13, %13, %13, %13, %13, %13, %13, %13, %13, %13, %13, %13, %13, %13, %13, %13, %13, %13, %13, %13, %13, %13, %13, %13, %13, %13, %13, %13, %13, %13, %13, %13, %13, %13, %13, %13, %13, %13, %13, %13, %13) : (i16, i16, i16, i16, i16, i16, i16, i16, i16, i16, i16, i16, i16, i16, i16, i16, i16, i16, i16, i16, i16, i16, i16, i16, i16, i16, i16, i16, i16, i16, i16, i16, i16, i16, i16, i16, i16, i16, i16, i16, i16, i16, i16, i16, i16, i16, i16, i16, i16, i16, i16, i16, i16, i16, i16, i16, i16, i16, i16, i16, i16, i16, i16, i16, i16, i16, i16, i16, i16, i16, i16, i16, i16, i16, i16, i16, i16, i16, i16, i16, i16, i16, i16, i16, i16, i16, i16, i16, i16, i16, i16, i16, i16, i16, i16, i16, i16, i16, i16, i16, i16, i16, i16, i16, i16, i16, i16, i16, i16, i16, i16, i16, i16, i16, i16, i16, i16, i16, i16, i16, i16, i16, i16, i16, i16, i16, i16, i16, i16, i16, i16, i16, i16, i16, i16, i16, i16, i16, i16, i16, i16, i16, i16, i16, i16, i16, i16, i16, i16, i16, i16, i16, i16, i16, i16, i16, i16, i16, i16, i16, i16, i16, i16, i16, i16, i16, i16, i16, i16, i16, i16, i16, i16, i16, i16, i16, i16, i16, i16, i16, i16, i16, i16, i16, i16, i16, i16, i16, i16, i16, i16, i16, i16, i16, i16, i16, i16, i16, i16, i16, i16, i16, i16, i16, i16, i16, i16, i16, i16, i16, i16, i16, i16, i16, i16, i16, i16, i16, i16, i16, i16, i16, i16, i16, i16, i16, i16, i16, i16, i16, i16, i16, i16, i16, i16, i16, i16, i16, i16, i16, i16, i16, i16, i16, i16, i16, i16, i16, i16, i16, i16, i16, i16, i16, i16, i16, i16, i16, i16, i16, i16, i16, i16, i16, i16, i16, i16, i16, i16, i16, i16, i16, i16, i16, i16, i16, i16, i16, i16, i16, i16, i16, i16, i16, i16, i16, i16, i16, i16, i16, i16, i16, i16, i16, i16, i16, i16, i16, i16, i16, i16, i16, i16, i16, i16, i16, i16, i16, i16, i16, i16, i16, i16, i16, i16, i16, i16, i16, i16, i16, i16, i16, i16, i16, i16, i16, i16, i16, i16, i16, i16, i16, i16, i16, i16, i16, i16, i16, i16, i16, i16, i16, i16, i16, i16, i16, i16, i16, i16, i16, i16, i16, i16, i16, i16, i16, i16, i16, i16, i16, i16, i16, i16, i16, i16, i16, i16, i16, i16, i16, i16, i16, i16, i16, i16, i16, i16, i16, i16, i16, i16, i16, i16, i16, i16, i16, i16, i16, i16, i16, i16, i16, i16, i16, i16, i16, i16, i16, i16, i16, i16, i16, i16, i16, i16, i16, i16, i16, i16, i16, i16, i16, i16, i16, i16, i16, i16, i16, i16, i16, i16, i16, i16, i16, i16, i16, i16, i16, i16, i16, i16, i16, i16, i16, i16, i16, i16, i16, i16, i16, i16, i16, i16, i16, i16, i16, i16, i16, i16, i16, i16, i16, i16, i16, i16, i16, i16, i16, i16, i16, i16, i16, i16, i16, i16, i16, i16, i16, i16, i16, i16, i16, i16, i16, i16, i16, i16, i16, i16, i16, i16, i16, i16, i16, i16, i16, i16, i16, i16, i16, i16, i16, i16, i16, i16, i16, i16, i16, i16, i16, i16, i16, i16, i16, i16, i16, i16, i16, i16, i16, i16, i16, i16, i16, i16, i16, i16, i16, i16, i16, i16, i16, i16, i16, i16, i16, i16, i16, i16, i16, i16, i16, i16, i16, i16, i16, i16, i16, i16, i16, i16, i16, i16, i16, i16, i16, i16, i16, i16, i16, i16, i16, i16, i16, i16, i16, i16, i16, i16, i16, i16, i16, i16, i16, i16, i16, i16, i16, i16, i16, i16, i16, i16, i16, i16, i16, i16, i16, i16, i16, i16, i16, i16, i16, i16, i16, i16, i16, i16, i16, i16, i16, i16, i16, i16, i16, i16, i16, i16, i16, i16, i16, i16, i16, i16, i16, i16, i16, i16, i16, i16, i16, i16, i16, i16, i16, i16, i16, i16, i16, i16, i16, i16, i16, i16, i16, i16, i16, i16, i16, i16, i16, i16, i16, i16, i16, i16, i16, i16, i16, i16, i16, i16, i16, i16, i16, i16, i16, i16, i16, i16, i16, i16, i16, i16, i16, i16, i16, i16, i16, i16, i16, i16, i16, i16, i16, i16, i16, i16, i16, i16, i16, i16, i16, i16, i16, i16, i16, i16, i16, i16, i16, i16, i16, i16, i16, i16, i16, i16, i16, i16, i16, i16, i16, i16, i16, i16, i16, i16, i16, i16, i16, i16, i16, i16, i16, i16, i16, i16, i16, i16, i16, i16, i16, i16, i16, i16, i16, i16, i16, i16, i16, i16, i16, i16, i16, i16, i16, i16, i16, i16, i16, i16, i16, i16, i16, i16, i16, i16, i16, i16, i16, i16, i16, i16, i16, i16, i16, i16, i16, i16, i16, i16, i16, i16, i16, i16, i16, i16, i16, i16, i16, i16, i16, i16, i16, i16, i16, i16, i16, i16, i16, i16, i16, i16, i16, i16, i16, i16, i16, i16, i16, i16, i16, i16, i16, i16, i16, i16, i16, i16, i16, i16, i16, i16, i16, i16, i16, i16, i16, i16, i16, i16, i16, i16, i16, i16, i16, i16, i16, i16, i16, i16, i16, i16, i16, i16, i16, i16, i16, i16, i16, i16, i16, i16, i16, i16, i16, i16, i16, i16, i16, i16, i16, i16, i16, i16, i16, i16, i16, i16, i16, i16, i16, i16, i16, i16, i16, i16, i16, i16, i16, i16, i16, i16, i16, i16, i16, i16, i16, i16, i16, i16, i16, i16, i16, i16, i16, i16, i16, i16, i16, i16, i16, i16, i16, i16, i16, i16, i16, i16, i16, i16, i16, i16, i16, i16, i16, i16, i16, i16, i16, i16, i16, i16, i16, i16, i16, i16, i16, i16, i16, i16, i16, i16, i16, i16, i16, i16, i16, i16, i16, i16, i16, i16, i16, i16, i16, i16, i16, i16, i16, i16, i16, i16, i16, i16, i16, i16, i16, i16, i16, i16, i16, i16, i16, i16, i16, i16, i16, i16, i16, i16, i16, i16, i16, i16, i16, i16, i16, i16, i16, i16, i16, i16, i16, i16, i16, i16, i16, i16, i16, i16, i16, i16, i16, i16, i16, i16, i16, i16, i16, i16, i16, i16, i16, i16, i16, i16, i16, i16, i16, i16, i16, i16, i16, i16, i16, i16, i16, i16, i16, i16, i16, i16, i16, i16, i16, i16, i16, i16, i16, i16, i16, i16, i16, i16, i16, i16, i16, i16, i16, i16, i16, i16, i16, i16, i16, i16, i16, i16, i16, i16, i16, i16, i16, i16, i16, i16, i16, i16, i16, i16, i16, i16, i16, i16, i16, i16, i16, i16, i16, i16, i16, i16, i16, i16, i16, i16, i16, i16, i16, i16, i16, i16, i16, i16, i16, i16, i16, i16, i16, i16, i16, i16, i16, i16, i16, i16, i16, i16, i16, i16, i16, i16, i16, i16, i16, i16, i16, i16, i16, i16, i16, i16, i16, i16, i16, i16, i16, i16, i16, i16, i16, i16, i16, i16, i16, i16, i16, i16, i16, i16, i16, i16, i16, i16, i16, i16, i16, i16, i16, i16, i16, i16, i16, i16, i16, i16, i16, i16, i16, i16, i16, i16, i16, i16, i16, i16, i16, i16, i16, i16, i16, i16, i16, i16, i16, i16, i16, i16, i16, i16, i16, i16, i16, i16, i16, i16, i16, i16, i16, i16, i16, i16, i16, i16, i16, i16, i16, i16, i16, i16, i16, i16, i16, i16, i16, i16, i16, i16, i16, i16, i16, i16, i16, i16, i16, i16, i16, i16, i16, i16, i16, i16, i16, i16, i16, i16, i16, i16, i16, i16, i16, i16, i16, i16, i16, i16, i16, i16, i16, i16, i16, i16, i16, i16, i16, i16, i16, i16, i16, i16, i16, i16, i16, i16, i16, i16, i16, i16, i16, i16, i16, i16, i16, i16, i16, i16, i16, i16, i16, i16, i16, i16, i16, i16, i16, i16, i16, i16, i16, i16, i16, i16, i16, i16, i16, i16, i16, i16, i16, i16, i16, i16, i16, i16, i16, i16, i16, i16, i16, i16, i16, i16, i16, i16, i16, i16, i16, i16, i16, i16, i16, i16, i16, i16, i16, i16, i16, i16, i16, i16, i16, i16, i16, i16, i16, i16, i16, i16, i16, i16, i16, i16, i16, i16, i16, i16, i16, i16, i16, i16, i16, i16, i16, i16, i16, i16, i16, i16, i16, i16, i16, i16, i16, i16, i16, i16, i16, i16, i16, i16, i16, i16, i16, i16, i16, i16, i16, i16, i16, i16, i16, i16, i16, i16, i16, i16, i16, i16, i16, i16, i16, i16, i16, i16, i16, i16, i16, i16, i16, i16, i16, i16, i16, i16, i16, i16, i16, i16, i16, i16, i16, i16, i16, i16, i16, i16, i16, i16, i16, i16, i16, i16, i16, i16, i16, i16, i16, i16, i16, i16, i16, i16, i16, i16, i16, i16, i16, i16, i16, i16, i16, i16, i16, i16, i16, i16, i16, i16, i16, i16, i16, i16, i16, i16, i16, i16, i16, i16, i16, i16, i16, i16, i16, i16, i16, i16, i16, i16, i16, i16, i16, i16, i16, i16, i16, i16, i16, i16, i16, i16, i16, i16, i16, i16, i16, i16, i16, i16, i16, i16, i16, i16, i16, i16, i16, i16, i16, i16, i16, i16, i16, i16, i16, i16, i16, i16, i16, i16, i16, i16, i16, i16, i16, i16, i16, i16, i16, i16, i16, i16, i16, i16, i16, i16, i16, i16, i16, i16, i16, i16, i16, i16, i16, i16, i16, i16, i16, i16, i16, i16, i16, i16, i16, i16, i16, i16, i16, i16, i16, i16, i16, i16, i16, i16, i16, i16, i16, i16, i16, i16, i16, i16, i16, i16, i16, i16, i16, i16, i16, i16, i16, i16, i16, i16, i16, i16, i16, i16, i16, i16, i16, i16, i16, i16, i16, i16, i16, i16, i16, i16, i16, i16, i16, i16, i16, i16, i16, i16, i16, i16, i16, i16, i16, i16, i16, i16, i16, i16, i16, i16, i16, i16, i16, i16, i16, i16, i16, i16, i16, i16, i16, i16, i16, i16, i16, i16, i16, i16, i16, i16, i16, i16, i16, i16, i16, i16, i16, i16, i16, i16, i16, i16, i16, i16, i16, i16, i16, i16, i16, i16, i16, i16, i16, i16, i16, i16, i16, i16, i16, i16, i16, i16, i16, i16, i16, i16, i16, i16, i16, i16, i16, i16, i16, i16, i16, i16, i16, i16, i16, i16, i16, i16, i16, i16, i16, i16, i16, i16, i16, i16, i16, i16, i16, i16, i16, i16, i16, i16, i16, i16, i16, i16, i16, i16, i16, i16, i16, i16, i16, i16, i16, i16, i16, i16, i16, i16, i16, i16, i16, i16, i16, i16, i16, i16, i16, i16, i16, i16, i16, i16, i16, i16, i16, i16, i16, i16, i16, i16, i16, i16, i16, i16, i16, i16, i16, i16, i16, i16, i16, i16, i16, i16, i16, i16, i16, i16, i16, i16, i16, i16, i16, i16, i16, i16, i16, i16, i16, i16, i16, i16, i16, i16, i16, i16, i16, i16, i16, i16, i16, i16, i16, i16, i16, i16, i16, i16, i16, i16, i16, i16, i16, i16, i16, i16, i16, i16, i16, i16, i16, i16, i16, i16, i16, i16, i16, i16, i16, i16, i16, i16, i16, i16, i16, i16, i16, i16, i16, i16, i16, i16, i16, i16, i16, i16, i16, i16, i16, i16, i16, i16, i16, i16, i16, i16, i16, i16, i16, i16, i16, i16, i16, i16, i16, i16, i16, i16, i16, i16, i16, i16, i16, i16, i16, i16, i16, i16, i16, i16, i16, i16, i16, i16, i16, i16, i16, i16, i16, i16, i16, i16, i16, i16, i16, i16, i16, i16, i16, i16, i16, i16, i16, i16, i16, i16, i16, i16, i16, i16, i16, i16, i16, i16, i16, i16, i16, i16, i16, i16, i16, i16, i16, i16, i16, i16, i16, i16, i16, i16, i16, i16, i16, i16, i16, i16, i16, i16, i16, i16, i16, i16, i16, i16, i16, i16, i16, i16, i16, i16, i16, i16, i16, i16, i16, i16, i16, i16, i16, i16, i16, i16, i16, i16, i16, i16, i16, i16, i16, i16, i16, i16, i16, i16, i16, i16, i16, i16, i16, i16, i16, i16, i16, i16, i16, i16, i16, i16, i16, i16, i16, i16, i16, i16, i16, i16, i16, i16, i16, i16, i16, i16, i16, i16, i16, i16, i16, i16, i16, i16, i16, i16, i16, i16, i16, i16, i16, i16, i16, i16, i16, i16, i16, i16, i16, i16, i16, i16, i16, i16, i16, i16, i16, i16, i16, i16, i16, i16, i16, i16, i16, i16, i16, i16, i16, i16, i16, i16, i16, i16, i16, i16, i16, i16, i16, i16, i16, i16, i16, i16, i16, i16, i16, i16, i16, i16, i16, i16, i16, i16, i16, i16, i16, i16, i16, i16, i16, i16, i16, i16, i16, i16, i16, i16, i16, i16, i16, i16, i16, i16, i16, i16, i16, i16, i16, i16, i16, i16, i16, i16, i16, i16, i16, i16, i16, i16, i16, i16, i16, i16, i16, i16, i16, i16, i16, i16, i16, i16, i16, i16, i16, i16, i16, i16, i16, i16, i16, i16, i16, i16, i16, i16, i16, i16, i16, i16, i16, i16, i16, i16, i16, i16, i16, i16, i16, i16, i16, i16, i16, i16, i16, i16, i16, i16, i16, i16, i16, i16, i16, i16, i16, i16, i16, i16, i16, i16, i16, i16, i16, i16, i16, i16, i16, i16, i16, i16, i16, i16, i16, i16, i16, i16, i16, i16, i16, i16, i16, i16, i16, i16, i16, i16, i16, i16, i16, i16, i16, i16, i16, i16, i16, i16, i16, i16, i16, i16, i16, i16, i16, i16, i16, i16, i16, i16, i16, i16, i16, i16, i16, i16, i16, i16, i16, i16, i16, i16, i16, i16, i16, i16, i16, i16, i16, i16, i16, i16, i16, i16, i16, i16, i16, i16, i16, i16, i16, i16, i16, i16, i16, i16, i16, i16, i16, i16, i16, i16, i16, i16, i16, i16, i16, i16, i16, i16, i16, i16, i16, i16, i16, i16, i16, i16, i16, i16, i16, i16, i16, i16, i16, i16, i16, i16, i16, i16, i16, i16, i16, i16, i16, i16, i16, i16, i16, i16, i16, i16, i16, i16, i16, i16, i16, i16, i16, i16, i16, i16, i16, i16, i16, i16, i16, i16, i16, i16, i16, i16, i16, i16, i16, i16, i16, i16, i16, i16, i16, i16, i16, i16, i16, i16, i16, i16, i16, i16, i16, i16, i16, i16, i16, i16, i16, i16, i16, i16, i16, i16, i16, i16, i16, i16, i16, i16, i16, i16, i16, i16, i16, i16, i16, i16, i16, i16, i16, i16, i16, i16, i16, i16, i16, i16, i16, i16, i16, i16, i16, i16, i16, i16, i16, i16, i16, i16, i16, i16, i16, i16, i16, i16, i16, i16, i16, i16, i16, i16, i16, i16, i16, i16, i16, i16, i16, i16, i16, i16, i16, i16, i16, i16, i16, i16, i16, i16, i16, i16, i16, i16, i16, i16, i16, i16, i16, i16, i16, i16, i16, i16, i16, i16, i16, i16, i16, i16, i16, i16, i16, i16, i16, i16, i16, i16, i16, i16, i16, i16, i16, i16, i16, i16, i16, i16, i16, i16, i16, i16, i16, i16, i16, i16, i16, i16, i16, i16, i16, i16, i16, i16, i16, i16, i16, i16, i16, i16, i16, i16, i16, i16, i16, i16, i16, i16, i16, i16, i16, i16, i16, i16, i16, i16, i16, i16, i16, i16, i16, i16, i16, i16, i16, i16, i16, i16, i16, i16, i16, i16, i16, i16, i16, i16, i16, i16, i16, i16, i16, i16, i16, i16, i16, i16, i16, i16, i16, i16, i16, i16, i16, i16, i16, i16, i16, i16, i16, i16, i16, i16, i16, i16, i16, i16, i16, i16, i16, i16, i16, i16, i16, i16, i16, i16, i16, i16, i16, i16, i16, i16, i16, i16, i16, i16, i16, i16, i16, i16, i16, i16, i16, i16, i16, i16, i16, i16, i16, i16, i16, i16, i16, i16, i16, i16, i16, i16, i16, i16, i16, i16, i16, i16, i16, i16, i16, i16, i16, i16, i16, i16, i16, i16, i16, i16, i16, i16, i16, i16, i16, i16, i16, i16, i16, i16, i16, i16, i16, i16, i16, i16, i16, i16, i16, i16, i16, i16, i16, i16, i16, i16, i16, i16, i16, i16, i16, i16, i16, i16, i16, i16, i16, i16, i16, i16, i16, i16, i16, i16, i16, i16, i16, i16, i16, i16, i16, i16, i16, i16, i16, i16, i16, i16, i16, i16, i16, i16, i16, i16, i16, i16, i16, i16, i16, i16, i16, i16, i16, i16, i16, i16, i16, i16, i16, i16, i16, i16, i16, i16, i16, i16, i16, i16, i16, i16, i16, i16, i16, i16, i16, i16, i16, i16, i16, i16, i16, i16, i16, i16, i16, i16, i16, i16, i16, i16, i16, i16, i16, i16, i16, i16, i16, i16, i16, i16, i16, i16, i16, i16, i16, i16, i16, i16, i16, i16, i16, i16, i16, i16, i16, i16, i16, i16, i16, i16, i16, i16, i16, i16, i16, i16, i16, i16, i16, i16, i16, i16, i16, i16, i16, i16, i16, i16, i16, i16, i16, i16, i16, i16, i16, i16, i16, i16, i16, i16, i16, i16, i16, i16, i16, i16, i16, i16, i16, i16, i16, i16, i16, i16, i16, i16, i16, i16, i16, i16, i16, i16, i16, i16, i16, i16, i16, i16, i16, i16, i16, i16, i16, i16, i16, i16, i16, i16, i16, i16, i16, i16, i16, i16, i16, i16, i16, i16, i16, i16, i16, i16, i16, i16, i16, i16, i16, i16, i16, i16, i16, i16, i16, i16, i16, i16, i16, i16, i16, i16, i16, i16, i16, i16, i16, i16, i16, i16, i16, i16, i16, i16, i16, i16, i16, i16, i16, i16, i16, i16, i16, i16, i16, i16, i16, i16, i16, i16, i16, i16, i16, i16, i16, i16, i16, i16, i16, i16, i16, i16, i16, i16, i16, i16, i16, i16, i16, i16, i16, i16, i16, i16, i16, i16, i16, i16, i16, i16, i16, i16, i16, i16, i16, i16, i16, i16, i16, i16, i16, i16, i16, i16, i16, i16, i16, i16, i16, i16, i16, i16, i16, i16, i16, i16, i16, i16, i16, i16, i16, i16, i16, i16, i16, i16, i16, i16, i16, i16, i16, i16, i16, i16, i16, i16, i16, i16, i16, i16, i16, i16, i16, i16, i16, i16, i16, i16, i16, i16, i16, i16, i16, i16, i16, i16, i16, i16, i16, i16, i16, i16, i16, i16, i16, i16, i16, i16, i16, i16, i16, i16, i16, i16, i16, i16, i16, i16, i16, i16, i16, i16, i16, i16, i16, i16, i16, i16, i16, i16, i16, i16, i16, i16, i16, i16, i16, i16, i16, i16, i16, i16, i16, i16, i16, i16, i16, i16, i16, i16, i16, i16, i16, i16, i16, i16, i16, i16, i16, i16, i16, i16, i16, i16, i16, i16, i16, i16, i16, i16, i16, i16, i16, i16, i16, i16, i16, i16, i16, i16, i16, i16, i16, i16, i16, i16, i16, i16, i16, i16, i16, i16, i16, i16, i16, i16, i16, i16, i16, i16, i16, i16, i16, i16, i16, i16, i16, i16, i16, i16, i16, i16, i16, i16, i16, i16, i16, i16, i16, i16, i16, i16, i16, i16, i16, i16, i16, i16, i16, i16, i16, i16, i16, i16, i16, i16, i16, i16, i16, i16, i16, i16, i16, i16, i16, i16, i16, i16, i16, i16, i16, i16, i16, i16, i16, i16, i16, i16, i16, i16, i16, i16, i16, i16, i16, i16, i16, i16, i16, i16, i16, i16, i16, i16, i16, i16, i16, i16, i16, i16, i16, i16, i16, i16, i16, i16, i16, i16, i16, i16, i16, i16, i16, i16, i16, i16, i16, i16, i16, i16, i16, i16, i16, i16, i16, i16, i16, i16, i16, i16, i16, i16, i16, i16, i16, i16, i16, i16, i16, i16, i16, i16, i16, i16, i16, i16, i16, i16, i16, i16, i16, i16, i16, i16, i16, i16, i16, i16, i16, i16, i16, i16, i16, i16, i16, i16, i16, i16, i16, i16, i16, i16, i16, i16, i16, i16, i16, i16, i16, i16, i16, i16, i16, i16, i16, i16, i16, i16, i16, i16, i16, i16, i16, i16, i16, i16, i16, i16, i16, i16, i16, i16, i16, i16, i16, i16, i16, i16, i16, i16, i16, i16, i16, i16, i16, i16, i16, i16, i16, i16, i16, i16, i16, i16, i16, i16, i16, i16, i16, i16, i16, i16, i16, i16, i16, i16, i16, i16, i16, i16, i16, i16, i16, i16, i16, i16, i16, i16, i16, i16, i16, i16, i16, i16, i16, i16, i16, i16, i16, i16, i16, i16, i16, i16, i16, i16, i16, i16, i16, i16, i16, i16, i16, i16, i16, i16, i16, i16, i16, i16, i16, i16, i16, i16, i16, i16, i16, i16, i16, i16, i16, i16, i16, i16, i16, i16, i16, i16, i16, i16, i16, i16, i16, i16, i16, i16, i16, i16, i16, i16, i16, i16, i16, i16, i16, i16, i16, i16, i16, i16, i16, i16, i16, i16, i16, i16, i16, i16, i16, i16, i16, i16, i16, i16, i16, i16, i16, i16, i16, i16, i16, i16, i16, i16, i16, i16, i16, i16, i16, i16, i16, i16, i16, i16, i16, i16, i16, i16, i16, i16, i16, i16, i16, i16, i16, i16, i16, i16, i16, i16, i16, i16, i16, i16, i16, i16, i16, i16, i16, i16, i16, i16, i16, i16, i16, i16, i16, i16, i16, i16, i16, i16, i16, i16, i16, i16, i16, i16, i16, i16, i16, i16, i16, i16, i16, i16, i16, i16, i16, i16, i16, i16, i16, i16, i16, i16, i16, i16, i16, i16, i16, i16, i16, i16, i16, i16, i16, i16, i16, i16, i16, i16, i16, i16, i16, i16, i16, i16, i16, i16, i16, i16, i16, i16, i16, i16, i16, i16, i16, i16, i16, i16, i16, i16, i16, i16, i16, i16, i16, i16, i16, i16, i16, i16, i16, i16, i16, i16, i16, i16, i16, i16, i16, i16, i16, i16, i16, i16, i16, i16, i16, i16, i16, i16, i16, i16, i16, i16, i16, i16, i16, i16, i16, i16, i16, i16, i16, i16, i16, i16, i16, i16, i16, i16, i16, i16, i16, i16, i16, i16, i16, i16, i16, i16, i16, i16, i16, i16, i16, i16, i16, i16, i16, i16, i16, i16, i16, i16, i16, i16, i16, i16, i16, i16, i16, i16, i16, i16, i16, i16, i16, i16, i16, i16, i16, i16, i16, i16, i16, i16, i16, i16, i16, i16, i16, i16, i16, i16, i16, i16, i16, i16, i16, i16, i16, i16, i16, i16, i16, i16, i16, i16, i16, i16, i16, i16, i16, i16, i16, i16, i16, i16, i16, i16, i16, i16, i16, i16, i16, i16, i16, i16, i16, i16, i16, i16, i16, i16, i16, i16, i16, i16, i16, i16, i16, i16, i16, i16, i16, i16, i16, i16, i16, i16, i16, i16, i16, i16, i16, i16, i16, i16, i16, i16, i16, i16, i16, i16, i16, i16, i16, i16, i16, i16, i16, i16, i16, i16, i16, i16, i16, i16, i16, i16, i16, i16, i16, i16, i16, i16, i16, i16, i16, i16, i16, i16, i16, i16, i16, i16, i16, i16, i16, i16, i16, i16, i16, i16, i16, i16, i16, i16, i16, i16, i16, i16, i16, i16, i16, i16, i16, i16, i16, i16, i16, i16, i16, i16, i16, i16, i16, i16, i16, i16, i16, i16, i16, i16, i16, i16, i16, i16, i16, i16, i16, i16, i16, i16, i16, i16, i16, i16, i16, i16, i16, i16, i16, i16, i16, i16, i16, i16, i16, i16, i16, i16, i16, i16, i16, i16, i16, i16, i16, i16, i16, i16, i16, i16, i16, i16, i16, i16, i16, i16, i16, i16, i16, i16, i16, i16, i16, i16, i16, i16, i16, i16, i16, i16, i16, i16, i16, i16, i16, i16, i16, i16, i16, i16, i16, i16, i16, i16, i16, i16, i16, i16, i16, i16, i16, i16, i16, i16, i16, i16, i16, i16, i16, i16, i16, i16, i16, i16, i16, i16, i16, i16, i16, i16, i16, i16, i16, i16, i16, i16, i16, i16, i16, i16, i16, i16, i16, i16, i16, i16, i16, i16, i16, i16, i16, i16, i16, i16, i16, i16, i16, i16, i16, i16, i16, i16, i16, i16, i16, i16, i16, i16, i16, i16, i16, i16, i16, i16, i16, i16, i16, i16, i16, i16, i16, i16, i16, i16, i16, i16, i16, i16, i16, i16, i16, i16, i16, i16, i16, i16, i16, i16, i16, i16, i16, i16, i16, i16, i16, i16, i16, i16, i16, i16, i16, i16, i16, i16, i16, i16, i16, i16, i16, i16, i16, i16, i16, i16, i16, i16, i16, i16, i16, i16, i16, i16, i16, i16, i16, i16, i16, i16, i16, i16, i16, i16, i16, i16, i16, i16, i16, i16, i16, i16, i16, i16, i16, i16, i16, i16, i16, i16, i16, i16, i16, i16, i16, i16, i16, i16, i16, i16, i16, i16, i16, i16, i16, i16, i16, i16, i16, i16, i16, i16, i16, i16, i16, i16, i16, i16, i16, i16, i16, i16, i16, i16, i16, i16, i16, i16, i16, i16, i16, i16, i16, i16, i16, i16, i16, i16, i16, i16, i16, i16, i16, i16, i16, i16, i16, i16, i16, i16, i16, i16, i16, i16, i16, i16, i16, i16, i16, i16, i16, i16, i16, i16, i16, i16, i16, i16, i16, i16, i16, i16, i16, i16, i16, i16, i16, i16, i16, i16, i16, i16, i16, i16, i16, i16, i16, i16, i16, i16, i16, i16, i16, i16, i16, i16, i16, i16, i16, i16, i16, i16, i16, i16, i16, i16, i16, i16, i16, i16, i16, i16, i16, i16, i16, i16, i16, i16, i16, i16, i16, i16, i16, i16, i16, i16, i16, i16, i16, i16, i16, i16, i16, i16, i16, i16, i16, i16, i16, i16, i16, i16, i16, i16, i16, i16, i16, i16, i16, i16, i16, i16, i16, i16, i16, i16, i16, i16, i16, i16, i16, i16, i16, i16, i16, i16, i16, i16, i16, i16, i16, i16, i16, i16, i16, i16, i16, i16, i16, i16, i16, i16, i16, i16, i16, i16, i16, i16, i16, i16, i16, i16, i16, i16, i16, i16, i16, i16, i16, i16, i16, i16, i16, i16, i16, i16, i16, i16, i16, i16, i16, i16, i16, i16, i16, i16, i16, i16, i16, i16, i16, i16, i16, i16, i16, i16, i16, i16, i16, i16, i16, i16, i16, i16, i16, i16, i16, i16, i16, i16, i16, i16, i16, i16, i16, i16, i16, i16, i16, i16, i16, i16, i16, i16, i16, i16, i16, i16, i16, i16, i16, i16, i16, i16, i16, i16, i16, i16, i16, i16, i16, i16, i16, i16, i16, i16, i16, i16, i16, i16, i16, i16, i16, i16, i16, i16, i16, i16, i16, i16, i16, i16, i16, i16, i16, i16, i16, i16, i16, i16, i16, i16, i16, i16, i16, i16, i16, i16, i16, i16, i16, i16, i16, i16, i16, i16, i16, i16, i16, i16, i16, i16, i16, i16, i16, i16, i16, i16, i16, i16, i16, i16, i16, i16, i16, i16, i16, i16, i16, i16, i16, i16, i16, i16, i16, i16, i16, i16, i16, i16, i16, i16, i16, i16, i16, i16, i16, i16, i16, i16, i16, i16, i16, i16, i16, i16, i16, i16, i16, i16, i16, i16, i16, i16, i16, i16, i16, i16, i16, i16, i16, i16, i16, i16, i16, i16, i16, i16, i16, i16, i16, i16, i16, i16, i16, i16, i16, i16, i16, i16, i16, i16, i16, i16, i16, i16, i16, i16, i16, i16, i16, i16, i16, i16, i16, i16, i16, i16, i16, i16, i16, i16, i16, i16, i16, i16, i16, i16, i16, i16, i16, i16, i16, i16, i16, i16, i16, i16, i16, i16, i16, i16, i16, i16, i16, i16, i16, i16, i16, i16, i16, i16, i16, i16, i16, i16, i16, i16, i16, i16, i16, i16, i16, i16, i16, i16, i16, i16, i16, i16, i16, i16, i16, i16, i16, i16, i16, i16, i16, i16, i16, i16, i16, i16, i16, i16, i16, i16, i16, i16, i16, i16, i16, i16, i16, i16, i16, i16, i16, i16, i16, i16, i16, i16, i16, i16, i16, i16, i16, i16, i16, i16, i16, i16, i16, i16, i16, i16, i16, i16, i16, i16, i16, i16, i16, i16, i16, i16, i16, i16, i16, i16, i16, i16, i16, i16, i16, i16, i16, i16, i16, i16, i16, i16, i16, i16, i16, i16, i16, i16, i16, i16, i16, i16, i16, i16, i16, i16, i16, i16, i16, i16, i16, i16, i16, i16, i16, i16, i16, i16, i16, i16, i16, i16, i16, i16, i16, i16, i16, i16, i16, i16, i16, i16, i16, i16, i16, i16, i16, i16, i16, i16, i16, i16, i16, i16, i16, i16, i16, i16, i16, i16, i16, i16, i16, i16, i16, i16, i16, i16, i16, i16, i16, i16, i16, i16, i16, i16, i16, i16, i16, i16, i16, i16, i16, i16, i16, i16, i16, i16, i16, i16, i16, i16, i16, i16, i16, i16, i16, i16, i16, i16, i16, i16, i16, i16, i16, i16, i16, i16, i16, i16, i16, i16, i16, i16, i16, i16, i16, i16, i16, i16, i16, i16, i16, i16, i16, i16, i16, i16, i16, i16, i16, i16, i16, i16, i16, i16, i16, i16, i16, i16, i16, i16, i16, i16, i16, i16, i16, i16, i16, i16, i16, i16, i16, i16, i16, i16, i16, i16, i16, i16, i16, i16, i16, i16, i16, i16, i16, i16, i16, i16, i16, i16, i16, i16, i16, i16, i16, i16, i16, i16, i16, i16, i16, i16, i16, i16, i16, i16, i16, i16, i16, i16, i16, i16, i16, i16, i16, i16, i16, i16, i16, i16, i16, i16, i16, i16, i16, i16, i16, i16, i16, i16, i16, i16, i16, i16, i16, i16, i16, i16, i16, i16, i16, i16, i16, i16, i16, i16, i16, i16, i16, i16, i16, i16, i16, i16, i16, i16, i16, i16, i16, i16, i16, i16, i16, i16, i16, i16, i16, i16, i16, i16, i16, i16, i16, i16, i16, i16, i16, i16, i16, i16, i16, i16, i16, i16, i16, i16, i16, i16, i16, i16, i16, i16, i16, i16, i16, i16, i16, i16, i16, i16, i16, i16, i16, i16, i16, i16, i16, i16, i16, i16, i16, i16, i16, i16, i16, i16, i16, i16, i16, i16, i16, i16, i16, i16, i16, i16, i16, i16, i16, i16, i16, i16, i16, i16, i16, i16, i16, i16, i16, i16, i16, i16, i16, i16, i16, i16, i16, i16, i16, i16, i16, i16, i16, i16, i16, i16, i16, i16, i16, i16, i16, i16, i16, i16, i16, i16, i16, i16, i16, i16, i16, i16, i16, i16, i16, i16, i16, i16, i16, i16, i16, i16, i16, i16, i16, i16, i16, i16, i16, i16, i16, i16, i16, i16, i16, i16, i16, i16, i16, i16, i16, i16, i16, i16, i16, i16, i16, i16, i16, i16, i16, i16, i16, i16, i16, i16, i16, i16, i16, i16, i16, i16, i16, i16, i16, i16, i16, i16, i16, i16, i16, i16, i16, i16, i16, i16, i16, i16, i16, i16, i16, i16, i16, i16, i16, i16, i16, i16, i16, i16, i16, i16, i16, i16, i16, i16, i16, i16, i16, i16, i16, i16, i16, i16) -> tensor<29x13x13xi16>
        %253 = "arith.xori"(%15, %8) : (i1, i1) -> i1
        %254 = "index.or"(%33, %40) : (index, index) -> index
        %255 = "arith.mulf"(%85, %arg4) <{fastmath = #arith.fastmath<none>}> : (f16, f16) -> f16
        %256 = "index.mul"(%209, %199) : (index, index) -> index
        %257 = "arith.mulf"(%119, %194) <{fastmath = #arith.fastmath<none>}> : (f16, f16) -> f16
        %258 = "memref.load"(%74, %16, %16, %16) <{nontemporal = false}> : (memref<?x?x?xi64>, index, index, index) -> i64
        %259 = "arith.subi"(%91, %181) : (i1, i1) -> i1
        %260 = "index.add"(%45, %35) : (index, index) -> index
        %261 = "math.ceil"(%150) <{fastmath = #arith.fastmath<none>}> : (f16) -> f16
        %262 = "math.exp"(%240) <{fastmath = #arith.fastmath<none>}> : (tensor<11x13x13xf16>) -> tensor<11x13x13xf16>
        %263 = "arith.addi"(%242, %3) : (i32, i32) -> i32
        "linalg.yield"(%108) : (f16) -> ()
      }) : (tensor<?x13x13xf16>, tensor<?x13x13xf16>, tensor<?x13x13xf16>, tensor<?x13x13xf16>) -> tensor<?x13x13xf16>
      %219 = "vector.broadcast"(%6) : (f32) -> vector<13xf32>
      %220:2 = "vector.scan"(%178, %219) <{inclusive = true, kind = #vector.kind<add>, reduction_dim = 0 : i64}> : (vector<13x13xf32>, vector<13xf32>) -> (vector<13x13xf32>, vector<13xf32>)
      %221 = "tensor.empty"() : () -> tensor<169xf16>
      %222 = "tensor.unpack"(%50, %221, %29) <{inner_dims_pos = array<i64: 0>, outer_dims_perm = array<i64: 0>, static_inner_tiles = array<i64: -9223372036854775808>}> : (tensor<13x13xf16>, tensor<169xf16>, index) -> tensor<169xf16>
      %223 = "vector.broadcast"(%154) : (f16) -> vector<29xf16>
      %224:2 = "vector.scan"(%141, %223) <{inclusive = true, kind = #vector.kind<add>, reduction_dim = 1 : i64}> : (vector<29x29xf16>, vector<29xf16>) -> (vector<29x29xf16>, vector<29xf16>)
      %225 = "affine.parallel"() <{lowerBoundsGroups = dense<1> : tensor<3xi32>, lowerBoundsMap = affine_map<() -> (0, 0, 0)>, reductions = [0], steps = [1, 1, 1], upperBoundsGroups = dense<1> : tensor<3xi32>, upperBoundsMap = affine_map<() -> (27, 29, 13)>}> ({
      ^bb0(%arg3: index, %arg4: index, %arg5: index):
        %228 = "index.divu"(%20, %29) : (index, index) -> index
        "affine.yield"(%161) : (f16) -> ()
      }) : () -> memref<27x29x13xf16>
      "memref.store"(%9, %69, %20, %35) <{nontemporal = false}> : (i1, memref<29x29xi1>, index, index) -> ()
      %226 = "index.floordivs"(%209, %37) : (index, index) -> index
      %227 = "arith.shrsi"(%10, %10) : (i32, i32) -> i32
      "scf.reduce"(%89) ({
      ^bb0(%arg3: f32, %arg4: f32):
        %228 = "index.maxu"(%32, %22) : (index, index) -> index
        %229 = "math.log10"(%117) <{fastmath = #arith.fastmath<none>}> : (f16) -> f16
        %230 = "tensor.empty"() : () -> tensor<841xi32>
        %231 = "tensor.unpack"(%51, %230, %45) <{inner_dims_pos = array<i64: 0>, outer_dims_perm = array<i64: 0>, static_inner_tiles = array<i64: -9223372036854775808>}> : (tensor<29x29xi32>, tensor<841xi32>, index) -> tensor<841xi32>
        %232 = "index.maxs"(%33, %39) : (index, index) -> index
        "affine.vector_store"(%82, %64, %189, %45) <{map = affine_map<(d0, d1) -> (d0, d1)>}> : (vector<2xi32>, memref<13x13xi32>, index, index) -> ()
        %233 = "arith.cmpf"(%150, %94) <{predicate = 7 : i64}> : (f16, f16) -> i1
        %234 = "arith.divf"(%129, %164) <{fastmath = #arith.fastmath<none>}> : (f16, f16) -> f16
        %235 = "vector.create_mask"(%196, %232) : (index, index) -> vector<13x13xi1>
        "scf.reduce.return"(%160) : (f32) -> ()
      }) : (f32) -> ()
      "scf.yield"() : () -> ()
    }) : (index, index, index, index, index, index, f32) -> f32
    %208 = "math.atan2"(%157, %104) <{fastmath = #arith.fastmath<none>}> : (f16, f16) -> f16
    "vector.print"(%82) <{punctuation = #vector.punctuation<newline>}> : (vector<2xi32>) -> ()
    "vector.print"(%123) <{punctuation = #vector.punctuation<newline>}> : (vector<i16>) -> ()
    "vector.print"(%141) <{punctuation = #vector.punctuation<newline>}> : (vector<29x29xf16>) -> ()
    "vector.print"(%178) <{punctuation = #vector.punctuation<newline>}> : (vector<13x13xf32>) -> ()
    "vector.print"(%179) <{punctuation = #vector.punctuation<newline>}> : (vector<13x13xf32>) -> ()
    "vector.print"(%0) <{punctuation = #vector.punctuation<newline>}> : (i64) -> ()
    "vector.print"(%1) <{punctuation = #vector.punctuation<newline>}> : (f32) -> ()
    "vector.print"(%2) <{punctuation = #vector.punctuation<newline>}> : (f16) -> ()
    "vector.print"(%3) <{punctuation = #vector.punctuation<newline>}> : (i32) -> ()
    "vector.print"(%4) <{punctuation = #vector.punctuation<newline>}> : (i64) -> ()
    "vector.print"(%5) <{punctuation = #vector.punctuation<newline>}> : (f16) -> ()
    "vector.print"(%6) <{punctuation = #vector.punctuation<newline>}> : (f32) -> ()
    "vector.print"(%7) <{punctuation = #vector.punctuation<newline>}> : (i1) -> ()
    "vector.print"(%8) <{punctuation = #vector.punctuation<newline>}> : (i1) -> ()
    "vector.print"(%9) <{punctuation = #vector.punctuation<newline>}> : (i1) -> ()
    "vector.print"(%10) <{punctuation = #vector.punctuation<newline>}> : (i32) -> ()
    "vector.print"(%11) <{punctuation = #vector.punctuation<newline>}> : (f32) -> ()
    "vector.print"(%12) <{punctuation = #vector.punctuation<newline>}> : (i1) -> ()
    "vector.print"(%13) <{punctuation = #vector.punctuation<newline>}> : (i16) -> ()
    "vector.print"(%14) <{punctuation = #vector.punctuation<newline>}> : (f16) -> ()
    "vector.print"(%15) <{punctuation = #vector.punctuation<newline>}> : (i1) -> ()
    "vector.print"(%85) <{punctuation = #vector.punctuation<newline>}> : (f16) -> ()
    "vector.print"(%86) <{punctuation = #vector.punctuation<newline>}> : (i64) -> ()
    "vector.print"(%87) <{punctuation = #vector.punctuation<newline>}> : (i64) -> ()
    "vector.print"(%89) <{punctuation = #vector.punctuation<newline>}> : (f32) -> ()
    "vector.print"(%91) <{punctuation = #vector.punctuation<newline>}> : (i1) -> ()
    "vector.print"(%92) <{punctuation = #vector.punctuation<newline>}> : (i1) -> ()
    "vector.print"(%93) <{punctuation = #vector.punctuation<newline>}> : (i1) -> ()
    "vector.print"(%94) <{punctuation = #vector.punctuation<newline>}> : (f16) -> ()
    "vector.print"(%96) <{punctuation = #vector.punctuation<newline>}> : (i1) -> ()
    "vector.print"(%98) <{punctuation = #vector.punctuation<newline>}> : (f16) -> ()
    "vector.print"(%103) <{punctuation = #vector.punctuation<newline>}> : (i1) -> ()
    "vector.print"(%104) <{punctuation = #vector.punctuation<newline>}> : (f16) -> ()
    "vector.print"(%106) <{punctuation = #vector.punctuation<newline>}> : (f16) -> ()
    "vector.print"(%107) <{punctuation = #vector.punctuation<newline>}> : (i32) -> ()
    "vector.print"(%108) <{punctuation = #vector.punctuation<newline>}> : (f16) -> ()
    "vector.print"(%112) <{punctuation = #vector.punctuation<newline>}> : (f16) -> ()
    "vector.print"(%114) <{punctuation = #vector.punctuation<newline>}> : (i1) -> ()
    "vector.print"(%117) <{punctuation = #vector.punctuation<newline>}> : (f16) -> ()
    "vector.print"(%119) <{punctuation = #vector.punctuation<newline>}> : (f16) -> ()
    "vector.print"(%121) <{punctuation = #vector.punctuation<newline>}> : (i1) -> ()
    "vector.print"(%122) <{punctuation = #vector.punctuation<newline>}> : (f16) -> ()
    "vector.print"(%125) <{punctuation = #vector.punctuation<newline>}> : (f16) -> ()
    "vector.print"(%126) <{punctuation = #vector.punctuation<newline>}> : (f16) -> ()
    "vector.print"(%129) <{punctuation = #vector.punctuation<newline>}> : (f16) -> ()
    "vector.print"(%142) <{punctuation = #vector.punctuation<newline>}> : (f16) -> ()
    "vector.print"(%143) <{punctuation = #vector.punctuation<newline>}> : (f16) -> ()
    "vector.print"(%144) <{punctuation = #vector.punctuation<newline>}> : (i64) -> ()
    "vector.print"(%146) <{punctuation = #vector.punctuation<newline>}> : (i1) -> ()
    "vector.print"(%147) <{punctuation = #vector.punctuation<newline>}> : (i1) -> ()
    "vector.print"(%150) <{punctuation = #vector.punctuation<newline>}> : (f16) -> ()
    "vector.print"(%154) <{punctuation = #vector.punctuation<newline>}> : (f16) -> ()
    "vector.print"(%157) <{punctuation = #vector.punctuation<newline>}> : (f16) -> ()
    "vector.print"(%158) <{punctuation = #vector.punctuation<newline>}> : (i64) -> ()
    "vector.print"(%159) <{punctuation = #vector.punctuation<newline>}> : (f16) -> ()
    "vector.print"(%160) <{punctuation = #vector.punctuation<newline>}> : (f32) -> ()
    "vector.print"(%161) <{punctuation = #vector.punctuation<newline>}> : (f16) -> ()
    "vector.print"(%164) <{punctuation = #vector.punctuation<newline>}> : (f16) -> ()
    "vector.print"(%165) <{punctuation = #vector.punctuation<newline>}> : (i64) -> ()
    "vector.print"(%166) <{punctuation = #vector.punctuation<newline>}> : (i64) -> ()
    "vector.print"(%170) <{punctuation = #vector.punctuation<newline>}> : (f16) -> ()
    "vector.print"(%172) <{punctuation = #vector.punctuation<newline>}> : (i1) -> ()
    "vector.print"(%176) <{punctuation = #vector.punctuation<newline>}> : (f16) -> ()
    "vector.print"(%181) <{punctuation = #vector.punctuation<newline>}> : (i1) -> ()
    "vector.print"(%182) <{punctuation = #vector.punctuation<newline>}> : (i32) -> ()
    "vector.print"(%185) <{punctuation = #vector.punctuation<newline>}> : (f16) -> ()
    "vector.print"(%188) <{punctuation = #vector.punctuation<newline>}> : (i32) -> ()
    "vector.print"(%190) <{punctuation = #vector.punctuation<newline>}> : (f16) -> ()
    "vector.print"(%191) <{punctuation = #vector.punctuation<newline>}> : (i32) -> ()
    "vector.print"(%192) <{punctuation = #vector.punctuation<newline>}> : (i1) -> ()
    "vector.print"(%194) <{punctuation = #vector.punctuation<newline>}> : (f16) -> ()
    "vector.print"(%195) <{punctuation = #vector.punctuation<newline>}> : (f16) -> ()
    "vector.print"(%197) <{punctuation = #vector.punctuation<newline>}> : (i1) -> ()
    "vector.print"(%200) <{punctuation = #vector.punctuation<newline>}> : (i32) -> ()
    "vector.print"(%201) <{punctuation = #vector.punctuation<newline>}> : (i1) -> ()
    "vector.print"(%203) <{punctuation = #vector.punctuation<newline>}> : (i32) -> ()
    "func.return"() : () -> ()
  }) : () -> ()
  "func.func"() <{function_type = (memref<29x13x13xf16>, memref<?x29xf16>, memref<29xi64>) -> memref<29x13x13xf16>, sym_name = "func2", sym_visibility = "private"}> ({
  ^bb0(%arg0: memref<29x13x13xf16>, %arg1: memref<?x29xf16>, %arg2: memref<29xi64>):
    %0 = "arith.constant"() <{value = 1617153242 : i64}> : () -> i64
    %1 = "arith.constant"() <{value = 1.25514035E+9 : f32}> : () -> f32
    %2 = "arith.constant"() <{value = 2.740800e+04 : f16}> : () -> f16
    %3 = "arith.constant"() <{value = 1103576230 : i32}> : () -> i32
    %4 = "arith.constant"() <{value = 968611444 : i64}> : () -> i64
    %5 = "arith.constant"() <{value = 1.769600e+04 : f16}> : () -> f16
    %6 = "arith.constant"() <{value = 1.14186611E+9 : f32}> : () -> f32
    %7 = "arith.constant"() <{value = false}> : () -> i1
    %8 = "arith.constant"() <{value = false}> : () -> i1
    %9 = "arith.constant"() <{value = true}> : () -> i1
    %10 = "arith.constant"() <{value = 904915843 : i32}> : () -> i32
    %11 = "arith.constant"() <{value = 0x4D9ABFA9 : f32}> : () -> f32
    %12 = "arith.constant"() <{value = false}> : () -> i1
    %13 = "arith.constant"() <{value = 22919 : i16}> : () -> i16
    %14 = "arith.constant"() <{value = 4.832000e+04 : f16}> : () -> f16
    %15 = "arith.constant"() <{value = true}> : () -> i1
    %16 = "arith.constant"() <{value = 0 : index}> : () -> index
    %17 = "arith.constant"() <{value = 1 : index}> : () -> index
    %18 = "arith.constant"() <{value = 2 : index}> : () -> index
    %19 = "arith.constant"() <{value = 3 : index}> : () -> index
    %20 = "arith.constant"() <{value = 4 : index}> : () -> index
    %21 = "arith.constant"() <{value = 5 : index}> : () -> index
    %22 = "arith.constant"() <{value = 6 : index}> : () -> index
    %23 = "arith.constant"() <{value = 7 : index}> : () -> index
    %24 = "arith.constant"() <{value = 8 : index}> : () -> index
    %25 = "arith.constant"() <{value = 9 : index}> : () -> index
    %26 = "arith.constant"() <{value = 10 : index}> : () -> index
    %27 = "arith.constant"() <{value = 11 : index}> : () -> index
    %28 = "arith.constant"() <{value = 12 : index}> : () -> index
    %29 = "arith.constant"() <{value = 13 : index}> : () -> index
    %30 = "arith.constant"() <{value = 14 : index}> : () -> index
    %31 = "arith.constant"() <{value = 15 : index}> : () -> index
    %32 = "arith.constant"() <{value = 16 : index}> : () -> index
    %33 = "arith.constant"() <{value = 17 : index}> : () -> index
    %34 = "arith.constant"() <{value = 18 : index}> : () -> index
    %35 = "arith.constant"() <{value = 19 : index}> : () -> index
    %36 = "arith.constant"() <{value = 20 : index}> : () -> index
    %37 = "arith.constant"() <{value = 21 : index}> : () -> index
    %38 = "arith.constant"() <{value = 22 : index}> : () -> index
    %39 = "arith.constant"() <{value = 23 : index}> : () -> index
    %40 = "arith.constant"() <{value = 24 : index}> : () -> index
    %41 = "arith.constant"() <{value = 25 : index}> : () -> index
    %42 = "arith.constant"() <{value = 26 : index}> : () -> index
    %43 = "arith.constant"() <{value = 27 : index}> : () -> index
    %44 = "arith.constant"() <{value = 28 : index}> : () -> index
    %45 = "arith.constant"() <{value = 29 : index}> : () -> index
    %46 = "arith.constant"() <{value = 30 : index}> : () -> index
    %47 = "arith.constant"() <{value = 31 : index}> : () -> index
    %48 = "tensor.empty"() : () -> tensor<29x13x13xi1>
    %49 = "tensor.empty"() : () -> tensor<29x13x13xi1>
    %50 = "tensor.empty"() : () -> tensor<13x13xf16>
    %51 = "tensor.empty"() : () -> tensor<29x29xi32>
    %52 = "tensor.empty"() : () -> tensor<29x13x13xf16>
    %53 = "tensor.empty"(%32) : (index) -> tensor<?xf16>
    %54 = "tensor.empty"(%17, %35) : (index, index) -> tensor<?x?x13xf32>
    %55 = "tensor.empty"() : () -> tensor<29x29xi1>
    %56 = "tensor.empty"(%40) : (index) -> tensor<?x13x13xf16>
    %57 = "tensor.empty"(%42) : (index) -> tensor<?x13xi16>
    %58 = "tensor.empty"() : () -> tensor<29xi16>
    %59 = "tensor.empty"(%32) : (index) -> tensor<?x13x13xi16>
    %60 = "tensor.empty"(%35) : (index) -> tensor<?xi32>
    %61 = "tensor.empty"(%17) : (index) -> tensor<?x29xf16>
    %62 = "tensor.empty"(%22) : (index) -> tensor<?xf32>
    %63 = "tensor.empty"() : () -> tensor<29xf32>
    %64 = "memref.alloc"() <{operandSegmentSizes = array<i32: 0, 0>}> : () -> memref<13x13xi32>
    %65 = "memref.alloc"(%37) <{operandSegmentSizes = array<i32: 1, 0>}> : (index) -> memref<?x13x13xf32>
    %66 = "memref.alloc"(%43) <{operandSegmentSizes = array<i32: 1, 0>}> : (index) -> memref<?x13x13xf16>
    %67 = "memref.alloc"() <{operandSegmentSizes = array<i32: 0, 0>}> : () -> memref<29x13x13xi1>
    %68 = "memref.alloc"(%28) <{operandSegmentSizes = array<i32: 1, 0>}> : (index) -> memref<?x13xi32>
    %69 = "memref.alloc"() <{operandSegmentSizes = array<i32: 0, 0>}> : () -> memref<29x29xi1>
    %70 = "memref.alloc"() <{operandSegmentSizes = array<i32: 0, 0>}> : () -> memref<29x29xi1>
    %71 = "memref.alloc"() <{operandSegmentSizes = array<i32: 0, 0>}> : () -> memref<29xi64>
    %72 = "memref.alloc"() <{operandSegmentSizes = array<i32: 0, 0>}> : () -> memref<29x29xi64>
    %73 = "memref.alloc"(%21) <{operandSegmentSizes = array<i32: 1, 0>}> : (index) -> memref<?x13xi16>
    %74 = "memref.alloc"(%38, %44, %25) <{operandSegmentSizes = array<i32: 3, 0>}> : (index, index, index) -> memref<?x?x?xi64>
    %75 = "memref.alloc"() <{operandSegmentSizes = array<i32: 0, 0>}> : () -> memref<13x13xi32>
    %76 = "memref.alloc"(%23) <{operandSegmentSizes = array<i32: 1, 0>}> : (index) -> memref<?x13xi64>
    %77 = "memref.alloc"() <{operandSegmentSizes = array<i32: 0, 0>}> : () -> memref<29xi1>
    %78 = "memref.alloc"() <{operandSegmentSizes = array<i32: 0, 0>}> : () -> memref<29x13x13xf32>
    %79 = "memref.alloc"(%20, %30, %47) <{operandSegmentSizes = array<i32: 3, 0>}> : (index, index, index) -> memref<?x?x?xi16>
    %80 = "index.or"(%24, %30) : (index, index) -> index
    %81 = "index.sub"(%27, %44) : (index, index) -> index
    %82 = "spirv.GL.Pow"(%11, %11) : (f32, f32) -> f32
    %83 = "vector.broadcast"(%8) : (i1) -> vector<11xi1>
    %84 = "vector.matrix_multiply"(%83, %83) <{lhs_columns = 11 : i32, lhs_rows = 1 : i32, rhs_columns = 1 : i32}> : (vector<11xi1>, vector<11xi1>) -> vector<1xi1>
    "scf.execute_region"() ({
      %217 = "tensor.empty"(%21, %35, %31) : (index, index, index) -> tensor<?x?x?x13xi16>
      %218 = "linalg.broadcast"(%79, %217) <{dimensions = array<i64: 3>}> ({
      ^bb0(%arg3: i16, %arg4: i16):
        "linalg.yield"(%arg3) : (i16) -> ()
      }) : (memref<?x?x?xi16>, tensor<?x?x?x13xi16>) -> tensor<?x?x?x13xi16>
      %219 = "memref.realloc"(%71) : (memref<29xi64>) -> memref<13xi64>
      %220 = "index.shru"(%45, %41) : (index, index) -> index
      %221 = "affine.load"(%77, %21) <{map = affine_map<(d0) -> (d0)>}> : (memref<29xi1>, index) -> i1
      %222 = "math.sqrt"(%56) <{fastmath = #arith.fastmath<none>}> : (tensor<?x13x13xf16>) -> tensor<?x13x13xf16>
      %223 = "arith.minsi"(%15, %12) : (i1, i1) -> i1
      %224 = "math.expm1"(%5) <{fastmath = #arith.fastmath<none>}> : (f16) -> f16
      %225 = "tensor.empty"(%17) : (index) -> tensor<?x13x13x11xf16>
      %226 = "linalg.broadcast"(%66, %225) <{dimensions = array<i64: 3>}> ({
      ^bb0(%arg3: f16, %arg4: f16):
        "linalg.yield"(%arg3) : (f16) -> ()
      }) : (memref<?x13x13xf16>, tensor<?x13x13x11xf16>) -> tensor<?x13x13x11xf16>
      %227 = "math.ceil"(%61) <{fastmath = #arith.fastmath<none>}> : (tensor<?x29xf16>) -> tensor<?x29xf16>
      "bufferization.dealloc_tensor"(%62) : (tensor<?xf32>) -> ()
      %228 = "index.maxu"(%44, %32) : (index, index) -> index
      %229 = "arith.subi"(%10, %3) : (i32, i32) -> i32
      %230 = "math.expm1"(%226) <{fastmath = #arith.fastmath<none>}> : (tensor<?x13x13x11xf16>) -> tensor<?x13x13x11xf16>
      "scf.if"(%221) ({
        %233 = "vector.multi_reduction"(%83, %15) <{kind = #vector.kind<maxui>, reduction_dims = [0]}> : (vector<11xi1>, i1) -> i1
        %234 = "index.bool.constant"() <{value = true}> : () -> i1
        %235 = "index.shrs"(%45, %35) : (index, index) -> index
        %236 = "vector.bitcast"(%84) : (vector<1xi1>) -> vector<1xi1>
        %237 = "affine.apply"(%19, %45, %28) <{map = affine_map<(d0, d1, d2) -> (d0 floordiv 64)>}> : (index, index, index) -> index
        %238 = "tensor.extract"(%59, %16, %21, %28) : (tensor<?x13x13xi16>, index, index, index) -> i16
        %239 = "math.atan2"(%11, %1) <{fastmath = #arith.fastmath<none>}> : (f32, f32) -> f32
        %240 = "index.sub"(%22, %16) : (index, index) -> index
        "scf.yield"() : () -> ()
      }, {
      }) : (i1) -> ()
      %231 = "index.maxs"(%80, %42) : (index, index) -> index
      %232 = "arith.divf"(%2, %14) <{fastmath = #arith.fastmath<none>}> : (f16, f16) -> f16
      "scf.yield"() : () -> ()
    }) : () -> ()
    %85 = "bufferization.clone"(%72) : (memref<29x29xi64>) -> memref<29x29xi64>
    %86 = "spirv.CL.log"(%14) : (f16) -> f16
    %87 = "spirv.GL.Pow"(%86, %5) : (f16, f16) -> f16
    %88 = "tensor.cast"(%56) : (tensor<?x13x13xf16>) -> tensor<27x13x13xf16>
    %89 = "arith.constant"() <{value = 23602 : i16}> : () -> i16
    %90 = "index.divu"(%21, %39) : (index, index) -> index
    %91 = "spirv.FUnordGreaterThanEqual"(%5, %2) : (f16, f16) -> i1
    %92 = "vector.splat"(%28) : (index) -> vector<29xindex>
    %93 = "math.expm1"(%52) <{fastmath = #arith.fastmath<none>}> : (tensor<29x13x13xf16>) -> tensor<29x13x13xf16>
    %94 = "spirv.Not"(%13) : (i16) -> i16
    %95 = "vector.broadcast"(%94) : (i16) -> vector<11xi16>
    %96 = "vector.maskedload"(%79, %16, %16, %16, %83, %95) : (memref<?x?x?xi16>, index, index, index, vector<11xi1>, vector<11xi16>) -> vector<11xi16>
    %97 = "memref.atomic_rmw"(%4, %72, %27, %23) <{kind = 11 : i64}> : (i64, memref<29x29xi64>, index, index) -> i64
    %98 = "spirv.FOrdGreaterThan"(%5, %87) : (f16, f16) -> i1
    %99 = "spirv.CL.fma"(%87, %87, %14) : (f16, f16, f16) -> f16
    %100 = "math.expm1"(%63) <{fastmath = #arith.fastmath<none>}> : (tensor<29xf32>) -> tensor<29xf32>
    %101 = "spirv.Not"(%3) : (i32) -> i32
    %102 = "index.xor"(%17, %35) : (index, index) -> index
    %103 = "scf.parallel"(%43, %34, %28, %21, %47, %29, %1) <{operandSegmentSizes = array<i32: 2, 2, 2, 1>}> ({
    ^bb0(%arg3: index, %arg4: index):
      %217 = "tensor.empty"(%24, %19) : (index, index) -> tensor<?x?xi64>
      %218 = "arith.shrsi"(%13, %94) : (i16, i16) -> i16
      %219 = "arith.cmpi"(%10, %10) <{predicate = 6 : i64}> : (i32, i32) -> i1
      "affine.parallel"() <{lowerBoundsGroups = dense<1> : tensor<3xi32>, lowerBoundsMap = affine_map<() -> (0, 0, 0)>, reductions = [], steps = [1, 1, 1], upperBoundsGroups = dense<1> : tensor<3xi32>, upperBoundsMap = affine_map<() -> (27, 11, 13)>}> ({
      ^bb0(%arg5: index, %arg6: index, %arg7: index):
        %233 = "arith.remsi"(%94, %94) : (i16, i16) -> i16
        "affine.yield"() : () -> ()
      }) : () -> ()
      %220 = "arith.constant"() <{value = 0 : i32}> : () -> i32
      %221 = "vector.transfer_read"(%60, %24, %220) <{operandSegmentSizes = array<i32: 1, 1, 1, 0>, permutation_map = affine_map<(d0) -> ()>}> : (tensor<?xi32>, index, i32) -> vector<i32>
      %222 = "arith.andi"(%8, %9) : (i1, i1) -> i1
      %223 = "arith.remui"(%10, %101) : (i32, i32) -> i32
      %224 = "tensor.empty"() : () -> tensor<841xi32>
      %225 = "tensor.unpack"(%51, %224, %45) <{inner_dims_pos = array<i64: 0>, outer_dims_perm = array<i64: 0>, static_inner_tiles = array<i64: -9223372036854775808>}> : (tensor<29x29xi32>, tensor<841xi32>, index) -> tensor<841xi32>
      %226 = "arith.cmpi"(%7, %91) <{predicate = 5 : i64}> : (i1, i1) -> i1
      %227 = "vector.contract"(%84, %84, %7) <{indexing_maps = [affine_map<(d0) -> (d0)>, affine_map<(d0) -> (d0)>, affine_map<(d0) -> ()>], iterator_types = [#vector.iterator_type<reduction>], kind = #vector.kind<xor>}> : (vector<1xi1>, vector<1xi1>, i1) -> i1
      "affine.store"(%4, %72, %34, %46) <{map = affine_map<(d0, d1) -> (d0, d1)>}> : (i64, memref<29x29xi64>, index, index) -> ()
      %228 = "arith.andi"(%0, %4) : (i64, i64) -> i64
      %229 = "math.ctlz"(%7) : (i1) -> i1
      %230 = "arith.cmpi"(%7, %15) <{predicate = 2 : i64}> : (i1, i1) -> i1
      %231 = "tensor.generate"(%29) ({
      ^bb0(%arg5: index):
        %233 = "vector.matrix_multiply"(%84, %83) <{lhs_columns = 1 : i32, lhs_rows = 1 : i32, rhs_columns = 11 : i32}> : (vector<1xi1>, vector<11xi1>) -> vector<11xi1>
        %234 = "math.round"(%56) <{fastmath = #arith.fastmath<none>}> : (tensor<?x13x13xf16>) -> tensor<?x13x13xf16>
        %235 = "memref.alloc"() <{operandSegmentSizes = array<i32: 0, 0>}> : () -> memref<29x13x13x29xf16>
        "linalg.broadcast"(%arg0, %235) <{dimensions = array<i64: 3>}> ({
        ^bb0(%arg6: f16, %arg7: f16):
          "linalg.yield"(%arg6) : (f16) -> ()
        }) : (memref<29x13x13xf16>, memref<29x13x13x29xf16>) -> ()
        %236 = "index.divs"(%39, %20) : (index, index) -> index
        "tensor.yield"(%6) : (f32) -> ()
      }) : (index) -> tensor<?xf32>
      %232 = "arith.subi"(%7, %8) : (i1, i1) -> i1
      "scf.reduce"(%1) ({
      ^bb0(%arg5: f32, %arg6: f32):
        %233 = "index.floordivs"(%90, %19) : (index, index) -> index
        %234 = "math.round"(%2) <{fastmath = #arith.fastmath<none>}> : (f16) -> f16
        %235 = "arith.cmpf"(%11, %82) <{predicate = 14 : i64}> : (f32, f32) -> i1
        %236 = "math.tan"(%87) <{fastmath = #arith.fastmath<none>}> : (f16) -> f16
        %237 = "bufferization.clone"(%77) : (memref<29xi1>) -> memref<29xi1>
        %238 = "vector.matrix_multiply"(%96, %96) <{lhs_columns = 11 : i32, lhs_rows = 1 : i32, rhs_columns = 1 : i32}> : (vector<11xi16>, vector<11xi16>) -> vector<1xi16>
        %239 = "index.maxu"(%25, %42) : (index, index) -> index
        %240 = "affine.min"(%22, %34, %43, %29, %28) <{map = affine_map<(d0, d1, d2, d3)[s0] -> (-(d0 - 16))>}> : (index, index, index, index, index) -> index
        "scf.reduce.return"(%1) : (f32) -> ()
      }) : (f32) -> ()
      "scf.yield"() : () -> ()
    }) : (index, index, index, index, index, index, f32) -> f32
    %104 = "spirv.GL.FSign"(%1) : (f32) -> f32
    %105 = "tensor.from_elements"(%7, %15, %12, %8, %15, %98, %91, %15, %98, %7, %9, %98, %98, %15, %91, %7, %15, %15, %9, %9, %7, %98, %7, %15, %91, %15, %12, %8, %7, %12, %15, %91, %98, %9, %8, %9, %12, %8, %98, %98, %91, %98, %9, %9, %15, %91, %15, %9, %91, %15, %15, %15, %8, %15, %91, %9, %8, %7, %12, %15, %15, %9, %15, %7, %98, %9, %91, %15, %7, %98, %8, %7, %9, %91, %9, %91, %9, %12, %15, %7, %8, %98, %8, %91, %8, %91, %98, %98, %9, %12, %98, %91, %9, %9, %12, %9, %98, %7, %98, %8, %9, %15, %12, %15, %98, %12, %91, %7, %91, %91, %12, %98, %12, %8, %12, %12, %15, %7, %8, %98, %7, %15, %8, %8, %15, %15, %15, %98, %9, %8, %12, %8, %8, %15, %98, %8, %9, %7, %9, %15, %91, %7, %15, %91, %98, %12, %98, %12, %7, %91, %8, %12, %98, %98, %9, %98, %91, %91, %9, %15, %8, %7, %91, %8, %15, %91, %12, %98, %98, %9, %98, %91, %15, %8, %15, %98, %8, %15, %7, %7, %91, %9, %98, %98, %8, %98, %7, %15, %8, %7, %7, %7, %15, %98, %91, %9, %15, %7, %91, %7, %12, %8, %8, %12, %7, %15, %98, %8, %98, %8, %15, %12, %91, %15, %7, %15, %12, %8, %98, %7, %91, %9, %91, %7, %9, %7, %8, %12, %12, %15, %8, %8, %91, %9, %91, %7, %7, %98, %91, %8, %12, %98, %7, %9, %8, %12, %12, %98, %15, %98, %15, %98, %8, %9, %7, %8, %91, %98, %9, %91, %12, %8, %9, %91, %9, %12, %9, %12, %7, %12, %7, %98, %91, %98, %15, %91, %98, %15, %98, %7, %7, %9, %8, %8, %8, %98, %12, %8, %91, %91, %8, %15, %98, %7, %91, %9, %8, %9, %98, %98, %7, %12, %7, %8, %7, %91, %7, %15, %12, %91, %7, %9, %8, %7, %91, %91, %8, %98, %98, %12, %12, %15, %8, %98, %8, %91, %9, %15, %8, %12, %15, %15, %98, %91, %7, %8, %9, %12, %15, %9, %7, %7, %98, %8, %15, %7, %98, %7, %91, %12, %98, %12, %15, %7, %98, %12, %15, %12, %15, %98, %9, %98, %8, %8, %8, %9, %15, %12, %15, %98, %7, %12, %12, %98, %7, %91, %12, %91, %12, %9, %7, %98, %9, %9, %98, %9, %8, %7, %98, %91, %15, %9, %12, %12, %7, %91, %9, %8, %12, %15, %98, %98, %7, %7, %15, %9, %12, %8, %12, %9, %9, %98, %12, %91, %98, %15, %8, %12, %91, %15, %7, %98, %9, %15, %12, %12, %15, %91, %12, %15, %98, %9, %8, %7, %9, %91, %15, %9, %7, %98, %98, %12, %9, %8, %8, %91, %98, %9, %15, %91, %98, %12, %8, %12, %15, %91, %15, %7, %12, %9, %91, %91, %9, %7, %15, %98, %9, %8, %98, %9, %98, %98, %7, %7, %7, %98, %15, %12, %12, %12, %12, %9, %7, %8, %8, %91, %9, %91, %91, %91, %12, %15, %98, %12, %9, %98, %12, %7, %98, %98, %8, %9, %8, %9, %8, %8, %12, %98, %98, %8, %98, %91, %9, %9, %15, %9, %7, %12, %8, %7, %91, %8, %91, %7, %91, %9, %91, %9, %12, %98, %9, %7, %9, %7, %8, %9, %12, %8, %7, %9, %98, %98, %12, %98, %7, %8, %98, %8, %98, %7, %91, %8, %15, %12, %8, %91, %8, %91, %15, %98, %91, %7, %98, %98, %98, %12, %15, %15, %15, %15, %9, %15, %9, %9, %12, %15, %91, %12, %91, %12, %98, %9, %8, %91, %15, %98, %15, %8, %15, %98, %7, %7, %12, %98, %7, %98, %98, %12, %9, %9, %12, %8, %12, %15, %8, %15, %98, %7, %15, %12, %9, %8, %15, %7, %7, %12, %8, %8, %9, %9, %15, %7, %12, %15, %15, %9, %8, %9, %12, %7, %12, %8, %91, %91, %98, %12, %91, %8, %12, %7, %7, %7, %12, %91, %12, %12, %8, %15, %9, %98, %12, %7, %98, %15, %98, %9, %12, %9, %91, %15, %15, %8, %8, %15, %98, %12, %7, %15, %15, %12, %7, %7, %98, %8, %8, %91, %7, %98, %12, %9, %8, %12, %12, %12, %7, %8, %9, %12, %98, %15, %12, %8, %12, %15, %91, %15, %91, %12, %91, %8, %7, %15, %98, %9, %91, %91, %15, %7, %9, %9, %15, %9, %98, %8, %15, %12, %91, %7, %8, %9, %98, %7, %91, %9, %91, %98, %98, %8, %91, %12, %12, %12, %7, %91, %8, %7, %9, %12, %8, %12, %98, %7, %7, %9, %9, %15, %91, %12, %12, %91, %98, %7, %7, %91, %7, %8, %91, %12, %12, %7, %15, %12, %15, %91, %91, %7, %15, %9, %15, %15, %8, %9, %7, %8, %9, %15, %98, %9, %98, %7, %98, %15, %7, %12, %15, %12, %98, %9, %9, %15, %15, %91, %9, %9, %7, %7, %8, %91, %9, %12, %7, %91, %12, %7, %9, %91, %7, %7, %9, %7, %8, %8, %8, %8, %91, %12, %91, %7, %98, %8, %9, %9, %9, %8, %12, %98, %98, %15, %98, %9, %8, %98, %9, %7, %7, %15, %12, %9, %98, %9, %9, %15, %12, %8, %91, %9, %91, %9, %91, %12, %98, %12, %15, %12, %98, %98, %91, %7, %98, %9, %7, %15, %98, %12, %15, %98, %8, %91, %98, %98, %98, %91, %91, %98, %98, %91, %12, %98, %7, %98, %12, %8, %15, %15, %98, %7, %91, %8, %91, %15, %12, %98, %98, %98, %7, %9, %12, %91, %8, %9, %9, %98, %98, %7, %91, %8, %8, %12, %7, %15, %8, %98, %12, %7, %91, %98, %8, %9, %7, %8, %8, %15, %7, %15, %12, %12, %9, %9, %98, %91, %12, %12, %98, %12, %9, %7, %91, %98, %91, %9, %98, %98, %12, %9, %7, %7, %8, %98, %91, %12, %7, %12, %15, %8, %7, %9, %91, %8, %98, %8, %91, %98, %15, %9, %15, %9, %12, %98, %12, %7, %15, %9, %8, %7, %7, %15, %15, %7, %91, %12, %9, %8, %91, %91, %7, %98, %7, %9, %91, %7, %12, %12, %91, %8, %15, %8, %15, %91, %9, %91, %7, %15, %7, %98, %9, %9, %91, %7, %8, %7, %91, %98, %91, %98, %8, %15, %15, %9, %8, %98, %7, %9, %98, %15, %9, %15, %9, %12, %8, %15, %7, %9, %8, %8, %91, %15, %12, %91, %15, %12, %12, %8, %9, %7, %12, %98, %8, %98, %9, %15, %9, %8, %8, %8, %12, %7, %12, %9, %9, %12, %7, %15, %98, %15, %12, %91, %15, %91, %98, %8, %8, %91, %15, %9, %7, %7, %98, %7, %15, %12, %7, %91, %98, %9, %7, %7, %98, %98, %15, %98, %9, %9, %9, %91, %12, %8, %91, %8, %8, %7, %9, %91, %9, %9, %15, %7, %15, %98, %12, %98, %9, %12, %12, %9, %15, %8, %15, %91, %8, %9, %15, %12, %8, %8, %8, %98, %9, %9, %12, %15, %98, %12, %98, %91, %8, %91, %91, %15, %15, %91, %91, %9, %7, %15, %91, %9, %91, %7, %12, %9, %7, %9, %15, %91, %15, %12, %7, %91, %7, %91, %8, %91, %7, %7, %12, %8, %15, %8, %15, %98, %15, %15, %8, %91, %98, %91, %91, %8, %98, %98, %15, %98, %91, %98, %98, %98, %98, %91, %8, %15, %8, %98, %91, %98, %9, %7, %7, %15, %7, %91, %12, %7, %7, %15, %7, %15, %15, %91, %9, %9, %12, %91, %8, %15, %9, %12, %98, %12, %7, %12, %15, %9, %7, %98, %12, %91, %8, %91, %15, %98, %7, %8, %98, %12, %98, %7, %12, %9, %8, %91, %9, %12, %15, %91, %91, %8, %9, %7, %98, %12, %91, %91, %12, %12, %98, %15, %91, %7, %9, %9, %98, %98, %91, %12, %91, %15, %12, %9, %15, %91, %7, %7, %9, %91, %8, %8, %91, %9, %91, %15, %7, %8, %7, %8, %9, %7, %8, %15, %91, %8, %8, %91, %15, %12, %98, %15, %9, %9, %9, %98, %98, %12, %98, %15, %7, %15, %12, %15, %91, %7, %7, %12, %8, %9, %8, %15, %7, %9, %7, %15, %7, %98, %15, %15, %9, %91, %98, %15, %9, %15, %9, %12, %12, %12, %98, %12, %98, %9, %15, %9, %7, %98, %91, %91, %12, %8, %12, %98, %8, %9, %98, %91, %8, %9, %98, %15, %91, %15, %9, %8, %98, %8, %7, %98, %9, %91, %9, %15, %12, %15, %9, %12, %12, %12, %91, %12, %98, %91, %91, %12, %15, %15, %8, %9, %8, %8, %8, %15, %12, %15, %12, %9, %15, %9, %7, %8, %12, %8, %98, %91, %91, %15, %7, %12, %15, %7, %91, %8, %9, %9, %8, %15, %7, %7, %15, %7, %15, %12, %7, %98, %9, %12, %8, %12, %8, %15, %12, %7, %9, %9, %12, %15, %7, %91, %91, %9, %15, %91, %9, %98, %8, %7, %12, %12, %9, %91, %7, %7, %8, %7, %7, %12, %98, %15, %8, %98, %98, %8, %8, %91, %8, %8, %12, %9, %15, %15, %15, %7, %7, %8, %91, %8, %8, %9, %7, %98, %9, %9, %91, %12, %8, %9, %91, %15, %15, %9, %8, %98, %9, %7, %98, %15, %15, %8, %98, %98, %91, %7, %12, %7, %7, %91, %12, %98, %98, %7, %91, %9, %9, %8, %9, %9, %15, %98, %9, %91, %9, %12, %9, %12, %98, %9, %12, %91, %15, %98, %12, %9, %98, %9, %7, %7, %98, %12, %7, %9, %9, %12, %98, %98, %91, %98, %8, %9, %15, %15, %91, %15, %12, %9, %8, %8, %98, %7, %8, %12, %98, %9, %91, %12, %12, %91, %15, %7, %15, %91, %7, %12, %7, %91, %8, %9, %9, %15, %98, %15, %98, %7, %91, %12, %7, %9, %7, %8, %98, %9, %12, %91, %9, %8, %8, %12, %7, %91, %9, %9, %7, %12, %98, %7, %9, %9, %12, %91, %98, %7, %15, %8, %7, %98, %98, %15, %8, %15, %9, %8, %12, %91, %9, %12, %12, %98, %12, %8, %15, %98, %8, %9, %98, %8, %8, %9, %8, %8, %7, %8, %9, %98, %98, %98, %9, %12, %91, %9, %7, %9, %98, %91, %91, %7, %15, %12, %91, %12, %12, %12, %15, %15, %91, %98, %8, %91, %15, %7, %9, %8, %91, %8, %91, %9, %15, %12, %8, %7, %7, %98, %15, %15, %7, %15, %91, %91, %98, %8, %8, %98, %15, %9, %8, %15, %12, %8, %12, %8, %7, %8, %91, %7, %7, %7, %7, %91, %7, %91, %9, %98, %98, %7, %15, %98, %9, %12, %15, %12, %12, %9, %91, %15, %91, %8, %9, %98, %8, %98, %12, %15, %15, %98, %12, %91, %7, %98, %98, %7, %9, %7, %98, %98, %9, %8, %98, %98, %8, %8, %91, %7, %7, %7, %9, %9, %7, %9, %15, %7, %8, %8, %8, %7, %12, %91, %12, %12, %91, %9, %8, %91, %15, %12, %91, %12, %8, %15, %91, %12, %7, %91, %15, %7, %12, %8, %7, %9, %12, %12, %7, %91, %12, %91, %15, %7, %7, %98, %15, %12, %12, %7, %7, %8, %9, %8, %8, %9, %7, %12, %8, %91, %9, %9, %12, %98, %12, %9, %91, %7, %9, %12, %7, %8, %8, %98, %98, %12, %9, %12, %12, %8, %8, %15, %12, %7, %7, %98, %98, %15, %8, %91, %9, %8, %9, %15, %7, %91, %12, %98, %98, %8, %7, %7, %8, %7, %9, %15, %7, %9, %8, %91, %9, %7, %91, %8, %9, %91, %91, %9, %9, %91, %12, %8, %15, %9, %91, %8, %9, %15, %8, %9, %8, %98, %12, %9, %91, %7, %8, %7, %12, %98, %8, %7, %91, %8, %12, %9, %91, %91, %9, %12, %98, %15, %91, %9, %8, %91, %8, %91, %7, %15, %91, %9, %7, %8, %15, %7, %15, %8, %91, %7, %9, %15, %91, %9, %7, %7, %15, %7, %15, %7, %7, %15, %12, %12, %98, %15, %8, %9, %7, %12, %15, %15, %12, %91, %15, %8, %98, %9, %9, %9, %12, %15, %15, %8, %15, %12, %98, %91, %12, %91, %15, %8, %12, %12, %9, %15, %98, %7, %8, %7, %15, %12, %9, %7, %15, %12, %7, %98, %7, %8, %8, %9, %12, %91, %9, %12, %91, %9, %91, %12, %9, %15, %7, %15, %9, %12, %8, %8, %15, %91, %7, %91, %8, %15, %9, %8, %15, %91, %98, %12, %9, %8, %8, %98, %12, %12, %91, %9, %7, %15, %9, %91, %15, %12, %9, %12, %15, %98, %15, %7, %9, %98, %12, %15, %9, %7, %91, %9, %98, %8, %12, %15, %91, %98, %8, %9, %12, %9, %98, %12, %8, %98, %8, %12, %91, %8, %12, %98, %7, %98, %12, %9, %9, %91, %7, %15, %8, %7, %9, %12, %8, %98, %8, %8, %8, %98, %7, %91, %98, %91, %7, %7, %12, %98, %12, %91, %15, %15, %7, %8, %15, %98, %15, %91, %12, %9, %98, %91, %98, %12, %15, %8, %91, %8, %9, %9, %12, %8, %7, %91, %15, %8, %9, %8, %9, %7, %12, %9, %98, %7, %9, %91, %98, %98, %9, %15, %15, %8, %91, %8, %9, %8, %8, %8, %12, %91, %8, %8, %98, %91, %8, %7, %8, %15, %98, %8, %7, %12, %91, %91, %9, %15, %91, %15, %12, %9, %91, %8, %91, %98, %15, %7, %9, %91, %91, %15, %12, %98, %12, %12, %91, %91, %15, %7, %9, %7, %9, %9, %12, %7, %91, %12, %8, %98, %98, %15, %8, %15, %91, %7, %98, %15, %12, %9, %12, %98, %12, %9, %12, %9, %15, %7, %7, %7, %8, %15, %9, %91, %91, %7, %91, %8, %91, %15, %12, %9, %91, %12, %9, %7, %12, %12, %91, %7, %7, %12, %9, %9, %91, %7, %7, %7, %9, %9, %7, %8, %7, %7, %8, %91, %15, %91, %7, %98, %7, %91, %8, %98, %12, %9, %15, %12, %15, %12, %12, %15, %15, %12, %8, %12, %12, %8, %98, %9, %7, %12, %8, %9, %7, %9, %8, %7, %98, %9, %12, %98, %9, %8, %98, %8, %98, %8, %9, %7, %9, %7, %9, %8, %8, %15, %98, %98, %91, %9, %12, %98, %8, %7, %9, %12, %15, %7, %91, %9, %9, %7, %12, %15, %91, %8, %7, %12, %15, %9, %91, %8, %15, %98, %7, %12, %9, %91, %8, %9, %15, %15, %98, %91, %9, %8, %8, %8, %8, %98, %15, %7, %98, %8, %7, %9, %15, %9, %98, %9, %98, %91, %98, %12, %15, %98, %12, %7, %91, %91, %8, %98, %15, %9, %98, %91, %12, %98, %98, %91, %7, %98, %9, %8, %91, %9, %12, %12, %98, %91, %91, %91, %12, %8, %12, %8, %8, %15, %12, %7, %7, %15, %9, %7, %91, %7, %15, %8, %9, %91, %15, %7, %91, %91, %91, %8, %98, %8, %7, %8, %12, %98, %98, %7, %8, %98, %15, %15, %8, %15, %15, %12, %12, %91, %8, %7, %91, %7, %7, %12, %98, %12, %12, %7, %91, %98, %9, %7, %98, %7, %7, %98, %98, %9, %7, %12, %12, %98, %7, %91, %98, %98, %8, %9, %91, %91, %7, %7, %91, %7, %7, %8, %91, %9, %8, %7, %12, %7, %12, %7, %15, %15, %9, %8, %8, %9, %98, %8, %91, %91, %9, %7, %8, %7, %91, %8, %12, %12, %7, %98, %8, %98, %8, %98, %12, %91, %98, %7, %8, %7, %12, %8, %98, %9, %91, %7, %98, %9, %7, %91, %98, %91, %7, %8, %8, %91, %8, %15, %7, %98, %15, %91, %91, %98, %8, %98, %7, %9, %98, %12, %7, %8, %9, %8, %9, %12, %15, %91, %98, %7, %7, %9, %8, %98, %7, %15, %91, %7, %8, %91, %98, %12, %12, %8, %8, %7, %8, %12, %98, %12, %9, %12, %9, %15, %91, %8, %15, %12, %8, %9, %9, %98, %15, %98, %98, %8, %8, %8, %8, %9, %91, %12, %7, %8, %9, %91, %91, %12, %12, %98, %7, %9, %91, %91, %8, %15, %15, %15, %12, %98, %98, %15, %98, %8, %9, %98, %98, %8, %12, %8, %7, %9, %8, %7, %91, %12, %7, %7, %7, %15, %98, %12, %12, %15, %91, %98, %12, %9, %91, %91, %91, %7, %12, %15, %12, %15, %12, %15, %12, %8, %9, %91, %9, %8, %91, %98, %12, %12, %8, %91, %7, %91, %7, %15, %15, %12, %98, %98, %8, %12, %8, %91, %91, %15, %7, %8, %15, %8, %9, %8, %8, %91, %98, %8, %15, %12, %7, %98, %12, %8, %91, %7, %12, %8, %15, %98, %91, %15, %7, %98, %91, %15, %12, %15, %98, %15, %98, %15, %7, %8, %12, %7, %7, %91, %91, %7, %8, %15, %7, %91, %91, %12, %7, %91, %98, %9, %7, %7, %9, %9, %98, %98, %98, %8, %15, %8, %8, %12, %91, %12, %15, %98, %7, %91, %9, %12, %91, %7, %15, %8, %8, %91, %7, %91, %91, %9, %91, %91, %9, %15, %7, %8, %9, %12, %8, %7, %98, %9, %8, %8, %8, %91, %98, %9, %12, %9, %12, %8, %12, %12, %12, %9, %98, %7, %9, %15, %12, %91, %7, %12, %91, %91, %98, %91, %98, %9, %12, %8, %15, %9, %8, %98, %9, %12, %15, %9, %98, %12, %7, %7, %8, %12, %8, %8, %15, %9, %91, %9, %98, %7, %9, %91, %15, %9, %8, %8, %8, %9, %9, %7, %7, %7, %98, %12, %8, %12, %7, %7, %12, %7, %98, %98, %7, %8, %98, %9, %12, %12, %15, %15, %7, %12, %15, %8, %15, %9, %8, %7, %12, %9, %8, %91, %98, %98, %9, %91, %91, %12, %98, %98, %15, %98, %12, %9, %98, %15, %98, %9, %15, %91, %15, %98, %7, %98, %8, %12, %15, %98, %8, %91, %15, %91, %12, %8, %91, %98, %12, %98, %12, %8, %15, %8, %8, %15, %12, %91, %98, %9, %98, %12, %9, %98, %15, %8, %91, %12, %8, %98, %8, %7, %91, %98, %91, %7, %98, %12, %91, %7, %12, %9, %91, %98, %7, %12, %7, %91, %98, %91, %9, %12, %15, %7, %98, %91, %9, %91, %12, %98, %7, %91, %8, %7, %15, %98, %12, %9, %12, %12, %12, %98, %15, %15, %98, %15, %8, %91, %12, %91, %8, %8, %8, %98, %15, %98, %15, %98, %15, %8, %12, %15, %8, %7, %91, %9, %15, %91, %15, %91, %91, %9, %7, %9, %91, %98, %15, %15, %15, %15, %15, %7, %12, %8, %98, %7, %15, %12, %9, %8, %91, %7, %15, %8, %8, %7, %91, %9, %91, %98, %7, %15, %9, %12, %8, %98, %8, %9, %98, %98, %91, %9, %15, %15, %12, %7, %15, %8, %98, %98, %91, %8, %98, %98, %15, %91, %9, %98, %98, %9, %8, %12, %98, %8, %15, %9, %8, %8, %7, %91, %7, %12, %8, %8, %98, %9, %91, %91, %12, %98, %98, %15, %8, %7, %12, %15, %91, %12, %12, %12, %8, %9, %98, %12, %15, %91, %7, %98, %98, %9, %12, %98, %91, %15, %9, %8, %15, %7, %15, %98, %9, %7, %9, %7, %9, %91, %98, %9, %12, %15, %12, %91, %15, %8, %15, %7, %91, %9, %15, %15, %91, %91, %91, %91, %15, %8, %15, %91, %9, %8, %9, %8, %9, %98, %98, %7, %91, %98, %9, %7, %8, %91, %15, %91, %98, %98, %12, %98, %9, %12, %15, %8, %15, %15, %8, %15, %12, %15, %12, %15, %91, %8, %91, %9, %15, %98, %91, %8, %15, %9, %98, %15, %9, %98, %12, %98, %12, %15, %15, %9, %9, %15, %91, %8, %8, %91, %8, %15, %9, %12, %8, %98, %8, %7, %8, %98, %15, %98, %98, %12, %12, %9, %12, %98, %9, %8, %12, %8, %9, %8, %8, %12, %8, %8, %9, %91, %15, %15, %15, %7, %7, %8, %9, %15, %12, %15, %15, %98, %8, %8, %98, %12, %15, %9, %91, %9, %7, %9, %15, %7, %15, %98, %12, %7, %12, %7, %91, %7, %98, %98, %9, %15, %7, %9, %15, %98, %91, %98, %8, %98, %91, %7, %98, %15, %91, %7, %9, %8, %8, %7, %98, %9, %98, %7, %7, %91, %12, %7, %98, %12, %8, %12, %91, %91, %8, %98, %98, %98, %8, %8, %91, %91, %9, %7, %98, %12, %12, %12, %91, %9, %8, %9, %98, %7, %9, %91, %8, %8, %91, %98, %8, %15, %8, %91, %15, %98, %12, %98, %98, %9, %12, %8, %8, %98, %98, %91, %9, %9, %15, %7, %9, %98, %98, %98, %12, %91, %15, %9, %7, %98, %8, %12, %15, %12, %8, %15, %91, %91, %98, %9, %15, %9, %8, %91, %8, %98, %15, %91, %9, %98, %9, %12, %7, %7, %8, %15, %15, %15, %91, %7, %91, %15, %9, %12, %12, %15, %9, %98, %12, %8, %98, %7, %12, %12, %15, %98, %12, %98, %9, %98, %7, %12, %12, %9, %98, %12, %8, %8, %91, %8, %15, %91, %91, %12, %7, %9, %12, %8, %9, %91, %98, %8, %9, %12, %12, %15, %15, %8, %9, %91, %8, %7, %98, %8, %15, %9, %91, %12, %15, %15, %12, %9, %12, %12, %12, %7, %9, %91, %9, %8, %8, %91, %9, %98, %7, %7, %12, %9, %12, %91, %12, %91, %7, %98, %9, %91, %9, %12, %98, %91, %91, %7, %15, %7, %15, %15, %91, %91, %91, %7, %15, %15, %91, %91, %12, %91, %15, %7, %91, %8, %7, %12, %98, %15, %12, %8, %91, %7, %15, %9, %7, %98, %7, %12, %8, %15, %91, %9, %91, %15, %8, %9, %98, %9, %8, %9, %15, %12, %91, %9, %98, %7, %9, %8, %7, %12, %9, %91, %8, %7, %12, %15, %8, %98, %15, %98, %9, %12, %12, %15, %9, %8, %8, %9, %8, %91, %98, %15, %15, %12, %7, %12, %9, %98, %12, %8, %8, %15, %98, %91, %8, %9, %98, %15, %15, %91, %91, %8, %8, %15, %98, %15, %12, %15, %7, %91, %91, %91, %98, %12, %15, %91, %12, %9, %15, %8, %91, %91, %8, %91, %8, %7, %15, %7, %9, %8, %12, %98, %7, %12, %9, %8, %15, %15, %12, %15, %8, %91, %7, %98, %98, %98, %8, %7, %15, %12, %8, %7, %98, %98, %9, %91, %12, %7, %91, %12, %91, %7, %91, %15, %9, %7, %7, %8, %12, %8, %8, %9, %9, %91, %15, %91, %98, %12, %9, %91, %91, %15, %9, %15, %98, %15, %7, %98, %8, %12, %12, %91, %7, %98, %12, %12, %91, %9, %15, %98, %98, %15, %9, %91, %7, %8, %12, %12, %12, %12, %9, %98, %98, %98, %98, %98, %15, %12, %9, %9, %91, %15, %15, %91, %12, %7, %9, %7, %15, %15, %7, %7, %91, %91, %98, %91, %98, %98, %7, %91, %8, %7, %8, %9, %98, %98, %12, %15, %15, %98, %12, %12, %12, %7, %98, %12, %91, %9, %12, %12, %98, %8, %91, %8, %7, %7, %91, %7, %9, %91, %8, %9, %15, %98, %9, %9, %9, %91, %98, %8, %8, %7, %98, %98, %15, %12, %15, %91, %9, %91, %8, %9, %98, %15, %15, %8, %91, %91, %91, %9, %15, %98, %9, %7, %9, %98, %12, %7, %12, %8, %98, %7, %98, %91, %91, %91, %7, %9, %91, %12, %15, %7, %9, %12, %91, %12, %91, %98, %9, %7, %98, %12, %91, %8, %15, %98, %12, %12, %9, %7, %9, %91, %91, %98, %91, %9, %9, %7, %8, %8, %91, %8, %12, %91, %15, %7, %98, %9, %7, %15, %8, %98, %7, %15, %7, %7, %9, %12, %15, %9, %9, %12, %8, %15, %12, %8, %7, %8, %8, %12, %91, %7, %12, %98, %91, %7, %15, %9, %8, %9, %91, %98, %15, %15, %12, %91, %15, %15, %12, %98, %12, %91, %98, %98, %7, %12, %91, %7, %8, %91, %98, %15, %7, %8, %98, %7, %8, %7, %7, %9, %7, %8, %98, %91, %8, %9, %98, %7, %98, %8, %98, %98, %9, %9, %7, %8, %8, %98, %7, %15, %8, %98, %8, %9, %91, %9, %7, %12, %8, %91, %7, %91, %12, %12, %98, %98, %8, %12, %98, %8, %8, %7, %91, %12, %15, %15, %98, %98, %9, %98, %91, %91, %7, %9, %91, %91, %98, %9, %9, %7, %15, %12, %91, %8, %98, %9, %8, %91, %9, %12, %15, %7, %15, %7, %7, %12, %9, %15, %9, %9, %8, %98, %15, %98, %91, %15, %12, %7, %8, %15, %8, %98, %9, %9, %98, %12, %9, %12, %9, %12, %9, %91, %7, %91, %12, %91, %12, %7, %8, %12, %8, %8, %12, %9, %15, %91, %7, %8, %98, %15, %9, %12, %8, %8, %15, %91, %98, %91, %8, %98, %98, %98, %98, %91, %9, %15, %15, %98, %8, %9, %7, %98, %15, %15, %9, %98, %9, %7, %9, %8, %98, %98, %12, %8, %12, %91, %9, %12, %98, %15, %98, %9, %98, %15, %15, %12, %98, %15, %15, %9, %98, %91, %8, %8, %7, %15, %12, %91, %12, %91, %12, %8, %15, %8, %7, %98, %7, %9, %12, %15, %12, %91, %91, %15, %8, %98, %7, %15, %12, %9, %12, %91, %8, %8, %8, %9, %7, %8, %91, %8, %12, %98, %98, %12, %7, %12, %12, %98, %7, %91, %8, %91, %7, %8, %7, %15, %7, %12, %8, %12, %98, %7, %7, %9, %8, %12, %12, %7, %9, %8, %8, %9, %9, %15, %91, %9, %98, %15, %7, %8, %7, %15, %7, %8, %15, %7, %98, %15, %8, %15, %91, %7, %98, %8, %91, %98, %91, %15, %12, %12, %98, %8, %12, %91, %15, %91, %7, %8, %15, %91, %8, %8, %15, %91, %91, %15, %8, %7, %91, %98, %9, %15, %15, %91, %12, %12, %9, %9, %7, %7, %9, %7, %7, %98, %15, %9, %98, %15, %8, %8, %8, %15, %12, %7, %98, %12, %8, %98, %7, %15, %7, %12, %15, %12, %7, %98, %8, %12, %12, %12, %15, %91, %12, %91, %9, %98, %12, %98, %98, %91, %7, %98, %7, %12, %8, %15, %91, %12, %91, %12, %7, %7, %12, %91, %9, %15, %98, %91, %12, %9, %9, %91, %91, %9, %12, %8, %91, %12, %98, %91, %12, %8, %15, %98, %9, %7, %15, %7, %7, %15, %91, %12, %91, %8, %9, %91, %7, %12, %12, %7, %91, %15, %9, %8, %91, %9, %9, %12, %8, %91, %9, %9, %91, %15, %8, %7, %8, %12, %12, %91, %12, %9, %15, %8, %98, %9, %12, %9, %91, %91, %98, %12, %8, %91, %9, %8, %7, %15, %15, %7, %12, %9, %9, %15, %98, %8, %15, %7, %12, %12, %8, %12, %12, %15, %12, %98, %8, %15, %91, %91, %8, %9, %8, %8, %8, %98, %15, %98, %15, %91, %7, %12, %8, %7, %98, %7, %9, %8, %12, %8, %7, %8, %8, %8, %15, %12, %9, %15, %12, %7, %91, %7, %9, %9, %8, %98, %12, %7, %7, %98, %98, %7, %98, %8, %9, %9, %15, %98, %98, %7, %9, %98, %91, %7, %8, %98, %12, %12, %12, %12, %9, %9, %8, %91, %91, %12, %8, %15, %12, %15, %9, %12, %98, %9, %15, %15, %12, %8, %98, %8, %15, %9, %12, %98, %91, %91, %8, %8, %8, %9, %12, %9, %9, %8, %8, %91, %7, %15, %7, %9, %7, %8, %9, %9, %8, %9, %15, %7, %91, %8, %98, %7, %12, %91, %7, %9, %7, %9, %15, %12, %8, %98, %15, %8, %15, %7, %8, %91, %8, %7, %91, %15, %98, %91, %91, %7, %9, %12, %12, %91, %98, %8, %9, %12, %7, %12, %91, %91, %98, %8, %8, %98, %12, %98, %98, %15, %98, %15, %9, %98, %12, %12, %7, %9, %15, %8, %91, %15, %9, %9, %91, %91, %15, %98, %15, %91, %12, %98, %98, %7, %91, %8, %8, %9, %98, %98, %91, %15, %7, %91, %15, %9, %8, %9, %12, %12, %15, %7, %7, %12, %7, %91, %91, %7, %91, %98, %98, %12, %12, %7, %91, %8, %7, %9, %12, %8, %9, %12, %15, %15, %9, %15, %12, %15, %7, %91, %91, %8, %8, %15, %15, %9, %7, %7, %7, %12, %7, %8, %8, %91, %12, %7, %12, %91, %12, %9, %9, %9, %8, %12, %9, %12, %15, %9, %91, %8, %8, %8, %9, %98, %15, %7, %12, %15, %7, %7, %12, %91, %12, %9, %7, %91, %12, %15, %12, %91, %98, %8, %15, %7, %8, %7, %8, %9, %98, %8, %9, %98, %15, %12, %15, %8, %7, %8, %12, %91, %98, %91, %7, %12, %9, %12, %12, %8, %8, %15, %7, %8, %7, %8, %7, %98, %98, %91, %7, %8, %8, %15, %9, %9, %15, %98, %98, %98, %12, %15, %8, %8, %9, %12, %91, %15, %8, %15, %7, %7, %7, %98, %98, %9, %12, %7, %12, %8, %15, %15, %91, %9, %91, %91, %91, %12, %91, %98, %8, %9, %91, %7, %91, %9, %15, %7, %7, %12, %91, %8, %7, %15, %98, %9, %7, %12, %7, %15, %8, %9, %8, %9, %98, %12, %7, %91, %15, %91, %15, %12, %12, %15, %98, %12, %91, %91, %12, %98, %98, %9, %7, %9, %91, %98, %98, %8, %12, %7, %12, %98, %9, %7, %9, %7, %9, %91, %15, %15, %7, %9, %8, %12, %15, %9, %8, %9, %12, %8, %7, %12, %91, %9, %98, %15, %15, %91, %91, %9, %15, %91, %91, %98, %7, %91, %15, %8, %7, %12, %8, %9, %15, %7, %8, %7, %91, %8, %91, %15, %98, %91, %98, %15, %8, %15, %15, %9, %7, %12, %9, %12, %7, %9, %91, %7, %98, %9, %15, %15, %9, %9, %98, %15, %91, %8, %7, %9, %8, %98, %8, %12, %12, %8, %98, %7, %9, %91, %98, %91, %98, %7, %15, %12, %8, %12, %9, %98, %12, %91, %12, %9, %7, %8, %8, %7, %98, %9, %7, %98, %15, %98, %91, %91, %15, %91, %15, %15, %91, %9, %91, %98, %98, %7, %15, %9, %98, %7, %7, %9, %98, %9, %8, %12, %8, %12, %15, %98, %98, %98, %91, %12, %91, %91, %9, %8, %91, %7, %7, %9, %8, %98, %9, %91, %15, %7, %8, %98, %8, %98, %7, %15, %91, %98, %8, %12, %8, %8, %91, %15, %15, %9, %9, %12, %15, %9, %91, %15, %15, %7, %7, %91, %12, %8, %9, %7, %7, %7, %98, %98, %15, %98, %91) : (i1, i1, i1, i1, i1, i1, i1, i1, i1, i1, i1, i1, i1, i1, i1, i1, i1, i1, i1, i1, i1, i1, i1, i1, i1, i1, i1, i1, i1, i1, i1, i1, i1, i1, i1, i1, i1, i1, i1, i1, i1, i1, i1, i1, i1, i1, i1, i1, i1, i1, i1, i1, i1, i1, i1, i1, i1, i1, i1, i1, i1, i1, i1, i1, i1, i1, i1, i1, i1, i1, i1, i1, i1, i1, i1, i1, i1, i1, i1, i1, i1, i1, i1, i1, i1, i1, i1, i1, i1, i1, i1, i1, i1, i1, i1, i1, i1, i1, i1, i1, i1, i1, i1, i1, i1, i1, i1, i1, i1, i1, i1, i1, i1, i1, i1, i1, i1, i1, i1, i1, i1, i1, i1, i1, i1, i1, i1, i1, i1, i1, i1, i1, i1, i1, i1, i1, i1, i1, i1, i1, i1, i1, i1, i1, i1, i1, i1, i1, i1, i1, i1, i1, i1, i1, i1, i1, i1, i1, i1, i1, i1, i1, i1, i1, i1, i1, i1, i1, i1, i1, i1, i1, i1, i1, i1, i1, i1, i1, i1, i1, i1, i1, i1, i1, i1, i1, i1, i1, i1, i1, i1, i1, i1, i1, i1, i1, i1, i1, i1, i1, i1, i1, i1, i1, i1, i1, i1, i1, i1, i1, i1, i1, i1, i1, i1, i1, i1, i1, i1, i1, i1, i1, i1, i1, i1, i1, i1, i1, i1, i1, i1, i1, i1, i1, i1, i1, i1, i1, i1, i1, i1, i1, i1, i1, i1, i1, i1, i1, i1, i1, i1, i1, i1, i1, i1, i1, i1, i1, i1, i1, i1, i1, i1, i1, i1, i1, i1, i1, i1, i1, i1, i1, i1, i1, i1, i1, i1, i1, i1, i1, i1, i1, i1, i1, i1, i1, i1, i1, i1, i1, i1, i1, i1, i1, i1, i1, i1, i1, i1, i1, i1, i1, i1, i1, i1, i1, i1, i1, i1, i1, i1, i1, i1, i1, i1, i1, i1, i1, i1, i1, i1, i1, i1, i1, i1, i1, i1, i1, i1, i1, i1, i1, i1, i1, i1, i1, i1, i1, i1, i1, i1, i1, i1, i1, i1, i1, i1, i1, i1, i1, i1, i1, i1, i1, i1, i1, i1, i1, i1, i1, i1, i1, i1, i1, i1, i1, i1, i1, i1, i1, i1, i1, i1, i1, i1, i1, i1, i1, i1, i1, i1, i1, i1, i1, i1, i1, i1, i1, i1, i1, i1, i1, i1, i1, i1, i1, i1, i1, i1, i1, i1, i1, i1, i1, i1, i1, i1, i1, i1, i1, i1, i1, i1, i1, i1, i1, i1, i1, i1, i1, i1, i1, i1, i1, i1, i1, i1, i1, i1, i1, i1, i1, i1, i1, i1, i1, i1, i1, i1, i1, i1, i1, i1, i1, i1, i1, i1, i1, i1, i1, i1, i1, i1, i1, i1, i1, i1, i1, i1, i1, i1, i1, i1, i1, i1, i1, i1, i1, i1, i1, i1, i1, i1, i1, i1, i1, i1, i1, i1, i1, i1, i1, i1, i1, i1, i1, i1, i1, i1, i1, i1, i1, i1, i1, i1, i1, i1, i1, i1, i1, i1, i1, i1, i1, i1, i1, i1, i1, i1, i1, i1, i1, i1, i1, i1, i1, i1, i1, i1, i1, i1, i1, i1, i1, i1, i1, i1, i1, i1, i1, i1, i1, i1, i1, i1, i1, i1, i1, i1, i1, i1, i1, i1, i1, i1, i1, i1, i1, i1, i1, i1, i1, i1, i1, i1, i1, i1, i1, i1, i1, i1, i1, i1, i1, i1, i1, i1, i1, i1, i1, i1, i1, i1, i1, i1, i1, i1, i1, i1, i1, i1, i1, i1, i1, i1, i1, i1, i1, i1, i1, i1, i1, i1, i1, i1, i1, i1, i1, i1, i1, i1, i1, i1, i1, i1, i1, i1, i1, i1, i1, i1, i1, i1, i1, i1, i1, i1, i1, i1, i1, i1, i1, i1, i1, i1, i1, i1, i1, i1, i1, i1, i1, i1, i1, i1, i1, i1, i1, i1, i1, i1, i1, i1, i1, i1, i1, i1, i1, i1, i1, i1, i1, i1, i1, i1, i1, i1, i1, i1, i1, i1, i1, i1, i1, i1, i1, i1, i1, i1, i1, i1, i1, i1, i1, i1, i1, i1, i1, i1, i1, i1, i1, i1, i1, i1, i1, i1, i1, i1, i1, i1, i1, i1, i1, i1, i1, i1, i1, i1, i1, i1, i1, i1, i1, i1, i1, i1, i1, i1, i1, i1, i1, i1, i1, i1, i1, i1, i1, i1, i1, i1, i1, i1, i1, i1, i1, i1, i1, i1, i1, i1, i1, i1, i1, i1, i1, i1, i1, i1, i1, i1, i1, i1, i1, i1, i1, i1, i1, i1, i1, i1, i1, i1, i1, i1, i1, i1, i1, i1, i1, i1, i1, i1, i1, i1, i1, i1, i1, i1, i1, i1, i1, i1, i1, i1, i1, i1, i1, i1, i1, i1, i1, i1, i1, i1, i1, i1, i1, i1, i1, i1, i1, i1, i1, i1, i1, i1, i1, i1, i1, i1, i1, i1, i1, i1, i1, i1, i1, i1, i1, i1, i1, i1, i1, i1, i1, i1, i1, i1, i1, i1, i1, i1, i1, i1, i1, i1, i1, i1, i1, i1, i1, i1, i1, i1, i1, i1, i1, i1, i1, i1, i1, i1, i1, i1, i1, i1, i1, i1, i1, i1, i1, i1, i1, i1, i1, i1, i1, i1, i1, i1, i1, i1, i1, i1, i1, i1, i1, i1, i1, i1, i1, i1, i1, i1, i1, i1, i1, i1, i1, i1, i1, i1, i1, i1, i1, i1, i1, i1, i1, i1, i1, i1, i1, i1, i1, i1, i1, i1, i1, i1, i1, i1, i1, i1, i1, i1, i1, i1, i1, i1, i1, i1, i1, i1, i1, i1, i1, i1, i1, i1, i1, i1, i1, i1, i1, i1, i1, i1, i1, i1, i1, i1, i1, i1, i1, i1, i1, i1, i1, i1, i1, i1, i1, i1, i1, i1, i1, i1, i1, i1, i1, i1, i1, i1, i1, i1, i1, i1, i1, i1, i1, i1, i1, i1, i1, i1, i1, i1, i1, i1, i1, i1, i1, i1, i1, i1, i1, i1, i1, i1, i1, i1, i1, i1, i1, i1, i1, i1, i1, i1, i1, i1, i1, i1, i1, i1, i1, i1, i1, i1, i1, i1, i1, i1, i1, i1, i1, i1, i1, i1, i1, i1, i1, i1, i1, i1, i1, i1, i1, i1, i1, i1, i1, i1, i1, i1, i1, i1, i1, i1, i1, i1, i1, i1, i1, i1, i1, i1, i1, i1, i1, i1, i1, i1, i1, i1, i1, i1, i1, i1, i1, i1, i1, i1, i1, i1, i1, i1, i1, i1, i1, i1, i1, i1, i1, i1, i1, i1, i1, i1, i1, i1, i1, i1, i1, i1, i1, i1, i1, i1, i1, i1, i1, i1, i1, i1, i1, i1, i1, i1, i1, i1, i1, i1, i1, i1, i1, i1, i1, i1, i1, i1, i1, i1, i1, i1, i1, i1, i1, i1, i1, i1, i1, i1, i1, i1, i1, i1, i1, i1, i1, i1, i1, i1, i1, i1, i1, i1, i1, i1, i1, i1, i1, i1, i1, i1, i1, i1, i1, i1, i1, i1, i1, i1, i1, i1, i1, i1, i1, i1, i1, i1, i1, i1, i1, i1, i1, i1, i1, i1, i1, i1, i1, i1, i1, i1, i1, i1, i1, i1, i1, i1, i1, i1, i1, i1, i1, i1, i1, i1, i1, i1, i1, i1, i1, i1, i1, i1, i1, i1, i1, i1, i1, i1, i1, i1, i1, i1, i1, i1, i1, i1, i1, i1, i1, i1, i1, i1, i1, i1, i1, i1, i1, i1, i1, i1, i1, i1, i1, i1, i1, i1, i1, i1, i1, i1, i1, i1, i1, i1, i1, i1, i1, i1, i1, i1, i1, i1, i1, i1, i1, i1, i1, i1, i1, i1, i1, i1, i1, i1, i1, i1, i1, i1, i1, i1, i1, i1, i1, i1, i1, i1, i1, i1, i1, i1, i1, i1, i1, i1, i1, i1, i1, i1, i1, i1, i1, i1, i1, i1, i1, i1, i1, i1, i1, i1, i1, i1, i1, i1, i1, i1, i1, i1, i1, i1, i1, i1, i1, i1, i1, i1, i1, i1, i1, i1, i1, i1, i1, i1, i1, i1, i1, i1, i1, i1, i1, i1, i1, i1, i1, i1, i1, i1, i1, i1, i1, i1, i1, i1, i1, i1, i1, i1, i1, i1, i1, i1, i1, i1, i1, i1, i1, i1, i1, i1, i1, i1, i1, i1, i1, i1, i1, i1, i1, i1, i1, i1, i1, i1, i1, i1, i1, i1, i1, i1, i1, i1, i1, i1, i1, i1, i1, i1, i1, i1, i1, i1, i1, i1, i1, i1, i1, i1, i1, i1, i1, i1, i1, i1, i1, i1, i1, i1, i1, i1, i1, i1, i1, i1, i1, i1, i1, i1, i1, i1, i1, i1, i1, i1, i1, i1, i1, i1, i1, i1, i1, i1, i1, i1, i1, i1, i1, i1, i1, i1, i1, i1, i1, i1, i1, i1, i1, i1, i1, i1, i1, i1, i1, i1, i1, i1, i1, i1, i1, i1, i1, i1, i1, i1, i1, i1, i1, i1, i1, i1, i1, i1, i1, i1, i1, i1, i1, i1, i1, i1, i1, i1, i1, i1, i1, i1, i1, i1, i1, i1, i1, i1, i1, i1, i1, i1, i1, i1, i1, i1, i1, i1, i1, i1, i1, i1, i1, i1, i1, i1, i1, i1, i1, i1, i1, i1, i1, i1, i1, i1, i1, i1, i1, i1, i1, i1, i1, i1, i1, i1, i1, i1, i1, i1, i1, i1, i1, i1, i1, i1, i1, i1, i1, i1, i1, i1, i1, i1, i1, i1, i1, i1, i1, i1, i1, i1, i1, i1, i1, i1, i1, i1, i1, i1, i1, i1, i1, i1, i1, i1, i1, i1, i1, i1, i1, i1, i1, i1, i1, i1, i1, i1, i1, i1, i1, i1, i1, i1, i1, i1, i1, i1, i1, i1, i1, i1, i1, i1, i1, i1, i1, i1, i1, i1, i1, i1, i1, i1, i1, i1, i1, i1, i1, i1, i1, i1, i1, i1, i1, i1, i1, i1, i1, i1, i1, i1, i1, i1, i1, i1, i1, i1, i1, i1, i1, i1, i1, i1, i1, i1, i1, i1, i1, i1, i1, i1, i1, i1, i1, i1, i1, i1, i1, i1, i1, i1, i1, i1, i1, i1, i1, i1, i1, i1, i1, i1, i1, i1, i1, i1, i1, i1, i1, i1, i1, i1, i1, i1, i1, i1, i1, i1, i1, i1, i1, i1, i1, i1, i1, i1, i1, i1, i1, i1, i1, i1, i1, i1, i1, i1, i1, i1, i1, i1, i1, i1, i1, i1, i1, i1, i1, i1, i1, i1, i1, i1, i1, i1, i1, i1, i1, i1, i1, i1, i1, i1, i1, i1, i1, i1, i1, i1, i1, i1, i1, i1, i1, i1, i1, i1, i1, i1, i1, i1, i1, i1, i1, i1, i1, i1, i1, i1, i1, i1, i1, i1, i1, i1, i1, i1, i1, i1, i1, i1, i1, i1, i1, i1, i1, i1, i1, i1, i1, i1, i1, i1, i1, i1, i1, i1, i1, i1, i1, i1, i1, i1, i1, i1, i1, i1, i1, i1, i1, i1, i1, i1, i1, i1, i1, i1, i1, i1, i1, i1, i1, i1, i1, i1, i1, i1, i1, i1, i1, i1, i1, i1, i1, i1, i1, i1, i1, i1, i1, i1, i1, i1, i1, i1, i1, i1, i1, i1, i1, i1, i1, i1, i1, i1, i1, i1, i1, i1, i1, i1, i1, i1, i1, i1, i1, i1, i1, i1, i1, i1, i1, i1, i1, i1, i1, i1, i1, i1, i1, i1, i1, i1, i1, i1, i1, i1, i1, i1, i1, i1, i1, i1, i1, i1, i1, i1, i1, i1, i1, i1, i1, i1, i1, i1, i1, i1, i1, i1, i1, i1, i1, i1, i1, i1, i1, i1, i1, i1, i1, i1, i1, i1, i1, i1, i1, i1, i1, i1, i1, i1, i1, i1, i1, i1, i1, i1, i1, i1, i1, i1, i1, i1, i1, i1, i1, i1, i1, i1, i1, i1, i1, i1, i1, i1, i1, i1, i1, i1, i1, i1, i1, i1, i1, i1, i1, i1, i1, i1, i1, i1, i1, i1, i1, i1, i1, i1, i1, i1, i1, i1, i1, i1, i1, i1, i1, i1, i1, i1, i1, i1, i1, i1, i1, i1, i1, i1, i1, i1, i1, i1, i1, i1, i1, i1, i1, i1, i1, i1, i1, i1, i1, i1, i1, i1, i1, i1, i1, i1, i1, i1, i1, i1, i1, i1, i1, i1, i1, i1, i1, i1, i1, i1, i1, i1, i1, i1, i1, i1, i1, i1, i1, i1, i1, i1, i1, i1, i1, i1, i1, i1, i1, i1, i1, i1, i1, i1, i1, i1, i1, i1, i1, i1, i1, i1, i1, i1, i1, i1, i1, i1, i1, i1, i1, i1, i1, i1, i1, i1, i1, i1, i1, i1, i1, i1, i1, i1, i1, i1, i1, i1, i1, i1, i1, i1, i1, i1, i1, i1, i1, i1, i1, i1, i1, i1, i1, i1, i1, i1, i1, i1, i1, i1, i1, i1, i1, i1, i1, i1, i1, i1, i1, i1, i1, i1, i1, i1, i1, i1, i1, i1, i1, i1, i1, i1, i1, i1, i1, i1, i1, i1, i1, i1, i1, i1, i1, i1, i1, i1, i1, i1, i1, i1, i1, i1, i1, i1, i1, i1, i1, i1, i1, i1, i1, i1, i1, i1, i1, i1, i1, i1, i1, i1, i1, i1, i1, i1, i1, i1, i1, i1, i1, i1, i1, i1, i1, i1, i1, i1, i1, i1, i1, i1, i1, i1, i1, i1, i1, i1, i1, i1, i1, i1, i1, i1, i1, i1, i1, i1, i1, i1, i1, i1, i1, i1, i1, i1, i1, i1, i1, i1, i1, i1, i1, i1, i1, i1, i1, i1, i1, i1, i1, i1, i1, i1, i1, i1, i1, i1, i1, i1, i1, i1, i1, i1, i1, i1, i1, i1, i1, i1, i1, i1, i1, i1, i1, i1, i1, i1, i1, i1, i1, i1, i1, i1, i1, i1, i1, i1, i1, i1, i1, i1, i1, i1, i1, i1, i1, i1, i1, i1, i1, i1, i1, i1, i1, i1, i1, i1, i1, i1, i1, i1, i1, i1, i1, i1, i1, i1, i1, i1, i1, i1, i1, i1, i1, i1, i1, i1, i1, i1, i1, i1, i1, i1, i1, i1, i1, i1, i1, i1, i1, i1, i1, i1, i1, i1, i1, i1, i1, i1, i1, i1, i1, i1, i1, i1, i1, i1, i1, i1, i1, i1, i1, i1, i1, i1, i1, i1, i1, i1, i1, i1, i1, i1, i1, i1, i1, i1, i1, i1, i1, i1, i1, i1, i1, i1, i1, i1, i1, i1, i1, i1, i1, i1, i1, i1, i1, i1, i1, i1, i1, i1, i1, i1, i1, i1, i1, i1, i1, i1, i1, i1, i1, i1, i1, i1, i1, i1, i1, i1, i1, i1, i1, i1, i1, i1, i1, i1, i1, i1, i1, i1, i1, i1, i1, i1, i1, i1, i1, i1, i1, i1, i1, i1, i1, i1, i1, i1, i1, i1, i1, i1, i1, i1, i1, i1, i1, i1, i1, i1, i1, i1, i1, i1, i1, i1, i1, i1, i1, i1, i1, i1, i1, i1, i1, i1, i1, i1, i1, i1, i1, i1, i1, i1, i1, i1, i1, i1, i1, i1, i1, i1, i1, i1, i1, i1, i1, i1, i1, i1, i1, i1, i1, i1, i1, i1, i1, i1, i1, i1, i1, i1, i1, i1, i1, i1, i1, i1, i1, i1, i1, i1, i1, i1, i1, i1, i1, i1, i1, i1, i1, i1, i1, i1, i1, i1, i1, i1, i1, i1, i1, i1, i1, i1, i1, i1, i1, i1, i1, i1, i1, i1, i1, i1, i1, i1, i1, i1, i1, i1, i1, i1, i1, i1, i1, i1, i1, i1, i1, i1, i1, i1, i1, i1, i1, i1, i1, i1, i1, i1, i1, i1, i1, i1, i1, i1, i1, i1, i1, i1, i1, i1, i1, i1, i1, i1, i1, i1, i1, i1, i1, i1, i1, i1, i1, i1, i1, i1, i1, i1, i1, i1, i1, i1, i1, i1, i1, i1, i1, i1, i1, i1, i1, i1, i1, i1, i1, i1, i1, i1, i1, i1, i1, i1, i1, i1, i1, i1, i1, i1, i1, i1, i1, i1, i1, i1, i1, i1, i1, i1, i1, i1, i1, i1, i1, i1, i1, i1, i1, i1, i1, i1, i1, i1, i1, i1, i1, i1, i1, i1, i1, i1, i1, i1, i1, i1, i1, i1, i1, i1, i1, i1, i1, i1, i1, i1, i1, i1, i1, i1, i1, i1, i1, i1, i1, i1, i1, i1, i1, i1, i1, i1, i1, i1, i1, i1, i1, i1, i1, i1, i1, i1, i1, i1, i1, i1, i1, i1, i1, i1, i1, i1, i1, i1, i1, i1, i1, i1, i1, i1, i1, i1, i1, i1, i1, i1, i1, i1, i1, i1, i1, i1, i1, i1, i1, i1, i1, i1, i1, i1, i1, i1, i1, i1, i1, i1, i1, i1, i1, i1, i1, i1, i1, i1, i1, i1, i1, i1, i1, i1, i1, i1, i1, i1, i1, i1, i1, i1, i1, i1, i1, i1, i1, i1, i1, i1, i1, i1, i1, i1, i1, i1, i1, i1, i1, i1, i1, i1, i1, i1, i1, i1, i1, i1, i1, i1, i1, i1, i1, i1, i1, i1, i1, i1, i1, i1, i1, i1, i1, i1, i1, i1, i1, i1, i1, i1, i1, i1, i1, i1, i1, i1, i1, i1, i1, i1, i1, i1, i1, i1, i1, i1, i1, i1, i1, i1, i1, i1, i1, i1, i1, i1, i1, i1, i1, i1, i1, i1, i1, i1, i1, i1, i1, i1, i1, i1, i1, i1, i1, i1, i1, i1, i1, i1, i1, i1, i1, i1, i1, i1, i1, i1, i1, i1, i1, i1, i1, i1, i1, i1, i1, i1, i1, i1, i1, i1, i1, i1, i1, i1, i1, i1, i1, i1, i1, i1, i1, i1, i1, i1, i1, i1, i1, i1, i1, i1, i1, i1, i1, i1, i1, i1, i1, i1, i1, i1, i1, i1, i1, i1, i1, i1, i1, i1, i1, i1, i1, i1, i1, i1, i1, i1, i1, i1, i1, i1, i1, i1, i1, i1, i1, i1, i1, i1, i1, i1, i1, i1, i1, i1, i1, i1, i1, i1, i1, i1, i1, i1, i1, i1, i1, i1, i1, i1, i1, i1, i1, i1, i1, i1, i1, i1, i1, i1, i1, i1, i1, i1, i1, i1, i1, i1, i1, i1, i1, i1, i1, i1, i1, i1, i1, i1, i1, i1, i1, i1, i1, i1, i1, i1, i1, i1, i1, i1, i1, i1, i1, i1, i1, i1, i1, i1, i1, i1, i1, i1, i1, i1, i1, i1, i1, i1, i1, i1, i1, i1, i1, i1, i1, i1, i1, i1, i1, i1, i1, i1, i1, i1, i1, i1, i1, i1, i1, i1, i1, i1, i1, i1, i1, i1, i1, i1, i1, i1, i1, i1, i1, i1, i1, i1, i1, i1, i1, i1, i1, i1, i1, i1, i1, i1, i1, i1, i1, i1, i1, i1, i1, i1, i1, i1, i1, i1, i1, i1, i1, i1, i1, i1, i1, i1, i1, i1, i1, i1, i1, i1, i1, i1, i1, i1, i1, i1, i1, i1, i1, i1, i1, i1, i1, i1, i1, i1, i1, i1, i1, i1, i1, i1, i1, i1, i1, i1, i1, i1, i1, i1, i1, i1, i1, i1, i1, i1, i1, i1, i1, i1, i1, i1, i1, i1, i1, i1, i1, i1, i1, i1, i1, i1, i1, i1, i1, i1, i1, i1, i1, i1, i1, i1, i1, i1, i1, i1, i1, i1, i1, i1, i1, i1, i1, i1, i1, i1, i1, i1, i1, i1, i1, i1, i1, i1, i1, i1, i1, i1, i1, i1, i1, i1, i1, i1, i1, i1, i1, i1, i1, i1, i1, i1, i1, i1, i1, i1, i1, i1, i1, i1, i1, i1, i1, i1, i1, i1, i1, i1, i1, i1, i1, i1, i1, i1, i1, i1, i1, i1, i1, i1, i1, i1, i1, i1, i1, i1, i1, i1, i1, i1, i1, i1, i1, i1, i1, i1, i1, i1, i1, i1, i1, i1, i1, i1, i1, i1, i1, i1, i1, i1, i1, i1, i1, i1, i1, i1, i1, i1, i1, i1, i1, i1, i1, i1, i1, i1, i1, i1, i1, i1, i1, i1, i1, i1, i1, i1, i1, i1, i1, i1, i1, i1, i1, i1, i1, i1, i1, i1, i1, i1, i1, i1, i1, i1, i1, i1, i1, i1, i1, i1, i1, i1, i1, i1, i1, i1, i1, i1, i1, i1, i1, i1, i1, i1, i1, i1, i1, i1, i1, i1, i1, i1, i1, i1, i1, i1, i1, i1, i1, i1, i1, i1, i1, i1, i1, i1, i1, i1, i1, i1, i1, i1, i1, i1, i1, i1, i1, i1, i1, i1, i1, i1, i1, i1, i1, i1, i1, i1, i1, i1, i1, i1, i1, i1, i1, i1, i1, i1, i1, i1, i1, i1, i1, i1, i1, i1, i1, i1, i1, i1, i1, i1, i1, i1, i1, i1, i1, i1, i1, i1, i1, i1, i1, i1, i1, i1, i1, i1, i1, i1, i1, i1, i1, i1, i1, i1, i1, i1, i1, i1, i1, i1, i1, i1, i1, i1, i1, i1, i1, i1, i1, i1, i1, i1, i1, i1, i1, i1, i1, i1, i1, i1, i1, i1, i1, i1, i1, i1, i1, i1, i1, i1, i1, i1, i1, i1, i1, i1, i1, i1, i1, i1, i1, i1, i1, i1, i1, i1, i1, i1, i1, i1, i1, i1, i1, i1, i1, i1, i1, i1, i1, i1, i1, i1, i1, i1, i1, i1, i1, i1, i1, i1, i1, i1, i1, i1, i1, i1, i1, i1, i1, i1, i1, i1, i1, i1, i1, i1, i1, i1, i1, i1, i1, i1, i1, i1, i1, i1, i1, i1, i1, i1, i1, i1, i1, i1, i1, i1, i1, i1, i1, i1, i1, i1, i1, i1, i1, i1, i1, i1, i1, i1, i1, i1, i1, i1, i1, i1, i1, i1, i1, i1, i1, i1, i1, i1, i1, i1, i1, i1, i1, i1, i1, i1, i1, i1, i1, i1, i1, i1, i1, i1, i1, i1, i1, i1, i1, i1, i1, i1, i1, i1, i1, i1, i1, i1, i1, i1, i1, i1, i1, i1, i1, i1, i1, i1, i1, i1, i1, i1, i1, i1, i1, i1, i1, i1, i1, i1, i1, i1, i1, i1, i1, i1, i1, i1, i1, i1, i1, i1, i1, i1, i1, i1, i1, i1, i1, i1, i1, i1, i1, i1, i1, i1, i1, i1, i1, i1, i1, i1, i1, i1, i1, i1, i1, i1, i1, i1, i1, i1, i1, i1, i1, i1, i1, i1, i1, i1, i1, i1, i1, i1, i1, i1, i1, i1, i1, i1, i1, i1, i1, i1, i1, i1, i1, i1, i1, i1, i1, i1, i1, i1, i1, i1, i1, i1, i1, i1, i1, i1, i1, i1, i1, i1, i1, i1, i1, i1, i1, i1, i1, i1, i1, i1, i1, i1, i1, i1, i1, i1, i1, i1, i1, i1, i1, i1, i1, i1, i1, i1, i1, i1, i1, i1, i1, i1, i1, i1, i1, i1, i1, i1, i1, i1, i1, i1, i1, i1, i1, i1, i1, i1, i1, i1, i1, i1, i1, i1, i1, i1, i1, i1, i1, i1, i1, i1, i1, i1, i1, i1, i1, i1, i1, i1, i1, i1, i1, i1, i1, i1, i1, i1, i1, i1, i1, i1, i1, i1, i1, i1, i1, i1, i1, i1, i1, i1, i1, i1, i1, i1, i1, i1, i1, i1, i1, i1, i1, i1, i1, i1, i1, i1, i1, i1, i1, i1, i1, i1, i1, i1, i1, i1, i1, i1, i1, i1, i1, i1, i1, i1, i1, i1, i1, i1, i1, i1, i1, i1, i1, i1, i1, i1, i1, i1, i1, i1, i1, i1, i1, i1, i1, i1, i1, i1, i1, i1, i1, i1, i1, i1, i1, i1, i1, i1, i1, i1, i1, i1, i1, i1, i1, i1, i1, i1, i1, i1, i1, i1, i1, i1, i1, i1, i1, i1, i1, i1, i1, i1, i1, i1, i1, i1, i1, i1, i1, i1, i1, i1, i1, i1, i1, i1, i1, i1, i1, i1, i1, i1, i1, i1, i1, i1, i1, i1, i1, i1, i1, i1, i1, i1, i1, i1, i1, i1, i1, i1, i1, i1, i1, i1, i1, i1, i1, i1, i1, i1, i1, i1, i1, i1, i1, i1, i1, i1, i1, i1, i1, i1, i1, i1, i1, i1, i1, i1, i1, i1, i1, i1, i1, i1, i1, i1, i1, i1, i1, i1, i1, i1, i1, i1, i1, i1, i1, i1, i1, i1, i1, i1, i1, i1, i1, i1, i1, i1, i1, i1, i1, i1, i1, i1, i1, i1, i1, i1, i1, i1, i1, i1, i1, i1, i1, i1, i1, i1, i1, i1, i1, i1, i1, i1, i1, i1, i1, i1, i1, i1, i1, i1, i1, i1, i1, i1, i1, i1, i1, i1, i1, i1, i1, i1, i1, i1, i1, i1, i1, i1, i1, i1, i1, i1, i1, i1, i1, i1, i1, i1, i1, i1, i1, i1, i1, i1, i1, i1, i1, i1, i1, i1, i1, i1, i1, i1, i1, i1, i1, i1, i1, i1, i1, i1, i1, i1, i1, i1, i1, i1, i1, i1, i1, i1, i1, i1, i1, i1, i1, i1, i1, i1, i1, i1, i1, i1, i1, i1, i1, i1, i1, i1, i1, i1, i1, i1, i1, i1, i1, i1, i1, i1, i1, i1, i1, i1, i1, i1, i1, i1, i1, i1, i1, i1, i1, i1, i1, i1, i1, i1, i1, i1, i1, i1, i1, i1, i1, i1, i1, i1, i1, i1, i1, i1, i1, i1, i1, i1, i1, i1, i1, i1, i1, i1, i1, i1, i1, i1, i1, i1, i1, i1, i1, i1, i1, i1, i1, i1, i1, i1, i1, i1, i1, i1, i1, i1, i1, i1, i1, i1, i1, i1, i1, i1, i1, i1, i1, i1, i1, i1, i1, i1, i1, i1, i1, i1, i1, i1, i1, i1, i1, i1, i1, i1, i1, i1, i1, i1, i1, i1, i1, i1, i1, i1, i1, i1, i1, i1, i1, i1, i1, i1, i1, i1, i1, i1, i1, i1, i1, i1, i1, i1, i1, i1, i1, i1, i1, i1, i1, i1, i1, i1, i1, i1, i1, i1, i1, i1, i1, i1, i1, i1, i1, i1, i1, i1, i1, i1, i1, i1, i1, i1, i1, i1, i1, i1, i1, i1, i1, i1, i1, i1, i1, i1, i1, i1, i1, i1, i1, i1, i1, i1, i1, i1, i1, i1, i1, i1, i1, i1, i1, i1, i1, i1, i1, i1, i1, i1, i1, i1, i1, i1, i1, i1, i1, i1, i1, i1, i1, i1, i1, i1, i1, i1, i1, i1, i1, i1, i1, i1, i1, i1, i1, i1, i1, i1, i1, i1, i1, i1, i1, i1, i1, i1, i1, i1, i1, i1, i1, i1, i1, i1, i1, i1, i1, i1, i1, i1, i1, i1, i1, i1, i1, i1, i1, i1, i1, i1, i1, i1, i1, i1, i1, i1, i1, i1, i1, i1, i1, i1, i1, i1, i1, i1, i1, i1, i1, i1, i1, i1, i1, i1, i1, i1, i1, i1, i1, i1, i1, i1, i1, i1, i1, i1, i1, i1, i1, i1, i1, i1, i1, i1, i1, i1, i1, i1, i1, i1, i1, i1, i1, i1, i1, i1, i1, i1, i1, i1, i1, i1, i1, i1, i1, i1, i1, i1, i1, i1, i1, i1, i1, i1, i1, i1, i1, i1, i1, i1, i1, i1, i1, i1, i1, i1, i1, i1, i1, i1, i1, i1, i1, i1, i1, i1, i1, i1, i1, i1, i1, i1, i1, i1, i1, i1, i1, i1, i1, i1, i1, i1, i1, i1, i1, i1, i1, i1, i1, i1, i1, i1, i1, i1, i1, i1, i1, i1, i1, i1, i1, i1, i1, i1, i1, i1, i1, i1, i1, i1, i1, i1, i1, i1, i1, i1, i1, i1, i1, i1, i1, i1, i1, i1, i1, i1, i1, i1, i1, i1, i1, i1, i1, i1, i1, i1, i1, i1, i1, i1, i1, i1, i1, i1, i1, i1, i1, i1, i1, i1, i1, i1, i1, i1, i1, i1, i1, i1, i1, i1, i1, i1, i1, i1, i1, i1, i1, i1, i1, i1, i1, i1, i1, i1, i1, i1, i1, i1, i1, i1, i1, i1, i1, i1, i1, i1, i1, i1, i1, i1, i1, i1, i1, i1, i1, i1, i1, i1, i1, i1, i1, i1, i1, i1, i1, i1, i1, i1, i1, i1, i1, i1, i1, i1, i1, i1, i1, i1, i1, i1, i1, i1, i1, i1, i1, i1, i1, i1, i1, i1, i1, i1, i1, i1, i1, i1, i1, i1, i1, i1, i1, i1, i1, i1, i1, i1, i1, i1, i1, i1, i1, i1, i1, i1, i1, i1, i1, i1, i1, i1, i1, i1, i1, i1, i1, i1, i1, i1, i1,…
        %261 = "arith.constant"() <{value = 1476667631 : i64}> : () -> i64
        %262 = "math.sqrt"(%87) <{fastmath = #arith.fastmath<none>}> : (f16) -> f16
        %263 = "math.log10"(%1) <{fastmath = #arith.fastmath<none>}> : (f32) -> f32
        %264 = "arith.cmpi"(%15, %15) <{predicate = 9 : i64}> : (i1, i1) -> i1
        %265 = "index.or"(%19, %39) : (index, index) -> index
        %266 = "arith.divf"(%11, %104) <{fastmath = #arith.fastmath<none>}> : (f32, f32) -> f32
        %267 = "math.ctpop"(%4) : (i64) -> i64
        "memref.alloca_scope.return"() : () -> ()
      }) : () -> ()
      "vector.compressstore"(%73, %16, %16, %83, %95) : (memref<?x13xi16>, index, index, vector<11xi1>, vector<11xi16>) -> ()
      %218 = "math.rsqrt"(%116) <{fastmath = #arith.fastmath<none>}> : (f16) -> f16
      %219 = "index.shrs"(%27, %26) : (index, index) -> index
      %220 = "math.exp"(%106) <{fastmath = #arith.fastmath<none>}> : (f16) -> f16
      %221 = "tensor.empty"() : () -> tensor<29x13x13xi1>
      %222 = "linalg.map"(%48, %221) ({
      ^bb0(%arg5: i1):
        %232 = "index.ceildivu"(%80, %42) : (index, index) -> index
        %233 = "index.maxu"(%39, %115) : (index, index) -> index
        %234 = "tensor.cast"(%53) : (tensor<?xf16>) -> tensor<11xf16>
        %235 = "arith.divsi"(%124, %12) : (i1, i1) -> i1
        %236 = "vector.broadcast"(%82) : (f32) -> vector<29xf32>
        %237 = "vector.fma"(%236, %236, %236) : (vector<29xf32>, vector<29xf32>, vector<29xf32>) -> vector<29xf32>
        %238 = "math.powf"(%52, %52) <{fastmath = #arith.fastmath<none>}> : (tensor<29x13x13xf16>, tensor<29x13x13xf16>) -> tensor<29x13x13xf16>
        %239 = "index.xor"(%43, %22) : (index, index) -> index
        %240 = "affine.min"(%233, %42, %36) <{map = affine_map<(d0, d1)[s0] -> (-d0)>}> : (index, index, index) -> index
        %241 = "arith.subi"(%7, %119) : (i1, i1) -> i1
        %242 = "arith.andi"(%101, %10) : (i32, i32) -> i32
        %243 = "bufferization.clone"(%69) : (memref<29x29xi1>) -> memref<29x29xi1>
        %244 = "arith.subi"(%98, %8) : (i1, i1) -> i1
        %245 = "math.ceil"(%113) <{fastmath = #arith.fastmath<none>}> : (tensor<13x29x13xf32>) -> tensor<13x29x13xf32>
        %246 = "math.tan"(%114) <{fastmath = #arith.fastmath<none>}> : (tensor<13x29x13xf32>) -> tensor<13x29x13xf32>
        "bufferization.dealloc_tensor"(%52) : (tensor<29x13x13xf16>) -> ()
        %247 = "memref.atomic_rmw"(%101, %75, %18, %23) <{kind = 10 : i64}> : (i32, memref<13x13xi32>, index, index) -> i32
        %248 = "math.exp"(%56) <{fastmath = #arith.fastmath<none>}> : (tensor<?x13x13xf16>) -> tensor<?x13x13xf16>
        %249 = "arith.divui"(%4, %4) : (i64, i64) -> i64
        %250 = "vector.broadcast"(%6) : (f32) -> vector<13xf32>
        %251 = "vector.multi_reduction"(%126, %250) <{kind = #vector.kind<mul>, reduction_dims = [1]}> : (vector<13x13xf32>, vector<13xf32>) -> vector<13xf32>
        %252 = "memref.cast"(%73) : (memref<?x13xi16>) -> memref<27x?xi16>
        %253 = "index.xor"(%37, %45) : (index, index) -> index
        %254 = "vector.broadcast"(%5) : (f16) -> vector<29xf16>
        %255 = "vector.bitcast"(%95) : (vector<11xi16>) -> vector<11xi16>
        %256 = "index.divs"(%24, %81) : (index, index) -> index
        %257 = "tensor.empty"() : () -> tensor<29xi1>
        %258 = "tensor.empty"() : () -> tensor<i1>
        %259 = "linalg.dot"(%77, %257, %258) <{operandSegmentSizes = array<i32: 2, 1>}> ({
        ^bb0(%arg6: i1, %arg7: i1, %arg8: i1):
          %266 = "arith.andi"(%arg6, %arg7) : (i1, i1) -> i1
          %267 = "arith.ori"(%arg8, %266) : (i1, i1) -> i1
          "linalg.yield"(%267) : (i1) -> ()
        }) {linalg.memoized_indexing_maps = [affine_map<(d0) -> (d0)>, affine_map<(d0) -> (d0)>, affine_map<(d0) -> ()>]} : (memref<29xi1>, tensor<29xi1>, tensor<i1>) -> tensor<i1>
        %260 = "vector.load"(%70, %20, %21) : (memref<29x29xi1>, index, index) -> vector<29x29xi1>
        %261 = "arith.remui"(%91, %9) : (i1, i1) -> i1
        %262 = "arith.constant"() <{value = false}> : () -> i1
        "memref.copy"(%122, %122) : (memref<29x13x13xf16>, memref<29x13x13xf16>) -> ()
        %263 = "arith.shrsi"(%94, %123) : (i16, i16) -> i16
        %264 = "affine.apply"(%29, %18, %217) <{map = affine_map<(d0, d1)[s0] -> ((d0 ceildiv 64) mod 8)>}> : (index, index, index) -> index
        %265 = "arith.floordivsi"(%4, %4) : (i64, i64) -> i64
        "linalg.yield"(%15) : (i1) -> ()
      }) : (tensor<29x13x13xi1>, tensor<29x13x13xi1>) -> tensor<29x13x13xi1>
      %223 = "index.divs"(%18, %81) : (index, index) -> index
      %224 = "arith.subi"(%124, %9) : (i1, i1) -> i1
      %225 = "tensor.rank"(%54) : (tensor<?x?x13xf32>) -> index
      %226 = "math.sqrt"(%82) <{fastmath = #arith.fastmath<none>}> : (f32) -> f32
      %227 = "vector.broadcast"(%116) : (f16) -> vector<29xf16>
      %228 = "vector.broadcast"(%98) : (i1) -> vector<29x29xi1>
      %229 = "index.floordivs"(%44, %40) : (index, index) -> index
      %230 = "scf.while"(%52) ({
      ^bb0(%arg5: tensor<29x13x13xf16>):
        %232 = "memref.atomic_rmw"(%112, %79, %16, %16, %16) <{kind = 5 : i64}> : (i16, memref<?x?x?xi16>, index, index, index) -> i16
        %233 = "vector.matrix_multiply"(%83, %84) <{lhs_columns = 1 : i32, lhs_rows = 11 : i32, rhs_columns = 1 : i32}> : (vector<11xi1>, vector<1xi1>) -> vector<11xi1>
        %234 = "math.ctlz"(%58) : (tensor<29xi16>) -> tensor<29xi16>
        %235 = "arith.constant"() <{value = 1936220455 : i32}> : () -> i32
        %236 = "vector.broadcast"(%1) : (f32) -> vector<29x13x13xf32>
        %237 = "vector.fma"(%236, %236, %236) : (vector<29x13x13xf32>, vector<29x13x13xf32>, vector<29x13x13xf32>) -> vector<29x13x13xf32>
        %238 = "bufferization.clone"(%69) : (memref<29x29xi1>) -> memref<29x29xi1>
        %239 = "arith.shli"(%91, %91) : (i1, i1) -> i1
        %240 = "vector.bitcast"(%227) : (vector<29xf16>) -> vector<29xi16>
        "scf.condition"(%124, %arg5) : (i1, tensor<29x13x13xf16>) -> ()
      }, {
      ^bb0(%arg5: tensor<29x13x13xf16>):
        %232 = "index.mul"(%43, %44) : (index, index) -> index
        %233 = "index.xor"(%29, %33) : (index, index) -> index
        %234 = "math.atan2"(%99, %14) <{fastmath = #arith.fastmath<none>}> : (f16, f16) -> f16
        %235 = "vector.broadcast"(%4) : (i64) -> vector<13xi64>
        %236 = "vector.broadcast"(%12) : (i1) -> vector<13xi1>
        "vector.compressstore"(%76, %16, %26, %236, %235) : (memref<?x13xi64>, index, index, vector<13xi1>, vector<13xi64>) -> ()
        %237 = "arith.constant"() <{value = 1.514400e+04 : f16}> : () -> f16
        %238 = "affine.load"(%76, %33, %41) <{map = affine_map<(d0, d1) -> (d0, d1)>}> : (memref<?x13xi64>, index, index) -> i64
        %239 = "index.divs"(%80, %46) : (index, index) -> index
        %240 = "vector.broadcast"(%98) : (i1) -> vector<29xi1>
        "vector.compressstore"(%arg0, %29, %23, %21, %240, %227) : (memref<29x13x13xf16>, index, index, index, vector<29xi1>, vector<29xf16>) -> ()
        "affine.store"(%101, %75, %31, %47) <{map = affine_map<(d0, d1) -> (d0, d1)>}> : (i32, memref<13x13xi32>, index, index) -> ()
        %241 = "arith.shrsi"(%91, %119) : (i1, i1) -> i1
        %242 = "index.add"(%223, %43) : (index, index) -> index
        %243 = "arith.remui"(%4, %4) : (i64, i64) -> i64
        %244 = "math.round"(%56) <{fastmath = #arith.fastmath<none>}> : (tensor<?x13x13xf16>) -> tensor<?x13x13xf16>
        %245 = "tensor.cast"(%59) : (tensor<?x13x13xi16>) -> tensor<27x13x13xi16>
        %246 = "math.ipowi"(%101, %101) : (i32, i32) -> i32
        "bufferization.dealloc_tensor"(%221) : (tensor<29x13x13xi1>) -> ()
        "scf.yield"(%arg5) : (tensor<29x13x13xf16>) -> ()
      }) : (tensor<29x13x13xf16>) -> tensor<29x13x13xf16>
      %231 = "vector.splat"(%223) : (index) -> vector<29xindex>
      "scf.reduce"(%221) ({
      ^bb0(%arg5: tensor<29x13x13xi1>, %arg6: tensor<29x13x13xi1>):
        %232 = "math.log10"(%1) <{fastmath = #arith.fastmath<none>}> : (f32) -> f32
        %233 = "math.absi"(%arg5) : (tensor<29x13x13xi1>) -> tensor<29x13x13xi1>
        %234 = "math.expm1"(%116) <{fastmath = #arith.fastmath<none>}> : (f16) -> f16
        %235 = "arith.divui"(%8, %124) : (i1, i1) -> i1
        %236 = "index.sizeof"() : () -> index
        %237 = "index.and"(%46, %225) : (index, index) -> index
        %238 = "vector.broadcast"(%5) : (f16) -> vector<13x13xf16>
        %239 = "arith.cmpi"(%124, %98) <{predicate = 1 : i64}> : (i1, i1) -> i1
        "scf.reduce.return"(%48) : (tensor<29x13x13xi1>) -> ()
      }) : (tensor<29x13x13xi1>) -> ()
      "scf.yield"() : () -> ()
    }) : (index, index, index, index, index, index, tensor<29x13x13xi1>) -> tensor<29x13x13xi1>
    %132 = "spirv.CL.rint"(%1) : (f32) -> f32
    %133 = "spirv.GL.Round"(%120) : (f16) -> f16
    %134 = "vector.broadcast"(%3) : (i32) -> vector<2xi32>
    %135 = "spirv.BitwiseOr"(%134, %134) : (vector<2xi32>, vector<2xi32>) -> vector<2xi32>
    %136 = "spirv.BitFieldInsert"(%134, %134, %4, %112) : (vector<2xi32>, vector<2xi32>, i64, i16) -> vector<2xi32>
    %137 = "spirv.CL.fma"(%99, %120, %5) : (f16, f16, f16) -> f16
    %138 = "spirv.GL.UClamp"(%0, %4, %4) : (i64, i64, i64) -> i64
    %139 = "math.atan2"(%114, %114) <{fastmath = #arith.fastmath<none>}> : (tensor<13x29x13xf32>, tensor<13x29x13xf32>) -> tensor<13x29x13xf32>
    "scf.if"(%98) ({
      %217 = "arith.divf"(%137, %120) <{fastmath = #arith.fastmath<none>}> : (f16, f16) -> f16
      %218 = "tensor.collapse_shape"(%59) <{reassociation = [[0, 1], [2]]}> : (tensor<?x13x13xi16>) -> tensor<?x13xi16>
      %219 = "vector.multi_reduction"(%84, %15) <{kind = #vector.kind<xor>, reduction_dims = [0]}> : (vector<1xi1>, i1) -> i1
      %220 = "linalg.matmul"(%70, %69, %55) <{operandSegmentSizes = array<i32: 2, 1>}> ({
      ^bb0(%arg3: i1, %arg4: i1, %arg5: i1):
        %226 = "arith.andi"(%arg3, %arg4) : (i1, i1) -> i1
        %227 = "arith.ori"(%arg5, %226) : (i1, i1) -> i1
        "linalg.yield"(%227) : (i1) -> ()
      }) {linalg.memoized_indexing_maps = [affine_map<(d0, d1, d2) -> (d0, d2)>, affine_map<(d0, d1, d2) -> (d2, d1)>, affine_map<(d0, d1, d2) -> (d0, d1)>]} : (memref<29x29xi1>, memref<29x29xi1>, tensor<29x29xi1>) -> tensor<29x29xi1>
      %221 = "arith.addi"(%117, %124) : (i1, i1) -> i1
      %222 = "affine.min"(%115, %31, %31, %31, %38) <{map = affine_map<(d0, d1, d2, d3)[s0] -> (d2 ceildiv 16)>}> : (index, index, index, index, index) -> index
      %223 = "tensor.empty"() : () -> tensor<13x13xi32>
      %224 = "linalg.matmul"(%64, %64, %223) <{operandSegmentSizes = array<i32: 2, 1>}> ({
      ^bb0(%arg3: i32, %arg4: i32, %arg5: i32):
        %226 = "arith.muli"(%arg3, %arg4) : (i32, i32) -> i32
        %227 = "arith.addi"(%arg5, %226) : (i32, i32) -> i32
        "linalg.yield"(%227) : (i32) -> ()
      }) {linalg.memoized_indexing_maps = [affine_map<(d0, d1, d2) -> (d0, d2)>, affine_map<(d0, d1, d2) -> (d2, d1)>, affine_map<(d0, d1, d2) -> (d0, d1)>]} : (memref<13x13xi32>, memref<13x13xi32>, tensor<13x13xi32>) -> tensor<13x13xi32>
      %225 = "affine.parallel"() <{lowerBoundsGroups = dense<1> : tensor<2xi32>, lowerBoundsMap = affine_map<() -> (0, 0)>, reductions = [4], steps = [1, 1], upperBoundsGroups = dense<1> : tensor<2xi32>, upperBoundsMap = affine_map<() -> (27, 11)>}> ({
      ^bb0(%arg3: index, %arg4: index):
        %226 = "memref.realloc"(%arg2) : (memref<29xi64>) -> memref<13xi64>
        "affine.yield"(%8) : (i1) -> ()
      }) : () -> memref<27x11xi1>
      "scf.yield"() : () -> ()
    }, {
      %217 = "tensor.cast"(%114) : (tensor<13x29x13xf32>) -> tensor<?x?x?xf32>
      %218 = "affine.apply"(%16, %44, %16) <{map = affine_map<(d0, d1)[s0] -> (-(d0 ceildiv 4))>}> : (index, index, index) -> index
      "memref.copy"(%76, %76) : (memref<?x13xi64>, memref<?x13xi64>) -> ()
      %219 = "index.maxu"(%16, %41) : (index, index) -> index
      %220 = "memref.alloca"() <{operandSegmentSizes = array<i32: 0, 0>}> : () -> memref<29xf32>
      %221 = "index.add"(%43, %34) : (index, index) -> index
      %222 = "arith.floordivsi"(%138, %138) : (i64, i64) -> i64
      "bufferization.dealloc_tensor"(%48) : (tensor<29x13x13xi1>) -> ()
      "scf.yield"() : () -> ()
    }) : (i1) -> ()
    %140 = "arith.addi"(%15, %91) : (i1, i1) -> i1
    %141 = "math.log2"(%52) <{fastmath = #arith.fastmath<none>}> : (tensor<29x13x13xf16>) -> tensor<29x13x13xf16>
    %142 = "spirv.CL.round"(%11) : (f32) -> f32
    %143 = "memref.alloca"(%36) <{operandSegmentSizes = array<i32: 1, 0>}> : (index) -> memref<?xf32>
    %144 = "index.maxs"(%19, %22) : (index, index) -> index
    %145 = "index.ceildivs"(%37, %20) : (index, index) -> index
    %146 = "spirv.CL.s_abs"(%138) : (i64) -> i64
    %147 = "vector.broadcast"(%42) : (index) -> vector<11xindex>
    %148 = "vector.broadcast"(%146) : (i64) -> vector<11xi64>
    "vector.scatter"(%71, %16, %147, %83, %148) : (memref<29xi64>, index, vector<11xindex>, vector<11xi1>, vector<11xi64>) -> ()
    %149 = "vector.transfer_read"(%121, %37, %27, %19, %14) <{operandSegmentSizes = array<i32: 1, 3, 1, 0>, permutation_map = affine_map<(d0, d1, d2) -> (d1, d2)>}> : (tensor<?x13x13xf16>, index, index, index, f16) -> vector<27x13xf16>
    %150 = "spirv.GL.SMin"(%123, %123) : (i16, i16) -> i16
    %151 = "arith.cmpi"(%8, %119) <{predicate = 9 : i64}> : (i1, i1) -> i1
    %152 = "spirv.BitwiseOr"(%134, %134) : (vector<2xi32>, vector<2xi32>) -> vector<2xi32>
    %153 = "spirv.UGreaterThanEqual"(%3, %3) : (i32, i32) -> i1
    %154 = "tensor.empty"() : () -> tensor<29xi64>
    %155 = "vector.broadcast"(%146) : (i64) -> vector<29xi64>
    %156 = "vector.broadcast"(%98) : (i1) -> vector<29xi1>
    %157 = "vector.broadcast"(%101) : (i32) -> vector<29xi32>
    %158 = "vector.gather"(%154, %24, %157, %156, %155) : (tensor<29xi64>, index, vector<29xi32>, vector<29xi1>, vector<29xi64>) -> vector<29xi64>
    %159 = "spirv.GL.FSign"(%87) : (f16) -> f16
    %160 = "spirv.GL.Floor"(%87) : (f16) -> f16
    %161 = "vector.matrix_multiply"(%83, %84) <{lhs_columns = 1 : i32, lhs_rows = 11 : i32, rhs_columns = 1 : i32}> : (vector<11xi1>, vector<1xi1>) -> vector<11xi1>
    %162 = "math.exp"(%160) <{fastmath = #arith.fastmath<none>}> : (f16) -> f16
    %163 = "arith.divf"(%106, %14) <{fastmath = #arith.fastmath<none>}> : (f16, f16) -> f16
    %164 = "math.cttz"(%59) : (tensor<?x13x13xi16>) -> tensor<?x13x13xi16>
    %165 = "math.fma"(%114, %114, %114) <{fastmath = #arith.fastmath<none>}> : (tensor<13x29x13xf32>, tensor<13x29x13xf32>, tensor<13x29x13xf32>) -> tensor<13x29x13xf32>
    %166 = "spirv.SGreaterThan"(%150, %13) : (i16, i16) -> i1
    "affine.store"(%132, %78, %34, %44, %30) <{map = affine_map<(d0, d1, d2) -> (d0, d1, d2)>}> : (f32, memref<29x13x13xf32>, index, index, index) -> ()
    %167 = "math.roundeven"(%114) <{fastmath = #arith.fastmath<none>}> : (tensor<13x29x13xf32>) -> tensor<13x29x13xf32>
    %168 = "spirv.GL.Pow"(%2, %2) : (f16, f16) -> f16
    %169 = "index.floordivs"(%32, %29) : (index, index) -> index
    %170 = "math.fma"(%11, %1, %142) <{fastmath = #arith.fastmath<none>}> : (f32, f32, f32) -> f32
    %171 = "spirv.BitReverse"(%123) : (i16) -> i16
    %172 = "spirv.BitFieldUExtract"(%134, %101, %0) : (vector<2xi32>, i32, i64) -> vector<2xi32>
    %173 = "spirv.GL.Floor"(%11) : (f32) -> f32
    %174 = "memref.alloc"() <{operandSegmentSizes = array<i32: 0, 0>}> : () -> memref<13x13xf16>
    %175 = "vector.broadcast"(%133) : (f16) -> vector<29x13x13xf16>
    %176 = "vector.broadcast"(%91) : (i1) -> vector<29x13x13xi1>
    %177 = "vector.broadcast"(%3) : (i32) -> vector<29x13x13xi32>
    %178 = "vector.gather"(%174, %40, %30, %177, %176, %175) : (memref<13x13xf16>, index, index, vector<29x13x13xi32>, vector<29x13x13xi1>, vector<29x13x13xf16>) -> vector<29x13x13xf16>
    %179 = "spirv.FUnordNotEqual"(%104, %104) : (f32, f32) -> i1
    %180 = "bufferization.to_memref"(%63) : (tensor<29xf32>) -> memref<29xf32>
    %181 = "spirv.BitwiseAnd"(%134, %134) : (vector<2xi32>, vector<2xi32>) -> vector<2xi32>
    %182 = "math.log10"(%160) <{fastmath = #arith.fastmath<none>}> : (f16) -> f16
    %183 = "vector.gather"(%67, %27, %20, %43, %177, %176, %176) : (memref<29x13x13xi1>, index, index, index, vector<29x13x13xi32>, vector<29x13x13xi1>, vector<29x13x13xi1>) -> vector<29x13x13xi1>
    %184 = "math.round"(%109) <{fastmath = #arith.fastmath<none>}> : (tensor<29x13x13xf32>) -> tensor<29x13x13xf32>
    %185 = "affine.apply"(%102, %35, %34, %21, %37) <{map = affine_map<(d0, d1, d2, d3)[s0] -> (d3 - d1)>}> : (index, index, index, index, index) -> index
    %186 = "spirv.BitFieldSExtract"(%134, %101, %94) : (vector<2xi32>, i32, i16) -> vector<2xi32>
    %187 = "affine.parallel"() <{lowerBoundsGroups = dense<1> : tensor<3xi32>, lowerBoundsMap = affine_map<() -> (0, 0, 0)>, reductions = [4], steps = [1, 1, 1], upperBoundsGroups = dense<1> : tensor<3xi32>, upperBoundsMap = affine_map<() -> (27, 27, 11)>}> ({
    ^bb0(%arg3: index, %arg4: index, %arg5: index):
      %217 = "tensor.empty"() : () -> tensor<f32>
      %218 = "linalg.dot"(%63, %180, %217) <{operandSegmentSizes = array<i32: 2, 1>}> ({
      ^bb0(%arg6: f32, %arg7: f32, %arg8: f32):
        %219 = "arith.mulf"(%arg6, %arg7) <{fastmath = #arith.fastmath<none>}> : (f32, f32) -> f32
        %220 = "arith.addf"(%arg8, %219) <{fastmath = #arith.fastmath<none>}> : (f32, f32) -> f32
        "linalg.yield"(%220) : (f32) -> ()
      }) : (tensor<29xf32>, memref<29xf32>, tensor<f32>) -> tensor<f32>
      "affine.yield"(%4) : (i64) -> ()
    }) : () -> memref<27x27x11xi64>
    %188 = "spirv.CL.rint"(%104) : (f32) -> f32
    %189 = "arith.andi"(%124, %179) : (i1, i1) -> i1
    %190 = "math.absf"(%6) <{fastmath = #arith.fastmath<none>}> : (f32) -> f32
    %191 = "spirv.LogicalNot"(%8) : (i1) -> i1
    "scf.execute_region"() ({
      %217 = "arith.divsi"(%8, %191) : (i1, i1) -> i1
      %218 = "index.castu"(%98) : (i1) -> index
      %219 = "arith.xori"(%8, %153) : (i1, i1) -> i1
      %220 = "index.xor"(%23, %115) : (index, index) -> index
      %221 = "math.log"(%6) <{fastmath = #arith.fastmath<none>}> : (f32) -> f32
      %222 = "affine.if"(%17, %44) ({
        %233 = "index.shru"(%35, %169) : (index, index) -> index
        %234 = "arith.constant"() <{value = 4.368000e+04 : f16}> : () -> f16
        %235 = "index.shru"(%36, %23) : (index, index) -> index
        %236 = "arith.constant"() <{value = 1.471200e+04 : f16}> : () -> f16
        %237 = "arith.divf"(%118, %6) <{fastmath = #arith.fastmath<none>}> : (f32, f32) -> f32
        %238 = "math.ceil"(%173) <{fastmath = #arith.fastmath<none>}> : (f32) -> f32
        %239 = "memref.alloca"(%41) <{operandSegmentSizes = array<i32: 1, 0>}> : (index) -> memref<?x29xi1>
        %240 = "index.mul"(%185, %39) : (index, index) -> index
        %241 = "memref.alloc"() <{operandSegmentSizes = array<i32: 0, 0>}> : () -> memref<13x13xi16>
        "affine.yield"(%241) : (memref<13x13xi16>) -> ()
      }, {
        %233 = "math.cos"(%61) <{fastmath = #arith.fastmath<none>}> : (tensor<?x29xf16>) -> tensor<?x29xf16>
        "memref.copy"(%73, %73) : (memref<?x13xi16>, memref<?x13xi16>) -> ()
        %234 = "vector.broadcast"(%10) : (i32) -> vector<2x2xi32>
        %235 = "vector.outerproduct"(%134, %134, %234) <{kind = #vector.kind<maxui>}> : (vector<2xi32>, vector<2xi32>, vector<2x2xi32>) -> vector<2x2xi32>
        %236 = "tensor.extract"(%62, %16) : (tensor<?xf32>, index) -> f32
        %237 = "vector.bitcast"(%95) : (vector<11xi16>) -> vector<11xi16>
        %238 = "affine.apply"(%81, %28, %36) <{map = affine_map<(d0, d1, d2) -> (d0 - d1 * 8)>}> : (index, index, index) -> index
        %239 = "affine.vector_load"(%72, %21, %26) <{map = affine_map<(d0, d1) -> (d0, d1)>}> : (memref<29x29xi64>, index, index) -> vector<13xi64>
        %240 = "vector.broadcast"(%236) : (f32) -> vector<29xf32>
        %241 = "vector.fma"(%240, %240, %240) : (vector<29xf32>, vector<29xf32>, vector<29xf32>) -> vector<29xf32>
        %242 = "memref.alloc"() <{operandSegmentSizes = array<i32: 0, 0>}> : () -> memref<13x13xi16>
        "affine.yield"(%242) : (memref<13x13xi16>) -> ()
      }) {condition = affine_set<(d0, d1) : (-d0 + 64 >= 0, d1 - 4 >= 0, (d0 + 4) ceildiv 128 - 32 == 0, d0 >= 0)>} : (index, index) -> memref<13x13xi16>
      %223 = "index.maxs"(%81, %24) : (index, index) -> index
      %224 = "arith.shli"(%9, %91) : (i1, i1) -> i1
      %225 = "vector.broadcast"(%87) : (f16) -> vector<13xf16>
      %226 = "vector.multi_reduction"(%178, %225) <{kind = #vector.kind<mul>, reduction_dims = [0, 2]}> : (vector<29x13x13xf16>, vector<13xf16>) -> vector<13xf16>
      %227 = "math.tan"(%137) <{fastmath = #arith.fastmath<none>}> : (f16) -> f16
      %228 = "bufferization.to_memref"(%62) : (tensor<?xf32>) -> memref<?xf32>
      %229 = "arith.mulf"(%99, %14) <{fastmath = #arith.fastmath<none>}> : (f16, f16) -> f16
      %230 = "math.ctlz"(%154) : (tensor<29xi64>) -> tensor<29xi64>
      %231 = "bufferization.clone"(%72) : (memref<29x29xi64>) -> memref<29x29xi64>
      %232 = "math.rsqrt"(%168) <{fastmath = #arith.fastmath<none>}> : (f16) -> f16
      "memref.store"(%166, %70, %20, %37) <{nontemporal = false}> : (i1, memref<29x29xi1>, index, index) -> ()
      "scf.yield"() : () -> ()
    }) : () -> ()
    %192 = "spirv.ULessThan"(%4, %138) : (i64, i64) -> i1
    "vector.print"(%175) <{punctuation = #vector.punctuation<newline>}> : (vector<29x13x13xf16>) -> ()
    %193 = "spirv.LogicalNot"(%124) : (i1) -> i1
    %194 = "arith.addi"(%191, %119) : (i1, i1) -> i1
    %195 = "math.log1p"(%132) <{fastmath = #arith.fastmath<none>}> : (f32) -> f32
    %196 = "math.exp2"(%6) <{fastmath = #arith.fastmath<none>}> : (f32) -> f32
    %197 = "index.ceildivu"(%145, %185) : (index, index) -> index
    %198 = "spirv.GL.SSign"(%4) : (i64) -> i64
    %199 = "spirv.GL.SAbs"(%150) : (i16) -> i16
    %200 = "math.tan"(%160) <{fastmath = #arith.fastmath<none>}> : (f16) -> f16
    %201 = "spirv.IsNan"(%11) : (f32) -> i1
    %202 = "arith.addi"(%123, %112) : (i16, i16) -> i16
    %203 = "spirv.FNegate"(%5) : (f16) -> f16
    %204 = "spirv.GL.SClamp"(%150, %123, %13) : (i16, i16, i16) -> i16
    %205 = "spirv.CL.s_abs"(%13) : (i16) -> i16
    %206 = "spirv.CL.s_abs"(%198) : (i64) -> i64
    %207 = "vector.reduction"(%155) <{fastmath = #arith.fastmath<none>, kind = #vector.kind<mul>}> : (vector<29xi64>) -> i64
    %208 = "arith.remui"(%12, %124) : (i1, i1) -> i1
    %209 = "spirv.CL.exp"(%142) : (f32) -> f32
    %210 = "vector.multi_reduction"(%161, %12) <{kind = #vector.kind<mul>, reduction_dims = [0]}> : (vector<11xi1>, i1) -> i1
    %211 = "vector.transfer_read"(%180, %46, %1) <{operandSegmentSizes = array<i32: 1, 1, 1, 0>, permutation_map = affine_map<(d0) -> ()>}> : (memref<29xf32>, index, f32) -> vector<f32>
    %212 = "spirv.CL.floor"(%159) : (f16) -> f16
    %213 = "scf.index_switch"(%197) <{cases = array<i64: 1, 2, 3, 4>}> ({
      "memref.copy"(%122, %122) : (memref<29x13x13xf16>, memref<29x13x13xf16>) -> ()
      %217 = "vector.broadcast"(%10) : (i32) -> vector<29x13xi32>
      %218:2 = "vector.scan"(%177, %217) <{inclusive = true, kind = #vector.kind<xor>, reduction_dim = 1 : i64}> : (vector<29x13x13xi32>, vector<29x13xi32>) -> (vector<29x13x13xi32>, vector<29x13xi32>)
      %219 = "arith.constant"() <{value = 1306362404 : i32}> : () -> i32
      %220 = "index.xor"(%36, %23) : (index, index) -> index
      %221 = "memref.alloca"() <{operandSegmentSizes = array<i32: 0, 0>}> : () -> memref<29x13x13xf32>
      %222 = "math.cos"(%188) <{fastmath = #arith.fastmath<none>}> : (f32) -> f32
      %223 = "math.exp"(%53) <{fastmath = #arith.fastmath<none>}> : (tensor<?xf16>) -> tensor<?xf16>
      %224 = "arith.remf"(%118, %209) <{fastmath = #arith.fastmath<none>}> : (f32, f32) -> f32
      %225 = "memref.alloc"() <{operandSegmentSizes = array<i32: 0, 0>}> : () -> memref<13x29x13xi1>
      "linalg.transpose"(%49, %225) <{permutation = array<i64: 2, 0, 1>}> ({
      ^bb0(%arg3: i1, %arg4: i1):
        "linalg.yield"(%arg3) : (i1) -> ()
      }) : (tensor<29x13x13xi1>, memref<13x29x13xi1>) -> ()
      %226 = "tensor.extract"(%63, %35) : (tensor<29xf32>, index) -> f32
      %227 = "math.absf"(%53) <{fastmath = #arith.fastmath<none>}> : (tensor<?xf16>) -> tensor<?xf16>
      %228 = "arith.shrsi"(%146, %146) : (i64, i64) -> i64
      %229 = "index.sub"(%36, %22) : (index, index) -> index
      %230 = "index.divu"(%45, %145) : (index, index) -> index
      %231 = "index.maxu"(%21, %145) : (index, index) -> index
      %232 = "math.sqrt"(%116) <{fastmath = #arith.fastmath<none>}> : (f16) -> f16
      "scf.yield"(%220) : (index) -> ()
    }, {
      %217 = "memref.atomic_rmw"(%204, %79, %16, %16, %16) <{kind = 2 : i64}> : (i16, memref<?x?x?xi16>, index, index, index) -> i16
      %218 = "math.log1p"(%159) <{fastmath = #arith.fastmath<none>}> : (f16) -> f16
      %219 = "arith.divui"(%117, %7) : (i1, i1) -> i1
      "affine.store"(%87, %arg1, %40, %32) <{map = affine_map<(d0, d1) -> (d0, d1)>}> : (f16, memref<?x29xf16>, index, index) -> ()
      "affine.parallel"() <{lowerBoundsGroups = dense<1> : tensor<2xi32>, lowerBoundsMap = affine_map<() -> (0, 0)>, reductions = [], steps = [1, 1], upperBoundsGroups = dense<1> : tensor<2xi32>, upperBoundsMap = affine_map<() -> (29, 13)>}> ({
      ^bb0(%arg3: index, %arg4: index):
        %230 = "vector.broadcast"(%5) : (f16) -> vector<13x13x13x13xf16>
        %231 = "vector.contract"(%178, %178, %230) <{indexing_maps = [affine_map<(d0, d1, d2, d3, d4) -> (d4, d0, d1)>, affine_map<(d0, d1, d2, d3, d4) -> (d4, d2, d3)>, affine_map<(d0, d1, d2, d3, d4) -> (d0, d1, d2, d3)>], iterator_types = [#vector.iterator_type<parallel>, #vector.iterator_type<parallel>, #vector.iterator_type<parallel>, #vector.iterator_type<parallel>, #vector.iterator_type<reduction>], kind = #vector.kind<minf>}> : (vector<29x13x13xf16>, vector<29x13x13xf16>, vector<13x13x13x13xf16>) -> vector<13x13x13x13xf16>
        "affine.yield"() : () -> ()
      }) : () -> ()
      "memref.copy"(%72, %85) : (memref<29x29xi64>, memref<29x29xi64>) -> ()
      %220 = "arith.mulf"(%1, %6) <{fastmath = #arith.fastmath<none>}> : (f32, f32) -> f32
      %221 = "index.floordivs"(%40, %39) : (index, index) -> index
      %222 = "vector.insertelement"(%206, %155, %221) : (i64, vector<29xi64>, index) -> vector<29xi64>
      %223 = "vector.broadcast"(%24) : (index) -> vector<29xindex>
      "vector.scatter"(%71, %40, %223, %156, %158) : (memref<29xi64>, index, vector<29xindex>, vector<29xi1>, vector<29xi64>) -> ()
      %224 = "vector.transfer_read"(%56, %24, %40, %21, %2) <{operandSegmentSizes = array<i32: 1, 3, 1, 0>, permutation_map = affine_map<(d0, d1, d2) -> ()>}> : (tensor<?x13x13xf16>, index, index, index, f16) -> vector<f16>
      %225 = "memref.alloc"(%41) <{operandSegmentSizes = array<i32: 1, 0>}> : (index) -> memref<?x11xf32>
      "linalg.broadcast"(%62, %225) <{dimensions = array<i64: 1>}> ({
      ^bb0(%arg3: f32, %arg4: f32):
        "linalg.yield"(%arg3) : (f32) -> ()
      }) : (tensor<?xf32>, memref<?x11xf32>) -> ()
      %226 = "arith.divui"(%124, %98) : (i1, i1) -> i1
      %227 = "math.log10"(%137) <{fastmath = #arith.fastmath<none>}> : (f16) -> f16
      %228 = "arith.cmpi"(%7, %98) <{predicate = 1 : i64}> : (i1, i1) -> i1
      %229 = "math.log"(%133) <{fastmath = #arith.fastmath<none>}> : (f16) -> f16
      "scf.yield"(%17) : (index) -> ()
    }, {
      %217 = "arith.mulf"(%11, %104) <{fastmath = #arith.fastmath<none>}> : (f32, f32) -> f32
      %218 = "affine.apply"(%43, %23, %43, %27, %29) <{map = affine_map<(d0, d1, d2, d3)[s0] -> (d3 - d1)>}> : (index, index, index, index, index) -> index
      %219 = "math.absi"(%59) : (tensor<?x13x13xi16>) -> tensor<?x13x13xi16>
      %220 = "arith.constant"() <{value = 26417 : i16}> : () -> i16
      "vector.compressstore"(%77, %19, %83, %161) : (memref<29xi1>, index, vector<11xi1>, vector<11xi1>) -> ()
      %221 = "tensor.cast"(%53) : (tensor<?xf16>) -> tensor<13xf16>
      %222 = "vector.broadcast"(%142) : (f32) -> vector<29x29xf32>
      %223 = "affine.if"(%27, %26, %27) ({
        %235 = "arith.minui"(%153, %98) : (i1, i1) -> i1
        %236 = "affine.apply"(%17, %197) <{map = affine_map<(d0)[s0] -> (0)>}> : (index, index) -> index
        "bufferization.dealloc_tensor"(%56) : (tensor<?x13x13xf16>) -> ()
        %237 = "math.ctlz"(%179) : (i1) -> i1
        %238 = "math.ceil"(%52) <{fastmath = #arith.fastmath<none>}> : (tensor<29x13x13xf16>) -> tensor<29x13x13xf16>
        %239 = "tensor.extract"(%48, %27, %26, %20) : (tensor<29x13x13xi1>, index, index, index) -> i1
        %240 = "arith.minui"(%153, %117) : (i1, i1) -> i1
        %241 = "arith.divf"(%6, %142) <{fastmath = #arith.fastmath<none>}> : (f32, f32) -> f32
        "affine.yield"(%198) : (i64) -> ()
      }, {
        %235 = "math.cttz"(%105) : (tensor<29x13x13xi1>) -> tensor<29x13x13xi1>
        %236 = "math.round"(%61) <{fastmath = #arith.fastmath<none>}> : (tensor<?x29xf16>) -> tensor<?x29xf16>
        %237 = "arith.muli"(%13, %205) : (i16, i16) -> i16
        "bufferization.dealloc_tensor"(%54) : (tensor<?x?x13xf32>) -> ()
        %238 = "vector.extract"(%84) <{static_position = array<i64: 0>}> : (vector<1xi1>) -> i1
        %239 = "affine.min"(%115, %41) <{map = affine_map<(d0, d1) -> ((d0 floordiv 8) floordiv 32)>}> : (index, index) -> index
        %240 = "memref.atomic_rmw"(%146, %74, %16, %16, %16) <{kind = 10 : i64}> : (i64, memref<?x?x?xi64>, index, index, index) -> i64
        %241 = "arith.floordivsi"(%199, %123) : (i16, i16) -> i16
        "affine.yield"(%206) : (i64) -> ()
      }) {condition = affine_set<(d0, d1, d2) : (d2 + d1 == 0, (d2 + d2 + d1) * 4 == 0, -(d1 + 8) >= 0)>} : (index, index, index) -> i64
      %224 = "index.ceildivu"(%29, %18) : (index, index) -> index
      %225 = "tensor.insert"(%150, %59, %16, %20, %20) : (i16, tensor<?x13x13xi16>, index, index, index) -> tensor<?x13x13xi16>
      %226 = "math.ctlz"(%205) : (i16) -> i16
      %227 = "memref.alloc"(%35) <{operandSegmentSizes = array<i32: 1, 0>}> : (index) -> memref<?xi32>
      %228 = "memref.alloc"() <{operandSegmentSizes = array<i32: 0, 0>}> : () -> memref<i32>
      %229 = "tensor.empty"() : () -> tensor<i32>
      %230 = "linalg.generic"(%60, %227, %228, %229, %60) <{indexing_maps = [affine_map<(d0) -> (d0)>, affine_map<(d0) -> (d0)>, affine_map<(d0) -> ()>, affine_map<(d0) -> ()>, affine_map<(d0) -> (d0)>], iterator_types = [#linalg.iterator_type<parallel>], operandSegmentSizes = array<i32: 4, 1>}> ({
      ^bb0(%arg3: i32, %arg4: i32, %arg5: i32, %arg6: i32, %arg7: i32):
        %235 = "math.cos"(%56) <{fastmath = #arith.fastmath<none>}> : (tensor<?x13x13xf16>) -> tensor<?x13x13xf16>
        "linalg.yield"(%3) : (i32) -> ()
      }) : (tensor<?xi32>, memref<?xi32>, memref<i32>, tensor<i32>, tensor<?xi32>) -> tensor<?xi32>
      %231 = "math.log1p"(%54) <{fastmath = #arith.fastmath<none>}> : (tensor<?x?x13xf32>) -> tensor<?x?x13xf32>
      %232 = "vector.broadcast"(%192) : (i1) -> vector<13x13xi1>
      %233 = "arith.negf"(%132) <{fastmath = #arith.fastmath<none>}> : (f32) -> f32
      %234 = "vector.splat"(%32) : (index) -> vector<29x13x13xindex>
      "scf.yield"(%38) : (index) -> ()
    }, {
      %217 = "bufferization.to_memref"(%63) : (tensor<29xf32>) -> memref<29xf32>
      %218 = "index.xor"(%40, %35) : (index, index) -> index
      %219 = "arith.cmpi"(%153, %153) <{predicate = 3 : i64}> : (i1, i1) -> i1
      %220 = "math.atan2"(%137, %87) <{fastmath = #arith.fastmath<none>}> : (f16, f16) -> f16
      "bufferization.dealloc_tensor"(%63) : (tensor<29xf32>) -> ()
      %221 = "math.ctpop"(%192) : (i1) -> i1
      %222 = "arith.mulf"(%82, %173) <{fastmath = #arith.fastmath<none>}> : (f32, f32) -> f32
      "bufferization.dealloc_tensor"(%154) : (tensor<29xi64>) -> ()
      %223 = "math.fma"(%159, %137, %116) <{fastmath = #arith.fastmath<none>}> : (f16, f16, f16) -> f16
      %224 = "bufferization.to_memref"(%113) : (tensor<13x29x13xf32>) -> memref<13x29x13xf32>
      %225 = "memref.realloc"(%71) : (memref<29xi64>) -> memref<27xi64>
      "scf.execute_region"() ({
        %230 = "index.bool.constant"() <{value = true}> : () -> i1
        %231 = "tensor.cast"(%52) : (tensor<29x13x13xf16>) -> tensor<?x?x?xf16>
        %232 = "arith.andi"(%201, %124) : (i1, i1) -> i1
        %233 = "tensor.rank"(%107) : (tensor<?xi32>) -> index
        %234 = "arith.subi"(%201, %192) : (i1, i1) -> i1
        %235 = "affine.apply"(%32) <{map = affine_map<(d0) -> ((-d0) mod 16)>}> : (index) -> index
        "memref.assume_alignment"(%78) <{alignment = 1 : i32}> : (memref<29x13x13xf32>) -> ()
        %236 = "arith.andi"(%7, %98) : (i1, i1) -> i1
        %237 = "math.cttz"(%58) : (tensor<29xi16>) -> tensor<29xi16>
        %238 = "math.tan"(%63) <{fastmath = #arith.fastmath<none>}> : (tensor<29xf32>) -> tensor<29xf32>
        %239 = "tensor.cast"(%49) : (tensor<29x13x13xi1>) -> tensor<?x?x?xi1>
        %240 = "arith.shli"(%138, %4) : (i64, i64) -> i64
        %241 = "vector.broadcast"(%166) : (i1) -> vector<29x13xi1>
        %242:2 = "vector.scan"(%176, %241) <{inclusive = true, kind = #vector.kind<mul>, reduction_dim = 1 : i64}> : (vector<29x13x13xi1>, vector<29x13xi1>) -> (vector<29x13x13xi1>, vector<29x13xi1>)
        %243 = "index.add"(%218, %47) : (index, index) -> index
        %244 = "index.divs"(%38, %33) : (index, index) -> index
        %245 = "math.atan2"(%120, %2) <{fastmath = #arith.fastmath<none>}> : (f16, f16) -> f16
        "scf.yield"() : () -> ()
      }) : () -> ()
      %226 = "tensor.empty"(%30, %35) : (index, index) -> tensor<29x?x?xi16>
      %227 = "vector.splat"(%14) : (f16) -> vector<13x13xf16>
      %228 = "index.bool.constant"() <{value = false}> : () -> i1
      %229 = "bufferization.clone"(%180) : (memref<29xf32>) -> memref<29xf32>
      "scf.yield"(%40) : (index) -> ()
    }, {
      %217 = "arith.minsi"(%179, %179) : (i1, i1) -> i1
      %218 = "tensor.cast"(%59) : (tensor<?x13x13xi16>) -> tensor<11x13x13xi16>
      %219 = "index.add"(%36, %45) : (index, index) -> index
      "memref.alloca_scope"() ({
        %233 = "index.divs"(%35, %27) : (index, index) -> index
        %234 = "memref.alloc"() <{operandSegmentSizes = array<i32: 0, 0>}> : () -> memref<13x29x13xf16>
        "linalg.transpose"(%arg0, %234) <{permutation = array<i64: 2, 0, 1>}> ({
        ^bb0(%arg3: f16, %arg4: f16):
          "linalg.yield"(%arg3) : (f16) -> ()
        }) : (memref<29x13x13xf16>, memref<13x29x13xf16>) -> ()
        %235 = "memref.alloc"(%115) <{operandSegmentSizes = array<i32: 1, 0>}> : (index) -> memref<?x29x11xf16>
        "linalg.broadcast"(%61, %235) <{dimensions = array<i64: 2>}> ({
        ^bb0(%arg3: f16, %arg4: f16):
          "linalg.yield"(%arg3) : (f16) -> ()
        }) : (tensor<?x29xf16>, memref<?x29x11xf16>) -> ()
        "bufferization.dealloc_tensor"(%59) : (tensor<?x13x13xi16>) -> ()
        %236 = "math.sqrt"(%50) <{fastmath = #arith.fastmath<none>}> : (tensor<13x13xf16>) -> tensor<13x13xf16>
        %237 = "math.powf"(%87, %106) <{fastmath = #arith.fastmath<none>}> : (f16, f16) -> f16
        "affine.store"(%6, %78, %39, %34, %45) <{map = affine_map<(d0, d1, d2) -> (d0, d1, d2)>}> : (f32, memref<29x13x13xf32>, index, index, index) -> ()
        %238 = "arith.constant"() <{value = 372012002 : i32}> : () -> i32
        %239 = "affine.vector_load"(%75, %33, %22) <{map = affine_map<(d0, d1) -> (d0, d1)>}> : (memref<13x13xi32>, index, index) -> vector<27xi32>
        %240 = "tensor.empty"() : () -> tensor<841xi32>
        %241 = "tensor.unpack"(%51, %240, %45) <{inner_dims_pos = array<i64: 0>, outer_dims_perm = array<i64: 0>, static_inner_tiles = array<i64: -9223372036854775808>}> : (tensor<29x29xi32>, tensor<841xi32>, index) -> tensor<841xi32>
        %242 = "index.divs"(%81, %43) : (index, index) -> index
        %243 = "vector.splat"(%18) : (index) -> vector<29x29xindex>
        %244 = "bufferization.clone"(%69) : (memref<29x29xi1>) -> memref<29x29xi1>
        %245 = "math.ctlz"(%12) : (i1) -> i1
        %246 = "math.ipowi"(%7, %193) : (i1, i1) -> i1
        %247 = "arith.remf"(%87, %168) <{fastmath = #arith.fastmath<none>}> : (f16, f16) -> f16
        %248 = "index.mul"(%32, %185) : (index, index) -> index
        %249 = "tensor.extract"(%48, %20, %24, %21) : (tensor<29x13x13xi1>, index, index, index) -> i1
        %250 = "math.ipowi"(%3, %10) : (i32, i32) -> i32
        %251 = "arith.constant"() <{value = 0.000000e+00 : f32}> : () -> f32
        %252 = "vector.transfer_read"(%114, %38, %30, %248, %251) <{operandSegmentSizes = array<i32: 1, 3, 1, 0>, permutation_map = affine_map<(d0, d1, d2) -> (d0, 0)>}> : (tensor<13x29x13xf32>, index, index, index, f32) -> vector<13x27xf32>
        %253 = "math.cos"(%50) <{fastmath = #arith.fastmath<none>}> : (tensor<13x13xf16>) -> tensor<13x13xf16>
        %254 = "vector.broadcast"(%104) : (f32) -> vector<13x13xf32>
        %255 = "vector.fma"(%254, %126, %254) : (vector<13x13xf32>, vector<13x13xf32>, vector<13x13xf32>) -> vector<13x13xf32>
        %256 = "math.ctlz"(%107) : (tensor<?xi32>) -> tensor<?xi32>
        %257 = "index.xor"(%18, %16) : (index, index) -> index
        %258 = "memref.atomic_rmw"(%14, %122, %41, %24, %19) <{kind = 0 : i64}> : (f16, memref<29x13x13xf16>, index, index, index) -> f16
        %259 = "memref.alloca"(%90) <{operandSegmentSizes = array<i32: 1, 0>}> : (index) -> memref<?xf16>
        %260 = "arith.addi"(%7, %98) : (i1, i1) -> i1
        %261 = "tensor.dim"(%121, %17) : (tensor<?x13x13xf16>, index) -> index
        %262 = "affine.vector_load"(%65, %38, %81, %144) <{map = affine_map<(d0, d1, d2) -> (d0, d1, d2)>}> : (memref<?x13x13xf32>, index, index, index) -> vector<13xf32>
        %263 = "bufferization.to_memref"(%54) : (tensor<?x?x13xf32>) -> memref<?x?x13xf32>
        %264 = "tensor.dim"(%107, %16) : (tensor<?xi32>, index) -> index
        %265 = "index.floordivs"(%43, %102) : (index, index) -> index
        "memref.alloca_scope.return"() : () -> ()
      }) : () -> ()
      %220 = "math.absf"(%5) <{fastmath = #arith.fastmath<none>}> : (f16) -> f16
      %221 = "index.ceildivs"(%145, %185) : (index, index) -> index
      %222 = "tensor.empty"() : () -> tensor<841xi1>
      %223 = "tensor.unpack"(%55, %222, %45) <{inner_dims_pos = array<i64: 0>, outer_dims_perm = array<i64: 0>, static_inner_tiles = array<i64: -9223372036854775808>}> : (tensor<29x29xi1>, tensor<841xi1>, index) -> tensor<841xi1>
      %224 = "vector.transfer_read"(%85, %185, %35, %146) <{operandSegmentSizes = array<i32: 1, 2, 1, 0>, permutation_map = affine_map<(d0, d1) -> ()>}> : (memref<29x29xi64>, index, index, i64) -> vector<i64>
      %225 = "math.log2"(%88) <{fastmath = #arith.fastmath<none>}> : (tensor<27x13x13xf16>) -> tensor<27x13x13xf16>
      %226 = "math.absi"(%105) : (tensor<29x13x13xi1>) -> tensor<29x13x13xi1>
      %227 = "math.fma"(%116, %87, %116) <{fastmath = #arith.fastmath<none>}> : (f16, f16, f16) -> f16
      %228 = "scf.while"(%54) ({
      ^bb0(%arg3: tensor<?x?x13xf32>):
        %233 = "index.maxu"(%43, %43) : (index, index) -> index
        %234 = "math.round"(%142) <{fastmath = #arith.fastmath<none>}> : (f32) -> f32
        %235 = "vector.bitcast"(%134) : (vector<2xi32>) -> vector<2xi32>
        %236 = "math.copysign"(%86, %86) <{fastmath = #arith.fastmath<none>}> : (f16, f16) -> f16
        %237 = "math.log10"(%86) <{fastmath = #arith.fastmath<none>}> : (f16) -> f16
        %238 = "vector.broadcast"(%11) : (f32) -> vector<13xf32>
        %239 = "vector.broadcast"(%124) : (i1) -> vector<13xi1>
        "vector.compressstore"(%180, %33, %239, %238) : (memref<29xf32>, index, vector<13xi1>, vector<13xf32>) -> ()
        %240 = "index.ceildivu"(%90, %102) : (index, index) -> index
        %241 = "index.xor"(%22, %20) : (index, index) -> index
        %242 = "tensor.empty"(%240, %24) : (index, index) -> tensor<?x?x13xf32>
        "scf.condition"(%201, %242) : (i1, tensor<?x?x13xf32>) -> ()
      }, {
      ^bb0(%arg3: tensor<?x?x13xf32>):
        %233 = "arith.negf"(%120) <{fastmath = #arith.fastmath<none>}> : (f16) -> f16
        %234 = "bufferization.clone"(%72) : (memref<29x29xi64>) -> memref<29x29xi64>
        %235 = "index.xor"(%33, %41) : (index, index) -> index
        %236 = "vector.broadcast"(%192) : (i1) -> vector<11x11xi1>
        %237 = "vector.outerproduct"(%83, %161, %236) <{kind = #vector.kind<or>}> : (vector<11xi1>, vector<11xi1>, vector<11x11xi1>) -> vector<11x11xi1>
        %238 = "affine.apply"(%37, %20, %24, %145, %17) <{map = affine_map<(d0, d1, d2, d3)[s0] -> (d3 - d1)>}> : (index, index, index, index, index) -> index
        %239 = "math.ceil"(%118) <{fastmath = #arith.fastmath<none>}> : (f32) -> f32
        %240 = "bufferization.clone"(%78) : (memref<29x13x13xf32>) -> memref<29x13x13xf32>
        %241 = "index.shrs"(%42, %31) : (index, index) -> index
        %242 = "math.sqrt"(%173) <{fastmath = #arith.fastmath<none>}> : (f32) -> f32
        %243 = "affine.vector_load"(%74, %36, %144, %38) <{map = affine_map<(d0, d1, d2) -> (d0, d1, d2)>}> : (memref<?x?x?xi64>, index, index, index) -> vector<29xi64>
        %244 = "arith.cmpi"(%91, %124) <{predicate = 1 : i64}> : (i1, i1) -> i1
        %245 = "index.xor"(%46, %45) : (index, index) -> index
        %246 = "tensor.empty"() : () -> tensor<29x29xi64>
        %247 = "linalg.matmul"(%72, %72, %246) <{operandSegmentSizes = array<i32: 2, 1>}> ({
        ^bb0(%arg4: i64, %arg5: i64, %arg6: i64):
          %251 = "arith.muli"(%arg4, %arg5) : (i64, i64) -> i64
          %252 = "arith.addi"(%arg6, %251) : (i64, i64) -> i64
          "linalg.yield"(%252) : (i64) -> ()
        }) : (memref<29x29xi64>, memref<29x29xi64>, tensor<29x29xi64>) -> tensor<29x29xi64>
        %248 = "math.tan"(%203) <{fastmath = #arith.fastmath<none>}> : (f16) -> f16
        "memref.copy"(%76, %76) : (memref<?x13xi64>, memref<?x13xi64>) -> ()
        %249 = "bufferization.clone"(%arg0) : (memref<29x13x13xf16>) -> memref<29x13x13xf16>
        %250 = "tensor.empty"(%43, %221) : (index, index) -> tensor<?x?x13xf32>
        "scf.yield"(%250) : (tensor<?x?x13xf32>) -> ()
      }) : (tensor<?x?x13xf32>) -> tensor<?x?x13xf32>
      %229 = "memref.realloc"(%arg2) : (memref<29xi64>) -> memref<11xi64>
      %230 = "memref.atomic_rmw"(%112, %73, %16, %25) <{kind = 8 : i64}> : (i16, memref<?x13xi16>, index, index) -> i16
      %231 = "memref.realloc"(%71) : (memref<29xi64>) -> memref<29xi64>
      %232 = "index.add"(%44, %21) : (index, index) -> index
      "scf.yield"(%18) : (index) -> ()
    }) : (index) -> index
    %214 = "arith.divui"(%179, %193) : (i1, i1) -> i1
    %215 = "tensor.cast"(%52) : (tensor<29x13x13xf16>) -> tensor<?x?x?xf16>
    "bufferization.dealloc_tensor"(%60) : (tensor<?xi32>) -> ()
    %216 = "spirv.GL.Pow"(%209, %118) : (f32, f32) -> f32
    "vector.print"(%83) <{punctuation = #vector.punctuation<newline>}> : (vector<11xi1>) -> ()
    "vector.print"(%84) <{punctuation = #vector.punctuation<newline>}> : (vector<1xi1>) -> ()
    "vector.print"(%95) <{punctuation = #vector.punctuation<newline>}> : (vector<11xi16>) -> ()
    "vector.print"(%96) <{punctuation = #vector.punctuation<newline>}> : (vector<11xi16>) -> ()
    "vector.print"(%126) <{punctuation = #vector.punctuation<newline>}> : (vector<13x13xf32>) -> ()
    "vector.print"(%127) <{punctuation = #vector.punctuation<newline>}> : (vector<13x13xf32>) -> ()
    "vector.print"(%134) <{punctuation = #vector.punctuation<newline>}> : (vector<2xi32>) -> ()
    "vector.print"(%155) <{punctuation = #vector.punctuation<newline>}> : (vector<29xi64>) -> ()
    "vector.print"(%156) <{punctuation = #vector.punctuation<newline>}> : (vector<29xi1>) -> ()
    "vector.print"(%157) <{punctuation = #vector.punctuation<newline>}> : (vector<29xi32>) -> ()
    "vector.print"(%158) <{punctuation = #vector.punctuation<newline>}> : (vector<29xi64>) -> ()
    "vector.print"(%161) <{punctuation = #vector.punctuation<newline>}> : (vector<11xi1>) -> ()
    "vector.print"(%175) <{punctuation = #vector.punctuation<newline>}> : (vector<29x13x13xf16>) -> ()
    "vector.print"(%176) <{punctuation = #vector.punctuation<newline>}> : (vector<29x13x13xi1>) -> ()
    "vector.print"(%177) <{punctuation = #vector.punctuation<newline>}> : (vector<29x13x13xi32>) -> ()
    "vector.print"(%178) <{punctuation = #vector.punctuation<newline>}> : (vector<29x13x13xf16>) -> ()
    "vector.print"(%183) <{punctuation = #vector.punctuation<newline>}> : (vector<29x13x13xi1>) -> ()
    "vector.print"(%0) <{punctuation = #vector.punctuation<newline>}> : (i64) -> ()
    "vector.print"(%1) <{punctuation = #vector.punctuation<newline>}> : (f32) -> ()
    "vector.print"(%2) <{punctuation = #vector.punctuation<newline>}> : (f16) -> ()
    "vector.print"(%3) <{punctuation = #vector.punctuation<newline>}> : (i32) -> ()
    "vector.print"(%4) <{punctuation = #vector.punctuation<newline>}> : (i64) -> ()
    "vector.print"(%5) <{punctuation = #vector.punctuation<newline>}> : (f16) -> ()
    "vector.print"(%6) <{punctuation = #vector.punctuation<newline>}> : (f32) -> ()
    "vector.print"(%7) <{punctuation = #vector.punctuation<newline>}> : (i1) -> ()
    "vector.print"(%8) <{punctuation = #vector.punctuation<newline>}> : (i1) -> ()
    "vector.print"(%9) <{punctuation = #vector.punctuation<newline>}> : (i1) -> ()
    "vector.print"(%10) <{punctuation = #vector.punctuation<newline>}> : (i32) -> ()
    "vector.print"(%11) <{punctuation = #vector.punctuation<newline>}> : (f32) -> ()
    "vector.print"(%12) <{punctuation = #vector.punctuation<newline>}> : (i1) -> ()
    "vector.print"(%13) <{punctuation = #vector.punctuation<newline>}> : (i16) -> ()
    "vector.print"(%14) <{punctuation = #vector.punctuation<newline>}> : (f16) -> ()
    "vector.print"(%15) <{punctuation = #vector.punctuation<newline>}> : (i1) -> ()
    "vector.print"(%82) <{punctuation = #vector.punctuation<newline>}> : (f32) -> ()
    "vector.print"(%86) <{punctuation = #vector.punctuation<newline>}> : (f16) -> ()
    "vector.print"(%87) <{punctuation = #vector.punctuation<newline>}> : (f16) -> ()
    "vector.print"(%91) <{punctuation = #vector.punctuation<newline>}> : (i1) -> ()
    "vector.print"(%94) <{punctuation = #vector.punctuation<newline>}> : (i16) -> ()
    "vector.print"(%98) <{punctuation = #vector.punctuation<newline>}> : (i1) -> ()
    "vector.print"(%99) <{punctuation = #vector.punctuation<newline>}> : (f16) -> ()
    "vector.print"(%101) <{punctuation = #vector.punctuation<newline>}> : (i32) -> ()
    "vector.print"(%104) <{punctuation = #vector.punctuation<newline>}> : (f32) -> ()
    "vector.print"(%106) <{punctuation = #vector.punctuation<newline>}> : (f16) -> ()
    "vector.print"(%112) <{punctuation = #vector.punctuation<newline>}> : (i16) -> ()
    "vector.print"(%116) <{punctuation = #vector.punctuation<newline>}> : (f16) -> ()
    "vector.print"(%117) <{punctuation = #vector.punctuation<newline>}> : (i1) -> ()
    "vector.print"(%118) <{punctuation = #vector.punctuation<newline>}> : (f32) -> ()
    "vector.print"(%119) <{punctuation = #vector.punctuation<newline>}> : (i1) -> ()
    "vector.print"(%120) <{punctuation = #vector.punctuation<newline>}> : (f16) -> ()
    "vector.print"(%123) <{punctuation = #vector.punctuation<newline>}> : (i16) -> ()
    "vector.print"(%124) <{punctuation = #vector.punctuation<newline>}> : (i1) -> ()
    "vector.print"(%132) <{punctuation = #vector.punctuation<newline>}> : (f32) -> ()
    "vector.print"(%133) <{punctuation = #vector.punctuation<newline>}> : (f16) -> ()
    "vector.print"(%137) <{punctuation = #vector.punctuation<newline>}> : (f16) -> ()
    "vector.print"(%138) <{punctuation = #vector.punctuation<newline>}> : (i64) -> ()
    "vector.print"(%142) <{punctuation = #vector.punctuation<newline>}> : (f32) -> ()
    "vector.print"(%146) <{punctuation = #vector.punctuation<newline>}> : (i64) -> ()
    "vector.print"(%150) <{punctuation = #vector.punctuation<newline>}> : (i16) -> ()
    "vector.print"(%153) <{punctuation = #vector.punctuation<newline>}> : (i1) -> ()
    "vector.print"(%159) <{punctuation = #vector.punctuation<newline>}> : (f16) -> ()
    "vector.print"(%160) <{punctuation = #vector.punctuation<newline>}> : (f16) -> ()
    "vector.print"(%166) <{punctuation = #vector.punctuation<newline>}> : (i1) -> ()
    "vector.print"(%168) <{punctuation = #vector.punctuation<newline>}> : (f16) -> ()
    "vector.print"(%171) <{punctuation = #vector.punctuation<newline>}> : (i16) -> ()
    "vector.print"(%173) <{punctuation = #vector.punctuation<newline>}> : (f32) -> ()
    "vector.print"(%179) <{punctuation = #vector.punctuation<newline>}> : (i1) -> ()
    "vector.print"(%188) <{punctuation = #vector.punctuation<newline>}> : (f32) -> ()
    "vector.print"(%191) <{punctuation = #vector.punctuation<newline>}> : (i1) -> ()
    "vector.print"(%192) <{punctuation = #vector.punctuation<newline>}> : (i1) -> ()
    "vector.print"(%193) <{punctuation = #vector.punctuation<newline>}> : (i1) -> ()
    "vector.print"(%198) <{punctuation = #vector.punctuation<newline>}> : (i64) -> ()
    "vector.print"(%199) <{punctuation = #vector.punctuation<newline>}> : (i16) -> ()
    "vector.print"(%201) <{punctuation = #vector.punctuation<newline>}> : (i1) -> ()
    "vector.print"(%203) <{punctuation = #vector.punctuation<newline>}> : (f16) -> ()
    "vector.print"(%204) <{punctuation = #vector.punctuation<newline>}> : (i16) -> ()
    "vector.print"(%205) <{punctuation = #vector.punctuation<newline>}> : (i16) -> ()
    "vector.print"(%206) <{punctuation = #vector.punctuation<newline>}> : (i64) -> ()
    "vector.print"(%209) <{punctuation = #vector.punctuation<newline>}> : (f32) -> ()
    "vector.print"(%210) <{punctuation = #vector.punctuation<newline>}> : (i1) -> ()
    "vector.print"(%212) <{punctuation = #vector.punctuation<newline>}> : (f16) -> ()
    "vector.print"(%216) <{punctuation = #vector.punctuation<newline>}> : (f32) -> ()
    "func.return"(%arg0) : (memref<29x13x13xf16>) -> ()
  }) : () -> ()
}) : () -> ()
