module {
  func.func @func1(%arg0: i64) {
    %c329904959_i64 = arith.constant 329904959 : i64
    %true = arith.constant true
    %c527088365_i32 = arith.constant 527088365 : i32
    %c238821326_i64 = arith.constant 238821326 : i64
    %cst = arith.constant 0x4C8EC744 : f32
    %cst_0 = arith.constant 2.01879514E+9 : f32
    %c453217699_i64 = arith.constant 453217699 : i64
    %c383367506_i32 = arith.constant 383367506 : i32
    %c-21738_i16 = arith.constant -21738 : i16
    %false = arith.constant false
    %c1321462035_i32 = arith.constant 1321462035 : i32
    %c1511750638_i32 = arith.constant 1511750638 : i32
    %cst_1 = arith.constant 6.380800e+04 : f16
    %c-5165_i16 = arith.constant -5165 : i16
    %c10976_i16 = arith.constant 10976 : i16
    %c990472205_i64 = arith.constant 990472205 : i64
    %c0 = arith.constant 0 : index
    %c1 = arith.constant 1 : index
    %c2 = arith.constant 2 : index
    %c3 = arith.constant 3 : index
    %c4 = arith.constant 4 : index
    %c5 = arith.constant 5 : index
    %c6 = arith.constant 6 : index
    %c7 = arith.constant 7 : index
    %c8 = arith.constant 8 : index
    %c9 = arith.constant 9 : index
    %c10 = arith.constant 10 : index
    %c11 = arith.constant 11 : index
    %c12 = arith.constant 12 : index
    %c13 = arith.constant 13 : index
    %c14 = arith.constant 14 : index
    %c15 = arith.constant 15 : index
    %c16 = arith.constant 16 : index
    %c17 = arith.constant 17 : index
    %c18 = arith.constant 18 : index
    %c19 = arith.constant 19 : index
    %c20 = arith.constant 20 : index
    %c21 = arith.constant 21 : index
    %c22 = arith.constant 22 : index
    %c23 = arith.constant 23 : index
    %c24 = arith.constant 24 : index
    %c25 = arith.constant 25 : index
    %c26 = arith.constant 26 : index
    %c27 = arith.constant 27 : index
    %c28 = arith.constant 28 : index
    %c29 = arith.constant 29 : index
    %c30 = arith.constant 30 : index
    %c31 = arith.constant 31 : index
    %0 = tensor.empty() : tensor<16x17xi32>
    %1 = tensor.empty() : tensor<16x17xf32>
    %2 = tensor.empty() : tensor<10x16xi32>
    %3 = tensor.empty(%c0) : tensor<?x16xf16>
    %4 = tensor.empty(%c8) : tensor<?xf16>
    %5 = tensor.empty(%c9) : tensor<?x16x17xi16>
    %6 = tensor.empty(%c27) : tensor<?x17xi64>
    %7 = tensor.empty(%c5) : tensor<?x17xf16>
    %8 = tensor.empty() : tensor<17xi32>
    %9 = tensor.empty(%c31) : tensor<?x16xi32>
    %10 = tensor.empty() : tensor<16x17xi64>
    %11 = tensor.empty() : tensor<17xf16>
    %12 = tensor.empty() : tensor<17x16x17xi16>
    %13 = tensor.empty(%c9) : tensor<?xf16>
    %14 = tensor.empty() : tensor<16x17xf16>
    %15 = tensor.empty() : tensor<10x16xi16>
    %alloc = memref.alloc(%c20) : memref<?x16xf32>
    %alloc_2 = memref.alloc(%c4) : memref<?xf32>
    %alloc_3 = memref.alloc() : memref<17xi16>
    %alloc_4 = memref.alloc() : memref<17x16x17xi32>
    %alloc_5 = memref.alloc() : memref<16x17xi1>
    %alloc_6 = memref.alloc(%c2, %c23) : memref<?x?x17xf16>
    %alloc_7 = memref.alloc() : memref<10x16xi1>
    %alloc_8 = memref.alloc(%c13, %c31) : memref<?x?x17xi32>
    %alloc_9 = memref.alloc() : memref<17x16x17xi32>
    %alloc_10 = memref.alloc() : memref<16x17xf16>
    %alloc_11 = memref.alloc() : memref<17x16x17xf16>
    %alloc_12 = memref.alloc(%c1) : memref<?x16xf32>
    %alloc_13 = memref.alloc(%c8) : memref<?x17xf16>
    %alloc_14 = memref.alloc() : memref<17x16x17xi1>
    %alloc_15 = memref.alloc() : memref<17x16x17xi32>
    %alloc_16 = memref.alloc(%c26, %c2) : memref<?x?xf16>
    scf.index_switch %c29 
    case 1 {
      %129 = arith.ori %false, %true : i1
      %130 = affine.apply affine_map<(d0, d1, d2, d3)[s0] -> ((d3 - 1) mod 16 + 2)>(%c15, %c14, %c22, %c0)[%c1]
      %131 = bufferization.clone %alloc_3 : memref<17xi16> to memref<17xi16>
      %132 = affine.apply affine_map<(d0) -> ((-d0) mod 16)>(%c28)
      %133 = vector.broadcast %true : i1 to vector<17xi1>
      %134 = vector.transpose %133, [0] : vector<17xi1> to vector<17xi1>
      %inserted_20 = tensor.insert %cst_0 into %1[%c10, %c0] : tensor<16x17xf32>
      %c0_i16 = arith.constant 0 : i16
      %135 = vector.transfer_read %12[%c20, %c23, %c30], %c0_i16 : tensor<17x16x17xi16>, vector<i16>
      %136 = math.log2 %1 : tensor<16x17xf32>
      %137 = affine.vector_load %alloc_4[%c0, %c3, %c27] : memref<17x16x17xi32>, vector<11xi32>
      %alloc_21 = memref.alloc(%c14, %c29) : memref<?x?xf16>
      %138 = math.ctpop %15 : tensor<10x16xi16>
      vector.compressstore %alloc_14[%c12, %c11, %c5], %133, %133 : memref<17x16x17xi1>, vector<17xi1>, vector<17xi1>
      %139 = scf.index_switch %c9 -> memref<?xf16> 
      case 1 {
        %143 = index.mul %c16, %c3
        %144 = arith.negf %cst_1 : f16
        %145 = arith.addi %c383367506_i32, %c527088365_i32 : i32
        %146 = index.and %c14, %c0
        %147 = arith.ori %arg0, %c990472205_i64 : i64
        %148 = index.mul %c1, %c5
        %149 = tensor.empty() : tensor<10x16xf16>
        %150 = vector.transpose %137, [0] : vector<11xi32> to vector<11xi32>
        %151 = arith.remf %cst_0, %cst_0 : f32
        %152 = index.maxs %c8, %c12
        %153 = index.sub %c4, %c8
        %154 = math.tanh %1 : tensor<16x17xf32>
        %155 = index.and %c27, %146
        %c1949579880_i64 = arith.constant 1949579880 : i64
        %156 = arith.ceildivsi %c1321462035_i32, %c1511750638_i32 : i32
        %157 = index.divu %c8, %155
        %alloc_22 = memref.alloc(%c4) : memref<?xf16>
        scf.yield %alloc_22 : memref<?xf16>
      }
      case 2 {
        %143 = bufferization.clone %alloc_10 : memref<16x17xf16> to memref<16x17xf16>
        %splat = tensor.splat %c1511750638_i32 : tensor<10x16xi32>
        %144 = arith.minui %arg0, %c453217699_i64 : i64
        %145 = index.sizeof
        %146 = vector.broadcast %c-5165_i16 : i16 to vector<16x17xi16>
        %147 = arith.shli %c527088365_i32, %c527088365_i32 : i32
        %148 = index.sizeof
        %149 = math.cttz %0 : tensor<16x17xi32>
        %150 = vector.contract {indexing_maps = [affine_map<(d0) -> (d0)>, affine_map<(d0) -> (d0)>, affine_map<(d0) -> ()>], iterator_types = ["reduction"], kind = #vector.kind<maxsi>} %137, %137, %c1321462035_i32 : vector<11xi32>, vector<11xi32> into i32
        %151 = arith.shli %c527088365_i32, %c1511750638_i32 : i32
        %152 = tensor.empty(%c17) : tensor<?x16x10xi32>
        %broadcasted = linalg.broadcast ins(%9 : tensor<?x16xi32>) outs(%152 : tensor<?x16x10xi32>) dimensions = [2] 
        %153 = arith.minsi %c329904959_i64, %c990472205_i64 : i64
        %154 = arith.minsi %c-21738_i16, %c10976_i16 : i16
        %155 = math.ceil %14 : tensor<16x17xf16>
        %156 = math.log1p %1 : tensor<16x17xf32>
        %157 = arith.xori %c383367506_i32, %c1511750638_i32 : i32
        %alloc_22 = memref.alloc(%148) : memref<?xf16>
        scf.yield %alloc_22 : memref<?xf16>
      }
      default {
        %143 = vector.insert %false, %133 [11] : i1 into vector<17xi1>
        %splat = tensor.splat %c1321462035_i32 : tensor<17x16x17xi32>
        %144 = index.mul %c11, %c1
        %145 = vector.reduction <mul>, %137 : vector<11xi32> into i32
        %146 = vector.broadcast %cst : f32 to vector<17x16x17xf32>
        %147 = vector.fma %146, %146, %146 : vector<17x16x17xf32>
        %cst_22 = arith.constant 1.468800e+04 : f16
        %148 = arith.muli %true, %true : i1
        vector.print %133 : vector<17xi1>
        %cst_23 = arith.constant 3.824000e+04 : f16
        %extracted_24 = tensor.extract %8[%c12] : tensor<17xi32>
        %cast = tensor.cast %4 : tensor<?xf16> to tensor<16xf16>
        %149 = index.casts %c527088365_i32 : i32 to index
        %150 = vector.matrix_multiply %133, %133 {lhs_columns = 17 : i32, lhs_rows = 1 : i32, rhs_columns = 1 : i32} : (vector<17xi1>, vector<17xi1>) -> vector<1xi1>
        affine.vector_store %133, %alloc_7[%132, %c13] : memref<10x16xi1>, vector<17xi1>
        %splat_25 = tensor.splat %c990472205_i64 : tensor<17xi64>
        %151 = arith.remf %cst_0, %cst : f32
        %alloc_26 = memref.alloc(%c24) : memref<?xf16>
        scf.yield %alloc_26 : memref<?xf16>
      }
      %140 = math.cos %cst : f32
      %141 = vector.multi_reduction <mul>, %137, %137 [] : vector<11xi32> to vector<11xi32>
      %142 = math.exp %3 : tensor<?x16xf16>
      scf.yield
    }
    case 2 {
      %alloc_20 = memref.alloc() : memref<17x16x17xi64>
      %129 = vector.broadcast %c527088365_i32 : i32 to vector<16x17xi32>
      %130 = vector.transpose %129, [0, 1] : vector<16x17xi32> to vector<16x17xi32>
      %131 = vector.broadcast %cst_1 : f16 to vector<16xf16>
      affine.vector_store %131, %alloc_16[%c22, %c2] : memref<?x?xf16>, vector<16xf16>
      scf.execute_region {
        %136 = math.atan %cst : f32
        %137 = vector.transfer_read %9[%c30, %c13], %c383367506_i32 : tensor<?x16xi32>, vector<i32>
        %rank = tensor.rank %15 : tensor<10x16xi16>
        %138 = arith.minsi %arg0, %c238821326_i64 : i64
        %139 = arith.addf %cst_1, %cst_1 : f16
        %alloc_25 = memref.alloc() : memref<17x16x17xi32>
        %140 = arith.addf %cst_0, %cst : f32
        %141 = math.exp %cst : f32
        %142 = math.ceil %cst_1 : f16
        %143 = arith.minui %c1321462035_i32, %c383367506_i32 : i32
        %144 = index.shrs %c16, %c15
        %collapsed = tensor.collapse_shape %2 [[0, 1]] : tensor<10x16xi32> into tensor<160xi32>
        memref.store %cst_1, %alloc_16[%c0, %c0] : memref<?x?xf16>
        %145 = arith.minui %c329904959_i64, %c453217699_i64 : i64
        %146 = index.sub %rank, %c17
        %147 = tensor.empty() : tensor<i32>
        %148 = linalg.dot ins(%collapsed, %collapsed : tensor<160xi32>, tensor<160xi32>) outs(%147 : tensor<i32>) -> tensor<i32>
        scf.yield
      }
      %132 = math.rsqrt %14 : tensor<16x17xf16>
      %alloca = memref.alloca(%c14, %c14) : memref<?x?xi32>
      %133 = vector.matrix_multiply %131, %131 {lhs_columns = 16 : i32, lhs_rows = 1 : i32, rhs_columns = 1 : i32} : (vector<16xf16>, vector<16xf16>) -> vector<1xf16>
      %alloca_21 = memref.alloca() : memref<16x17xi64>
      %inserted_22 = tensor.insert %c527088365_i32 into %8[%c10] : tensor<17xi32>
      %generated = tensor.generate %c3 {
      ^bb0(%arg1: index):
        %136 = math.cos %11 : tensor<17xf16>
        %137 = arith.remf %cst_0, %cst_0 : f32
        %138 = arith.ori %c527088365_i32, %c1511750638_i32 : i32
        %139 = arith.xori %c238821326_i64, %arg0 : i64
        tensor.yield %c329904959_i64 : i64
      } : tensor<?xi64>
      %134 = arith.remf %cst_1, %cst_1 : f16
      %generated_23 = tensor.generate %c15 {
      ^bb0(%arg1: index, %arg2: index):
        %136 = vector.transfer_read %generated[%c14], %c238821326_i64 : tensor<?xi64>, vector<i64>
        %137 = math.ipowi %15, %15 : tensor<10x16xi16>
        %138 = arith.minui %c-21738_i16, %c-21738_i16 : i16
        %139 = vector.insertelement %cst_1, %131[%c31 : index] : vector<16xf16>
        tensor.yield %cst : f32
      } : tensor<?x16xf32>
      affine.store %cst_1, %alloc_13[%c2, %c19] : memref<?x17xf16>
      memref.alloca_scope  {
        affine.store %cst_0, %alloc_2[%c21] : memref<?xf32>
        %136 = math.roundeven %14 : tensor<16x17xf16>
        %137 = math.log10 %7 : tensor<?x17xf16>
        memref.copy %alloc_9, %alloc_4 : memref<17x16x17xi32> to memref<17x16x17xi32>
        %inserted_25 = tensor.insert %c10976_i16 into %15[%c9, %c7] : tensor<10x16xi16>
        %false_26 = index.bool.constant false
        %138 = index.divs %c8, %c3
        %splat = tensor.splat %c329904959_i64 : tensor<10x16xi64>
        affine.vector_store %131, %alloc_6[%c22, %c14, %c28] : memref<?x?x17xf16>, vector<16xf16>
        vector.print %131 : vector<16xf16>
        %alloca_27 = memref.alloca() : memref<16x17xi1>
        %expanded = tensor.expand_shape %10 [[0], [1, 2]] : tensor<16x17xi64> into tensor<16x17x1xi64>
        %139 = vector.insert %cst_1, %131 [1] : f16 into vector<16xf16>
        %140 = index.shrs %c6, %c7
        %141 = vector.broadcast %c-5165_i16 : i16 to vector<i16>
        %142 = vector.transfer_write %141, %12[%c17, %c29, %c1] : vector<i16>, tensor<17x16x17xi16>
        %143 = index.maxu %c30, %c6
        %alloc_28 = memref.alloc(%c18) : memref<?xf16>
        memref.tensor_store %13, %alloc_28 : memref<?xf16>
        %144 = tensor.empty() : tensor<16x17x16xi1>
        %broadcasted = linalg.broadcast ins(%alloc_5 : memref<16x17xi1>) outs(%144 : tensor<16x17x16xi1>) dimensions = [2] 
        %alloc_29 = memref.alloc() : memref<10x16xi32>
        memref.tensor_store %2, %alloc_29 : memref<10x16xi32>
        %145 = affine.vector_load %alloc_7[%c5, %c4] : memref<10x16xi1>, vector<11xi1>
        %146 = math.exp %14 : tensor<16x17xf16>
        %147 = math.log2 %14 : tensor<16x17xf16>
        %148 = index.xor %c22, %c6
        %149 = math.ctpop %2 : tensor<10x16xi32>
        %150 = arith.xori %false_26, %false_26 : i1
        %cst_30 = arith.constant 0.000000e+00 : f16
        %151 = vector.transfer_read %alloc_10[%c27, %c0], %cst_30 : memref<16x17xf16>, vector<f16>
        %152 = arith.ori %c527088365_i32, %c1321462035_i32 : i32
        %153 = index.casts %c15 : index to i32
        %154 = math.fpowi %cst, %c527088365_i32 : f32, i32
        %alloca_31 = memref.alloca(%c29, %143) : memref<?x?xi32>
        %155 = vector.insertelement %cst_1, %133[%c11 : index] : vector<1xf16>
        %c1387038074_i64 = arith.constant 1387038074 : i64
      }
      %135 = arith.divui %c238821326_i64, %c238821326_i64 : i64
      %alloca_24 = memref.alloca(%c12, %c11, %c15) : memref<?x?x?xi64>
      scf.yield
    }
    case 3 {
      %cst_20 = arith.constant 0.000000e+00 : f32
      %129 = vector.transfer_read %alloc[%c7, %c15], %cst_20 : memref<?x16xf32>, vector<f32>
      %130 = math.ctpop %arg0 : i64
      %131 = index.castu %c22 : index to i32
      %132 = arith.divui %arg0, %c238821326_i64 : i64
      %133 = arith.cmpf une, %cst, %cst : f32
      %134 = vector.broadcast %cst_1 : f16 to vector<1xf16>
      %135 = vector.broadcast %cst_1 : f16 to vector<1xf16>
      %136 = vector.contract {indexing_maps = [affine_map<(d0) -> (d0)>, affine_map<(d0) -> (d0)>, affine_map<(d0) -> ()>], iterator_types = ["reduction"], kind = #vector.kind<minf>} %134, %135, %cst_1 : vector<1xf16>, vector<1xf16> into f16
      %137 = index.shl %c20, %c26
      %138 = bufferization.clone %alloc_5 : memref<16x17xi1> to memref<16x17xi1>
      %139 = math.sqrt %1 : tensor<16x17xf32>
      %alloc_21 = memref.alloc(%c13, %c12) : memref<17x?x?xi32>
      linalg.transpose ins(%alloc_8 : memref<?x?x17xi32>) outs(%alloc_21 : memref<17x?x?xi32>) permutation = [2, 0, 1] 
      %140 = index.shru %c9, %c0
      %141 = vector.splat %false : vector<17xi1>
      %142 = arith.addi %c527088365_i32, %c527088365_i32 : i32
      %143 = vector.insertelement %cst_1, %134[%c10 : index] : vector<1xf16>
      %false_22 = index.bool.constant false
      %144 = tensor.empty() : tensor<i32>
      %145 = linalg.dot ins(%8, %8 : tensor<17xi32>, tensor<17xi32>) outs(%144 : tensor<i32>) -> tensor<i32>
      scf.yield
    }
    default {
      memref.copy %alloc_13, %alloc_13 : memref<?x17xf16> to memref<?x17xf16>
      affine.parallel (%arg1) = (0) to (16) {
        %148 = math.cos %3 : tensor<?x16xf16>
      }
      %129 = math.tanh %3 : tensor<?x16xf16>
      %130 = vector.broadcast %cst : f32 to vector<f32>
      %131 = vector.insertelement %cst, %130[] : vector<f32>
      %132 = arith.negf %cst : f32
      %133 = math.log2 %11 : tensor<17xf16>
      %134 = arith.shrsi %c-5165_i16, %c-5165_i16 : i16
      %135 = vector.broadcast %c10976_i16 : i16 to vector<1xi16>
      %136 = vector.broadcast %c-5165_i16 : i16 to vector<1xi16>
      %137 = vector.contract {indexing_maps = [affine_map<(d0) -> (d0)>, affine_map<(d0) -> (d0)>, affine_map<(d0) -> ()>], iterator_types = ["reduction"], kind = #vector.kind<add>} %135, %136, %c10976_i16 : vector<1xi16>, vector<1xi16> into i16
      %138 = arith.muli %arg0, %c329904959_i64 : i64
      %139 = index.mul %c29, %c10
      %140 = arith.addf %cst_1, %cst_1 : f16
      scf.execute_region {
        %148 = arith.shrsi %c990472205_i64, %arg0 : i64
        %149 = math.log10 %7 : tensor<?x17xf16>
        %150 = vector.insertelement %c-21738_i16, %135[%c8 : index] : vector<1xi16>
        affine.vector_store %135, %alloc_3[%c22] : memref<17xi16>, vector<1xi16>
        %c-11714_i16 = arith.constant -11714 : i16
        %151 = vector.transfer_read %6[%c0, %c9], %arg0 : tensor<?x17xi64>, vector<11xi64>
        %inserted_20 = tensor.insert %cst_1 into %3[%c0, %c8] : tensor<?x16xf16>
        %152 = math.log2 %11 : tensor<17xf16>
        %153 = vector.splat %c238821326_i64 : vector<16x17xi64>
        %154 = vector.broadcast %c-5165_i16 : i16 to vector<17x16x17xi16>
        %155 = vector.broadcast %c-21738_i16 : i16 to vector<16x17xi16>
        %156 = vector.multi_reduction <maxui>, %154, %155 [0] : vector<17x16x17xi16> to vector<16x17xi16>
        %157 = affine.min affine_map<(d0, d1) -> (d0)>(%c12, %c24)
        %158 = index.castu %c527088365_i32 : i32 to index
        %splat = tensor.splat %c527088365_i32 : tensor<16x17xi32>
        %159 = math.exp2 %4 : tensor<?xf16>
        affine.store %cst, %alloc_12[%c3, %c23] : memref<?x16xf32>
        scf.yield
      }
      %141 = tensor.empty(%c15) : tensor<?x17xi64>
      %mapped = linalg.map ins(%6, %6 : tensor<?x17xi64>, tensor<?x17xi64>) outs(%141 : tensor<?x17xi64>)
        (%in: i64, %in_20: i64) {
          %148 = math.log10 %7 : tensor<?x17xf16>
          %149 = math.ctpop %15 : tensor<10x16xi16>
          %150 = affine.max affine_map<(d0, d1)[s0] -> ((d0 ceildiv 4) floordiv 64)>(%c16, %c12)[%c12]
          %151 = math.log1p %11 : tensor<17xf16>
          %152 = index.ceildivs %c29, %c18
          %153 = arith.shrui %c990472205_i64, %c238821326_i64 : i64
          %154 = vector.bitcast %135 : vector<1xi16> to vector<1xi16>
          %true_21 = index.bool.constant true
          %155 = arith.minsi %c990472205_i64, %c238821326_i64 : i64
          %156 = arith.divui %c329904959_i64, %c329904959_i64 : i64
          %157 = affine.max affine_map<(d0) -> ((-d0) mod 16)>(%c28)
          %158 = affine.vector_load %alloc_15[%c16, %c27, %c4] : memref<17x16x17xi32>, vector<17xi32>
          %159 = arith.remf %cst_1, %cst_1 : f16
          %160 = arith.cmpf ole, %cst_0, %cst : f32
          %161 = vector.broadcast %c-5165_i16 : i16 to vector<10x16xi16>
          %162 = affine.vector_load %alloc_9[%c8, %c7, %c7] : memref<17x16x17xi32>, vector<11xi32>
          %163 = arith.shli %c1321462035_i32, %c527088365_i32 : i32
          %164 = vector.broadcast %cst : f32 to vector<17xf32>
          %165 = vector.fma %164, %164, %164 : vector<17xf32>
          %166 = index.mul %139, %c13
          %167 = vector.transfer_read %alloc_15[%c6, %c15, %c24], %c527088365_i32 : memref<17x16x17xi32>, vector<16xi32>
          %168 = affine.min affine_map<(d0) -> ((((d0 - 4) ceildiv 16 + (d0 - 4) floordiv 64) mod 2) ceildiv 16)>(%c23)
          %169 = math.fpowi %cst_1, %c1511750638_i32 : f16, i32
          %170 = tensor.empty() : tensor<10x16xi16>
          %171 = math.log10 %13 : tensor<?xf16>
          %172 = index.or %c23, %c6
          %173 = vector.load %alloc_4[%c2, %c5, %c12] : memref<17x16x17xi32>, vector<17xi32>
          %174 = vector.load %alloc_15[%c13, %c12, %c11] : memref<17x16x17xi32>, vector<10x16xi32>
          %175 = index.divu %c18, %c27
          %176 = index.xor %c19, %c22
          %177 = index.shru %c31, %172
          memref.copy %alloc_16, %alloc_16 : memref<?x?xf16> to memref<?x?xf16>
          %178 = vector.broadcast %c383367506_i32 : i32 to vector<i32>
          %179 = vector.transfer_write %178, %8[%c29] : vector<i32>, tensor<17xi32>
          linalg.yield %arg0 : i64
        }
      %142 = arith.ori %c990472205_i64, %c329904959_i64 : i64
      %143 = tensor.empty() : tensor<10x11xf16>
      %144 = tensor.empty() : tensor<f16>
      %145 = tensor.empty() : tensor<10xf16>
      %146 = linalg.generic {indexing_maps = [affine_map<(d0, d1) -> (d0, d1)>, affine_map<(d0, d1) -> ()>, affine_map<(d0, d1) -> ()>, affine_map<(d0, d1) -> ()>, affine_map<(d0, d1) -> (d0)>], iterator_types = ["parallel", "reduction"]} ins(%143, %144, %144, %144 : tensor<10x11xf16>, tensor<f16>, tensor<f16>, tensor<f16>) outs(%145 : tensor<10xf16>) {
      ^bb0(%in: f16, %in_20: f16, %in_21: f16, %in_22: f16, %out: f16):
        %148 = vector.insert %c10976_i16, %135 [0] : i16 into vector<1xi16>
        linalg.yield %in_22 : f16
      } -> tensor<10xf16>
      %147 = vector.bitcast %135 : vector<1xi16> to vector<1xi16>
    }
    %16 = spirv.CL.s_abs %c990472205_i64 : i64
    %17 = vector.broadcast %c383367506_i32 : i32 to vector<11xi32>
    affine.vector_store %17, %alloc_8[%c2, %c0, %c2] : memref<?x?x17xi32>, vector<11xi32>
    %18 = arith.remui %c1321462035_i32, %c527088365_i32 : i32
    %19 = spirv.GL.Round %cst : f32
    %20 = vector.broadcast %c1321462035_i32 : i32 to vector<2xi32>
    %21 = spirv.BitwiseOr %20, %20 : vector<2xi32>
    %22 = arith.addf %cst_1, %cst_1 : f16
    %23 = index.xor %c25, %c4
    %24 = bufferization.clone %alloc_3 : memref<17xi16> to memref<17xi16>
    %25 = arith.addf %cst_0, %cst : f32
    %26 = arith.divf %cst_1, %cst_1 : f16
    %27 = arith.ori %16, %arg0 : i64
    %28 = index.sizeof
    %from_elements = tensor.from_elements %16, %c990472205_i64, %c238821326_i64, %c453217699_i64, %c329904959_i64, %c329904959_i64, %arg0, %c990472205_i64, %c453217699_i64, %c990472205_i64, %c329904959_i64, %c238821326_i64, %arg0, %arg0, %c329904959_i64, %c990472205_i64, %16 : tensor<17xi64>
    affine.store %c-5165_i16, %24[%c26] : memref<17xi16>
    %29 = spirv.GL.Cos %cst_1 : f16
    %from_elements_17 = tensor.from_elements %true, %true, %false, %true, %true, %false, %true, %false, %true, %true, %true, %false, %false, %true, %false, %true, %false, %true, %true, %false, %false, %true, %true, %false, %true, %true, %true, %false, %true, %true, %false, %false, %false, %false, %true, %false, %false, %false, %false, %true, %false, %true, %true, %true, %false, %false, %true, %true, %true, %false, %true, %false, %true, %true, %false, %true, %false, %true, %false, %false, %true, %false, %true, %false, %false, %true, %false, %false, %false, %true, %true, %false, %false, %false, %false, %false, %true, %false, %true, %false, %false, %true, %true, %false, %false, %false, %false, %false, %false, %false, %false, %false, %false, %true, %true, %true, %true, %false, %true, %false, %false, %false, %false, %true, %false, %true, %true, %false, %false, %true, %true, %false, %true, %true, %false, %false, %false, %true, %false, %false, %false, %true, %false, %true, %false, %false, %true, %false, %false, %true, %true, %true, %false, %false, %true, %true, %true, %false, %true, %false, %true, %false, %true, %false, %true, %false, %true, %true, %false, %true, %true, %true, %false, %true, %false, %false, %false, %false, %true, %true, %true, %false, %true, %false, %false, %true, %true, %false, %true, %false, %false, %true, %true, %false, %true, %false, %true, %true, %true, %false, %true, %true, %false, %false, %false, %true, %false, %true, %true, %true, %true, %false, %true, %true, %true, %false, %true, %true, %false, %false, %false, %false, %true, %true, %true, %true, %true, %true, %false, %false, %false, %false, %true, %false, %true, %true, %false, %true, %false, %false, %true, %true, %true, %true, %false, %false, %true, %true, %false, %true, %false, %false, %true, %true, %false, %true, %false, %true, %false, %false, %true, %true, %false, %false, %false, %true, %true, %false, %true, %false, %true, %true, %true, %false, %false, %false, %false, %true, %true, %true, %false, %true, %false, %true, %true, %true, %true, %false, %true, %true, %false, %false : tensor<16x17xi1>
    %30 = spirv.CL.fma %cst, %19, %cst_0 : f32
    %31 = vector.shuffle %17, %17 [2, 3, 4, 5, 6, 9, 12, 16, 18, 19, 20, 21] : vector<11xi32>, vector<11xi32>
    %32 = index.shrs %c28, %c22
    scf.parallel (%arg1, %arg2) = (%c10, %c22) to (%c5, %c24) step (%c21, %c5) {
      %129 = affine.min affine_map<(d0) -> (d0 + d0 + 2)>(%c0)
      %130 = index.floordivs %c28, %c5
      %131 = vector.reduction <maxsi>, %20 : vector<2xi32> into i32
      %132 = vector.broadcast %cst_1 : f16 to vector<10xf16>
      %133 = vector.transfer_write %132, %7[%23, %c10] {permutation_map = affine_map<(d0, d1) -> (d0)>} : vector<10xf16>, tensor<?x17xf16>
      affine.store %c1321462035_i32, %alloc_15[%c22, %c12, %c28] : memref<17x16x17xi32>
      %134 = index.xor %23, %c6
      %135 = math.ctpop %9 : tensor<?x16xi32>
      %136 = vector.insertelement %c527088365_i32, %17[%c7 : index] : vector<11xi32>
      %137 = arith.remf %cst_0, %19 : f32
      %138 = arith.andi %c383367506_i32, %c1321462035_i32 : i32
      %139 = scf.parallel (%arg3) = (%23) to (%c5) step (%c12) init (%7) -> tensor<?x17xf16> {
        %144 = index.add %c12, %c10
        %145 = bufferization.clone %alloc_7 : memref<10x16xi1> to memref<10x16xi1>
        %146 = vector.broadcast %c7 : index to vector<17xindex>
        %147 = vector.broadcast %true : i1 to vector<17xi1>
        %148 = vector.broadcast %19 : f32 to vector<17xf32>
        vector.scatter %alloc_2[%c0] [%146], %147, %148 : memref<?xf32>, vector<17xindex>, vector<17xi1>, vector<17xf32>
        %splat = tensor.splat %c1321462035_i32 : tensor<16x17xi32>
        %149 = index.sub %arg3, %c2
        %150 = arith.ori %c-21738_i16, %c-21738_i16 : i16
        %151 = math.log1p %29 : f16
        %152 = arith.shrui %c238821326_i64, %16 : i64
        %153 = index.add %c21, %c28
        %154 = index.or %c30, %c6
        %155 = bufferization.clone %alloc_3 : memref<17xi16> to memref<17xi16>
        %156 = memref.load %alloc_16[%c0, %c0] : memref<?x?xf16>
        %157 = arith.cmpf one, %cst_0, %cst_0 : f32
        %158 = arith.shrui %c1321462035_i32, %c1321462035_i32 : i32
        %159 = math.exp %7 : tensor<?x17xf16>
        %160 = arith.remf %cst_1, %29 : f16
        scf.reduce(%7)  : tensor<?x17xf16> {
        ^bb0(%arg4: tensor<?x17xf16>, %arg5: tensor<?x17xf16>):
          %161 = math.fpowi %14, %splat : tensor<16x17xf16>, tensor<16x17xi32>
          %expanded = tensor.expand_shape %arg4 [[0], [1, 2]] : tensor<?x17xf16> into tensor<?x17x1xf16>
          %162 = vector.broadcast %c24 : index to vector<11xindex>
          %163 = vector.broadcast %true : i1 to vector<11xi1>
          %164 = vector.broadcast %c-5165_i16 : i16 to vector<11xi16>
          vector.scatter %155[%c15] [%162], %163, %164 : memref<17xi16>, vector<11xindex>, vector<11xi1>, vector<11xi16>
          %165 = arith.remf %30, %30 : f32
          %166 = arith.xori %arg0, %c990472205_i64 : i64
          %alloc_21 = memref.alloc() : memref<10x16xf16>
          %167 = vector.broadcast %29 : f16 to vector<17xf16>
          %168 = vector.broadcast %false : i1 to vector<17xi1>
          %169 = vector.broadcast %c1321462035_i32 : i32 to vector<17xi32>
          %170 = vector.gather %alloc_21[%c2, %c26] [%169], %168, %167 : memref<10x16xf16>, vector<17xi32>, vector<17xi1>, vector<17xf16> into vector<17xf16>
          %171 = affine.max affine_map<(d0, d1)[s0] -> (d1 + d0 - 16)>(%arg2, %c28)[%153]
          %172 = bufferization.clone %alloc_15 : memref<17x16x17xi32> to memref<17x16x17xi32>
          scf.reduce.return %7 : tensor<?x17xf16>
        }
        scf.yield
      }
      %140 = affine.vector_load %alloc[%c30, %c0] : memref<?x16xf32>, vector<11xf32>
      %141 = tensor.empty() : tensor<272xi64>
      %unpack_20 = tensor.unpack %10 outer_dims_perm = [0] inner_dims_pos = [0] inner_tiles = [%c17] into %141 : tensor<16x17xi64> -> tensor<272xi64>
      memref.copy %alloc_7, %alloc_7 : memref<10x16xi1> to memref<10x16xi1>
      %142 = math.tan %4 : tensor<?xf16>
      %143 = arith.remf %19, %30 : f32
      scf.yield
    }
    %33 = math.rsqrt %14 : tensor<16x17xf16>
    %34 = scf.while (%arg1 = %cst_0) : (f32) -> f32 {
      %129 = index.and %c3, %c7
      %130 = arith.addi %c-21738_i16, %c10976_i16 : i16
      %alloc_20 = memref.alloc() : memref<10x16xi16>
      %extracted_21 = tensor.extract %2[%c5, %c11] : tensor<10x16xi32>
      %131 = affine.min affine_map<(d0) -> (d0 + d0 + 2)>(%c8)
      %132 = tensor.empty(%c14) : tensor<?x10xf16>
      %broadcasted = linalg.broadcast ins(%13 : tensor<?xf16>) outs(%132 : tensor<?x10xf16>) dimensions = [1] 
      %133 = scf.if %false -> (memref<16x17xf16>) {
        %135 = arith.andi %c-5165_i16, %c-5165_i16 : i16
        affine.vector_store %17, %alloc_9[%c31, %c30, %c26] : memref<17x16x17xi32>, vector<11xi32>
        %136 = math.absf %4 : tensor<?xf16>
        %137 = math.ctlz %9 : tensor<?x16xi32>
        %extracted_22 = tensor.extract %13[%c0] : tensor<?xf16>
        %138 = vector.insert %c1511750638_i32, %20 [1] : i32 into vector<2xi32>
        %139 = vector.broadcast %cst_1 : f16 to vector<16x17xf16>
        %140 = math.powf %cst_1, %29 : f16
        scf.yield %alloc_10 : memref<16x17xf16>
      } else {
        %135 = math.roundeven %14 : tensor<16x17xf16>
        %136 = index.maxu %c18, %c5
        %137 = affine.min affine_map<(d0, d1, d2, d3)[s0] -> ((d3 - 1) mod 16 + 2)>(%c20, %c1, %32, %c22)[%c20]
        %138 = math.ctpop %c329904959_i64 : i64
        %139 = bufferization.clone %alloc_5 : memref<16x17xi1> to memref<16x17xi1>
        %140 = vector.insert %c527088365_i32, %20 [0] : i32 into vector<2xi32>
        %141 = index.or %c23, %137
        %142 = math.roundeven %cst : f32
        scf.yield %alloc_10 : memref<16x17xf16>
      }
      %134 = vector.splat %c14 : vector<17xindex>
      scf.condition(%false) %cst : f32
    } do {
    ^bb0(%arg1: f32):
      affine.store %cst_1, %alloc_13[%c21, %c24] : memref<?x17xf16>
      %129 = math.cos %cst_0 : f32
      %130 = index.or %c21, %c17
      %131 = index.divs %c2, %c29
      %dim = tensor.dim %0, %c0 : tensor<16x17xi32>
      %132 = index.maxs %c3, %c3
      %133 = arith.xori %arg0, %c238821326_i64 : i64
      %134 = index.mul %32, %c15
      %135 = affine.apply affine_map<(d0) -> (d0 + d0 + 2)>(%c13)
      %136 = math.tanh %7 : tensor<?x17xf16>
      %137 = tensor.empty(%c27) : tensor<17x16x?xi16>
      %138 = scf.while (%arg2 = %2) : (tensor<10x16xi32>) -> tensor<10x16xi32> {
        %142 = math.ctlz %16 : i64
        %143 = math.sqrt %14 : tensor<16x17xf16>
        %144 = arith.addf %cst_0, %30 : f32
        %145 = vector.insertelement %c383367506_i32, %17[%c17 : index] : vector<11xi32>
        %146 = memref.load %alloc_8[%c0, %c0, %c12] : memref<?x?x17xi32>
        %147 = math.exp2 %13 : tensor<?xf16>
        %148 = arith.shrsi %c1511750638_i32, %c1321462035_i32 : i32
        %149 = math.roundeven %14 : tensor<16x17xf16>
        scf.condition(%false) %arg2 : tensor<10x16xi32>
      } do {
      ^bb0(%arg2: tensor<10x16xi32>):
        %142 = arith.addf %arg1, %30 : f32
        %143 = index.sizeof
        %144 = index.or %c27, %c26
        %145 = vector.insertelement %c383367506_i32, %20[%c15 : index] : vector<2xi32>
        %146 = bufferization.clone %alloc_3 : memref<17xi16> to memref<17xi16>
        %147 = math.roundeven %1 : tensor<16x17xf32>
        %148 = affine.apply affine_map<(d0, d1)[s0] -> ((d0 ceildiv 4) floordiv 64)>(%c28, %c18)[%c19]
        %149 = math.rsqrt %cst_1 : f16
        %150 = affine.vector_load %alloc[%c31, %c8] : memref<?x16xf32>, vector<16xf32>
        %extracted_20 = tensor.extract %from_elements[%c4] : tensor<17xi64>
        %151 = arith.ceildivsi %extracted_20, %16 : i64
        %152 = vector.multi_reduction <minui>, %20, %c1321462035_i32 [0] : vector<2xi32> to i32
        %153 = math.exp %1 : tensor<16x17xf32>
        %expanded = tensor.expand_shape %6 [[0], [1, 2]] : tensor<?x17xi64> into tensor<?x17x1xi64>
        %154 = index.xor %130, %131
        %155 = index.shrs %c10, %c18
        scf.yield %2 : tensor<10x16xi32>
      }
      %139 = vector.splat %c29 : vector<16x17xindex>
      %140 = arith.minsi %c383367506_i32, %c1511750638_i32 : i32
      %splat = tensor.splat %c10976_i16 : tensor<10x16xi16>
      %141 = arith.shrsi %c527088365_i32, %c383367506_i32 : i32
      scf.yield %arg1 : f32
    }
    %35 = spirv.BitFieldUExtract %20, %16, %c527088365_i32 : vector<2xi32>, i64, i32
    %36 = spirv.GL.FAbs %29 : f16
    %37 = index.xor %c28, %c31
    %38 = vector.splat %cst_0 : vector<16x17xf32>
    %extracted = tensor.extract %5[%c0, %c9, %c1] : tensor<?x16x17xi16>
    %39 = spirv.CL.fabs %29 : f16
    %40 = affine.min affine_map<(d0) -> (d0 + d0 + 2)>(%c1)
    %41 = index.sub %c10, %c13
    %42 = math.powf %30, %cst_0 : f32
    %43 = spirv.GL.InverseSqrt %30 : f32
    %44 = spirv.CL.rint %29 : f16
    %45 = math.exp2 %3 : tensor<?x16xf16>
    %46 = math.log2 %11 : tensor<17xf16>
    %47 = math.ceil %11 : tensor<17xf16>
    %48 = scf.execute_region -> i32 {
      %129 = math.fpowi %1, %0 : tensor<16x17xf32>, tensor<16x17xi32>
      %130 = affine.min affine_map<(d0) -> ((-d0) mod 16)>(%c3)
      %131 = index.casts %c4 : index to i32
      %132 = math.cos %cst_0 : f32
      %133 = memref.alloca_scope  -> (tensor<?xf16>) {
        %143 = vector.bitcast %20 : vector<2xi32> to vector<2xi32>
        %144 = math.ctpop %6 : tensor<?x17xi64>
        %145 = vector.broadcast %44 : f16 to vector<11xf16>
        %146 = vector.transfer_write %145, %3[%c4, %c4] {permutation_map = affine_map<(d0, d1) -> (d0)>} : vector<11xf16>, tensor<?x16xf16>
        memref.assume_alignment %alloc_2, 8 : memref<?xf32>
        %147 = math.tan %14 : tensor<16x17xf16>
        %148 = arith.shli %arg0, %c990472205_i64 : i64
        %149 = math.atan2 %cst_1, %39 : f16
        %150 = vector.insertelement %39, %145[%41 : index] : vector<11xf16>
        %151 = index.shrs %c2, %c27
        %152 = memref.atomic_rmw addi %c-21738_i16, %24[%c10] : (i16, memref<17xi16>) -> i16
        %false_21 = index.bool.constant false
        %153 = arith.shrsi %c527088365_i32, %c1511750638_i32 : i32
        %154 = linalg.copy ins(%15 : tensor<10x16xi16>) outs(%15 : tensor<10x16xi16>) -> tensor<10x16xi16>
        %155 = index.divs %32, %41
        %156 = arith.negf %39 : f16
        %157 = math.tanh %7 : tensor<?x17xf16>
        %dim = tensor.dim %0, %c0 : tensor<16x17xi32>
        %158 = memref.load %alloc_11[%c2, %c15, %c11] : memref<17x16x17xf16>
        %false_22 = arith.constant false
        %159 = index.maxu %c10, %151
        %alloc_23 = memref.alloc() : memref<10x16xi1>
        %160 = affine.vector_load %24[%c0] : memref<17xi16>, vector<17xi16>
        %161 = arith.minsi %c10976_i16, %c-5165_i16 : i16
        %162 = index.mul %c25, %c4
        %163 = vector.insertelement %44, %145[%c8 : index] : vector<11xf16>
        %164 = index.casts %37 : index to i32
        %165 = affine.vector_load %alloc_4[%c30, %23, %c15] : memref<17x16x17xi32>, vector<16xi32>
        %166 = math.fpowi %1, %0 : tensor<16x17xf32>, tensor<16x17xi32>
        %167 = arith.addi %c-21738_i16, %extracted : i16
        vector.print %145 : vector<11xf16>
        %168 = math.cos %29 : f16
        %169 = arith.shrsi %c990472205_i64, %c453217699_i64 : i64
        memref.alloca_scope.return %13 : tensor<?xf16>
      }
      %134 = index.xor %c13, %c19
      %135 = arith.divui %c383367506_i32, %c1321462035_i32 : i32
      %136 = index.and %c31, %c29
      %137 = affine.min affine_map<(d0, d1, d2, d3) -> (d2)>(%c22, %c16, %c25, %c6)
      %138 = arith.remf %44, %29 : f16
      %139 = math.tan %43 : f32
      %expanded = tensor.expand_shape %14 [[0], [1, 2]] : tensor<16x17xf16> into tensor<16x17x1xf16>
      %140 = math.fpowi %14, %0 : tensor<16x17xf16>, tensor<16x17xi32>
      %collapsed = tensor.collapse_shape %3 [[0, 1]] : tensor<?x16xf16> into tensor<?xf16>
      %cst_20 = arith.constant 0.000000e+00 : f16
      %141 = vector.transfer_read %alloc_16[%c7, %c30], %cst_20 {permutation_map = affine_map<(d0, d1) -> (d0)>} : memref<?x?xf16>, vector<16xf16>
      %142 = scf.execute_region -> memref<10x16xi64> {
        %143 = index.castu %130 : index to i32
        %144 = vector.insert %c527088365_i32, %17 [4] : i32 into vector<11xi32>
        %145 = index.and %c3, %130
        %collapsed_21 = tensor.collapse_shape %2 [[0, 1]] : tensor<10x16xi32> into tensor<160xi32>
        %146 = math.exp2 %19 : f32
        %rank = tensor.rank %1 : tensor<16x17xf32>
        %147 = vector.broadcast %30 : f32 to vector<17x16x17xf32>
        %148 = vector.fma %147, %147, %147 : vector<17x16x17xf32>
        %c6823_i16 = arith.constant 6823 : i16
        %alloc_22 = memref.alloc() : memref<16x17xi32>
        memref.tensor_store %0, %alloc_22 : memref<16x17xi32>
        %149 = math.fma %29, %36, %39 : f16
        %alloc_23 = memref.alloc(%c3) : memref<16x?xf16>
        linalg.transpose ins(%3 : tensor<?x16xf16>) outs(%alloc_23 : memref<16x?xf16>) permutation = [1, 0] 
        %150 = math.cos %133 : tensor<?xf16>
        %151 = math.tan %collapsed : tensor<?xf16>
        %152 = index.castu %c19 : index to i32
        %153 = arith.remf %43, %cst : f32
        %154 = arith.shrui %16, %c238821326_i64 : i64
        %alloc_24 = memref.alloc() : memref<10x16xi64>
        scf.yield %alloc_24 : memref<10x16xi64>
      }
      scf.yield %c527088365_i32 : i32
    }
    memref.copy %alloc_15, %alloc_9 : memref<17x16x17xi32> to memref<17x16x17xi32>
    %49 = arith.remui %c1321462035_i32, %c527088365_i32 : i32
    %50 = spirv.CL.sqrt %44 : f16
    %51 = spirv.CL.fmin %19, %43 : f32
    %52 = spirv.CL.sqrt %30 : f32
    %53 = spirv.CL.s_max %c1321462035_i32, %48 : i32
    %54 = index.floordivs %c6, %c4
    %55 = spirv.BitwiseOr %20, %20 : vector<2xi32>
    %56 = math.exp2 %14 : tensor<16x17xf16>
    %alloc_18 = memref.alloc(%c1, %c2) : memref<?x?x17xi64>
    %57 = spirv.LogicalAnd %true, %false : i1
    %58 = index.shl %c25, %c31
    %59 = math.tanh %52 : f32
    %60 = index.sub %c14, %c20
    %61 = math.cttz %arg0 : i64
    %62 = spirv.FOrdEqual %30, %cst_0 : f32
    %63 = tensor.empty() : tensor<272xf32>
    %unpack = tensor.unpack %1 outer_dims_perm = [0] inner_dims_pos = [0] inner_tiles = [%c17] into %63 : tensor<16x17xf32> -> tensor<272xf32>
    %64 = spirv.CL.s_min %c-21738_i16, %extracted : i16
    affine.vector_store %17, %alloc_8[%c25, %c2, %c25] : memref<?x?x17xi32>, vector<11xi32>
    %65 = spirv.CL.sin %39 : f16
    %66 = arith.negf %44 : f16
    %67 = vector.bitcast %17 : vector<11xi32> to vector<11xi32>
    memref.alloca_scope  {
      %129 = vector.insertelement %53, %67[%c26 : index] : vector<11xi32>
      %130 = vector.multi_reduction <minui>, %20, %c1511750638_i32 [0] : vector<2xi32> to i32
      %131 = index.casts %130 : i32 to index
      %132 = math.roundeven %30 : f32
      %133 = vector.insert %c527088365_i32, %17 [6] : i32 into vector<11xi32>
      %134 = math.atan %39 : f16
      %135 = index.floordivs %54, %c27
      %136 = math.atan2 %14, %14 : tensor<16x17xf16>
      %137 = linalg.copy ins(%15 : tensor<10x16xi16>) outs(%15 : tensor<10x16xi16>) -> tensor<10x16xi16>
      %138 = tensor.empty() : tensor<272xi1>
      %unpack_20 = tensor.unpack %from_elements_17 outer_dims_perm = [0] inner_dims_pos = [0] inner_tiles = [%c17] into %138 : tensor<16x17xi1> -> tensor<272xi1>
      %139 = math.absi %c329904959_i64 : i64
      %140 = index.casts %c9 : index to i32
      %141 = memref.load %alloc_12[%c0, %c0] : memref<?x16xf32>
      %alloc_21 = memref.alloc(%c31, %c31) : memref<?x?xf16>
      %142 = math.fpowi %39, %48 : f16, i32
      %143 = arith.negf %52 : f32
      %144 = tensor.empty() : tensor<272x16xi1>
      %broadcasted = linalg.broadcast ins(%138 : tensor<272xi1>) outs(%144 : tensor<272x16xi1>) dimensions = [1] 
      %145 = arith.minui %c1321462035_i32, %c1511750638_i32 : i32
      %146 = math.roundeven %19 : f32
      %147 = affine.apply affine_map<(d0, d1)[s0] -> ((d0 ceildiv 4) floordiv 64)>(%c5, %54)[%60]
      memref.assume_alignment %alloc_4, 8 : memref<17x16x17xi32>
      %148 = vector.splat %c27 : vector<17xindex>
      %alloc_22 = memref.alloc(%c4) : memref<?xf16>
      %149 = vector.matrix_multiply %17, %67 {lhs_columns = 11 : i32, lhs_rows = 1 : i32, rhs_columns = 1 : i32} : (vector<11xi32>, vector<11xi32>) -> vector<1xi32>
      %150 = arith.negf %44 : f16
      %inserted_23 = tensor.insert %44 into %14[%c15, %c14] : tensor<16x17xf16>
      %151 = vector.bitcast %67 : vector<11xi32> to vector<11xi32>
      %152 = index.casts %c0 : index to i32
      %alloca = memref.alloca(%c23) : memref<?xf16>
      %153 = math.absi %138 : tensor<272xi1>
      %154 = arith.shli %c329904959_i64, %c990472205_i64 : i64
      %generated = tensor.generate %c19 {
      ^bb0(%arg1: index):
        %155 = arith.minsi %c329904959_i64, %c329904959_i64 : i64
        %156 = arith.remf %19, %30 : f32
        %cast = tensor.cast %14 : tensor<16x17xf16> to tensor<?x?xf16>
        affine.store %39, %alloc_11[%c14, %c12, %c12] : memref<17x16x17xf16>
        tensor.yield %130 : i32
      } : tensor<?xi32>
    }
    %68 = spirv.BitReverse %53 : i32
    %alloc_19 = memref.alloc() : memref<17xi32>
    memref.tensor_store %8, %alloc_19 : memref<17xi32>
    %69 = math.log2 %4 : tensor<?xf16>
    %70 = arith.andi %c990472205_i64, %16 : i64
    %71 = spirv.GL.Ldexp %52 : f32, %extracted : i16 -> f32
    %72 = spirv.FOrdLessThanEqual %52, %19 : f32
    vector.print %17 : vector<11xi32>
    %73 = spirv.CL.rsqrt %19 : f32
    %74 = arith.xori %57, %62 : i1
    %75 = spirv.CL.tanh %51 : f32
    %76 = arith.divui %c383367506_i32, %c1511750638_i32 : i32
    %77 = spirv.GL.FMix %cst_1 : f16, %36 : f16, %65 : f16 -> f16
    %78 = index.mul %c11, %c1
    %79 = index.or %c27, %c0
    scf.execute_region {
      %129 = arith.remui %false, %57 : i1
      %130 = index.xor %c27, %c0
      %131 = bufferization.to_tensor %alloc_6 : memref<?x?x17xf16>
      %132 = vector.contract {indexing_maps = [affine_map<(d0) -> (d0)>, affine_map<(d0) -> (d0)>, affine_map<(d0) -> ()>], iterator_types = ["reduction"], kind = #vector.kind<minsi>} %20, %20, %c527088365_i32 : vector<2xi32>, vector<2xi32> into i32
      %133 = math.fma %cst_1, %29, %39 : f16
      %134 = arith.remf %43, %30 : f32
      %135 = vector.broadcast %c383367506_i32 : i32 to vector<10xi32>
      %136 = vector.broadcast %true : i1 to vector<10xi1>
      %137 = vector.maskedload %alloc_15[%c15, %c3, %c12], %136, %135 : memref<17x16x17xi32>, vector<10xi1>, vector<10xi32> into vector<10xi32>
      %138 = math.roundeven %14 : tensor<16x17xf16>
      affine.store %30, %alloc[%c25, %c19] : memref<?x16xf32>
      %139 = scf.parallel (%arg1) = (%c19) to (%c24) step (%c18) init (%8) -> tensor<17xi32> {
        %144 = affine.max affine_map<(d0, d1)[s0] -> ((d0 ceildiv 4) floordiv 64)>(%c6, %c25)[%c8]
        %145 = arith.shli %c-21738_i16, %c-5165_i16 : i16
        %146 = index.sub %130, %c23
        %147 = vector.matrix_multiply %67, %137 {lhs_columns = 1 : i32, lhs_rows = 11 : i32, rhs_columns = 10 : i32} : (vector<11xi32>, vector<10xi32>) -> vector<110xi32>
        %148 = vector.transpose %147, [0] : vector<110xi32> to vector<110xi32>
        %149 = math.round %51 : f32
        %150 = memref.load %alloc_15[%c0, %c9, %c4] : memref<17x16x17xi32>
        %151 = math.ctpop %12 : tensor<17x16x17xi16>
        %alloc_21 = memref.alloc() : memref<10x16xi32>
        %152 = vector.broadcast %c527088365_i32 : i32 to vector<10x16xi32>
        %153 = vector.broadcast %57 : i1 to vector<10x16xi1>
        %154 = vector.gather %alloc_21[%c3, %40] [%152], %153, %152 : memref<10x16xi32>, vector<10x16xi32>, vector<10x16xi1>, vector<10x16xi32> into vector<10x16xi32>
        %extracted_22 = tensor.extract %12[%c4, %c10, %c0] : tensor<17x16x17xi16>
        %155 = vector.broadcast %39 : f16 to vector<17xf16>
        %156 = vector.broadcast %72 : i1 to vector<17xi1>
        %157 = vector.maskedload %alloc_13[%c0, %c2], %156, %155 : memref<?x17xf16>, vector<17xi1>, vector<17xf16> into vector<17xf16>
        %158 = vector.broadcast %44 : f16 to vector<16xf16>
        %159 = vector.broadcast %72 : i1 to vector<16xi1>
        %160 = vector.maskedload %alloc_13[%c0, %c6], %159, %158 : memref<?x17xf16>, vector<16xi1>, vector<16xf16> into vector<16xf16>
        %extracted_23 = tensor.extract %11[%c6] : tensor<17xf16>
        %161 = math.atan2 %14, %14 : tensor<16x17xf16>
        %162 = affine.max affine_map<(d0, d1)[s0] -> ((d0 ceildiv 4) floordiv 64)>(%c5, %c6)[%41]
        %163 = arith.negf %73 : f32
        scf.reduce(%8)  : tensor<17xi32> {
        ^bb0(%arg2: tensor<17xi32>, %arg3: tensor<17xi32>):
          %164 = index.shrs %c12, %arg1
          %165 = index.sizeof
          %rank = tensor.rank %15 : tensor<10x16xi16>
          %166 = math.ipowi %c-21738_i16, %extracted_22 : i16
          %167 = math.cos %19 : f32
          %168 = arith.shli %c1321462035_i32, %68 : i32
          %169 = memref.realloc %24 : memref<17xi16> to memref<16xi16>
          %170 = arith.xori %48, %c1321462035_i32 : i32
          scf.reduce.return %arg2 : tensor<17xi32>
        }
        scf.yield
      }
      %140 = index.sub %c2, %c27
      %141 = vector.contract {indexing_maps = [affine_map<(d0) -> (d0)>, affine_map<(d0) -> (d0)>, affine_map<(d0) -> ()>], iterator_types = ["reduction"], kind = #vector.kind<add>} %136, %136, %62 : vector<10xi1>, vector<10xi1> into i1
      %142 = math.absf %19 : f32
      affine.store %64, %alloc_3[%c25] : memref<17xi16>
      %extracted_20 = tensor.extract %10[%c2, %c10] : tensor<16x17xi64>
      %143 = arith.negf %cst_0 : f32
      scf.yield
    }
    %80 = spirv.GL.InverseSqrt %43 : f32
    %81 = affine.vector_load %alloc[%c16, %23] : memref<?x16xf32>, vector<10xf32>
    %82 = arith.shli %c-21738_i16, %c10976_i16 : i16
    %83 = spirv.IsNan %19 : f32
    %84 = index.castu %c-21738_i16 : i16 to index
    %85 = spirv.CL.fmin %29, %39 : f16
    %86 = spirv.CL.sin %44 : f16
    %87 = index.casts %extracted : i16 to index
    %88 = spirv.IsNan %71 : f32
    %89 = spirv.SGreaterThan %53, %68 : i32
    %90 = spirv.GL.Cos %43 : f32
    %91 = index.shrs %c17, %c11
    %92 = spirv.CL.sin %39 : f16
    %93 = index.or %c3, %c15
    %94 = index.sizeof
    %95 = affine.apply affine_map<(d0) -> (d0 + d0 + 2)>(%78)
    %96 = bufferization.to_tensor %alloc_10 : memref<16x17xf16>
    %97 = spirv.IsInf %43 : f32
    %98 = arith.minsi %c329904959_i64, %c238821326_i64 : i64
    %99 = spirv.GL.FMix %39 : f16, %85 : f16, %92 : f16 -> f16
    %100 = spirv.LogicalOr %97, %89 : i1
    %101 = math.exp2 %11 : tensor<17xf16>
    %102 = spirv.CL.s_abs %20 : vector<2xi32>
    %103 = math.rsqrt %43 : f32
    %104 = spirv.CL.sin %51 : f32
    %105 = arith.addi %97, %62 : i1
    %106 = math.log1p %104 : f32
    %107 = spirv.BitwiseOr %20, %20 : vector<2xi32>
    %108 = spirv.LogicalNot %88 : i1
    memref.copy %alloc_8, %alloc_8 : memref<?x?x17xi32> to memref<?x?x17xi32>
    %109 = index.or %c7, %60
    %110 = vector.insert %68, %20 [0] : i32 into vector<2xi32>
    %111 = spirv.GL.Acos %30 : f32
    %inserted = tensor.insert %64 into %15[%c7, %c3] : tensor<10x16xi16>
    %112 = index.sub %c15, %c9
    %113 = spirv.CL.s_abs %c329904959_i64 : i64
    %114 = spirv.CL.tanh %92 : f16
    %115 = math.roundeven %cst_1 : f16
    %116 = spirv.CL.rsqrt %80 : f32
    %117 = memref.load %24[%c9] : memref<17xi16>
    %118 = vector.broadcast %arg0 : i64 to vector<17x16x17xi64>
    %119 = vector.broadcast %57 : i1 to vector<10xi1>
    vector.compressstore %alloc[%c0, %c0], %119, %81 : memref<?x16xf32>, vector<10xi1>, vector<10xf32>
    %120 = spirv.ULessThan %48, %c383367506_i32 : i32
    %121 = math.expm1 %92 : f16
    %122 = math.tanh %104 : f32
    %123 = math.cos %19 : f32
    %124 = spirv.CL.ceil %75 : f32
    affine.vector_store %17, %alloc_15[%c29, %79, %c19] : memref<17x16x17xi32>, vector<11xi32>
    %125 = spirv.GL.SMin %c453217699_i64, %c238821326_i64 : i64
    %126 = math.log2 %39 : f16
    %127 = spirv.GL.Acos %39 : f16
    %128 = math.exp2 %96 : tensor<16x17xf16>
    vector.print %17 : vector<11xi32>
    vector.print %20 : vector<2xi32>
    vector.print %67 : vector<11xi32>
    vector.print %81 : vector<10xf32>
    vector.print %118 : vector<17x16x17xi64>
    vector.print %arg0 : i64
    vector.print %c329904959_i64 : i64
    vector.print %true : i1
    vector.print %c527088365_i32 : i32
    vector.print %c238821326_i64 : i64
    vector.print %cst : f32
    vector.print %cst_0 : f32
    vector.print %c453217699_i64 : i64
    vector.print %c383367506_i32 : i32
    vector.print %c-21738_i16 : i16
    vector.print %false : i1
    vector.print %c1321462035_i32 : i32
    vector.print %c1511750638_i32 : i32
    vector.print %cst_1 : f16
    vector.print %c-5165_i16 : i16
    vector.print %c10976_i16 : i16
    vector.print %c990472205_i64 : i64
    vector.print %16 : i64
    vector.print %19 : f32
    vector.print %29 : f16
    vector.print %30 : f32
    vector.print %36 : f16
    vector.print %extracted : i16
    vector.print %39 : f16
    vector.print %43 : f32
    vector.print %44 : f16
    vector.print %48 : i32
    vector.print %50 : f16
    vector.print %51 : f32
    vector.print %52 : f32
    vector.print %53 : i32
    vector.print %57 : i1
    vector.print %62 : i1
    vector.print %64 : i16
    vector.print %65 : f16
    vector.print %68 : i32
    vector.print %71 : f32
    vector.print %72 : i1
    vector.print %73 : f32
    vector.print %75 : f32
    vector.print %77 : f16
    vector.print %80 : f32
    vector.print %83 : i1
    vector.print %85 : f16
    vector.print %86 : f16
    vector.print %88 : i1
    vector.print %89 : i1
    vector.print %90 : f32
    vector.print %92 : f16
    vector.print %97 : i1
    vector.print %99 : f16
    vector.print %100 : i1
    vector.print %104 : f32
    vector.print %108 : i1
    vector.print %111 : f32
    vector.print %113 : i64
    vector.print %114 : f16
    vector.print %116 : f32
    vector.print %120 : i1
    vector.print %124 : f32
    vector.print %125 : i64
    vector.print %127 : f16
    return
  }
  func.func private @func2(%arg0: index, %arg1: tensor<10x16xi64>) {
    %c329904959_i64 = arith.constant 329904959 : i64
    %true = arith.constant true
    %c527088365_i32 = arith.constant 527088365 : i32
    %c238821326_i64 = arith.constant 238821326 : i64
    %cst = arith.constant 0x4C8EC744 : f32
    %cst_0 = arith.constant 2.01879514E+9 : f32
    %c453217699_i64 = arith.constant 453217699 : i64
    %c383367506_i32 = arith.constant 383367506 : i32
    %c-21738_i16 = arith.constant -21738 : i16
    %false = arith.constant false
    %c1321462035_i32 = arith.constant 1321462035 : i32
    %c1511750638_i32 = arith.constant 1511750638 : i32
    %cst_1 = arith.constant 6.380800e+04 : f16
    %c-5165_i16 = arith.constant -5165 : i16
    %c10976_i16 = arith.constant 10976 : i16
    %c990472205_i64 = arith.constant 990472205 : i64
    %c0 = arith.constant 0 : index
    %c1 = arith.constant 1 : index
    %c2 = arith.constant 2 : index
    %c3 = arith.constant 3 : index
    %c4 = arith.constant 4 : index
    %c5 = arith.constant 5 : index
    %c6 = arith.constant 6 : index
    %c7 = arith.constant 7 : index
    %c8 = arith.constant 8 : index
    %c9 = arith.constant 9 : index
    %c10 = arith.constant 10 : index
    %c11 = arith.constant 11 : index
    %c12 = arith.constant 12 : index
    %c13 = arith.constant 13 : index
    %c14 = arith.constant 14 : index
    %c15 = arith.constant 15 : index
    %c16 = arith.constant 16 : index
    %c17 = arith.constant 17 : index
    %c18 = arith.constant 18 : index
    %c19 = arith.constant 19 : index
    %c20 = arith.constant 20 : index
    %c21 = arith.constant 21 : index
    %c22 = arith.constant 22 : index
    %c23 = arith.constant 23 : index
    %c24 = arith.constant 24 : index
    %c25 = arith.constant 25 : index
    %c26 = arith.constant 26 : index
    %c27 = arith.constant 27 : index
    %c28 = arith.constant 28 : index
    %c29 = arith.constant 29 : index
    %c30 = arith.constant 30 : index
    %c31 = arith.constant 31 : index
    %0 = tensor.empty() : tensor<16x17xi32>
    %1 = tensor.empty() : tensor<16x17xf32>
    %2 = tensor.empty() : tensor<10x16xi32>
    %3 = tensor.empty(%c12) : tensor<?x16xf16>
    %4 = tensor.empty(%c24) : tensor<?xf16>
    %5 = tensor.empty(%c27) : tensor<?x16x17xi16>
    %6 = tensor.empty(%c12) : tensor<?x17xi64>
    %7 = tensor.empty(%c23) : tensor<?x17xf16>
    %8 = tensor.empty() : tensor<17xi32>
    %9 = tensor.empty(%c5) : tensor<?x16xi32>
    %10 = tensor.empty() : tensor<16x17xi64>
    %11 = tensor.empty() : tensor<17xf16>
    %12 = tensor.empty() : tensor<17x16x17xi16>
    %13 = tensor.empty(%c10) : tensor<?xf16>
    %14 = tensor.empty() : tensor<16x17xf16>
    %15 = tensor.empty() : tensor<10x16xi16>
    %alloc = memref.alloc(%c5) : memref<?x16xf32>
    %alloc_2 = memref.alloc(%c9) : memref<?xf32>
    %alloc_3 = memref.alloc() : memref<17xi16>
    %alloc_4 = memref.alloc() : memref<17x16x17xi32>
    %alloc_5 = memref.alloc() : memref<16x17xi1>
    %alloc_6 = memref.alloc(%c20, %c5) : memref<?x?x17xf16>
    %alloc_7 = memref.alloc() : memref<10x16xi1>
    %alloc_8 = memref.alloc(%c10, %c21) : memref<?x?x17xi32>
    %alloc_9 = memref.alloc() : memref<17x16x17xi32>
    %alloc_10 = memref.alloc() : memref<16x17xf16>
    %alloc_11 = memref.alloc() : memref<17x16x17xf16>
    %alloc_12 = memref.alloc(%c26) : memref<?x16xf32>
    %alloc_13 = memref.alloc(%c18) : memref<?x17xf16>
    %alloc_14 = memref.alloc() : memref<17x16x17xi1>
    %alloc_15 = memref.alloc() : memref<17x16x17xi32>
    %alloc_16 = memref.alloc(%c19, %c21) : memref<?x?xf16>
    %16 = affine.min affine_map<(d0) -> ((-d0) mod 16)>(%c29)
    %17 = vector.broadcast %c1321462035_i32 : i32 to vector<2xi32>
    %18 = spirv.BitwiseXor %17, %17 : vector<2xi32>
    scf.index_switch %c24 
    case 1 {
      %133 = index.casts %c3 : index to i32
      %extracted = tensor.extract %11[%c7] : tensor<17xf16>
      %134 = arith.minui %c10976_i16, %c-21738_i16 : i16
      %135 = vector.broadcast %cst_0 : f32 to vector<10x16xf32>
      %136 = vector.fma %135, %135, %135 : vector<10x16xf32>
      %137 = index.sizeof
      %138 = math.tanh %11 : tensor<17xf16>
      %139 = memref.alloca_scope  -> (tensor<17x16x17xi1>) {
        vector.print %135 : vector<10x16xf32>
        %146 = math.rsqrt %14 : tensor<16x17xf16>
        %147 = index.or %c19, %c9
        %148 = math.round %7 : tensor<?x17xf16>
        %149 = math.sqrt %7 : tensor<?x17xf16>
        %150 = index.castu %c26 : index to i32
        %151 = math.atan %cst : f32
        %152 = vector.broadcast %c1321462035_i32 : i32 to vector<17x16x17xi32>
        %153 = math.roundeven %cst_0 : f32
        %154 = memref.realloc %alloc_3 : memref<17xi16> to memref<10xi16>
        %155 = index.mul %16, %137
        %expanded_22 = tensor.expand_shape %7 [[0], [1, 2]] : tensor<?x17xf16> into tensor<?x17x1xf16>
        %alloca = memref.alloca(%c23) : memref<?x16xf32>
        %156 = index.maxu %c13, %c17
        affine.vector_store %17, %alloc_8[%c8, %c14, %c15] : memref<?x?x17xi32>, vector<2xi32>
        %157 = arith.andi %c990472205_i64, %c238821326_i64 : i64
        %158 = math.log2 %extracted : f16
        %alloc_23 = memref.alloc() : memref<10x16xf16>
        %159 = vector.broadcast %extracted : f16 to vector<17x16x17xf16>
        %160 = vector.broadcast %false : i1 to vector<17x16x17xi1>
        %161 = vector.gather %alloc_23[%c10, %c16] [%152], %160, %159 : memref<10x16xf16>, vector<17x16x17xi32>, vector<17x16x17xi1>, vector<17x16x17xf16> into vector<17x16x17xf16>
        %162 = arith.negf %cst_0 : f32
        %163 = math.ceil %11 : tensor<17xf16>
        %splat = tensor.splat %c329904959_i64 : tensor<16x17xi64>
        %164 = index.maxu %c17, %c3
        %165 = arith.negf %cst_1 : f16
        %splat_24 = tensor.splat %c329904959_i64 : tensor<16x17xi64>
        %166 = vector.transfer_read %4[%c16], %extracted : tensor<?xf16>, vector<f16>
        %167 = bufferization.clone %alloc_5 : memref<16x17xi1> to memref<16x17xi1>
        %168 = affine.max affine_map<(d0, d1, d2, d3) -> (d2)>(%c20, %c22, %c20, %c9)
        memref.copy %alloc_12, %alloc : memref<?x16xf32> to memref<?x16xf32>
        %169 = vector.load %alloc_6[%c0, %c0, %c5] : memref<?x?x17xf16>, vector<17x16x17xf16>
        %extracted_25 = tensor.extract %5[%c0, %c11, %c9] : tensor<?x16x17xi16>
        %false_26 = index.bool.constant false
        %170 = math.absi %false : i1
        %171 = tensor.empty() : tensor<17x16x17xi1>
        memref.alloca_scope.return %171 : tensor<17x16x17xi1>
      }
      scf.index_switch %c16 
      case 1 {
        %146 = tensor.empty() : tensor<160xi16>
        %unpack_22 = tensor.unpack %15 outer_dims_perm = [0] inner_dims_pos = [0] inner_tiles = [%c16] into %146 : tensor<10x16xi16> -> tensor<160xi16>
        %147 = tensor.empty() : tensor<i16>
        %148 = linalg.dot ins(%alloc_3, %alloc_3 : memref<17xi16>, memref<17xi16>) outs(%147 : tensor<i16>) -> tensor<i16>
        %149 = index.castu %c1511750638_i32 : i32 to index
        %150 = arith.remf %cst_0, %cst : f32
        %151 = affine.vector_load %alloc_14[%c28, %c5, %c12] : memref<17x16x17xi1>, vector<11xi1>
        %152 = math.rsqrt %cst_1 : f16
        %153 = affine.vector_load %alloc_5[%c20, %c10] : memref<16x17xi1>, vector<10xi1>
        %154 = index.floordivs %c19, %c31
        %expanded_23 = tensor.expand_shape %0 [[0], [1, 2]] : tensor<16x17xi32> into tensor<16x17x1xi32>
        %155 = arith.shli %true, %false : i1
        %156 = vector.transpose %151, [0] : vector<11xi1> to vector<11xi1>
        %extracted_24 = tensor.extract %4[%c0] : tensor<?xf16>
        %157 = math.exp %13 : tensor<?xf16>
        %158 = math.ctpop %c238821326_i64 : i64
        %159 = math.cttz %c1511750638_i32 : i32
        %160 = index.shrs %c27, %c28
        scf.yield
      }
      case 2 {
        %alloc_22 = memref.alloc() : memref<10x16xi1>
        %146 = arith.negf %cst_1 : f16
        %147 = math.fpowi %cst, %c527088365_i32 : f32, i32
        %148 = arith.mulf %cst, %cst : f32
        %149 = arith.shli %c383367506_i32, %c1321462035_i32 : i32
        %150 = vector.matrix_multiply %17, %17 {lhs_columns = 2 : i32, lhs_rows = 1 : i32, rhs_columns = 1 : i32} : (vector<2xi32>, vector<2xi32>) -> vector<1xi32>
        %151 = math.tanh %extracted : f16
        memref.copy %alloc_4, %alloc_4 : memref<17x16x17xi32> to memref<17x16x17xi32>
        %expanded_23 = tensor.expand_shape %1 [[0], [1, 2]] : tensor<16x17xf32> into tensor<16x17x1xf32>
        %dim = tensor.dim %2, %c1 : tensor<10x16xi32>
        %152 = arith.xori %c329904959_i64, %c990472205_i64 : i64
        %153 = math.exp2 %11 : tensor<17xf16>
        %inserted_24 = tensor.insert %cst_1 into %7[%c0, %c0] : tensor<?x17xf16>
        %from_elements = tensor.from_elements %false, %false, %true, %true, %true, %false, %false, %false, %false, %true, %true, %true, %false, %true, %false, %true, %true, %true, %true, %true, %true, %true, %true, %true, %true, %true, %false, %true, %false, %true, %false, %true, %false, %true, %false, %false, %true, %false, %true, %true, %false, %false, %false, %false, %true, %true, %false, %true, %true, %false, %false, %true, %false, %true, %false, %false, %false, %false, %true, %true, %true, %false, %true, %true, %true, %true, %false, %false, %true, %false, %true, %false, %false, %false, %true, %false, %false, %true, %false, %false, %false, %true, %true, %true, %false, %false, %false, %true, %true, %false, %true, %true, %true, %true, %true, %true, %false, %false, %false, %true, %true, %false, %false, %true, %true, %false, %true, %false, %true, %true, %false, %false, %true, %true, %false, %true, %false, %false, %false, %false, %true, %true, %false, %false, %false, %true, %true, %false, %true, %true, %true, %false, %false, %false, %false, %true, %true, %true, %false, %true, %false, %false, %true, %false, %false, %false, %false, %false, %false, %true, %false, %true, %true, %true, %true, %false, %true, %true, %true, %true : tensor<10x16xi1>
        %154 = arith.divui %c238821326_i64, %c329904959_i64 : i64
        %155 = vector.multi_reduction <minui>, %150, %c527088365_i32 [0] : vector<1xi32> to i32
        scf.yield
      }
      case 3 {
        %146 = vector.broadcast %cst_0 : f32 to vector<16xf32>
        %147 = vector.insert %146, %135 [2] : vector<16xf32> into vector<10x16xf32>
        %148 = affine.max affine_map<(d0, d1, d2, d3) -> (d2)>(%16, %137, %c29, %c14)
        %149 = bufferization.clone %alloc_5 : memref<16x17xi1> to memref<16x17xi1>
        %150 = math.log2 %4 : tensor<?xf16>
        %151 = index.divu %137, %c25
        %152 = vector.insert %cst, %146 [10] : f32 into vector<16xf32>
        %153 = math.roundeven %14 : tensor<16x17xf16>
        %alloca = memref.alloca(%c11) : memref<?xi1>
        %154 = math.rsqrt %4 : tensor<?xf16>
        %155 = arith.andi %true, %false : i1
        %156 = memref.load %alloc_2[%c0] : memref<?xf32>
        %157 = math.log %3 : tensor<?x16xf16>
        %158 = math.roundeven %1 : tensor<16x17xf32>
        %159 = math.fpowi %1, %0 : tensor<16x17xf32>, tensor<16x17xi32>
        affine.vector_store %146, %alloc_12[%arg0, %c4] : memref<?x16xf32>, vector<16xf32>
        %160 = vector.extract_strided_slice %146 {offsets = [14], sizes = [2], strides = [1]} : vector<16xf32> to vector<2xf32>
        scf.yield
      }
      case 4 {
        %146 = arith.shrsi %c990472205_i64, %c990472205_i64 : i64
        %147 = arith.divui %c383367506_i32, %c527088365_i32 : i32
        %from_elements = tensor.from_elements %cst_1, %cst_1, %cst_1, %cst_1, %cst_1, %cst_1, %extracted, %cst_1, %extracted, %extracted, %extracted, %cst_1, %cst_1, %cst_1, %extracted, %extracted, %extracted, %cst_1, %extracted, %cst_1, %cst_1, %cst_1, %cst_1, %extracted, %extracted, %cst_1, %extracted, %extracted, %cst_1, %extracted, %cst_1, %cst_1, %cst_1, %extracted, %extracted, %extracted, %extracted, %extracted, %cst_1, %extracted, %extracted, %cst_1, %cst_1, %extracted, %extracted, %cst_1, %extracted, %cst_1, %extracted, %cst_1, %cst_1, %cst_1, %extracted, %cst_1, %extracted, %cst_1, %extracted, %cst_1, %cst_1, %extracted, %cst_1, %cst_1, %cst_1, %extracted, %cst_1, %cst_1, %extracted, %cst_1, %extracted, %cst_1, %cst_1, %extracted, %extracted, %extracted, %extracted, %cst_1, %cst_1, %extracted, %cst_1, %cst_1, %cst_1, %extracted, %extracted, %extracted, %cst_1, %cst_1, %cst_1, %extracted, %extracted, %cst_1, %extracted, %cst_1, %cst_1, %cst_1, %cst_1, %extracted, %extracted, %extracted, %cst_1, %cst_1, %cst_1, %cst_1, %extracted, %cst_1, %cst_1, %cst_1, %extracted, %extracted, %cst_1, %extracted, %cst_1, %cst_1, %extracted, %cst_1, %extracted, %extracted, %cst_1, %extracted, %cst_1, %extracted, %cst_1, %extracted, %extracted, %cst_1, %cst_1, %extracted, %extracted, %extracted, %cst_1, %extracted, %cst_1, %cst_1, %extracted, %extracted, %cst_1, %extracted, %extracted, %extracted, %cst_1, %cst_1, %cst_1, %cst_1, %extracted, %cst_1, %cst_1, %extracted, %cst_1, %extracted, %cst_1, %extracted, %cst_1, %cst_1, %cst_1, %cst_1, %cst_1, %extracted, %extracted, %extracted, %cst_1, %cst_1 : tensor<10x16xf16>
        %148 = arith.addi %true, %true : i1
        %149 = index.divu %c26, %c31
        %150 = index.divu %c3, %c29
        %151 = vector.bitcast %136 : vector<10x16xf32> to vector<10x16xi32>
        %152 = math.exp2 %7 : tensor<?x17xf16>
        %153 = index.and %c10, %c5
        %154 = arith.shli %c238821326_i64, %c238821326_i64 : i64
        %155 = index.and %c19, %c11
        %156 = arith.minsi %true, %true : i1
        %157 = index.maxu %c14, %150
        %158 = math.ctlz %c-5165_i16 : i16
        %159 = index.shl %c26, %c12
        %160 = vector.extract_strided_slice %151 {offsets = [8], sizes = [1], strides = [1]} : vector<10x16xi32> to vector<1x16xi32>
        scf.yield
      }
      default {
        %146 = index.maxs %c5, %c5
        %147 = vector.broadcast %c-5165_i16 : i16 to vector<16x17xi16>
        %148 = math.rsqrt %3 : tensor<?x16xf16>
        %alloca = memref.alloca(%c27, %c26) : memref<?x?xi64>
        %alloc_22 = memref.alloc() : memref<17x16x17xi16>
        memref.tensor_store %12, %alloc_22 : memref<17x16x17xi16>
        %149 = math.rsqrt %1 : tensor<16x17xf32>
        %150 = arith.minui %c383367506_i32, %c1511750638_i32 : i32
        %151 = math.tan %11 : tensor<17xf16>
        linalg.broadcast ins(%4 : tensor<?xf16>) outs(%alloc_13 : memref<?x17xf16>) dimensions = [1] 
        %collapsed = tensor.collapse_shape %7 [[0, 1]] : tensor<?x17xf16> into tensor<?xf16>
        vector.print %17 : vector<2xi32>
        %152 = index.castu %c10976_i16 : i16 to index
        %153 = vector.broadcast %cst_0 : f32 to vector<16xf32>
        %154 = vector.insert %153, %135 [6] : vector<16xf32> into vector<10x16xf32>
        %155 = math.exp2 %cst : f32
        affine.store %extracted, %alloc_16[%c21, %c13] : memref<?x?xf16>
        %156 = tensor.empty(%c10) : tensor<?x17xf32>
        %broadcasted = linalg.broadcast ins(%alloc_2 : memref<?xf32>) outs(%156 : tensor<?x17xf32>) dimensions = [1] 
      }
      %140 = vector.matrix_multiply %17, %17 {lhs_columns = 2 : i32, lhs_rows = 1 : i32, rhs_columns = 1 : i32} : (vector<2xi32>, vector<2xi32>) -> vector<1xi32>
      %false_20 = index.bool.constant false
      %141 = tensor.empty() : tensor<17x16xi64>
      %transposed = linalg.transpose ins(%10 : tensor<16x17xi64>) outs(%141 : tensor<17x16xi64>) permutation = [1, 0] 
      %142 = arith.minsi %c-5165_i16, %c-5165_i16 : i16
      %alloc_21 = memref.alloc() : memref<16x17xi64>
      memref.tensor_store %10, %alloc_21 : memref<16x17xi64>
      %143 = index.mul %c7, %c30
      %144 = vector.splat %c7 : vector<17x16x17xindex>
      %145 = index.xor %c17, %c5
      scf.yield
    }
    case 2 {
      %133 = math.roundeven %3 : tensor<?x16xf16>
      %134 = index.and %c2, %c4
      %135 = arith.remf %cst_0, %cst_0 : f32
      %136 = arith.minui %c990472205_i64, %c329904959_i64 : i64
      vector.print %17 : vector<2xi32>
      %137 = vector.insert %c527088365_i32, %17 [0] : i32 into vector<2xi32>
      %138 = vector.contract {indexing_maps = [affine_map<(d0) -> (d0)>, affine_map<(d0) -> (d0)>, affine_map<(d0) -> ()>], iterator_types = ["reduction"], kind = #vector.kind<or>} %17, %17, %c1321462035_i32 : vector<2xi32>, vector<2xi32> into i32
      %alloc_20 = memref.alloc() : memref<17x17x16xi32>
      linalg.transpose ins(%alloc_9 : memref<17x16x17xi32>) outs(%alloc_20 : memref<17x17x16xi32>) permutation = [2, 0, 1] 
      %139 = affine.vector_load %alloc_10[%c7, %c29] : memref<16x17xf16>, vector<11xf16>
      %from_elements = tensor.from_elements %c329904959_i64, %c453217699_i64, %c990472205_i64, %c990472205_i64, %c329904959_i64, %c238821326_i64, %c238821326_i64, %c990472205_i64, %c329904959_i64, %c453217699_i64, %c238821326_i64, %c238821326_i64, %c238821326_i64, %c329904959_i64, %c453217699_i64, %c990472205_i64, %c329904959_i64 : tensor<17xi64>
      %true_21 = index.bool.constant true
      %140 = arith.addi %c1321462035_i32, %c527088365_i32 : i32
      %141 = index.or %c1, %c30
      %alloc_22 = memref.alloc() : memref<17xf32>
      %alloc_23 = memref.alloc() : memref<f32>
      %142 = tensor.empty() : tensor<17xf32>
      %143 = linalg.generic {indexing_maps = [affine_map<(d0) -> (d0)>, affine_map<(d0) -> ()>, affine_map<(d0) -> (d0)>, affine_map<(d0) -> (d0)>], iterator_types = ["parallel"]} ins(%alloc_22, %alloc_23, %alloc_22 : memref<17xf32>, memref<f32>, memref<17xf32>) outs(%142 : tensor<17xf32>) {
      ^bb0(%in: f32, %in_25: f32, %in_26: f32, %out: f32):
        %145 = vector.transpose %17, [0] : vector<2xi32> to vector<2xi32>
        linalg.yield %out : f32
      } -> tensor<17xf32>
      %inserted_24 = tensor.insert %cst_0 into %1[%c10, %c0] : tensor<16x17xf32>
      %144 = affine.apply affine_map<(d0, d1) -> (d0)>(%c29, %c2)
      scf.yield
    }
    case 3 {
      %133 = math.log10 %cst_0 : f32
      %false_20 = arith.constant false
      %134 = arith.divui %c1321462035_i32, %c1321462035_i32 : i32
      %135 = arith.minsi %c-5165_i16, %c-21738_i16 : i16
      vector.print %17 : vector<2xi32>
      %136 = scf.execute_region -> vector<10x16xf16> {
        %148 = index.and %c14, %c31
        %149 = memref.atomic_rmw assign %cst, %alloc_2[%c0] : (f32, memref<?xf32>) -> f32
        %alloc_23 = memref.alloc() : memref<17xi32>
        %150 = vector.broadcast %c527088365_i32 : i32 to vector<17xi32>
        %151 = vector.broadcast %true : i1 to vector<17xi1>
        %152 = vector.gather %alloc_23[%c27] [%150], %151, %150 : memref<17xi32>, vector<17xi32>, vector<17xi1>, vector<17xi32> into vector<17xi32>
        %alloca = memref.alloca() : memref<17xi1>
        %153 = math.ctpop %12 : tensor<17x16x17xi16>
        %154 = math.atan2 %14, %14 : tensor<16x17xf16>
        %155 = vector.insert %c1511750638_i32, %150 [12] : i32 into vector<17xi32>
        %156 = affine.apply affine_map<(d0, d1) -> (d1)>(%c30, %c12)
        %157 = affine.max affine_map<(d0, d1)[s0] -> (d1 + d0 - 16)>(%c1, %c16)[%c25]
        %158 = vector.load %alloc_23[%c3] : memref<17xi32>, vector<10x16xi32>
        %159 = index.shrs %c30, %16
        %160 = vector.load %alloc_3[%c12] : memref<17xi16>, vector<17xi16>
        %161 = vector.transfer_read %12[%156, %c24, %c24], %c10976_i16 : tensor<17x16x17xi16>, vector<i16>
        %162 = index.xor %arg0, %c27
        %163 = math.absi %10 : tensor<16x17xi64>
        %164 = arith.minsi %false, %true : i1
        %165 = vector.broadcast %cst_1 : f16 to vector<10x16xf16>
        scf.yield %165 : vector<10x16xf16>
      }
      %137 = vector.insert %c1511750638_i32, %17 [0] : i32 into vector<2xi32>
      %138 = math.log10 %13 : tensor<?xf16>
      %139 = scf.if %true -> (memref<16x17xi32>) {
        %148 = index.and %c7, %c19
        %alloca = memref.alloca() : memref<17xi16>
        %149 = vector.broadcast %c-21738_i16 : i16 to vector<17xi16>
        %150 = vector.transfer_write %149, %15[%c17, %c25] {permutation_map = affine_map<(d0, d1) -> (d0)>} : vector<17xi16>, tensor<10x16xi16>
        %151 = arith.addf %cst_1, %cst_1 : f16
        %152 = arith.ori %c453217699_i64, %c238821326_i64 : i64
        %153 = index.or %c16, %c16
        memref.assume_alignment %alloc, 4 : memref<?x16xf32>
        %splat = tensor.splat %true : tensor<16x17xi1>
        %alloc_23 = memref.alloc() : memref<16x17xi32>
        scf.yield %alloc_23 : memref<16x17xi32>
      } else {
        %148 = math.absi %c-5165_i16 : i16
        %149 = math.cos %cst : f32
        %150 = affine.max affine_map<(d0) -> ((((d0 - 4) ceildiv 16 + (d0 - 4) floordiv 64) mod 2) ceildiv 16)>(%c24)
        %151 = vector.contract {indexing_maps = [affine_map<(d0) -> (d0)>, affine_map<(d0) -> (d0)>, affine_map<(d0) -> ()>], iterator_types = ["reduction"], kind = #vector.kind<minsi>} %17, %17, %c1321462035_i32 : vector<2xi32>, vector<2xi32> into i32
        %152 = index.maxu %c9, %c9
        %153 = math.exp %4 : tensor<?xf16>
        %154 = index.maxs %c1, %c28
        %155 = math.log1p %13 : tensor<?xf16>
        %alloc_23 = memref.alloc() : memref<16x17xi32>
        scf.yield %alloc_23 : memref<16x17xi32>
      }
      %140 = math.roundeven %11 : tensor<17xf16>
      %141 = index.and %c18, %c1
      %142 = affine.vector_load %alloc_10[%c26, %c30] : memref<16x17xf16>, vector<11xf16>
      %143 = arith.subi %c329904959_i64, %c453217699_i64 : i64
      %144 = tensor.empty() : tensor<11xi64>
      %145 = tensor.empty() : tensor<i64>
      %alloc_21 = memref.alloc() : memref<11xi64>
      %146 = linalg.generic {indexing_maps = [affine_map<(d0) -> (d0)>, affine_map<(d0) -> ()>, affine_map<(d0) -> (d0)>, affine_map<(d0) -> (d0)>], iterator_types = ["parallel"]} ins(%144, %145, %alloc_21 : tensor<11xi64>, tensor<i64>, memref<11xi64>) outs(%144 : tensor<11xi64>) {
      ^bb0(%in: i64, %in_23: i64, %in_24: i64, %out: i64):
        %alloca = memref.alloca(%c10, %arg0) : memref<?x?xf16>
        linalg.yield %c238821326_i64 : i64
      } -> tensor<11xi64>
      %147 = vector.broadcast %true : i1 to vector<11xi1>
      vector.compressstore %alloc_6[%c0, %c0, %c3], %147, %142 : memref<?x?x17xf16>, vector<11xi1>, vector<11xf16>
      %expanded_22 = tensor.expand_shape %10 [[0], [1, 2]] : tensor<16x17xi64> into tensor<16x17x1xi64>
      scf.yield
    }
    default {
      %133 = arith.shrsi %c-21738_i16, %c10976_i16 : i16
      %134 = math.fma %14, %14, %14 : tensor<16x17xf16>
      %135 = math.sqrt %3 : tensor<?x16xf16>
      %136 = index.shrs %c21, %c19
      %137 = arith.minsi %c527088365_i32, %c383367506_i32 : i32
      %138 = index.maxs %c4, %c23
      %139 = vector.broadcast %c10976_i16 : i16 to vector<16xi16>
      %140 = vector.transfer_write %139, %12[%c31, %c1, %c3] {permutation_map = affine_map<(d0, d1, d2) -> (d0)>} : vector<16xi16>, tensor<17x16x17xi16>
      %141 = arith.minsi %c-5165_i16, %c-5165_i16 : i16
      %142 = bufferization.clone %alloc_4 : memref<17x16x17xi32> to memref<17x16x17xi32>
      %143 = index.divu %c29, %c26
      %144 = math.log10 %3 : tensor<?x16xf16>
      %145 = arith.andi %false, %false : i1
      %146 = arith.xori %c1511750638_i32, %c1321462035_i32 : i32
      %147 = math.log1p %14 : tensor<16x17xf16>
      %148 = memref.load %alloc_9[%c9, %c9, %c10] : memref<17x16x17xi32>
      %149 = scf.parallel (%arg2) = (%c10) to (%c19) step (%c3) init (%9) -> tensor<?x16xi32> {
        %150 = math.log1p %14 : tensor<16x17xf16>
        %151 = index.castu %c1321462035_i32 : i32 to index
        %152 = index.shru %c25, %c20
        %153 = arith.negf %cst_0 : f32
        %expanded_20 = tensor.expand_shape %8 [[0, 1]] : tensor<17xi32> into tensor<17x1xi32>
        %154 = math.cttz %8 : tensor<17xi32>
        %155 = vector.multi_reduction <mul>, %17, %c1511750638_i32 [0] : vector<2xi32> to i32
        %alloca = memref.alloca(%143) : memref<?xf16>
        %156 = vector.insert %c527088365_i32, %17 [0] : i32 into vector<2xi32>
        %157 = arith.remf %cst, %cst_0 : f32
        %158 = vector.bitcast %139 : vector<16xi16> to vector<16xi16>
        %159 = bufferization.clone %alloc_4 : memref<17x16x17xi32> to memref<17x16x17xi32>
        %160 = vector.multi_reduction <add>, %139, %c-5165_i16 [0] : vector<16xi16> to i16
        %161 = index.floordivs %151, %138
        linalg.transpose ins(%alloc_16 : memref<?x?xf16>) outs(%alloc_16 : memref<?x?xf16>) permutation = [1, 0] 
        %162 = index.xor %c1, %c19
        scf.reduce(%9)  : tensor<?x16xi32> {
        ^bb0(%arg3: tensor<?x16xi32>, %arg4: tensor<?x16xi32>):
          %163 = vector.transfer_read %13[%151], %cst_1 : tensor<?xf16>, vector<f16>
          %164 = memref.load %alloc_6[%c0, %c0, %c8] : memref<?x?x17xf16>
          %165 = affine.max affine_map<(d0, d1, d2, d3)[s0] -> ((d3 - 1) mod 16 + 2)>(%c1, %c7, %c27, %136)[%152]
          %rank = tensor.rank %0 : tensor<16x17xi32>
          %166 = math.expm1 %11 : tensor<17xf16>
          %167 = math.log2 %1 : tensor<16x17xf32>
          %168 = index.or %161, %c4
          %169 = index.xor %c21, %arg2
          scf.reduce.return %9 : tensor<?x16xi32>
        }
        scf.yield
      }
    }
    %false_17 = index.bool.constant false
    %19 = index.mul %c10, %c23
    %20 = vector.create_mask %c26 : vector<17xi1>
    %21 = arith.shli %false_17, %true : i1
    affine.vector_store %17, %alloc_15[%c23, %c9, %c4] : memref<17x16x17xi32>, vector<2xi32>
    %22 = vector.insert %false_17, %20 [2] : i1 into vector<17xi1>
    %23 = spirv.ULessThanEqual %c527088365_i32, %c1321462035_i32 : i32
    %24 = vector.shuffle %20, %20 [2, 4, 5, 8, 13, 16, 18, 19, 21, 25, 27, 30, 31, 33] : vector<17xi1>, vector<17xi1>
    %25 = vector.splat %c20 : vector<10x16xindex>
    %26 = spirv.GL.Cos %cst_0 : f32
    %27 = math.rsqrt %7 : tensor<?x17xf16>
    %28 = arith.minui %c-5165_i16, %c-21738_i16 : i16
    %29 = spirv.GL.Acos %cst_1 : f16
    %30 = spirv.FOrdEqual %cst_0, %cst_0 : f32
    %31 = spirv.Unordered %29, %cst_1 : f16
    %32 = spirv.CL.round %cst_0 : f32
    %33 = spirv.Unordered %32, %cst_0 : f32
    %34 = arith.xori %c238821326_i64, %c329904959_i64 : i64
    %35 = spirv.CL.cos %cst_0 : f32
    %36 = spirv.CL.tanh %cst : f32
    %37 = scf.execute_region -> tensor<17x16x17xi1> {
      %133 = math.tan %4 : tensor<?xf16>
      %134 = math.roundeven %36 : f32
      %135 = math.ctpop %15 : tensor<10x16xi16>
      %alloc_20 = memref.alloc(%c19) : memref<?x16xf32>
      %136 = math.powf %26, %36 : f32
      %137 = vector.broadcast %26 : f32 to vector<16x17xf32>
      affine.store %false_17, %alloc_7[%c15, %c0] : memref<10x16xi1>
      %138 = scf.while (%arg2 = %30) : (i1) -> i1 {
        %148 = arith.addf %29, %cst_1 : f16
        %149 = index.castu %c31 : index to i32
        %150 = arith.cmpi sgt, %c1321462035_i32, %c383367506_i32 : i32
        %151 = vector.insert %c1511750638_i32, %17 [0] : i32 into vector<2xi32>
        %dim = tensor.dim %6, %c1 : tensor<?x17xi64>
        %152 = vector.transpose %20, [0] : vector<17xi1> to vector<17xi1>
        %153 = arith.ori %true, %23 : i1
        %154 = math.rsqrt %35 : f32
        scf.condition(%arg2) %33 : i1
      } do {
      ^bb0(%arg2: i1):
        %cst_23 = arith.constant 0.000000e+00 : f16
        %148 = vector.transfer_read %4[%arg0], %cst_23 : tensor<?xf16>, vector<f16>
        %149 = arith.muli %c-5165_i16, %c-21738_i16 : i16
        %collapsed_24 = tensor.collapse_shape %5 [[0, 1], [2]] : tensor<?x16x17xi16> into tensor<?x17xi16>
        %150 = math.exp %4 : tensor<?xf16>
        affine.vector_store %17, %alloc_9[%c2, %c6, %c6] : memref<17x16x17xi32>, vector<2xi32>
        %151 = arith.addf %36, %36 : f32
        %152 = memref.load %alloc_8[%c0, %c0, %c12] : memref<?x?x17xi32>
        %153 = math.log1p %3 : tensor<?x16xf16>
        %154 = vector.broadcast %26 : f32 to vector<17xf32>
        %155 = vector.insert %154, %137 [2] : vector<17xf32> into vector<16x17xf32>
        %alloca = memref.alloca() : memref<10x16xi32>
        %156 = math.ctlz %c1321462035_i32 : i32
        %157 = math.rsqrt %11 : tensor<17xf16>
        %158 = vector.insertelement %26, %154[%c27 : index] : vector<17xf32>
        %159 = math.ctlz %5 : tensor<?x16x17xi16>
        %160 = index.xor %19, %c20
        %161 = index.maxu %19, %c29
        scf.yield %31 : i1
      }
      %139 = arith.minsi %false_17, %false_17 : i1
      %140 = vector.matrix_multiply %17, %17 {lhs_columns = 2 : i32, lhs_rows = 1 : i32, rhs_columns = 1 : i32} : (vector<2xi32>, vector<2xi32>) -> vector<1xi32>
      %141 = arith.remf %cst_0, %cst : f32
      %collapsed = tensor.collapse_shape %12 [[0, 1], [2]] : tensor<17x16x17xi16> into tensor<272x17xi16>
      %142 = vector.broadcast %29 : f16 to vector<16xf16>
      vector.transfer_write %142, %alloc_10[%c2, %16] {permutation_map = affine_map<(d0, d1) -> (d0)>} : vector<16xf16>, memref<16x17xf16>
      %143 = arith.ori %false_17, %31 : i1
      %144 = arith.shrui %23, %true : i1
      %alloc_21 = memref.alloc(%c29) : memref<17x?xi1>
      %alloc_22 = memref.alloc(%c7) : memref<?xi1>
      %145 = tensor.empty(%c5) : tensor<17x?xi1>
      %146 = linalg.generic {indexing_maps = [affine_map<(d0, d1) -> (d0, d1)>, affine_map<(d0, d1) -> (d1)>, affine_map<(d0, d1) -> (d0, d1)>], iterator_types = ["parallel", "parallel"]} ins(%alloc_21, %alloc_22 : memref<17x?xi1>, memref<?xi1>) outs(%145 : tensor<17x?xi1>) {
      ^bb0(%in: i1, %in_23: i1, %out: i1):
        %148 = index.mul %c21, %c31
        linalg.yield %false_17 : i1
      } -> tensor<17x?xi1>
      %147 = tensor.empty() : tensor<17x16x17xi1>
      scf.yield %147 : tensor<17x16x17xi1>
    }
    %38 = index.castu %c27 : index to i32
    %39 = index.mul %c21, %c25
    %40 = spirv.GL.Pow %32, %cst_0 : f32
    %41 = spirv.GL.SSign %c10976_i16 : i16
    %42 = index.ceildivs %c1, %c28
    %43 = vector.shuffle %20, %20 [2, 5, 6, 8, 11, 13, 18, 20, 22, 27, 28, 31, 32] : vector<17xi1>, vector<17xi1>
    %44 = spirv.GL.Ceil %26 : f32
    %45 = math.powf %11, %11 : tensor<17xf16>
    %46 = spirv.LogicalNotEqual %23, %false_17 : i1
    %47 = math.log10 %cst : f32
    %48 = math.log1p %32 : f32
    %49 = affine.min affine_map<(d0, d1) -> (d1)>(%c20, %c10)
    %inserted = tensor.insert %c990472205_i64 into %10[%c1, %c11] : tensor<16x17xi64>
    %50 = index.shrs %19, %c2
    %51 = spirv.GL.FMix %32 : f32, %36 : f32, %44 : f32 -> f32
    %52 = spirv.SLessThan %c453217699_i64, %c990472205_i64 : i64
    %53 = spirv.INotEqual %c1511750638_i32, %c1511750638_i32 : i32
    %54 = bufferization.clone %alloc_15 : memref<17x16x17xi32> to memref<17x16x17xi32>
    %alloc_18 = memref.alloc(%c17) : memref<?x16xf16>
    %55 = arith.xori %c-21738_i16, %41 : i16
    %56 = scf.while (%arg2 = %20) : (vector<17xi1>) -> vector<17xi1> {
      %133 = affine.vector_load %alloc_8[%c15, %c18, %c26] : memref<?x?x17xi32>, vector<10xi32>
      memref.alloca_scope  {
        %141 = affine.apply affine_map<(d0, d1)[s0] -> (d1 + d0 - 16)>(%c24, %c27)[%c12]
        %142 = affine.max affine_map<(d0) -> ((-d0) mod 16)>(%c10)
        %143 = affine.vector_load %alloc_7[%c19, %c10] : memref<10x16xi1>, vector<10xi1>
        %alloc_20 = memref.alloc() : memref<17xi64>
        %144 = vector.broadcast %c238821326_i64 : i64 to vector<10x16xi64>
        %145 = vector.broadcast %53 : i1 to vector<10x16xi1>
        %146 = vector.broadcast %c383367506_i32 : i32 to vector<10x16xi32>
        %147 = vector.gather %alloc_20[%c2] [%146], %145, %144 : memref<17xi64>, vector<10x16xi32>, vector<10x16xi1>, vector<10x16xi64> into vector<10x16xi64>
        %148 = arith.remf %36, %cst : f32
        %149 = arith.ori %c383367506_i32, %c1321462035_i32 : i32
        %150 = vector.broadcast %c383367506_i32 : i32 to vector<16xi32>
        %151 = vector.insert %150, %146 [1] : vector<16xi32> into vector<10x16xi32>
        affine.store %cst_1, %alloc_13[%c9, %c29] : memref<?x17xf16>
        %152 = index.shrs %141, %c25
        %153 = index.or %c28, %42
        %154 = math.exp %1 : tensor<16x17xf32>
        %true_21 = arith.constant true
        %155 = arith.mulf %40, %40 : f32
        %156 = math.ctpop %2 : tensor<10x16xi32>
        %cast = memref.cast %alloc_7 : memref<10x16xi1> to memref<?x?xi1>
        %157 = math.ipowi %arg1, %arg1 : tensor<10x16xi64>
        %158 = math.log2 %7 : tensor<?x17xf16>
        memref.assume_alignment %alloc, 8 : memref<?x16xf32>
        %159 = math.exp %14 : tensor<16x17xf16>
        %160 = arith.ori %c527088365_i32, %c1511750638_i32 : i32
        %161 = index.shru %42, %39
        %162 = math.absi %33 : i1
        %163 = math.tan %13 : tensor<?xf16>
        %164 = math.absf %40 : f32
        %165 = index.ceildivs %39, %50
        %166 = vector.broadcast %33 : i1 to vector<10x16xi1>
        %167 = vector.extract_strided_slice %150 {offsets = [9], sizes = [2], strides = [1]} : vector<16xi32> to vector<2xi32>
        %168 = index.xor %c7, %c20
        %169 = math.absi %c527088365_i32 : i32
        vector.print %20 : vector<17xi1>
        %170 = math.absf %44 : f32
        %171 = arith.addf %cst_1, %cst_1 : f16
      }
      %134 = affine.apply affine_map<(d0, d1)[s0] -> (d1 + d0 - 16)>(%c8, %49)[%c1]
      %135 = vector.broadcast %false_17 : i1 to vector<16x17xi1>
      %136 = vector.broadcast %c1321462035_i32 : i32 to vector<16x17xi32>
      %137 = vector.gather %alloc_5[%19, %49] [%136], %135, %135 : memref<16x17xi1>, vector<16x17xi32>, vector<16x17xi1>, vector<16x17xi1> into vector<16x17xi1>
      %138 = scf.if %46 -> (memref<10x16xf16>) {
        %141 = tensor.empty() : tensor<10x16xf16>
        %142 = arith.remf %36, %44 : f32
        %collapsed = tensor.collapse_shape %2 [[0, 1]] : tensor<10x16xi32> into tensor<160xi32>
        %143 = arith.subi %46, %true : i1
        %cst_20 = arith.constant 0.000000e+00 : f16
        %144 = vector.transfer_read %4[%39], %cst_20 : tensor<?xf16>, vector<f16>
        %145 = arith.shrui %true, %33 : i1
        vector.print %20 : vector<17xi1>
        %146 = index.castu %c7 : index to i32
        %alloc_21 = memref.alloc() : memref<10x16xf16>
        scf.yield %alloc_21 : memref<10x16xf16>
      } else {
        %141 = math.log2 %44 : f32
        %false_20 = arith.constant false
        %142 = index.maxu %c0, %c7
        %143 = math.rsqrt %cst_0 : f32
        %144 = math.rsqrt %35 : f32
        %145 = affine.vector_load %alloc_10[%c4, %c0] : memref<16x17xf16>, vector<10xf16>
        %146 = arith.remsi %53, %31 : i1
        %147 = math.tan %14 : tensor<16x17xf16>
        %alloc_21 = memref.alloc() : memref<10x16xf16>
        scf.yield %alloc_21 : memref<10x16xf16>
      }
      %139 = math.fpowi %40, %c527088365_i32 : f32, i32
      %140 = math.atan %cst : f32
      %splat = tensor.splat %40 : tensor<17x16x17xf32>
      scf.condition(%53) %20 : vector<17xi1>
    } do {
    ^bb0(%arg2: vector<17xi1>):
      %133 = index.castu %c527088365_i32 : i32 to index
      %134 = vector.splat %c10 : vector<17xindex>
      %alloca = memref.alloca() : memref<17xf16>
      %135 = arith.ori %c329904959_i64, %c453217699_i64 : i64
      %136 = index.casts %c1 : index to i32
      %137 = scf.while (%arg3 = %20) : (vector<17xi1>) -> vector<17xi1> {
        %147 = vector.contract {indexing_maps = [affine_map<(d0) -> (d0)>, affine_map<(d0) -> (d0)>, affine_map<(d0) -> ()>], iterator_types = ["reduction"], kind = #vector.kind<mul>} %20, %20, %52 : vector<17xi1>, vector<17xi1> into i1
        %148 = vector.matrix_multiply %17, %17 {lhs_columns = 2 : i32, lhs_rows = 1 : i32, rhs_columns = 1 : i32} : (vector<2xi32>, vector<2xi32>) -> vector<1xi32>
        %inserted_21 = tensor.insert %29 into %13[%c0] : tensor<?xf16>
        %149 = math.tan %35 : f32
        %150 = arith.remf %40, %32 : f32
        %151 = vector.matrix_multiply %148, %148 {lhs_columns = 1 : i32, lhs_rows = 1 : i32, rhs_columns = 1 : i32} : (vector<1xi32>, vector<1xi32>) -> vector<1xi32>
        %152 = math.rsqrt %13 : tensor<?xf16>
        memref.assume_alignment %54, 16 : memref<17x16x17xi32>
        scf.condition(%23) %20 : vector<17xi1>
      } do {
      ^bb0(%arg3: vector<17xi1>):
        %147 = vector.bitcast %17 : vector<2xi32> to vector<2xi32>
        %rank = tensor.rank %12 : tensor<17x16x17xi16>
        %148 = vector.reduction <maxsi>, %17 : vector<2xi32> into i32
        %149 = math.exp2 %14 : tensor<16x17xf16>
        %150 = vector.insert %c527088365_i32, %147 [1] : i32 into vector<2xi32>
        %151 = arith.muli %31, %31 : i1
        %152 = index.floordivs %c25, %c17
        memref.assume_alignment %alloc_12, 16 : memref<?x16xf32>
        %153 = arith.remf %40, %40 : f32
        %154 = index.divu %c2, %c15
        %155 = vector.load %alloc[%c0, %c1] : memref<?x16xf32>, vector<17x16x17xf32>
        %156 = index.sub %c9, %c11
        %157 = index.castu %53 : i1 to index
        %158 = index.shru %c1, %arg0
        memref.assume_alignment %alloc_14, 8 : memref<17x16x17xi1>
        %159 = index.mul %156, %c9
        scf.yield %20 : vector<17xi1>
      }
      %alloc_20 = memref.alloc() : memref<17xi1>
      %138 = math.exp2 %4 : tensor<?xf16>
      %139 = tensor.empty() : tensor<17x16x17xi32>
      %140 = arith.cmpf ult, %cst, %36 : f32
      %141 = vector.shuffle %20, %20 [0, 1, 3, 4, 13, 14, 15, 19, 21, 25, 27, 30, 31, 33] : vector<17xi1>, vector<17xi1>
      %142 = math.log2 %7 : tensor<?x17xf16>
      %143 = math.roundeven %44 : f32
      %144 = index.shru %c30, %c22
      %145 = affine.apply affine_map<(d0, d1, d2) -> (d2 + 4)>(%c27, %c20, %19)
      %146 = vector.broadcast %33 : i1 to vector<2xi1>
      vector.compressstore %alloc_15[%c13, %c11, %c13], %146, %17 : memref<17x16x17xi32>, vector<2xi1>, vector<2xi32>
      scf.yield %20 : vector<17xi1>
    }
    %57 = spirv.CL.s_abs %c238821326_i64 : i64
    %58 = affine.min affine_map<(d0) -> (d0 - 32)>(%c23)
    %59 = arith.minsi %c453217699_i64, %c238821326_i64 : i64
    %60 = spirv.BitFieldUExtract %17, %57, %c329904959_i64 : vector<2xi32>, i64, i64
    %61 = spirv.CL.s_abs %57 : i64
    %62 = arith.shli %c990472205_i64, %57 : i64
    %63 = arith.ori %c1321462035_i32, %c383367506_i32 : i32
    %64 = spirv.LogicalNot %31 : i1
    %65 = spirv.CL.s_min %c383367506_i32, %c1321462035_i32 : i32
    %66 = spirv.GL.FClamp %cst_0, %cst_0, %cst_0 : f32
    %67 = spirv.CL.floor %26 : f32
    %68 = affine.apply affine_map<(d0, d1, d2, d3)[s0] -> ((d3 - 1) mod 16 + 2)>(%c21, %c13, %19, %c22)[%c23]
    %69 = tensor.empty() : tensor<10x16xi32>
    %70 = math.cos %1 : tensor<16x17xf32>
    %71 = index.add %c26, %arg0
    affine.vector_store %17, %alloc_9[%c2, %c12, %49] : memref<17x16x17xi32>, vector<2xi32>
    %72 = math.log %11 : tensor<17xf16>
    %73 = spirv.UGreaterThan %61, %c990472205_i64 : i64
    %74 = vector.matrix_multiply %17, %17 {lhs_columns = 2 : i32, lhs_rows = 1 : i32, rhs_columns = 1 : i32} : (vector<2xi32>, vector<2xi32>) -> vector<1xi32>
    %75 = spirv.BitFieldInsert %17, %17, %c329904959_i64, %c990472205_i64 : vector<2xi32>, i64, i64
    %76 = math.round %26 : f32
    memref.copy %alloc_7, %alloc_7 : memref<10x16xi1> to memref<10x16xi1>
    %77 = spirv.GL.Ldexp %66 : f32, %c-5165_i16 : i16 -> f32
    %78 = arith.shrui %c329904959_i64, %c453217699_i64 : i64
    %79 = spirv.BitwiseXor %17, %17 : vector<2xi32>
    %alloc_19 = memref.alloc() : memref<17xi32>
    %80 = arith.xori %false, %52 : i1
    %81 = spirv.GL.RoundEven %35 : f32
    %82 = vector.insert %46, %20 [15] : i1 into vector<17xi1>
    %83 = arith.addi %41, %41 : i16
    %84 = spirv.BitFieldSExtract %17, %41, %c238821326_i64 : vector<2xi32>, i16, i64
    %85 = scf.execute_region -> index {
      %133 = index.maxu %c20, %c27
      %134 = scf.while (%arg2 = %73) : (i1) -> i1 {
        %146 = affine.apply affine_map<(d0, d1, d2) -> (d2 + 4)>(%71, %49, %16)
        %147 = vector.transfer_read %alloc_10[%c9, %c2], %cst_1 : memref<16x17xf16>, vector<f16>
        %148 = memref.load %alloc_2[%c0] : memref<?xf32>
        %149 = arith.minsi %c10976_i16, %41 : i16
        %150 = affine.max affine_map<(d0, d1, d2)[s0] -> (d2)>(%c0, %c17, %c11)[%c25]
        %151 = vector.multi_reduction <minsi>, %20, %73 [0] : vector<17xi1> to i1
        affine.vector_store %20, %alloc_7[%c24, %c2] : memref<10x16xi1>, vector<17xi1>
        %152 = vector.insert %65, %74 [0] : i32 into vector<1xi32>
        scf.condition(%46) %52 : i1
      } do {
      ^bb0(%arg2: i1):
        %146 = math.tanh %7 : tensor<?x17xf16>
        affine.vector_store %74, %alloc_4[%50, %c14, %39] : memref<17x16x17xi32>, vector<1xi32>
        %from_elements = tensor.from_elements %c527088365_i32, %c1511750638_i32, %c1321462035_i32, %c527088365_i32, %c527088365_i32, %c1511750638_i32, %65, %c1511750638_i32, %c1511750638_i32, %c527088365_i32, %c527088365_i32, %c1321462035_i32, %c383367506_i32, %c383367506_i32, %65, %c1511750638_i32, %c1511750638_i32, %65, %c1321462035_i32, %c383367506_i32, %65, %c383367506_i32, %c383367506_i32, %c1511750638_i32, %c1511750638_i32, %c383367506_i32, %65, %c1321462035_i32, %c1511750638_i32, %c1321462035_i32, %c1511750638_i32, %c383367506_i32, %c1511750638_i32, %c527088365_i32, %c1321462035_i32, %c1321462035_i32, %65, %c1511750638_i32, %c1321462035_i32, %65, %65, %65, %c383367506_i32, %c383367506_i32, %c1321462035_i32, %65, %c527088365_i32, %c527088365_i32, %c527088365_i32, %c383367506_i32, %c1511750638_i32, %c383367506_i32, %c527088365_i32, %c527088365_i32, %c1511750638_i32, %c383367506_i32, %c527088365_i32, %65, %65, %c527088365_i32, %c1511750638_i32, %c1321462035_i32, %65, %c383367506_i32, %c1511750638_i32, %65, %c1321462035_i32, %c383367506_i32, %c527088365_i32, %65, %c1321462035_i32, %c1321462035_i32, %c527088365_i32, %c383367506_i32, %c1321462035_i32, %65, %c383367506_i32, %c383367506_i32, %c527088365_i32, %c383367506_i32, %c1321462035_i32, %c1321462035_i32, %c1321462035_i32, %c527088365_i32, %c1511750638_i32, %65, %c1321462035_i32, %c383367506_i32, %c527088365_i32, %c1511750638_i32, %c1511750638_i32, %65, %c383367506_i32, %c383367506_i32, %c527088365_i32, %c527088365_i32, %c1511750638_i32, %c1321462035_i32, %c1321462035_i32, %c1321462035_i32, %65, %c1511750638_i32, %c1321462035_i32, %c527088365_i32, %c383367506_i32, %65, %65, %c383367506_i32, %c1511750638_i32, %c1511750638_i32, %c383367506_i32, %c1321462035_i32, %c1321462035_i32, %c1321462035_i32, %c527088365_i32, %65, %c527088365_i32, %c1511750638_i32, %65, %c1321462035_i32, %c383367506_i32, %65, %c1321462035_i32, %c527088365_i32, %65, %c1321462035_i32, %c383367506_i32, %c1511750638_i32, %c1321462035_i32, %c1321462035_i32, %c1321462035_i32, %c1321462035_i32, %c383367506_i32, %65, %c527088365_i32, %c527088365_i32, %c1321462035_i32, %65, %65, %c1511750638_i32, %c527088365_i32, %c527088365_i32, %65, %c1511750638_i32, %c527088365_i32, %65, %c1511750638_i32, %c1321462035_i32, %c383367506_i32, %c383367506_i32, %c383367506_i32, %c1511750638_i32, %c383367506_i32, %c1321462035_i32, %c527088365_i32, %c1511750638_i32, %c527088365_i32, %c527088365_i32, %c1321462035_i32, %c527088365_i32, %65, %65, %c1321462035_i32, %c527088365_i32, %c527088365_i32, %65, %c1321462035_i32, %c1511750638_i32, %c1511750638_i32, %c1321462035_i32, %c383367506_i32, %65, %c1511750638_i32, %c383367506_i32, %c1511750638_i32, %c1511750638_i32, %65, %c1321462035_i32, %c383367506_i32, %c527088365_i32, %c527088365_i32, %c383367506_i32, %65, %65, %65, %65, %c1511750638_i32, %c383367506_i32, %65, %c527088365_i32, %c527088365_i32, %c527088365_i32, %c1321462035_i32, %c1321462035_i32, %65, %c1321462035_i32, %c383367506_i32, %c1511750638_i32, %c527088365_i32, %65, %c1511750638_i32, %c1321462035_i32, %c527088365_i32, %c527088365_i32, %c527088365_i32, %c1321462035_i32, %c383367506_i32, %c1511750638_i32, %c383367506_i32, %c1511750638_i32, %c1321462035_i32, %c383367506_i32, %c1511750638_i32, %c383367506_i32, %c527088365_i32, %c527088365_i32, %c527088365_i32, %c527088365_i32, %c383367506_i32, %65, %c1511750638_i32, %c383367506_i32, %c1321462035_i32, %c383367506_i32, %c527088365_i32, %c527088365_i32, %65, %c1511750638_i32, %c1321462035_i32, %c1511750638_i32, %c1321462035_i32, %c1511750638_i32, %c527088365_i32, %65, %c527088365_i32, %c383367506_i32, %65, %c383367506_i32, %c383367506_i32, %c1511750638_i32, %c1321462035_i32, %c383367506_i32, %c527088365_i32, %c1511750638_i32, %65, %65, %c1321462035_i32, %c1511750638_i32, %c1511750638_i32, %c383367506_i32, %c1511750638_i32, %c1511750638_i32, %c1321462035_i32, %c383367506_i32, %c383367506_i32, %c383367506_i32, %65, %c527088365_i32, %65, %65, %65, %c1511750638_i32, %c1321462035_i32, %c527088365_i32, %65, %c383367506_i32, %c1511750638_i32, %c1511750638_i32, %c527088365_i32, %65, %c383367506_i32, %65, %65, %c1321462035_i32, %c1321462035_i32, %c1511750638_i32, %65, %c1321462035_i32, %65, %c383367506_i32, %c527088365_i32, %c527088365_i32, %c1321462035_i32, %c1321462035_i32, %c527088365_i32, %c383367506_i32, %c527088365_i32, %65, %65, %c1511750638_i32, %c1511750638_i32, %c383367506_i32, %c383367506_i32, %c1321462035_i32, %c1321462035_i32, %c1321462035_i32, %c1511750638_i32, %c527088365_i32, %c1511750638_i32, %c383367506_i32, %c527088365_i32, %65, %65, %c1511750638_i32, %c383367506_i32, %c1321462035_i32, %c1511750638_i32, %c527088365_i32, %65, %c1321462035_i32, %c1321462035_i32, %c1511750638_i32, %65, %c1321462035_i32, %c1511750638_i32, %c383367506_i32, %65, %c383367506_i32, %c1321462035_i32, %c527088365_i32, %c383367506_i32, %c527088365_i32, %c1511750638_i32, %c1321462035_i32, %c527088365_i32, %c383367506_i32, %c527088365_i32, %c527088365_i32, %c1511750638_i32, %c1511750638_i32, %c1321462035_i32, %c1511750638_i32, %c1321462035_i32, %c1321462035_i32, %c383367506_i32, %c1511750638_i32, %c383367506_i32, %c1321462035_i32, %c527088365_i32, %c527088365_i32, %c1511750638_i32, %c527088365_i32, %65, %65, %65, %c1321462035_i32, %c1511750638_i32, %c1511750638_i32, %65, %c1511750638_i32, %65, %65, %c527088365_i32, %65, %65, %c1511750638_i32, %c383367506_i32, %c1321462035_i32, %c527088365_i32, %c527088365_i32, %65, %65, %c383367506_i32, %c1511750638_i32, %c1321462035_i32, %c527088365_i32, %65, %c1511750638_i32, %c1321462035_i32, %c527088365_i32, %c1321462035_i32, %c1321462035_i32, %c527088365_i32, %c1321462035_i32, %c1321462035_i32, %c527088365_i32, %c383367506_i32, %c383367506_i32, %c527088365_i32, %c1511750638_i32, %c1511750638_i32, %c527088365_i32, %65, %c1321462035_i32, %c383367506_i32, %c527088365_i32, %c383367506_i32, %c1511750638_i32, %65, %c1321462035_i32, %c527088365_i32, %c527088365_i32, %c1321462035_i32, %c1511750638_i32, %c1511750638_i32, %c527088365_i32, %c1321462035_i32, %c527088365_i32, %c1321462035_i32, %c1511750638_i32, %c383367506_i32, %c1511750638_i32, %c383367506_i32, %c527088365_i32, %c383367506_i32, %c1511750638_i32, %c1511750638_i32, %c1321462035_i32, %c1511750638_i32, %c527088365_i32, %c383367506_i32, %c1511750638_i32, %c1321462035_i32, %c1511750638_i32, %c383367506_i32, %c1511750638_i32, %c527088365_i32, %c527088365_i32, %c1511750638_i32, %c527088365_i32, %65, %c527088365_i32, %c527088365_i32, %65, %c527088365_i32, %c383367506_i32, %c383367506_i32, %c383367506_i32, %c1511750638_i32, %c527088365_i32, %65, %c1321462035_i32, %c383367506_i32, %c1511750638_i32, %65, %c1511750638_i32, %c1511750638_i32, %c383367506_i32, %c527088365_i32, %c1321462035_i32, %65, %c383367506_i32, %c383367506_i32, %65, %c527088365_i32, %c1321462035_i32, %65, %c1321462035_i32, %65, %c1511750638_i32, %c1321462035_i32, %c1321462035_i32, %65, %c527088365_i32, %65, %65, %c1511750638_i32, %65, %c527088365_i32, %c527088365_i32, %c1321462035_i32, %c527088365_i32, %c527088365_i32, %c1511750638_i32, %c527088365_i32, %c383367506_i32, %c527088365_i32, %c527088365_i32, %c527088365_i32, %c1321462035_i32, %c527088365_i32, %65, %c1511750638_i32, %c527088365_i32, %c1321462035_i32, %c1511750638_i32, %65, %c383367506_i32, %65, %c383367506_i32, %c383367506_i32, %c383367506_i32, %c527088365_i32, %c1511750638_i32, %c1321462035_i32, %c383367506_i32, %c1321462035_i32, %65, %c383367506_i32, %c1511750638_i32, %c1511750638_i32, %c383367506_i32, %c1511750638_i32, %65, %c1321462035_i32, %c1511750638_i32, %c383367506_i32, %c1321462035_i32, %c383367506_i32, %c527088365_i32, %c383367506_i32, %c383367506_i32, %65, %c1321462035_i32, %c383367506_i32, %65, %c1321462035_i32, %c383367506_i32, %c1511750638_i32, %c1511750638_i32, %65, %c1511750638_i32, %c383367506_i32, %c1511750638_i32, %65, %c1321462035_i32, %65, %65, %c1321462035_i32, %c1321462035_i32, %c527088365_i32, %65, %c1321462035_i32, %c383367506_i32, %c1511750638_i32, %c1321462035_i32, %65, %c1321462035_i32, %c383367506_i32, %65, %c383367506_i32, %c383367506_i32, %c527088365_i32, %c1511750638_i32, %c1511750638_i32, %c383367506_i32, %65, %65, %c383367506_i32, %c527088365_i32, %c1511750638_i32, %c383367506_i32, %c1511750638_i32, %c1511750638_i32, %c1321462035_i32, %c383367506_i32, %c1511750638_i32, %c1511750638_i32, %c527088365_i32, %c383367506_i32, %c527088365_i32, %c527088365_i32, %65, %c1321462035_i32, %c1511750638_i32, %c383367506_i32, %65, %65, %c1511750638_i32, %c1511750638_i32, %c1321462035_i32, %c383367506_i32, %c527088365_i32, %c1511750638_i32, %c1511750638_i32, %c383367506_i32, %65, %65, %c527088365_i32, %c1511750638_i32, %c383367506_i32, %c383367506_i32, %c383367506_i32, %c383367506_i32, %c383367506_i32, %c527088365_i32, %c383367506_i32, %65, %c1511750638_i32, %65, %c1511750638_i32, %c383367506_i32, %65, %c527088365_i32, %65, %65, %65, %c527088365_i32, %c1511750638_i32, %c527088365_i32, %c1511750638_i32, %c1511750638_i32, %c1511750638_i32, %c1511750638_i32, %c527088365_i32, %c1321462035_i32, %c1321462035_i32, %c1511750638_i32, %c1511750638_i32, %c1321462035_i32, %c527088365_i32, %65, %c527088365_i32, %c527088365_i32, %65, %65, %65, %65, %c1511750638_i32, %65, %c1321462035_i32, %c1321462035_i32, %65, %c383367506_i32, %c1321462035_i32, %c383367506_i32, %c1321462035_i32, %65, %c383367506_i32, %65, %c1511750638_i32, %c1511750638_i32, %65, %c1511750638_i32, %65, %c527088365_i32, %c1511750638_i32, %c1511750638_i32, %65, %c1511750638_i32, %c527088365_i32, %c1321462035_i32, %c383367506_i32, %65, %c1511750638_i32, %65, %c527088365_i32, %c527088365_i32, %65, %65, %c1511750638_i32, %c527088365_i32, %c527088365_i32, %65, %c383367506_i32, %c527088365_i32, %65, %65, %c1511750638_i32, %c383367506_i32, %65, %c1321462035_i32, %c1321462035_i32, %c383367506_i32, %c527088365_i32, %c527088365_i32, %c1511750638_i32, %c1321462035_i32, %c527088365_i32, %c383367506_i32, %65, %c383367506_i32, %c383367506_i32, %65, %c383367506_i32, %c1321462035_i32, %65, %c1511750638_i32, %c527088365_i32, %65, %65, %c383367506_i32, %c383367506_i32, %65, %c527088365_i32, %c383367506_i32, %c1321462035_i32, %c1511750638_i32, %c1321462035_i32, %65, %c383367506_i32, %c527088365_i32, %c527088365_i32, %c1321462035_i32, %c1511750638_i32, %c1511750638_i32, %c527088365_i32, %c1321462035_i32, %c527088365_i32, %c383367506_i32, %c527088365_i32, %c1321462035_i32, %c1321462035_i32, %c527088365_i32, %c383367506_i32, %c1321462035_i32, %c383367506_i32, %c383367506_i32, %c1321462035_i32, %c383367506_i32, %c527088365_i32, %c1321462035_i32, %c383367506_i32, %c1511750638_i32, %c527088365_i32, %c1511750638_i32, %c1511750638_i32, %c1511750638_i32, %c527088365_i32, %c1511750638_i32, %65, %65, %c527088365_i32, %c527088365_i32, %c1321462035_i32, %c383367506_i32, %65, %c1511750638_i32, %c527088365_i32, %65, %c1511750638_i32, %65, %65, %c1511750638_i32, %c1321462035_i32, %65, %c527088365_i32, %65, %c1321462035_i32, %c1321462035_i32, %c1511750638_i32, %65, %c383367506_i32, %c1511750638_i32, %c383367506_i32, %c527088365_i32, %c527088365_i32, %65, %65, %c1321462035_i32, %c527088365_i32, %c527088365_i32, %65, %c383367506_i32, %c527088365_i32, %65, %c1321462035_i32, %65, %c1321462035_i32, %c383367506_i32, %c1321462035_i32, %65, %c383367506_i32, %c1511750638_i32, %c1321462035_i32, %c1511750638_i32, %c527088365_i32, %65, %c1321462035_i32, %c383367506_i32, %c527088365_i32, %c527088365_i32, %c383367506_i32, %c383367506_i32, %c383367506_i32, %c527088365_i32, %c527088365_i32, %c1321462035_i32, %c527088365_i32, %65, %65, %65, %c1321462035_i32, %c1321462035_i32, %65, %65, %c527088365_i32, %c527088365_i32, %c1321462035_i32, %c1321462035_i32, %65, %c383367506_i32, %65, %c383367506_i32, %c527088365_i32, %c383367506_i32, %c383367506_i32, %c1511750638_i32, %c383367506_i32, %c1511750638_i32, %c1511750638_i32, %65, %65, %c1321462035_i32, %c1511750638_i32, %c1511750638_i32, %c1511750638_i32, %c383367506_i32, %c1321462035_i32, %c383367506_i32, %c383367506_i32, %65, %65, %c1321462035_i32, %c383367506_i32, %c527088365_i32, %c1511750638_i32, %c527088365_i32, %65, %65, %c1321462035_i32, %c1321462035_i32, %65, %c1511750638_i32, %65, %c1321462035_i32, %c383367506_i32, %65, %65, %c527088365_i32, %65, %c1511750638_i32, %65, %65, %c383367506_i32, %c383367506_i32, %65, %65, %c527088365_i32, %c1321462035_i32, %c1511750638_i32, %c383367506_i32, %c383367506_i32, %c527088365_i32, %c527088365_i32, %c383367506_i32, %c1511750638_i32, %c527088365_i32, %c1511750638_i32, %c1511750638_i32, %c383367506_i32, %65, %c527088365_i32, %c1511750638_i32, %c383367506_i32, %65, %65, %c527088365_i32, %c1511750638_i32, %c1321462035_i32, %c527088365_i32, %65, %c527088365_i32, %c1321462035_i32, %65, %c383367506_i32, %c383367506_i32, %c1321462035_i32, %65, %65, %c527088365_i32, %65, %c1511750638_i32, %65, %c1321462035_i32, %c527088365_i32, %c383367506_i32, %c527088365_i32, %c383367506_i32, %65, %c383367506_i32, %c1511750638_i32, %c1321462035_i32, %c527088365_i32, %c1321462035_i32, %c1321462035_i32, %65, %c1511750638_i32, %c1321462035_i32, %c1511750638_i32, %65, %c527088365_i32, %65, %c1511750638_i32, %c383367506_i32, %c1511750638_i32, %c527088365_i32, %65, %c527088365_i32, %c1321462035_i32, %c1321462035_i32, %c1321462035_i32, %c1321462035_i32, %c1511750638_i32, %c383367506_i32, %c1321462035_i32, %c383367506_i32, %c1511750638_i32, %c383367506_i32, %c1511750638_i32, %65, %c1511750638_i32, %c383367506_i32, %c1321462035_i32, %c383367506_i32, %c1321462035_i32, %c1511750638_i32, %65, %c527088365_i32, %c1321462035_i32, %c1321462035_i32, %65, %c1511750638_i32, %c527088365_i32, %65, %c383367506_i32, %c527088365_i32, %c1511750638_i32, %c527088365_i32, %c1511750638_i32, %c1511750638_i32, %c1321462035_i32, %c527088365_i32, %65, %c1511750638_i32, %c383367506_i32, %c1321462035_i32, %c527088365_i32, %c1511750638_i32, %65, %c1511750638_i32, %c383367506_i32, %c1321462035_i32, %c1321462035_i32, %c1321462035_i32, %c527088365_i32, %c1321462035_i32, %c383367506_i32, %c383367506_i32, %c1511750638_i32, %c1321462035_i32, %c1511750638_i32, %c527088365_i32, %c1511750638_i32, %c383367506_i32, %c527088365_i32, %c1321462035_i32, %c527088365_i32, %c383367506_i32, %c1511750638_i32, %c527088365_i32, %c527088365_i32, %c1321462035_i32, %65, %c1321462035_i32, %c1321462035_i32, %c1321462035_i32, %c527088365_i32, %c527088365_i32, %c383367506_i32, %65, %c527088365_i32, %c383367506_i32, %c1511750638_i32, %c1321462035_i32, %65, %c1321462035_i32, %65, %c1321462035_i32, %c527088365_i32, %c1321462035_i32, %c383367506_i32, %c1321462035_i32, %c527088365_i32, %c1511750638_i32, %c527088365_i32, %c383367506_i32, %c383367506_i32, %c1321462035_i32, %c527088365_i32, %c1511750638_i32, %c1321462035_i32, %c1321462035_i32, %c383367506_i32, %c383367506_i32, %c383367506_i32, %c1511750638_i32, %c1511750638_i32, %c1321462035_i32, %c1321462035_i32, %c383367506_i32, %c1511750638_i32, %c1321462035_i32, %c1321462035_i32, %c1511750638_i32, %c527088365_i32, %c383367506_i32, %c1511750638_i32, %c527088365_i32, %c527088365_i32, %c1321462035_i32, %c1511750638_i32, %c1511750638_i32, %c527088365_i32, %c383367506_i32, %c383367506_i32, %65, %c1321462035_i32, %c527088365_i32, %65, %c527088365_i32, %c1321462035_i32, %c527088365_i32, %c1511750638_i32, %c1511750638_i32, %c1321462035_i32, %c527088365_i32, %c383367506_i32, %65, %65, %c527088365_i32, %c1321462035_i32, %65, %c527088365_i32, %c1321462035_i32, %c527088365_i32, %c1321462035_i32, %c1321462035_i32, %c527088365_i32, %c1321462035_i32, %c1321462035_i32, %c383367506_i32, %65, %c1511750638_i32, %c383367506_i32, %c527088365_i32, %65, %c1511750638_i32, %c1511750638_i32, %c1321462035_i32, %c527088365_i32, %c383367506_i32, %c1321462035_i32, %65, %c383367506_i32, %c527088365_i32, %c527088365_i32, %c1321462035_i32, %c1321462035_i32, %c527088365_i32, %c383367506_i32, %c1511750638_i32, %c1511750638_i32, %c527088365_i32, %c1321462035_i32, %c383367506_i32, %65, %c527088365_i32, %c527088365_i32, %65, %c1511750638_i32, %c1511750638_i32, %c1511750638_i32, %c383367506_i32, %c527088365_i32, %c527088365_i32, %c1321462035_i32, %c1511750638_i32, %65, %c1321462035_i32, %c383367506_i32, %c527088365_i32, %c383367506_i32, %c1321462035_i32, %c1321462035_i32, %c1511750638_i32, %65, %65, %65, %c1321462035_i32, %65, %c1321462035_i32, %c383367506_i32, %c383367506_i32, %65, %c527088365_i32, %65, %c383367506_i32, %c1511750638_i32, %c1511750638_i32, %c1321462035_i32, %65, %c383367506_i32, %c1511750638_i32, %c1511750638_i32, %c383367506_i32, %c1321462035_i32, %c1511750638_i32, %c1511750638_i32, %c383367506_i32, %c1511750638_i32, %c1511750638_i32, %c1321462035_i32, %c383367506_i32, %65, %c527088365_i32, %c527088365_i32, %65, %c1511750638_i32, %c1511750638_i32, %c527088365_i32, %65, %c1511750638_i32, %65, %65, %c1321462035_i32, %c527088365_i32, %65, %c383367506_i32, %c383367506_i32, %c1321462035_i32, %65, %c383367506_i32, %65, %65, %c1511750638_i32, %65, %c1321462035_i32, %c1321462035_i32, %c383367506_i32, %65, %65, %c1321462035_i32, %c1321462035_i32, %c383367506_i32, %c1321462035_i32, %c527088365_i32, %65, %c1511750638_i32, %65, %c1321462035_i32, %c1321462035_i32, %c383367506_i32, %c527088365_i32, %c1321462035_i32, %c383367506_i32, %c1321462035_i32, %c1321462035_i32, %c1511750638_i32, %c1321462035_i32, %c527088365_i32, %c383367506_i32, %c527088365_i32, %c527088365_i32, %c383367506_i32, %c1511750638_i32, %c1321462035_i32, %c1511750638_i32, %65, %65, %c383367506_i32, %c1511750638_i32, %c527088365_i32, %c527088365_i32, %c1511750638_i32, %c1511750638_i32, %c383367506_i32, %c527088365_i32, %c527088365_i32, %c383367506_i32, %c527088365_i32, %c527088365_i32, %c1321462035_i32, %c1321462035_i32, %65, %c1511750638_i32, %65, %c1321462035_i32, %c1511750638_i32, %c383367506_i32, %c383367506_i32, %c1321462035_i32, %65, %c383367506_i32, %c527088365_i32, %c527088365_i32, %c1321462035_i32, %c1511750638_i32, %c1511750638_i32, %65, %c1321462035_i32, %c1511750638_i32, %c383367506_i32, %c383367506_i32, %c383367506_i32, %c527088365_i32, %65, %c1321462035_i32, %65, %c1511750638_i32, %c1321462035_i32, %c1511750638_i32, %c1511750638_i32, %65, %65, %c1321462035_i32, %65, %c1511750638_i32, %c383367506_i32, %c383367506_i32, %c1321462035_i32, %c1511750638_i32, %c1511750638_i32, %c1511750638_i32, %c383367506_i32, %65, %c527088365_i32, %c1511750638_i32, %c1321462035_i32, %c527088365_i32, %c527088365_i32, %c1511750638_i32, %65, %c1511750638_i32, %65, %65, %c527088365_i32, %c383367506_i32, %c1511750638_i32, %c1511750638_i32, %c1511750638_i32, %65, %c383367506_i32, %65, %c1321462035_i32, %c383367506_i32, %c1511750638_i32, %c527088365_i32, %c1511750638_i32, %c1511750638_i32, %c527088365_i32, %c527088365_i32, %65, %c1321462035_i32, %65, %c1511750638_i32, %c1321462035_i32, %c1321462035_i32, %c1321462035_i32, %c1321462035_i32, %65, %c527088365_i32, %c527088365_i32, %65, %c1511750638_i32, %c383367506_i32, %65, %c1511750638_i32, %65, %c1321462035_i32, %c1321462035_i32, %c383367506_i32, %c1511750638_i32, %c1511750638_i32, %c1511750638_i32, %c1511750638_i32, %c1511750638_i32, %c527088365_i32, %c1321462035_i32, %c527088365_i32, %c1321462035_i32, %65, %65, %c1321462035_i32, %65, %c1321462035_i32, %65, %c527088365_i32, %c1511750638_i32, %65, %c1321462035_i32, %c383367506_i32, %c1321462035_i32, %c1511750638_i32, %c1511750638_i32, %c527088365_i32, %c1511750638_i32, %c527088365_i32, %65, %65, %65, %c527088365_i32, %c1321462035_i32, %65, %c527088365_i32, %c1321462035_i32, %c383367506_i32, %c383367506_i32, %c1321462035_i32, %c527088365_i32, %65, %c1321462035_i32, %65, %65, %c383367506_i32, %c1511750638_i32, %c1511750638_i32, %65, %c1511750638_i32, %c1321462035_i32, %c383367506_i32, %c527088365_i32, %65, %c527088365_i32, %c527088365_i32, %65, %65, %c1511750638_i32, %c1321462035_i32, %c527088365_i32, %c1511750638_i32, %65, %c383367506_i32, %c527088365_i32, %c1511750638_i32, %65, %c527088365_i32, %c383367506_i32, %c1511750638_i32, %c1511750638_i32, %c527088365_i32, %c1321462035_i32, %c1321462035_i32, %c1321462035_i32, %c1321462035_i32, %65, %c383367506_i32, %c383367506_i32, %c1511750638_i32, %c527088365_i32, %c383367506_i32, %c527088365_i32, %c1511750638_i32, %c383367506_i32, %c527088365_i32, %65, %65, %c383367506_i32, %65, %c527088365_i32, %c1321462035_i32, %65, %c1511750638_i32, %c383367506_i32, %c1321462035_i32, %65, %c527088365_i32, %c527088365_i32, %c383367506_i32, %c1321462035_i32, %c1321462035_i32, %65, %c1511750638_i32, %c527088365_i32, %c1511750638_i32, %c1511750638_i32, %65, %c527088365_i32, %c1321462035_i32, %c1321462035_i32, %c1511750638_i32, %c383367506_i32, %c1511750638_i32, %65, %c1321462035_i32, %65, %c1511750638_i32, %c1321462035_i32, %c1321462035_i32, %c527088365_i32, %65, %c527088365_i32, %c383367506_i32, %c383367506_i32, %c1321462035_i32, %c1511750638_i32, %c1321462035_i32, %c1511750638_i32, %c383367506_i32, %c1321462035_i32, %c383367506_i32, %c527088365_i32, %65, %c1511750638_i32, %c527088365_i32, %c527088365_i32, %65, %c383367506_i32, %c383367506_i32, %c383367506_i32, %c527088365_i32, %c1321462035_i32, %c527088365_i32, %c383367506_i32, %c383367506_i32, %65, %65, %c1511750638_i32, %c1511750638_i32, %65, %c1321462035_i32, %c1321462035_i32, %c1321462035_i32, %c527088365_i32, %c527088365_i32, %65, %65, %c383367506_i32, %65, %c1511750638_i32, %c1321462035_i32, %c1511750638_i32, %65, %65, %c383367506_i32, %c1511750638_i32, %c1321462035_i32, %c527088365_i32, %c527088365_i32, %c1511750638_i32, %c383367506_i32, %c527088365_i32, %65, %c527088365_i32, %c1511750638_i32, %c1321462035_i32, %c1321462035_i32, %c383367506_i32, %c527088365_i32, %c383367506_i32, %c527088365_i32, %65, %c1511750638_i32, %65, %c383367506_i32, %65, %c1511750638_i32, %c1321462035_i32, %c383367506_i32, %c383367506_i32, %65, %65, %c1321462035_i32, %c383367506_i32, %c1511750638_i32, %c1321462035_i32, %c1321462035_i32, %c527088365_i32, %c383367506_i32, %c1321462035_i32, %c383367506_i32, %c1511750638_i32, %65, %c1321462035_i32, %c527088365_i32, %65, %c383367506_i32, %65, %c1321462035_i32, %c527088365_i32, %c383367506_i32, %65, %c1511750638_i32, %c383367506_i32, %c1321462035_i32, %c1511750638_i32, %65, %c1321462035_i32, %c383367506_i32, %c527088365_i32, %c1321462035_i32, %c527088365_i32, %c1321462035_i32, %c1511750638_i32, %65, %c1321462035_i32, %c527088365_i32, %c527088365_i32, %c527088365_i32, %c1511750638_i32, %c1511750638_i32, %c527088365_i32, %c527088365_i32, %c1321462035_i32, %65, %c1511750638_i32, %65, %c1321462035_i32, %c527088365_i32, %c527088365_i32, %c383367506_i32, %c1511750638_i32, %c527088365_i32, %c1511750638_i32, %c1511750638_i32, %c1511750638_i32, %c527088365_i32, %c1511750638_i32, %65, %c383367506_i32, %65, %c1321462035_i32, %65, %c527088365_i32, %c1511750638_i32, %65, %c1511750638_i32, %c1511750638_i32, %c1321462035_i32, %c527088365_i32, %c1511750638_i32, %c527088365_i32, %c1511750638_i32, %c1511750638_i32, %c527088365_i32, %c1321462035_i32, %c527088365_i32, %65, %c1511750638_i32, %65, %c1511750638_i32, %c527088365_i32, %c1511750638_i32, %c1511750638_i32, %c527088365_i32, %c383367506_i32, %65, %c1321462035_i32, %c527088365_i32, %c383367506_i32, %c1511750638_i32, %c1511750638_i32, %c1321462035_i32, %c1511750638_i32, %c383367506_i32, %c1321462035_i32, %c527088365_i32, %c383367506_i32, %c527088365_i32, %c383367506_i32, %c383367506_i32, %c1321462035_i32, %65, %65, %65, %c383367506_i32, %c1321462035_i32, %c1511750638_i32, %c1511750638_i32, %c383367506_i32, %c1321462035_i32, %c383367506_i32, %65, %c383367506_i32, %c1511750638_i32, %c1321462035_i32, %c1321462035_i32, %c1321462035_i32, %c383367506_i32, %65, %c1321462035_i32, %c1321462035_i32, %c1321462035_i32, %c1321462035_i32, %c1321462035_i32, %c1321462035_i32, %c1511750638_i32, %c1511750638_i32, %c1511750638_i32, %65, %65, %65, %c527088365_i32, %c1511750638_i32, %c383367506_i32, %c527088365_i32, %c383367506_i32, %c1321462035_i32, %c1321462035_i32, %c1321462035_i32, %65, %c1321462035_i32, %c383367506_i32, %65, %c1321462035_i32, %c527088365_i32, %c1321462035_i32, %c1511750638_i32, %c1321462035_i32, %c527088365_i32, %65, %c1511750638_i32, %c1321462035_i32, %c383367506_i32, %c527088365_i32, %c527088365_i32, %c383367506_i32, %c383367506_i32, %c383367506_i32, %c527088365_i32, %c1321462035_i32, %c1511750638_i32, %c1321462035_i32, %65, %65, %65, %c1321462035_i32, %c1511750638_i32, %c1511750638_i32, %c527088365_i32, %c383367506_i32, %c1321462035_i32, %c1511750638_i32, %c527088365_i32, %c527088365_i32, %c1321462035_i32, %65, %c527088365_i32, %65, %c1321462035_i32, %c1321462035_i32, %c1511750638_i32, %c1511750638_i32, %c1511750638_i32, %c1511750638_i32, %c1321462035_i32, %c527088365_i32, %65, %c1321462035_i32, %c1511750638_i32, %c383367506_i32, %c1321462035_i32, %c1511750638_i32, %c1321462035_i32, %c527088365_i32, %c1321462035_i32, %c383367506_i32, %c383367506_i32, %65, %c527088365_i32, %65, %c383367506_i32, %c1511750638_i32, %c527088365_i32, %c1511750638_i32, %c527088365_i32, %c383367506_i32, %c1321462035_i32, %c1511750638_i32, %c383367506_i32, %c1321462035_i32, %65, %c383367506_i32, %c527088365_i32, %65, %c1321462035_i32, %c383367506_i32, %c383367506_i32, %c1321462035_i32, %c1321462035_i32, %c1511750638_i32, %65, %c527088365_i32, %c527088365_i32, %c527088365_i32, %65, %c1511750638_i32, %c383367506_i32, %c527088365_i32, %c383367506_i32, %c527088365_i32, %65, %c383367506_i32, %c1511750638_i32, %c1321462035_i32, %65, %c1321462035_i32, %c1511750638_i32, %65, %c1511750638_i32, %c1511750638_i32, %c1321462035_i32, %c1321462035_i32, %65, %c527088365_i32, %c1511750638_i32, %65, %c1321462035_i32, %65, %c527088365_i32, %65, %c527088365_i32, %c1321462035_i32, %c1511750638_i32, %c1321462035_i32, %c1321462035_i32, %c1321462035_i32, %c1321462035_i32, %c1511750638_i32, %c527088365_i32, %c527088365_i32, %c527088365_i32, %65, %c1321462035_i32, %c527088365_i32, %c527088365_i32, %65, %c383367506_i32, %c1321462035_i32, %c383367506_i32, %c383367506_i32, %c383367506_i32, %c383367506_i32, %c1321462035_i32, %65, %c527088365_i32, %c1321462035_i32, %c527088365_i32, %c1321462035_i32, %65, %c1321462035_i32, %c383367506_i32, %c527088365_i32, %c1511750638_i32, %c383367506_i32, %c527088365_i32, %c383367506_i32, %c1321462035_i32, %c383367506_i32, %c1321462035_i32, %c1321462035_i32, %c1511750638_i32, %c383367506_i32, %c1511750638_i32, %c1511750638_i32, %65, %c1321462035_i32, %c1511750638_i32, %c527088365_i32, %65, %c1511750638_i32, %c1511750638_i32, %c383367506_i32, %c527088365_i32, %65, %c1321462035_i32, %c383367506_i32, %c383367506_i32, %c1321462035_i32, %c527088365_i32, %c1321462035_i32, %c383367506_i32, %c1511750638_i32, %c1321462035_i32, %65, %c383367506_i32, %c1321462035_i32, %c383367506_i32, %c383367506_i32, %c527088365_i32, %c1511750638_i32, %c1321462035_i32, %c527088365_i32, %c383367506_i32, %c527088365_i32, %c383367506_i32, %c1511750638_i32, %c527088365_i32, %c1321462035_i32, %65, %c383367506_i32, %c527088365_i32, %c527088365_i32, %c1511750638_i32, %c1511750638_i32, %c1511750638_i32, %c527088365_i32, %65, %c1511750638_i32, %c1511750638_i32, %c383367506_i32, %c383367506_i32, %c383367506_i32, %c1511750638_i32, %c1321462035_i32, %c383367506_i32, %c527088365_i32, %c527088365_i32, %c1511750638_i32, %c527088365_i32, %65, %c1321462035_i32, %c527088365_i32, %c383367506_i32, %c1511750638_i32, %c383367506_i32, %65, %c1321462035_i32, %c1321462035_i32, %c1321462035_i32, %c1321462035_i32, %c1321462035_i32, %c527088365_i32, %65, %c1511750638_i32, %c1511750638_i32, %c527088365_i32, %65, %c527088365_i32, %c527088365_i32, %c1321462035_i32, %c383367506_i32, %c383367506_i32, %c383367506_i32, %c383367506_i32, %c527088365_i32, %65, %c383367506_i32, %c1321462035_i32, %c1321462035_i32, %c1321462035_i32, %c383367506_i32, %c1321462035_i32, %c1511750638_i32, %c1321462035_i32, %c1511750638_i32, %c1511750638_i32, %65, %c527088365_i32, %c1321462035_i32, %65, %65, %c383367506_i32, %65, %65, %c1511750638_i32, %65, %65, %c1321462035_i32, %c527088365_i32, %65, %65, %c383367506_i32, %c527088365_i32, %c527088365_i32, %65, %c383367506_i32, %c527088365_i32, %c527088365_i32, %c527088365_i32, %c1511750638_i32, %c1511750638_i32, %c527088365_i32, %c1511750638_i32, %c1511750638_i32, %c1511750638_i32, %c1511750638_i32, %c1321462035_i32, %c1321462035_i32, %c527088365_i32, %c1511750638_i32, %65, %c527088365_i32, %c527088365_i32, %c383367506_i32, %c1321462035_i32, %c383367506_i32, %c1321462035_i32, %65, %c1511750638_i32, %65, %c527088365_i32, %c527088365_i32, %c383367506_i32, %65, %c383367506_i32, %c527088365_i32, %c527088365_i32, %65, %c383367506_i32, %c383367506_i32, %c1321462035_i32, %c383367506_i32, %c383367506_i32, %c1321462035_i32, %c527088365_i32, %65, %65, %c1321462035_i32, %c1511750638_i32, %c1511750638_i32, %c527088365_i32, %c1321462035_i32, %c383367506_i32, %c1511750638_i32, %65, %65, %c1321462035_i32, %c1321462035_i32, %65, %c1511750638_i32, %c383367506_i32, %c383367506_i32, %c1321462035_i32, %c1321462035_i32, %c383367506_i32, %c383367506_i32, %c527088365_i32, %c1321462035_i32, %c383367506_i32, %c1321462035_i32, %65, %65, %c1321462035_i32, %c1511750638_i32, %65, %c1511750638_i32, %c527088365_i32, %c1321462035_i32, %c1321462035_i32, %c383367506_i32, %c1511750638_i32, %c383367506_i32, %65, %65, %c1511750638_i32, %c1321462035_i32, %65, %c527088365_i32, %c1321462035_i32, %c383367506_i32, %c1511750638_i32, %c1321462035_i32, %65, %65, %c1511750638_i32, %c1511750638_i32, %c1511750638_i32, %c383367506_i32, %c383367506_i32, %c383367506_i32, %65, %c383367506_i32, %c1511750638_i32, %c383367506_i32, %c1511750638_i32, %c1511750638_i32, %65, %c383367506_i32, %c527088365_i32, %65, %c527088365_i32, %65, %c383367506_i32, %c1511750638_i32, %c383367506_i32, %c1321462035_i32, %c383367506_i32, %c383367506_i32, %65, %65, %c383367506_i32, %c1511750638_i32, %65, %c383367506_i32, %c1321462035_i32, %c1321462035_i32, %c1321462035_i32, %c527088365_i32, %65, %c527088365_i32, %65, %c1511750638_i32, %c383367506_i32, %c383367506_i32, %c1321462035_i32, %c1321462035_i32, %c1511750638_i32, %c527088365_i32, %c1321462035_i32, %c1511750638_i32, %c1321462035_i32, %c527088365_i32, %c1321462035_i32, %c1321462035_i32, %65, %65, %65, %c1511750638_i32, %c1511750638_i32, %c1321462035_i32, %c383367506_i32, %c1511750638_i32, %65, %c1321462035_i32, %c527088365_i32, %c383367506_i32, %65, %65, %65, %c527088365_i32, %c527088365_i32, %65, %c1321462035_i32, %c1511750638_i32, %c1511750638_i32, %65, %c1511750638_i32, %c383367506_i32, %c1511750638_i32, %65, %c383367506_i32, %c1321462035_i32, %65, %c383367506_i32, %c1511750638_i32, %c1321462035_i32, %c1511750638_i32, %c1511750638_i32, %c383367506_i32, %c527088365_i32, %c1511750638_i32, %65, %c527088365_i32, %c1321462035_i32, %c1321462035_i32, %c1511750638_i32, %c1511750638_i32, %c383367506_i32, %c527088365_i32, %c527088365_i32, %c1321462035_i32, %c383367506_i32, %c1511750638_i32, %c527088365_i32, %c1511750638_i32, %c1511750638_i32, %c1321462035_i32, %c1321462035_i32, %c1321462035_i32, %c383367506_i32, %c1511750638_i32, %c527088365_i32, %65, %c527088365_i32, %c1511750638_i32, %c1511750638_i32, %c527088365_i32, %65, %c1321462035_i32, %65, %c1511750638_i32, %c527088365_i32, %c1321462035_i32, %c527088365_i32, %c383367506_i32, %c1321462035_i32, %c527088365_i32, %c1321462035_i32, %c1511750638_i32, %65, %c383367506_i32, %c383367506_i32, %c527088365_i32, %c1321462035_i32, %c383367506_i32, %c527088365_i32, %c1511750638_i32, %c1321462035_i32, %c1321462035_i32, %c1511750638_i32, %c383367506_i32, %c1511750638_i32, %c1321462035_i32, %c383367506_i32, %65, %c527088365_i32, %c527088365_i32, %65, %c1511750638_i32, %c527088365_i32, %c527088365_i32, %65, %c527088365_i32, %c1321462035_i32, %c383367506_i32, %c527088365_i32, %c383367506_i32, %65, %c527088365_i32, %65, %c1321462035_i32, %c527088365_i32, %c383367506_i32, %c1511750638_i32, %65, %c383367506_i32, %c1321462035_i32, %c1511750638_i32, %c383367506_i32, %c527088365_i32, %c1321462035_i32, %65, %c383367506_i32, %c383367506_i32, %c527088365_i32, %65, %c383367506_i32, %c383367506_i32, %c1511750638_i32, %65, %c527088365_i32, %c527088365_i32, %c1321462035_i32, %c383367506_i32, %c383367506_i32, %c527088365_i32, %c383367506_i32, %c1321462035_i32, %c1321462035_i32, %65, %c1321462035_i32, %c1511750638_i32, %c383367506_i32, %c1321462035_i32, %c1321462035_i32, %c383367506_i32, %c1511750638_i32, %65, %65, %c527088365_i32, %c527088365_i32, %c527088365_i32, %c527088365_i32, %c383367506_i32, %c1511750638_i32, %c527088365_i32, %c527088365_i32, %c527088365_i32, %c527088365_i32, %c1511750638_i32, %c527088365_i32, %c527088365_i32, %65, %c1321462035_i32, %65, %c527088365_i32, %c1321462035_i32, %c527088365_i32, %c1511750638_i32, %c1321462035_i32, %c383367506_i32, %65, %c383367506_i32, %c383367506_i32, %c383367506_i32, %c383367506_i32, %c1321462035_i32, %c1511750638_i32, %c527088365_i32, %c1511750638_i32, %c1321462035_i32, %c383367506_i32, %c383367506_i32, %c1321462035_i32, %c527088365_i32, %c527088365_i32, %c527088365_i32, %c1321462035_i32, %c1511750638_i32, %c383367506_i32, %65, %65, %c527088365_i32, %65, %c1321462035_i32, %c527088365_i32, %c1321462035_i32, %c383367506_i32, %c527088365_i32, %c1321462035_i32, %c1321462035_i32, %c1511750638_i32, %c527088365_i32, %c527088365_i32, %c527088365_i32, %c527088365_i32, %c527088365_i32, %65, %c1321462035_i32, %c1511750638_i32, %c527088365_i32, %c383367506_i32, %c1511750638_i32, %c527088365_i32, %c527088365_i32, %65, %65, %c383367506_i32, %c527088365_i32, %c527088365_i32, %c383367506_i32, %c1321462035_i32, %c527088365_i32, %c1321462035_i32, %c383367506_i32, %c1321462035_i32, %c1511750638_i32, %65, %65, %65, %c1321462035_i32, %c383367506_i32, %c1511750638_i32, %c1321462035_i32, %c527088365_i32, %c383367506_i32, %c1321462035_i32, %c1321462035_i32, %c383367506_i32, %c383367506_i32, %65, %65, %c383367506_i32, %65, %c1511750638_i32, %c1321462035_i32, %c1321462035_i32, %c527088365_i32, %c1321462035_i32, %c527088365_i32, %c1511750638_i32, %c383367506_i32, %c1511750638_i32, %65, %c527088365_i32, %65, %c383367506_i32, %65, %65, %65, %65, %c527088365_i32, %65, %65, %c527088365_i32, %c1321462035_i32, %c1511750638_i32, %65, %c1321462035_i32, %c1511750638_i32, %c1511750638_i32, %c383367506_i32, %c383367506_i32, %c1511750638_i32, %c1511750638_i32, %c527088365_i32, %65, %c383367506_i32, %c1321462035_i32, %c1321462035_i32, %c527088365_i32, %c1321462035_i32, %65, %c1321462035_i32, %c1321462035_i32, %c527088365_i32, %c1321462035_i32, %c527088365_i32, %c1511750638_i32, %c527088365_i32, %c1321462035_i32, %c1511750638_i32, %65, %65, %c383367506_i32, %c383367506_i32, %c383367506_i32, %c1321462035_i32, %65, %c527088365_i32, %c1511750638_i32, %65, %c1511750638_i32, %c1321462035_i32, %c1321462035_i32, %65, %c527088365_i32, %65, %c383367506_i32, %65, %c527088365_i32, %c527088365_i32, %65, %c527088365_i32, %c1321462035_i32, %c1511750638_i32, %c383367506_i32, %c1321462035_i32, %65, %c527088365_i32, %c1511750638_i32, %c527088365_i32, %c1321462035_i32, %65, %65, %65, %65, %c527088365_i32, %c1321462035_i32, %c1321462035_i32, %c527088365_i32, %c383367506_i32, %c1511750638_i32, %c383367506_i32, %c527088365_i32, %c527088365_i32, %c383367506_i32, %c1511750638_i32, %c1511750638_i32, %c527088365_i32, %c383367506_i32, %c527088365_i32, %65, %c1511750638_i32, %c1511750638_i32, %65, %c527088365_i32, %c1321462035_i32, %65, %c527088365_i32, %c527088365_i32, %c1321462035_i32, %c1321462035_i32, %c1511750638_i32, %c1511750638_i32, %c1511750638_i32, %c1321462035_i32, %c1511750638_i32, %65, %c383367506_i32, %c1321462035_i32, %c527088365_i32, %65, %c383367506_i32, %c527088365_i32, %c383367506_i32, %c527088365_i32, %65, %65, %c383367506_i32, %c527088365_i32, %c1321462035_i32, %c1511750638_i32, %65, %c383367506_i32, %c1321462035_i32, %c383367506_i32, %c383367506_i32, %c1321462035_i32, %c1511750638_i32, %c1511750638_i32, %c383367506_i32, %65, %c383367506_i32, %65, %65, %c1321462035_i32, %c1511750638_i32, %c527088365_i32, %c383367506_i32, %c1511750638_i32, %c1321462035_i32, %65, %c1321462035_i32, %c1321462035_i32, %c1511750638_i32, %c1511750638_i32, %65, %c1511750638_i32, %c1321462035_i32, %c1321462035_i32, %c1321462035_i32, %c1321462035_i32, %c383367506_i32, %c1511750638_i32, %65, %c1511750638_i32, %c383367506_i32, %c1321462035_i32, %c1511750638_i32, %c383367506_i32, %65, %65, %c1511750638_i32, %c1321462035_i32, %c527088365_i32, %c383367506_i32, %65, %c1511750638_i32, %65, %c383367506_i32, %c1321462035_i32, %c527088365_i32, %c383367506_i32, %65, %c527088365_i32, %65, %c1321462035_i32, %c1321462035_i32, %c1321462035_i32, %c383367506_i32, %c383367506_i32, %c1511750638_i32, %c1511750638_i32, %c1511750638_i32, %c1321462035_i32, %c1511750638_i32, %c1511750638_i32, %c1321462035_i32, %c1321462035_i32, %c1511750638_i32, %c383367506_i32, %c527088365_i32, %c1321462035_i32, %65, %c383367506_i32, %c1511750638_i32, %c1321462035_i32, %c383367506_i32, %65, %c527088365_i32, %c383367506_i32, %c383367506_i32, %c1321462035_i32, %c1511750638_i32, %c383367506_i32, %c383367506_i32, %c383367506_i32, %c1321462035_i32, %c1321462035_i32, %c1511750638_i32, %c527088365_i32, %c1511750638_i32, %c383367506_i32, %c383367506_i32, %c383367506_i32, %c1511750638_i32, %c383367506_i32, %c1511750638_i32, %c1321462035_i32, %c1321462035_i32, %c1511750638_i32, %c1321462035_i32, %c1511750638_i32, %c383367506_i32, %c383367506_i32, %c1511750638_i32, %c527088365_i32, %c1511750638_i32, %c1511750638_i32, %65, %c1511750638_i32, %c1511750638_i32, %c383367506_i32, %c527088365_i32, %65, %65, %c383367506_i32, %65, %65, %c1511750638_i32, %c1511750638_i32, %c383367506_i32, %c1321462035_i32, %65, %65, %c383367506_i32, %c1511750638_i32, %c1321462035_i32, %65, %c527088365_i32, %c1321462035_i32, %c1511750638_i32, %c1511750638_i32, %c527088365_i32, %c383367506_i32, %c1321462035_i32, %65, %c527088365_i32, %c383367506_i32, %c1321462035_i32, %65, %c1511750638_i32, %c527088365_i32, %c527088365_i32, %c1321462035_i32, %c383367506_i32, %c383367506_i32, %c1321462035_i32, %c1511750638_i32, %c527088365_i32, %65, %c1511750638_i32, %c383367506_i32, %c527088365_i32, %c527088365_i32, %c1511750638_i32, %c1321462035_i32, %c1511750638_i32, %c1511750638_i32, %c527088365_i32, %c383367506_i32, %c383367506_i32, %65, %c527088365_i32, %c383367506_i32, %c1511750638_i32, %c383367506_i32, %c1321462035_i32, %c527088365_i32, %c1321462035_i32, %65, %c1321462035_i32, %c1511750638_i32, %65, %c383367506_i32, %c1511750638_i32, %65, %c527088365_i32, %c1511750638_i32, %c1321462035_i32, %c383367506_i32, %c527088365_i32, %c527088365_i32, %65, %c1321462035_i32, %c1321462035_i32, %c1511750638_i32, %c527088365_i32, %c527088365_i32, %65, %c1321462035_i32, %c527088365_i32, %c383367506_i32, %c1321462035_i32, %c527088365_i32, %c1321462035_i32, %65, %c383367506_i32, %c527088365_i32, %c1321462035_i32, %c1511750638_i32, %65, %c527088365_i32, %c1511750638_i32, %c1511750638_i32, %c383367506_i32, %c1511750638_i32, %c527088365_i32, %c527088365_i32, %c383367506_i32, %c527088365_i32, %65, %c1511750638_i32, %c1321462035_i32, %c1511750638_i32, %c1511750638_i32, %c527088365_i32, %65, %65, %c1511750638_i32, %65, %65, %65, %c1511750638_i32, %c1321462035_i32, %c383367506_i32, %c527088365_i32, %c383367506_i32, %c1511750638_i32, %65, %65, %c383367506_i32, %65, %c1511750638_i32, %65, %c1511750638_i32, %c1321462035_i32, %65, %c383367506_i32, %c527088365_i32, %c383367506_i32, %c1511750638_i32, %c383367506_i32, %c1321462035_i32, %c527088365_i32, %c1511750638_i32, %c527088365_i32, %65, %c383367506_i32, %c383367506_i32, %c383367506_i32, %c383367506_i32, %c1511750638_i32, %c527088365_i32, %65, %c527088365_i32, %c1321462035_i32, %c1511750638_i32, %c527088365_i32, %c383367506_i32, %c383367506_i32, %c1511750638_i32, %c383367506_i32, %c527088365_i32, %c1321462035_i32, %c527088365_i32, %c1321462035_i32, %c1511750638_i32, %c383367506_i32, %65, %c527088365_i32, %65, %c527088365_i32, %65, %65, %65, %65, %c383367506_i32, %65, %65, %c1321462035_i32, %c1511750638_i32, %65, %c1321462035_i32, %c1511750638_i32, %c1511750638_i32, %c383367506_i32, %c1321462035_i32, %c383367506_i32, %65, %65, %65, %c1511750638_i32, %c383367506_i32, %c383367506_i32, %c383367506_i32, %c383367506_i32, %c1321462035_i32, %c1321462035_i32, %c527088365_i32, %c383367506_i32, %c1321462035_i32, %c1321462035_i32, %65, %c1511750638_i32, %c383367506_i32, %c1321462035_i32, %c1321462035_i32, %c1511750638_i32, %c383367506_i32, %c1321462035_i32, %c1321462035_i32, %c1511750638_i32, %c527088365_i32, %c383367506_i32, %c383367506_i32, %c1321462035_i32, %c527088365_i32, %65, %c383367506_i32, %c1511750638_i32, %c1321462035_i32, %c1511750638_i32, %c1321462035_i32, %c1511750638_i32, %c527088365_i32, %c1511750638_i32, %c1321462035_i32, %c527088365_i32, %c383367506_i32, %c527088365_i32, %c1321462035_i32, %c1321462035_i32, %65, %c1511750638_i32, %c383367506_i32, %c1321462035_i32, %c527088365_i32, %c527088365_i32, %c527088365_i32, %c1511750638_i32, %c1321462035_i32, %c1511750638_i32, %65, %c527088365_i32, %c1321462035_i32, %c527088365_i32, %c1511750638_i32, %c527088365_i32, %c383367506_i32, %c527088365_i32, %c383367506_i32, %c383367506_i32, %c383367506_i32, %c527088365_i32, %c1511750638_i32, %c383367506_i32, %c1321462035_i32, %c1511750638_i32, %65, %c1511750638_i32, %c383367506_i32, %c383367506_i32, %c383367506_i32, %65, %c1511750638_i32, %c383367506_i32, %c383367506_i32, %c527088365_i32, %c527088365_i32, %c1511750638_i32, %c527088365_i32, %c1511750638_i32, %c1511750638_i32, %c383367506_i32, %65, %c1321462035_i32, %c383367506_i32, %c383367506_i32, %65, %c1511750638_i32, %c527088365_i32, %c1321462035_i32, %c1321462035_i32, %c1511750638_i32, %c527088365_i32, %c383367506_i32, %c1511750638_i32, %65, %c1321462035_i32, %c383367506_i32, %65, %c383367506_i32, %c383367506_i32, %c1511750638_i32, %c527088365_i32, %c1511750638_i32, %c527088365_i32, %c1321462035_i32, %c383367506_i32, %c383367506_i32, %c1511750638_i32, %c383367506_i32, %65, %65, %c383367506_i32, %c1321462035_i32, %c527088365_i32, %c383367506_i32, %c1511750638_i32, %c1321462035_i32, %c1321462035_i32, %c1511750638_i32, %c1321462035_i32, %c1321462035_i32, %c1511750638_i32, %65, %c1511750638_i32, %65, %c527088365_i32, %c1511750638_i32, %65, %c527088365_i32, %c1321462035_i32, %c1511750638_i32, %c527088365_i32, %c383367506_i32, %c527088365_i32, %c527088365_i32, %c383367506_i32, %c1511750638_i32, %c1321462035_i32, %c527088365_i32, %c1321462035_i32, %c1321462035_i32, %c527088365_i32, %c383367506_i32, %c383367506_i32, %65, %65, %c527088365_i32, %65, %c1321462035_i32, %c383367506_i32, %c1511750638_i32, %c527088365_i32, %c383367506_i32, %c383367506_i32, %65, %c1511750638_i32, %c1321462035_i32, %c527088365_i32, %c383367506_i32, %c1511750638_i32, %65, %c1321462035_i32, %65, %c1321462035_i32, %65, %c383367506_i32, %c527088365_i32, %c1511750638_i32, %c527088365_i32, %65, %c1511750638_i32, %65, %c383367506_i32, %c1321462035_i32, %c527088365_i32, %c1511750638_i32, %c383367506_i32, %65, %c1321462035_i32, %c1511750638_i32, %65, %c1511750638_i32, %c383367506_i32, %c1321462035_i32, %c1321462035_i32, %c1511750638_i32, %c383367506_i32, %65, %65, %c527088365_i32, %c1321462035_i32, %c1321462035_i32, %65, %c527088365_i32, %c1321462035_i32, %65, %65, %c527088365_i32, %c1321462035_i32, %c527088365_i32, %c1321462035_i32, %c527088365_i32, %c383367506_i32, %65, %65, %c1321462035_i32, %c1321462035_i32, %c383367506_i32, %c383367506_i32, %c1321462035_i32, %c383367506_i32, %c1511750638_i32, %c383367506_i32, %c1321462035_i32, %65, %65, %c383367506_i32, %c527088365_i32, %c527088365_i32, %c1321462035_i32, %c527088365_i32, %65, %c527088365_i32, %c1321462035_i32, %c1511750638_i32, %c1511750638_i32, %c1511750638_i32, %65, %65, %c1511750638_i32, %c1511750638_i32, %c1511750638_i32, %c527088365_i32, %c1511750638_i32, %c1511750638_i32, %c1511750638_i32, %c1511750638_i32, %c1321462035_i32, %c1321462035_i32, %c1511750638_i32, %c1321462035_i32, %c527088365_i32, %c1511750638_i32, %c383367506_i32, %c527088365_i32, %c1511750638_i32, %c1511750638_i32, %c1511750638_i32, %c1511750638_i32, %c1511750638_i32, %c383367506_i32, %c527088365_i32, %c383367506_i32, %c527088365_i32, %65, %c1321462035_i32, %c527088365_i32, %c1321462035_i32, %c527088365_i32, %c527088365_i32, %c383367506_i32, %c527088365_i32, %65, %c383367506_i32, %c1511750638_i32, %c383367506_i32, %c1511750638_i32, %c383367506_i32, %c1321462035_i32, %c1511750638_i32, %c1321462035_i32, %65, %c527088365_i32, %c527088365_i32, %c383367506_i32, %c383367506_i32, %c527088365_i32, %c383367506_i32, %65, %c527088365_i32, %65, %65, %65, %c383367506_i32, %65, %c383367506_i32, %c1511750638_i32, %c527088365_i32, %65, %c1321462035_i32, %c383367506_i32, %c383367506_i32, %c527088365_i32, %c383367506_i32, %c1321462035_i32, %c1511750638_i32, %c527088365_i32, %c1511750638_i32, %c1511750638_i32, %65, %c527088365_i32, %65, %c1511750638_i32, %c1511750638_i32, %c383367506_i32, %65, %c527088365_i32, %c1511750638_i32, %c383367506_i32, %c1321462035_i32, %c1511750638_i32, %c1321462035_i32, %c1511750638_i32, %c1511750638_i32, %c527088365_i32, %c383367506_i32, %c1511750638_i32, %c1511750638_i32, %c527088365_i32, %c1511750638_i32, %c527088365_i32, %c527088365_i32, %c383367506_i32, %c527088365_i32, %c527088365_i32, %c383367506_i32, %c1511750638_i32, %c1321462035_i32, %c383367506_i32, %c527088365_i32, %c1321462035_i32, %c1321462035_i32, %c1321462035_i32, %c383367506_i32, %c1511750638_i32, %c383367506_i32, %c527088365_i32, %c1511750638_i32, %c527088365_i32, %c1511750638_i32, %c383367506_i32, %c527088365_i32, %c383367506_i32, %65, %c527088365_i32, %c1511750638_i32, %c383367506_i32, %c527088365_i32, %c383367506_i32, %c527088365_i32, %c1321462035_i32, %65, %c1321462035_i32, %c1321462035_i32, %c1511750638_i32, %65, %c1511750638_i32, %c527088365_i32, %c1321462035_i32, %c1321462035_i32, %c527088365_i32, %c1321462035_i32, %c383367506_i32, %c1321462035_i32, %c1511750638_i32, %65, %c1511750638_i32, %c1511750638_i32, %c527088365_i32, %c527088365_i32, %c1511750638_i32, %c383367506_i32, %c383367506_i32, %c527088365_i32, %c1321462035_i32, %c1511750638_i32, %c527088365_i32, %c383367506_i32, %c527088365_i32, %c1511750638_i32, %c383367506_i32, %c383367506_i32, %c527088365_i32, %c1321462035_i32, %c527088365_i32, %c527088365_i32, %c383367506_i32, %65, %65, %c383367506_i32, %c1321462035_i32, %65, %c1321462035_i32, %c1511750638_i32, %c1511750638_i32, %c1321462035_i32, %c1511750638_i32, %c1321462035_i32, %c1321462035_i32, %c383367506_i32, %c527088365_i32, %65, %c527088365_i32, %65, %c1511750638_i32, %c1321462035_i32, %c1321462035_i32, %c1321462035_i32, %c1321462035_i32, %c1511750638_i32, %c1511750638_i32, %c527088365_i32, %c1511750638_i32, %c1321462035_i32, %c383367506_i32, %c1321462035_i32, %c1511750638_i32, %c1511750638_i32, %c1511750638_i32, %65, %c527088365_i32, %65, %65, %c1511750638_i32, %c1511750638_i32, %c1321462035_i32, %c527088365_i32, %65, %c1511750638_i32, %c1321462035_i32, %c1511750638_i32, %65, %c1321462035_i32, %c527088365_i32, %c527088365_i32, %c527088365_i32, %c383367506_i32, %c1321462035_i32, %c1321462035_i32, %c1511750638_i32, %c527088365_i32, %c1321462035_i32, %65, %c1321462035_i32, %65, %c1511750638_i32, %c527088365_i32, %c1321462035_i32, %c527088365_i32, %c1511750638_i32, %c383367506_i32, %c527088365_i32, %c1321462035_i32, %c527088365_i32, %c1321462035_i32, %c1321462035_i32, %c1321462035_i32, %65, %c383367506_i32, %65, %c1511750638_i32, %c1321462035_i32, %c1511750638_i32, %65, %c527088365_i32, %c1511750638_i32, %c1321462035_i32, %c1321462035_i32, %c527088365_i32, %c1321462035_i32, %c1321462035_i32, %c527088365_i32, %65, %65, %c1511750638_i32, %c383367506_i32, %c527088365_i32, %c383367506_i32, %65, %c1511750638_i32, %c383367506_i32, %c1511750638_i32, %65, %c1511750638_i32, %c383367506_i32, %c1321462035_i32, %c1321462035_i32, %c527088365_i32, %c1321462035_i32, %c1511750638_i32, %c527088365_i32, %c1321462035_i32, %65, %65, %c527088365_i32, %c1321462035_i32, %c1511750638_i32, %c1321462035_i32, %65, %c383367506_i32, %c1511750638_i32, %c383367506_i32, %c527088365_i32, %c1321462035_i32, %c1511750638_i32, %c1511750638_i32, %c1511750638_i32, %65, %c527088365_i32, %c1511750638_i32, %c1321462035_i32, %c1321462035_i32, %65, %c527088365_i32, %c1321462035_i32, %c1511750638_i32, %c383367506_i32, %c1511750638_i32, %c1321462035_i32, %c527088365_i32, %c1321462035_i32, %65, %c1511750638_i32, %65, %c383367506_i32, %c527088365_i32, %c1321462035_i32, %65, %65, %c527088365_i32, %c1511750638_i32, %c1511750638_i32, %c1511750638_i32, %c1321462035_i32, %65, %c527088365_i32, %c1511750638_i32, %c383367506_i32, %c527088365_i32, %65, %c1511750638_i32, %c1321462035_i32, %c383367506_i32, %c527088365_i32, %c527088365_i32, %c1511750638_i32, %c1511750638_i32, %65, %c383367506_i32, %c383367506_i32, %c527088365_i32, %c1511750638_i32, %c1511750638_i32, %c1321462035_i32, %c1321462035_i32, %c1511750638_i32, %65, %c383367506_i32, %c383367506_i32, %c527088365_i32, %c1321462035_i32, %65, %c383367506_i32, %c1321462035_i32, %c1511750638_i32, %c1511750638_i32, %c1321462035_i32, %c1511750638_i32, %c1321462035_i32, %65, %c527088365_i32, %c1321462035_i32, %c527088365_i32, %c527088365_i32, %c527088365_i32, %c1321462035_i32, %c383367506_i32, %65, %c383367506_i32, %65, %c527088365_i32, %c527088365_i32, %c383367506_i32, %c383367506_i32, %c1511750638_i32, %c527088365_i32, %c383367506_i32, %c1511750638_i32, %c383367506_i32, %c1321462035_i32, %c383367506_i32, %c527088365_i32, %c1321462035_i32, %c1321462035_i32, %c1321462035_i32, %c1321462035_i32, %c383367506_i32, %65, %65, %c1321462035_i32, %65, %c1321462035_i32, %65, %c383367506_i32, %c527088365_i32, %c383367506_i32, %c1511750638_i32, %c527088365_i32, %c1321462035_i32, %65, %65, %c1321462035_i32, %c1511750638_i32, %c383367506_i32, %65, %c527088365_i32, %c1511750638_i32, %c527088365_i32, %65, %c1511750638_i32, %c1321462035_i32, %c383367506_i32, %c527088365_i32, %c383367506_i32, %c1511750638_i32, %c383367506_i32, %c1321462035_i32, %c1511750638_i32, %c1321462035_i32, %c527088365_i32, %c527088365_i32, %65, %65, %65, %65, %c383367506_i32, %c1511750638_i32, %c1321462035_i32, %65, %65, %65, %c383367506_i32, %65, %c527088365_i32, %c383367506_i32, %c1321462035_i32, %c1511750638_i32, %c527088365_i32, %65, %c1321462035_i32, %c383367506_i32, %c1321462035_i32, %c1321462035_i32, %c1511750638_i32, %c527088365_i32, %c1321462035_i32, %c1511750638_i32, %c383367506_i32, %65, %c527088365_i32, %c383367506_i32, %c527088365_i32, %c527088365_i32, %65, %c383367506_i32, %c527088365_i32, %c383367506_i32, %c383367506_i32, %65, %65, %c1321462035_i32, %c1321462035_i32, %c1511750638_i32, %65, %65, %65, %c527088365_i32, %c1511750638_i32, %c527088365_i32, %65, %c383367506_i32, %c383367506_i32, %c1321462035_i32, %c383367506_i32, %c1321462035_i32, %c1511750638_i32, %c527088365_i32, %c383367506_i32, %c383367506_i32, %c1321462035_i32, %c383367506_i32, %c1321462035_i32, %c383367506_i32, %65, %c1511750638_i32, %c383367506_i32, %c383367506_i32, %c1511750638_i32, %c527088365_i32, %c527088365_i32, %c383367506_i32, %c1511750638_i32, %65, %c1511750638_i32, %65, %c1321462035_i32, %c527088365_i32, %c527088365_i32, %65, %c1321462035_i32, %c1321462035_i32, %65, %c527088365_i32, %c527088365_i32, %65, %c1321462035_i32, %c1511750638_i32, %c1511750638_i32, %c383367506_i32, %65, %c1321462035_i32, %65, %c1511750638_i32, %c1511750638_i32, %c1321462035_i32, %c383367506_i32, %c383367506_i32, %c527088365_i32, %65, %c1511750638_i32, %c1321462035_i32, %c1321462035_i32, %c383367506_i32, %c1511750638_i32, %c383367506_i32, %65, %c383367506_i32, %c527088365_i32, %c383367506_i32, %c1321462035_i32, %c1321462035_i32, %65, %c527088365_i32, %c1321462035_i32, %c1321462035_i32, %c383367506_i32, %c1321462035_i32, %65, %c1511750638_i32, %c383367506_i32, %c527088365_i32, %c527088365_i32, %65, %65, %c1321462035_i32, %65, %c527088365_i32, %c527088365_i32, %c383367506_i32, %65, %65, %c1321462035_i32, %c527088365_i32, %c1511750638_i32, %c383367506_i32, %c1321462035_i32, %c527088365_i32, %c1321462035_i32, %c527088365_i32, %c1321462035_i32, %65, %65, %c383367506_i32, %65, %c1321462035_i32, %c1321462035_i32, %c527088365_i32, %c527088365_i32, %c527088365_i32, %c1321462035_i32, %c527088365_i32, %c1511750638_i32, %c1511750638_i32, %c1321462035_i32, %c527088365_i32, %c527088365_i32, %c1511750638_i32, %c383367506_i32, %c383367506_i32, %c1511750638_i32, %65, %c1511750638_i32, %65, %c527088365_i32, %c527088365_i32, %c383367506_i32, %65, %c1511750638_i32, %c1321462035_i32, %c527088365_i32, %c527088365_i32, %c1321462035_i32, %c1511750638_i32, %65, %65, %65, %c383367506_i32, %c1321462035_i32, %65, %c527088365_i32, %c527088365_i32, %c1511750638_i32, %c1321462035_i32, %c527088365_i32, %c1321462035_i32, %c1321462035_i32, %c1321462035_i32, %65, %c383367506_i32, %c383367506_i32, %65, %c1511750638_i32, %c527088365_i32, %c1321462035_i32, %c527088365_i32, %c1321462035_i32, %65, %c1511750638_i32, %c527088365_i32, %c527088365_i32, %65, %65, %c1321462035_i32, %c527088365_i32, %c527088365_i32, %c527088365_i32, %c1511750638_i32, %c1321462035_i32, %c1511750638_i32, %c527088365_i32, %c383367506_i32, %c1321462035_i32, %c1511750638_i32, %c383367506_i32, %c1511750638_i32, %65, %c527088365_i32, %c1511750638_i32, %c1511750638_i32, %c1511750638_i32, %c527088365_i32, %c527088365_i32, %c1511750638_i32, %65, %c527088365_i32, %c383367506_i32, %c383367506_i32, %c527088365_i32, %c383367506_i32, %65, %65, %c1321462035_i32, %c1511750638_i32, %c1321462035_i32, %c527088365_i32, %c527088365_i32, %c1511750638_i32, %c1511750638_i32, %c1511750638_i32, %c1321462035_i32, %c1511750638_i32, %c1321462035_i32, %65, %65, %c527088365_i32, %c383367506_i32, %c1511750638_i32, %c383367506_i32, %65, %c527088365_i32, %c1511750638_i32, %c1321462035_i32, %c383367506_i32, %c383367506_i32, %c1511750638_i32, %c527088365_i32, %c1321462035_i32, %c527088365_i32, %65, %c527088365_i32, %c1321462035_i32, %c383367506_i32, %c527088365_i32, %c383367506_i32, %65, %c1511750638_i32, %65, %c1511750638_i32, %c1321462035_i32, %c383367506_i32, %c527088365_i32, %c383367506_i32, %c527088365_i32, %65, %c383367506_i32, %c527088365_i32, %65, %c383367506_i32, %c1321462035_i32, %c527088365_i32, %c1321462035_i32, %c1321462035_i32, %65, %c383367506_i32, %c1511750638_i32, %c527088365_i32, %c527088365_i32, %65, %65, %65, %65, %c1511750638_i32, %c1511750638_i32, %65, %c1321462035_i32, %c527088365_i32, %c383367506_i32, %c527088365_i32, %c1321462035_i32, %c527088365_i32, %65, %65, %c383367506_i32, %c1511750638_i32, %c1321462035_i32, %c383367506_i32, %c527088365_i32, %65, %c527088365_i32, %c383367506_i32, %65, %65, %c527088365_i32, %c1511750638_i32, %c383367506_i32, %65, %c1321462035_i32, %65, %c1321462035_i32, %c1511750638_i32, %c527088365_i32, %c527088365_i32, %65, %c527088365_i32, %65, %c527088365_i32, %c1321462035_i32, %65, %65, %c383367506_i32, %c527088365_i32, %c527088365_i32, %c527088365_i32, %65, %c1321462035_i32, %c383367506_i32, %65, %c1321462035_i32, %c1321462035_i32, %c383367506_i32, %c383367506_i32, %c1321462035_i32, %c383367506_i32, %c383367506_i32, %c527088365_i32, %c383367506_i32, %c527088365_i32, %65, %65, %c1321462035_i32, %65, %65, %c527088365_i32, %c1511750638_i32, %c1511750638_i32, %c1511750638_i32, %c527088365_i32, %c383367506_i32, %c1321462035_i32, %65, %c383367506_i32, %c383367506_i32, %c527088365_i32, %c527088365_i32, %c1321462035_i32, %c527088365_i32, %65, %c383367506_i32, %c1321462035_i32, %c383367506_i32, %c1511750638_i32, %c1321462035_i32, %c1511750638_i32, %c383367506_i32, %c1321462035_i32, %c383367506_i32, %65, %c527088365_i32, %c383367506_i32, %c527088365_i32, %c527088365_i32, %c1511750638_i32, %65, %c383367506_i32, %c383367506_i32, %c1511750638_i32, %c527088365_i32, %65, %c527088365_i32, %65, %c1511750638_i32, %65, %65, %c1511750638_i32, %c527088365_i32, %c527088365_i32, %c383367506_i32, %c527088365_i32, %c1511750638_i32, %c1321462035_i32, %c1511750638_i32, %c527088365_i32, %c1511750638_i32, %c383367506_i32, %65, %c527088365_i32, %c1511750638_i32, %c1321462035_i32, %c1511750638_i32, %c383367506_i32, %c383367506_i32, %65, %65, %c1511750638_i32, %c1321462035_i32, %c1321462035_i32, %c1511750638_i32, %65, %c1511750638_i32, %65, %c527088365_i32, %c1511750638_i32, %65, %65, %c383367506_i32, %c1321462035_i32, %c527088365_i32, %c1511750638_i32, %c1321462035_i32, %65, %c1511750638_i32, %c383367506_i32, %c383367506_i32, %c1511750638_i32, %65, %c527088365_i32, %c527088365_i32, %c383367506_i32, %65, %65, %c383367506_i32, %c527088365_i32, %c1511750638_i32, %c527088365_i32, %c1511750638_i32, %c1511750638_i32, %65, %c1321462035_i32, %c1321462035_i32, %65, %c383367506_i32, %65, %c383367506_i32, %65, %c383367506_i32, %c1321462035_i32, %c383367506_i32, %c1511750638_i32, %c383367506_i32, %c383367506_i32, %c1321462035_i32, %c1321462035_i32, %65, %c383367506_i32, %c383367506_i32, %c527088365_i32, %c527088365_i32, %65, %c527088365_i32, %c527088365_i32, %c383367506_i32, %c383367506_i32, %c383367506_i32, %c1511750638_i32, %65, %c1511750638_i32, %c383367506_i32, %c527088365_i32, %c527088365_i32, %c1321462035_i32, %c1511750638_i32, %c1321462035_i32, %c527088365_i32, %c383367506_i32, %c1321462035_i32, %c1321462035_i32, %c527088365_i32, %c383367506_i32, %65, %65, %c527088365_i32, %c383367506_i32, %c1321462035_i32, %65, %c527088365_i32, %c1511750638_i32, %c527088365_i32, %c383367506_i32, %c527088365_i32, %c383367506_i32, %c1321462035_i32, %c383367506_i32, %c1321462035_i32, %c527088365_i32, %c1511750638_i32, %c1511750638_i32, %65, %65, %c1321462035_i32, %c1321462035_i32, %c1511750638_i32, %c527088365_i32, %c383367506_i32, %c527088365_i32, %c383367506_i32, %c527088365_i32, %c383367506_i32, %c1321462035_i32, %65, %c383367506_i32, %c383367506_i32, %65, %c1511750638_i32, %c1511750638_i32, %65, %c527088365_i32, %c1321462035_i32, %c1511750638_i32, %c383367506_i32, %65, %c383367506_i32, %c1511750638_i32, %65, %c1321462035_i32, %c383367506_i32, %c1321462035_i32, %c383367506_i32, %c1511750638_i32, %c1511750638_i32, %c1321462035_i32, %c527088365_i32, %65, %c527088365_i32, %c1511750638_i32, %c1321462035_i32, %c527088365_i32, %c1321462035_i32, %c383367506_i32, %65, %c1321462035_i32, %c1511750638_i32, %c383367506_i32, %c383367506_i32, %c1511750638_i32, %c527088365_i32, %c1511750638_i32, %c527088365_i32, %c527088365_i32, %c1511750638_i32, %65, %65, %c1511750638_i32, %c383367506_i32, %c1511750638_i32, %c1511750638_i32, %65, %c1511750638_i32, %c527088365_i32, %65, %c1321462035_i32, %c383367506_i32, %c527088365_i32, %c1511750638_i32, %c383367506_i32, %c1321462035_i32, %c1321462035_i32, %c527088365_i32, %c527088365_i32, %c1511750638_i32, %65, %65, %c383367506_i32, %c383367506_i32, %c1511750638_i32, %c1511750638_i32, %c383367506_i32, %65, %c527088365_i32, %c527088365_i32, %65, %c1321462035_i32, %c383367506_i32, %65, %c527088365_i32, %c1321462035_i32, %c383367506_i32, %c527088365_i32, %c383367506_i32, %c383367506_i32, %65, %c1321462035_i32, %65, %c1321462035_i32, %65, %c1321462035_i32, %c1321462035_i32, %c383367506_i32, %c1321462035_i32, %c383367506_i32, %c1321462035_i32, %c1511750638_i32, %c383367506_i32, %c1511750638_i32, %c1511750638_i32, %c383367506_i32, %c383367506_i32, %c527088365_i32, %c527088365_i32, %c1321462035_i32, %c1321462035_i32, %c527088365_i32, %c1511750638_i32, %c1321462035_i32, %c383367506_i32, %c1321462035_i32, %c1511750638_i32, %c1321462035_i32, %c383367506_i32, %c383367506_i32, %c383367506_i32, %65, %c1321462035_i32, %c383367506_i32, %c1511750638_i32, %65, %c1321462035_i32, %65, %c383367506_i32, %c1321462035_i32, %c383367506_i32, %c383367506_i32, %c383367506_i32, %c527088365_i32, %c383367506_i32, %c383367506_i32, %c1511750638_i32, %c383367506_i32, %c383367506_i32, %65, %c1511750638_i32, %c383367506_i32, %c527088365_i32, %c383367506_i32, %c1511750638_i32, %c383367506_i32, %c1321462035_i32, %65, %c527088365_i32, %c383367506_i32, %c1511750638_i32, %c1321462035_i32, %c1511750638_i32, %c527088365_i32, %65, %65, %c1321462035_i32, %c527088365_i32, %65, %c527088365_i32, %c1511750638_i32, %c383367506_i32, %c1321462035_i32, %c1321462035_i32, %c3833675…
7, %30, %33, %30, %112, %73, %99, %30, %99, %31, %46, %33, %114, %109, %false, %103, %109, %true_22, %97, %true, %31, %true_22, %112, %103, %23, %105, %112, %52, %true_22, %52, %105, %97, %64, %64, %52, %true_22, %33, %false, %73, %46, %true_22, %103, %30, %true, %103, %97, %true, %114, %64, %97, %false, %112, %false_17, %false_17, %false_17, %109, %97, %97, %false, %46, %64, %23, %33, %73, %false_17, %103, %31, %23, %false, %97, %105, %114, %97, %30, %33, %97, %99, %53, %97, %73, %100, %false, %33, %46, %103, %23, %true_22, %23, %109, %112, %23, %true_22, %64, %false, %112, %109, %true, %true_22, %true, %105, %true_22, %64, %46, %true, %53, %105, %99, %false_17, %73, %31, %114, %99, %105, %true_22, %46, %73, %103, %true_22, %52, %114, %30, %64, %100, %97, %52, %73, %100, %false, %52, %31, %false, %100, %64, %53, %105, %112, %97, %true_22, %109, %23, %true_22, %false_17, %97, %73, %105, %true_22, %53, %31, %46, %64, %105, %100, %true, %30, %109, %97, %105, %true, %97, %52, %73, %112, %53, %33, %73, %73, %52, %100, %73, %53, %46, %30, %103, %114, %97, %73, %31, %23, %114, %23, %112, %46, %73, %52, %true_22, %true_22, %109, %31, %false_17, %103, %46, %109, %52, %109, %105, %114, %33, %true_22, %114, %73, %112, %false_17, %112, %false_17, %30, %false, %false_17, %99, %30, %true, %105, %46, %103, %31, %false_17, %46, %52, %112, %33, %105, %false_17, %73, %105, %103, %true_22, %100, %true_22, %53, %true_22, %false, %23, %30, %true_22, %73, %64, %73, %53, %112, %114, %112, %99, %30, %64, %23, %23, %99, %114, %52, %true_22, %73, %99, %23, %99, %true, %112, %103, %112, %97, %46, %99, %30, %53, %105, %53, %false, %true_22, %100, %23, %46, %31, %33, %31, %112, %109, %false, %46, %false_17, %33, %53, %105, %33, %97, %31, %30, %true_22, %46, %true, %23, %52, %53, %64, %97, %23, %23, %109, %64, %100, %false, %114, %false_17, %112, %114, %103, %114, %109, %105, %109, %true, %false_17, %64, %97, %99, %23, %105, %105, %53, %true, %97, %99, %23, %97, %31, %31, %103, %109, %73, %103, %46, %false_17, %23, %103, %112, %31, %109, %false_17, %true_22, %112, %112, %52, %73, %true_22, %52, %73, %105, %105, %64, %53, %99, %false, %97, %false, %true_22, %103, %64, %105, %46, %64, %105, %30, %112, %105, %false, %31, %33, %109, %73, %114, %30, %52, %97, %false, %31, %73, %114, %109, %112, %105, %31, %114, %52, %105, %109, %true_22, %105, %true, %105, %103, %false, %97, %31, %30, %97, %64, %false, %103, %97, %100, %46, %109, %64, %112, %53, %true, %64, %114, %true_22, %100, %64, %33, %true_22, %64, %109, %false_17, %100, %97, %31, %false, %109, %46, %23, %true_22, %105, %23, %100, %false_17, %30, %103, %64, %109, %23, %112, %103, %52, %false_17, %23, %52, %97, %73, %46, %46, %true, %23, %31, %53, %100, %114, %64, %99, %true, %112, %114, %33, %105, %97, %true, %false_17, %100, %99, %52, %100, %30, %109, %false_17, %109, %109, %false, %53, %53, %true_22, %112, %23, %true_22, %46, %53, %false_17, %46, %23, %true, %true_22, %112, %true, %false_17, %52, %false, %103, %30, %false_17, %30, %30, %103, %64, %103, %31, %100, %109, %64, %112, %100, %52, %52, %false, %false, %23, %46, %73, %100, %103, %33, %97, %109, %73, %112, %false, %46, %30, %97, %103, %73, %53, %33, %114, %109, %109, %true_22, %33, %33, %100, %73, %53, %100, %114, %23, %false, %109, %33, %52, %103, %30, %23, %46, %99, %46, %46, %64, %112, %99, %97, %true, %99, %64, %52, %103, %103, %true_22, %105, %112, %64, %46, %23, %114, %97, %31, %97, %97, %99, %31, %33, %100, %23, %31, %100, %64, %97, %33, %109, %112, %33, %52, %53, %false_17, %true, %99, %73, %100, %31, %23, %64, %53, %23, %30, %112, %23, %99, %99, %100, %30, %105, %99, %30, %99, %23, %114, %109, %99, %true_22, %31, %30, %false_17, %52, %true_22, %112, %true_22, %false_17, %30, %false_17, %33, %true, %73, %53, %false_17, %52, %52, %99, %99, %true_22, %105, %false, %114, %105, %23, %114, %false, %30, %true_22, %23, %30, %114, %false, %112, %100, %53, %103, %false_17, %33, %64, %false, %103, %97, %33, %23, %105, %true, %31, %53, %73, %false, %112, %false_17, %114, %64, %112, %false, %97, %99, %100, %73, %33, %105, %52, %105, %99, %23, %false_17, %103, %100, %33, %73, %31, %100, %false, %112, %97, %23, %53, %103, %105, %109, %33, %30, %31, %33, %53, %31, %false, %105, %105, %31, %false, %true, %46, %33, %99, %73, %true_22, %true_22, %103, %53, %109, %105, %false, %64, %53, %97, %114, %73, %103, %52, %true_22, %105, %109, %73, %112, %true_22, %105, %103, %46, %64, %114, %105, %97, %52, %97, %112, %52, %114, %97, %64, %30, %false, %33, %64, %52, %103, %103, %103, %100, %53, %52, %112, %112, %103, %103, %109, %33, %30, %31, %33, %46, %114, %99, %true_22, %112, %23, %false_17, %99, %112, %false_17, %97, %109, %33, %114, %105, %46, %33, %103, %109, %109, %true, %false, %23, %false_17, %30, %103, %109, %true, %73, %73, %73, %53, %31, %true, %73, %112, %31, %53, %30, %73, %73, %103, %53, %true_22, %112, %52, %105, %114, %30, %33, %true_22, %53, %64, %true_22, %114, %99, %112, %109, %false_17, %114, %100, %true_22, %33, %33, %true_22, %33, %105, %52, %100, %53, %true_22, %46, %53, %31, %53, %103, %73, %105, %33, %105, %31, %true, %114, %23, %100, %114, %109, %105, %52, %true_22, %109, %52, %114, %105, %112, %false_17, %30, %true_22, %46, %52, %109, %23, %31, %97, %114, %31, %73, %30, %99, %100, %23, %false_17, %false_17, %false, %31, %112, %23, %105, %true, %114, %53, %109, %97, %23, %103, %30, %114, %109, %100, %52, %114, %23, %31, %73, %109, %97, %97, %97, %31, %112, %112, %33, %52, %109, %64, %73, %true_22, %53, %100, %false, %46, %114, %52, %73, %false_17, %true, %64, %53, %true_22, %52, %false, %false_17, %100, %73, %105, %33, %99, %31, %52, %31, %105, %23, %112, %97, %105, %true, %false, %23, %99, %23, %112, %false_17, %52, %false, %46, %true, %100, %false_17, %103, %23, %114, %23, %105, %53, %73, %109, %105, %112, %73, %23, %52, %73, %52, %114, %97, %52, %true, %true, %true, %105, %52, %73, %112, %97, %false_17, %109, %31, %false_17, %114, %true, %105, %30, %false_17, %true_22, %true, %103, %105, %100, %99, %31, %99, %73, %46, %112, %33, %23, %114, %46, %53, %31, %52, %false, %31, %true, %100, %false_17, %false_17, %true, %97, %103, %114, %64, %103, %false, %97, %64, %false, %103, %112, %99, %100, %99, %112, %52, %30, %false_17, %23, %114, %105, %53, %true_22, %23, %true, %114, %33, %true, %99, %114, %99, %103, %46, %100, %53, %114, %114, %73, %53, %true, %114, %30, %112, %114, %true, %99, %73, %33, %97, %105, %105, %true, %52, %103, %53, %23, %true_22, %23, %false, %true_22, %31, %false_17, %52, %97, %true_22, %33, %73, %true_22, %23, %114, %99, %64, %114, %false, %105, %100, %31, %105, %105, %73, %73, %true, %53, %23, %53, %100, %31, %112, %112, %false_17, %false, %33, %30, %33, %false_17, %31, %31, %31, %true, %64, %112, %31, %53, %true_22, %true_22, %100, %99, %31, %23, %false, %114, %109, %73, %false_17, %73, %false_17, %53, %46, %112, %true_22, %false, %false, %true, %30, %53, %true_22, %105, %112, %true, %112, %true_22, %109, %true_22, %105, %33, %97, %109, %99, %97, %46, %30, %52, %97, %112, %64, %33, %46, %31, %97, %false, %false_17, %false, %100, %23, %109, %false_17, %30, %97, %114, %46, %73, %52, %true_22, %33, %109, %true_22, %64, %99, %109, %false, %99, %31, %109, %99, %97, %33, %53, %109, %53, %false_17, %52, %64, %73, %73, %31, %30, %23, %30, %33, %false, %100, %53, %103, %true_22, %114, %false, %100, %112, %33, %53, %64, %false_17, %73, %false_17, %112, %100, %64, %53, %true_22, %109, %109, %false_17, %109, %114, %53, %46, %53, %false, %97, %53, %64, %99, %73, %46, %31, %33, %53, %23, %46, %73, %64, %true, %23, %114, %99, %30, %109, %109, %false, %100, %73, %23, %109, %46, %false, %31, %false, %64, %false_17, %112, %true_22, %52, %99, %52, %105, %109, %false_17, %true_22, %73, %103, %33, %30, %64, %64, %52, %64, %31, %53, %73, %false_17, %53, %99, %52, %53, %64, %103, %114, %52, %23, %100, %true_22, %false, %103, %64, %23, %97, %false_17, %109, %99, %33, %33, %64, %52, %33, %97, %52, %100, %false, %64, %97, %64, %99, %31, %112, %112, %97, %true, %46, %97, %31, %114, %false_17, %64, %73, %105, %false, %99, %64, %52, %true, %true_22, %false_17, %52, %53, %52, %112, %23, %99, %30, %114, %114, %true_22, %114, %64, %30, %73, %23, %46, %105, %true, %73, %112, %114, %true, %103, %53, %53, %23, %false, %23, %114, %true, %103, %true_22, %23, %100, %false_17, %64, %30, %112, %true, %64, %105, %73, %false, %52, %114, %52, %112, %false_17, %52, %46, %99, %97, %114, %97, %64, %false, %31, %46, %true, %103, %114, %true_22, %114, %73, %false, %112, %53, %false_17, %97, %64, %97, %false, %105, %109, %23, %30, %33, %30, %false, %52, %30, %105, %114, %73, %99, %33, %31, %46, %97, %103, %64, %true, %109, %97, %73, %true_22, %109, %112, %33, %103, %false, %31, %109, %105, %31, %73, %73, %53, %true, %53, %103, %53, %46, %46, %true_22, %99, %114, %52, %false, %73, %23, %true_22, %103, %64, %109, %53, %53, %53, %false_17, %99, %105, %100, %23, %false_17, %109, %true_22, %30, %114, %73, %52, %46, %53, %97, %33, %100, %23, %103, %109, %23, %30, %23, %true, %true, %64, %46, %31, %64, %30, %64, %114, %103, %114, %33, %53, %105, %97, %97, %97, %73, %64, %30, %52, %true_22, %true_22, %52, %52, %97, %true_22, %30, %false_17, %99, %31, %30, %105, %30, %105, %114, %114, %114, %114, %64, %99, %46, %103, %30, %30, %52, %23, %23, %31, %30, %114, %103, %31, %false, %23, %true_22, %31, %112, %112, %30, %52, %46, %114, %103, %114, %false, %23, %true, %99, %97, %23, %23, %true_22, %109, %30, %30, %52, %23, %97, %46, %114, %100, %97, %103, %52, %97, %114, %64, %105, %33, %53, %100, %105, %97, %46, %false_17, %114, %31, %23, %114, %99, %103, %53, %112, %99, %112, %33, %64, %23, %46, %103, %100, %true_22, %true_22, %53, %30, %97, %31, %100, %true, %112, %112, %73, %23, %103, %73, %46, %53, %99, %false_17, %103, %105, %true, %false, %31, %99, %99, %103, %23, %99, %103, %114, %103, %112, %30, %23, %false, %false_17, %true_22, %105, %false_17, %114, %23, %true_22, %64, %52, %true_22, %109, %46, %105, %114, %112, %105, %false, %46, %99, %109, %23, %true_22, %46, %true, %30, %73, %false_17, %true, %103, %23, %false, %46, %52, %53, %100, %105, %31, %23, %33, %31, %100, %30, %46, %109, %100, %true_22, %97, %false, %true, %73, %46, %105, %true_22, %114, %31, %true_22, %99, %105, %true_22, %31, %30, %97, %99, %true, %53, %97, %52, %100, %105, %109, %31, %33, %73, %true_22, %23, %97, %103, %114, %109, %97, %114, %46, %33, %64, %109, %112, %30, %31, %31, %99, %false_17, %false, %53, %true_22, %99, %46, %114, %100, %109, %105, %true_22, %33, %112, %105, %46, %true, %false, %false, %103, %23, %31, %99, %53, %73, %true_22, %false_17, %false, %true_22, %53, %64, %33, %false_17, %31, %109, %64, %false_17, %99, %114, %33, %52, %103, %114, %53, %46, %true_22, %100, %100, %52, %109, %105, %46, %false_17, %false_17, %73, %99, %33, %false, %105, %true_22, %false, %false, %73, %112, %false_17, %114, %33, %64, %114, %true_22, %99, %31, %97, %100, %30, %100, %true, %99, %52, %false, %97, %31, %97, %false, %97, %103, %112, %33, %30, %30, %false, %31, %112, %true, %99, %23, %46, %53, %23, %97, %97, %97, %30, %64, %112, %52, %73, %64, %true, %46, %52, %64, %112, %114, %97, %64, %31, %103, %31, %true, %33, %64, %53, %false, %46, %false_17, %99, %30, %112, %31, %100, %99, %33, %73, %97, %31, %52, %33, %false, %109, %100, %109, %true_22, %64, %46, %false_17, %105, %30, %109, %52, %true, %31, %109, %64, %103, %112, %false, %52, %33, %99, %97, %false, %53, %false, %109, %100, %73, %true_22, %30, %52, %52, %true, %99, %23, %46, %true_22, %64, %false, %true_22, %109, %true, %46, %64, %23, %109, %true_22, %97, %73, %53, %73, %112, %30, %73, %46, %103, %true, %52, %97, %109, %114, %100, %true, %112, %112, %true_22, %64, %false_17, %31, %64, %53, %23, %53, %false_17, %97, %false_17, %97, %52, %112, %112, %true, %53, %31, %46, %30, %true, %53, %64, %true, %23, %false, %103, %30, %112, %99, %73, %105, %73, %46, %100, %23, %30, %30, %true, %100, %99, %false_17, %103, %105, %true, %99, %true, %true, %112, %73, %52, %73, %46, %112, %23, %30, %112, %103, %100, %true, %112, %109, %64, %false, %true, %true, %73, %73, %false_17, %true, %64, %100, %73, %105, %97, %100, %53, %109, %false, %52, %true_22, %97, %30, %false, %105, %30, %true_22, %53, %true_22, %73, %true, %false, %31, %109, %false, %true_22, %30, %23, %false_17, %false_17, %52, %112, %112, %52, %114, %46, %103, %100, %114, %73, %100, %97, %64, %33, %false, %true, %73, %103, %97, %103, %99, %53, %false_17, %73, %false, %100, %30, %73, %99, %109, %112, %53, %true_22, %53, %false, %100, %114, %114, %114, %97, %true_22, %100, %46, %false, %105, %33, %30, %103, %true, %46, %true, %103, %103, %false, %false_17, %73, %23, %73, %31, %103, %53, %46, %112, %109, %100, %99, %23, %false_17, %99, %31, %31, %46, %33, %false_17, %64, %112, %true_22, %97, %105, %true, %46, %73, %99, %52, %46, %105, %33, %30, %46, %31, %64, %109, %109, %112, %73, %64, %73, %100, %33, %false_17, %52, %53, %true_22, %46, %114, %true, %53, %false, %73, %99, %true_22, %64, %112, %33, %true_22, %100, %23, %31, %true, %97, %114, %true_22, %true, %64, %23, %30, %53, %105, %30, %false, %33, %23, %64, %105, %100, %64, %false_17, %73, %100, %30, %103, %99, %31, %30, %97, %97, %46, %73, %109, %33, %105, %105, %64, %31, %true, %33, %114, %52, %23, %46, %30, %true_22, %52, %103, %true, %false_17, %23, %109, %64, %97, %97, %53, %105, %100, %false, %30, %100, %46, %true, %100, %109, %64, %97, %46, %109, %false, %64, %114, %73, %true, %103, %23, %109, %103, %64, %105, %97, %97, %false, %109, %33, %31, %100, %109, %64, %33, %97, %103, %73, %46, %64, %53, %false_17, %112, %53, %30, %103, %23, %33, %false_17, %105, %52, %46, %true_22, %105, %46, %true, %97, %73, %109, %31, %23, %46, %true, %23, %112, %52, %112, %100, %73, %99, %64, %105, %33, %109, %99, %false, %103, %false, %46, %112, %114, %114, %114, %false_17, %99, %true_22, %46, %64, %109, %46, %97, %52, %46, %97, %false, %99, %97, %53, %30, %99, %112, %33, %112, %52, %30, %97, %100, %99, %103, %true_22, %30, %73, %23, %53, %false_17, %true, %100, %105, %103, %23, %31, %false, %false_17, %false_17, %52, %52, %112, %109, %52, %99, %112, %31, %73, %23, %97, %46, %33, %52, %100, %true_22, %true_22, %109, %103, %false, %105, %31, %73, %46, %31, %true, %114, %112, %46, %46, %false, %73, %100, %false, %46, %53, %false, %false_17, %112, %53, %23, %23, %46, %114, %true, %31, %33, %100, %33, %33, %30, %false, %114, %true_22, %99, %31, %46, %97, %false_17, %30, %97, %109, %100, %109, %97, %53, %false, %46, %109, %false_17, %true, %97, %114, %114, %105, %33, %105, %73, %23, %100, %false_17, %53, %30, %64, %112, %73, %97, %false_17, %52, %64, %33, %99, %33, %100, %64, %105, %46, %73, %false, %73, %23, %30, %30, %31, %64, %112, %103, %52, %99, %false, %114, %52, %false, %109, %73, %105, %73, %64, %109, %33, %103, %103, %23, %false, %100, %97, %46, %31, %52, %true_22, %true_22, %30, %64, %false, %97, %46, %105, %46, %105, %112, %52, %53, %114, %false, %23, %73, %114, %23, %73, %97, %false, %53, %97, %114, %false, %114, %31, %103, %false, %100, %true, %true_22, %46, %true, %true, %true_22, %105, %100, %23, %100, %52, %97, %52, %52, %114, %31, %112, %33, %100, %true_22, %23, %103, %true_22, %33, %99, %64, %64, %52, %103, %true, %33, %46, %105, %99, %30, %105, %73, %99, %109, %false_17, %109, %112, %99, %31, %30, %105, %114, %99, %52, %64, %100, %31, %52, %false_17, %46, %109, %false, %99, %false_17, %99, %64, %99, %30, %53, %105, %64, %109, %false, %52, %112, %33, %99, %99, %109, %109, %53, %99, %46, %100, %105, %23, %97, %105, %31, %false_17, %true_22, %23, %64, %73, %103, %30, %30, %112, %true_22, %100, %73, %103, %100, %30, %46, %105, %false_17, %false, %103, %true_22, %53, %23, %true, %73, %false_17, %false_17, %46, %53, %100, %99, %114, %53, %52, %23, %103, %30, %46, %53, %64, %30, %true_22, %99, %46, %64, %109, %64, %105, %33, %46, %64, %114, %false, %31, %73, %false, %46, %30, %103, %23, %97, %true, %false, %109, %23, %31, %53, %97, %105, %97, %100, %false, %false, %97, %53, %103, %33, %31, %31, %97, %53, %97, %23, %false_17, %64, %109, %105, %64, %105, %100, %false_17, %100, %false, %false_17, %64, %33, %97, %99, %73, %73, %109, %false_17, %114, %64, %97, %97, %99, %64, %109, %33, %114, %52, %false_17, %103, %23, %33, %false_17, %99, %33, %97, %30, %112, %103, %109, %103, %true, %31, %97, %true, %112, %52, %109, %30, %23, %23, %109, %64, %73, %105, %true, %true, %100, %99, %true_22, %46, %100, %100, %97, %true_22, %true, %true, %46, %103, %105, %true_22, %99, %100, %52, %31, %30, %97, %100, %23, %112, %53, %64, %false_17, %46, %false, %109, %109, %false, %33, %46, %31, %64, %30, %105, %97, %112, %52, %false, %114, %105, %114, %53, %112, %109, %31, %114, %97, %true, %105, %114, %23, %30, %31, %105, %64, %105, %false, %109, %73, %114, %97, %46, %112, %103, %31, %109, %false_17, %31, %97, %53, %33, %true, %31, %false_17, %46, %97, %46, %false, %true, %33, %103, %53, %23, %112, %true_22, %112, %46, %73, %23, %105, %23, %30, %109, %73, %true_22, %23, %52, %97, %64, %23, %52, %false_17, %33, %53, %true_22, %105, %100, %99, %30, %52, %46, %109, %53, %105, %33, %33, %103, %109, %100, %114, %false, %64, %64, %false, %true, %30, %97, %64, %true_22, %52, %112, %false, %30, %false_17, %103, %105, %52, %true_22, %52, %23, %114, %52, %105, %64, %103, %73, %100, %112, %114, %33, %105, %64, %103, %53, %true_22, %73, %109, %99, %true_22, %112, %100, %103, %52, %103, %31, %30, %false_17, %100, %99, %true_22, %109, %103, %false_17, %73, %112, %true, %33, %64, %33, %100, %33, %31, %105, %52, %73, %46, %114, %30, %114, %53, %true, %true, %109, %30, %false_17, %105, %52, %false, %31, %97, %114, %false, %30, %97, %105, %false_17, %true, %100, %103, %64, %23, %97, %73, %99, %52, %64, %100, %false, %114, %30, %109, %100, %99, %109, %73, %false, %97, %64, %true_22, %30, %true_22, %false_17, %46, %33, %112, %false_17, %52, %52, %73, %false, %73, %109, %112, %23, %103, %53, %73, %100, %109, %105, %true_22, %100, %false_17, %64, %33, %31, %99, %112, %true_22, %30, %109, %23, %64, %64, %30, %99, %30, %99, %97, %53, %103, %true, %false, %false_17, %64, %30, %true_22, %109, %97, %103, %true, %73, %33, %52, %31, %false, %97, %100, %53, %30, %64, %53, %30, %64, %99, %false_17, %99, %100, %73, %23, %99, %30, %105, %73, %23, %23, %33, %97, %52, %64, %53, %33, %64, %114, %99, %false_17, %23, %97, %99, %73, %105, %112, %52, %64, %105, %53, %112, %true_22, %114, %33, %false_17, %114, %true, %97, %114, %31, %114, %30, %100, %99, %46, %103, %73, %true_22, %46, %64, %true_22, %103, %false_17, %23, %73, %false_17, %false_17, %true_22, %true, %true_22, %53, %112, %true, %52, %64, %103, %64, %73, %23, %109, %97, %31, %109, %30, %52, %114, %53, %103, %33, %true_22, %99, %false, %105, %46, %33, %46, %105, %109, %52, %true, %97, %103, %false, %30, %100, %30, %64, %99, %109, %105, %100, %false, %23, %99, %46, %109, %112, %105, %109, %109, %103, %true_22, %true_22, %97, %109, %99, %false, %30, %46, %33, %73, %false, %64, %31, %64, %false, %109, %99, %64, %100, %46, %52, %30, %31, %64, %99, %103, %23, %97, %23, %105, %false, %23, %53, %97, %99, %99, %true, %true_22, %23, %64, %true, %109, %true, %112, %23, %true, %30, %33, %99, %46, %64, %100, %33, %114, %99, %73, %103, %103, %73, %true_22, %73, %97, %99, %true_22, %31, %true_22, %33, %46, %103, %31, %false_17, %103, %105, %false, %46, %105, %23, %112, %103, %97, %31, %52, %31, %false, %112, %false, %73, %112, %109, %false, %true, %103, %73, %105, %100, %23, %true, %109, %114, %23, %99, %53, %97, %103, %100, %103, %64, %99, %31, %true, %100, %64, %true, %52, %64, %false, %97, %73, %73, %33, %33, %97, %30, %112, %100, %true_22, %109, %105, %112, %false_17, %30, %false, %33, %false_17, %73, %31, %99, %105, %false_17, %31, %true, %73, %103, %112, %false, %73, %false_17, %99, %103, %false_17, %73, %73, %99, %105, %46, %true, %112, %97, %100, %109, %33, %100, %109, %99, %23, %23, %73, %23, %109, %52, %false, %true_22, %73, %73, %105, %97, %30, %100, %100, %100, %97, %109, %64, %100, %33, %73, %false, %true_22, %73, %false, %false, %97, %99, %100, %105, %31, %114, %64, %false, %105, %103, %33, %99, %false, %30, %100, %53, %114, %false_17, %64, %100, %33, %false_17, %99, %52, %30, %30, %100, %33, %46, %true, %true, %true, %112, %23, %52, %true, %109, %99, %114, %false, %53, %23, %100, %33, %100, %112, %false, %true_22, %52, %30, %true_22, %112, %109, %64, %30, %64, %99, %99, %30, %true_22, %46, %true, %false, %23, %false_17, %73, %53, %53, %64, %99, %114, %false_17, %false, %52, %103, %100, %112, %33, %97, %true, %46, %true_22, %31, %31, %112, %73, %73, %73, %30, %false_17, %31, %73, %112, %109, %103, %53, %99, %false, %33, %103, %97, %false, %64, %false, %23, %99, %103, %33, %46, %true_22, %23, %33, %false_17, %109, %105, %114, %23, %53, %109, %false_17, %99, %97, %112, %112, %64, %52, %46, %52, %103, %64, %23, %false, %52, %64, %114, %52, %100, %true_22, %103, %false, %109, %112, %true, %73, %112, %109, %73, %114, %23, %64, %31, %105, %73, %97, %33, %false_17, %46, %109, %99, %103, %112, %false_17, %73, %103, %97, %false_17, %53, %103, %53, %false_17, %true_22, %64, %112, %103, %73, %100, %false, %109, %114, %true, %31, %46, %false, %103, %64, %true, %false_17, %99, %99, %23, %109, %103, %52, %23, %31, %23, %105, %31, %false_17, %false, %53, %30, %64, %114, %33, %105, %97, %33, %103, %31, %33, %103, %true_22, %112, %46, %46, %103, %33, %97, %true, %46, %46, %false, %105, %103, %52, %112, %false, %true_22, %97, %53, %23, %73, %true, %105, %109, %105, %64, %true, %103, %52, %30, %true, %false, %105, %46, %false_17, %true_22, %30, %64, %53, %73, %false, %105, %30, %31, %53, %64, %64, %true_22, %103, %97, %false, %true, %73, %100, %100, %false, %103, %false_17, %false_17, %30, %109, %46, %100, %105, %true_22, %52, %true_22, %31, %30, %true_22, %99, %103, %false, %114, %114, %false_17, %112, %103, %31, %99, %46, %97, %true_22, %46, %53, %30, %112, %103, %97, %100, %53, %30, %false_17, %109, %114, %105, %false_17, %31, %105, %53, %53, %114, %109, %64, %true, %64, %64, %false_17, %false_17, %31, %97, %64, %true, %46, %true_22, %100, %true, %true_22, %73, %false, %52, %true_22, %true_22, %103, %52, %53, %100, %46, %23, %73, %112, %23, %33, %73, %46, %53, %103, %33, %99, %64, %100, %31, %46, %53, %97, %97, %33, %true_22, %23, %false_17, %99, %114, %true_22, %33, %31, %112, %23, %64, %false, %97, %30, %53, %true_22, %46, %64, %105, %33, %46, %103, %97, %73, %46, %105, %114, %false_17, %73, %false_17, %100, %false, %33, %97, %46, %30, %31, %99, %true, %64, %30, %46, %31, %109, %97, %109, %33, %109, %53, %true_22, %52, %99, %30, %64, %105, %103, %31, %33, %105, %105, %64, %109, %64, %105, %105, %52, %109, %73, %97, %109, %30, %31, %105, %64, %97, %30, %false_17, %true, %33, %73, %109, %53, %73, %false, %97, %73, %109, %103, %false, %53, %103, %105, %112, %33, %109, %114, %33, %33, %114, %105, %99, %97, %114, %30, %52, %23, %false_17, %31, %64, %23, %true, %true_22, %103, %true_22, %true, %53, %103, %114, %73, %100, %true, %31, %97, %false_17, %100, %73, %false_17, %53, %31, %23, %114, %103, %109, %false, %30, %53, %112, %true, %73, %105, %46, %64, %31, %23, %105, %114, %97, %false_17, %99, %114, %33, %true_22, %23, %true_22, %53, %100, %23, %31, %64, %99, %112, %105, %33, %114, %53, %73, %97, %true_22, %109, %31, %64, %46, %97, %97, %false, %30, %false, %false, %false_17, %109, %53, %46, %false_17, %112, %73, %53, %73, %false_17, %73, %100, %30, %100, %114, %99, %false, %31, %31, %52, %31, %true, %105, %true_22, %true, %114, %103, %23, %112, %105, %30, %52, %97, %73, %114, %109, %false_17, %64, %46, %97, %64, %114, %64, %73, %99, %33, %52, %23, %114, %false_17, %114, %53, %109, %false_17, %46, %99, %100, %46, %33, %99, %64, %23, %112, %100, %31, %114, %33, %30, %true, %105, %100, %23, %31, %114, %103, %true_22, %105, %31, %53, %100, %64, %33, %97, %73, %99, %100, %true_22, %true, %23, %31, %true_22, %97, %46, %100, %33, %false_17, %97, %23, %97, %100, %23, %105, %114, %103, %false_17, %46, %64, %52, %112, %true, %112, %97, %30, %100, %true_22, %30, %52, %52, %true_22, %73, %64, %false_17, %112, %30, %true_22, %99, %52, %false, %105, %112, %114, %23, %64, %true_22, %30, %33, %false, %false_17, %103, %52, %30, %33, %true_22, %105, %112, %112, %33, %105, %33, %64, %114, %105, %true_22, %true, %53, %112, %31, %109, %33, %109, %99, %99, %33, %64, %true_22, %64, %33, %false, %false, %53, %53, %100, %46, %97, %99, %73, %30, %false, %46, %97, %109, %46, %46, %112, %105, %46, %false_17, %31, %109, %true, %33, %112, %46, %97, %105, %false, %31, %52, %31, %33, %false, %97, %112, %114, %112, %105, %112, %100, %33, %true_22, %103, %103, %97, %31, %23, %100, %52, %33, %33, %true_22, %99, %false_17, %114, %true_22, %52, %46, %33, %109, %64, %109, %53, %105, %31, %52, %23, %30, %33, %100, %46, %false_17, %46, %99, %99, %64, %33, %true_22, %true_22, %112, %100, %112, %109, %99, %true, %109, %97, %114, %112, %true, %105, %true, %false_17, %46, %33, %true, %true, %true, %97, %52, %73, %52, %109, %false, %99, %105, %true_22, %true_22, %99, %73, %true_22, %33, %112, %52, %73, %33, %31, %31, %53, %97, %109, %100, %105, %true, %100, %64, %114, %114, %109, %33, %46, %64, %false_17, %46, %103, %73, %73, %64, %97, %true, %true_22, %true, %30, %97, %73, %23, %31, %100, %112, %46, %true_22, %64, %30, %33, %true_22, %23, %false_17, %53, %52, %30, %64, %112, %false_17, %97, %97, %105, %114, %53, %103, %true, %46, %105, %53, %97, %109, %53, %23, %46, %114, %99, %true_22, %109, %33, %103, %33, %114, %52, %100, %46, %31, %64, %false_17, %31, %53, %64, %109, %false, %true_22, %33, %53, %33, %46, %false_17, %99, %114, %100, %31, %114, %112, %23, %46, %103, %true, %114, %true_22, %109, %23, %100, %46, %109, %true_22, %53, %99, %23, %52, %112, %112, %33, %64, %30, %true, %false_17, %false, %73, %112, %23, %30, %46, %31, %99, %112, %23, %105, %100, %true, %100, %31, %30, %112, %30, %53, %true_22, %46, %true_22, %31, %true_22, %100, %31, %53, %false_17, %true_22, %99, %52, %97, %64, %64, %73, %true_22, %23, %64, %109, %103, %64, %false, %true, %99, %105, %false, %97, %114, %114, %true, %31, %103, %true, %112, %23, %53, %112, %103, %97, %73, %46, %true, %103, %true_22, %46, %105, %64, %97, %99, %100, %97, %105, %64, %97, %109, %112, %30, %105, %112, %100, %53, %52, %105, %103, %true_22, %103, %97, %97, %103, %33 : tensor<17x16x17xi1>
        %149 = math.absi %expanded_23 : tensor<?x17x1xi64>
        %150 = arith.shrui %41, %c10976_i16 : i16
        %151 = math.fpowi %107, %c1511750638_i32 : f32, i32
        %152 = tensor.empty() : tensor<272xf32>
        %unpack_26 = tensor.unpack %1 outer_dims_perm = [0] inner_dims_pos = [0] inner_tiles = [%c17] into %152 : tensor<16x17xf32> -> tensor<272xf32>
        %153 = tensor.empty(%19) : tensor<17x?x16xi16>
        %transposed = linalg.transpose ins(%5 : tensor<?x16x17xi16>) outs(%153 : tensor<17x?x16xi16>) permutation = [2, 0, 1] 
        %154 = vector.broadcast %65 : i32 to vector<17xi32>
        %155 = vector.maskedload %alloc_9[%c6, %c7, %c5], %20, %154 : memref<17x16x17xi32>, vector<17xi1>, vector<17xi32> into vector<17xi32>
        scf.yield
      }
      case 3 {
        %144 = arith.minui %c-5165_i16, %c-21738_i16 : i16
        %145 = index.and %c16, %39
        %146 = arith.xori %23, %false_17 : i1
        %alloca = memref.alloca() : memref<17xf32>
        %cast = tensor.cast %arg1 : tensor<10x16xi64> to tensor<?x?xi64>
        %147 = memref.load %alloc_11[%c7, %c15, %c3] : memref<17x16x17xf16>
        %148 = arith.divsi %c-21738_i16, %c-21738_i16 : i16
        %149 = arith.remui %c10976_i16, %c10976_i16 : i16
        memref.assume_alignment %54, 16 : memref<17x16x17xi32>
        %150 = math.atan2 %cst_1, %cst_1 : f16
        %151 = index.xor %c21, %85
        %152 = index.castu %105 : i1 to index
        %153 = math.tan %1 : tensor<16x17xf32>
        %c191792520_i32 = arith.constant 191792520 : i32
        memref.copy %alloc_2, %alloc_2 : memref<?xf32> to memref<?xf32>
        %154 = math.ctlz %65 : i32
        scf.yield
      }
      case 4 {
        %from_elements_22 = tensor.from_elements %111, %35, %36, %106, %36, %36, %26, %67, %cst, %51, %36, %88, %113, %40, %77, %40, %40, %cst_0, %51, %40, %107, %36, %40, %44, %44, %40, %35, %44, %40, %44, %107, %111, %44, %40, %40, %35, %44, %88, %67, %35, %81, %cst_0, %93, %113, %cst_0, %93, %35, %87, %40, %93, %93, %93, %cst_0, %87, %88, %35, %35, %26, %40, %111, %113, %26, %77, %77, %77, %87, %66, %111, %66, %67, %81, %cst_0, %87, %87, %81, %77, %106, %113, %88, %107, %81, %35, %32, %107, %87, %81, %26, %113, %87, %77, %32, %67, %106, %44, %35, %51, %51, %111, %113, %cst, %93, %26, %77, %cst_0, %107, %67, %67, %cst, %26, %66, %106, %40, %88, %cst, %81, %66, %107, %66, %66, %87, %67, %113, %81, %113, %32, %81, %40, %cst, %44, %66, %81, %44, %93, %111, %111, %32, %77, %cst_0, %26, %107, %107, %cst_0, %44, %cst, %36, %93, %107, %77, %32, %51, %36, %26, %113, %93, %113, %32, %cst_0, %cst_0, %66, %51 : tensor<10x16xf32>
        %144 = arith.xori %46, %46 : i1
        %145 = tensor.empty() : tensor<17x16xf16>
        %146 = linalg.matmul ins(%7, %145 : tensor<?x17xf16>, tensor<17x16xf16>) outs(%3 : tensor<?x16xf16>) -> tensor<?x16xf16>
        %true_23 = index.bool.constant true
        %147 = arith.andi %c990472205_i64, %61 : i64
        %148 = arith.shli %c527088365_i32, %c527088365_i32 : i32
        %149 = tensor.empty(%c7) : tensor<?x17x10xf16>
        %broadcasted = linalg.broadcast ins(%alloc_13 : memref<?x17xf16>) outs(%149 : tensor<?x17x10xf16>) dimensions = [2] 
        %150 = index.maxs %58, %c15
        %alloca = memref.alloca(%c15) : memref<?xf32>
        %151 = math.absf %77 : f32
        %alloca_24 = memref.alloca(%c31) : memref<?x16xf16>
        %152 = math.rsqrt %1 : tensor<16x17xf32>
        %153 = math.rsqrt %cst_0 : f32
        %154 = vector.broadcast %29 : f16 to vector<16xf16>
        %155 = vector.broadcast %true_23 : i1 to vector<16xi1>
        %156 = vector.maskedload %alloc_10[%c4, %c0], %155, %154 : memref<16x17xf16>, vector<16xi1>, vector<16xf16> into vector<16xf16>
        %157 = index.shrs %c15, %c14
        %158 = math.log2 %88 : f32
        scf.yield
      }
      default {
        %144 = math.exp %35 : f32
        %145 = arith.divui %97, %105 : i1
        %146 = vector.transpose %96, [0] : vector<2xi32> to vector<2xi32>
        %147 = math.roundeven %1 : tensor<16x17xf32>
        %148 = arith.shli %c238821326_i64, %57 : i64
        %149 = arith.addi %99, %false : i1
        %150 = vector.extract_strided_slice %17 {offsets = [0], sizes = [2], strides = [1]} : vector<2xi32> to vector<2xi32>
        %151 = arith.shli %53, %31 : i1
        %152 = arith.remf %67, %32 : f32
        %153 = index.casts %64 : i1 to index
        %154 = vector.splat %111 : vector<10x16xf32>
        %155 = arith.divsi %23, %97 : i1
        memref.store %29, %alloc_6[%c0, %c0, %c8] : memref<?x?x17xf16>
        %156 = arith.shli %33, %109 : i1
        %157 = arith.shrsi %57, %c453217699_i64 : i64
        %158 = arith.minui %c527088365_i32, %c383367506_i32 : i32
      }
      %133 = math.atan2 %40, %113 : f32
      %134 = arith.remf %40, %67 : f32
      %135 = arith.minsi %73, %97 : i1
      %136 = affine.vector_load %89[%c0, %c11, %c14] : memref<?x?x17xf16>, vector<17xf16>
      %137 = scf.if %97 -> (f16) {
        %144 = math.tan %11 : tensor<17xf16>
        %145 = math.cos %40 : f32
        %146 = vector.insertelement %23, %20[%c4 : index] : vector<17xi1>
        %147 = affine.max affine_map<(d0, d1, d2)[s0] -> (d2)>(%c11, %c28, %c6)[%50]
        %148 = vector.shuffle %136, %136 [0, 2, 3, 4, 7, 10, 12, 17, 19, 23, 24, 27, 30] : vector<17xf16>, vector<17xf16>
        %149 = arith.shrui %97, %31 : i1
        %150 = vector.matrix_multiply %98, %74 {lhs_columns = 1 : i32, lhs_rows = 1 : i32, rhs_columns = 1 : i32} : (vector<1xi32>, vector<1xi32>) -> vector<1xi32>
        %151 = vector.matrix_multiply %150, %96 {lhs_columns = 1 : i32, lhs_rows = 1 : i32, rhs_columns = 2 : i32} : (vector<1xi32>, vector<2xi32>) -> vector<2xi32>
        scf.yield %29 : f16
      } else {
        %144 = arith.shrsi %c238821326_i64, %c453217699_i64 : i64
        %145 = tensor.empty() : tensor<17x10xi64>
        %146 = tensor.empty(%c31) : tensor<?x10xi64>
        %147 = linalg.matmul ins(%6, %145 : tensor<?x17xi64>, tensor<17x10xi64>) outs(%146 : tensor<?x10xi64>) -> tensor<?x10xi64>
        %148 = math.absf %111 : f32
        %149 = arith.ori %false, %30 : i1
        %150 = vector.reduction <maxf>, %136 : vector<17xf16> into f16
        %151 = math.rsqrt %4 : tensor<?xf16>
        %152 = arith.negf %32 : f32
        %153 = math.cos %77 : f32
        scf.yield %29 : f16
      }
      %138 = affine.min affine_map<(d0) -> ((((d0 - 4) ceildiv 16 + (d0 - 4) floordiv 64) mod 2) ceildiv 16)>(%42)
      %alloc_20 = memref.alloc() : memref<16x17xi32>
      %139 = index.castu %c11 : index to i32
      %alloc_21 = memref.alloc(%c0, %c3) : memref<?x?xi64>
      %from_elements = tensor.from_elements %c329904959_i64, %57, %c990472205_i64, %61, %61, %c990472205_i64, %c990472205_i64, %110, %94, %110, %c453217699_i64, %c238821326_i64, %94, %110, %c453217699_i64, %61, %110, %110, %110, %c990472205_i64, %94, %57, %61, %61, %c990472205_i64, %61, %c453217699_i64, %c238821326_i64, %c990472205_i64, %57, %c453217699_i64, %110, %c990472205_i64, %61, %c990472205_i64, %94, %94, %c990472205_i64, %94, %94, %94, %c329904959_i64, %c238821326_i64, %c329904959_i64, %c453217699_i64, %c238821326_i64, %94, %110, %110, %c990472205_i64, %57, %c990472205_i64, %57, %61, %c329904959_i64, %61, %94, %94, %94, %c990472205_i64, %c990472205_i64, %94, %57, %c453217699_i64, %c238821326_i64, %61, %94, %110, %c329904959_i64, %94, %110, %94, %c329904959_i64, %57, %c453217699_i64, %110, %c990472205_i64, %94, %c453217699_i64, %c990472205_i64, %61, %c329904959_i64, %c238821326_i64, %110, %c990472205_i64, %c238821326_i64, %c329904959_i64, %110, %c990472205_i64, %94, %c453217699_i64, %c990472205_i64, %c990472205_i64, %61, %c453217699_i64, %c238821326_i64, %c329904959_i64, %57, %c238821326_i64, %c990472205_i64, %c329904959_i64, %110, %57, %c329904959_i64, %c453217699_i64, %94, %57, %c453217699_i64, %c990472205_i64, %94, %110, %94, %c238821326_i64, %c453217699_i64, %61, %c329904959_i64, %c453217699_i64, %61, %94, %110, %c990472205_i64, %94, %94, %c329904959_i64, %c329904959_i64, %c329904959_i64, %61, %110, %c329904959_i64, %c453217699_i64, %110, %c453217699_i64, %c238821326_i64, %c329904959_i64, %57, %c238821326_i64, %57, %110, %110, %61, %61, %110, %c990472205_i64, %c453217699_i64, %c329904959_i64, %c329904959_i64, %94, %c329904959_i64, %c238821326_i64, %110, %c329904959_i64, %57, %110, %c329904959_i64, %c990472205_i64, %94, %c453217699_i64, %57, %57, %c329904959_i64 : tensor<10x16xi64>
      %140 = index.casts %39 : index to i32
      %141 = vector.contract {indexing_maps = [affine_map<(d0) -> (d0)>, affine_map<(d0) -> (d0)>, affine_map<(d0) -> ()>], iterator_types = ["reduction"], kind = #vector.kind<add>} %74, %98, %c1321462035_i32 : vector<1xi32>, vector<1xi32> into i32
      %142 = arith.cmpf ord, %35, %88 : f32
      %143 = vector.insert %c383367506_i32, %17 [1] : i32 into vector<2xi32>
      scf.index_switch %c6 
      case 1 {
        %144 = vector.insert %c1511750638_i32, %74 [0] : i32 into vector<1xi32>
        %145 = vector.broadcast %cst_1 : f16 to vector<11xf16>
        %146 = vector.broadcast %97 : i1 to vector<11xi1>
        %147 = vector.maskedload %alloc_13[%c0, %c12], %146, %145 : memref<?x17xf16>, vector<11xi1>, vector<11xf16> into vector<11xf16>
        %148 = affine.vector_load %alloc[%c14, %c6] : memref<?x16xf32>, vector<17xf32>
        vector.compressstore %alloc_11[%c4, %c5, %c14], %146, %147 : memref<17x16x17xf16>, vector<11xi1>, vector<11xf16>
        %149 = vector.splat %c0 : vector<17x16x17xindex>
        %150 = memref.load %89[%c0, %c0, %c9] : memref<?x?x17xf16>
        %151 = arith.minui %c990472205_i64, %c453217699_i64 : i64
        %splat = tensor.splat %137 : tensor<17xf16>
        %152 = index.shrs %c29, %c1
        %153 = vector.transpose %96, [0] : vector<2xi32> to vector<2xi32>
        memref.store %29, %alloc_10[%c11, %c7] : memref<16x17xf16>
        %154 = vector.load %alloc_13[%c0, %c13] : memref<?x17xf16>, vector<17x16x17xf16>
        %155 = math.exp2 %cst_1 : f16
        %156 = math.ctpop %true : i1
        %157 = bufferization.to_tensor %alloc_10 : memref<16x17xf16>
        %splat_22 = tensor.splat %57 : tensor<17xi64>
        scf.yield
      }
      case 2 {
        %144 = bufferization.clone %54 : memref<17x16x17xi32> to memref<17x16x17xi32>
        %145 = affine.min affine_map<(d0) -> ((-d0) mod 16)>(%c6)
        %146 = math.rsqrt %7 : tensor<?x17xf16>
        %147 = arith.ori %c1321462035_i32, %65 : i32
        %148 = vector.insert %30, %20 [16] : i1 into vector<17xi1>
        %alloc_22 = memref.alloc() : memref<17xi32>
        %149 = tensor.empty() : tensor<i32>
        %150 = linalg.dot ins(%8, %alloc_22 : tensor<17xi32>, memref<17xi32>) outs(%149 : tensor<i32>) -> tensor<i32>
        %splat = tensor.splat %53 : tensor<17x16x17xi1>
        %151 = math.ceil %81 : f32
        %alloca = memref.alloca() : memref<17x16x17xi64>
        %152 = affine.min affine_map<(d0) -> (d0 - 32)>(%71)
        %rank = tensor.rank %2 : tensor<10x16xi32>
        %153 = arith.ori %false, %105 : i1
        %154 = math.roundeven %13 : tensor<?xf16>
        %155 = math.expm1 %88 : f32
        %156 = math.log1p %13 : tensor<?xf16>
        %157 = math.cos %4 : tensor<?xf16>
        scf.yield
      }
      case 3 {
        %144 = index.maxu %c2, %71
        %145 = index.shl %85, %71
        %146 = math.atan2 %29, %29 : f16
        %147 = arith.shrsi %57, %c990472205_i64 : i64
        %148 = math.exp2 %77 : f32
        %149 = arith.xori %99, %114 : i1
        %150 = math.ceil %4 : tensor<?xf16>
        %151 = math.atan %1 : tensor<16x17xf32>
        %dim = tensor.dim %0, %c1 : tensor<16x17xi32>
        %152 = math.ctpop %0 : tensor<16x17xi32>
        %153 = vector.transpose %74, [0] : vector<1xi32> to vector<1xi32>
        %154 = tensor.empty() : tensor<272xf16>
        %unpack_22 = tensor.unpack %14 outer_dims_perm = [0] inner_dims_pos = [0] inner_tiles = [%c17] into %154 : tensor<16x17xf16> -> tensor<272xf16>
        %155 = index.maxs %c24, %c18
        %156 = affine.max affine_map<(d0, d1) -> (d0)>(%c27, %dim)
        %157 = index.castu %c24 : index to i32
        %158 = tensor.empty(%155) : tensor<?x17xi32>
        %159 = linalg.matmul ins(%9, %0 : tensor<?x16xi32>, tensor<16x17xi32>) outs(%158 : tensor<?x17xi32>) -> tensor<?x17xi32>
        scf.yield
      }
      default {
        %144 = math.log1p %81 : f32
        %145 = index.or %c15, %85
        %146 = math.exp %77 : f32
        %false_22 = index.bool.constant false
        %147 = affine.min affine_map<(d0, d1, d2)[s0] -> (d1 + d2)>(%c29, %c31, %c25)[%c1]
        %from_elements_23 = tensor.from_elements %95, %41, %c-21738_i16, %c10976_i16, %c-5165_i16, %95, %95, %95, %c10976_i16, %c-21738_i16, %95, %41, %41, %c-5165_i16, %c10976_i16, %c-21738_i16, %c10976_i16, %95, %c-21738_i16, %41, %c-5165_i16, %c10976_i16, %c10976_i16, %41, %c-21738_i16, %c-21738_i16, %c-5165_i16, %c10976_i16, %c-21738_i16, %c-21738_i16, %c-21738_i16, %41, %c10976_i16, %c-5165_i16, %c-5165_i16, %c-21738_i16, %c-21738_i16, %41, %41, %41, %c10976_i16, %41, %41, %c-5165_i16, %c-5165_i16, %c-21738_i16, %41, %c10976_i16, %41, %c-21738_i16, %c10976_i16, %c10976_i16, %c10976_i16, %c-21738_i16, %95, %c10976_i16, %c-5165_i16, %c-5165_i16, %95, %c10976_i16, %41, %c-21738_i16, %95, %41, %95, %c-5165_i16, %c10976_i16, %c-5165_i16, %41, %c-5165_i16, %41, %95, %c-21738_i16, %95, %95, %95, %c10976_i16, %c-21738_i16, %c-21738_i16, %c-5165_i16, %c-21738_i16, %95, %c-21738_i16, %41, %95, %c10976_i16, %c-5165_i16, %c-5165_i16, %41, %95, %41, %c-21738_i16, %41, %95, %95, %c10976_i16, %c-21738_i16, %c10976_i16, %95, %c-5165_i16, %41, %41, %95, %c10976_i16, %c-5165_i16, %95, %95, %95, %c-5165_i16, %c10976_i16, %c-5165_i16, %c-5165_i16, %c-21738_i16, %c10976_i16, %c10976_i16, %c-21738_i16, %c-21738_i16, %95, %c-5165_i16, %c-5165_i16, %95, %95, %c10976_i16, %95, %c-5165_i16, %c-21738_i16, %c-21738_i16, %c10976_i16, %c10976_i16, %c10976_i16, %95, %95, %41, %c-21738_i16, %41, %c-21738_i16, %c-5165_i16, %95, %c10976_i16, %c10976_i16, %c10976_i16, %c-5165_i16, %95, %95, %c-21738_i16, %41, %c10976_i16, %c10976_i16, %c-21738_i16, %c-21738_i16, %c10976_i16, %41, %95, %c10976_i16, %c10976_i16, %c-21738_i16, %c-21738_i16, %41, %95, %c-5165_i16 : tensor<10x16xi16>
        %148 = math.atan %14 : tensor<16x17xf16>
        %149 = arith.remf %36, %32 : f32
        %alloc_24 = memref.alloc(%c19) : memref<?x16xf32>
        %150 = arith.cmpf une, %137, %cst_1 : f16
        memref.copy %alloc_11, %alloc_11 : memref<17x16x17xf16> to memref<17x16x17xf16>
        %alloc_25 = memref.alloc() : memref<17xi16>
        affine.store %40, %alloc_2[%c17] : memref<?xf32>
        %151 = index.casts %c31 : index to i32
        %152 = index.sizeof
        %153 = vector.shuffle %136, %136 [1, 2, 3, 4, 5, 7, 8, 9, 13, 14, 15, 16, 18, 20, 23, 24, 25, 31, 33] : vector<17xf16>, vector<17xf16>
      }
    }
    %115 = math.roundeven %51 : f32
    %116 = spirv.FOrdEqual %cst_0, %36 : f32
    %117 = spirv.CL.erf %51 : f32
    %expanded = tensor.expand_shape %2 [[0], [1, 2]] : tensor<10x16xi32> into tensor<10x16x1xi32>
    %118 = spirv.LogicalNot %46 : i1
    %119 = arith.addf %cst, %87 : f32
    memref.store %c-5165_i16, %alloc_3[%c4] : memref<17xi16>
    %120 = spirv.BitFieldInsert %17, %96, %c527088365_i32, %95 : vector<2xi32>, i32, i16
    %121 = tensor.empty() : tensor<272xi32>
    %unpack = tensor.unpack %0 outer_dims_perm = [0] inner_dims_pos = [0] inner_tiles = [%c17] into %121 : tensor<16x17xi32> -> tensor<272xi32>
    %122 = arith.remui %110, %c329904959_i64 : i64
    %123 = math.exp2 %3 : tensor<?x16xf16>
    %124 = math.tan %14 : tensor<16x17xf16>
    %125 = arith.subi %c1321462035_i32, %c383367506_i32 : i32
    %126 = arith.shli %c527088365_i32, %c383367506_i32 : i32
    %127 = math.exp %7 : tensor<?x17xf16>
    %128 = spirv.FUnordGreaterThan %44, %32 : f32
    %129 = spirv.CL.cos %35 : f32
    %130 = spirv.FUnordGreaterThanEqual %36, %117 : f32
    scf.if %128 {
      vector.print %20 : vector<17xi1>
      %133 = math.exp %cst_0 : f32
      %134 = affine.apply affine_map<(d0, d1) -> (d0)>(%c12, %85)
      %135 = math.ctlz %c329904959_i64 : i64
      scf.if %112 {
        %139 = vector.load %alloc_8[%c0, %c0, %c2] : memref<?x?x17xi32>, vector<17xi32>
        %alloc_20 = memref.alloc(%c14, %c2) : memref<?x?xi32>
        %140 = vector.transfer_read %15[%c27, %50], %95 : tensor<10x16xi16>, vector<i16>
        %141 = vector.reduction <or>, %17 : vector<2xi32> into i32
        %142 = arith.andi %c1321462035_i32, %65 : i32
        affine.vector_store %20, %alloc_14[%68, %c23, %c31] : memref<17x16x17xi1>, vector<17xi1>
        %143 = affine.max affine_map<(d0, d1, d2)[s0] -> (d2)>(%c20, %c13, %c27)[%c6]
        affine.vector_store %20, %alloc_7[%c1, %58] : memref<10x16xi1>, vector<17xi1>
      }
      %136 = bufferization.clone %alloc_11 : memref<17x16x17xf16> to memref<17x16x17xf16>
      %137 = math.sqrt %4 : tensor<?xf16>
      %138 = index.add %arg0, %49
    } else {
      %133 = scf.index_switch %c5 -> vector<10x16xi64> 
      case 1 {
        %144 = math.log10 %129 : f32
        %145 = math.tan %cst_1 : f16
        %146 = arith.shrui %false, %73 : i1
        %alloc_21 = memref.alloc() : memref<16x17x16xi64>
        linalg.broadcast ins(%10 : tensor<16x17xi64>) outs(%alloc_21 : memref<16x17x16xi64>) dimensions = [2] 
        %alloca = memref.alloca() : memref<17xi1>
        %147 = math.log1p %29 : f16
        %148 = bufferization.to_tensor %89 : memref<?x?x17xf16>
        %149 = arith.remf %36, %81 : f32
        %extracted = tensor.extract %5[%c0, %c10, %c12] : tensor<?x16x17xi16>
        %150 = affine.min affine_map<(d0, d1, d2, d3)[s0] -> ((d3 - 1) mod 16 + 2)>(%arg0, %c9, %c8, %c15)[%c13]
        %151 = index.shru %c12, %49
        %152 = arith.xori %100, %99 : i1
        %153 = arith.muli %114, %116 : i1
        %154 = memref.load %alloc_8[%c0, %c0, %c4] : memref<?x?x17xi32>
        %155 = bufferization.clone %alloc_11 : memref<17x16x17xf16> to memref<17x16x17xf16>
        %156 = index.shru %c8, %c7
        %157 = vector.broadcast %c238821326_i64 : i64 to vector<10x16xi64>
        scf.yield %157 : vector<10x16xi64>
      }
      case 2 {
        %144 = affine.max affine_map<(d0, d1) -> (d0 - 16)>(%c15, %c4)
        %145 = index.castu %61 : i64 to index
        %146 = math.atan2 %51, %81 : f32
        %147 = math.atan2 %11, %11 : tensor<17xf16>
        %148 = arith.minui %false_17, %true : i1
        %c1505520476_i32 = arith.constant 1505520476 : i32
        %149 = arith.shrui %110, %c238821326_i64 : i64
        %150 = index.and %c20, %c27
        %151 = index.shrs %39, %c15
        %152 = affine.max affine_map<(d0, d1, d2, d3)[s0] -> ((d3 - 1) mod 16 + 2)>(%c23, %c3, %c17, %c5)[%c26]
        %alloc_21 = memref.alloc(%144) : memref<?x17xi32>
        %alloc_22 = memref.alloc() : memref<17x16x17xf32>
        memref.assume_alignment %alloc_14, 16 : memref<17x16x17xi1>
        %153 = vector.multi_reduction <xor>, %96, %c1321462035_i32 [0] : vector<2xi32> to i32
        affine.store %c1511750638_i32, %alloc_15[%c23, %c6, %c3] : memref<17x16x17xi32>
        %154 = math.powf %117, %40 : f32
        %155 = vector.broadcast %94 : i64 to vector<10x16xi64>
        scf.yield %155 : vector<10x16xi64>
      }
      default {
        memref.copy %alloc_14, %alloc_14 : memref<17x16x17xi1> to memref<17x16x17xi1>
        %144 = arith.negf %88 : f32
        %alloca = memref.alloca(%c10) : memref<?xi1>
        %145 = vector.transpose %74, [0] : vector<1xi32> to vector<1xi32>
        %146 = index.sizeof
        %147 = index.ceildivs %c15, %c7
        affine.store %cst_1, %89[%c3, %c11, %c8] : memref<?x?x17xf16>
        memref.copy %alloc_5, %alloc_5 : memref<16x17xi1> to memref<16x17xi1>
        %148 = math.powf %44, %81 : f32
        %149 = bufferization.clone %alloc_10 : memref<16x17xf16> to memref<16x17xf16>
        %150 = math.absi %52 : i1
        %151 = vector.contract {indexing_maps = [affine_map<(d0) -> (d0)>, affine_map<(d0) -> (d0)>, affine_map<(d0) -> ()>], iterator_types = ["reduction"], kind = #vector.kind<or>} %17, %96, %c527088365_i32 : vector<2xi32>, vector<2xi32> into i32
        %152 = math.cos %3 : tensor<?x16xf16>
        %153 = math.roundeven %129 : f32
        %splat = tensor.splat %97 : tensor<17xi1>
        %154 = arith.shrsi %c238821326_i64, %c453217699_i64 : i64
        %155 = vector.broadcast %57 : i64 to vector<10x16xi64>
        scf.yield %155 : vector<10x16xi64>
      }
      %134 = arith.shrsi %109, %false_17 : i1
      %135 = math.exp2 %67 : f32
      %136 = arith.divsi %c453217699_i64, %61 : i64
      %137 = vector.insert %c527088365_i32, %17 [0] : i32 into vector<2xi32>
      %138 = vector.broadcast %65 : i32 to vector<11xi32>
      %139 = vector.broadcast %false : i1 to vector<11xi1>
      %140 = vector.maskedload %alloc_15[%c5, %c15, %c2], %139, %138 : memref<17x16x17xi32>, vector<11xi1>, vector<11xi32> into vector<11xi32>
      %141 = arith.ori %46, %109 : i1
      %alloc_20 = memref.alloc() : memref<16x10x17xf16>
      %142 = tensor.empty() : tensor<16xf16>
      %143 = linalg.generic {indexing_maps = [affine_map<(d0, d1, d2) -> (d0, d1, d2)>, affine_map<(d0, d1, d2) -> (d0, d2)>, affine_map<(d0, d1, d2) -> (d0)>], iterator_types = ["parallel", "reduction", "reduction"]} ins(%alloc_20, %alloc_10 : memref<16x10x17xf16>, memref<16x17xf16>) outs(%142 : tensor<16xf16>) {
      ^bb0(%in: f16, %in_21: f16, %out: f16):
        %144 = arith.ori %97, %100 : i1
        linalg.yield %cst_1 : f16
      } -> tensor<16xf16>
    }
    %131 = spirv.GL.Sin %107 : f32
    %132 = math.log10 %93 : f32
    vector.print %17 : vector<2xi32>
    vector.print %20 : vector<17xi1>
    vector.print %74 : vector<1xi32>
    vector.print %96 : vector<2xi32>
    vector.print %98 : vector<1xi32>
    vector.print %c329904959_i64 : i64
    vector.print %true : i1
    vector.print %c527088365_i32 : i32
    vector.print %c238821326_i64 : i64
    vector.print %cst : f32
    vector.print %cst_0 : f32
    vector.print %c453217699_i64 : i64
    vector.print %c383367506_i32 : i32
    vector.print %c-21738_i16 : i16
    vector.print %false : i1
    vector.print %c1321462035_i32 : i32
    vector.print %c1511750638_i32 : i32
    vector.print %cst_1 : f16
    vector.print %c-5165_i16 : i16
    vector.print %c10976_i16 : i16
    vector.print %c990472205_i64 : i64
    vector.print %false_17 : i1
    vector.print %23 : i1
    vector.print %26 : f32
    vector.print %29 : f16
    vector.print %30 : i1
    vector.print %31 : i1
    vector.print %32 : f32
    vector.print %33 : i1
    vector.print %35 : f32
    vector.print %36 : f32
    vector.print %40 : f32
    vector.print %41 : i16
    vector.print %44 : f32
    vector.print %46 : i1
    vector.print %51 : f32
    vector.print %52 : i1
    vector.print %53 : i1
    vector.print %57 : i64
    vector.print %61 : i64
    vector.print %64 : i1
    vector.print %65 : i32
    vector.print %66 : f32
    vector.print %67 : f32
    vector.print %73 : i1
    vector.print %77 : f32
    vector.print %81 : f32
    vector.print %87 : f32
    vector.print %88 : f32
    vector.print %93 : f32
    vector.print %94 : i64
    vector.print %95 : i16
    vector.print %97 : i1
    vector.print %99 : i1
    vector.print %100 : i1
    vector.print %103 : i1
    vector.print %105 : i1
    vector.print %106 : f32
    vector.print %107 : f32
    vector.print %109 : i1
    vector.print %110 : i64
    vector.print %111 : f32
    vector.print %112 : i1
    vector.print %113 : f32
    vector.print %114 : i1
    vector.print %116 : i1
    vector.print %117 : f32
    vector.print %118 : i1
    vector.print %128 : i1
    vector.print %129 : f32
    vector.print %130 : i1
    vector.print %131 : f32
    return
  }
}
