"builtin.module"() ({
  "func.func"() <{function_type = (memref<32xi1>, vector<32xi16>, tensor<30x2x32xi16>) -> (), sym_name = "func1"}> ({
  ^bb0(%arg0: memref<32xi1>, %arg1: vector<32xi16>, %arg2: tensor<30x2x32xi16>):
    %0 = "arith.constant"() <{value = 5.712000e+04 : f16}> : () -> f16
    %1 = "arith.constant"() <{value = -24625 : i16}> : () -> i16
    %2 = "arith.constant"() <{value = 2029222169 : i64}> : () -> i64
    %3 = "arith.constant"() <{value = 1219044416 : i32}> : () -> i32
    %4 = "arith.constant"() <{value = 2.769600e+04 : f16}> : () -> f16
    %5 = "arith.constant"() <{value = 1953923515 : i64}> : () -> i64
    %6 = "arith.constant"() <{value = 4.760000e+02 : f16}> : () -> f16
    %7 = "arith.constant"() <{value = 1796557333 : i64}> : () -> i64
    %8 = "arith.constant"() <{value = -22188 : i16}> : () -> i16
    %9 = "arith.constant"() <{value = -28293 : i16}> : () -> i16
    %10 = "arith.constant"() <{value = 0x4E4161CE : f32}> : () -> f32
    %11 = "arith.constant"() <{value = true}> : () -> i1
    %12 = "arith.constant"() <{value = false}> : () -> i1
    %13 = "arith.constant"() <{value = 1191039570 : i32}> : () -> i32
    %14 = "arith.constant"() <{value = 1836917396 : i64}> : () -> i64
    %15 = "arith.constant"() <{value = 1157339642 : i64}> : () -> i64
    %16 = "arith.constant"() <{value = 0 : index}> : () -> index
    %17 = "arith.constant"() <{value = 1 : index}> : () -> index
    %18 = "arith.constant"() <{value = 2 : index}> : () -> index
    %19 = "arith.constant"() <{value = 3 : index}> : () -> index
    %20 = "arith.constant"() <{value = 4 : index}> : () -> index
    %21 = "arith.constant"() <{value = 5 : index}> : () -> index
    %22 = "arith.constant"() <{value = 6 : index}> : () -> index
    %23 = "arith.constant"() <{value = 7 : index}> : () -> index
    %24 = "arith.constant"() <{value = 8 : index}> : () -> index
    %25 = "arith.constant"() <{value = 9 : index}> : () -> index
    %26 = "arith.constant"() <{value = 10 : index}> : () -> index
    %27 = "arith.constant"() <{value = 11 : index}> : () -> index
    %28 = "arith.constant"() <{value = 12 : index}> : () -> index
    %29 = "arith.constant"() <{value = 13 : index}> : () -> index
    %30 = "arith.constant"() <{value = 14 : index}> : () -> index
    %31 = "arith.constant"() <{value = 15 : index}> : () -> index
    %32 = "arith.constant"() <{value = 16 : index}> : () -> index
    %33 = "arith.constant"() <{value = 17 : index}> : () -> index
    %34 = "arith.constant"() <{value = 18 : index}> : () -> index
    %35 = "arith.constant"() <{value = 19 : index}> : () -> index
    %36 = "arith.constant"() <{value = 20 : index}> : () -> index
    %37 = "arith.constant"() <{value = 21 : index}> : () -> index
    %38 = "arith.constant"() <{value = 22 : index}> : () -> index
    %39 = "arith.constant"() <{value = 23 : index}> : () -> index
    %40 = "arith.constant"() <{value = 24 : index}> : () -> index
    %41 = "arith.constant"() <{value = 25 : index}> : () -> index
    %42 = "arith.constant"() <{value = 26 : index}> : () -> index
    %43 = "arith.constant"() <{value = 27 : index}> : () -> index
    %44 = "arith.constant"() <{value = 28 : index}> : () -> index
    %45 = "arith.constant"() <{value = 29 : index}> : () -> index
    %46 = "arith.constant"() <{value = 30 : index}> : () -> index
    %47 = "arith.constant"() <{value = 31 : index}> : () -> index
    %48 = "tensor.empty"() : () -> tensor<30x2xi1>
    %49 = "tensor.empty"() : () -> tensor<30x2xf32>
    %50 = "tensor.empty"() : () -> tensor<30x2xf32>
    %51 = "tensor.empty"(%47, %41) : (index, index) -> tensor<?x?xi1>
    %52 = "tensor.empty"() : () -> tensor<32xf16>
    %53 = "tensor.empty"(%28) : (index) -> tensor<?xi64>
    %54 = "tensor.empty"() : () -> tensor<32xi16>
    %55 = "tensor.empty"() : () -> tensor<32xi1>
    %56 = "tensor.empty"() : () -> tensor<30x2xi64>
    %57 = "tensor.empty"(%45) : (index) -> tensor<?xi32>
    %58 = "tensor.empty"() : () -> tensor<32xi64>
    %59 = "tensor.empty"() : () -> tensor<30x2xi16>
    %60 = "tensor.empty"() : () -> tensor<30x2xf16>
    %61 = "tensor.empty"() : () -> tensor<30x2xi1>
    %62 = "tensor.empty"() : () -> tensor<30x2x32xf32>
    %63 = "tensor.empty"(%28, %20) : (index, index) -> tensor<?x?x32xi16>
    %64 = "memref.alloc"() <{operandSegmentSizes = array<i32: 0, 0>}> : () -> memref<30x2x32xi16>
    %65 = "memref.alloc"() <{operandSegmentSizes = array<i32: 0, 0>}> : () -> memref<30x2xf16>
    %66 = "memref.alloc"() <{operandSegmentSizes = array<i32: 0, 0>}> : () -> memref<30x2x32xi32>
    %67 = "memref.alloc"(%27) <{operandSegmentSizes = array<i32: 1, 0>}> : (index) -> memref<?xf32>
    %68 = "memref.alloc"(%23) <{operandSegmentSizes = array<i32: 1, 0>}> : (index) -> memref<?x2xi1>
    %69 = "memref.alloc"() <{operandSegmentSizes = array<i32: 0, 0>}> : () -> memref<30x2xi16>
    %70 = "memref.alloc"(%18, %31, %25) <{operandSegmentSizes = array<i32: 3, 0>}> : (index, index, index) -> memref<?x?x?xf32>
    %71 = "memref.alloc"() <{operandSegmentSizes = array<i32: 0, 0>}> : () -> memref<30x2xi64>
    %72 = "memref.alloc"(%42, %33) <{operandSegmentSizes = array<i32: 2, 0>}> : (index, index) -> memref<?x?xi16>
    %73 = "memref.alloc"() <{operandSegmentSizes = array<i32: 0, 0>}> : () -> memref<30x2xf16>
    %74 = "memref.alloc"(%41) <{operandSegmentSizes = array<i32: 1, 0>}> : (index) -> memref<?xi64>
    %75 = "memref.alloc"(%39, %32) <{operandSegmentSizes = array<i32: 2, 0>}> : (index, index) -> memref<?x?x32xf16>
    %76 = "memref.alloc"(%33) <{operandSegmentSizes = array<i32: 1, 0>}> : (index) -> memref<?x2xi1>
    %77 = "memref.alloc"() <{operandSegmentSizes = array<i32: 0, 0>}> : () -> memref<30x2xi1>
    %78 = "memref.alloc"(%19, %29) <{operandSegmentSizes = array<i32: 2, 0>}> : (index, index) -> memref<?x?xi1>
    %79 = "memref.alloc"(%38) <{operandSegmentSizes = array<i32: 1, 0>}> : (index) -> memref<?xf32>
    %80 = "spirv.CL.u_min"(%5, %14) : (i64, i64) -> i64
    "bufferization.dealloc_tensor"(%49) : (tensor<30x2xf32>) -> ()
    %81 = "vector.broadcast"(%12) : (i1) -> vector<6xi1>
    %82 = "vector.matrix_multiply"(%81, %81) <{lhs_columns = 6 : i32, lhs_rows = 1 : i32, rhs_columns = 1 : i32}> : (vector<6xi1>, vector<6xi1>) -> vector<1xi1>
    %83 = "math.expm1"(%60) <{fastmath = #arith.fastmath<none>}> : (tensor<30x2xf16>) -> tensor<30x2xf16>
    %84 = "spirv.FUnordGreaterThan"(%10, %10) : (f32, f32) -> i1
    %85 = "arith.ceildivsi"(%80, %2) : (i64, i64) -> i64
    %86 = "tensor.splat"(%8) : (i16) -> tensor<30x2xi16>
    %87 = "spirv.GL.Cos"(%6) : (f16) -> f16
    %88 = "index.maxu"(%18, %30) : (index, index) -> index
    %89 = "spirv.GL.UMax"(%9, %9) : (i16, i16) -> i16
    %90 = "math.atan2"(%0, %4) <{fastmath = #arith.fastmath<none>}> : (f16, f16) -> f16
    %91 = "spirv.GL.Sinh"(%0) : (f16) -> f16
    %92 = "index.xor"(%42, %34) : (index, index) -> index
    %93 = "tensor.from_elements"(%13, %13, %13, %13, %13, %13, %13, %3, %13, %13, %3, %3, %13, %13, %3, %3, %3, %13, %3, %3, %13, %13, %13, %3, %3, %3, %3, %13, %13, %13, %13, %3, %3, %13, %3, %13, %13, %13, %13, %13, %13, %3, %13, %3, %13, %13, %13, %3, %3, %13, %3, %3, %3, %3, %3, %13, %3, %13, %3, %13, %13, %3, %13, %3, %3, %3, %3, %3, %13, %3, %3, %3, %13, %13, %13, %13, %3, %13, %3, %13, %3, %13, %3, %13, %13, %3, %13, %3, %13, %13, %3, %13, %3, %3, %13, %3, %13, %3, %3, %13, %3, %3, %3, %13, %3, %3, %3, %3, %13, %3, %3, %13, %3, %3, %3, %13, %13, %13, %13, %13, %3, %13, %3, %13, %13, %13, %3, %3, %3, %3, %3, %13, %3, %13, %3, %13, %13, %13, %13, %3, %13, %3, %13, %13, %3, %3, %3, %3, %3, %13, %13, %13, %13, %13, %3, %3, %3, %13, %13, %13, %13, %3, %3, %13, %13, %13, %3, %3, %3, %3, %3, %13, %13, %13, %13, %3, %13, %3, %3, %3, %13, %13, %13, %3, %3, %13, %13, %3, %3, %13, %3, %3, %13, %13, %13, %3, %13, %13, %3, %3, %3, %3, %13, %3, %13, %3, %3, %13, %3, %3, %3, %13, %13, %13, %13, %13, %13, %3, %13, %13, %3, %3, %13, %3, %3, %3, %13, %3, %13, %3, %13, %3, %13, %13, %13, %13, %3, %13, %13, %3, %3, %3, %13, %13, %3, %13, %13, %13, %3, %3, %13, %3, %3, %13, %13, %13, %3, %3, %13, %3, %13, %3, %3, %3, %3, %13, %3, %13, %13, %3, %13, %13, %3, %13, %3, %13, %3, %13, %13, %13, %3, %13, %3, %13, %3, %13, %3, %13, %13, %13, %13, %13, %3, %3, %3, %13, %13, %3, %13, %3, %3, %3, %13, %3, %3, %3, %3, %13, %13, %3, %3, %13, %3, %13, %13, %3, %13, %3, %13, %13, %13, %13, %3, %3, %13, %13, %13, %3, %3, %3, %13, %3, %3, %3, %13, %13, %3, %3, %3, %3, %3, %3, %13, %13, %3, %3, %13, %13, %3, %13, %13, %3, %3, %3, %3, %13, %13, %3, %13, %3, %13, %3, %3, %3, %13, %13, %13, %13, %3, %13, %13, %13, %13, %13, %3, %3, %3, %3, %3, %13, %13, %13, %3, %13, %3, %3, %3, %3, %3, %13, %3, %3, %3, %13, %3, %13, %13, %13, %3, %13, %3, %3, %13, %13, %13, %3, %3, %3, %13, %3, %13, %13, %13, %13, %13, %3, %3, %3, %3, %3, %13, %13, %3, %3, %3, %13, %3, %3, %3, %13, %3, %13, %3, %13, %3, %3, %3, %3, %3, %3, %13, %3, %3, %3, %13, %3, %3, %13, %13, %13, %3, %3, %13, %13, %13, %3, %3, %13, %3, %13, %3, %13, %13, %3, %13, %3, %3, %3, %13, %13, %3, %13, %3, %13, %13, %13, %3, %13, %13, %3, %13, %3, %3, %13, %13, %13, %3, %3, %13, %3, %3, %13, %13, %3, %3, %3, %3, %13, %13, %13, %3, %3, %3, %3, %13, %3, %13, %13, %3, %13, %3, %3, %3, %13, %13, %13, %3, %3, %13, %13, %3, %13, %13, %3, %13, %3, %13, %3, %13, %3, %3, %3, %13, %13, %13, %13, %3, %13, %3, %13, %3, %13, %3, %3, %13, %3, %3, %13, %13, %13, %13, %13, %13, %13, %13, %3, %3, %13, %13, %13, %3, %13, %3, %13, %13, %13, %3, %3, %13, %13, %3, %3, %13, %13, %3, %3, %3, %13, %13, %13, %13, %3, %3, %13, %3, %3, %3, %3, %3, %13, %3, %13, %3, %3, %3, %3, %13, %13, %13, %13, %13, %13, %3, %3, %13, %13, %3, %3, %3, %13, %3, %3, %3, %3, %3, %3, %13, %3, %13, %13, %13, %3, %3, %13, %3, %13, %13, %3, %13, %13, %3, %13, %13, %3, %3, %3, %3, %13, %3, %13, %3, %3, %13, %3, %13, %13, %13, %3, %3, %3, %3, %13, %13, %3, %13, %13, %13, %3, %13, %3, %3, %3, %13, %13, %13, %13, %3, %13, %3, %13, %13, %13, %3, %13, %13, %3, %3, %13, %3, %3, %3, %3, %13, %13, %13, %13, %13, %3, %13, %13, %13, %13, %13, %3, %13, %13, %13, %13, %13, %13, %13, %3, %3, %13, %3, %13, %13, %3, %13, %3, %3, %13, %3, %13, %3, %13, %13, %13, %3, %3, %13, %3, %3, %13, %3, %13, %3, %13, %3, %3, %13, %3, %13, %3, %3, %3, %3, %13, %13, %13, %3, %3, %3, %13, %3, %3, %3, %13, %3, %13, %3, %3, %13, %3, %3, %3, %13, %3, %13, %13, %3, %3, %3, %13, %13, %3, %13, %13, %3, %13, %3, %3, %13, %3, %13, %3, %13, %13, %13, %13, %13, %3, %3, %13, %13, %13, %3, %13, %13, %13, %13, %13, %3, %13, %3, %3, %13, %3, %13, %13, %3, %3, %3, %13, %3, %13, %13, %13, %3, %13, %3, %3, %13, %3, %3, %13, %13, %13, %3, %13, %3, %3, %13, %3, %3, %13, %13, %13, %3, %13, %3, %3, %3, %13, %3, %3, %3, %13, %3, %13, %3, %3, %3, %3, %3, %3, %3, %13, %3, %3, %3, %3, %3, %13, %3, %3, %13, %3, %13, %13, %13, %13, %3, %13, %13, %13, %13, %13, %3, %3, %3, %13, %3, %13, %13, %3, %3, %3, %3, %3, %3, %13, %13, %13, %13, %3, %3, %13, %3, %3, %3, %3, %3, %3, %3, %13, %13, %3, %13, %3, %3, %3, %3, %13, %13, %3, %13, %3, %13, %13, %13, %13, %13, %13, %3, %13, %3, %13, %3, %3, %13, %3, %13, %3, %13, %13, %13, %13, %3, %13, %13, %13, %13, %13, %13, %3, %13, %3, %13, %3, %3, %3, %3, %3, %13, %3, %13, %13, %13, %13, %13, %13, %13, %13, %3, %3, %13, %3, %3, %13, %13, %13, %13, %3, %3, %13, %3, %13, %3, %3, %3, %3, %13, %3, %3, %3, %3, %13, %13, %3, %3, %3, %3, %3, %3, %3, %3, %13, %13, %3, %3, %13, %13, %3, %3, %13, %3, %13, %3, %3, %13, %3, %13, %13, %3, %13, %13, %13, %13, %3, %3, %13, %3, %13, %13, %13, %3, %3, %13, %13, %13, %3, %13, %13, %13, %13, %13, %3, %13, %3, %3, %13, %3, %3, %13, %13, %3, %3, %13, %3, %13, %3, %13, %13, %3, %13, %3, %13, %3, %13, %3, %13, %13, %13, %13, %13, %13, %3, %13, %13, %3, %3, %13, %3, %3, %13, %3, %3, %13, %3, %3, %13, %3, %3, %13, %13, %3, %13, %13, %13, %13, %13, %3, %13, %3, %13, %3, %3, %3, %13, %3, %13, %13, %3, %3, %3, %3, %3, %3, %13, %3, %13, %13, %3, %3, %13, %13, %13, %3, %3, %13, %13, %3, %3, %13, %13, %3, %3, %3, %13, %13, %13, %3, %3, %3, %13, %13, %13, %13, %13, %3, %3, %13, %13, %3, %13, %13, %13, %3, %3, %13, %3, %13, %13, %3, %3, %3, %13, %3, %3, %13, %13, %13, %13, %13, %13, %3, %13, %3, %13, %3, %13, %3, %3, %13, %3, %13, %3, %13, %13, %13, %13, %3, %3, %13, %13, %13, %3, %3, %3, %3, %13, %3, %13, %13, %3, %3, %3, %13, %13, %3, %3, %3, %3, %13, %3, %13, %3, %13, %3, %13, %3, %13, %3, %13, %13, %13, %3, %3, %3, %13, %13, %13, %13, %13, %3, %3, %3, %13, %3, %3, %13, %13, %13, %3, %13, %13, %13, %13, %13, %13, %13, %13, %13, %3, %13, %13, %13, %3, %3, %3, %13, %13, %3, %3, %13, %3, %13, %3, %13, %13, %13, %13, %3, %13, %13, %3, %3, %3, %3, %13, %13, %3, %3, %3, %13, %3, %13, %13, %3, %13, %13, %13, %13, %3, %13, %13, %3, %13, %3, %3, %13, %3, %13, %13, %13, %3, %3, %13, %3, %13, %13, %13, %3, %3, %3, %3, %3, %3, %13, %3, %3, %3, %13, %3, %3, %3, %3, %13, %3, %13, %3, %3, %3, %3, %13, %3, %13, %13, %13, %3, %13, %3, %13, %13, %3, %3, %13, %13, %3, %13, %13, %13, %13, %13, %3, %13, %13, %3, %13, %13, %3, %3, %13, %13, %13, %13, %3, %13, %13, %13, %3, %3, %3, %13, %13, %13, %3, %13, %3, %13, %13, %3, %13, %13, %3, %13, %13, %3, %13, %3, %3, %3, %3, %13, %3, %13, %13, %13, %13, %3, %3, %13, %3, %3, %13, %13, %3, %3, %3, %3, %3, %3, %3, %13, %13, %3, %3, %13, %13, %13, %3, %3, %3, %3, %3, %13, %13, %13, %3, %13, %13, %3, %13, %13, %13, %13, %3, %3, %3, %13, %3, %3, %13, %13, %13, %3, %13, %13, %3, %3, %3, %13, %13, %13, %3, %13, %13, %3, %3, %3, %13, %13, %3, %13, %3, %3, %13, %3, %3, %13, %13, %13, %13, %13, %3, %3, %13, %13, %13, %13, %3, %13, %3, %13, %13, %13, %3, %13, %13, %3, %3, %3, %13, %3, %13, %13, %13, %13, %3, %13, %13, %3, %13, %13, %13, %3, %3, %13, %3, %3, %3, %13, %3, %13, %3, %13, %13, %13, %3, %3, %13, %3, %13, %13, %13, %13, %3, %13, %3, %3, %13, %3, %13, %3, %13, %3, %13, %3, %13, %13, %3, %3, %3, %13, %3, %13, %13, %13, %3, %13, %13, %13, %13, %3, %3, %13, %3, %13, %13, %13, %13, %3, %13, %3, %3, %3, %3, %3, %13, %13, %13, %3, %13, %3, %13, %3, %3, %3, %3, %13, %13, %3, %3, %3, %3, %13, %3, %3, %13, %3, %13, %3, %3, %13, %3, %13, %13, %3, %3, %3, %13, %13, %3, %13, %13, %3, %13, %13, %3, %3, %3, %13, %13, %3, %13, %3, %3, %13, %13, %3, %3, %3, %13, %13, %13, %3, %13, %3, %13, %3, %3, %13, %13, %13, %13, %13, %3, %3, %3, %3, %3, %3, %3, %3, %3, %13, %3, %13, %13, %3, %3, %13, %3, %13, %3, %13, %3, %13, %13, %13, %13, %13, %3, %13, %3, %3, %13, %13, %13, %13, %3, %13, %13, %13, %3, %13, %3, %13, %3, %13, %3, %3, %13, %13, %3, %3, %13, %13, %3, %13, %3, %13, %13, %3, %13, %13, %13, %3, %13, %3, %3, %3, %3, %13, %3, %13, %13, %3, %13, %3, %3, %13, %13, %13, %13, %3, %3, %3, %3, %3, %3, %13, %3, %13, %3, %13, %13, %13, %3, %13, %13, %3, %3, %13, %13, %13, %3, %3, %13, %3, %13, %13, %3, %13, %3, %13, %3, %13, %13, %13, %13, %3, %3, %13, %3, %13, %13, %3, %13, %13, %3, %3, %13, %13, %3, %3, %13, %3, %13, %3, %13, %13, %3, %13, %13, %3, %3, %3, %13, %13, %3, %13, %3, %3, %3, %13, %13, %3, %3, %3, %3, %13, %3, %3, %13, %13, %13, %13, %13, %13, %13, %3, %13, %13, %3, %13, %13, %3, %3, %3, %3, %13, %13, %13, %3, %13, %13, %3, %3, %3, %3, %3, %3, %3, %13, %3, %13, %3, %3, %3, %13, %13, %3, %13, %13, %3, %3, %13, %13, %3, %13, %13, %3, %3, %13, %3, %13, %13, %13, %3, %13, %13, %13, %3, %3, %3, %13, %13, %3, %13, %13, %3, %3, %3, %13, %13, %3, %3, %3, %13, %13, %3, %3, %13, %13, %13, %13, %13, %13, %13, %13, %13, %3, %13, %13, %3, %3, %3, %3, %3, %13, %13, %3, %3, %3, %3, %3, %13, %3, %13, %3, %3, %3, %13, %3, %3, %3, %3, %3, %3, %13, %13, %13, %3, %3, %13, %13, %3, %13, %13, %13, %13, %13, %13, %13, %13, %3, %3, %3, %13, %13, %3, %13, %13, %3, %3, %13, %3, %3) : (i32, i32, i32, i32, i32, i32, i32, i32, i32, i32, i32, i32, i32, i32, i32, i32, i32, i32, i32, i32, i32, i32, i32, i32, i32, i32, i32, i32, i32, i32, i32, i32, i32, i32, i32, i32, i32, i32, i32, i32, i32, i32, i32, i32, i32, i32, i32, i32, i32, i32, i32, i32, i32, i32, i32, i32, i32, i32, i32, i32, i32, i32, i32, i32, i32, i32, i32, i32, i32, i32, i32, i32, i32, i32, i32, i32, i32, i32, i32, i32, i32, i32, i32, i32, i32, i32, i32, i32, i32, i32, i32, i32, i32, i32, i32, i32, i32, i32, i32, i32, i32, i32, i32, i32, i32, i32, i32, i32, i32, i32, i32, i32, i32, i32, i32, i32, i32, i32, i32, i32, i32, i32, i32, i32, i32, i32, i32, i32, i32, i32, i32, i32, i32, i32, i32, i32, i32, i32, i32, i32, i32, i32, i32, i32, i32, i32, i32, i32, i32, i32, i32, i32, i32, i32, i32, i32, i32, i32, i32, i32, i32, i32, i32, i32, i32, i32, i32, i32, i32, i32, i32, i32, i32, i32, i32, i32, i32, i32, i32, i32, i32, i32, i32, i32, i32, i32, i32, i32, i32, i32, i32, i32, i32, i32, i32, i32, i32, i32, i32, i32, i32, i32, i32, i32, i32, i32, i32, i32, i32, i32, i32, i32, i32, i32, i32, i32, i32, i32, i32, i32, i32, i32, i32, i32, i32, i32, i32, i32, i32, i32, i32, i32, i32, i32, i32, i32, i32, i32, i32, i32, i32, i32, i32, i32, i32, i32, i32, i32, i32, i32, i32, i32, i32, i32, i32, i32, i32, i32, i32, i32, i32, i32, i32, i32, i32, i32, i32, i32, i32, i32, i32, i32, i32, i32, i32, i32, i32, i32, i32, i32, i32, i32, i32, i32, i32, i32, i32, i32, i32, i32, i32, i32, i32, i32, i32, i32, i32, i32, i32, i32, i32, i32, i32, i32, i32, i32, i32, i32, i32, i32, i32, i32, i32, i32, i32, i32, i32, i32, i32, i32, i32, i32, i32, i32, i32, i32, i32, i32, i32, i32, i32, i32, i32, i32, i32, i32, i32, i32, i32, i32, i32, i32, i32, i32, i32, i32, i32, i32, i32, i32, i32, i32, i32, i32, i32, i32, i32, i32, i32, i32, i32, i32, i32, i32, i32, i32, i32, i32, i32, i32, i32, i32, i32, i32, i32, i32, i32, i32, i32, i32, i32, i32, i32, i32, i32, i32, i32, i32, i32, i32, i32, i32, i32, i32, i32, i32, i32, i32, i32, i32, i32, i32, i32, i32, i32, i32, i32, i32, i32, i32, i32, i32, i32, i32, i32, i32, i32, i32, i32, i32, i32, i32, i32, i32, i32, i32, i32, i32, i32, i32, i32, i32, i32, i32, i32, i32, i32, i32, i32, i32, i32, i32, i32, i32, i32, i32, i32, i32, i32, i32, i32, i32, i32, i32, i32, i32, i32, i32, i32, i32, i32, i32, i32, i32, i32, i32, i32, i32, i32, i32, i32, i32, i32, i32, i32, i32, i32, i32, i32, i32, i32, i32, i32, i32, i32, i32, i32, i32, i32, i32, i32, i32, i32, i32, i32, i32, i32, i32, i32, i32, i32, i32, i32, i32, i32, i32, i32, i32, i32, i32, i32, i32, i32, i32, i32, i32, i32, i32, i32, i32, i32, i32, i32, i32, i32, i32, i32, i32, i32, i32, i32, i32, i32, i32, i32, i32, i32, i32, i32, i32, i32, i32, i32, i32, i32, i32, i32, i32, i32, i32, i32, i32, i32, i32, i32, i32, i32, i32, i32, i32, i32, i32, i32, i32, i32, i32, i32, i32, i32, i32, i32, i32, i32, i32, i32, i32, i32, i32, i32, i32, i32, i32, i32, i32, i32, i32, i32, i32, i32, i32, i32, i32, i32, i32, i32, i32, i32, i32, i32, i32, i32, i32, i32, i32, i32, i32, i32, i32, i32, i32, i32, i32, i32, i32, i32, i32, i32, i32, i32, i32, i32, i32, i32, i32, i32, i32, i32, i32, i32, i32, i32, i32, i32, i32, i32, i32, i32, i32, i32, i32, i32, i32, i32, i32, i32, i32, i32, i32, i32, i32, i32, i32, i32, i32, i32, i32, i32, i32, i32, i32, i32, i32, i32, i32, i32, i32, i32, i32, i32, i32, i32, i32, i32, i32, i32, i32, i32, i32, i32, i32, i32, i32, i32, i32, i32, i32, i32, i32, i32, i32, i32, i32, i32, i32, i32, i32, i32, i32, i32, i32, i32, i32, i32, i32, i32, i32, i32, i32, i32, i32, i32, i32, i32, i32, i32, i32, i32, i32, i32, i32, i32, i32, i32, i32, i32, i32, i32, i32, i32, i32, i32, i32, i32, i32, i32, i32, i32, i32, i32, i32, i32, i32, i32, i32, i32, i32, i32, i32, i32, i32, i32, i32, i32, i32, i32, i32, i32, i32, i32, i32, i32, i32, i32, i32, i32, i32, i32, i32, i32, i32, i32, i32, i32, i32, i32, i32, i32, i32, i32, i32, i32, i32, i32, i32, i32, i32, i32, i32, i32, i32, i32, i32, i32, i32, i32, i32, i32, i32, i32, i32, i32, i32, i32, i32, i32, i32, i32, i32, i32, i32, i32, i32, i32, i32, i32, i32, i32, i32, i32, i32, i32, i32, i32, i32, i32, i32, i32, i32, i32, i32, i32, i32, i32, i32, i32, i32, i32, i32, i32, i32, i32, i32, i32, i32, i32, i32, i32, i32, i32, i32, i32, i32, i32, i32, i32, i32, i32, i32, i32, i32, i32, i32, i32, i32, i32, i32, i32, i32, i32, i32, i32, i32, i32, i32, i32, i32, i32, i32, i32, i32, i32, i32, i32, i32, i32, i32, i32, i32, i32, i32, i32, i32, i32, i32, i32, i32, i32, i32, i32, i32, i32, i32, i32, i32, i32, i32, i32, i32, i32, i32, i32, i32, i32, i32, i32, i32, i32, i32, i32, i32, i32, i32, i32, i32, i32, i32, i32, i32, i32, i32, i32, i32, i32, i32, i32, i32, i32, i32, i32, i32, i32, i32, i32, i32, i32, i32, i32, i32, i32, i32, i32, i32, i32, i32, i32, i32, i32, i32, i32, i32, i32, i32, i32, i32, i32, i32, i32, i32, i32, i32, i32, i32, i32, i32, i32, i32, i32, i32, i32, i32, i32, i32, i32, i32, i32, i32, i32, i32, i32, i32, i32, i32, i32, i32, i32, i32, i32, i32, i32, i32, i32, i32, i32, i32, i32, i32, i32, i32, i32, i32, i32, i32, i32, i32, i32, i32, i32, i32, i32, i32, i32, i32, i32, i32, i32, i32, i32, i32, i32, i32, i32, i32, i32, i32, i32, i32, i32, i32, i32, i32, i32, i32, i32, i32, i32, i32, i32, i32, i32, i32, i32, i32, i32, i32, i32, i32, i32, i32, i32, i32, i32, i32, i32, i32, i32, i32, i32, i32, i32, i32, i32, i32, i32, i32, i32, i32, i32, i32, i32, i32, i32, i32, i32, i32, i32, i32, i32, i32, i32, i32, i32, i32, i32, i32, i32, i32, i32, i32, i32, i32, i32, i32, i32, i32, i32, i32, i32, i32, i32, i32, i32, i32, i32, i32, i32, i32, i32, i32, i32, i32, i32, i32, i32, i32, i32, i32, i32, i32, i32, i32, i32, i32, i32, i32, i32, i32, i32, i32, i32, i32, i32, i32, i32, i32, i32, i32, i32, i32, i32, i32, i32, i32, i32, i32, i32, i32, i32, i32, i32, i32, i32, i32, i32, i32, i32, i32, i32, i32, i32, i32, i32, i32, i32, i32, i32, i32, i32, i32, i32, i32, i32, i32, i32, i32, i32, i32, i32, i32, i32, i32, i32, i32, i32, i32, i32, i32, i32, i32, i32, i32, i32, i32, i32, i32, i32, i32, i32, i32, i32, i32, i32, i32, i32, i32, i32, i32, i32, i32, i32, i32, i32, i32, i32, i32, i32, i32, i32, i32, i32, i32, i32, i32, i32, i32, i32, i32, i32, i32, i32, i32, i32, i32, i32, i32, i32, i32, i32, i32, i32, i32, i32, i32, i32, i32, i32, i32, i32, i32, i32, i32, i32, i32, i32, i32, i32, i32, i32, i32, i32, i32, i32, i32, i32, i32, i32, i32, i32, i32, i32, i32, i32, i32, i32, i32, i32, i32, i32, i32, i32, i32, i32, i32, i32, i32, i32, i32, i32, i32, i32, i32, i32, i32, i32, i32, i32, i32, i32, i32, i32, i32, i32, i32, i32, i32, i32, i32, i32, i32, i32, i32, i32, i32, i32, i32, i32, i32, i32, i32, i32, i32, i32, i32, i32, i32, i32, i32, i32, i32, i32, i32, i32, i32, i32, i32, i32, i32, i32, i32, i32, i32, i32, i32, i32, i32, i32, i32, i32, i32, i32, i32, i32, i32, i32, i32, i32, i32, i32, i32, i32, i32, i32, i32, i32, i32, i32, i32, i32, i32, i32, i32, i32, i32, i32, i32, i32, i32, i32, i32, i32, i32, i32, i32, i32, i32, i32, i32, i32, i32, i32, i32, i32, i32, i32, i32, i32, i32, i32, i32, i32, i32, i32, i32, i32, i32, i32, i32, i32, i32, i32, i32, i32, i32, i32, i32, i32, i32, i32, i32, i32, i32, i32, i32, i32, i32, i32, i32, i32, i32, i32, i32, i32, i32, i32, i32, i32, i32, i32, i32, i32, i32, i32, i32, i32, i32, i32, i32, i32, i32, i32, i32, i32, i32, i32, i32, i32, i32, i32, i32, i32, i32, i32, i32, i32, i32, i32, i32, i32, i32, i32, i32, i32, i32, i32, i32, i32, i32, i32, i32, i32, i32, i32, i32, i32, i32, i32, i32, i32, i32, i32, i32, i32, i32, i32, i32, i32, i32, i32, i32, i32, i32, i32, i32, i32, i32, i32, i32, i32, i32, i32, i32, i32, i32, i32, i32, i32, i32, i32, i32, i32, i32, i32, i32, i32, i32, i32, i32, i32, i32, i32, i32, i32, i32, i32, i32, i32, i32, i32, i32, i32, i32, i32, i32, i32, i32, i32, i32, i32, i32, i32, i32, i32, i32, i32, i32, i32, i32, i32, i32, i32, i32, i32, i32, i32, i32, i32, i32, i32, i32, i32, i32, i32, i32, i32, i32, i32, i32, i32, i32, i32, i32, i32, i32, i32, i32, i32, i32, i32, i32, i32, i32, i32, i32, i32, i32, i32, i32, i32, i32, i32, i32, i32, i32, i32, i32, i32, i32, i32, i32, i32, i32, i32, i32, i32, i32, i32, i32, i32, i32, i32, i32, i32, i32, i32, i32, i32, i32, i32, i32, i32, i32, i32, i32, i32, i32, i32, i32, i32, i32, i32, i32, i32, i32, i32, i32, i32, i32, i32, i32, i32, i32, i32, i32, i32, i32, i32, i32, i32, i32, i32, i32, i32, i32, i32, i32, i32, i32, i32, i32, i32, i32, i32, i32, i32, i32, i32, i32, i32, i32, i32, i32, i32, i32, i32, i32, i32, i32, i32, i32, i32, i32, i32, i32, i32, i32, i32, i32, i32, i32, i32, i32, i32, i32, i32, i32, i32, i32, i32, i32, i32, i32, i32, i32, i32, i32, i32, i32, i32, i32, i32, i32, i32, i32, i32, i32, i32, i32, i32, i32, i32, i32, i32, i32, i32, i32, i32, i32, i32, i32, i32, i32, i32, i32, i32, i32, i32, i32, i32, i32, i32, i32, i32, i32, i32, i32, i32, i32, i32, i32, i32, i32, i32, i32, i32, i32, i32, i32, i32, i32, i32, i32, i32, i32, i32, i32, i32, i32, i32, i32, i32, i32, i32, i32, i32, i32, i32, i32, i32, i32, i32, i32, i32, i32, i32, i32, i32, i32, i32, i32, i32, i32, i32, i32, i32, i32, i32, i32, i32, i32, i32, i32, i32, i32, i32, i32, i32, i32, i32, i32, i32, i32, i32, i32, i32, i32, i32, i32, i32, i32, i32, i32, i32, i32, i32, i32, i32, i32, i32, i32, i32, i32, i32, i32, i32, i32, i32, i32, i32, i32, i32, i32, i32, i32, i32, i32, i32, i32, i32, i32, i32, i32, i32, i32, i32, i32, i32, i32, i32, i32, i32, i32, i32, i32, i32, i32, i32, i32, i32, i32, i32, i32, i32, i32, i32, i32, i32, i32, i32, i32, i32, i32, i32, i32, i32, i32, i32, i32, i32, i32, i32, i32, i32, i32, i32, i32, i32, i32, i32, i32, i32, i32) -> tensor<30x2x32xi32>
    %94 = "spirv.GL.Acos"(%6) : (f16) -> f16
    %95 = "math.ctpop"(%48) : (tensor<30x2xi1>) -> tensor<30x2xi1>
    %96 = "vector.broadcast"(%87) : (f16) -> vector<30x2x32xf16>
    %97 = "affine.max"(%30) <{map = affine_map<(d0) -> (d0 * -16)>}> : (index) -> index
    %98 = "arith.remf"(%87, %4) <{fastmath = #arith.fastmath<none>}> : (f16, f16) -> f16
    %99 = "spirv.FUnordGreaterThanEqual"(%87, %0) : (f16, f16) -> i1
    %100 = "tensor.collapse_shape"(%62) <{reassociation = [[0, 1], [2]]}> : (tensor<30x2x32xf32>) -> tensor<60x32xf32>
    "memref.assume_alignment"(%79) <{alignment = 1 : i32}> : (memref<?xf32>) -> ()
    %101 = "spirv.BitCount"(%80) : (i64) -> i64
    %102 = "spirv.FUnordLessThan"(%91, %94) : (f16, f16) -> i1
    %103 = "spirv.GL.RoundEven"(%10) : (f32) -> f32
    %104 = "memref.realloc"(%67) : (memref<?xf32>) -> memref<6xf32>
    %105 = "arith.ceildivsi"(%14, %2) : (i64, i64) -> i64
    %106 = "spirv.GL.FMix"(%103, %10, %103) : (f32, f32, f32) -> f32
    %107 = "spirv.SLessThanEqual"(%5, %14) : (i64, i64) -> i1
    %108 = "math.copysign"(%49, %49) <{fastmath = #arith.fastmath<none>}> : (tensor<30x2xf32>, tensor<30x2xf32>) -> tensor<30x2xf32>
    %109 = "spirv.GL.Sinh"(%103) : (f32) -> f32
    %110 = "spirv.CL.floor"(%0) : (f16) -> f16
    %111 = "vector.extract"(%81) <{static_position = array<i64: 3>}> : (vector<6xi1>) -> i1
    %112 = "tensor.rank"(%54) : (tensor<32xi16>) -> index
    %113 = "spirv.INotEqual"(%2, %7) : (i64, i64) -> i1
    %114 = "spirv.FOrdEqual"(%4, %94) : (f16, f16) -> i1
    %115 = "arith.constant"() <{value = 0.000000e+00 : f32}> : () -> f32
    %116 = "vector.transfer_read"(%49, %19, %37, %115) <{operandSegmentSizes = array<i32: 1, 2, 1, 0>, permutation_map = affine_map<(d0, d1) -> (0)>}> : (tensor<30x2xf32>, index, index, f32) -> vector<2xf32>
    %117 = "spirv.CL.rint"(%103) : (f32) -> f32
    %118 = "arith.shli"(%15, %7) : (i64, i64) -> i64
    %119 = "vector.broadcast"(%103) : (f32) -> vector<f32>
    %120 = "vector.transfer_write"(%119, %50, %47, %25) <{operandSegmentSizes = array<i32: 1, 1, 2, 0>, permutation_map = affine_map<(d0, d1) -> ()>}> : (vector<f32>, tensor<30x2xf32>, index, index) -> tensor<30x2xf32>
    %121 = "index.sizeof"() : () -> index
    %122 = "math.ipowi"(%arg2, %arg2) : (tensor<30x2x32xi16>, tensor<30x2x32xi16>) -> tensor<30x2x32xi16>
    %123 = "vector.create_mask"(%22, %97) : (index, index) -> vector<30x2xi1>
    %124 = "spirv.CL.fmax"(%106, %106) : (f32, f32) -> f32
    %125 = "spirv.IsNan"(%109) : (f32) -> i1
    %126 = "tensor.from_elements"(%102, %107, %102, %113, %99, %12, %84, %114, %102, %99, %125, %84, %12, %99, %114, %11, %113, %113, %12, %107, %11, %102, %114, %11, %11, %12, %114, %125, %114, %84, %102, %12) : (i1, i1, i1, i1, i1, i1, i1, i1, i1, i1, i1, i1, i1, i1, i1, i1, i1, i1, i1, i1, i1, i1, i1, i1, i1, i1, i1, i1, i1, i1, i1, i1) -> tensor<32xi1>
    %127 = "vector.broadcast"(%103) : (f32) -> vector<30x2xf32>
    %128 = "vector.fma"(%127, %127, %127) : (vector<30x2xf32>, vector<30x2xf32>, vector<30x2xf32>) -> vector<30x2xf32>
    %129 = "spirv.CL.u_max"(%14, %15) : (i64, i64) -> i64
    %130 = "spirv.LogicalNotEqual"(%99, %102) : (i1, i1) -> i1
    %131 = "spirv.GL.Asin"(%117) : (f32) -> f32
    %132 = "spirv.GL.FMix"(%106, %117, %124) : (f32, f32, f32) -> f32
    %133 = "arith.mulf"(%132, %117) <{fastmath = #arith.fastmath<none>}> : (f32, f32) -> f32
    %134 = "tensor.empty"() : () -> tensor<30x2xi16>
    %135 = "spirv.GL.Floor"(%10) : (f32) -> f32
    %136 = "spirv.GL.Ldexp"(%132, %13) : (f32, i32) -> f32
    %137 = "arith.minui"(%8, %9) : (i16, i16) -> i16
    %138 = "spirv.GL.Asin"(%87) : (f16) -> f16
    %139 = "tensor.empty"() : () -> tensor<32xi16>
    %140 = "index.or"(%92, %29) : (index, index) -> index
    %141 = "vector.insertelement"(%84, %81, %37) : (i1, vector<6xi1>, index) -> vector<6xi1>
    %142 = "spirv.FUnordNotEqual"(%106, %124) : (f32, f32) -> i1
    %143 = "arith.remf"(%117, %109) <{fastmath = #arith.fastmath<none>}> : (f32, f32) -> f32
    %144 = "memref.cast"(%66) : (memref<30x2x32xi32>) -> memref<30x?x?xi32>
    %145 = "memref.alloc"() <{operandSegmentSizes = array<i32: 0, 0>}> : () -> memref<32xi16>
    %146 = "tensor.empty"() : () -> tensor<i16>
    %147 = "linalg.dot"(%139, %145, %146) <{operandSegmentSizes = array<i32: 2, 1>}> ({
    ^bb0(%arg3: i16, %arg4: i16, %arg5: i16):
      %214 = "arith.muli"(%arg3, %arg4) : (i16, i16) -> i16
      %215 = "arith.addi"(%arg5, %214) : (i16, i16) -> i16
      "linalg.yield"(%215) : (i16) -> ()
    }) {linalg.memoized_indexing_maps = [affine_map<(d0) -> (d0)>, affine_map<(d0) -> (d0)>, affine_map<(d0) -> ()>]} : (tensor<32xi16>, memref<32xi16>, tensor<i16>) -> tensor<i16>
    %148 = "index.shru"(%38, %44) : (index, index) -> index
    %149 = "affine.max"(%24, %121, %27, %26) <{map = affine_map<(d0, d1, d2, d3) -> (d2 - 64)>}> : (index, index, index, index) -> index
    %150 = "affine.min"(%39) <{map = affine_map<(d0) -> (d0 * -2)>}> : (index) -> index
    %151 = "math.roundeven"(%103) <{fastmath = #arith.fastmath<none>}> : (f32) -> f32
    %152 = "math.ceil"(%49) <{fastmath = #arith.fastmath<none>}> : (tensor<30x2xf32>) -> tensor<30x2xf32>
    %153 = "math.atan2"(%91, %94) <{fastmath = #arith.fastmath<none>}> : (f16, f16) -> f16
    %154 = "math.exp2"(%50) <{fastmath = #arith.fastmath<none>}> : (tensor<30x2xf32>) -> tensor<30x2xf32>
    %155 = "math.ctpop"(%56) : (tensor<30x2xi64>) -> tensor<30x2xi64>
    "vector.compressstore"(%arg0, %23, %82, %82) : (memref<32xi1>, index, vector<1xi1>, vector<1xi1>) -> ()
    %156 = "spirv.CL.round"(%136) : (f32) -> f32
    %157 = "spirv.CL.s_min"(%13, %3) : (i32, i32) -> i32
    %158 = "spirv.CL.rsqrt"(%4) : (f16) -> f16
    %159 = "spirv.CL.ceil"(%6) : (f16) -> f16
    %160 = "vector.flat_transpose"(%82) <{columns = 1 : i32, rows = 1 : i32}> : (vector<1xi1>) -> vector<1xi1>
    %161 = "vector.extract"(%127) <{static_position = array<i64: 3>}> : (vector<30x2xf32>) -> vector<2xf32>
    %162 = "vector.flat_transpose"(%82) <{columns = 1 : i32, rows = 1 : i32}> : (vector<1xi1>) -> vector<1xi1>
    %163 = "vector.transpose"(%123) <{transp = [1, 0]}> : (vector<30x2xi1>) -> vector<2x30xi1>
    "affine.parallel"() <{lowerBoundsGroups = dense<1> : tensor<2xi32>, lowerBoundsMap = affine_map<() -> (0, 0)>, reductions = [], steps = [1, 1], upperBoundsGroups = dense<1> : tensor<2xi32>, upperBoundsMap = affine_map<() -> (32, 30)>}> ({
    ^bb0(%arg3: index, %arg4: index):
      %214 = "vector.matrix_multiply"(%81, %82) <{lhs_columns = 1 : i32, lhs_rows = 6 : i32, rhs_columns = 1 : i32}> : (vector<6xi1>, vector<1xi1>) -> vector<6xi1>
      "affine.yield"() : () -> ()
    }) : () -> ()
    %164 = "vector.shuffle"(%96, %96) <{mask = [0, 2, 3, 4, 5, 6, 10, 12, 16, 17, 19, 20, 21, 26, 27, 30, 32, 35, 36, 39, 44, 45, 47, 48, 49, 50, 51, 52, 54, 55, 56, 57, 58]}> : (vector<30x2x32xf16>, vector<30x2x32xf16>) -> vector<33x2x32xf16>
    %165 = "memref.alloc"() <{operandSegmentSizes = array<i32: 0, 0>}> : () -> memref<32xf16>
    %166 = "tensor.empty"() : () -> tensor<f16>
    %167 = "linalg.dot"(%52, %165, %166) <{operandSegmentSizes = array<i32: 2, 1>}> ({
    ^bb0(%arg3: f16, %arg4: f16, %arg5: f16):
      %214 = "arith.mulf"(%arg3, %arg4) <{fastmath = #arith.fastmath<none>}> : (f16, f16) -> f16
      %215 = "arith.addf"(%arg5, %214) <{fastmath = #arith.fastmath<none>}> : (f16, f16) -> f16
      "linalg.yield"(%215) : (f16) -> ()
    }) {linalg.memoized_indexing_maps = [affine_map<(d0) -> (d0)>, affine_map<(d0) -> (d0)>, affine_map<(d0) -> ()>]} : (tensor<32xf16>, memref<32xf16>, tensor<f16>) -> tensor<f16>
    %168 = "index.castu"(%7) : (i64) -> index
    %169 = "spirv.ULessThan"(%1, %1) : (i16, i16) -> i1
    %170 = "spirv.CL.u_min"(%5, %101) : (i64, i64) -> i64
    %171 = "spirv.GL.UClamp"(%157, %157, %13) : (i32, i32, i32) -> i32
    %172 = "arith.remf"(%136, %106) <{fastmath = #arith.fastmath<none>}> : (f32, f32) -> f32
    %173 = "spirv.GL.Acos"(%4) : (f16) -> f16
    %174 = "bufferization.to_tensor"(%73) : (memref<30x2xf16>) -> tensor<30x2xf16>
    %175 = "math.rsqrt"(%52) <{fastmath = #arith.fastmath<none>}> : (tensor<32xf16>) -> tensor<32xf16>
    %176 = "spirv.GL.Round"(%91) : (f16) -> f16
    %177 = "spirv.CL.round"(%124) : (f32) -> f32
    %178 = "vector.broadcast"(%157) : (i32) -> vector<2xi32>
    %179 = "spirv.BitFieldInsert"(%178, %178, %129, %15) : (vector<2xi32>, vector<2xi32>, i64, i64) -> vector<2xi32>
    %180 = "spirv.CL.erf"(%106) : (f32) -> f32
    %181 = "spirv.CL.erf"(%91) : (f16) -> f16
    %182 = "vector.bitcast"(%160) : (vector<1xi1>) -> vector<1xi1>
    %183 = "index.sub"(%36, %33) : (index, index) -> index
    %184 = "affine.load"(%68, %28, %19) <{map = affine_map<(d0, d1) -> (d0, d1)>}> : (memref<?x2xi1>, index, index) -> i1
    %185 = "spirv.CL.s_min"(%7, %129) : (i64, i64) -> i64
    %186 = "arith.shli"(%99, %113) : (i1, i1) -> i1
    %187 = "vector.broadcast"(%181) : (f16) -> vector<f16>
    "vector.transfer_write"(%187, %65, %29, %183) <{operandSegmentSizes = array<i32: 1, 1, 2, 0>, permutation_map = affine_map<(d0, d1) -> ()>}> : (vector<f16>, memref<30x2xf16>, index, index) -> ()
    %188 = "spirv.BitwiseOr"(%178, %178) : (vector<2xi32>, vector<2xi32>) -> vector<2xi32>
    %189 = "index.ceildivu"(%37, %47) : (index, index) -> index
    %190 = "spirv.FUnordLessThan"(%103, %156) : (f32, f32) -> i1
    %191 = "spirv.FOrdLessThan"(%181, %87) : (f16, f16) -> i1
    %192 = "arith.constant"() <{value = false}> : () -> i1
    %193 = "tensor.empty"() : () -> tensor<32x30x2xf32>
    %194 = "linalg.transpose"(%62, %193) <{permutation = array<i64: 2, 0, 1>}> ({
    ^bb0(%arg3: f32, %arg4: f32):
      "linalg.yield"(%arg3) : (f32) -> ()
    }) : (tensor<30x2x32xf32>, tensor<32x30x2xf32>) -> tensor<32x30x2xf32>
    %195 = "spirv.BitFieldSExtract"(%178, %9, %185) : (vector<2xi32>, i16, i64) -> vector<2xi32>
    %196 = "vector.create_mask"(%97, %150) : (index, index) -> vector<30x2xi1>
    %197 = "spirv.GL.SAbs"(%170) : (i64) -> i64
    %198 = "spirv.GL.RoundEven"(%131) : (f32) -> f32
    %199 = "tensor.cast"(%arg2) : (tensor<30x2x32xi16>) -> tensor<?x?x?xi16>
    %200 = "spirv.GL.FMax"(%138, %176) : (f16, f16) -> f16
    %201 = "tensor.empty"(%23, %20) : (index, index) -> tensor<30x?x?xi1>
    %202 = "spirv.GL.Tan"(%110) : (f16) -> f16
    %203 = "math.atan"(%177) <{fastmath = #arith.fastmath<none>}> : (f32) -> f32
    %204 = "index.bool.constant"() <{value = true}> : () -> i1
    %205 = "spirv.BitFieldSExtract"(%178, %170, %197) : (vector<2xi32>, i64, i64) -> vector<2xi32>
    %206 = "scf.index_switch"(%27) <{cases = array<i64: 1, 2, 3>}> ({
      "scf.index_switch"(%24) <{cases = array<i64: 1, 2, 3, 4>}> ({
        %228 = "arith.minsi"(%15, %7) : (i64, i64) -> i64
        %229 = "vector.reduction"(%160) <{fastmath = #arith.fastmath<none>, kind = #vector.kind<or>}> : (vector<1xi1>) -> i1
        %230 = "vector.insertelement"(%99, %182, %27) : (i1, vector<1xi1>, index) -> vector<1xi1>
        "affine.store"(%109, %70, %39, %21, %21) <{map = affine_map<(d0, d1, d2) -> (d0, d1, d2)>}> : (f32, memref<?x?x?xf32>, index, index, index) -> ()
        %231 = "index.castu"(%8) : (i16) -> index
        %232 = "linalg.transpose"(%52, %52) <{permutation = array<i64: 0>}> ({
        ^bb0(%arg3: f16, %arg4: f16):
          "linalg.yield"(%arg3) : (f16) -> ()
        }) : (tensor<32xf16>, tensor<32xf16>) -> tensor<32xf16>
        %233 = "math.copysign"(%180, %177) <{fastmath = #arith.fastmath<none>}> : (f32, f32) -> f32
        %234 = "tensor.from_elements"(%8, %8, %9, %8, %9, %8, %1, %9, %1, %8, %1, %1, %8, %9, %9, %89, %1, %8, %8, %9, %8, %89, %1, %89, %8, %8, %1, %9, %8, %1, %8, %89) : (i16, i16, i16, i16, i16, i16, i16, i16, i16, i16, i16, i16, i16, i16, i16, i16, i16, i16, i16, i16, i16, i16, i16, i16, i16, i16, i16, i16, i16, i16, i16, i16) -> tensor<32xi16>
        %235 = "arith.divf"(%0, %94) <{fastmath = #arith.fastmath<none>}> : (f16, f16) -> f16
        %236 = "arith.minui"(%130, %102) : (i1, i1) -> i1
        %237 = "affine.min"(%38) <{map = affine_map<(d0) -> (d0 * -2)>}> : (index) -> index
        %238 = "arith.minsi"(%13, %13) : (i32, i32) -> i32
        %239 = "index.maxs"(%22, %148) : (index, index) -> index
        %240 = "arith.shrsi"(%185, %101) : (i64, i64) -> i64
        %241 = "memref.cast"(%78) : (memref<?x?xi1>) -> memref<?x?xi1>
        %242 = "arith.ceildivsi"(%3, %13) : (i32, i32) -> i32
        "scf.yield"() : () -> ()
      }, {
        "memref.tensor_store"(%51, %78) : (tensor<?x?xi1>, memref<?x?xi1>) -> ()
        %228 = "arith.ceildivsi"(%185, %7) : (i64, i64) -> i64
        %229 = "linalg.copy"(%100, %100) <{operandSegmentSizes = array<i32: 1, 1>}> ({
        ^bb0(%arg3: f32, %arg4: f32):
          "linalg.yield"(%arg3) : (f32) -> ()
        }) : (tensor<60x32xf32>, tensor<60x32xf32>) -> tensor<60x32xf32>
        %230 = "math.log10"(%52) <{fastmath = #arith.fastmath<none>}> : (tensor<32xf16>) -> tensor<32xf16>
        %231 = "arith.shrui"(%169, %84) : (i1, i1) -> i1
        %232 = "arith.ceildivsi"(%15, %101) : (i64, i64) -> i64
        %233 = "arith.minui"(%99, %99) : (i1, i1) -> i1
        %234 = "vector.broadcast"(%1) : (i16) -> vector<32xi16>
        %235 = "vector.broadcast"(%169) : (i1) -> vector<32xi1>
        "vector.compressstore"(%145, %41, %235, %234) : (memref<32xi16>, index, vector<32xi1>, vector<32xi16>) -> ()
        %236 = "arith.floordivsi"(%15, %7) : (i64, i64) -> i64
        %237 = "arith.andi"(%197, %170) : (i64, i64) -> i64
        %238 = "math.roundeven"(%103) <{fastmath = #arith.fastmath<none>}> : (f32) -> f32
        %239 = "arith.remui"(%89, %1) : (i16, i16) -> i16
        %240 = "arith.floordivsi"(%80, %14) : (i64, i64) -> i64
        %241 = "arith.shli"(%13, %171) : (i32, i32) -> i32
        %242 = "math.atan"(%200) <{fastmath = #arith.fastmath<none>}> : (f16) -> f16
        %243 = "memref.realloc"(%arg0) : (memref<32xi1>) -> memref<6xi1>
        "scf.yield"() : () -> ()
      }, {
        %228 = "arith.constant"() <{value = 0 : i16}> : () -> i16
        %229 = "vector.transfer_read"(%54, %24, %228) <{operandSegmentSizes = array<i32: 1, 1, 1, 0>, permutation_map = affine_map<(d0) -> ()>}> : (tensor<32xi16>, index, i16) -> vector<i16>
        %230 = "bufferization.to_tensor"(%68) : (memref<?x2xi1>) -> tensor<?x2xi1>
        %231 = "tensor.expand_shape"(%126) <{reassociation = [[0, 1]]}> : (tensor<32xi1>) -> tensor<32x1xi1>
        %232 = "index.bool.constant"() <{value = false}> : () -> i1
        %233 = "arith.remf"(%110, %94) <{fastmath = #arith.fastmath<none>}> : (f16, f16) -> f16
        %234 = "arith.ori"(%190, %114) : (i1, i1) -> i1
        %235 = "memref.atomic_rmw"(%138, %65, %23, %16) <{kind = 9 : i64}> : (f16, memref<30x2xf16>, index, index) -> f16
        %236 = "arith.remf"(%202, %110) <{fastmath = #arith.fastmath<none>}> : (f16, f16) -> f16
        %237 = "tensor.from_elements"(%171, %13, %171, %13, %13, %13, %157, %13, %157, %171, %3, %157, %13, %13, %3, %13, %171, %3, %171, %3, %13, %171, %3, %157, %3, %157, %171, %13, %157, %13, %157, %157) : (i32, i32, i32, i32, i32, i32, i32, i32, i32, i32, i32, i32, i32, i32, i32, i32, i32, i32, i32, i32, i32, i32, i32, i32, i32, i32, i32, i32, i32, i32, i32, i32) -> tensor<32xi32>
        %238 = "arith.andi"(%8, %89) : (i16, i16) -> i16
        %239 = "math.ceil"(%200) <{fastmath = #arith.fastmath<none>}> : (f16) -> f16
        %240 = "vector.transfer_write"(%119, %50, %41, %47) <{operandSegmentSizes = array<i32: 1, 1, 2, 0>, permutation_map = affine_map<(d0, d1) -> ()>}> : (vector<f32>, tensor<30x2xf32>, index, index) -> tensor<30x2xf32>
        %241 = "index.shru"(%47, %150) : (index, index) -> index
        %242 = "bufferization.to_tensor"(%69) : (memref<30x2xi16>) -> tensor<30x2xi16>
        %243 = "math.atan2"(%62, %62) <{fastmath = #arith.fastmath<none>}> : (tensor<30x2x32xf32>, tensor<30x2x32xf32>) -> tensor<30x2x32xf32>
        %244 = "tensor.expand_shape"(%59) <{reassociation = [[0], [1, 2]]}> : (tensor<30x2xi16>) -> tensor<30x2x1xi16>
        "scf.yield"() : () -> ()
      }, {
        %228 = "vector.transpose"(%128) <{transp = [1, 0]}> : (vector<30x2xf32>) -> vector<2x30xf32>
        %229 = "vector.splat"(%33) : (index) -> vector<32xindex>
        %230 = "vector.load"(%73, %25, %17) : (memref<30x2xf16>, index, index) -> vector<30x2xf16>
        %231 = "vector.broadcast"(%110) : (f16) -> vector<30x2x32xf16>
        %232 = "affine.load"(%165, %31) <{map = affine_map<(d0) -> (d0)>}> : (memref<32xf16>, index) -> f16
        %233 = "vector.shuffle"(%160, %182) <{mask = [0]}> : (vector<1xi1>, vector<1xi1>) -> vector<1xi1>
        %234 = "vector.insertelement"(%169, %160, %23) : (i1, vector<1xi1>, index) -> vector<1xi1>
        %235 = "tensor.empty"(%35) : (index) -> tensor<30x?xf32>
        %236 = "arith.divui"(%1, %9) : (i16, i16) -> i16
        "bufferization.dealloc_tensor"(%63) : (tensor<?x?x32xi16>) -> ()
        %237 = "vector.create_mask"(%168) : (index) -> vector<32xi1>
        %238 = "index.bool.constant"() <{value = false}> : () -> i1
        %239 = "vector.shuffle"(%119, %119) <{mask = [0, 1]}> : (vector<f32>, vector<f32>) -> vector<2xf32>
        %240 = "arith.divsi"(%107, %11) : (i1, i1) -> i1
        %241 = "math.cos"(%232) <{fastmath = #arith.fastmath<none>}> : (f16) -> f16
        %242 = "math.ceil"(%50) <{fastmath = #arith.fastmath<none>}> : (tensor<30x2xf32>) -> tensor<30x2xf32>
        "scf.yield"() : () -> ()
      }, {
        %228 = "arith.muli"(%15, %170) : (i64, i64) -> i64
        %229 = "affine.vector_load"(%73, %23, %150) <{map = affine_map<(d0, d1) -> (d0, d1)>}> : (memref<30x2xf16>, index, index) -> vector<2xf16>
        %230 = "affine.max"(%39, %27, %25, %97) <{map = affine_map<(d0, d1, d2, d3) -> (d2 - 64)>}> : (index, index, index, index) -> index
        %231 = "arith.negf"(%176) <{fastmath = #arith.fastmath<none>}> : (f16) -> f16
        %232 = "bufferization.clone"(%73) : (memref<30x2xf16>) -> memref<30x2xf16>
        "bufferization.dealloc_tensor"(%58) : (tensor<32xi64>) -> ()
        "vector.compressstore"(%arg0, %28, %182, %82) : (memref<32xi1>, index, vector<1xi1>, vector<1xi1>) -> ()
        %233 = "arith.ceildivsi"(%5, %5) : (i64, i64) -> i64
        %234 = "index.ceildivu"(%148, %28) : (index, index) -> index
        %235 = "linalg.copy"(%59, %86) <{operandSegmentSizes = array<i32: 1, 1>}> ({
        ^bb0(%arg3: i16, %arg4: i16):
          "linalg.yield"(%arg3) : (i16) -> ()
        }) : (tensor<30x2xi16>, tensor<30x2xi16>) -> tensor<30x2xi16>
        %236 = "arith.constant"() <{value = 14726 : i16}> : () -> i16
        %237 = "vector.broadcast"(%15) : (i64) -> vector<30x2xi64>
        %238 = "memref.realloc"(%67) : (memref<?xf32>) -> memref<6xf32>
        %239 = "math.rsqrt"(%167) <{fastmath = #arith.fastmath<none>}> : (tensor<f16>) -> tensor<f16>
        %240 = "math.exp2"(%10) <{fastmath = #arith.fastmath<none>}> : (f32) -> f32
        %241 = "vector.extract"(%128) <{static_position = array<i64: 15>}> : (vector<30x2xf32>) -> vector<2xf32>
        "scf.yield"() : () -> ()
      }) : (index) -> ()
      %214 = "vector.contract"(%182, %182, %99) <{indexing_maps = [affine_map<(d0) -> (d0)>, affine_map<(d0) -> (d0)>, affine_map<(d0) -> ()>], iterator_types = [#vector.iterator_type<reduction>], kind = #vector.kind<add>}> : (vector<1xi1>, vector<1xi1>, i1) -> i1
      %215 = "bufferization.clone"(%66) : (memref<30x2x32xi32>) -> memref<30x2x32xi32>
      %216 = "math.round"(%110) <{fastmath = #arith.fastmath<none>}> : (f16) -> f16
      %217 = "arith.ori"(%1, %89) : (i16, i16) -> i16
      "bufferization.dealloc_tensor"(%139) : (tensor<32xi16>) -> ()
      %218 = "arith.shrsi"(%113, %107) : (i1, i1) -> i1
      %219 = "arith.minui"(%15, %15) : (i64, i64) -> i64
      %220 = "vector.bitcast"(%196) : (vector<30x2xi1>) -> vector<30x2xi1>
      %221 = "math.atan2"(%173, %6) <{fastmath = #arith.fastmath<none>}> : (f16, f16) -> f16
      "bufferization.dealloc_tensor"(%93) : (tensor<30x2x32xi32>) -> ()
      %222 = "math.exp2"(%60) <{fastmath = #arith.fastmath<none>}> : (tensor<30x2xf16>) -> tensor<30x2xf16>
      %223 = "math.expm1"(%198) <{fastmath = #arith.fastmath<none>}> : (f32) -> f32
      %224 = "bufferization.to_memref"(%63) : (tensor<?x?x32xi16>) -> memref<?x?x32xi16>
      %225 = "bufferization.to_memref"(%52) : (tensor<32xf16>) -> memref<32xf16>
      %226 = "scf.execute_region"() ({
        %228 = "vector.extract"(%182) <{static_position = array<i64: 0>}> : (vector<1xi1>) -> i1
        %229 = "math.absi"(%107) : (i1) -> i1
        %230 = "math.tanh"(%131) <{fastmath = #arith.fastmath<none>}> : (f32) -> f32
        %231 = "index.ceildivs"(%37, %97) : (index, index) -> index
        "vector.print"(%123) <{punctuation = #vector.punctuation<newline>}> : (vector<30x2xi1>) -> ()
        %232 = "memref.cast"(%72) : (memref<?x?xi16>) -> memref<?x?xi16>
        %233 = "arith.minsi"(%114, %191) : (i1, i1) -> i1
        %234 = "index.shru"(%18, %35) : (index, index) -> index
        %235 = "affine.min"(%149, %43, %20, %37) <{map = affine_map<(d0, d1, d2, d3) -> (d2 - 64)>}> : (index, index, index, index) -> index
        %236 = "vector.broadcast"(%80) : (i64) -> vector<6xi64>
        "vector.compressstore"(%74, %16, %81, %236) : (memref<?xi64>, index, vector<6xi1>, vector<6xi64>) -> ()
        %237 = "index.castu"(%149) : (index) -> i32
        %238 = "vector.reduction"(%161) <{fastmath = #arith.fastmath<none>, kind = #vector.kind<minf>}> : (vector<2xf32>) -> f32
        %239 = "bufferization.to_tensor"(%73) : (memref<30x2xf16>) -> tensor<30x2xf16>
        %240 = "math.floor"(%138) <{fastmath = #arith.fastmath<none>}> : (f16) -> f16
        %241 = "arith.ori"(%125, %204) : (i1, i1) -> i1
        %242 = "vector.splat"(%7) : (i64) -> vector<30x2x32xi64>
        "scf.yield"(%22) : (index) -> ()
      }) : () -> index
      %227 = "tensor.empty"(%25, %25) : (index, index) -> tensor<?x?xi16>
      "scf.yield"(%227) : (tensor<?x?xi16>) -> ()
    }, {
      %214 = "math.log10"(%87) <{fastmath = #arith.fastmath<none>}> : (f16) -> f16
      %215 = "vector.extract_strided_slice"(%127) <{offsets = [18], sizes = [7], strides = [1]}> : (vector<30x2xf32>) -> vector<7x2xf32>
      %216 = "vector.broadcast"(%114) : (i1) -> vector<2xi1>
      "vector.transfer_write"(%216, %77, %33, %21) <{operandSegmentSizes = array<i32: 1, 1, 2, 0>, permutation_map = affine_map<(d0, d1) -> (d0)>}> : (vector<2xi1>, memref<30x2xi1>, index, index) -> ()
      %217 = "index.and"(%22, %20) : (index, index) -> index
      %218 = "arith.floordivsi"(%129, %5) : (i64, i64) -> i64
      %219 = "index.ceildivu"(%33, %189) : (index, index) -> index
      %220 = "vector.splat"(%148) : (index) -> vector<30x2xindex>
      %221 = "vector.transpose"(%161) <{transp = [0]}> : (vector<2xf32>) -> vector<2xf32>
      %222 = "tensor.expand_shape"(%56) <{reassociation = [[0], [1, 2]]}> : (tensor<30x2xi64>) -> tensor<30x2x1xi64>
      "affine.for"() <{lowerBoundMap = affine_map<() -> (0)>, operandSegmentSizes = array<i32: 0, 0, 0>, step = 1 : index, upperBoundMap = affine_map<() -> (125)>}> ({
      ^bb0(%arg3: index):
        "affine.yield"() : () -> ()
      }) : () -> ()
      %223 = "tensor.empty"() : () -> tensor<32xf32>
      %224 = "math.ipowi"(%102, %204) : (i1, i1) -> i1
      %225 = "math.exp2"(%62) <{fastmath = #arith.fastmath<none>}> : (tensor<30x2x32xf32>) -> tensor<30x2x32xf32>
      %226 = "tensor.splat"(%107) : (i1) -> tensor<32xi1>
      %227 = "bufferization.to_memref"(%49) : (tensor<30x2xf32>) -> memref<30x2xf32>
      %228 = "index.ceildivs"(%189, %17) : (index, index) -> index
      %229 = "tensor.empty"(%217, %32) : (index, index) -> tensor<?x?xi16>
      "scf.yield"(%229) : (tensor<?x?xi16>) -> ()
    }, {
      %214 = "arith.remf"(%0, %94) <{fastmath = #arith.fastmath<none>}> : (f16, f16) -> f16
      %215 = "index.and"(%40, %35) : (index, index) -> index
      %216 = "vector.broadcast"(%110) : (f16) -> vector<32xf16>
      %217 = "vector.broadcast"(%184) : (i1) -> vector<32xi1>
      "vector.compressstore"(%165, %46, %217, %216) : (memref<32xf16>, index, vector<32xi1>, vector<32xf16>) -> ()
      %218 = "vector.broadcast"(%91) : (f16) -> vector<32xf16>
      %219 = "vector.broadcast"(%84) : (i1) -> vector<32xi1>
      %220 = "vector.maskedload"(%65, %38, %16, %219, %218) : (memref<30x2xf16>, index, index, vector<32xi1>, vector<32xf16>) -> vector<32xf16>
      %221 = "index.xor"(%16, %150) : (index, index) -> index
      %222 = "index.and"(%44, %30) : (index, index) -> index
      %223 = "arith.andi"(%171, %3) : (i32, i32) -> i32
      %224 = "vector.flat_transpose"(%178) <{columns = 1 : i32, rows = 2 : i32}> : (vector<2xi32>) -> vector<2xi32>
      %225 = "vector.broadcast"(%103) : (f32) -> vector<30x2xf32>
      %226 = "vector.fma"(%225, %225, %128) : (vector<30x2xf32>, vector<30x2xf32>, vector<30x2xf32>) -> vector<30x2xf32>
      %227 = "math.absi"(%199) : (tensor<?x?x?xi16>) -> tensor<?x?x?xi16>
      "memref.tensor_store"(%51, %78) : (tensor<?x?xi1>, memref<?x?xi1>) -> ()
      %228 = "vector.extract"(%218) <{static_position = array<i64: 16>}> : (vector<32xf16>) -> f16
      %229 = "math.expm1"(%131) <{fastmath = #arith.fastmath<none>}> : (f32) -> f32
      %230 = "math.ipowi"(%56, %56) : (tensor<30x2xi64>, tensor<30x2xi64>) -> tensor<30x2xi64>
      "affine.store"(%138, %165, %25) <{map = affine_map<(d0) -> (d0)>}> : (f16, memref<32xf16>, index) -> ()
      %231 = "math.ceil"(%62) <{fastmath = #arith.fastmath<none>}> : (tensor<30x2x32xf32>) -> tensor<30x2x32xf32>
      %232 = "tensor.empty"(%21, %31) : (index, index) -> tensor<?x?xi16>
      "scf.yield"(%232) : (tensor<?x?xi16>) -> ()
    }, {
      %214 = "vector.broadcast"(%1) : (i16) -> vector<i16>
      %215 = "vector.transfer_write"(%214, %54, %33) <{operandSegmentSizes = array<i32: 1, 1, 1, 0>, permutation_map = affine_map<(d0) -> ()>}> : (vector<i16>, tensor<32xi16>, index) -> tensor<32xi16>
      %216 = "bufferization.to_tensor"(%73) : (memref<30x2xf16>) -> tensor<30x2xf16>
      %217 = "arith.divsi"(%114, %114) : (i1, i1) -> i1
      %218 = "memref.cast"(%78) : (memref<?x?xi1>) -> memref<?x?xi1>
      %219 = "index.sizeof"() : () -> index
      %220 = "math.ctpop"(%63) : (tensor<?x?x32xi16>) -> tensor<?x?x32xi16>
      %221 = "math.atan"(%156) <{fastmath = #arith.fastmath<none>}> : (f32) -> f32
      %222 = "arith.remf"(%103, %135) <{fastmath = #arith.fastmath<none>}> : (f32, f32) -> f32
      %223 = "tensor.splat"(%125) : (i1) -> tensor<32xi1>
      %224 = "tensor.insert"(%109, %49, %38, %16) : (f32, tensor<30x2xf32>, index, index) -> tensor<30x2xf32>
      %225 = "arith.divui"(%157, %3) : (i32, i32) -> i32
      %226 = "vector.broadcast"(%125) : (i1) -> vector<2xi1>
      %227 = "vector.maskedload"(%70, %16, %16, %16, %226, %161) : (memref<?x?x?xf32>, index, index, index, vector<2xi1>, vector<2xf32>) -> vector<2xf32>
      %228 = "vector.transfer_write"(%187, %60, %37, %219) <{operandSegmentSizes = array<i32: 1, 1, 2, 0>, permutation_map = affine_map<(d0, d1) -> ()>}> : (vector<f16>, tensor<30x2xf16>, index, index) -> tensor<30x2xf16>
      %229 = "affine.parallel"() <{lowerBoundsGroups = dense<1> : tensor<1xi32>, lowerBoundsMap = affine_map<() -> (0)>, reductions = [8], steps = [1], upperBoundsGroups = dense<1> : tensor<1xi32>, upperBoundsMap = affine_map<() -> (32)>}> ({
      ^bb0(%arg3: index):
        %233 = "vector.broadcast"(%200) : (f16) -> vector<2xf16>
        %234 = "vector.maskedload"(%73, %34, %17, %226, %233) : (memref<30x2xf16>, index, index, vector<2xi1>, vector<2xf16>) -> vector<2xf16>
        "affine.yield"(%13) : (i32) -> ()
      }) : () -> memref<32xi32>
      %230 = "memref.atomic_rmw"(%91, %75, %16, %16, %34) <{kind = 9 : i64}> : (f16, memref<?x?x32xf16>, index, index, index) -> f16
      %231 = "tensor.splat"(%204) : (i1) -> tensor<30x2x32xi1>
      %232 = "tensor.empty"(%44, %34) : (index, index) -> tensor<?x?xi16>
      "scf.yield"(%232) : (tensor<?x?xi16>) -> ()
    }) : (index) -> tensor<?x?xi16>
    %207 = "math.rsqrt"(%135) <{fastmath = #arith.fastmath<none>}> : (f32) -> f32
    %208 = "bufferization.clone"(%69) : (memref<30x2xi16>) -> memref<30x2xi16>
    %209 = "spirv.GL.Ceil"(%156) : (f32) -> f32
    %210 = "spirv.LogicalNotEqual"(%99, %142) : (i1, i1) -> i1
    %211 = "vector.flat_transpose"(%82) <{columns = 1 : i32, rows = 1 : i32}> : (vector<1xi1>) -> vector<1xi1>
    %212 = "spirv.GL.Log"(%173) : (f16) -> f16
    %213 = "vector.bitcast"(%182) : (vector<1xi1>) -> vector<1xi1>
    "vector.print"(%81) <{punctuation = #vector.punctuation<newline>}> : (vector<6xi1>) -> ()
    "vector.print"(%82) <{punctuation = #vector.punctuation<newline>}> : (vector<1xi1>) -> ()
    "vector.print"(%96) <{punctuation = #vector.punctuation<newline>}> : (vector<30x2x32xf16>) -> ()
    "vector.print"(%119) <{punctuation = #vector.punctuation<newline>}> : (vector<f32>) -> ()
    "vector.print"(%123) <{punctuation = #vector.punctuation<newline>}> : (vector<30x2xi1>) -> ()
    "vector.print"(%127) <{punctuation = #vector.punctuation<newline>}> : (vector<30x2xf32>) -> ()
    "vector.print"(%128) <{punctuation = #vector.punctuation<newline>}> : (vector<30x2xf32>) -> ()
    "vector.print"(%160) <{punctuation = #vector.punctuation<newline>}> : (vector<1xi1>) -> ()
    "vector.print"(%161) <{punctuation = #vector.punctuation<newline>}> : (vector<2xf32>) -> ()
    "vector.print"(%162) <{punctuation = #vector.punctuation<newline>}> : (vector<1xi1>) -> ()
    "vector.print"(%178) <{punctuation = #vector.punctuation<newline>}> : (vector<2xi32>) -> ()
    "vector.print"(%182) <{punctuation = #vector.punctuation<newline>}> : (vector<1xi1>) -> ()
    "vector.print"(%187) <{punctuation = #vector.punctuation<newline>}> : (vector<f16>) -> ()
    "vector.print"(%196) <{punctuation = #vector.punctuation<newline>}> : (vector<30x2xi1>) -> ()
    "vector.print"(%211) <{punctuation = #vector.punctuation<newline>}> : (vector<1xi1>) -> ()
    "vector.print"(%213) <{punctuation = #vector.punctuation<newline>}> : (vector<1xi1>) -> ()
    "vector.print"(%0) <{punctuation = #vector.punctuation<newline>}> : (f16) -> ()
    "vector.print"(%1) <{punctuation = #vector.punctuation<newline>}> : (i16) -> ()
    "vector.print"(%2) <{punctuation = #vector.punctuation<newline>}> : (i64) -> ()
    "vector.print"(%3) <{punctuation = #vector.punctuation<newline>}> : (i32) -> ()
    "vector.print"(%4) <{punctuation = #vector.punctuation<newline>}> : (f16) -> ()
    "vector.print"(%5) <{punctuation = #vector.punctuation<newline>}> : (i64) -> ()
    "vector.print"(%6) <{punctuation = #vector.punctuation<newline>}> : (f16) -> ()
    "vector.print"(%7) <{punctuation = #vector.punctuation<newline>}> : (i64) -> ()
    "vector.print"(%8) <{punctuation = #vector.punctuation<newline>}> : (i16) -> ()
    "vector.print"(%9) <{punctuation = #vector.punctuation<newline>}> : (i16) -> ()
    "vector.print"(%10) <{punctuation = #vector.punctuation<newline>}> : (f32) -> ()
    "vector.print"(%11) <{punctuation = #vector.punctuation<newline>}> : (i1) -> ()
    "vector.print"(%12) <{punctuation = #vector.punctuation<newline>}> : (i1) -> ()
    "vector.print"(%13) <{punctuation = #vector.punctuation<newline>}> : (i32) -> ()
    "vector.print"(%14) <{punctuation = #vector.punctuation<newline>}> : (i64) -> ()
    "vector.print"(%15) <{punctuation = #vector.punctuation<newline>}> : (i64) -> ()
    "vector.print"(%80) <{punctuation = #vector.punctuation<newline>}> : (i64) -> ()
    "vector.print"(%84) <{punctuation = #vector.punctuation<newline>}> : (i1) -> ()
    "vector.print"(%87) <{punctuation = #vector.punctuation<newline>}> : (f16) -> ()
    "vector.print"(%89) <{punctuation = #vector.punctuation<newline>}> : (i16) -> ()
    "vector.print"(%91) <{punctuation = #vector.punctuation<newline>}> : (f16) -> ()
    "vector.print"(%94) <{punctuation = #vector.punctuation<newline>}> : (f16) -> ()
    "vector.print"(%99) <{punctuation = #vector.punctuation<newline>}> : (i1) -> ()
    "vector.print"(%101) <{punctuation = #vector.punctuation<newline>}> : (i64) -> ()
    "vector.print"(%102) <{punctuation = #vector.punctuation<newline>}> : (i1) -> ()
    "vector.print"(%103) <{punctuation = #vector.punctuation<newline>}> : (f32) -> ()
    "vector.print"(%106) <{punctuation = #vector.punctuation<newline>}> : (f32) -> ()
    "vector.print"(%107) <{punctuation = #vector.punctuation<newline>}> : (i1) -> ()
    "vector.print"(%109) <{punctuation = #vector.punctuation<newline>}> : (f32) -> ()
    "vector.print"(%110) <{punctuation = #vector.punctuation<newline>}> : (f16) -> ()
    "vector.print"(%113) <{punctuation = #vector.punctuation<newline>}> : (i1) -> ()
    "vector.print"(%114) <{punctuation = #vector.punctuation<newline>}> : (i1) -> ()
    "vector.print"(%117) <{punctuation = #vector.punctuation<newline>}> : (f32) -> ()
    "vector.print"(%124) <{punctuation = #vector.punctuation<newline>}> : (f32) -> ()
    "vector.print"(%125) <{punctuation = #vector.punctuation<newline>}> : (i1) -> ()
    "vector.print"(%129) <{punctuation = #vector.punctuation<newline>}> : (i64) -> ()
    "vector.print"(%130) <{punctuation = #vector.punctuation<newline>}> : (i1) -> ()
    "vector.print"(%131) <{punctuation = #vector.punctuation<newline>}> : (f32) -> ()
    "vector.print"(%132) <{punctuation = #vector.punctuation<newline>}> : (f32) -> ()
    "vector.print"(%135) <{punctuation = #vector.punctuation<newline>}> : (f32) -> ()
    "vector.print"(%136) <{punctuation = #vector.punctuation<newline>}> : (f32) -> ()
    "vector.print"(%138) <{punctuation = #vector.punctuation<newline>}> : (f16) -> ()
    "vector.print"(%142) <{punctuation = #vector.punctuation<newline>}> : (i1) -> ()
    "vector.print"(%156) <{punctuation = #vector.punctuation<newline>}> : (f32) -> ()
    "vector.print"(%157) <{punctuation = #vector.punctuation<newline>}> : (i32) -> ()
    "vector.print"(%158) <{punctuation = #vector.punctuation<newline>}> : (f16) -> ()
    "vector.print"(%159) <{punctuation = #vector.punctuation<newline>}> : (f16) -> ()
    "vector.print"(%169) <{punctuation = #vector.punctuation<newline>}> : (i1) -> ()
    "vector.print"(%170) <{punctuation = #vector.punctuation<newline>}> : (i64) -> ()
    "vector.print"(%171) <{punctuation = #vector.punctuation<newline>}> : (i32) -> ()
    "vector.print"(%173) <{punctuation = #vector.punctuation<newline>}> : (f16) -> ()
    "vector.print"(%176) <{punctuation = #vector.punctuation<newline>}> : (f16) -> ()
    "vector.print"(%177) <{punctuation = #vector.punctuation<newline>}> : (f32) -> ()
    "vector.print"(%180) <{punctuation = #vector.punctuation<newline>}> : (f32) -> ()
    "vector.print"(%181) <{punctuation = #vector.punctuation<newline>}> : (f16) -> ()
    "vector.print"(%184) <{punctuation = #vector.punctuation<newline>}> : (i1) -> ()
    "vector.print"(%185) <{punctuation = #vector.punctuation<newline>}> : (i64) -> ()
    "vector.print"(%190) <{punctuation = #vector.punctuation<newline>}> : (i1) -> ()
    "vector.print"(%191) <{punctuation = #vector.punctuation<newline>}> : (i1) -> ()
    "vector.print"(%197) <{punctuation = #vector.punctuation<newline>}> : (i64) -> ()
    "vector.print"(%198) <{punctuation = #vector.punctuation<newline>}> : (f32) -> ()
    "vector.print"(%200) <{punctuation = #vector.punctuation<newline>}> : (f16) -> ()
    "vector.print"(%202) <{punctuation = #vector.punctuation<newline>}> : (f16) -> ()
    "vector.print"(%204) <{punctuation = #vector.punctuation<newline>}> : (i1) -> ()
    "vector.print"(%209) <{punctuation = #vector.punctuation<newline>}> : (f32) -> ()
    "vector.print"(%210) <{punctuation = #vector.punctuation<newline>}> : (i1) -> ()
    "vector.print"(%212) <{punctuation = #vector.punctuation<newline>}> : (f16) -> ()
    "func.return"() : () -> ()
  }) : () -> ()
  "func.func"() <{function_type = (tensor<30x2x32xf16>, index, memref<30x2xi64>) -> vector<32xi1>, sym_name = "func2", sym_visibility = "nested"}> ({
  ^bb0(%arg0: tensor<30x2x32xf16>, %arg1: index, %arg2: memref<30x2xi64>):
    %0 = "arith.constant"() <{value = 5.712000e+04 : f16}> : () -> f16
    %1 = "arith.constant"() <{value = -24625 : i16}> : () -> i16
    %2 = "arith.constant"() <{value = 2029222169 : i64}> : () -> i64
    %3 = "arith.constant"() <{value = 1219044416 : i32}> : () -> i32
    %4 = "arith.constant"() <{value = 2.769600e+04 : f16}> : () -> f16
    %5 = "arith.constant"() <{value = 1953923515 : i64}> : () -> i64
    %6 = "arith.constant"() <{value = 4.760000e+02 : f16}> : () -> f16
    %7 = "arith.constant"() <{value = 1796557333 : i64}> : () -> i64
    %8 = "arith.constant"() <{value = -22188 : i16}> : () -> i16
    %9 = "arith.constant"() <{value = -28293 : i16}> : () -> i16
    %10 = "arith.constant"() <{value = 0x4E4161CE : f32}> : () -> f32
    %11 = "arith.constant"() <{value = true}> : () -> i1
    %12 = "arith.constant"() <{value = false}> : () -> i1
    %13 = "arith.constant"() <{value = 1191039570 : i32}> : () -> i32
    %14 = "arith.constant"() <{value = 1836917396 : i64}> : () -> i64
    %15 = "arith.constant"() <{value = 1157339642 : i64}> : () -> i64
    %16 = "arith.constant"() <{value = 0 : index}> : () -> index
    %17 = "arith.constant"() <{value = 1 : index}> : () -> index
    %18 = "arith.constant"() <{value = 2 : index}> : () -> index
    %19 = "arith.constant"() <{value = 3 : index}> : () -> index
    %20 = "arith.constant"() <{value = 4 : index}> : () -> index
    %21 = "arith.constant"() <{value = 5 : index}> : () -> index
    %22 = "arith.constant"() <{value = 6 : index}> : () -> index
    %23 = "arith.constant"() <{value = 7 : index}> : () -> index
    %24 = "arith.constant"() <{value = 8 : index}> : () -> index
    %25 = "arith.constant"() <{value = 9 : index}> : () -> index
    %26 = "arith.constant"() <{value = 10 : index}> : () -> index
    %27 = "arith.constant"() <{value = 11 : index}> : () -> index
    %28 = "arith.constant"() <{value = 12 : index}> : () -> index
    %29 = "arith.constant"() <{value = 13 : index}> : () -> index
    %30 = "arith.constant"() <{value = 14 : index}> : () -> index
    %31 = "arith.constant"() <{value = 15 : index}> : () -> index
    %32 = "arith.constant"() <{value = 16 : index}> : () -> index
    %33 = "arith.constant"() <{value = 17 : index}> : () -> index
    %34 = "arith.constant"() <{value = 18 : index}> : () -> index
    %35 = "arith.constant"() <{value = 19 : index}> : () -> index
    %36 = "arith.constant"() <{value = 20 : index}> : () -> index
    %37 = "arith.constant"() <{value = 21 : index}> : () -> index
    %38 = "arith.constant"() <{value = 22 : index}> : () -> index
    %39 = "arith.constant"() <{value = 23 : index}> : () -> index
    %40 = "arith.constant"() <{value = 24 : index}> : () -> index
    %41 = "arith.constant"() <{value = 25 : index}> : () -> index
    %42 = "arith.constant"() <{value = 26 : index}> : () -> index
    %43 = "arith.constant"() <{value = 27 : index}> : () -> index
    %44 = "arith.constant"() <{value = 28 : index}> : () -> index
    %45 = "arith.constant"() <{value = 29 : index}> : () -> index
    %46 = "arith.constant"() <{value = 30 : index}> : () -> index
    %47 = "arith.constant"() <{value = 31 : index}> : () -> index
    %48 = "tensor.empty"() : () -> tensor<30x2xi1>
    %49 = "tensor.empty"() : () -> tensor<30x2xf32>
    %50 = "tensor.empty"() : () -> tensor<30x2xf32>
    %51 = "tensor.empty"(%31, %42) : (index, index) -> tensor<?x?xi1>
    %52 = "tensor.empty"() : () -> tensor<32xf16>
    %53 = "tensor.empty"(%42) : (index) -> tensor<?xi64>
    %54 = "tensor.empty"() : () -> tensor<32xi16>
    %55 = "tensor.empty"() : () -> tensor<32xi1>
    %56 = "tensor.empty"() : () -> tensor<30x2xi64>
    %57 = "tensor.empty"(%arg1) : (index) -> tensor<?xi32>
    %58 = "tensor.empty"() : () -> tensor<32xi64>
    %59 = "tensor.empty"() : () -> tensor<30x2xi16>
    %60 = "tensor.empty"() : () -> tensor<30x2xf16>
    %61 = "tensor.empty"() : () -> tensor<30x2xi1>
    %62 = "tensor.empty"() : () -> tensor<30x2x32xf32>
    %63 = "tensor.empty"(%36, %35) : (index, index) -> tensor<?x?x32xi16>
    %64 = "memref.alloc"() <{operandSegmentSizes = array<i32: 0, 0>}> : () -> memref<30x2x32xi16>
    %65 = "memref.alloc"() <{operandSegmentSizes = array<i32: 0, 0>}> : () -> memref<30x2xf16>
    %66 = "memref.alloc"() <{operandSegmentSizes = array<i32: 0, 0>}> : () -> memref<30x2x32xi32>
    %67 = "memref.alloc"(%44) <{operandSegmentSizes = array<i32: 1, 0>}> : (index) -> memref<?xf32>
    %68 = "memref.alloc"(%21) <{operandSegmentSizes = array<i32: 1, 0>}> : (index) -> memref<?x2xi1>
    %69 = "memref.alloc"() <{operandSegmentSizes = array<i32: 0, 0>}> : () -> memref<30x2xi16>
    %70 = "memref.alloc"(%47, %32, %20) <{operandSegmentSizes = array<i32: 3, 0>}> : (index, index, index) -> memref<?x?x?xf32>
    %71 = "memref.alloc"() <{operandSegmentSizes = array<i32: 0, 0>}> : () -> memref<30x2xi64>
    %72 = "memref.alloc"(%arg1, %30) <{operandSegmentSizes = array<i32: 2, 0>}> : (index, index) -> memref<?x?xi16>
    %73 = "memref.alloc"() <{operandSegmentSizes = array<i32: 0, 0>}> : () -> memref<30x2xf16>
    %74 = "memref.alloc"(%37) <{operandSegmentSizes = array<i32: 1, 0>}> : (index) -> memref<?xi64>
    %75 = "memref.alloc"(%27, %19) <{operandSegmentSizes = array<i32: 2, 0>}> : (index, index) -> memref<?x?x32xf16>
    %76 = "memref.alloc"(%30) <{operandSegmentSizes = array<i32: 1, 0>}> : (index) -> memref<?x2xi1>
    %77 = "memref.alloc"() <{operandSegmentSizes = array<i32: 0, 0>}> : () -> memref<30x2xi1>
    %78 = "memref.alloc"(%45, %19) <{operandSegmentSizes = array<i32: 2, 0>}> : (index, index) -> memref<?x?xi1>
    %79 = "memref.alloc"(%40) <{operandSegmentSizes = array<i32: 1, 0>}> : (index) -> memref<?xf32>
    %80 = "index.shrs"(%21, %33) : (index, index) -> index
    %81 = "spirv.CL.rint"(%0) : (f16) -> f16
    %82 = "spirv.GL.Pow"(%81, %6) : (f16, f16) -> f16
    "affine.store"(%3, %66, %41, %36, %27) <{map = affine_map<(d0, d1, d2) -> (d0, d1, d2)>}> : (i32, memref<30x2x32xi32>, index, index, index) -> ()
    %83 = "bufferization.to_tensor"(%79) : (memref<?xf32>) -> tensor<?xf32>
    %84 = "spirv.GL.Floor"(%6) : (f16) -> f16
    %85 = "vector.broadcast"(%12) : (i1) -> vector<1xi1>
    %86 = "vector.extract"(%85) <{static_position = array<i64: 0>}> : (vector<1xi1>) -> i1
    %87 = "vector.broadcast"(%9) : (i16) -> vector<6xi16>
    %88 = "vector.broadcast"(%12) : (i1) -> vector<6xi1>
    %89 = "vector.maskedload"(%72, %16, %16, %88, %87) : (memref<?x?xi16>, index, index, vector<6xi1>, vector<6xi16>) -> vector<6xi16>
    %90 = "vector.broadcast"(%13) : (i32) -> vector<2xi32>
    %91 = "spirv.BitwiseOr"(%90, %90) : (vector<2xi32>, vector<2xi32>) -> vector<2xi32>
    %92 = "vector.extract"(%85) <{static_position = array<i64: 0>}> : (vector<1xi1>) -> i1
    %93 = "arith.negf"(%10) <{fastmath = #arith.fastmath<none>}> : (f32) -> f32
    %94 = "arith.remf"(%0, %4) <{fastmath = #arith.fastmath<none>}> : (f16, f16) -> f16
    %95 = "tensor.insert"(%10, %49, %37, %17) : (f32, tensor<30x2xf32>, index, index) -> tensor<30x2xf32>
    %96 = "bufferization.to_tensor"(%78) : (memref<?x?xi1>) -> tensor<?x?xi1>
    %97 = "spirv.FUnordEqual"(%84, %81) : (f16, f16) -> i1
    %98 = "tensor.empty"() : () -> tensor<60xf16>
    %99 = "tensor.unpack"(%60, %98, %18) <{inner_dims_pos = array<i64: 0>, outer_dims_perm = array<i64: 0>, static_inner_tiles = array<i64: -9223372036854775808>}> : (tensor<30x2xf16>, tensor<60xf16>, index) -> tensor<60xf16>
    %100 = "vector.bitcast"(%89) : (vector<6xi16>) -> vector<6xi16>
    "memref.alloca_scope"() ({
      %218 = "arith.ceildivsi"(%5, %15) : (i64, i64) -> i64
      %219 = "vector.broadcast"(%84) : (f16) -> vector<30x2x32xf16>
      %220 = "arith.remf"(%6, %4) <{fastmath = #arith.fastmath<none>}> : (f16, f16) -> f16
      %221 = "arith.minsi"(%7, %7) : (i64, i64) -> i64
      %222 = "memref.realloc"(%67) : (memref<?xf32>) -> memref<6xf32>
      "memref.alloca_scope"() ({
        %248 = "math.log10"(%10) <{fastmath = #arith.fastmath<none>}> : (f32) -> f32
        %249 = "vector.broadcast"(%9) : (i16) -> vector<6x6xi16>
        %250 = "vector.outerproduct"(%89, %87, %249) <{kind = #vector.kind<xor>}> : (vector<6xi16>, vector<6xi16>, vector<6x6xi16>) -> vector<6x6xi16>
        %251 = "arith.xori"(%13, %3) : (i32, i32) -> i32
        %252 = "index.maxu"(%26, %32) : (index, index) -> index
        %253 = "tensor.empty"() : () -> tensor<i16>
        %254 = "linalg.dot"(%54, %54, %253) <{operandSegmentSizes = array<i32: 2, 1>}> ({
        ^bb0(%arg3: i16, %arg4: i16, %arg5: i16):
          %286 = "arith.muli"(%arg3, %arg4) : (i16, i16) -> i16
          %287 = "arith.addi"(%arg5, %286) : (i16, i16) -> i16
          "linalg.yield"(%287) : (i16) -> ()
        }) {linalg.memoized_indexing_maps = [affine_map<(d0) -> (d0)>, affine_map<(d0) -> (d0)>, affine_map<(d0) -> ()>]} : (tensor<32xi16>, tensor<32xi16>, tensor<i16>) -> tensor<i16>
        %255 = "tensor.empty"() : () -> tensor<30x2x32xi32>
        %256 = "math.fpowi"(%arg0, %255) <{fastmath = #arith.fastmath<none>}> : (tensor<30x2x32xf16>, tensor<30x2x32xi32>) -> tensor<30x2x32xf16>
        %257 = "tensor.from_elements"(%15, %14, %7, %5, %7, %5, %2, %14, %15, %7, %5, %14, %2, %7, %2, %5, %15, %7, %5, %2, %7, %14, %2, %2, %2, %2, %7, %2, %7, %7, %5, %7, %5, %14, %5, %15, %7, %5, %14, %14, %15, %15, %2, %14, %14, %15, %14, %14, %14, %5, %5, %5, %14, %7, %2, %5, %15, %5, %5, %5) : (i64, i64, i64, i64, i64, i64, i64, i64, i64, i64, i64, i64, i64, i64, i64, i64, i64, i64, i64, i64, i64, i64, i64, i64, i64, i64, i64, i64, i64, i64, i64, i64, i64, i64, i64, i64, i64, i64, i64, i64, i64, i64, i64, i64, i64, i64, i64, i64, i64, i64, i64, i64, i64, i64, i64, i64, i64, i64, i64, i64) -> tensor<30x2xi64>
        %258 = "arith.minui"(%14, %7) : (i64, i64) -> i64
        %259 = "math.ctpop"(%51) : (tensor<?x?xi1>) -> tensor<?x?xi1>
        %260 = "index.sub"(%33, %41) : (index, index) -> index
        %261 = "arith.shrui"(%15, %7) : (i64, i64) -> i64
        %262 = "arith.floordivsi"(%11, %12) : (i1, i1) -> i1
        %263 = "memref.alloc"(%26) <{operandSegmentSizes = array<i32: 1, 0>}> : (index) -> memref<?x32xi32>
        "linalg.broadcast"(%57, %263) <{dimensions = array<i64: 1>}> ({
        ^bb0(%arg3: i32, %arg4: i32):
          "linalg.yield"(%arg3) : (i32) -> ()
        }) : (tensor<?xi32>, memref<?x32xi32>) -> ()
        %264 = "vector.extract"(%85) <{static_position = array<i64: 0>}> : (vector<1xi1>) -> i1
        %265 = "vector.extract"(%100) <{static_position = array<i64: 1>}> : (vector<6xi16>) -> i16
        %266 = "vector.load"(%arg2, %22, %16) : (memref<30x2xi64>, index, index) -> vector<30x2x32xi64>
        %267 = "index.floordivs"(%17, %44) : (index, index) -> index
        %268 = "arith.remsi"(%14, %7) : (i64, i64) -> i64
        %269 = "arith.floordivsi"(%2, %2) : (i64, i64) -> i64
        %270 = "tensor.empty"() : () -> tensor<32xi16>
        %271 = "tensor.empty"() : () -> tensor<32x30x2xi32>
        %272 = "linalg.transpose"(%255, %271) <{permutation = array<i64: 2, 0, 1>}> ({
        ^bb0(%arg3: i32, %arg4: i32):
          "linalg.yield"(%arg3) : (i32) -> ()
        }) : (tensor<30x2x32xi32>, tensor<32x30x2xi32>) -> tensor<32x30x2xi32>
        %273 = "math.copysign"(%0, %0) <{fastmath = #arith.fastmath<none>}> : (f16, f16) -> f16
        %274 = "math.log10"(%81) <{fastmath = #arith.fastmath<none>}> : (f16) -> f16
        %275 = "math.ctpop"(%51) : (tensor<?x?xi1>) -> tensor<?x?xi1>
        %276 = "math.rsqrt"(%0) <{fastmath = #arith.fastmath<none>}> : (f16) -> f16
        %277 = "tensor.empty"() : () -> tensor<32xi32>
        %278 = "math.fpowi"(%52, %277) <{fastmath = #arith.fastmath<none>}> : (tensor<32xf16>, tensor<32xi32>) -> tensor<32xf16>
        %279 = "vector.broadcast"(%2) : (i64) -> vector<32xi64>
        %280 = "vector.insert"(%279, %266) <{static_position = array<i64: 17, 0>}> : (vector<32xi64>, vector<30x2x32xi64>) -> vector<30x2x32xi64>
        %281 = "index.floordivs"(%45, %252) : (index, index) -> index
        %282 = "math.round"(%82) <{fastmath = #arith.fastmath<none>}> : (f16) -> f16
        %283 = "tensor.from_elements"(%14, %2, %14, %7, %2, %15, %2, %15, %2, %14, %15, %15, %15, %15, %2, %7, %2, %7, %5, %2, %14, %7, %5, %7, %7, %15, %2, %14, %5, %14, %5, %15, %2, %5, %7, %2, %7, %2, %2, %7, %5, %14, %7, %7, %14, %5, %14, %14, %14, %14, %2, %2, %5, %15, %2, %14, %2, %2, %14, %7, %14, %14, %5, %7, %2, %5, %2, %15, %14, %15, %7, %14, %15, %15, %5, %2, %15, %14, %7, %5, %2, %7, %2, %14, %14, %14, %14, %15, %2, %15, %5, %14, %5, %2, %2, %2, %2, %7, %14, %14, %14, %5, %7, %7, %15, %5, %15, %15, %14, %14, %2, %14, %5, %5, %7, %7, %7, %5, %14, %7, %7, %15, %2, %5, %15, %15, %5, %15, %2, %5, %15, %2, %5, %15, %7, %7, %2, %15, %15, %15, %5, %5, %5, %15, %2, %7, %14, %15, %2, %2, %2, %15, %15, %5, %7, %5, %7, %7, %2, %2, %5, %15, %2, %7, %2, %2, %2, %14, %2, %2, %2, %2, %15, %2, %2, %5, %5, %5, %14, %2, %15, %7, %7, %5, %2, %2, %15, %5, %14, %14, %14, %15, %2, %15, %7, %14, %7, %5, %14, %7, %7, %2, %14, %5, %2, %7, %5, %7, %5, %14, %5, %5, %7, %2, %7, %15, %14, %15, %2, %2, %7, %7, %7, %7, %15, %2, %2, %5, %14, %7, %7, %2, %14, %14, %5, %15, %14, %15, %2, %14, %14, %2, %14, %2, %7, %7, %15, %15, %7, %7, %7, %7, %5, %7, %2, %5, %5, %14, %2, %5, %14, %7, %2, %7, %2, %14, %7, %7, %5, %7, %7, %15, %14, %7, %7, %5, %15, %2, %14, %15, %2, %2, %5, %15, %14, %5, %5, %7, %7, %5, %2, %7, %14, %7, %15, %14, %5, %2, %15, %7, %15, %7, %14, %7, %2, %7, %15, %14, %5, %14, %5, %7, %2, %2, %2, %14, %5, %15, %14, %5, %15, %14, %15, %5, %14, %2, %7, %7, %14, %2, %7, %15, %15, %15, %14, %7, %14, %7, %14, %7, %14, %2, %14, %7, %5, %5, %2, %14, %5, %5, %15, %2, %5, %2, %2, %14, %14, %5, %5, %2, %7, %2, %14, %7, %15, %5, %15, %15, %15, %5, %7, %14, %15, %5, %7, %2, %15, %7, %7, %7, %14, %15, %15, %5, %7, %2, %7, %15, %2, %5, %7, %5, %2, %2, %14, %14, %14, %15, %7, %7, %2, %15, %2, %7, %7, %15, %2, %15, %5, %7, %2, %14, %7, %7, %15, %7, %14, %2, %2, %15, %2, %15, %14, %7, %15, %7, %2, %15, %5, %14, %7, %15, %2, %2, %2, %7, %2, %15, %14, %15, %5, %2, %15, %7, %2, %7, %5, %15, %7, %5, %15, %15, %15, %5, %7, %14, %14, %2, %15, %5, %5, %2, %15, %5, %7, %5, %15, %2, %7, %14, %2, %5, %2, %7, %5, %14, %15, %7, %14, %7, %5, %2, %2, %2, %15, %5, %5, %14, %5, %7, %15, %2, %14, %5, %5, %14, %14, %15, %15, %5, %5, %15, %7, %14, %15, %5, %14, %5, %15, %2, %2, %14, %5, %2, %15, %2, %14, %15, %7, %5, %14, %2, %5, %14, %15, %2, %7, %14, %2, %7, %15, %14, %2, %5, %7, %14, %15, %7, %14, %15, %2, %2, %7, %14, %5, %14, %5, %15, %5, %5, %5, %7, %15, %14, %7, %14, %5, %5, %15, %5, %15, %2, %14, %5, %2, %15, %5, %2, %7, %7, %2, %5, %2, %15, %15, %5, %14, %2, %5, %2, %2, %15, %2, %7, %15, %14, %14, %2, %2, %7, %7, %5, %2, %14, %7, %7, %15, %7, %15, %14, %14, %15, %2, %5, %2, %14, %7, %15, %7, %7, %14, %2, %7, %5, %14, %14, %2, %7, %2, %5, %2, %2, %7, %7, %5, %14, %7, %14, %15, %14, %15, %5, %5, %5, %15, %14, %5, %14, %2, %15, %7, %2, %15, %7, %15, %15, %2, %7, %14, %2, %7, %14, %5, %2, %14, %7, %15, %15, %15, %15, %14, %14, %5, %7, %5, %15, %2, %7, %15, %5, %15, %2, %2, %2, %14, %7, %5, %5, %7, %15, %2, %7, %14, %14, %15, %2, %2, %2, %7, %7, %7, %2, %15, %15, %15, %5, %5, %14, %5, %7, %15, %5, %7, %15, %5, %14, %15, %7, %14, %5, %2, %2, %5, %7, %5, %5, %2, %2, %15, %15, %7, %15, %14, %7, %14, %2, %7, %15, %5, %2, %14, %15, %7, %7, %5, %2, %7, %7, %5, %5, %7, %2, %15, %5, %2, %7, %5, %5, %5, %15, %2, %7, %7, %14, %5, %7, %14, %15, %5, %7, %2, %7, %7, %5, %7, %15, %5, %5, %7, %5, %14, %14, %15, %14, %15, %5, %14, %5, %7, %7, %15, %5, %2, %15, %5, %7, %2, %2, %14, %2, %7, %5, %7, %7, %7, %15, %5, %15, %7, %15, %2, %2, %2, %14, %7, %14, %15, %2, %2, %14, %2, %7, %15, %14, %5, %7, %14, %14, %5, %5, %15, %15, %15, %2, %15, %5, %14, %14, %15, %2, %15, %5, %15, %15, %2, %7, %5, %2, %15, %15, %2, %5, %5, %5, %5, %2, %2, %15, %14, %7, %14, %14, %15, %15, %5, %5, %7, %15, %7, %14, %5, %15, %7, %15, %7, %7, %14, %14, %14, %2, %5, %5, %14, %5, %14, %7, %2, %2, %7, %14, %2, %2, %2, %14, %14, %2, %15, %7, %2, %15, %15, %15, %15, %14, %5, %5, %7, %5, %2, %2, %15, %5, %14, %7, %15, %14, %2, %15, %15, %7, %2, %14, %5, %7, %2, %14, %7, %15, %7, %7, %5, %15, %5, %14, %5, %2, %14, %14, %7, %14, %14, %15, %7, %14, %2, %15, %15, %5, %2, %7, %15, %15, %2, %15, %14, %7, %15, %2, %5, %7, %15, %7, %7, %2, %5, %14, %2, %2, %14, %5, %2, %15, %15, %15, %2, %15, %15, %15, %14, %14, %7, %2, %14, %5, %7, %5, %5, %2, %2, %2, %2, %15, %5, %15, %5, %5, %15, %7, %5, %7, %15, %14, %15, %7, %14, %7, %15, %5, %14, %15, %7, %14, %14, %7, %2, %14, %5, %5, %5, %5, %5, %7, %7, %7, %5, %5, %15, %15, %2, %5, %7, %14, %14, %2, %14, %14, %5, %15, %5, %2, %15, %5, %15, %15, %2, %5, %2, %7, %14, %15, %2, %14, %2, %2, %5, %15, %2, %14, %2, %7, %15, %2, %2, %5, %15, %2, %14, %5, %14, %2, %7, %5, %15, %15, %5, %2, %15, %15, %15, %7, %7, %2, %7, %2, %2, %14, %2, %5, %7, %14, %14, %7, %2, %5, %15, %7, %2, %15, %2, %7, %14, %14, %14, %5, %2, %14, %7, %14, %7, %14, %7, %7, %5, %14, %14, %14, %7, %2, %2, %2, %15, %2, %14, %7, %5, %7, %14, %5, %7, %5, %14, %7, %2, %14, %15, %15, %2, %5, %7, %15, %14, %2, %2, %14, %2, %15, %14, %7, %15, %7, %7, %5, %14, %7, %7, %7, %7, %5, %14, %15, %5, %7, %2, %5, %2, %14, %14, %14, %14, %2, %14, %2, %14, %2, %5, %5, %5, %15, %2, %7, %5, %2, %5, %7, %7, %7, %2, %14, %15, %7, %5, %5, %5, %5, %14, %14, %5, %14, %14, %5, %5, %2, %14, %5, %15, %2, %2, %5, %5, %2, %2, %5, %2, %14, %14, %5, %14, %2, %5, %15, %14, %7, %5, %2, %14, %14, %14, %15, %5, %5, %14, %2, %2, %5, %5, %5, %2, %15, %5, %15, %14, %14, %7, %15, %15, %14, %15, %14, %7, %7, %5, %14, %7, %5, %2, %5, %14, %14, %14, %15, %2, %15, %15, %5, %2, %5, %7, %14, %7, %14, %15, %5, %2, %14, %5, %14, %15, %15, %15, %5, %2, %5, %5, %2, %7, %15, %7, %7, %15, %5, %7, %2, %14, %7, %5, %15, %14, %5, %2, %2, %15, %15, %15, %15, %14, %5, %7, %7, %15, %7, %2, %14, %5, %14, %2, %2, %5, %5, %15, %2, %15, %14, %15, %15, %7, %14, %15, %2, %2, %7, %14, %2, %2, %5, %7, %15, %2, %7, %14, %2, %7, %14, %5, %7, %15, %5, %7, %15, %2, %7, %2, %7, %14, %15, %5, %15, %15, %15, %15, %7, %5, %5, %7, %5, %5, %14, %7, %15, %2, %2, %2, %14, %15, %2, %5, %2, %14, %7, %7, %2, %14, %15, %2, %2, %15, %2, %7, %14, %5, %15, %7, %5, %14, %5, %15, %2, %7, %5, %7, %5, %15, %15, %2, %15, %14, %15, %5, %5, %15, %5, %5, %5, %14, %7, %7, %15, %5, %2, %2, %5, %7, %15, %5, %15, %7, %7, %15, %7, %15, %5, %14, %5, %14, %5, %14, %7, %7, %2, %15, %7, %15, %15, %5, %2, %5, %15, %2, %14, %5, %14, %2, %7, %5, %2, %7, %5, %14, %7, %2, %2, %15, %14, %15, %7, %2, %14, %15, %7, %5, %5, %2, %5, %7, %2, %14, %2, %2, %14, %7, %15, %7, %15, %14, %7, %7, %7, %7, %14, %14, %2, %2, %5, %5, %15, %15, %7, %14, %5, %14, %7, %2, %2, %2, %2, %14, %14, %14, %14, %7, %15, %7, %7, %5, %14, %5, %2, %2, %5, %14, %7, %14, %2, %7, %2, %14, %5, %5, %5, %2, %15, %2, %15, %5, %5, %15, %5, %7, %5, %5, %7, %5, %5, %7, %7, %5, %7, %2, %5, %15, %2, %5, %15, %7, %2, %14, %7, %7, %15, %2, %15, %2, %14, %5, %5, %5, %2, %2, %14, %2, %15, %14, %15, %15, %15, %7, %14, %15, %7, %7, %5, %5, %14, %7, %7, %14, %2, %14, %2, %7, %15, %14, %5, %2, %15, %7, %2, %7, %14, %5, %15, %14, %14, %2, %15, %2, %5, %7, %5, %15, %2, %2, %7, %15, %2, %2, %7, %5, %2, %7, %14, %15, %2, %5, %2, %5, %14, %7, %15, %2, %15, %14, %14, %5, %7, %15, %15, %5, %14, %15, %7, %14, %7, %5, %2, %7, %5, %2, %15, %2, %2, %14, %5, %15, %7, %2, %14, %15, %15, %7, %15, %7, %2, %14, %5, %2, %5, %14, %5, %2, %2, %14, %7, %2, %15, %15, %14, %5, %2, %14, %5, %7, %15, %15, %5, %15, %5, %15, %2, %14, %15, %7, %7, %14, %15, %14, %2, %7, %2, %14, %5, %5, %7, %2, %7, %7, %2, %14, %15, %7, %15, %7, %2, %7, %15, %2, %14, %14, %5, %14, %15, %2, %7, %2, %7, %5, %2, %15, %15, %5, %7, %14, %15, %15, %14, %2, %15, %2, %15, %5, %7, %15, %14, %5, %7, %14, %2, %14, %15, %5, %7, %15, %15, %14, %5, %14, %14, %5, %5, %7, %7, %5, %5, %15, %2, %7, %2, %15, %5, %2, %15, %7, %2, %15, %2, %2, %14, %5, %5, %14, %7, %7, %7, %2, %5, %2, %5, %14, %7, %2, %7, %5, %2, %2, %14, %15, %14, %5, %2, %15, %7, %2, %5, %5, %5, %7, %14, %14, %7, %14, %7, %2, %2, %15, %7, %2, %15, %15, %7, %7, %15, %5, %15, %14, %15, %5, %14, %15, %7, %5, %15, %5, %5, %5, %7, %5, %5, %2, %2, %2, %2, %2, %15, %14, %14, %14, %15, %7, %7, %5, %14, %7, %2, %5, %7, %15, %5, %14, %14, %5, %7, %5, %14, %2, %15, %15, %15, %2, %2, %15, %7, %15, %15, %2, %2, %2, %5, %15, %7, %14, %15, %15, %5, %15, %14, %15, %5, %2, %7, %15, %14, %5, %14, %14, %15, %2, %2, %7, %2, %15, %7, %7, %7, %7, %7, %2, %5, %14, %5, %15, %15, %14, %15, %14, %7, %15, %14, %15, %14, %14, %7, %15, %14, %7, %14, %2, %2, %7, %7, %15, %14) : (i64, i64, i64, i64, i64, i64, i64, i64, i64, i64, i64, i64, i64, i64, i64, i64, i64, i64, i64, i64, i64, i64, i64, i64, i64, i64, i64, i64, i64, i64, i64, i64, i64, i64, i64, i64, i64, i64, i64, i64, i64, i64, i64, i64, i64, i64, i64, i64, i64, i64, i64, i64, i64, i64, i64, i64, i64, i64, i64, i64, i64, i64, i64, i64, i64, i64, i64, i64, i64, i64, i64, i64, i64, i64, i64, i64, i64, i64, i64, i64, i64, i64, i64, i64, i64, i64, i64, i64, i64, i64, i64, i64, i64, i64, i64, i64, i64, i64, i64, i64, i64, i64, i64, i64, i64, i64, i64, i64, i64, i64, i64, i64, i64, i64, i64, i64, i64, i64, i64, i64, i64, i64, i64, i64, i64, i64, i64, i64, i64, i64, i64, i64, i64, i64, i64, i64, i64, i64, i64, i64, i64, i64, i64, i64, i64, i64, i64, i64, i64, i64, i64, i64, i64, i64, i64, i64, i64, i64, i64, i64, i64, i64, i64, i64, i64, i64, i64, i64, i64, i64, i64, i64, i64, i64, i64, i64, i64, i64, i64, i64, i64, i64, i64, i64, i64, i64, i64, i64, i64, i64, i64, i64, i64, i64, i64, i64, i64, i64, i64, i64, i64, i64, i64, i64, i64, i64, i64, i64, i64, i64, i64, i64, i64, i64, i64, i64, i64, i64, i64, i64, i64, i64, i64, i64, i64, i64, i64, i64, i64, i64, i64, i64, i64, i64, i64, i64, i64, i64, i64, i64, i64, i64, i64, i64, i64, i64, i64, i64, i64, i64, i64, i64, i64, i64, i64, i64, i64, i64, i64, i64, i64, i64, i64, i64, i64, i64, i64, i64, i64, i64, i64, i64, i64, i64, i64, i64, i64, i64, i64, i64, i64, i64, i64, i64, i64, i64, i64, i64, i64, i64, i64, i64, i64, i64, i64, i64, i64, i64, i64, i64, i64, i64, i64, i64, i64, i64, i64, i64, i64, i64, i64, i64, i64, i64, i64, i64, i64, i64, i64, i64, i64, i64, i64, i64, i64, i64, i64, i64, i64, i64, i64, i64, i64, i64, i64, i64, i64, i64, i64, i64, i64, i64, i64, i64, i64, i64, i64, i64, i64, i64, i64, i64, i64, i64, i64, i64, i64, i64, i64, i64, i64, i64, i64, i64, i64, i64, i64, i64, i64, i64, i64, i64, i64, i64, i64, i64, i64, i64, i64, i64, i64, i64, i64, i64, i64, i64, i64, i64, i64, i64, i64, i64, i64, i64, i64, i64, i64, i64, i64, i64, i64, i64, i64, i64, i64, i64, i64, i64, i64, i64, i64, i64, i64, i64, i64, i64, i64, i64, i64, i64, i64, i64, i64, i64, i64, i64, i64, i64, i64, i64, i64, i64, i64, i64, i64, i64, i64, i64, i64, i64, i64, i64, i64, i64, i64, i64, i64, i64, i64, i64, i64, i64, i64, i64, i64, i64, i64, i64, i64, i64, i64, i64, i64, i64, i64, i64, i64, i64, i64, i64, i64, i64, i64, i64, i64, i64, i64, i64, i64, i64, i64, i64, i64, i64, i64, i64, i64, i64, i64, i64, i64, i64, i64, i64, i64, i64, i64, i64, i64, i64, i64, i64, i64, i64, i64, i64, i64, i64, i64, i64, i64, i64, i64, i64, i64, i64, i64, i64, i64, i64, i64, i64, i64, i64, i64, i64, i64, i64, i64, i64, i64, i64, i64, i64, i64, i64, i64, i64, i64, i64, i64, i64, i64, i64, i64, i64, i64, i64, i64, i64, i64, i64, i64, i64, i64, i64, i64, i64, i64, i64, i64, i64, i64, i64, i64, i64, i64, i64, i64, i64, i64, i64, i64, i64, i64, i64, i64, i64, i64, i64, i64, i64, i64, i64, i64, i64, i64, i64, i64, i64, i64, i64, i64, i64, i64, i64, i64, i64, i64, i64, i64, i64, i64, i64, i64, i64, i64, i64, i64, i64, i64, i64, i64, i64, i64, i64, i64, i64, i64, i64, i64, i64, i64, i64, i64, i64, i64, i64, i64, i64, i64, i64, i64, i64, i64, i64, i64, i64, i64, i64, i64, i64, i64, i64, i64, i64, i64, i64, i64, i64, i64, i64, i64, i64, i64, i64, i64, i64, i64, i64, i64, i64, i64, i64, i64, i64, i64, i64, i64, i64, i64, i64, i64, i64, i64, i64, i64, i64, i64, i64, i64, i64, i64, i64, i64, i64, i64, i64, i64, i64, i64, i64, i64, i64, i64, i64, i64, i64, i64, i64, i64, i64, i64, i64, i64, i64, i64, i64, i64, i64, i64, i64, i64, i64, i64, i64, i64, i64, i64, i64, i64, i64, i64, i64, i64, i64, i64, i64, i64, i64, i64, i64, i64, i64, i64, i64, i64, i64, i64, i64, i64, i64, i64, i64, i64, i64, i64, i64, i64, i64, i64, i64, i64, i64, i64, i64, i64, i64, i64, i64, i64, i64, i64, i64, i64, i64, i64, i64, i64, i64, i64, i64, i64, i64, i64, i64, i64, i64, i64, i64, i64, i64, i64, i64, i64, i64, i64, i64, i64, i64, i64, i64, i64, i64, i64, i64, i64, i64, i64, i64, i64, i64, i64, i64, i64, i64, i64, i64, i64, i64, i64, i64, i64, i64, i64, i64, i64, i64, i64, i64, i64, i64, i64, i64, i64, i64, i64, i64, i64, i64, i64, i64, i64, i64, i64, i64, i64, i64, i64, i64, i64, i64, i64, i64, i64, i64, i64, i64, i64, i64, i64, i64, i64, i64, i64, i64, i64, i64, i64, i64, i64, i64, i64, i64, i64, i64, i64, i64, i64, i64, i64, i64, i64, i64, i64, i64, i64, i64, i64, i64, i64, i64, i64, i64, i64, i64, i64, i64, i64, i64, i64, i64, i64, i64, i64, i64, i64, i64, i64, i64, i64, i64, i64, i64, i64, i64, i64, i64, i64, i64, i64, i64, i64, i64, i64, i64, i64, i64, i64, i64, i64, i64, i64, i64, i64, i64, i64, i64, i64, i64, i64, i64, i64, i64, i64, i64, i64, i64, i64, i64, i64, i64, i64, i64, i64, i64, i64, i64, i64, i64, i64, i64, i64, i64, i64, i64, i64, i64, i64, i64, i64, i64, i64, i64, i64, i64, i64, i64, i64, i64, i64, i64, i64, i64, i64, i64, i64, i64, i64, i64, i64, i64, i64, i64, i64, i64, i64, i64, i64, i64, i64, i64, i64, i64, i64, i64, i64, i64, i64, i64, i64, i64, i64, i64, i64, i64, i64, i64, i64, i64, i64, i64, i64, i64, i64, i64, i64, i64, i64, i64, i64, i64, i64, i64, i64, i64, i64, i64, i64, i64, i64, i64, i64, i64, i64, i64, i64, i64, i64, i64, i64, i64, i64, i64, i64, i64, i64, i64, i64, i64, i64, i64, i64, i64, i64, i64, i64, i64, i64, i64, i64, i64, i64, i64, i64, i64, i64, i64, i64, i64, i64, i64, i64, i64, i64, i64, i64, i64, i64, i64, i64, i64, i64, i64, i64, i64, i64, i64, i64, i64, i64, i64, i64, i64, i64, i64, i64, i64, i64, i64, i64, i64, i64, i64, i64, i64, i64, i64, i64, i64, i64, i64, i64, i64, i64, i64, i64, i64, i64, i64, i64, i64, i64, i64, i64, i64, i64, i64, i64, i64, i64, i64, i64, i64, i64, i64, i64, i64, i64, i64, i64, i64, i64, i64, i64, i64, i64, i64, i64, i64, i64, i64, i64, i64, i64, i64, i64, i64, i64, i64, i64, i64, i64, i64, i64, i64, i64, i64, i64, i64, i64, i64, i64, i64, i64, i64, i64, i64, i64, i64, i64, i64, i64, i64, i64, i64, i64, i64, i64, i64, i64, i64, i64, i64, i64, i64, i64, i64, i64, i64, i64, i64, i64, i64, i64, i64, i64, i64, i64, i64, i64, i64, i64, i64, i64, i64, i64, i64, i64, i64, i64, i64, i64, i64, i64, i64, i64, i64, i64, i64, i64, i64, i64, i64, i64, i64, i64, i64, i64, i64, i64, i64, i64, i64, i64, i64, i64, i64, i64, i64, i64, i64, i64, i64, i64, i64, i64, i64, i64, i64, i64, i64, i64, i64, i64, i64, i64, i64, i64, i64, i64, i64, i64, i64, i64, i64, i64, i64, i64, i64, i64, i64, i64, i64, i64, i64, i64, i64, i64, i64, i64, i64, i64, i64, i64, i64, i64, i64, i64, i64, i64, i64, i64, i64, i64, i64, i64, i64, i64, i64, i64, i64, i64, i64, i64, i64, i64, i64, i64, i64, i64, i64, i64, i64, i64, i64, i64, i64, i64, i64, i64, i64, i64, i64, i64, i64, i64, i64, i64, i64, i64, i64, i64, i64, i64, i64, i64, i64, i64, i64, i64, i64, i64, i64, i64, i64, i64, i64, i64, i64, i64, i64, i64, i64, i64, i64, i64, i64, i64, i64, i64, i64, i64, i64, i64, i64, i64, i64, i64, i64, i64, i64, i64, i64, i64, i64, i64, i64, i64, i64, i64, i64, i64, i64, i64, i64, i64, i64, i64, i64, i64, i64, i64, i64, i64, i64, i64, i64, i64, i64, i64, i64, i64, i64, i64, i64, i64, i64, i64, i64, i64, i64, i64, i64, i64, i64, i64, i64, i64, i64, i64, i64, i64, i64, i64, i64, i64, i64, i64, i64, i64, i64, i64, i64, i64, i64, i64, i64, i64, i64, i64, i64, i64, i64, i64, i64, i64, i64, i64, i64, i64, i64, i64, i64, i64, i64, i64, i64, i64, i64, i64, i64, i64, i64, i64, i64, i64, i64, i64, i64, i64, i64, i64, i64, i64, i64, i64, i64, i64, i64, i64, i64, i64, i64, i64, i64, i64, i64, i64, i64, i64, i64, i64, i64, i64, i64, i64, i64, i64, i64, i64, i64, i64, i64, i64, i64, i64, i64, i64, i64, i64, i64, i64, i64, i64, i64, i64, i64, i64, i64, i64, i64, i64, i64, i64, i64, i64, i64, i64, i64, i64, i64, i64, i64, i64, i64, i64, i64, i64, i64, i64, i64, i64, i64, i64, i64, i64, i64, i64, i64, i64, i64, i64, i64, i64, i64, i64, i64, i64, i64, i64, i64, i64, i64, i64, i64, i64, i64, i64, i64, i64, i64, i64, i64, i64, i64, i64, i64, i64, i64, i64, i64, i64, i64, i64, i64, i64, i64, i64, i64, i64, i64, i64, i64, i64, i64, i64, i64, i64, i64, i64, i64, i64, i64, i64, i64, i64, i64, i64, i64, i64, i64, i64, i64, i64, i64, i64, i64, i64, i64, i64, i64, i64, i64, i64, i64, i64, i64, i64, i64, i64, i64, i64, i64, i64, i64, i64, i64, i64, i64, i64, i64, i64, i64, i64, i64, i64, i64, i64, i64, i64, i64, i64, i64, i64, i64, i64, i64, i64, i64, i64, i64, i64, i64, i64, i64, i64, i64, i64, i64, i64, i64, i64, i64, i64, i64, i64, i64, i64, i64, i64, i64, i64, i64, i64, i64, i64, i64, i64, i64, i64, i64, i64, i64, i64, i64, i64, i64, i64, i64, i64, i64, i64, i64, i64, i64, i64, i64, i64, i64, i64, i64, i64, i64, i64, i64, i64, i64, i64, i64, i64, i64, i64, i64, i64, i64, i64, i64, i64, i64, i64, i64, i64, i64, i64, i64, i64, i64, i64, i64, i64, i64, i64, i64, i64, i64, i64, i64, i64, i64, i64, i64, i64, i64, i64, i64, i64, i64, i64, i64, i64, i64, i64, i64, i64, i64, i64, i64, i64, i64, i64, i64, i64, i64, i64, i64, i64, i64, i64, i64, i64, i64, i64, i64, i64, i64, i64, i64, i64, i64, i64, i64, i64, i64, i64, i64, i64, i64, i64, i64, i64, i64, i64, i64, i64, i64, i64, i64, i64, i64, i64, i64, i64, i64, i64, i64, i64, i64, i64, i64, i64, i64, i64, i64, i64, i64, i64, i64, i64, i64, i64, i64, i64, i64, i64, i64, i64, i64, i64, i64, i64, i64, i64, i64, i64, i64, i64, i64, i64, i64, i64, i64, i64, i64, i64, i64, i64, i64, i64, i64, i64, i64, i64, i64, i64, i64, i64, i64, i64, i64, i64, i64, i64, i64, i64, i64, i64, i64, i64, i64, i64, i64, i64, i64, i64, i64, i64, i64, i64, i64, i64, i64, i64, i64, i64, i64, i64, i64, i64, i64, i64, i64, i64, i64, i64, i64, i64, i64, i64, i64) -> tensor<30x2x32xi64>
        %284 = "vector.create_mask"(%41) : (index) -> vector<32xi1>
        %285 = "arith.remf"(%4, %4) <{fastmath = #arith.fastmath<none>}> : (f16, f16) -> f16
        "memref.alloca_scope.return"() : () -> ()
      }) : () -> ()
      %223 = "math.floor"(%50) <{fastmath = #arith.fastmath<none>}> : (tensor<30x2xf32>) -> tensor<30x2xf32>
      %224 = "index.maxu"(%19, %28) : (index, index) -> index
      %225 = "tensor.insert"(%10, %62, %18, %17, %29) : (f32, tensor<30x2x32xf32>, index, index, index) -> tensor<30x2x32xf32>
      %226 = "math.log10"(%arg0) <{fastmath = #arith.fastmath<none>}> : (tensor<30x2x32xf16>) -> tensor<30x2x32xf16>
      %227 = "scf.if"(%11) ({
        %248 = "linalg.transpose"(%83, %83) <{permutation = array<i64: 0>}> ({
        ^bb0(%arg3: f32, %arg4: f32):
          "linalg.yield"(%arg3) : (f32) -> ()
        }) : (tensor<?xf32>, tensor<?xf32>) -> tensor<?xf32>
        %249 = "linalg.copy"(%58, %58) <{operandSegmentSizes = array<i32: 1, 1>}> ({
        ^bb0(%arg3: i64, %arg4: i64):
          "linalg.yield"(%arg3) : (i64) -> ()
        }) : (tensor<32xi64>, tensor<32xi64>) -> tensor<32xi64>
        %250 = "vector.broadcast"(%0) : (f16) -> vector<30x2xf16>
        %251 = "bufferization.to_tensor"(%75) : (memref<?x?x32xf16>) -> tensor<?x?x32xf16>
        %252 = "arith.ori"(%14, %7) : (i64, i64) -> i64
        %253 = "vector.broadcast"(%11) : (i1) -> vector<32xi1>
        %254 = "vector.maskedload"(%78, %16, %16, %253, %253) : (memref<?x?xi1>, index, index, vector<32xi1>, vector<32xi1>) -> vector<32xi1>
        %255 = "tensor.expand_shape"(%48) <{reassociation = [[0], [1, 2]]}> : (tensor<30x2xi1>) -> tensor<30x2x1xi1>
        %256 = "math.rsqrt"(%83) <{fastmath = #arith.fastmath<none>}> : (tensor<?xf32>) -> tensor<?xf32>
        "scf.yield"(%84) : (f16) -> ()
      }, {
        %248 = "affine.load"(%76, %18, %24) <{map = affine_map<(d0, d1) -> (d0, d1)>}> : (memref<?x2xi1>, index, index) -> i1
        %249 = "vector.broadcast"(%40) : (index) -> vector<30xindex>
        %250 = "vector.broadcast"(%11) : (i1) -> vector<30xi1>
        %251 = "vector.broadcast"(%8) : (i16) -> vector<30xi16>
        "vector.scatter"(%72, %16, %16, %249, %250, %251) : (memref<?x?xi16>, index, index, vector<30xindex>, vector<30xi1>, vector<30xi16>) -> ()
        %252 = "vector.insert"(%1, %89) <{static_position = array<i64: 1>}> : (i16, vector<6xi16>) -> vector<6xi16>
        %253 = "tensor.collapse_shape"(%56) <{reassociation = [[0, 1]]}> : (tensor<30x2xi64>) -> tensor<60xi64>
        %254 = "index.sizeof"() : () -> index
        %255 = "affine.load"(%79, %34) <{map = affine_map<(d0) -> (d0)>}> : (memref<?xf32>, index) -> f32
        %256 = "math.ctlz"(%54) : (tensor<32xi16>) -> tensor<32xi16>
        %257 = "bufferization.clone"(%69) : (memref<30x2xi16>) -> memref<30x2xi16>
        "scf.yield"(%82) : (f16) -> ()
      }) : (i1) -> f16
      %228 = "arith.remf"(%227, %82) <{fastmath = #arith.fastmath<none>}> : (f16, f16) -> f16
      %229 = "tensor.expand_shape"(%52) <{reassociation = [[0, 1]]}> : (tensor<32xf16>) -> tensor<32x1xf16>
      %230 = "tensor.empty"(%19) : (index) -> tensor<?x2xi32>
      %231 = "affine.load"(%69, %20, %24) <{map = affine_map<(d0, d1) -> (d0, d1)>}> : (memref<30x2xi16>, index, index) -> i16
      "affine.parallel"() <{lowerBoundsGroups = dense<1> : tensor<2xi32>, lowerBoundsMap = affine_map<() -> (0, 0)>, reductions = [], steps = [1, 1], upperBoundsGroups = dense<1> : tensor<2xi32>, upperBoundsMap = affine_map<() -> (32, 2)>}> ({
      ^bb0(%arg3: index, %arg4: index):
        %248 = "affine.vector_load"(%68, %24, %32) <{map = affine_map<(d0, d1) -> (d0, d1)>}> : (memref<?x2xi1>, index, index) -> vector<32xi1>
        "affine.yield"() : () -> ()
      }) : () -> ()
      %232 = "math.log"(%52) <{fastmath = #arith.fastmath<none>}> : (tensor<32xf16>) -> tensor<32xf16>
      %233 = "vector.broadcast"(%97) : (i1) -> vector<30xi1>
      %234 = "vector.maskedload"(%78, %16, %16, %233, %233) : (memref<?x?xi1>, index, index, vector<30xi1>, vector<30xi1>) -> vector<30xi1>
      %235 = "arith.divsi"(%5, %14) : (i64, i64) -> i64
      %236 = "math.rsqrt"(%52) <{fastmath = #arith.fastmath<none>}> : (tensor<32xf16>) -> tensor<32xf16>
      %237 = "arith.minsi"(%11, %97) : (i1, i1) -> i1
      "bufferization.dealloc_tensor"(%58) : (tensor<32xi64>) -> ()
      "affine.parallel"() <{lowerBoundsGroups = dense<1> : tensor<1xi32>, lowerBoundsMap = affine_map<() -> (0)>, reductions = [], steps = [1], upperBoundsGroups = dense<1> : tensor<1xi32>, upperBoundsMap = affine_map<() -> (30)>}> ({
      ^bb0(%arg3: index):
        %248 = "arith.remf"(%0, %82) <{fastmath = #arith.fastmath<none>}> : (f16, f16) -> f16
        "affine.yield"() : () -> ()
      }) : () -> ()
      %238 = "index.castu"(%36) : (index) -> i32
      %239 = "arith.constant"() <{value = 4.076800e+04 : f16}> : () -> f16
      %240 = "vector.broadcast"(%5) : (i64) -> vector<6xi64>
      "vector.compressstore"(%arg2, %32, %17, %88, %240) : (memref<30x2xi64>, index, index, vector<6xi1>, vector<6xi64>) -> ()
      %241 = "vector.broadcast"(%2) : (i64) -> vector<i64>
      %242 = "vector.transfer_write"(%241, %53, %19) <{operandSegmentSizes = array<i32: 1, 1, 1, 0>, permutation_map = affine_map<(d0) -> ()>}> : (vector<i64>, tensor<?xi64>, index) -> tensor<?xi64>
      %243 = "arith.constant"() <{value = 1234808324 : i32}> : () -> i32
      %244 = "vector.create_mask"(%41, %35) : (index, index) -> vector<30x2xi1>
      %245 = "arith.addi"(%5, %15) : (i64, i64) -> i64
      %246 = "memref.alloc"(%21) <{operandSegmentSizes = array<i32: 1, 0>}> : (index) -> memref<?x2xi16>
      %247 = "index.or"(%17, %31) : (index, index) -> index
      "memref.alloca_scope.return"() : () -> ()
    }) : () -> ()
    %101 = "tensor.insert"(%14, %56, %34, %17) : (i64, tensor<30x2xi64>, index, index) -> tensor<30x2xi64>
    %102 = "vector.load"(%74, %16) : (memref<?xi64>, index) -> vector<30x2x32xi64>
    %103 = "math.tan"(%4) <{fastmath = #arith.fastmath<none>}> : (f16) -> f16
    %104 = "spirv.FOrdEqual"(%0, %82) : (f16, f16) -> i1
    %105 = "spirv.CL.fmax"(%0, %82) : (f16, f16) -> f16
    %106 = "spirv.GL.Cos"(%0) : (f16) -> f16
    %107 = "memref.realloc"(%79) : (memref<?xf32>) -> memref<6xf32>
    %108 = "arith.minui"(%97, %104) : (i1, i1) -> i1
    %109 = "spirv.GL.Atan"(%84) : (f16) -> f16
    %110 = "memref.alloc"() <{operandSegmentSizes = array<i32: 0, 0>}> : () -> memref<60xf16>
    %111 = "tensor.empty"() : () -> tensor<f16>
    %112 = "linalg.dot"(%98, %110, %111) <{operandSegmentSizes = array<i32: 2, 1>}> ({
    ^bb0(%arg3: f16, %arg4: f16, %arg5: f16):
      %218 = "arith.mulf"(%arg3, %arg4) <{fastmath = #arith.fastmath<none>}> : (f16, f16) -> f16
      %219 = "arith.addf"(%arg5, %218) <{fastmath = #arith.fastmath<none>}> : (f16, f16) -> f16
      "linalg.yield"(%219) : (f16) -> ()
    }) {linalg.memoized_indexing_maps = [affine_map<(d0) -> (d0)>, affine_map<(d0) -> (d0)>, affine_map<(d0) -> ()>]} : (tensor<60xf16>, memref<60xf16>, tensor<f16>) -> tensor<f16>
    %113 = "bufferization.clone"(%77) : (memref<30x2xi1>) -> memref<30x2xi1>
    %114 = "vector.broadcast"(%97) : (i1) -> vector<30x2x32xi1>
    %115 = "vector.mask"(%114) ({
      %218 = "vector.multi_reduction"(%102, %102) <{kind = #vector.kind<maxsi>, reduction_dims = []}> : (vector<30x2x32xi64>, vector<30x2x32xi64>) -> vector<30x2x32xi64>
      "vector.yield"(%218) : (vector<30x2x32xi64>) -> ()
    }) : (vector<30x2x32xi1>) -> vector<30x2x32xi64>
    %116 = "arith.remf"(%0, %4) <{fastmath = #arith.fastmath<none>}> : (f16, f16) -> f16
    %117 = "linalg.transpose"(%52, %52) <{permutation = array<i64: 0>}> ({
    ^bb0(%arg3: f16, %arg4: f16):
      "linalg.yield"(%arg3) : (f16) -> ()
    }) : (tensor<32xf16>, tensor<32xf16>) -> tensor<32xf16>
    %118 = "arith.mulf"(%6, %109) <{fastmath = #arith.fastmath<none>}> : (f16, f16) -> f16
    %119 = "tensor.expand_shape"(%54) <{reassociation = [[0, 1]]}> : (tensor<32xi16>) -> tensor<32x1xi16>
    %120 = "index.mul"(%46, %32) : (index, index) -> index
    %121 = "arith.shli"(%97, %11) : (i1, i1) -> i1
    %122 = "arith.shrui"(%8, %8) : (i16, i16) -> i16
    %123 = "spirv.CL.fma"(%4, %106, %82) : (f16, f16, f16) -> f16
    %124 = "memref.alloc"(%37, %23) <{operandSegmentSizes = array<i32: 2, 0>}> : (index, index) -> memref<?x?xi16>
    %125 = "spirv.CL.s_abs"(%3) : (i32) -> i32
    %126 = "spirv.IsInf"(%6) : (f16) -> i1
    %127 = "spirv.SLessThanEqual"(%13, %3) : (i32, i32) -> i1
    %128 = "tensor.empty"(%33, %18) : (index, index) -> tensor<?x?xi1>
    %129 = "linalg.map"(%51, %51, %51, %128) ({
    ^bb0(%arg3: i1, %arg4: i1, %arg5: i1):
      "memref.alloca_scope"() ({
        %250 = "affine.load"(%110, %37) <{map = affine_map<(d0) -> (d0)>}> : (memref<60xf16>, index) -> f16
        %251 = "vector.mask"(%88) ({
          %283 = "vector.multi_reduction"(%87, %89) <{kind = #vector.kind<mul>, reduction_dims = []}> : (vector<6xi16>, vector<6xi16>) -> vector<6xi16>
          "vector.yield"(%283) : (vector<6xi16>) -> ()
        }) : (vector<6xi1>) -> vector<6xi16>
        %252 = "vector.insertelement"(%1, %100, %30) : (i16, vector<6xi16>, index) -> vector<6xi16>
        %253 = "math.copysign"(%52, %117) <{fastmath = #arith.fastmath<none>}> : (tensor<32xf16>, tensor<32xf16>) -> tensor<32xf16>
        %254 = "vector.create_mask"(%37, %32) : (index, index) -> vector<30x2xi1>
        %255 = "vector.splat"(%127) : (i1) -> vector<32xi1>
        %256 = "vector.contract"(%88, %88, %12) <{indexing_maps = [affine_map<(d0) -> (d0)>, affine_map<(d0) -> (d0)>, affine_map<(d0) -> ()>], iterator_types = [#vector.iterator_type<reduction>], kind = #vector.kind<maxsi>}> : (vector<6xi1>, vector<6xi1>, i1) -> i1
        %257 = "arith.divui"(%arg5, %12) : (i1, i1) -> i1
        %258 = "math.cttz"(%53) : (tensor<?xi64>) -> tensor<?xi64>
        "bufferization.dealloc_tensor"(%57) : (tensor<?xi32>) -> ()
        %259 = "arith.andi"(%127, %12) : (i1, i1) -> i1
        %260 = "arith.ceildivsi"(%1, %9) : (i16, i16) -> i16
        %261 = "index.maxs"(%25, %47) : (index, index) -> index
        %262 = "index.sizeof"() : () -> index
        %263 = "arith.divui"(%127, %arg5) : (i1, i1) -> i1
        %264 = "vector.bitcast"(%254) : (vector<30x2xi1>) -> vector<30x2xi1>
        %265 = "math.rsqrt"(%arg0) <{fastmath = #arith.fastmath<none>}> : (tensor<30x2x32xf16>) -> tensor<30x2x32xf16>
        %266 = "arith.remsi"(%8, %1) : (i16, i16) -> i16
        %267 = "affine.load"(%65, %21, %20) <{map = affine_map<(d0, d1) -> (d0, d1)>}> : (memref<30x2xf16>, index, index) -> f16
        %268 = "arith.remf"(%6, %81) <{fastmath = #arith.fastmath<none>}> : (f16, f16) -> f16
        %269 = "math.absi"(%14) : (i64) -> i64
        %270 = "math.copysign"(%84, %109) <{fastmath = #arith.fastmath<none>}> : (f16, f16) -> f16
        %271 = "tensor.from_elements"(%arg4, %11, %12, %126, %arg5, %126, %97, %97, %104, %arg3, %12, %12, %126, %97, %97, %97, %11, %arg4, %97, %11, %126, %arg5, %arg4, %12, %104, %12, %11, %arg3, %127, %12, %11, %104, %97, %104, %arg4, %arg4, %arg5, %12, %arg5, %126, %arg5, %arg4, %arg5, %126, %12, %arg5, %127, %97, %arg3, %arg3, %12, %arg3, %12, %126, %arg5, %11, %arg3, %126, %arg5, %12) : (i1, i1, i1, i1, i1, i1, i1, i1, i1, i1, i1, i1, i1, i1, i1, i1, i1, i1, i1, i1, i1, i1, i1, i1, i1, i1, i1, i1, i1, i1, i1, i1, i1, i1, i1, i1, i1, i1, i1, i1, i1, i1, i1, i1, i1, i1, i1, i1, i1, i1, i1, i1, i1, i1, i1, i1, i1, i1, i1, i1) -> tensor<30x2xi1>
        %272 = "math.fpowi"(%106, %13) <{fastmath = #arith.fastmath<none>}> : (f16, i32) -> f16
        "affine.store"(%2, %74, %39) <{map = affine_map<(d0) -> (d0)>}> : (i64, memref<?xi64>, index) -> ()
        %273 = "affine.load"(%65, %24, %23) <{map = affine_map<(d0, d1) -> (d0, d1)>}> : (memref<30x2xf16>, index, index) -> f16
        %274 = "vector.bitcast"(%87) : (vector<6xi16>) -> vector<6xi16>
        %275 = "vector.broadcast"(%arg3) : (i1) -> vector<30x2xi1>
        %276 = "tensor.empty"() : () -> tensor<32x30x2xi32>
        %277 = "linalg.transpose"(%66, %276) <{permutation = array<i64: 2, 0, 1>}> ({
        ^bb0(%arg6: i32, %arg7: i32):
          "linalg.yield"(%arg6) : (i32) -> ()
        }) : (memref<30x2x32xi32>, tensor<32x30x2xi32>) -> tensor<32x30x2xi32>
        %278 = "memref.alloc"() <{operandSegmentSizes = array<i32: 0, 0>}> : () -> memref<32xi64>
        %279 = "tensor.empty"() : () -> tensor<i64>
        %280 = "linalg.dot"(%58, %278, %279) <{operandSegmentSizes = array<i32: 2, 1>}> ({
        ^bb0(%arg6: i64, %arg7: i64, %arg8: i64):
          %283 = "arith.muli"(%arg6, %arg7) : (i64, i64) -> i64
          %284 = "arith.addi"(%arg8, %283) : (i64, i64) -> i64
          "linalg.yield"(%284) : (i64) -> ()
        }) {linalg.memoized_indexing_maps = [affine_map<(d0) -> (d0)>, affine_map<(d0) -> (d0)>, affine_map<(d0) -> ()>]} : (tensor<32xi64>, memref<32xi64>, tensor<i64>) -> tensor<i64>
        %281 = "math.ctlz"(%280) : (tensor<i64>) -> tensor<i64>
        %282 = "math.atan2"(%117, %52) <{fastmath = #arith.fastmath<none>}> : (tensor<32xf16>, tensor<32xf16>) -> tensor<32xf16>
        "memref.alloca_scope.return"() : () -> ()
      }) : () -> ()
      %218 = "arith.remf"(%10, %10) <{fastmath = #arith.fastmath<none>}> : (f32, f32) -> f32
      %219 = "arith.remf"(%82, %82) <{fastmath = #arith.fastmath<none>}> : (f16, f16) -> f16
      %220 = "tensor.empty"() : () -> tensor<30x2x32xi32>
      %221 = "vector.broadcast"(%13) : (i32) -> vector<30x2x32xi32>
      %222 = "vector.gather"(%220, %120, %34, %34, %221, %114, %221) : (tensor<30x2x32xi32>, index, index, index, vector<30x2x32xi32>, vector<30x2x32xi1>, vector<30x2x32xi32>) -> vector<30x2x32xi32>
      %223 = "index.ceildivs"(%20, %45) : (index, index) -> index
      %224 = "bufferization.to_tensor"(%76) : (memref<?x2xi1>) -> tensor<?x2xi1>
      %225 = "arith.shrsi"(%arg3, %126) : (i1, i1) -> i1
      %226 = "math.rsqrt"(%arg0) <{fastmath = #arith.fastmath<none>}> : (tensor<30x2x32xf16>) -> tensor<30x2x32xf16>
      %227 = "memref.alloca_scope"() ({
        %250 = "memref.alloca"(%35, %arg1) <{operandSegmentSizes = array<i32: 2, 0>}> : (index, index) -> memref<?x?xi16>
        %251 = "arith.minui"(%arg3, %104) : (i1, i1) -> i1
        %252 = "arith.divui"(%1, %8) : (i16, i16) -> i16
        %253 = "math.roundeven"(%84) <{fastmath = #arith.fastmath<none>}> : (f16) -> f16
        %254 = "arith.addi"(%11, %126) : (i1, i1) -> i1
        %255 = "index.shrs"(%39, %16) : (index, index) -> index
        %256 = "linalg.copy"(%54, %54) <{operandSegmentSizes = array<i32: 1, 1>}> ({
        ^bb0(%arg6: i16, %arg7: i16):
          "linalg.yield"(%arg6) : (i16) -> ()
        }) : (tensor<32xi16>, tensor<32xi16>) -> tensor<32xi16>
        %257 = "index.or"(%45, %43) : (index, index) -> index
        %258 = "math.rsqrt"(%50) <{fastmath = #arith.fastmath<none>}> : (tensor<30x2xf32>) -> tensor<30x2xf32>
        %259 = "arith.divf"(%10, %10) <{fastmath = #arith.fastmath<none>}> : (f32, f32) -> f32
        %260 = "index.xor"(%32, %257) : (index, index) -> index
        %261 = "arith.remf"(%84, %106) <{fastmath = #arith.fastmath<none>}> : (f16, f16) -> f16
        %262 = "math.expm1"(%60) <{fastmath = #arith.fastmath<none>}> : (tensor<30x2xf16>) -> tensor<30x2xf16>
        %263 = "vector.broadcast"(%1) : (i16) -> vector<30x2xi16>
        %264 = "vector.broadcast"(%97) : (i1) -> vector<30x2xi1>
        %265 = "vector.broadcast"(%125) : (i32) -> vector<30x2xi32>
        %266 = "vector.gather"(%64, %16, %25, %44, %265, %264, %263) : (memref<30x2x32xi16>, index, index, index, vector<30x2xi32>, vector<30x2xi1>, vector<30x2xi16>) -> vector<30x2xi16>
        %267 = "index.bool.constant"() <{value = false}> : () -> i1
        %268 = "index.castu"(%15) : (i64) -> index
        %269 = "bufferization.clone"(%66) : (memref<30x2x32xi32>) -> memref<30x2x32xi32>
        %270 = "arith.floordivsi"(%267, %126) : (i1, i1) -> i1
        %271 = "arith.divsi"(%97, %arg5) : (i1, i1) -> i1
        %272 = "memref.realloc"(%79) : (memref<?xf32>) -> memref<30xf32>
        %273 = "arith.remf"(%10, %10) <{fastmath = #arith.fastmath<none>}> : (f32, f32) -> f32
        %274 = "arith.remf"(%0, %82) <{fastmath = #arith.fastmath<none>}> : (f16, f16) -> f16
        %275 = "vector.broadcast"(%10) : (f32) -> vector<32xf32>
        %276 = "vector.fma"(%275, %275, %275) : (vector<32xf32>, vector<32xf32>, vector<32xf32>) -> vector<32xf32>
        %277 = "vector.broadcast"(%4) : (f16) -> vector<2xf16>
        %278 = "vector.broadcast"(%97) : (i1) -> vector<2xi1>
        %279 = "vector.maskedload"(%73, %39, %17, %278, %277) : (memref<30x2xf16>, index, index, vector<2xi1>, vector<2xf16>) -> vector<2xf16>
        %280 = "arith.minsi"(%arg3, %11) : (i1, i1) -> i1
        %281 = "arith.muli"(%arg5, %267) : (i1, i1) -> i1
        %282 = "affine.max"(%47, %46, %33) <{map = affine_map<(d0, d1, d2) -> (d1 + 8)>}> : (index, index, index) -> index
        %283 = "memref.realloc"(%110) : (memref<60xf16>) -> memref<30xf16>
        %284 = "arith.andi"(%5, %5) : (i64, i64) -> i64
        %285 = "math.atan2"(%117, %117) <{fastmath = #arith.fastmath<none>}> : (tensor<32xf16>, tensor<32xf16>) -> tensor<32xf16>
        %286 = "index.mul"(%32, %25) : (index, index) -> index
        %287 = "vector.extract"(%85) <{static_position = array<i64: 0>}> : (vector<1xi1>) -> i1
        "memref.alloca_scope.return"(%32) : (index) -> ()
      }) : () -> index
      %228 = "math.log2"(%60) <{fastmath = #arith.fastmath<none>}> : (tensor<30x2xf16>) -> tensor<30x2xf16>
      %229 = "arith.minsi"(%7, %2) : (i64, i64) -> i64
      "vector.print"(%114) <{punctuation = #vector.punctuation<newline>}> : (vector<30x2x32xi1>) -> ()
      %230 = "math.tan"(%52) <{fastmath = #arith.fastmath<none>}> : (tensor<32xf16>) -> tensor<32xf16>
      %231 = "math.atan2"(%98, %98) <{fastmath = #arith.fastmath<none>}> : (tensor<60xf16>, tensor<60xf16>) -> tensor<60xf16>
      %232 = "scf.index_switch"(%31) <{cases = array<i64: 1, 2, 3>}> ({
        %250 = "vector.splat"(%46) : (index) -> vector<30x2xindex>
        %251 = "arith.mulf"(%123, %123) <{fastmath = #arith.fastmath<none>}> : (f16, f16) -> f16
        %252 = "arith.minui"(%9, %9) : (i16, i16) -> i16
        %253 = "affine.vector_load"(%76, %35, %33) <{map = affine_map<(d0, d1) -> (d0, d1)>}> : (memref<?x2xi1>, index, index) -> vector<30xi1>
        %254 = "arith.negf"(%81) <{fastmath = #arith.fastmath<none>}> : (f16) -> f16
        %255 = "arith.divui"(%11, %104) : (i1, i1) -> i1
        %256 = "index.or"(%22, %23) : (index, index) -> index
        "affine.store"(%12, %77, %46, %40) <{map = affine_map<(d0, d1) -> (d0, d1)>}> : (i1, memref<30x2xi1>, index, index) -> ()
        %257 = "arith.cmpi"(%arg4, %arg3) <{predicate = 8 : i64}> : (i1, i1) -> i1
        %258 = "bufferization.clone"(%arg2) : (memref<30x2xi64>) -> memref<30x2xi64>
        %259 = "arith.mulf"(%82, %84) <{fastmath = #arith.fastmath<none>}> : (f16, f16) -> f16
        %260 = "arith.andi"(%5, %5) : (i64, i64) -> i64
        %261 = "vector.broadcast"(%1) : (i16) -> vector<i16>
        %262 = "vector.transfer_write"(%261, %54, %33) <{operandSegmentSizes = array<i32: 1, 1, 1, 0>, permutation_map = affine_map<(d0) -> ()>}> : (vector<i16>, tensor<32xi16>, index) -> tensor<32xi16>
        %263 = "vector.splat"(%105) : (f16) -> vector<30x2xf16>
        %264 = "tensor.empty"() : () -> tensor<30x2x32xf16>
        %265 = "memref.realloc"(%67) : (memref<?xf32>) -> memref<2xf32>
        %266 = "tensor.empty"(%37) : (index) -> tensor<?x2xf32>
        "scf.yield"(%266) : (tensor<?x2xf32>) -> ()
      }, {
        %250 = "math.atan2"(%81, %109) <{fastmath = #arith.fastmath<none>}> : (f16, f16) -> f16
        %251 = "math.atan"(%117) <{fastmath = #arith.fastmath<none>}> : (tensor<32xf16>) -> tensor<32xf16>
        %252 = "arith.remui"(%arg4, %104) : (i1, i1) -> i1
        %253 = "arith.shrsi"(%3, %125) : (i32, i32) -> i32
        %254 = "memref.alloca"() <{operandSegmentSizes = array<i32: 0, 0>}> : () -> memref<32xf16>
        %255 = "math.roundeven"(%10) <{fastmath = #arith.fastmath<none>}> : (f32) -> f32
        %256 = "vector.broadcast"(%82) : (f16) -> vector<f16>
        "vector.transfer_write"(%256, %65, %41, %23) <{operandSegmentSizes = array<i32: 1, 1, 2, 0>, permutation_map = affine_map<(d0, d1) -> ()>}> : (vector<f16>, memref<30x2xf16>, index, index) -> ()
        %257 = "math.ceil"(%0) <{fastmath = #arith.fastmath<none>}> : (f16) -> f16
        "bufferization.dealloc_tensor"(%55) : (tensor<32xi1>) -> ()
        %258 = "vector.create_mask"(%21) : (index) -> vector<32xi1>
        %259 = "tensor.from_elements"(%104, %11, %126, %arg5, %11, %12, %97, %126, %arg4, %arg3, %arg5, %127, %104, %12, %97, %11, %arg4, %arg5, %11, %97, %97, %arg5, %126, %126, %11, %127, %104, %12, %arg4, %97, %arg5, %97) : (i1, i1, i1, i1, i1, i1, i1, i1, i1, i1, i1, i1, i1, i1, i1, i1, i1, i1, i1, i1, i1, i1, i1, i1, i1, i1, i1, i1, i1, i1, i1, i1) -> tensor<32xi1>
        %260 = "arith.divsi"(%arg3, %104) : (i1, i1) -> i1
        %261 = "math.fma"(%111, %112, %111) <{fastmath = #arith.fastmath<none>}> : (tensor<f16>, tensor<f16>, tensor<f16>) -> tensor<f16>
        %262 = "math.rsqrt"(%60) <{fastmath = #arith.fastmath<none>}> : (tensor<30x2xf16>) -> tensor<30x2xf16>
        %263 = "arith.remsi"(%125, %3) : (i32, i32) -> i32
        %264 = "vector.bitcast"(%89) : (vector<6xi16>) -> vector<6xi16>
        %265 = "tensor.empty"(%arg1) : (index) -> tensor<?x2xf32>
        "scf.yield"(%265) : (tensor<?x2xf32>) -> ()
      }, {
        %250 = "index.ceildivu"(%46, %43) : (index, index) -> index
        %251 = "vector.broadcast"(%34) : (index) -> vector<30xindex>
        %252 = "vector.broadcast"(%97) : (i1) -> vector<30xi1>
        "vector.scatter"(%68, %16, %16, %251, %252, %252) : (memref<?x2xi1>, index, index, vector<30xindex>, vector<30xi1>, vector<30xi1>) -> ()
        %253 = "tensor.empty"() : () -> tensor<32xi16>
        %254 = "math.exp2"(%52) <{fastmath = #arith.fastmath<none>}> : (tensor<32xf16>) -> tensor<32xf16>
        %255 = "index.or"(%17, %42) : (index, index) -> index
        %256 = "index.sub"(%120, %36) : (index, index) -> index
        %257 = "arith.andi"(%1, %9) : (i16, i16) -> i16
        %258 = "vector.bitcast"(%114) : (vector<30x2x32xi1>) -> vector<30x2x32xi1>
        %259 = "vector.reduction"(%90) <{fastmath = #arith.fastmath<none>, kind = #vector.kind<or>}> : (vector<2xi32>) -> i32
        %260 = "math.floor"(%49) <{fastmath = #arith.fastmath<none>}> : (tensor<30x2xf32>) -> tensor<30x2xf32>
        %261 = "arith.muli"(%125, %125) : (i32, i32) -> i32
        %262 = "arith.mulf"(%109, %0) <{fastmath = #arith.fastmath<none>}> : (f16, f16) -> f16
        %263 = "math.log10"(%117) <{fastmath = #arith.fastmath<none>}> : (tensor<32xf16>) -> tensor<32xf16>
        %264 = "affine.load"(%77, %45, %43) <{map = affine_map<(d0, d1) -> (d0, d1)>}> : (memref<30x2xi1>, index, index) -> i1
        %265 = "tensor.empty"() : () -> tensor<30x2xi32>
        %266 = "math.fpowi"(%49, %265) <{fastmath = #arith.fastmath<none>}> : (tensor<30x2xf32>, tensor<30x2xi32>) -> tensor<30x2xf32>
        %267 = "vector.load"(%76, %16, %17) : (memref<?x2xi1>, index, index) -> vector<30x2xi1>
        %268 = "tensor.empty"(%17) : (index) -> tensor<?x2xf32>
        "scf.yield"(%268) : (tensor<?x2xf32>) -> ()
      }, {
        %250 = "vector.mask"(%88) ({
          %269 = "vector.multi_reduction"(%89, %87) <{kind = #vector.kind<xor>, reduction_dims = []}> : (vector<6xi16>, vector<6xi16>) -> vector<6xi16>
          "vector.yield"(%269) : (vector<6xi16>) -> ()
        }) : (vector<6xi1>) -> vector<6xi16>
        %251 = "linalg.dot"(%98, %98, %112) <{operandSegmentSizes = array<i32: 2, 1>}> ({
        ^bb0(%arg6: f16, %arg7: f16, %arg8: f16):
          %269 = "arith.mulf"(%arg6, %arg7) <{fastmath = #arith.fastmath<none>}> : (f16, f16) -> f16
          %270 = "arith.addf"(%arg8, %269) <{fastmath = #arith.fastmath<none>}> : (f16, f16) -> f16
          "linalg.yield"(%270) : (f16) -> ()
        }) {linalg.memoized_indexing_maps = [affine_map<(d0) -> (d0)>, affine_map<(d0) -> (d0)>, affine_map<(d0) -> ()>]} : (tensor<60xf16>, tensor<60xf16>, tensor<f16>) -> tensor<f16>
        %252 = "vector.insertelement"(%1, %89, %223) : (i16, vector<6xi16>, index) -> vector<6xi16>
        %253 = "arith.ori"(%11, %104) : (i1, i1) -> i1
        %254 = "vector.broadcast"(%arg5) : (i1) -> vector<32xi1>
        %255 = "vector.broadcast"(%3) : (i32) -> vector<32xi32>
        %256 = "vector.gather"(%61, %34, %80, %255, %254, %254) : (tensor<30x2xi1>, index, index, vector<32xi32>, vector<32xi1>, vector<32xi1>) -> vector<32xi1>
        %257 = "math.cttz"(%48) : (tensor<30x2xi1>) -> tensor<30x2xi1>
        %258 = "index.maxu"(%44, %120) : (index, index) -> index
        %259 = "memref.alloc"() <{operandSegmentSizes = array<i32: 0, 0>}> : () -> memref<32xi16>
        "linalg.transpose"(%54, %259) <{permutation = array<i64: 0>}> ({
        ^bb0(%arg6: i16, %arg7: i16):
          "linalg.yield"(%arg6) : (i16) -> ()
        }) : (tensor<32xi16>, memref<32xi16>) -> ()
        %260 = "math.rsqrt"(%106) <{fastmath = #arith.fastmath<none>}> : (f16) -> f16
        %261 = "math.log10"(%251) <{fastmath = #arith.fastmath<none>}> : (tensor<f16>) -> tensor<f16>
        %262 = "tensor.splat"(%12) : (i1) -> tensor<30x2xi1>
        %263 = "bufferization.clone"(%110) : (memref<60xf16>) -> memref<60xf16>
        %264 = "vector.flat_transpose"(%100) <{columns = 2 : i32, rows = 3 : i32}> : (vector<6xi16>) -> vector<6xi16>
        %265 = "math.floor"(%98) <{fastmath = #arith.fastmath<none>}> : (tensor<60xf16>) -> tensor<60xf16>
        %266 = "bufferization.clone"(%73) : (memref<30x2xf16>) -> memref<30x2xf16>
        %267 = "vector.broadcast"(%104) : (i1) -> vector<30x2xi1>
        %268 = "tensor.empty"(%arg1) : (index) -> tensor<?x2xf32>
        "scf.yield"(%268) : (tensor<?x2xf32>) -> ()
      }) : (index) -> tensor<?x2xf32>
      %233 = "bufferization.clone"(%113) : (memref<30x2xi1>) -> memref<30x2xi1>
      %234 = "arith.shli"(%127, %126) : (i1, i1) -> i1
      %235 = "vector.flat_transpose"(%88) <{columns = 2 : i32, rows = 3 : i32}> : (vector<6xi1>) -> vector<6xi1>
      "affine.vector_store"(%89, %64, %17, %19, %25) <{map = affine_map<(d0, d1, d2) -> (d0, d1, d2)>}> : (vector<6xi16>, memref<30x2x32xi16>, index, index, index) -> ()
      %236 = "index.shru"(%arg1, %23) : (index, index) -> index
      "vector.print"(%235) <{punctuation = #vector.punctuation<newline>}> : (vector<6xi1>) -> ()
      %237 = "index.maxu"(%34, %35) : (index, index) -> index
      %238 = "vector.maskedload"(%64, %29, %16, %32, %88, %87) : (memref<30x2x32xi16>, index, index, index, vector<6xi1>, vector<6xi16>) -> vector<6xi16>
      %239 = "vector.mask"(%114) ({
        %250 = "vector.multi_reduction"(%102, %102) <{kind = #vector.kind<or>, reduction_dims = []}> : (vector<30x2x32xi64>, vector<30x2x32xi64>) -> vector<30x2x32xi64>
        "vector.yield"(%250) : (vector<30x2x32xi64>) -> ()
      }) : (vector<30x2x32xi1>) -> vector<30x2x32xi64>
      %240 = "arith.floordivsi"(%8, %8) : (i16, i16) -> i16
      %241 = "arith.negf"(%10) <{fastmath = #arith.fastmath<none>}> : (f32) -> f32
      %242 = "affine.load"(%113, %20, %46) <{map = affine_map<(d0, d1) -> (d0, d1)>}> : (memref<30x2xi1>, index, index) -> i1
      %243 = "tensor.rank"(%111) : (tensor<f16>) -> index
      %244 = "index.and"(%243, %26) : (index, index) -> index
      %245 = "vector.broadcast"(%28) : (index) -> vector<32xindex>
      %246 = "vector.broadcast"(%127) : (i1) -> vector<32xi1>
      %247 = "vector.broadcast"(%106) : (f16) -> vector<32xf16>
      "vector.scatter"(%73, %17, %17, %245, %246, %247) : (memref<30x2xf16>, index, index, vector<32xindex>, vector<32xi1>, vector<32xf16>) -> ()
      %248 = "vector.extract"(%221) <{static_position = array<i64: 9>}> : (vector<30x2x32xi32>) -> vector<2x32xi32>
      %249 = "index.maxu"(%35, %35) : (index, index) -> index
      "linalg.yield"(%arg3) : (i1) -> ()
    }) : (tensor<?x?xi1>, tensor<?x?xi1>, tensor<?x?xi1>, tensor<?x?xi1>) -> tensor<?x?xi1>
    %130 = "spirv.IEqual"(%3, %13) : (i32, i32) -> i1
    %131 = "spirv.FUnordEqual"(%10, %10) : (f32, f32) -> i1
    %132 = "spirv.GL.UMax"(%90, %90) : (vector<2xi32>, vector<2xi32>) -> vector<2xi32>
    %133 = "spirv.GL.Tanh"(%81) : (f16) -> f16
    %134 = "arith.negf"(%106) <{fastmath = #arith.fastmath<none>}> : (f16) -> f16
    %135 = "spirv.CL.fma"(%133, %133, %81) : (f16, f16, f16) -> f16
    %136 = "spirv.CL.erf"(%123) : (f16) -> f16
    %137 = "spirv.FUnordGreaterThan"(%10, %10) : (f32, f32) -> i1
    %138 = "spirv.IsNan"(%133) : (f16) -> i1
    %139 = "spirv.BitFieldInsert"(%90, %90, %14, %13) : (vector<2xi32>, vector<2xi32>, i64, i32) -> vector<2xi32>
    %140 = "index.maxu"(%20, %43) : (index, index) -> index
    %141 = "scf.parallel"(%25, %arg1, %40, %27, %33, %20, %4) <{operandSegmentSizes = array<i32: 2, 2, 2, 1>}> ({
    ^bb0(%arg3: index, %arg4: index):
      %218 = "math.absf"(%81) <{fastmath = #arith.fastmath<none>}> : (f16) -> f16
      %219 = "arith.ceildivsi"(%3, %13) : (i32, i32) -> i32
      %220 = "math.rsqrt"(%109) <{fastmath = #arith.fastmath<none>}> : (f16) -> f16
      %221 = "tensor.collapse_shape"(%62) <{reassociation = [[0, 1], [2]]}> : (tensor<30x2x32xf32>) -> tensor<60x32xf32>
      %222 = "index.sub"(%22, %33) : (index, index) -> index
      %223 = "vector.create_mask"(%35, %222, %28) : (index, index, index) -> vector<30x2x32xi1>
      %224 = "math.rsqrt"(%221) <{fastmath = #arith.fastmath<none>}> : (tensor<60x32xf32>) -> tensor<60x32xf32>
      %225 = "vector.extract"(%102) <{static_position = array<i64: 7>}> : (vector<30x2x32xi64>) -> vector<2x32xi64>
      %226 = "math.ipowi"(%55, %55) : (tensor<32xi1>, tensor<32xi1>) -> tensor<32xi1>
      %227 = "index.mul"(%16, %23) : (index, index) -> index
      %228 = "vector.broadcast"(%126) : (i1) -> vector<30xi1>
      %229 = "vector.maskedload"(%76, %16, %16, %228, %228) : (memref<?x2xi1>, index, index, vector<30xi1>, vector<30xi1>) -> vector<30xi1>
      %230 = "index.or"(%20, %23) : (index, index) -> index
      %231 = "arith.shli"(%137, %138) : (i1, i1) -> i1
      %232 = "math.round"(%81) <{fastmath = #arith.fastmath<none>}> : (f16) -> f16
      %233 = "linalg.copy"(%57, %57) <{operandSegmentSizes = array<i32: 1, 1>}> ({
      ^bb0(%arg5: i32, %arg6: i32):
        "linalg.yield"(%arg5) : (i32) -> ()
      }) : (tensor<?xi32>, tensor<?xi32>) -> tensor<?xi32>
      %234 = "vector.splat"(%4) : (f16) -> vector<30x2x32xf16>
      "scf.reduce"(%81) ({
      ^bb0(%arg5: f16, %arg6: f16):
        %235 = "vector.broadcast"(%131) : (i1) -> vector<30x32xi1>
        %236 = "vector.multi_reduction"(%114, %235) <{kind = #vector.kind<maxsi>, reduction_dims = [1]}> : (vector<30x2x32xi1>, vector<30x32xi1>) -> vector<30x32xi1>
        %237 = "tensor.from_elements"(%10, %10, %10, %10, %10, %10, %10, %10, %10, %10, %10, %10, %10, %10, %10, %10, %10, %10, %10, %10, %10, %10, %10, %10, %10, %10, %10, %10, %10, %10, %10, %10, %10, %10, %10, %10, %10, %10, %10, %10, %10, %10, %10, %10, %10, %10, %10, %10, %10, %10, %10, %10, %10, %10, %10, %10, %10, %10, %10, %10, %10, %10, %10, %10, %10, %10, %10, %10, %10, %10, %10, %10, %10, %10, %10, %10, %10, %10, %10, %10, %10, %10, %10, %10, %10, %10, %10, %10, %10, %10, %10, %10, %10, %10, %10, %10, %10, %10, %10, %10, %10, %10, %10, %10, %10, %10, %10, %10, %10, %10, %10, %10, %10, %10, %10, %10, %10, %10, %10, %10, %10, %10, %10, %10, %10, %10, %10, %10, %10, %10, %10, %10, %10, %10, %10, %10, %10, %10, %10, %10, %10, %10, %10, %10, %10, %10, %10, %10, %10, %10, %10, %10, %10, %10, %10, %10, %10, %10, %10, %10, %10, %10, %10, %10, %10, %10, %10, %10, %10, %10, %10, %10, %10, %10, %10, %10, %10, %10, %10, %10, %10, %10, %10, %10, %10, %10, %10, %10, %10, %10, %10, %10, %10, %10, %10, %10, %10, %10, %10, %10, %10, %10, %10, %10, %10, %10, %10, %10, %10, %10, %10, %10, %10, %10, %10, %10, %10, %10, %10, %10, %10, %10, %10, %10, %10, %10, %10, %10, %10, %10, %10, %10, %10, %10, %10, %10, %10, %10, %10, %10, %10, %10, %10, %10, %10, %10, %10, %10, %10, %10, %10, %10, %10, %10, %10, %10, %10, %10, %10, %10, %10, %10, %10, %10, %10, %10, %10, %10, %10, %10, %10, %10, %10, %10, %10, %10, %10, %10, %10, %10, %10, %10, %10, %10, %10, %10, %10, %10, %10, %10, %10, %10, %10, %10, %10, %10, %10, %10, %10, %10, %10, %10, %10, %10, %10, %10, %10, %10, %10, %10, %10, %10, %10, %10, %10, %10, %10, %10, %10, %10, %10, %10, %10, %10, %10, %10, %10, %10, %10, %10, %10, %10, %10, %10, %10, %10, %10, %10, %10, %10, %10, %10, %10, %10, %10, %10, %10, %10, %10, %10, %10, %10, %10, %10, %10, %10, %10, %10, %10, %10, %10, %10, %10, %10, %10, %10, %10, %10, %10, %10, %10, %10, %10, %10, %10, %10, %10, %10, %10, %10, %10, %10, %10, %10, %10, %10, %10, %10, %10, %10, %10, %10, %10, %10, %10, %10, %10, %10, %10, %10, %10, %10, %10, %10, %10, %10, %10, %10, %10, %10, %10, %10, %10, %10, %10, %10, %10, %10, %10, %10, %10, %10, %10, %10, %10, %10, %10, %10, %10, %10, %10, %10, %10, %10, %10, %10, %10, %10, %10, %10, %10, %10, %10, %10, %10, %10, %10, %10, %10, %10, %10, %10, %10, %10, %10, %10, %10, %10, %10, %10, %10, %10, %10, %10, %10, %10, %10, %10, %10, %10, %10, %10, %10, %10, %10, %10, %10, %10, %10, %10, %10, %10, %10, %10, %10, %10, %10, %10, %10, %10, %10, %10, %10, %10, %10, %10, %10, %10, %10, %10, %10, %10, %10, %10, %10, %10, %10, %10, %10, %10, %10, %10, %10, %10, %10, %10, %10, %10, %10, %10, %10, %10, %10, %10, %10, %10, %10, %10, %10, %10, %10, %10, %10, %10, %10, %10, %10, %10, %10, %10, %10, %10, %10, %10, %10, %10, %10, %10, %10, %10, %10, %10, %10, %10, %10, %10, %10, %10, %10, %10, %10, %10, %10, %10, %10, %10, %10, %10, %10, %10, %10, %10, %10, %10, %10, %10, %10, %10, %10, %10, %10, %10, %10, %10, %10, %10, %10, %10, %10, %10, %10, %10, %10, %10, %10, %10, %10, %10, %10, %10, %10, %10, %10, %10, %10, %10, %10, %10, %10, %10, %10, %10, %10, %10, %10, %10, %10, %10, %10, %10, %10, %10, %10, %10, %10, %10, %10, %10, %10, %10, %10, %10, %10, %10, %10, %10, %10, %10, %10, %10, %10, %10, %10, %10, %10, %10, %10, %10, %10, %10, %10, %10, %10, %10, %10, %10, %10, %10, %10, %10, %10, %10, %10, %10, %10, %10, %10, %10, %10, %10, %10, %10, %10, %10, %10, %10, %10, %10, %10, %10, %10, %10, %10, %10, %10, %10, %10, %10, %10, %10, %10, %10, %10, %10, %10, %10, %10, %10, %10, %10, %10, %10, %10, %10, %10, %10, %10, %10, %10, %10, %10, %10, %10, %10, %10, %10, %10, %10, %10, %10, %10, %10, %10, %10, %10, %10, %10, %10, %10, %10, %10, %10, %10, %10, %10, %10, %10, %10, %10, %10, %10, %10, %10, %10, %10, %10, %10, %10, %10, %10, %10, %10, %10, %10, %10, %10, %10, %10, %10, %10, %10, %10, %10, %10, %10, %10, %10, %10, %10, %10, %10, %10, %10, %10, %10, %10, %10, %10, %10, %10, %10, %10, %10, %10, %10, %10, %10, %10, %10, %10, %10, %10, %10, %10, %10, %10, %10, %10, %10, %10, %10, %10, %10, %10, %10, %10, %10, %10, %10, %10, %10, %10, %10, %10, %10, %10, %10, %10, %10, %10, %10, %10, %10, %10, %10, %10, %10, %10, %10, %10, %10, %10, %10, %10, %10, %10, %10, %10, %10, %10, %10, %10, %10, %10, %10, %10, %10, %10, %10, %10, %10, %10, %10, %10, %10, %10, %10, %10, %10, %10, %10, %10, %10, %10, %10, %10, %10, %10, %10, %10, %10, %10, %10, %10, %10, %10, %10, %10, %10, %10, %10, %10, %10, %10, %10, %10, %10, %10, %10, %10, %10, %10, %10, %10, %10, %10, %10, %10, %10, %10, %10, %10, %10, %10, %10, %10, %10, %10, %10, %10, %10, %10, %10, %10, %10, %10, %10, %10, %10, %10, %10, %10, %10, %10, %10, %10, %10, %10, %10, %10, %10, %10, %10, %10, %10, %10, %10, %10, %10, %10, %10, %10, %10, %10, %10, %10, %10, %10, %10, %10, %10, %10, %10, %10, %10, %10, %10, %10, %10, %10, %10, %10, %10, %10, %10, %10, %10, %10, %10, %10, %10, %10, %10, %10, %10, %10, %10, %10, %10, %10, %10, %10, %10, %10, %10, %10, %10, %10, %10, %10, %10, %10, %10, %10, %10, %10, %10, %10, %10, %10, %10, %10, %10, %10, %10, %10, %10, %10, %10, %10, %10, %10, %10, %10, %10, %10, %10, %10, %10, %10, %10, %10, %10, %10, %10, %10, %10, %10, %10, %10, %10, %10, %10, %10, %10, %10, %10, %10, %10, %10, %10, %10, %10, %10, %10, %10, %10, %10, %10, %10, %10, %10, %10, %10, %10, %10, %10, %10, %10, %10, %10, %10, %10, %10, %10, %10, %10, %10, %10, %10, %10, %10, %10, %10, %10, %10, %10, %10, %10, %10, %10, %10, %10, %10, %10, %10, %10, %10, %10, %10, %10, %10, %10, %10, %10, %10, %10, %10, %10, %10, %10, %10, %10, %10, %10, %10, %10, %10, %10, %10, %10, %10, %10, %10, %10, %10, %10, %10, %10, %10, %10, %10, %10, %10, %10, %10, %10, %10, %10, %10, %10, %10, %10, %10, %10, %10, %10, %10, %10, %10, %10, %10, %10, %10, %10, %10, %10, %10, %10, %10, %10, %10, %10, %10, %10, %10, %10, %10, %10, %10, %10, %10, %10, %10, %10, %10, %10, %10, %10, %10, %10, %10, %10, %10, %10, %10, %10, %10, %10, %10, %10, %10, %10, %10, %10, %10, %10, %10, %10, %10, %10, %10, %10, %10, %10, %10, %10, %10, %10, %10, %10, %10, %10, %10, %10, %10, %10, %10, %10, %10, %10, %10, %10, %10, %10, %10, %10, %10, %10, %10, %10, %10, %10, %10, %10, %10, %10, %10, %10, %10, %10, %10, %10, %10, %10, %10, %10, %10, %10, %10, %10, %10, %10, %10, %10, %10, %10, %10, %10, %10, %10, %10, %10, %10, %10, %10, %10, %10, %10, %10, %10, %10, %10, %10, %10, %10, %10, %10, %10, %10, %10, %10, %10, %10, %10, %10, %10, %10, %10, %10, %10, %10, %10, %10, %10, %10, %10, %10, %10, %10, %10, %10, %10, %10, %10, %10, %10, %10, %10, %10, %10, %10, %10, %10, %10, %10, %10, %10, %10, %10, %10, %10, %10, %10, %10, %10, %10, %10, %10, %10, %10, %10, %10, %10, %10, %10, %10, %10, %10, %10, %10, %10, %10, %10, %10, %10, %10, %10, %10, %10, %10, %10, %10, %10, %10, %10, %10, %10, %10, %10, %10, %10, %10, %10, %10, %10, %10, %10, %10, %10, %10, %10, %10, %10, %10, %10, %10, %10, %10, %10, %10, %10, %10, %10, %10, %10, %10, %10, %10, %10, %10, %10, %10, %10, %10, %10, %10, %10, %10, %10, %10, %10, %10, %10, %10, %10, %10, %10, %10, %10, %10, %10, %10, %10, %10, %10, %10, %10, %10, %10, %10, %10, %10, %10, %10, %10, %10, %10, %10, %10, %10, %10, %10, %10, %10, %10, %10, %10, %10, %10, %10, %10, %10, %10, %10, %10, %10, %10, %10, %10, %10, %10, %10, %10, %10, %10, %10, %10, %10, %10, %10, %10, %10, %10, %10, %10, %10, %10, %10, %10, %10, %10, %10, %10, %10, %10, %10, %10, %10, %10, %10, %10, %10, %10, %10, %10, %10, %10, %10, %10, %10, %10, %10, %10, %10, %10, %10, %10, %10, %10, %10, %10, %10, %10, %10, %10, %10, %10, %10, %10, %10, %10, %10, %10, %10, %10, %10, %10, %10, %10, %10, %10, %10, %10, %10, %10, %10, %10, %10, %10, %10, %10, %10, %10, %10, %10, %10, %10, %10, %10, %10, %10, %10, %10, %10, %10, %10, %10, %10, %10, %10, %10, %10, %10, %10, %10, %10, %10, %10, %10, %10, %10, %10, %10, %10, %10, %10, %10, %10, %10, %10, %10, %10, %10, %10, %10, %10, %10, %10, %10, %10, %10, %10, %10, %10, %10, %10, %10, %10, %10, %10, %10, %10, %10, %10, %10, %10, %10, %10, %10, %10, %10, %10, %10, %10, %10, %10, %10, %10, %10, %10, %10, %10, %10, %10, %10, %10, %10, %10, %10, %10, %10, %10, %10, %10, %10, %10, %10, %10, %10, %10, %10, %10, %10, %10, %10, %10, %10, %10, %10, %10, %10, %10, %10, %10, %10, %10, %10, %10, %10, %10, %10, %10, %10, %10, %10, %10, %10, %10, %10, %10, %10, %10, %10, %10, %10, %10, %10, %10, %10, %10, %10, %10, %10, %10, %10, %10, %10, %10, %10, %10, %10, %10, %10, %10, %10, %10, %10, %10, %10, %10, %10, %10, %10, %10, %10, %10, %10, %10, %10, %10, %10, %10, %10, %10, %10, %10, %10, %10, %10, %10, %10, %10, %10, %10, %10, %10, %10, %10, %10, %10, %10, %10, %10, %10, %10, %10, %10, %10, %10, %10, %10, %10, %10, %10, %10, %10, %10, %10, %10, %10, %10, %10, %10, %10, %10, %10, %10, %10, %10, %10, %10, %10, %10, %10, %10, %10, %10, %10, %10, %10, %10, %10, %10, %10, %10, %10, %10, %10, %10, %10, %10, %10, %10, %10, %10, %10, %10, %10, %10, %10, %10, %10, %10, %10, %10, %10, %10, %10, %10, %10, %10, %10, %10, %10, %10, %10, %10, %10, %10, %10, %10, %10, %10, %10, %10, %10, %10, %10, %10, %10, %10, %10, %10, %10, %10, %10, %10, %10, %10, %10, %10, %10, %10, %10, %10, %10, %10, %10, %10, %10, %10, %10, %10, %10, %10, %10, %10, %10, %10, %10, %10, %10, %10, %10, %10, %10, %10, %10, %10, %10, %10, %10, %10, %10, %10, %10, %10, %10, %10, %10, %10, %10, %10, %10, %10, %10, %10, %10, %10, %10, %10, %10, %10, %10, %10, %10, %10, %10, %10, %10, %10, %10, %10, %10, %10, %10, %10, %10, %10, %10, %10, %10, %10, %10, %10, %10, %10, %10, %10, %10, %10, %10, %10, %10, %10, %10, %10, %10, %10, %10, %10, %10, %10, %10, %10, %10, %10, %10, %10, %10, %10, %10, %10, %10, %10, %10, %10, %10, %10) : (f32, f32, f32, f32, f32, f32, f32, f32, f32, f32, f32, f32, f32, f32, f32, f32, f32, f32, f32, f32, f32, f32, f32, f32, f32, f32, f32, f32, f32, f32, f32, f32, f32, f32, f32, f32, f32, f32, f32, f32, f32, f32, f32, f32, f32, f32, f32, f32, f32, f32, f32, f32, f32, f32, f32, f32, f32, f32, f32, f32, f32, f32, f32, f32, f32, f32, f32, f32, f32, f32, f32, f32, f32, f32, f32, f32, f32, f32, f32, f32, f32, f32, f32, f32, f32, f32, f32, f32, f32, f32, f32, f32, f32, f32, f32, f32, f32, f32, f32, f32, f32, f32, f32, f32, f32, f32, f32, f32, f32, f32, f32, f32, f32, f32, f32, f32, f32, f32, f32, f32, f32, f32, f32, f32, f32, f32, f32, f32, f32, f32, f32, f32, f32, f32, f32, f32, f32, f32, f32, f32, f32, f32, f32, f32, f32, f32, f32, f32, f32, f32, f32, f32, f32, f32, f32, f32, f32, f32, f32, f32, f32, f32, f32, f32, f32, f32, f32, f32, f32, f32, f32, f32, f32, f32, f32, f32, f32, f32, f32, f32, f32, f32, f32, f32, f32, f32, f32, f32, f32, f32, f32, f32, f32, f32, f32, f32, f32, f32, f32, f32, f32, f32, f32, f32, f32, f32, f32, f32, f32, f32, f32, f32, f32, f32, f32, f32, f32, f32, f32, f32, f32, f32, f32, f32, f32, f32, f32, f32, f32, f32, f32, f32, f32, f32, f32, f32, f32, f32, f32, f32, f32, f32, f32, f32, f32, f32, f32, f32, f32, f32, f32, f32, f32, f32, f32, f32, f32, f32, f32, f32, f32, f32, f32, f32, f32, f32, f32, f32, f32, f32, f32, f32, f32, f32, f32, f32, f32, f32, f32, f32, f32, f32, f32, f32, f32, f32, f32, f32, f32, f32, f32, f32, f32, f32, f32, f32, f32, f32, f32, f32, f32, f32, f32, f32, f32, f32, f32, f32, f32, f32, f32, f32, f32, f32, f32, f32, f32, f32, f32, f32, f32, f32, f32, f32, f32, f32, f32, f32, f32, f32, f32, f32, f32, f32, f32, f32, f32, f32, f32, f32, f32, f32, f32, f32, f32, f32, f32, f32, f32, f32, f32, f32, f32, f32, f32, f32, f32, f32, f32, f32, f32, f32, f32, f32, f32, f32, f32, f32, f32, f32, f32, f32, f32, f32, f32, f32, f32, f32, f32, f32, f32, f32, f32, f32, f32, f32, f32, f32, f32, f32, f32, f32, f32, f32, f32, f32, f32, f32, f32, f32, f32, f32, f32, f32, f32, f32, f32, f32, f32, f32, f32, f32, f32, f32, f32, f32, f32, f32, f32, f32, f32, f32, f32, f32, f32, f32, f32, f32, f32, f32, f32, f32, f32, f32, f32, f32, f32, f32, f32, f32, f32, f32, f32, f32, f32, f32, f32, f32, f32, f32, f32, f32, f32, f32, f32, f32, f32, f32, f32, f32, f32, f32, f32, f32, f32, f32, f32, f32, f32, f32, f32, f32, f32, f32, f32, f32, f32, f32, f32, f32, f32, f32, f32, f32, f32, f32, f32, f32, f32, f32, f32, f32, f32, f32, f32, f32, f32, f32, f32, f32, f32, f32, f32, f32, f32, f32, f32, f32, f32, f32, f32, f32, f32, f32, f32, f32, f32, f32, f32, f32, f32, f32, f32, f32, f32, f32, f32, f32, f32, f32, f32, f32, f32, f32, f32, f32, f32, f32, f32, f32, f32, f32, f32, f32, f32, f32, f32, f32, f32, f32, f32, f32, f32, f32, f32, f32, f32, f32, f32, f32, f32, f32, f32, f32, f32, f32, f32, f32, f32, f32, f32, f32, f32, f32, f32, f32, f32, f32, f32, f32, f32, f32, f32, f32, f32, f32, f32, f32, f32, f32, f32, f32, f32, f32, f32, f32, f32, f32, f32, f32, f32, f32, f32, f32, f32, f32, f32, f32, f32, f32, f32, f32, f32, f32, f32, f32, f32, f32, f32, f32, f32, f32, f32, f32, f32, f32, f32, f32, f32, f32, f32, f32, f32, f32, f32, f32, f32, f32, f32, f32, f32, f32, f32, f32, f32, f32, f32, f32, f32, f32, f32, f32, f32, f32, f32, f32, f32, f32, f32, f32, f32, f32, f32, f32, f32, f32, f32, f32, f32, f32, f32, f32, f32, f32, f32, f32, f32, f32, f32, f32, f32, f32, f32, f32, f32, f32, f32, f32, f32, f32, f32, f32, f32, f32, f32, f32, f32, f32, f32, f32, f32, f32, f32, f32, f32, f32, f32, f32, f32, f32, f32, f32, f32, f32, f32, f32, f32, f32, f32, f32, f32, f32, f32, f32, f32, f32, f32, f32, f32, f32, f32, f32, f32, f32, f32, f32, f32, f32, f32, f32, f32, f32, f32, f32, f32, f32, f32, f32, f32, f32, f32, f32, f32, f32, f32, f32, f32, f32, f32, f32, f32, f32, f32, f32, f32, f32, f32, f32, f32, f32, f32, f32, f32, f32, f32, f32, f32, f32, f32, f32, f32, f32, f32, f32, f32, f32, f32, f32, f32, f32, f32, f32, f32, f32, f32, f32, f32, f32, f32, f32, f32, f32, f32, f32, f32, f32, f32, f32, f32, f32, f32, f32, f32, f32, f32, f32, f32, f32, f32, f32, f32, f32, f32, f32, f32, f32, f32, f32, f32, f32, f32, f32, f32, f32, f32, f32, f32, f32, f32, f32, f32, f32, f32, f32, f32, f32, f32, f32, f32, f32, f32, f32, f32, f32, f32, f32, f32, f32, f32, f32, f32, f32, f32, f32, f32, f32, f32, f32, f32, f32, f32, f32, f32, f32, f32, f32, f32, f32, f32, f32, f32, f32, f32, f32, f32, f32, f32, f32, f32, f32, f32, f32, f32, f32, f32, f32, f32, f32, f32, f32, f32, f32, f32, f32, f32, f32, f32, f32, f32, f32, f32, f32, f32, f32, f32, f32, f32, f32, f32, f32, f32, f32, f32, f32, f32, f32, f32, f32, f32, f32, f32, f32, f32, f32, f32, f32, f32, f32, f32, f32, f32, f32, f32, f32, f32, f32, f32, f32, f32, f32, f32, f32, f32, f32, f32, f32, f32, f32, f32, f32, f32, f32, f32, f32, f32, f32, f32, f32, f32, f32, f32, f32, f32, f32, f32, f32, f32, f32, f32, f32, f32, f32, f32, f32, f32, f32, f32, f32, f32, f32, f32, f32, f32, f32, f32, f32, f32, f32, f32, f32, f32, f32, f32, f32, f32, f32, f32, f32, f32, f32, f32, f32, f32, f32, f32, f32, f32, f32, f32, f32, f32, f32, f32, f32, f32, f32, f32, f32, f32, f32, f32, f32, f32, f32, f32, f32, f32, f32, f32, f32, f32, f32, f32, f32, f32, f32, f32, f32, f32, f32, f32, f32, f32, f32, f32, f32, f32, f32, f32, f32, f32, f32, f32, f32, f32, f32, f32, f32, f32, f32, f32, f32, f32, f32, f32, f32, f32, f32, f32, f32, f32, f32, f32, f32, f32, f32, f32, f32, f32, f32, f32, f32, f32, f32, f32, f32, f32, f32, f32, f32, f32, f32, f32, f32, f32, f32, f32, f32, f32, f32, f32, f32, f32, f32, f32, f32, f32, f32, f32, f32, f32, f32, f32, f32, f32, f32, f32, f32, f32, f32, f32, f32, f32, f32, f32, f32, f32, f32, f32, f32, f32, f32, f32, f32, f32, f32, f32, f32, f32, f32, f32, f32, f32, f32, f32, f32, f32, f32, f32, f32, f32, f32, f32, f32, f32, f32, f32, f32, f32, f32, f32, f32, f32, f32, f32, f32, f32, f32, f32, f32, f32, f32, f32, f32, f32, f32, f32, f32, f32, f32, f32, f32, f32, f32, f32, f32, f32, f32, f32, f32, f32, f32, f32, f32, f32, f32, f32, f32, f32, f32, f32, f32, f32, f32, f32, f32, f32, f32, f32, f32, f32, f32, f32, f32, f32, f32, f32, f32, f32, f32, f32, f32, f32, f32, f32, f32, f32, f32, f32, f32, f32, f32, f32, f32, f32, f32, f32, f32, f32, f32, f32, f32, f32, f32, f32, f32, f32, f32, f32, f32, f32, f32, f32, f32, f32, f32, f32, f32, f32, f32, f32, f32, f32, f32, f32, f32, f32, f32, f32, f32, f32, f32, f32, f32, f32, f32, f32, f32, f32, f32, f32, f32, f32, f32, f32, f32, f32, f32, f32, f32, f32, f32, f32, f32, f32, f32, f32, f32, f32, f32, f32, f32, f32, f32, f32, f32, f32, f32, f32, f32, f32, f32, f32, f32, f32, f32, f32, f32, f32, f32, f32, f32, f32, f32, f32, f32, f32, f32, f32, f32, f32, f32, f32, f32, f32, f32, f32, f32, f32, f32, f32, f32, f32, f32, f32, f32, f32, f32, f32, f32, f32, f32, f32, f32, f32, f32, f32, f32, f32, f32, f32, f32, f32, f32, f32, f32, f32, f32, f32, f32, f32, f32, f32, f32, f32, f32, f32, f32, f32, f32, f32, f32, f32, f32, f32, f32, f32, f32, f32, f32, f32, f32, f32, f32, f32, f32, f32, f32, f32, f32, f32, f32, f32, f32, f32, f32, f32, f32, f32, f32, f32, f32, f32, f32, f32, f32, f32, f32, f32, f32, f32, f32, f32, f32, f32, f32, f32, f32, f32, f32, f32, f32, f32, f32, f32, f32, f32, f32, f32, f32, f32, f32, f32, f32, f32, f32, f32, f32, f32, f32, f32, f32, f32, f32, f32, f32, f32, f32, f32, f32, f32, f32, f32, f32, f32, f32, f32, f32, f32, f32, f32, f32, f32, f32, f32, f32, f32, f32, f32, f32, f32, f32, f32, f32, f32, f32, f32, f32, f32, f32, f32, f32, f32, f32, f32, f32, f32, f32, f32, f32, f32, f32, f32, f32, f32, f32, f32, f32, f32, f32, f32, f32, f32, f32, f32, f32, f32, f32, f32, f32, f32, f32, f32, f32, f32, f32, f32, f32, f32, f32, f32, f32, f32, f32, f32, f32, f32, f32, f32, f32, f32, f32, f32, f32, f32, f32, f32, f32, f32, f32, f32, f32, f32, f32, f32, f32, f32, f32, f32, f32, f32, f32, f32, f32, f32, f32, f32, f32, f32, f32, f32, f32, f32, f32, f32, f32, f32, f32, f32, f32, f32, f32, f32, f32, f32, f32, f32, f32, f32, f32, f32, f32, f32, f32, f32, f32, f32, f32, f32, f32, f32, f32, f32, f32, f32, f32, f32, f32, f32, f32, f32, f32, f32, f32, f32, f32, f32, f32, f32, f32, f32, f32, f32, f32, f32, f32, f32, f32, f32, f32, f32, f32, f32, f32, f32, f32, f32, f32, f32, f32, f32, f32, f32, f32, f32, f32, f32, f32, f32, f32, f32, f32, f32, f32, f32, f32, f32, f32, f32, f32, f32, f32, f32, f32, f32, f32, f32, f32, f32, f32, f32, f32, f32, f32, f32, f32, f32, f32, f32, f32, f32, f32, f32, f32, f32, f32, f32, f32, f32, f32, f32, f32, f32, f32, f32, f32, f32, f32, f32, f32, f32, f32, f32, f32, f32, f32, f32, f32, f32, f32, f32, f32, f32, f32, f32, f32, f32, f32, f32, f32, f32, f32, f32, f32, f32, f32, f32, f32, f32, f32, f32, f32, f32, f32, f32, f32, f32, f32, f32, f32, f32, f32, f32, f32, f32, f32, f32, f32, f32, f32, f32, f32, f32, f32, f32, f32, f32, f32, f32, f32, f32, f32, f32, f32, f32, f32, f32, f32, f32, f32, f32, f32, f32, f32, f32, f32, f32, f32, f32, f32, f32, f32, f32, f32, f32, f32, f32, f32, f32, f32, f32, f32, f32, f32, f32, f32, f32, f32, f32, f32, f32, f32, f32, f32, f32, f32, f32, f32, f32, f32, f32, f32, f32, f32, f32, f32, f32, f32, f32, f32, f32, f32, f32, f32, f32, f32, f32, f32, f32, f32, f32, f32, f32, f32, f32, f32, f32, f32, f32, f32, f32, f32, f32, f32, f32, f32, f32, f32, f32, f32, f32, f32, f32, f32, f32, f32, f32, f32, f32, f32, f32, f32, f32, f32, f32, f32, f32, f32, f32, f32, f32, f32, f32, f32, f32, f32, f32, f32, f32, f32, f32, f32, f32, f32, f32, f32, f32, f32, f32, f32, f32, f32, f32, f32, f32, f32, f32, f32, f32, f32, f32, f32, f32, f32, f32, f32, f32, f32, f32, f32) -> tensor<30x2x32xf32>
        %238 = "index.sub"(%29, %25) : (index, index) -> index
        %239 = "tensor.from_elements"(%7, %5, %2, %7, %5, %2, %5, %7, %15, %14, %7, %14, %15, %5, %2, %5, %15, %5, %5, %14, %2, %14, %14, %15, %5, %7, %7, %14, %7, %14, %5, %5, %5, %5, %2, %15, %7, %2, %15, %2, %15, %15, %2, %5, %5, %7, %15, %7, %5, %14, %5, %7, %14, %7, %15, %5, %7, %15, %7, %14) : (i64, i64, i64, i64, i64, i64, i64, i64, i64, i64, i64, i64, i64, i64, i64, i64, i64, i64, i64, i64, i64, i64, i64, i64, i64, i64, i64, i64, i64, i64, i64, i64, i64, i64, i64, i64, i64, i64, i64, i64, i64, i64, i64, i64, i64, i64, i64, i64, i64, i64, i64, i64, i64, i64, i64, i64, i64, i64, i64, i64) -> tensor<30x2xi64>
        %240 = "vector.create_mask"(%32, %18) : (index, index) -> vector<30x2xi1>
        %241 = "math.rsqrt"(%84) <{fastmath = #arith.fastmath<none>}> : (f16) -> f16
        %242 = "bufferization.clone"(%110) : (memref<60xf16>) -> memref<60xf16>
        %243 = "math.absi"(%58) : (tensor<32xi64>) -> tensor<32xi64>
        "scf.reduce.return"(%arg5) : (f16) -> ()
      }) : (f16) -> ()
      "scf.yield"() : () -> ()
    }) : (index, index, index, index, index, index, f16) -> f16
    %142 = "spirv.CL.ceil"(%123) : (f16) -> f16
    %143 = "math.log10"(%49) <{fastmath = #arith.fastmath<none>}> : (tensor<30x2xf32>) -> tensor<30x2xf32>
    %144 = "tensor.empty"() : () -> tensor<30x2xi64>
    %145 = "index.maxs"(%34, %20) : (index, index) -> index
    %146 = "math.cos"(%136) <{fastmath = #arith.fastmath<none>}> : (f16) -> f16
    %147 = "spirv.LogicalNot"(%130) : (i1) -> i1
    %148 = "arith.shli"(%15, %7) : (i64, i64) -> i64
    %149 = "tensor.from_elements"(%137, %12, %131, %130, %137, %131, %11, %147, %131, %97, %97, %97, %138, %131, %131, %127, %130, %97, %104, %130, %11, %126, %97, %131, %126, %130, %138, %126, %126, %137, %11, %147, %12, %126, %131, %12, %147, %104, %127, %97, %138, %137, %104, %11, %137, %104, %130, %11, %11, %137, %11, %130, %11, %130, %137, %127, %130, %137, %147, %12) : (i1, i1, i1, i1, i1, i1, i1, i1, i1, i1, i1, i1, i1, i1, i1, i1, i1, i1, i1, i1, i1, i1, i1, i1, i1, i1, i1, i1, i1, i1, i1, i1, i1, i1, i1, i1, i1, i1, i1, i1, i1, i1, i1, i1, i1, i1, i1, i1, i1, i1, i1, i1, i1, i1, i1, i1, i1, i1, i1, i1) -> tensor<30x2xi1>
    %150 = "spirv.GL.FMax"(%84, %82) : (f16, f16) -> f16
    %151 = "scf.index_switch"(%47) <{cases = array<i64: 1, 2, 3, 4>}> ({
      %218 = "math.powf"(%arg0, %arg0) <{fastmath = #arith.fastmath<none>}> : (tensor<30x2x32xf16>, tensor<30x2x32xf16>) -> tensor<30x2x32xf16>
      %219 = "math.ctpop"(%137) : (i1) -> i1
      %220 = "linalg.transpose"(%58, %58) <{permutation = array<i64: 0>}> ({
      ^bb0(%arg3: i64, %arg4: i64):
        "linalg.yield"(%arg3) : (i64) -> ()
      }) : (tensor<32xi64>, tensor<32xi64>) -> tensor<32xi64>
      %221 = "arith.shrsi"(%1, %9) : (i16, i16) -> i16
      %222 = "math.exp2"(%49) <{fastmath = #arith.fastmath<none>}> : (tensor<30x2xf32>) -> tensor<30x2xf32>
      %223 = "tensor.rank"(%48) : (tensor<30x2xi1>) -> index
      %224 = "math.atan2"(%133, %136) <{fastmath = #arith.fastmath<none>}> : (f16, f16) -> f16
      %225 = "index.maxs"(%20, %19) : (index, index) -> index
      %226 = "vector.bitcast"(%87) : (vector<6xi16>) -> vector<6xf16>
      %227 = "math.atan"(%49) <{fastmath = #arith.fastmath<none>}> : (tensor<30x2xf32>) -> tensor<30x2xf32>
      %228 = "math.atan"(%49) <{fastmath = #arith.fastmath<none>}> : (tensor<30x2xf32>) -> tensor<30x2xf32>
      "scf.execute_region"() ({
        %234 = "memref.realloc"(%79) : (memref<?xf32>) -> memref<32xf32>
        %235 = "bufferization.to_tensor"(%68) : (memref<?x2xi1>) -> tensor<?x2xi1>
        %236 = "math.exp2"(%142) <{fastmath = #arith.fastmath<none>}> : (f16) -> f16
        %237 = "affine.min"(%30, %31, %30, %120, %17) <{map = affine_map<(d0, d1, d2, d3)[s0] -> ((d2 - d0 ceildiv 4) floordiv 4 - 32)>}> : (index, index, index, index, index) -> index
        %238 = "vector.extract_strided_slice"(%102) <{offsets = [14], sizes = [12], strides = [1]}> : (vector<30x2x32xi64>) -> vector<12x2x32xi64>
        %239 = "arith.constant"() <{value = 35 : index}> : () -> index
        %240 = "memref.atomic_rmw"(%0, %110, %239) <{kind = 0 : i64}> : (f16, memref<60xf16>, index) -> f16
        %241 = "vector.broadcast"(%20) : (index) -> vector<30xindex>
        %242 = "vector.broadcast"(%137) : (i1) -> vector<30xi1>
        "vector.scatter"(%113, %29, %17, %241, %242, %242) : (memref<30x2xi1>, index, index, vector<30xindex>, vector<30xi1>, vector<30xi1>) -> ()
        %243 = "vector.broadcast"(%10) : (f32) -> vector<6xf32>
        "vector.compressstore"(%79, %16, %88, %243) : (memref<?xf32>, index, vector<6xi1>, vector<6xf32>) -> ()
        %244 = "tensor.insert"(%138, %61, %35, %17) : (i1, tensor<30x2xi1>, index, index) -> tensor<30x2xi1>
        %245 = "math.log10"(%106) <{fastmath = #arith.fastmath<none>}> : (f16) -> f16
        %246 = "vector.create_mask"(%21, %37) : (index, index) -> vector<30x2xi1>
        %247 = "vector.broadcast"(%11) : (i1) -> vector<30xi1>
        %248:2 = "vector.scan"(%246, %247) <{inclusive = true, kind = #vector.kind<minsi>, reduction_dim = 1 : i64}> : (vector<30x2xi1>, vector<30xi1>) -> (vector<30x2xi1>, vector<30xi1>)
        %249 = "math.expm1"(%98) <{fastmath = #arith.fastmath<none>}> : (tensor<60xf16>) -> tensor<60xf16>
        %250 = "vector.flat_transpose"(%226) <{columns = 2 : i32, rows = 3 : i32}> : (vector<6xf16>) -> vector<6xf16>
        %251 = "math.exp2"(%49) <{fastmath = #arith.fastmath<none>}> : (tensor<30x2xf32>) -> tensor<30x2xf32>
        %252 = "arith.addi"(%138, %104) : (i1, i1) -> i1
        "scf.yield"() : () -> ()
      }) : () -> ()
      %229 = "math.expm1"(%111) <{fastmath = #arith.fastmath<none>}> : (tensor<f16>) -> tensor<f16>
      %230 = "math.roundeven"(%109) <{fastmath = #arith.fastmath<none>}> : (f16) -> f16
      %231 = "math.log10"(%133) <{fastmath = #arith.fastmath<none>}> : (f16) -> f16
      %232 = "affine.max"(%40, %37) <{map = affine_map<(d0)[s0] -> ((d0 ceildiv 8) floordiv 32)>}> : (index, index) -> index
      %233 = "vector.broadcast"(%8) : (i16) -> vector<30x2x32xi16>
      "scf.yield"(%233) : (vector<30x2x32xi16>) -> ()
    }, {
      %218 = "tensor.expand_shape"(%62) <{reassociation = [[0], [1], [2, 3]]}> : (tensor<30x2x32xf32>) -> tensor<30x2x32x1xf32>
      %219 = "index.maxu"(%42, %27) : (index, index) -> index
      %220 = "index.sizeof"() : () -> index
      %221 = "arith.shrsi"(%8, %8) : (i16, i16) -> i16
      %222 = "tensor.insert"(%6, %52, %45) : (f16, tensor<32xf16>, index) -> tensor<32xf16>
      %223 = "arith.muli"(%3, %13) : (i32, i32) -> i32
      %224 = "arith.ori"(%126, %131) : (i1, i1) -> i1
      %225 = "arith.ceildivsi"(%3, %125) : (i32, i32) -> i32
      %226 = "vector.flat_transpose"(%90) <{columns = 1 : i32, rows = 2 : i32}> : (vector<2xi32>) -> vector<2xi32>
      %227 = "index.ceildivu"(%32, %arg1) : (index, index) -> index
      %228 = "arith.minui"(%3, %3) : (i32, i32) -> i32
      %229 = "tensor.insert"(%10, %62, %36, %16, %23) : (f32, tensor<30x2x32xf32>, index, index, index) -> tensor<30x2x32xf32>
      %230 = "vector.transpose"(%102) <{transp = [0, 2, 1]}> : (vector<30x2x32xi64>) -> vector<30x32x2xi64>
      %231 = "tensor.empty"() : () -> tensor<i1>
      %232 = "linalg.dot"(%55, %55, %231) <{operandSegmentSizes = array<i32: 2, 1>}> ({
      ^bb0(%arg3: i1, %arg4: i1, %arg5: i1):
        %236 = "arith.andi"(%arg3, %arg4) : (i1, i1) -> i1
        %237 = "arith.ori"(%arg5, %236) : (i1, i1) -> i1
        "linalg.yield"(%237) : (i1) -> ()
      }) {linalg.memoized_indexing_maps = [affine_map<(d0) -> (d0)>, affine_map<(d0) -> (d0)>, affine_map<(d0) -> ()>]} : (tensor<32xi1>, tensor<32xi1>, tensor<i1>) -> tensor<i1>
      %233 = "affine.load"(%74, %27) <{map = affine_map<(d0) -> (d0)>}> : (memref<?xi64>, index) -> i64
      %234 = "math.rsqrt"(%135) <{fastmath = #arith.fastmath<none>}> : (f16) -> f16
      %235 = "vector.broadcast"(%9) : (i16) -> vector<30x2x32xi16>
      "scf.yield"(%235) : (vector<30x2x32xi16>) -> ()
    }, {
      %218 = "tensor.expand_shape"(%98) <{reassociation = [[0, 1]]}> : (tensor<60xf16>) -> tensor<60x1xf16>
      %219 = "vector.broadcast"(%10) : (f32) -> vector<2xf32>
      %220 = "vector.broadcast"(%126) : (i1) -> vector<2xi1>
      "vector.compressstore"(%67, %16, %220, %219) : (memref<?xf32>, index, vector<2xi1>, vector<2xf32>) -> ()
      %221 = "vector.matrix_multiply"(%87, %89) <{lhs_columns = 6 : i32, lhs_rows = 1 : i32, rhs_columns = 1 : i32}> : (vector<6xi16>, vector<6xi16>) -> vector<1xi16>
      %222 = "vector.broadcast"(%104) : (i1) -> vector<32xi1>
      %223 = "vector.maskedload"(%68, %16, %16, %222, %222) : (memref<?x2xi1>, index, index, vector<32xi1>, vector<32xi1>) -> vector<32xi1>
      %224 = "index.and"(%26, %19) : (index, index) -> index
      %225 = "math.cttz"(%48) : (tensor<30x2xi1>) -> tensor<30x2xi1>
      %226 = "memref.alloc"() <{operandSegmentSizes = array<i32: 0, 0>}> : () -> memref<30x2x32xi16>
      %227 = "tensor.dim"(%56, %17) : (tensor<30x2xi64>, index) -> index
      %228 = "vector.extract_strided_slice"(%88) <{offsets = [0], sizes = [2], strides = [1]}> : (vector<6xi1>) -> vector<2xi1>
      %229 = "vector.transpose"(%85) <{transp = [0]}> : (vector<1xi1>) -> vector<1xi1>
      %230 = "vector.broadcast"(%2) : (i64) -> vector<30x2xi64>
      %231 = "vector.broadcast"(%12) : (i1) -> vector<30x2xi1>
      %232 = "vector.broadcast"(%3) : (i32) -> vector<30x2xi32>
      %233 = "vector.gather"(%71, %41, %32, %232, %231, %230) : (memref<30x2xi64>, index, index, vector<30x2xi32>, vector<30x2xi1>, vector<30x2xi64>) -> vector<30x2xi64>
      %234 = "arith.shrsi"(%15, %15) : (i64, i64) -> i64
      %235 = "arith.constant"() <{value = 0 : i32}> : () -> i32
      %236 = "vector.transfer_read"(%57, %140, %235) <{operandSegmentSizes = array<i32: 1, 1, 1, 0>, permutation_map = affine_map<(d0) -> ()>}> : (tensor<?xi32>, index, i32) -> vector<i32>
      %237 = "index.shrs"(%44, %31) : (index, index) -> index
      %238 = "tensor.cast"(%63) : (tensor<?x?x32xi16>) -> tensor<30x6x32xi16>
      %239 = "arith.subi"(%13, %125) : (i32, i32) -> i32
      %240 = "vector.broadcast"(%1) : (i16) -> vector<30x2x32xi16>
      "scf.yield"(%240) : (vector<30x2x32xi16>) -> ()
    }, {
      %218 = "index.add"(%37, %25) : (index, index) -> index
      "memref.store"(%12, %78, %16, %16) <{nontemporal = false}> : (i1, memref<?x?xi1>, index, index) -> ()
      %219 = "math.log10"(%arg0) <{fastmath = #arith.fastmath<none>}> : (tensor<30x2x32xf16>) -> tensor<30x2x32xf16>
      "vector.print"(%89) <{punctuation = #vector.punctuation<newline>}> : (vector<6xi16>) -> ()
      %220 = "arith.shrui"(%127, %127) : (i1, i1) -> i1
      %221 = "math.ceil"(%109) <{fastmath = #arith.fastmath<none>}> : (f16) -> f16
      %222 = "vector.flat_transpose"(%89) <{columns = 2 : i32, rows = 3 : i32}> : (vector<6xi16>) -> vector<6xi16>
      %223 = "math.rsqrt"(%62) <{fastmath = #arith.fastmath<none>}> : (tensor<30x2x32xf32>) -> tensor<30x2x32xf32>
      %224 = "arith.remf"(%133, %123) <{fastmath = #arith.fastmath<none>}> : (f16, f16) -> f16
      %225 = "arith.minui"(%147, %130) : (i1, i1) -> i1
      %226 = "index.xor"(%46, %34) : (index, index) -> index
      %227 = "arith.shli"(%104, %130) : (i1, i1) -> i1
      %228 = "vector.broadcast"(%0) : (f16) -> vector<30x2xf16>
      %229 = "arith.negf"(%123) <{fastmath = #arith.fastmath<none>}> : (f16) -> f16
      %230 = "math.absi"(%125) : (i32) -> i32
      %231 = "arith.ori"(%5, %2) : (i64, i64) -> i64
      %232 = "vector.broadcast"(%8) : (i16) -> vector<30x2x32xi16>
      "scf.yield"(%232) : (vector<30x2x32xi16>) -> ()
    }, {
      %218 = "arith.cmpi"(%97, %126) <{predicate = 2 : i64}> : (i1, i1) -> i1
      %219 = "math.ctpop"(%131) : (i1) -> i1
      %220 = "arith.ori"(%15, %2) : (i64, i64) -> i64
      %221 = "bufferization.clone"(%113) : (memref<30x2xi1>) -> memref<30x2xi1>
      %222 = "vector.shuffle"(%114, %114) <{mask = [0, 5, 6, 7, 8, 9, 11, 14, 18, 19, 20, 24, 25, 26, 27, 28, 30, 32, 34, 35, 37, 39, 41, 43, 47, 48, 49, 52, 53]}> : (vector<30x2x32xi1>, vector<30x2x32xi1>) -> vector<29x2x32xi1>
      %223 = "math.ctpop"(%56) : (tensor<30x2xi64>) -> tensor<30x2xi64>
      %224 = "tensor.insert"(%2, %53, %16) : (i64, tensor<?xi64>, index) -> tensor<?xi64>
      %225 = "arith.andi"(%11, %131) : (i1, i1) -> i1
      %226 = "vector.insert"(%9, %89) <{static_position = array<i64: 0>}> : (i16, vector<6xi16>) -> vector<6xi16>
      %227 = "arith.constant"() <{value = 1809410912 : i32}> : () -> i32
      %228 = "index.castu"(%41) : (index) -> i32
      %229 = "arith.shli"(%11, %138) : (i1, i1) -> i1
      %230 = "math.ctpop"(%14) : (i64) -> i64
      %231 = "vector.insert"(%8, %100) <{static_position = array<i64: 5>}> : (i16, vector<6xi16>) -> vector<6xi16>
      %232 = "vector.transfer_read"(%50, %25, %80, %10) <{operandSegmentSizes = array<i32: 1, 2, 1, 0>, permutation_map = affine_map<(d0, d1) -> ()>}> : (tensor<30x2xf32>, index, index, f32) -> vector<f32>
      %233 = "math.atan"(%142) <{fastmath = #arith.fastmath<none>}> : (f16) -> f16
      %234 = "vector.broadcast"(%9) : (i16) -> vector<30x2x32xi16>
      "scf.yield"(%234) : (vector<30x2x32xi16>) -> ()
    }) : (index) -> vector<30x2x32xi16>
    %152 = "vector.broadcast"(%109) : (f16) -> vector<f16>
    %153 = "vector.transfer_write"(%152, %117, %80) <{operandSegmentSizes = array<i32: 1, 1, 1, 0>, permutation_map = affine_map<(d0) -> ()>}> : (vector<f16>, tensor<32xf16>, index) -> tensor<32xf16>
    "memref.copy"(%75, %75) : (memref<?x?x32xf16>, memref<?x?x32xf16>) -> ()
    %154 = "spirv.CL.floor"(%6) : (f16) -> f16
    %155 = "spirv.LogicalEqual"(%97, %11) : (i1, i1) -> i1
    %156 = "vector.matrix_multiply"(%89, %100) <{lhs_columns = 6 : i32, lhs_rows = 1 : i32, rhs_columns = 1 : i32}> : (vector<6xi16>, vector<6xi16>) -> vector<1xi16>
    %157 = "spirv.CL.rsqrt"(%123) : (f16) -> f16
    %158 = "math.round"(%123) <{fastmath = #arith.fastmath<none>}> : (f16) -> f16
    %159 = "spirv.GL.UMax"(%5, %2) : (i64, i64) -> i64
    %160 = "index.maxu"(%22, %18) : (index, index) -> index
    %161 = "spirv.CL.tanh"(%81) : (f16) -> f16
    "scf.if"(%147) ({
      %218 = "arith.remf"(%6, %6) <{fastmath = #arith.fastmath<none>}> : (f16, f16) -> f16
      %219 = "affine.max"(%34) <{map = affine_map<(d0) -> (0)>}> : (index) -> index
      %220 = "math.ipowi"(%48, %48) : (tensor<30x2xi1>, tensor<30x2xi1>) -> tensor<30x2xi1>
      %221 = "tensor.empty"() : () -> tensor<i1>
      %222 = "linalg.dot"(%55, %55, %221) <{operandSegmentSizes = array<i32: 2, 1>}> ({
      ^bb0(%arg3: i1, %arg4: i1, %arg5: i1):
        %228 = "arith.andi"(%arg3, %arg4) : (i1, i1) -> i1
        %229 = "arith.ori"(%arg5, %228) : (i1, i1) -> i1
        "linalg.yield"(%229) : (i1) -> ()
      }) {linalg.memoized_indexing_maps = [affine_map<(d0) -> (d0)>, affine_map<(d0) -> (d0)>, affine_map<(d0) -> ()>]} : (tensor<32xi1>, tensor<32xi1>, tensor<i1>) -> tensor<i1>
      %223 = "math.atan2"(%0, %150) <{fastmath = #arith.fastmath<none>}> : (f16, f16) -> f16
      %224 = "bufferization.clone"(%66) : (memref<30x2x32xi32>) -> memref<30x2x32xi32>
      %225 = "tensor.empty"(%46) : (index) -> tensor<30x2x?xf32>
      %226 = "vector.broadcast"(%5) : (i64) -> vector<30xi64>
      %227 = "vector.broadcast"(%155) : (i1) -> vector<30xi1>
      "vector.compressstore"(%74, %16, %227, %226) : (memref<?xi64>, index, vector<30xi1>, vector<30xi64>) -> ()
      "scf.yield"() : () -> ()
    }, {
    }) : (i1) -> ()
    %162 = "spirv.FOrdLessThan"(%82, %0) : (f16, f16) -> i1
    %163 = "spirv.CL.erf"(%154) : (f16) -> f16
    %164 = "spirv.GL.Atan"(%133) : (f16) -> f16
    %165 = "spirv.CL.round"(%0) : (f16) -> f16
    %166 = "tensor.empty"() : () -> tensor<i16>
    %167 = "linalg.dot"(%54, %54, %166) <{operandSegmentSizes = array<i32: 2, 1>}> ({
    ^bb0(%arg3: i16, %arg4: i16, %arg5: i16):
      %218 = "arith.muli"(%arg3, %arg4) : (i16, i16) -> i16
      %219 = "arith.addi"(%arg5, %218) : (i16, i16) -> i16
      "linalg.yield"(%219) : (i16) -> ()
    }) {linalg.memoized_indexing_maps = [affine_map<(d0) -> (d0)>, affine_map<(d0) -> (d0)>, affine_map<(d0) -> ()>]} : (tensor<32xi16>, tensor<32xi16>, tensor<i16>) -> tensor<i16>
    %168 = "spirv.GL.FClamp"(%6, %142, %123) : (f16, f16, f16) -> f16
    %169 = "tensor.empty"() : () -> tensor<30x2xf32>
    %170 = "linalg.map"(%50, %50, %49, %169) ({
    ^bb0(%arg3: f32, %arg4: f32, %arg5: f32):
      %218 = "vector.splat"(%131) : (i1) -> vector<30x2xi1>
      %219 = "tensor.empty"(%18) : (index) -> tensor<?x2xf32>
      %220 = "arith.minsi"(%155, %126) : (i1, i1) -> i1
      %221 = "vector.matrix_multiply"(%100, %87) <{lhs_columns = 6 : i32, lhs_rows = 1 : i32, rhs_columns = 1 : i32}> : (vector<6xi16>, vector<6xi16>) -> vector<1xi16>
      %222 = "index.shrs"(%145, %22) : (index, index) -> index
      %223 = "affine.max"(%41, %34, %38, %120, %80) <{map = affine_map<(d0, d1, d2, d3)[s0] -> ((d2 - d0 ceildiv 4) floordiv 4 - 32)>}> : (index, index, index, index, index) -> index
      %224 = "arith.remf"(%123, %164) <{fastmath = #arith.fastmath<none>}> : (f16, f16) -> f16
      %225 = "index.maxu"(%35, %17) : (index, index) -> index
      "scf.index_switch"(%29) <{cases = array<i64: 1, 2, 3, 4>}> ({
        %250 = "index.sizeof"() : () -> index
        %251 = "tensor.expand_shape"(%52) <{reassociation = [[0, 1]]}> : (tensor<32xf16>) -> tensor<32x1xf16>
        %252 = "arith.remf"(%142, %84) <{fastmath = #arith.fastmath<none>}> : (f16, f16) -> f16
        %253 = "vector.contract"(%90, %90, %13) <{indexing_maps = [affine_map<(d0) -> (d0)>, affine_map<(d0) -> (d0)>, affine_map<(d0) -> ()>], iterator_types = [#vector.iterator_type<reduction>], kind = #vector.kind<maxsi>}> : (vector<2xi32>, vector<2xi32>, i32) -> i32
        %254 = "vector.load"(%79, %16) : (memref<?xf32>, index) -> vector<32xf32>
        %255 = "math.cttz"(%7) : (i64) -> i64
        %256 = "vector.create_mask"(%46, %40) : (index, index) -> vector<30x2xi1>
        %257 = "math.tan"(%arg5) <{fastmath = #arith.fastmath<none>}> : (f32) -> f32
        %258 = "affine.vector_load"(%70, %18, %42, %46) <{map = affine_map<(d0, d1, d2) -> (d0, d1, d2)>}> : (memref<?x?x?xf32>, index, index, index) -> vector<32xf32>
        %259 = "memref.alloc"(%29, %47) <{operandSegmentSizes = array<i32: 2, 0>}> : (index, index) -> memref<?x?xi64>
        %260 = "arith.constant"() <{value = 1.496800e+04 : f16}> : () -> f16
        %261 = "index.or"(%26, %47) : (index, index) -> index
        %262 = "math.log10"(%arg5) <{fastmath = #arith.fastmath<none>}> : (f32) -> f32
        %263 = "math.ceil"(%60) <{fastmath = #arith.fastmath<none>}> : (tensor<30x2xf16>) -> tensor<30x2xf16>
        %264 = "index.or"(%120, %43) : (index, index) -> index
        %265 = "bufferization.to_memref"(%251) : (tensor<32x1xf16>) -> memref<32x1xf16>
        "scf.yield"() : () -> ()
      }, {
        %250 = "arith.remf"(%arg5, %arg5) <{fastmath = #arith.fastmath<none>}> : (f32, f32) -> f32
        %251 = "arith.minsi"(%14, %159) : (i64, i64) -> i64
        %252 = "index.maxu"(%225, %47) : (index, index) -> index
        %253 = "math.log10"(%50) <{fastmath = #arith.fastmath<none>}> : (tensor<30x2xf32>) -> tensor<30x2xf32>
        %254 = "index.maxs"(%27, %44) : (index, index) -> index
        %255 = "vector.transpose"(%85) <{transp = [0]}> : (vector<1xi1>) -> vector<1xi1>
        %256 = "memref.alloc"() <{operandSegmentSizes = array<i32: 0, 0>}> : () -> memref<f16>
        "memref.tensor_store"(%111, %256) : (tensor<f16>, memref<f16>) -> ()
        %257 = "arith.remf"(%163, %6) <{fastmath = #arith.fastmath<none>}> : (f16, f16) -> f16
        %258 = "vector.create_mask"(%39, %38) : (index, index) -> vector<30x2xi1>
        %259 = "math.atan"(%112) <{fastmath = #arith.fastmath<none>}> : (tensor<f16>) -> tensor<f16>
        %260 = "tensor.from_elements"(%126, %147, %104, %137, %147, %137, %104, %137, %147, %127, %104, %12, %104, %162, %97, %126, %11, %147, %138, %127, %11, %12, %147, %147, %155, %11, %11, %138, %137, %130, %147, %12, %131, %155, %126, %162, %130, %126, %155, %130, %138, %97, %138, %155, %12, %127, %97, %11, %11, %12, %147, %155, %131, %138, %147, %147, %104, %155, %147, %11) : (i1, i1, i1, i1, i1, i1, i1, i1, i1, i1, i1, i1, i1, i1, i1, i1, i1, i1, i1, i1, i1, i1, i1, i1, i1, i1, i1, i1, i1, i1, i1, i1, i1, i1, i1, i1, i1, i1, i1, i1, i1, i1, i1, i1, i1, i1, i1, i1, i1, i1, i1, i1, i1, i1, i1, i1, i1, i1, i1, i1) -> tensor<30x2xi1>
        %261 = "vector.create_mask"(%24) : (index) -> vector<32xi1>
        %262 = "vector.transpose"(%102) <{transp = [2, 0, 1]}> : (vector<30x2x32xi64>) -> vector<32x30x2xi64>
        %263 = "math.atan2"(%169, %49) <{fastmath = #arith.fastmath<none>}> : (tensor<30x2xf32>, tensor<30x2xf32>) -> tensor<30x2xf32>
        %264 = "vector.bitcast"(%102) : (vector<30x2x32xi64>) -> vector<30x2x32xi64>
        %265 = "arith.muli"(%2, %14) : (i64, i64) -> i64
        "scf.yield"() : () -> ()
      }, {
        %250 = "math.expm1"(%arg4) <{fastmath = #arith.fastmath<none>}> : (f32) -> f32
        %251 = "arith.remf"(%164, %150) <{fastmath = #arith.fastmath<none>}> : (f16, f16) -> f16
        %252 = "arith.shrsi"(%8, %1) : (i16, i16) -> i16
        %253 = "arith.divui"(%11, %126) : (i1, i1) -> i1
        %254 = "arith.minsi"(%11, %12) : (i1, i1) -> i1
        %255 = "math.cttz"(%59) : (tensor<30x2xi16>) -> tensor<30x2xi16>
        %256 = "bufferization.clone"(%113) : (memref<30x2xi1>) -> memref<30x2xi1>
        %257 = "index.and"(%38, %33) : (index, index) -> index
        %258 = "bufferization.to_tensor"(%78) : (memref<?x?xi1>) -> tensor<?x?xi1>
        %259 = "math.tan"(%49) <{fastmath = #arith.fastmath<none>}> : (tensor<30x2xf32>) -> tensor<30x2xf32>
        %260 = "arith.remf"(%123, %133) <{fastmath = #arith.fastmath<none>}> : (f16, f16) -> f16
        %261 = "arith.minsi"(%131, %131) : (i1, i1) -> i1
        %262 = "bufferization.to_memref"(%60) : (tensor<30x2xf16>) -> memref<30x2xf16>
        %263 = "tensor.splat"(%159) : (i64) -> tensor<32xi64>
        "memref.store"(%155, %76, %16, %17) <{nontemporal = false}> : (i1, memref<?x2xi1>, index, index) -> ()
        %264 = "index.shrs"(%80, %36) : (index, index) -> index
        "scf.yield"() : () -> ()
      }, {
        %250 = "vector.broadcast"(%42) : (index) -> vector<2xindex>
        %251 = "vector.broadcast"(%127) : (i1) -> vector<2xi1>
        %252 = "vector.broadcast"(%159) : (i64) -> vector<2xi64>
        "vector.scatter"(%71, %32, %16, %250, %251, %252) : (memref<30x2xi64>, index, index, vector<2xindex>, vector<2xi1>, vector<2xi64>) -> ()
        %253 = "affine.apply"(%33, %120) <{map = affine_map<(d0)[s0] -> (d0)>}> : (index, index) -> index
        %254 = "arith.remf"(%123, %163) <{fastmath = #arith.fastmath<none>}> : (f16, f16) -> f16
        %255 = "math.roundeven"(%4) <{fastmath = #arith.fastmath<none>}> : (f16) -> f16
        %256 = "affine.load"(%71, %29, %30) <{map = affine_map<(d0, d1) -> (d0, d1)>}> : (memref<30x2xi64>, index, index) -> i64
        %257 = "vector.transfer_read"(%51, %39, %24, %155) <{operandSegmentSizes = array<i32: 1, 2, 1, 0>, permutation_map = affine_map<(d0, d1) -> (d1)>}> : (tensor<?x?xi1>, index, index, i1) -> vector<30xi1>
        %258 = "arith.muli"(%256, %14) : (i64, i64) -> i64
        "memref.tensor_store"(%83, %79) : (tensor<?xf32>, memref<?xf32>) -> ()
        %259 = "arith.divui"(%162, %131) : (i1, i1) -> i1
        %260 = "vector.maskedload"(%64, %19, %17, %36, %88, %100) : (memref<30x2x32xi16>, index, index, index, vector<6xi1>, vector<6xi16>) -> vector<6xi16>
        %261 = "vector.transfer_read"(%59, %25, %28, %8) <{operandSegmentSizes = array<i32: 1, 2, 1, 0>, permutation_map = affine_map<(d0, d1) -> (d1)>}> : (tensor<30x2xi16>, index, index, i16) -> vector<2xi16>
        %262 = "arith.divui"(%7, %15) : (i64, i64) -> i64
        %263 = "vector.broadcast"(%136) : (f16) -> vector<30x2xf16>
        %264 = "linalg.copy"(%50, %49) <{operandSegmentSizes = array<i32: 1, 1>}> ({
        ^bb0(%arg6: f32, %arg7: f32):
          "linalg.yield"(%arg6) : (f32) -> ()
        }) : (tensor<30x2xf32>, tensor<30x2xf32>) -> tensor<30x2xf32>
        %265 = "index.maxu"(%42, %37) : (index, index) -> index
        %266 = "arith.andi"(%1, %8) : (i16, i16) -> i16
        "scf.yield"() : () -> ()
      }, {
        "memref.copy"(%75, %75) : (memref<?x?x32xf16>, memref<?x?x32xf16>) -> ()
        %250 = "index.sizeof"() : () -> index
        %251 = "linalg.copy"(%96, %51) <{operandSegmentSizes = array<i32: 1, 1>}> ({
        ^bb0(%arg6: i1, %arg7: i1):
          "linalg.yield"(%arg6) : (i1) -> ()
        }) : (tensor<?x?xi1>, tensor<?x?xi1>) -> tensor<?x?xi1>
        %252 = "arith.negf"(%109) <{fastmath = #arith.fastmath<none>}> : (f16) -> f16
        %253 = "tensor.empty"() : () -> tensor<30x2xf32>
        %254 = "bufferization.clone"(%arg2) : (memref<30x2xi64>) -> memref<30x2xi64>
        %255 = "vector.broadcast"(%137) : (i1) -> vector<32xi1>
        %256 = "vector.maskedload"(%113, %20, %16, %255, %255) : (memref<30x2xi1>, index, index, vector<32xi1>, vector<32xi1>) -> vector<32xi1>
        %257 = "index.maxu"(%45, %23) : (index, index) -> index
        %258 = "index.castu"(%30) : (index) -> i32
        %259 = "vector.extract"(%87) <{static_position = array<i64: 2>}> : (vector<6xi16>) -> i16
        %260 = "affine.min"(%27, %arg1, %24) <{map = affine_map<(d0, d1, d2) -> (0)>}> : (index, index, index) -> index
        %261 = "arith.divui"(%127, %147) : (i1, i1) -> i1
        %262 = "math.fpowi"(%10, %3) <{fastmath = #arith.fastmath<none>}> : (f32, i32) -> f32
        %263 = "affine.max"(%23, %47, %222) <{map = affine_map<(d0, d1, d2) -> (d1 + 8)>}> : (index, index, index) -> index
        %264 = "vector.load"(%64, %23, %16, %34) : (memref<30x2x32xi16>, index, index, index) -> vector<30x2xi16>
        %265 = "affine.vector_load"(%110, %34) <{map = affine_map<(d0) -> (d0)>}> : (memref<60xf16>, index) -> vector<32xf16>
        "scf.yield"() : () -> ()
      }) : (index) -> ()
      %226 = "vector.reduction"(%88) <{fastmath = #arith.fastmath<none>, kind = #vector.kind<mul>}> : (vector<6xi1>) -> i1
      "memref.store"(%2, %71, %22, %16) <{nontemporal = false}> : (i64, memref<30x2xi64>, index, index) -> ()
      %227 = "vector.splat"(%163) : (f16) -> vector<30x2xf16>
      %228 = "tensor.empty"() : () -> tensor<30x2x32xi1>
      %229 = "tensor.insert"(%135, %117, %25) : (f16, tensor<32xf16>, index) -> tensor<32xf16>
      %230 = "memref.alloc"() <{operandSegmentSizes = array<i32: 0, 0>}> : () -> memref<30x2xi1>
      "memref.tensor_store"(%48, %230) : (tensor<30x2xi1>, memref<30x2xi1>) -> ()
      %231 = "vector.broadcast"(%arg5) : (f32) -> vector<30x2xf32>
      %232 = "vector.fma"(%231, %231, %231) : (vector<30x2xf32>, vector<30x2xf32>, vector<30x2xf32>) -> vector<30x2xf32>
      %233 = "affine.max"(%29, %30, %34, %35, %46) <{map = affine_map<(d0, d1, d2, d3)[s0] -> ((d2 - d0 ceildiv 4) floordiv 4 - 32)>}> : (index, index, index, index, index) -> index
      %234 = "scf.execute_region"() ({
        %250 = "math.sqrt"(%52) <{fastmath = #arith.fastmath<none>}> : (tensor<32xf16>) -> tensor<32xf16>
        %251 = "arith.shrsi"(%15, %7) : (i64, i64) -> i64
        %252 = "math.absf"(%117) <{fastmath = #arith.fastmath<none>}> : (tensor<32xf16>) -> tensor<32xf16>
        %253 = "vector.broadcast"(%11) : (i1) -> vector<32xi1>
        %254 = "vector.maskedload"(%68, %16, %16, %253, %253) : (memref<?x2xi1>, index, index, vector<32xi1>, vector<32xi1>) -> vector<32xi1>
        %255 = "index.ceildivs"(%30, %36) : (index, index) -> index
        %256 = "math.tan"(%135) <{fastmath = #arith.fastmath<none>}> : (f16) -> f16
        %257 = "arith.minui"(%162, %104) : (i1, i1) -> i1
        %258 = "index.and"(%30, %27) : (index, index) -> index
        %259 = "tensor.insert"(%4, %52, %28) : (f16, tensor<32xf16>, index) -> tensor<32xf16>
        %260 = "arith.ceildivsi"(%162, %104) : (i1, i1) -> i1
        %261 = "tensor.splat"(%161) : (f16) -> tensor<30x2x32xf16>
        %262 = "index.and"(%31, %28) : (index, index) -> index
        "linalg.transpose"(%98, %110) <{permutation = array<i64: 0>}> ({
        ^bb0(%arg6: f16, %arg7: f16):
          "linalg.yield"(%arg6) : (f16) -> ()
        }) : (tensor<60xf16>, memref<60xf16>) -> ()
        %263 = "math.floor"(%arg4) <{fastmath = #arith.fastmath<none>}> : (f32) -> f32
        %264 = "math.exp2"(%50) <{fastmath = #arith.fastmath<none>}> : (tensor<30x2xf32>) -> tensor<30x2xf32>
        %265 = "vector.splat"(%8) : (i16) -> vector<30x2xi16>
        "scf.yield"(%137) : (i1) -> ()
      }) : () -> i1
      %235 = "vector.flat_transpose"(%156) <{columns = 1 : i32, rows = 1 : i32}> : (vector<1xi16>) -> vector<1xi16>
      %236 = "memref.alloc"() <{operandSegmentSizes = array<i32: 0, 0>}> : () -> memref<30x2x6xf32>
      "linalg.broadcast"(%49, %236) <{dimensions = array<i64: 2>}> ({
      ^bb0(%arg6: f32, %arg7: f32):
        "linalg.yield"(%arg6) : (f32) -> ()
      }) : (tensor<30x2xf32>, memref<30x2x6xf32>) -> ()
      %237 = "vector.broadcast"(%163) : (f16) -> vector<30x2xf16>
      %238 = "affine.min"(%31) <{map = affine_map<(d0) -> (d0 * -16)>}> : (index) -> index
      %239 = "math.absi"(%166) : (tensor<i16>) -> tensor<i16>
      %240 = "vector.create_mask"(%32) : (index) -> vector<32xi1>
      %241 = "vector.broadcast"(%10) : (f32) -> vector<30x2xf32>
      %242 = "vector.fma"(%241, %241, %231) : (vector<30x2xf32>, vector<30x2xf32>, vector<30x2xf32>) -> vector<30x2xf32>
      %243 = "math.cttz"(%166) : (tensor<i16>) -> tensor<i16>
      %244 = "arith.shrsi"(%14, %14) : (i64, i64) -> i64
      %245 = "vector.matrix_multiply"(%85, %85) <{lhs_columns = 1 : i32, lhs_rows = 1 : i32, rhs_columns = 1 : i32}> : (vector<1xi1>, vector<1xi1>) -> vector<1xi1>
      %246 = "math.absi"(%15) : (i64) -> i64
      %247 = "math.rsqrt"(%136) <{fastmath = #arith.fastmath<none>}> : (f16) -> f16
      %248 = "arith.constant"() <{value = 1.10384653E+9 : f32}> : () -> f32
      %249 = "math.ceil"(%10) <{fastmath = #arith.fastmath<none>}> : (f32) -> f32
      "linalg.yield"(%arg3) : (f32) -> ()
    }) : (tensor<30x2xf32>, tensor<30x2xf32>, tensor<30x2xf32>, tensor<30x2xf32>) -> tensor<30x2xf32>
    %171 = "math.atan"(%136) <{fastmath = #arith.fastmath<none>}> : (f16) -> f16
    %172 = "arith.divsi"(%159, %2) : (i64, i64) -> i64
    %173 = "spirv.FUnordLessThanEqual"(%157, %81) : (f16, f16) -> i1
    %174 = "arith.shrui"(%12, %138) : (i1, i1) -> i1
    %175 = "math.atan2"(%6, %6) <{fastmath = #arith.fastmath<none>}> : (f16, f16) -> f16
    %176 = "vector.broadcast"(%131) : (i1) -> vector<30xi1>
    %177 = "vector.maskedload"(%68, %16, %17, %176, %176) : (memref<?x2xi1>, index, index, vector<30xi1>, vector<30xi1>) -> vector<30xi1>
    %178 = "spirv.CL.cos"(%142) : (f16) -> f16
    %179 = "arith.remf"(%81, %123) <{fastmath = #arith.fastmath<none>}> : (f16, f16) -> f16
    %180 = "memref.atomic_rmw"(%1, %64, %20, %17, %22) <{kind = 10 : i64}> : (i16, memref<30x2x32xi16>, index, index, index) -> i16
    %181 = "spirv.CL.sin"(%163) : (f16) -> f16
    %182 = "affine.parallel"() <{lowerBoundsGroups = dense<1> : tensor<3xi32>, lowerBoundsMap = affine_map<() -> (0, 0, 0)>, reductions = [10], steps = [1, 1, 1], upperBoundsGroups = dense<1> : tensor<3xi32>, upperBoundsMap = affine_map<() -> (6, 2, 30)>}> ({
    ^bb0(%arg3: index, %arg4: index, %arg5: index):
      %218 = "index.sizeof"() : () -> index
      "affine.yield"(%2) : (i64) -> ()
    }) : () -> memref<6x2x30xi64>
    %183 = "arith.addi"(%14, %159) : (i64, i64) -> i64
    %184 = "memref.realloc"(%110) : (memref<60xf16>) -> memref<32xf16>
    %185 = "arith.minsi"(%147, %155) : (i1, i1) -> i1
    %186 = "vector.splat"(%arg1) : (index) -> vector<32xindex>
    %187 = "spirv.IsInf"(%109) : (f16) -> i1
    %188 = "spirv.BitFieldSExtract"(%90, %5, %125) : (vector<2xi32>, i64, i32) -> vector<2xi32>
    %189 = "arith.minsi"(%147, %147) : (i1, i1) -> i1
    %190 = "affine.parallel"() <{lowerBoundsGroups = dense<1> : tensor<1xi32>, lowerBoundsMap = affine_map<() -> (0)>, reductions = [9], steps = [1], upperBoundsGroups = dense<1> : tensor<1xi32>, upperBoundsMap = affine_map<() -> (6)>}> ({
    ^bb0(%arg3: index):
      %218 = "memref.alloc"() <{operandSegmentSizes = array<i32: 0, 0>}> : () -> memref<30x2xi32>
      %219 = "vector.broadcast"(%125) : (i32) -> vector<32xi32>
      %220 = "vector.broadcast"(%130) : (i1) -> vector<32xi1>
      %221 = "vector.gather"(%218, %47, %20, %219, %220, %219) : (memref<30x2xi32>, index, index, vector<32xi32>, vector<32xi1>, vector<32xi32>) -> vector<32xi32>
      "affine.yield"(%10) : (f32) -> ()
    }) : () -> memref<6xf32>
    %191 = "spirv.IEqual"(%14, %7) : (i64, i64) -> i1
    %192 = "affine.min"(%41, %33, %36, %80) <{map = affine_map<(d0, d1, d2)[s0] -> (d2)>}> : (index, index, index, index) -> index
    %193 = "math.cttz"(%96) : (tensor<?x?xi1>) -> tensor<?x?xi1>
    %194 = "vector.create_mask"(%29, %43, %34) : (index, index, index) -> vector<30x2x32xi1>
    %195 = "vector.load"(%77, %19, %16) : (memref<30x2xi1>, index, index) -> vector<30x2xi1>
    %196 = "spirv.CL.erf"(%109) : (f16) -> f16
    %197 = "spirv.CL.tanh"(%165) : (f16) -> f16
    %198 = "spirv.LogicalNotEqual"(%130, %97) : (i1, i1) -> i1
    %199 = "arith.minui"(%13, %13) : (i32, i32) -> i32
    %200 = "spirv.SLessThanEqual"(%3, %13) : (i32, i32) -> i1
    %201 = "scf.execute_region"() ({
      %218 = "arith.floordivsi"(%138, %137) : (i1, i1) -> i1
      %219 = "vector.broadcast"(%160) : (index) -> vector<2xindex>
      %220 = "vector.broadcast"(%12) : (i1) -> vector<2xi1>
      %221 = "vector.broadcast"(%14) : (i64) -> vector<2xi64>
      "vector.scatter"(%182, %21, %16, %41, %219, %220, %221) : (memref<6x2x30xi64>, index, index, index, vector<2xindex>, vector<2xi1>, vector<2xi64>) -> ()
      %222 = "memref.alloc"() <{operandSegmentSizes = array<i32: 0, 0>}> : () -> memref<32xi1>
      %223 = "tensor.empty"() : () -> tensor<i1>
      %224 = "linalg.dot"(%55, %222, %223) <{operandSegmentSizes = array<i32: 2, 1>}> ({
      ^bb0(%arg3: i1, %arg4: i1, %arg5: i1):
        %242 = "arith.andi"(%arg3, %arg4) : (i1, i1) -> i1
        %243 = "arith.ori"(%arg5, %242) : (i1, i1) -> i1
        "linalg.yield"(%243) : (i1) -> ()
      }) : (tensor<32xi1>, memref<32xi1>, tensor<i1>) -> tensor<i1>
      %225 = "math.cttz"(%55) : (tensor<32xi1>) -> tensor<32xi1>
      %226 = "vector.broadcast"(%10) : (f32) -> vector<32xf32>
      %227 = "vector.fma"(%226, %226, %226) : (vector<32xf32>, vector<32xf32>, vector<32xf32>) -> vector<32xf32>
      %228 = "vector.broadcast"(%178) : (f16) -> vector<30xf16>
      %229 = "vector.maskedload"(%75, %16, %16, %30, %177, %228) : (memref<?x?x32xf16>, index, index, index, vector<30xi1>, vector<30xf16>) -> vector<30xf16>
      %230 = "vector.broadcast"(%10) : (f32) -> vector<32x32xf32>
      %231 = "vector.outerproduct"(%226, %227, %230) <{kind = #vector.kind<add>}> : (vector<32xf32>, vector<32xf32>, vector<32x32xf32>) -> vector<32x32xf32>
      %232 = "affine.load"(%110, %34) <{map = affine_map<(d0) -> (d0)>}> : (memref<60xf16>, index) -> f16
      %233 = "vector.broadcast"(%109) : (f16) -> vector<30x2x32xf16>
      %234 = "vector.splat"(%33) : (index) -> vector<30x2xindex>
      %235 = "memref.alloc"() <{operandSegmentSizes = array<i32: 0, 0>}> : () -> memref<32xi16>
      "linalg.broadcast"(%167, %235) <{dimensions = array<i64: 0>}> ({
      ^bb0(%arg3: i16, %arg4: i16):
        "linalg.yield"(%arg3) : (i16) -> ()
      }) : (tensor<i16>, memref<32xi16>) -> ()
      %236 = "math.powf"(%84, %154) <{fastmath = #arith.fastmath<none>}> : (f16, f16) -> f16
      %237 = "index.maxu"(%36, %33) : (index, index) -> index
      %238 = "vector.insertelement"(%9, %156, %192) : (i16, vector<1xi16>, index) -> vector<1xi16>
      %239 = "linalg.copy"(%166, %166) <{operandSegmentSizes = array<i32: 1, 1>}> ({
      ^bb0(%arg3: i16, %arg4: i16):
        "linalg.yield"(%arg3) : (i16) -> ()
      }) : (tensor<i16>, tensor<i16>) -> tensor<i16>
      %240 = "tensor.empty"() : () -> tensor<30x2xf32>
      %241 = "memref.alloc"(%38) <{operandSegmentSizes = array<i32: 1, 0>}> : (index) -> memref<?x2xi64>
      "scf.yield"(%241) : (memref<?x2xi64>) -> ()
    }) : () -> memref<?x2xi64>
    %202 = "spirv.Not"(%1) : (i16) -> i16
    %203 = "bufferization.to_tensor"(%64) : (memref<30x2x32xi16>) -> tensor<30x2x32xi16>
    %204 = "index.shru"(%36, %33) : (index, index) -> index
    %205 = "affine.min"(%25, %35) <{map = affine_map<(d0)[s0] -> ((d0 ceildiv 8) floordiv 32)>}> : (index, index) -> index
    %206 = "vector.create_mask"(%145, %204) : (index, index) -> vector<30x2xi1>
    %207 = "spirv.CL.rsqrt"(%165) : (f16) -> f16
    %208 = "spirv.CL.sin"(%0) : (f16) -> f16
    %209 = "vector.broadcast"(%10) : (f32) -> vector<6xf32>
    %210 = "vector.maskedload"(%190, %17, %88, %209) : (memref<6xf32>, index, vector<6xi1>, vector<6xf32>) -> vector<6xf32>
    %211 = "vector.transfer_read"(%203, %32, %43, %28, %202) <{operandSegmentSizes = array<i32: 1, 3, 1, 0>, permutation_map = affine_map<(d0, d1, d2) -> (d1, d2)>}> : (tensor<30x2x32xi16>, index, index, index, i16) -> vector<6x2xi16>
    %212 = "spirv.CL.fmax"(%82, %123) : (f16, f16) -> f16
    %213 = "spirv.CL.cos"(%81) : (f16) -> f16
    %214 = "vector.extract_strided_slice"(%114) <{offsets = [20, 0], sizes = [4, 2], strides = [1, 1]}> : (vector<30x2x32xi1>) -> vector<4x2x32xi1>
    "bufferization.dealloc_tensor"(%arg0) : (tensor<30x2x32xf16>) -> ()
    %215 = "math.log1p"(%106) <{fastmath = #arith.fastmath<none>}> : (f16) -> f16
    %216 = "spirv.SLessThanEqual"(%5, %159) : (i64, i64) -> i1
    "vector.print"(%85) <{punctuation = #vector.punctuation<newline>}> : (vector<1xi1>) -> ()
    "vector.print"(%87) <{punctuation = #vector.punctuation<newline>}> : (vector<6xi16>) -> ()
    "vector.print"(%88) <{punctuation = #vector.punctuation<newline>}> : (vector<6xi1>) -> ()
    "vector.print"(%89) <{punctuation = #vector.punctuation<newline>}> : (vector<6xi16>) -> ()
    "vector.print"(%90) <{punctuation = #vector.punctuation<newline>}> : (vector<2xi32>) -> ()
    "vector.print"(%100) <{punctuation = #vector.punctuation<newline>}> : (vector<6xi16>) -> ()
    "vector.print"(%102) <{punctuation = #vector.punctuation<newline>}> : (vector<30x2x32xi64>) -> ()
    "vector.print"(%114) <{punctuation = #vector.punctuation<newline>}> : (vector<30x2x32xi1>) -> ()
    "vector.print"(%152) <{punctuation = #vector.punctuation<newline>}> : (vector<f16>) -> ()
    "vector.print"(%156) <{punctuation = #vector.punctuation<newline>}> : (vector<1xi16>) -> ()
    "vector.print"(%176) <{punctuation = #vector.punctuation<newline>}> : (vector<30xi1>) -> ()
    "vector.print"(%177) <{punctuation = #vector.punctuation<newline>}> : (vector<30xi1>) -> ()
    "vector.print"(%194) <{punctuation = #vector.punctuation<newline>}> : (vector<30x2x32xi1>) -> ()
    "vector.print"(%195) <{punctuation = #vector.punctuation<newline>}> : (vector<30x2xi1>) -> ()
    "vector.print"(%206) <{punctuation = #vector.punctuation<newline>}> : (vector<30x2xi1>) -> ()
    "vector.print"(%209) <{punctuation = #vector.punctuation<newline>}> : (vector<6xf32>) -> ()
    "vector.print"(%210) <{punctuation = #vector.punctuation<newline>}> : (vector<6xf32>) -> ()
    "vector.print"(%214) <{punctuation = #vector.punctuation<newline>}> : (vector<4x2x32xi1>) -> ()
    "vector.print"(%0) <{punctuation = #vector.punctuation<newline>}> : (f16) -> ()
    "vector.print"(%1) <{punctuation = #vector.punctuation<newline>}> : (i16) -> ()
    "vector.print"(%2) <{punctuation = #vector.punctuation<newline>}> : (i64) -> ()
    "vector.print"(%3) <{punctuation = #vector.punctuation<newline>}> : (i32) -> ()
    "vector.print"(%4) <{punctuation = #vector.punctuation<newline>}> : (f16) -> ()
    "vector.print"(%5) <{punctuation = #vector.punctuation<newline>}> : (i64) -> ()
    "vector.print"(%6) <{punctuation = #vector.punctuation<newline>}> : (f16) -> ()
    "vector.print"(%7) <{punctuation = #vector.punctuation<newline>}> : (i64) -> ()
    "vector.print"(%8) <{punctuation = #vector.punctuation<newline>}> : (i16) -> ()
    "vector.print"(%9) <{punctuation = #vector.punctuation<newline>}> : (i16) -> ()
    "vector.print"(%10) <{punctuation = #vector.punctuation<newline>}> : (f32) -> ()
    "vector.print"(%11) <{punctuation = #vector.punctuation<newline>}> : (i1) -> ()
    "vector.print"(%12) <{punctuation = #vector.punctuation<newline>}> : (i1) -> ()
    "vector.print"(%13) <{punctuation = #vector.punctuation<newline>}> : (i32) -> ()
    "vector.print"(%14) <{punctuation = #vector.punctuation<newline>}> : (i64) -> ()
    "vector.print"(%15) <{punctuation = #vector.punctuation<newline>}> : (i64) -> ()
    "vector.print"(%81) <{punctuation = #vector.punctuation<newline>}> : (f16) -> ()
    "vector.print"(%82) <{punctuation = #vector.punctuation<newline>}> : (f16) -> ()
    "vector.print"(%84) <{punctuation = #vector.punctuation<newline>}> : (f16) -> ()
    "vector.print"(%97) <{punctuation = #vector.punctuation<newline>}> : (i1) -> ()
    "vector.print"(%104) <{punctuation = #vector.punctuation<newline>}> : (i1) -> ()
    "vector.print"(%105) <{punctuation = #vector.punctuation<newline>}> : (f16) -> ()
    "vector.print"(%106) <{punctuation = #vector.punctuation<newline>}> : (f16) -> ()
    "vector.print"(%109) <{punctuation = #vector.punctuation<newline>}> : (f16) -> ()
    "vector.print"(%123) <{punctuation = #vector.punctuation<newline>}> : (f16) -> ()
    "vector.print"(%125) <{punctuation = #vector.punctuation<newline>}> : (i32) -> ()
    "vector.print"(%126) <{punctuation = #vector.punctuation<newline>}> : (i1) -> ()
    "vector.print"(%127) <{punctuation = #vector.punctuation<newline>}> : (i1) -> ()
    "vector.print"(%130) <{punctuation = #vector.punctuation<newline>}> : (i1) -> ()
    "vector.print"(%131) <{punctuation = #vector.punctuation<newline>}> : (i1) -> ()
    "vector.print"(%133) <{punctuation = #vector.punctuation<newline>}> : (f16) -> ()
    "vector.print"(%135) <{punctuation = #vector.punctuation<newline>}> : (f16) -> ()
    "vector.print"(%136) <{punctuation = #vector.punctuation<newline>}> : (f16) -> ()
    "vector.print"(%137) <{punctuation = #vector.punctuation<newline>}> : (i1) -> ()
    "vector.print"(%138) <{punctuation = #vector.punctuation<newline>}> : (i1) -> ()
    "vector.print"(%142) <{punctuation = #vector.punctuation<newline>}> : (f16) -> ()
    "vector.print"(%147) <{punctuation = #vector.punctuation<newline>}> : (i1) -> ()
    "vector.print"(%150) <{punctuation = #vector.punctuation<newline>}> : (f16) -> ()
    "vector.print"(%154) <{punctuation = #vector.punctuation<newline>}> : (f16) -> ()
    "vector.print"(%155) <{punctuation = #vector.punctuation<newline>}> : (i1) -> ()
    "vector.print"(%157) <{punctuation = #vector.punctuation<newline>}> : (f16) -> ()
    "vector.print"(%159) <{punctuation = #vector.punctuation<newline>}> : (i64) -> ()
    "vector.print"(%161) <{punctuation = #vector.punctuation<newline>}> : (f16) -> ()
    "vector.print"(%162) <{punctuation = #vector.punctuation<newline>}> : (i1) -> ()
    "vector.print"(%163) <{punctuation = #vector.punctuation<newline>}> : (f16) -> ()
    "vector.print"(%164) <{punctuation = #vector.punctuation<newline>}> : (f16) -> ()
    "vector.print"(%165) <{punctuation = #vector.punctuation<newline>}> : (f16) -> ()
    "vector.print"(%168) <{punctuation = #vector.punctuation<newline>}> : (f16) -> ()
    "vector.print"(%173) <{punctuation = #vector.punctuation<newline>}> : (i1) -> ()
    "vector.print"(%178) <{punctuation = #vector.punctuation<newline>}> : (f16) -> ()
    "vector.print"(%181) <{punctuation = #vector.punctuation<newline>}> : (f16) -> ()
    "vector.print"(%187) <{punctuation = #vector.punctuation<newline>}> : (i1) -> ()
    "vector.print"(%191) <{punctuation = #vector.punctuation<newline>}> : (i1) -> ()
    "vector.print"(%196) <{punctuation = #vector.punctuation<newline>}> : (f16) -> ()
    "vector.print"(%197) <{punctuation = #vector.punctuation<newline>}> : (f16) -> ()
    "vector.print"(%198) <{punctuation = #vector.punctuation<newline>}> : (i1) -> ()
    "vector.print"(%200) <{punctuation = #vector.punctuation<newline>}> : (i1) -> ()
    "vector.print"(%202) <{punctuation = #vector.punctuation<newline>}> : (i16) -> ()
    "vector.print"(%207) <{punctuation = #vector.punctuation<newline>}> : (f16) -> ()
    "vector.print"(%208) <{punctuation = #vector.punctuation<newline>}> : (f16) -> ()
    "vector.print"(%212) <{punctuation = #vector.punctuation<newline>}> : (f16) -> ()
    "vector.print"(%213) <{punctuation = #vector.punctuation<newline>}> : (f16) -> ()
    "vector.print"(%216) <{punctuation = #vector.punctuation<newline>}> : (i1) -> ()
    %217 = "vector.broadcast"(%162) : (i1) -> vector<32xi1>
    "func.return"(%217) : (vector<32xi1>) -> ()
  }) : () -> ()
}) : () -> ()
