"builtin.module"() ({
  "func.func"() <{function_type = (memref<?x?xi64>) -> index, sym_name = "func1", sym_visibility = "private"}> ({
  ^bb0(%arg0: memref<?x?xi64>):
    %0 = "arith.constant"() <{value = 522805532 : i64}> : () -> i64
    %1 = "arith.constant"() <{value = 1.01992582E+9 : f32}> : () -> f32
    %2 = "arith.constant"() <{value = 422120461 : i64}> : () -> i64
    %3 = "arith.constant"() <{value = true}> : () -> i1
    %4 = "arith.constant"() <{value = 1068799538 : i32}> : () -> i32
    %5 = "arith.constant"() <{value = 1187600732 : i64}> : () -> i64
    %6 = "arith.constant"() <{value = 1.74340723E+9 : f32}> : () -> f32
    %7 = "arith.constant"() <{value = 26057 : i16}> : () -> i16
    %8 = "arith.constant"() <{value = 1.400000e+04 : f16}> : () -> f16
    %9 = "arith.constant"() <{value = 20183 : i16}> : () -> i16
    %10 = "arith.constant"() <{value = 0x4DC9F4BD : f32}> : () -> f32
    %11 = "arith.constant"() <{value = 5.043200e+04 : f16}> : () -> f16
    %12 = "arith.constant"() <{value = false}> : () -> i1
    %13 = "arith.constant"() <{value = 24280 : i16}> : () -> i16
    %14 = "arith.constant"() <{value = 272050492 : i32}> : () -> i32
    %15 = "arith.constant"() <{value = 1.4451241E+9 : f32}> : () -> f32
    %16 = "arith.constant"() <{value = 0 : index}> : () -> index
    %17 = "arith.constant"() <{value = 1 : index}> : () -> index
    %18 = "arith.constant"() <{value = 2 : index}> : () -> index
    %19 = "arith.constant"() <{value = 3 : index}> : () -> index
    %20 = "arith.constant"() <{value = 4 : index}> : () -> index
    %21 = "arith.constant"() <{value = 5 : index}> : () -> index
    %22 = "arith.constant"() <{value = 6 : index}> : () -> index
    %23 = "arith.constant"() <{value = 7 : index}> : () -> index
    %24 = "arith.constant"() <{value = 8 : index}> : () -> index
    %25 = "arith.constant"() <{value = 9 : index}> : () -> index
    %26 = "arith.constant"() <{value = 10 : index}> : () -> index
    %27 = "arith.constant"() <{value = 11 : index}> : () -> index
    %28 = "arith.constant"() <{value = 12 : index}> : () -> index
    %29 = "arith.constant"() <{value = 13 : index}> : () -> index
    %30 = "arith.constant"() <{value = 14 : index}> : () -> index
    %31 = "arith.constant"() <{value = 15 : index}> : () -> index
    %32 = "arith.constant"() <{value = 16 : index}> : () -> index
    %33 = "arith.constant"() <{value = 17 : index}> : () -> index
    %34 = "arith.constant"() <{value = 18 : index}> : () -> index
    %35 = "arith.constant"() <{value = 19 : index}> : () -> index
    %36 = "arith.constant"() <{value = 20 : index}> : () -> index
    %37 = "arith.constant"() <{value = 21 : index}> : () -> index
    %38 = "arith.constant"() <{value = 22 : index}> : () -> index
    %39 = "arith.constant"() <{value = 23 : index}> : () -> index
    %40 = "arith.constant"() <{value = 24 : index}> : () -> index
    %41 = "arith.constant"() <{value = 25 : index}> : () -> index
    %42 = "arith.constant"() <{value = 26 : index}> : () -> index
    %43 = "arith.constant"() <{value = 27 : index}> : () -> index
    %44 = "arith.constant"() <{value = 28 : index}> : () -> index
    %45 = "arith.constant"() <{value = 29 : index}> : () -> index
    %46 = "arith.constant"() <{value = 30 : index}> : () -> index
    %47 = "arith.constant"() <{value = 31 : index}> : () -> index
    %48 = "tensor.empty"() : () -> tensor<13x13xi64>
    %49 = "tensor.empty"() : () -> tensor<25xi1>
    %50 = "tensor.empty"(%26) : (index) -> tensor<?xf32>
    %51 = "tensor.empty"(%38) : (index) -> tensor<?xi64>
    %52 = "tensor.empty"() : () -> tensor<13x13xf32>
    %53 = "tensor.empty"() : () -> tensor<13x27x13xi32>
    %54 = "tensor.empty"(%28) : (index) -> tensor<?xf16>
    %55 = "tensor.empty"() : () -> tensor<27xf32>
    %56 = "tensor.empty"(%25, %19) : (index, index) -> tensor<?x?x13xi16>
    %57 = "tensor.empty"() : () -> tensor<13x13xi1>
    %58 = "tensor.empty"() : () -> tensor<13x27x13xi32>
    %59 = "tensor.empty"(%16) : (index) -> tensor<?x13xf16>
    %60 = "tensor.empty"(%45) : (index) -> tensor<?x27x13xi1>
    %61 = "tensor.empty"(%44) : (index) -> tensor<?x13xi1>
    %62 = "tensor.empty"(%21) : (index) -> tensor<?x13xi64>
    %63 = "tensor.empty"(%22) : (index) -> tensor<?xi64>
    %64 = "memref.alloc"(%39) <{operandSegmentSizes = array<i32: 1, 0>}> : (index) -> memref<?xf16>
    %65 = "memref.alloc"(%38) <{operandSegmentSizes = array<i32: 1, 0>}> : (index) -> memref<?x27x13xf16>
    %66 = "memref.alloc"() <{operandSegmentSizes = array<i32: 0, 0>}> : () -> memref<27xf32>
    %67 = "memref.alloc"(%24, %21) <{operandSegmentSizes = array<i32: 2, 0>}> : (index, index) -> memref<?x?x13xi16>
    %68 = "memref.alloc"() <{operandSegmentSizes = array<i32: 0, 0>}> : () -> memref<13x13xi16>
    %69 = "memref.alloc"() <{operandSegmentSizes = array<i32: 0, 0>}> : () -> memref<13x27x13xf16>
    %70 = "memref.alloc"() <{operandSegmentSizes = array<i32: 0, 0>}> : () -> memref<27xi1>
    %71 = "memref.alloc"(%28) <{operandSegmentSizes = array<i32: 1, 0>}> : (index) -> memref<?xf32>
    %72 = "memref.alloc"() <{operandSegmentSizes = array<i32: 0, 0>}> : () -> memref<13x27x13xi32>
    %73 = "memref.alloc"() <{operandSegmentSizes = array<i32: 0, 0>}> : () -> memref<27xi32>
    %74 = "memref.alloc"() <{operandSegmentSizes = array<i32: 0, 0>}> : () -> memref<13x13xi32>
    %75 = "memref.alloc"(%42) <{operandSegmentSizes = array<i32: 1, 0>}> : (index) -> memref<?x13xi32>
    %76 = "memref.alloc"() <{operandSegmentSizes = array<i32: 0, 0>}> : () -> memref<13x13xi16>
    %77 = "memref.alloc"(%21) <{operandSegmentSizes = array<i32: 1, 0>}> : (index) -> memref<?xi64>
    %78 = "memref.alloc"() <{operandSegmentSizes = array<i32: 0, 0>}> : () -> memref<13x27x13xf32>
    %79 = "memref.alloc"() <{operandSegmentSizes = array<i32: 0, 0>}> : () -> memref<13x13xf32>
    %80 = "tensor.empty"(%16) : (index) -> tensor<?x13xi64>
    %81 = "linalg.map"(%62, %62, %80) ({
    ^bb0(%arg1: i64, %arg2: i64):
      %219 = "vector.broadcast"(%3) : (i1) -> vector<27xi1>
      %220 = "vector.transpose"(%219) <{transp = [0]}> : (vector<27xi1>) -> vector<27xi1>
      %221 = "arith.minsi"(%4, %14) : (i32, i32) -> i32
      %222 = "math.absf"(%6) <{fastmath = #arith.fastmath<none>}> : (f32) -> f32
      %223 = "math.rsqrt"(%11) <{fastmath = #arith.fastmath<none>}> : (f16) -> f16
      %224 = "math.ctpop"(%62) : (tensor<?x13xi64>) -> tensor<?x13xi64>
      %225 = "arith.constant"() <{value = 0x4D9EFCEF : f32}> : () -> f32
      %226 = "vector.extract_strided_slice"(%219) <{offsets = [8], sizes = [11], strides = [1]}> : (vector<27xi1>) -> vector<11xi1>
      "memref.assume_alignment"(%71) <{alignment = 16 : i32}> : (memref<?xf32>) -> ()
      %227 = "math.tan"(%50) <{fastmath = #arith.fastmath<none>}> : (tensor<?xf32>) -> tensor<?xf32>
      %228 = "linalg.copy"(%59, %59) <{operandSegmentSizes = array<i32: 1, 1>}> ({
      ^bb0(%arg3: f16, %arg4: f16):
        "linalg.yield"(%arg3) : (f16) -> ()
      }) : (tensor<?x13xf16>, tensor<?x13xf16>) -> tensor<?x13xf16>
      %229 = "vector.load"(%67, %16, %16, %18) : (memref<?x?x13xi16>, index, index, index) -> vector<13x13xi16>
      %230 = "affine.if"(%32, %31) ({
        %252 = "tensor.empty"() : () -> tensor<13x27x13xi64>
        %253 = "tensor.empty"() : () -> tensor<27xi32>
        %254 = "tensor.empty"() : () -> tensor<i32>
        %255 = "linalg.dot"(%73, %253, %254) <{operandSegmentSizes = array<i32: 2, 1>}> ({
        ^bb0(%arg3: i32, %arg4: i32, %arg5: i32):
          %262 = "arith.muli"(%arg3, %arg4) : (i32, i32) -> i32
          %263 = "arith.addi"(%arg5, %262) : (i32, i32) -> i32
          "linalg.yield"(%263) : (i32) -> ()
        }) {linalg.memoized_indexing_maps = [affine_map<(d0) -> (d0)>, affine_map<(d0) -> (d0)>, affine_map<(d0) -> ()>]} : (memref<27xi32>, tensor<27xi32>, tensor<i32>) -> tensor<i32>
        %256 = "vector.load"(%68, %26, %20) : (memref<13x13xi16>, index, index) -> vector<27xi16>
        %257 = "math.round"(%11) <{fastmath = #arith.fastmath<none>}> : (f16) -> f16
        "linalg.transpose"(%51, %77) <{permutation = array<i64: 0>}> ({
        ^bb0(%arg3: i64, %arg4: i64):
          "linalg.yield"(%arg3) : (i64) -> ()
        }) : (tensor<?xi64>, memref<?xi64>) -> ()
        %258 = "tensor.empty"() : () -> tensor<13x13xi16>
        %259 = "tensor.cast"(%48) : (tensor<13x13xi64>) -> tensor<?x?xi64>
        %260 = "linalg.copy"(%253, %253) <{operandSegmentSizes = array<i32: 1, 1>}> ({
        ^bb0(%arg3: i32, %arg4: i32):
          "linalg.yield"(%arg3) : (i32) -> ()
        }) : (tensor<27xi32>, tensor<27xi32>) -> tensor<27xi32>
        %261 = "memref.alloc"() <{operandSegmentSizes = array<i32: 0, 0>}> : () -> memref<25xf32>
        "affine.yield"(%261) : (memref<25xf32>) -> ()
      }, {
        %252 = "memref.load"(%77, %16) <{nontemporal = false}> : (memref<?xi64>, index) -> i64
        %253 = "tensor.insert"(%12, %60, %16, %21, %18) : (i1, tensor<?x27x13xi1>, index, index, index) -> tensor<?x27x13xi1>
        %254 = "vector.bitcast"(%219) : (vector<27xi1>) -> vector<27xi1>
        %255 = "arith.addf"(%11, %11) <{fastmath = #arith.fastmath<none>}> : (f16, f16) -> f16
        %256 = "math.floor"(%50) <{fastmath = #arith.fastmath<none>}> : (tensor<?xf32>) -> tensor<?xf32>
        %257 = "arith.cmpf"(%11, %11) <{predicate = 11 : i64}> : (f16, f16) -> i1
        %258 = "vector.extract_strided_slice"(%229) <{offsets = [1], sizes = [1], strides = [1]}> : (vector<13x13xi16>) -> vector<1x13xi16>
        %259 = "math.log1p"(%55) <{fastmath = #arith.fastmath<none>}> : (tensor<27xf32>) -> tensor<27xf32>
        %260 = "memref.alloc"() <{operandSegmentSizes = array<i32: 0, 0>}> : () -> memref<25xf32>
        "affine.yield"(%260) : (memref<25xf32>) -> ()
      }) {condition = affine_set<(d0, d1) : (d1 - 64 >= 0, d1 == 0)>} : (index, index) -> memref<25xf32>
      %231 = "vector.extract"(%229) <{static_position = array<i64: 1>}> : (vector<13x13xi16>) -> vector<13xi16>
      %232 = "math.atan2"(%1, %15) <{fastmath = #arith.fastmath<none>}> : (f32, f32) -> f32
      %233 = "vector.contract"(%229, %229, %229) <{indexing_maps = [affine_map<(d0, d1, d2) -> (d2, d0)>, affine_map<(d0, d1, d2) -> (d2, d1)>, affine_map<(d0, d1, d2) -> (d0, d1)>], iterator_types = [#vector.iterator_type<parallel>, #vector.iterator_type<parallel>, #vector.iterator_type<reduction>], kind = #vector.kind<mul>}> : (vector<13x13xi16>, vector<13x13xi16>, vector<13x13xi16>) -> vector<13x13xi16>
      %234 = "vector.transpose"(%229) <{transp = [0, 1]}> : (vector<13x13xi16>) -> vector<13x13xi16>
      %235 = "index.shru"(%29, %17) : (index, index) -> index
      %236 = "vector.splat"(%38) : (index) -> vector<13x13xindex>
      %237 = "vector.contract"(%219, %219, %3) <{indexing_maps = [affine_map<(d0) -> (d0)>, affine_map<(d0) -> (d0)>, affine_map<(d0) -> ()>], iterator_types = [#vector.iterator_type<reduction>], kind = #vector.kind<maxsi>}> : (vector<27xi1>, vector<27xi1>, i1) -> i1
      %238 = "arith.minsi"(%2, %5) : (i64, i64) -> i64
      %239 = "tensor.empty"() : () -> tensor<169xi64>
      %240 = "tensor.unpack"(%48, %239, %29) <{inner_dims_pos = array<i64: 0>, outer_dims_perm = array<i64: 0>, static_inner_tiles = array<i64: -9223372036854775808>}> : (tensor<13x13xi64>, tensor<169xi64>, index) -> tensor<169xi64>
      %241 = "tensor.empty"() : () -> tensor<169xi1>
      %242 = "tensor.unpack"(%57, %241, %29) <{inner_dims_pos = array<i64: 0>, outer_dims_perm = array<i64: 0>, static_inner_tiles = array<i64: -9223372036854775808>}> : (tensor<13x13xi1>, tensor<169xi1>, index) -> tensor<169xi1>
      %243 = "math.absf"(%52) <{fastmath = #arith.fastmath<none>}> : (tensor<13x13xf32>) -> tensor<13x13xf32>
      %244 = "index.add"(%26, %44) : (index, index) -> index
      %245 = "arith.mulf"(%11, %8) <{fastmath = #arith.fastmath<none>}> : (f16, f16) -> f16
      %246 = "tensor.expand_shape"(%59) <{reassociation = [[0], [1, 2]]}> : (tensor<?x13xf16>) -> tensor<?x13x1xf16>
      %247 = "arith.minui"(%7, %9) : (i16, i16) -> i16
      %248 = "math.exp"(%52) <{fastmath = #arith.fastmath<none>}> : (tensor<13x13xf32>) -> tensor<13x13xf32>
      "scf.parallel"(%46, %34, %42, %29, %30, %47) <{operandSegmentSizes = array<i32: 2, 2, 2, 0>}> ({
      ^bb0(%arg3: index, %arg4: index):
        %252 = "math.roundeven"(%59) <{fastmath = #arith.fastmath<none>}> : (tensor<?x13xf16>) -> tensor<?x13xf16>
        %253 = "vector.broadcast"(%0) : (i64) -> vector<i64>
        %254 = "vector.transfer_write"(%253, %62, %45, %42) <{operandSegmentSizes = array<i32: 1, 1, 2, 0>, permutation_map = affine_map<(d0, d1) -> ()>}> : (vector<i64>, tensor<?x13xi64>, index, index) -> tensor<?x13xi64>
        %255 = "arith.muli"(%0, %arg1) : (i64, i64) -> i64
        %256 = "memref.alloca"(%37) <{operandSegmentSizes = array<i32: 1, 0>}> : (index) -> memref<?x27x13xi16>
        %257 = "arith.ori"(%arg2, %arg2) : (i64, i64) -> i64
        %258 = "index.and"(%38, %32) : (index, index) -> index
        %259 = "math.rsqrt"(%50) <{fastmath = #arith.fastmath<none>}> : (tensor<?xf32>) -> tensor<?xf32>
        %260 = "vector.splat"(%15) : (f32) -> vector<13x27x13xf32>
        %261 = "tensor.empty"() : () -> tensor<27xi32>
        %262 = "math.ctpop"(%62) : (tensor<?x13xi64>) -> tensor<?x13xi64>
        %263 = "vector.transpose"(%231) <{transp = [0]}> : (vector<13xi16>) -> vector<13xi16>
        %264 = "math.log1p"(%8) <{fastmath = #arith.fastmath<none>}> : (f16) -> f16
        %265 = "index.shru"(%46, %46) : (index, index) -> index
        %266 = "math.round"(%15) <{fastmath = #arith.fastmath<none>}> : (f32) -> f32
        %267 = "math.absi"(%51) : (tensor<?xi64>) -> tensor<?xi64>
        %268 = "bufferization.clone"(%68) : (memref<13x13xi16>) -> memref<13x13xi16>
        "scf.yield"() : () -> ()
      }) : (index, index, index, index, index, index) -> ()
      %249 = "memref.load"(%69, %23, %40, %23) <{nontemporal = false}> : (memref<13x27x13xf16>, index, index, index) -> f16
      %250 = "tensor.from_elements"(%5, %2, %0, %2, %5, %arg1, %5, %arg1, %0, %2, %2, %5, %2, %5, %5, %2, %arg1, %arg1, %arg2, %0, %2, %2, %arg1, %arg2, %0) : (i64, i64, i64, i64, i64, i64, i64, i64, i64, i64, i64, i64, i64, i64, i64, i64, i64, i64, i64, i64, i64, i64, i64, i64, i64) -> tensor<25xi64>
      %251 = "memref.atomic_rmw"(%14, %73, %32) <{kind = 4 : i64}> : (i32, memref<27xi32>, index) -> i32
      "linalg.yield"(%arg1) : (i64) -> ()
    }) : (tensor<?x13xi64>, tensor<?x13xi64>, tensor<?x13xi64>) -> tensor<?x13xi64>
    %82 = "spirv.GL.Asin"(%15) : (f32) -> f32
    %83 = "spirv.GL.SSign"(%14) : (i32) -> i32
    %84 = "affine.max"(%28, %34, %26, %45) <{map = affine_map<(d0, d1, d2, d3) -> (((d3 + 1) ceildiv 16 + d2 ceildiv 2) * 64)>}> : (index, index, index, index) -> index
    %85 = "spirv.FOrdGreaterThanEqual"(%1, %15) : (f32, f32) -> i1
    %86 = "spirv.CL.sin"(%1) : (f32) -> f32
    %87 = "spirv.SLessThan"(%0, %2) : (i64, i64) -> i1
    %88 = "vector.broadcast"(%5) : (i64) -> vector<25xi64>
    %89 = "vector.reduction"(%88) <{fastmath = #arith.fastmath<none>, kind = #vector.kind<add>}> : (vector<25xi64>) -> i64
    %90 = "math.ctpop"(%57) : (tensor<13x13xi1>) -> tensor<13x13xi1>
    %91 = "spirv.CL.exp"(%15) : (f32) -> f32
    %92 = "math.atan"(%52) <{fastmath = #arith.fastmath<none>}> : (tensor<13x13xf32>) -> tensor<13x13xf32>
    %93 = "vector.broadcast"(%4) : (i32) -> vector<2xi32>
    %94 = "spirv.BitwiseOr"(%93, %93) : (vector<2xi32>, vector<2xi32>) -> vector<2xi32>
    %95 = "math.log"(%59) <{fastmath = #arith.fastmath<none>}> : (tensor<?x13xf16>) -> tensor<?x13xf16>
    %96 = "arith.divsi"(%7, %13) : (i16, i16) -> i16
    %97 = "arith.remsi"(%12, %85) : (i1, i1) -> i1
    %98 = "affine.max"(%47, %43, %26, %31) <{map = affine_map<(d0, d1, d2, d3) -> (((d3 + 1) ceildiv 16 + d2 ceildiv 2) * 64)>}> : (index, index, index, index) -> index
    %99 = "math.copysign"(%86, %1) <{fastmath = #arith.fastmath<none>}> : (f32, f32) -> f32
    %100 = "spirv.CL.cos"(%15) : (f32) -> f32
    %101 = "spirv.CL.u_min"(%14, %14) : (i32, i32) -> i32
    %102 = "spirv.BitwiseXor"(%93, %93) : (vector<2xi32>, vector<2xi32>) -> vector<2xi32>
    %103 = "arith.subi"(%13, %9) : (i16, i16) -> i16
    %104 = "spirv.FOrdLessThan"(%10, %10) : (f32, f32) -> i1
    %105 = "tensor.empty"() : () -> tensor<27xi1>
    %106 = "tensor.empty"() : () -> tensor<i1>
    %107 = "linalg.dot"(%70, %105, %106) <{operandSegmentSizes = array<i32: 2, 1>}> ({
    ^bb0(%arg1: i1, %arg2: i1, %arg3: i1):
      %219 = "arith.andi"(%arg1, %arg2) : (i1, i1) -> i1
      %220 = "arith.ori"(%arg3, %219) : (i1, i1) -> i1
      "linalg.yield"(%220) : (i1) -> ()
    }) {linalg.memoized_indexing_maps = [affine_map<(d0) -> (d0)>, affine_map<(d0) -> (d0)>, affine_map<(d0) -> ()>]} : (memref<27xi1>, tensor<27xi1>, tensor<i1>) -> tensor<i1>
    %108 = "bufferization.to_tensor"(%64) : (memref<?xf16>) -> tensor<?xf16>
    %109 = "spirv.CL.pow"(%11, %8) : (f16, f16) -> f16
    %110 = "math.fpowi"(%82, %83) <{fastmath = #arith.fastmath<none>}> : (f32, i32) -> f32
    %111 = "spirv.CL.s_max"(%0, %5) : (i64, i64) -> i64
    %112 = "spirv.LogicalAnd"(%3, %87) : (i1, i1) -> i1
    %113 = "spirv.SGreaterThan"(%93, %93) : (vector<2xi32>, vector<2xi32>) -> vector<2xi1>
    %114 = "spirv.BitFieldSExtract"(%93, %14, %2) : (vector<2xi32>, i32, i64) -> vector<2xi32>
    %115 = "math.cttz"(%12) : (i1) -> i1
    %116 = "spirv.Not"(%4) : (i32) -> i32
    %117 = "arith.cmpi"(%0, %0) <{predicate = 0 : i64}> : (i64, i64) -> i1
    %118 = "spirv.GL.Atan"(%109) : (f16) -> f16
    %119 = "math.atan"(%6) <{fastmath = #arith.fastmath<none>}> : (f32) -> f32
    %120 = "spirv.GL.UMax"(%116, %4) : (i32, i32) -> i32
    %121 = "arith.shli"(%101, %4) : (i32, i32) -> i32
    %122 = "spirv.CL.erf"(%82) : (f32) -> f32
    %123 = "math.fma"(%1, %91, %15) <{fastmath = #arith.fastmath<none>}> : (f32, f32, f32) -> f32
    %124 = "math.sqrt"(%55) <{fastmath = #arith.fastmath<none>}> : (tensor<27xf32>) -> tensor<27xf32>
    %125 = "arith.remsi"(%111, %2) : (i64, i64) -> i64
    %126 = "spirv.IEqual"(%14, %83) : (i32, i32) -> i1
    %127 = "spirv.IsInf"(%6) : (f32) -> i1
    %128 = "spirv.SGreaterThan"(%111, %2) : (i64, i64) -> i1
    %129 = "index.and"(%39, %24) : (index, index) -> index
    %130 = "spirv.CL.rint"(%122) : (f32) -> f32
    %131 = "math.roundeven"(%59) <{fastmath = #arith.fastmath<none>}> : (tensor<?x13xf16>) -> tensor<?x13xf16>
    %132 = "affine.max"(%33, %23) <{map = affine_map<(d0)[s0] -> (-(d0 floordiv 2))>}> : (index, index) -> index
    %133 = "memref.alloc"() <{operandSegmentSizes = array<i32: 0, 0>}> : () -> memref<27xi64>
    %134 = "math.sqrt"(%91) <{fastmath = #arith.fastmath<none>}> : (f32) -> f32
    %135 = "arith.minsi"(%0, %111) : (i64, i64) -> i64
    %136 = "arith.addf"(%109, %8) <{fastmath = #arith.fastmath<none>}> : (f16, f16) -> f16
    %137 = "tensor.empty"() : () -> tensor<27xi16>
    %138 = "vector.broadcast"(%13) : (i16) -> vector<13x13xi16>
    %139 = "vector.broadcast"(%126) : (i1) -> vector<13x13xi1>
    %140 = "vector.broadcast"(%83) : (i32) -> vector<13x13xi32>
    %141 = "vector.gather"(%137, %40, %140, %139, %138) : (tensor<27xi16>, index, vector<13x13xi32>, vector<13x13xi1>, vector<13x13xi16>) -> vector<13x13xi16>
    %142 = "spirv.LogicalNotEqual"(%3, %128) : (i1, i1) -> i1
    %143 = "spirv.FUnordGreaterThan"(%1, %1) : (f32, f32) -> i1
    %144 = "spirv.GL.Ceil"(%11) : (f16) -> f16
    %145 = "arith.remui"(%112, %85) : (i1, i1) -> i1
    %146 = "index.ceildivu"(%26, %42) : (index, index) -> index
    %147 = "math.log2"(%91) <{fastmath = #arith.fastmath<none>}> : (f32) -> f32
    %148 = "math.roundeven"(%122) <{fastmath = #arith.fastmath<none>}> : (f32) -> f32
    %149 = "spirv.CL.u_min"(%93, %93) : (vector<2xi32>, vector<2xi32>) -> vector<2xi32>
    %150 = "spirv.CL.fabs"(%109) : (f16) -> f16
    %151 = "tensor.empty"() : () -> tensor<13x13xi16>
    %152 = "vector.broadcast"(%9) : (i16) -> vector<25xi16>
    %153 = "vector.broadcast"(%143) : (i1) -> vector<25xi1>
    %154 = "vector.broadcast"(%83) : (i32) -> vector<25xi32>
    %155 = "vector.gather"(%151, %46, %46, %154, %153, %152) : (tensor<13x13xi16>, index, index, vector<25xi32>, vector<25xi1>, vector<25xi16>) -> vector<25xi16>
    %156 = "vector.extract_strided_slice"(%152) <{offsets = [4], sizes = [5], strides = [1]}> : (vector<25xi16>) -> vector<5xi16>
    %157 = "arith.ori"(%120, %120) : (i32, i32) -> i32
    %158 = "math.round"(%55) <{fastmath = #arith.fastmath<none>}> : (tensor<27xf32>) -> tensor<27xf32>
    %159 = "memref.atomic_rmw"(%8, %69, %27, %16, %25) <{kind = 0 : i64}> : (f16, memref<13x27x13xf16>, index, index, index) -> f16
    %160 = "vector.broadcast"(%11) : (f16) -> vector<13x13xf16>
    %161 = "spirv.FNegate"(%130) : (f32) -> f32
    "memref.assume_alignment"(%65) <{alignment = 16 : i32}> : (memref<?x27x13xf16>) -> ()
    %162 = "vector.contract"(%155, %152, %9) <{indexing_maps = [affine_map<(d0) -> (d0)>, affine_map<(d0) -> (d0)>, affine_map<(d0) -> ()>], iterator_types = [#vector.iterator_type<reduction>], kind = #vector.kind<and>}> : (vector<25xi16>, vector<25xi16>, i16) -> i16
    %163 = "memref.alloca"(%44) <{operandSegmentSizes = array<i32: 1, 0>}> : (index) -> memref<?x13xi64>
    "scf.index_switch"(%24) <{cases = array<i64: 1, 2, 3>}> ({
      "vector.warp_execute_on_lane_0"(%16) <{warp_size = 32 : i64}> ({
        %236 = "math.tanh"(%59) <{fastmath = #arith.fastmath<none>}> : (tensor<?x13xf16>) -> tensor<?x13xf16>
        %237 = "tensor.extract"(%60, %16, %16, %18) : (tensor<?x27x13xi1>, index, index, index) -> i1
        %238 = "bufferization.to_tensor"(%77) : (memref<?xi64>) -> tensor<?xi64>
        %239 = "arith.divui"(%112, %104) : (i1, i1) -> i1
        %240 = "vector.matrix_multiply"(%93, %93) <{lhs_columns = 2 : i32, lhs_rows = 1 : i32, rhs_columns = 1 : i32}> : (vector<2xi32>, vector<2xi32>) -> vector<1xi32>
        %241 = "vector.transpose"(%139) <{transp = [1, 0]}> : (vector<13x13xi1>) -> vector<13x13xi1>
        %242 = "linalg.copy"(%56, %56) <{operandSegmentSizes = array<i32: 1, 1>}> ({
        ^bb0(%arg1: i16, %arg2: i16):
          "linalg.yield"(%arg1) : (i16) -> ()
        }) : (tensor<?x?x13xi16>, tensor<?x?x13xi16>) -> tensor<?x?x13xi16>
        %243 = "math.round"(%10) <{fastmath = #arith.fastmath<none>}> : (f32) -> f32
        "vector.yield"() : () -> ()
      }) : (index) -> ()
      %219 = "memref.alloca"(%45) <{operandSegmentSizes = array<i32: 1, 0>}> : (index) -> memref<?xi16>
      %220 = "tensor.empty"() : () -> tensor<25xf32>
      %221 = "vector.broadcast"(%6) : (f32) -> vector<25xf32>
      %222 = "vector.gather"(%220, %29, %154, %153, %221) : (tensor<25xf32>, index, vector<25xi32>, vector<25xi1>, vector<25xf32>) -> vector<25xf32>
      "affine.parallel"() <{lowerBoundsGroups = dense<1> : tensor<3xi32>, lowerBoundsMap = affine_map<() -> (0, 0, 0)>, reductions = [], steps = [1, 1, 1], upperBoundsGroups = dense<1> : tensor<3xi32>, upperBoundsMap = affine_map<() -> (13, 17, 27)>}> ({
      ^bb0(%arg1: index, %arg2: index, %arg3: index):
        %236 = "tensor.cast"(%48) : (tensor<13x13xi64>) -> tensor<?x?xi64>
        "affine.yield"() : () -> ()
      }) : () -> ()
      "scf.execute_region"() ({
        %236 = "math.exp"(%55) <{fastmath = #arith.fastmath<none>}> : (tensor<27xf32>) -> tensor<27xf32>
        %237 = "arith.floordivsi"(%2, %0) : (i64, i64) -> i64
        %238 = "tensor.expand_shape"(%53) <{reassociation = [[0], [1], [2, 3]]}> : (tensor<13x27x13xi32>) -> tensor<13x27x13x1xi32>
        %239 = "arith.subi"(%85, %12) : (i1, i1) -> i1
        %240 = "bufferization.clone"(%73) : (memref<27xi32>) -> memref<27xi32>
        %241 = "index.shl"(%146, %31) : (index, index) -> index
        %242 = "math.round"(%50) <{fastmath = #arith.fastmath<none>}> : (tensor<?xf32>) -> tensor<?xf32>
        %243 = "affine.load"(%65, %31, %19, %35) <{map = affine_map<(d0, d1, d2) -> (d0, d1, d2)>}> : (memref<?x27x13xf16>, index, index, index) -> f16
        %244 = "arith.remf"(%100, %6) <{fastmath = #arith.fastmath<none>}> : (f32, f32) -> f32
        %245 = "math.atan"(%109) <{fastmath = #arith.fastmath<none>}> : (f16) -> f16
        %246 = "arith.cmpi"(%87, %128) <{predicate = 8 : i64}> : (i1, i1) -> i1
        %247 = "tensor.empty"() : () -> tensor<13x13xf32>
        %248 = "index.maxu"(%27, %17) : (index, index) -> index
        %249 = "math.rsqrt"(%6) <{fastmath = #arith.fastmath<none>}> : (f32) -> f32
        %250 = "linalg.copy"(%108, %54) <{operandSegmentSizes = array<i32: 1, 1>}> ({
        ^bb0(%arg1: f16, %arg2: f16):
          "linalg.yield"(%arg1) : (f16) -> ()
        }) : (tensor<?xf16>, tensor<?xf16>) -> tensor<?xf16>
        %251 = "math.ctpop"(%49) : (tensor<25xi1>) -> tensor<25xi1>
        "scf.yield"() : () -> ()
      }) : () -> ()
      %223 = "memref.alloc"(%84, %26) <{operandSegmentSizes = array<i32: 2, 0>}> : (index, index) -> memref<13x?x?xi16>
      "linalg.transpose"(%67, %223) <{permutation = array<i64: 2, 0, 1>}> ({
      ^bb0(%arg1: i16, %arg2: i16):
        "linalg.yield"(%arg1) : (i16) -> ()
      }) : (memref<?x?x13xi16>, memref<13x?x?xi16>) -> ()
      %224 = "tensor.cast"(%58) : (tensor<13x27x13xi32>) -> tensor<?x?x?xi32>
      %225 = "arith.andi"(%7, %13) : (i16, i16) -> i16
      %226 = "math.ctpop"(%112) : (i1) -> i1
      %227 = "math.atan2"(%52, %52) <{fastmath = #arith.fastmath<none>}> : (tensor<13x13xf32>, tensor<13x13xf32>) -> tensor<13x13xf32>
      %228 = "vector.broadcast"(%143) : (i1) -> vector<2xi1>
      "vector.compressstore"(%75, %16, %27, %228, %93) : (memref<?x13xi32>, index, index, vector<2xi1>, vector<2xi32>) -> ()
      %229 = "tensor.empty"() : () -> tensor<13x13xi64>
      %230 = "linalg.map"(%48, %48, %48, %229) ({
      ^bb0(%arg1: i64, %arg2: i64, %arg3: i64):
        %236 = "math.ctpop"(%48) : (tensor<13x13xi64>) -> tensor<13x13xi64>
        %237 = "index.and"(%129, %42) : (index, index) -> index
        %238 = "math.absf"(%10) <{fastmath = #arith.fastmath<none>}> : (f32) -> f32
        %239 = "bufferization.to_tensor"(%77) : (memref<?xi64>) -> tensor<?xi64>
        %240 = "arith.minsi"(%127, %128) : (i1, i1) -> i1
        %241 = "vector.create_mask"(%45, %18) : (index, index) -> vector<13x13xi1>
        %242 = "math.rsqrt"(%50) <{fastmath = #arith.fastmath<none>}> : (tensor<?xf32>) -> tensor<?xf32>
        %243 = "index.shrs"(%24, %19) : (index, index) -> index
        %244 = "memref.alloc"() <{operandSegmentSizes = array<i32: 0, 0>}> : () -> memref<25xf16>
        %245 = "vector.gather"(%244, %40, %140, %241, %160) : (memref<25xf16>, index, vector<13x13xi32>, vector<13x13xi1>, vector<13x13xf16>) -> vector<13x13xf16>
        %246 = "arith.subi"(%142, %104) : (i1, i1) -> i1
        %247 = "linalg.matmul"(%57, %57, %57) <{operandSegmentSizes = array<i32: 2, 1>}> ({
        ^bb0(%arg4: i1, %arg5: i1, %arg6: i1):
          %270 = "arith.andi"(%arg4, %arg5) : (i1, i1) -> i1
          %271 = "arith.ori"(%arg6, %270) : (i1, i1) -> i1
          "linalg.yield"(%271) : (i1) -> ()
        }) {linalg.memoized_indexing_maps = [affine_map<(d0, d1, d2) -> (d0, d2)>, affine_map<(d0, d1, d2) -> (d2, d1)>, affine_map<(d0, d1, d2) -> (d0, d1)>]} : (tensor<13x13xi1>, tensor<13x13xi1>, tensor<13x13xi1>) -> tensor<13x13xi1>
        %248 = "index.divs"(%18, %146) : (index, index) -> index
        %249 = "tensor.insert"(%5, %62, %16, %20) : (i64, tensor<?x13xi64>, index, index) -> tensor<?x13xi64>
        %250 = "index.shru"(%30, %20) : (index, index) -> index
        %251 = "arith.ori"(%4, %120) : (i32, i32) -> i32
        %252 = "memref.atomic_rmw"(%5, %77, %16) <{kind = 7 : i64}> : (i64, memref<?xi64>, index) -> i64
        %253 = "math.exp"(%10) <{fastmath = #arith.fastmath<none>}> : (f32) -> f32
        %254 = "memref.load"(%79, %27, %21) <{nontemporal = false}> : (memref<13x13xf32>, index, index) -> f32
        %255 = "math.exp"(%50) <{fastmath = #arith.fastmath<none>}> : (tensor<?xf32>) -> tensor<?xf32>
        %256 = "index.divs"(%28, %44) : (index, index) -> index
        %257 = "arith.shrsi"(%14, %14) : (i32, i32) -> i32
        %258 = "arith.ori"(%127, %127) : (i1, i1) -> i1
        %259 = "math.roundeven"(%11) <{fastmath = #arith.fastmath<none>}> : (f16) -> f16
        %260 = "arith.andi"(%3, %104) : (i1, i1) -> i1
        %261 = "arith.addi"(%101, %83) : (i32, i32) -> i32
        %262 = "math.floor"(%220) <{fastmath = #arith.fastmath<none>}> : (tensor<25xf32>) -> tensor<25xf32>
        %263 = "affine.max"(%18) <{map = affine_map<(d0) -> ((d0 floordiv 8 + 1) ceildiv 64)>}> : (index) -> index
        %264 = "tensor.empty"(%243) : (index) -> tensor<?xi1>
        %265 = "arith.subi"(%4, %4) : (i32, i32) -> i32
        %266 = "arith.shrui"(%2, %arg1) : (i64, i64) -> i64
        %267 = "tensor.cast"(%108) : (tensor<?xf16>) -> tensor<25xf16>
        %268 = "tensor.empty"() : () -> tensor<169xi1>
        %269 = "tensor.unpack"(%57, %268, %29) <{inner_dims_pos = array<i64: 0>, outer_dims_perm = array<i64: 0>, static_inner_tiles = array<i64: -9223372036854775808>}> : (tensor<13x13xi1>, tensor<169xi1>, index) -> tensor<169xi1>
        "linalg.yield"(%arg1) : (i64) -> ()
      }) : (tensor<13x13xi64>, tensor<13x13xi64>, tensor<13x13xi64>, tensor<13x13xi64>) -> tensor<13x13xi64>
      %231 = "tensor.empty"() : () -> tensor<13x13xf32>
      %232 = "linalg.map"(%52, %231) ({
      ^bb0(%arg1: f32):
        %236 = "arith.muli"(%12, %127) : (i1, i1) -> i1
        %237 = "vector.splat"(%6) : (f32) -> vector<27xf32>
        %238 = "vector.gather"(%70, %47, %140, %139, %139) : (memref<27xi1>, index, vector<13x13xi32>, vector<13x13xi1>, vector<13x13xi1>) -> vector<13x13xi1>
        %239 = "vector.contract"(%153, %153, %143) <{indexing_maps = [affine_map<(d0) -> (d0)>, affine_map<(d0) -> (d0)>, affine_map<(d0) -> ()>], iterator_types = [#vector.iterator_type<reduction>], kind = #vector.kind<add>}> : (vector<25xi1>, vector<25xi1>, i1) -> i1
        %240 = "math.log"(%52) <{fastmath = #arith.fastmath<none>}> : (tensor<13x13xf32>) -> tensor<13x13xf32>
        %241 = "math.ceil"(%109) <{fastmath = #arith.fastmath<none>}> : (f16) -> f16
        %242 = "arith.muli"(%112, %3) : (i1, i1) -> i1
        %243 = "memref.load"(%74, %24, %21) <{nontemporal = false}> : (memref<13x13xi32>, index, index) -> i32
        %244 = "arith.divf"(%86, %100) <{fastmath = #arith.fastmath<none>}> : (f32, f32) -> f32
        %245 = "math.copysign"(%55, %55) <{fastmath = #arith.fastmath<none>}> : (tensor<27xf32>, tensor<27xf32>) -> tensor<27xf32>
        %246 = "index.bool.constant"() <{value = true}> : () -> i1
        %247 = "math.exp"(%82) <{fastmath = #arith.fastmath<none>}> : (f32) -> f32
        %248 = "math.exp"(%50) <{fastmath = #arith.fastmath<none>}> : (tensor<?xf32>) -> tensor<?xf32>
        %249 = "index.bool.constant"() <{value = true}> : () -> i1
        %250 = "tensor.cast"(%60) : (tensor<?x27x13xi1>) -> tensor<27x27x13xi1>
        %251 = "tensor.empty"(%24) : (index) -> tensor<?x27x13xi1>
        %252 = "arith.mulf"(%8, %109) <{fastmath = #arith.fastmath<none>}> : (f16, f16) -> f16
        %253 = "tensor.insert"(%8, %54, %16) : (f16, tensor<?xf16>, index) -> tensor<?xf16>
        %254 = "index.and"(%38, %22) : (index, index) -> index
        %255 = "affine.max"(%23, %42, %146, %30, %32) <{map = affine_map<(d0, d1, d2, d3)[s0] -> (d1 ceildiv 4)>}> : (index, index, index, index, index) -> index
        %256 = "tensor.extract"(%62, %16, %26) : (tensor<?x13xi64>, index, index) -> i64
        %257 = "bufferization.clone"(%69) : (memref<13x27x13xf16>) -> memref<13x27x13xf16>
        %258 = "tensor.expand_shape"(%59) <{reassociation = [[0], [1, 2]]}> : (tensor<?x13xf16>) -> tensor<?x13x1xf16>
        %259 = "affine.min"(%45, %45, %38) <{map = affine_map<(d0, d1)[s0] -> (d0 * 4)>}> : (index, index, index) -> index
        %260 = "vector.extract_strided_slice"(%154) <{offsets = [23], sizes = [2], strides = [1]}> : (vector<25xi32>) -> vector<2xi32>
        %261 = "affine.apply"(%26) <{map = affine_map<(d0) -> ((d0 + 16) * -7)>}> : (index) -> index
        %262 = "affine.apply"(%41) <{map = affine_map<(d0) -> ((d0 floordiv 8 + 1) ceildiv 64)>}> : (index) -> index
        %263 = "arith.divsi"(%112, %126) : (i1, i1) -> i1
        %264 = "bufferization.clone"(%70) : (memref<27xi1>) -> memref<27xi1>
        %265 = "memref.alloca"(%19, %24, %19) <{operandSegmentSizes = array<i32: 3, 0>}> : (index, index, index) -> memref<?x?x?xi32>
        %266 = "arith.cmpf"(%144, %8) <{predicate = 9 : i64}> : (f16, f16) -> i1
        %267 = "index.ceildivu"(%16, %146) : (index, index) -> index
        "linalg.yield"(%82) : (f32) -> ()
      }) : (tensor<13x13xf32>, tensor<13x13xf32>) -> tensor<13x13xf32>
      %233 = "arith.cmpi"(%101, %14) <{predicate = 7 : i64}> : (i32, i32) -> i1
      %234 = "arith.floordivsi"(%127, %143) : (i1, i1) -> i1
      %235 = "bufferization.to_tensor"(%67) : (memref<?x?x13xi16>) -> tensor<?x?x13xi16>
      "scf.yield"() : () -> ()
    }, {
      %219 = "index.divs"(%25, %84) : (index, index) -> index
      "affine.store"(%8, %64, %46) <{map = affine_map<(d0) -> (d0)>}> : (f16, memref<?xf16>, index) -> ()
      %220 = "math.expm1"(%130) <{fastmath = #arith.fastmath<none>}> : (f32) -> f32
      %221 = "memref.alloc"() <{operandSegmentSizes = array<i32: 0, 0>}> : () -> memref<13x13x27xi32>
      "linalg.transpose"(%53, %221) <{permutation = array<i64: 2, 0, 1>}> ({
      ^bb0(%arg1: i32, %arg2: i32):
        "linalg.yield"(%arg1) : (i32) -> ()
      }) : (tensor<13x27x13xi32>, memref<13x13x27xi32>) -> ()
      %222 = "arith.addi"(%111, %0) : (i64, i64) -> i64
      %223 = "tensor.insert"(%116, %58, %28, %24, %24) : (i32, tensor<13x27x13xi32>, index, index, index) -> tensor<13x27x13xi32>
      %224 = "arith.remf"(%10, %82) <{fastmath = #arith.fastmath<none>}> : (f32, f32) -> f32
      %225 = "math.absf"(%109) <{fastmath = #arith.fastmath<none>}> : (f16) -> f16
      %226 = "arith.remui"(%5, %111) : (i64, i64) -> i64
      %227 = "index.add"(%47, %35) : (index, index) -> index
      %228 = "math.copysign"(%1, %161) <{fastmath = #arith.fastmath<none>}> : (f32, f32) -> f32
      %229 = "arith.remui"(%87, %85) : (i1, i1) -> i1
      %230 = "arith.divsi"(%12, %87) : (i1, i1) -> i1
      %231 = "memref.alloc"(%146) <{operandSegmentSizes = array<i32: 1, 0>}> : (index) -> memref<13x?xi1>
      "linalg.transpose"(%61, %231) <{permutation = array<i64: 1, 0>}> ({
      ^bb0(%arg1: i1, %arg2: i1):
        "linalg.yield"(%arg1) : (i1) -> ()
      }) : (tensor<?x13xi1>, memref<13x?xi1>) -> ()
      %232 = "math.powf"(%52, %52) <{fastmath = #arith.fastmath<none>}> : (tensor<13x13xf32>, tensor<13x13xf32>) -> tensor<13x13xf32>
      %233 = "arith.shli"(%4, %101) : (i32, i32) -> i32
      "scf.yield"() : () -> ()
    }, {
      %219 = "affine.if"(%30) ({
        %236 = "memref.atomic_rmw"(%7, %68, %21, %17) <{kind = 1 : i64}> : (i16, memref<13x13xi16>, index, index) -> i16
        %237 = "arith.constant"() <{value = 780850408 : i64}> : () -> i64
        %238 = "tensor.collapse_shape"(%62) <{reassociation = [[0, 1]]}> : (tensor<?x13xi64>) -> tensor<?xi64>
        %239 = "arith.divsi"(%101, %101) : (i32, i32) -> i32
        %240 = "memref.load"(%74, %19, %27) <{nontemporal = false}> : (memref<13x13xi32>, index, index) -> i32
        %241 = "index.floordivs"(%20, %25) : (index, index) -> index
        %242 = "memref.atomic_rmw"(%4, %72, %18, %25, %26) <{kind = 1 : i64}> : (i32, memref<13x27x13xi32>, index, index, index) -> i32
        %243 = "math.ceil"(%108) <{fastmath = #arith.fastmath<none>}> : (tensor<?xf16>) -> tensor<?xf16>
        %244 = "memref.alloc"() <{operandSegmentSizes = array<i32: 0, 0>}> : () -> memref<25xf16>
        "affine.yield"(%244) : (memref<25xf16>) -> ()
      }, {
        %236 = "math.fma"(%55, %55, %55) <{fastmath = #arith.fastmath<none>}> : (tensor<27xf32>, tensor<27xf32>, tensor<27xf32>) -> tensor<27xf32>
        %237 = "linalg.matmul"(%57, %57, %57) <{operandSegmentSizes = array<i32: 2, 1>}> ({
        ^bb0(%arg1: i1, %arg2: i1, %arg3: i1):
          %247 = "arith.andi"(%arg1, %arg2) : (i1, i1) -> i1
          %248 = "arith.ori"(%arg3, %247) : (i1, i1) -> i1
          "linalg.yield"(%248) : (i1) -> ()
        }) {linalg.memoized_indexing_maps = [affine_map<(d0, d1, d2) -> (d0, d2)>, affine_map<(d0, d1, d2) -> (d2, d1)>, affine_map<(d0, d1, d2) -> (d0, d1)>]} : (tensor<13x13xi1>, tensor<13x13xi1>, tensor<13x13xi1>) -> tensor<13x13xi1>
        %238 = "arith.floordivsi"(%116, %83) : (i32, i32) -> i32
        %239 = "arith.shrui"(%127, %127) : (i1, i1) -> i1
        %240 = "tensor.empty"() : () -> tensor<25xf32>
        %241 = "vector.broadcast"(%161) : (f32) -> vector<25xf32>
        %242 = "vector.gather"(%240, %36, %154, %153, %241) : (tensor<25xf32>, index, vector<25xi32>, vector<25xi1>, vector<25xf32>) -> vector<25xf32>
        %243 = "math.fpowi"(%150, %4) <{fastmath = #arith.fastmath<none>}> : (f16, i32) -> f16
        %244 = "math.ceil"(%59) <{fastmath = #arith.fastmath<none>}> : (tensor<?x13xf16>) -> tensor<?x13xf16>
        %245 = "tensor.empty"(%20) : (index) -> tensor<?xi1>
        %246 = "memref.alloc"() <{operandSegmentSizes = array<i32: 0, 0>}> : () -> memref<25xf16>
        "affine.yield"(%246) : (memref<25xf16>) -> ()
      }) {condition = affine_set<(d0) : (d0 >= 0)>} : (index) -> memref<25xf16>
      %220 = "index.sizeof"() : () -> index
      %221 = "arith.remsi"(%143, %87) : (i1, i1) -> i1
      "scf.execute_region"() ({
        %236 = "tensor.insert"(%143, %61, %16, %20) : (i1, tensor<?x13xi1>, index, index) -> tensor<?x13xi1>
        %237 = "arith.xori"(%104, %143) : (i1, i1) -> i1
        %238 = "arith.constant"() <{value = 249657630 : i32}> : () -> i32
        %239 = "index.mul"(%35, %129) : (index, index) -> index
        %240 = "index.ceildivu"(%23, %33) : (index, index) -> index
        %241 = "vector.insert"(%87, %153) <{static_position = array<i64: 9>}> : (i1, vector<25xi1>) -> vector<25xi1>
        %242 = "math.absi"(%57) : (tensor<13x13xi1>) -> tensor<13x13xi1>
        %243 = "arith.divf"(%82, %6) <{fastmath = #arith.fastmath<none>}> : (f32, f32) -> f32
        %244 = "vector.splat"(%104) : (i1) -> vector<13x13xi1>
        %245 = "math.floor"(%59) <{fastmath = #arith.fastmath<none>}> : (tensor<?x13xf16>) -> tensor<?x13xf16>
        %246 = "arith.floordivsi"(%116, %14) : (i32, i32) -> i32
        %247 = "arith.floordivsi"(%7, %9) : (i16, i16) -> i16
        %248 = "vector.splat"(%25) : (index) -> vector<13x13xindex>
        %249 = "arith.cmpi"(%127, %127) <{predicate = 8 : i64}> : (i1, i1) -> i1
        %250 = "tensor.cast"(%55) : (tensor<27xf32>) -> tensor<?xf32>
        %251 = "index.sizeof"() : () -> index
        "scf.yield"() : () -> ()
      }) : () -> ()
      %222 = "arith.shrui"(%126, %87) : (i1, i1) -> i1
      %223 = "arith.floordivsi"(%120, %83) : (i32, i32) -> i32
      %224 = "tensor.empty"() : () -> tensor<13x25xf16>
      %225 = "tensor.empty"(%31) : (index) -> tensor<?x25xf16>
      %226 = "linalg.matmul"(%59, %224, %225) <{operandSegmentSizes = array<i32: 2, 1>}> ({
      ^bb0(%arg1: f16, %arg2: f16, %arg3: f16):
        %236 = "arith.mulf"(%arg1, %arg2) <{fastmath = #arith.fastmath<none>}> : (f16, f16) -> f16
        %237 = "arith.addf"(%arg3, %236) <{fastmath = #arith.fastmath<none>}> : (f16, f16) -> f16
        "linalg.yield"(%237) : (f16) -> ()
      }) {linalg.memoized_indexing_maps = [affine_map<(d0, d1, d2) -> (d0, d2)>, affine_map<(d0, d1, d2) -> (d2, d1)>, affine_map<(d0, d1, d2) -> (d0, d1)>]} : (tensor<?x13xf16>, tensor<13x25xf16>, tensor<?x25xf16>) -> tensor<?x25xf16>
      %227 = "scf.while"(%60) ({
      ^bb0(%arg1: tensor<?x27x13xi1>):
        %236 = "tensor.collapse_shape"(%151) <{reassociation = [[0, 1]]}> : (tensor<13x13xi16>) -> tensor<169xi16>
        "vector.print"(%141) <{punctuation = #vector.punctuation<newline>}> : (vector<13x13xi16>) -> ()
        %237 = "math.exp"(%108) <{fastmath = #arith.fastmath<none>}> : (tensor<?xf16>) -> tensor<?xf16>
        %238 = "index.divs"(%30, %31) : (index, index) -> index
        %239 = "index.casts"(%17) : (index) -> i32
        %240 = "tensor.cast"(%62) : (tensor<?x13xi64>) -> tensor<13x13xi64>
        %241 = "math.atan"(%144) <{fastmath = #arith.fastmath<none>}> : (f16) -> f16
        %242 = "math.roundeven"(%161) <{fastmath = #arith.fastmath<none>}> : (f32) -> f32
        %243 = "tensor.empty"(%33) : (index) -> tensor<?x27x13xi1>
        "scf.condition"(%85, %243) : (i1, tensor<?x27x13xi1>) -> ()
      }, {
      ^bb0(%arg1: tensor<?x27x13xi1>):
        %236 = "math.atan2"(%130, %161) <{fastmath = #arith.fastmath<none>}> : (f32, f32) -> f32
        %237 = "arith.mulf"(%150, %109) <{fastmath = #arith.fastmath<none>}> : (f16, f16) -> f16
        %238 = "math.ceil"(%59) <{fastmath = #arith.fastmath<none>}> : (tensor<?x13xf16>) -> tensor<?x13xf16>
        %239 = "index.ceildivs"(%22, %98) : (index, index) -> index
        %240 = "arith.remui"(%126, %12) : (i1, i1) -> i1
        %241 = "arith.addf"(%86, %86) <{fastmath = #arith.fastmath<none>}> : (f32, f32) -> f32
        %242 = "memref.alloc"() <{operandSegmentSizes = array<i32: 0, 0>}> : () -> memref<13x17xf16>
        %243 = "tensor.empty"(%32) : (index) -> tensor<?x17xf16>
        %244 = "linalg.matmul"(%59, %242, %243) <{operandSegmentSizes = array<i32: 2, 1>}> ({
        ^bb0(%arg2: f16, %arg3: f16, %arg4: f16):
          %257 = "arith.mulf"(%arg2, %arg3) <{fastmath = #arith.fastmath<none>}> : (f16, f16) -> f16
          %258 = "arith.addf"(%arg4, %257) <{fastmath = #arith.fastmath<none>}> : (f16, f16) -> f16
          "linalg.yield"(%258) : (f16) -> ()
        }) {linalg.memoized_indexing_maps = [affine_map<(d0, d1, d2) -> (d0, d2)>, affine_map<(d0, d1, d2) -> (d2, d1)>, affine_map<(d0, d1, d2) -> (d0, d1)>]} : (tensor<?x13xf16>, memref<13x17xf16>, tensor<?x17xf16>) -> tensor<?x17xf16>
        %245 = "arith.subi"(%104, %12) : (i1, i1) -> i1
        %246 = "tensor.from_elements"(%118, %144, %109, %144, %8, %118, %150, %109, %109, %118, %11, %8, %109, %150, %144, %109, %150, %144, %150, %144, %144, %8, %118, %11, %8, %118, %150, %8, %8, %11, %8, %8, %144, %109, %109, %11, %11, %11, %144, %150, %118, %109, %150, %118, %109, %109, %109, %118, %11, %144, %109, %11, %8, %109, %109, %150, %118, %8, %150, %8, %8, %11, %118, %11, %8, %150, %109, %11, %109, %150, %118, %109, %118, %118, %11, %8, %109, %109, %144, %144, %109, %109, %118, %8, %11, %109, %150, %144, %118, %150, %150, %109, %109, %109, %11, %8, %109, %150, %8, %11, %150, %8, %8, %150, %8, %109, %11, %144, %8, %144, %150, %109, %150, %8, %8, %8, %11, %8, %150, %8, %150, %109, %8, %11, %118, %11, %8, %144, %8, %109, %8, %8, %11, %144, %150, %144, %118, %109, %150, %144, %11, %11, %11, %109, %144, %8, %118, %150, %11, %11, %150, %150, %150, %144, %109, %11, %11, %11, %11, %8, %8, %11, %150, %11, %118, %144, %11, %150, %118) : (f16, f16, f16, f16, f16, f16, f16, f16, f16, f16, f16, f16, f16, f16, f16, f16, f16, f16, f16, f16, f16, f16, f16, f16, f16, f16, f16, f16, f16, f16, f16, f16, f16, f16, f16, f16, f16, f16, f16, f16, f16, f16, f16, f16, f16, f16, f16, f16, f16, f16, f16, f16, f16, f16, f16, f16, f16, f16, f16, f16, f16, f16, f16, f16, f16, f16, f16, f16, f16, f16, f16, f16, f16, f16, f16, f16, f16, f16, f16, f16, f16, f16, f16, f16, f16, f16, f16, f16, f16, f16, f16, f16, f16, f16, f16, f16, f16, f16, f16, f16, f16, f16, f16, f16, f16, f16, f16, f16, f16, f16, f16, f16, f16, f16, f16, f16, f16, f16, f16, f16, f16, f16, f16, f16, f16, f16, f16, f16, f16, f16, f16, f16, f16, f16, f16, f16, f16, f16, f16, f16, f16, f16, f16, f16, f16, f16, f16, f16, f16, f16, f16, f16, f16, f16, f16, f16, f16, f16, f16, f16, f16, f16, f16, f16, f16, f16, f16, f16, f16) -> tensor<13x13xf16>
        %247 = "bufferization.clone"(%79) : (memref<13x13xf32>) -> memref<13x13xf32>
        %248 = "memref.alloca"() <{operandSegmentSizes = array<i32: 0, 0>}> : () -> memref<13x13xi64>
        %249 = "index.castu"(%20) : (index) -> i32
        %250 = "math.roundeven"(%91) <{fastmath = #arith.fastmath<none>}> : (f32) -> f32
        %251 = "math.exp"(%54) <{fastmath = #arith.fastmath<none>}> : (tensor<?xf16>) -> tensor<?xf16>
        %252 = "vector.broadcast"(%150) : (f16) -> vector<17xf16>
        %253 = "vector.broadcast"(%127) : (i1) -> vector<17xi1>
        "vector.compressstore"(%64, %16, %253, %252) : (memref<?xf16>, index, vector<17xi1>, vector<17xf16>) -> ()
        %254 = "tensor.empty"() : () -> tensor<13xi1>
        %255 = "linalg.broadcast"(%107, %254) <{dimensions = array<i64: 0>}> ({
        ^bb0(%arg2: i1, %arg3: i1):
          "linalg.yield"(%arg2) : (i1) -> ()
        }) : (tensor<i1>, tensor<13xi1>) -> tensor<13xi1>
        %256 = "tensor.empty"(%24) : (index) -> tensor<?x27x13xi1>
        "scf.yield"(%256) : (tensor<?x27x13xi1>) -> ()
      }) : (tensor<?x27x13xi1>) -> tensor<?x27x13xi1>
      %228 = "arith.divsi"(%128, %104) : (i1, i1) -> i1
      %229 = "math.tan"(%150) <{fastmath = #arith.fastmath<none>}> : (f16) -> f16
      %230 = "arith.divf"(%150, %11) <{fastmath = #arith.fastmath<none>}> : (f16, f16) -> f16
      %231 = "math.round"(%15) <{fastmath = #arith.fastmath<none>}> : (f32) -> f32
      %232 = "index.shru"(%16, %17) : (index, index) -> index
      %233 = "index.maxs"(%43, %31) : (index, index) -> index
      %234 = "memref.load"(%75, %16, %20) <{nontemporal = false}> : (memref<?x13xi32>, index, index) -> i32
      %235 = "arith.subi"(%104, %142) : (i1, i1) -> i1
      "scf.yield"() : () -> ()
    }, {
      %219 = "math.absi"(%51) : (tensor<?xi64>) -> tensor<?xi64>
      %220 = "tensor.insert"(%13, %56, %16, %16, %22) : (i16, tensor<?x?x13xi16>, index, index, index) -> tensor<?x?x13xi16>
      "vector.print"(%152) <{punctuation = #vector.punctuation<newline>}> : (vector<25xi16>) -> ()
      %221 = "index.mul"(%35, %22) : (index, index) -> index
      %222 = "math.atan2"(%150, %8) <{fastmath = #arith.fastmath<none>}> : (f16, f16) -> f16
      %223 = "index.sizeof"() : () -> index
      %224 = "index.add"(%22, %40) : (index, index) -> index
      %225 = "vector.broadcast"(%5) : (i64) -> vector<i64>
      "vector.transfer_write"(%225, %arg0, %37, %19) <{operandSegmentSizes = array<i32: 1, 1, 2, 0>, permutation_map = affine_map<(d0, d1) -> ()>}> : (vector<i64>, memref<?x?xi64>, index, index) -> ()
      %226 = "math.absf"(%59) <{fastmath = #arith.fastmath<none>}> : (tensor<?x13xf16>) -> tensor<?x13xf16>
      %227 = "arith.ori"(%120, %14) : (i32, i32) -> i32
      %228 = "arith.minsi"(%104, %12) : (i1, i1) -> i1
      %229 = "math.ctpop"(%137) : (tensor<27xi16>) -> tensor<27xi16>
      %230 = "affine.parallel"() <{lowerBoundsGroups = dense<1> : tensor<2xi32>, lowerBoundsMap = affine_map<() -> (0, 0)>, reductions = [4], steps = [1, 1], upperBoundsGroups = dense<1> : tensor<2xi32>, upperBoundsMap = affine_map<() -> (17, 13)>}> ({
      ^bb0(%arg1: index, %arg2: index):
        %234 = "vector.broadcast"(%142) : (i1) -> vector<2xi1>
        "vector.compressstore"(%230, %26, %17, %234, %93) : (memref<17x13xi32>, index, index, vector<2xi1>, vector<2xi32>) -> ()
        "affine.yield"(%116) : (i32) -> ()
      }) : () -> memref<17x13xi32>
      %231 = "affine.for"(%21) <{lowerBoundMap = affine_map<() -> (0)>, operandSegmentSizes = array<i32: 0, 0, 1>, step = 1 : index, upperBoundMap = affine_map<() -> (87)>}> ({
      ^bb0(%arg1: index, %arg2: index):
        "affine.yield"(%21) : (index) -> ()
      }) : (index) -> index
      %232 = "math.rsqrt"(%50) <{fastmath = #arith.fastmath<none>}> : (tensor<?xf32>) -> tensor<?xf32>
      %233 = "vector.reduction"(%152) <{fastmath = #arith.fastmath<none>, kind = #vector.kind<minsi>}> : (vector<25xi16>) -> i16
      "scf.yield"() : () -> ()
    }) : (index) -> ()
    %164 = "spirv.CL.fabs"(%91) : (f32) -> f32
    %165 = "tensor.rank"(%151) : (tensor<13x13xi16>) -> index
    %166 = "spirv.GL.SMin"(%93, %93) : (vector<2xi32>, vector<2xi32>) -> vector<2xi32>
    %167 = "spirv.GL.Tan"(%109) : (f16) -> f16
    %168 = "spirv.BitwiseXor"(%93, %93) : (vector<2xi32>, vector<2xi32>) -> vector<2xi32>
    %169 = "spirv.GL.Fma"(%11, %8, %144) : (f16, f16, f16) -> f16
    %170 = "index.add"(%46, %27) : (index, index) -> index
    %171 = "vector.load"(%67, %16, %16, %18) : (memref<?x?x13xi16>, index, index, index) -> vector<13x13xi16>
    %172 = "spirv.GL.Cosh"(%100) : (f32) -> f32
    %173 = "spirv.BitFieldSExtract"(%93, %13, %4) : (vector<2xi32>, i16, i32) -> vector<2xi32>
    %174 = "arith.addi"(%126, %104) : (i1, i1) -> i1
    %175 = "spirv.GL.Cosh"(%15) : (f32) -> f32
    %176 = "spirv.GL.SClamp"(%14, %116, %120) : (i32, i32, i32) -> i32
    %177 = "affine.max"(%24, %31, %146, %40) <{map = affine_map<(d0, d1, d2, d3) -> (d1 + 16)>}> : (index, index, index, index) -> index
    %178 = "index.castu"(%111) : (i64) -> index
    %179 = "scf.if"(%104) ({
      %219 = "arith.cmpi"(%127, %142) <{predicate = 4 : i64}> : (i1, i1) -> i1
      %220 = "math.roundeven"(%50) <{fastmath = #arith.fastmath<none>}> : (tensor<?xf32>) -> tensor<?xf32>
      %221 = "vector.extract"(%152) <{static_position = array<i64: 14>}> : (vector<25xi16>) -> i16
      %222 = "vector.transpose"(%156) <{transp = [0]}> : (vector<5xi16>) -> vector<5xi16>
      %223 = "math.copysign"(%122, %100) <{fastmath = #arith.fastmath<none>}> : (f32, f32) -> f32
      "affine.for"() <{lowerBoundMap = affine_map<() -> (0)>, operandSegmentSizes = array<i32: 0, 0, 0>, step = 1 : index, upperBoundMap = affine_map<() -> (63)>}> ({
      ^bb0(%arg1: index):
        "affine.yield"() : () -> ()
      }) : () -> ()
      %224 = "math.tanh"(%144) <{fastmath = #arith.fastmath<none>}> : (f16) -> f16
      %225 = "math.exp"(%15) <{fastmath = #arith.fastmath<none>}> : (f32) -> f32
      "scf.yield"(%7) : (i16) -> ()
    }, {
      %219 = "affine.if"(%41) ({
        %227 = "memref.alloc"(%38) <{operandSegmentSizes = array<i32: 1, 0>}> : (index) -> memref<13x?x27xi1>
        "linalg.transpose"(%60, %227) <{permutation = array<i64: 2, 0, 1>}> ({
        ^bb0(%arg1: i1, %arg2: i1):
          "linalg.yield"(%arg1) : (i1) -> ()
        }) : (tensor<?x27x13xi1>, memref<13x?x27xi1>) -> ()
        %228 = "index.shru"(%170, %18) : (index, index) -> index
        %229 = "arith.muli"(%7, %7) : (i16, i16) -> i16
        %230 = "arith.divui"(%104, %142) : (i1, i1) -> i1
        %231 = "arith.remsi"(%176, %4) : (i32, i32) -> i32
        %232 = "affine.load"(%78, %30, %16, %44) <{map = affine_map<(d0, d1, d2) -> (d0, d1, d2)>}> : (memref<13x27x13xf32>, index, index, index) -> f32
        %233 = "tensor.rank"(%59) : (tensor<?x13xf16>) -> index
        %234 = "math.absf"(%100) <{fastmath = #arith.fastmath<none>}> : (f32) -> f32
        "affine.yield"(%7) : (i16) -> ()
      }, {
        %227 = "tensor.dim"(%56, %17) : (tensor<?x?x13xi16>, index) -> index
        %228 = "arith.ori"(%176, %14) : (i32, i32) -> i32
        %229 = "bufferization.clone"(%78) : (memref<13x27x13xf32>) -> memref<13x27x13xf32>
        %230 = "vector.multi_reduction"(%160, %160) <{kind = #vector.kind<minf>, reduction_dims = []}> : (vector<13x13xf16>, vector<13x13xf16>) -> vector<13x13xf16>
        %231 = "affine.apply"(%22, %36) <{map = affine_map<(d0)[s0] -> (-(d0 floordiv 2))>}> : (index, index) -> index
        %232 = "arith.minsi"(%176, %14) : (i32, i32) -> i32
        %233 = "vector.matrix_multiply"(%155, %155) <{lhs_columns = 25 : i32, lhs_rows = 1 : i32, rhs_columns = 1 : i32}> : (vector<25xi16>, vector<25xi16>) -> vector<1xi16>
        %234 = "index.maxu"(%16, %39) : (index, index) -> index
        "affine.yield"(%13) : (i16) -> ()
      }) {condition = affine_set<(d0) : (d0 * 32 >= 0, d0 == 0)>} : (index) -> i16
      %220 = "memref.atomic_rmw"(%91, %71, %16) <{kind = 0 : i64}> : (f32, memref<?xf32>, index) -> f32
      %221 = "vector.load"(%75, %16, %17) : (memref<?x13xi32>, index, index) -> vector<13x13xi32>
      %222 = "math.powf"(%1, %86) <{fastmath = #arith.fastmath<none>}> : (f32, f32) -> f32
      %223 = "vector.shuffle"(%153, %153) <{mask = [4, 5, 7, 10, 11, 12, 13, 14, 15, 19, 20, 26, 28, 29, 30, 36, 39, 43, 49]}> : (vector<25xi1>, vector<25xi1>) -> vector<19xi1>
      %224 = "vector.reduction"(%155) <{fastmath = #arith.fastmath<none>, kind = #vector.kind<maxui>}> : (vector<25xi16>) -> i16
      %225 = "vector.create_mask"(%45) : (index) -> vector<27xi1>
      %226 = "index.ceildivs"(%31, %37) : (index, index) -> index
      "scf.yield"(%7) : (i16) -> ()
    }) : (i1) -> i16
    %180 = "spirv.FOrdEqual"(%82, %130) : (f32, f32) -> i1
    %181 = "spirv.IEqual"(%14, %4) : (i32, i32) -> i1
    %182 = "tensor.cast"(%59) : (tensor<?x13xf16>) -> tensor<27x13xf16>
    %183 = "arith.addi"(%104, %143) : (i1, i1) -> i1
    %184 = "spirv.GL.Log"(%164) : (f32) -> f32
    %185 = "linalg.copy"(%54, %108) <{operandSegmentSizes = array<i32: 1, 1>}> ({
    ^bb0(%arg1: f16, %arg2: f16):
      "linalg.yield"(%arg1) : (f16) -> ()
    }) : (tensor<?xf16>, tensor<?xf16>) -> tensor<?xf16>
    %186 = "tensor.generate"(%29, %146) ({
    ^bb0(%arg1: index, %arg2: index):
      %219 = "tensor.generate"(%19, %32) ({
      ^bb0(%arg3: index, %arg4: index):
        %223 = "math.ctlz"(%63) : (tensor<?xi64>) -> tensor<?xi64>
        %224 = "vector.broadcast"(%128) : (i1) -> vector<25xi1>
        %225 = "affine.apply"(%32, %21) <{map = affine_map<(d0)[s0] -> (-(d0 floordiv 2))>}> : (index, index) -> index
        %226 = "vector.broadcast"(%111) : (i64) -> vector<27xi64>
        "tensor.yield"(%91) : (f32) -> ()
      }) : (index, index) -> tensor<?x?xf32>
      %220 = "arith.minsi"(%112, %181) : (i1, i1) -> i1
      %221 = "math.round"(%55) <{fastmath = #arith.fastmath<none>}> : (tensor<27xf32>) -> tensor<27xf32>
      %222 = "index.and"(%44, %129) : (index, index) -> index
      "tensor.yield"(%142) : (i1) -> ()
    }) : (index, index) -> tensor<?x?xi1>
    %187 = "memref.atomic_rmw"(%15, %79, %19, %21) <{kind = 9 : i64}> : (f32, memref<13x13xf32>, index, index) -> f32
    %188 = "spirv.GL.SMin"(%120, %14) : (i32, i32) -> i32
    %189 = "spirv.CL.log"(%11) : (f16) -> f16
    %190 = "index.sizeof"() : () -> index
    %191 = "arith.cmpi"(%143, %112) <{predicate = 8 : i64}> : (i1, i1) -> i1
    %192 = "arith.addi"(%9, %13) : (i16, i16) -> i16
    %193 = "arith.remui"(%83, %116) : (i32, i32) -> i32
    %194 = "spirv.CL.floor"(%11) : (f16) -> f16
    %195 = "math.cttz"(%57) : (tensor<13x13xi1>) -> tensor<13x13xi1>
    %196 = "spirv.SLessThanEqual"(%2, %2) : (i64, i64) -> i1
    %197 = "arith.divf"(%86, %184) <{fastmath = #arith.fastmath<none>}> : (f32, f32) -> f32
    "vector.print"(%139) <{punctuation = #vector.punctuation<newline>}> : (vector<13x13xi1>) -> ()
    %198 = "spirv.FUnordGreaterThanEqual"(%172, %122) : (f32, f32) -> i1
    %199 = "spirv.GL.Sqrt"(%122) : (f32) -> f32
    %200 = "vector.extract"(%141) <{static_position = array<i64: 3>}> : (vector<13x13xi16>) -> vector<13xi16>
    %201 = "spirv.GL.SMin"(%93, %93) : (vector<2xi32>, vector<2xi32>) -> vector<2xi32>
    %202 = "vector.bitcast"(%171) : (vector<13x13xi16>) -> vector<13x13xi16>
    %203 = "spirv.GL.FMin"(%15, %164) : (f32, f32) -> f32
    %204 = "arith.addi"(%120, %120) : (i32, i32) -> i32
    %205 = "math.fma"(%150, %8, %118) <{fastmath = #arith.fastmath<none>}> : (f16, f16, f16) -> f16
    %206 = "memref.atomic_rmw"(%13, %76, %25, %28) <{kind = 4 : i64}> : (i16, memref<13x13xi16>, index, index) -> i16
    %207 = "spirv.CL.s_max"(%116, %188) : (i32, i32) -> i32
    %208 = "spirv.CL.rsqrt"(%150) : (f16) -> f16
    %209 = "math.absf"(%82) <{fastmath = #arith.fastmath<none>}> : (f32) -> f32
    %210 = "bufferization.clone"(%72) : (memref<13x27x13xi32>) -> memref<13x27x13xi32>
    %211 = "spirv.GL.SMin"(%14, %207) : (i32, i32) -> i32
    %212 = "math.atan2"(%184, %199) <{fastmath = #arith.fastmath<none>}> : (f32, f32) -> f32
    %213 = "math.atan"(%144) <{fastmath = #arith.fastmath<none>}> : (f16) -> f16
    %214 = "spirv.CL.erf"(%86) : (f32) -> f32
    %215 = "affine.if"(%39) ({
      %219 = "index.ceildivs"(%27, %46) : (index, index) -> index
      %220 = "arith.remui"(%4, %188) : (i32, i32) -> i32
      %221 = "tensor.empty"(%129) : (index) -> tensor<?x25xi16>
      %222 = "memref.alloc"(%35) <{operandSegmentSizes = array<i32: 1, 0>}> : (index) -> memref<?x25xi16>
      %223 = "linalg.generic"(%221, %222, %221) <{indexing_maps = [affine_map<(d0, d1) -> (d0, d1)>, affine_map<(d0, d1) -> (d0, d1)>, affine_map<(d0, d1) -> (d0, d1)>], iterator_types = [#linalg.iterator_type<parallel>, #linalg.iterator_type<parallel>], operandSegmentSizes = array<i32: 2, 1>}> ({
      ^bb0(%arg1: i16, %arg2: i16, %arg3: i16):
        %229 = "index.ceildivs"(%29, %20) : (index, index) -> index
        "linalg.yield"(%13) : (i16) -> ()
      }) : (tensor<?x25xi16>, memref<?x25xi16>, tensor<?x25xi16>) -> tensor<?x25xi16>
      %224 = "tensor.expand_shape"(%105) <{reassociation = [[0, 1]]}> : (tensor<27xi1>) -> tensor<27x1xi1>
      %225 = "arith.muli"(%104, %104) : (i1, i1) -> i1
      %226 = "math.tan"(%118) <{fastmath = #arith.fastmath<none>}> : (f16) -> f16
      %227 = "vector.extract_strided_slice"(%154) <{offsets = [23], sizes = [2], strides = [1]}> : (vector<25xi32>) -> vector<2xi32>
      %228 = "arith.remf"(%109, %194) <{fastmath = #arith.fastmath<none>}> : (f16, f16) -> f16
      "affine.yield"(%74) : (memref<13x13xi32>) -> ()
    }, {
      %219 = "arith.mulf"(%189, %11) <{fastmath = #arith.fastmath<none>}> : (f16, f16) -> f16
      %220 = "tensor.expand_shape"(%59) <{reassociation = [[0], [1, 2]]}> : (tensor<?x13xf16>) -> tensor<?x13x1xf16>
      %221 = "arith.ceildivsi"(%101, %14) : (i32, i32) -> i32
      %222 = "scf.while"(%57) ({
      ^bb0(%arg1: tensor<13x13xi1>):
        %226 = "vector.extract_strided_slice"(%155) <{offsets = [4], sizes = [20], strides = [1]}> : (vector<25xi16>) -> vector<20xi16>
        %227 = "math.absf"(%185) <{fastmath = #arith.fastmath<none>}> : (tensor<?xf16>) -> tensor<?xf16>
        %228 = "math.absi"(%13) : (i16) -> i16
        %229 = "bufferization.to_tensor"(%68) : (memref<13x13xi16>) -> tensor<13x13xi16>
        %230 = "vector.splat"(%27) : (index) -> vector<13x13xindex>
        %231 = "memref.realloc"(%70) : (memref<27xi1>) -> memref<27xi1>
        %232 = "arith.divf"(%203, %82) <{fastmath = #arith.fastmath<none>}> : (f32, f32) -> f32
        "vector.print"(%153) <{punctuation = #vector.punctuation<newline>}> : (vector<25xi1>) -> ()
        "scf.condition"(%143, %57) : (i1, tensor<13x13xi1>) -> ()
      }, {
      ^bb0(%arg1: tensor<13x13xi1>):
        %226 = "vector.broadcast"(%118) : (f16) -> vector<13xf16>
        %227:2 = "vector.scan"(%160, %226) <{inclusive = true, kind = #vector.kind<minf>, reduction_dim = 1 : i64}> : (vector<13x13xf16>, vector<13xf16>) -> (vector<13x13xf16>, vector<13xf16>)
        %228 = "vector.load"(%73, %18) : (memref<27xi32>, index) -> vector<27xi32>
        %229 = "arith.divsi"(%127, %85) : (i1, i1) -> i1
        %230 = "arith.shrsi"(%9, %179) : (i16, i16) -> i16
        %231 = "index.ceildivs"(%22, %22) : (index, index) -> index
        "vector.compressstore"(%75, %16, %19, %153, %154) : (memref<?x13xi32>, index, index, vector<25xi1>, vector<25xi32>) -> ()
        %232 = "memref.alloca"() <{operandSegmentSizes = array<i32: 0, 0>}> : () -> memref<27xi32>
        %233 = "vector.transpose"(%200) <{transp = [0]}> : (vector<13xi16>) -> vector<13xi16>
        %234 = "tensor.empty"() : () -> tensor<169xi64>
        %235 = "tensor.unpack"(%48, %234, %29) <{inner_dims_pos = array<i64: 0>, outer_dims_perm = array<i64: 0>, static_inner_tiles = array<i64: -9223372036854775808>}> : (tensor<13x13xi64>, tensor<169xi64>, index) -> tensor<169xi64>
        %236 = "tensor.empty"(%27) : (index) -> tensor<?xi16>
        %237 = "bufferization.clone"(%73) : (memref<27xi32>) -> memref<27xi32>
        %238 = "math.floor"(%59) <{fastmath = #arith.fastmath<none>}> : (tensor<?x13xf16>) -> tensor<?x13xf16>
        %239 = "index.ceildivs"(%39, %31) : (index, index) -> index
        %240 = "linalg.matmul"(%80, %48, %62) <{operandSegmentSizes = array<i32: 2, 1>}> ({
        ^bb0(%arg2: i64, %arg3: i64, %arg4: i64):
          %243 = "arith.muli"(%arg2, %arg3) : (i64, i64) -> i64
          %244 = "arith.addi"(%arg4, %243) : (i64, i64) -> i64
          "linalg.yield"(%244) : (i64) -> ()
        }) : (tensor<?x13xi64>, tensor<13x13xi64>, tensor<?x13xi64>) -> tensor<?x13xi64>
        %241 = "index.ceildivu"(%31, %20) : (index, index) -> index
        %242 = "index.maxu"(%84, %20) : (index, index) -> index
        "scf.yield"(%57) : (tensor<13x13xi1>) -> ()
      }) : (tensor<13x13xi1>) -> tensor<13x13xi1>
      %223 = "arith.muli"(%142, %127) : (i1, i1) -> i1
      "affine.store"(%7, %67, %30, %38, %38) <{map = affine_map<(d0, d1, d2) -> (d0, d1, d2)>}> : (i16, memref<?x?x13xi16>, index, index, index) -> ()
      %224 = "math.powf"(%184, %10) <{fastmath = #arith.fastmath<none>}> : (f32, f32) -> f32
      %225 = "math.cos"(%220) <{fastmath = #arith.fastmath<none>}> : (tensor<?x13x1xf16>) -> tensor<?x13x1xf16>
      "affine.yield"(%74) : (memref<13x13xi32>) -> ()
    }) {condition = affine_set<(d0) : (d0 * 32 + 4 == 0, d0 * 32 >= 0)>} : (index) -> memref<13x13xi32>
    %216 = "tensor.empty"() : () -> tensor<13x27xf16>
    %217 = "linalg.transpose"(%182, %216) <{permutation = array<i64: 1, 0>}> ({
    ^bb0(%arg1: f16, %arg2: f16):
      "linalg.yield"(%arg1) : (f16) -> ()
    }) : (tensor<27x13xf16>, tensor<13x27xf16>) -> tensor<13x27xf16>
    %218 = "math.absf"(%55) <{fastmath = #arith.fastmath<none>}> : (tensor<27xf32>) -> tensor<27xf32>
    "vector.print"(%93) <{punctuation = #vector.punctuation<newline>}> : (vector<2xi32>) -> ()
    "vector.print"(%138) <{punctuation = #vector.punctuation<newline>}> : (vector<13x13xi16>) -> ()
    "vector.print"(%139) <{punctuation = #vector.punctuation<newline>}> : (vector<13x13xi1>) -> ()
    "vector.print"(%140) <{punctuation = #vector.punctuation<newline>}> : (vector<13x13xi32>) -> ()
    "vector.print"(%141) <{punctuation = #vector.punctuation<newline>}> : (vector<13x13xi16>) -> ()
    "vector.print"(%152) <{punctuation = #vector.punctuation<newline>}> : (vector<25xi16>) -> ()
    "vector.print"(%153) <{punctuation = #vector.punctuation<newline>}> : (vector<25xi1>) -> ()
    "vector.print"(%154) <{punctuation = #vector.punctuation<newline>}> : (vector<25xi32>) -> ()
    "vector.print"(%155) <{punctuation = #vector.punctuation<newline>}> : (vector<25xi16>) -> ()
    "vector.print"(%156) <{punctuation = #vector.punctuation<newline>}> : (vector<5xi16>) -> ()
    "vector.print"(%160) <{punctuation = #vector.punctuation<newline>}> : (vector<13x13xf16>) -> ()
    "vector.print"(%171) <{punctuation = #vector.punctuation<newline>}> : (vector<13x13xi16>) -> ()
    "vector.print"(%200) <{punctuation = #vector.punctuation<newline>}> : (vector<13xi16>) -> ()
    "vector.print"(%202) <{punctuation = #vector.punctuation<newline>}> : (vector<13x13xi16>) -> ()
    "vector.print"(%0) <{punctuation = #vector.punctuation<newline>}> : (i64) -> ()
    "vector.print"(%1) <{punctuation = #vector.punctuation<newline>}> : (f32) -> ()
    "vector.print"(%2) <{punctuation = #vector.punctuation<newline>}> : (i64) -> ()
    "vector.print"(%3) <{punctuation = #vector.punctuation<newline>}> : (i1) -> ()
    "vector.print"(%4) <{punctuation = #vector.punctuation<newline>}> : (i32) -> ()
    "vector.print"(%5) <{punctuation = #vector.punctuation<newline>}> : (i64) -> ()
    "vector.print"(%6) <{punctuation = #vector.punctuation<newline>}> : (f32) -> ()
    "vector.print"(%7) <{punctuation = #vector.punctuation<newline>}> : (i16) -> ()
    "vector.print"(%8) <{punctuation = #vector.punctuation<newline>}> : (f16) -> ()
    "vector.print"(%9) <{punctuation = #vector.punctuation<newline>}> : (i16) -> ()
    "vector.print"(%10) <{punctuation = #vector.punctuation<newline>}> : (f32) -> ()
    "vector.print"(%11) <{punctuation = #vector.punctuation<newline>}> : (f16) -> ()
    "vector.print"(%12) <{punctuation = #vector.punctuation<newline>}> : (i1) -> ()
    "vector.print"(%13) <{punctuation = #vector.punctuation<newline>}> : (i16) -> ()
    "vector.print"(%14) <{punctuation = #vector.punctuation<newline>}> : (i32) -> ()
    "vector.print"(%15) <{punctuation = #vector.punctuation<newline>}> : (f32) -> ()
    "vector.print"(%82) <{punctuation = #vector.punctuation<newline>}> : (f32) -> ()
    "vector.print"(%83) <{punctuation = #vector.punctuation<newline>}> : (i32) -> ()
    "vector.print"(%85) <{punctuation = #vector.punctuation<newline>}> : (i1) -> ()
    "vector.print"(%86) <{punctuation = #vector.punctuation<newline>}> : (f32) -> ()
    "vector.print"(%87) <{punctuation = #vector.punctuation<newline>}> : (i1) -> ()
    "vector.print"(%91) <{punctuation = #vector.punctuation<newline>}> : (f32) -> ()
    "vector.print"(%100) <{punctuation = #vector.punctuation<newline>}> : (f32) -> ()
    "vector.print"(%101) <{punctuation = #vector.punctuation<newline>}> : (i32) -> ()
    "vector.print"(%104) <{punctuation = #vector.punctuation<newline>}> : (i1) -> ()
    "vector.print"(%109) <{punctuation = #vector.punctuation<newline>}> : (f16) -> ()
    "vector.print"(%111) <{punctuation = #vector.punctuation<newline>}> : (i64) -> ()
    "vector.print"(%112) <{punctuation = #vector.punctuation<newline>}> : (i1) -> ()
    "vector.print"(%116) <{punctuation = #vector.punctuation<newline>}> : (i32) -> ()
    "vector.print"(%118) <{punctuation = #vector.punctuation<newline>}> : (f16) -> ()
    "vector.print"(%120) <{punctuation = #vector.punctuation<newline>}> : (i32) -> ()
    "vector.print"(%122) <{punctuation = #vector.punctuation<newline>}> : (f32) -> ()
    "vector.print"(%126) <{punctuation = #vector.punctuation<newline>}> : (i1) -> ()
    "vector.print"(%127) <{punctuation = #vector.punctuation<newline>}> : (i1) -> ()
    "vector.print"(%128) <{punctuation = #vector.punctuation<newline>}> : (i1) -> ()
    "vector.print"(%130) <{punctuation = #vector.punctuation<newline>}> : (f32) -> ()
    "vector.print"(%142) <{punctuation = #vector.punctuation<newline>}> : (i1) -> ()
    "vector.print"(%143) <{punctuation = #vector.punctuation<newline>}> : (i1) -> ()
    "vector.print"(%144) <{punctuation = #vector.punctuation<newline>}> : (f16) -> ()
    "vector.print"(%150) <{punctuation = #vector.punctuation<newline>}> : (f16) -> ()
    "vector.print"(%161) <{punctuation = #vector.punctuation<newline>}> : (f32) -> ()
    "vector.print"(%164) <{punctuation = #vector.punctuation<newline>}> : (f32) -> ()
    "vector.print"(%167) <{punctuation = #vector.punctuation<newline>}> : (f16) -> ()
    "vector.print"(%169) <{punctuation = #vector.punctuation<newline>}> : (f16) -> ()
    "vector.print"(%172) <{punctuation = #vector.punctuation<newline>}> : (f32) -> ()
    "vector.print"(%175) <{punctuation = #vector.punctuation<newline>}> : (f32) -> ()
    "vector.print"(%176) <{punctuation = #vector.punctuation<newline>}> : (i32) -> ()
    "vector.print"(%179) <{punctuation = #vector.punctuation<newline>}> : (i16) -> ()
    "vector.print"(%180) <{punctuation = #vector.punctuation<newline>}> : (i1) -> ()
    "vector.print"(%181) <{punctuation = #vector.punctuation<newline>}> : (i1) -> ()
    "vector.print"(%184) <{punctuation = #vector.punctuation<newline>}> : (f32) -> ()
    "vector.print"(%188) <{punctuation = #vector.punctuation<newline>}> : (i32) -> ()
    "vector.print"(%189) <{punctuation = #vector.punctuation<newline>}> : (f16) -> ()
    "vector.print"(%194) <{punctuation = #vector.punctuation<newline>}> : (f16) -> ()
    "vector.print"(%196) <{punctuation = #vector.punctuation<newline>}> : (i1) -> ()
    "vector.print"(%198) <{punctuation = #vector.punctuation<newline>}> : (i1) -> ()
    "vector.print"(%199) <{punctuation = #vector.punctuation<newline>}> : (f32) -> ()
    "vector.print"(%203) <{punctuation = #vector.punctuation<newline>}> : (f32) -> ()
    "vector.print"(%207) <{punctuation = #vector.punctuation<newline>}> : (i32) -> ()
    "vector.print"(%208) <{punctuation = #vector.punctuation<newline>}> : (f16) -> ()
    "vector.print"(%211) <{punctuation = #vector.punctuation<newline>}> : (i32) -> ()
    "vector.print"(%214) <{punctuation = #vector.punctuation<newline>}> : (f32) -> ()
    "func.return"(%43) : (index) -> ()
  }) : () -> ()
  "func.func"() <{function_type = (i32) -> vector<13x13xf32>, sym_name = "func2"}> ({
  ^bb0(%arg0: i32):
    %0 = "arith.constant"() <{value = 522805532 : i64}> : () -> i64
    %1 = "arith.constant"() <{value = 1.01992582E+9 : f32}> : () -> f32
    %2 = "arith.constant"() <{value = 422120461 : i64}> : () -> i64
    %3 = "arith.constant"() <{value = true}> : () -> i1
    %4 = "arith.constant"() <{value = 1068799538 : i32}> : () -> i32
    %5 = "arith.constant"() <{value = 1187600732 : i64}> : () -> i64
    %6 = "arith.constant"() <{value = 1.74340723E+9 : f32}> : () -> f32
    %7 = "arith.constant"() <{value = 26057 : i16}> : () -> i16
    %8 = "arith.constant"() <{value = 1.400000e+04 : f16}> : () -> f16
    %9 = "arith.constant"() <{value = 20183 : i16}> : () -> i16
    %10 = "arith.constant"() <{value = 0x4DC9F4BD : f32}> : () -> f32
    %11 = "arith.constant"() <{value = 5.043200e+04 : f16}> : () -> f16
    %12 = "arith.constant"() <{value = false}> : () -> i1
    %13 = "arith.constant"() <{value = 24280 : i16}> : () -> i16
    %14 = "arith.constant"() <{value = 272050492 : i32}> : () -> i32
    %15 = "arith.constant"() <{value = 1.4451241E+9 : f32}> : () -> f32
    %16 = "arith.constant"() <{value = 0 : index}> : () -> index
    %17 = "arith.constant"() <{value = 1 : index}> : () -> index
    %18 = "arith.constant"() <{value = 2 : index}> : () -> index
    %19 = "arith.constant"() <{value = 3 : index}> : () -> index
    %20 = "arith.constant"() <{value = 4 : index}> : () -> index
    %21 = "arith.constant"() <{value = 5 : index}> : () -> index
    %22 = "arith.constant"() <{value = 6 : index}> : () -> index
    %23 = "arith.constant"() <{value = 7 : index}> : () -> index
    %24 = "arith.constant"() <{value = 8 : index}> : () -> index
    %25 = "arith.constant"() <{value = 9 : index}> : () -> index
    %26 = "arith.constant"() <{value = 10 : index}> : () -> index
    %27 = "arith.constant"() <{value = 11 : index}> : () -> index
    %28 = "arith.constant"() <{value = 12 : index}> : () -> index
    %29 = "arith.constant"() <{value = 13 : index}> : () -> index
    %30 = "arith.constant"() <{value = 14 : index}> : () -> index
    %31 = "arith.constant"() <{value = 15 : index}> : () -> index
    %32 = "arith.constant"() <{value = 16 : index}> : () -> index
    %33 = "arith.constant"() <{value = 17 : index}> : () -> index
    %34 = "arith.constant"() <{value = 18 : index}> : () -> index
    %35 = "arith.constant"() <{value = 19 : index}> : () -> index
    %36 = "arith.constant"() <{value = 20 : index}> : () -> index
    %37 = "arith.constant"() <{value = 21 : index}> : () -> index
    %38 = "arith.constant"() <{value = 22 : index}> : () -> index
    %39 = "arith.constant"() <{value = 23 : index}> : () -> index
    %40 = "arith.constant"() <{value = 24 : index}> : () -> index
    %41 = "arith.constant"() <{value = 25 : index}> : () -> index
    %42 = "arith.constant"() <{value = 26 : index}> : () -> index
    %43 = "arith.constant"() <{value = 27 : index}> : () -> index
    %44 = "arith.constant"() <{value = 28 : index}> : () -> index
    %45 = "arith.constant"() <{value = 29 : index}> : () -> index
    %46 = "arith.constant"() <{value = 30 : index}> : () -> index
    %47 = "arith.constant"() <{value = 31 : index}> : () -> index
    %48 = "tensor.empty"() : () -> tensor<13x13xi64>
    %49 = "tensor.empty"() : () -> tensor<25xi1>
    %50 = "tensor.empty"(%26) : (index) -> tensor<?xf32>
    %51 = "tensor.empty"(%38) : (index) -> tensor<?xi64>
    %52 = "tensor.empty"() : () -> tensor<13x13xf32>
    %53 = "tensor.empty"() : () -> tensor<13x27x13xi32>
    %54 = "tensor.empty"(%28) : (index) -> tensor<?xf16>
    %55 = "tensor.empty"() : () -> tensor<27xf32>
    %56 = "tensor.empty"(%25, %19) : (index, index) -> tensor<?x?x13xi16>
    %57 = "tensor.empty"() : () -> tensor<13x13xi1>
    %58 = "tensor.empty"() : () -> tensor<13x27x13xi32>
    %59 = "tensor.empty"(%16) : (index) -> tensor<?x13xf16>
    %60 = "tensor.empty"(%45) : (index) -> tensor<?x27x13xi1>
    %61 = "tensor.empty"(%44) : (index) -> tensor<?x13xi1>
    %62 = "tensor.empty"(%21) : (index) -> tensor<?x13xi64>
    %63 = "tensor.empty"(%22) : (index) -> tensor<?xi64>
    %64 = "memref.alloc"(%39) <{operandSegmentSizes = array<i32: 1, 0>}> : (index) -> memref<?xf16>
    %65 = "memref.alloc"(%38) <{operandSegmentSizes = array<i32: 1, 0>}> : (index) -> memref<?x27x13xf16>
    %66 = "memref.alloc"() <{operandSegmentSizes = array<i32: 0, 0>}> : () -> memref<27xf32>
    %67 = "memref.alloc"(%24, %21) <{operandSegmentSizes = array<i32: 2, 0>}> : (index, index) -> memref<?x?x13xi16>
    %68 = "memref.alloc"() <{operandSegmentSizes = array<i32: 0, 0>}> : () -> memref<13x13xi16>
    %69 = "memref.alloc"() <{operandSegmentSizes = array<i32: 0, 0>}> : () -> memref<13x27x13xf16>
    %70 = "memref.alloc"() <{operandSegmentSizes = array<i32: 0, 0>}> : () -> memref<27xi1>
    %71 = "memref.alloc"(%28) <{operandSegmentSizes = array<i32: 1, 0>}> : (index) -> memref<?xf32>
    %72 = "memref.alloc"() <{operandSegmentSizes = array<i32: 0, 0>}> : () -> memref<13x27x13xi32>
    %73 = "memref.alloc"() <{operandSegmentSizes = array<i32: 0, 0>}> : () -> memref<27xi32>
    %74 = "memref.alloc"() <{operandSegmentSizes = array<i32: 0, 0>}> : () -> memref<13x13xi32>
    %75 = "memref.alloc"(%42) <{operandSegmentSizes = array<i32: 1, 0>}> : (index) -> memref<?x13xi32>
    %76 = "memref.alloc"() <{operandSegmentSizes = array<i32: 0, 0>}> : () -> memref<13x13xi16>
    %77 = "memref.alloc"(%21) <{operandSegmentSizes = array<i32: 1, 0>}> : (index) -> memref<?xi64>
    %78 = "memref.alloc"() <{operandSegmentSizes = array<i32: 0, 0>}> : () -> memref<13x27x13xf32>
    %79 = "memref.alloc"() <{operandSegmentSizes = array<i32: 0, 0>}> : () -> memref<13x13xf32>
    %80 = "spirv.GL.Acos"(%6) : (f32) -> f32
    %81 = "arith.cmpi"(%2, %5) <{predicate = 0 : i64}> : (i64, i64) -> i1
    %82 = "spirv.GL.FClamp"(%11, %8, %8) : (f16, f16, f16) -> f16
    %83 = "spirv.CL.round"(%82) : (f16) -> f16
    %84 = "bufferization.clone"(%76) : (memref<13x13xi16>) -> memref<13x13xi16>
    %85 = "spirv.SLessThanEqual"(%arg0, %arg0) : (i32, i32) -> i1
    %86 = "spirv.GL.Cosh"(%11) : (f16) -> f16
    %87 = "arith.muli"(%85, %3) : (i1, i1) -> i1
    %88 = "vector.splat"(%83) : (f16) -> vector<27xf16>
    "affine.store"(%6, %78, %32, %22, %22) <{map = affine_map<(d0, d1, d2) -> (d0, d1, d2)>}> : (f32, memref<13x27x13xf32>, index, index, index) -> ()
    %89 = "spirv.FOrdGreaterThanEqual"(%10, %1) : (f32, f32) -> i1
    "memref.assume_alignment"(%76) <{alignment = 16 : i32}> : (memref<13x13xi16>) -> ()
    %90 = "scf.execute_region"() ({
      %214 = "math.roundeven"(%6) <{fastmath = #arith.fastmath<none>}> : (f32) -> f32
      %215 = "scf.execute_region"() ({
        %231 = "math.ceil"(%82) <{fastmath = #arith.fastmath<none>}> : (f16) -> f16
        %232 = "index.ceildivu"(%42, %41) : (index, index) -> index
        %233 = "vector.broadcast"(%1) : (f32) -> vector<13x13xf32>
        %234 = "vector.shuffle"(%233, %233) <{mask = [2, 5, 9, 14, 15, 18, 21]}> : (vector<13x13xf32>, vector<13x13xf32>) -> vector<7x13xf32>
        %235 = "math.log1p"(%80) <{fastmath = #arith.fastmath<none>}> : (f32) -> f32
        %236 = "index.shru"(%35, %36) : (index, index) -> index
        %237 = "math.cttz"(%51) : (tensor<?xi64>) -> tensor<?xi64>
        %238 = "arith.addi"(%7, %13) : (i16, i16) -> i16
        %239 = "math.roundeven"(%1) <{fastmath = #arith.fastmath<none>}> : (f32) -> f32
        %240 = "tensor.splat"(%86) : (f16) -> tensor<13x27x13xf16>
        %241 = "index.ceildivs"(%37, %37) : (index, index) -> index
        %242 = "tensor.from_elements"(%9, %9, %7, %9, %9, %9, %9, %9, %9, %9, %13, %13, %7, %13, %7, %9, %9, %7, %13, %9, %7, %9, %9, %9, %13, %13, %13, %7, %13, %9, %7, %7, %13, %9, %9, %7, %7, %7, %7, %9, %7, %13, %7, %9, %9, %13, %7, %13, %13, %7, %9, %13, %9, %7, %7, %13, %9, %7, %7, %13, %7, %9, %13, %9, %7, %7, %9, %7, %9, %13, %13, %9, %9, %13, %9, %9, %9, %9, %7, %9, %7, %9, %13, %13, %13, %9, %9, %9, %9, %13, %9, %7, %13, %13, %9, %7, %9, %7, %9, %13, %9, %9, %7, %9, %9, %7, %13, %9, %7, %13, %9, %9, %7, %7, %9, %7, %7, %13, %13, %13, %9, %9, %7, %9, %7, %13, %7, %9, %13, %7, %9, %9, %9, %7, %9, %13, %13, %7, %7, %13, %7, %9, %9, %9, %7, %7, %7, %9, %13, %7, %7, %7, %7, %9, %9, %13, %13, %7, %7, %13, %7, %13, %13, %13, %9, %9, %7, %7, %9, %13, %7, %7, %9, %7, %13, %7, %13, %7, %7, %7, %7, %13, %9, %7, %13, %13, %7, %7, %7, %9, %9, %9, %13, %7, %9, %9, %13, %13, %9, %9, %13, %7, %7, %9, %13, %7, %7, %7, %13, %9, %13, %13, %9, %13, %9, %13, %13, %7, %13, %9, %9, %9, %9, %7, %13, %13, %9, %9, %7, %7, %13, %9, %7, %7, %13, %9, %9, %9, %7, %13, %13, %7, %7, %7, %7, %7, %13, %13, %9, %13, %7, %9, %9, %7, %7, %9, %7, %7, %7, %7, %7, %7, %9, %7, %13, %7, %13, %13, %7, %7, %9, %7, %13, %7, %7, %9, %13, %9, %7, %13, %13, %13, %13, %7, %9, %13, %13, %7, %9, %7, %13, %7, %9, %9, %9, %13, %13, %7, %7, %9, %7, %9, %7, %7, %7, %7, %7, %9, %9, %9, %7, %7, %7, %13, %9, %7, %13, %13, %9, %7, %7, %9, %13, %7, %7, %7, %7, %7, %9, %7, %13, %7, %9, %7, %9, %7, %13, %13, %7, %9, %13, %13, %13, %9, %13, %9, %9, %9, %9, %7, %13, %13, %9, %13, %7, %13, %7, %7, %7, %9, %9, %13, %7, %7, %13, %9, %7, %7, %9, %9, %13, %13, %13, %7, %7, %13, %9, %13, %7, %13, %9, %13, %7, %9, %7, %7, %13, %7, %13, %9, %13, %9, %13, %9, %13, %13, %7, %7, %9, %13, %7, %13, %7, %7, %7, %13, %9, %7, %13, %9, %13, %7, %7, %7, %9, %9, %13, %9, %13, %9, %13, %13, %9, %13, %7, %9, %9, %13, %13, %13, %7, %13, %7, %9, %7, %7, %13, %9, %13, %7, %9, %9, %9, %13, %9, %9, %13, %7, %9, %13, %9, %7, %7, %13, %13, %13, %7, %9, %7, %13, %13, %9, %13, %13, %9, %13, %9, %9, %7, %7, %9, %7, %7, %13, %7, %7, %9, %7, %7, %9, %13, %13, %9, %9, %9, %9, %13, %7, %13, %13, %7, %13, %13, %13, %7, %9, %9, %13, %9, %7, %13, %13, %13, %7, %7, %13, %7, %7, %9, %7, %9, %7, %13, %13, %9, %13, %13, %7, %13, %7, %7, %9, %7, %13, %13, %9, %9, %13, %13, %7, %7, %9, %13, %13, %9, %7, %13, %13, %13, %13, %13, %9, %7, %13, %13, %7, %9, %13, %7, %7, %13, %7, %13, %9, %9, %7, %9, %13, %13, %13, %7, %7, %7, %9, %7, %13, %7, %13, %13, %7, %9, %7, %9, %7, %9, %7, %13, %7, %7, %9, %9, %13, %9, %7, %13, %13, %9, %9, %9, %9, %13, %9, %7, %7, %13, %9, %9, %13, %13, %13, %9, %13, %9, %9, %9, %9, %7, %7, %9, %13, %9, %7, %9, %9, %13, %7, %7, %13, %7, %7, %7, %13, %13, %9, %13, %9, %7, %13, %13, %9, %9, %13, %7, %13, %9, %13, %13, %13, %7, %7, %13, %7, %9, %9, %7, %13, %7, %7, %7, %7, %13, %7, %9, %9, %13, %7, %9, %7, %9, %13, %9, %7, %7, %7, %7, %7, %7, %9, %7, %7, %9, %7, %13, %7, %9, %13, %13, %13, %13, %9, %7, %13, %7, %13, %9, %9, %7, %7, %9, %7, %9, %7, %13, %9, %13, %9, %9, %7, %7, %13, %7, %13, %7, %7, %9, %7, %13, %13, %13, %13, %9, %13, %13, %13, %9, %9, %9, %7, %9, %9, %13, %7, %9, %9, %9, %7, %9, %9, %9, %7, %7, %13, %13, %7, %9, %7, %13, %9, %9, %9, %7, %7, %13, %7, %13, %9, %9, %7, %7, %7, %9, %9, %13, %9, %7, %7, %9, %7, %13, %13, %13, %13, %9, %7, %9, %13, %9, %7, %7, %9, %9, %7, %9, %9, %7, %13, %13, %7, %13, %13, %7, %7, %9, %7, %7, %13, %13, %9, %7, %9, %13, %9, %9, %9, %7, %13, %9, %13, %7, %9, %7, %13, %13, %9, %7, %9, %13, %9, %7, %9, %7, %7, %9, %7, %9, %9, %7, %13, %7, %13, %7, %13, %9, %13, %7, %13, %9, %9, %9, %7, %13, %9, %13, %7, %7, %7, %7, %9, %13, %9, %7, %13, %9, %9, %13, %13, %9, %13, %7, %7, %7, %13, %7, %7, %7, %9, %7, %7, %9, %13, %7, %9, %7, %13, %9, %13, %13, %7, %7, %13, %7, %9, %13, %13, %13, %13, %9, %9, %13, %13, %7, %13, %9, %9, %7, %13, %7, %13, %13, %13, %9, %7, %9, %7, %9, %7, %9, %7, %9, %9, %13, %13, %7, %7, %13, %7, %7, %13, %9, %7, %9, %13, %13, %13, %7, %7, %9, %7, %13, %13, %7, %9, %9, %7, %7, %13, %13, %9, %13, %13, %13, %9, %7, %13, %7, %7, %9, %9, %7, %9, %7, %7, %13, %13, %13, %7, %13, %7, %7, %7, %13, %7, %7, %13, %9, %9, %13, %13, %7, %7, %7, %7, %7, %13, %9, %7, %13, %13, %7, %9, %9, %13, %13, %9, %7, %9, %13, %7, %9, %9, %13, %13, %7, %13, %9, %7, %13, %7, %7, %7, %13, %9, %9, %7, %9, %7, %13, %9, %7, %13, %13, %13, %13, %7, %13, %13, %9, %7, %9, %13, %7, %9, %7, %7, %13, %13, %13, %7, %13, %9, %9, %7, %13, %9, %9, %7, %9, %7, %13, %13, %9, %7, %13, %7, %9, %7, %13, %9, %13, %9, %9, %9, %7, %9, %9, %7, %7, %9, %13, %7, %9, %9, %7, %13, %7, %9, %7, %13, %13, %13, %9, %9, %9, %9, %13, %7, %9, %7, %9, %9, %9, %7, %13, %7, %13, %7, %7, %7, %13, %7, %7, %9, %9, %7, %13, %7, %13, %7, %9, %9, %9, %7, %13, %13, %13, %7, %13, %7, %9, %9, %9, %13, %7, %7, %13, %9, %7, %13, %7, %13, %9, %9, %9, %9, %7, %9, %9, %9, %7, %13, %7, %9, %9, %9, %7, %7, %9, %9, %9, %9, %13, %13, %7, %9, %7, %9, %9, %7, %13, %7, %13, %13, %13, %9, %13, %13, %7, %9, %7, %9, %13, %13, %9, %13, %7, %13, %7, %7, %9, %13, %9, %9, %13, %7, %13, %13, %7, %13, %9, %7, %9, %9, %13, %7, %7, %13, %7, %7, %9, %7, %7, %13, %13, %9, %9, %13, %7, %7, %9, %7, %9, %13, %9, %13, %7, %13, %13, %13, %13, %13, %9, %7, %7, %13, %13, %7, %13, %13, %7, %13, %7, %9, %7, %7, %7, %9, %9, %13, %13, %13, %9, %13, %7, %7, %7, %7, %9, %13, %13, %7, %9, %7, %9, %9, %7, %9, %9, %13, %9, %9, %13, %7, %7, %9, %7, %9, %9, %13, %7, %9, %13, %7, %9, %13, %7, %13, %13, %13, %9, %13, %13, %9, %13, %13, %9, %13, %13, %9, %13, %7, %9, %13, %7, %9, %13, %9, %9, %9, %13, %9, %9, %7, %7, %9, %9, %9, %13, %13, %13, %9, %13, %9, %9, %7, %9, %9, %7, %7, %9, %7, %13, %9, %13, %7, %9, %7, %13, %13, %9, %13, %13, %7, %13, %7, %7, %9, %9, %13, %9, %7, %13, %7, %9, %13, %7, %13, %7, %7, %13, %9, %13, %9, %9, %9, %9, %13, %13, %9, %9, %7, %7, %9, %9, %7, %13, %9, %7, %9, %9, %13, %9, %13, %7, %13, %9, %9, %13, %13, %9, %13, %7, %13, %7, %7, %9, %7, %13, %13, %9, %9, %9, %7, %7, %9, %13, %9, %7, %9, %7, %9, %9, %9, %9, %9, %7, %7, %7, %9, %9, %7, %9, %13, %7, %13, %13, %7, %13, %13, %13, %9, %9, %7, %13, %7, %9, %13, %13, %13, %13, %9, %9, %13, %7, %13, %9, %9, %7, %7, %9, %13, %9, %7, %7, %9, %7, %13, %9, %13, %7, %9, %9, %13, %13, %13, %7, %9, %13, %13, %7, %9, %13, %9, %9, %7, %9, %9, %9, %13, %9, %13, %9, %13, %9, %7, %13, %7, %9, %7, %9, %9, %9, %13, %13, %13, %9, %13, %13, %13, %9, %7, %9, %13, %9, %7, %7, %7, %9, %7, %13, %13, %9, %13, %9, %7, %9, %13, %13, %13, %7, %7, %7, %9, %13, %9, %13, %7, %9, %7, %9, %9, %9, %13, %9, %7, %7, %9, %7, %7, %13, %13, %7, %9, %13, %9, %9, %9, %7, %7, %9, %9, %13, %9, %9, %13, %13, %7, %7, %7, %7, %7, %9, %7, %13, %9, %9, %9, %13, %7, %7, %9, %7, %13, %7, %9, %13, %13, %9, %13, %13, %7, %13, %9, %7, %7, %7, %9, %7, %13, %13, %13, %13, %7, %9, %7, %7, %13, %13, %13, %9, %9, %13, %9, %9, %13, %7, %9, %7, %7, %7, %7, %7, %9, %9, %7, %9, %13, %13, %13, %13, %9, %9, %13, %9, %9, %9, %9, %9, %13, %9, %7, %7, %9, %9, %9, %9, %13, %7, %9, %9, %7, %9, %13, %7, %9, %13, %9, %13, %9, %13, %7, %9, %13, %9, %7, %7, %7, %13, %13, %13, %13, %7, %7, %13, %9, %9, %9, %13, %7, %13, %9, %13, %13, %9, %9, %9, %7, %13, %13, %9, %13, %13, %13, %7, %7, %13, %9, %7, %13, %7, %7, %7, %7, %13, %7, %9, %7, %7, %7, %13, %13, %13, %9, %9, %9, %9, %13, %9, %9, %7, %7, %9, %9, %9, %7, %7, %7, %13, %7, %13, %9, %7, %13, %9, %9, %9, %7, %7, %13, %13, %13, %7, %9, %9, %7, %7, %13, %7, %13, %7, %13, %13, %7, %9, %13, %13, %7, %7, %13, %7, %9, %9, %7, %7, %9, %13, %9, %9, %7, %9, %13, %9, %13, %13, %13, %13, %13, %9, %13, %7, %13, %7, %7, %9, %9, %9, %9, %9, %9, %7, %9, %9, %7, %7, %9, %13, %9, %13, %9, %9, %7, %7, %13, %9, %9, %7, %13, %9, %9, %9, %9, %13, %13, %9, %13, %7, %13, %9, %7, %13, %7, %9, %9, %7, %13, %13, %13, %7, %9, %7, %13, %13, %13, %7, %9, %9, %13, %13, %13, %7, %9, %13, %7, %7, %13, %7, %13, %13, %9, %13, %9, %13, %13, %13, %9, %9, %7, %7, %9, %9, %7, %9, %13, %13, %7, %7, %13, %7, %13, %7, %7, %9, %7, %9, %7, %9, %13, %7, %13, %7, %7, %13, %9, %13, %7, %9, %7, %9, %7, %13, %7, %7, %7, %13, %9, %9, %7, %9, %7, %9, %7, %13, %9, %7, %13, %7, %7, %7, %7, %7, %13, %7, %9, %13, %7, %9, %13, %7, %9, %9, %7, %13, %13, %7, %13, %7, %7, %13, %13, %9, %9, %9, %13, %9, %13, %9, %9, %9, %13, %9, %13, %9, %7, %7, %13, %7, %13, %13, %7, %9, %9, %9, %9, %9, %9, %7, %13, %9, %9, %7, %9, %7, %9, %7, %9, %13, %7, %7, %9, %13, %9, %7, %13, %13, %9, %9, %13, %7, %7, %9, %13, %9, %9, %13, %7, %7, %7, %13, %13, %13, %9, %7, %7, %13, %7, %9, %7, %9, %9, %13, %13, %7, %9, %9, %9, %13, %13, %9, %7, %9, %9, %7, %13, %7, %7, %7, %13, %13, %7, %7, %7, %13, %7, %7, %9, %9, %9, %9, %9, %9, %13, %9, %13, %7, %9, %7, %13, %7, %13, %7, %7, %13, %9, %9, %9, %13, %9, %9, %7, %7, %9, %7, %13, %7, %13, %7, %7, %9, %7, %13, %9, %13, %9, %13, %7, %9, %9, %9, %7, %13, %13, %9, %7, %7, %7, %7, %9, %9, %13, %13, %13, %13, %7, %13, %13, %13, %13, %9, %7, %7, %9, %7, %9, %13, %9, %9, %13, %9, %7, %9, %9, %7, %7, %7, %7, %7, %7, %13, %9, %7, %7, %13, %7, %9, %7, %9, %7, %9, %13, %9, %9, %9, %7, %7, %13, %7, %13, %7, %7, %9, %7, %7, %7, %9, %13, %9, %9, %7, %7, %7, %9, %13, %9, %7, %9, %9, %7, %9, %13, %9, %13, %9, %13, %7, %9, %9, %9, %7, %13, %9, %7, %9, %13, %13, %7, %7, %9, %9, %9, %9, %13, %13, %13, %9, %13, %13, %7, %7, %13, %7, %13, %13, %7, %7, %9, %9, %13, %7, %7, %7, %9, %9, %7, %13, %9, %13, %13, %9, %13, %7, %13, %13, %7, %9, %7, %13, %13, %7, %7, %13, %13, %9, %7, %9, %13, %9, %7, %7, %9, %7, %7, %13, %9, %7, %9, %13, %13, %13, %9, %7, %13, %7, %7, %13, %9, %13, %7, %13, %9, %9, %9, %7, %7, %9, %13, %7, %13, %13, %13, %9, %9, %13, %9, %7, %9, %9, %13, %13, %7, %13, %9, %9, %7, %7, %13, %13, %7, %13, %9, %13, %9, %13, %7, %13, %7, %7, %13, %13, %13, %13, %7, %7, %9, %7, %13, %7, %13, %9, %13, %13, %9, %13, %9, %13, %13, %13, %13, %13, %9, %13, %9, %9, %13, %13, %7, %13, %13, %9, %9, %7, %13, %7, %9, %7, %7, %7, %7, %13, %13, %13, %9, %7, %9, %9, %7, %13, %9, %9, %13, %7, %13, %13, %7, %7, %7, %13, %7, %13, %9, %9, %7, %13, %9, %7, %7, %13, %7, %9, %9, %9, %13, %9, %7, %9, %9, %13, %7, %7, %13, %9, %13, %9, %13, %7, %7, %9, %7, %9, %13, %7, %13, %9, %7, %13, %7, %7, %13, %13, %7, %7, %7, %7, %13, %13, %9, %7, %13, %7, %9, %13, %7, %9, %9, %9, %13, %9, %9, %9, %13, %13, %9, %9, %13, %7, %13, %7, %13, %7, %9, %9, %9, %7, %9, %7, %9, %13, %9, %13, %13, %7, %9, %7, %7, %9, %9, %9, %7, %13, %9, %13, %7, %13, %13, %9, %7, %13, %7, %13, %7, %9, %7, %7, %13, %7, %9, %7, %13, %13, %7, %9, %13, %9, %9, %13, %7, %13, %7, %9, %9, %9, %13, %13, %7, %7, %13, %7, %9, %7, %7, %13, %13, %7, %13, %13, %13, %13, %7, %13, %7, %13, %7, %7, %7, %13, %9, %9, %7, %13, %13, %13, %13, %9, %7, %7, %9, %9, %9, %7, %7, %13, %7, %9, %13, %7, %9, %7, %7, %13, %13, %9, %13, %9, %9, %7, %9, %13, %7, %9, %9, %9, %7, %7, %7, %9, %9, %13, %13, %13, %9, %9, %9, %13, %9, %13, %9, %13, %9, %7, %7, %7, %13, %13, %7, %9, %7, %13, %9, %7, %13, %13, %13, %7, %13, %13, %7, %7, %13, %13, %9, %9, %7, %9, %7, %7, %7, %13, %13, %9, %13, %9, %13, %13, %13, %9, %13, %13, %9, %13, %9, %9, %9, %9, %9, %7, %13, %13, %13, %13, %9, %7, %13, %7, %9, %13, %7, %9, %9, %13, %13, %9, %9, %9, %9, %13, %7, %7, %7, %7, %13, %7, %9, %9, %9, %7, %9, %13, %13, %9, %7, %9, %9, %9, %9, %9, %13, %7, %13, %9, %7, %13, %9, %9, %7, %7, %13, %13, %13, %13, %13, %7, %9, %9, %13, %13, %9, %13, %7, %9, %13, %13, %13, %13, %13, %9, %13, %7, %7, %7, %9, %13, %9, %9, %7, %7, %7, %13, %9, %7, %13, %7, %9, %7, %9, %13, %13, %9, %7, %9, %7, %9, %13, %7, %13, %9, %7, %7, %9, %13, %9, %7, %7, %7, %7, %7, %13, %7, %13, %13, %13, %9, %7, %13, %7, %13, %13, %13, %13, %7, %13, %7, %7, %7, %13, %7, %13, %9, %7, %9, %13, %13, %13, %9, %7, %13, %13, %7, %9, %13, %9, %13, %7, %9, %7, %13, %9, %9, %7, %9, %9, %13, %7, %7, %13, %13, %9, %7, %13, %7, %7, %7, %7, %9, %9, %7, %13, %7, %13, %9, %7, %7, %9, %9, %13, %9, %7, %13, %9, %13, %7, %7, %9, %7, %9, %7, %7, %9, %13, %13, %7, %13, %7, %9, %9, %13, %9, %7, %9, %9, %9, %13, %13, %13, %13, %9, %13, %9, %9, %7, %7, %9, %13, %13, %9, %9, %7, %7, %9, %7, %7, %13, %9, %9, %9, %9, %13, %9, %7, %13, %13, %7, %9, %13, %7, %13, %9, %9, %7, %13, %13, %13, %7, %13, %7, %13, %7, %9, %13, %13, %9, %7, %7, %7, %13, %9, %9, %9, %9, %7, %7, %9, %9, %13, %13, %7, %7, %7, %9, %7, %9, %13, %9, %9, %7, %9, %9, %9, %7, %9, %9, %9, %9, %13, %9, %13, %7, %9, %9, %9, %7, %7, %9, %13, %13, %13, %7, %9, %9, %7, %13, %13, %7, %9, %7, %13, %13, %9, %9, %9, %7, %7, %7, %7, %7, %13, %13, %13, %9, %13, %9, %7, %7, %13, %7, %13, %9, %7, %7, %7, %9, %7, %9, %7, %7, %7, %7, %9, %13, %13, %7, %9, %9, %7, %13, %9, %7, %13, %7, %7, %13, %7, %7, %7, %9, %13, %7, %9, %7, %13, %7, %9, %7, %13, %13, %13, %7, %9, %13, %13, %7, %13, %13, %13, %7, %13, %13, %13, %7, %7, %9, %13, %13, %7, %13, %13, %13, %9, %9, %7, %13, %13, %9, %13, %13, %9, %9, %7, %9, %13, %13, %9, %7, %9, %9, %13, %9, %9, %9, %13, %13, %7, %13, %9, %9, %9, %13, %9, %9, %7, %13, %7, %7, %7, %9, %13, %13, %13, %13, %9, %9, %7, %9, %9, %13, %13, %13, %13, %7, %9, %13, %9, %7, %9, %7, %9, %13, %7, %13, %7, %13, %7, %7, %9, %7, %13, %9, %7, %7, %9, %7, %13, %9, %7, %13, %13, %9, %9, %13, %9, %7, %9, %13, %9, %9, %13, %9, %9, %9, %7, %13, %9, %13, %9, %13, %9, %9, %9, %7, %9, %7, %9, %13, %13, %9, %9, %7, %13, %9, %7, %13, %7, %7, %9, %9, %13, %13, %13, %9, %13, %9, %9, %13, %9, %13, %7, %7, %13, %9, %7, %7, %7, %13, %9, %7, %9, %13, %9, %13, %13, %13, %13, %13, %9, %13, %13, %13, %9, %13, %13, %7, %13, %7, %9, %13, %13, %9, %9, %13, %13, %7, %13, %13, %9, %7, %9, %9, %7, %7, %7, %7, %9, %9, %7, %7, %9, %9, %9, %13, %9, %7, %13, %9, %9, %13, %7, %7, %13, %9, %7, %13, %7, %13, %13, %9, %13, %7, %9, %13, %7, %9, %9, %9, %13, %9, %13, %13, %13, %9, %9, %13, %9, %13, %9, %13, %9, %7, %9, %13, %9, %13, %13, %9, %7, %9, %9, %13, %13, %9, %9, %9, %9, %9, %7, %9, %13, %9, %7, %7, %7, %7, %13, %9, %9, %13, %9, %9, %13, %7, %9, %7, %9, %13, %13, %7, %7, %9, %7, %9, %13, %13, %13, %9, %7, %7, %9, %13, %9, %13, %13, %9, %13, %13, %7, %7, %13, %9, %7, %13, %9, %7, %13, %13, %13, %7, %13, %9, %13, %9, %13, %9, %9, %13, %7, %9, %9, %7, %7, %7, %13, %13, %7, %9, %7, %7, %13, %13, %9, %13, %13, %13, %7, %13, %7, %13, %13, %7, %9, %7, %9, %7, %9, %9, %7, %7, %9, %9, %9, %13, %7, %13, %13, %7, %9, %7, %9, %13, %9, %13, %7, %7, %9, %9, %7, %13, %7, %9, %7, %9, %7, %13, %9, %7, %13, %9, %9, %13, %7, %7, %7, %9, %9, %9, %13, %7, %13, %9, %7, %7, %9, %9, %9, %13, %13, %9, %7, %13, %7, %9, %9, %9, %7, %9, %7, %9, %9, %9, %7, %7, %13, %9, %13, %13, %9, %13, %7, %13, %13, %13, %7, %7, %9, %9, %13, %13, %7, %13, %9, %9, %7, %9, %7, %13, %13, %7, %7, %7, %9, %13, %7, %9, %9, %13, %13, %7, %13, %7, %9, %7, %9, %7, %7, %13, %13, %13, %9, %13, %9, %9, %7, %9, %9, %7, %13, %9, %9, %13, %9, %7, %7, %9, %9, %13, %7, %13, %13, %9, %13, %13, %13, %7, %7, %9, %7, %13, %9, %7, %9, %13, %13, %13, %7, %13, %13, %13, %13, %9, %7, %13, %9, %7, %13, %13, %7, %13, %9, %7, %9, %7, %9, %13, %13, %13, %7, %7, %9, %13, %9, %13, %9, %7, %13, %9, %9, %7, %7, %13, %7, %13, %13, %7, %9, %13, %9, %7, %7, %7, %13, %13, %7, %7, %9, %9, %7, %7, %7, %9, %9, %13, %7, %13, %7, %13, %9, %9, %13, %13, %9, %7, %9, %13, %9, %9, %13, %7, %9, %9, %13, %7, %7, %7, %13, %7, %13, %13, %9, %7, %7, %9, %9, %7, %9, %13, %7, %7, %9, %7, %13, %9, %13, %13, %7, %7, %7, %13, %13, %9, %9, %13, %7, %13, %13, %9, %9, %13, %13, %7, %13, %9, %13, %9, %13, %13, %9, %7, %9, %9, %7, %7, %7, %9, %7, %7, %7, %7, %9, %13, %9, %7, %13, %7, %9, %9, %7, %9, %13, %13, %13, %7, %13, %7, %13, %7, %13, %13, %13, %13, %7, %9, %9, %13, %9, %9, %13, %7, %7, %9, %13, %13, %9, %7, %9, %9, %9, %7, %9, %9, %9, %9, %13, %9, %13, %13, %7, %13, %7, %9, %7, %7, %13, %13, %13, %9, %9, %13, %9, %13, %9, %7, %7, %7, %9, %7, %13, %7, %9, %7, %9, %9, %9, %13, %7, %13, %13, %7, %13, %13, %7, %7, %9, %7, %9, %7, %9, %9, %13, %9, %13, %9, %7, %13, %9, %9, %13, %9, %9, %13, %9, %9, %13, %7, %13, %9, %9, %13, %9, %7, %9, %7, %13, %9, %13, %7, %7, %7, %13, %9, %7, %13, %13, %13, %9, %13, %9, %7, %9, %9, %9, %9, %7, %9, %13, %9, %9, %7, %9, %7, %13, %13, %13, %9, %7, %7, %9, %7, %9, %13, %7, %9, %13, %13, %9, %13, %7, %9, %7, %7, %7, %9, %9, %7, %7, %7, %9, %7, %13, %13, %9, %7, %13, %13, %7, %7, %7, %9, %13, %13, %7, %7, %9, %7, %13, %9, %9, %13, %13, %13, %13, %13, %13, %9, %7, %9, %7, %7, %7, %7, %9, %13, %7, %13, %9, %9, %7, %9, %13, %7, %7, %9, %7, %7, %7, %7, %7, %7, %13, %7, %13, %13, %9, %7, %7, %13, %9, %9, %13, %9, %9, %7, %7, %7, %13, %13, %13, %9, %9, %9, %9, %9, %7, %9, %7, %13, %9, %7, %13, %7, %9, %9, %7, %13, %7, %9, %9, %9, %9, %9, %13, %13, %13, %13, %9, %9, %7, %13, %7, %9, %13, %7, %13, %9, %7, %7, %7, %13, %9, %13, %7, %13, %7, %7, %7, %7, %7, %9, %7, %9, %13, %7, %13, %13, %13, %9, %13, %9, %7, %7, %7, %13, %7, %13, %9, %9, %9, %7, %13, %7, %13, %9, %7, %13, %13, %9, %7, %13, %7, %13, %7, %7, %7, %7, %9, %7, %9, %9, %9, %9, %9, %13, %13, %7, %9, %13, %9, %13, %7, %7, %13, %7, %13, %9, %7, %7, %7, %9, %9, %9, %13, %13, %7, %7, %13, %13, %9, %7, %13, %13, %7, %9, %13, %7, %7, %7, %13, %9, %7, %7, %13, %13, %13, %13, %7, %9, %9, %7, %13, %13, %13, %7, %7, %7, %7, %7, %13, %7, %7, %9, %7, %7, %7, %7, %13, %13, %13, %13, %7, %7, %13, %7, %9, %13, %13, %13, %7, %7, %13, %9, %7, %7, %9, %13, %7, %9, %13, %9, %9, %13, %13, %13, %7, %7, %7, %7, %7, %9, %13, %9, %13, %9, %9, %9, %13, %7, %9, %13, %7, %7, %13, %9, %13, %13, %9, %13, %7, %13, %9, %9, %7, %7, %7, %13, %9, %13, %13, %9, %13, %13, %9, %9, %9, %13, %9, %13, %9, %9, %7, %13, %7, %13, %9, %7, %7, %7, %13, %7, %7, %9, %13, %9, %7, %7, %7, %13, %9, %7, %9, %13, %7, %7, %13, %13, %9, %13, %7, %13, %7, %13, %9, %7, %9, %9, %9, %9, %7, %7, %7, %13, %7, %13, %7, %7, %7, %13, %7, %13, %9, %13, %7, %9, %13, %7, %7, %13, %7, %7, %7, %7, %9, %13, %13, %9, %13, %9, %13, %7, %9, %13, %9, %7, %9, %7, %13, %9, %9, %9, %13, %9, %13, %13, %7, %7, %9, %7, %9, %9, %13, %7, %9, %13, %13, %13, %9, %13, %9, %7, %13, %9, %7, %9, %13, %13, %7, %13, %7, %13, %7, %13, %13, %13, %13, %7, %7, %9, %7, %7, %9, %9, %13, %7, %9, %7, %7, %7, %9, %9, %13, %7, %9, %9, %7, %7, %9, %7, %9, %13, %9, %13, %13, %9, %13, %9, %9, %13, %9, %9, %7, %13, %7, %9, %13, %13, %13, %9, %7, %13, %13, %7, %13, %9, %13, %13, %9, %9, %7, %13, %9, %9, %13, %7, %13, %9, %13, %7, %13, %13, %9, %7, %7, %13, %9, %13, %13, %9, %13, %13, %7, %9, %13, %7, %7, %9, %9, %13, %9, %7, %7, %7, %9, %9, %7, %13, %13, %7, %9, %7, %9, %13, %9, %7, %13, %7, %7, %13, %9, %13, %7, %9, %9, %7, %9, %9, %7, %13, %13, %7, %9, %7, %7, %9, %9, %7, %13, %7, %9, %9, %9, %13, %9, %13, %13, %13, %13, %13, %9, %7, %7, %7, %9, %13, %9, %9, %7, %7, %13, %7, %9, %7, %7, %13, %7, %13, %7, %9, %13, %7, %9, %9, %13, %9, %9, %7, %7, %7, %9, %7, %7, %9, %13, %13, %9, %9, %13, %13, %7, %9, %13, %7, %7, %9, %7, %7, %7, %9, %7, %7, %13, %13, %9, %9, %7, %7, %13, %13, %13, %7, %13, %7, %13, %7, %7, %7, %13, %9, %9, %7, %9, %7, %13, %13, %13, %9, %13, %7, %13, %7, %9, %13, %13, %7, %7, %13, %7, %9, %7, %13, %7, %9, %9, %7, %13, %7, %13, %9, %13, %9, %9, %7, %9, %13, %9, %7, %13, %13, %7, %9, %13, %13, %9, %9, %9, %9, %13, %9, %13, %13, %9, %7, %9, %7, %13, %7, %9, %7, %13, %9, %7, %13, %13, %7, %7, %13, %7, %9, %13, %9, %13, %7, %7, %13, %9, %13, %13, %13, %9, %7, %7, %7, %13, %13, %13, %9, %13, %7, %13, %13, %7, %13, %9, %13, %7, %9, %9, %13, %13, %7, %13, %13, %9, %7, %9, %13, %13, %9, %7, %7, %7, %9, %7, %9, %7, %7, %13, %7, %13, %9, %9, %7, %13, %9, %9, %13, %9, %9, %13, %13, %9, %7, %7, %9, %7, %13, %7, %13, %13, %9, %9, %7, %9, %13, %7, %7, %13, %9, %9, %9, %9, %9, %9, %13, %9, %7, %13, %7, %7, %13, %7, %9, %9, %13, %13, %13, %13, %7, %7, %13, %9, %7, %9, %13, %13, %9, %7, %13, %7, %7, %9, %7, %7, %9, %9, %9, %13, %9, %7, %7, %9, %9, %9, %13, %7, %7, %13, %7, %7, %13, %13, %9, %13, %7, %13, %9, %13, %9, %13, %9, %7, %13, %13, %9, %9, %7, %13, %13, %9, %7, %7, %9, %7, %7, %13, %7, %13, %7, %13, %9, %13) : (i16, i16, i16, i16, i16, i16, i16, i16, i16, i16, i16, i16, i16, i16, i16, i16, i16, i16, i16, i16, i16, i16, i16, i16, i16, i16, i16, i16, i16, i16, i16, i16, i16, i16, i16, i16, i16, i16, i16, i16, i16, i16, i16, i16, i16, i16, i16, i16, i16, i16, i16, i16, i16, i16, i16, i16, i16, i16, i16, i16, i16, i16, i16, i16, i16, i16, i16, i16, i16, i16, i16, i16, i16, i16, i16, i16, i16, i16, i16, i16, i16, i16, i16, i16, i16, i16, i16, i16, i16, i16, i16, i16, i16, i16, i16, i16, i16, i16, i16, i16, i16, i16, i16, i16, i16, i16, i16, i16, i16, i16, i16, i16, i16, i16, i16, i16, i16, i16, i16, i16, i16, i16, i16, i16, i16, i16, i16, i16, i16, i16, i16, i16, i16, i16, i16, i16, i16, i16, i16, i16, i16, i16, i16, i16, i16, i16, i16, i16, i16, i16, i16, i16, i16, i16, i16, i16, i16, i16, i16, i16, i16, i16, i16, i16, i16, i16, i16, i16, i16, i16, i16, i16, i16, i16, i16, i16, i16, i16, i16, i16, i16, i16, i16, i16, i16, i16, i16, i16, i16, i16, i16, i16, i16, i16, i16, i16, i16, i16, i16, i16, i16, i16, i16, i16, i16, i16, i16, i16, i16, i16, i16, i16, i16, i16, i16, i16, i16, i16, i16, i16, i16, i16, i16, i16, i16, i16, i16, i16, i16, i16, i16, i16, i16, i16, i16, i16, i16, i16, i16, i16, i16, i16, i16, i16, i16, i16, i16, i16, i16, i16, i16, i16, i16, i16, i16, i16, i16, i16, i16, i16, i16, i16, i16, i16, i16, i16, i16, i16, i16, i16, i16, i16, i16, i16, i16, i16, i16, i16, i16, i16, i16, i16, i16, i16, i16, i16, i16, i16, i16, i16, i16, i16, i16, i16, i16, i16, i16, i16, i16, i16, i16, i16, i16, i16, i16, i16, i16, i16, i16, i16, i16, i16, i16, i16, i16, i16, i16, i16, i16, i16, i16, i16, i16, i16, i16, i16, i16, i16, i16, i16, i16, i16, i16, i16, i16, i16, i16, i16, i16, i16, i16, i16, i16, i16, i16, i16, i16, i16, i16, i16, i16, i16, i16, i16, i16, i16, i16, i16, i16, i16, i16, i16, i16, i16, i16, i16, i16, i16, i16, i16, i16, i16, i16, i16, i16, i16, i16, i16, i16, i16, i16, i16, i16, i16, i16, i16, i16, i16, i16, i16, i16, i16, i16, i16, i16, i16, i16, i16, i16, i16, i16, i16, i16, i16, i16, i16, i16, i16, i16, i16, i16, i16, i16, i16, i16, i16, i16, i16, i16, i16, i16, i16, i16, i16, i16, i16, i16, i16, i16, i16, i16, i16, i16, i16, i16, i16, i16, i16, i16, i16, i16, i16, i16, i16, i16, i16, i16, i16, i16, i16, i16, i16, i16, i16, i16, i16, i16, i16, i16, i16, i16, i16, i16, i16, i16, i16, i16, i16, i16, i16, i16, i16, i16, i16, i16, i16, i16, i16, i16, i16, i16, i16, i16, i16, i16, i16, i16, i16, i16, i16, i16, i16, i16, i16, i16, i16, i16, i16, i16, i16, i16, i16, i16, i16, i16, i16, i16, i16, i16, i16, i16, i16, i16, i16, i16, i16, i16, i16, i16, i16, i16, i16, i16, i16, i16, i16, i16, i16, i16, i16, i16, i16, i16, i16, i16, i16, i16, i16, i16, i16, i16, i16, i16, i16, i16, i16, i16, i16, i16, i16, i16, i16, i16, i16, i16, i16, i16, i16, i16, i16, i16, i16, i16, i16, i16, i16, i16, i16, i16, i16, i16, i16, i16, i16, i16, i16, i16, i16, i16, i16, i16, i16, i16, i16, i16, i16, i16, i16, i16, i16, i16, i16, i16, i16, i16, i16, i16, i16, i16, i16, i16, i16, i16, i16, i16, i16, i16, i16, i16, i16, i16, i16, i16, i16, i16, i16, i16, i16, i16, i16, i16, i16, i16, i16, i16, i16, i16, i16, i16, i16, i16, i16, i16, i16, i16, i16, i16, i16, i16, i16, i16, i16, i16, i16, i16, i16, i16, i16, i16, i16, i16, i16, i16, i16, i16, i16, i16, i16, i16, i16, i16, i16, i16, i16, i16, i16, i16, i16, i16, i16, i16, i16, i16, i16, i16, i16, i16, i16, i16, i16, i16, i16, i16, i16, i16, i16, i16, i16, i16, i16, i16, i16, i16, i16, i16, i16, i16, i16, i16, i16, i16, i16, i16, i16, i16, i16, i16, i16, i16, i16, i16, i16, i16, i16, i16, i16, i16, i16, i16, i16, i16, i16, i16, i16, i16, i16, i16, i16, i16, i16, i16, i16, i16, i16, i16, i16, i16, i16, i16, i16, i16, i16, i16, i16, i16, i16, i16, i16, i16, i16, i16, i16, i16, i16, i16, i16, i16, i16, i16, i16, i16, i16, i16, i16, i16, i16, i16, i16, i16, i16, i16, i16, i16, i16, i16, i16, i16, i16, i16, i16, i16, i16, i16, i16, i16, i16, i16, i16, i16, i16, i16, i16, i16, i16, i16, i16, i16, i16, i16, i16, i16, i16, i16, i16, i16, i16, i16, i16, i16, i16, i16, i16, i16, i16, i16, i16, i16, i16, i16, i16, i16, i16, i16, i16, i16, i16, i16, i16, i16, i16, i16, i16, i16, i16, i16, i16, i16, i16, i16, i16, i16, i16, i16, i16, i16, i16, i16, i16, i16, i16, i16, i16, i16, i16, i16, i16, i16, i16, i16, i16, i16, i16, i16, i16, i16, i16, i16, i16, i16, i16, i16, i16, i16, i16, i16, i16, i16, i16, i16, i16, i16, i16, i16, i16, i16, i16, i16, i16, i16, i16, i16, i16, i16, i16, i16, i16, i16, i16, i16, i16, i16, i16, i16, i16, i16, i16, i16, i16, i16, i16, i16, i16, i16, i16, i16, i16, i16, i16, i16, i16, i16, i16, i16, i16, i16, i16, i16, i16, i16, i16, i16, i16, i16, i16, i16, i16, i16, i16, i16, i16, i16, i16, i16, i16, i16, i16, i16, i16, i16, i16, i16, i16, i16, i16, i16, i16, i16, i16, i16, i16, i16, i16, i16, i16, i16, i16, i16, i16, i16, i16, i16, i16, i16, i16, i16, i16, i16, i16, i16, i16, i16, i16, i16, i16, i16, i16, i16, i16, i16, i16, i16, i16, i16, i16, i16, i16, i16, i16, i16, i16, i16, i16, i16, i16, i16, i16, i16, i16, i16, i16, i16, i16, i16, i16, i16, i16, i16, i16, i16, i16, i16, i16, i16, i16, i16, i16, i16, i16, i16, i16, i16, i16, i16, i16, i16, i16, i16, i16, i16, i16, i16, i16, i16, i16, i16, i16, i16, i16, i16, i16, i16, i16, i16, i16, i16, i16, i16, i16, i16, i16, i16, i16, i16, i16, i16, i16, i16, i16, i16, i16, i16, i16, i16, i16, i16, i16, i16, i16, i16, i16, i16, i16, i16, i16, i16, i16, i16, i16, i16, i16, i16, i16, i16, i16, i16, i16, i16, i16, i16, i16, i16, i16, i16, i16, i16, i16, i16, i16, i16, i16, i16, i16, i16, i16, i16, i16, i16, i16, i16, i16, i16, i16, i16, i16, i16, i16, i16, i16, i16, i16, i16, i16, i16, i16, i16, i16, i16, i16, i16, i16, i16, i16, i16, i16, i16, i16, i16, i16, i16, i16, i16, i16, i16, i16, i16, i16, i16, i16, i16, i16, i16, i16, i16, i16, i16, i16, i16, i16, i16, i16, i16, i16, i16, i16, i16, i16, i16, i16, i16, i16, i16, i16, i16, i16, i16, i16, i16, i16, i16, i16, i16, i16, i16, i16, i16, i16, i16, i16, i16, i16, i16, i16, i16, i16, i16, i16, i16, i16, i16, i16, i16, i16, i16, i16, i16, i16, i16, i16, i16, i16, i16, i16, i16, i16, i16, i16, i16, i16, i16, i16, i16, i16, i16, i16, i16, i16, i16, i16, i16, i16, i16, i16, i16, i16, i16, i16, i16, i16, i16, i16, i16, i16, i16, i16, i16, i16, i16, i16, i16, i16, i16, i16, i16, i16, i16, i16, i16, i16, i16, i16, i16, i16, i16, i16, i16, i16, i16, i16, i16, i16, i16, i16, i16, i16, i16, i16, i16, i16, i16, i16, i16, i16, i16, i16, i16, i16, i16, i16, i16, i16, i16, i16, i16, i16, i16, i16, i16, i16, i16, i16, i16, i16, i16, i16, i16, i16, i16, i16, i16, i16, i16, i16, i16, i16, i16, i16, i16, i16, i16, i16, i16, i16, i16, i16, i16, i16, i16, i16, i16, i16, i16, i16, i16, i16, i16, i16, i16, i16, i16, i16, i16, i16, i16, i16, i16, i16, i16, i16, i16, i16, i16, i16, i16, i16, i16, i16, i16, i16, i16, i16, i16, i16, i16, i16, i16, i16, i16, i16, i16, i16, i16, i16, i16, i16, i16, i16, i16, i16, i16, i16, i16, i16, i16, i16, i16, i16, i16, i16, i16, i16, i16, i16, i16, i16, i16, i16, i16, i16, i16, i16, i16, i16, i16, i16, i16, i16, i16, i16, i16, i16, i16, i16, i16, i16, i16, i16, i16, i16, i16, i16, i16, i16, i16, i16, i16, i16, i16, i16, i16, i16, i16, i16, i16, i16, i16, i16, i16, i16, i16, i16, i16, i16, i16, i16, i16, i16, i16, i16, i16, i16, i16, i16, i16, i16, i16, i16, i16, i16, i16, i16, i16, i16, i16, i16, i16, i16, i16, i16, i16, i16, i16, i16, i16, i16, i16, i16, i16, i16, i16, i16, i16, i16, i16, i16, i16, i16, i16, i16, i16, i16, i16, i16, i16, i16, i16, i16, i16, i16, i16, i16, i16, i16, i16, i16, i16, i16, i16, i16, i16, i16, i16, i16, i16, i16, i16, i16, i16, i16, i16, i16, i16, i16, i16, i16, i16, i16, i16, i16, i16, i16, i16, i16, i16, i16, i16, i16, i16, i16, i16, i16, i16, i16, i16, i16, i16, i16, i16, i16, i16, i16, i16, i16, i16, i16, i16, i16, i16, i16, i16, i16, i16, i16, i16, i16, i16, i16, i16, i16, i16, i16, i16, i16, i16, i16, i16, i16, i16, i16, i16, i16, i16, i16, i16, i16, i16, i16, i16, i16, i16, i16, i16, i16, i16, i16, i16, i16, i16, i16, i16, i16, i16, i16, i16, i16, i16, i16, i16, i16, i16, i16, i16, i16, i16, i16, i16, i16, i16, i16, i16, i16, i16, i16, i16, i16, i16, i16, i16, i16, i16, i16, i16, i16, i16, i16, i16, i16, i16, i16, i16, i16, i16, i16, i16, i16, i16, i16, i16, i16, i16, i16, i16, i16, i16, i16, i16, i16, i16, i16, i16, i16, i16, i16, i16, i16, i16, i16, i16, i16, i16, i16, i16, i16, i16, i16, i16, i16, i16, i16, i16, i16, i16, i16, i16, i16, i16, i16, i16, i16, i16, i16, i16, i16, i16, i16, i16, i16, i16, i16, i16, i16, i16, i16, i16, i16, i16, i16, i16, i16, i16, i16, i16, i16, i16, i16, i16, i16, i16, i16, i16, i16, i16, i16, i16, i16, i16, i16, i16, i16, i16, i16, i16, i16, i16, i16, i16, i16, i16, i16, i16, i16, i16, i16, i16, i16, i16, i16, i16, i16, i16, i16, i16, i16, i16, i16, i16, i16, i16, i16, i16, i16, i16, i16, i16, i16, i16, i16, i16, i16, i16, i16, i16, i16, i16, i16, i16, i16, i16, i16, i16, i16, i16, i16, i16, i16, i16, i16, i16, i16, i16, i16, i16, i16, i16, i16, i16, i16, i16, i16, i16, i16, i16, i16, i16, i16, i16, i16, i16, i16, i16, i16, i16, i16, i16, i16, i16, i16, i16, i16, i16, i16, i16, i16, i16, i16, i16, i16, i16, i16, i16, i16, i16, i16, i16, i16, i16, i16, i16, i16, i16, i16, i16, i16, i16, i16, i16, i16, i16, i16, i16, i16, i16, i16, i16, i16, i16, i16, i16, i16, i16, i16, i16, i16, i16, i16, i16, i16, i16, i16, i16, i16, i16, i16, i16, i16, i16, i16, i16, i16, i16, i16, i16, i16, i16, i16, i16, i16, i16, i16, i16, i16, i16, i16, i16, i16, i16, i16, i16, i16, i16, i16, i16, i16, i16, i16, i16, i16, i16, i16, i16, i16, i16, i16, i16, i16, i16, i16, i16, i16, i16, i16, i16, i16, i16, i16, i16, i16, i16, i16, i16, i16, i16, i16, i16, i16, i16, i16, i16, i16, i16, i16, i16, i16, i16, i16, i16, i16, i16, i16, i16, i16, i16, i16, i16, i16, i16, i16, i16, i16, i16, i16, i16, i16, i16, i16, i16, i16, i16, i16, i16, i16, i16, i16, i16, i16, i16, i16, i16, i16, i16, i16, i16, i16, i16, i16, i16, i16, i16, i16, i16, i16, i16, i16, i16, i16, i16, i16, i16, i16, i16, i16, i16, i16, i16, i16, i16, i16, i16, i16, i16, i16, i16, i16, i16, i16, i16, i16, i16, i16, i16, i16, i16, i16, i16, i16, i16, i16, i16, i16, i16, i16, i16, i16, i16, i16, i16, i16, i16, i16, i16, i16, i16, i16, i16, i16, i16, i16, i16, i16, i16, i16, i16, i16, i16, i16, i16, i16, i16, i16, i16, i16, i16, i16, i16, i16, i16, i16, i16, i16, i16, i16, i16, i16, i16, i16, i16, i16, i16, i16, i16, i16, i16, i16, i16, i16, i16, i16, i16, i16, i16, i16, i16, i16, i16, i16, i16, i16, i16, i16, i16, i16, i16, i16, i16, i16, i16, i16, i16, i16, i16, i16, i16, i16, i16, i16, i16, i16, i16, i16, i16, i16, i16, i16, i16, i16, i16, i16, i16, i16, i16, i16, i16, i16, i16, i16, i16, i16, i16, i16, i16, i16, i16, i16, i16, i16, i16, i16, i16, i16, i16, i16, i16, i16, i16, i16, i16, i16, i16, i16, i16, i16, i16, i16, i16, i16, i16, i16, i16, i16, i16, i16, i16, i16, i16, i16, i16, i16, i16, i16, i16, i16, i16, i16, i16, i16, i16, i16, i16, i16, i16, i16, i16, i16, i16, i16, i16, i16, i16, i16, i16, i16, i16, i16, i16, i16, i16, i16, i16, i16, i16, i16, i16, i16, i16, i16, i16, i16, i16, i16, i16, i16, i16, i16, i16, i16, i16, i16, i16, i16, i16, i16, i16, i16, i16, i16, i16, i16, i16, i16, i16, i16, i16, i16, i16, i16, i16, i16, i16, i16, i16, i16, i16, i16, i16, i16, i16, i16, i16, i16, i16, i16, i16, i16, i16, i16, i16, i16, i16, i16, i16, i16, i16, i16, i16, i16, i16, i16, i16, i16, i16, i16, i16, i16, i16, i16, i16, i16, i16, i16, i16, i16, i16, i16, i16, i16, i16, i16, i16, i16, i16, i16, i16, i16, i16, i16, i16, i16, i16, i16, i16, i16, i16, i16, i16, i16, i16, i16, i16, i16, i16, i16, i16, i16, i16, i16, i16, i16, i16, i16, i16, i16, i16, i16, i16, i16, i16, i16, i16, i16, i16, i16, i16, i16, i16, i16, i16, i16, i16, i16, i16, i16, i16, i16, i16, i16, i16, i16, i16, i16, i16, i16, i16, i16, i16, i16, i16, i16, i16, i16, i16, i16, i16, i16, i16, i16, i16, i16, i16, i16, i16, i16, i16, i16, i16, i16, i16, i16, i16, i16, i16, i16, i16, i16, i16, i16, i16, i16, i16, i16, i16, i16, i16, i16, i16, i16, i16, i16, i16, i16, i16, i16, i16, i16, i16, i16, i16, i16, i16, i16, i16, i16, i16, i16, i16, i16, i16, i16, i16, i16, i16, i16, i16, i16, i16, i16, i16, i16, i16, i16, i16, i16, i16, i16, i16, i16, i16, i16, i16, i16, i16, i16, i16, i16, i16, i16, i16, i16, i16, i16, i16, i16, i16, i16, i16, i16, i16, i16, i16, i16, i16, i16, i16, i16, i16, i16, i16, i16, i16, i16, i16, i16, i16, i16, i16, i16, i16, i16, i16, i16, i16, i16, i16, i16, i16, i16, i16, i16, i16, i16, i16, i16, i16, i16, i16, i16, i16, i16, i16, i16, i16, i16, i16, i16, i16, i16, i16, i16, i16, i16, i16, i16, i16, i16, i16, i16, i16, i16, i16, i16, i16, i16, i16, i16, i16, i16, i16, i16, i16, i16, i16, i16, i16, i16, i16, i16, i16, i16, i16, i16, i16, i16, i16, i16, i16, i16, i16, i16, i16, i16, i16, i16, i16, i16, i16, i16, i16, i16, i16, i16, i16, i16, i16, i16, i16, i16, i16, i16, i16, i16, i16, i16, i16, i16, i16, i16, i16, i16, i16, i16, i16, i16, i16, i16, i16, i16, i16, i16, i16, i16, i16, i16, i16, i16, i16, i16, i16, i16, i16, i16, i16, i16, i16, i16, i16, i16, i16, i16, i16, i16, i16, i16, i16, i16, i16, i16, i16, i16, i16, i16, i16, i16, i16, i16, i16, i16, i16, i16, i16, i16, i16, i16, i16, i16, i16, i16, i16, i16, i16, i16, i16, i16, i16, i16, i16, i16, i16, i16, i16, i16, i16, i16, i16, i16, i16, i16, i16, i16, i16, i16, i16, i16, i16, i16, i16, i16, i16, i16, i16, i16, i16, i16, i16, i16, i16, i16, i16, i16, i16, i16, i16, i16, i16, i16, i16, i16, i16, i16, i16, i16, i16, i16, i16, i16, i16, i16, i16, i16, i16, i16, i16, i16, i16, i16, i16, i16, i16, i16, i16, i16, i16, i16, i16, i16, i16, i16, i16, i16, i16, i16, i16, i16, i16, i16, i16, i16, i16, i16, i16, i16, i16, i16, i16, i16, i16, i16, i16, i16, i16, i16, i16, i16, i16, i16, i16, i16, i16, i16, i16, i16, i16, i16, i16, i16, i16, i16, i16, i16, i16, i16, i16, i16, i16, i16, i16, i16, i16, i16, i16, i16, i16, i16, i16, i16, i16, i16, i16, i16, i16, i16, i16, i16, i16, i16, i16, i16, i16, i16, i16, i16, i16, i16, i16, i16, i16, i16, i16, i16, i16, i16, i16, i16, i16, i16, i16, i16, i16, i16, i16, i16, i16, i16, i16, i16, i16, i16, i16, i16, i16, i16, i16, i16, i16, i16, i16, i16, i16, i16, i16, i16, i16, i16, i16, i16, i16, i16, i16, i16, i16, i16, i16, i16, i16, i16, i16, i16, i16, i16, i16, i16, i16, i16, i16, i16, i16, i16, i16, i16, i16, i16, i16, i16, i16, i16, i16, i16, i16, i16, i16, i16, i16, i16, i16, i16, i16, i16, i16, i16, i16, i16, i16, i16, i16, i16, i16, i16, i16, i16, i16, i16, i16, i16, i16, i16, i16, i16, i16, i16, i16, i16, i16, i16, i16, i16, i16, i16, i16, i16, i16, i16, i16, i16, i16, i16, i16, i16, i16, i16, i16, i16, i16, i16, i16, i16, i16, i16, i16, i16, i16, i16, i16, i16, i16, i16, i16, i16, i16, i16, i16, i16, i16, i16, i16, i16, i16, i16, i16, i16, i16, i16, i16, i16, i16, i16, i16, i16, i16, i16, i16, i16, i16, i16, i16, i16, i16, i16, i16, i16, i16, i16, i16, i16, i16, i16, i16, i16, i16, i16, i16, i16, i16, i16, i16, i16, i16, i16, i16, i16, i16, i16, i16, i16, i16, i16, i16, i16, i16, i16, i16, i16, i16, i16, i16, i16, i16, i16, i16, i16, i16, i16, i16, i16, i16, i16, i16, i16, i16, i16, i16, i16, i16, i16, i16, i16, i16, i16, i16, i16, i16, i16, i16, i16, i16, i16, i16, i16, i16, i16, i16, i16, i16, i16, i16, i16, i16, i16, i16, i16, i16, i16, i16, i16, i16, i16, i16, i16, i16, i16, i16, i16, i16, i16, i16, i16, i16, i16, i16, i16, i16, i16, i16, i16, i16, i16, i16, i16, i16, i16, i16, i16, i16, i16, i16, i16, i16, i16, i16, i16, i16, i16, i16, i16, i16, i16, i16, i16, i16, i16, i16, i16, i16, i16, i16, i16, i16, i16, i16, i16, i16, i16, i16, i16, i16, i16, i16, i16, i16, i16, i16, i16, i16, i16, i16, i16, i16, i16, i16, i16, i16, i16, i16, i16, i16, i16, i16, i16, i16, i16, i16, i16, i16, i16, i16, i16, i16, i16, i16, i16, i16, i16, i16, i16, i16, i16, i16, i16, i16, i16, i16, i16, i16, i16, i16, i16, i16, i16, i16, i16, i16, i16, i16, i16, i16, i16, i16, i16, i16, i16, i16, i16, i16, i16, i16, i16, i16, i16, i16, i16, i16, i16, i16, i16, i16, i16, i16, i16, i16, i16, i16, i16, i16, i16, i16, i16, i16, i16, i16, i16, i16, i16, i16, i16, i16, i16, i16, i16, i16, i16, i16, i16, i16, i16, i16, i16, i16, i16, i16, i16, i16, i16, i16, i16, i16, i16, i16, i16, i16, i16, i16, i16, i16, i16, i16, i16, i16, i16, i16, i16, i16, i16, i16, i16, i16, i16, i16, i16, i16, i16, i16, i16, i16, i16, i16, i16, i16, i16, i16, i16, i16, i16, i16, i16, i16, i16, i16, i16, i16, i16, i16, i16, i16, i16, i16, i16, i16, i16, i16, i16, i16, i16, i16, i16, i16, i16, i16, i16, i16, i16, i16, i16, i16, i16, i16, i16, i16, i16, i16, i16, i16, i16, i16, i16, i16, i16, i16, i16, i16, i16, i16, i16, i16, i16, i16, i16, i16, i16, i16, i16, i16, i16, i16, i16, i16, i16, i16, i16, i16, i16, i16, i16, i16, i16, i16, i16, i16, i16, i16, i16, i16, i16, i16, i16, i16, i16, i16, i16, i16, i16, i16, i16, i16, i16, i16, i16, i16, i16, i16, i16, i16, i16, i16, i16, i16, i16, i16, i16, i16, i16, i16, i16, i16, i16, i16, i16, i16, i16, i16, i16, i16, i16, i16, i16, i16, i16, i16, i16, i16, i16, i16, i16, i16, i16, i16, i16, i16, i16, i16, i16, i16, i16, i16, i16, i16, i16, i16, i16, i16, i16, i16, i16, i16, i16, i16, i16, i16, i16, i16, i16, i16, i16, i16, i16, i16, i16, i16, i16, i16, i16, i16, i16, i16, i16, i16, i16, i16, i16, i16, i16, i16, i16, i16, i16, i16, i16, i16, i16, i16, i16, i16, i16, i16, i16, i16, i16, i16, i16, i16, i16, i16, i16, i16, i16, i16, i16, i16, i16, i16, i16, i16, i16, i16, i16, i16, i16, i16, i16, i16, i16, i16, i16, i16, i16, i16, i16, i16, i16, i16, i16, i16, i16, i16, i16, i16, i16, i16, i16, i16, i16, i16, i16, i16, i16, i16, i16, i16, i16, i16, i16, i16, i16, i16, i16, i16, i16, i16, i16, i16, i16, i16, i16, i16, i16, i16, i16, i16, i16, i16, i16, i16, i16, i16, i16, i16, i16, i16, i16, i16, i16, i16, i16, i16, i16, i16, i16, i16, i16, i16, i16, i16, i16, i16, i16, i16, i16, i16, i16, i16, i16, i16, i16, i16, i16, i16, i16, i16, i16, i16, i16, i16, i16, i16, i16, i16, i16, i16, i16, i16, i16, i16, i16, i16, i16, i16, i16, i16, i16, i16, i16, i16, i16, i16, i16, i16, i16, i16, i16, i16, i16, i16, i16, i16, i16, i16, i16, i16, i16, i16, i16, i16, i16, i16, i16, i16, i16, i16, i16, i16, i16, i16, i16, i16, i16, i16, i16, i16, i16, i16, i16, i16, i16, i16, i16, i16, i16, i16, i16, i16, i16, i16, i16, i16, i16, i16, i16, i16, i16, i16, i16, i16, i16, i16, i16, i16, i16, i16, i16, i16, i16, i16, i16, i16, i16, i16, i16, i16, i16, i16, i16, i16, i16, i16, i16, i16, i16, i16, i16, i16, i16, i16, i16, i16, i16, i16, i16, i16, i16, i16, i16, i16, i16, i16, i16, i16, i16, i16, i16, i16, i16, i16, i16, i16, i16, i16, i16, i16, i16, i16, i16, i16, i16, i16, i16, i16, i16, i16, i16, i16, i16, i16, i16, i16, i16, i16, i16, i16, i16, i16, i16, i16, i16, i16, i16, i16, i16, i16, i16, i16, i16, i16, i16, i16, i16, i16, i16, i16, i16, i16, i16, i16, i16, i16, i16, i16, i16, i16, i16, i16, i16, i16, i16, i16, i16, i16, i16, i16, i16, i16, i16, i16, i16, i16, i16, i16, i16, i16, i16, i16, i16, i16, i16, i16, i16, i16, i16, i16, i16, i16, i16, i16, i16, i16, i16, i16, i16, i16, i16, i16, i16, i16, i16, i16, i16, i16, i16, i16, i16, i16, i16, i16, i16, i16, i16, i16, i16, i16, i16, i16, i16, i16, i16, i16, i16, i16, i16, i16, i16, i16, i16, i16, i16, i16, i16, i16, i16, i16, i16, i16, i16, i16, i16, i16, i16, i16, i16, i16, i16, i16, i16, i16, i16, i16, i16, i16, i16, i16, i16, i16, i16, i16, i16, i16, i16, i16, i16, i16, i16, i16, i16, i16, i16, i16, i16, i16, i16, i16, i16, i16, i16, i16, i16, i16, i16, i16, i16, i16, i16, i16, i16, i16, i16, i16, i16, i16, i16, i16, i16, i16, i16, i16, i16, i16, i16, i16, i16, i16, i16, i16, i16, i16, i16, i16, i16, i16, i16, i16, i16, i16, i16, i16, i16, i16, i16, i16, i16, i16, i16, i16, i16, i16, i16, i16, i16, i16, i16, i16, i16, i16, i16, i16, i16, i16, i16, i16, i16, i16, i16, i16, i16, i16, i16, i16, i16, i16, i16, i16, i16, i16, i16, i16, i16, i16, i16, i16, i16, i16, i16, i16, i16, i16, i16, i16, i16, i16, i16, i16, i16, i16, i16, i16, i16, i16, i16, i16, i16, i16, i16, i16, i16, i16, i16, i16, i16, i16, i16, i16, i16, i16, i16, i16, i16, i16, i16, i16, i16, i16, i16, i16, i16, i16, i16, i16, i16, i16, i16, i16, i16, i16, i16, i16, i16, i16, i16, i16, i16, i16, i16, i16, i16, i16, i16, i16, i16, i16, i16, i16, i16, i16, i16, i16, i16, i16, i16, i16, i16, i16, i16, i16, i16, i16, i16, i16, i16, i16, i16, i16, i16, i16, i16, i16, i16, i16, i16, i16, i16, i16, i16, i16, i16, i16, i16, i16, i16, i16, i16, i16, i16, i16, i16, i16, i16, i16, i16, i16, i16, i16, i16, i16, i16, i16, i16, i16, i16, i16, i16, i16, i16, i16, i16, i16, i16, i16, i16, i16, i16, i16, i16, i16, i16, i16, i16, i16, i16, i16, i16, i16, i16, i16, i16, i16, i16, i16, i16, i16, i16, i16, i16, i16, i16, i16, i16, i16, i16, i16, i16, i16, i16, i16, i16, i16, i16, i16, i16, i16, i16, i16, i16, i16, i16, i16, i16, i16, i16, i16, i16, i16, i16, i16, i16, i16, i16, i16, i16, i16, i16, i16, i16, i16, i16, i16, i16, i16, i16, i16, i16, i16, i16, i16, i16, i16, i16, i16, i16, i16, i16, i16, i16, i16, i16, i16, i16, i16, i16, i16, i16, i16, i16, i16, i16, i16, i16, i16, i16, i16, i16, i16, i16, i16, i16, i16, i16, i16, i16, i16, i16, i16, i16, i16, i16, i16, i16, i16, i16, i16, i16, i16, i16, i16, i16, i16, i16, i16, i16, i16, i16, i16, i16, i16, i16, i16, i16, i16, i16, i16, i16, i16, i16, i16, i16, i16, i16, i16, i16, i16, i16, i16, i16, i16, i16, i16, i16, i16, i16, i16, i16, i16, i16, i16, i16, i16, i16, i16, i16, i16, i16, i16, i16, i16, i16, i16, i16, i16, i16, i16, i16, i16, i16, i16, i16, i16, i16, i16, i16, i16, i16, i16, i16, i16, i16, i16, i16, i16, i16, i16, i16, i16, i16, i16, i16, i16, i16, i16, i16, i16, i16, i16, i16, i16, i16, i16, i16, i16, i16, i16, i16, i16, i16, i16, i16, i16, i16, i16, i16, i16, i16, i16, i16, i16, i16, i16, i16, i16, i16, i16, i16, i16, i16, i16, i16, i16, i16, i16, i16, i16, i16, i16, i16, i16, i16, i16, i16, i16, i16, i16, i16, i16, i16, i16, i16, i16, i16, i16, i16, i16, i16, i16, i16, i16, i16, i16, i16, i16, i16, i16, i16, i16, i16, i16, i16, i16, i16, i16, i16, i16, i16, i16, i16, i16, i16, i16, i16, i16, i16, i16, i16, i16, i16, i16, i16, i16, i16, i16, i16, i16, i16, i16, i16, i16, i16, i16, i16, i16, i16, i16, i16, i16, i16, i16, i16, i16, i16, i16, i16, i16, i16, i16, i16, i16, i16, i16, i16, i16, i16, i16, i16, i16, i16, i16, i16, i16, i16, i16, i16, i16, i16, i16, i16, i16, i16, i16, i16, i16, i16, i16, i16, i16, i16, i16, i16, i16, i16, i16, i16, i16, i16, i16, i16, i16, i16, i16, i16, i16, i16, i16, i16, i16, i16, i16, i16, i16, i16, i16, i16, i16, i16, i16, i16, i16, i16, i16, i16, i16, i16, i16, i16, i16, i16, i16, i16, i16, i16, i16, i16, i16, i16, i16, i16, i16, i16, i16, i16, i16, i16, i16, i16, i16, i16, i16, i16, i16, i16, i16, i16, i16, i16, i16) -> tensor<13x27x13xi16>
        %243 = "index.maxu"(%33, %22) : (index, index) -> index
        %244 = "math.expm1"(%11) <{fastmath = #arith.fastmath<none>}> : (f16) -> f16
        %245 = "vector.broadcast"(%7) : (i16) -> vector<13x27x13xi16>
        %246 = "vector.transpose"(%245) <{transp = [0, 1, 2]}> : (vector<13x27x13xi16>) -> vector<13x27x13xi16>
        %247 = "affine.apply"(%35) <{map = affine_map<(d0) -> ((d0 + 16) * -7)>}> : (index) -> index
        %248 = "arith.divsi"(%9, %7) : (i16, i16) -> i16
        "scf.yield"(%70) : (memref<27xi1>) -> ()
      }) : () -> memref<27xi1>
      %216 = "memref.alloca"(%16) <{operandSegmentSizes = array<i32: 1, 0>}> : (index) -> memref<?xi16>
      %217 = "vector.broadcast"(%8) : (f16) -> vector<17xf16>
      %218 = "vector.reduction"(%217) <{fastmath = #arith.fastmath<none>, kind = #vector.kind<mul>}> : (vector<17xf16>) -> f16
      %219 = "vector.transfer_read"(%49, %46, %85) <{operandSegmentSizes = array<i32: 1, 1, 1, 0>, permutation_map = affine_map<(d0) -> ()>}> : (tensor<25xi1>, index, i1) -> vector<i1>
      %220 = "arith.shrsi"(%0, %0) : (i64, i64) -> i64
      %221 = "tensor.insert"(%1, %52, %18, %26) : (f32, tensor<13x13xf32>, index, index) -> tensor<13x13xf32>
      %222 = "arith.shrui"(%13, %9) : (i16, i16) -> i16
      %223 = "index.ceildivs"(%27, %43) : (index, index) -> index
      %224 = "arith.cmpi"(%85, %3) <{predicate = 2 : i64}> : (i1, i1) -> i1
      "memref.assume_alignment"(%215) <{alignment = 8 : i32}> : (memref<27xi1>) -> ()
      %225 = "arith.divf"(%83, %11) <{fastmath = #arith.fastmath<none>}> : (f16, f16) -> f16
      %226 = "vector.load"(%84, %21, %22) : (memref<13x13xi16>, index, index) -> vector<25xi16>
      %227 = "scf.parallel"(%32, %24, %38, %89) <{operandSegmentSizes = array<i32: 1, 1, 1, 1>}> ({
      ^bb0(%arg1: index):
        %231 = "tensor.from_elements"(%86, %8, %11, %82, %82, %8, %8, %11, %11, %11, %11, %11, %82, %8, %86, %8, %86, %82, %83, %82, %8, %86, %86, %8, %8, %86, %8, %83, %8, %8, %11, %8, %8, %83, %83, %86, %82, %83, %82, %11, %82, %11, %11, %83, %82, %83, %8, %8, %86, %86, %83, %82, %86, %8, %8, %8, %8, %82, %83, %11, %83, %8, %83, %11, %11, %86, %82, %82, %83, %11, %82, %82, %83, %83, %11, %83, %8, %86, %8, %11, %83, %83, %83, %86, %11, %8, %82, %11, %82, %86, %8, %82, %8, %83, %11, %86, %86, %11, %82, %82, %8, %83, %86, %82, %82, %86, %83, %11, %82, %83, %86, %11, %82, %11, %83, %8, %11, %82, %11, %83, %83, %83, %83, %83, %82, %11, %82, %11, %11, %82, %11, %86, %11, %11, %8, %83, %11, %11, %8, %11, %11, %82, %82, %86, %86, %11, %83, %86, %8, %83, %8, %86, %82, %86, %82, %82, %82, %83, %82, %86, %83, %11, %86, %82, %83, %83, %86, %83, %86) : (f16, f16, f16, f16, f16, f16, f16, f16, f16, f16, f16, f16, f16, f16, f16, f16, f16, f16, f16, f16, f16, f16, f16, f16, f16, f16, f16, f16, f16, f16, f16, f16, f16, f16, f16, f16, f16, f16, f16, f16, f16, f16, f16, f16, f16, f16, f16, f16, f16, f16, f16, f16, f16, f16, f16, f16, f16, f16, f16, f16, f16, f16, f16, f16, f16, f16, f16, f16, f16, f16, f16, f16, f16, f16, f16, f16, f16, f16, f16, f16, f16, f16, f16, f16, f16, f16, f16, f16, f16, f16, f16, f16, f16, f16, f16, f16, f16, f16, f16, f16, f16, f16, f16, f16, f16, f16, f16, f16, f16, f16, f16, f16, f16, f16, f16, f16, f16, f16, f16, f16, f16, f16, f16, f16, f16, f16, f16, f16, f16, f16, f16, f16, f16, f16, f16, f16, f16, f16, f16, f16, f16, f16, f16, f16, f16, f16, f16, f16, f16, f16, f16, f16, f16, f16, f16, f16, f16, f16, f16, f16, f16, f16, f16, f16, f16, f16, f16, f16, f16) -> tensor<13x13xf16>
        %232 = "vector.create_mask"(%35, %41, %20) : (index, index, index) -> vector<13x27x13xi1>
        %233 = "vector.bitcast"(%226) : (vector<25xi16>) -> vector<25xf16>
        %234 = "vector.transpose"(%232) <{transp = [2, 1, 0]}> : (vector<13x27x13xi1>) -> vector<13x27x13xi1>
        %235 = "arith.cmpi"(%arg0, %14) <{predicate = 8 : i64}> : (i32, i32) -> i1
        %236 = "arith.minui"(%89, %85) : (i1, i1) -> i1
        %237 = "index.add"(%223, %39) : (index, index) -> index
        %238 = "math.cttz"(%61) : (tensor<?x13xi1>) -> tensor<?x13xi1>
        %239 = "index.maxu"(%41, %38) : (index, index) -> index
        %240 = "bufferization.clone"(%76) : (memref<13x13xi16>) -> memref<13x13xi16>
        %241 = "tensor.cast"(%53) : (tensor<13x27x13xi32>) -> tensor<?x?x?xi32>
        %242 = "arith.cmpi"(%arg0, %arg0) <{predicate = 6 : i64}> : (i32, i32) -> i1
        %243 = "tensor.rank"(%62) : (tensor<?x13xi64>) -> index
        %244 = "index.mul"(%28, %44) : (index, index) -> index
        %245 = "math.copysign"(%15, %80) <{fastmath = #arith.fastmath<none>}> : (f32, f32) -> f32
        %246 = "tensor.dim"(%59, %17) : (tensor<?x13xf16>, index) -> index
        "scf.reduce"(%3) ({
        ^bb0(%arg2: i1, %arg3: i1):
          %247 = "vector.transfer_read"(%48, %45, %40, %0) <{operandSegmentSizes = array<i32: 1, 2, 1, 0>, permutation_map = affine_map<(d0, d1) -> ()>}> : (tensor<13x13xi64>, index, index, i64) -> vector<i64>
          %248 = "math.floor"(%83) <{fastmath = #arith.fastmath<none>}> : (f16) -> f16
          %249 = "math.ctpop"(%58) : (tensor<13x27x13xi32>) -> tensor<13x27x13xi32>
          %250 = "math.exp"(%55) <{fastmath = #arith.fastmath<none>}> : (tensor<27xf32>) -> tensor<27xf32>
          %251 = "math.absf"(%55) <{fastmath = #arith.fastmath<none>}> : (tensor<27xf32>) -> tensor<27xf32>
          %252 = "arith.divsi"(%7, %9) : (i16, i16) -> i16
          %253 = "arith.cmpi"(%89, %85) <{predicate = 6 : i64}> : (i1, i1) -> i1
          %254 = "bufferization.clone"(%215) : (memref<27xi1>) -> memref<27xi1>
          "scf.reduce.return"(%arg2) : (i1) -> ()
        }) : (i1) -> ()
        "scf.yield"() : () -> ()
      }) : (index, index, index, i1) -> i1
      %228 = "memref.atomic_rmw"(%4, %72, %27, %34, %26) <{kind = 5 : i64}> : (i32, memref<13x27x13xi32>, index, index, index) -> i32
      %229 = "math.rsqrt"(%1) <{fastmath = #arith.fastmath<none>}> : (f32) -> f32
      %230 = "vector.broadcast"(%83) : (f16) -> vector<13x13xf16>
      "scf.yield"(%230) : (vector<13x13xf16>) -> ()
    }) : () -> vector<13x13xf16>
    %91 = "affine.max"(%46, %47, %24) <{map = affine_map<(d0, d1)[s0] -> (d0 * 4)>}> : (index, index, index) -> index
    %92 = "spirv.FUnordEqual"(%80, %80) : (f32, f32) -> i1
    %93 = "spirv.GL.SMin"(%2, %2) : (i64, i64) -> i64
    %94 = "spirv.GL.FClamp"(%11, %8, %86) : (f16, f16, f16) -> f16
    %95 = "spirv.CL.floor"(%82) : (f16) -> f16
    %96 = "tensor.expand_shape"(%57) <{reassociation = [[0], [1, 2]]}> : (tensor<13x13xi1>) -> tensor<13x13x1xi1>
    %97 = "math.copysign"(%82, %11) <{fastmath = #arith.fastmath<none>}> : (f16, f16) -> f16
    %98 = "vector.broadcast"(%2) : (i64) -> vector<13x25xi64>
    %99 = "vector.broadcast"(%2) : (i64) -> vector<13xi64>
    %100:2 = "vector.scan"(%98, %99) <{inclusive = true, kind = #vector.kind<add>, reduction_dim = 1 : i64}> : (vector<13x25xi64>, vector<13xi64>) -> (vector<13x25xi64>, vector<13xi64>)
    %101 = "spirv.GL.Log"(%10) : (f32) -> f32
    %102 = "vector.broadcast"(%14) : (i32) -> vector<2xi32>
    %103 = "spirv.BitwiseXor"(%102, %102) : (vector<2xi32>, vector<2xi32>) -> vector<2xi32>
    %104 = "spirv.BitwiseXor"(%102, %102) : (vector<2xi32>, vector<2xi32>) -> vector<2xi32>
    %105 = "spirv.GL.Ceil"(%11) : (f16) -> f16
    %106 = "memref.alloca"() <{operandSegmentSizes = array<i32: 0, 0>}> : () -> memref<13x27x13xf32>
    %107 = "math.fma"(%55, %55, %55) <{fastmath = #arith.fastmath<none>}> : (tensor<27xf32>, tensor<27xf32>, tensor<27xf32>) -> tensor<27xf32>
    %108 = "spirv.GL.FSign"(%10) : (f32) -> f32
    %109 = "arith.shli"(%3, %85) : (i1, i1) -> i1
    %110 = "memref.alloc"() <{operandSegmentSizes = array<i32: 0, 0>}> : () -> memref<25xi1>
    %111 = "tensor.empty"() : () -> tensor<i1>
    %112 = "linalg.dot"(%49, %110, %111) <{operandSegmentSizes = array<i32: 2, 1>}> ({
    ^bb0(%arg1: i1, %arg2: i1, %arg3: i1):
      %214 = "arith.andi"(%arg1, %arg2) : (i1, i1) -> i1
      %215 = "arith.ori"(%arg3, %214) : (i1, i1) -> i1
      "linalg.yield"(%215) : (i1) -> ()
    }) {linalg.memoized_indexing_maps = [affine_map<(d0) -> (d0)>, affine_map<(d0) -> (d0)>, affine_map<(d0) -> ()>]} : (tensor<25xi1>, memref<25xi1>, tensor<i1>) -> tensor<i1>
    "memref.assume_alignment"(%68) <{alignment = 8 : i32}> : (memref<13x13xi16>) -> ()
    %113 = "spirv.GL.Fma"(%86, %8, %11) : (f16, f16, f16) -> f16
    %114 = "spirv.GL.SSign"(%93) : (i64) -> i64
    %115 = "math.copysign"(%113, %8) <{fastmath = #arith.fastmath<none>}> : (f16, f16) -> f16
    %116 = "spirv.BitwiseXor"(%102, %102) : (vector<2xi32>, vector<2xi32>) -> vector<2xi32>
    %117 = "spirv.CL.u_min"(%arg0, %14) : (i32, i32) -> i32
    %118 = "arith.cmpi"(%85, %12) <{predicate = 8 : i64}> : (i1, i1) -> i1
    %119 = "spirv.BitFieldSExtract"(%102, %0, %117) : (vector<2xi32>, i64, i32) -> vector<2xi32>
    %120 = "tensor.extract"(%50, %16) : (tensor<?xf32>, index) -> f32
    %121 = "spirv.CL.floor"(%8) : (f16) -> f16
    %122 = "affine.max"(%40, %39, %34, %38) <{map = affine_map<(d0, d1, d2, d3) -> (d1 + 16)>}> : (index, index, index, index) -> index
    %123 = "spirv.SGreaterThan"(%114, %2) : (i64, i64) -> i1
    %124 = "arith.constant"() <{value = 0 : i64}> : () -> i64
    %125 = "vector.transfer_read"(%63, %24, %124) <{operandSegmentSizes = array<i32: 1, 1, 1, 0>, permutation_map = affine_map<(d0) -> ()>}> : (tensor<?xi64>, index, i64) -> vector<i64>
    %126 = "math.rsqrt"(%52) <{fastmath = #arith.fastmath<none>}> : (tensor<13x13xf32>) -> tensor<13x13xf32>
    %127 = "affine.load"(%68, %40, %37) <{map = affine_map<(d0, d1) -> (d0, d1)>}> : (memref<13x13xi16>, index, index) -> i16
    %128 = "math.ctlz"(%62) : (tensor<?x13xi64>) -> tensor<?x13xi64>
    %129 = "memref.atomic_rmw"(%7, %84, %26, %18) <{kind = 1 : i64}> : (i16, memref<13x13xi16>, index, index) -> i16
    %130 = "tensor.empty"(%31, %37) : (index, index) -> tensor<13x?x?xf32>
    "vector.print"(%102) <{punctuation = #vector.punctuation<newline>}> : (vector<2xi32>) -> ()
    %131 = "spirv.GL.Atan"(%120) : (f32) -> f32
    %132 = "spirv.CL.rint"(%10) : (f32) -> f32
    %133 = "index.mul"(%22, %16) : (index, index) -> index
    %134 = "vector.create_mask"(%37, %36, %22) : (index, index, index) -> vector<13x27x13xi1>
    %135 = "arith.mulf"(%113, %95) <{fastmath = #arith.fastmath<none>}> : (f16, f16) -> f16
    %136 = "math.fma"(%113, %105, %8) <{fastmath = #arith.fastmath<none>}> : (f16, f16, f16) -> f16
    %137 = "arith.addi"(%12, %92) : (i1, i1) -> i1
    %138 = "affine.load"(%84, %24, %37) <{map = affine_map<(d0, d1) -> (d0, d1)>}> : (memref<13x13xi16>, index, index) -> i16
    %139 = "spirv.IEqual"(%93, %93) : (i64, i64) -> i1
    %140 = "spirv.SGreaterThan"(%102, %102) : (vector<2xi32>, vector<2xi32>) -> vector<2xi1>
    %141 = "math.atan"(%113) <{fastmath = #arith.fastmath<none>}> : (f16) -> f16
    %142 = "linalg.matmul"(%52, %79, %52) <{operandSegmentSizes = array<i32: 2, 1>}> ({
    ^bb0(%arg1: f32, %arg2: f32, %arg3: f32):
      %214 = "arith.mulf"(%arg1, %arg2) <{fastmath = #arith.fastmath<none>}> : (f32, f32) -> f32
      %215 = "arith.addf"(%arg3, %214) <{fastmath = #arith.fastmath<none>}> : (f32, f32) -> f32
      "linalg.yield"(%215) : (f32) -> ()
    }) {linalg.memoized_indexing_maps = [affine_map<(d0, d1, d2) -> (d0, d2)>, affine_map<(d0, d1, d2) -> (d2, d1)>, affine_map<(d0, d1, d2) -> (d0, d1)>]} : (tensor<13x13xf32>, memref<13x13xf32>, tensor<13x13xf32>) -> tensor<13x13xf32>
    %143 = "memref.alloc"(%26) <{operandSegmentSizes = array<i32: 1, 0>}> : (index) -> memref<?x27x13x27xi1>
    "linalg.broadcast"(%60, %143) <{dimensions = array<i64: 3>}> ({
    ^bb0(%arg1: i1, %arg2: i1):
      "linalg.yield"(%arg1) : (i1) -> ()
    }) : (tensor<?x27x13xi1>, memref<?x27x13x27xi1>) -> ()
    %144 = "arith.divf"(%86, %121) <{fastmath = #arith.fastmath<none>}> : (f16, f16) -> f16
    %145 = "spirv.CL.u_min"(%14, %4) : (i32, i32) -> i32
    %146 = "math.ctpop"(%9) : (i16) -> i16
    %147 = "tensor.extract"(%60, %16, %28, %26) : (tensor<?x27x13xi1>, index, index, index) -> i1
    %148 = "math.tan"(%52) <{fastmath = #arith.fastmath<none>}> : (tensor<13x13xf32>) -> tensor<13x13xf32>
    %149 = "scf.parallel"(%45, %17, %47, %122, %35, %25, %79) <{operandSegmentSizes = array<i32: 2, 2, 2, 1>}> ({
    ^bb0(%arg1: index, %arg2: index):
      %214 = "index.maxs"(%22, %17) : (index, index) -> index
      %215 = "memref.load"(%78, %24, %28, %24) <{nontemporal = false}> : (memref<13x27x13xf32>, index, index, index) -> f32
      %216 = "math.exp"(%94) <{fastmath = #arith.fastmath<none>}> : (f16) -> f16
      "vector.warp_execute_on_lane_0"(%16) <{warp_size = 32 : i64}> ({
        %227 = "tensor.extract"(%51, %16) : (tensor<?xi64>, index) -> i64
        %228 = "arith.shrui"(%4, %4) : (i32, i32) -> i32
        %229 = "arith.cmpi"(%9, %9) <{predicate = 9 : i64}> : (i16, i16) -> i1
        %230 = "memref.alloc"(%16) <{operandSegmentSizes = array<i32: 1, 0>}> : (index) -> memref<13x?xi64>
        "linalg.transpose"(%62, %230) <{permutation = array<i64: 1, 0>}> ({
        ^bb0(%arg3: i64, %arg4: i64):
          "linalg.yield"(%arg3) : (i64) -> ()
        }) : (tensor<?x13xi64>, memref<13x?xi64>) -> ()
        %231 = "vector.broadcast"(%108) : (f32) -> vector<13x27x13xf32>
        %232 = "tensor.cast"(%53) : (tensor<13x27x13xi32>) -> tensor<?x?x?xi32>
        %233 = "arith.divui"(%127, %9) : (i16, i16) -> i16
        %234 = "tensor.empty"(%38) : (index) -> tensor<13x27x27x?xi1>
        %235 = "linalg.transpose"(%143, %234) <{permutation = array<i64: 2, 3, 1, 0>}> ({
        ^bb0(%arg3: i1, %arg4: i1):
          "linalg.yield"(%arg3) : (i1) -> ()
        }) : (memref<?x27x13x27xi1>, tensor<13x27x27x?xi1>) -> tensor<13x27x27x?xi1>
        "vector.yield"() : () -> ()
      }) : (index) -> ()
      %217 = "math.absi"(%53) : (tensor<13x27x13xi32>) -> tensor<13x27x13xi32>
      %218 = "bufferization.to_tensor"(%78) : (memref<13x27x13xf32>) -> tensor<13x27x13xf32>
      "memref.copy"(%77, %77) : (memref<?xi64>, memref<?xi64>) -> ()
      %219 = "tensor.empty"() : () -> tensor<25xi1>
      %220 = "math.ipowi"(%53, %58) : (tensor<13x27x13xi32>, tensor<13x27x13xi32>) -> tensor<13x27x13xi32>
      %221 = "vector.load"(%73, %23) : (memref<27xi32>, index) -> vector<25xi32>
      %222 = "arith.minui"(%0, %0) : (i64, i64) -> i64
      %223 = "math.log10"(%52) <{fastmath = #arith.fastmath<none>}> : (tensor<13x13xf32>) -> tensor<13x13xf32>
      %224 = "arith.ceildivsi"(%114, %93) : (i64, i64) -> i64
      "vector.warp_execute_on_lane_0"(%16) <{warp_size = 32 : i64}> ({
        %227 = "index.and"(%21, %39) : (index, index) -> index
        %228 = "math.exp"(%95) <{fastmath = #arith.fastmath<none>}> : (f16) -> f16
        %229 = "arith.divf"(%132, %80) <{fastmath = #arith.fastmath<none>}> : (f32, f32) -> f32
        %230 = "arith.addf"(%8, %83) <{fastmath = #arith.fastmath<none>}> : (f16, f16) -> f16
        %231 = "tensor.empty"(%20) : (index) -> tensor<13x?xi1>
        %232 = "linalg.transpose"(%61, %231) <{permutation = array<i64: 1, 0>}> ({
        ^bb0(%arg3: i1, %arg4: i1):
          "linalg.yield"(%arg3) : (i1) -> ()
        }) : (tensor<?x13xi1>, tensor<13x?xi1>) -> tensor<13x?xi1>
        %233 = "index.mul"(%227, %227) : (index, index) -> index
        %234 = "arith.mulf"(%8, %86) <{fastmath = #arith.fastmath<none>}> : (f16, f16) -> f16
        %235 = "arith.mulf"(%10, %132) <{fastmath = #arith.fastmath<none>}> : (f32, f32) -> f32
        "vector.yield"() : () -> ()
      }) : (index) -> ()
      "linalg.transpose"(%63, %77) <{permutation = array<i64: 0>}> ({
      ^bb0(%arg3: i64, %arg4: i64):
        "linalg.yield"(%arg3) : (i64) -> ()
      }) : (tensor<?xi64>, memref<?xi64>) -> ()
      %225 = "arith.constant"() <{value = 0.000000e+00 : f32}> : () -> f32
      %226 = "vector.transfer_read"(%55, %29, %225) <{operandSegmentSizes = array<i32: 1, 1, 1, 0>, permutation_map = affine_map<(d0) -> ()>}> : (tensor<27xf32>, index, f32) -> vector<f32>
      "scf.reduce"(%79) ({
      ^bb0(%arg3: memref<13x13xf32>, %arg4: memref<13x13xf32>):
        %227 = "index.mul"(%38, %32) : (index, index) -> index
        %228 = "arith.remsi"(%123, %147) : (i1, i1) -> i1
        %229 = "arith.minsi"(%93, %5) : (i64, i64) -> i64
        %230 = "vector.extract"(%102) <{static_position = array<i64: 0>}> : (vector<2xi32>) -> i32
        %231 = "index.castu"(%89) : (i1) -> index
        %232 = "vector.create_mask"(%43) : (index) -> vector<25xi1>
        %233 = "vector.insertelement"(%12, %232, %25) : (i1, vector<25xi1>, index) -> vector<25xi1>
        %234 = "index.mul"(%26, %30) : (index, index) -> index
        "scf.reduce.return"(%arg3) : (memref<13x13xf32>) -> ()
      }) : (memref<13x13xf32>) -> ()
      "scf.yield"() : () -> ()
    }) : (index, index, index, index, index, index, memref<13x13xf32>) -> memref<13x13xf32>
    %150 = "spirv.CL.s_max"(%4, %117) : (i32, i32) -> i32
    %151 = "arith.shrui"(%93, %114) : (i64, i64) -> i64
    %152 = "spirv.GL.Log"(%132) : (f32) -> f32
    %153 = "vector.extract"(%102) <{static_position = array<i64: 0>}> : (vector<2xi32>) -> i32
    %154 = "arith.mulf"(%108, %101) <{fastmath = #arith.fastmath<none>}> : (f32, f32) -> f32
    %155 = "spirv.FUnordNotEqual"(%101, %120) : (f32, f32) -> i1
    %156 = "bufferization.clone"(%74) : (memref<13x13xi32>) -> memref<13x13xi32>
    %157 = "spirv.GL.Ceil"(%15) : (f32) -> f32
    %158 = "vector.broadcast"(%95) : (f16) -> vector<f16>
    %159 = "vector.transfer_write"(%158, %59, %33, %36) <{operandSegmentSizes = array<i32: 1, 1, 2, 0>, permutation_map = affine_map<(d0, d1) -> ()>}> : (vector<f16>, tensor<?x13xf16>, index, index) -> tensor<?x13xf16>
    %160 = "math.roundeven"(%55) <{fastmath = #arith.fastmath<none>}> : (tensor<27xf32>) -> tensor<27xf32>
    %161 = "spirv.GL.FClamp"(%80, %15, %132) : (f32, f32, f32) -> f32
    %162 = "spirv.GL.Asin"(%10) : (f32) -> f32
    %163 = "spirv.GL.SSign"(%arg0) : (i32) -> i32
    %164 = "spirv.GL.FClamp"(%131, %157, %6) : (f32, f32, f32) -> f32
    %165 = "tensor.empty"(%27) : (index) -> tensor<13x?xi1>
    %166 = "bufferization.clone"(%74) : (memref<13x13xi32>) -> memref<13x13xi32>
    %167 = "spirv.CL.rint"(%161) : (f32) -> f32
    %168 = "arith.ceildivsi"(%150, %4) : (i32, i32) -> i32
    %169 = "math.sqrt"(%50) <{fastmath = #arith.fastmath<none>}> : (tensor<?xf32>) -> tensor<?xf32>
    %170 = "spirv.GL.SClamp"(%93, %93, %5) : (i64, i64, i64) -> i64
    %171 = "spirv.BitwiseOr"(%102, %102) : (vector<2xi32>, vector<2xi32>) -> vector<2xi32>
    "memref.store"(%92, %143, %16, %17, %27, %36) <{nontemporal = false}> : (i1, memref<?x27x13x27xi1>, index, index, index, index) -> ()
    %172 = "spirv.GL.SSign"(%0) : (i64) -> i64
    %173 = "spirv.LogicalNotEqual"(%92, %123) : (i1, i1) -> i1
    %174 = "spirv.LogicalOr"(%89, %89) : (i1, i1) -> i1
    %175 = "spirv.GL.Cosh"(%152) : (f32) -> f32
    %176 = "spirv.BitFieldInsert"(%102, %102, %14, %7) : (vector<2xi32>, vector<2xi32>, i32, i16) -> vector<2xi32>
    %177 = "arith.ori"(%172, %172) : (i64, i64) -> i64
    %178 = "memref.alloc"(%133) <{operandSegmentSizes = array<i32: 1, 0>}> : (index) -> memref<27x?xi1>
    %179 = "tensor.empty"() : () -> tensor<27xi1>
    %180 = "linalg.generic"(%178, %179) <{indexing_maps = [affine_map<(d0, d1) -> (d0, d1)>, affine_map<(d0, d1) -> (d0)>], iterator_types = [#linalg.iterator_type<parallel>, #linalg.iterator_type<reduction>], operandSegmentSizes = array<i32: 1, 1>}> ({
    ^bb0(%arg1: i1, %arg2: i1):
      %214 = "arith.negf"(%121) <{fastmath = #arith.fastmath<none>}> : (f16) -> f16
      "linalg.yield"(%92) : (i1) -> ()
    }) : (memref<27x?xi1>, tensor<27xi1>) -> tensor<27xi1>
    %181 = "tensor.extract"(%56, %16, %16, %20) : (tensor<?x?x13xi16>, index, index, index) -> i16
    %182 = "spirv.CL.sqrt"(%105) : (f16) -> f16
    %183 = "arith.minsi"(%85, %155) : (i1, i1) -> i1
    %184 = "spirv.FUnordLessThanEqual"(%94, %86) : (f16, f16) -> i1
    %185 = "vector.extract_strided_slice"(%134) <{offsets = [3], sizes = [1], strides = [1]}> : (vector<13x27x13xi1>) -> vector<1x27x13xi1>
    %186 = "spirv.FUnordNotEqual"(%121, %94) : (f16, f16) -> i1
    %187 = "index.divs"(%133, %33) : (index, index) -> index
    %188 = "spirv.IsNan"(%113) : (f16) -> i1
    %189 = "spirv.CL.log"(%101) : (f32) -> f32
    %190 = "vector.extract"(%185) <{static_position = array<i64: 0>}> : (vector<1x27x13xi1>) -> vector<27x13xi1>
    %191 = "arith.mulf"(%82, %95) <{fastmath = #arith.fastmath<none>}> : (f16, f16) -> f16
    %192 = "arith.subi"(%184, %173) : (i1, i1) -> i1
    %193 = "spirv.GL.Cosh"(%105) : (f16) -> f16
    %194 = "arith.divf"(%131, %120) <{fastmath = #arith.fastmath<none>}> : (f32, f32) -> f32
    %195 = "spirv.GL.Atan"(%189) : (f32) -> f32
    %196 = "math.cttz"(%61) : (tensor<?x13xi1>) -> tensor<?x13xi1>
    %197 = "arith.andi"(%9, %13) : (i16, i16) -> i16
    %198 = "spirv.UGreaterThan"(%170, %114) : (i64, i64) -> i1
    %199 = "spirv.BitwiseAnd"(%102, %102) : (vector<2xi32>, vector<2xi32>) -> vector<2xi32>
    %200 = "spirv.GL.Ldexp"(%152, %170) : (f32, i64) -> f32
    %201 = "spirv.LogicalEqual"(%92, %173) : (i1, i1) -> i1
    %202 = "spirv.CL.sqrt"(%120) : (f32) -> f32
    %203 = "arith.constant"() <{value = 0 : i64}> : () -> i64
    %204 = "vector.transfer_read"(%48, %41, %19, %203) <{operandSegmentSizes = array<i32: 1, 2, 1, 0>, permutation_map = affine_map<(d0, d1) -> ()>}> : (tensor<13x13xi64>, index, index, i64) -> vector<i64>
    %205 = "arith.divui"(%9, %181) : (i16, i16) -> i16
    %206 = "tensor.expand_shape"(%57) <{reassociation = [[0], [1, 2]]}> : (tensor<13x13xi1>) -> tensor<13x13x1xi1>
    %207 = "spirv.BitwiseOr"(%102, %102) : (vector<2xi32>, vector<2xi32>) -> vector<2xi32>
    %208 = "spirv.GL.SMax"(%117, %163) : (i32, i32) -> i32
    %209 = "math.roundeven"(%50) <{fastmath = #arith.fastmath<none>}> : (tensor<?xf32>) -> tensor<?xf32>
    %210 = "scf.execute_region"() ({
      "vector.print"(%185) <{punctuation = #vector.punctuation<newline>}> : (vector<1x27x13xi1>) -> ()
      %214 = "index.casts"(%93) : (i64) -> index
      %215 = "math.expm1"(%202) <{fastmath = #arith.fastmath<none>}> : (f32) -> f32
      %216 = "math.log"(%132) <{fastmath = #arith.fastmath<none>}> : (f32) -> f32
      "memref.assume_alignment"(%76) <{alignment = 1 : i32}> : (memref<13x13xi16>) -> ()
      %217 = "memref.alloc"(%36) <{operandSegmentSizes = array<i32: 1, 0>}> : (index) -> memref<?xi32>
      %218 = "tensor.empty"(%24) : (index) -> tensor<?xi32>
      %219 = "linalg.generic"(%217, %218) <{indexing_maps = [affine_map<(d0) -> (d0)>, affine_map<(d0) -> (d0)>], iterator_types = [#linalg.iterator_type<parallel>], operandSegmentSizes = array<i32: 1, 1>}> ({
      ^bb0(%arg1: i32, %arg2: i32):
        "vector.print"(%190) <{punctuation = #vector.punctuation<newline>}> : (vector<27x13xi1>) -> ()
        "linalg.yield"(%163) : (i32) -> ()
      }) : (memref<?xi32>, tensor<?xi32>) -> tensor<?xi32>
      %220 = "index.maxu"(%26, %23) : (index, index) -> index
      %221 = "math.floor"(%6) <{fastmath = #arith.fastmath<none>}> : (f32) -> f32
      %222 = "arith.remui"(%arg0, %208) : (i32, i32) -> i32
      "scf.execute_region"() ({
        "bufferization.dealloc_tensor"(%53) : (tensor<13x27x13xi32>) -> ()
        %230 = "math.expm1"(%131) <{fastmath = #arith.fastmath<none>}> : (f32) -> f32
        %231 = "arith.ori"(%13, %181) : (i16, i16) -> i16
        %232 = "index.add"(%43, %27) : (index, index) -> index
        %233 = "arith.remui"(%155, %3) : (i1, i1) -> i1
        %234 = "math.copysign"(%189, %15) <{fastmath = #arith.fastmath<none>}> : (f32, f32) -> f32
        %235 = "vector.extract"(%102) <{static_position = array<i64: 1>}> : (vector<2xi32>) -> i32
        %236 = "memref.atomic_rmw"(%181, %67, %16, %16, %24) <{kind = 8 : i64}> : (i16, memref<?x?x13xi16>, index, index, index) -> i16
        %237 = "linalg.transpose"(%71, %50) <{permutation = array<i64: 0>}> ({
        ^bb0(%arg1: f32, %arg2: f32):
          "linalg.yield"(%arg1) : (f32) -> ()
        }) : (memref<?xf32>, tensor<?xf32>) -> tensor<?xf32>
        %238 = "arith.remui"(%155, %92) : (i1, i1) -> i1
        %239 = "vector.multi_reduction"(%102, %102) <{kind = #vector.kind<or>, reduction_dims = []}> : (vector<2xi32>, vector<2xi32>) -> vector<2xi32>
        %240 = "bufferization.clone"(%72) : (memref<13x27x13xi32>) -> memref<13x27x13xi32>
        %241 = "vector.broadcast"(%201) : (i1) -> vector<2xi1>
        "vector.compressstore"(%166, %27, %17, %241, %102) : (memref<13x13xi32>, index, index, vector<2xi1>, vector<2xi32>) -> ()
        %242 = "index.sizeof"() : () -> index
        %243 = "affine.apply"(%46, %42) <{map = affine_map<(d0, d1) -> (d1)>}> : (index, index) -> index
        %244 = "tensor.cast"(%237) : (tensor<?xf32>) -> tensor<13xf32>
        "scf.yield"() : () -> ()
      }) : () -> ()
      %223 = "math.fma"(%105, %86, %105) <{fastmath = #arith.fastmath<none>}> : (f16, f16, f16) -> f16
      %224 = "math.atan"(%161) <{fastmath = #arith.fastmath<none>}> : (f32) -> f32
      %225 = "arith.remui"(%170, %0) : (i64, i64) -> i64
      %226 = "index.maxu"(%17, %122) : (index, index) -> index
      %227 = "index.ceildivs"(%40, %28) : (index, index) -> index
      %228 = "math.fma"(%121, %83, %113) <{fastmath = #arith.fastmath<none>}> : (f16, f16, f16) -> f16
      %229 = "tensor.empty"(%31) : (index) -> tensor<?xi16>
      "scf.yield"(%229) : (tensor<?xi16>) -> ()
    }) : () -> tensor<?xi16>
    %211 = "math.copysign"(%105, %11) <{fastmath = #arith.fastmath<none>}> : (f16, f16) -> f16
    %212 = "spirv.SLessThanEqual"(%4, %arg0) : (i32, i32) -> i1
    "vector.print"(%102) <{punctuation = #vector.punctuation<newline>}> : (vector<2xi32>) -> ()
    "vector.print"(%134) <{punctuation = #vector.punctuation<newline>}> : (vector<13x27x13xi1>) -> ()
    "vector.print"(%158) <{punctuation = #vector.punctuation<newline>}> : (vector<f16>) -> ()
    "vector.print"(%185) <{punctuation = #vector.punctuation<newline>}> : (vector<1x27x13xi1>) -> ()
    "vector.print"(%190) <{punctuation = #vector.punctuation<newline>}> : (vector<27x13xi1>) -> ()
    "vector.print"(%arg0) <{punctuation = #vector.punctuation<newline>}> : (i32) -> ()
    "vector.print"(%0) <{punctuation = #vector.punctuation<newline>}> : (i64) -> ()
    "vector.print"(%1) <{punctuation = #vector.punctuation<newline>}> : (f32) -> ()
    "vector.print"(%2) <{punctuation = #vector.punctuation<newline>}> : (i64) -> ()
    "vector.print"(%3) <{punctuation = #vector.punctuation<newline>}> : (i1) -> ()
    "vector.print"(%4) <{punctuation = #vector.punctuation<newline>}> : (i32) -> ()
    "vector.print"(%5) <{punctuation = #vector.punctuation<newline>}> : (i64) -> ()
    "vector.print"(%6) <{punctuation = #vector.punctuation<newline>}> : (f32) -> ()
    "vector.print"(%7) <{punctuation = #vector.punctuation<newline>}> : (i16) -> ()
    "vector.print"(%8) <{punctuation = #vector.punctuation<newline>}> : (f16) -> ()
    "vector.print"(%9) <{punctuation = #vector.punctuation<newline>}> : (i16) -> ()
    "vector.print"(%10) <{punctuation = #vector.punctuation<newline>}> : (f32) -> ()
    "vector.print"(%11) <{punctuation = #vector.punctuation<newline>}> : (f16) -> ()
    "vector.print"(%12) <{punctuation = #vector.punctuation<newline>}> : (i1) -> ()
    "vector.print"(%13) <{punctuation = #vector.punctuation<newline>}> : (i16) -> ()
    "vector.print"(%14) <{punctuation = #vector.punctuation<newline>}> : (i32) -> ()
    "vector.print"(%15) <{punctuation = #vector.punctuation<newline>}> : (f32) -> ()
    "vector.print"(%80) <{punctuation = #vector.punctuation<newline>}> : (f32) -> ()
    "vector.print"(%82) <{punctuation = #vector.punctuation<newline>}> : (f16) -> ()
    "vector.print"(%83) <{punctuation = #vector.punctuation<newline>}> : (f16) -> ()
    "vector.print"(%85) <{punctuation = #vector.punctuation<newline>}> : (i1) -> ()
    "vector.print"(%86) <{punctuation = #vector.punctuation<newline>}> : (f16) -> ()
    "vector.print"(%89) <{punctuation = #vector.punctuation<newline>}> : (i1) -> ()
    "vector.print"(%92) <{punctuation = #vector.punctuation<newline>}> : (i1) -> ()
    "vector.print"(%93) <{punctuation = #vector.punctuation<newline>}> : (i64) -> ()
    "vector.print"(%94) <{punctuation = #vector.punctuation<newline>}> : (f16) -> ()
    "vector.print"(%95) <{punctuation = #vector.punctuation<newline>}> : (f16) -> ()
    "vector.print"(%101) <{punctuation = #vector.punctuation<newline>}> : (f32) -> ()
    "vector.print"(%105) <{punctuation = #vector.punctuation<newline>}> : (f16) -> ()
    "vector.print"(%108) <{punctuation = #vector.punctuation<newline>}> : (f32) -> ()
    "vector.print"(%113) <{punctuation = #vector.punctuation<newline>}> : (f16) -> ()
    "vector.print"(%114) <{punctuation = #vector.punctuation<newline>}> : (i64) -> ()
    "vector.print"(%117) <{punctuation = #vector.punctuation<newline>}> : (i32) -> ()
    "vector.print"(%120) <{punctuation = #vector.punctuation<newline>}> : (f32) -> ()
    "vector.print"(%121) <{punctuation = #vector.punctuation<newline>}> : (f16) -> ()
    "vector.print"(%123) <{punctuation = #vector.punctuation<newline>}> : (i1) -> ()
    "vector.print"(%127) <{punctuation = #vector.punctuation<newline>}> : (i16) -> ()
    "vector.print"(%131) <{punctuation = #vector.punctuation<newline>}> : (f32) -> ()
    "vector.print"(%132) <{punctuation = #vector.punctuation<newline>}> : (f32) -> ()
    "vector.print"(%138) <{punctuation = #vector.punctuation<newline>}> : (i16) -> ()
    "vector.print"(%139) <{punctuation = #vector.punctuation<newline>}> : (i1) -> ()
    "vector.print"(%145) <{punctuation = #vector.punctuation<newline>}> : (i32) -> ()
    "vector.print"(%147) <{punctuation = #vector.punctuation<newline>}> : (i1) -> ()
    "vector.print"(%150) <{punctuation = #vector.punctuation<newline>}> : (i32) -> ()
    "vector.print"(%152) <{punctuation = #vector.punctuation<newline>}> : (f32) -> ()
    "vector.print"(%155) <{punctuation = #vector.punctuation<newline>}> : (i1) -> ()
    "vector.print"(%157) <{punctuation = #vector.punctuation<newline>}> : (f32) -> ()
    "vector.print"(%161) <{punctuation = #vector.punctuation<newline>}> : (f32) -> ()
    "vector.print"(%162) <{punctuation = #vector.punctuation<newline>}> : (f32) -> ()
    "vector.print"(%163) <{punctuation = #vector.punctuation<newline>}> : (i32) -> ()
    "vector.print"(%164) <{punctuation = #vector.punctuation<newline>}> : (f32) -> ()
    "vector.print"(%167) <{punctuation = #vector.punctuation<newline>}> : (f32) -> ()
    "vector.print"(%170) <{punctuation = #vector.punctuation<newline>}> : (i64) -> ()
    "vector.print"(%172) <{punctuation = #vector.punctuation<newline>}> : (i64) -> ()
    "vector.print"(%173) <{punctuation = #vector.punctuation<newline>}> : (i1) -> ()
    "vector.print"(%174) <{punctuation = #vector.punctuation<newline>}> : (i1) -> ()
    "vector.print"(%175) <{punctuation = #vector.punctuation<newline>}> : (f32) -> ()
    "vector.print"(%181) <{punctuation = #vector.punctuation<newline>}> : (i16) -> ()
    "vector.print"(%182) <{punctuation = #vector.punctuation<newline>}> : (f16) -> ()
    "vector.print"(%184) <{punctuation = #vector.punctuation<newline>}> : (i1) -> ()
    "vector.print"(%186) <{punctuation = #vector.punctuation<newline>}> : (i1) -> ()
    "vector.print"(%188) <{punctuation = #vector.punctuation<newline>}> : (i1) -> ()
    "vector.print"(%189) <{punctuation = #vector.punctuation<newline>}> : (f32) -> ()
    "vector.print"(%193) <{punctuation = #vector.punctuation<newline>}> : (f16) -> ()
    "vector.print"(%195) <{punctuation = #vector.punctuation<newline>}> : (f32) -> ()
    "vector.print"(%198) <{punctuation = #vector.punctuation<newline>}> : (i1) -> ()
    "vector.print"(%200) <{punctuation = #vector.punctuation<newline>}> : (f32) -> ()
    "vector.print"(%201) <{punctuation = #vector.punctuation<newline>}> : (i1) -> ()
    "vector.print"(%202) <{punctuation = #vector.punctuation<newline>}> : (f32) -> ()
    "vector.print"(%208) <{punctuation = #vector.punctuation<newline>}> : (i32) -> ()
    "vector.print"(%212) <{punctuation = #vector.punctuation<newline>}> : (i1) -> ()
    %213 = "vector.broadcast"(%202) : (f32) -> vector<13x13xf32>
    "func.return"(%213) : (vector<13x13xf32>) -> ()
  }) : () -> ()
}) : () -> ()
