"builtin.module"() ({
  "func.func"() <{function_type = (vector<25x30x32xi16>) -> (), sym_name = "func1"}> ({
  ^bb0(%arg0: vector<25x30x32xi16>):
    %0 = "arith.constant"() <{value = true}> : () -> i1
    %1 = "arith.constant"() <{value = 1.44794074E+9 : f32}> : () -> f32
    %2 = "arith.constant"() <{value = 1548431415 : i64}> : () -> i64
    %3 = "arith.constant"() <{value = 1941582701 : i64}> : () -> i64
    %4 = "arith.constant"() <{value = -11434 : i16}> : () -> i16
    %5 = "arith.constant"() <{value = 1515791868 : i32}> : () -> i32
    %6 = "arith.constant"() <{value = -13945 : i16}> : () -> i16
    %7 = "arith.constant"() <{value = 1.86699034E+9 : f32}> : () -> f32
    %8 = "arith.constant"() <{value = 7.284000e+03 : f16}> : () -> f16
    %9 = "arith.constant"() <{value = true}> : () -> i1
    %10 = "arith.constant"() <{value = -2161 : i16}> : () -> i16
    %11 = "arith.constant"() <{value = 943772254 : i64}> : () -> i64
    %12 = "arith.constant"() <{value = 3.859200e+04 : f16}> : () -> f16
    %13 = "arith.constant"() <{value = 1822385257 : i32}> : () -> i32
    %14 = "arith.constant"() <{value = 491907286 : i32}> : () -> i32
    %15 = "arith.constant"() <{value = 2.433600e+04 : f16}> : () -> f16
    %16 = "arith.constant"() <{value = 0 : index}> : () -> index
    %17 = "arith.constant"() <{value = 1 : index}> : () -> index
    %18 = "arith.constant"() <{value = 2 : index}> : () -> index
    %19 = "arith.constant"() <{value = 3 : index}> : () -> index
    %20 = "arith.constant"() <{value = 4 : index}> : () -> index
    %21 = "arith.constant"() <{value = 5 : index}> : () -> index
    %22 = "arith.constant"() <{value = 6 : index}> : () -> index
    %23 = "arith.constant"() <{value = 7 : index}> : () -> index
    %24 = "arith.constant"() <{value = 8 : index}> : () -> index
    %25 = "arith.constant"() <{value = 9 : index}> : () -> index
    %26 = "arith.constant"() <{value = 10 : index}> : () -> index
    %27 = "arith.constant"() <{value = 11 : index}> : () -> index
    %28 = "arith.constant"() <{value = 12 : index}> : () -> index
    %29 = "arith.constant"() <{value = 13 : index}> : () -> index
    %30 = "arith.constant"() <{value = 14 : index}> : () -> index
    %31 = "arith.constant"() <{value = 15 : index}> : () -> index
    %32 = "arith.constant"() <{value = 16 : index}> : () -> index
    %33 = "arith.constant"() <{value = 17 : index}> : () -> index
    %34 = "arith.constant"() <{value = 18 : index}> : () -> index
    %35 = "arith.constant"() <{value = 19 : index}> : () -> index
    %36 = "arith.constant"() <{value = 20 : index}> : () -> index
    %37 = "arith.constant"() <{value = 21 : index}> : () -> index
    %38 = "arith.constant"() <{value = 22 : index}> : () -> index
    %39 = "arith.constant"() <{value = 23 : index}> : () -> index
    %40 = "arith.constant"() <{value = 24 : index}> : () -> index
    %41 = "arith.constant"() <{value = 25 : index}> : () -> index
    %42 = "arith.constant"() <{value = 26 : index}> : () -> index
    %43 = "arith.constant"() <{value = 27 : index}> : () -> index
    %44 = "arith.constant"() <{value = 28 : index}> : () -> index
    %45 = "arith.constant"() <{value = 29 : index}> : () -> index
    %46 = "arith.constant"() <{value = 30 : index}> : () -> index
    %47 = "arith.constant"() <{value = 31 : index}> : () -> index
    %48 = "tensor.empty"() : () -> tensor<32x3xi16>
    %49 = "tensor.empty"(%45) : (index) -> tensor<?x30x32xi32>
    %50 = "tensor.empty"(%35) : (index) -> tensor<?x32xi64>
    %51 = "tensor.empty"() : () -> tensor<25xi16>
    %52 = "tensor.empty"(%42, %43) : (index, index) -> tensor<?x?x32xf16>
    %53 = "tensor.empty"() : () -> tensor<25x30x32xi32>
    %54 = "tensor.empty"(%43) : (index) -> tensor<?x3xi32>
    %55 = "tensor.empty"() : () -> tensor<30x32xi32>
    %56 = "tensor.empty"() : () -> tensor<25x30x32xi64>
    %57 = "tensor.empty"(%37, %31, %43) : (index, index, index) -> tensor<?x?x?xf32>
    %58 = "tensor.empty"(%23) : (index) -> tensor<?xf16>
    %59 = "tensor.empty"(%46) : (index) -> tensor<?xf16>
    %60 = "tensor.empty"(%38, %44) : (index, index) -> tensor<?x?xf16>
    %61 = "tensor.empty"(%19) : (index) -> tensor<?x30x32xf16>
    %62 = "tensor.empty"() : () -> tensor<25x30x32xi1>
    %63 = "tensor.empty"() : () -> tensor<30x32xf32>
    %64 = "memref.alloc"(%17, %25, %18) <{operandSegmentSizes = array<i32: 3, 0>}> : (index, index, index) -> memref<?x?x?xf32>
    %65 = "memref.alloc"(%31) <{operandSegmentSizes = array<i32: 1, 0>}> : (index) -> memref<?xi32>
    %66 = "memref.alloc"(%23) <{operandSegmentSizes = array<i32: 1, 0>}> : (index) -> memref<?x32xi1>
    %67 = "memref.alloc"() <{operandSegmentSizes = array<i32: 0, 0>}> : () -> memref<30x32xi16>
    %68 = "memref.alloc"() <{operandSegmentSizes = array<i32: 0, 0>}> : () -> memref<25x30x32xi1>
    %69 = "memref.alloc"(%33, %33) <{operandSegmentSizes = array<i32: 2, 0>}> : (index, index) -> memref<?x?xi64>
    %70 = "memref.alloc"(%20, %40) <{operandSegmentSizes = array<i32: 2, 0>}> : (index, index) -> memref<?x?xi64>
    %71 = "memref.alloc"() <{operandSegmentSizes = array<i32: 0, 0>}> : () -> memref<30x32xi1>
    %72 = "memref.alloc"() <{operandSegmentSizes = array<i32: 0, 0>}> : () -> memref<30x32xi32>
    %73 = "memref.alloc"(%28, %40) <{operandSegmentSizes = array<i32: 2, 0>}> : (index, index) -> memref<?x?x32xf16>
    %74 = "memref.alloc"(%35) <{operandSegmentSizes = array<i32: 1, 0>}> : (index) -> memref<?xf32>
    %75 = "memref.alloc"(%33, %45, %33) <{operandSegmentSizes = array<i32: 3, 0>}> : (index, index, index) -> memref<?x?x?xi1>
    %76 = "memref.alloc"(%27, %26) <{operandSegmentSizes = array<i32: 2, 0>}> : (index, index) -> memref<?x?xi1>
    %77 = "memref.alloc"(%36, %38, %40) <{operandSegmentSizes = array<i32: 3, 0>}> : (index, index, index) -> memref<?x?x?xf16>
    %78 = "memref.alloc"() <{operandSegmentSizes = array<i32: 0, 0>}> : () -> memref<25x30x32xi1>
    %79 = "memref.alloc"(%34) <{operandSegmentSizes = array<i32: 1, 0>}> : (index) -> memref<?xi1>
    %80 = "index.maxs"(%29, %28) : (index, index) -> index
    %81 = "math.rsqrt"(%8) <{fastmath = #arith.fastmath<none>}> : (f16) -> f16
    %82 = "spirv.CL.round"(%7) : (f32) -> f32
    %83 = "scf.while"(%82) ({
    ^bb0(%arg1: f32):
      %213 = "tensor.cast"(%57) : (tensor<?x?x?xf32>) -> tensor<25x3x3xf32>
      %214 = "arith.addi"(%6, %6) : (i16, i16) -> i16
      "vector.warp_execute_on_lane_0"(%16) <{warp_size = 32 : i64}> ({
        %220 = "math.tan"(%57) <{fastmath = #arith.fastmath<none>}> : (tensor<?x?x?xf32>) -> tensor<?x?x?xf32>
        %221 = "arith.addi"(%2, %2) : (i64, i64) -> i64
        %222 = "math.log10"(%58) <{fastmath = #arith.fastmath<none>}> : (tensor<?xf16>) -> tensor<?xf16>
        %223 = "memref.alloc"(%33) <{operandSegmentSizes = array<i32: 1, 0>}> : (index) -> memref<?xf16>
        %224 = "index.ceildivs"(%23, %20) : (index, index) -> index
        %225 = "index.sizeof"() : () -> index
        %226 = "arith.xori"(%11, %2) : (i64, i64) -> i64
        %227 = "vector.broadcast"(%82) : (f32) -> vector<3xf32>
        %228 = "vector.broadcast"(%9) : (i1) -> vector<3xi1>
        %229 = "vector.maskedload"(%74, %16, %228, %227) : (memref<?xf32>, index, vector<3xi1>, vector<3xf32>) -> vector<3xf32>
        "vector.yield"() : () -> ()
      }) : (index) -> ()
      %215 = "index.add"(%26, %26) : (index, index) -> index
      %216 = "index.shrs"(%46, %37) : (index, index) -> index
      %217 = "memref.cast"(%68) : (memref<25x30x32xi1>) -> memref<25x?x?xi1>
      %218 = "tensor.empty"(%44) : (index) -> tensor<30x?xf16>
      %219 = "index.divs"(%41, %36) : (index, index) -> index
      "scf.condition"(%9, %7) : (i1, f32) -> ()
    }, {
    ^bb0(%arg1: f32):
      %213 = "index.xor"(%29, %39) : (index, index) -> index
      %214 = "tensor.dim"(%51, %16) : (tensor<25xi16>, index) -> index
      %215 = "arith.addf"(%1, %7) <{fastmath = #arith.fastmath<none>}> : (f32, f32) -> f32
      %216 = "math.copysign"(%12, %15) <{fastmath = #arith.fastmath<none>}> : (f16, f16) -> f16
      %217 = "vector.broadcast"(%4) : (i16) -> vector<32xi16>
      %218 = "vector.matrix_multiply"(%217, %217) <{lhs_columns = 32 : i32, lhs_rows = 1 : i32, rhs_columns = 1 : i32}> : (vector<32xi16>, vector<32xi16>) -> vector<1xi16>
      %219 = "math.log1p"(%58) <{fastmath = #arith.fastmath<none>}> : (tensor<?xf16>) -> tensor<?xf16>
      %220 = "bufferization.to_tensor"(%69) : (memref<?x?xi64>) -> tensor<?x?xi64>
      %221 = "arith.ori"(%4, %4) : (i16, i16) -> i16
      %222 = "math.ctlz"(%14) : (i32) -> i32
      %223 = "affine.parallel"() <{lowerBoundsGroups = dense<1> : tensor<3xi32>, lowerBoundsMap = affine_map<() -> (0, 0, 0)>, reductions = [9], steps = [1, 1, 1], upperBoundsGroups = dense<1> : tensor<3xi32>, upperBoundsMap = affine_map<() -> (30, 30, 32)>}> ({
      ^bb0(%arg2: index, %arg3: index, %arg4: index):
        %230 = "math.log"(%52) <{fastmath = #arith.fastmath<none>}> : (tensor<?x?x32xf16>) -> tensor<?x?x32xf16>
        "affine.yield"(%8) : (f16) -> ()
      }) : () -> memref<30x30x32xf16>
      %224 = "math.roundeven"(%59) <{fastmath = #arith.fastmath<none>}> : (tensor<?xf16>) -> tensor<?xf16>
      %225 = "index.shrs"(%30, %45) : (index, index) -> index
      %226 = "index.or"(%18, %16) : (index, index) -> index
      %227 = "math.log1p"(%60) <{fastmath = #arith.fastmath<none>}> : (tensor<?x?xf16>) -> tensor<?x?xf16>
      %228 = "tensor.splat"(%14) : (i32) -> tensor<25xi32>
      %229 = "arith.divsi"(%5, %5) : (i32, i32) -> i32
      "scf.yield"(%82) : (f32) -> ()
    }) : (f32) -> f32
    %84 = "math.floor"(%59) <{fastmath = #arith.fastmath<none>}> : (tensor<?xf16>) -> tensor<?xf16>
    %85 = "arith.remf"(%8, %15) <{fastmath = #arith.fastmath<none>}> : (f16, f16) -> f16
    %86 = "math.tan"(%52) <{fastmath = #arith.fastmath<none>}> : (tensor<?x?x32xf16>) -> tensor<?x?x32xf16>
    %87 = "spirv.CL.exp"(%82) : (f32) -> f32
    %88 = "vector.broadcast"(%13) : (i32) -> vector<2xi32>
    %89 = "spirv.BitwiseOr"(%88, %88) : (vector<2xi32>, vector<2xi32>) -> vector<2xi32>
    %90 = "vector.broadcast"(%14) : (i32) -> vector<2x2xi32>
    %91 = "vector.outerproduct"(%88, %88, %90) <{kind = #vector.kind<maxui>}> : (vector<2xi32>, vector<2xi32>, vector<2x2xi32>) -> vector<2x2xi32>
    %92 = "spirv.GL.SSign"(%4) : (i16) -> i16
    %93 = "arith.remf"(%12, %8) <{fastmath = #arith.fastmath<none>}> : (f16, f16) -> f16
    %94 = "scf.execute_region"() ({
      %213 = "math.atan"(%58) <{fastmath = #arith.fastmath<none>}> : (tensor<?xf16>) -> tensor<?xf16>
      "bufferization.dealloc_tensor"(%60) : (tensor<?x?xf16>) -> ()
      %214 = "math.log"(%60) <{fastmath = #arith.fastmath<none>}> : (tensor<?x?xf16>) -> tensor<?x?xf16>
      %215 = "index.casts"(%22) : (index) -> i32
      %216 = "scf.if"(%9) ({
        %230 = "arith.addi"(%10, %6) : (i16, i16) -> i16
        %231 = "arith.constant"() <{value = 32 : index}> : () -> index
        %232 = "tensor.empty"() : () -> tensor<960xi32>
        %233 = "tensor.unpack"(%55, %232, %231) <{inner_dims_pos = array<i64: 0>, outer_dims_perm = array<i64: 0>, static_inner_tiles = array<i64: -9223372036854775808>}> : (tensor<30x32xi32>, tensor<960xi32>, index) -> tensor<960xi32>
        "affine.vector_store"(%88, %65, %36) <{map = affine_map<(d0) -> (d0)>}> : (vector<2xi32>, memref<?xi32>, index) -> ()
        %234 = "vector.transpose"(%88) <{transp = [0]}> : (vector<2xi32>) -> vector<2xi32>
        %235 = "affine.max"(%38, %36, %23, %16) <{map = affine_map<(d0, d1, d2)[s0] -> (d2 ceildiv 32)>}> : (index, index, index, index) -> index
        %236 = "affine.max"(%36, %20, %33) <{map = affine_map<(d0, d1)[s0] -> (d0 * 2 - 16)>}> : (index, index, index) -> index
        %237 = "vector.insertelement"(%5, %88, %39) : (i32, vector<2xi32>, index) -> vector<2xi32>
        %238 = "index.ceildivs"(%80, %28) : (index, index) -> index
        "scf.yield"(%10) : (i16) -> ()
      }, {
        %230 = "memref.cast"(%73) : (memref<?x?x32xf16>) -> memref<25x30x?xf16>
        %231 = "arith.xori"(%13, %14) : (i32, i32) -> i32
        %232 = "arith.divf"(%82, %7) <{fastmath = #arith.fastmath<none>}> : (f32, f32) -> f32
        %233 = "index.sizeof"() : () -> index
        %234 = "tensor.cast"(%49) : (tensor<?x30x32xi32>) -> tensor<32x30x32xi32>
        %235 = "bufferization.clone"(%68) : (memref<25x30x32xi1>) -> memref<25x30x32xi1>
        %236 = "affine.vector_load"(%79, %38) <{map = affine_map<(d0) -> (d0)>}> : (memref<?xi1>, index) -> vector<32xi1>
        %237 = "math.expm1"(%60) <{fastmath = #arith.fastmath<none>}> : (tensor<?x?xf16>) -> tensor<?x?xf16>
        "scf.yield"(%6) : (i16) -> ()
      }) : (i1) -> i16
      %217 = "memref.load"(%72, %42, %31) <{nontemporal = false}> : (memref<30x32xi32>, index, index) -> i32
      %218 = "memref.alloca"() <{operandSegmentSizes = array<i32: 0, 0>}> : () -> memref<32x3xf16>
      %219 = "memref.alloc"() <{operandSegmentSizes = array<i32: 0, 0>}> : () -> memref<25x30x32xi16>
      %220 = "vector.broadcast"(%10) : (i16) -> vector<32x3xi16>
      %221 = "vector.broadcast"(%9) : (i1) -> vector<32x3xi1>
      %222 = "vector.broadcast"(%14) : (i32) -> vector<32x3xi32>
      %223 = "vector.gather"(%219, %21, %42, %24, %222, %221, %220) : (memref<25x30x32xi16>, index, index, index, vector<32x3xi32>, vector<32x3xi1>, vector<32x3xi16>) -> vector<32x3xi16>
      %224 = "arith.negf"(%7) <{fastmath = #arith.fastmath<none>}> : (f32) -> f32
      %225 = "math.exp2"(%82) <{fastmath = #arith.fastmath<none>}> : (f32) -> f32
      %226 = "vector.multi_reduction"(%221, %221) <{kind = #vector.kind<maxsi>, reduction_dims = []}> : (vector<32x3xi1>, vector<32x3xi1>) -> vector<32x3xi1>
      "memref.copy"(%68, %78) : (memref<25x30x32xi1>, memref<25x30x32xi1>) -> ()
      %227 = "tensor.expand_shape"(%51) <{reassociation = [[0, 1]]}> : (tensor<25xi16>) -> tensor<25x1xi16>
      %228 = "math.rsqrt"(%58) <{fastmath = #arith.fastmath<none>}> : (tensor<?xf16>) -> tensor<?xf16>
      %229 = "tensor.splat"(%12) : (f16) -> tensor<32x3xf16>
      "scf.index_switch"(%24) <{cases = array<i64: 1, 2, 3>}> ({
        %230 = "math.ceil"(%229) <{fastmath = #arith.fastmath<none>}> : (tensor<32x3xf16>) -> tensor<32x3xf16>
        %231 = "vector.broadcast"(%13) : (i32) -> vector<25x30x32xi32>
        %232 = "vector.broadcast"(%9) : (i1) -> vector<25x30x32xi1>
        %233 = "vector.gather"(%55, %23, %31, %231, %232, %231) : (tensor<30x32xi32>, index, index, vector<25x30x32xi32>, vector<25x30x32xi1>, vector<25x30x32xi32>) -> vector<25x30x32xi32>
        %234 = "arith.andi"(%92, %216) : (i16, i16) -> i16
        %235 = "index.maxs"(%37, %34) : (index, index) -> index
        "affine.store"(%4, %219, %38, %23, %42) <{map = affine_map<(d0, d1, d2) -> (d0, d1, d2)>}> : (i16, memref<25x30x32xi16>, index, index, index) -> ()
        %236 = "tensor.empty"() : () -> tensor<i16>
        %237 = "linalg.dot"(%51, %51, %236) <{operandSegmentSizes = array<i32: 2, 1>}> ({
        ^bb0(%arg1: i16, %arg2: i16, %arg3: i16):
          %248 = "arith.muli"(%arg1, %arg2) : (i16, i16) -> i16
          %249 = "arith.addi"(%arg3, %248) : (i16, i16) -> i16
          "linalg.yield"(%249) : (i16) -> ()
        }) : (tensor<25xi16>, tensor<25xi16>, tensor<i16>) -> tensor<i16>
        %238 = "index.shru"(%29, %17) : (index, index) -> index
        %239 = "affine.max"(%17, %33, %35, %22) <{map = affine_map<(d0, d1, d2, d3) -> (d1 + 16)>}> : (index, index, index, index) -> index
        %240 = "math.floor"(%61) <{fastmath = #arith.fastmath<none>}> : (tensor<?x30x32xf16>) -> tensor<?x30x32xf16>
        %241 = "affine.max"(%24, %22, %44, %235) <{map = affine_map<(d0, d1, d2)[s0] -> (d2 ceildiv 32)>}> : (index, index, index, index) -> index
        %242 = "math.round"(%7) <{fastmath = #arith.fastmath<none>}> : (f32) -> f32
        %243 = "vector.extract_strided_slice"(%231) <{offsets = [6, 6], sizes = [7, 3], strides = [1, 1]}> : (vector<25x30x32xi32>) -> vector<7x3x32xi32>
        %244 = "vector.splat"(%9) : (i1) -> vector<25xi1>
        %245 = "index.mul"(%42, %17) : (index, index) -> index
        %246 = "math.absf"(%7) <{fastmath = #arith.fastmath<none>}> : (f32) -> f32
        %247 = "vector.transfer_read"(%70, %42, %20, %11) <{operandSegmentSizes = array<i32: 1, 2, 1, 0>, permutation_map = affine_map<(d0, d1) -> ()>}> : (memref<?x?xi64>, index, index, i64) -> vector<i64>
        "scf.yield"() : () -> ()
      }, {
        %230 = "vector.broadcast"(%9) : (i1) -> vector<3x3xi1>
        %231 = "vector.contract"(%221, %221, %230) <{indexing_maps = [affine_map<(d0, d1, d2) -> (d2, d0)>, affine_map<(d0, d1, d2) -> (d2, d1)>, affine_map<(d0, d1, d2) -> (d0, d1)>], iterator_types = [#vector.iterator_type<parallel>, #vector.iterator_type<parallel>, #vector.iterator_type<reduction>], kind = #vector.kind<maxsi>}> : (vector<32x3xi1>, vector<32x3xi1>, vector<3x3xi1>) -> vector<3x3xi1>
        %232 = "memref.load"(%69, %16, %16) <{nontemporal = false}> : (memref<?x?xi64>, index, index) -> i64
        %233 = "arith.remf"(%82, %87) <{fastmath = #arith.fastmath<none>}> : (f32, f32) -> f32
        %234 = "math.log10"(%1) <{fastmath = #arith.fastmath<none>}> : (f32) -> f32
        %235 = "math.log1p"(%60) <{fastmath = #arith.fastmath<none>}> : (tensor<?x?xf16>) -> tensor<?x?xf16>
        %236 = "linalg.copy"(%55, %55) <{operandSegmentSizes = array<i32: 1, 1>}> ({
        ^bb0(%arg1: i32, %arg2: i32):
          "linalg.yield"(%arg1) : (i32) -> ()
        }) : (tensor<30x32xi32>, tensor<30x32xi32>) -> tensor<30x32xi32>
        %237 = "index.ceildivu"(%35, %33) : (index, index) -> index
        %238 = "tensor.empty"() : () -> tensor<32x3xi64>
        %239 = "vector.shuffle"(%221, %221) <{mask = [0, 4, 5, 8, 10, 11, 12, 13, 14, 18, 19, 21, 23, 25, 29, 31, 35, 36, 37, 38, 39, 40, 42, 43, 44, 45, 47, 48, 49, 52, 53, 54, 55, 57, 58, 59, 63]}> : (vector<32x3xi1>, vector<32x3xi1>) -> vector<37x3xi1>
        %240 = "math.round"(%61) <{fastmath = #arith.fastmath<none>}> : (tensor<?x30x32xf16>) -> tensor<?x30x32xf16>
        %241 = "vector.create_mask"(%237, %22) : (index, index) -> vector<32x3xi1>
        %242 = "math.expm1"(%60) <{fastmath = #arith.fastmath<none>}> : (tensor<?x?xf16>) -> tensor<?x?xf16>
        %243 = "vector.broadcast"(%0) : (i1) -> vector<25x30x32xi1>
        %244 = "vector.broadcast"(%5) : (i32) -> vector<25x30x32xi32>
        %245 = "vector.gather"(%68, %237, %40, %28, %244, %243, %243) : (memref<25x30x32xi1>, index, index, index, vector<25x30x32xi32>, vector<25x30x32xi1>, vector<25x30x32xi1>) -> vector<25x30x32xi1>
        %246 = "vector.extract_strided_slice"(%243) <{offsets = [12], sizes = [4], strides = [1]}> : (vector<25x30x32xi1>) -> vector<4x30x32xi1>
        %247 = "math.log1p"(%58) <{fastmath = #arith.fastmath<none>}> : (tensor<?xf16>) -> tensor<?xf16>
        %248 = "affine.max"(%47, %31, %30, %32) <{map = affine_map<(d0, d1, d2)[s0] -> ((d0 + d2) floordiv 2)>}> : (index, index, index, index) -> index
        "scf.yield"() : () -> ()
      }, {
        %230 = "tensor.cast"(%52) : (tensor<?x?x32xf16>) -> tensor<3x3x32xf16>
        %231 = "arith.minui"(%0, %9) : (i1, i1) -> i1
        %232 = "tensor.empty"() : () -> tensor<25xi1>
        %233 = "arith.shrsi"(%3, %3) : (i64, i64) -> i64
        %234 = "arith.mulf"(%1, %7) <{fastmath = #arith.fastmath<none>}> : (f32, f32) -> f32
        %235 = "arith.cmpf"(%1, %87) <{predicate = 12 : i64}> : (f32, f32) -> i1
        %236 = "index.maxs"(%41, %37) : (index, index) -> index
        %237 = "bufferization.clone"(%78) : (memref<25x30x32xi1>) -> memref<25x30x32xi1>
        %238 = "arith.xori"(%13, %13) : (i32, i32) -> i32
        %239 = "math.log1p"(%63) <{fastmath = #arith.fastmath<none>}> : (tensor<30x32xf32>) -> tensor<30x32xf32>
        %240 = "vector.multi_reduction"(%221, %221) <{kind = #vector.kind<and>, reduction_dims = []}> : (vector<32x3xi1>, vector<32x3xi1>) -> vector<32x3xi1>
        %241 = "tensor.splat"(%11) : (i64) -> tensor<32x3xi64>
        %242 = "math.log10"(%12) <{fastmath = #arith.fastmath<none>}> : (f16) -> f16
        %243 = "math.log10"(%60) <{fastmath = #arith.fastmath<none>}> : (tensor<?x?xf16>) -> tensor<?x?xf16>
        %244 = "vector.broadcast"(%4) : (i16) -> vector<i16>
        %245 = "vector.transfer_write"(%244, %51, %21) <{operandSegmentSizes = array<i32: 1, 1, 1, 0>, permutation_map = affine_map<(d0) -> ()>}> : (vector<i16>, tensor<25xi16>, index) -> tensor<25xi16>
        %246 = "tensor.empty"() : () -> tensor<i16>
        %247 = "linalg.dot"(%51, %51, %246) <{operandSegmentSizes = array<i32: 2, 1>}> ({
        ^bb0(%arg1: i16, %arg2: i16, %arg3: i16):
          %248 = "arith.muli"(%arg1, %arg2) : (i16, i16) -> i16
          %249 = "arith.addi"(%arg3, %248) : (i16, i16) -> i16
          "linalg.yield"(%249) : (i16) -> ()
        }) : (tensor<25xi16>, tensor<25xi16>, tensor<i16>) -> tensor<i16>
        "scf.yield"() : () -> ()
      }, {
        %230 = "vector.broadcast"(%13) : (i32) -> vector<2x2xi32>
        %231 = "vector.outerproduct"(%88, %88, %230) <{kind = #vector.kind<or>}> : (vector<2xi32>, vector<2xi32>, vector<2x2xi32>) -> vector<2x2xi32>
        %232 = "tensor.from_elements"(%12, %12, %15, %15, %12, %12, %8, %12, %12, %15, %15, %15, %12, %8, %8, %8, %8, %15, %12, %8, %8, %15, %8, %15, %15, %8, %15, %12, %15, %12, %12, %8, %15, %12, %12, %8, %8, %15, %15, %12, %8, %12, %8, %15, %8, %8, %8, %8, %8, %8, %8, %15, %15, %12, %8, %8, %12, %15, %8, %15, %15, %12, %8, %15, %15, %15, %15, %8, %15, %12, %8, %15, %8, %15, %8, %12, %15, %15, %15, %12, %8, %8, %15, %15, %15, %12, %8, %8, %15, %15, %12, %15, %15, %8, %15, %12, %15, %15, %8, %15, %12, %15, %12, %15, %15, %8, %15, %8, %15, %15, %8, %8, %12, %15, %12, %8, %15, %12, %8, %12, %15, %15, %8, %15, %12, %12, %15, %12, %8, %15, %12, %15, %15, %8, %8, %8, %12, %15, %15, %12, %8, %15, %8, %8, %8, %12, %15, %15, %8, %15, %15, %15, %15, %12, %15, %15, %8, %12, %15, %12, %12, %15, %8, %12, %15, %15, %12, %12, %8, %15, %8, %8, %8, %12, %15, %8, %15, %8, %8, %8, %12, %8, %12, %15, %15, %12, %8, %8, %12, %8, %8, %8, %12, %12, %15, %15, %8, %15, %12, %8, %12, %12, %8, %8, %15, %15, %12, %15, %15, %15, %12, %12, %12, %15, %12, %15, %15, %8, %8, %12, %15, %8, %12, %8, %12, %15, %8, %12, %15, %8, %15, %8, %15, %8, %8, %12, %8, %12, %12, %8, %8, %8, %12, %8, %12, %8, %15, %8, %12, %12, %8, %8, %8, %12, %8, %15, %15, %8, %15, %12, %12, %12, %15, %8, %15, %12, %8, %15, %8, %8, %8, %12, %12, %15, %15, %12, %8, %12, %8, %12, %8, %8, %15, %15, %8, %15, %12, %8, %12, %8, %8, %8, %15, %12, %15, %8, %8, %15, %8, %8, %15, %12, %15, %12, %15, %8, %12, %12, %12, %15, %8, %15, %15, %12, %12, %8, %12, %15, %15, %15, %12, %8, %15, %15, %15, %8, %8, %12, %8, %15, %15, %8, %8, %12, %12, %15, %12, %12, %15, %15, %12, %8, %12, %15, %15, %15, %8, %8, %15, %12, %8, %12, %15, %8, %8, %12, %12, %8, %15, %15, %15, %15, %12, %8, %8, %8, %15, %8, %8, %8, %12, %15, %8, %8, %8, %8, %12, %8, %12, %15, %15, %12, %15, %8, %15, %15, %12, %12, %8, %8, %8, %12, %12, %12, %8, %8, %8, %8, %12, %8, %15, %12, %15, %12, %8, %15, %15, %12, %8, %15, %8, %12, %12, %12, %8, %12, %12, %8, %8, %12, %12, %15, %12, %12, %12, %15, %15, %15, %12, %15, %8, %8, %15, %8, %15, %8, %12, %15, %8, %15, %15, %8, %15, %15, %15, %8, %12, %8, %12, %12, %15, %12, %8, %8, %15, %12, %8, %12, %15, %12, %8, %8, %8, %8, %15, %12, %15, %15, %8, %8, %12, %8, %8, %15, %8, %12, %15, %15, %12, %8, %15, %15, %15, %8, %12, %15, %15, %12, %12, %15, %15, %8, %15, %15, %15, %15, %8, %12, %12, %8, %15, %15, %12, %15, %8, %8, %12, %15, %15, %12, %8, %12, %12, %8, %12, %8, %8, %15, %15, %8, %15, %12, %12, %15, %8, %12, %8, %12, %12, %15, %8, %12, %8, %12, %8, %15, %15, %15, %12, %15, %8, %12, %8, %8, %12, %12, %12, %8, %8, %8, %12, %8, %12, %12, %15, %12, %8, %8, %8, %8, %15, %8, %8, %15, %15, %15, %12, %8, %12, %12, %15, %15, %12, %15, %12, %15, %12, %12, %12, %8, %15, %15, %8, %12, %15, %12, %8, %12, %12, %12, %8, %12, %8, %12, %15, %15, %15, %8, %8, %12, %8, %15, %8, %12, %15, %8, %8, %8, %15, %15, %15, %15, %15, %15, %15, %12, %8, %15, %8, %12, %12, %12, %12, %12, %12, %8, %15, %15, %12, %12, %12, %12, %15, %15, %8, %8, %15, %15, %8, %8, %12, %15, %12, %15, %15, %15, %15, %12, %15, %8, %12, %8, %12, %8, %15, %15, %12, %8, %12, %15, %12, %8, %8, %15, %12, %15, %15, %12, %15, %8, %12, %8, %8, %15, %8, %15, %12, %8, %12, %12, %8, %12, %15, %12, %8, %15, %8, %8, %15, %15, %15, %15, %8, %8, %8, %12, %15, %12, %8, %8, %8, %15, %12, %8, %12, %12, %15, %15, %15, %12, %15, %15, %15, %15, %12, %12, %15, %8, %8, %8, %15, %12, %15, %12, %15, %8, %8, %12, %12, %15, %15, %15, %8, %12, %12, %8, %15, %15, %15, %15, %12, %12, %12, %8, %15, %12, %12, %15, %12, %8, %15, %15, %8, %15, %15, %15, %15, %12, %8, %15, %12, %8, %15, %15, %15, %8, %12, %12, %15, %12, %15, %12, %8, %15, %15, %8, %12, %15, %15, %8, %8, %15, %12, %15, %15, %12, %15, %8, %8, %15, %8, %8, %15, %12, %15, %8, %15, %8, %12, %15, %12, %12, %15, %15, %15, %12, %8, %12, %8, %12, %8, %12, %15, %12, %15, %12, %12, %12, %15, %15, %8, %15, %8, %15, %15, %15, %15, %15, %15, %15, %12, %8, %8, %15, %8, %8, %12, %12, %8, %8, %15, %8, %15, %12, %15, %8, %12, %15, %8, %8, %15, %8, %15, %15, %15, %12, %8, %12, %12, %15, %12, %8, %8, %15, %8, %12, %12, %15, %8, %12, %12, %8, %12, %15, %12, %8, %12, %15, %8, %12, %12, %8, %8, %15, %12, %12, %8, %12, %8, %8, %12, %8, %12, %8, %8, %8, %8, %8, %8, %15, %8, %12, %8, %8, %15, %8, %12, %12, %8, %15, %15, %8, %12, %8, %15, %8, %15, %8, %8, %15, %15, %15, %8, %15, %12, %12, %12, %15, %15, %8, %8, %8, %15, %12, %12, %15, %8, %15, %8, %8, %8, %15, %15, %8, %15, %15, %12, %12, %15, %8, %12, %15, %15, %12, %12, %15, %15, %12, %15, %15) : (f16, f16, f16, f16, f16, f16, f16, f16, f16, f16, f16, f16, f16, f16, f16, f16, f16, f16, f16, f16, f16, f16, f16, f16, f16, f16, f16, f16, f16, f16, f16, f16, f16, f16, f16, f16, f16, f16, f16, f16, f16, f16, f16, f16, f16, f16, f16, f16, f16, f16, f16, f16, f16, f16, f16, f16, f16, f16, f16, f16, f16, f16, f16, f16, f16, f16, f16, f16, f16, f16, f16, f16, f16, f16, f16, f16, f16, f16, f16, f16, f16, f16, f16, f16, f16, f16, f16, f16, f16, f16, f16, f16, f16, f16, f16, f16, f16, f16, f16, f16, f16, f16, f16, f16, f16, f16, f16, f16, f16, f16, f16, f16, f16, f16, f16, f16, f16, f16, f16, f16, f16, f16, f16, f16, f16, f16, f16, f16, f16, f16, f16, f16, f16, f16, f16, f16, f16, f16, f16, f16, f16, f16, f16, f16, f16, f16, f16, f16, f16, f16, f16, f16, f16, f16, f16, f16, f16, f16, f16, f16, f16, f16, f16, f16, f16, f16, f16, f16, f16, f16, f16, f16, f16, f16, f16, f16, f16, f16, f16, f16, f16, f16, f16, f16, f16, f16, f16, f16, f16, f16, f16, f16, f16, f16, f16, f16, f16, f16, f16, f16, f16, f16, f16, f16, f16, f16, f16, f16, f16, f16, f16, f16, f16, f16, f16, f16, f16, f16, f16, f16, f16, f16, f16, f16, f16, f16, f16, f16, f16, f16, f16, f16, f16, f16, f16, f16, f16, f16, f16, f16, f16, f16, f16, f16, f16, f16, f16, f16, f16, f16, f16, f16, f16, f16, f16, f16, f16, f16, f16, f16, f16, f16, f16, f16, f16, f16, f16, f16, f16, f16, f16, f16, f16, f16, f16, f16, f16, f16, f16, f16, f16, f16, f16, f16, f16, f16, f16, f16, f16, f16, f16, f16, f16, f16, f16, f16, f16, f16, f16, f16, f16, f16, f16, f16, f16, f16, f16, f16, f16, f16, f16, f16, f16, f16, f16, f16, f16, f16, f16, f16, f16, f16, f16, f16, f16, f16, f16, f16, f16, f16, f16, f16, f16, f16, f16, f16, f16, f16, f16, f16, f16, f16, f16, f16, f16, f16, f16, f16, f16, f16, f16, f16, f16, f16, f16, f16, f16, f16, f16, f16, f16, f16, f16, f16, f16, f16, f16, f16, f16, f16, f16, f16, f16, f16, f16, f16, f16, f16, f16, f16, f16, f16, f16, f16, f16, f16, f16, f16, f16, f16, f16, f16, f16, f16, f16, f16, f16, f16, f16, f16, f16, f16, f16, f16, f16, f16, f16, f16, f16, f16, f16, f16, f16, f16, f16, f16, f16, f16, f16, f16, f16, f16, f16, f16, f16, f16, f16, f16, f16, f16, f16, f16, f16, f16, f16, f16, f16, f16, f16, f16, f16, f16, f16, f16, f16, f16, f16, f16, f16, f16, f16, f16, f16, f16, f16, f16, f16, f16, f16, f16, f16, f16, f16, f16, f16, f16, f16, f16, f16, f16, f16, f16, f16, f16, f16, f16, f16, f16, f16, f16, f16, f16, f16, f16, f16, f16, f16, f16, f16, f16, f16, f16, f16, f16, f16, f16, f16, f16, f16, f16, f16, f16, f16, f16, f16, f16, f16, f16, f16, f16, f16, f16, f16, f16, f16, f16, f16, f16, f16, f16, f16, f16, f16, f16, f16, f16, f16, f16, f16, f16, f16, f16, f16, f16, f16, f16, f16, f16, f16, f16, f16, f16, f16, f16, f16, f16, f16, f16, f16, f16, f16, f16, f16, f16, f16, f16, f16, f16, f16, f16, f16, f16, f16, f16, f16, f16, f16, f16, f16, f16, f16, f16, f16, f16, f16, f16, f16, f16, f16, f16, f16, f16, f16, f16, f16, f16, f16, f16, f16, f16, f16, f16, f16, f16, f16, f16, f16, f16, f16, f16, f16, f16, f16, f16, f16, f16, f16, f16, f16, f16, f16, f16, f16, f16, f16, f16, f16, f16, f16, f16, f16, f16, f16, f16, f16, f16, f16, f16, f16, f16, f16, f16, f16, f16, f16, f16, f16, f16, f16, f16, f16, f16, f16, f16, f16, f16, f16, f16, f16, f16, f16, f16, f16, f16, f16, f16, f16, f16, f16, f16, f16, f16, f16, f16, f16, f16, f16, f16, f16, f16, f16, f16, f16, f16, f16, f16, f16, f16, f16, f16, f16, f16, f16, f16, f16, f16, f16, f16, f16, f16, f16, f16, f16, f16, f16, f16, f16, f16, f16, f16, f16, f16, f16, f16, f16, f16, f16, f16, f16, f16, f16, f16, f16, f16, f16, f16, f16, f16, f16, f16, f16, f16, f16, f16, f16, f16, f16, f16, f16, f16, f16, f16, f16, f16, f16, f16, f16, f16, f16, f16, f16, f16, f16, f16, f16, f16, f16, f16, f16, f16, f16, f16, f16, f16, f16, f16, f16, f16, f16, f16, f16, f16, f16, f16, f16, f16, f16, f16, f16, f16, f16, f16, f16, f16, f16, f16, f16, f16, f16, f16, f16, f16, f16, f16, f16, f16, f16, f16, f16, f16, f16, f16, f16, f16, f16, f16, f16, f16, f16, f16, f16, f16, f16, f16, f16, f16, f16, f16, f16, f16, f16, f16, f16, f16, f16, f16, f16, f16, f16, f16, f16, f16, f16, f16, f16, f16, f16, f16, f16, f16, f16, f16, f16, f16, f16, f16, f16, f16, f16, f16, f16, f16, f16, f16, f16, f16, f16, f16, f16, f16, f16, f16, f16, f16, f16, f16, f16, f16, f16, f16, f16, f16, f16, f16, f16, f16, f16, f16, f16, f16, f16, f16, f16, f16, f16, f16, f16, f16, f16, f16, f16, f16, f16, f16, f16, f16, f16, f16, f16, f16, f16, f16, f16, f16, f16, f16, f16, f16, f16, f16, f16, f16, f16, f16, f16, f16, f16, f16, f16, f16, f16, f16, f16, f16, f16, f16, f16, f16, f16, f16, f16, f16, f16, f16, f16, f16, f16, f16, f16, f16, f16, f16, f16, f16, f16, f16, f16, f16, f16, f16, f16, f16, f16, f16, f16, f16, f16, f16, f16, f16, f16, f16, f16, f16, f16, f16, f16, f16, f16, f16) -> tensor<30x32xf16>
        %233 = "memref.alloc"(%31) <{operandSegmentSizes = array<i32: 1, 0>}> : (index) -> memref<?x32xi64>
        "memref.tensor_store"(%50, %233) : (tensor<?x32xi64>, memref<?x32xi64>) -> ()
        %234 = "arith.constant"() <{value = 14458 : i16}> : () -> i16
        %235 = "tensor.splat"(%0) : (i1) -> tensor<30x32xi1>
        %236 = "math.tanh"(%58) <{fastmath = #arith.fastmath<none>}> : (tensor<?xf16>) -> tensor<?xf16>
        %237 = "vector.matrix_multiply"(%88, %88) <{lhs_columns = 2 : i32, lhs_rows = 1 : i32, rhs_columns = 1 : i32}> : (vector<2xi32>, vector<2xi32>) -> vector<1xi32>
        %238 = "vector.insertelement"(%5, %237, %35) : (i32, vector<1xi32>, index) -> vector<1xi32>
        %239 = "tensor.empty"() : () -> tensor<25x30x32x3xi32>
        %240 = "linalg.broadcast"(%53, %239) <{dimensions = array<i64: 3>}> ({
        ^bb0(%arg1: i32, %arg2: i32):
          "linalg.yield"(%arg1) : (i32) -> ()
        }) : (tensor<25x30x32xi32>, tensor<25x30x32x3xi32>) -> tensor<25x30x32x3xi32>
        %241 = "index.mul"(%27, %80) : (index, index) -> index
        %242 = "math.absf"(%57) <{fastmath = #arith.fastmath<none>}> : (tensor<?x?x?xf32>) -> tensor<?x?x?xf32>
        %243 = "memref.alloc"() <{operandSegmentSizes = array<i32: 0, 0>}> : () -> memref<25x30x32xi32>
        "memref.tensor_store"(%53, %243) : (tensor<25x30x32xi32>, memref<25x30x32xi32>) -> ()
        %244 = "memref.alloc"() <{operandSegmentSizes = array<i32: 0, 0>}> : () -> memref<25x30x32x3xi32>
        "memref.tensor_store"(%239, %244) : (tensor<25x30x32x3xi32>, memref<25x30x32x3xi32>) -> ()
        %245 = "vector.broadcast"(%36) : (index) -> vector<32xindex>
        %246 = "vector.broadcast"(%0) : (i1) -> vector<32xi1>
        %247 = "vector.broadcast"(%3) : (i64) -> vector<32xi64>
        "vector.scatter"(%70, %16, %16, %245, %246, %247) : (memref<?x?xi64>, index, index, vector<32xindex>, vector<32xi1>, vector<32xi64>) -> ()
        %248 = "memref.load"(%66, %16, %43) <{nontemporal = false}> : (memref<?x32xi1>, index, index) -> i1
        %249 = "arith.xori"(%3, %11) : (i64, i64) -> i64
        "scf.yield"() : () -> ()
      }) : (index) -> ()
      "scf.yield"(%12) : (f16) -> ()
    }) : () -> f16
    %95 = "spirv.CL.sqrt"(%87) : (f32) -> f32
    %96 = "vector.broadcast"(%9) : (i1) -> vector<3xi1>
    %97 = "vector.maskedload"(%68, %23, %20, %43, %96, %96) : (memref<25x30x32xi1>, index, index, index, vector<3xi1>, vector<3xi1>) -> vector<3xi1>
    %98 = "math.cttz"(%54) : (tensor<?x3xi32>) -> tensor<?x3xi32>
    %99 = "arith.negf"(%82) <{fastmath = #arith.fastmath<none>}> : (f32) -> f32
    %100 = "memref.realloc"(%65) : (memref<?xi32>) -> memref<3xi32>
    %101 = "scf.execute_region"() ({
      "memref.assume_alignment"(%73) <{alignment = 1 : i32}> : (memref<?x?x32xf16>) -> ()
      %213 = "math.powf"(%87, %7) <{fastmath = #arith.fastmath<none>}> : (f32, f32) -> f32
      %214 = "tensor.empty"() : () -> tensor<25x30x32xi1>
      %215 = "linalg.map"(%78, %78, %68, %214) ({
      ^bb0(%arg1: i1, %arg2: i1, %arg3: i1):
        %230 = "tensor.empty"() : () -> tensor<25xf16>
        %231 = "memref.alloc"(%38) <{operandSegmentSizes = array<i32: 1, 0>}> : (index) -> memref<?xf16>
        %232 = "math.absf"(%63) <{fastmath = #arith.fastmath<none>}> : (tensor<30x32xf32>) -> tensor<30x32xf32>
        %233 = "affine.load"(%68, %33, %17, %35) <{map = affine_map<(d0, d1, d2) -> (d0, d1, d2)>}> : (memref<25x30x32xi1>, index, index, index) -> i1
        %234 = "bufferization.clone"(%72) : (memref<30x32xi32>) -> memref<30x32xi32>
        %235 = "math.log10"(%230) <{fastmath = #arith.fastmath<none>}> : (tensor<25xf16>) -> tensor<25xf16>
        %236 = "index.and"(%80, %30) : (index, index) -> index
        %237 = "arith.remui"(%9, %0) : (i1, i1) -> i1
        %238 = "memref.alloc"() <{operandSegmentSizes = array<i32: 0, 0>}> : () -> memref<30x32xi64>
        %239 = "vector.broadcast"(%3) : (i64) -> vector<30x32xi64>
        %240 = "vector.broadcast"(%233) : (i1) -> vector<30x32xi1>
        %241 = "vector.broadcast"(%13) : (i32) -> vector<30x32xi32>
        %242 = "vector.gather"(%238, %42, %24, %241, %240, %239) : (memref<30x32xi64>, index, index, vector<30x32xi32>, vector<30x32xi1>, vector<30x32xi64>) -> vector<30x32xi64>
        %243 = "vector.transpose"(%241) <{transp = [1, 0]}> : (vector<30x32xi32>) -> vector<32x30xi32>
        "memref.store"(%1, %64, %16, %16, %16) <{nontemporal = false}> : (f32, memref<?x?x?xf32>, index, index, index) -> ()
        %244 = "math.exp2"(%63) <{fastmath = #arith.fastmath<none>}> : (tensor<30x32xf32>) -> tensor<30x32xf32>
        %245 = "arith.mulf"(%12, %8) <{fastmath = #arith.fastmath<none>}> : (f16, f16) -> f16
        %246 = "vector.broadcast"(%2) : (i64) -> vector<25xi64>
        %247 = "vector.broadcast"(%arg1) : (i1) -> vector<25xi1>
        "vector.compressstore"(%238, %16, %20, %247, %246) : (memref<30x32xi64>, index, index, vector<25xi1>, vector<25xi64>) -> ()
        %248 = "vector.splat"(%arg2) : (i1) -> vector<32x3xi1>
        %249 = "memref.alloc"() <{operandSegmentSizes = array<i32: 0, 0>}> : () -> memref<32x30xf32>
        %250 = "tensor.empty"() : () -> tensor<30x30xf32>
        %251 = "linalg.matmul"(%63, %249, %250) <{operandSegmentSizes = array<i32: 2, 1>}> ({
        ^bb0(%arg4: f32, %arg5: f32, %arg6: f32):
          %270 = "arith.mulf"(%arg4, %arg5) <{fastmath = #arith.fastmath<none>}> : (f32, f32) -> f32
          %271 = "arith.addf"(%arg6, %270) <{fastmath = #arith.fastmath<none>}> : (f32, f32) -> f32
          "linalg.yield"(%271) : (f32) -> ()
        }) : (tensor<30x32xf32>, memref<32x30xf32>, tensor<30x30xf32>) -> tensor<30x30xf32>
        %252 = "math.log1p"(%230) <{fastmath = #arith.fastmath<none>}> : (tensor<25xf16>) -> tensor<25xf16>
        %253 = "vector.broadcast"(%7) : (f32) -> vector<25xf32>
        %254 = "vector.fma"(%253, %253, %253) : (vector<25xf32>, vector<25xf32>, vector<25xf32>) -> vector<25xf32>
        %255 = "memref.cast"(%79) : (memref<?xi1>) -> memref<25xi1>
        %256 = "index.add"(%43, %34) : (index, index) -> index
        %257 = "memref.alloc"() <{operandSegmentSizes = array<i32: 0, 0>}> : () -> memref<25xf16>
        %258 = "tensor.empty"() : () -> tensor<f16>
        %259 = "linalg.dot"(%230, %257, %258) <{operandSegmentSizes = array<i32: 2, 1>}> ({
        ^bb0(%arg4: f16, %arg5: f16, %arg6: f16):
          %270 = "arith.mulf"(%arg4, %arg5) <{fastmath = #arith.fastmath<none>}> : (f16, f16) -> f16
          %271 = "arith.addf"(%arg6, %270) <{fastmath = #arith.fastmath<none>}> : (f16, f16) -> f16
          "linalg.yield"(%271) : (f16) -> ()
        }) : (tensor<25xf16>, memref<25xf16>, tensor<f16>) -> tensor<f16>
        %260 = "arith.divui"(%13, %14) : (i32, i32) -> i32
        %261 = "linalg.copy"(%52, %52) <{operandSegmentSizes = array<i32: 1, 1>}> ({
        ^bb0(%arg4: f16, %arg5: f16):
          "linalg.yield"(%arg4) : (f16) -> ()
        }) : (tensor<?x?x32xf16>, tensor<?x?x32xf16>) -> tensor<?x?x32xf16>
        %262 = "memref.load"(%76, %16, %16) <{nontemporal = false}> : (memref<?x?xi1>, index, index) -> i1
        %263 = "vector.create_mask"(%24, %22) : (index, index) -> vector<30x32xi1>
        %264 = "vector.matrix_multiply"(%253, %254) <{lhs_columns = 25 : i32, lhs_rows = 1 : i32, rhs_columns = 1 : i32}> : (vector<25xf32>, vector<25xf32>) -> vector<1xf32>
        %265 = "index.or"(%27, %17) : (index, index) -> index
        "vector.compressstore"(%68, %23, %40, %46, %97, %96) : (memref<25x30x32xi1>, index, index, index, vector<3xi1>, vector<3xi1>) -> ()
        %266 = "tensor.dim"(%50, %17) : (tensor<?x32xi64>, index) -> index
        %267 = "index.add"(%32, %41) : (index, index) -> index
        %268 = "index.mul"(%25, %40) : (index, index) -> index
        %269 = "index.mul"(%45, %22) : (index, index) -> index
        "linalg.yield"(%arg3) : (i1) -> ()
      }) : (memref<25x30x32xi1>, memref<25x30x32xi1>, memref<25x30x32xi1>, tensor<25x30x32xi1>) -> tensor<25x30x32xi1>
      %216 = "arith.mulf"(%15, %94) <{fastmath = #arith.fastmath<none>}> : (f16, f16) -> f16
      %217 = "memref.cast"(%64) : (memref<?x?x?xf32>) -> memref<?x?x3xf32>
      %218 = "scf.while"(%82) ({
      ^bb0(%arg1: f32):
        %230 = "bufferization.to_tensor"(%73) : (memref<?x?x32xf16>) -> tensor<?x?x32xf16>
        %231 = "index.add"(%36, %22) : (index, index) -> index
        %232 = "math.log10"(%57) <{fastmath = #arith.fastmath<none>}> : (tensor<?x?x?xf32>) -> tensor<?x?x?xf32>
        %233 = "tensor.from_elements"(%0, %0, %0, %0, %0, %0, %0, %0, %0, %0, %9, %0, %0, %0, %0, %0, %9, %0, %9, %9, %9, %9, %9, %0, %9) : (i1, i1, i1, i1, i1, i1, i1, i1, i1, i1, i1, i1, i1, i1, i1, i1, i1, i1, i1, i1, i1, i1, i1, i1, i1) -> tensor<25xi1>
        %234 = "vector.insertelement"(%14, %88, %18) : (i32, vector<2xi32>, index) -> vector<2xi32>
        %235 = "tensor.cast"(%61) : (tensor<?x30x32xf16>) -> tensor<30x30x32xf16>
        %236 = "vector.contract"(%97, %97, %0) <{indexing_maps = [affine_map<(d0) -> (d0)>, affine_map<(d0) -> (d0)>, affine_map<(d0) -> ()>], iterator_types = [#vector.iterator_type<reduction>], kind = #vector.kind<xor>}> : (vector<3xi1>, vector<3xi1>, i1) -> i1
        %237 = "vector.broadcast"(%94) : (f16) -> vector<30xf16>
        %238 = "vector.broadcast"(%9) : (i1) -> vector<30xi1>
        "vector.compressstore"(%77, %16, %16, %16, %238, %237) : (memref<?x?x?xf16>, index, index, index, vector<30xi1>, vector<30xf16>) -> ()
        "scf.condition"(%0, %87) : (i1, f32) -> ()
      }, {
      ^bb0(%arg1: f32):
        %230 = "memref.realloc"(%79) : (memref<?xi1>) -> memref<32xi1>
        %231 = "index.and"(%31, %28) : (index, index) -> index
        "affine.vector_store"(%88, %72, %18, %23) <{map = affine_map<(d0, d1) -> (d0, d1)>}> : (vector<2xi32>, memref<30x32xi32>, index, index) -> ()
        %232 = "memref.cast"(%75) : (memref<?x?x?xi1>) -> memref<3x?x3xi1>
        %233 = "vector.multi_reduction"(%96, %97) <{kind = #vector.kind<maxsi>, reduction_dims = []}> : (vector<3xi1>, vector<3xi1>) -> vector<3xi1>
        %234 = "index.add"(%19, %41) : (index, index) -> index
        %235 = "memref.alloca"() <{operandSegmentSizes = array<i32: 0, 0>}> : () -> memref<30x32xi64>
        %236 = "bufferization.clone"(%71) : (memref<30x32xi1>) -> memref<30x32xi1>
        %237 = "math.tanh"(%60) <{fastmath = #arith.fastmath<none>}> : (tensor<?x?xf16>) -> tensor<?x?xf16>
        %238 = "vector.contract"(%88, %88, %5) <{indexing_maps = [affine_map<(d0) -> (d0)>, affine_map<(d0) -> (d0)>, affine_map<(d0) -> ()>], iterator_types = [#vector.iterator_type<reduction>], kind = #vector.kind<minsi>}> : (vector<2xi32>, vector<2xi32>, i32) -> i32
        %239 = "index.divu"(%35, %43) : (index, index) -> index
        %240 = "affine.vector_load"(%79, %33) <{map = affine_map<(d0) -> (d0)>}> : (memref<?xi1>, index) -> vector<3xi1>
        %241 = "math.roundeven"(%63) <{fastmath = #arith.fastmath<none>}> : (tensor<30x32xf32>) -> tensor<30x32xf32>
        %242 = "math.expm1"(%8) <{fastmath = #arith.fastmath<none>}> : (f16) -> f16
        %243 = "vector.flat_transpose"(%240) <{columns = 3 : i32, rows = 1 : i32}> : (vector<3xi1>) -> vector<3xi1>
        %244 = "math.exp"(%52) <{fastmath = #arith.fastmath<none>}> : (tensor<?x?x32xf16>) -> tensor<?x?x32xf16>
        "scf.yield"(%7) : (f32) -> ()
      }) : (f32) -> f32
      %219 = "index.and"(%30, %26) : (index, index) -> index
      %220 = "math.powf"(%82, %82) <{fastmath = #arith.fastmath<none>}> : (f32, f32) -> f32
      %221 = "math.cttz"(%62) : (tensor<25x30x32xi1>) -> tensor<25x30x32xi1>
      %222 = "math.expm1"(%15) <{fastmath = #arith.fastmath<none>}> : (f16) -> f16
      %223 = "memref.alloc"(%27) <{operandSegmentSizes = array<i32: 1, 0>}> : (index) -> memref<?x30x32xf16>
      %224 = "tensor.insert"(%82, %63, %33, %22) : (f32, tensor<30x32xf32>, index, index) -> tensor<30x32xf32>
      %225 = "memref.alloc"(%80) <{operandSegmentSizes = array<i32: 1, 0>}> : (index) -> memref<?xf16>
      "memref.tensor_store"(%59, %225) : (tensor<?xf16>, memref<?xf16>) -> ()
      %226 = "arith.shrsi"(%0, %0) : (i1, i1) -> i1
      %227 = "arith.divsi"(%9, %0) : (i1, i1) -> i1
      %228 = "arith.divf"(%7, %82) <{fastmath = #arith.fastmath<none>}> : (f32, f32) -> f32
      %229 = "tensor.empty"() : () -> tensor<25x30x32xf16>
      "scf.yield"(%229) : (tensor<25x30x32xf16>) -> ()
    }) : () -> tensor<25x30x32xf16>
    %102 = "spirv.UGreaterThan"(%14, %13) : (i32, i32) -> i1
    %103 = "math.rsqrt"(%60) <{fastmath = #arith.fastmath<none>}> : (tensor<?x?xf16>) -> tensor<?x?xf16>
    %104 = "vector.broadcast"(%82) : (f32) -> vector<3xf32>
    "vector.compressstore"(%74, %16, %96, %104) : (memref<?xf32>, index, vector<3xi1>, vector<3xf32>) -> ()
    %105 = "math.log"(%87) <{fastmath = #arith.fastmath<none>}> : (f32) -> f32
    %106 = "tensor.dim"(%50, %16) : (tensor<?x32xi64>, index) -> index
    %107 = "spirv.GL.SAbs"(%6) : (i16) -> i16
    %108 = "spirv.CL.fmin"(%1, %87) : (f32, f32) -> f32
    %109 = "index.and"(%45, %43) : (index, index) -> index
    %110 = "spirv.BitFieldInsert"(%88, %88, %11, %13) : (vector<2xi32>, vector<2xi32>, i64, i32) -> vector<2xi32>
    %111 = "arith.minui"(%92, %107) : (i16, i16) -> i16
    %112 = "index.add"(%32, %40) : (index, index) -> index
    %113 = "scf.execute_region"() ({
      %213 = "arith.ceildivsi"(%3, %2) : (i64, i64) -> i64
      %214 = "vector.broadcast"(%82) : (f32) -> vector<30x32xf32>
      %215 = "math.floor"(%87) <{fastmath = #arith.fastmath<none>}> : (f32) -> f32
      %216 = "vector.multi_reduction"(%96, %97) <{kind = #vector.kind<mul>, reduction_dims = []}> : (vector<3xi1>, vector<3xi1>) -> vector<3xi1>
      %217 = "arith.minsi"(%11, %3) : (i64, i64) -> i64
      "scf.if"(%0) ({
        %228 = "arith.andi"(%5, %14) : (i32, i32) -> i32
        %229 = "vector.broadcast"(%12) : (f16) -> vector<25xf16>
        %230 = "vector.broadcast"(%102) : (i1) -> vector<25xi1>
        %231 = "vector.maskedload"(%73, %16, %16, %22, %230, %229) : (memref<?x?x32xf16>, index, index, index, vector<25xi1>, vector<25xf16>) -> vector<25xf16>
        %232 = "arith.muli"(%5, %5) : (i32, i32) -> i32
        %233 = "vector.broadcast"(%7) : (f32) -> vector<30xf32>
        %234:2 = "vector.scan"(%214, %233) <{inclusive = false, kind = #vector.kind<add>, reduction_dim = 1 : i64}> : (vector<30x32xf32>, vector<30xf32>) -> (vector<30x32xf32>, vector<30xf32>)
        %235 = "index.add"(%19, %39) : (index, index) -> index
        %236 = "affine.max"(%235) <{map = affine_map<(d0) -> ((d0 * 8) floordiv 16 + 8)>}> : (index) -> index
        %237 = "arith.cmpi"(%0, %0) <{predicate = 4 : i64}> : (i1, i1) -> i1
        %238 = "arith.minui"(%107, %4) : (i16, i16) -> i16
        "scf.yield"() : () -> ()
      }, {
        %228 = "vector.contract"(%97, %97, %102) <{indexing_maps = [affine_map<(d0) -> (d0)>, affine_map<(d0) -> (d0)>, affine_map<(d0) -> ()>], iterator_types = [#vector.iterator_type<reduction>], kind = #vector.kind<mul>}> : (vector<3xi1>, vector<3xi1>, i1) -> i1
        %229 = "arith.divui"(%2, %11) : (i64, i64) -> i64
        %230 = "math.log1p"(%63) <{fastmath = #arith.fastmath<none>}> : (tensor<30x32xf32>) -> tensor<30x32xf32>
        %231 = "memref.alloc"() <{operandSegmentSizes = array<i32: 0, 0>}> : () -> memref<25x30x32x30xf16>
        "linalg.broadcast"(%101, %231) <{dimensions = array<i64: 3>}> ({
        ^bb0(%arg1: f16, %arg2: f16):
          "linalg.yield"(%arg1) : (f16) -> ()
        }) : (tensor<25x30x32xf16>, memref<25x30x32x30xf16>) -> ()
        %232 = "vector.shuffle"(%88, %88) <{mask = [0]}> : (vector<2xi32>, vector<2xi32>) -> vector<1xi32>
        %233 = "tensor.expand_shape"(%52) <{reassociation = [[0], [1], [2, 3]]}> : (tensor<?x?x32xf16>) -> tensor<?x?x32x1xf16>
        %234 = "arith.addf"(%87, %82) <{fastmath = #arith.fastmath<none>}> : (f32, f32) -> f32
        %235 = "index.mul"(%33, %18) : (index, index) -> index
        "scf.yield"() : () -> ()
      }) : (i1) -> ()
      %218 = "affine.parallel"() <{lowerBoundsGroups = dense<1> : tensor<3xi32>, lowerBoundsMap = affine_map<() -> (0, 0, 0)>, reductions = [7], steps = [1, 1, 1], upperBoundsGroups = dense<1> : tensor<3xi32>, upperBoundsMap = affine_map<() -> (25, 30, 32)>}> ({
      ^bb0(%arg1: index, %arg2: index, %arg3: index):
        %228 = "index.and"(%29, %47) : (index, index) -> index
        "affine.yield"(%13) : (i32) -> ()
      }) : () -> memref<25x30x32xi32>
      %219 = "tensor.expand_shape"(%55) <{reassociation = [[0], [1, 2]]}> : (tensor<30x32xi32>) -> tensor<30x32x1xi32>
      %220 = "bufferization.clone"(%78) : (memref<25x30x32xi1>) -> memref<25x30x32xi1>
      "vector.compressstore"(%68, %40, %41, %43, %96, %97) : (memref<25x30x32xi1>, index, index, index, vector<3xi1>, vector<3xi1>) -> ()
      %221 = "tensor.empty"() : () -> tensor<i16>
      %222 = "linalg.dot"(%51, %51, %221) <{operandSegmentSizes = array<i32: 2, 1>}> ({
      ^bb0(%arg1: i16, %arg2: i16, %arg3: i16):
        %228 = "arith.muli"(%arg1, %arg2) : (i16, i16) -> i16
        %229 = "arith.addi"(%arg3, %228) : (i16, i16) -> i16
        "linalg.yield"(%229) : (i16) -> ()
      }) : (tensor<25xi16>, tensor<25xi16>, tensor<i16>) -> tensor<i16>
      %223 = "memref.alloc"(%29) <{operandSegmentSizes = array<i32: 1, 0>}> : (index) -> memref<?x30x32x30xf16>
      "linalg.broadcast"(%61, %223) <{dimensions = array<i64: 3>}> ({
      ^bb0(%arg1: f16, %arg2: f16):
        "linalg.yield"(%arg1) : (f16) -> ()
      }) : (tensor<?x30x32xf16>, memref<?x30x32x30xf16>) -> ()
      %224 = "scf.index_switch"(%17) <{cases = array<i64: 1, 2, 3, 4>}> ({
        %228 = "arith.remui"(%5, %5) : (i32, i32) -> i32
        %229 = "vector.matrix_multiply"(%96, %97) <{lhs_columns = 3 : i32, lhs_rows = 1 : i32, rhs_columns = 1 : i32}> : (vector<3xi1>, vector<3xi1>) -> vector<1xi1>
        %230 = "vector.broadcast"(%9) : (i1) -> vector<3x3xi1>
        %231 = "vector.outerproduct"(%97, %97, %230) <{kind = #vector.kind<maxsi>}> : (vector<3xi1>, vector<3xi1>, vector<3x3xi1>) -> vector<3x3xi1>
        %232 = "arith.remui"(%4, %6) : (i16, i16) -> i16
        %233 = "math.absf"(%108) <{fastmath = #arith.fastmath<none>}> : (f32) -> f32
        %234 = "math.round"(%60) <{fastmath = #arith.fastmath<none>}> : (tensor<?x?xf16>) -> tensor<?x?xf16>
        %235 = "arith.constant"() <{value = 32 : index}> : () -> index
        %236 = "tensor.empty"() : () -> tensor<960xi32>
        %237 = "tensor.unpack"(%55, %236, %235) <{inner_dims_pos = array<i64: 0>, outer_dims_perm = array<i64: 0>, static_inner_tiles = array<i64: -9223372036854775808>}> : (tensor<30x32xi32>, tensor<960xi32>, index) -> tensor<960xi32>
        %238 = "vector.shuffle"(%97, %97) <{mask = [0, 3, 5]}> : (vector<3xi1>, vector<3xi1>) -> vector<3xi1>
        %239 = "memref.realloc"(%74) : (memref<?xf32>) -> memref<3xf32>
        %240 = "index.or"(%112, %112) : (index, index) -> index
        %241 = "memref.alloc"() <{operandSegmentSizes = array<i32: 0, 0>}> : () -> memref<25x30x32xi32>
        "memref.tensor_store"(%53, %241) : (tensor<25x30x32xi32>, memref<25x30x32xi32>) -> ()
        %242 = "math.tan"(%63) <{fastmath = #arith.fastmath<none>}> : (tensor<30x32xf32>) -> tensor<30x32xf32>
        %243 = "tensor.cast"(%52) : (tensor<?x?x32xf16>) -> tensor<32x25x32xf16>
        %244 = "math.fma"(%87, %108, %1) <{fastmath = #arith.fastmath<none>}> : (f32, f32, f32) -> f32
        "memref.store"(%12, %223, %16, %34, %24, %24) <{nontemporal = false}> : (f16, memref<?x30x32x30xf16>, index, index, index, index) -> ()
        %245 = "vector.insertelement"(%0, %96, %25) : (i1, vector<3xi1>, index) -> vector<3xi1>
        %246 = "tensor.empty"() : () -> tensor<30x32xi16>
        "scf.yield"(%246) : (tensor<30x32xi16>) -> ()
      }, {
        %228 = "math.cttz"(%55) : (tensor<30x32xi32>) -> tensor<30x32xi32>
        %229 = "vector.transpose"(%214) <{transp = [0, 1]}> : (vector<30x32xf32>) -> vector<30x32xf32>
        %230 = "index.and"(%20, %22) : (index, index) -> index
        %231 = "tensor.empty"() : () -> tensor<32x30xi32>
        %232 = "tensor.empty"() : () -> tensor<30x30xi32>
        %233 = "linalg.matmul"(%55, %231, %232) <{operandSegmentSizes = array<i32: 2, 1>}> ({
        ^bb0(%arg1: i32, %arg2: i32, %arg3: i32):
          %246 = "arith.muli"(%arg1, %arg2) : (i32, i32) -> i32
          %247 = "arith.addi"(%arg3, %246) : (i32, i32) -> i32
          "linalg.yield"(%247) : (i32) -> ()
        }) : (tensor<30x32xi32>, tensor<32x30xi32>, tensor<30x30xi32>) -> tensor<30x30xi32>
        %234 = "vector.broadcast"(%15) : (f16) -> vector<25xf16>
        %235 = "tensor.rank"(%50) : (tensor<?x32xi64>) -> index
        %236 = "arith.remf"(%95, %87) <{fastmath = #arith.fastmath<none>}> : (f32, f32) -> f32
        "vector.compressstore"(%220, %20, %25, %45, %97, %97) : (memref<25x30x32xi1>, index, index, index, vector<3xi1>, vector<3xi1>) -> ()
        %237 = "math.tan"(%15) <{fastmath = #arith.fastmath<none>}> : (f16) -> f16
        %238 = "memref.alloc"() <{operandSegmentSizes = array<i32: 0, 0>}> : () -> memref<30x32xi32>
        "memref.tensor_store"(%55, %238) : (tensor<30x32xi32>, memref<30x32xi32>) -> ()
        %239 = "vector.insertelement"(%0, %97, %43) : (i1, vector<3xi1>, index) -> vector<3xi1>
        %240 = "memref.alloc"(%46, %16) <{operandSegmentSizes = array<i32: 2, 0>}> : (index, index) -> memref<?x?xf16>
        "memref.tensor_store"(%60, %240) : (tensor<?x?xf16>, memref<?x?xf16>) -> ()
        %241 = "math.floor"(%58) <{fastmath = #arith.fastmath<none>}> : (tensor<?xf16>) -> tensor<?xf16>
        %242 = "vector.mask"(%96) ({
          %246 = "vector.multi_reduction"(%96, %96) <{kind = #vector.kind<maxui>, reduction_dims = []}> : (vector<3xi1>, vector<3xi1>) -> vector<3xi1>
          "vector.yield"(%246) : (vector<3xi1>) -> ()
        }) : (vector<3xi1>) -> vector<3xi1>
        %243 = "memref.load"(%76, %16, %16) <{nontemporal = false}> : (memref<?x?xi1>, index, index) -> i1
        %244 = "index.or"(%30, %34) : (index, index) -> index
        %245 = "tensor.empty"() : () -> tensor<30x32xi16>
        "scf.yield"(%245) : (tensor<30x32xi16>) -> ()
      }, {
        %228 = "index.mul"(%32, %26) : (index, index) -> index
        %229 = "tensor.insert"(%15, %60, %16, %16) : (f16, tensor<?x?xf16>, index, index) -> tensor<?x?xf16>
        %230 = "arith.addi"(%2, %3) : (i64, i64) -> i64
        %231 = "vector.load"(%73, %16, %16, %40) : (memref<?x?x32xf16>, index, index, index) -> vector<25x30x32xf16>
        %232 = "arith.subi"(%9, %102) : (i1, i1) -> i1
        %233 = "memref.realloc"(%74) : (memref<?xf32>) -> memref<3xf32>
        %234 = "arith.constant"() <{value = false}> : () -> i1
        %235 = "arith.minsi"(%5, %5) : (i32, i32) -> i32
        %236 = "math.cttz"(%13) : (i32) -> i32
        %237 = "index.sizeof"() : () -> index
        %238 = "tensor.from_elements"(%6, %4, %6, %10, %92, %6, %6, %92, %107, %4, %92, %4, %6, %107, %4, %92, %6, %10, %107, %6, %4, %6, %92, %107, %10) : (i16, i16, i16, i16, i16, i16, i16, i16, i16, i16, i16, i16, i16, i16, i16, i16, i16, i16, i16, i16, i16, i16, i16, i16, i16) -> tensor<25xi16>
        %239 = "bufferization.clone"(%68) : (memref<25x30x32xi1>) -> memref<25x30x32xi1>
        %240 = "index.ceildivu"(%41, %23) : (index, index) -> index
        %241 = "math.exp2"(%95) <{fastmath = #arith.fastmath<none>}> : (f32) -> f32
        %242 = "index.or"(%34, %18) : (index, index) -> index
        %243 = "memref.alloca"() <{operandSegmentSizes = array<i32: 0, 0>}> : () -> memref<25x30x32xi64>
        %244 = "tensor.empty"() : () -> tensor<30x32xi16>
        "scf.yield"(%244) : (tensor<30x32xi16>) -> ()
      }, {
        %228 = "affine.load"(%65, %37) <{map = affine_map<(d0) -> (d0)>}> : (memref<?xi32>, index) -> i32
        %229 = "memref.load"(%73, %16, %16, %31) <{nontemporal = false}> : (memref<?x?x32xf16>, index, index, index) -> f16
        %230 = "vector.contract"(%88, %88, %13) <{indexing_maps = [affine_map<(d0) -> (d0)>, affine_map<(d0) -> (d0)>, affine_map<(d0) -> ()>], iterator_types = [#vector.iterator_type<reduction>], kind = #vector.kind<maxui>}> : (vector<2xi32>, vector<2xi32>, i32) -> i32
        %231 = "bufferization.clone"(%72) : (memref<30x32xi32>) -> memref<30x32xi32>
        %232 = "vector.transpose"(%97) <{transp = [0]}> : (vector<3xi1>) -> vector<3xi1>
        %233 = "vector.matrix_multiply"(%96, %97) <{lhs_columns = 3 : i32, lhs_rows = 1 : i32, rhs_columns = 1 : i32}> : (vector<3xi1>, vector<3xi1>) -> vector<1xi1>
        %234 = "tensor.dim"(%48, %17) : (tensor<32x3xi16>, index) -> index
        %235 = "math.exp2"(%12) <{fastmath = #arith.fastmath<none>}> : (f16) -> f16
        %236 = "arith.xori"(%14, %13) : (i32, i32) -> i32
        %237 = "arith.remf"(%7, %95) <{fastmath = #arith.fastmath<none>}> : (f32, f32) -> f32
        %238 = "bufferization.to_memref"(%63) : (tensor<30x32xf32>) -> memref<30x32xf32>
        %239 = "vector.load"(%218, %16, %30, %37) : (memref<25x30x32xi32>, index, index, index) -> vector<30x32xi32>
        %240 = "tensor.collapse_shape"(%48) <{reassociation = [[0, 1]]}> : (tensor<32x3xi16>) -> tensor<96xi16>
        %241 = "arith.negf"(%95) <{fastmath = #arith.fastmath<none>}> : (f32) -> f32
        %242 = "tensor.unpack"(%222, %222) <{inner_dims_pos = array<i64>, static_inner_tiles = array<i64>}> : (tensor<i16>, tensor<i16>) -> tensor<i16>
        %243 = "arith.divui"(%107, %6) : (i16, i16) -> i16
        %244 = "tensor.empty"() : () -> tensor<30x32xi16>
        "scf.yield"(%244) : (tensor<30x32xi16>) -> ()
      }, {
        %228 = "arith.mulf"(%1, %1) <{fastmath = #arith.fastmath<none>}> : (f32, f32) -> f32
        %229 = "tensor.empty"() : () -> tensor<25x30x32xi32>
        %230 = "bufferization.clone"(%67) : (memref<30x32xi16>) -> memref<30x32xi16>
        %231 = "vector.flat_transpose"(%97) <{columns = 3 : i32, rows = 1 : i32}> : (vector<3xi1>) -> vector<3xi1>
        %232 = "tensor.dim"(%57, %17) : (tensor<?x?x?xf32>, index) -> index
        %233 = "tensor.splat"(%4) : (i16) -> tensor<25x30x32xi16>
        %234 = "memref.alloc"(%27) <{operandSegmentSizes = array<i32: 1, 0>}> : (index) -> memref<?x3xi64>
        %235 = "math.round"(%61) <{fastmath = #arith.fastmath<none>}> : (tensor<?x30x32xf16>) -> tensor<?x30x32xf16>
        %236 = "vector.insert"(%9, %97) <{static_position = array<i64: 1>}> : (i1, vector<3xi1>) -> vector<3xi1>
        %237 = "arith.minui"(%10, %92) : (i16, i16) -> i16
        %238 = "vector.extract"(%231) <{static_position = array<i64: 1>}> : (vector<3xi1>) -> i1
        %239 = "arith.divsi"(%14, %5) : (i32, i32) -> i32
        %240 = "tensor.empty"(%41) : (index) -> tensor<?x3xf16>
        %241 = "memref.realloc"(%74) : (memref<?xf32>) -> memref<30xf32>
        %242 = "vector.broadcast"(%0) : (i1) -> vector<25xi1>
        %243 = "vector.maskedload"(%66, %16, %39, %242, %242) : (memref<?x32xi1>, index, index, vector<25xi1>, vector<25xi1>) -> vector<25xi1>
        %244 = "index.ceildivs"(%36, %38) : (index, index) -> index
        %245 = "tensor.empty"() : () -> tensor<30x32xi16>
        "scf.yield"(%245) : (tensor<30x32xi16>) -> ()
      }) : (index) -> tensor<30x32xi16>
      %225 = "tensor.insert"(%13, %53, %31, %39, %43) : (i32, tensor<25x30x32xi32>, index, index, index) -> tensor<25x30x32xi32>
      %226 = "arith.shrsi"(%0, %0) : (i1, i1) -> i1
      %227 = "tensor.insert"(%15, %60, %16, %16) : (f16, tensor<?x?xf16>, index, index) -> tensor<?x?xf16>
      "scf.yield"(%34) : (index) -> ()
    }) : () -> index
    %114 = "tensor.empty"() : () -> tensor<96xi16>
    %115 = "tensor.unpack"(%48, %114, %19) <{inner_dims_pos = array<i64: 0>, outer_dims_perm = array<i64: 0>, static_inner_tiles = array<i64: -9223372036854775808>}> : (tensor<32x3xi16>, tensor<96xi16>, index) -> tensor<96xi16>
    %116 = "tensor.cast"(%50) : (tensor<?x32xi64>) -> tensor<32x32xi64>
    %117 = "spirv.CL.fma"(%1, %1, %95) : (f32, f32, f32) -> f32
    %118 = "spirv.CL.s_min"(%4, %92) : (i16, i16) -> i16
    %119 = "arith.xori"(%102, %102) : (i1, i1) -> i1
    %120 = "tensor.from_elements"(%0, %102, %102, %0, %9, %102, %0, %102, %102, %0, %9, %102, %9, %102, %102, %9, %0, %0, %9, %9, %0, %0, %0, %9, %0, %9, %0, %0, %0, %102, %0, %102, %0, %102, %0, %9, %102, %9, %102, %0, %9, %9, %0, %102, %9, %9, %102, %102, %102, %102, %9, %102, %102, %102, %9, %0, %0, %0, %102, %102, %0, %102, %9, %102, %9, %0, %0, %0, %102, %0, %0, %102, %9, %102, %102, %102, %9, %9, %102, %102, %102, %0, %9, %0, %0, %9, %9, %9, %0, %0, %0, %9, %0, %0, %102, %0) : (i1, i1, i1, i1, i1, i1, i1, i1, i1, i1, i1, i1, i1, i1, i1, i1, i1, i1, i1, i1, i1, i1, i1, i1, i1, i1, i1, i1, i1, i1, i1, i1, i1, i1, i1, i1, i1, i1, i1, i1, i1, i1, i1, i1, i1, i1, i1, i1, i1, i1, i1, i1, i1, i1, i1, i1, i1, i1, i1, i1, i1, i1, i1, i1, i1, i1, i1, i1, i1, i1, i1, i1, i1, i1, i1, i1, i1, i1, i1, i1, i1, i1, i1, i1, i1, i1, i1, i1, i1, i1, i1, i1, i1, i1, i1, i1) -> tensor<32x3xi1>
    %121 = "arith.addf"(%7, %95) <{fastmath = #arith.fastmath<none>}> : (f32, f32) -> f32
    %122 = "spirv.GL.FMix"(%94, %12, %94) : (f16, f16, f16) -> f16
    %123 = "spirv.GL.Sinh"(%12) : (f16) -> f16
    %124 = "index.xor"(%40, %112) : (index, index) -> index
    %125 = "arith.minui"(%3, %11) : (i64, i64) -> i64
    %126 = "spirv.CL.fmax"(%117, %87) : (f32, f32) -> f32
    %127 = "math.tan"(%12) <{fastmath = #arith.fastmath<none>}> : (f16) -> f16
    "memref.assume_alignment"(%71) <{alignment = 1 : i32}> : (memref<30x32xi1>) -> ()
    %128 = "arith.cmpi"(%4, %107) <{predicate = 6 : i64}> : (i16, i16) -> i1
    %129 = "arith.remui"(%92, %10) : (i16, i16) -> i16
    %130 = "vector.mask"(%96) ({
      %213 = "vector.multi_reduction"(%96, %97) <{kind = #vector.kind<minsi>, reduction_dims = []}> : (vector<3xi1>, vector<3xi1>) -> vector<3xi1>
      "vector.yield"(%213) : (vector<3xi1>) -> ()
    }) : (vector<3xi1>) -> vector<3xi1>
    %131 = "spirv.CL.s_max"(%118, %6) : (i16, i16) -> i16
    %132 = "spirv.CL.sin"(%95) : (f32) -> f32
    %133 = "spirv.BitwiseXor"(%88, %88) : (vector<2xi32>, vector<2xi32>) -> vector<2xi32>
    %134 = "arith.addf"(%117, %108) <{fastmath = #arith.fastmath<none>}> : (f32, f32) -> f32
    %135 = "spirv.CL.exp"(%126) : (f32) -> f32
    %136 = "index.add"(%21, %30) : (index, index) -> index
    %137 = "math.tanh"(%57) <{fastmath = #arith.fastmath<none>}> : (tensor<?x?x?xf32>) -> tensor<?x?x?xf32>
    %138 = "spirv.GL.FAbs"(%7) : (f32) -> f32
    %139 = "math.tan"(%59) <{fastmath = #arith.fastmath<none>}> : (tensor<?xf16>) -> tensor<?xf16>
    %140 = "affine.max"(%44, %36, %109, %18) <{map = affine_map<(d0, d1, d2, d3) -> (-(d2 - 4))>}> : (index, index, index, index) -> index
    %141 = "tensor.from_elements"(%123, %8, %94, %122, %8, %94, %15, %12, %15, %12, %123, %94, %94, %8, %94, %15, %123, %94, %94, %12, %123, %122, %122, %15, %15) : (f16, f16, f16, f16, f16, f16, f16, f16, f16, f16, f16, f16, f16, f16, f16, f16, f16, f16, f16, f16, f16, f16, f16, f16, f16) -> tensor<25xf16>
    %142 = "tensor.empty"(%124, %113) : (index, index) -> tensor<?x?x32xi64>
    %143 = "index.and"(%80, %112) : (index, index) -> index
    %144 = "math.ceil"(%126) <{fastmath = #arith.fastmath<none>}> : (f32) -> f32
    %145 = "spirv.GL.FAbs"(%82) : (f32) -> f32
    %146 = "spirv.IsInf"(%15) : (f16) -> i1
    %147 = "spirv.CL.log"(%95) : (f32) -> f32
    %148 = "arith.subi"(%146, %9) : (i1, i1) -> i1
    %149 = "tensor.insert"(%11, %56, %33, %35, %44) : (i64, tensor<25x30x32xi64>, index, index, index) -> tensor<25x30x32xi64>
    %150 = "vector.broadcast"(%15) : (f16) -> vector<30x32xf16>
    %151 = "tensor.insert"(%122, %59, %16) : (f16, tensor<?xf16>, index) -> tensor<?xf16>
    %152 = "spirv.GL.Sin"(%117) : (f32) -> f32
    %153 = "spirv.CL.round"(%95) : (f32) -> f32
    %154 = "vector.extract"(%97) <{static_position = array<i64: 0>}> : (vector<3xi1>) -> i1
    %155 = "memref.alloc"() <{operandSegmentSizes = array<i32: 0, 0>}> : () -> memref<25x30x32xi64>
    %156 = "arith.negf"(%117) <{fastmath = #arith.fastmath<none>}> : (f32) -> f32
    %157 = "bufferization.to_tensor"(%75) : (memref<?x?x?xi1>) -> tensor<?x?x?xi1>
    %158 = "bufferization.clone"(%67) : (memref<30x32xi16>) -> memref<30x32xi16>
    %159 = "tensor.from_elements"(%6, %10, %118, %118, %92, %6, %131, %4, %6, %4, %131, %10, %4, %4, %6, %4, %92, %107, %107, %10, %92, %4, %107, %4, %118, %6, %6, %4, %107, %107, %131, %92, %6, %92, %107, %92, %118, %118, %6, %107, %107, %6, %107, %118, %10, %10, %6, %10, %10, %131, %131, %6, %107, %6, %118, %107, %107, %4, %92, %92, %4, %107, %131, %6, %92, %92, %10, %92, %4, %6, %6, %10, %131, %92, %4, %107, %107, %4, %131, %107, %6, %6, %107, %118, %6, %6, %92, %6, %118, %118, %6, %131, %6, %92, %131, %131, %118, %131, %107, %6, %10, %10, %4, %118, %10, %118, %118, %107, %92, %6, %10, %6, %6, %118, %92, %92, %107, %107, %92, %92, %6, %107, %107, %4, %107, %4, %4, %6, %4, %6, %107, %107, %107, %10, %6, %131, %118, %107, %4, %10, %6, %107, %10, %10, %10, %4, %107, %131, %118, %6, %92, %92, %107, %131, %4, %92, %107, %4, %92, %92, %131, %4, %10, %107, %107, %10, %118, %131, %6, %118, %4, %92, %107, %107, %107, %10, %131, %118, %118, %107, %131, %118, %6, %92, %107, %4, %6, %6, %131, %4, %6, %107, %107, %131, %107, %107, %92, %131, %92, %131, %10, %10, %6, %118, %6, %107, %6, %4, %118, %4, %118, %4, %92, %6, %131, %131, %4, %10, %131, %118, %6, %10, %6, %4, %92, %131, %10, %10, %107, %4, %10, %131, %10, %118, %92, %131, %118, %131, %118, %107, %107, %10, %4, %131, %107, %107, %131, %118, %6, %92, %92, %6, %92, %118, %4, %6, %92, %107, %92, %118, %118, %107, %107, %4, %118, %92, %4, %4, %118, %118, %118, %92, %131, %118, %4, %107, %4, %10, %118, %92, %6, %10, %107, %118, %118, %10, %10, %107, %6, %10, %118, %10, %131, %10, %4, %131, %92, %4, %92, %92, %10, %6, %131, %92, %92, %131, %118, %10, %118, %4, %118, %6, %118, %92, %107, %131, %118, %107, %10, %118, %4, %107, %4, %10, %4, %131, %92, %107, %118, %10, %107, %107, %92, %4, %131, %6, %118, %6, %107, %107, %118, %131, %107, %131, %10, %10, %6, %92, %92, %10, %107, %118, %4, %10, %10, %118, %10, %131, %92, %4, %107, %6, %107, %107, %4, %4, %4, %131, %92, %6, %10, %6, %118, %10, %131, %6, %131, %118, %131, %118, %6, %92, %6, %6, %10, %10, %107, %118, %92, %6, %107, %118, %118, %107, %118, %92, %118, %118, %6, %131, %92, %118, %107, %107, %107, %92, %6, %131, %10, %107, %118, %92, %131, %118, %107, %92, %118, %92, %6, %92, %92, %118, %4, %107, %6, %131, %131, %10, %10, %131, %6, %10, %131, %10, %6, %4, %131, %4, %107, %6, %131, %92, %107, %118, %131, %92, %131, %10, %118, %92, %4, %4, %4, %6, %92, %107, %92, %6, %4, %107, %92, %107, %131, %92, %131, %4, %6, %10, %6, %6, %6, %131, %118, %6, %10, %92, %6, %4, %118, %107, %92, %118, %131, %10, %107, %4, %92, %118, %10, %4, %4, %118, %6, %6, %10, %4, %92, %4, %4, %118, %131, %4, %92, %107, %107, %118, %118, %107, %131, %10, %6, %10, %6, %6, %118, %92, %92, %4, %92, %10, %6, %10, %6, %10, %118, %131, %92, %118, %92, %92, %6, %131, %10, %6, %118, %92, %6, %10, %4, %92, %131, %118, %118, %92, %4, %4, %92, %107, %107, %118, %107, %118, %92, %131, %6, %10, %92, %131, %4, %4, %4, %4, %6, %118, %92, %118, %118, %6, %118, %107, %118, %92, %4, %131, %92, %6, %6, %92, %107, %10, %118, %6, %118, %10, %92, %4, %107, %6, %107, %131, %10, %118, %131, %92, %10, %107, %118, %92, %131, %131, %92, %4, %107, %6, %107, %4, %131, %10, %6, %6, %4, %107, %4, %10, %92, %131, %131, %4, %4, %118, %10, %118, %10, %6, %6, %131, %118, %92, %118, %118, %10, %107, %131, %4, %92, %10, %131, %107, %107, %131, %4, %10, %92, %107, %107, %10, %92, %92, %131, %10, %10, %6, %92, %131, %10, %4, %6, %107, %131, %107, %131, %4, %10, %4, %6, %4, %131, %4, %107, %92, %118, %92, %92, %118, %4, %6, %4, %131, %118, %118, %118, %118, %107, %131, %4, %107, %6, %118, %107, %131, %92, %118, %6, %118, %6, %107, %10, %118, %92, %107, %107, %92, %6, %131, %6, %107, %92, %6, %118, %118, %118, %131, %6, %10, %107, %118, %118, %10, %107, %10, %6, %107, %107, %107, %6, %131, %131, %6, %118, %4, %107, %131, %10, %6, %118, %10, %131, %107, %107, %92, %10, %4, %92, %10, %10, %118, %10, %10, %107, %131, %118, %118, %92, %118, %107, %131, %10, %6, %118, %107, %6, %131, %6, %118, %10, %6, %107, %6, %10, %92, %10, %118, %4, %107, %92, %4, %92, %118, %6, %118, %131, %92, %6, %92, %6, %118, %10, %10, %92, %6, %118, %118, %131, %92, %10, %10, %6, %92, %107, %4, %118, %107, %131, %10, %107, %92, %131, %131, %6, %92, %107, %92, %10, %118, %6, %10, %6, %131, %10, %118, %107, %118, %4, %92, %10, %6, %6, %131, %118, %6, %131, %10, %107, %10, %10, %92, %10, %10, %4, %92, %6, %118, %4, %131, %4, %107, %118, %10, %4, %107, %4, %107, %10, %118, %10, %6, %10, %10, %10, %131, %107, %92, %10, %10, %92, %131, %10, %131, %10, %107, %4, %92, %92, %6, %6, %6, %6, %131, %118, %10, %118, %107, %107, %118, %10, %92, %131, %118, %107, %118, %10, %107, %6, %4, %107, %4, %10, %92, %4, %4, %6, %131, %6, %6, %4, %131, %4, %10, %118, %131, %107, %118, %6, %6, %107, %6, %118, %4, %131, %131, %118, %107, %10, %6, %4, %6, %118, %131, %131, %107, %131, %6, %131, %92, %107, %131, %92, %6, %107, %10, %118, %10, %131, %6, %131, %131, %10, %6, %4, %10, %118, %118, %6, %6, %4, %4, %107, %131, %118, %6) : (i16, i16, i16, i16, i16, i16, i16, i16, i16, i16, i16, i16, i16, i16, i16, i16, i16, i16, i16, i16, i16, i16, i16, i16, i16, i16, i16, i16, i16, i16, i16, i16, i16, i16, i16, i16, i16, i16, i16, i16, i16, i16, i16, i16, i16, i16, i16, i16, i16, i16, i16, i16, i16, i16, i16, i16, i16, i16, i16, i16, i16, i16, i16, i16, i16, i16, i16, i16, i16, i16, i16, i16, i16, i16, i16, i16, i16, i16, i16, i16, i16, i16, i16, i16, i16, i16, i16, i16, i16, i16, i16, i16, i16, i16, i16, i16, i16, i16, i16, i16, i16, i16, i16, i16, i16, i16, i16, i16, i16, i16, i16, i16, i16, i16, i16, i16, i16, i16, i16, i16, i16, i16, i16, i16, i16, i16, i16, i16, i16, i16, i16, i16, i16, i16, i16, i16, i16, i16, i16, i16, i16, i16, i16, i16, i16, i16, i16, i16, i16, i16, i16, i16, i16, i16, i16, i16, i16, i16, i16, i16, i16, i16, i16, i16, i16, i16, i16, i16, i16, i16, i16, i16, i16, i16, i16, i16, i16, i16, i16, i16, i16, i16, i16, i16, i16, i16, i16, i16, i16, i16, i16, i16, i16, i16, i16, i16, i16, i16, i16, i16, i16, i16, i16, i16, i16, i16, i16, i16, i16, i16, i16, i16, i16, i16, i16, i16, i16, i16, i16, i16, i16, i16, i16, i16, i16, i16, i16, i16, i16, i16, i16, i16, i16, i16, i16, i16, i16, i16, i16, i16, i16, i16, i16, i16, i16, i16, i16, i16, i16, i16, i16, i16, i16, i16, i16, i16, i16, i16, i16, i16, i16, i16, i16, i16, i16, i16, i16, i16, i16, i16, i16, i16, i16, i16, i16, i16, i16, i16, i16, i16, i16, i16, i16, i16, i16, i16, i16, i16, i16, i16, i16, i16, i16, i16, i16, i16, i16, i16, i16, i16, i16, i16, i16, i16, i16, i16, i16, i16, i16, i16, i16, i16, i16, i16, i16, i16, i16, i16, i16, i16, i16, i16, i16, i16, i16, i16, i16, i16, i16, i16, i16, i16, i16, i16, i16, i16, i16, i16, i16, i16, i16, i16, i16, i16, i16, i16, i16, i16, i16, i16, i16, i16, i16, i16, i16, i16, i16, i16, i16, i16, i16, i16, i16, i16, i16, i16, i16, i16, i16, i16, i16, i16, i16, i16, i16, i16, i16, i16, i16, i16, i16, i16, i16, i16, i16, i16, i16, i16, i16, i16, i16, i16, i16, i16, i16, i16, i16, i16, i16, i16, i16, i16, i16, i16, i16, i16, i16, i16, i16, i16, i16, i16, i16, i16, i16, i16, i16, i16, i16, i16, i16, i16, i16, i16, i16, i16, i16, i16, i16, i16, i16, i16, i16, i16, i16, i16, i16, i16, i16, i16, i16, i16, i16, i16, i16, i16, i16, i16, i16, i16, i16, i16, i16, i16, i16, i16, i16, i16, i16, i16, i16, i16, i16, i16, i16, i16, i16, i16, i16, i16, i16, i16, i16, i16, i16, i16, i16, i16, i16, i16, i16, i16, i16, i16, i16, i16, i16, i16, i16, i16, i16, i16, i16, i16, i16, i16, i16, i16, i16, i16, i16, i16, i16, i16, i16, i16, i16, i16, i16, i16, i16, i16, i16, i16, i16, i16, i16, i16, i16, i16, i16, i16, i16, i16, i16, i16, i16, i16, i16, i16, i16, i16, i16, i16, i16, i16, i16, i16, i16, i16, i16, i16, i16, i16, i16, i16, i16, i16, i16, i16, i16, i16, i16, i16, i16, i16, i16, i16, i16, i16, i16, i16, i16, i16, i16, i16, i16, i16, i16, i16, i16, i16, i16, i16, i16, i16, i16, i16, i16, i16, i16, i16, i16, i16, i16, i16, i16, i16, i16, i16, i16, i16, i16, i16, i16, i16, i16, i16, i16, i16, i16, i16, i16, i16, i16, i16, i16, i16, i16, i16, i16, i16, i16, i16, i16, i16, i16, i16, i16, i16, i16, i16, i16, i16, i16, i16, i16, i16, i16, i16, i16, i16, i16, i16, i16, i16, i16, i16, i16, i16, i16, i16, i16, i16, i16, i16, i16, i16, i16, i16, i16, i16, i16, i16, i16, i16, i16, i16, i16, i16, i16, i16, i16, i16, i16, i16, i16, i16, i16, i16, i16, i16, i16, i16, i16, i16, i16, i16, i16, i16, i16, i16, i16, i16, i16, i16, i16, i16, i16, i16, i16, i16, i16, i16, i16, i16, i16, i16, i16, i16, i16, i16, i16, i16, i16, i16, i16, i16, i16, i16, i16, i16, i16, i16, i16, i16, i16, i16, i16, i16, i16, i16, i16, i16, i16, i16, i16, i16, i16, i16, i16, i16, i16, i16, i16, i16, i16, i16, i16, i16, i16, i16, i16, i16, i16, i16, i16, i16, i16, i16, i16, i16, i16, i16, i16, i16, i16, i16, i16, i16, i16, i16, i16, i16, i16, i16, i16, i16, i16, i16, i16, i16, i16, i16, i16, i16, i16, i16, i16, i16, i16, i16, i16, i16, i16, i16, i16, i16, i16, i16, i16, i16, i16, i16, i16, i16, i16, i16, i16, i16, i16, i16, i16, i16, i16, i16, i16, i16, i16, i16, i16, i16, i16, i16, i16, i16, i16, i16, i16, i16, i16, i16, i16, i16, i16, i16, i16, i16, i16, i16, i16, i16, i16, i16, i16, i16, i16, i16, i16, i16, i16, i16, i16, i16, i16, i16, i16, i16, i16, i16, i16, i16, i16, i16, i16, i16, i16, i16, i16, i16, i16, i16, i16, i16, i16, i16, i16, i16, i16, i16, i16, i16, i16, i16, i16, i16, i16, i16, i16, i16, i16, i16, i16, i16, i16, i16, i16, i16, i16, i16, i16, i16, i16, i16, i16, i16, i16, i16, i16, i16, i16, i16, i16, i16, i16, i16, i16, i16, i16, i16, i16, i16, i16, i16, i16, i16, i16, i16, i16, i16, i16, i16, i16, i16, i16, i16, i16, i16, i16, i16, i16, i16, i16, i16, i16, i16, i16, i16, i16, i16, i16, i16, i16, i16, i16, i16, i16, i16, i16, i16, i16, i16, i16, i16, i16, i16, i16, i16, i16, i16) -> tensor<30x32xi16>
    %160 = "arith.shrsi"(%6, %4) : (i16, i16) -> i16
    %161 = "vector.broadcast"(%9) : (i1) -> vector<30xi1>
    %162 = "vector.maskedload"(%68, %40, %29, %35, %161, %161) : (memref<25x30x32xi1>, index, index, index, vector<30xi1>, vector<30xi1>) -> vector<30xi1>
    %163 = "arith.xori"(%92, %107) : (i16, i16) -> i16
    %164 = "spirv.IsNan"(%87) : (f32) -> i1
    %165 = "math.absi"(%5) : (i32) -> i32
    %166 = "spirv.CL.sin"(%94) : (f16) -> f16
    %167 = "spirv.GL.FMix"(%117, %153, %135) : (f32, f32, f32) -> f32
    %168 = "spirv.FOrdEqual"(%87, %132) : (f32, f32) -> i1
    %169 = "spirv.CL.tanh"(%126) : (f32) -> f32
    %170 = "math.absf"(%52) <{fastmath = #arith.fastmath<none>}> : (tensor<?x?x32xf16>) -> tensor<?x?x32xf16>
    %171 = "spirv.CL.fmin"(%82, %7) : (f32, f32) -> f32
    %172 = "spirv.CL.sqrt"(%87) : (f32) -> f32
    %173 = "vector.broadcast"(%47) : (index) -> vector<30xindex>
    "vector.scatter"(%66, %16, %32, %173, %161, %162) : (memref<?x32xi1>, index, index, vector<30xindex>, vector<30xi1>, vector<30xi1>) -> ()
    %174 = "memref.alloc"(%27, %42) <{operandSegmentSizes = array<i32: 2, 0>}> : (index, index) -> memref<?x?x25xf16>
    %175 = "tensor.empty"() : () -> tensor<f16>
    %176 = "tensor.empty"(%30) : (index) -> tensor<?x25xf16>
    %177 = "linalg.generic"(%174, %175, %176) <{indexing_maps = [affine_map<(d0, d1, d2) -> (d0, d1, d2)>, affine_map<(d0, d1, d2) -> ()>, affine_map<(d0, d1, d2) -> (d0, d2)>], iterator_types = [#linalg.iterator_type<parallel>, #linalg.iterator_type<reduction>, #linalg.iterator_type<parallel>], operandSegmentSizes = array<i32: 2, 1>}> ({
    ^bb0(%arg1: f16, %arg2: f16, %arg3: f16):
      %213 = "bufferization.to_tensor"(%76) : (memref<?x?xi1>) -> tensor<?x?xi1>
      "linalg.yield"(%123) : (f16) -> ()
    }) : (memref<?x?x25xf16>, tensor<f16>, tensor<?x25xf16>) -> tensor<?x25xf16>
    %178 = "spirv.FOrdLessThanEqual"(%95, %87) : (f32, f32) -> i1
    %179 = "math.expm1"(%176) <{fastmath = #arith.fastmath<none>}> : (tensor<?x25xf16>) -> tensor<?x25xf16>
    %180 = "spirv.GL.Sinh"(%135) : (f32) -> f32
    %181 = "index.mul"(%36, %45) : (index, index) -> index
    %182 = "spirv.CL.log"(%166) : (f16) -> f16
    %183 = "spirv.FOrdLessThanEqual"(%145, %171) : (f32, f32) -> i1
    %184 = "spirv.CL.tanh"(%172) : (f32) -> f32
    %185 = "spirv.GL.Exp"(%172) : (f32) -> f32
    %186 = "memref.alloc"() <{operandSegmentSizes = array<i32: 0, 0>}> : () -> memref<32x32x25xi64>
    "linalg.broadcast"(%116, %186) <{dimensions = array<i64: 2>}> ({
    ^bb0(%arg1: i64, %arg2: i64):
      "linalg.yield"(%arg1) : (i64) -> ()
    }) : (tensor<32x32xi64>, memref<32x32x25xi64>) -> ()
    %187 = "index.add"(%106, %37) : (index, index) -> index
    %188 = "spirv.LogicalAnd"(%97, %96) : (vector<3xi1>, vector<3xi1>) -> vector<3xi1>
    %189 = "spirv.CL.u_max"(%13, %5) : (i32, i32) -> i32
    "scf.index_switch"(%124) <{cases = array<i64: 1, 2, 3>}> ({
      %213 = "index.shrs"(%20, %45) : (index, index) -> index
      %214 = "index.casts"(%16) : (index) -> i32
      %215 = "math.copysign"(%132, %185) <{fastmath = #arith.fastmath<none>}> : (f32, f32) -> f32
      %216 = "arith.minui"(%92, %6) : (i16, i16) -> i16
      %217 = "vector.create_mask"(%24, %38, %136) : (index, index, index) -> vector<25x30x32xi1>
      %218 = "memref.alloc"() <{operandSegmentSizes = array<i32: 0, 0>}> : () -> memref<25xi16>
      "memref.tensor_store"(%51, %218) : (tensor<25xi16>, memref<25xi16>) -> ()
      %219 = "index.xor"(%213, %45) : (index, index) -> index
      %220 = "math.log10"(%135) <{fastmath = #arith.fastmath<none>}> : (f32) -> f32
      %221 = "math.tanh"(%60) <{fastmath = #arith.fastmath<none>}> : (tensor<?x?xf16>) -> tensor<?x?xf16>
      %222 = "arith.remf"(%7, %95) <{fastmath = #arith.fastmath<none>}> : (f32, f32) -> f32
      %223 = "vector.broadcast"(%0) : (i1) -> vector<2xi1>
      "vector.compressstore"(%65, %16, %223, %88) : (memref<?xi32>, index, vector<2xi1>, vector<2xi32>) -> ()
      %224 = "arith.xori"(%13, %14) : (i32, i32) -> i32
      %225 = "linalg.copy"(%157, %157) <{operandSegmentSizes = array<i32: 1, 1>}> ({
      ^bb0(%arg1: i1, %arg2: i1):
        "linalg.yield"(%arg1) : (i1) -> ()
      }) : (tensor<?x?x?xi1>, tensor<?x?x?xi1>) -> tensor<?x?x?xi1>
      %226 = "index.castu"(%124) : (index) -> i32
      %227 = "vector.reduction"(%161) <{fastmath = #arith.fastmath<none>, kind = #vector.kind<minui>}> : (vector<30xi1>) -> i1
      %228 = "scf.execute_region"() ({
        %229 = "arith.ori"(%189, %14) : (i32, i32) -> i32
        %230 = "vector.contract"(%96, %96, %183) <{indexing_maps = [affine_map<(d0) -> (d0)>, affine_map<(d0) -> (d0)>, affine_map<(d0) -> ()>], iterator_types = [#vector.iterator_type<reduction>], kind = #vector.kind<mul>}> : (vector<3xi1>, vector<3xi1>, i1) -> i1
        %231 = "memref.atomic_rmw"(%2, %186, %28, %42, %27) <{kind = 8 : i64}> : (i64, memref<32x32x25xi64>, index, index, index) -> i64
        %232 = "memref.load"(%67, %42, %24) <{nontemporal = false}> : (memref<30x32xi16>, index, index) -> i16
        %233 = "arith.constant"() <{value = 527683221 : i32}> : () -> i32
        %234 = "arith.shrsi"(%11, %2) : (i64, i64) -> i64
        %235 = "index.shru"(%22, %17) : (index, index) -> index
        %236 = "index.maxs"(%25, %33) : (index, index) -> index
        %237 = "tensor.dim"(%56, %18) : (tensor<25x30x32xi64>, index) -> index
        %238 = "arith.constant"() <{value = false}> : () -> i1
        %239 = "vector.transfer_read"(%75, %236, %106, %219, %238) <{operandSegmentSizes = array<i32: 1, 3, 1, 0>, permutation_map = affine_map<(d0, d1, d2) -> (d0)>}> : (memref<?x?x?xi1>, index, index, index, i1) -> vector<25xi1>
        %240 = "vector.load"(%67, %36, %21) : (memref<30x32xi16>, index, index) -> vector<25x30x32xi16>
        %241 = "arith.constant"() <{value = 4.780800e+04 : f16}> : () -> f16
        %242 = "arith.constant"() <{value = 0.000000e+00 : f16}> : () -> f16
        %243 = "vector.transfer_read"(%52, %219, %20, %21, %242) <{operandSegmentSizes = array<i32: 1, 3, 1, 0>, permutation_map = affine_map<(d0, d1, d2) -> (d0)>}> : (tensor<?x?x32xf16>, index, index, index, f16) -> vector<32xf16>
        %244 = "tensor.unpack"(%48, %114, %19) <{inner_dims_pos = array<i64: 0>, outer_dims_perm = array<i64: 0>, static_inner_tiles = array<i64: -9223372036854775808>}> : (tensor<32x3xi16>, tensor<96xi16>, index) -> tensor<96xi16>
        %245 = "math.round"(%185) <{fastmath = #arith.fastmath<none>}> : (f32) -> f32
        %246 = "memref.load"(%77, %16, %16, %16) <{nontemporal = false}> : (memref<?x?x?xf16>, index, index, index) -> f16
        %247 = "memref.alloc"(%236) <{operandSegmentSizes = array<i32: 1, 0>}> : (index) -> memref<?x3xi16>
        "scf.yield"(%247) : (memref<?x3xi16>) -> ()
      }) : () -> memref<?x3xi16>
      "scf.yield"() : () -> ()
    }, {
      "affine.vector_store"(%88, %72, %39, %43) <{map = affine_map<(d0, d1) -> (d0, d1)>}> : (vector<2xi32>, memref<30x32xi32>, index, index) -> ()
      %213 = "tensor.cast"(%48) : (tensor<32x3xi16>) -> tensor<?x?xi16>
      %214 = "vector.extract_strided_slice"(%150) <{offsets = [23], sizes = [1], strides = [1]}> : (vector<30x32xf16>) -> vector<1x32xf16>
      %215 = "affine.parallel"() <{lowerBoundsGroups = dense<1> : tensor<2xi32>, lowerBoundsMap = affine_map<() -> (0, 0)>, reductions = [1], steps = [1, 1], upperBoundsGroups = dense<1> : tensor<2xi32>, upperBoundsMap = affine_map<() -> (25, 30)>}> ({
      ^bb0(%arg1: index, %arg2: index):
        %231 = "arith.muli"(%3, %2) : (i64, i64) -> i64
        "affine.yield"(%189) : (i32) -> ()
      }) : () -> memref<25x30xi32>
      %216 = "math.fma"(%8, %166, %182) <{fastmath = #arith.fastmath<none>}> : (f16, f16, f16) -> f16
      %217 = "arith.cmpf"(%126, %147) <{predicate = 12 : i64}> : (f32, f32) -> i1
      %218 = "vector.reduction"(%162) <{fastmath = #arith.fastmath<none>, kind = #vector.kind<mul>}> : (vector<30xi1>) -> i1
      %219 = "vector.transpose"(%162) <{transp = [0]}> : (vector<30xi1>) -> vector<30xi1>
      %220 = "math.copysign"(%184, %87) <{fastmath = #arith.fastmath<none>}> : (f32, f32) -> f32
      %221 = "index.bool.constant"() <{value = true}> : () -> i1
      %222 = "arith.remf"(%126, %138) <{fastmath = #arith.fastmath<none>}> : (f32, f32) -> f32
      %223 = "memref.alloc"() <{operandSegmentSizes = array<i32: 0, 0>}> : () -> memref<32x3xi16>
      %224 = "vector.broadcast"(%92) : (i16) -> vector<30x32xi16>
      %225 = "vector.broadcast"(%102) : (i1) -> vector<30x32xi1>
      %226 = "vector.broadcast"(%5) : (i32) -> vector<30x32xi32>
      %227 = "vector.gather"(%223, %19, %22, %226, %225, %224) : (memref<32x3xi16>, index, index, vector<30x32xi32>, vector<30x32xi1>, vector<30x32xi16>) -> vector<30x32xi16>
      %228 = "index.ceildivs"(%42, %47) : (index, index) -> index
      "scf.if"(%183) ({
        %231 = "arith.negf"(%132) <{fastmath = #arith.fastmath<none>}> : (f32) -> f32
        %232 = "arith.floordivsi"(%13, %13) : (i32, i32) -> i32
        %233 = "tensor.rank"(%59) : (tensor<?xf16>) -> index
        %234 = "arith.andi"(%3, %2) : (i64, i64) -> i64
        %235 = "arith.remf"(%184, %7) <{fastmath = #arith.fastmath<none>}> : (f32, f32) -> f32
        %236 = "arith.addi"(%13, %13) : (i32, i32) -> i32
        %237 = "tensor.dim"(%55, %17) : (tensor<30x32xi32>, index) -> index
        %238 = "math.round"(%185) <{fastmath = #arith.fastmath<none>}> : (f32) -> f32
        "scf.yield"() : () -> ()
      }, {
        %231 = "memref.load"(%70, %16, %16) <{nontemporal = false}> : (memref<?x?xi64>, index, index) -> i64
        %232 = "vector.broadcast"(%178) : (i1) -> vector<3x3xi1>
        %233 = "vector.outerproduct"(%96, %96, %232) <{kind = #vector.kind<minui>}> : (vector<3xi1>, vector<3xi1>, vector<3x3xi1>) -> vector<3x3xi1>
        %234 = "index.castu"(%107) : (i16) -> index
        %235 = "arith.remf"(%138, %167) <{fastmath = #arith.fastmath<none>}> : (f32, f32) -> f32
        %236 = "arith.shrsi"(%11, %2) : (i64, i64) -> i64
        %237 = "linalg.copy"(%51, %51) <{operandSegmentSizes = array<i32: 1, 1>}> ({
        ^bb0(%arg1: i16, %arg2: i16):
          "linalg.yield"(%arg1) : (i16) -> ()
        }) : (tensor<25xi16>, tensor<25xi16>) -> tensor<25xi16>
        %238 = "vector.matrix_multiply"(%97, %96) <{lhs_columns = 3 : i32, lhs_rows = 1 : i32, rhs_columns = 1 : i32}> : (vector<3xi1>, vector<3xi1>) -> vector<1xi1>
        %239 = "arith.cmpf"(%152, %138) <{predicate = 2 : i64}> : (f32, f32) -> i1
        "scf.yield"() : () -> ()
      }) : (i1) -> ()
      %229 = "index.add"(%38, %112) : (index, index) -> index
      %230 = "bufferization.clone"(%158) : (memref<30x32xi16>) -> memref<30x32xi16>
      "scf.yield"() : () -> ()
    }, {
      %213 = "math.log"(%94) <{fastmath = #arith.fastmath<none>}> : (f16) -> f16
      "scf.parallel"(%31, %23, %33, %140, %24, %36) <{operandSegmentSizes = array<i32: 2, 2, 2, 0>}> ({
      ^bb0(%arg1: index, %arg2: index):
        %226 = "index.bool.constant"() <{value = false}> : () -> i1
        %227 = "index.shru"(%112, %181) : (index, index) -> index
        %228 = "math.fpowi"(%126, %189) <{fastmath = #arith.fastmath<none>}> : (f32, i32) -> f32
        %229 = "vector.broadcast"(%108) : (f32) -> vector<25x30x32xf32>
        %230 = "math.copysign"(%132, %132) <{fastmath = #arith.fastmath<none>}> : (f32, f32) -> f32
        %231 = "index.and"(%187, %113) : (index, index) -> index
        %232 = "vector.broadcast"(%7) : (f32) -> vector<25xf32>
        %233 = "tensor.insert"(%168, %157, %16, %16, %16) : (i1, tensor<?x?x?xi1>, index, index, index) -> tensor<?x?x?xi1>
        %234 = "index.maxu"(%41, %109) : (index, index) -> index
        %235 = "memref.alloc"(%181) <{operandSegmentSizes = array<i32: 1, 0>}> : (index) -> memref<?x30x32xf16>
        "memref.tensor_store"(%61, %235) : (tensor<?x30x32xf16>, memref<?x30x32xf16>) -> ()
        %236 = "math.exp2"(%141) <{fastmath = #arith.fastmath<none>}> : (tensor<25xf16>) -> tensor<25xf16>
        "affine.store"(%4, %158, %43, %17) <{map = affine_map<(d0, d1) -> (d0, d1)>}> : (i16, memref<30x32xi16>, index, index) -> ()
        %237 = "arith.addf"(%94, %8) <{fastmath = #arith.fastmath<none>}> : (f16, f16) -> f16
        %238 = "index.xor"(%109, %34) : (index, index) -> index
        %239 = "memref.cast"(%76) : (memref<?x?xi1>) -> memref<25x?xi1>
        %240 = "tensor.cast"(%62) : (tensor<25x30x32xi1>) -> tensor<?x?x?xi1>
        "scf.yield"() : () -> ()
      }) : (index, index, index, index, index, index) -> ()
      %214 = "math.expm1"(%8) <{fastmath = #arith.fastmath<none>}> : (f16) -> f16
      %215 = "math.cttz"(%3) : (i64) -> i64
      "affine.vector_store"(%161, %76, %181, %27) <{map = affine_map<(d0, d1) -> (d0, d1)>}> : (vector<30xi1>, memref<?x?xi1>, index, index) -> ()
      %216 = "tensor.collapse_shape"(%56) <{reassociation = [[0, 1], [2]]}> : (tensor<25x30x32xi64>) -> tensor<750x32xi64>
      %217 = "index.add"(%24, %29) : (index, index) -> index
      %218 = "vector.multi_reduction"(%97, %96) <{kind = #vector.kind<xor>, reduction_dims = []}> : (vector<3xi1>, vector<3xi1>) -> vector<3xi1>
      %219 = "vector.extract"(%97) <{static_position = array<i64: 1>}> : (vector<3xi1>) -> i1
      %220 = "tensor.generate"(%39) ({
      ^bb0(%arg1: index, %arg2: index, %arg3: index):
        %226 = "tensor.splat"(%9) : (i1) -> tensor<30x32xi1>
        %227 = "arith.minsi"(%9, %102) : (i1, i1) -> i1
        %228 = "memref.alloc"() <{operandSegmentSizes = array<i32: 0, 0>}> : () -> memref<25x30x32x30xi1>
        "linalg.broadcast"(%78, %228) <{dimensions = array<i64: 3>}> ({
        ^bb0(%arg4: i1, %arg5: i1):
          "linalg.yield"(%arg4) : (i1) -> ()
        }) : (memref<25x30x32xi1>, memref<25x30x32x30xi1>) -> ()
        %229 = "linalg.copy"(%56, %56) <{operandSegmentSizes = array<i32: 1, 1>}> ({
        ^bb0(%arg4: i64, %arg5: i64):
          "linalg.yield"(%arg4) : (i64) -> ()
        }) : (tensor<25x30x32xi64>, tensor<25x30x32xi64>) -> tensor<25x30x32xi64>
        "tensor.yield"(%94) : (f16) -> ()
      }) : (index) -> tensor<?x30x32xf16>
      %221 = "memref.alloc"(%16) <{operandSegmentSizes = array<i32: 1, 0>}> : (index) -> memref<?x30x32xi32>
      "memref.tensor_store"(%49, %221) : (tensor<?x30x32xi32>, memref<?x30x32xi32>) -> ()
      "scf.index_switch"(%25) <{cases = array<i64: 1, 2, 3>}> ({
        %226 = "tensor.dim"(%176, %16) : (tensor<?x25xf16>, index) -> index
        %227 = "arith.constant"() <{value = 1388806050 : i32}> : () -> i32
        %228 = "tensor.expand_shape"(%62) <{reassociation = [[0], [1], [2, 3]]}> : (tensor<25x30x32xi1>) -> tensor<25x30x32x1xi1>
        %229 = "tensor.empty"() : () -> tensor<25xi32>
        %230 = "index.maxs"(%26, %40) : (index, index) -> index
        %231 = "vector.extract_strided_slice"(%162) <{offsets = [10], sizes = [20], strides = [1]}> : (vector<30xi1>) -> vector<20xi1>
        %232 = "math.fma"(%7, %172, %185) <{fastmath = #arith.fastmath<none>}> : (f32, f32, f32) -> f32
        %233 = "vector.extract"(%231) <{static_position = array<i64: 5>}> : (vector<20xi1>) -> i1
        %234 = "math.round"(%61) <{fastmath = #arith.fastmath<none>}> : (tensor<?x30x32xf16>) -> tensor<?x30x32xf16>
        %235 = "memref.realloc"(%79) : (memref<?xi1>) -> memref<30xi1>
        %236 = "vector.insert"(%146, %96) <{static_position = array<i64: 0>}> : (i1, vector<3xi1>) -> vector<3xi1>
        %237 = "index.maxs"(%36, %143) : (index, index) -> index
        %238 = "memref.alloca"(%24, %28) <{operandSegmentSizes = array<i32: 2, 0>}> : (index, index) -> memref<?x?xf32>
        %239 = "vector.multi_reduction"(%88, %88) <{kind = #vector.kind<maxsi>, reduction_dims = []}> : (vector<2xi32>, vector<2xi32>) -> vector<2xi32>
        %240 = "tensor.insert"(%5, %54, %16, %17) : (i32, tensor<?x3xi32>, index, index) -> tensor<?x3xi32>
        %241 = "memref.alloca"() <{operandSegmentSizes = array<i32: 0, 0>}> : () -> memref<30x32xi32>
        "scf.yield"() : () -> ()
      }, {
        %226 = "math.powf"(%145, %145) <{fastmath = #arith.fastmath<none>}> : (f32, f32) -> f32
        %227 = "vector.create_mask"(%18, %25) : (index, index) -> vector<30x32xi1>
        %228 = "tensor.dim"(%57, %17) : (tensor<?x?x?xf32>, index) -> index
        %229 = "bufferization.clone"(%158) : (memref<30x32xi16>) -> memref<30x32xi16>
        %230 = "vector.matrix_multiply"(%96, %96) <{lhs_columns = 3 : i32, lhs_rows = 1 : i32, rhs_columns = 1 : i32}> : (vector<3xi1>, vector<3xi1>) -> vector<1xi1>
        %231 = "math.copysign"(%7, %95) <{fastmath = #arith.fastmath<none>}> : (f32, f32) -> f32
        %232 = "vector.flat_transpose"(%161) <{columns = 5 : i32, rows = 6 : i32}> : (vector<30xi1>) -> vector<30xi1>
        %233 = "arith.constant"() <{value = 1469014395 : i32}> : () -> i32
        "affine.vector_store"(%230, %66, %80, %106) <{map = affine_map<(d0, d1) -> (d0, d1)>}> : (vector<1xi1>, memref<?x32xi1>, index, index) -> ()
        %234 = "vector.transpose"(%230) <{transp = [0]}> : (vector<1xi1>) -> vector<1xi1>
        %235 = "bufferization.clone"(%78) : (memref<25x30x32xi1>) -> memref<25x30x32xi1>
        %236 = "math.rsqrt"(%176) <{fastmath = #arith.fastmath<none>}> : (tensor<?x25xf16>) -> tensor<?x25xf16>
        %237 = "arith.addi"(%102, %146) : (i1, i1) -> i1
        %238 = "affine.max"(%106, %24) <{map = affine_map<(d0)[s0] -> (0)>}> : (index, index) -> index
        %239 = "vector.insertelement"(%164, %162, %32) : (i1, vector<30xi1>, index) -> vector<30xi1>
        %240 = "arith.addi"(%0, %168) : (i1, i1) -> i1
        "scf.yield"() : () -> ()
      }, {
        %226 = "math.floor"(%57) <{fastmath = #arith.fastmath<none>}> : (tensor<?x?x?xf32>) -> tensor<?x?x?xf32>
        %227 = "memref.alloc"() <{operandSegmentSizes = array<i32: 0, 0>}> : () -> memref<96xi16>
        %228 = "tensor.empty"() : () -> tensor<i16>
        %229 = "linalg.dot"(%114, %227, %228) <{operandSegmentSizes = array<i32: 2, 1>}> ({
        ^bb0(%arg1: i16, %arg2: i16, %arg3: i16):
          %244 = "arith.muli"(%arg1, %arg2) : (i16, i16) -> i16
          %245 = "arith.addi"(%arg3, %244) : (i16, i16) -> i16
          "linalg.yield"(%245) : (i16) -> ()
        }) : (tensor<96xi16>, memref<96xi16>, tensor<i16>) -> tensor<i16>
        %230 = "arith.shrsi"(%107, %118) : (i16, i16) -> i16
        %231 = "arith.remf"(%126, %132) <{fastmath = #arith.fastmath<none>}> : (f32, f32) -> f32
        %232 = "arith.addf"(%172, %132) <{fastmath = #arith.fastmath<none>}> : (f32, f32) -> f32
        %233 = "bufferization.clone"(%67) : (memref<30x32xi16>) -> memref<30x32xi16>
        %234 = "arith.minsi"(%146, %164) : (i1, i1) -> i1
        %235 = "arith.cmpi"(%4, %118) <{predicate = 3 : i64}> : (i16, i16) -> i1
        %236 = "index.castu"(%24) : (index) -> i32
        %237 = "memref.alloca"(%33) <{operandSegmentSizes = array<i32: 1, 0>}> : (index) -> memref<?x30x32xi64>
        %238 = "math.ceil"(%59) <{fastmath = #arith.fastmath<none>}> : (tensor<?xf16>) -> tensor<?xf16>
        %239 = "vector.splat"(%182) : (f16) -> vector<32x3xf16>
        %240 = "memref.alloc"(%41) <{operandSegmentSizes = array<i32: 1, 0>}> : (index) -> memref<?x30x32xf16>
        "memref.tensor_store"(%61, %240) : (tensor<?x30x32xf16>, memref<?x30x32xf16>) -> ()
        %241 = "math.tanh"(%141) <{fastmath = #arith.fastmath<none>}> : (tensor<25xf16>) -> tensor<25xf16>
        %242 = "arith.subi"(%5, %189) : (i32, i32) -> i32
        %243 = "arith.remf"(%15, %15) <{fastmath = #arith.fastmath<none>}> : (f16, f16) -> f16
        "scf.yield"() : () -> ()
      }, {
        %226 = "vector.create_mask"(%143, %38) : (index, index) -> vector<30x32xi1>
        %227 = "tensor.empty"() : () -> tensor<30x32xi1>
        %228 = "index.bool.constant"() <{value = true}> : () -> i1
        %229 = "arith.minsi"(%5, %14) : (i32, i32) -> i32
        %230 = "index.bool.constant"() <{value = false}> : () -> i1
        %231 = "memref.alloc"() <{operandSegmentSizes = array<i32: 0, 0>}> : () -> memref<25x30x32xi64>
        "memref.tensor_store"(%56, %231) : (tensor<25x30x32xi64>, memref<25x30x32xi64>) -> ()
        %232 = "memref.alloca"() <{operandSegmentSizes = array<i32: 0, 0>}> : () -> memref<32x3xi32>
        %233 = "math.log"(%184) <{fastmath = #arith.fastmath<none>}> : (f32) -> f32
        %234 = "math.rsqrt"(%141) <{fastmath = #arith.fastmath<none>}> : (tensor<25xf16>) -> tensor<25xf16>
        "affine.vector_store"(%161, %75, %20, %26, %17) <{map = affine_map<(d0, d1, d2) -> (d0, d1, d2)>}> : (vector<30xi1>, memref<?x?x?xi1>, index, index, index) -> ()
        %235 = "math.tan"(%95) <{fastmath = #arith.fastmath<none>}> : (f32) -> f32
        %236 = "vector.broadcast"(%26) : (index) -> vector<32xindex>
        %237 = "vector.broadcast"(%0) : (i1) -> vector<32xi1>
        %238 = "vector.broadcast"(%2) : (i64) -> vector<32xi64>
        "vector.scatter"(%186, %30, %39, %28, %236, %237, %238) : (memref<32x32x25xi64>, index, index, index, vector<32xindex>, vector<32xi1>, vector<32xi64>) -> ()
        %239 = "tensor.empty"(%47) : (index) -> tensor<?x3xi1>
        %240 = "linalg.broadcast"(%79, %239) <{dimensions = array<i64: 1>}> ({
        ^bb0(%arg1: i1, %arg2: i1):
          "linalg.yield"(%arg1) : (i1) -> ()
        }) : (memref<?xi1>, tensor<?x3xi1>) -> tensor<?x3xi1>
        %241 = "vector.mask"(%161) ({
          %244 = "vector.multi_reduction"(%161, %162) <{kind = #vector.kind<maxui>, reduction_dims = []}> : (vector<30xi1>, vector<30xi1>) -> vector<30xi1>
          "vector.yield"(%244) : (vector<30xi1>) -> ()
        }) : (vector<30xi1>) -> vector<30xi1>
        %242 = "vector.extract"(%161) <{static_position = array<i64: 26>}> : (vector<30xi1>) -> i1
        %243 = "bufferization.to_tensor"(%73) : (memref<?x?x32xf16>) -> tensor<?x?x32xf16>
        "scf.yield"() : () -> ()
      }) : (index) -> ()
      %222 = "memref.load"(%70, %16, %16) <{nontemporal = false}> : (memref<?x?xi64>, index, index) -> i64
      %223 = "arith.minsi"(%4, %118) : (i16, i16) -> i16
      %224 = "index.and"(%21, %20) : (index, index) -> index
      %225 = "index.shrs"(%17, %16) : (index, index) -> index
      "scf.yield"() : () -> ()
    }, {
      %213 = "arith.constant"() <{value = 0.000000e+00 : f32}> : () -> f32
      %214 = "vector.transfer_read"(%57, %140, %36, %23, %213) <{operandSegmentSizes = array<i32: 1, 3, 1, 0>, permutation_map = affine_map<(d0, d1, d2) -> (0)>}> : (tensor<?x?x?xf32>, index, index, index, f32) -> vector<25xf32>
      %215 = "tensor.expand_shape"(%52) <{reassociation = [[0], [1], [2, 3]]}> : (tensor<?x?x32xf16>) -> tensor<?x?x32x1xf16>
      %216 = "tensor.rank"(%48) : (tensor<32x3xi16>) -> index
      %217 = "math.cttz"(%62) : (tensor<25x30x32xi1>) -> tensor<25x30x32xi1>
      %218 = "math.rsqrt"(%117) <{fastmath = #arith.fastmath<none>}> : (f32) -> f32
      %219 = "affine.vector_load"(%66, %17, %42) <{map = affine_map<(d0, d1) -> (d0, d1)>}> : (memref<?x32xi1>, index, index) -> vector<3xi1>
      %220 = "index.ceildivs"(%113, %124) : (index, index) -> index
      %221 = "math.exp2"(%1) <{fastmath = #arith.fastmath<none>}> : (f32) -> f32
      %222 = "tensor.empty"(%23, %29) : (index, index) -> tensor<?x?xi1>
      %223 = "linalg.generic"(%75, %222) <{indexing_maps = [affine_map<(d0, d1, d2) -> (d0, d1, d2)>, affine_map<(d0, d1, d2) -> (d0, d2)>], iterator_types = [#linalg.iterator_type<parallel>, #linalg.iterator_type<reduction>, #linalg.iterator_type<parallel>], operandSegmentSizes = array<i32: 1, 1>}> ({
      ^bb0(%arg1: i1, %arg2: i1):
        %230 = "vector.broadcast"(%arg1) : (i1) -> vector<3x3xi1>
        %231 = "vector.outerproduct"(%96, %96, %230) <{kind = #vector.kind<minsi>}> : (vector<3xi1>, vector<3xi1>, vector<3x3xi1>) -> vector<3x3xi1>
        "linalg.yield"(%9) : (i1) -> ()
      }) : (memref<?x?x?xi1>, tensor<?x?xi1>) -> tensor<?x?xi1>
      %224 = "memref.alloca_scope"() ({
        %230 = "bufferization.to_tensor"(%77) : (memref<?x?x?xf16>) -> tensor<?x?x?xf16>
        %231 = "index.and"(%30, %42) : (index, index) -> index
        %232 = "arith.cmpi"(%2, %3) <{predicate = 6 : i64}> : (i64, i64) -> i1
        %233 = "vector.shuffle"(%96, %162) <{mask = [4, 5, 6, 12, 16, 18, 22, 24, 26, 27, 28, 29, 30]}> : (vector<3xi1>, vector<30xi1>) -> vector<13xi1>
        %234 = "vector.load"(%66, %16, %46) : (memref<?x32xi1>, index, index) -> vector<25x30x32xi1>
        %235 = "index.casts"(%181) : (index) -> i32
        %236 = "affine.vector_load"(%65, %136) <{map = affine_map<(d0) -> (d0)>}> : (memref<?xi32>, index) -> vector<32xi32>
        %237 = "math.copysign"(%8, %12) <{fastmath = #arith.fastmath<none>}> : (f16, f16) -> f16
        %238 = "arith.negf"(%169) <{fastmath = #arith.fastmath<none>}> : (f32) -> f32
        %239 = "math.exp2"(%52) <{fastmath = #arith.fastmath<none>}> : (tensor<?x?x32xf16>) -> tensor<?x?x32xf16>
        %240 = "tensor.collapse_shape"(%55) <{reassociation = [[0, 1]]}> : (tensor<30x32xi32>) -> tensor<960xi32>
        %241 = "index.shrs"(%28, %23) : (index, index) -> index
        %242 = "arith.remf"(%145, %132) <{fastmath = #arith.fastmath<none>}> : (f32, f32) -> f32
        %243 = "index.add"(%45, %216) : (index, index) -> index
        %244 = "tensor.rank"(%53) : (tensor<25x30x32xi32>) -> index
        %245 = "arith.ceildivsi"(%9, %168) : (i1, i1) -> i1
        %246 = "bufferization.clone"(%78) : (memref<25x30x32xi1>) -> memref<25x30x32xi1>
        %247 = "memref.alloc"() <{operandSegmentSizes = array<i32: 0, 0>}> : () -> memref<25x30x32x3xi1>
        "linalg.broadcast"(%62, %247) <{dimensions = array<i64: 3>}> ({
        ^bb0(%arg1: i1, %arg2: i1):
          "linalg.yield"(%arg1) : (i1) -> ()
        }) : (tensor<25x30x32xi1>, memref<25x30x32x3xi1>) -> ()
        %248 = "index.add"(%143, %244) : (index, index) -> index
        %249 = "memref.alloc"() <{operandSegmentSizes = array<i32: 0, 0>}> : () -> memref<32x25x30xi32>
        "linalg.transpose"(%53, %249) <{permutation = array<i64: 2, 0, 1>}> ({
        ^bb0(%arg1: i32, %arg2: i32):
          "linalg.yield"(%arg1) : (i32) -> ()
        }) : (tensor<25x30x32xi32>, memref<32x25x30xi32>) -> ()
        %250 = "vector.broadcast"(%164) : (i1) -> vector<32xi1>
        "vector.compressstore"(%249, %24, %28, %22, %250, %236) : (memref<32x25x30xi32>, index, index, index, vector<32xi1>, vector<32xi32>) -> ()
        %251 = "vector.load"(%77, %16, %16, %16) : (memref<?x?x?xf16>, index, index, index) -> vector<25xf16>
        %252 = "arith.minui"(%5, %5) : (i32, i32) -> i32
        %253 = "math.log10"(%87) <{fastmath = #arith.fastmath<none>}> : (f32) -> f32
        %254 = "math.tanh"(%230) <{fastmath = #arith.fastmath<none>}> : (tensor<?x?x?xf16>) -> tensor<?x?x?xf16>
        %255 = "arith.remf"(%1, %172) <{fastmath = #arith.fastmath<none>}> : (f32, f32) -> f32
        %256 = "arith.shrsi"(%107, %118) : (i16, i16) -> i16
        %257 = "vector.broadcast"(%178) : (i1) -> vector<30x30xi1>
        %258 = "vector.outerproduct"(%161, %161, %257) <{kind = #vector.kind<maxui>}> : (vector<30xi1>, vector<30xi1>, vector<30x30xi1>) -> vector<30x30xi1>
        %259 = "vector.create_mask"(%45, %29) : (index, index) -> vector<30x32xi1>
        %260 = "vector.load"(%246, %35, %18, %18) : (memref<25x30x32xi1>, index, index, index) -> vector<25x30x32xi1>
        %261 = "arith.constant"() <{value = 1966813961 : i32}> : () -> i32
        %262 = "vector.broadcast"(%183) : (i1) -> vector<32xi1>
        %263 = "vector.insert"(%262, %234) <{static_position = array<i64: 11, 0>}> : (vector<32xi1>, vector<25x30x32xi1>) -> vector<25x30x32xi1>
        "memref.alloca_scope.return"(%65) : (memref<?xi32>) -> ()
      }) : () -> memref<?xi32>
      "affine.parallel"() <{lowerBoundsGroups = dense<1> : tensor<1xi32>, lowerBoundsMap = affine_map<() -> (0)>, reductions = [], steps = [1], upperBoundsGroups = dense<1> : tensor<1xi32>, upperBoundsMap = affine_map<() -> (32)>}> ({
      ^bb0(%arg1: index):
        %230 = "index.maxs"(%39, %109) : (index, index) -> index
        "affine.yield"() : () -> ()
      }) : () -> ()
      %225 = "math.log2"(%182) <{fastmath = #arith.fastmath<none>}> : (f16) -> f16
      %226 = "math.ceil"(%147) <{fastmath = #arith.fastmath<none>}> : (f32) -> f32
      %227 = "math.floor"(%123) <{fastmath = #arith.fastmath<none>}> : (f16) -> f16
      %228 = "memref.alloc"() <{operandSegmentSizes = array<i32: 0, 0>}> : () -> memref<25x30x32xf32>
      %229 = "bufferization.clone"(%158) : (memref<30x32xi16>) -> memref<30x32xi16>
      "scf.yield"() : () -> ()
    }) : (index) -> ()
    %190 = "spirv.GL.Exp"(%152) : (f32) -> f32
    %191 = "spirv.UGreaterThan"(%13, %189) : (i32, i32) -> i1
    %192 = "spirv.BitFieldUExtract"(%88, %118, %107) : (vector<2xi32>, i16, i16) -> vector<2xi32>
    %193 = "spirv.BitFieldSExtract"(%88, %92, %5) : (vector<2xi32>, i16, i32) -> vector<2xi32>
    %194 = "spirv.CL.floor"(%126) : (f32) -> f32
    %195 = "index.ceildivs"(%80, %24) : (index, index) -> index
    %196 = "spirv.GL.FAbs"(%95) : (f32) -> f32
    %197 = "spirv.SGreaterThan"(%92, %118) : (i16, i16) -> i1
    %198 = "spirv.BitwiseXor"(%88, %88) : (vector<2xi32>, vector<2xi32>) -> vector<2xi32>
    %199 = "spirv.IsNan"(%169) : (f32) -> i1
    %200 = "spirv.IsNan"(%135) : (f32) -> i1
    %201 = "math.copysign"(%101, %101) <{fastmath = #arith.fastmath<none>}> : (tensor<25x30x32xf16>, tensor<25x30x32xf16>) -> tensor<25x30x32xf16>
    %202 = "vector.create_mask"(%38, %80) : (index, index) -> vector<32x3xi1>
    %203 = "spirv.IEqual"(%118, %6) : (i16, i16) -> i1
    %204 = "arith.minui"(%118, %107) : (i16, i16) -> i16
    %205 = "math.absf"(%194) <{fastmath = #arith.fastmath<none>}> : (f32) -> f32
    %206 = "spirv.CL.tanh"(%145) : (f32) -> f32
    %207 = "index.shl"(%33, %38) : (index, index) -> index
    %208 = "arith.divf"(%182, %8) <{fastmath = #arith.fastmath<none>}> : (f16, f16) -> f16
    %209 = "spirv.ULessThan"(%14, %13) : (i32, i32) -> i1
    %210 = "spirv.CL.exp"(%147) : (f32) -> f32
    %211 = "spirv.CL.fmin"(%132, %185) : (f32, f32) -> f32
    %212 = "math.tan"(%59) <{fastmath = #arith.fastmath<none>}> : (tensor<?xf16>) -> tensor<?xf16>
    "bufferization.dealloc_tensor"(%49) : (tensor<?x30x32xi32>) -> ()
    "vector.print"(%88) <{punctuation = #vector.punctuation<newline>}> : (vector<2xi32>) -> ()
    "vector.print"(%96) <{punctuation = #vector.punctuation<newline>}> : (vector<3xi1>) -> ()
    "vector.print"(%97) <{punctuation = #vector.punctuation<newline>}> : (vector<3xi1>) -> ()
    "vector.print"(%150) <{punctuation = #vector.punctuation<newline>}> : (vector<30x32xf16>) -> ()
    "vector.print"(%161) <{punctuation = #vector.punctuation<newline>}> : (vector<30xi1>) -> ()
    "vector.print"(%162) <{punctuation = #vector.punctuation<newline>}> : (vector<30xi1>) -> ()
    "vector.print"(%202) <{punctuation = #vector.punctuation<newline>}> : (vector<32x3xi1>) -> ()
    "vector.print"(%0) <{punctuation = #vector.punctuation<newline>}> : (i1) -> ()
    "vector.print"(%1) <{punctuation = #vector.punctuation<newline>}> : (f32) -> ()
    "vector.print"(%2) <{punctuation = #vector.punctuation<newline>}> : (i64) -> ()
    "vector.print"(%3) <{punctuation = #vector.punctuation<newline>}> : (i64) -> ()
    "vector.print"(%4) <{punctuation = #vector.punctuation<newline>}> : (i16) -> ()
    "vector.print"(%5) <{punctuation = #vector.punctuation<newline>}> : (i32) -> ()
    "vector.print"(%6) <{punctuation = #vector.punctuation<newline>}> : (i16) -> ()
    "vector.print"(%7) <{punctuation = #vector.punctuation<newline>}> : (f32) -> ()
    "vector.print"(%8) <{punctuation = #vector.punctuation<newline>}> : (f16) -> ()
    "vector.print"(%9) <{punctuation = #vector.punctuation<newline>}> : (i1) -> ()
    "vector.print"(%10) <{punctuation = #vector.punctuation<newline>}> : (i16) -> ()
    "vector.print"(%11) <{punctuation = #vector.punctuation<newline>}> : (i64) -> ()
    "vector.print"(%12) <{punctuation = #vector.punctuation<newline>}> : (f16) -> ()
    "vector.print"(%13) <{punctuation = #vector.punctuation<newline>}> : (i32) -> ()
    "vector.print"(%14) <{punctuation = #vector.punctuation<newline>}> : (i32) -> ()
    "vector.print"(%15) <{punctuation = #vector.punctuation<newline>}> : (f16) -> ()
    "vector.print"(%82) <{punctuation = #vector.punctuation<newline>}> : (f32) -> ()
    "vector.print"(%87) <{punctuation = #vector.punctuation<newline>}> : (f32) -> ()
    "vector.print"(%92) <{punctuation = #vector.punctuation<newline>}> : (i16) -> ()
    "vector.print"(%94) <{punctuation = #vector.punctuation<newline>}> : (f16) -> ()
    "vector.print"(%95) <{punctuation = #vector.punctuation<newline>}> : (f32) -> ()
    "vector.print"(%102) <{punctuation = #vector.punctuation<newline>}> : (i1) -> ()
    "vector.print"(%107) <{punctuation = #vector.punctuation<newline>}> : (i16) -> ()
    "vector.print"(%108) <{punctuation = #vector.punctuation<newline>}> : (f32) -> ()
    "vector.print"(%117) <{punctuation = #vector.punctuation<newline>}> : (f32) -> ()
    "vector.print"(%118) <{punctuation = #vector.punctuation<newline>}> : (i16) -> ()
    "vector.print"(%122) <{punctuation = #vector.punctuation<newline>}> : (f16) -> ()
    "vector.print"(%123) <{punctuation = #vector.punctuation<newline>}> : (f16) -> ()
    "vector.print"(%126) <{punctuation = #vector.punctuation<newline>}> : (f32) -> ()
    "vector.print"(%131) <{punctuation = #vector.punctuation<newline>}> : (i16) -> ()
    "vector.print"(%132) <{punctuation = #vector.punctuation<newline>}> : (f32) -> ()
    "vector.print"(%135) <{punctuation = #vector.punctuation<newline>}> : (f32) -> ()
    "vector.print"(%138) <{punctuation = #vector.punctuation<newline>}> : (f32) -> ()
    "vector.print"(%145) <{punctuation = #vector.punctuation<newline>}> : (f32) -> ()
    "vector.print"(%146) <{punctuation = #vector.punctuation<newline>}> : (i1) -> ()
    "vector.print"(%147) <{punctuation = #vector.punctuation<newline>}> : (f32) -> ()
    "vector.print"(%152) <{punctuation = #vector.punctuation<newline>}> : (f32) -> ()
    "vector.print"(%153) <{punctuation = #vector.punctuation<newline>}> : (f32) -> ()
    "vector.print"(%164) <{punctuation = #vector.punctuation<newline>}> : (i1) -> ()
    "vector.print"(%166) <{punctuation = #vector.punctuation<newline>}> : (f16) -> ()
    "vector.print"(%167) <{punctuation = #vector.punctuation<newline>}> : (f32) -> ()
    "vector.print"(%168) <{punctuation = #vector.punctuation<newline>}> : (i1) -> ()
    "vector.print"(%169) <{punctuation = #vector.punctuation<newline>}> : (f32) -> ()
    "vector.print"(%171) <{punctuation = #vector.punctuation<newline>}> : (f32) -> ()
    "vector.print"(%172) <{punctuation = #vector.punctuation<newline>}> : (f32) -> ()
    "vector.print"(%178) <{punctuation = #vector.punctuation<newline>}> : (i1) -> ()
    "vector.print"(%180) <{punctuation = #vector.punctuation<newline>}> : (f32) -> ()
    "vector.print"(%182) <{punctuation = #vector.punctuation<newline>}> : (f16) -> ()
    "vector.print"(%183) <{punctuation = #vector.punctuation<newline>}> : (i1) -> ()
    "vector.print"(%184) <{punctuation = #vector.punctuation<newline>}> : (f32) -> ()
    "vector.print"(%185) <{punctuation = #vector.punctuation<newline>}> : (f32) -> ()
    "vector.print"(%189) <{punctuation = #vector.punctuation<newline>}> : (i32) -> ()
    "vector.print"(%190) <{punctuation = #vector.punctuation<newline>}> : (f32) -> ()
    "vector.print"(%191) <{punctuation = #vector.punctuation<newline>}> : (i1) -> ()
    "vector.print"(%194) <{punctuation = #vector.punctuation<newline>}> : (f32) -> ()
    "vector.print"(%196) <{punctuation = #vector.punctuation<newline>}> : (f32) -> ()
    "vector.print"(%197) <{punctuation = #vector.punctuation<newline>}> : (i1) -> ()
    "vector.print"(%199) <{punctuation = #vector.punctuation<newline>}> : (i1) -> ()
    "vector.print"(%200) <{punctuation = #vector.punctuation<newline>}> : (i1) -> ()
    "vector.print"(%203) <{punctuation = #vector.punctuation<newline>}> : (i1) -> ()
    "vector.print"(%206) <{punctuation = #vector.punctuation<newline>}> : (f32) -> ()
    "vector.print"(%209) <{punctuation = #vector.punctuation<newline>}> : (i1) -> ()
    "vector.print"(%210) <{punctuation = #vector.punctuation<newline>}> : (f32) -> ()
    "vector.print"(%211) <{punctuation = #vector.punctuation<newline>}> : (f32) -> ()
    "func.return"() : () -> ()
  }) : () -> ()
  "func.func"() <{function_type = (index, memref<25xi64>, memref<?xi32>) -> memref<25x30x32xi64>, sym_name = "func2", sym_visibility = "nested"}> ({
  ^bb0(%arg0: index, %arg1: memref<25xi64>, %arg2: memref<?xi32>):
    %0 = "arith.constant"() <{value = true}> : () -> i1
    %1 = "arith.constant"() <{value = 1.44794074E+9 : f32}> : () -> f32
    %2 = "arith.constant"() <{value = 1548431415 : i64}> : () -> i64
    %3 = "arith.constant"() <{value = 1941582701 : i64}> : () -> i64
    %4 = "arith.constant"() <{value = -11434 : i16}> : () -> i16
    %5 = "arith.constant"() <{value = 1515791868 : i32}> : () -> i32
    %6 = "arith.constant"() <{value = -13945 : i16}> : () -> i16
    %7 = "arith.constant"() <{value = 1.86699034E+9 : f32}> : () -> f32
    %8 = "arith.constant"() <{value = 7.284000e+03 : f16}> : () -> f16
    %9 = "arith.constant"() <{value = true}> : () -> i1
    %10 = "arith.constant"() <{value = -2161 : i16}> : () -> i16
    %11 = "arith.constant"() <{value = 943772254 : i64}> : () -> i64
    %12 = "arith.constant"() <{value = 3.859200e+04 : f16}> : () -> f16
    %13 = "arith.constant"() <{value = 1822385257 : i32}> : () -> i32
    %14 = "arith.constant"() <{value = 491907286 : i32}> : () -> i32
    %15 = "arith.constant"() <{value = 2.433600e+04 : f16}> : () -> f16
    %16 = "arith.constant"() <{value = 0 : index}> : () -> index
    %17 = "arith.constant"() <{value = 1 : index}> : () -> index
    %18 = "arith.constant"() <{value = 2 : index}> : () -> index
    %19 = "arith.constant"() <{value = 3 : index}> : () -> index
    %20 = "arith.constant"() <{value = 4 : index}> : () -> index
    %21 = "arith.constant"() <{value = 5 : index}> : () -> index
    %22 = "arith.constant"() <{value = 6 : index}> : () -> index
    %23 = "arith.constant"() <{value = 7 : index}> : () -> index
    %24 = "arith.constant"() <{value = 8 : index}> : () -> index
    %25 = "arith.constant"() <{value = 9 : index}> : () -> index
    %26 = "arith.constant"() <{value = 10 : index}> : () -> index
    %27 = "arith.constant"() <{value = 11 : index}> : () -> index
    %28 = "arith.constant"() <{value = 12 : index}> : () -> index
    %29 = "arith.constant"() <{value = 13 : index}> : () -> index
    %30 = "arith.constant"() <{value = 14 : index}> : () -> index
    %31 = "arith.constant"() <{value = 15 : index}> : () -> index
    %32 = "arith.constant"() <{value = 16 : index}> : () -> index
    %33 = "arith.constant"() <{value = 17 : index}> : () -> index
    %34 = "arith.constant"() <{value = 18 : index}> : () -> index
    %35 = "arith.constant"() <{value = 19 : index}> : () -> index
    %36 = "arith.constant"() <{value = 20 : index}> : () -> index
    %37 = "arith.constant"() <{value = 21 : index}> : () -> index
    %38 = "arith.constant"() <{value = 22 : index}> : () -> index
    %39 = "arith.constant"() <{value = 23 : index}> : () -> index
    %40 = "arith.constant"() <{value = 24 : index}> : () -> index
    %41 = "arith.constant"() <{value = 25 : index}> : () -> index
    %42 = "arith.constant"() <{value = 26 : index}> : () -> index
    %43 = "arith.constant"() <{value = 27 : index}> : () -> index
    %44 = "arith.constant"() <{value = 28 : index}> : () -> index
    %45 = "arith.constant"() <{value = 29 : index}> : () -> index
    %46 = "arith.constant"() <{value = 30 : index}> : () -> index
    %47 = "arith.constant"() <{value = 31 : index}> : () -> index
    %48 = "tensor.empty"() : () -> tensor<32x3xi16>
    %49 = "tensor.empty"(%44) : (index) -> tensor<?x30x32xi32>
    %50 = "tensor.empty"(%18) : (index) -> tensor<?x32xi64>
    %51 = "tensor.empty"() : () -> tensor<25xi16>
    %52 = "tensor.empty"(%39, %30) : (index, index) -> tensor<?x?x32xf16>
    %53 = "tensor.empty"() : () -> tensor<25x30x32xi32>
    %54 = "tensor.empty"(%29) : (index) -> tensor<?x3xi32>
    %55 = "tensor.empty"() : () -> tensor<30x32xi32>
    %56 = "tensor.empty"() : () -> tensor<25x30x32xi64>
    %57 = "tensor.empty"(%19, %17, %41) : (index, index, index) -> tensor<?x?x?xf32>
    %58 = "tensor.empty"(%27) : (index) -> tensor<?xf16>
    %59 = "tensor.empty"(%26) : (index) -> tensor<?xf16>
    %60 = "tensor.empty"(%47, %35) : (index, index) -> tensor<?x?xf16>
    %61 = "tensor.empty"(%41) : (index) -> tensor<?x30x32xf16>
    %62 = "tensor.empty"() : () -> tensor<25x30x32xi1>
    %63 = "tensor.empty"() : () -> tensor<30x32xf32>
    %64 = "memref.alloc"(%21, %30, %25) <{operandSegmentSizes = array<i32: 3, 0>}> : (index, index, index) -> memref<?x?x?xf32>
    %65 = "memref.alloc"(%29) <{operandSegmentSizes = array<i32: 1, 0>}> : (index) -> memref<?xi32>
    %66 = "memref.alloc"(%39) <{operandSegmentSizes = array<i32: 1, 0>}> : (index) -> memref<?x32xi1>
    %67 = "memref.alloc"() <{operandSegmentSizes = array<i32: 0, 0>}> : () -> memref<30x32xi16>
    %68 = "memref.alloc"() <{operandSegmentSizes = array<i32: 0, 0>}> : () -> memref<25x30x32xi1>
    %69 = "memref.alloc"(%42, %25) <{operandSegmentSizes = array<i32: 2, 0>}> : (index, index) -> memref<?x?xi64>
    %70 = "memref.alloc"(%43, %37) <{operandSegmentSizes = array<i32: 2, 0>}> : (index, index) -> memref<?x?xi64>
    %71 = "memref.alloc"() <{operandSegmentSizes = array<i32: 0, 0>}> : () -> memref<30x32xi1>
    %72 = "memref.alloc"() <{operandSegmentSizes = array<i32: 0, 0>}> : () -> memref<30x32xi32>
    %73 = "memref.alloc"(%42, %37) <{operandSegmentSizes = array<i32: 2, 0>}> : (index, index) -> memref<?x?x32xf16>
    %74 = "memref.alloc"(%45) <{operandSegmentSizes = array<i32: 1, 0>}> : (index) -> memref<?xf32>
    %75 = "memref.alloc"(%25, %37, %24) <{operandSegmentSizes = array<i32: 3, 0>}> : (index, index, index) -> memref<?x?x?xi1>
    %76 = "memref.alloc"(%38, %45) <{operandSegmentSizes = array<i32: 2, 0>}> : (index, index) -> memref<?x?xi1>
    %77 = "memref.alloc"(%18, %37, %21) <{operandSegmentSizes = array<i32: 3, 0>}> : (index, index, index) -> memref<?x?x?xf16>
    %78 = "memref.alloc"() <{operandSegmentSizes = array<i32: 0, 0>}> : () -> memref<25x30x32xi1>
    %79 = "memref.alloc"(%38) <{operandSegmentSizes = array<i32: 1, 0>}> : (index) -> memref<?xi1>
    %80 = "index.castu"(%2) : (i64) -> index
    %81 = "arith.divsi"(%2, %11) : (i64, i64) -> i64
    %82 = "spirv.SGreaterThan"(%13, %5) : (i32, i32) -> i1
    %83 = "arith.floordivsi"(%2, %2) : (i64, i64) -> i64
    %84 = "tensor.splat"(%9) : (i1) -> tensor<25x30x32xi1>
    %85 = "spirv.CL.ceil"(%8) : (f16) -> f16
    %86 = "math.cttz"(%4) : (i16) -> i16
    %87 = "index.shl"(%41, %32) : (index, index) -> index
    %88 = "spirv.GL.FMix"(%8, %85, %8) : (f16, f16, f16) -> f16
    %89 = "vector.broadcast"(%5) : (i32) -> vector<2xi32>
    %90 = "spirv.BitFieldSExtract"(%89, %3, %13) : (vector<2xi32>, i64, i32) -> vector<2xi32>
    %91 = "spirv.GL.Fma"(%7, %7, %1) : (f32, f32, f32) -> f32
    %92 = "spirv.CL.ceil"(%12) : (f16) -> f16
    %93 = "spirv.CL.ceil"(%15) : (f16) -> f16
    %94 = "spirv.CL.rint"(%91) : (f32) -> f32
    %95 = "spirv.IEqual"(%11, %11) : (i64, i64) -> i1
    %96 = "arith.xori"(%2, %3) : (i64, i64) -> i64
    %97 = "arith.constant"() <{value = 1192723017 : i32}> : () -> i32
    %98 = "memref.alloc"(%46, %arg0) <{operandSegmentSizes = array<i32: 2, 0>}> : (index, index) -> memref<?x?xf16>
    "memref.tensor_store"(%60, %98) : (tensor<?x?xf16>, memref<?x?xf16>) -> ()
    %99 = "spirv.GL.Fma"(%15, %85, %88) : (f16, f16, f16) -> f16
    %100 = "spirv.GL.SClamp"(%4, %6, %6) : (i16, i16, i16) -> i16
    %101 = "math.log10"(%61) <{fastmath = #arith.fastmath<none>}> : (tensor<?x30x32xf16>) -> tensor<?x30x32xf16>
    %102 = "arith.addf"(%7, %94) <{fastmath = #arith.fastmath<none>}> : (f32, f32) -> f32
    %103 = "arith.addi"(%82, %9) : (i1, i1) -> i1
    %104 = "vector.broadcast"(%9) : (i1) -> vector<30xi1>
    "vector.compressstore"(%79, %16, %104, %104) : (memref<?xi1>, index, vector<30xi1>, vector<30xi1>) -> ()
    %105 = "index.maxs"(%23, %20) : (index, index) -> index
    "memref.store"(%0, %78, %17, %28, %44) <{nontemporal = false}> : (i1, memref<25x30x32xi1>, index, index, index) -> ()
    %106 = "spirv.CL.s_abs"(%100) : (i16) -> i16
    %107 = "vector.create_mask"(%105, %38) : (index, index) -> vector<30x32xi1>
    %108 = "math.log"(%60) <{fastmath = #arith.fastmath<none>}> : (tensor<?x?xf16>) -> tensor<?x?xf16>
    %109 = "memref.alloc"() <{operandSegmentSizes = array<i32: 0, 0>}> : () -> memref<32x30xi16>
    "linalg.transpose"(%67, %109) <{permutation = array<i64: 1, 0>}> ({
    ^bb0(%arg3: i16, %arg4: i16):
      "linalg.yield"(%arg3) : (i16) -> ()
    }) : (memref<30x32xi16>, memref<32x30xi16>) -> ()
    %110 = "spirv.BitFieldSExtract"(%89, %106, %6) : (vector<2xi32>, i16, i16) -> vector<2xi32>
    %111 = "spirv.LogicalNotEqual"(%9, %9) : (i1, i1) -> i1
    %112 = "scf.if"(%111) ({
      %206 = "arith.addi"(%0, %9) : (i1, i1) -> i1
      %207 = "bufferization.clone"(%109) : (memref<32x30xi16>) -> memref<32x30xi16>
      %208 = "math.expm1"(%59) <{fastmath = #arith.fastmath<none>}> : (tensor<?xf16>) -> tensor<?xf16>
      %209 = "math.fpowi"(%15, %5) <{fastmath = #arith.fastmath<none>}> : (f16, i32) -> f16
      %210 = "scf.if"(%111) ({
        %214 = "tensor.empty"() : () -> tensor<i16>
        %215 = "linalg.dot"(%51, %51, %214) <{operandSegmentSizes = array<i32: 2, 1>}> ({
        ^bb0(%arg3: i16, %arg4: i16, %arg5: i16):
          %223 = "arith.muli"(%arg3, %arg4) : (i16, i16) -> i16
          %224 = "arith.addi"(%arg5, %223) : (i16, i16) -> i16
          "linalg.yield"(%224) : (i16) -> ()
        }) {linalg.memoized_indexing_maps = [affine_map<(d0) -> (d0)>, affine_map<(d0) -> (d0)>, affine_map<(d0) -> ()>]} : (tensor<25xi16>, tensor<25xi16>, tensor<i16>) -> tensor<i16>
        %216 = "index.bool.constant"() <{value = false}> : () -> i1
        "affine.vector_store"(%89, %72, %87, %arg0) <{map = affine_map<(d0, d1) -> (d0, d1)>}> : (vector<2xi32>, memref<30x32xi32>, index, index) -> ()
        %217 = "math.fma"(%1, %7, %91) <{fastmath = #arith.fastmath<none>}> : (f32, f32, f32) -> f32
        %218 = "math.log2"(%63) <{fastmath = #arith.fastmath<none>}> : (tensor<30x32xf32>) -> tensor<30x32xf32>
        %219 = "index.shru"(%arg0, %23) : (index, index) -> index
        %220 = "arith.shrui"(%11, %2) : (i64, i64) -> i64
        %221 = "arith.ceildivsi"(%2, %3) : (i64, i64) -> i64
        %222 = "memref.alloc"() <{operandSegmentSizes = array<i32: 0, 0>}> : () -> memref<32x3xf32>
        "scf.yield"(%222) : (memref<32x3xf32>) -> ()
      }, {
        %214 = "math.rsqrt"(%59) <{fastmath = #arith.fastmath<none>}> : (tensor<?xf16>) -> tensor<?xf16>
        %215 = "memref.realloc"(%74) : (memref<?xf32>) -> memref<30xf32>
        %216 = "index.xor"(%36, %arg0) : (index, index) -> index
        %217 = "tensor.from_elements"(%10, %4, %4, %10, %6, %100, %10, %4, %6, %106, %100, %4, %10, %100, %10, %4, %100, %10, %6, %6, %106, %10, %100, %4, %106, %10, %10, %4, %106, %100, %10, %10, %6, %100, %106, %6, %100, %106, %106, %4, %100, %4, %6, %4, %106, %106, %106, %6, %4, %100, %6, %10, %100, %6, %6, %4, %106, %4, %4, %10, %10, %106, %6, %10, %10, %4, %6, %4, %4, %106, %10, %4, %6, %10, %4, %10, %106, %4, %6, %100, %10, %10, %100, %100, %10, %10, %4, %4, %100, %6, %10, %10, %10, %100, %10, %106) : (i16, i16, i16, i16, i16, i16, i16, i16, i16, i16, i16, i16, i16, i16, i16, i16, i16, i16, i16, i16, i16, i16, i16, i16, i16, i16, i16, i16, i16, i16, i16, i16, i16, i16, i16, i16, i16, i16, i16, i16, i16, i16, i16, i16, i16, i16, i16, i16, i16, i16, i16, i16, i16, i16, i16, i16, i16, i16, i16, i16, i16, i16, i16, i16, i16, i16, i16, i16, i16, i16, i16, i16, i16, i16, i16, i16, i16, i16, i16, i16, i16, i16, i16, i16, i16, i16, i16, i16, i16, i16, i16, i16, i16, i16, i16, i16) -> tensor<32x3xi16>
        %218 = "index.divu"(%17, %38) : (index, index) -> index
        %219 = "tensor.empty"() : () -> tensor<25xi64>
        %220 = "arith.andi"(%9, %0) : (i1, i1) -> i1
        %221 = "vector.load"(%76, %16, %16) : (memref<?x?xi1>, index, index) -> vector<25xi1>
        %222 = "memref.alloc"() <{operandSegmentSizes = array<i32: 0, 0>}> : () -> memref<32x3xf32>
        "scf.yield"(%222) : (memref<32x3xf32>) -> ()
      }) : (i1) -> memref<32x3xf32>
      %211 = "vector.broadcast"(%82) : (i1) -> vector<2xi1>
      "vector.compressstore"(%65, %16, %211, %89) : (memref<?xi32>, index, vector<2xi1>, vector<2xi32>) -> ()
      %212 = "index.floordivs"(%40, %87) : (index, index) -> index
      %213 = "math.fma"(%92, %12, %85) <{fastmath = #arith.fastmath<none>}> : (f16, f16, f16) -> f16
      "scf.yield"(%1) : (f32) -> ()
    }, {
      %206 = "arith.minsi"(%14, %14) : (i32, i32) -> i32
      %207 = "arith.cmpi"(%11, %3) <{predicate = 7 : i64}> : (i64, i64) -> i1
      %208 = "bufferization.to_memref"(%49) : (tensor<?x30x32xi32>) -> memref<?x30x32xi32>
      %209 = "math.log"(%52) <{fastmath = #arith.fastmath<none>}> : (tensor<?x?x32xf16>) -> tensor<?x?x32xf16>
      %210 = "arith.divf"(%93, %8) <{fastmath = #arith.fastmath<none>}> : (f16, f16) -> f16
      %211 = "arith.shrsi"(%9, %111) : (i1, i1) -> i1
      %212 = "tensor.generate"(%26) ({
      ^bb0(%arg3: index):
        %214 = "math.expm1"(%1) <{fastmath = #arith.fastmath<none>}> : (f32) -> f32
        %215 = "math.floor"(%93) <{fastmath = #arith.fastmath<none>}> : (f16) -> f16
        %216 = "vector.extract_strided_slice"(%89) <{offsets = [0], sizes = [1], strides = [1]}> : (vector<2xi32>) -> vector<1xi32>
        %217 = "math.log10"(%8) <{fastmath = #arith.fastmath<none>}> : (f16) -> f16
        "tensor.yield"(%10) : (i16) -> ()
      }) : (index) -> tensor<?xi16>
      %213 = "vector.extract_strided_slice"(%89) <{offsets = [0], sizes = [1], strides = [1]}> : (vector<2xi32>) -> vector<1xi32>
      "scf.yield"(%1) : (f32) -> ()
    }) : (i1) -> f32
    %113 = "spirv.SLessThan"(%14, %5) : (i32, i32) -> i1
    %114 = "arith.mulf"(%94, %7) <{fastmath = #arith.fastmath<none>}> : (f32, f32) -> f32
    %115 = "spirv.GL.Cos"(%93) : (f16) -> f16
    %116 = "spirv.FUnordLessThanEqual"(%7, %94) : (f32, f32) -> i1
    %117 = "spirv.CL.fmax"(%12, %92) : (f16, f16) -> f16
    %118 = "index.mul"(%40, %40) : (index, index) -> index
    %119 = "spirv.GL.SAbs"(%100) : (i16) -> i16
    %120 = "spirv.CL.rsqrt"(%115) : (f16) -> f16
    %121 = "vector.create_mask"(%33) : (index) -> vector<25xi1>
    %122 = "vector.multi_reduction"(%89, %89) <{kind = #vector.kind<minui>, reduction_dims = []}> : (vector<2xi32>, vector<2xi32>) -> vector<2xi32>
    %123 = "memref.realloc"(%arg1) : (memref<25xi64>) -> memref<25xi64>
    %124 = "spirv.CL.fabs"(%112) : (f32) -> f32
    %125 = "spirv.GL.Cosh"(%115) : (f16) -> f16
    %126 = "memref.alloca"() <{operandSegmentSizes = array<i32: 0, 0>}> : () -> memref<25x30x32xi16>
    "affine.for"() <{lowerBoundMap = affine_map<() -> (0)>, operandSegmentSizes = array<i32: 0, 0, 0>, step = 1 : index, upperBoundMap = affine_map<() -> (108)>}> ({
    ^bb0(%arg3: index):
      "affine.yield"() : () -> ()
    }) : () -> ()
    "scf.index_switch"(%45) <{cases = array<i64: 1, 2>}> ({
      %206 = "arith.mulf"(%85, %115) <{fastmath = #arith.fastmath<none>}> : (f16, f16) -> f16
      %207 = "index.floordivs"(%105, %36) : (index, index) -> index
      %208 = "math.tan"(%125) <{fastmath = #arith.fastmath<none>}> : (f16) -> f16
      %209 = "bufferization.clone"(%67) : (memref<30x32xi16>) -> memref<30x32xi16>
      %210 = "math.copysign"(%1, %94) <{fastmath = #arith.fastmath<none>}> : (f32, f32) -> f32
      %211 = "index.or"(%18, %25) : (index, index) -> index
      %212 = "tensor.collapse_shape"(%49) <{reassociation = [[0, 1], [2]]}> : (tensor<?x30x32xi32>) -> tensor<?x32xi32>
      %213 = "tensor.collapse_shape"(%56) <{reassociation = [[0, 1], [2]]}> : (tensor<25x30x32xi64>) -> tensor<750x32xi64>
      %214 = "tensor.empty"() : () -> tensor<i16>
      %215 = "linalg.dot"(%51, %51, %214) <{operandSegmentSizes = array<i32: 2, 1>}> ({
      ^bb0(%arg3: i16, %arg4: i16, %arg5: i16):
        %223 = "arith.muli"(%arg3, %arg4) : (i16, i16) -> i16
        %224 = "arith.addi"(%arg5, %223) : (i16, i16) -> i16
        "linalg.yield"(%224) : (i16) -> ()
      }) {linalg.memoized_indexing_maps = [affine_map<(d0) -> (d0)>, affine_map<(d0) -> (d0)>, affine_map<(d0) -> ()>]} : (tensor<25xi16>, tensor<25xi16>, tensor<i16>) -> tensor<i16>
      %216 = "tensor.insert"(%115, %60, %16, %16) : (f16, tensor<?x?xf16>, index, index) -> tensor<?x?xf16>
      %217 = "math.log10"(%61) <{fastmath = #arith.fastmath<none>}> : (tensor<?x30x32xf16>) -> tensor<?x30x32xf16>
      %218 = "bufferization.clone"(%109) : (memref<32x30xi16>) -> memref<32x30xi16>
      %219 = "memref.load"(%68, %31, %17, %16) <{nontemporal = false}> : (memref<25x30x32xi1>, index, index, index) -> i1
      %220 = "math.powf"(%92, %92) <{fastmath = #arith.fastmath<none>}> : (f16, f16) -> f16
      %221 = "vector.broadcast"(%82) : (i1) -> vector<25xi1>
      %222 = "arith.muli"(%119, %100) : (i16, i16) -> i16
      "scf.yield"() : () -> ()
    }, {
      %206 = "tensor.empty"() : () -> tensor<25xi32>
      %207 = "math.fma"(%88, %93, %88) <{fastmath = #arith.fastmath<none>}> : (f16, f16, f16) -> f16
      %208 = "math.exp2"(%115) <{fastmath = #arith.fastmath<none>}> : (f16) -> f16
      %209 = "math.round"(%88) <{fastmath = #arith.fastmath<none>}> : (f16) -> f16
      %210 = "math.atan2"(%63, %63) <{fastmath = #arith.fastmath<none>}> : (tensor<30x32xf32>, tensor<30x32xf32>) -> tensor<30x32xf32>
      %211 = "memref.alloc"(%105, %43) <{operandSegmentSizes = array<i32: 2, 0>}> : (index, index) -> memref<?x?xf16>
      %212 = "index.maxs"(%45, %25) : (index, index) -> index
      %213 = "arith.remf"(%93, %117) <{fastmath = #arith.fastmath<none>}> : (f16, f16) -> f16
      %214 = "index.castu"(%19) : (index) -> i32
      %215 = "memref.alloca"(%18) <{operandSegmentSizes = array<i32: 1, 0>}> : (index) -> memref<?xi64>
      %216 = "math.cttz"(%56) : (tensor<25x30x32xi64>) -> tensor<25x30x32xi64>
      %217 = "vector.extract_strided_slice"(%107) <{offsets = [16], sizes = [8], strides = [1]}> : (vector<30x32xi1>) -> vector<8x32xi1>
      %218 = "math.atan"(%58) <{fastmath = #arith.fastmath<none>}> : (tensor<?xf16>) -> tensor<?xf16>
      %219 = "tensor.splat"(%92) : (f16) -> tensor<30x32xf16>
      %220 = "index.and"(%34, %80) : (index, index) -> index
      %221 = "tensor.dim"(%52, %16) : (tensor<?x?x32xf16>, index) -> index
      "scf.yield"() : () -> ()
    }, {
      "affine.vector_store"(%121, %71, %44, %31) <{map = affine_map<(d0, d1) -> (d0, d1)>}> : (vector<25xi1>, memref<30x32xi1>, index, index) -> ()
      %206 = "memref.alloc"() <{operandSegmentSizes = array<i32: 0, 0>}> : () -> memref<25x30x32xi32>
      "memref.tensor_store"(%53, %206) : (tensor<25x30x32xi32>, memref<25x30x32xi32>) -> ()
      %207 = "bufferization.clone"(%78) : (memref<25x30x32xi1>) -> memref<25x30x32xi1>
      %208 = "index.and"(%35, %34) : (index, index) -> index
      %209 = "vector.extract"(%107) <{static_position = array<i64: 16>}> : (vector<30x32xi1>) -> vector<32xi1>
      %210 = "arith.remui"(%82, %111) : (i1, i1) -> i1
      %211 = "arith.ceildivsi"(%95, %9) : (i1, i1) -> i1
      %212 = "tensor.empty"(%105) : (index) -> tensor<25x30x?xi1>
      %213 = "memref.cast"(%207) : (memref<25x30x32xi1>) -> memref<?x?x32xi1>
      %214 = "arith.shrui"(%100, %106) : (i16, i16) -> i16
      %215 = "arith.mulf"(%93, %88) <{fastmath = #arith.fastmath<none>}> : (f16, f16) -> f16
      %216 = "math.expm1"(%124) <{fastmath = #arith.fastmath<none>}> : (f32) -> f32
      %217 = "index.add"(%23, %87) : (index, index) -> index
      %218 = "tensor.rank"(%61) : (tensor<?x30x32xf16>) -> index
      %219 = "arith.cmpi"(%116, %9) <{predicate = 6 : i64}> : (i1, i1) -> i1
      %220 = "arith.shrui"(%13, %14) : (i32, i32) -> i32
      "scf.yield"() : () -> ()
    }) : (index) -> ()
    %127 = "vector.load"(%75, %16, %16, %16) : (memref<?x?x?xi1>, index, index, index) -> vector<32x3xi1>
    %128 = "scf.execute_region"() ({
      %206 = "tensor.dim"(%52, %16) : (tensor<?x?x32xf16>, index) -> index
      %207 = "tensor.empty"() : () -> tensor<30x32xi1>
      %208 = "math.log10"(%63) <{fastmath = #arith.fastmath<none>}> : (tensor<30x32xf32>) -> tensor<30x32xf32>
      %209 = "arith.divsi"(%116, %82) : (i1, i1) -> i1
      %210 = "index.xor"(%30, %87) : (index, index) -> index
      %211 = "bufferization.clone"(%109) : (memref<32x30xi16>) -> memref<32x30xi16>
      %212 = "affine.load"(%75, %35, %45, %20) <{map = affine_map<(d0, d1, d2) -> (d0, d1, d2)>}> : (memref<?x?x?xi1>, index, index, index) -> i1
      %213 = "bufferization.to_tensor"(%74) : (memref<?xf32>) -> tensor<?xf32>
      %214 = "memref.cast"(%76) : (memref<?x?xi1>) -> memref<?x3xi1>
      %215 = "arith.remf"(%115, %15) <{fastmath = #arith.fastmath<none>}> : (f16, f16) -> f16
      "vector.compressstore"(%66, %16, %17, %121, %121) : (memref<?x32xi1>, index, index, vector<25xi1>, vector<25xi1>) -> ()
      %216 = "memref.alloc"() <{operandSegmentSizes = array<i32: 0, 0>}> : () -> memref<25x30x32xi32>
      %217 = "bufferization.to_tensor"(%74) : (memref<?xf32>) -> tensor<?xf32>
      %218 = "arith.andi"(%116, %82) : (i1, i1) -> i1
      %219 = "bufferization.clone"(%68) : (memref<25x30x32xi1>) -> memref<25x30x32xi1>
      %220 = "tensor.generate"(%38) ({
      ^bb0(%arg3: index):
        %222 = "vector.transfer_read"(%54, %87, %29, %5) <{operandSegmentSizes = array<i32: 1, 2, 1, 0>, permutation_map = affine_map<(d0, d1) -> (d1)>}> : (tensor<?x3xi32>, index, index, i32) -> vector<3xi32>
        %223 = "vector.broadcast"(%95) : (i1) -> vector<2xi1>
        "vector.compressstore"(%72, %45, %20, %223, %89) : (memref<30x32xi32>, index, index, vector<2xi1>, vector<2xi32>) -> ()
        %224 = "index.and"(%21, %16) : (index, index) -> index
        %225 = "math.copysign"(%112, %112) <{fastmath = #arith.fastmath<none>}> : (f32, f32) -> f32
        "tensor.yield"(%2) : (i64) -> ()
      }) : (index) -> tensor<?xi64>
      %221 = "memref.alloc"() <{operandSegmentSizes = array<i32: 0, 0>}> : () -> memref<32x3xi16>
      "scf.yield"(%221) : (memref<32x3xi16>) -> ()
    }) : () -> memref<32x3xi16>
    %129 = "spirv.SLessThan"(%89, %89) : (vector<2xi32>, vector<2xi32>) -> vector<2xi1>
    %130 = "spirv.BitFieldUExtract"(%89, %100, %100) : (vector<2xi32>, i16, i16) -> vector<2xi32>
    %131 = "arith.ceildivsi"(%111, %9) : (i1, i1) -> i1
    %132 = "index.mul"(%29, %44) : (index, index) -> index
    %133 = "spirv.GL.Sin"(%124) : (f32) -> f32
    %134 = "spirv.IsInf"(%112) : (f32) -> i1
    %135 = "arith.shrui"(%14, %5) : (i32, i32) -> i32
    %136 = "arith.xori"(%3, %2) : (i64, i64) -> i64
    %137 = "math.powf"(%92, %92) <{fastmath = #arith.fastmath<none>}> : (f16, f16) -> f16
    %138 = "math.fma"(%117, %15, %125) <{fastmath = #arith.fastmath<none>}> : (f16, f16, f16) -> f16
    %139 = "spirv.CL.pow"(%115, %88) : (f16, f16) -> f16
    %140 = "spirv.GL.Cosh"(%94) : (f32) -> f32
    %141 = "spirv.CL.rint"(%92) : (f16) -> f16
    %142 = "tensor.empty"() : () -> tensor<30x32xi16>
    %143 = "index.ceildivu"(%39, %118) : (index, index) -> index
    %144 = "spirv.CL.tanh"(%115) : (f16) -> f16
    %145 = "vector.extract_strided_slice"(%107) <{offsets = [8], sizes = [22], strides = [1]}> : (vector<30x32xi1>) -> vector<22x32xi1>
    %146 = "spirv.LogicalNot"(%82) : (i1) -> i1
    %147 = "spirv.GL.SClamp"(%119, %10, %100) : (i16, i16, i16) -> i16
    %148 = "math.absf"(%117) <{fastmath = #arith.fastmath<none>}> : (f16) -> f16
    %149 = "arith.negf"(%7) <{fastmath = #arith.fastmath<none>}> : (f32) -> f32
    %150 = "spirv.CL.fabs"(%141) : (f16) -> f16
    %151 = "arith.andi"(%10, %100) : (i16, i16) -> i16
    %152 = "memref.alloc"(%39) <{operandSegmentSizes = array<i32: 1, 0>}> : (index) -> memref<?x30x32xi32>
    %153 = "spirv.GL.Exp"(%94) : (f32) -> f32
    %154 = "tensor.from_elements"(%146, %146, %111, %116, %95, %9, %0, %95, %0, %9, %134, %82, %146, %95, %113, %9, %0, %134, %9, %116, %0, %146, %82, %9, %146) : (i1, i1, i1, i1, i1, i1, i1, i1, i1, i1, i1, i1, i1, i1, i1, i1, i1, i1, i1, i1, i1, i1, i1, i1, i1) -> tensor<25xi1>
    %155 = "arith.andi"(%113, %113) : (i1, i1) -> i1
    %156 = "spirv.CL.s_min"(%147, %147) : (i16, i16) -> i16
    %157 = "arith.divsi"(%156, %100) : (i16, i16) -> i16
    %158 = "spirv.CL.s_max"(%147, %100) : (i16, i16) -> i16
    %159 = "vector.contract"(%89, %89, %5) <{indexing_maps = [affine_map<(d0) -> (d0)>, affine_map<(d0) -> (d0)>, affine_map<(d0) -> ()>], iterator_types = [#vector.iterator_type<reduction>], kind = #vector.kind<or>}> : (vector<2xi32>, vector<2xi32>, i32) -> i32
    %160 = "index.castu"(%13) : (i32) -> index
    %161 = "spirv.GL.Round"(%120) : (f16) -> f16
    %162 = "spirv.INotEqual"(%2, %3) : (i64, i64) -> i1
    %163 = "spirv.CL.erf"(%117) : (f16) -> f16
    %164 = "vector.multi_reduction"(%127, %127) <{kind = #vector.kind<xor>, reduction_dims = []}> : (vector<32x3xi1>, vector<32x3xi1>) -> vector<32x3xi1>
    %165 = "vector.broadcast"(%95) : (i1) -> vector<30x22xi1>
    %166 = "vector.contract"(%107, %145, %165) <{indexing_maps = [affine_map<(d0, d1, d2) -> (d0, d2)>, affine_map<(d0, d1, d2) -> (d1, d2)>, affine_map<(d0, d1, d2) -> (d0, d1)>], iterator_types = [#vector.iterator_type<parallel>, #vector.iterator_type<parallel>, #vector.iterator_type<reduction>], kind = #vector.kind<mul>}> : (vector<30x32xi1>, vector<22x32xi1>, vector<30x22xi1>) -> vector<30x22xi1>
    %167 = "arith.addi"(%106, %106) : (i16, i16) -> i16
    %168 = "arith.ceildivsi"(%5, %5) : (i32, i32) -> i32
    %169 = "vector.insertelement"(%146, %121, %80) : (i1, vector<25xi1>, index) -> vector<25xi1>
    %170 = "spirv.FUnordLessThan"(%88, %161) : (f16, f16) -> i1
    %171 = "tensor.empty"(%26) : (index) -> tensor<?xf16>
    %172 = "linalg.map"(%58, %171) ({
    ^bb0(%arg3: f16):
      %206 = "tensor.collapse_shape"(%49) <{reassociation = [[0, 1], [2]]}> : (tensor<?x30x32xi32>) -> tensor<?x32xi32>
      %207 = "memref.realloc"(%arg1) : (memref<25xi64>) -> memref<25xi64>
      %208 = "tensor.empty"() : () -> tensor<32x3xf16>
      %209 = "index.ceildivu"(%19, %36) : (index, index) -> index
      %210 = "tensor.empty"() : () -> tensor<30x3xi16>
      %211 = "linalg.matmul"(%67, %128, %210) <{operandSegmentSizes = array<i32: 2, 1>}> ({
      ^bb0(%arg4: i16, %arg5: i16, %arg6: i16):
        %241 = "arith.muli"(%arg4, %arg5) : (i16, i16) -> i16
        %242 = "arith.addi"(%arg6, %241) : (i16, i16) -> i16
        "linalg.yield"(%242) : (i16) -> ()
      }) {linalg.memoized_indexing_maps = [affine_map<(d0, d1, d2) -> (d0, d2)>, affine_map<(d0, d1, d2) -> (d2, d1)>, affine_map<(d0, d1, d2) -> (d0, d1)>]} : (memref<30x32xi16>, memref<32x3xi16>, tensor<30x3xi16>) -> tensor<30x3xi16>
      %212 = "vector.broadcast"(%14) : (i32) -> vector<25xi32>
      %213 = "vector.maskedload"(%72, %44, %37, %121, %212) : (memref<30x32xi32>, index, index, vector<25xi1>, vector<25xi32>) -> vector<25xi32>
      %214 = "tensor.cast"(%52) : (tensor<?x?x32xf16>) -> tensor<30x32x32xf16>
      %215 = "math.log1p"(%8) <{fastmath = #arith.fastmath<none>}> : (f16) -> f16
      "scf.execute_region"() ({
        %241 = "tensor.cast"(%61) : (tensor<?x30x32xf16>) -> tensor<30x30x32xf16>
        %242 = "linalg.broadcast"(%60, %52) <{dimensions = array<i64: 2>}> ({
        ^bb0(%arg4: f16, %arg5: f16):
          "linalg.yield"(%arg4) : (f16) -> ()
        }) : (tensor<?x?xf16>, tensor<?x?x32xf16>) -> tensor<?x?x32xf16>
        %243 = "index.and"(%105, %30) : (index, index) -> index
        %244 = "math.expm1"(%93) <{fastmath = #arith.fastmath<none>}> : (f16) -> f16
        %245 = "arith.constant"() <{value = 380216423 : i64}> : () -> i64
        %246 = "tensor.empty"(%19) : (index) -> tensor<?x32xi16>
        %247 = "math.absi"(%142) : (tensor<30x32xi16>) -> tensor<30x32xi16>
        %248 = "vector.insertelement"(%5, %89, %26) : (i32, vector<2xi32>, index) -> vector<2xi32>
        %249 = "math.atan"(%8) <{fastmath = #arith.fastmath<none>}> : (f16) -> f16
        %250 = "math.log1p"(%214) <{fastmath = #arith.fastmath<none>}> : (tensor<30x32x32xf16>) -> tensor<30x32x32xf16>
        %251 = "memref.load"(%70, %16, %16) <{nontemporal = false}> : (memref<?x?xi64>, index, index) -> i64
        %252 = "memref.realloc"(%arg1) : (memref<25xi64>) -> memref<30xi64>
        %253 = "arith.minui"(%162, %95) : (i1, i1) -> i1
        %254 = "arith.shrsi"(%13, %13) : (i32, i32) -> i32
        %255 = "vector.broadcast"(%113) : (i1) -> vector<32xi1>
        %256 = "vector.maskedload"(%76, %16, %16, %255, %255) : (memref<?x?xi1>, index, index, vector<32xi1>, vector<32xi1>) -> vector<32xi1>
        %257 = "vector.extract"(%107) <{static_position = array<i64: 14>}> : (vector<30x32xi1>) -> vector<32xi1>
        "scf.yield"() : () -> ()
      }) : () -> ()
      %216 = "arith.andi"(%119, %10) : (i16, i16) -> i16
      %217 = "vector.broadcast"(%22) : (index) -> vector<30xindex>
      %218 = "vector.broadcast"(%134) : (i1) -> vector<30xi1>
      "vector.scatter"(%68, %24, %26, %39, %217, %218, %218) : (memref<25x30x32xi1>, index, index, index, vector<30xindex>, vector<30xi1>, vector<30xi1>) -> ()
      %219 = "arith.remf"(%93, %163) <{fastmath = #arith.fastmath<none>}> : (f16, f16) -> f16
      %220 = "vector.extract_strided_slice"(%121) <{offsets = [18], sizes = [1], strides = [1]}> : (vector<25xi1>) -> vector<1xi1>
      %221 = "tensor.empty"() : () -> tensor<25x30x32x25xi64>
      %222 = "linalg.broadcast"(%56, %221) <{dimensions = array<i64: 3>}> ({
      ^bb0(%arg4: i64, %arg5: i64):
        "linalg.yield"(%arg4) : (i64) -> ()
      }) : (tensor<25x30x32xi64>, tensor<25x30x32x25xi64>) -> tensor<25x30x32x25xi64>
      %223 = "vector.broadcast"(%99) : (f16) -> vector<30x32xf16>
      %224 = "math.powf"(%115, %120) <{fastmath = #arith.fastmath<none>}> : (f16, f16) -> f16
      %225 = "math.log1p"(%58) <{fastmath = #arith.fastmath<none>}> : (tensor<?xf16>) -> tensor<?xf16>
      %226 = "index.floordivs"(%arg0, %42) : (index, index) -> index
      %227 = "arith.constant"() <{value = 1096480142 : i64}> : () -> i64
      %228 = "tensor.empty"(%30) : (index) -> tensor<30x?xf32>
      %229 = "arith.remf"(%125, %99) <{fastmath = #arith.fastmath<none>}> : (f16, f16) -> f16
      %230 = "arith.shli"(%14, %14) : (i32, i32) -> i32
      %231 = "index.bool.constant"() <{value = true}> : () -> i1
      %232 = "vector.broadcast"(%9) : (i1) -> vector<25x25xi1>
      %233 = "vector.outerproduct"(%121, %121, %232) <{kind = #vector.kind<minui>}> : (vector<25xi1>, vector<25xi1>, vector<25x25xi1>) -> vector<25x25xi1>
      %234 = "index.and"(%105, %17) : (index, index) -> index
      %235 = "math.rsqrt"(%7) <{fastmath = #arith.fastmath<none>}> : (f32) -> f32
      "memref.store"(%2, %69, %16, %16) <{nontemporal = false}> : (i64, memref<?x?xi64>, index, index) -> ()
      %236 = "math.rsqrt"(%arg3) <{fastmath = #arith.fastmath<none>}> : (f16) -> f16
      %237 = "tensor.empty"() : () -> tensor<30x32xi32>
      %238 = "scf.if"(%162) ({
        %241 = "arith.divsi"(%0, %116) : (i1, i1) -> i1
        %242 = "math.powf"(%144, %163) <{fastmath = #arith.fastmath<none>}> : (f16, f16) -> f16
        %243 = "arith.constant"() <{value = 847392450 : i32}> : () -> i32
        %244 = "vector.broadcast"(%231) : (i1) -> vector<32xi1>
        %245 = "vector.insert"(%244, %107) <{static_position = array<i64: 24>}> : (vector<32xi1>, vector<30x32xi1>) -> vector<30x32xi1>
        %246 = "index.castu"(%134) : (i1) -> index
        %247 = "vector.insert"(%244, %107) <{static_position = array<i64: 12>}> : (vector<32xi1>, vector<30x32xi1>) -> vector<30x32xi1>
        %248 = "arith.remf"(%163, %arg3) <{fastmath = #arith.fastmath<none>}> : (f16, f16) -> f16
        %249 = "index.floordivs"(%226, %118) : (index, index) -> index
        %250 = "memref.alloc"() <{operandSegmentSizes = array<i32: 0, 0>}> : () -> memref<25xf32>
        "scf.yield"(%250) : (memref<25xf32>) -> ()
      }, {
        %241 = "arith.cmpi"(%147, %156) <{predicate = 5 : i64}> : (i16, i16) -> i1
        %242 = "vector.broadcast"(%14) : (i32) -> vector<25x25xi32>
        %243 = "vector.outerproduct"(%213, %212, %242) <{kind = #vector.kind<add>}> : (vector<25xi32>, vector<25xi32>, vector<25x25xi32>) -> vector<25x25xi32>
        %244 = "arith.ori"(%116, %113) : (i1, i1) -> i1
        %245 = "arith.constant"() <{value = 2.388800e+04 : f16}> : () -> f16
        %246 = "vector.transfer_read"(%53, %24, %32, %33, %13) <{operandSegmentSizes = array<i32: 1, 3, 1, 0>, permutation_map = affine_map<(d0, d1, d2) -> (d2)>}> : (tensor<25x30x32xi32>, index, index, index, i32) -> vector<3xi32>
        %247 = "arith.ceildivsi"(%111, %9) : (i1, i1) -> i1
        %248 = "arith.floordivsi"(%134, %82) : (i1, i1) -> i1
        %249 = "vector.broadcast"(%146) : (i1) -> vector<32xi1>
        %250 = "vector.insert"(%249, %107) <{static_position = array<i64: 10>}> : (vector<32xi1>, vector<30x32xi1>) -> vector<30x32xi1>
        %251 = "memref.alloc"() <{operandSegmentSizes = array<i32: 0, 0>}> : () -> memref<25xf32>
        "scf.yield"(%251) : (memref<25xf32>) -> ()
      }) : (i1) -> memref<25xf32>
      %239 = "vector.shuffle"(%89, %89) <{mask = [0, 1, 2]}> : (vector<2xi32>, vector<2xi32>) -> vector<3xi32>
      %240 = "scf.while"(%60) ({
      ^bb0(%arg4: tensor<?x?xf16>):
        %241 = "affine.vector_load"(%65, %38) <{map = affine_map<(d0) -> (d0)>}> : (memref<?xi32>, index) -> vector<30xi32>
        %242 = "index.bool.constant"() <{value = false}> : () -> i1
        %243 = "tensor.cast"(%154) : (tensor<25xi1>) -> tensor<?xi1>
        %244 = "math.atan"(%161) <{fastmath = #arith.fastmath<none>}> : (f16) -> f16
        %245 = "math.floor"(%144) <{fastmath = #arith.fastmath<none>}> : (f16) -> f16
        %246 = "tensor.expand_shape"(%56) <{reassociation = [[0], [1], [2, 3]]}> : (tensor<25x30x32xi64>) -> tensor<25x30x32x1xi64>
        %247 = "index.maxs"(%38, %23) : (index, index) -> index
        %248 = "vector.load"(%73, %16, %16, %47) : (memref<?x?x32xf16>, index, index, index) -> vector<25x30x32xf16>
        %249 = "tensor.empty"(%118, %80) : (index, index) -> tensor<?x?xf16>
        "scf.condition"(%111, %249) : (i1, tensor<?x?xf16>) -> ()
      }, {
      ^bb0(%arg4: tensor<?x?xf16>):
        %241 = "affine.load"(%78, %39, %16, %36) <{map = affine_map<(d0, d1, d2) -> (d0, d1, d2)>}> : (memref<25x30x32xi1>, index, index, index) -> i1
        %242 = "arith.shrsi"(%3, %3) : (i64, i64) -> i64
        %243 = "math.powf"(%15, %15) <{fastmath = #arith.fastmath<none>}> : (f16, f16) -> f16
        %244 = "vector.multi_reduction"(%89, %13) <{kind = #vector.kind<xor>, reduction_dims = [0]}> : (vector<2xi32>, i32) -> i32
        %245 = "arith.xori"(%14, %13) : (i32, i32) -> i32
        %246 = "math.log1p"(%171) <{fastmath = #arith.fastmath<none>}> : (tensor<?xf16>) -> tensor<?xf16>
        %247 = "arith.shli"(%134, %146) : (i1, i1) -> i1
        %248 = "arith.xori"(%113, %116) : (i1, i1) -> i1
        %249 = "memref.load"(%109, %38, %33) <{nontemporal = false}> : (memref<32x30xi16>, index, index) -> i16
        %250 = "tensor.collapse_shape"(%62) <{reassociation = [[0, 1], [2]]}> : (tensor<25x30x32xi1>) -> tensor<750x32xi1>
        %251 = "math.sqrt"(%arg4) <{fastmath = #arith.fastmath<none>}> : (tensor<?x?xf16>) -> tensor<?x?xf16>
        %252 = "vector.broadcast"(%39) : (index) -> vector<30xindex>
        %253 = "vector.broadcast"(%9) : (i1) -> vector<30xi1>
        "vector.scatter"(%79, %16, %252, %253, %253) : (memref<?xi1>, index, vector<30xindex>, vector<30xi1>, vector<30xi1>) -> ()
        %254 = "vector.create_mask"(%40) : (index) -> vector<25xi1>
        %255 = "vector.create_mask"(%43) : (index) -> vector<25xi1>
        %256 = "memref.cast"(%arg1) : (memref<25xi64>) -> memref<?xi64>
        %257 = "math.round"(%144) <{fastmath = #arith.fastmath<none>}> : (f16) -> f16
        %258 = "tensor.empty"(%26, %33) : (index, index) -> tensor<?x?xf16>
        "scf.yield"(%258) : (tensor<?x?xf16>) -> ()
      }) : (tensor<?x?xf16>) -> tensor<?x?xf16>
      "linalg.yield"(%92) : (f16) -> ()
    }) : (tensor<?xf16>, tensor<?xf16>) -> tensor<?xf16>
    %173 = "spirv.CL.rint"(%161) : (f16) -> f16
    %174 = "spirv.FUnordGreaterThanEqual"(%7, %91) : (f32, f32) -> i1
    "memref.store"(%140, %64, %16, %16, %16) <{nontemporal = false}> : (f32, memref<?x?x?xf32>, index, index, index) -> ()
    %175 = "affine.max"(%47, %35, %33, %143) <{map = affine_map<(d0, d1, d2)[s0] -> ((d0 + d2) floordiv 2)>}> : (index, index, index, index) -> index
    %176 = "spirv.BitFieldSExtract"(%89, %13, %147) : (vector<2xi32>, i32, i16) -> vector<2xi32>
    %177 = "spirv.GL.SSign"(%13) : (i32) -> i32
    %178 = "affine.max"(%30, %20) <{map = affine_map<(d0, d1) -> (d1)>}> : (index, index) -> index
    %179 = "vector.extract"(%121) <{static_position = array<i64: 10>}> : (vector<25xi1>) -> i1
    %180 = "tensor.extract"(%63, %16, %23) : (tensor<30x32xf32>, index, index) -> f32
    %181 = "spirv.FOrdEqual"(%91, %124) : (f32, f32) -> i1
    %182 = "arith.floordivsi"(%146, %116) : (i1, i1) -> i1
    %183 = "spirv.BitFieldSExtract"(%89, %13, %156) : (vector<2xi32>, i32, i16) -> vector<2xi32>
    %184 = "arith.addi"(%174, %113) : (i1, i1) -> i1
    %185 = "math.fma"(%139, %15, %93) <{fastmath = #arith.fastmath<none>}> : (f16, f16, f16) -> f16
    %186 = "math.expm1"(%139) <{fastmath = #arith.fastmath<none>}> : (f16) -> f16
    %187 = "spirv.CL.erf"(%163) : (f16) -> f16
    "scf.index_switch"(%32) <{cases = array<i64: 1, 2, 3, 4>}> ({
      %206 = "affine.max"(%39) <{map = affine_map<(d0) -> (d0 - (d0 * 2) floordiv 32 - (d0 * 2 + (d0 * 2) mod 4) * 32 + 64)>}> : (index) -> index
      %207 = "linalg.copy"(%49, %49) <{operandSegmentSizes = array<i32: 1, 1>}> ({
      ^bb0(%arg3: i32, %arg4: i32):
        "linalg.yield"(%arg3) : (i32) -> ()
      }) : (tensor<?x30x32xi32>, tensor<?x30x32xi32>) -> tensor<?x30x32xi32>
      %208 = "vector.shuffle"(%145, %107) <{mask = [1, 4, 7, 10, 11, 12, 14, 16, 18, 19, 23, 26, 27, 29, 32, 33, 35, 36, 37, 38, 39, 40, 41, 42, 43, 44, 45, 46, 47, 48, 49, 50]}> : (vector<22x32xi1>, vector<30x32xi1>) -> vector<32x32xi1>
      %209 = "vector.shuffle"(%89, %89) <{mask = [0, 1, 2, 3]}> : (vector<2xi32>, vector<2xi32>) -> vector<4xi32>
      %210 = "math.ceil"(%180) <{fastmath = #arith.fastmath<none>}> : (f32) -> f32
      %211 = "index.shl"(%132, %20) : (index, index) -> index
      %212 = "memref.cast"(%71) : (memref<30x32xi1>) -> memref<?x32xi1>
      %213 = "vector.broadcast"(%88) : (f16) -> vector<3xf16>
      %214 = "vector.broadcast"(%113) : (i1) -> vector<3xi1>
      "vector.compressstore"(%73, %16, %16, %41, %214, %213) : (memref<?x?x32xf16>, index, index, index, vector<3xi1>, vector<3xf16>) -> ()
      %215 = "math.fma"(%115, %139, %8) <{fastmath = #arith.fastmath<none>}> : (f16, f16, f16) -> f16
      %216 = "math.cttz"(%9) : (i1) -> i1
      %217 = "tensor.empty"() : () -> tensor<30x32xi16>
      %218 = "linalg.map"(%142, %142, %67, %217) ({
      ^bb0(%arg3: i16, %arg4: i16, %arg5: i16):
        %224 = "arith.constant"() <{value = 32 : index}> : () -> index
        %225 = "tensor.empty"() : () -> tensor<960xi32>
        %226 = "tensor.unpack"(%55, %225, %224) <{inner_dims_pos = array<i64: 0>, outer_dims_perm = array<i64: 0>, static_inner_tiles = array<i64: -9223372036854775808>}> : (tensor<30x32xi32>, tensor<960xi32>, index) -> tensor<960xi32>
        %227 = "affine.vector_load"(%72, %44, %143) <{map = affine_map<(d0, d1) -> (d0, d1)>}> : (memref<30x32xi32>, index, index) -> vector<3xi32>
        %228 = "index.xor"(%29, %42) : (index, index) -> index
        %229 = "arith.negf"(%140) <{fastmath = #arith.fastmath<none>}> : (f32) -> f32
        %230 = "bufferization.clone"(%arg1) : (memref<25xi64>) -> memref<25xi64>
        "bufferization.dealloc_tensor"(%63) : (tensor<30x32xf32>) -> ()
        %231 = "arith.andi"(%6, %arg5) : (i16, i16) -> i16
        %232 = "vector.broadcast"(%180) : (f32) -> vector<30xf32>
        %233 = "vector.broadcast"(%181) : (i1) -> vector<30xi1>
        "vector.compressstore"(%74, %16, %233, %232) : (memref<?xf32>, index, vector<30xi1>, vector<30xf32>) -> ()
        %234 = "vector.broadcast"(%146) : (i1) -> vector<32xi1>
        %235:2 = "vector.scan"(%145, %234) <{inclusive = true, kind = #vector.kind<xor>, reduction_dim = 0 : i64}> : (vector<22x32xi1>, vector<32xi1>) -> (vector<22x32xi1>, vector<32xi1>)
        %236 = "math.copysign"(%163, %115) <{fastmath = #arith.fastmath<none>}> : (f16, f16) -> f16
        %237 = "index.and"(%19, %39) : (index, index) -> index
        %238 = "vector.transpose"(%89) <{transp = [0]}> : (vector<2xi32>) -> vector<2xi32>
        %239 = "arith.andi"(%2, %2) : (i64, i64) -> i64
        %240 = "vector.matrix_multiply"(%89, %227) <{lhs_columns = 1 : i32, lhs_rows = 2 : i32, rhs_columns = 3 : i32}> : (vector<2xi32>, vector<3xi32>) -> vector<6xi32>
        %241 = "memref.alloc"() <{operandSegmentSizes = array<i32: 0, 0>}> : () -> memref<25x30x32x30xi1>
        "linalg.broadcast"(%62, %241) <{dimensions = array<i64: 3>}> ({
        ^bb0(%arg6: i1, %arg7: i1):
          "linalg.yield"(%arg6) : (i1) -> ()
        }) : (tensor<25x30x32xi1>, memref<25x30x32x30xi1>) -> ()
        %242 = "arith.shrui"(%116, %162) : (i1, i1) -> i1
        %243 = "tensor.dim"(%52, %16) : (tensor<?x?x32xf16>, index) -> index
        %244 = "tensor.collapse_shape"(%57) <{reassociation = [[0, 1], [2]]}> : (tensor<?x?x?xf32>) -> tensor<?x?xf32>
        %245 = "tensor.expand_shape"(%53) <{reassociation = [[0], [1], [2, 3]]}> : (tensor<25x30x32xi32>) -> tensor<25x30x32x1xi32>
        %246 = "vector.broadcast"(%13) : (i32) -> vector<6x6xi32>
        %247 = "vector.outerproduct"(%240, %240, %246) <{kind = #vector.kind<minsi>}> : (vector<6xi32>, vector<6xi32>, vector<6x6xi32>) -> vector<6x6xi32>
        %248 = "tensor.cast"(%56) : (tensor<25x30x32xi64>) -> tensor<?x?x?xi64>
        %249 = "vector.shuffle"(%240, %89) <{mask = [0, 1, 2]}> : (vector<6xi32>, vector<2xi32>) -> vector<3xi32>
        %250 = "arith.andi"(%146, %146) : (i1, i1) -> i1
        %251 = "tensor.empty"() : () -> tensor<960xi16>
        %252 = "tensor.unpack"(%142, %251, %224) <{inner_dims_pos = array<i64: 0>, outer_dims_perm = array<i64: 0>, static_inner_tiles = array<i64: -9223372036854775808>}> : (tensor<30x32xi16>, tensor<960xi16>, index) -> tensor<960xi16>
        %253 = "affine.load"(%70, %22, %23) <{map = affine_map<(d0, d1) -> (d0, d1)>}> : (memref<?x?xi64>, index, index) -> i64
        %254 = "tensor.expand_shape"(%63) <{reassociation = [[0], [1, 2]]}> : (tensor<30x32xf32>) -> tensor<30x32x1xf32>
        %255 = "arith.cmpf"(%117, %161) <{predicate = 3 : i64}> : (f16, f16) -> i1
        %256 = "tensor.dim"(%55, %17) : (tensor<30x32xi32>, index) -> index
        %257 = "vector.splat"(%21) : (index) -> vector<32x3xindex>
        %258 = "arith.addi"(%158, %106) : (i16, i16) -> i16
        %259 = "math.fma"(%117, %150, %93) <{fastmath = #arith.fastmath<none>}> : (f16, f16, f16) -> f16
        %260 = "arith.andi"(%253, %3) : (i64, i64) -> i64
        "linalg.yield"(%106) : (i16) -> ()
      }) : (tensor<30x32xi16>, tensor<30x32xi16>, memref<30x32xi16>, tensor<30x32xi16>) -> tensor<30x32xi16>
      %219 = "vector.transfer_read"(%52, %34, %80, %16, %125) <{operandSegmentSizes = array<i32: 1, 3, 1, 0>, permutation_map = affine_map<(d0, d1, d2) -> (d2)>}> : (tensor<?x?x32xf16>, index, index, index, f16) -> vector<30xf16>
      "memref.assume_alignment"(%79) <{alignment = 2 : i32}> : (memref<?xi1>) -> ()
      %220 = "tensor.empty"(%39) : (index) -> tensor<?x32x3xi64>
      %221 = "linalg.broadcast"(%50, %220) <{dimensions = array<i64: 2>}> ({
      ^bb0(%arg3: i64, %arg4: i64):
        "linalg.yield"(%arg3) : (i64) -> ()
      }) : (tensor<?x32xi64>, tensor<?x32x3xi64>) -> tensor<?x32x3xi64>
      %222 = "arith.shrsi"(%106, %4) : (i16, i16) -> i16
      %223 = "vector.insertelement"(%5, %89, %24) : (i32, vector<2xi32>, index) -> vector<2xi32>
      "scf.yield"() : () -> ()
    }, {
      %206 = "vector.create_mask"(%36, %19, %80) : (index, index, index) -> vector<25x30x32xi1>
      %207 = "tensor.insert"(%116, %84, %22, %23, %21) : (i1, tensor<25x30x32xi1>, index, index, index) -> tensor<25x30x32xi1>
      "scf.execute_region"() ({
        %223 = "memref.alloca"(%22) <{operandSegmentSizes = array<i32: 1, 0>}> : (index) -> memref<?xi16>
        %224 = "index.ceildivs"(%35, %87) : (index, index) -> index
        %225 = "index.castu"(%44) : (index) -> i32
        %226 = "math.log10"(%1) <{fastmath = #arith.fastmath<none>}> : (f32) -> f32
        %227 = "index.castu"(%36) : (index) -> i32
        %228 = "bufferization.clone"(%72) : (memref<30x32xi32>) -> memref<30x32xi32>
        "affine.store"(%13, %65, %20) <{map = affine_map<(d0) -> (d0)>}> : (i32, memref<?xi32>, index) -> ()
        %229 = "vector.splat"(%174) : (i1) -> vector<32x3xi1>
        %230 = "arith.shrsi"(%174, %0) : (i1, i1) -> i1
        %231 = "linalg.copy"(%62, %62) <{operandSegmentSizes = array<i32: 1, 1>}> ({
        ^bb0(%arg3: i1, %arg4: i1):
          "linalg.yield"(%arg3) : (i1) -> ()
        }) : (tensor<25x30x32xi1>, tensor<25x30x32xi1>) -> tensor<25x30x32xi1>
        %232 = "vector.insertelement"(%5, %89, %27) : (i32, vector<2xi32>, index) -> vector<2xi32>
        %233 = "memref.cast"(%128) : (memref<32x3xi16>) -> memref<?x?xi16>
        %234 = "math.log1p"(%88) <{fastmath = #arith.fastmath<none>}> : (f16) -> f16
        %235 = "math.cttz"(%55) : (tensor<30x32xi32>) -> tensor<30x32xi32>
        %236 = "linalg.copy"(%171, %58) <{operandSegmentSizes = array<i32: 1, 1>}> ({
        ^bb0(%arg3: f16, %arg4: f16):
          "linalg.yield"(%arg3) : (f16) -> ()
        }) : (tensor<?xf16>, tensor<?xf16>) -> tensor<?xf16>
        %237 = "vector.load"(%67, %21, %30) : (memref<30x32xi16>, index, index) -> vector<25xi16>
        "scf.yield"() : () -> ()
      }) : () -> ()
      %208 = "arith.divf"(%7, %140) <{fastmath = #arith.fastmath<none>}> : (f32, f32) -> f32
      %209 = "index.bool.constant"() <{value = false}> : () -> i1
      %210 = "bufferization.clone"(%109) : (memref<32x30xi16>) -> memref<32x30xi16>
      %211 = "math.powf"(%99, %15) <{fastmath = #arith.fastmath<none>}> : (f16, f16) -> f16
      %212 = "memref.cast"(%65) : (memref<?xi32>) -> memref<30xi32>
      %213 = "vector.broadcast"(%19) : (index) -> vector<30xindex>
      %214 = "vector.broadcast"(%174) : (i1) -> vector<30xi1>
      %215 = "vector.broadcast"(%4) : (i16) -> vector<30xi16>
      "vector.scatter"(%67, %31, %34, %213, %214, %215) : (memref<30x32xi16>, index, index, vector<30xindex>, vector<30xi1>, vector<30xi16>) -> ()
      %216 = "tensor.insert"(%119, %48, %33, %18) : (i16, tensor<32x3xi16>, index, index) -> tensor<32x3xi16>
      %217 = "vector.splat"(%95) : (i1) -> vector<30x32xi1>
      %218 = "affine.vector_load"(%74, %118) <{map = affine_map<(d0) -> (d0)>}> : (memref<?xf32>, index) -> vector<3xf32>
      %219 = "vector.maskedload"(%71, %41, %28, %121, %121) : (memref<30x32xi1>, index, index, vector<25xi1>, vector<25xi1>) -> vector<25xi1>
      %220 = "arith.mulf"(%115, %141) <{fastmath = #arith.fastmath<none>}> : (f16, f16) -> f16
      %221 = "arith.remf"(%163, %115) <{fastmath = #arith.fastmath<none>}> : (f16, f16) -> f16
      %222 = "index.floordivs"(%31, %40) : (index, index) -> index
      "scf.yield"() : () -> ()
    }, {
      %206 = "memref.realloc"(%74) : (memref<?xf32>) -> memref<25xf32>
      %207 = "vector.broadcast"(%170) : (i1) -> vector<32xi1>
      %208 = "vector.multi_reduction"(%107, %207) <{kind = #vector.kind<maxsi>, reduction_dims = [0]}> : (vector<30x32xi1>, vector<32xi1>) -> vector<32xi1>
      %209 = "index.shrs"(%arg0, %27) : (index, index) -> index
      %210 = "math.exp2"(%161) <{fastmath = #arith.fastmath<none>}> : (f16) -> f16
      %211 = "vector.matrix_multiply"(%207, %207) <{lhs_columns = 32 : i32, lhs_rows = 1 : i32, rhs_columns = 1 : i32}> : (vector<32xi1>, vector<32xi1>) -> vector<1xi1>
      %212 = "index.casts"(%46) : (index) -> i32
      %213 = "arith.addi"(%100, %119) : (i16, i16) -> i16
      %214 = "index.mul"(%24, %37) : (index, index) -> index
      %215 = "scf.while"(%63) ({
      ^bb0(%arg3: tensor<30x32xf32>):
        %223 = "bufferization.to_tensor"(%69) : (memref<?x?xi64>) -> tensor<?x?xi64>
        %224 = "arith.minui"(%116, %174) : (i1, i1) -> i1
        %225 = "math.tan"(%92) <{fastmath = #arith.fastmath<none>}> : (f16) -> f16
        %226 = "index.mul"(%34, %43) : (index, index) -> index
        %227 = "math.log"(%150) <{fastmath = #arith.fastmath<none>}> : (f16) -> f16
        %228 = "vector.extract"(%145) <{static_position = array<i64: 13>}> : (vector<22x32xi1>) -> vector<32xi1>
        %229 = "memref.realloc"(%arg2) : (memref<?xi32>) -> memref<32xi32>
        %230 = "math.tan"(%153) <{fastmath = #arith.fastmath<none>}> : (f32) -> f32
        "scf.condition"(%134, %63) : (i1, tensor<30x32xf32>) -> ()
      }, {
      ^bb0(%arg3: tensor<30x32xf32>):
        %223 = "tensor.empty"() : () -> tensor<30x30xi16>
        %224 = "linalg.matmul"(%142, %109, %223) <{operandSegmentSizes = array<i32: 2, 1>}> ({
        ^bb0(%arg4: i16, %arg5: i16, %arg6: i16):
          %242 = "arith.muli"(%arg4, %arg5) : (i16, i16) -> i16
          %243 = "arith.addi"(%arg6, %242) : (i16, i16) -> i16
          "linalg.yield"(%243) : (i16) -> ()
        }) {linalg.memoized_indexing_maps = [affine_map<(d0, d1, d2) -> (d0, d2)>, affine_map<(d0, d1, d2) -> (d2, d1)>, affine_map<(d0, d1, d2) -> (d0, d1)>]} : (tensor<30x32xi16>, memref<32x30xi16>, tensor<30x30xi16>) -> tensor<30x30xi16>
        %225 = "math.atan"(%60) <{fastmath = #arith.fastmath<none>}> : (tensor<?x?xf16>) -> tensor<?x?xf16>
        %226 = "memref.alloc"() <{operandSegmentSizes = array<i32: 0, 0>}> : () -> memref<25xi1>
        %227 = "tensor.empty"() : () -> tensor<i1>
        %228 = "linalg.dot"(%154, %226, %227) <{operandSegmentSizes = array<i32: 2, 1>}> ({
        ^bb0(%arg4: i1, %arg5: i1, %arg6: i1):
          %242 = "arith.andi"(%arg4, %arg5) : (i1, i1) -> i1
          %243 = "arith.ori"(%arg6, %242) : (i1, i1) -> i1
          "linalg.yield"(%243) : (i1) -> ()
        }) {linalg.memoized_indexing_maps = [affine_map<(d0) -> (d0)>, affine_map<(d0) -> (d0)>, affine_map<(d0) -> ()>]} : (tensor<25xi1>, memref<25xi1>, tensor<i1>) -> tensor<i1>
        %229 = "math.round"(%141) <{fastmath = #arith.fastmath<none>}> : (f16) -> f16
        %230 = "math.log10"(%57) <{fastmath = #arith.fastmath<none>}> : (tensor<?x?x?xf32>) -> tensor<?x?x?xf32>
        %231 = "index.add"(%43, %40) : (index, index) -> index
        %232 = "index.or"(%36, %28) : (index, index) -> index
        %233 = "tensor.cast"(%56) : (tensor<25x30x32xi64>) -> tensor<?x?x?xi64>
        %234 = "memref.load"(%66, %16, %30) <{nontemporal = false}> : (memref<?x32xi1>, index, index) -> i1
        %235 = "vector.flat_transpose"(%89) <{columns = 1 : i32, rows = 2 : i32}> : (vector<2xi32>) -> vector<2xi32>
        %236 = "index.and"(%132, %80) : (index, index) -> index
        %237 = "tensor.expand_shape"(%63) <{reassociation = [[0], [1, 2]]}> : (tensor<30x32xf32>) -> tensor<30x32x1xf32>
        %238 = "vector.insert"(%95, %121) <{static_position = array<i64: 16>}> : (i1, vector<25xi1>) -> vector<25xi1>
        %239 = "math.round"(%85) <{fastmath = #arith.fastmath<none>}> : (f16) -> f16
        %240 = "arith.minui"(%119, %4) : (i16, i16) -> i16
        %241 = "arith.andi"(%116, %111) : (i1, i1) -> i1
        "scf.yield"(%63) : (tensor<30x32xf32>) -> ()
      }) : (tensor<30x32xf32>) -> tensor<30x32xf32>
      %216 = "vector.insertelement"(%170, %211, %41) : (i1, vector<1xi1>, index) -> vector<1xi1>
      %217 = "tensor.empty"(%30) : (index) -> tensor<?x30x32xi32>
      %218 = "linalg.map"(%49, %217) ({
      ^bb0(%arg3: i32):
        %223 = "arith.xori"(%119, %4) : (i16, i16) -> i16
        %224 = "memref.alloc"(%20) <{operandSegmentSizes = array<i32: 1, 0>}> : (index) -> memref<?xf16>
        %225 = "index.sizeof"() : () -> index
        %226 = "tensor.collapse_shape"(%48) <{reassociation = [[0, 1]]}> : (tensor<32x3xi16>) -> tensor<96xi16>
        %227 = "tensor.splat"(%177) : (i32) -> tensor<32x3xi32>
        %228 = "bufferization.clone"(%72) : (memref<30x32xi32>) -> memref<30x32xi32>
        %229 = "vector.flat_transpose"(%207) <{columns = 8 : i32, rows = 4 : i32}> : (vector<32xi1>) -> vector<32xi1>
        %230 = "arith.mulf"(%173, %150) <{fastmath = #arith.fastmath<none>}> : (f16, f16) -> f16
        %231 = "memref.realloc"(%74) : (memref<?xf32>) -> memref<3xf32>
        %232 = "arith.andi"(%162, %9) : (i1, i1) -> i1
        %233 = "math.log"(%52) <{fastmath = #arith.fastmath<none>}> : (tensor<?x?x32xf16>) -> tensor<?x?x32xf16>
        %234 = "arith.divf"(%99, %125) <{fastmath = #arith.fastmath<none>}> : (f16, f16) -> f16
        %235 = "arith.addf"(%88, %173) <{fastmath = #arith.fastmath<none>}> : (f16, f16) -> f16
        %236 = "math.powf"(%63, %63) <{fastmath = #arith.fastmath<none>}> : (tensor<30x32xf32>, tensor<30x32xf32>) -> tensor<30x32xf32>
        %237 = "memref.alloca"() <{operandSegmentSizes = array<i32: 0, 0>}> : () -> memref<32x3xi64>
        %238 = "tensor.extract"(%62, %21, %33, %17) : (tensor<25x30x32xi1>, index, index, index) -> i1
        %239 = "arith.ceildivsi"(%147, %158) : (i16, i16) -> i16
        %240 = "tensor.expand_shape"(%62) <{reassociation = [[0], [1], [2, 3]]}> : (tensor<25x30x32xi1>) -> tensor<25x30x32x1xi1>
        %241 = "arith.andi"(%2, %3) : (i64, i64) -> i64
        %242 = "vector.transpose"(%121) <{transp = [0]}> : (vector<25xi1>) -> vector<25xi1>
        %243 = "memref.alloc"() <{operandSegmentSizes = array<i32: 0, 0>}> : () -> memref<25x30x32xf16>
        %244 = "vector.insertelement"(%113, %229, %160) : (i1, vector<32xi1>, index) -> vector<32xi1>
        %245 = "arith.minui"(%10, %158) : (i16, i16) -> i16
        %246 = "index.add"(%105, %32) : (index, index) -> index
        %247 = "memref.realloc"(%arg2) : (memref<?xi32>) -> memref<3xi32>
        %248 = "math.powf"(%85, %99) <{fastmath = #arith.fastmath<none>}> : (f16, f16) -> f16
        %249 = "index.castu"(%arg3) : (i32) -> index
        %250 = "vector.insertelement"(%177, %89, %40) : (i32, vector<2xi32>, index) -> vector<2xi32>
        "memref.store"(%144, %77, %16, %16, %16) <{nontemporal = false}> : (f16, memref<?x?x?xf16>, index, index, index) -> ()
        %251 = "vector.matrix_multiply"(%121, %207) <{lhs_columns = 1 : i32, lhs_rows = 25 : i32, rhs_columns = 32 : i32}> : (vector<25xi1>, vector<32xi1>) -> vector<800xi1>
        %252 = "affine.vector_load"(%77, %33, %38, %41) <{map = affine_map<(d0, d1, d2) -> (d0, d1, d2)>}> : (memref<?x?x?xf16>, index, index, index) -> vector<32xf16>
        %253 = "vector.transpose"(%107) <{transp = [0, 1]}> : (vector<30x32xi1>) -> vector<30x32xi1>
        "linalg.yield"(%5) : (i32) -> ()
      }) : (tensor<?x30x32xi32>, tensor<?x30x32xi32>) -> tensor<?x30x32xi32>
      %219 = "arith.andi"(%162, %174) : (i1, i1) -> i1
      %220 = "index.maxs"(%42, %132) : (index, index) -> index
      "affine.for"() <{lowerBoundMap = affine_map<() -> (0)>, operandSegmentSizes = array<i32: 0, 0, 0>, step = 1 : index, upperBoundMap = affine_map<() -> (124)>}> ({
      ^bb0(%arg3: index):
        "affine.yield"() : () -> ()
      }) : () -> ()
      %221 = "index.or"(%35, %30) : (index, index) -> index
      %222 = "affine.vector_load"(%69, %23, %25) <{map = affine_map<(d0, d1) -> (d0, d1)>}> : (memref<?x?xi64>, index, index) -> vector<3xi64>
      "scf.yield"() : () -> ()
    }, {
      %206 = "math.round"(%120) <{fastmath = #arith.fastmath<none>}> : (f16) -> f16
      %207 = "math.log"(%8) <{fastmath = #arith.fastmath<none>}> : (f16) -> f16
      %208 = "tensor.dim"(%61, %17) : (tensor<?x30x32xf16>, index) -> index
      %209 = "arith.cmpi"(%13, %14) <{predicate = 8 : i64}> : (i32, i32) -> i1
      %210 = "arith.subi"(%116, %134) : (i1, i1) -> i1
      %211 = "arith.xori"(%106, %6) : (i16, i16) -> i16
      %212 = "arith.cmpi"(%2, %3) <{predicate = 5 : i64}> : (i64, i64) -> i1
      %213 = "vector.broadcast"(%0) : (i1) -> vector<2xi1>
      "vector.compressstore"(%65, %16, %213, %89) : (memref<?xi32>, index, vector<2xi1>, vector<2xi32>) -> ()
      %214 = "arith.shrsi"(%174, %134) : (i1, i1) -> i1
      %215 = "bufferization.to_tensor"(%67) : (memref<30x32xi16>) -> tensor<30x32xi16>
      %216 = "vector.broadcast"(%116) : (i1) -> vector<32xi1>
      %217 = "vector.insert"(%216, %145) <{static_position = array<i64: 3>}> : (vector<32xi1>, vector<22x32xi1>) -> vector<22x32xi1>
      %218 = "math.atan2"(%85, %150) <{fastmath = #arith.fastmath<none>}> : (f16, f16) -> f16
      %219 = "memref.load"(%71, %24, %29) <{nontemporal = false}> : (memref<30x32xi1>, index, index) -> i1
      %220 = "arith.cmpf"(%125, %99) <{predicate = 11 : i64}> : (f16, f16) -> i1
      %221 = "vector.load"(%76, %16, %16) : (memref<?x?xi1>, index, index) -> vector<25xi1>
      %222 = "index.sizeof"() : () -> index
      "scf.yield"() : () -> ()
    }, {
      %206 = "index.sizeof"() : () -> index
      %207 = "arith.xori"(%100, %119) : (i16, i16) -> i16
      %208 = "vector.mask"(%121) ({
        %225 = "vector.multi_reduction"(%121, %121) <{kind = #vector.kind<maxui>, reduction_dims = []}> : (vector<25xi1>, vector<25xi1>) -> vector<25xi1>
        "vector.yield"(%225) : (vector<25xi1>) -> ()
      }) : (vector<25xi1>) -> vector<25xi1>
      %209 = "math.tanh"(%120) <{fastmath = #arith.fastmath<none>}> : (f16) -> f16
      %210 = "tensor.empty"() : () -> tensor<96xi16>
      %211 = "tensor.unpack"(%48, %210, %19) <{inner_dims_pos = array<i64: 0>, outer_dims_perm = array<i64: 0>, static_inner_tiles = array<i64: -9223372036854775808>}> : (tensor<32x3xi16>, tensor<96xi16>, index) -> tensor<96xi16>
      %212 = "math.fpowi"(%180, %14) <{fastmath = #arith.fastmath<none>}> : (f32, i32) -> f32
      %213 = "math.absf"(%163) <{fastmath = #arith.fastmath<none>}> : (f16) -> f16
      %214 = "affine.max"(%206, %36, %87, %43) <{map = affine_map<(d0, d1, d2, d3) -> (d1 + 16)>}> : (index, index, index, index) -> index
      %215 = "arith.negf"(%163) <{fastmath = #arith.fastmath<none>}> : (f16) -> f16
      %216 = "index.maxs"(%214, %24) : (index, index) -> index
      %217 = "vector.transfer_read"(%50, %35, %25, %3) <{operandSegmentSizes = array<i32: 1, 2, 1, 0>, permutation_map = affine_map<(d0, d1) -> ()>}> : (tensor<?x32xi64>, index, index, i64) -> vector<i64>
      %218 = "memref.realloc"(%65) : (memref<?xi32>) -> memref<3xi32>
      %219 = "tensor.empty"() : () -> tensor<30x32xi16>
      %220 = "math.floor"(%91) <{fastmath = #arith.fastmath<none>}> : (f32) -> f32
      %221 = "memref.alloc"(%47) <{operandSegmentSizes = array<i32: 1, 0>}> : (index) -> memref<3x?xi1>
      %222 = "tensor.empty"() : () -> tensor<3xi1>
      %223 = "linalg.generic"(%221, %222) <{indexing_maps = [affine_map<(d0, d1) -> (d0, d1)>, affine_map<(d0, d1) -> (d0)>], iterator_types = [#linalg.iterator_type<parallel>, #linalg.iterator_type<reduction>], operandSegmentSizes = array<i32: 1, 1>}> ({
      ^bb0(%arg3: i1, %arg4: i1):
        %225 = "arith.mulf"(%94, %153) <{fastmath = #arith.fastmath<none>}> : (f32, f32) -> f32
        "linalg.yield"(%arg3) : (i1) -> ()
      }) : (memref<3x?xi1>, tensor<3xi1>) -> tensor<3xi1>
      %224 = "arith.divui"(%162, %134) : (i1, i1) -> i1
      "scf.yield"() : () -> ()
    }) : (index) -> ()
    %188 = "math.copysign"(%99, %144) <{fastmath = #arith.fastmath<none>}> : (f16, f16) -> f16
    %189 = "index.mul"(%26, %25) : (index, index) -> index
    %190 = "math.cttz"(%111) : (i1) -> i1
    %191 = "spirv.LogicalNotEqual"(%174, %170) : (i1, i1) -> i1
    %192 = "spirv.GL.FMix"(%7, %153, %140) : (f32, f32, f32) -> f32
    %193 = "arith.constant"() <{value = 1330585553 : i64}> : () -> i64
    %194 = "arith.andi"(%147, %6) : (i16, i16) -> i16
    %195 = "spirv.INotEqual"(%89, %89) : (vector<2xi32>, vector<2xi32>) -> vector<2xi1>
    %196 = "spirv.GL.FMax"(%91, %133) : (f32, f32) -> f32
    %197 = "arith.cmpi"(%158, %119) <{predicate = 2 : i64}> : (i16, i16) -> i1
    %198 = "spirv.CL.fmin"(%93, %117) : (f16, f16) -> f16
    %199 = "spirv.GL.FMix"(%192, %153, %124) : (f32, f32, f32) -> f32
    %200 = "math.powf"(%125, %88) <{fastmath = #arith.fastmath<none>}> : (f16, f16) -> f16
    %201 = "spirv.GL.SMin"(%10, %158) : (i16, i16) -> i16
    %202 = "arith.mulf"(%88, %120) <{fastmath = #arith.fastmath<none>}> : (f16, f16) -> f16
    %203 = "spirv.BitwiseXor"(%89, %89) : (vector<2xi32>, vector<2xi32>) -> vector<2xi32>
    "scf.index_switch"(%20) <{cases = array<i64: 1, 2>}> ({
      %206 = "vector.insert"(%113, %121) <{static_position = array<i64: 7>}> : (i1, vector<25xi1>) -> vector<25xi1>
      %207 = "math.powf"(%120, %139) <{fastmath = #arith.fastmath<none>}> : (f16, f16) -> f16
      %208 = "index.add"(%160, %45) : (index, index) -> index
      %209 = "arith.minui"(%147, %156) : (i16, i16) -> i16
      %210 = "math.rsqrt"(%59) <{fastmath = #arith.fastmath<none>}> : (tensor<?xf16>) -> tensor<?xf16>
      %211 = "arith.divsi"(%116, %111) : (i1, i1) -> i1
      %212 = "arith.cmpi"(%10, %119) <{predicate = 7 : i64}> : (i16, i16) -> i1
      %213 = "math.copysign"(%163, %141) <{fastmath = #arith.fastmath<none>}> : (f16, f16) -> f16
      "scf.execute_region"() ({
        %224 = "vector.load"(%74, %16) : (memref<?xf32>, index) -> vector<32x3xf32>
        %225 = "index.ceildivu"(%40, %47) : (index, index) -> index
        %226 = "index.maxs"(%45, %80) : (index, index) -> index
        %227 = "vector.splat"(%85) : (f16) -> vector<32x3xf16>
        %228 = "bufferization.to_tensor"(%73) : (memref<?x?x32xf16>) -> tensor<?x?x32xf16>
        %229 = "memref.alloc"(%46, %226) <{operandSegmentSizes = array<i32: 2, 0>}> : (index, index) -> memref<?x?xi64>
        %230 = "tensor.cast"(%59) : (tensor<?xf16>) -> tensor<3xf16>
        %231 = "memref.cast"(%70) : (memref<?x?xi64>) -> memref<3x32xi64>
        %232 = "tensor.empty"() : () -> tensor<32x3xi32>
        %233 = "tensor.empty"() : () -> tensor<30x3xi32>
        %234 = "linalg.matmul"(%72, %232, %233) <{operandSegmentSizes = array<i32: 2, 1>}> ({
        ^bb0(%arg3: i32, %arg4: i32, %arg5: i32):
          %240 = "arith.muli"(%arg3, %arg4) : (i32, i32) -> i32
          %241 = "arith.addi"(%arg5, %240) : (i32, i32) -> i32
          "linalg.yield"(%241) : (i32) -> ()
        }) {linalg.memoized_indexing_maps = [affine_map<(d0, d1, d2) -> (d0, d2)>, affine_map<(d0, d1, d2) -> (d2, d1)>, affine_map<(d0, d1, d2) -> (d0, d1)>]} : (memref<30x32xi32>, tensor<32x3xi32>, tensor<30x3xi32>) -> tensor<30x3xi32>
        %235 = "math.round"(%93) <{fastmath = #arith.fastmath<none>}> : (f16) -> f16
        %236 = "bufferization.clone"(%72) : (memref<30x32xi32>) -> memref<30x32xi32>
        "vector.print"(%89) <{punctuation = #vector.punctuation<newline>}> : (vector<2xi32>) -> ()
        "memref.assume_alignment"(%67) <{alignment = 8 : i32}> : (memref<30x32xi16>) -> ()
        %237 = "bufferization.clone"(%128) : (memref<32x3xi16>) -> memref<32x3xi16>
        %238 = "memref.atomic_rmw"(%119, %128, %39, %18) <{kind = 8 : i64}> : (i16, memref<32x3xi16>, index, index) -> i16
        %239 = "math.tanh"(%161) <{fastmath = #arith.fastmath<none>}> : (f16) -> f16
        "scf.yield"() : () -> ()
      }) : () -> ()
      %214 = "arith.xori"(%13, %177) : (i32, i32) -> i32
      %215 = "index.add"(%18, %25) : (index, index) -> index
      %216 = "tensor.empty"() : () -> tensor<3x30xi16>
      %217 = "tensor.empty"() : () -> tensor<32x30xi16>
      %218 = "linalg.matmul"(%48, %216, %217) <{operandSegmentSizes = array<i32: 2, 1>}> ({
      ^bb0(%arg3: i16, %arg4: i16, %arg5: i16):
        %224 = "arith.muli"(%arg3, %arg4) : (i16, i16) -> i16
        %225 = "arith.addi"(%arg5, %224) : (i16, i16) -> i16
        "linalg.yield"(%225) : (i16) -> ()
      }) {linalg.memoized_indexing_maps = [affine_map<(d0, d1, d2) -> (d0, d2)>, affine_map<(d0, d1, d2) -> (d2, d1)>, affine_map<(d0, d1, d2) -> (d0, d1)>]} : (tensor<32x3xi16>, tensor<3x30xi16>, tensor<32x30xi16>) -> tensor<32x30xi16>
      %219 = "affine.max"(%87) <{map = affine_map<(d0) -> ((d0 floordiv 4) floordiv 128)>}> : (index) -> index
      %220 = "scf.if"(%82) ({
        %224 = "arith.minui"(%95, %116) : (i1, i1) -> i1
        %225 = "tensor.empty"() : () -> tensor<30x32x32xi32>
        %226 = "linalg.broadcast"(%55, %225) <{dimensions = array<i64: 2>}> ({
        ^bb0(%arg3: i32, %arg4: i32):
          "linalg.yield"(%arg3) : (i32) -> ()
        }) : (tensor<30x32xi32>, tensor<30x32x32xi32>) -> tensor<30x32x32xi32>
        %227 = "arith.floordivsi"(%11, %2) : (i64, i64) -> i64
        %228 = "math.exp"(%59) <{fastmath = #arith.fastmath<none>}> : (tensor<?xf16>) -> tensor<?xf16>
        %229 = "memref.load"(%arg1, %37) <{nontemporal = false}> : (memref<25xi64>, index) -> i64
        %230 = "arith.shrsi"(%10, %119) : (i16, i16) -> i16
        %231 = "arith.andi"(%113, %9) : (i1, i1) -> i1
        %232 = "math.exp2"(%58) <{fastmath = #arith.fastmath<none>}> : (tensor<?xf16>) -> tensor<?xf16>
        %233 = "memref.alloc"() <{operandSegmentSizes = array<i32: 0, 0>}> : () -> memref<30x32xi64>
        "scf.yield"(%233) : (memref<30x32xi64>) -> ()
      }, {
        %224 = "vector.insertelement"(%5, %89, %25) : (i32, vector<2xi32>, index) -> vector<2xi32>
        %225 = "index.add"(%105, %189) : (index, index) -> index
        %226 = "math.absf"(%88) <{fastmath = #arith.fastmath<none>}> : (f16) -> f16
        %227 = "bufferization.clone"(%128) : (memref<32x3xi16>) -> memref<32x3xi16>
        %228 = "math.tan"(%60) <{fastmath = #arith.fastmath<none>}> : (tensor<?x?xf16>) -> tensor<?x?xf16>
        %229 = "memref.alloc"() <{operandSegmentSizes = array<i32: 0, 0>}> : () -> memref<25xi1>
        %230 = "tensor.empty"() : () -> tensor<i1>
        %231 = "linalg.dot"(%154, %229, %230) <{operandSegmentSizes = array<i32: 2, 1>}> ({
        ^bb0(%arg3: i1, %arg4: i1, %arg5: i1):
          %235 = "arith.andi"(%arg3, %arg4) : (i1, i1) -> i1
          %236 = "arith.ori"(%arg5, %235) : (i1, i1) -> i1
          "linalg.yield"(%236) : (i1) -> ()
        }) {linalg.memoized_indexing_maps = [affine_map<(d0) -> (d0)>, affine_map<(d0) -> (d0)>, affine_map<(d0) -> ()>]} : (tensor<25xi1>, memref<25xi1>, tensor<i1>) -> tensor<i1>
        %232 = "arith.mulf"(%139, %88) <{fastmath = #arith.fastmath<none>}> : (f16, f16) -> f16
        %233 = "bufferization.clone"(%78) : (memref<25x30x32xi1>) -> memref<25x30x32xi1>
        %234 = "memref.alloc"() <{operandSegmentSizes = array<i32: 0, 0>}> : () -> memref<30x32xi64>
        "scf.yield"(%234) : (memref<30x32xi64>) -> ()
      }) : (i1) -> memref<30x32xi64>
      %221 = "tensor.generate"(%29) ({
      ^bb0(%arg3: index, %arg4: index):
        %224 = "arith.minui"(%156, %158) : (i16, i16) -> i16
        %225 = "index.mul"(%18, %28) : (index, index) -> index
        %226 = "memref.alloc"() <{operandSegmentSizes = array<i32: 0, 0>}> : () -> memref<32x3xf16>
        %227 = "vector.broadcast"(%15) : (f16) -> vector<32x3xf16>
        %228 = "vector.broadcast"(%5) : (i32) -> vector<32x3xi32>
        %229 = "vector.gather"(%226, %143, %28, %228, %127, %227) : (memref<32x3xf16>, index, index, vector<32x3xi32>, vector<32x3xi1>, vector<32x3xf16>) -> vector<32x3xf16>
        %230 = "memref.realloc"(%79) : (memref<?xi1>) -> memref<3xi1>
        "tensor.yield"(%180) : (f32) -> ()
      }) : (index) -> tensor<?x3xf32>
      %222 = "memref.alloc"() <{operandSegmentSizes = array<i32: 0, 0>}> : () -> memref<f16>
      %223 = "linalg.generic"(%58, %222, %59, %59) <{indexing_maps = [affine_map<(d0) -> (d0)>, affine_map<(d0) -> ()>, affine_map<(d0) -> (d0)>, affine_map<(d0) -> (d0)>], iterator_types = [#linalg.iterator_type<parallel>], operandSegmentSizes = array<i32: 3, 1>}> ({
      ^bb0(%arg3: f16, %arg4: f16, %arg5: f16, %arg6: f16):
        %224 = "arith.remf"(%85, %120) <{fastmath = #arith.fastmath<none>}> : (f16, f16) -> f16
        "linalg.yield"(%arg3) : (f16) -> ()
      }) : (tensor<?xf16>, memref<f16>, tensor<?xf16>, tensor<?xf16>) -> tensor<?xf16>
      "scf.yield"() : () -> ()
    }, {
      %206 = "index.shl"(%41, %19) : (index, index) -> index
      %207 = "memref.load"(%65, %16) <{nontemporal = false}> : (memref<?xi32>, index) -> i32
      %208 = "tensor.empty"() : () -> tensor<32x32xi32>
      %209 = "linalg.matmul"(%55, %208, %55) <{operandSegmentSizes = array<i32: 2, 1>}> ({
      ^bb0(%arg3: i32, %arg4: i32, %arg5: i32):
        %224 = "arith.muli"(%arg3, %arg4) : (i32, i32) -> i32
        %225 = "arith.addi"(%arg5, %224) : (i32, i32) -> i32
        "linalg.yield"(%225) : (i32) -> ()
      }) {linalg.memoized_indexing_maps = [affine_map<(d0, d1, d2) -> (d0, d2)>, affine_map<(d0, d1, d2) -> (d2, d1)>, affine_map<(d0, d1, d2) -> (d0, d1)>]} : (tensor<30x32xi32>, tensor<32x32xi32>, tensor<30x32xi32>) -> tensor<30x32xi32>
      %210 = "math.powf"(%199, %112) <{fastmath = #arith.fastmath<none>}> : (f32, f32) -> f32
      %211 = "index.floordivs"(%105, %35) : (index, index) -> index
      %212 = "arith.divui"(%4, %4) : (i16, i16) -> i16
      %213 = "tensor.expand_shape"(%53) <{reassociation = [[0], [1], [2, 3]]}> : (tensor<25x30x32xi32>) -> tensor<25x30x32x1xi32>
      "affine.for"() <{lowerBoundMap = affine_map<() -> (0)>, operandSegmentSizes = array<i32: 0, 0, 0>, step = 1 : index, upperBoundMap = affine_map<() -> (63)>}> ({
      ^bb0(%arg3: index):
        "affine.yield"() : () -> ()
      }) : () -> ()
      %214 = "vector.shuffle"(%89, %89) <{mask = [1, 3]}> : (vector<2xi32>, vector<2xi32>) -> vector<2xi32>
      %215 = "math.roundeven"(%91) <{fastmath = #arith.fastmath<none>}> : (f32) -> f32
      %216 = "bufferization.clone"(%72) : (memref<30x32xi32>) -> memref<30x32xi32>
      %217 = "math.log2"(%144) <{fastmath = #arith.fastmath<none>}> : (f16) -> f16
      %218 = "bufferization.clone"(%109) : (memref<32x30xi16>) -> memref<32x30xi16>
      %219 = "vector.bitcast"(%127) : (vector<32x3xi1>) -> vector<32x3xi1>
      %220 = "memref.alloc"(%211) <{operandSegmentSizes = array<i32: 1, 0>}> : (index) -> memref<?x3x3xi32>
      "linalg.broadcast"(%54, %220) <{dimensions = array<i64: 2>}> ({
      ^bb0(%arg3: i32, %arg4: i32):
        "linalg.yield"(%arg3) : (i32) -> ()
      }) : (tensor<?x3xi32>, memref<?x3x3xi32>) -> ()
      %221 = "vector.broadcast"(%94) : (f32) -> vector<3xf32>
      %222 = "vector.broadcast"(%146) : (i1) -> vector<3xi1>
      %223 = "vector.maskedload"(%74, %16, %222, %221) : (memref<?xf32>, index, vector<3xi1>, vector<3xf32>) -> vector<3xf32>
      "scf.yield"() : () -> ()
    }, {
      %206 = "vector.broadcast"(%9) : (i1) -> vector<3xi1>
      %207 = "vector.insert"(%206, %127) <{static_position = array<i64: 15>}> : (vector<3xi1>, vector<32x3xi1>) -> vector<32x3xi1>
      %208 = "math.log"(%94) <{fastmath = #arith.fastmath<none>}> : (f32) -> f32
      "affine.for"() <{lowerBoundMap = affine_map<() -> (0)>, operandSegmentSizes = array<i32: 0, 0, 0>, step = 1 : index, upperBoundMap = affine_map<() -> (49)>}> ({
      ^bb0(%arg3: index):
        "affine.yield"() : () -> ()
      }) : () -> ()
      %209 = "tensor.dim"(%57, %18) : (tensor<?x?x?xf32>, index) -> index
      %210 = "tensor.empty"() : () -> tensor<25xi1>
      %211 = "tensor.cast"(%49) : (tensor<?x30x32xi32>) -> tensor<30x30x32xi32>
      %212 = "vector.maskedload"(%78, %19, %42, %40, %206, %206) : (memref<25x30x32xi1>, index, index, index, vector<3xi1>, vector<3xi1>) -> vector<3xi1>
      %213 = "tensor.empty"() : () -> tensor<32x32xi32>
      %214 = "linalg.matmul"(%55, %213, %55) <{operandSegmentSizes = array<i32: 2, 1>}> ({
      ^bb0(%arg3: i32, %arg4: i32, %arg5: i32):
        %225 = "arith.muli"(%arg3, %arg4) : (i32, i32) -> i32
        %226 = "arith.addi"(%arg5, %225) : (i32, i32) -> i32
        "linalg.yield"(%226) : (i32) -> ()
      }) {linalg.memoized_indexing_maps = [affine_map<(d0, d1, d2) -> (d0, d2)>, affine_map<(d0, d1, d2) -> (d2, d1)>, affine_map<(d0, d1, d2) -> (d0, d1)>]} : (tensor<30x32xi32>, tensor<32x32xi32>, tensor<30x32xi32>) -> tensor<30x32xi32>
      %215 = "arith.remf"(%117, %139) <{fastmath = #arith.fastmath<none>}> : (f16, f16) -> f16
      %216 = "arith.subi"(%147, %158) : (i16, i16) -> i16
      %217 = "index.castu"(%181) : (i1) -> index
      %218 = "vector.broadcast"(%11) : (i64) -> vector<30xi64>
      %219 = "vector.broadcast"(%146) : (i1) -> vector<30xi1>
      %220 = "vector.maskedload"(%69, %16, %16, %219, %218) : (memref<?x?xi64>, index, index, vector<30xi1>, vector<30xi64>) -> vector<30xi64>
      %221 = "arith.addf"(%88, %117) <{fastmath = #arith.fastmath<none>}> : (f16, f16) -> f16
      %222 = "arith.mulf"(%192, %94) <{fastmath = #arith.fastmath<none>}> : (f32, f32) -> f32
      %223 = "index.and"(%38, %40) : (index, index) -> index
      %224 = "index.floordivs"(%35, %37) : (index, index) -> index
      "scf.yield"() : () -> ()
    }) : (index) -> ()
    %204 = "spirv.GL.Round"(%93) : (f16) -> f16
    "vector.print"(%89) <{punctuation = #vector.punctuation<newline>}> : (vector<2xi32>) -> ()
    "vector.print"(%107) <{punctuation = #vector.punctuation<newline>}> : (vector<30x32xi1>) -> ()
    "vector.print"(%121) <{punctuation = #vector.punctuation<newline>}> : (vector<25xi1>) -> ()
    "vector.print"(%127) <{punctuation = #vector.punctuation<newline>}> : (vector<32x3xi1>) -> ()
    "vector.print"(%145) <{punctuation = #vector.punctuation<newline>}> : (vector<22x32xi1>) -> ()
    "vector.print"(%0) <{punctuation = #vector.punctuation<newline>}> : (i1) -> ()
    "vector.print"(%1) <{punctuation = #vector.punctuation<newline>}> : (f32) -> ()
    "vector.print"(%2) <{punctuation = #vector.punctuation<newline>}> : (i64) -> ()
    "vector.print"(%3) <{punctuation = #vector.punctuation<newline>}> : (i64) -> ()
    "vector.print"(%4) <{punctuation = #vector.punctuation<newline>}> : (i16) -> ()
    "vector.print"(%5) <{punctuation = #vector.punctuation<newline>}> : (i32) -> ()
    "vector.print"(%6) <{punctuation = #vector.punctuation<newline>}> : (i16) -> ()
    "vector.print"(%7) <{punctuation = #vector.punctuation<newline>}> : (f32) -> ()
    "vector.print"(%8) <{punctuation = #vector.punctuation<newline>}> : (f16) -> ()
    "vector.print"(%9) <{punctuation = #vector.punctuation<newline>}> : (i1) -> ()
    "vector.print"(%10) <{punctuation = #vector.punctuation<newline>}> : (i16) -> ()
    "vector.print"(%11) <{punctuation = #vector.punctuation<newline>}> : (i64) -> ()
    "vector.print"(%12) <{punctuation = #vector.punctuation<newline>}> : (f16) -> ()
    "vector.print"(%13) <{punctuation = #vector.punctuation<newline>}> : (i32) -> ()
    "vector.print"(%14) <{punctuation = #vector.punctuation<newline>}> : (i32) -> ()
    "vector.print"(%15) <{punctuation = #vector.punctuation<newline>}> : (f16) -> ()
    "vector.print"(%82) <{punctuation = #vector.punctuation<newline>}> : (i1) -> ()
    "vector.print"(%85) <{punctuation = #vector.punctuation<newline>}> : (f16) -> ()
    "vector.print"(%88) <{punctuation = #vector.punctuation<newline>}> : (f16) -> ()
    "vector.print"(%91) <{punctuation = #vector.punctuation<newline>}> : (f32) -> ()
    "vector.print"(%92) <{punctuation = #vector.punctuation<newline>}> : (f16) -> ()
    "vector.print"(%93) <{punctuation = #vector.punctuation<newline>}> : (f16) -> ()
    "vector.print"(%94) <{punctuation = #vector.punctuation<newline>}> : (f32) -> ()
    "vector.print"(%95) <{punctuation = #vector.punctuation<newline>}> : (i1) -> ()
    "vector.print"(%99) <{punctuation = #vector.punctuation<newline>}> : (f16) -> ()
    "vector.print"(%100) <{punctuation = #vector.punctuation<newline>}> : (i16) -> ()
    "vector.print"(%106) <{punctuation = #vector.punctuation<newline>}> : (i16) -> ()
    "vector.print"(%111) <{punctuation = #vector.punctuation<newline>}> : (i1) -> ()
    "vector.print"(%112) <{punctuation = #vector.punctuation<newline>}> : (f32) -> ()
    "vector.print"(%113) <{punctuation = #vector.punctuation<newline>}> : (i1) -> ()
    "vector.print"(%115) <{punctuation = #vector.punctuation<newline>}> : (f16) -> ()
    "vector.print"(%116) <{punctuation = #vector.punctuation<newline>}> : (i1) -> ()
    "vector.print"(%117) <{punctuation = #vector.punctuation<newline>}> : (f16) -> ()
    "vector.print"(%119) <{punctuation = #vector.punctuation<newline>}> : (i16) -> ()
    "vector.print"(%120) <{punctuation = #vector.punctuation<newline>}> : (f16) -> ()
    "vector.print"(%124) <{punctuation = #vector.punctuation<newline>}> : (f32) -> ()
    "vector.print"(%125) <{punctuation = #vector.punctuation<newline>}> : (f16) -> ()
    "vector.print"(%133) <{punctuation = #vector.punctuation<newline>}> : (f32) -> ()
    "vector.print"(%134) <{punctuation = #vector.punctuation<newline>}> : (i1) -> ()
    "vector.print"(%139) <{punctuation = #vector.punctuation<newline>}> : (f16) -> ()
    "vector.print"(%140) <{punctuation = #vector.punctuation<newline>}> : (f32) -> ()
    "vector.print"(%141) <{punctuation = #vector.punctuation<newline>}> : (f16) -> ()
    "vector.print"(%144) <{punctuation = #vector.punctuation<newline>}> : (f16) -> ()
    "vector.print"(%146) <{punctuation = #vector.punctuation<newline>}> : (i1) -> ()
    "vector.print"(%147) <{punctuation = #vector.punctuation<newline>}> : (i16) -> ()
    "vector.print"(%150) <{punctuation = #vector.punctuation<newline>}> : (f16) -> ()
    "vector.print"(%153) <{punctuation = #vector.punctuation<newline>}> : (f32) -> ()
    "vector.print"(%156) <{punctuation = #vector.punctuation<newline>}> : (i16) -> ()
    "vector.print"(%158) <{punctuation = #vector.punctuation<newline>}> : (i16) -> ()
    "vector.print"(%161) <{punctuation = #vector.punctuation<newline>}> : (f16) -> ()
    "vector.print"(%162) <{punctuation = #vector.punctuation<newline>}> : (i1) -> ()
    "vector.print"(%163) <{punctuation = #vector.punctuation<newline>}> : (f16) -> ()
    "vector.print"(%170) <{punctuation = #vector.punctuation<newline>}> : (i1) -> ()
    "vector.print"(%173) <{punctuation = #vector.punctuation<newline>}> : (f16) -> ()
    "vector.print"(%174) <{punctuation = #vector.punctuation<newline>}> : (i1) -> ()
    "vector.print"(%177) <{punctuation = #vector.punctuation<newline>}> : (i32) -> ()
    "vector.print"(%180) <{punctuation = #vector.punctuation<newline>}> : (f32) -> ()
    "vector.print"(%181) <{punctuation = #vector.punctuation<newline>}> : (i1) -> ()
    "vector.print"(%187) <{punctuation = #vector.punctuation<newline>}> : (f16) -> ()
    "vector.print"(%191) <{punctuation = #vector.punctuation<newline>}> : (i1) -> ()
    "vector.print"(%192) <{punctuation = #vector.punctuation<newline>}> : (f32) -> ()
    "vector.print"(%196) <{punctuation = #vector.punctuation<newline>}> : (f32) -> ()
    "vector.print"(%198) <{punctuation = #vector.punctuation<newline>}> : (f16) -> ()
    "vector.print"(%199) <{punctuation = #vector.punctuation<newline>}> : (f32) -> ()
    "vector.print"(%201) <{punctuation = #vector.punctuation<newline>}> : (i16) -> ()
    "vector.print"(%204) <{punctuation = #vector.punctuation<newline>}> : (f16) -> ()
    %205 = "memref.alloc"() <{operandSegmentSizes = array<i32: 0, 0>}> : () -> memref<25x30x32xi64>
    "func.return"(%205) : (memref<25x30x32xi64>) -> ()
  }) : () -> ()
}) : () -> ()
