"builtin.module"() ({
  "func.func"() <{function_type = (memref<6x6xi64>, memref<5xf32>, memref<?xi32>) -> tensor<?x?xi64>, sym_name = "func1", sym_visibility = "nested"}> ({
  ^bb0(%arg0: memref<6x6xi64>, %arg1: memref<5xf32>, %arg2: memref<?xi32>):
    %0 = "arith.constant"() <{value = 116878384 : i32}> : () -> i32
    %1 = "arith.constant"() <{value = 2.11043392E+9 : f32}> : () -> f32
    %2 = "arith.constant"() <{value = 2.01912973E+9 : f32}> : () -> f32
    %3 = "arith.constant"() <{value = 1463974511 : i32}> : () -> i32
    %4 = "arith.constant"() <{value = 1511036385 : i64}> : () -> i64
    %5 = "arith.constant"() <{value = 2.563200e+04 : f16}> : () -> f16
    %6 = "arith.constant"() <{value = 343406417 : i32}> : () -> i32
    %7 = "arith.constant"() <{value = 29878 : i16}> : () -> i16
    %8 = "arith.constant"() <{value = true}> : () -> i1
    %9 = "arith.constant"() <{value = 9524 : i16}> : () -> i16
    %10 = "arith.constant"() <{value = 1.780800e+04 : f16}> : () -> f16
    %11 = "arith.constant"() <{value = true}> : () -> i1
    %12 = "arith.constant"() <{value = 2066966556 : i32}> : () -> i32
    %13 = "arith.constant"() <{value = -13838 : i16}> : () -> i16
    %14 = "arith.constant"() <{value = 2.612800e+04 : f16}> : () -> f16
    %15 = "arith.constant"() <{value = false}> : () -> i1
    %16 = "arith.constant"() <{value = 0 : index}> : () -> index
    %17 = "arith.constant"() <{value = 1 : index}> : () -> index
    %18 = "arith.constant"() <{value = 2 : index}> : () -> index
    %19 = "arith.constant"() <{value = 3 : index}> : () -> index
    %20 = "arith.constant"() <{value = 4 : index}> : () -> index
    %21 = "arith.constant"() <{value = 5 : index}> : () -> index
    %22 = "arith.constant"() <{value = 6 : index}> : () -> index
    %23 = "arith.constant"() <{value = 7 : index}> : () -> index
    %24 = "arith.constant"() <{value = 8 : index}> : () -> index
    %25 = "arith.constant"() <{value = 9 : index}> : () -> index
    %26 = "arith.constant"() <{value = 10 : index}> : () -> index
    %27 = "arith.constant"() <{value = 11 : index}> : () -> index
    %28 = "arith.constant"() <{value = 12 : index}> : () -> index
    %29 = "arith.constant"() <{value = 13 : index}> : () -> index
    %30 = "arith.constant"() <{value = 14 : index}> : () -> index
    %31 = "arith.constant"() <{value = 15 : index}> : () -> index
    %32 = "arith.constant"() <{value = 16 : index}> : () -> index
    %33 = "arith.constant"() <{value = 17 : index}> : () -> index
    %34 = "arith.constant"() <{value = 18 : index}> : () -> index
    %35 = "arith.constant"() <{value = 19 : index}> : () -> index
    %36 = "arith.constant"() <{value = 20 : index}> : () -> index
    %37 = "arith.constant"() <{value = 21 : index}> : () -> index
    %38 = "arith.constant"() <{value = 22 : index}> : () -> index
    %39 = "arith.constant"() <{value = 23 : index}> : () -> index
    %40 = "arith.constant"() <{value = 24 : index}> : () -> index
    %41 = "arith.constant"() <{value = 25 : index}> : () -> index
    %42 = "arith.constant"() <{value = 26 : index}> : () -> index
    %43 = "arith.constant"() <{value = 27 : index}> : () -> index
    %44 = "arith.constant"() <{value = 28 : index}> : () -> index
    %45 = "arith.constant"() <{value = 29 : index}> : () -> index
    %46 = "arith.constant"() <{value = 30 : index}> : () -> index
    %47 = "arith.constant"() <{value = 31 : index}> : () -> index
    %48 = "tensor.empty"() : () -> tensor<6x6xi1>
    %49 = "tensor.empty"(%28) : (index) -> tensor<?x6xf32>
    %50 = "tensor.empty"() : () -> tensor<6x6xi1>
    %51 = "tensor.empty"() : () -> tensor<15x13xi1>
    %52 = "tensor.empty"(%38, %34) : (index, index) -> tensor<?x?xi32>
    %53 = "tensor.empty"() : () -> tensor<5xi64>
    %54 = "tensor.empty"(%22, %22) : (index, index) -> tensor<?x?xf16>
    %55 = "tensor.empty"() : () -> tensor<5x5x5xi16>
    %56 = "tensor.empty"(%38) : (index) -> tensor<?x13xi16>
    %57 = "tensor.empty"(%32) : (index) -> tensor<?x13xi64>
    %58 = "tensor.empty"(%31, %46) : (index, index) -> tensor<?x?x5xf16>
    %59 = "tensor.empty"(%21) : (index) -> tensor<?xi32>
    %60 = "tensor.empty"() : () -> tensor<15x13xf16>
    %61 = "tensor.empty"() : () -> tensor<5xf16>
    %62 = "tensor.empty"() : () -> tensor<5x5x5xf16>
    %63 = "tensor.empty"() : () -> tensor<5xi64>
    %64 = "memref.alloc"(%19) <{operandSegmentSizes = array<i32: 1, 0>}> : (index) -> memref<?xi64>
    %65 = "memref.alloc"(%28) <{operandSegmentSizes = array<i32: 1, 0>}> : (index) -> memref<?xf16>
    %66 = "memref.alloc"(%43, %24, %17) <{operandSegmentSizes = array<i32: 3, 0>}> : (index, index, index) -> memref<?x?x?xf16>
    %67 = "memref.alloc"(%37) <{operandSegmentSizes = array<i32: 1, 0>}> : (index) -> memref<?x13xf32>
    %68 = "memref.alloc"() <{operandSegmentSizes = array<i32: 0, 0>}> : () -> memref<15x13xi32>
    %69 = "memref.alloc"(%23, %23) <{operandSegmentSizes = array<i32: 2, 0>}> : (index, index) -> memref<?x?x5xf16>
    %70 = "memref.alloc"() <{operandSegmentSizes = array<i32: 0, 0>}> : () -> memref<5x5x5xi32>
    %71 = "memref.alloc"(%46) <{operandSegmentSizes = array<i32: 1, 0>}> : (index) -> memref<?xi32>
    %72 = "memref.alloc"() <{operandSegmentSizes = array<i32: 0, 0>}> : () -> memref<15x13xi16>
    %73 = "memref.alloc"(%31) <{operandSegmentSizes = array<i32: 1, 0>}> : (index) -> memref<?xf16>
    %74 = "memref.alloc"() <{operandSegmentSizes = array<i32: 0, 0>}> : () -> memref<5x5x5xf16>
    %75 = "memref.alloc"(%21) <{operandSegmentSizes = array<i32: 1, 0>}> : (index) -> memref<?xi1>
    %76 = "memref.alloc"(%17) <{operandSegmentSizes = array<i32: 1, 0>}> : (index) -> memref<?x13xi1>
    %77 = "memref.alloc"() <{operandSegmentSizes = array<i32: 0, 0>}> : () -> memref<5xi64>
    %78 = "memref.alloc"() <{operandSegmentSizes = array<i32: 0, 0>}> : () -> memref<5xi32>
    %79 = "memref.alloc"() <{operandSegmentSizes = array<i32: 0, 0>}> : () -> memref<15x13xi1>
    %80 = "index.and"(%39, %18) : (index, index) -> index
    %81 = "spirv.GL.Floor"(%5) : (f16) -> f16
    %82 = "math.absf"(%49) <{fastmath = #arith.fastmath<none>}> : (tensor<?x6xf32>) -> tensor<?x6xf32>
    %83 = "arith.mulf"(%1, %1) <{fastmath = #arith.fastmath<none>}> : (f32, f32) -> f32
    %84 = "math.ceil"(%1) <{fastmath = #arith.fastmath<none>}> : (f32) -> f32
    %85 = "spirv.GL.Floor"(%1) : (f32) -> f32
    %86 = "tensor.extract"(%54, %16, %16) : (tensor<?x?xf16>, index, index) -> f16
    %87 = "arith.divsi"(%4, %4) : (i64, i64) -> i64
    %88 = "vector.broadcast"(%6) : (i32) -> vector<2xi32>
    %89 = "spirv.BitwiseOr"(%88, %88) : (vector<2xi32>, vector<2xi32>) -> vector<2xi32>
    %90 = "spirv.GL.FMin"(%86, %10) : (f16, f16) -> f16
    %91 = "vector.broadcast"(%85) : (f32) -> vector<15x13xf32>
    %92 = "vector.fma"(%91, %91, %91) : (vector<15x13xf32>, vector<15x13xf32>, vector<15x13xf32>) -> vector<15x13xf32>
    %93 = "spirv.GL.Round"(%14) : (f16) -> f16
    %94 = "vector.broadcast"(%18) : (index) -> vector<13xindex>
    %95 = "vector.broadcast"(%11) : (i1) -> vector<13xi1>
    %96 = "vector.broadcast"(%4) : (i64) -> vector<13xi64>
    "vector.scatter"(%77, %17, %94, %95, %96) : (memref<5xi64>, index, vector<13xindex>, vector<13xi1>, vector<13xi64>) -> ()
    %97 = "spirv.LogicalAnd"(%11, %8) : (i1, i1) -> i1
    %98 = "vector.broadcast"(%2) : (f32) -> vector<15xf32>
    %99:2 = "vector.scan"(%91, %98) <{inclusive = false, kind = #vector.kind<maxf>, reduction_dim = 1 : i64}> : (vector<15x13xf32>, vector<15xf32>) -> (vector<15x13xf32>, vector<15xf32>)
    %100 = "math.exp"(%49) <{fastmath = #arith.fastmath<none>}> : (tensor<?x6xf32>) -> tensor<?x6xf32>
    %101 = "arith.mulf"(%5, %5) <{fastmath = #arith.fastmath<none>}> : (f16, f16) -> f16
    %102 = "spirv.BitwiseOr"(%88, %88) : (vector<2xi32>, vector<2xi32>) -> vector<2xi32>
    %103 = "affine.min"(%43, %28) <{map = affine_map<(d0)[s0] -> (32)>}> : (index, index) -> index
    %104 = "scf.while"(%68) ({
    ^bb0(%arg3: memref<15x13xi32>):
      "memref.copy"(%69, %69) : (memref<?x?x5xf16>, memref<?x?x5xf16>) -> ()
      %211 = "arith.constant"() <{value = false}> : () -> i1
      %212 = "vector.transfer_read"(%48, %20, %36, %211) <{operandSegmentSizes = array<i32: 1, 2, 1, 0>, permutation_map = affine_map<(d0, d1) -> ()>}> : (tensor<6x6xi1>, index, index, i1) -> vector<i1>
      %213 = "tensor.collapse_shape"(%48) <{reassociation = [[0, 1]]}> : (tensor<6x6xi1>) -> tensor<36xi1>
      "affine.vector_store"(%88, %arg3, %47, %34) <{map = affine_map<(d0, d1) -> (d0, d1)>}> : (vector<2xi32>, memref<15x13xi32>, index, index) -> ()
      %214 = "tensor.empty"() : () -> tensor<5xi32>
      %215 = "math.fpowi"(%61, %214) <{fastmath = #arith.fastmath<none>}> : (tensor<5xf16>, tensor<5xi32>) -> tensor<5xf16>
      %216 = "index.ceildivs"(%20, %46) : (index, index) -> index
      %217 = "arith.shrsi"(%97, %8) : (i1, i1) -> i1
      %218 = "arith.divf"(%1, %2) <{fastmath = #arith.fastmath<none>}> : (f32, f32) -> f32
      "scf.condition"(%8, %arg3) : (i1, memref<15x13xi32>) -> ()
    }, {
    ^bb0(%arg3: memref<15x13xi32>):
      %211 = "math.tanh"(%58) <{fastmath = #arith.fastmath<none>}> : (tensor<?x?x5xf16>) -> tensor<?x?x5xf16>
      %212 = "math.tan"(%62) <{fastmath = #arith.fastmath<none>}> : (tensor<5x5x5xf16>) -> tensor<5x5x5xf16>
      %213 = "memref.alloca"() <{operandSegmentSizes = array<i32: 0, 0>}> : () -> memref<5xi16>
      %214 = "vector.broadcast"(%6) : (i32) -> vector<i32>
      %215 = "vector.transfer_write"(%214, %59, %39) <{operandSegmentSizes = array<i32: 1, 1, 1, 0>, permutation_map = affine_map<(d0) -> ()>}> : (vector<i32>, tensor<?xi32>, index) -> tensor<?xi32>
      %216 = "math.tanh"(%86) <{fastmath = #arith.fastmath<none>}> : (f16) -> f16
      %217 = "math.round"(%62) <{fastmath = #arith.fastmath<none>}> : (tensor<5x5x5xf16>) -> tensor<5x5x5xf16>
      %218 = "math.sqrt"(%85) <{fastmath = #arith.fastmath<none>}> : (f32) -> f32
      %219 = "index.shrs"(%20, %33) : (index, index) -> index
      %220 = "memref.alloc"() <{operandSegmentSizes = array<i32: 0, 0>}> : () -> memref<5xf16>
      %221 = "vector.broadcast"(%10) : (f16) -> vector<5xf16>
      %222 = "vector.broadcast"(%15) : (i1) -> vector<5xi1>
      %223 = "vector.broadcast"(%3) : (i32) -> vector<5xi32>
      %224 = "vector.gather"(%220, %33, %223, %222, %221) : (memref<5xf16>, index, vector<5xi32>, vector<5xi1>, vector<5xf16>) -> vector<5xf16>
      %225 = "math.tanh"(%62) <{fastmath = #arith.fastmath<none>}> : (tensor<5x5x5xf16>) -> tensor<5x5x5xf16>
      %226 = "tensor.expand_shape"(%57) <{reassociation = [[0], [1, 2]]}> : (tensor<?x13xi64>) -> tensor<?x13x1xi64>
      %227 = "vector.insert"(%90, %224) <{static_position = array<i64: 4>}> : (f16, vector<5xf16>) -> vector<5xf16>
      %228 = "arith.cmpi"(%7, %7) <{predicate = 6 : i64}> : (i16, i16) -> i1
      %229 = "math.fma"(%93, %86, %10) <{fastmath = #arith.fastmath<none>}> : (f16, f16, f16) -> f16
      %230 = "tensor.empty"() : () -> tensor<195xf16>
      %231 = "tensor.unpack"(%60, %230, %29) <{inner_dims_pos = array<i64: 0>, outer_dims_perm = array<i64: 0>, static_inner_tiles = array<i64: -9223372036854775808>}> : (tensor<15x13xf16>, tensor<195xf16>, index) -> tensor<195xf16>
      %232 = "vector.extract_strided_slice"(%88) <{offsets = [0], sizes = [1], strides = [1]}> : (vector<2xi32>) -> vector<1xi32>
      "scf.yield"(%arg3) : (memref<15x13xi32>) -> ()
    }) : (memref<15x13xi32>) -> memref<15x13xi32>
    %105 = "spirv.CL.u_min"(%4, %4) : (i64, i64) -> i64
    %106 = "math.roundeven"(%61) <{fastmath = #arith.fastmath<none>}> : (tensor<5xf16>) -> tensor<5xf16>
    %107 = "math.log"(%61) <{fastmath = #arith.fastmath<none>}> : (tensor<5xf16>) -> tensor<5xf16>
    %108 = "spirv.CL.ceil"(%10) : (f16) -> f16
    %109 = "spirv.GL.Log"(%86) : (f16) -> f16
    %110 = "index.casts"(%32) : (index) -> i32
    %111 = "tensor.empty"(%26) : (index) -> tensor<?xi64>
    %112 = "linalg.generic"(%64, %111) <{indexing_maps = [affine_map<(d0) -> (d0)>, affine_map<(d0) -> (d0)>], iterator_types = [#linalg.iterator_type<parallel>], operandSegmentSizes = array<i32: 1, 1>}> ({
    ^bb0(%arg3: i64, %arg4: i64):
      %211 = "vector.broadcast"(%13) : (i16) -> vector<i16>
      %212 = "vector.transfer_write"(%211, %56, %20, %24) <{operandSegmentSizes = array<i32: 1, 1, 2, 0>, permutation_map = affine_map<(d0, d1) -> ()>}> : (vector<i16>, tensor<?x13xi16>, index, index) -> tensor<?x13xi16>
      "linalg.yield"(%arg4) : (i64) -> ()
    }) : (memref<?xi64>, tensor<?xi64>) -> tensor<?xi64>
    %113 = "spirv.FOrdLessThanEqual"(%86, %108) : (f16, f16) -> i1
    %114 = "spirv.UGreaterThan"(%9, %9) : (i16, i16) -> i1
    "scf.index_switch"(%30) <{cases = array<i64: 1, 2, 3>}> ({
      %211 = "math.ctlz"(%48) : (tensor<6x6xi1>) -> tensor<6x6xi1>
      %212 = "vector.broadcast"(%12) : (i32) -> vector<5x5x5xi32>
      %213 = "index.bool.constant"() <{value = true}> : () -> i1
      %214 = "math.fma"(%10, %109, %108) <{fastmath = #arith.fastmath<none>}> : (f16, f16, f16) -> f16
      %215 = "vector.matrix_multiply"(%88, %88) <{lhs_columns = 2 : i32, lhs_rows = 1 : i32, rhs_columns = 1 : i32}> : (vector<2xi32>, vector<2xi32>) -> vector<1xi32>
      %216 = "vector.broadcast"(%85) : (f32) -> vector<13x13xf32>
      %217 = "vector.contract"(%92, %92, %216) <{indexing_maps = [affine_map<(d0, d1, d2) -> (d2, d0)>, affine_map<(d0, d1, d2) -> (d2, d1)>, affine_map<(d0, d1, d2) -> (d0, d1)>], iterator_types = [#vector.iterator_type<parallel>, #vector.iterator_type<parallel>, #vector.iterator_type<reduction>], kind = #vector.kind<minf>}> : (vector<15x13xf32>, vector<15x13xf32>, vector<13x13xf32>) -> vector<13x13xf32>
      %218 = "memref.cast"(%79) : (memref<15x13xi1>) -> memref<15x?xi1>
      %219 = "tensor.insert"(%86, %54, %16, %16) : (f16, tensor<?x?xf16>, index, index) -> tensor<?x?xf16>
      %220 = "vector.broadcast"(%6) : (i32) -> vector<5x5x5x5xi32>
      %221 = "vector.contract"(%212, %212, %220) <{indexing_maps = [affine_map<(d0, d1, d2, d3, d4) -> (d4, d0, d1)>, affine_map<(d0, d1, d2, d3, d4) -> (d4, d2, d3)>, affine_map<(d0, d1, d2, d3, d4) -> (d0, d1, d2, d3)>], iterator_types = [#vector.iterator_type<parallel>, #vector.iterator_type<parallel>, #vector.iterator_type<parallel>, #vector.iterator_type<parallel>, #vector.iterator_type<reduction>], kind = #vector.kind<or>}> : (vector<5x5x5xi32>, vector<5x5x5xi32>, vector<5x5x5x5xi32>) -> vector<5x5x5x5xi32>
      %222 = "math.tanh"(%10) <{fastmath = #arith.fastmath<none>}> : (f16) -> f16
      %223 = "arith.divf"(%86, %10) <{fastmath = #arith.fastmath<none>}> : (f16, f16) -> f16
      %224 = "memref.cast"(%77) : (memref<5xi64>) -> memref<5xi64>
      %225 = "memref.alloca"(%35) <{operandSegmentSizes = array<i32: 1, 0>}> : (index) -> memref<?x6xi1>
      %226 = "memref.alloc"(%27, %80) <{operandSegmentSizes = array<i32: 2, 0>}> : (index, index) -> memref<?x?xf16>
      "linalg.transpose"(%54, %226) <{permutation = array<i64: 1, 0>}> ({
      ^bb0(%arg3: f16, %arg4: f16):
        "linalg.yield"(%arg3) : (f16) -> ()
      }) : (tensor<?x?xf16>, memref<?x?xf16>) -> ()
      %227 = "tensor.empty"() : () -> tensor<6x6xi16>
      %228 = "vector.broadcast"(%9) : (i16) -> vector<5x5x5xi16>
      %229 = "vector.broadcast"(%113) : (i1) -> vector<5x5x5xi1>
      %230 = "vector.gather"(%227, %34, %45, %212, %229, %228) : (tensor<6x6xi16>, index, index, vector<5x5x5xi32>, vector<5x5x5xi1>, vector<5x5x5xi16>) -> vector<5x5x5xi16>
      %231 = "arith.shrsi"(%9, %7) : (i16, i16) -> i16
      "scf.yield"() : () -> ()
    }, {
      "bufferization.dealloc_tensor"(%54) : (tensor<?x?xf16>) -> ()
      %211 = "memref.load"(%75, %16) <{nontemporal = false}> : (memref<?xi1>, index) -> i1
      %212 = "math.log"(%61) <{fastmath = #arith.fastmath<none>}> : (tensor<5xf16>) -> tensor<5xf16>
      %213 = "affine.max"(%103, %28, %45, %19) <{map = affine_map<(d0, d1, d2, d3) -> ((d2 ceildiv 4) ceildiv 128)>}> : (index, index, index, index) -> index
      %214 = "math.absf"(%61) <{fastmath = #arith.fastmath<none>}> : (tensor<5xf16>) -> tensor<5xf16>
      %215 = "arith.divf"(%93, %108) <{fastmath = #arith.fastmath<none>}> : (f16, f16) -> f16
      %216 = "index.casts"(%26) : (index) -> i32
      %217 = "scf.if"(%114) ({
        "bufferization.dealloc_tensor"(%48) : (tensor<6x6xi1>) -> ()
        %226 = "index.shrs"(%22, %21) : (index, index) -> index
        %227 = "vector.bitcast"(%91) : (vector<15x13xf32>) -> vector<15x13xf32>
        %228 = "vector.broadcast"(%1) : (f32) -> vector<5xf32>
        %229 = "vector.fma"(%228, %228, %228) : (vector<5xf32>, vector<5xf32>, vector<5xf32>) -> vector<5xf32>
        %230 = "arith.shrui"(%114, %114) : (i1, i1) -> i1
        %231 = "math.ctlz"(%9) : (i16) -> i16
        %232 = "arith.subi"(%7, %9) : (i16, i16) -> i16
        %233 = "vector.bitcast"(%229) : (vector<5xf32>) -> vector<5xf32>
        "scf.yield"(%15) : (i1) -> ()
      }, {
        %226 = "tensor.extract"(%50, %17, %21) : (tensor<6x6xi1>, index, index) -> i1
        %227 = "tensor.extract"(%61, %16) : (tensor<5xf16>, index) -> f16
        %228 = "memref.alloc"() <{operandSegmentSizes = array<i32: 0, 0>}> : () -> memref<6x6xf32>
        %229 = "tensor.collapse_shape"(%60) <{reassociation = [[0, 1]]}> : (tensor<15x13xf16>) -> tensor<195xf16>
        %230 = "math.powf"(%61, %61) <{fastmath = #arith.fastmath<none>}> : (tensor<5xf16>, tensor<5xf16>) -> tensor<5xf16>
        %231 = "arith.remf"(%108, %14) <{fastmath = #arith.fastmath<none>}> : (f16, f16) -> f16
        %232 = "arith.shrui"(%13, %9) : (i16, i16) -> i16
        %233 = "index.bool.constant"() <{value = true}> : () -> i1
        "scf.yield"(%97) : (i1) -> ()
      }) : (i1) -> i1
      "vector.warp_execute_on_lane_0"(%16) <{warp_size = 32 : i64}> ({
        %226 = "index.divs"(%24, %42) : (index, index) -> index
        %227 = "math.tanh"(%61) <{fastmath = #arith.fastmath<none>}> : (tensor<5xf16>) -> tensor<5xf16>
        %228 = "index.divu"(%17, %39) : (index, index) -> index
        %229 = "vector.broadcast"(%29) : (index) -> vector<13xindex>
        %230 = "vector.broadcast"(%217) : (i1) -> vector<13xi1>
        "vector.scatter"(%76, %16, %24, %229, %230, %230) : (memref<?x13xi1>, index, index, vector<13xindex>, vector<13xi1>, vector<13xi1>) -> ()
        %231 = "arith.shrui"(%6, %0) : (i32, i32) -> i32
        %232 = "vector.extract_strided_slice"(%88) <{offsets = [0], sizes = [2], strides = [1]}> : (vector<2xi32>) -> vector<2xi32>
        %233 = "tensor.rank"(%63) : (tensor<5xi64>) -> index
        %234 = "vector.bitcast"(%88) : (vector<2xi32>) -> vector<2xi32>
        "vector.yield"() : () -> ()
      }) : (index) -> ()
      %218 = "tensor.generate"(%31) ({
      ^bb0(%arg3: index, %arg4: index, %arg5: index):
        %226 = "index.xor"(%25, %35) : (index, index) -> index
        %227 = "arith.muli"(%9, %13) : (i16, i16) -> i16
        "linalg.transpose"(%70, %70) <{permutation = array<i64: 2, 0, 1>}> ({
        ^bb0(%arg6: i32, %arg7: i32):
          "linalg.yield"(%arg6) : (i32) -> ()
        }) : (memref<5x5x5xi32>, memref<5x5x5xi32>) -> ()
        %228 = "tensor.collapse_shape"(%48) <{reassociation = [[0, 1]]}> : (tensor<6x6xi1>) -> tensor<36xi1>
        "tensor.yield"(%2) : (f32) -> ()
      }) : (index) -> tensor<?x5x5xf32>
      %219 = "arith.floordivsi"(%12, %3) : (i32, i32) -> i32
      %220 = "math.floor"(%49) <{fastmath = #arith.fastmath<none>}> : (tensor<?x6xf32>) -> tensor<?x6xf32>
      %221 = "arith.mulf"(%93, %93) <{fastmath = #arith.fastmath<none>}> : (f16, f16) -> f16
      %222 = "arith.shrui"(%15, %217) : (i1, i1) -> i1
      %223 = "vector.broadcast"(%85) : (f32) -> vector<13x13xf32>
      %224 = "vector.contract"(%91, %91, %223) <{indexing_maps = [affine_map<(d0, d1, d2) -> (d2, d0)>, affine_map<(d0, d1, d2) -> (d2, d1)>, affine_map<(d0, d1, d2) -> (d0, d1)>], iterator_types = [#vector.iterator_type<parallel>, #vector.iterator_type<parallel>, #vector.iterator_type<reduction>], kind = #vector.kind<minf>}> : (vector<15x13xf32>, vector<15x13xf32>, vector<13x13xf32>) -> vector<13x13xf32>
      %225 = "affine.apply"(%35, %213, %42, %103) <{map = affine_map<(d0, d1, d2)[s0] -> (d0)>}> : (index, index, index, index) -> index
      "scf.yield"() : () -> ()
    }, {
      "vector.print"(%92) <{punctuation = #vector.punctuation<newline>}> : (vector<15x13xf32>) -> ()
      %211 = "vector.matrix_multiply"(%88, %88) <{lhs_columns = 2 : i32, lhs_rows = 1 : i32, rhs_columns = 1 : i32}> : (vector<2xi32>, vector<2xi32>) -> vector<1xi32>
      %212 = "arith.shli"(%4, %105) : (i64, i64) -> i64
      %213 = "vector.extract"(%92) <{static_position = array<i64: 14>}> : (vector<15x13xf32>) -> vector<13xf32>
      %214 = "index.shru"(%80, %103) : (index, index) -> index
      %215 = "arith.floordivsi"(%8, %113) : (i1, i1) -> i1
      %216 = "tensor.generate"(%103) ({
      ^bb0(%arg3: index, %arg4: index):
        %225 = "vector.insert"(%213, %91) <{static_position = array<i64: 0>}> : (vector<13xf32>, vector<15x13xf32>) -> vector<15x13xf32>
        "bufferization.dealloc_tensor"(%60) : (tensor<15x13xf16>) -> ()
        %226 = "arith.ori"(%113, %97) : (i1, i1) -> i1
        %227 = "arith.mulf"(%85, %85) <{fastmath = #arith.fastmath<none>}> : (f32, f32) -> f32
        "tensor.yield"(%12) : (i32) -> ()
      }) : (index) -> tensor<?x13xi32>
      %217 = "index.maxs"(%39, %80) : (index, index) -> index
      %218 = "math.round"(%60) <{fastmath = #arith.fastmath<none>}> : (tensor<15x13xf16>) -> tensor<15x13xf16>
      %219 = "index.divu"(%24, %22) : (index, index) -> index
      %220 = "vector.reduction"(%88) <{fastmath = #arith.fastmath<none>, kind = #vector.kind<minui>}> : (vector<2xi32>) -> i32
      %221 = "arith.minui"(%0, %3) : (i32, i32) -> i32
      %222 = "bufferization.clone"(%arg1) : (memref<5xf32>) -> memref<5xf32>
      "memref.store"(%93, %69, %16, %16, %20) <{nontemporal = false}> : (f16, memref<?x?x5xf16>, index, index, index) -> ()
      %223 = "index.or"(%34, %214) : (index, index) -> index
      %224 = "index.and"(%18, %219) : (index, index) -> index
      "scf.yield"() : () -> ()
    }, {
      %211 = "affine.max"(%35, %17, %41, %22) <{map = affine_map<(d0, d1, d2, d3) -> (-(d1 - 1) + d2)>}> : (index, index, index, index) -> index
      %212 = "math.floor"(%49) <{fastmath = #arith.fastmath<none>}> : (tensor<?x6xf32>) -> tensor<?x6xf32>
      %213 = "index.castu"(%12) : (i32) -> index
      %214 = "math.log"(%5) <{fastmath = #arith.fastmath<none>}> : (f16) -> f16
      %215 = "arith.mulf"(%85, %85) <{fastmath = #arith.fastmath<none>}> : (f32, f32) -> f32
      %216 = "index.sizeof"() : () -> index
      %217 = "vector.bitcast"(%91) : (vector<15x13xf32>) -> vector<15x13xf32>
      %218 = "math.fpowi"(%90, %0) <{fastmath = #arith.fastmath<none>}> : (f16, i32) -> f16
      %219 = "tensor.cast"(%56) : (tensor<?x13xi16>) -> tensor<13x13xi16>
      %220 = "tensor.rank"(%56) : (tensor<?x13xi16>) -> index
      %221 = "vector.broadcast"(%105) : (i64) -> vector<i64>
      %222 = "vector.transfer_write"(%221, %53, %39) <{operandSegmentSizes = array<i32: 1, 1, 1, 0>, permutation_map = affine_map<(d0) -> ()>}> : (vector<i64>, tensor<5xi64>, index) -> tensor<5xi64>
      %223 = "tensor.empty"() : () -> tensor<5xf32>
      %224 = "linalg.map"(%arg1, %arg1, %223) ({
      ^bb0(%arg3: f32, %arg4: f32):
        %229 = "math.log10"(%62) <{fastmath = #arith.fastmath<none>}> : (tensor<5x5x5xf16>) -> tensor<5x5x5xf16>
        %230 = "math.tan"(%85) <{fastmath = #arith.fastmath<none>}> : (f32) -> f32
        %231 = "math.round"(%1) <{fastmath = #arith.fastmath<none>}> : (f32) -> f32
        %232 = "arith.divui"(%11, %97) : (i1, i1) -> i1
        %233 = "index.shl"(%34, %35) : (index, index) -> index
        "affine.vector_store"(%88, %70, %27, %24, %23) <{map = affine_map<(d0, d1, d2) -> (d0, d1, d2)>}> : (vector<2xi32>, memref<5x5x5xi32>, index, index, index) -> ()
        %234 = "vector.broadcast"(%36) : (index) -> vector<6xindex>
        %235 = "vector.broadcast"(%97) : (i1) -> vector<6xi1>
        %236 = "vector.broadcast"(%86) : (f16) -> vector<6xf16>
        "vector.scatter"(%66, %16, %16, %16, %234, %235, %236) : (memref<?x?x?xf16>, index, index, index, vector<6xindex>, vector<6xi1>, vector<6xf16>) -> ()
        %237 = "tensor.cast"(%219) : (tensor<13x13xi16>) -> tensor<?x?xi16>
        %238 = "arith.addi"(%13, %9) : (i16, i16) -> i16
        %239 = "index.sizeof"() : () -> index
        %240 = "tensor.empty"() : () -> tensor<36xi1>
        %241 = "tensor.unpack"(%48, %240, %22) <{inner_dims_pos = array<i64: 0>, outer_dims_perm = array<i64: 0>, static_inner_tiles = array<i64: -9223372036854775808>}> : (tensor<6x6xi1>, tensor<36xi1>, index) -> tensor<36xi1>
        %242 = "arith.addf"(%81, %109) <{fastmath = #arith.fastmath<none>}> : (f16, f16) -> f16
        %243 = "index.floordivs"(%45, %216) : (index, index) -> index
        %244 = "index.sub"(%103, %39) : (index, index) -> index
        %245 = "math.round"(%2) <{fastmath = #arith.fastmath<none>}> : (f32) -> f32
        %246 = "math.round"(%90) <{fastmath = #arith.fastmath<none>}> : (f16) -> f16
        %247 = "index.xor"(%213, %40) : (index, index) -> index
        %248 = "arith.ori"(%13, %7) : (i16, i16) -> i16
        %249 = "arith.mulf"(%90, %86) <{fastmath = #arith.fastmath<none>}> : (f16, f16) -> f16
        %250 = "vector.bitcast"(%217) : (vector<15x13xf32>) -> vector<15x13xf32>
        %251 = "index.xor"(%24, %45) : (index, index) -> index
        %252 = "vector.reduction"(%88) <{fastmath = #arith.fastmath<none>, kind = #vector.kind<maxsi>}> : (vector<2xi32>) -> i32
        %253 = "vector.create_mask"(%46, %239, %251) : (index, index, index) -> vector<5x5x5xi1>
        %254 = "vector.broadcast"(%113) : (i1) -> vector<5x5x5x5xi1>
        %255 = "vector.contract"(%253, %253, %254) <{indexing_maps = [affine_map<(d0, d1, d2, d3, d4) -> (d4, d0, d1)>, affine_map<(d0, d1, d2, d3, d4) -> (d4, d2, d3)>, affine_map<(d0, d1, d2, d3, d4) -> (d0, d1, d2, d3)>], iterator_types = [#vector.iterator_type<parallel>, #vector.iterator_type<parallel>, #vector.iterator_type<parallel>, #vector.iterator_type<parallel>, #vector.iterator_type<reduction>], kind = #vector.kind<maxsi>}> : (vector<5x5x5xi1>, vector<5x5x5xi1>, vector<5x5x5x5xi1>) -> vector<5x5x5x5xi1>
        %256 = "index.castu"(%80) : (index) -> i32
        %257 = "vector.reduction"(%88) <{fastmath = #arith.fastmath<none>, kind = #vector.kind<or>}> : (vector<2xi32>) -> i32
        %258 = "vector.broadcast"(%109) : (f16) -> vector<5xf16>
        %259 = "vector.broadcast"(%114) : (i1) -> vector<5xi1>
        "vector.compressstore"(%73, %16, %259, %258) : (memref<?xf16>, index, vector<5xi1>, vector<5xf16>) -> ()
        %260 = "index.bool.constant"() <{value = false}> : () -> i1
        %261 = "vector.transpose"(%221) <{transp = []}> : (vector<i64>) -> vector<i64>
        %262 = "tensor.insert"(%105, %57, %16, %18) : (i64, tensor<?x13xi64>, index, index) -> tensor<?x13xi64>
        %263 = "tensor.insert"(%9, %56, %16, %27) : (i16, tensor<?x13xi16>, index, index) -> tensor<?x13xi16>
        %264 = "memref.cast"(%77) : (memref<5xi64>) -> memref<5xi64>
        "linalg.yield"(%2) : (f32) -> ()
      }) : (memref<5xf32>, memref<5xf32>, tensor<5xf32>) -> tensor<5xf32>
      %225 = "tensor.from_elements"(%105, %4, %4, %4, %4, %4, %4, %105, %105, %105, %105, %4, %105, %105, %105, %105, %4, %4, %4, %4, %4, %4, %105, %105, %105, %105, %4, %4, %105, %4, %105, %4, %105, %4, %105, %4, %4, %105, %4, %4, %105, %4, %4, %105, %105, %105, %105, %4, %105, %105, %4, %105, %105, %4, %4, %105, %105, %4, %4, %4, %105, %105, %4, %4, %4, %4, %105, %105, %105, %4, %105, %4, %105, %105, %105, %4, %4, %4, %4, %105, %4, %105, %105, %4, %105, %105, %105, %4, %105, %105, %4, %105, %4, %4, %4, %105, %105, %105, %4, %4, %105, %105, %4, %4, %4, %105, %4, %4, %4, %4, %105, %4, %105, %4, %105, %4, %105, %105, %4, %4, %4, %4, %4, %4, %4, %4, %4, %105, %105, %105, %105, %105, %105, %105, %4, %4, %4, %105, %105, %4, %4, %4, %4, %105, %4, %4, %4, %105, %4, %4, %105, %4, %105, %4, %105, %105, %105, %4, %4, %105, %4, %105, %105, %4, %4, %105, %105, %4, %105, %105, %105, %4, %105, %105, %4, %105, %105, %4, %4, %4, %105, %105, %105, %105, %4, %105, %105, %105, %4, %4, %4, %4, %4, %105, %105) : (i64, i64, i64, i64, i64, i64, i64, i64, i64, i64, i64, i64, i64, i64, i64, i64, i64, i64, i64, i64, i64, i64, i64, i64, i64, i64, i64, i64, i64, i64, i64, i64, i64, i64, i64, i64, i64, i64, i64, i64, i64, i64, i64, i64, i64, i64, i64, i64, i64, i64, i64, i64, i64, i64, i64, i64, i64, i64, i64, i64, i64, i64, i64, i64, i64, i64, i64, i64, i64, i64, i64, i64, i64, i64, i64, i64, i64, i64, i64, i64, i64, i64, i64, i64, i64, i64, i64, i64, i64, i64, i64, i64, i64, i64, i64, i64, i64, i64, i64, i64, i64, i64, i64, i64, i64, i64, i64, i64, i64, i64, i64, i64, i64, i64, i64, i64, i64, i64, i64, i64, i64, i64, i64, i64, i64, i64, i64, i64, i64, i64, i64, i64, i64, i64, i64, i64, i64, i64, i64, i64, i64, i64, i64, i64, i64, i64, i64, i64, i64, i64, i64, i64, i64, i64, i64, i64, i64, i64, i64, i64, i64, i64, i64, i64, i64, i64, i64, i64, i64, i64, i64, i64, i64, i64, i64, i64, i64, i64, i64, i64, i64, i64, i64, i64, i64, i64, i64, i64, i64, i64, i64, i64, i64, i64, i64) -> tensor<15x13xi64>
      %226 = "index.divu"(%27, %33) : (index, index) -> index
      %227 = "vector.matrix_multiply"(%88, %88) <{lhs_columns = 2 : i32, lhs_rows = 1 : i32, rhs_columns = 1 : i32}> : (vector<2xi32>, vector<2xi32>) -> vector<1xi32>
      %228 = "affine.vector_load"(%66, %35, %80, %40) <{map = affine_map<(d0, d1, d2) -> (d0, d1, d2)>}> : (memref<?x?x?xf16>, index, index, index) -> vector<13xf16>
      "scf.yield"() : () -> ()
    }) : (index) -> ()
    "memref.store"(%4, %64, %16) <{nontemporal = false}> : (i64, memref<?xi64>, index) -> ()
    %115 = "spirv.CL.rsqrt"(%5) : (f16) -> f16
    %116 = "linalg.generic"(%52, %59, %52, %59) <{indexing_maps = [affine_map<(d0, d1) -> (d0, d1)>, affine_map<(d0, d1) -> (d0)>, affine_map<(d0, d1) -> (d0, d1)>, affine_map<(d0, d1) -> (d1)>], iterator_types = [#linalg.iterator_type<reduction>, #linalg.iterator_type<parallel>], operandSegmentSizes = array<i32: 3, 1>}> ({
    ^bb0(%arg3: i32, %arg4: i32, %arg5: i32, %arg6: i32):
      %211 = "math.roundeven"(%62) <{fastmath = #arith.fastmath<none>}> : (tensor<5x5x5xf16>) -> tensor<5x5x5xf16>
      "linalg.yield"(%6) : (i32) -> ()
    }) : (tensor<?x?xi32>, tensor<?xi32>, tensor<?x?xi32>, tensor<?xi32>) -> tensor<?xi32>
    %117 = "tensor.empty"() : () -> tensor<5xi32>
    %118 = "math.fpowi"(%61, %117) <{fastmath = #arith.fastmath<none>}> : (tensor<5xf16>, tensor<5xi32>) -> tensor<5xf16>
    %119 = "vector.broadcast"(%6) : (i32) -> vector<2x2xi32>
    %120 = "vector.outerproduct"(%88, %88, %119) <{kind = #vector.kind<maxui>}> : (vector<2xi32>, vector<2xi32>, vector<2x2xi32>) -> vector<2x2xi32>
    %121 = "arith.mulf"(%5, %10) <{fastmath = #arith.fastmath<none>}> : (f16, f16) -> f16
    %122 = "tensor.dim"(%111, %16) : (tensor<?xi64>, index) -> index
    %123 = "tensor.empty"() : () -> tensor<6x6xi64>
    %124 = "spirv.SGreaterThanEqual"(%4, %105) : (i64, i64) -> i1
    %125 = "spirv.BitwiseOr"(%88, %88) : (vector<2xi32>, vector<2xi32>) -> vector<2xi32>
    %126 = "spirv.GL.InverseSqrt"(%90) : (f16) -> f16
    %127 = "spirv.Unordered"(%108, %5) : (f16, f16) -> i1
    %128 = "tensor.insert"(%9, %56, %16, %19) : (i16, tensor<?x13xi16>, index, index) -> tensor<?x13xi16>
    %129 = "arith.shrui"(%0, %12) : (i32, i32) -> i32
    %130 = "spirv.BitReverse"(%105) : (i64) -> i64
    %131 = "spirv.CL.round"(%90) : (f16) -> f16
    "memref.store"(%5, %69, %16, %16, %20) <{nontemporal = false}> : (f16, memref<?x?x5xf16>, index, index, index) -> ()
    %132 = "math.log"(%62) <{fastmath = #arith.fastmath<none>}> : (tensor<5x5x5xf16>) -> tensor<5x5x5xf16>
    %133 = "spirv.BitFieldUExtract"(%88, %0, %0) : (vector<2xi32>, i32, i32) -> vector<2xi32>
    %134 = "spirv.BitReverse"(%4) : (i64) -> i64
    %135 = "spirv.GL.Sin"(%126) : (f16) -> f16
    %136 = "spirv.BitwiseOr"(%88, %88) : (vector<2xi32>, vector<2xi32>) -> vector<2xi32>
    %137 = "math.roundeven"(%49) <{fastmath = #arith.fastmath<none>}> : (tensor<?x6xf32>) -> tensor<?x6xf32>
    %138 = "spirv.LogicalEqual"(%15, %15) : (i1, i1) -> i1
    %139 = "spirv.CL.floor"(%115) : (f16) -> f16
    %140 = "memref.alloc"(%32) <{operandSegmentSizes = array<i32: 1, 0>}> : (index) -> memref<6x?xf32>
    "linalg.transpose"(%49, %140) <{permutation = array<i64: 1, 0>}> ({
    ^bb0(%arg3: f32, %arg4: f32):
      "linalg.yield"(%arg3) : (f32) -> ()
    }) : (tensor<?x6xf32>, memref<6x?xf32>) -> ()
    %141 = "spirv.LogicalAnd"(%97, %124) : (i1, i1) -> i1
    %142 = "spirv.GL.Acos"(%2) : (f32) -> f32
    %143 = "spirv.BitReverse"(%4) : (i64) -> i64
    %144 = "bufferization.clone"(%74) : (memref<5x5x5xf16>) -> memref<5x5x5xf16>
    %145 = "spirv.GL.Floor"(%93) : (f16) -> f16
    %146 = "affine.min"(%19, %31, %122, %28) <{map = affine_map<(d0, d1, d2, d3) -> ((d2 ceildiv 4) ceildiv 128)>}> : (index, index, index, index) -> index
    %147 = "bufferization.clone"(%77) : (memref<5xi64>) -> memref<5xi64>
    %148 = "spirv.SLessThanEqual"(%6, %6) : (i32, i32) -> i1
    %149 = "vector.bitcast"(%88) : (vector<2xi32>) -> vector<2xi32>
    %150 = "tensor.generate"(%146, %46) ({
    ^bb0(%arg3: index, %arg4: index, %arg5: index):
      %211 = "vector.matrix_multiply"(%88, %88) <{lhs_columns = 2 : i32, lhs_rows = 1 : i32, rhs_columns = 1 : i32}> : (vector<2xi32>, vector<2xi32>) -> vector<1xi32>
      %212 = "vector.create_mask"(%23, %80) : (index, index) -> vector<15x13xi1>
      %213 = "index.maxs"(%30, %37) : (index, index) -> index
      "scf.if"(%11) ({
        %214 = "math.absi"(%51) : (tensor<15x13xi1>) -> tensor<15x13xi1>
        %215 = "tensor.cast"(%48) : (tensor<6x6xi1>) -> tensor<?x?xi1>
        %216 = "math.rsqrt"(%93) <{fastmath = #arith.fastmath<none>}> : (f16) -> f16
        %217 = "tensor.cast"(%50) : (tensor<6x6xi1>) -> tensor<?x?xi1>
        %218 = "vector.bitcast"(%149) : (vector<2xi32>) -> vector<2xi32>
        %219 = "tensor.extract"(%61, %18) : (tensor<5xf16>, index) -> f16
        %220 = "tensor.extract"(%58, %16, %16, %16) : (tensor<?x?x5xf16>, index, index, index) -> f16
        %221 = "arith.ceildivsi"(%141, %127) : (i1, i1) -> i1
        "scf.yield"() : () -> ()
      }, {
        %214 = "math.copysign"(%60, %60) <{fastmath = #arith.fastmath<none>}> : (tensor<15x13xf16>, tensor<15x13xf16>) -> tensor<15x13xf16>
        %215 = "affine.max"(%arg5, %39) <{map = affine_map<(d0, d1) -> (-(d1 floordiv 8))>}> : (index, index) -> index
        %216 = "index.add"(%25, %35) : (index, index) -> index
        %217 = "math.log"(%54) <{fastmath = #arith.fastmath<none>}> : (tensor<?x?xf16>) -> tensor<?x?xf16>
        %218 = "index.sub"(%38, %80) : (index, index) -> index
        %219 = "math.absi"(%113) : (i1) -> i1
        "memref.assume_alignment"(%71) <{alignment = 8 : i32}> : (memref<?xi32>) -> ()
        %220 = "index.divu"(%20, %17) : (index, index) -> index
        "scf.yield"() : () -> ()
      }) : (i1) -> ()
      "tensor.yield"(%130) : (i64) -> ()
    }) : (index, index) -> tensor<?x?x5xi64>
    %151 = "index.divs"(%38, %122) : (index, index) -> index
    %152 = "spirv.FOrdGreaterThanEqual"(%139, %10) : (f16, f16) -> i1
    %153 = "tensor.insert"(%2, %49, %16, %21) : (f32, tensor<?x6xf32>, index, index) -> tensor<?x6xf32>
    %154 = "spirv.FOrdLessThan"(%1, %85) : (f32, f32) -> i1
    "vector.warp_execute_on_lane_0"(%16) <{warp_size = 32 : i64}> ({
      %211 = "vector.reduction"(%149) <{fastmath = #arith.fastmath<none>, kind = #vector.kind<xor>}> : (vector<2xi32>) -> i32
      %212 = "tensor.empty"() : () -> tensor<6x6xf16>
      %213 = "vector.broadcast"(%86) : (f16) -> vector<6x6xf16>
      %214 = "vector.broadcast"(%11) : (i1) -> vector<6x6xi1>
      %215 = "vector.broadcast"(%3) : (i32) -> vector<6x6xi32>
      %216 = "vector.gather"(%212, %103, %42, %215, %214, %213) : (tensor<6x6xf16>, index, index, vector<6x6xi32>, vector<6x6xi1>, vector<6x6xf16>) -> vector<6x6xf16>
      "affine.vector_store"(%88, %71, %42) <{map = affine_map<(d0) -> (d0)>}> : (vector<2xi32>, memref<?xi32>, index) -> ()
      %217 = "linalg.copy"(%57, %57) <{operandSegmentSizes = array<i32: 1, 1>}> ({
      ^bb0(%arg3: i64, %arg4: i64):
        "linalg.yield"(%arg3) : (i64) -> ()
      }) : (tensor<?x13xi64>, tensor<?x13xi64>) -> tensor<?x13xi64>
      "affine.vector_store"(%149, %71, %23) <{map = affine_map<(d0) -> (d0)>}> : (vector<2xi32>, memref<?xi32>, index) -> ()
      %218 = "arith.addf"(%93, %145) <{fastmath = #arith.fastmath<none>}> : (f16, f16) -> f16
      %219 = "memref.alloc"() <{operandSegmentSizes = array<i32: 0, 0>}> : () -> memref<13x15xi1>
      %220 = "tensor.empty"() : () -> tensor<15x15xi1>
      %221 = "linalg.matmul"(%51, %219, %220) <{operandSegmentSizes = array<i32: 2, 1>}> ({
      ^bb0(%arg3: i1, %arg4: i1, %arg5: i1):
        %223 = "arith.andi"(%arg3, %arg4) : (i1, i1) -> i1
        %224 = "arith.ori"(%arg5, %223) : (i1, i1) -> i1
        "linalg.yield"(%224) : (i1) -> ()
      }) {linalg.memoized_indexing_maps = [affine_map<(d0, d1, d2) -> (d0, d2)>, affine_map<(d0, d1, d2) -> (d2, d1)>, affine_map<(d0, d1, d2) -> (d0, d1)>]} : (tensor<15x13xi1>, memref<13x15xi1>, tensor<15x15xi1>) -> tensor<15x15xi1>
      %222 = "vector.bitcast"(%92) : (vector<15x13xf32>) -> vector<15x13xf32>
      "vector.yield"() : () -> ()
    }) : (index) -> ()
    %155 = "index.mul"(%31, %27) : (index, index) -> index
    %156 = "arith.divui"(%105, %4) : (i64, i64) -> i64
    %157 = "spirv.GL.Cos"(%85) : (f32) -> f32
    %158 = "math.ctlz"(%124) : (i1) -> i1
    %159 = "spirv.FOrdLessThan"(%90, %115) : (f16, f16) -> i1
    %160 = "bufferization.clone"(%68) : (memref<15x13xi32>) -> memref<15x13xi32>
    %161 = "index.and"(%151, %31) : (index, index) -> index
    %162 = "vector.reduction"(%149) <{fastmath = #arith.fastmath<none>, kind = #vector.kind<add>}> : (vector<2xi32>) -> i32
    %163 = "spirv.BitwiseXor"(%88, %149) : (vector<2xi32>, vector<2xi32>) -> vector<2xi32>
    %164 = "spirv.FUnordLessThan"(%108, %90) : (f16, f16) -> i1
    %165 = "tensor.extract"(%52, %16, %16) : (tensor<?x?xi32>, index, index) -> i32
    %166 = "affine.for"(%51) <{lowerBoundMap = affine_map<() -> (0)>, operandSegmentSizes = array<i32: 0, 0, 1>, step = 1 : index, upperBoundMap = affine_map<() -> (24)>}> ({
    ^bb0(%arg3: index, %arg4: tensor<15x13xi1>):
      "affine.yield"(%51) : (tensor<15x13xi1>) -> ()
    }) : (tensor<15x13xi1>) -> tensor<15x13xi1>
    %167 = "bufferization.to_tensor"(%70) : (memref<5x5x5xi32>) -> tensor<5x5x5xi32>
    %168 = "arith.andi"(%134, %134) : (i64, i64) -> i64
    %169 = "index.mul"(%40, %47) : (index, index) -> index
    %170 = "spirv.CL.round"(%86) : (f16) -> f16
    %171 = "memref.alloca"(%19) <{operandSegmentSizes = array<i32: 1, 0>}> : (index) -> memref<?xi64>
    %172 = "arith.addf"(%14, %109) <{fastmath = #arith.fastmath<none>}> : (f16, f16) -> f16
    %173 = "spirv.GL.Cos"(%81) : (f16) -> f16
    %174 = "math.copysign"(%85, %1) <{fastmath = #arith.fastmath<none>}> : (f32, f32) -> f32
    %175 = "spirv.CL.u_min"(%134, %130) : (i64, i64) -> i64
    %176 = "bufferization.clone"(%160) : (memref<15x13xi32>) -> memref<15x13xi32>
    %177 = "spirv.INotEqual"(%165, %3) : (i32, i32) -> i1
    %178 = "math.log2"(%126) <{fastmath = #arith.fastmath<none>}> : (f16) -> f16
    %179 = "arith.mulf"(%1, %157) <{fastmath = #arith.fastmath<none>}> : (f32, f32) -> f32
    "vector.warp_execute_on_lane_0"(%16) <{warp_size = 32 : i64}> ({
      %211 = "bufferization.clone"(%144) : (memref<5x5x5xf16>) -> memref<5x5x5xf16>
      "memref.store"(%14, %74, %19, %19, %16) <{nontemporal = false}> : (f16, memref<5x5x5xf16>, index, index, index) -> ()
      %212 = "math.round"(%10) <{fastmath = #arith.fastmath<none>}> : (f16) -> f16
      %213 = "vector.broadcast"(%139) : (f16) -> vector<15xf16>
      %214 = "vector.broadcast"(%177) : (i1) -> vector<15xi1>
      %215 = "vector.maskedload"(%211, %20, %19, %18, %214, %213) : (memref<5x5x5xf16>, index, index, index, vector<15xi1>, vector<15xf16>) -> vector<15xf16>
      %216 = "index.ceildivu"(%29, %18) : (index, index) -> index
      %217 = "arith.andi"(%177, %15) : (i1, i1) -> i1
      "memref.store"(%141, %75, %16) <{nontemporal = false}> : (i1, memref<?xi1>, index) -> ()
      %218 = "tensor.generate"(%151) ({
      ^bb0(%arg3: index, %arg4: index):
        %219 = "arith.cmpi"(%97, %114) <{predicate = 3 : i64}> : (i1, i1) -> i1
        %220 = "bufferization.clone"(%arg0) : (memref<6x6xi64>) -> memref<6x6xi64>
        %221 = "arith.mulf"(%173, %5) <{fastmath = #arith.fastmath<none>}> : (f16, f16) -> f16
        %222 = "tensor.empty"() : () -> tensor<195xi1>
        %223 = "tensor.unpack"(%51, %222, %29) <{inner_dims_pos = array<i64: 0>, outer_dims_perm = array<i64: 0>, static_inner_tiles = array<i64: -9223372036854775808>}> : (tensor<15x13xi1>, tensor<195xi1>, index) -> tensor<195xi1>
        "tensor.yield"(%7) : (i16) -> ()
      }) : (index) -> tensor<?x6xi16>
      "vector.yield"() : () -> ()
    }) : (index) -> ()
    %180 = "spirv.SGreaterThanEqual"(%143, %175) : (i64, i64) -> i1
    %181 = "scf.while"(%92) ({
    ^bb0(%arg3: vector<15x13xf32>):
      %211 = "tensor.extract"(%52, %16, %16) : (tensor<?x?xi32>, index, index) -> i32
      %212 = "math.absi"(%164) : (i1) -> i1
      "vector.warp_execute_on_lane_0"(%16) <{warp_size = 32 : i64}> ({
        %217 = "arith.mulf"(%85, %142) <{fastmath = #arith.fastmath<none>}> : (f32, f32) -> f32
        %218 = "arith.divsi"(%127, %113) : (i1, i1) -> i1
        %219 = "arith.divf"(%85, %142) <{fastmath = #arith.fastmath<none>}> : (f32, f32) -> f32
        %220 = "memref.cast"(%73) : (memref<?xf16>) -> memref<15xf16>
        %221 = "affine.min"(%146, %35, %122) <{map = affine_map<(d0, d1)[s0] -> ((d0 - 8) * 16)>}> : (index, index, index) -> index
        %222 = "linalg.matmul"(%123, %123, %123) <{operandSegmentSizes = array<i32: 2, 1>}> ({
        ^bb0(%arg4: i64, %arg5: i64, %arg6: i64):
          %224 = "arith.muli"(%arg4, %arg5) : (i64, i64) -> i64
          %225 = "arith.addi"(%arg6, %224) : (i64, i64) -> i64
          "linalg.yield"(%225) : (i64) -> ()
        }) {linalg.memoized_indexing_maps = [affine_map<(d0, d1, d2) -> (d0, d2)>, affine_map<(d0, d1, d2) -> (d2, d1)>, affine_map<(d0, d1, d2) -> (d0, d1)>]} : (tensor<6x6xi64>, tensor<6x6xi64>, tensor<6x6xi64>) -> tensor<6x6xi64>
        "memref.assume_alignment"(%arg0) <{alignment = 4 : i32}> : (memref<6x6xi64>) -> ()
        %223 = "arith.remsi"(%148, %141) : (i1, i1) -> i1
        "vector.yield"() : () -> ()
      }) : (index) -> ()
      %213 = "arith.addi"(%6, %0) : (i32, i32) -> i32
      %214 = "arith.muli"(%124, %148) : (i1, i1) -> i1
      "memref.store"(%3, %68, %26, %22) <{nontemporal = false}> : (i32, memref<15x13xi32>, index, index) -> ()
      %215 = "arith.floordivsi"(%105, %4) : (i64, i64) -> i64
      %216 = "arith.remui"(%7, %9) : (i16, i16) -> i16
      "scf.condition"(%127, %91) : (i1, vector<15x13xf32>) -> ()
    }, {
    ^bb0(%arg3: vector<15x13xf32>):
      %211 = "vector.broadcast"(%175) : (i64) -> vector<13xi64>
      %212 = "vector.broadcast"(%15) : (i1) -> vector<13xi1>
      %213 = "vector.maskedload"(%77, %19, %212, %211) : (memref<5xi64>, index, vector<13xi1>, vector<13xi64>) -> vector<13xi64>
      %214 = "index.and"(%151, %30) : (index, index) -> index
      %215 = "affine.max"(%155, %30) <{map = affine_map<(d0)[s0] -> (32)>}> : (index, index) -> index
      "bufferization.dealloc_tensor"(%52) : (tensor<?x?xi32>) -> ()
      %216 = "scf.index_switch"(%26) <{cases = array<i64: 1, 2, 3>}> ({
        %229 = "vector.broadcast"(%11) : (i1) -> vector<2xi1>
        "vector.compressstore"(%71, %16, %229, %149) : (memref<?xi32>, index, vector<2xi1>, vector<2xi32>) -> ()
        %230 = "vector.contract"(%213, %211, %175) <{indexing_maps = [affine_map<(d0) -> (d0)>, affine_map<(d0) -> (d0)>, affine_map<(d0) -> ()>], iterator_types = [#vector.iterator_type<reduction>], kind = #vector.kind<xor>}> : (vector<13xi64>, vector<13xi64>, i64) -> i64
        %231 = "tensor.empty"() : () -> tensor<13x6xi1>
        %232 = "tensor.empty"() : () -> tensor<15x6xi1>
        %233 = "linalg.matmul"(%79, %231, %232) <{operandSegmentSizes = array<i32: 2, 1>}> ({
        ^bb0(%arg4: i1, %arg5: i1, %arg6: i1):
          %248 = "arith.andi"(%arg4, %arg5) : (i1, i1) -> i1
          %249 = "arith.ori"(%arg6, %248) : (i1, i1) -> i1
          "linalg.yield"(%249) : (i1) -> ()
        }) {linalg.memoized_indexing_maps = [affine_map<(d0, d1, d2) -> (d0, d2)>, affine_map<(d0, d1, d2) -> (d2, d1)>, affine_map<(d0, d1, d2) -> (d0, d1)>]} : (memref<15x13xi1>, tensor<13x6xi1>, tensor<15x6xi1>) -> tensor<15x6xi1>
        %234 = "tensor.from_elements"(%9, %9, %7, %7, %13, %13, %7, %9, %9, %7, %9, %7, %9, %7, %7, %13, %7, %7, %13, %9, %13, %9, %7, %13, %13, %9, %7, %13, %9, %13, %13, %7, %13, %13, %9, %7) : (i16, i16, i16, i16, i16, i16, i16, i16, i16, i16, i16, i16, i16, i16, i16, i16, i16, i16, i16, i16, i16, i16, i16, i16, i16, i16, i16, i16, i16, i16, i16, i16, i16, i16, i16, i16) -> tensor<6x6xi16>
        %235 = "index.sub"(%18, %43) : (index, index) -> index
        %236 = "math.round"(%1) <{fastmath = #arith.fastmath<none>}> : (f32) -> f32
        %237 = "vector.matrix_multiply"(%149, %88) <{lhs_columns = 2 : i32, lhs_rows = 1 : i32, rhs_columns = 1 : i32}> : (vector<2xi32>, vector<2xi32>) -> vector<1xi32>
        %238 = "index.and"(%19, %34) : (index, index) -> index
        %239 = "math.copysign"(%170, %93) <{fastmath = #arith.fastmath<none>}> : (f16, f16) -> f16
        %240 = "arith.muli"(%152, %141) : (i1, i1) -> i1
        %241 = "affine.max"(%23, %41, %39, %169) <{map = affine_map<(d0, d1, d2, d3) -> ((d2 ceildiv 4) ceildiv 128)>}> : (index, index, index, index) -> index
        %242 = "linalg.copy"(%57, %57) <{operandSegmentSizes = array<i32: 1, 1>}> ({
        ^bb0(%arg4: i64, %arg5: i64):
          "linalg.yield"(%arg4) : (i64) -> ()
        }) : (tensor<?x13xi64>, tensor<?x13xi64>) -> tensor<?x13xi64>
        %243 = "arith.shrui"(%12, %165) : (i32, i32) -> i32
        %244 = "arith.ori"(%15, %148) : (i1, i1) -> i1
        %245 = "vector.broadcast"(%127) : (i1) -> vector<1xi1>
        "vector.compressstore"(%78, %16, %245, %237) : (memref<5xi32>, index, vector<1xi1>, vector<1xi32>) -> ()
        %246 = "bufferization.clone"(%160) : (memref<15x13xi32>) -> memref<15x13xi32>
        %247 = "memref.alloc"(%45) <{operandSegmentSizes = array<i32: 1, 0>}> : (index) -> memref<?xf32>
        "scf.yield"(%247) : (memref<?xf32>) -> ()
      }, {
        %229 = "index.and"(%25, %40) : (index, index) -> index
        %230 = "arith.divui"(%154, %138) : (i1, i1) -> i1
        %231 = "tensor.splat"(%130) : (i64) -> tensor<6x6xi64>
        %232 = "arith.minsi"(%152, %138) : (i1, i1) -> i1
        %233 = "vector.broadcast"(%142) : (f32) -> vector<13xf32>
        %234:2 = "vector.scan"(%92, %233) <{inclusive = false, kind = #vector.kind<mul>, reduction_dim = 0 : i64}> : (vector<15x13xf32>, vector<13xf32>) -> (vector<15x13xf32>, vector<13xf32>)
        %235 = "vector.matrix_multiply"(%149, %149) <{lhs_columns = 2 : i32, lhs_rows = 1 : i32, rhs_columns = 1 : i32}> : (vector<2xi32>, vector<2xi32>) -> vector<1xi32>
        %236 = "arith.divsi"(%0, %165) : (i32, i32) -> i32
        %237 = "arith.divf"(%86, %170) <{fastmath = #arith.fastmath<none>}> : (f16, f16) -> f16
        %238 = "affine.min"(%214, %19, %16, %25) <{map = affine_map<(d0, d1, d2, d3) -> ((d2 ceildiv 4) ceildiv 128)>}> : (index, index, index, index) -> index
        %239 = "math.cttz"(%97) : (i1) -> i1
        %240 = "math.tan"(%109) <{fastmath = #arith.fastmath<none>}> : (f16) -> f16
        %241 = "index.xor"(%29, %30) : (index, index) -> index
        %242 = "math.cttz"(%117) : (tensor<5xi32>) -> tensor<5xi32>
        %243 = "memref.cast"(%144) : (memref<5x5x5xf16>) -> memref<?x?x?xf16>
        %244 = "vector.bitcast"(%149) : (vector<2xi32>) -> vector<2xi32>
        "vector.compressstore"(%75, %16, %212, %212) : (memref<?xi1>, index, vector<13xi1>, vector<13xi1>) -> ()
        %245 = "memref.alloc"(%30) <{operandSegmentSizes = array<i32: 1, 0>}> : (index) -> memref<?xf32>
        "scf.yield"(%245) : (memref<?xf32>) -> ()
      }, {
        %229 = "math.round"(%14) <{fastmath = #arith.fastmath<none>}> : (f16) -> f16
        %230 = "memref.alloca"() <{operandSegmentSizes = array<i32: 0, 0>}> : () -> memref<5x5x5xi1>
        %231 = "arith.divui"(%159, %11) : (i1, i1) -> i1
        %232 = "arith.shrui"(%0, %3) : (i32, i32) -> i32
        %233 = "vector.extract_strided_slice"(%212) <{offsets = [11], sizes = [1], strides = [1]}> : (vector<13xi1>) -> vector<1xi1>
        %234 = "vector.bitcast"(%91) : (vector<15x13xf32>) -> vector<15x13xf32>
        %235 = "bufferization.clone"(%arg0) : (memref<6x6xi64>) -> memref<6x6xi64>
        %236 = "arith.xori"(%154, %11) : (i1, i1) -> i1
        %237 = "arith.divf"(%131, %139) <{fastmath = #arith.fastmath<none>}> : (f16, f16) -> f16
        %238 = "vector.shuffle"(%213, %211) <{mask = [1, 5, 6, 7, 9, 11, 13, 18, 20, 21, 22, 23, 24, 25]}> : (vector<13xi64>, vector<13xi64>) -> vector<14xi64>
        %239 = "vector.reduction"(%212) <{fastmath = #arith.fastmath<none>, kind = #vector.kind<minsi>}> : (vector<13xi1>) -> i1
        %240 = "vector.bitcast"(%91) : (vector<15x13xf32>) -> vector<15x13xf32>
        %241 = "arith.minui"(%154, %114) : (i1, i1) -> i1
        %242 = "index.casts"(%19) : (index) -> i32
        %243 = "arith.andi"(%11, %127) : (i1, i1) -> i1
        %244 = "arith.mulf"(%109, %5) <{fastmath = #arith.fastmath<none>}> : (f16, f16) -> f16
        %245 = "memref.alloc"(%161) <{operandSegmentSizes = array<i32: 1, 0>}> : (index) -> memref<?xf32>
        "scf.yield"(%245) : (memref<?xf32>) -> ()
      }, {
        %229 = "index.sub"(%33, %40) : (index, index) -> index
        %230 = "vector.flat_transpose"(%213) <{columns = 13 : i32, rows = 1 : i32}> : (vector<13xi64>) -> vector<13xi64>
        %231 = "math.cttz"(%51) : (tensor<15x13xi1>) -> tensor<15x13xi1>
        "memref.store"(%154, %79, %26, %17) <{nontemporal = false}> : (i1, memref<15x13xi1>, index, index) -> ()
        %232 = "tensor.extract"(%56, %16, %21) : (tensor<?x13xi16>, index, index) -> i16
        %233 = "vector.extract_strided_slice"(%213) <{offsets = [7], sizes = [5], strides = [1]}> : (vector<13xi64>) -> vector<5xi64>
        %234 = "vector.broadcast"(%157) : (f32) -> vector<15xf32>
        %235:2 = "vector.scan"(%91, %234) <{inclusive = false, kind = #vector.kind<add>, reduction_dim = 1 : i64}> : (vector<15x13xf32>, vector<15xf32>) -> (vector<15x13xf32>, vector<15xf32>)
        %236 = "index.ceildivu"(%36, %18) : (index, index) -> index
        %237 = "vector.broadcast"(%15) : (i1) -> vector<5x5x5xi1>
        %238 = "memref.alloc"() <{operandSegmentSizes = array<i32: 0, 0>}> : () -> memref<5xf16>
        %239 = "vector.broadcast"(%170) : (f16) -> vector<6x6xf16>
        %240 = "vector.broadcast"(%177) : (i1) -> vector<6x6xi1>
        %241 = "vector.broadcast"(%0) : (i32) -> vector<6x6xi32>
        %242 = "vector.gather"(%238, %43, %241, %240, %239) : (memref<5xf16>, index, vector<6x6xi32>, vector<6x6xi1>, vector<6x6xf16>) -> vector<6x6xf16>
        %243 = "memref.alloc"() <{operandSegmentSizes = array<i32: 0, 0>}> : () -> memref<15x13xf16>
        "memref.tensor_store"(%60, %243) : (tensor<15x13xf16>, memref<15x13xf16>) -> ()
        %244 = "arith.divf"(%86, %109) <{fastmath = #arith.fastmath<none>}> : (f16, f16) -> f16
        %245 = "vector.bitcast"(%211) : (vector<13xi64>) -> vector<13xi64>
        %246 = "arith.minui"(%4, %130) : (i64, i64) -> i64
        %247 = "math.round"(%5) <{fastmath = #arith.fastmath<none>}> : (f16) -> f16
        %248 = "math.ctlz"(%63) : (tensor<5xi64>) -> tensor<5xi64>
        %249 = "memref.alloc"(%28) <{operandSegmentSizes = array<i32: 1, 0>}> : (index) -> memref<?xf32>
        "scf.yield"(%249) : (memref<?xf32>) -> ()
      }) : (index) -> memref<?xf32>
      %217 = "index.xor"(%22, %80) : (index, index) -> index
      %218 = "vector.broadcast"(%145) : (f16) -> vector<15xf16>
      %219 = "vector.broadcast"(%127) : (i1) -> vector<15xi1>
      "vector.compressstore"(%69, %16, %16, %16, %219, %218) : (memref<?x?x5xf16>, index, index, index, vector<15xi1>, vector<15xf16>) -> ()
      %220 = "math.copysign"(%90, %173) <{fastmath = #arith.fastmath<none>}> : (f16, f16) -> f16
      %221 = "vector.reduction"(%212) <{fastmath = #arith.fastmath<none>, kind = #vector.kind<mul>}> : (vector<13xi1>) -> i1
      %222 = "vector.broadcast"(%148) : (i1) -> vector<5xi1>
      %223 = "vector.broadcast"(%3) : (i32) -> vector<5xi32>
      %224 = "vector.gather"(%48, %46, %161, %223, %222, %222) : (tensor<6x6xi1>, index, index, vector<5xi32>, vector<5xi1>, vector<5xi1>) -> vector<5xi1>
      "affine.parallel"() <{lowerBoundsGroups = dense<1> : tensor<2xi32>, lowerBoundsMap = affine_map<() -> (0, 0)>, reductions = [], steps = [1, 1], upperBoundsGroups = dense<1> : tensor<2xi32>, upperBoundsMap = affine_map<() -> (13, 6)>}> ({
      ^bb0(%arg4: index, %arg5: index):
        %229 = "vector.broadcast"(%2) : (f32) -> vector<15xf32>
        %230:2 = "vector.scan"(%91, %229) <{inclusive = true, kind = #vector.kind<minf>, reduction_dim = 1 : i64}> : (vector<15x13xf32>, vector<15xf32>) -> (vector<15x13xf32>, vector<15xf32>)
        "affine.yield"() : () -> ()
      }) : () -> ()
      "affine.store"(%157, %140, %26, %22) <{map = affine_map<(d0, d1) -> (d0, d1)>}> : (f32, memref<6x?xf32>, index, index) -> ()
      %225 = "index.shl"(%26, %47) : (index, index) -> index
      "vector.warp_execute_on_lane_0"(%16) <{warp_size = 32 : i64}> ({
        %229 = "vector.splat"(%225) : (index) -> vector<6x6xindex>
        %230 = "index.ceildivs"(%225, %146) : (index, index) -> index
        %231 = "index.casts"(%35) : (index) -> i32
        %232 = "affine.vector_load"(%74, %34, %25, %21) <{map = affine_map<(d0, d1, d2) -> (d0, d1, d2)>}> : (memref<5x5x5xf16>, index, index, index) -> vector<15xf16>
        %233 = "vector.bitcast"(%91) : (vector<15x13xf32>) -> vector<15x13xf32>
        %234 = "math.cttz"(%105) : (i64) -> i64
        %235 = "memref.alloca"() <{operandSegmentSizes = array<i32: 0, 0>}> : () -> memref<5xi32>
        %236 = "vector.load"(%71, %16) : (memref<?xi32>, index) -> vector<5x5x5xi32>
        "vector.yield"() : () -> ()
      }) : (index) -> ()
      %226 = "vector.broadcast"(%142) : (f32) -> vector<15xf32>
      %227:2 = "vector.scan"(%92, %226) <{inclusive = true, kind = #vector.kind<maxf>, reduction_dim = 1 : i64}> : (vector<15x13xf32>, vector<15xf32>) -> (vector<15x13xf32>, vector<15xf32>)
      %228 = "math.round"(%173) <{fastmath = #arith.fastmath<none>}> : (f16) -> f16
      "scf.yield"(%91) : (vector<15x13xf32>) -> ()
    }) : (vector<15x13xf32>) -> vector<15x13xf32>
    %182 = "memref.load"(%64, %16) <{nontemporal = false}> : (memref<?xi64>, index) -> i64
    %183 = "spirv.LogicalOr"(%124, %159) : (i1, i1) -> i1
    %184 = "spirv.GL.Tanh"(%109) : (f16) -> f16
    %185 = "math.round"(%49) <{fastmath = #arith.fastmath<none>}> : (tensor<?x6xf32>) -> tensor<?x6xf32>
    %186 = "tensor.collapse_shape"(%55) <{reassociation = [[0, 1], [2]]}> : (tensor<5x5x5xi16>) -> tensor<25x5xi16>
    "bufferization.dealloc_tensor"(%54) : (tensor<?x?xf16>) -> ()
    %187 = "vector.shuffle"(%92, %92) <{mask = [0, 1, 6, 7, 8, 12, 17, 18, 20, 24, 25, 27, 28]}> : (vector<15x13xf32>, vector<15x13xf32>) -> vector<13x13xf32>
    %188 = "vector.reduction"(%88) <{fastmath = #arith.fastmath<none>, kind = #vector.kind<minsi>}> : (vector<2xi32>) -> i32
    %189 = "linalg.matmul"(%48, %50, %48) <{operandSegmentSizes = array<i32: 2, 1>}> ({
    ^bb0(%arg3: i1, %arg4: i1, %arg5: i1):
      %211 = "arith.andi"(%arg3, %arg4) : (i1, i1) -> i1
      %212 = "arith.ori"(%arg5, %211) : (i1, i1) -> i1
      "linalg.yield"(%212) : (i1) -> ()
    }) {linalg.memoized_indexing_maps = [affine_map<(d0, d1, d2) -> (d0, d2)>, affine_map<(d0, d1, d2) -> (d2, d1)>, affine_map<(d0, d1, d2) -> (d0, d1)>]} : (tensor<6x6xi1>, tensor<6x6xi1>, tensor<6x6xi1>) -> tensor<6x6xi1>
    %190 = "memref.load"(%74, %18, %18, %16) <{nontemporal = false}> : (memref<5x5x5xf16>, index, index, index) -> f16
    %191 = "math.absi"(%48) : (tensor<6x6xi1>) -> tensor<6x6xi1>
    %192 = "spirv.BitwiseXor"(%149, %88) : (vector<2xi32>, vector<2xi32>) -> vector<2xi32>
    %193 = "spirv.GL.Tan"(%81) : (f16) -> f16
    %194 = "linalg.copy"(%60, %60) <{operandSegmentSizes = array<i32: 1, 1>}> ({
    ^bb0(%arg3: f16, %arg4: f16):
      "linalg.yield"(%arg3) : (f16) -> ()
    }) : (tensor<15x13xf16>, tensor<15x13xf16>) -> tensor<15x13xf16>
    %195 = "arith.remf"(%131, %86) <{fastmath = #arith.fastmath<none>}> : (f16, f16) -> f16
    %196 = "spirv.CL.exp"(%131) : (f16) -> f16
    %197 = "vector.broadcast"(%8) : (i1) -> vector<6x6xi1>
    %198 = "vector.transfer_read"(%75, %29, %154) <{operandSegmentSizes = array<i32: 1, 1, 1, 0>, permutation_map = affine_map<(d0) -> ()>}> : (memref<?xi1>, index, i1) -> vector<i1>
    %199 = "scf.while"(%58) ({
    ^bb0(%arg3: tensor<?x?x5xf16>):
      %211 = "arith.addi"(%159, %97) : (i1, i1) -> i1
      %212 = "arith.divsi"(%114, %138) : (i1, i1) -> i1
      "vector.print"(%88) <{punctuation = #vector.punctuation<newline>}> : (vector<2xi32>) -> ()
      %213 = "tensor.cast"(%117) : (tensor<5xi32>) -> tensor<?xi32>
      %214 = "math.tan"(%142) <{fastmath = #arith.fastmath<none>}> : (f32) -> f32
      %215 = "arith.remf"(%115, %193) <{fastmath = #arith.fastmath<none>}> : (f16, f16) -> f16
      "bufferization.dealloc_tensor"(%57) : (tensor<?x13xi64>) -> ()
      %216 = "arith.mulf"(%193, %90) <{fastmath = #arith.fastmath<none>}> : (f16, f16) -> f16
      %217 = "tensor.empty"(%31, %44) : (index, index) -> tensor<?x?x5xf16>
      "scf.condition"(%164, %217) : (i1, tensor<?x?x5xf16>) -> ()
    }, {
    ^bb0(%arg3: tensor<?x?x5xf16>):
      %211 = "scf.while"(%177) ({
      ^bb0(%arg4: i1):
        %227 = "tensor.collapse_shape"(%51) <{reassociation = [[0, 1]]}> : (tensor<15x13xi1>) -> tensor<195xi1>
        %228 = "arith.divf"(%196, %184) <{fastmath = #arith.fastmath<none>}> : (f16, f16) -> f16
        %229 = "vector.splat"(%165) : (i32) -> vector<15x13xi32>
        %230 = "vector.create_mask"(%103) : (index) -> vector<5xi1>
        %231 = "arith.constant"() <{value = -9408 : i16}> : () -> i16
        %232 = "index.shl"(%151, %20) : (index, index) -> index
        %233 = "index.castu"(%161) : (index) -> i32
        %234 = "tensor.rank"(%58) : (tensor<?x?x5xf16>) -> index
        "scf.condition"(%159, %180) : (i1, i1) -> ()
      }, {
      ^bb0(%arg4: i1):
        %227 = "affine.min"(%19, %17, %155) <{map = affine_map<(d0, d1, d2) -> (d1 floordiv 32 - 2)>}> : (index, index, index) -> index
        %228 = "math.tan"(%62) <{fastmath = #arith.fastmath<none>}> : (tensor<5x5x5xf16>) -> tensor<5x5x5xf16>
        %229 = "vector.mask"(%197) ({
          %247 = "vector.multi_reduction"(%197, %197) <{kind = #vector.kind<minui>, reduction_dims = []}> : (vector<6x6xi1>, vector<6x6xi1>) -> vector<6x6xi1>
          "vector.yield"(%247) : (vector<6x6xi1>) -> ()
        }) : (vector<6x6xi1>) -> vector<6x6xi1>
        %230 = "tensor.insert"(%3, %52, %16, %16) : (i32, tensor<?x?xi32>, index, index) -> tensor<?x?xi32>
        %231 = "index.maxs"(%169, %30) : (index, index) -> index
        %232 = "vector.broadcast"(%142) : (f32) -> vector<13xf32>
        %233:2 = "vector.scan"(%92, %232) <{inclusive = false, kind = #vector.kind<minf>, reduction_dim = 0 : i64}> : (vector<15x13xf32>, vector<13xf32>) -> (vector<15x13xf32>, vector<13xf32>)
        %234 = "vector.matrix_multiply"(%88, %88) <{lhs_columns = 2 : i32, lhs_rows = 1 : i32, rhs_columns = 1 : i32}> : (vector<2xi32>, vector<2xi32>) -> vector<1xi32>
        %235 = "math.floor"(%10) <{fastmath = #arith.fastmath<none>}> : (f16) -> f16
        %236 = "memref.alloc"() <{operandSegmentSizes = array<i32: 0, 0>}> : () -> memref<5xf32>
        %237 = "math.tanh"(%145) <{fastmath = #arith.fastmath<none>}> : (f16) -> f16
        %238 = "arith.addi"(%7, %9) : (i16, i16) -> i16
        %239 = "memref.alloc"() <{operandSegmentSizes = array<i32: 0, 0>}> : () -> memref<13x15xi64>
        %240 = "tensor.empty"(%169) : (index) -> tensor<?x15xi64>
        %241 = "linalg.matmul"(%57, %239, %240) <{operandSegmentSizes = array<i32: 2, 1>}> ({
        ^bb0(%arg5: i64, %arg6: i64, %arg7: i64):
          %247 = "arith.muli"(%arg5, %arg6) : (i64, i64) -> i64
          %248 = "arith.addi"(%arg7, %247) : (i64, i64) -> i64
          "linalg.yield"(%248) : (i64) -> ()
        }) {linalg.memoized_indexing_maps = [affine_map<(d0, d1, d2) -> (d0, d2)>, affine_map<(d0, d1, d2) -> (d2, d1)>, affine_map<(d0, d1, d2) -> (d0, d1)>]} : (tensor<?x13xi64>, memref<13x15xi64>, tensor<?x15xi64>) -> tensor<?x15xi64>
        %242 = "index.sub"(%30, %39) : (index, index) -> index
        %243 = "index.sub"(%21, %22) : (index, index) -> index
        %244 = "vector.broadcast"(%85) : (f32) -> vector<15xf32>
        %245:2 = "vector.scan"(%91, %244) <{inclusive = false, kind = #vector.kind<minf>, reduction_dim = 1 : i64}> : (vector<15x13xf32>, vector<15xf32>) -> (vector<15x13xf32>, vector<15xf32>)
        %246 = "vector.splat"(%134) : (i64) -> vector<15x13xi64>
        "scf.yield"(%114) : (i1) -> ()
      }) : (i1) -> i1
      %212 = "vector.create_mask"(%21, %28) : (index, index) -> vector<15x13xi1>
      %213 = "arith.divui"(%138, %141) : (i1, i1) -> i1
      %214 = "math.absi"(%55) : (tensor<5x5x5xi16>) -> tensor<5x5x5xi16>
      %215 = "math.copysign"(%194, %60) <{fastmath = #arith.fastmath<none>}> : (tensor<15x13xf16>, tensor<15x13xf16>) -> tensor<15x13xf16>
      %216 = "index.divs"(%33, %16) : (index, index) -> index
      %217 = "vector.broadcast"(%164) : (i1) -> vector<15x13xi1>
      %218 = "arith.remsi"(%7, %13) : (i16, i16) -> i16
      %219 = "vector.broadcast"(%3) : (i32) -> vector<i32>
      "vector.transfer_write"(%219, %78, %34) <{operandSegmentSizes = array<i32: 1, 1, 1, 0>, permutation_map = affine_map<(d0) -> ()>}> : (vector<i32>, memref<5xi32>, index) -> ()
      %220 = "vector.extract_strided_slice"(%88) <{offsets = [0], sizes = [2], strides = [1]}> : (vector<2xi32>) -> vector<2xi32>
      %221 = "scf.execute_region"() ({
        %227 = "math.log"(%60) <{fastmath = #arith.fastmath<none>}> : (tensor<15x13xf16>) -> tensor<15x13xf16>
        %228 = "tensor.cast"(%63) : (tensor<5xi64>) -> tensor<?xi64>
        %229 = "bufferization.clone"(%74) : (memref<5x5x5xf16>) -> memref<5x5x5xf16>
        %230 = "math.tanh"(%arg3) <{fastmath = #arith.fastmath<none>}> : (tensor<?x?x5xf16>) -> tensor<?x?x5xf16>
        %231 = "index.maxu"(%31, %151) : (index, index) -> index
        %232 = "math.exp"(%61) <{fastmath = #arith.fastmath<none>}> : (tensor<5xf16>) -> tensor<5xf16>
        "vector.print"(%197) <{punctuation = #vector.punctuation<newline>}> : (vector<6x6xi1>) -> ()
        %233 = "index.maxs"(%122, %42) : (index, index) -> index
        %234 = "math.fma"(%196, %145, %139) <{fastmath = #arith.fastmath<none>}> : (f16, f16, f16) -> f16
        %235 = "arith.muli"(%141, %148) : (i1, i1) -> i1
        %236 = "index.sizeof"() : () -> index
        %237 = "math.fma"(%62, %62, %62) <{fastmath = #arith.fastmath<none>}> : (tensor<5x5x5xf16>, tensor<5x5x5xf16>, tensor<5x5x5xf16>) -> tensor<5x5x5xf16>
        %238 = "vector.splat"(%155) : (index) -> vector<15x13xindex>
        %239 = "linalg.copy"(%48, %48) <{operandSegmentSizes = array<i32: 1, 1>}> ({
        ^bb0(%arg4: i1, %arg5: i1):
          "linalg.yield"(%arg4) : (i1) -> ()
        }) : (tensor<6x6xi1>, tensor<6x6xi1>) -> tensor<6x6xi1>
        %240 = "affine.min"(%161, %216, %29, %18) <{map = affine_map<(d0, d1, d2, d3) -> (d3)>}> : (index, index, index, index) -> index
        %241 = "index.maxs"(%80, %151) : (index, index) -> index
        %242 = "tensor.empty"() : () -> tensor<15x13xi64>
        "scf.yield"(%242) : (tensor<15x13xi64>) -> ()
      }) : () -> tensor<15x13xi64>
      %222 = "math.tan"(%131) <{fastmath = #arith.fastmath<none>}> : (f16) -> f16
      %223 = "linalg.transpose"(%62, %62) <{permutation = array<i64: 2, 0, 1>}> ({
      ^bb0(%arg4: f16, %arg5: f16):
        "linalg.yield"(%arg4) : (f16) -> ()
      }) : (tensor<5x5x5xf16>, tensor<5x5x5xf16>) -> tensor<5x5x5xf16>
      %224 = "arith.negf"(%90) <{fastmath = #arith.fastmath<none>}> : (f16) -> f16
      %225 = "index.mul"(%45, %40) : (index, index) -> index
      "affine.parallel"() <{lowerBoundsGroups = dense<1> : tensor<2xi32>, lowerBoundsMap = affine_map<() -> (0, 0)>, reductions = [], steps = [1, 1], upperBoundsGroups = dense<1> : tensor<2xi32>, upperBoundsMap = affine_map<() -> (5, 5)>}> ({
      ^bb0(%arg4: index, %arg5: index):
        "bufferization.dealloc_tensor"(%50) : (tensor<6x6xi1>) -> ()
        "affine.yield"() : () -> ()
      }) : () -> ()
      %226 = "tensor.empty"(%18, %31) : (index, index) -> tensor<?x?x5xf16>
      "scf.yield"(%226) : (tensor<?x?x5xf16>) -> ()
    }) : (tensor<?x?x5xf16>) -> tensor<?x?x5xf16>
    %200 = "math.absf"(%60) <{fastmath = #arith.fastmath<none>}> : (tensor<15x13xf16>) -> tensor<15x13xf16>
    %201 = "spirv.ULessThanEqual"(%175, %134) : (i64, i64) -> i1
    %202 = "vector.broadcast"(%85) : (f32) -> vector<13xf32>
    %203:2 = "vector.scan"(%92, %202) <{inclusive = false, kind = #vector.kind<add>, reduction_dim = 0 : i64}> : (vector<15x13xf32>, vector<13xf32>) -> (vector<15x13xf32>, vector<13xf32>)
    %204 = "spirv.GL.Fma"(%173, %109, %14) : (f16, f16, f16) -> f16
    %205 = "vector.broadcast"(%177) : (i1) -> vector<6x6xi1>
    "memref.assume_alignment"(%arg2) <{alignment = 8 : i32}> : (memref<?xi32>) -> ()
    %206 = "vector.transfer_read"(%123, %19, %20, %134) <{operandSegmentSizes = array<i32: 1, 2, 1, 0>, permutation_map = affine_map<(d0, d1) -> ()>}> : (tensor<6x6xi64>, index, index, i64) -> vector<i64>
    %207 = "spirv.CL.log"(%5) : (f16) -> f16
    %208 = "spirv.GL.Ceil"(%14) : (f16) -> f16
    %209 = "arith.andi"(%180, %97) : (i1, i1) -> i1
    "vector.print"(%88) <{punctuation = #vector.punctuation<newline>}> : (vector<2xi32>) -> ()
    "vector.print"(%91) <{punctuation = #vector.punctuation<newline>}> : (vector<15x13xf32>) -> ()
    "vector.print"(%92) <{punctuation = #vector.punctuation<newline>}> : (vector<15x13xf32>) -> ()
    "vector.print"(%149) <{punctuation = #vector.punctuation<newline>}> : (vector<2xi32>) -> ()
    "vector.print"(%197) <{punctuation = #vector.punctuation<newline>}> : (vector<6x6xi1>) -> ()
    "vector.print"(%205) <{punctuation = #vector.punctuation<newline>}> : (vector<6x6xi1>) -> ()
    "vector.print"(%0) <{punctuation = #vector.punctuation<newline>}> : (i32) -> ()
    "vector.print"(%1) <{punctuation = #vector.punctuation<newline>}> : (f32) -> ()
    "vector.print"(%2) <{punctuation = #vector.punctuation<newline>}> : (f32) -> ()
    "vector.print"(%3) <{punctuation = #vector.punctuation<newline>}> : (i32) -> ()
    "vector.print"(%4) <{punctuation = #vector.punctuation<newline>}> : (i64) -> ()
    "vector.print"(%5) <{punctuation = #vector.punctuation<newline>}> : (f16) -> ()
    "vector.print"(%6) <{punctuation = #vector.punctuation<newline>}> : (i32) -> ()
    "vector.print"(%7) <{punctuation = #vector.punctuation<newline>}> : (i16) -> ()
    "vector.print"(%8) <{punctuation = #vector.punctuation<newline>}> : (i1) -> ()
    "vector.print"(%9) <{punctuation = #vector.punctuation<newline>}> : (i16) -> ()
    "vector.print"(%10) <{punctuation = #vector.punctuation<newline>}> : (f16) -> ()
    "vector.print"(%11) <{punctuation = #vector.punctuation<newline>}> : (i1) -> ()
    "vector.print"(%12) <{punctuation = #vector.punctuation<newline>}> : (i32) -> ()
    "vector.print"(%13) <{punctuation = #vector.punctuation<newline>}> : (i16) -> ()
    "vector.print"(%14) <{punctuation = #vector.punctuation<newline>}> : (f16) -> ()
    "vector.print"(%15) <{punctuation = #vector.punctuation<newline>}> : (i1) -> ()
    "vector.print"(%81) <{punctuation = #vector.punctuation<newline>}> : (f16) -> ()
    "vector.print"(%85) <{punctuation = #vector.punctuation<newline>}> : (f32) -> ()
    "vector.print"(%86) <{punctuation = #vector.punctuation<newline>}> : (f16) -> ()
    "vector.print"(%90) <{punctuation = #vector.punctuation<newline>}> : (f16) -> ()
    "vector.print"(%93) <{punctuation = #vector.punctuation<newline>}> : (f16) -> ()
    "vector.print"(%97) <{punctuation = #vector.punctuation<newline>}> : (i1) -> ()
    "vector.print"(%105) <{punctuation = #vector.punctuation<newline>}> : (i64) -> ()
    "vector.print"(%108) <{punctuation = #vector.punctuation<newline>}> : (f16) -> ()
    "vector.print"(%109) <{punctuation = #vector.punctuation<newline>}> : (f16) -> ()
    "vector.print"(%113) <{punctuation = #vector.punctuation<newline>}> : (i1) -> ()
    "vector.print"(%114) <{punctuation = #vector.punctuation<newline>}> : (i1) -> ()
    "vector.print"(%115) <{punctuation = #vector.punctuation<newline>}> : (f16) -> ()
    "vector.print"(%124) <{punctuation = #vector.punctuation<newline>}> : (i1) -> ()
    "vector.print"(%126) <{punctuation = #vector.punctuation<newline>}> : (f16) -> ()
    "vector.print"(%127) <{punctuation = #vector.punctuation<newline>}> : (i1) -> ()
    "vector.print"(%130) <{punctuation = #vector.punctuation<newline>}> : (i64) -> ()
    "vector.print"(%131) <{punctuation = #vector.punctuation<newline>}> : (f16) -> ()
    "vector.print"(%134) <{punctuation = #vector.punctuation<newline>}> : (i64) -> ()
    "vector.print"(%135) <{punctuation = #vector.punctuation<newline>}> : (f16) -> ()
    "vector.print"(%138) <{punctuation = #vector.punctuation<newline>}> : (i1) -> ()
    "vector.print"(%139) <{punctuation = #vector.punctuation<newline>}> : (f16) -> ()
    "vector.print"(%141) <{punctuation = #vector.punctuation<newline>}> : (i1) -> ()
    "vector.print"(%142) <{punctuation = #vector.punctuation<newline>}> : (f32) -> ()
    "vector.print"(%143) <{punctuation = #vector.punctuation<newline>}> : (i64) -> ()
    "vector.print"(%145) <{punctuation = #vector.punctuation<newline>}> : (f16) -> ()
    "vector.print"(%148) <{punctuation = #vector.punctuation<newline>}> : (i1) -> ()
    "vector.print"(%152) <{punctuation = #vector.punctuation<newline>}> : (i1) -> ()
    "vector.print"(%154) <{punctuation = #vector.punctuation<newline>}> : (i1) -> ()
    "vector.print"(%157) <{punctuation = #vector.punctuation<newline>}> : (f32) -> ()
    "vector.print"(%159) <{punctuation = #vector.punctuation<newline>}> : (i1) -> ()
    "vector.print"(%164) <{punctuation = #vector.punctuation<newline>}> : (i1) -> ()
    "vector.print"(%165) <{punctuation = #vector.punctuation<newline>}> : (i32) -> ()
    "vector.print"(%170) <{punctuation = #vector.punctuation<newline>}> : (f16) -> ()
    "vector.print"(%173) <{punctuation = #vector.punctuation<newline>}> : (f16) -> ()
    "vector.print"(%175) <{punctuation = #vector.punctuation<newline>}> : (i64) -> ()
    "vector.print"(%177) <{punctuation = #vector.punctuation<newline>}> : (i1) -> ()
    "vector.print"(%180) <{punctuation = #vector.punctuation<newline>}> : (i1) -> ()
    "vector.print"(%183) <{punctuation = #vector.punctuation<newline>}> : (i1) -> ()
    "vector.print"(%184) <{punctuation = #vector.punctuation<newline>}> : (f16) -> ()
    "vector.print"(%193) <{punctuation = #vector.punctuation<newline>}> : (f16) -> ()
    "vector.print"(%196) <{punctuation = #vector.punctuation<newline>}> : (f16) -> ()
    "vector.print"(%201) <{punctuation = #vector.punctuation<newline>}> : (i1) -> ()
    "vector.print"(%204) <{punctuation = #vector.punctuation<newline>}> : (f16) -> ()
    "vector.print"(%207) <{punctuation = #vector.punctuation<newline>}> : (f16) -> ()
    "vector.print"(%208) <{punctuation = #vector.punctuation<newline>}> : (f16) -> ()
    %210 = "tensor.empty"(%151, %40) : (index, index) -> tensor<?x?xi64>
    "func.return"(%210) : (tensor<?x?xi64>) -> ()
  }) : () -> ()
  "func.func"() <{function_type = () -> i64, sym_name = "func2", sym_visibility = "private"}> ({
    %0 = "arith.constant"() <{value = 116878384 : i32}> : () -> i32
    %1 = "arith.constant"() <{value = 2.11043392E+9 : f32}> : () -> f32
    %2 = "arith.constant"() <{value = 2.01912973E+9 : f32}> : () -> f32
    %3 = "arith.constant"() <{value = 1463974511 : i32}> : () -> i32
    %4 = "arith.constant"() <{value = 1511036385 : i64}> : () -> i64
    %5 = "arith.constant"() <{value = 2.563200e+04 : f16}> : () -> f16
    %6 = "arith.constant"() <{value = 343406417 : i32}> : () -> i32
    %7 = "arith.constant"() <{value = 29878 : i16}> : () -> i16
    %8 = "arith.constant"() <{value = true}> : () -> i1
    %9 = "arith.constant"() <{value = 9524 : i16}> : () -> i16
    %10 = "arith.constant"() <{value = 1.780800e+04 : f16}> : () -> f16
    %11 = "arith.constant"() <{value = true}> : () -> i1
    %12 = "arith.constant"() <{value = 2066966556 : i32}> : () -> i32
    %13 = "arith.constant"() <{value = -13838 : i16}> : () -> i16
    %14 = "arith.constant"() <{value = 2.612800e+04 : f16}> : () -> f16
    %15 = "arith.constant"() <{value = false}> : () -> i1
    %16 = "arith.constant"() <{value = 0 : index}> : () -> index
    %17 = "arith.constant"() <{value = 1 : index}> : () -> index
    %18 = "arith.constant"() <{value = 2 : index}> : () -> index
    %19 = "arith.constant"() <{value = 3 : index}> : () -> index
    %20 = "arith.constant"() <{value = 4 : index}> : () -> index
    %21 = "arith.constant"() <{value = 5 : index}> : () -> index
    %22 = "arith.constant"() <{value = 6 : index}> : () -> index
    %23 = "arith.constant"() <{value = 7 : index}> : () -> index
    %24 = "arith.constant"() <{value = 8 : index}> : () -> index
    %25 = "arith.constant"() <{value = 9 : index}> : () -> index
    %26 = "arith.constant"() <{value = 10 : index}> : () -> index
    %27 = "arith.constant"() <{value = 11 : index}> : () -> index
    %28 = "arith.constant"() <{value = 12 : index}> : () -> index
    %29 = "arith.constant"() <{value = 13 : index}> : () -> index
    %30 = "arith.constant"() <{value = 14 : index}> : () -> index
    %31 = "arith.constant"() <{value = 15 : index}> : () -> index
    %32 = "arith.constant"() <{value = 16 : index}> : () -> index
    %33 = "arith.constant"() <{value = 17 : index}> : () -> index
    %34 = "arith.constant"() <{value = 18 : index}> : () -> index
    %35 = "arith.constant"() <{value = 19 : index}> : () -> index
    %36 = "arith.constant"() <{value = 20 : index}> : () -> index
    %37 = "arith.constant"() <{value = 21 : index}> : () -> index
    %38 = "arith.constant"() <{value = 22 : index}> : () -> index
    %39 = "arith.constant"() <{value = 23 : index}> : () -> index
    %40 = "arith.constant"() <{value = 24 : index}> : () -> index
    %41 = "arith.constant"() <{value = 25 : index}> : () -> index
    %42 = "arith.constant"() <{value = 26 : index}> : () -> index
    %43 = "arith.constant"() <{value = 27 : index}> : () -> index
    %44 = "arith.constant"() <{value = 28 : index}> : () -> index
    %45 = "arith.constant"() <{value = 29 : index}> : () -> index
    %46 = "arith.constant"() <{value = 30 : index}> : () -> index
    %47 = "arith.constant"() <{value = 31 : index}> : () -> index
    %48 = "tensor.empty"() : () -> tensor<6x6xi1>
    %49 = "tensor.empty"(%28) : (index) -> tensor<?x6xf32>
    %50 = "tensor.empty"() : () -> tensor<6x6xi1>
    %51 = "tensor.empty"() : () -> tensor<15x13xi1>
    %52 = "tensor.empty"(%38, %34) : (index, index) -> tensor<?x?xi32>
    %53 = "tensor.empty"() : () -> tensor<5xi64>
    %54 = "tensor.empty"(%22, %22) : (index, index) -> tensor<?x?xf16>
    %55 = "tensor.empty"() : () -> tensor<5x5x5xi16>
    %56 = "tensor.empty"(%38) : (index) -> tensor<?x13xi16>
    %57 = "tensor.empty"(%32) : (index) -> tensor<?x13xi64>
    %58 = "tensor.empty"(%31, %46) : (index, index) -> tensor<?x?x5xf16>
    %59 = "tensor.empty"(%21) : (index) -> tensor<?xi32>
    %60 = "tensor.empty"() : () -> tensor<15x13xf16>
    %61 = "tensor.empty"() : () -> tensor<5xf16>
    %62 = "tensor.empty"() : () -> tensor<5x5x5xf16>
    %63 = "tensor.empty"() : () -> tensor<5xi64>
    %64 = "memref.alloc"(%19) <{operandSegmentSizes = array<i32: 1, 0>}> : (index) -> memref<?xi64>
    %65 = "memref.alloc"(%28) <{operandSegmentSizes = array<i32: 1, 0>}> : (index) -> memref<?xf16>
    %66 = "memref.alloc"(%43, %24, %17) <{operandSegmentSizes = array<i32: 3, 0>}> : (index, index, index) -> memref<?x?x?xf16>
    %67 = "memref.alloc"(%37) <{operandSegmentSizes = array<i32: 1, 0>}> : (index) -> memref<?x13xf32>
    %68 = "memref.alloc"() <{operandSegmentSizes = array<i32: 0, 0>}> : () -> memref<15x13xi32>
    %69 = "memref.alloc"(%23, %23) <{operandSegmentSizes = array<i32: 2, 0>}> : (index, index) -> memref<?x?x5xf16>
    %70 = "memref.alloc"() <{operandSegmentSizes = array<i32: 0, 0>}> : () -> memref<5x5x5xi32>
    %71 = "memref.alloc"(%46) <{operandSegmentSizes = array<i32: 1, 0>}> : (index) -> memref<?xi32>
    %72 = "memref.alloc"() <{operandSegmentSizes = array<i32: 0, 0>}> : () -> memref<15x13xi16>
    %73 = "memref.alloc"(%31) <{operandSegmentSizes = array<i32: 1, 0>}> : (index) -> memref<?xf16>
    %74 = "memref.alloc"() <{operandSegmentSizes = array<i32: 0, 0>}> : () -> memref<5x5x5xf16>
    %75 = "memref.alloc"(%21) <{operandSegmentSizes = array<i32: 1, 0>}> : (index) -> memref<?xi1>
    %76 = "memref.alloc"(%17) <{operandSegmentSizes = array<i32: 1, 0>}> : (index) -> memref<?x13xi1>
    %77 = "memref.alloc"() <{operandSegmentSizes = array<i32: 0, 0>}> : () -> memref<5xi64>
    %78 = "memref.alloc"() <{operandSegmentSizes = array<i32: 0, 0>}> : () -> memref<5xi32>
    %79 = "memref.alloc"() <{operandSegmentSizes = array<i32: 0, 0>}> : () -> memref<15x13xi1>
    %80 = "spirv.CL.sin"(%5) : (f16) -> f16
    %81 = "spirv.CL.round"(%1) : (f32) -> f32
    %82 = "spirv.GL.Sinh"(%2) : (f32) -> f32
    %83 = "spirv.GL.FMin"(%10, %14) : (f16, f16) -> f16
    %84 = "tensor.cast"(%62) : (tensor<5x5x5xf16>) -> tensor<?x?x?xf16>
    %85 = "arith.addf"(%1, %81) <{fastmath = #arith.fastmath<none>}> : (f32, f32) -> f32
    "bufferization.dealloc_tensor"(%84) : (tensor<?x?x?xf16>) -> ()
    %86 = "arith.divf"(%14, %83) <{fastmath = #arith.fastmath<none>}> : (f16, f16) -> f16
    "scf.execute_region"() ({
      %204 = "index.castu"(%7) : (i16) -> index
      "memref.store"(%11, %79, %23, %18) <{nontemporal = false}> : (i1, memref<15x13xi1>, index, index) -> ()
      "linalg.transpose"(%59, %71) <{permutation = array<i64: 0>}> ({
      ^bb0(%arg0: i32, %arg1: i32):
        "linalg.yield"(%arg0) : (i32) -> ()
      }) : (tensor<?xi32>, memref<?xi32>) -> ()
      %205 = "tensor.collapse_shape"(%52) <{reassociation = [[0, 1]]}> : (tensor<?x?xi32>) -> tensor<?xi32>
      %206 = "index.castu"(%41) : (index) -> i32
      %207 = "tensor.empty"(%36) : (index) -> tensor<?x13xi16>
      %208 = "linalg.map"(%56, %207) ({
      ^bb0(%arg0: i16):
        %222 = "arith.divsi"(%7, %7) : (i16, i16) -> i16
        %223 = "index.divu"(%35, %37) : (index, index) -> index
        %224 = "arith.shrui"(%9, %9) : (i16, i16) -> i16
        %225 = "arith.remf"(%14, %83) <{fastmath = #arith.fastmath<none>}> : (f16, f16) -> f16
        %226 = "vector.broadcast"(%1) : (f32) -> vector<15x13xf32>
        %227 = "arith.shrui"(%6, %3) : (i32, i32) -> i32
        %228 = "vector.broadcast"(%9) : (i16) -> vector<13xi16>
        %229 = "vector.reduction"(%228) <{fastmath = #arith.fastmath<none>, kind = #vector.kind<maxui>}> : (vector<13xi16>) -> i16
        %230 = "math.tanh"(%49) <{fastmath = #arith.fastmath<none>}> : (tensor<?x6xf32>) -> tensor<?x6xf32>
        %231 = "math.ctlz"(%59) : (tensor<?xi32>) -> tensor<?xi32>
        %232 = "tensor.splat"(%2) : (f32) -> tensor<5xf32>
        %233 = "tensor.empty"() : () -> tensor<36xi1>
        %234 = "tensor.unpack"(%48, %233, %22) <{inner_dims_pos = array<i64: 0>, outer_dims_perm = array<i64: 0>, static_inner_tiles = array<i64: -9223372036854775808>}> : (tensor<6x6xi1>, tensor<36xi1>, index) -> tensor<36xi1>
        %235 = "affine.max"(%20, %36) <{map = affine_map<(d0, d1) -> (-(d1 floordiv 8))>}> : (index, index) -> index
        %236 = "index.ceildivs"(%23, %30) : (index, index) -> index
        %237 = "math.expm1"(%62) <{fastmath = #arith.fastmath<none>}> : (tensor<5x5x5xf16>) -> tensor<5x5x5xf16>
        %238 = "index.ceildivu"(%40, %204) : (index, index) -> index
        %239 = "math.round"(%62) <{fastmath = #arith.fastmath<none>}> : (tensor<5x5x5xf16>) -> tensor<5x5x5xf16>
        %240 = "arith.shrui"(%0, %6) : (i32, i32) -> i32
        %241 = "vector.broadcast"(%81) : (f32) -> vector<13xf32>
        %242:2 = "vector.scan"(%226, %241) <{inclusive = true, kind = #vector.kind<mul>, reduction_dim = 0 : i64}> : (vector<15x13xf32>, vector<13xf32>) -> (vector<15x13xf32>, vector<13xf32>)
        %243 = "arith.mulf"(%1, %1) <{fastmath = #arith.fastmath<none>}> : (f32, f32) -> f32
        %244 = "math.absi"(%63) : (tensor<5xi64>) -> tensor<5xi64>
        %245 = "arith.divf"(%83, %80) <{fastmath = #arith.fastmath<none>}> : (f16, f16) -> f16
        %246 = "tensor.extract"(%50, %20, %21) : (tensor<6x6xi1>, index, index) -> i1
        %247 = "tensor.splat"(%arg0) : (i16) -> tensor<5xi16>
        %248 = "math.round"(%58) <{fastmath = #arith.fastmath<none>}> : (tensor<?x?x5xf16>) -> tensor<?x?x5xf16>
        %249 = "memref.cast"(%77) : (memref<5xi64>) -> memref<5xi64>
        %250 = "arith.shli"(%8, %11) : (i1, i1) -> i1
        %251 = "index.maxs"(%43, %238) : (index, index) -> index
        %252 = "math.absf"(%1) <{fastmath = #arith.fastmath<none>}> : (f32) -> f32
        %253 = "math.tan"(%49) <{fastmath = #arith.fastmath<none>}> : (tensor<?x6xf32>) -> tensor<?x6xf32>
        %254 = "memref.atomic_rmw"(%4, %77, %18) <{kind = 2 : i64}> : (i64, memref<5xi64>, index) -> i64
        %255 = "index.mul"(%30, %25) : (index, index) -> index
        %256 = "math.sqrt"(%82) <{fastmath = #arith.fastmath<none>}> : (f32) -> f32
        "linalg.yield"(%9) : (i16) -> ()
      }) : (tensor<?x13xi16>, tensor<?x13xi16>) -> tensor<?x13xi16>
      %209 = "vector.broadcast"(%9) : (i16) -> vector<1xi16>
      %210 = "vector.broadcast"(%11) : (i1) -> vector<1xi1>
      %211 = "vector.mask"(%210) ({
        %222 = "vector.multi_reduction"(%209, %209) <{kind = #vector.kind<minui>, reduction_dims = []}> : (vector<1xi16>, vector<1xi16>) -> vector<1xi16>
        "vector.yield"(%222) : (vector<1xi16>) -> ()
      }) : (vector<1xi1>) -> vector<1xi16>
      %212 = "arith.shli"(%13, %7) : (i16, i16) -> i16
      %213 = "math.roundeven"(%49) <{fastmath = #arith.fastmath<none>}> : (tensor<?x6xf32>) -> tensor<?x6xf32>
      %214 = "math.cttz"(%51) : (tensor<15x13xi1>) -> tensor<15x13xi1>
      %215 = "memref.alloc"() <{operandSegmentSizes = array<i32: 0, 0>}> : () -> memref<6x6xi1>
      "linalg.transpose"(%48, %215) <{permutation = array<i64: 1, 0>}> ({
      ^bb0(%arg0: i1, %arg1: i1):
        "linalg.yield"(%arg0) : (i1) -> ()
      }) : (tensor<6x6xi1>, memref<6x6xi1>) -> ()
      %216 = "index.and"(%33, %30) : (index, index) -> index
      %217 = "tensor.splat"(%2) : (f32) -> tensor<5x5x5xf32>
      %218 = "arith.addi"(%12, %12) : (i32, i32) -> i32
      %219 = "memref.alloc"() <{operandSegmentSizes = array<i32: 0, 0>}> : () -> memref<i32>
      %220 = "tensor.empty"() : () -> tensor<i32>
      %221 = "linalg.generic"(%71, %205, %219, %220, %59) <{indexing_maps = [affine_map<(d0) -> (d0)>, affine_map<(d0) -> (d0)>, affine_map<(d0) -> ()>, affine_map<(d0) -> ()>, affine_map<(d0) -> (d0)>], iterator_types = [#linalg.iterator_type<parallel>], operandSegmentSizes = array<i32: 4, 1>}> ({
      ^bb0(%arg0: i32, %arg1: i32, %arg2: i32, %arg3: i32, %arg4: i32):
        %222 = "arith.addi"(%4, %4) : (i64, i64) -> i64
        "linalg.yield"(%arg2) : (i32) -> ()
      }) : (memref<?xi32>, tensor<?xi32>, memref<i32>, tensor<i32>, tensor<?xi32>) -> tensor<?xi32>
      "scf.if"(%11) ({
        %222 = "vector.transfer_read"(%55, %38, %26, %27, %9) <{operandSegmentSizes = array<i32: 1, 3, 1, 0>, permutation_map = affine_map<(d0, d1, d2) -> (d2)>}> : (tensor<5x5x5xi16>, index, index, index, i16) -> vector<13xi16>
        %223 = "index.bool.constant"() <{value = false}> : () -> i1
        %224 = "index.mul"(%40, %35) : (index, index) -> index
        %225 = "math.copysign"(%14, %10) <{fastmath = #arith.fastmath<none>}> : (f16, f16) -> f16
        %226 = "math.ctlz"(%51) : (tensor<15x13xi1>) -> tensor<15x13xi1>
        %227 = "bufferization.to_memref"(%52) : (tensor<?x?xi32>) -> memref<?x?xi32>
        %228 = "vector.broadcast"(%2) : (f32) -> vector<6x6xf32>
        %229 = "vector.fma"(%228, %228, %228) : (vector<6x6xf32>, vector<6x6xf32>, vector<6x6xf32>) -> vector<6x6xf32>
        %230 = "arith.mulf"(%5, %80) <{fastmath = #arith.fastmath<none>}> : (f16, f16) -> f16
        "scf.yield"() : () -> ()
      }, {
      }) : (i1) -> ()
      "scf.yield"() : () -> ()
    }) : () -> ()
    "scf.index_switch"(%37) <{cases = array<i64: 1, 2>}> ({
      %204 = "tensor.empty"() : () -> tensor<13x13xi1>
      %205 = "tensor.empty"(%40) : (index) -> tensor<?x13xi1>
      %206 = "linalg.matmul"(%76, %204, %205) <{operandSegmentSizes = array<i32: 2, 1>}> ({
      ^bb0(%arg0: i1, %arg1: i1, %arg2: i1):
        %221 = "arith.andi"(%arg0, %arg1) : (i1, i1) -> i1
        %222 = "arith.ori"(%arg2, %221) : (i1, i1) -> i1
        "linalg.yield"(%222) : (i1) -> ()
      }) {linalg.memoized_indexing_maps = [affine_map<(d0, d1, d2) -> (d0, d2)>, affine_map<(d0, d1, d2) -> (d2, d1)>, affine_map<(d0, d1, d2) -> (d0, d1)>]} : (memref<?x13xi1>, tensor<13x13xi1>, tensor<?x13xi1>) -> tensor<?x13xi1>
      %207 = "arith.constant"() <{value = 1092692136 : i32}> : () -> i32
      "scf.parallel"(%24, %23, %26) <{operandSegmentSizes = array<i32: 1, 1, 1, 0>}> ({
      ^bb0(%arg0: index):
        %221 = "tensor.collapse_shape"(%55) <{reassociation = [[0, 1], [2]]}> : (tensor<5x5x5xi16>) -> tensor<25x5xi16>
        %222 = "arith.remui"(%9, %9) : (i16, i16) -> i16
        %223 = "affine.load"(%71, %30) <{map = affine_map<(d0) -> (d0)>}> : (memref<?xi32>, index) -> i32
        %224 = "memref.cast"(%77) : (memref<5xi64>) -> memref<5xi64>
        %225 = "arith.divui"(%11, %15) : (i1, i1) -> i1
        %226 = "index.shru"(%17, %42) : (index, index) -> index
        %227 = "index.mul"(%36, %arg0) : (index, index) -> index
        %228 = "math.tan"(%1) <{fastmath = #arith.fastmath<none>}> : (f32) -> f32
        %229 = "arith.constant"() <{value = 0 : i64}> : () -> i64
        %230 = "vector.transfer_read"(%53, %23, %229) <{operandSegmentSizes = array<i32: 1, 1, 1, 0>, permutation_map = affine_map<(d0) -> ()>}> : (tensor<5xi64>, index, i64) -> vector<i64>
        %231 = "arith.divf"(%2, %82) <{fastmath = #arith.fastmath<none>}> : (f32, f32) -> f32
        %232 = "math.fma"(%60, %60, %60) <{fastmath = #arith.fastmath<none>}> : (tensor<15x13xf16>, tensor<15x13xf16>, tensor<15x13xf16>) -> tensor<15x13xf16>
        %233 = "index.bool.constant"() <{value = true}> : () -> i1
        %234 = "tensor.rank"(%49) : (tensor<?x6xf32>) -> index
        %235 = "arith.remf"(%82, %82) <{fastmath = #arith.fastmath<none>}> : (f32, f32) -> f32
        %236 = "arith.cmpi"(%9, %7) <{predicate = 0 : i64}> : (i16, i16) -> i1
        %237 = "index.castu"(%15) : (i1) -> index
        "scf.yield"() : () -> ()
      }) : (index, index, index) -> ()
      %208 = "tensor.extract"(%52, %16, %16) : (tensor<?x?xi32>, index, index) -> i32
      %209 = "vector.broadcast"(%14) : (f16) -> vector<5xf16>
      "affine.vector_store"(%209, %66, %47, %37, %24) <{map = affine_map<(d0, d1, d2) -> (d0, d1, d2)>}> : (vector<5xf16>, memref<?x?x?xf16>, index, index, index) -> ()
      %210 = "tensor.empty"() : () -> tensor<6x6xi32>
      %211 = "arith.shli"(%12, %12) : (i32, i32) -> i32
      %212 = "math.atan"(%49) <{fastmath = #arith.fastmath<none>}> : (tensor<?x6xf32>) -> tensor<?x6xf32>
      %213 = "vector.transpose"(%209) <{transp = [0]}> : (vector<5xf16>) -> vector<5xf16>
      "bufferization.dealloc_tensor"(%60) : (tensor<15x13xf16>) -> ()
      %214 = "tensor.empty"(%47) : (index) -> tensor<13x?xi1>
      %215 = "linalg.transpose"(%76, %214) <{permutation = array<i64: 1, 0>}> ({
      ^bb0(%arg0: i1, %arg1: i1):
        "linalg.yield"(%arg0) : (i1) -> ()
      }) : (memref<?x13xi1>, tensor<13x?xi1>) -> tensor<13x?xi1>
      %216 = "memref.load"(%75, %16) <{nontemporal = false}> : (memref<?xi1>, index) -> i1
      %217 = "arith.mulf"(%1, %2) <{fastmath = #arith.fastmath<none>}> : (f32, f32) -> f32
      %218 = "scf.while"(%51) ({
      ^bb0(%arg0: tensor<15x13xi1>):
        %221 = "math.round"(%61) <{fastmath = #arith.fastmath<none>}> : (tensor<5xf16>) -> tensor<5xf16>
        %222 = "tensor.empty"() : () -> tensor<13x15xi32>
        %223 = "linalg.transpose"(%68, %222) <{permutation = array<i64: 1, 0>}> ({
        ^bb0(%arg1: i32, %arg2: i32):
          "linalg.yield"(%arg1) : (i32) -> ()
        }) : (memref<15x13xi32>, tensor<13x15xi32>) -> tensor<13x15xi32>
        "bufferization.dealloc_tensor"(%59) : (tensor<?xi32>) -> ()
        %224 = "arith.addf"(%10, %80) <{fastmath = #arith.fastmath<none>}> : (f16, f16) -> f16
        %225 = "memref.alloc"() <{operandSegmentSizes = array<i32: 0, 0>}> : () -> memref<13x15xi16>
        "linalg.transpose"(%72, %225) <{permutation = array<i64: 1, 0>}> ({
        ^bb0(%arg1: i16, %arg2: i16):
          "linalg.yield"(%arg1) : (i16) -> ()
        }) : (memref<15x13xi16>, memref<13x15xi16>) -> ()
        %226 = "affine.max"(%28, %26, %22) <{map = affine_map<(d0, d1, d2) -> (d2 * 64)>}> : (index, index, index) -> index
        %227 = "arith.addf"(%1, %1) <{fastmath = #arith.fastmath<none>}> : (f32, f32) -> f32
        %228 = "math.round"(%60) <{fastmath = #arith.fastmath<none>}> : (tensor<15x13xf16>) -> tensor<15x13xf16>
        "scf.condition"(%15, %51) : (i1, tensor<15x13xi1>) -> ()
      }, {
      ^bb0(%arg0: tensor<15x13xi1>):
        %221 = "memref.realloc"(%77) : (memref<5xi64>) -> memref<5xi64>
        %222 = "arith.divsi"(%7, %13) : (i16, i16) -> i16
        %223 = "vector.contract"(%209, %209, %5) <{indexing_maps = [affine_map<(d0) -> (d0)>, affine_map<(d0) -> (d0)>, affine_map<(d0) -> ()>], iterator_types = [#vector.iterator_type<reduction>], kind = #vector.kind<maxf>}> : (vector<5xf16>, vector<5xf16>, f16) -> f16
        "vector.print"(%209) <{punctuation = #vector.punctuation<newline>}> : (vector<5xf16>) -> ()
        %224 = "math.round"(%62) <{fastmath = #arith.fastmath<none>}> : (tensor<5x5x5xf16>) -> tensor<5x5x5xf16>
        %225 = "tensor.extract"(%54, %16, %16) : (tensor<?x?xf16>, index, index) -> f16
        %226 = "vector.broadcast"(%1) : (f32) -> vector<15xf32>
        %227 = "vector.broadcast"(%15) : (i1) -> vector<15xi1>
        "vector.compressstore"(%67, %16, %21, %227, %226) : (memref<?x13xf32>, index, index, vector<15xi1>, vector<15xf32>) -> ()
        %228 = "index.maxs"(%34, %25) : (index, index) -> index
        %229 = "index.and"(%46, %26) : (index, index) -> index
        %230 = "math.log"(%81) <{fastmath = #arith.fastmath<none>}> : (f32) -> f32
        %231 = "math.atan2"(%62, %62) <{fastmath = #arith.fastmath<none>}> : (tensor<5x5x5xf16>, tensor<5x5x5xf16>) -> tensor<5x5x5xf16>
        %232 = "arith.subi"(%9, %7) : (i16, i16) -> i16
        %233 = "memref.load"(%65, %16) <{nontemporal = false}> : (memref<?xf16>, index) -> f16
        %234 = "vector.create_mask"(%24, %37) : (index, index) -> vector<15x13xi1>
        %235 = "vector.broadcast"(%3) : (i32) -> vector<i32>
        %236 = "vector.transfer_write"(%235, %59, %45) <{operandSegmentSizes = array<i32: 1, 1, 1, 0>, permutation_map = affine_map<(d0) -> ()>}> : (vector<i32>, tensor<?xi32>, index) -> tensor<?xi32>
        %237 = "index.shrs"(%32, %18) : (index, index) -> index
        "scf.yield"(%arg0) : (tensor<15x13xi1>) -> ()
      }) : (tensor<15x13xi1>) -> tensor<15x13xi1>
      %219 = "bufferization.clone"(%77) : (memref<5xi64>) -> memref<5xi64>
      %220 = "vector.extract_strided_slice"(%209) <{offsets = [2], sizes = [2], strides = [1]}> : (vector<5xf16>) -> vector<2xf16>
      "scf.yield"() : () -> ()
    }, {
      %204 = "tensor.empty"() : () -> tensor<5xi64>
      %205 = "linalg.map"(%63, %53, %53, %204) ({
      ^bb0(%arg0: i64, %arg1: i64, %arg2: i64):
        %222 = "math.ipowi"(%51, %51) : (tensor<15x13xi1>, tensor<15x13xi1>) -> tensor<15x13xi1>
        %223 = "index.maxs"(%24, %34) : (index, index) -> index
        %224 = "math.ceil"(%54) <{fastmath = #arith.fastmath<none>}> : (tensor<?x?xf16>) -> tensor<?x?xf16>
        %225 = "index.mul"(%25, %32) : (index, index) -> index
        %226 = "memref.alloca"() <{operandSegmentSizes = array<i32: 0, 0>}> : () -> memref<15x13xf32>
        %227 = "index.mul"(%32, %47) : (index, index) -> index
        %228 = "vector.broadcast"(%13) : (i16) -> vector<1xi16>
        %229 = "vector.broadcast"(%11) : (i1) -> vector<1xi1>
        %230 = "vector.mask"(%229) ({
          %256 = "vector.multi_reduction"(%228, %228) <{kind = #vector.kind<minui>, reduction_dims = []}> : (vector<1xi16>, vector<1xi16>) -> vector<1xi16>
          "vector.yield"(%256) : (vector<1xi16>) -> ()
        }) : (vector<1xi1>) -> vector<1xi16>
        %231 = "index.divu"(%18, %21) : (index, index) -> index
        %232 = "bufferization.clone"(%72) : (memref<15x13xi16>) -> memref<15x13xi16>
        %233 = "vector.bitcast"(%228) : (vector<1xi16>) -> vector<1xi16>
        %234 = "vector.create_mask"(%28, %42) : (index, index) -> vector<15x13xi1>
        %235 = "tensor.extract"(%84, %16, %16, %16) : (tensor<?x?x?xf16>, index, index, index) -> f16
        %236 = "arith.mulf"(%80, %10) <{fastmath = #arith.fastmath<none>}> : (f16, f16) -> f16
        %237 = "arith.floordivsi"(%12, %12) : (i32, i32) -> i32
        %238 = "affine.min"(%22, %37, %17) <{map = affine_map<(d0, d1)[s0] -> ((d0 - 8) * 16)>}> : (index, index, index) -> index
        %239 = "memref.alloca"() <{operandSegmentSizes = array<i32: 0, 0>}> : () -> memref<5xi64>
        %240 = "arith.cmpi"(%arg0, %4) <{predicate = 5 : i64}> : (i64, i64) -> i1
        %241 = "arith.shrui"(%15, %8) : (i1, i1) -> i1
        %242 = "affine.vector_load"(%71, %19) <{map = affine_map<(d0) -> (d0)>}> : (memref<?xi32>, index) -> vector<5xi32>
        %243 = "index.sizeof"() : () -> index
        %244 = "index.xor"(%38, %43) : (index, index) -> index
        %245 = "vector.broadcast"(%6) : (i32) -> vector<6x6xi32>
        %246 = "math.log2"(%10) <{fastmath = #arith.fastmath<none>}> : (f16) -> f16
        %247 = "math.round"(%58) <{fastmath = #arith.fastmath<none>}> : (tensor<?x?x5xf16>) -> tensor<?x?x5xf16>
        %248 = "memref.alloc"() <{operandSegmentSizes = array<i32: 0, 0>}> : () -> memref<13x15xi1>
        "linalg.transpose"(%51, %248) <{permutation = array<i64: 1, 0>}> ({
        ^bb0(%arg3: i1, %arg4: i1):
          "linalg.yield"(%arg3) : (i1) -> ()
        }) : (tensor<15x13xi1>, memref<13x15xi1>) -> ()
        %249 = "arith.minsi"(%arg1, %4) : (i64, i64) -> i64
        %250 = "memref.alloca"() <{operandSegmentSizes = array<i32: 0, 0>}> : () -> memref<6x6xi32>
        %251 = "index.maxs"(%26, %23) : (index, index) -> index
        %252 = "index.divs"(%39, %33) : (index, index) -> index
        %253 = "index.sizeof"() : () -> index
        %254 = "affine.load"(%232, %40, %25) <{map = affine_map<(d0, d1) -> (d0, d1)>}> : (memref<15x13xi16>, index, index) -> i16
        %255 = "math.exp"(%83) <{fastmath = #arith.fastmath<none>}> : (f16) -> f16
        "linalg.yield"(%arg1) : (i64) -> ()
      }) : (tensor<5xi64>, tensor<5xi64>, tensor<5xi64>, tensor<5xi64>) -> tensor<5xi64>
      %206 = "vector.broadcast"(%8) : (i1) -> vector<1xi1>
      %207 = "vector.bitcast"(%206) : (vector<1xi1>) -> vector<1xi1>
      %208 = "vector.broadcast"(%4) : (i64) -> vector<5xi64>
      %209 = "vector.broadcast"(%11) : (i1) -> vector<5xi1>
      "vector.compressstore"(%77, %20, %209, %208) : (memref<5xi64>, index, vector<5xi1>, vector<5xi64>) -> ()
      "bufferization.dealloc_tensor"(%62) : (tensor<5x5x5xf16>) -> ()
      "scf.index_switch"(%45) <{cases = array<i64: 1, 2>}> ({
        %222 = "index.shrs"(%47, %37) : (index, index) -> index
        %223 = "vector.reduction"(%206) <{fastmath = #arith.fastmath<none>, kind = #vector.kind<maxui>}> : (vector<1xi1>) -> i1
        %224 = "arith.minui"(%11, %11) : (i1, i1) -> i1
        %225 = "affine.vector_load"(%64, %16) <{map = affine_map<(d0) -> (d0)>}> : (memref<?xi64>, index) -> vector<15xi64>
        %226 = "memref.alloca"() <{operandSegmentSizes = array<i32: 0, 0>}> : () -> memref<5xi64>
        %227 = "bufferization.to_memref"(%58) : (tensor<?x?x5xf16>) -> memref<?x?x5xf16>
        %228 = "index.divs"(%37, %30) : (index, index) -> index
        %229 = "vector.mask"(%206) ({
          %238 = "vector.multi_reduction"(%207, %206) <{kind = #vector.kind<or>, reduction_dims = []}> : (vector<1xi1>, vector<1xi1>) -> vector<1xi1>
          "vector.yield"(%238) : (vector<1xi1>) -> ()
        }) : (vector<1xi1>) -> vector<1xi1>
        %230 = "vector.splat"(%10) : (f16) -> vector<5x5x5xf16>
        %231 = "math.fpowi"(%5, %3) <{fastmath = #arith.fastmath<none>}> : (f16, i32) -> f16
        %232 = "tensor.insert"(%4, %204, %16) : (i64, tensor<5xi64>, index) -> tensor<5xi64>
        %233 = "memref.alloca"(%16, %222) <{operandSegmentSizes = array<i32: 2, 0>}> : (index, index) -> memref<?x?xi1>
        %234 = "vector.bitcast"(%206) : (vector<1xi1>) -> vector<1xi1>
        %235 = "vector.contract"(%234, %206, %8) <{indexing_maps = [affine_map<(d0) -> (d0)>, affine_map<(d0) -> (d0)>, affine_map<(d0) -> ()>], iterator_types = [#vector.iterator_type<reduction>], kind = #vector.kind<or>}> : (vector<1xi1>, vector<1xi1>, i1) -> i1
        %236 = "vector.multi_reduction"(%225, %225) <{kind = #vector.kind<maxui>, reduction_dims = []}> : (vector<15xi64>, vector<15xi64>) -> vector<15xi64>
        %237 = "math.fma"(%82, %82, %82) <{fastmath = #arith.fastmath<none>}> : (f32, f32, f32) -> f32
        "scf.yield"() : () -> ()
      }, {
        %222 = "vector.extract_strided_slice"(%206) <{offsets = [0], sizes = [1], strides = [1]}> : (vector<1xi1>) -> vector<1xi1>
        %223 = "arith.minsi"(%15, %8) : (i1, i1) -> i1
        %224 = "arith.shrui"(%3, %0) : (i32, i32) -> i32
        %225 = "memref.alloc"() <{operandSegmentSizes = array<i32: 0, 0>}> : () -> memref<13x6xi64>
        %226 = "tensor.empty"(%28) : (index) -> tensor<?x6xi64>
        %227 = "linalg.matmul"(%57, %225, %226) <{operandSegmentSizes = array<i32: 2, 1>}> ({
        ^bb0(%arg0: i64, %arg1: i64, %arg2: i64):
          %240 = "arith.muli"(%arg0, %arg1) : (i64, i64) -> i64
          %241 = "arith.addi"(%arg2, %240) : (i64, i64) -> i64
          "linalg.yield"(%241) : (i64) -> ()
        }) {linalg.memoized_indexing_maps = [affine_map<(d0, d1, d2) -> (d0, d2)>, affine_map<(d0, d1, d2) -> (d2, d1)>, affine_map<(d0, d1, d2) -> (d0, d1)>]} : (tensor<?x13xi64>, memref<13x6xi64>, tensor<?x6xi64>) -> tensor<?x6xi64>
        %228 = "arith.divsi"(%15, %11) : (i1, i1) -> i1
        %229 = "memref.load"(%75, %16) <{nontemporal = false}> : (memref<?xi1>, index) -> i1
        %230 = "linalg.transpose"(%84, %84) <{permutation = array<i64: 2, 0, 1>}> ({
        ^bb0(%arg0: f16, %arg1: f16):
          "linalg.yield"(%arg0) : (f16) -> ()
        }) : (tensor<?x?x?xf16>, tensor<?x?x?xf16>) -> tensor<?x?x?xf16>
        %231 = "vector.broadcast"(%82) : (f32) -> vector<6x6xf32>
        "bufferization.dealloc_tensor"(%58) : (tensor<?x?x5xf16>) -> ()
        %232 = "tensor.empty"() : () -> tensor<5x5x5xi32>
        %233 = "math.fpowi"(%62, %232) <{fastmath = #arith.fastmath<none>}> : (tensor<5x5x5xf16>, tensor<5x5x5xi32>) -> tensor<5x5x5xf16>
        %234 = "index.sizeof"() : () -> index
        %235 = "vector.extract_strided_slice"(%231) <{offsets = [1], sizes = [1], strides = [1]}> : (vector<6x6xf32>) -> vector<1x6xf32>
        %236 = "arith.floordivsi"(%6, %6) : (i32, i32) -> i32
        %237 = "arith.divsi"(%0, %3) : (i32, i32) -> i32
        %238 = "tensor.splat"(%4) : (i64) -> tensor<15x13xi64>
        %239 = "index.castu"(%6) : (i32) -> index
        "scf.yield"() : () -> ()
      }, {
        %222 = "arith.negf"(%81) <{fastmath = #arith.fastmath<none>}> : (f32) -> f32
        %223 = "linalg.transpose"(%48, %50) <{permutation = array<i64: 1, 0>}> ({
        ^bb0(%arg0: i1, %arg1: i1):
          "linalg.yield"(%arg0) : (i1) -> ()
        }) : (tensor<6x6xi1>, tensor<6x6xi1>) -> tensor<6x6xi1>
        %224 = "arith.ceildivsi"(%13, %9) : (i16, i16) -> i16
        %225 = "index.mul"(%27, %33) : (index, index) -> index
        %226 = "arith.divf"(%2, %81) <{fastmath = #arith.fastmath<none>}> : (f32, f32) -> f32
        %227 = "vector.reduction"(%206) <{fastmath = #arith.fastmath<none>, kind = #vector.kind<xor>}> : (vector<1xi1>) -> i1
        %228 = "arith.minsi"(%8, %15) : (i1, i1) -> i1
        %229 = "math.log"(%61) <{fastmath = #arith.fastmath<none>}> : (tensor<5xf16>) -> tensor<5xf16>
        %230 = "vector.broadcast"(%11) : (i1) -> vector<15x13xi1>
        %231 = "math.absf"(%81) <{fastmath = #arith.fastmath<none>}> : (f32) -> f32
        %232 = "arith.cmpi"(%9, %7) <{predicate = 5 : i64}> : (i16, i16) -> i1
        %233 = "vector.broadcast"(%1) : (f32) -> vector<5xf32>
        %234 = "vector.broadcast"(%11) : (i1) -> vector<5xi1>
        "vector.compressstore"(%67, %16, %21, %234, %233) : (memref<?x13xf32>, index, index, vector<5xi1>, vector<5xf32>) -> ()
        %235 = "tensor.cast"(%56) : (tensor<?x13xi16>) -> tensor<15x13xi16>
        %236 = "arith.addi"(%15, %8) : (i1, i1) -> i1
        %237 = "math.log"(%58) <{fastmath = #arith.fastmath<none>}> : (tensor<?x?x5xf16>) -> tensor<?x?x5xf16>
        %238 = "tensor.extract"(%52, %16, %16) : (tensor<?x?xi32>, index, index) -> i32
        "scf.yield"() : () -> ()
      }) : (index) -> ()
      %210 = "index.castu"(%13) : (i16) -> index
      %211 = "arith.andi"(%7, %13) : (i16, i16) -> i16
      %212 = "tensor.insert"(%80, %54, %16, %16) : (f16, tensor<?x?xf16>, index, index) -> tensor<?x?xf16>
      %213 = "memref.alloca"(%36, %40, %18) <{operandSegmentSizes = array<i32: 3, 0>}> : (index, index, index) -> memref<?x?x?xi16>
      %214 = "arith.muli"(%8, %8) : (i1, i1) -> i1
      %215 = "linalg.transpose"(%204, %204) <{permutation = array<i64: 0>}> ({
      ^bb0(%arg0: i64, %arg1: i64):
        "linalg.yield"(%arg0) : (i64) -> ()
      }) : (tensor<5xi64>, tensor<5xi64>) -> tensor<5xi64>
      "vector.warp_execute_on_lane_0"(%16) <{warp_size = 32 : i64}> ({
        %222 = "math.fma"(%1, %82, %81) <{fastmath = #arith.fastmath<none>}> : (f32, f32, f32) -> f32
        %223 = "index.maxs"(%35, %47) : (index, index) -> index
        %224 = "arith.floordivsi"(%0, %6) : (i32, i32) -> i32
        %225 = "tensor.empty"() : () -> tensor<6x15xf32>
        %226 = "tensor.empty"(%26) : (index) -> tensor<?x15xf32>
        %227 = "linalg.matmul"(%49, %225, %226) <{operandSegmentSizes = array<i32: 2, 1>}> ({
        ^bb0(%arg0: f32, %arg1: f32, %arg2: f32):
          %232 = "arith.mulf"(%arg0, %arg1) <{fastmath = #arith.fastmath<none>}> : (f32, f32) -> f32
          %233 = "arith.addf"(%arg2, %232) <{fastmath = #arith.fastmath<none>}> : (f32, f32) -> f32
          "linalg.yield"(%233) : (f32) -> ()
        }) {linalg.memoized_indexing_maps = [affine_map<(d0, d1, d2) -> (d0, d2)>, affine_map<(d0, d1, d2) -> (d2, d1)>, affine_map<(d0, d1, d2) -> (d0, d1)>]} : (tensor<?x6xf32>, tensor<6x15xf32>, tensor<?x15xf32>) -> tensor<?x15xf32>
        %228 = "math.log"(%1) <{fastmath = #arith.fastmath<none>}> : (f32) -> f32
        %229 = "index.divs"(%210, %28) : (index, index) -> index
        %230 = "tensor.rank"(%50) : (tensor<6x6xi1>) -> index
        %231 = "vector.broadcast"(%1) : (f32) -> vector<6x6xf32>
        "vector.yield"() : () -> ()
      }) : (index) -> ()
      %216 = "vector.reduction"(%207) <{fastmath = #arith.fastmath<none>, kind = #vector.kind<add>}> : (vector<1xi1>) -> i1
      %217 = "vector.broadcast"(%7) : (i16) -> vector<15x15xi16>
      %218 = "vector.broadcast"(%9) : (i16) -> vector<15xi16>
      %219:2 = "vector.scan"(%217, %218) <{inclusive = true, kind = #vector.kind<xor>, reduction_dim = 0 : i64}> : (vector<15x15xi16>, vector<15xi16>) -> (vector<15x15xi16>, vector<15xi16>)
      %220 = "math.expm1"(%10) <{fastmath = #arith.fastmath<none>}> : (f16) -> f16
      %221 = "scf.if"(%8) ({
        %222 = "arith.cmpi"(%15, %15) <{predicate = 7 : i64}> : (i1, i1) -> i1
        %223 = "index.or"(%45, %18) : (index, index) -> index
        %224 = "arith.shrsi"(%15, %8) : (i1, i1) -> i1
        %225 = "vector.insertelement"(%11, %207, %44) : (i1, vector<1xi1>, index) -> vector<1xi1>
        %226 = "index.ceildivu"(%39, %24) : (index, index) -> index
        %227 = "tensor.from_elements"(%12, %12, %3, %6, %12, %3, %0, %12, %3, %6, %0, %3, %12, %0, %6, %6, %3, %12, %0, %6, %6, %0, %3, %12, %12, %0, %12, %6, %12, %12, %12, %0, %6, %6, %0, %3) : (i32, i32, i32, i32, i32, i32, i32, i32, i32, i32, i32, i32, i32, i32, i32, i32, i32, i32, i32, i32, i32, i32, i32, i32, i32, i32, i32, i32, i32, i32, i32, i32, i32, i32, i32, i32) -> tensor<6x6xi32>
        %228 = "math.tan"(%62) <{fastmath = #arith.fastmath<none>}> : (tensor<5x5x5xf16>) -> tensor<5x5x5xf16>
        %229 = "arith.divf"(%82, %2) <{fastmath = #arith.fastmath<none>}> : (f32, f32) -> f32
        "scf.yield"(%0) : (i32) -> ()
      }, {
        %222 = "vector.load"(%73, %16) : (memref<?xf16>, index) -> vector<6x6xf16>
        %223 = "memref.alloca"() <{operandSegmentSizes = array<i32: 0, 0>}> : () -> memref<6x6xi32>
        %224 = "index.mul"(%30, %47) : (index, index) -> index
        "memref.store"(%6, %71, %16) <{nontemporal = false}> : (i32, memref<?xi32>, index) -> ()
        %225 = "linalg.copy"(%48, %48) <{operandSegmentSizes = array<i32: 1, 1>}> ({
        ^bb0(%arg0: i1, %arg1: i1):
          "linalg.yield"(%arg0) : (i1) -> ()
        }) : (tensor<6x6xi1>, tensor<6x6xi1>) -> tensor<6x6xi1>
        %226 = "tensor.insert"(%2, %49, %16, %21) : (f32, tensor<?x6xf32>, index, index) -> tensor<?x6xf32>
        %227 = "arith.andi"(%6, %0) : (i32, i32) -> i32
        %228 = "arith.cmpi"(%8, %15) <{predicate = 6 : i64}> : (i1, i1) -> i1
        "scf.yield"(%0) : (i32) -> ()
      }) : (i1) -> i32
      "scf.yield"() : () -> ()
    }, {
      %204 = "memref.alloca"(%22) <{operandSegmentSizes = array<i32: 1, 0>}> : (index) -> memref<?xf32>
      %205 = "affine.min"(%37, %26, %37, %46) <{map = affine_map<(d0, d1, d2, d3) -> ((d2 ceildiv 4) ceildiv 128)>}> : (index, index, index, index) -> index
      %206 = "vector.broadcast"(%82) : (f32) -> vector<5xf32>
      %207 = "vector.shuffle"(%206, %206) <{mask = [8, 9]}> : (vector<5xf32>, vector<5xf32>) -> vector<2xf32>
      %208 = "math.floor"(%60) <{fastmath = #arith.fastmath<none>}> : (tensor<15x13xf16>) -> tensor<15x13xf16>
      %209 = "tensor.empty"(%18, %23) : (index, index) -> tensor<?x?xf16>
      %210 = "linalg.map"(%54, %54, %209) ({
      ^bb0(%arg0: f16, %arg1: f16):
        %221 = "vector.broadcast"(%15) : (i1) -> vector<5xi1>
        %222 = "vector.flat_transpose"(%221) <{columns = 5 : i32, rows = 1 : i32}> : (vector<5xi1>) -> vector<5xi1>
        %223 = "arith.remf"(%82, %81) <{fastmath = #arith.fastmath<none>}> : (f32, f32) -> f32
        %224 = "math.tan"(%1) <{fastmath = #arith.fastmath<none>}> : (f32) -> f32
        %225 = "bufferization.clone"(%68) : (memref<15x13xi32>) -> memref<15x13xi32>
        %226 = "memref.alloc"() <{operandSegmentSizes = array<i32: 0, 0>}> : () -> memref<13x15xi1>
        "linalg.transpose"(%51, %226) <{permutation = array<i64: 1, 0>}> ({
        ^bb0(%arg2: i1, %arg3: i1):
          "linalg.yield"(%arg2) : (i1) -> ()
        }) : (tensor<15x13xi1>, memref<13x15xi1>) -> ()
        %227 = "arith.addi"(%13, %9) : (i16, i16) -> i16
        %228 = "math.log2"(%83) <{fastmath = #arith.fastmath<none>}> : (f16) -> f16
        %229 = "math.absi"(%55) : (tensor<5x5x5xi16>) -> tensor<5x5x5xi16>
        %230 = "tensor.collapse_shape"(%209) <{reassociation = [[0, 1]]}> : (tensor<?x?xf16>) -> tensor<?xf16>
        %231 = "math.ceil"(%5) <{fastmath = #arith.fastmath<none>}> : (f16) -> f16
        %232 = "affine.min"(%22, %36, %34, %42) <{map = affine_map<(d0, d1, d2)[s0] -> (-d1 + 2)>}> : (index, index, index, index) -> index
        %233 = "index.add"(%29, %38) : (index, index) -> index
        %234 = "math.log"(%230) <{fastmath = #arith.fastmath<none>}> : (tensor<?xf16>) -> tensor<?xf16>
        %235 = "math.expm1"(%2) <{fastmath = #arith.fastmath<none>}> : (f32) -> f32
        %236 = "memref.cast"(%66) : (memref<?x?x?xf16>) -> memref<6x?x6xf16>
        "affine.store"(%3, %78, %22) <{map = affine_map<(d0) -> (d0)>}> : (i32, memref<5xi32>, index) -> ()
        %237 = "index.bool.constant"() <{value = true}> : () -> i1
        %238 = "index.and"(%24, %38) : (index, index) -> index
        %239 = "arith.remf"(%80, %14) <{fastmath = #arith.fastmath<none>}> : (f16, f16) -> f16
        "affine.store"(%0, %71, %32) <{map = affine_map<(d0) -> (d0)>}> : (i32, memref<?xi32>, index) -> ()
        %240 = "arith.remui"(%11, %237) : (i1, i1) -> i1
        %241 = "arith.ceildivsi"(%13, %7) : (i16, i16) -> i16
        %242 = "affine.max"(%31, %45, %43) <{map = affine_map<(d0, d1, d2) -> (d2 * 2)>}> : (index, index, index) -> index
        %243 = "index.and"(%233, %25) : (index, index) -> index
        %244 = "arith.remf"(%10, %5) <{fastmath = #arith.fastmath<none>}> : (f16, f16) -> f16
        %245 = "index.divs"(%205, %19) : (index, index) -> index
        %246 = "math.expm1"(%82) <{fastmath = #arith.fastmath<none>}> : (f32) -> f32
        %247 = "math.round"(%61) <{fastmath = #arith.fastmath<none>}> : (tensor<5xf16>) -> tensor<5xf16>
        %248 = "tensor.extract"(%57, %16, %23) : (tensor<?x13xi64>, index, index) -> i64
        %249 = "arith.divf"(%arg0, %14) <{fastmath = #arith.fastmath<none>}> : (f16, f16) -> f16
        %250 = "index.or"(%18, %47) : (index, index) -> index
        %251 = "math.expm1"(%61) <{fastmath = #arith.fastmath<none>}> : (tensor<5xf16>) -> tensor<5xf16>
        "linalg.yield"(%arg1) : (f16) -> ()
      }) : (tensor<?x?xf16>, tensor<?x?xf16>, tensor<?x?xf16>) -> tensor<?x?xf16>
      %211 = "vector.splat"(%25) : (index) -> vector<5x5x5xindex>
      "scf.index_switch"(%22) <{cases = array<i64: 1, 2, 3, 4>}> ({
        %221 = "index.add"(%31, %28) : (index, index) -> index
        %222 = "arith.shli"(%7, %13) : (i16, i16) -> i16
        %223 = "tensor.extract"(%49, %16, %16) : (tensor<?x6xf32>, index, index) -> f32
        %224 = "index.mul"(%42, %23) : (index, index) -> index
        %225 = "arith.remf"(%14, %5) <{fastmath = #arith.fastmath<none>}> : (f16, f16) -> f16
        %226 = "memref.cast"(%79) : (memref<15x13xi1>) -> memref<15x13xi1>
        %227 = "index.ceildivs"(%21, %20) : (index, index) -> index
        %228 = "arith.addi"(%15, %11) : (i1, i1) -> i1
        %229 = "affine.max"(%33, %32) <{map = affine_map<(d0, d1) -> (-(-d1 - (d1 + 6)))>}> : (index, index) -> index
        %230 = "index.mul"(%43, %22) : (index, index) -> index
        %231 = "index.maxs"(%34, %46) : (index, index) -> index
        %232 = "vector.broadcast"(%6) : (i32) -> vector<1xi32>
        %233 = "vector.broadcast"(%8) : (i1) -> vector<1xi1>
        %234 = "vector.mask"(%233) ({
          %239 = "vector.multi_reduction"(%232, %232) <{kind = #vector.kind<minsi>, reduction_dims = []}> : (vector<1xi32>, vector<1xi32>) -> vector<1xi32>
          "vector.yield"(%239) : (vector<1xi32>) -> ()
        }) : (vector<1xi1>) -> vector<1xi32>
        %235 = "vector.bitcast"(%233) : (vector<1xi1>) -> vector<1xi1>
        %236 = "math.floor"(%62) <{fastmath = #arith.fastmath<none>}> : (tensor<5x5x5xf16>) -> tensor<5x5x5xf16>
        %237 = "memref.realloc"(%65) : (memref<?xf16>) -> memref<6xf16>
        %238 = "math.fma"(%81, %81, %1) <{fastmath = #arith.fastmath<none>}> : (f32, f32, f32) -> f32
        "scf.yield"() : () -> ()
      }, {
        %221 = "index.maxu"(%28, %46) : (index, index) -> index
        %222 = "vector.broadcast"(%2) : (f32) -> vector<13x13x15xf32>
        %223 = "vector.broadcast"(%2) : (f32) -> vector<13x13xf32>
        %224:2 = "vector.scan"(%222, %223) <{inclusive = true, kind = #vector.kind<add>, reduction_dim = 2 : i64}> : (vector<13x13x15xf32>, vector<13x13xf32>) -> (vector<13x13x15xf32>, vector<13x13xf32>)
        %225 = "arith.addf"(%14, %14) <{fastmath = #arith.fastmath<none>}> : (f16, f16) -> f16
        %226 = "vector.broadcast"(%11) : (i1) -> vector<15x13xi1>
        %227 = "vector.transpose"(%226) <{transp = [0, 1]}> : (vector<15x13xi1>) -> vector<15x13xi1>
        %228 = "tensor.rank"(%54) : (tensor<?x?xf16>) -> index
        %229 = "arith.addi"(%13, %7) : (i16, i16) -> i16
        %230 = "index.maxu"(%37, %33) : (index, index) -> index
        "bufferization.dealloc_tensor"(%58) : (tensor<?x?x5xf16>) -> ()
        %231 = "arith.addi"(%9, %7) : (i16, i16) -> i16
        %232 = "math.ceil"(%2) <{fastmath = #arith.fastmath<none>}> : (f32) -> f32
        %233 = "memref.cast"(%68) : (memref<15x13xi32>) -> memref<15x?xi32>
        %234 = "vector.broadcast"(%11) : (i1) -> vector<13xi1>
        "affine.vector_store"(%234, %79, %23, %16) <{map = affine_map<(d0, d1) -> (d0, d1)>}> : (vector<13xi1>, memref<15x13xi1>, index, index) -> ()
        %235 = "vector.broadcast"(%83) : (f16) -> vector<5x5x5xf16>
        %236 = "vector.broadcast"(%15) : (i1) -> vector<5x5x5xi1>
        %237 = "vector.broadcast"(%3) : (i32) -> vector<5x5x5xi32>
        %238 = "vector.gather"(%61, %18, %237, %236, %235) : (tensor<5xf16>, index, vector<5x5x5xi32>, vector<5x5x5xi1>, vector<5x5x5xf16>) -> vector<5x5x5xf16>
        %239 = "vector.matrix_multiply"(%234, %234) <{lhs_columns = 13 : i32, lhs_rows = 1 : i32, rhs_columns = 1 : i32}> : (vector<13xi1>, vector<13xi1>) -> vector<1xi1>
        %240 = "index.bool.constant"() <{value = false}> : () -> i1
        %241 = "affine.min"(%16, %28, %29) <{map = affine_map<(d0, d1, d2) -> (d2 * 2)>}> : (index, index, index) -> index
        "scf.yield"() : () -> ()
      }, {
        %221 = "vector.create_mask"(%23, %18) : (index, index) -> vector<6x6xi1>
        %222 = "index.shrs"(%32, %46) : (index, index) -> index
        %223 = "index.castu"(%8) : (i1) -> index
        %224 = "tensor.cast"(%48) : (tensor<6x6xi1>) -> tensor<?x?xi1>
        %225 = "index.mul"(%26, %17) : (index, index) -> index
        %226 = "vector.broadcast"(%80) : (f16) -> vector<6x6xf16>
        %227 = "vector.broadcast"(%6) : (i32) -> vector<5x5x5xi32>
        %228 = "arith.minui"(%9, %7) : (i16, i16) -> i16
        %229 = "math.log"(%60) <{fastmath = #arith.fastmath<none>}> : (tensor<15x13xf16>) -> tensor<15x13xf16>
        %230 = "arith.minsi"(%0, %0) : (i32, i32) -> i32
        %231 = "index.maxu"(%20, %29) : (index, index) -> index
        %232 = "index.and"(%44, %39) : (index, index) -> index
        %233 = "tensor.insert"(%3, %52, %16, %16) : (i32, tensor<?x?xi32>, index, index) -> tensor<?x?xi32>
        %234 = "index.castu"(%11) : (i1) -> index
        %235 = "math.copysign"(%60, %60) <{fastmath = #arith.fastmath<none>}> : (tensor<15x13xf16>, tensor<15x13xf16>) -> tensor<15x13xf16>
        %236 = "index.sizeof"() : () -> index
        "scf.yield"() : () -> ()
      }, {
        %221 = "math.copysign"(%81, %81) <{fastmath = #arith.fastmath<none>}> : (f32, f32) -> f32
        %222 = "vector.broadcast"(%11) : (i1) -> vector<5xi1>
        %223 = "vector.reduction"(%222) <{fastmath = #arith.fastmath<none>, kind = #vector.kind<or>}> : (vector<5xi1>) -> i1
        %224 = "memref.alloc"() <{operandSegmentSizes = array<i32: 0, 0>}> : () -> memref<15x13xf32>
        %225 = "vector.broadcast"(%81) : (f32) -> vector<5x5x5xf32>
        %226 = "vector.broadcast"(%8) : (i1) -> vector<5x5x5xi1>
        %227 = "vector.broadcast"(%0) : (i32) -> vector<5x5x5xi32>
        %228 = "vector.gather"(%224, %26, %205, %227, %226, %225) : (memref<15x13xf32>, index, index, vector<5x5x5xi32>, vector<5x5x5xi1>, vector<5x5x5xf32>) -> vector<5x5x5xf32>
        %229 = "vector.broadcast"(%6) : (i32) -> vector<13xi32>
        %230 = "vector.matrix_multiply"(%229, %229) <{lhs_columns = 13 : i32, lhs_rows = 1 : i32, rhs_columns = 1 : i32}> : (vector<13xi32>, vector<13xi32>) -> vector<1xi32>
        %231 = "vector.broadcast"(%1) : (f32) -> vector<5x5x5x5xf32>
        %232 = "vector.contract"(%225, %225, %231) <{indexing_maps = [affine_map<(d0, d1, d2, d3, d4) -> (d4, d0, d1)>, affine_map<(d0, d1, d2, d3, d4) -> (d4, d2, d3)>, affine_map<(d0, d1, d2, d3, d4) -> (d0, d1, d2, d3)>], iterator_types = [#vector.iterator_type<parallel>, #vector.iterator_type<parallel>, #vector.iterator_type<parallel>, #vector.iterator_type<parallel>, #vector.iterator_type<reduction>], kind = #vector.kind<add>}> : (vector<5x5x5xf32>, vector<5x5x5xf32>, vector<5x5x5x5xf32>) -> vector<5x5x5x5xf32>
        %233 = "math.round"(%58) <{fastmath = #arith.fastmath<none>}> : (tensor<?x?x5xf16>) -> tensor<?x?x5xf16>
        %234 = "arith.floordivsi"(%8, %8) : (i1, i1) -> i1
        %235 = "vector.broadcast"(%8) : (i1) -> vector<5x5xi1>
        %236:2 = "vector.scan"(%226, %235) <{inclusive = true, kind = #vector.kind<and>, reduction_dim = 2 : i64}> : (vector<5x5x5xi1>, vector<5x5xi1>) -> (vector<5x5x5xi1>, vector<5x5xi1>)
        %237 = "vector.load"(%70, %20, %18, %20) : (memref<5x5x5xi32>, index, index, index) -> vector<6x6xi32>
        "memref.store"(%10, %66, %16, %16, %16) <{nontemporal = false}> : (f16, memref<?x?x?xf16>, index, index, index) -> ()
        %238 = "bufferization.clone"(%78) : (memref<5xi32>) -> memref<5xi32>
        %239 = "index.mul"(%43, %19) : (index, index) -> index
        %240 = "math.cttz"(%7) : (i16) -> i16
        %241 = "bufferization.clone"(%238) : (memref<5xi32>) -> memref<5xi32>
        %242 = "math.tanh"(%80) <{fastmath = #arith.fastmath<none>}> : (f16) -> f16
        "affine.vector_store"(%230, %241, %30) <{map = affine_map<(d0) -> (d0)>}> : (vector<1xi32>, memref<5xi32>, index) -> ()
        "scf.yield"() : () -> ()
      }, {
        %221 = "vector.splat"(%1) : (f32) -> vector<6x6xf32>
        %222 = "tensor.from_elements"(%80, %10, %10, %83, %14) : (f16, f16, f16, f16, f16) -> tensor<5xf16>
        %223 = "vector.broadcast"(%4) : (i64) -> vector<1xi64>
        %224 = "vector.broadcast"(%4) : (i64) -> vector<1xi64>
        %225 = "vector.contract"(%223, %224, %4) <{indexing_maps = [affine_map<(d0) -> (d0)>, affine_map<(d0) -> (d0)>, affine_map<(d0) -> ()>], iterator_types = [#vector.iterator_type<reduction>], kind = #vector.kind<minui>}> : (vector<1xi64>, vector<1xi64>, i64) -> i64
        %226 = "math.ceil"(%58) <{fastmath = #arith.fastmath<none>}> : (tensor<?x?x5xf16>) -> tensor<?x?x5xf16>
        %227 = "math.tan"(%54) <{fastmath = #arith.fastmath<none>}> : (tensor<?x?xf16>) -> tensor<?x?xf16>
        %228 = "arith.divsi"(%15, %15) : (i1, i1) -> i1
        %229 = "vector.broadcast"(%80) : (f16) -> vector<13xf16>
        %230 = "vector.broadcast"(%8) : (i1) -> vector<13xi1>
        "vector.compressstore"(%73, %16, %230, %229) : (memref<?xf16>, index, vector<13xi1>, vector<13xf16>) -> ()
        %231 = "arith.constant"() <{value = 3.587200e+04 : f16}> : () -> f16
        %232 = "arith.ceildivsi"(%0, %6) : (i32, i32) -> i32
        %233 = "vector.broadcast"(%82) : (f32) -> vector<15x13xf32>
        %234 = "vector.broadcast"(%1) : (f32) -> vector<5xf32>
        %235 = "vector.fma"(%234, %234, %234) : (vector<5xf32>, vector<5xf32>, vector<5xf32>) -> vector<5xf32>
        %236 = "arith.shrsi"(%3, %0) : (i32, i32) -> i32
        %237 = "arith.divsi"(%15, %11) : (i1, i1) -> i1
        %238 = "vector.broadcast"(%2) : (f32) -> vector<15xf32>
        %239:2 = "vector.scan"(%233, %238) <{inclusive = true, kind = #vector.kind<add>, reduction_dim = 1 : i64}> : (vector<15x13xf32>, vector<15xf32>) -> (vector<15x13xf32>, vector<15xf32>)
        %240 = "index.or"(%38, %21) : (index, index) -> index
        %241 = "math.log"(%54) <{fastmath = #arith.fastmath<none>}> : (tensor<?x?xf16>) -> tensor<?x?xf16>
        "scf.yield"() : () -> ()
      }) : (index) -> ()
      %212 = "vector.transfer_read"(%51, %21, %18, %11) <{operandSegmentSizes = array<i32: 1, 2, 1, 0>, permutation_map = affine_map<(d0, d1) -> (d1)>}> : (tensor<15x13xi1>, index, index, i1) -> vector<5xi1>
      %213 = "tensor.empty"(%33) : (index) -> tensor<?xf16>
      %214 = "linalg.map"(%65, %73, %73, %213) ({
      ^bb0(%arg0: f16, %arg1: f16, %arg2: f16):
        %221 = "vector.broadcast"(%205) : (index) -> vector<13xindex>
        %222 = "vector.broadcast"(%11) : (i1) -> vector<13xi1>
        %223 = "vector.broadcast"(%4) : (i64) -> vector<13xi64>
        "vector.scatter"(%64, %16, %221, %222, %223) : (memref<?xi64>, index, vector<13xindex>, vector<13xi1>, vector<13xi64>) -> ()
        %224 = "affine.min"(%47, %40) <{map = affine_map<(d0, d1) -> (-(-d1 - (d1 + 6)))>}> : (index, index) -> index
        %225 = "index.add"(%24, %47) : (index, index) -> index
        %226 = "vector.broadcast"(%81) : (f32) -> vector<13xf32>
        %227 = "vector.reduction"(%226) <{fastmath = #arith.fastmath<none>, kind = #vector.kind<mul>}> : (vector<13xf32>) -> f32
        %228 = "vector.broadcast"(%80) : (f16) -> vector<1xf16>
        %229 = "vector.bitcast"(%228) : (vector<1xf16>) -> vector<1xi16>
        %230 = "index.xor"(%17, %22) : (index, index) -> index
        %231 = "arith.remui"(%0, %0) : (i32, i32) -> i32
        %232 = "tensor.expand_shape"(%63) <{reassociation = [[0, 1]]}> : (tensor<5xi64>) -> tensor<5x1xi64>
        %233 = "tensor.empty"() : () -> tensor<195xi1>
        %234 = "tensor.unpack"(%51, %233, %29) <{inner_dims_pos = array<i64: 0>, outer_dims_perm = array<i64: 0>, static_inner_tiles = array<i64: -9223372036854775808>}> : (tensor<15x13xi1>, tensor<195xi1>, index) -> tensor<195xi1>
        %235 = "math.fma"(%61, %61, %61) <{fastmath = #arith.fastmath<none>}> : (tensor<5xf16>, tensor<5xf16>, tensor<5xf16>) -> tensor<5xf16>
        %236 = "tensor.extract"(%55, %18, %19, %16) : (tensor<5x5x5xi16>, index, index, index) -> i16
        %237 = "index.floordivs"(%18, %224) : (index, index) -> index
        %238 = "vector.reduction"(%228) <{fastmath = #arith.fastmath<none>, kind = #vector.kind<mul>}> : (vector<1xf16>) -> f16
        %239 = "tensor.rank"(%61) : (tensor<5xf16>) -> index
        %240 = "vector.bitcast"(%228) : (vector<1xf16>) -> vector<1xf16>
        %241 = "vector.broadcast"(%15) : (i1) -> vector<6x13xi1>
        %242 = "vector.broadcast"(%8) : (i1) -> vector<6xi1>
        %243:2 = "vector.scan"(%241, %242) <{inclusive = true, kind = #vector.kind<maxui>, reduction_dim = 1 : i64}> : (vector<6x13xi1>, vector<6xi1>) -> (vector<6x13xi1>, vector<6xi1>)
        %244 = "index.add"(%39, %20) : (index, index) -> index
        %245 = "vector.broadcast"(%4) : (i64) -> vector<6xi64>
        %246 = "vector.broadcast"(%15) : (i1) -> vector<6xi1>
        "vector.compressstore"(%64, %16, %246, %245) : (memref<?xi64>, index, vector<6xi1>, vector<6xi64>) -> ()
        %247 = "math.ipowi"(%55, %55) : (tensor<5x5x5xi16>, tensor<5x5x5xi16>) -> tensor<5x5x5xi16>
        %248 = "vector.matrix_multiply"(%229, %229) <{lhs_columns = 1 : i32, lhs_rows = 1 : i32, rhs_columns = 1 : i32}> : (vector<1xi16>, vector<1xi16>) -> vector<1xi16>
        %249 = "math.cttz"(%232) : (tensor<5x1xi64>) -> tensor<5x1xi64>
        %250 = "arith.remf"(%1, %82) <{fastmath = #arith.fastmath<none>}> : (f32, f32) -> f32
        %251 = "math.expm1"(%61) <{fastmath = #arith.fastmath<none>}> : (tensor<5xf16>) -> tensor<5xf16>
        %252 = "tensor.from_elements"(%236, %236, %13, %9, %7, %236, %236, %9, %13, %7, %236, %13, %236, %9, %9, %236, %7, %9, %7, %7, %7, %236, %9, %13, %13, %13, %13, %236, %13, %7, %7, %7, %13, %13, %7, %236, %13, %236, %7, %7, %7, %236, %236, %9, %13, %9, %9, %13, %13, %9, %236, %13, %7, %13, %236, %13, %7, %13, %236, %9, %9, %236, %236, %9, %9, %7, %236, %236, %7, %236, %236, %13, %13, %236, %7, %13, %13, %236, %13, %13, %236, %9, %9, %13, %9, %7, %236, %236, %236, %236, %13, %9, %236, %9, %9, %9, %13, %236, %13, %7, %13, %236, %236, %236, %9, %13, %236, %7, %9, %7, %13, %236, %7, %7, %236, %13, %9, %236, %7, %13, %7, %13, %9, %13, %7, %7, %236, %236, %9, %13, %236, %13, %9, %7, %236, %7, %7, %13, %7, %236, %13, %236, %236, %9, %9, %9, %236, %9, %7, %236, %9, %13, %9, %13, %9, %13, %7, %9, %7, %7, %13, %236, %7, %236, %13, %236, %9, %7, %9, %236, %236, %13, %7, %236, %13, %13, %7, %236, %13, %7, %7, %7, %7, %236, %236, %7, %7, %13, %13, %9, %9, %9, %9, %13, %13) : (i16, i16, i16, i16, i16, i16, i16, i16, i16, i16, i16, i16, i16, i16, i16, i16, i16, i16, i16, i16, i16, i16, i16, i16, i16, i16, i16, i16, i16, i16, i16, i16, i16, i16, i16, i16, i16, i16, i16, i16, i16, i16, i16, i16, i16, i16, i16, i16, i16, i16, i16, i16, i16, i16, i16, i16, i16, i16, i16, i16, i16, i16, i16, i16, i16, i16, i16, i16, i16, i16, i16, i16, i16, i16, i16, i16, i16, i16, i16, i16, i16, i16, i16, i16, i16, i16, i16, i16, i16, i16, i16, i16, i16, i16, i16, i16, i16, i16, i16, i16, i16, i16, i16, i16, i16, i16, i16, i16, i16, i16, i16, i16, i16, i16, i16, i16, i16, i16, i16, i16, i16, i16, i16, i16, i16, i16, i16, i16, i16, i16, i16, i16, i16, i16, i16, i16, i16, i16, i16, i16, i16, i16, i16, i16, i16, i16, i16, i16, i16, i16, i16, i16, i16, i16, i16, i16, i16, i16, i16, i16, i16, i16, i16, i16, i16, i16, i16, i16, i16, i16, i16, i16, i16, i16, i16, i16, i16, i16, i16, i16, i16, i16, i16, i16, i16, i16, i16, i16, i16, i16, i16, i16, i16, i16, i16) -> tensor<15x13xi16>
        %253 = "vector.broadcast"(%8) : (i1) -> vector<13x15xi1>
        %254 = "vector.broadcast"(%15) : (i1) -> vector<15xi1>
        %255:2 = "vector.scan"(%253, %254) <{inclusive = false, kind = #vector.kind<minsi>, reduction_dim = 0 : i64}> : (vector<13x15xi1>, vector<15xi1>) -> (vector<13x15xi1>, vector<15xi1>)
        %256 = "memref.cast"(%66) : (memref<?x?x?xf16>) -> memref<?x13x?xf16>
        %257 = "arith.ceildivsi"(%8, %15) : (i1, i1) -> i1
        %258 = "index.add"(%239, %36) : (index, index) -> index
        %259 = "tensor.cast"(%56) : (tensor<?x13xi16>) -> tensor<15x13xi16>
        %260 = "index.bool.constant"() <{value = false}> : () -> i1
        %261 = "math.log"(%83) <{fastmath = #arith.fastmath<none>}> : (f16) -> f16
        %262 = "index.divs"(%37, %258) : (index, index) -> index
        "linalg.yield"(%83) : (f16) -> ()
      }) : (memref<?xf16>, memref<?xf16>, memref<?xf16>, tensor<?xf16>) -> tensor<?xf16>
      %215 = "tensor.empty"() : () -> tensor<13x15xi1>
      %216 = "linalg.transpose"(%79, %215) <{permutation = array<i64: 1, 0>}> ({
      ^bb0(%arg0: i1, %arg1: i1):
        "linalg.yield"(%arg0) : (i1) -> ()
      }) : (memref<15x13xi1>, tensor<13x15xi1>) -> tensor<13x15xi1>
      %217 = "index.shl"(%17, %17) : (index, index) -> index
      %218 = "affine.vector_load"(%66, %45, %20, %47) <{map = affine_map<(d0, d1, d2) -> (d0, d1, d2)>}> : (memref<?x?x?xf16>, index, index, index) -> vector<6xf16>
      "vector.print"(%218) <{punctuation = #vector.punctuation<newline>}> : (vector<6xf16>) -> ()
      %219 = "arith.muli"(%0, %6) : (i32, i32) -> i32
      "memref.assume_alignment"(%76) <{alignment = 2 : i32}> : (memref<?x13xi1>) -> ()
      %220 = "vector.contract"(%218, %218, %14) <{indexing_maps = [affine_map<(d0) -> (d0)>, affine_map<(d0) -> (d0)>, affine_map<(d0) -> ()>], iterator_types = [#vector.iterator_type<reduction>], kind = #vector.kind<mul>}> : (vector<6xf16>, vector<6xf16>, f16) -> f16
      "scf.yield"() : () -> ()
    }) : (index) -> ()
    "vector.warp_execute_on_lane_0"(%16) <{warp_size = 32 : i64}> ({
      %204 = "vector.broadcast"(%83) : (f16) -> vector<15x5xf16>
      %205 = "vector.transfer_write"(%204, %58, %32, %32, %22) <{operandSegmentSizes = array<i32: 1, 1, 3, 0>, permutation_map = affine_map<(d0, d1, d2) -> (d0, d1)>}> : (vector<15x5xf16>, tensor<?x?x5xf16>, index, index, index) -> tensor<?x?x5xf16>
      %206 = "memref.alloca"(%36, %17) <{operandSegmentSizes = array<i32: 2, 0>}> : (index, index) -> memref<?x?xi1>
      %207 = "index.shl"(%45, %30) : (index, index) -> index
      "scf.index_switch"(%40) <{cases = array<i64: 1, 2, 3>}> ({
        %212 = "arith.shli"(%13, %9) : (i16, i16) -> i16
        %213 = "vector.broadcast"(%8) : (i1) -> vector<i1>
        %214 = "vector.insertelement"(%11, %213) : (i1, vector<i1>) -> vector<i1>
        %215 = "arith.shrsi"(%12, %12) : (i32, i32) -> i32
        %216 = "vector.broadcast"(%10) : (f16) -> vector<6xf16>
        %217 = "vector.flat_transpose"(%216) <{columns = 2 : i32, rows = 3 : i32}> : (vector<6xf16>) -> vector<6xf16>
        %218 = "vector.broadcast"(%1) : (f32) -> vector<15x13xf32>
        %219 = "vector.fma"(%218, %218, %218) : (vector<15x13xf32>, vector<15x13xf32>, vector<15x13xf32>) -> vector<15x13xf32>
        %220 = "bufferization.to_memref"(%58) : (tensor<?x?x5xf16>) -> memref<?x?x5xf16>
        %221 = "vector.broadcast"(%12) : (i32) -> vector<15x13xi32>
        %222 = "index.and"(%24, %17) : (index, index) -> index
        %223 = "arith.divui"(%0, %6) : (i32, i32) -> i32
        %224 = "index.maxs"(%34, %222) : (index, index) -> index
        %225 = "math.tanh"(%14) <{fastmath = #arith.fastmath<none>}> : (f16) -> f16
        "bufferization.dealloc_tensor"(%62) : (tensor<5x5x5xf16>) -> ()
        %226 = "vector.extract"(%221) <{static_position = array<i64: 4>}> : (vector<15x13xi32>) -> vector<13xi32>
        %227 = "memref.alloc"() <{operandSegmentSizes = array<i32: 0, 0>}> : () -> memref<13x13xi1>
        %228 = "linalg.matmul"(%51, %227, %51) <{operandSegmentSizes = array<i32: 2, 1>}> ({
        ^bb0(%arg0: i1, %arg1: i1, %arg2: i1):
          %231 = "arith.andi"(%arg0, %arg1) : (i1, i1) -> i1
          %232 = "arith.ori"(%arg2, %231) : (i1, i1) -> i1
          "linalg.yield"(%232) : (i1) -> ()
        }) {linalg.memoized_indexing_maps = [affine_map<(d0, d1, d2) -> (d0, d2)>, affine_map<(d0, d1, d2) -> (d2, d1)>, affine_map<(d0, d1, d2) -> (d0, d1)>]} : (tensor<15x13xi1>, memref<13x13xi1>, tensor<15x13xi1>) -> tensor<15x13xi1>
        %229 = "arith.minui"(%11, %11) : (i1, i1) -> i1
        %230 = "arith.divsi"(%9, %13) : (i16, i16) -> i16
        "scf.yield"() : () -> ()
      }, {
        %212 = "vector.broadcast"(%1) : (f32) -> vector<15xf32>
        %213 = "vector.reduction"(%212) <{fastmath = #arith.fastmath<none>, kind = #vector.kind<mul>}> : (vector<15xf32>) -> f32
        %214 = "affine.min"(%29, %16) <{map = affine_map<(d0, d1) -> (-(-d1 - (d1 + 6)))>}> : (index, index) -> index
        %215 = "index.bool.constant"() <{value = false}> : () -> i1
        %216 = "tensor.dim"(%48, %17) : (tensor<6x6xi1>, index) -> index
        %217 = "vector.bitcast"(%204) : (vector<15x5xf16>) -> vector<15x5xf16>
        %218 = "affine.min"(%27, %45, %24) <{map = affine_map<(d0, d1, d2) -> (d2 ceildiv 64 - (d2 ceildiv 64 - d0))>}> : (index, index, index) -> index
        %219 = "tensor.empty"() : () -> tensor<13x15xi16>
        %220 = "tensor.empty"(%46) : (index) -> tensor<?x15xi16>
        %221 = "linalg.matmul"(%56, %219, %220) <{operandSegmentSizes = array<i32: 2, 1>}> ({
        ^bb0(%arg0: i16, %arg1: i16, %arg2: i16):
          %230 = "arith.muli"(%arg0, %arg1) : (i16, i16) -> i16
          %231 = "arith.addi"(%arg2, %230) : (i16, i16) -> i16
          "linalg.yield"(%231) : (i16) -> ()
        }) {linalg.memoized_indexing_maps = [affine_map<(d0, d1, d2) -> (d0, d2)>, affine_map<(d0, d1, d2) -> (d2, d1)>, affine_map<(d0, d1, d2) -> (d0, d1)>]} : (tensor<?x13xi16>, tensor<13x15xi16>, tensor<?x15xi16>) -> tensor<?x15xi16>
        %222 = "index.ceildivu"(%41, %33) : (index, index) -> index
        %223 = "tensor.insert"(%9, %56, %16, %23) : (i16, tensor<?x13xi16>, index, index) -> tensor<?x13xi16>
        %224 = "index.floordivs"(%214, %24) : (index, index) -> index
        %225 = "index.bool.constant"() <{value = false}> : () -> i1
        %226 = "arith.remf"(%83, %14) <{fastmath = #arith.fastmath<none>}> : (f16, f16) -> f16
        %227 = "index.shl"(%25, %34) : (index, index) -> index
        %228 = "tensor.rank"(%51) : (tensor<15x13xi1>) -> index
        %229 = "math.round"(%2) <{fastmath = #arith.fastmath<none>}> : (f32) -> f32
        "vector.print"(%217) <{punctuation = #vector.punctuation<newline>}> : (vector<15x5xf16>) -> ()
        "scf.yield"() : () -> ()
      }, {
        %212 = "math.log"(%62) <{fastmath = #arith.fastmath<none>}> : (tensor<5x5x5xf16>) -> tensor<5x5x5xf16>
        "memref.assume_alignment"(%65) <{alignment = 2 : i32}> : (memref<?xf16>) -> ()
        %213 = "tensor.splat"(%83) : (f16) -> tensor<6x6xf16>
        %214 = "vector.broadcast"(%80) : (f16) -> vector<5xf16>
        %215 = "vector.insert"(%214, %204) <{static_position = array<i64: 14>}> : (vector<5xf16>, vector<15x5xf16>) -> vector<15x5xf16>
        %216 = "math.sqrt"(%2) <{fastmath = #arith.fastmath<none>}> : (f32) -> f32
        %217 = "affine.load"(%71, %36) <{map = affine_map<(d0) -> (d0)>}> : (memref<?xi32>, index) -> i32
        %218 = "arith.shrui"(%0, %217) : (i32, i32) -> i32
        %219 = "memref.alloca"(%44) <{operandSegmentSizes = array<i32: 1, 0>}> : (index) -> memref<?xf16>
        %220 = "index.divu"(%26, %32) : (index, index) -> index
        %221 = "index.bool.constant"() <{value = false}> : () -> i1
        %222 = "memref.load"(%68, %27, %22) <{nontemporal = false}> : (memref<15x13xi32>, index, index) -> i32
        "vector.print"(%214) <{punctuation = #vector.punctuation<newline>}> : (vector<5xf16>) -> ()
        %223 = "tensor.insert"(%15, %48, %17, %17) : (i1, tensor<6x6xi1>, index, index) -> tensor<6x6xi1>
        %224 = "index.xor"(%32, %24) : (index, index) -> index
        %225 = "memref.alloca"(%19, %224, %220) <{operandSegmentSizes = array<i32: 3, 0>}> : (index, index, index) -> memref<?x?x?xi16>
        %226 = "index.maxs"(%37, %30) : (index, index) -> index
        "scf.yield"() : () -> ()
      }, {
        %212 = "math.log2"(%54) <{fastmath = #arith.fastmath<none>}> : (tensor<?x?xf16>) -> tensor<?x?xf16>
        %213 = "arith.remf"(%14, %5) <{fastmath = #arith.fastmath<none>}> : (f16, f16) -> f16
        %214 = "arith.ceildivsi"(%13, %9) : (i16, i16) -> i16
        %215 = "vector.broadcast"(%80) : (f16) -> vector<5xf16>
        %216 = "vector.insert"(%215, %204) <{static_position = array<i64: 12>}> : (vector<5xf16>, vector<15x5xf16>) -> vector<15x5xf16>
        %217 = "vector.broadcast"(%15) : (i1) -> vector<13xi1>
        "vector.compressstore"(%76, %16, %20, %217, %217) : (memref<?x13xi1>, index, index, vector<13xi1>, vector<13xi1>) -> ()
        %218 = "arith.mulf"(%82, %81) <{fastmath = #arith.fastmath<none>}> : (f32, f32) -> f32
        %219 = "vector.reduction"(%215) <{fastmath = #arith.fastmath<none>, kind = #vector.kind<mul>}> : (vector<5xf16>) -> f16
        %220 = "math.sqrt"(%10) <{fastmath = #arith.fastmath<none>}> : (f16) -> f16
        %221 = "math.copysign"(%81, %2) <{fastmath = #arith.fastmath<none>}> : (f32, f32) -> f32
        %222 = "arith.cmpi"(%6, %12) <{predicate = 5 : i64}> : (i32, i32) -> i1
        %223 = "arith.negf"(%5) <{fastmath = #arith.fastmath<none>}> : (f16) -> f16
        %224 = "vector.broadcast"(%2) : (f32) -> vector<6x6xf32>
        %225 = "vector.fma"(%224, %224, %224) : (vector<6x6xf32>, vector<6x6xf32>, vector<6x6xf32>) -> vector<6x6xf32>
        %226 = "vector.reduction"(%215) <{fastmath = #arith.fastmath<none>, kind = #vector.kind<add>}> : (vector<5xf16>) -> f16
        %227 = "vector.extract_strided_slice"(%215) <{offsets = [3], sizes = [1], strides = [1]}> : (vector<5xf16>) -> vector<1xf16>
        %228 = "affine.min"(%44) <{map = affine_map<(d0) -> (d0 mod 32)>}> : (index) -> index
        %229 = "vector.extract_strided_slice"(%215) <{offsets = [3], sizes = [2], strides = [1]}> : (vector<5xf16>) -> vector<2xf16>
        "scf.yield"() : () -> ()
      }) : (index) -> ()
      %208 = "memref.alloca"(%33) <{operandSegmentSizes = array<i32: 1, 0>}> : (index) -> memref<?x6xf16>
      %209 = "tensor.extract"(%56, %16, %27) : (tensor<?x13xi16>, index, index) -> i16
      %210 = "math.absi"(%63) : (tensor<5xi64>) -> tensor<5xi64>
      %211 = "memref.alloca"() <{operandSegmentSizes = array<i32: 0, 0>}> : () -> memref<6x6xi64>
      "vector.yield"() : () -> ()
    }) : (index) -> ()
    %87 = "spirv.GL.SMin"(%3, %6) : (i32, i32) -> i32
    %88 = "spirv.CL.sin"(%81) : (f32) -> f32
    %89 = "math.ceil"(%1) <{fastmath = #arith.fastmath<none>}> : (f32) -> f32
    %90 = "spirv.FOrdGreaterThanEqual"(%14, %5) : (f16, f16) -> i1
    %91 = "spirv.GL.UMax"(%13, %13) : (i16, i16) -> i16
    %92 = "tensor.empty"() : () -> tensor<i64>
    %93 = "linalg.dot"(%63, %77, %92) <{operandSegmentSizes = array<i32: 2, 1>}> ({
    ^bb0(%arg0: i64, %arg1: i64, %arg2: i64):
      %204 = "arith.muli"(%arg0, %arg1) : (i64, i64) -> i64
      %205 = "arith.addi"(%arg2, %204) : (i64, i64) -> i64
      "linalg.yield"(%205) : (i64) -> ()
    }) {linalg.memoized_indexing_maps = [affine_map<(d0) -> (d0)>, affine_map<(d0) -> (d0)>, affine_map<(d0) -> ()>]} : (tensor<5xi64>, memref<5xi64>, tensor<i64>) -> tensor<i64>
    %94 = "spirv.GL.UMax"(%13, %91) : (i16, i16) -> i16
    %95 = "spirv.GL.Log"(%10) : (f16) -> f16
    %96 = "arith.andi"(%3, %87) : (i32, i32) -> i32
    %97 = "spirv.GL.Sin"(%10) : (f16) -> f16
    %98 = "math.sqrt"(%49) <{fastmath = #arith.fastmath<none>}> : (tensor<?x6xf32>) -> tensor<?x6xf32>
    %99 = "math.tanh"(%49) <{fastmath = #arith.fastmath<none>}> : (tensor<?x6xf32>) -> tensor<?x6xf32>
    %100 = "affine.vector_load"(%72, %23, %22) <{map = affine_map<(d0, d1) -> (d0, d1)>}> : (memref<15x13xi16>, index, index) -> vector<5xi16>
    %101 = "spirv.SGreaterThanEqual"(%9, %91) : (i16, i16) -> i1
    %102 = "affine.apply"(%32) <{map = affine_map<(d0) -> (d0 mod 32)>}> : (index) -> index
    %103 = "vector.transfer_read"(%71, %38, %87) <{operandSegmentSizes = array<i32: 1, 1, 1, 0>, permutation_map = affine_map<(d0) -> ()>}> : (memref<?xi32>, index, i32) -> vector<i32>
    %104 = "spirv.UGreaterThanEqual"(%13, %9) : (i16, i16) -> i1
    %105 = "math.fpowi"(%14, %0) <{fastmath = #arith.fastmath<none>}> : (f16, i32) -> f16
    %106 = "index.xor"(%24, %46) : (index, index) -> index
    %107 = "spirv.LogicalEqual"(%101, %90) : (i1, i1) -> i1
    %108 = "vector.create_mask"(%106, %27, %33) : (index, index, index) -> vector<5x5x5xi1>
    %109 = "spirv.CL.sin"(%81) : (f32) -> f32
    %110 = "spirv.GL.InverseSqrt"(%82) : (f32) -> f32
    %111 = "spirv.GL.Fma"(%5, %80, %14) : (f16, f16, f16) -> f16
    %112 = "scf.execute_region"() ({
      %204 = "arith.minui"(%107, %104) : (i1, i1) -> i1
      %205 = "arith.divui"(%94, %7) : (i16, i16) -> i16
      %206 = "vector.broadcast"(%90) : (i1) -> vector<5xi1>
      %207 = "vector.mask"(%206) ({
        %223 = "vector.multi_reduction"(%100, %100) <{kind = #vector.kind<minsi>, reduction_dims = []}> : (vector<5xi16>, vector<5xi16>) -> vector<5xi16>
        "vector.yield"(%223) : (vector<5xi16>) -> ()
      }) : (vector<5xi1>) -> vector<5xi16>
      %208 = "index.mul"(%30, %33) : (index, index) -> index
      %209 = "index.mul"(%28, %43) : (index, index) -> index
      %210 = "tensor.empty"() : () -> tensor<5x5x5xi32>
      %211 = "math.fpowi"(%62, %210) <{fastmath = #arith.fastmath<none>}> : (tensor<5x5x5xf16>, tensor<5x5x5xi32>) -> tensor<5x5x5xf16>
      %212 = "memref.alloca"() <{operandSegmentSizes = array<i32: 0, 0>}> : () -> memref<5x5x5xi16>
      %213 = "math.log"(%54) <{fastmath = #arith.fastmath<none>}> : (tensor<?x?xf16>) -> tensor<?x?xf16>
      %214 = "arith.shrui"(%4, %4) : (i64, i64) -> i64
      %215 = "index.ceildivs"(%46, %33) : (index, index) -> index
      %216 = "math.tanh"(%54) <{fastmath = #arith.fastmath<none>}> : (tensor<?x?xf16>) -> tensor<?x?xf16>
      %217 = "arith.minui"(%94, %7) : (i16, i16) -> i16
      %218 = "math.tan"(%60) <{fastmath = #arith.fastmath<none>}> : (tensor<15x13xf16>) -> tensor<15x13xf16>
      %219 = "vector.broadcast"(%6) : (i32) -> vector<i32>
      "vector.transfer_write"(%219, %71, %44) <{operandSegmentSizes = array<i32: 1, 1, 1, 0>, permutation_map = affine_map<(d0) -> ()>}> : (vector<i32>, memref<?xi32>, index) -> ()
      %220 = "arith.floordivsi"(%104, %107) : (i1, i1) -> i1
      %221 = "vector.reduction"(%206) <{fastmath = #arith.fastmath<none>, kind = #vector.kind<maxsi>}> : (vector<5xi1>) -> i1
      %222 = "tensor.empty"(%32, %27) : (index, index) -> tensor<?x?x5xi1>
      "scf.yield"(%222) : (tensor<?x?x5xi1>) -> ()
    }) : () -> tensor<?x?x5xi1>
    %113 = "spirv.LogicalAnd"(%15, %90) : (i1, i1) -> i1
    %114 = "spirv.GL.Cos"(%5) : (f16) -> f16
    %115 = "tensor.empty"() : () -> tensor<15xi16>
    %116 = "linalg.generic"(%115, %115, %115) <{indexing_maps = [affine_map<(d0) -> (d0)>, affine_map<(d0) -> (d0)>, affine_map<(d0) -> (d0)>], iterator_types = [#linalg.iterator_type<parallel>], operandSegmentSizes = array<i32: 2, 1>}> ({
    ^bb0(%arg0: i16, %arg1: i16, %arg2: i16):
      %204 = "arith.remf"(%1, %110) <{fastmath = #arith.fastmath<none>}> : (f32, f32) -> f32
      "linalg.yield"(%94) : (i16) -> ()
    }) : (tensor<15xi16>, tensor<15xi16>, tensor<15xi16>) -> tensor<15xi16>
    "memref.assume_alignment"(%66) <{alignment = 1 : i32}> : (memref<?x?x?xf16>) -> ()
    %117 = "vector.broadcast"(%12) : (i32) -> vector<2xi32>
    %118 = "spirv.BitwiseOr"(%117, %117) : (vector<2xi32>, vector<2xi32>) -> vector<2xi32>
    %119 = "memref.load"(%64, %16) <{nontemporal = false}> : (memref<?xi64>, index) -> i64
    %120 = "spirv.BitwiseXor"(%117, %117) : (vector<2xi32>, vector<2xi32>) -> vector<2xi32>
    "vector.warp_execute_on_lane_0"(%16) <{warp_size = 32 : i64}> ({
      %204 = "tensor.empty"() : () -> tensor<195xi1>
      %205 = "tensor.unpack"(%51, %204, %29) <{inner_dims_pos = array<i64: 0>, outer_dims_perm = array<i64: 0>, static_inner_tiles = array<i64: -9223372036854775808>}> : (tensor<15x13xi1>, tensor<195xi1>, index) -> tensor<195xi1>
      %206 = "affine.parallel"() <{lowerBoundsGroups = dense<1> : tensor<3xi32>, lowerBoundsMap = affine_map<() -> (0, 0, 0)>, reductions = [10], steps = [1, 1, 1], upperBoundsGroups = dense<1> : tensor<3xi32>, upperBoundsMap = affine_map<() -> (6, 15, 13)>}> ({
      ^bb0(%arg0: index, %arg1: index, %arg2: index):
        %214 = "arith.mulf"(%114, %97) <{fastmath = #arith.fastmath<none>}> : (f16, f16) -> f16
        "affine.yield"(%3) : (i32) -> ()
      }) : () -> memref<6x15x13xi32>
      %207 = "math.cos"(%58) <{fastmath = #arith.fastmath<none>}> : (tensor<?x?x5xf16>) -> tensor<?x?x5xf16>
      %208 = "tensor.cast"(%60) : (tensor<15x13xf16>) -> tensor<?x?xf16>
      %209 = "arith.mulf"(%95, %97) <{fastmath = #arith.fastmath<none>}> : (f16, f16) -> f16
      %210 = "vector.broadcast"(%15) : (i1) -> vector<5x5xi1>
      %211 = "vector.mask"(%108) ({
        %214 = "vector.multi_reduction"(%108, %210) <{kind = #vector.kind<or>, reduction_dims = [1]}> : (vector<5x5x5xi1>, vector<5x5xi1>) -> vector<5x5xi1>
        "vector.yield"(%214) : (vector<5x5xi1>) -> ()
      }) : (vector<5x5x5xi1>) -> vector<5x5xi1>
      %212 = "linalg.copy"(%62, %62) <{operandSegmentSizes = array<i32: 1, 1>}> ({
      ^bb0(%arg0: f16, %arg1: f16):
        "linalg.yield"(%arg0) : (f16) -> ()
      }) : (tensor<5x5x5xf16>, tensor<5x5x5xf16>) -> tensor<5x5x5xf16>
      %213 = "math.absi"(%7) : (i16) -> i16
      "vector.yield"() : () -> ()
    }) : (index) -> ()
    %121 = "memref.alloc"() <{operandSegmentSizes = array<i32: 0, 0>}> : () -> memref<5xf16>
    "linalg.transpose"(%61, %121) <{permutation = array<i64: 0>}> ({
    ^bb0(%arg0: f16, %arg1: f16):
      "linalg.yield"(%arg0) : (f16) -> ()
    }) : (tensor<5xf16>, memref<5xf16>) -> ()
    %122 = "tensor.collapse_shape"(%55) <{reassociation = [[0, 1], [2]]}> : (tensor<5x5x5xi16>) -> tensor<25x5xi16>
    %123 = "vector.extract_strided_slice"(%117) <{offsets = [0], sizes = [2], strides = [1]}> : (vector<2xi32>) -> vector<2xi32>
    %124 = "index.mul"(%39, %106) : (index, index) -> index
    %125 = "linalg.transpose"(%71, %59) <{permutation = array<i64: 0>}> ({
    ^bb0(%arg0: i32, %arg1: i32):
      "linalg.yield"(%arg0) : (i32) -> ()
    }) : (memref<?xi32>, tensor<?xi32>) -> tensor<?xi32>
    %126 = "math.tanh"(%95) <{fastmath = #arith.fastmath<none>}> : (f16) -> f16
    %127 = "spirv.LogicalAnd"(%101, %104) : (i1, i1) -> i1
    %128 = "spirv.BitReverse"(%123) : (vector<2xi32>) -> vector<2xi32>
    %129 = "spirv.CL.ceil"(%88) : (f32) -> f32
    %130 = "spirv.GL.Sin"(%10) : (f16) -> f16
    %131 = "arith.mulf"(%109, %129) <{fastmath = #arith.fastmath<none>}> : (f32, f32) -> f32
    %132 = "index.sizeof"() : () -> index
    %133 = "spirv.CL.s_abs"(%12) : (i32) -> i32
    %134 = "index.sub"(%31, %35) : (index, index) -> index
    %135 = "arith.minui"(%3, %87) : (i32, i32) -> i32
    %136 = "arith.shli"(%87, %0) : (i32, i32) -> i32
    "memref.assume_alignment"(%75) <{alignment = 2 : i32}> : (memref<?xi1>) -> ()
    %137 = "math.log"(%58) <{fastmath = #arith.fastmath<none>}> : (tensor<?x?x5xf16>) -> tensor<?x?x5xf16>
    %138 = "arith.floordivsi"(%4, %4) : (i64, i64) -> i64
    %139 = "spirv.CL.u_min"(%117, %123) : (vector<2xi32>, vector<2xi32>) -> vector<2xi32>
    %140 = "spirv.GL.Asin"(%10) : (f16) -> f16
    %141 = "spirv.BitReverse"(%87) : (i32) -> i32
    %142 = "arith.shrui"(%9, %13) : (i16, i16) -> i16
    %143 = "scf.execute_region"() ({
      %204 = "affine.max"(%32) <{map = affine_map<(d0) -> (d0 mod 32)>}> : (index) -> index
      %205 = "vector.broadcast"(%42) : (index) -> vector<13xindex>
      %206 = "vector.broadcast"(%101) : (i1) -> vector<13xi1>
      "vector.scatter"(%75, %16, %205, %206, %206) : (memref<?xi1>, index, vector<13xindex>, vector<13xi1>, vector<13xi1>) -> ()
      %207 = "arith.shrui"(%101, %127) : (i1, i1) -> i1
      "vector.warp_execute_on_lane_0"(%16) <{warp_size = 32 : i64}> ({
        %219 = "arith.ceildivsi"(%4, %4) : (i64, i64) -> i64
        %220 = "index.divu"(%102, %34) : (index, index) -> index
        %221 = "index.and"(%33, %23) : (index, index) -> index
        %222 = "memref.load"(%73, %16) <{nontemporal = false}> : (memref<?xf16>, index) -> f16
        %223 = "tensor.collapse_shape"(%48) <{reassociation = [[0, 1]]}> : (tensor<6x6xi1>) -> tensor<36xi1>
        %224 = "bufferization.clone"(%79) : (memref<15x13xi1>) -> memref<15x13xi1>
        %225 = "vector.broadcast"(%110) : (f32) -> vector<6x6xf32>
        %226 = "vector.fma"(%225, %225, %225) : (vector<6x6xf32>, vector<6x6xf32>, vector<6x6xf32>) -> vector<6x6xf32>
        "memref.assume_alignment"(%71) <{alignment = 8 : i32}> : (memref<?xi32>) -> ()
        "vector.yield"() : () -> ()
      }) : (index) -> ()
      %208 = "arith.ceildivsi"(%141, %12) : (i32, i32) -> i32
      %209 = "math.log"(%81) <{fastmath = #arith.fastmath<none>}> : (f32) -> f32
      %210 = "index.maxs"(%23, %39) : (index, index) -> index
      %211 = "index.divu"(%25, %39) : (index, index) -> index
      %212 = "affine.max"(%26, %124, %19, %17) <{map = affine_map<(d0, d1, d2, d3) -> (-(d1 - 1) + d2)>}> : (index, index, index, index) -> index
      %213 = "math.log"(%88) <{fastmath = #arith.fastmath<none>}> : (f32) -> f32
      %214 = "arith.muli"(%6, %141) : (i32, i32) -> i32
      %215 = "arith.shli"(%107, %15) : (i1, i1) -> i1
      "scf.if"(%127) ({
        %219 = "index.sizeof"() : () -> index
        %220 = "math.round"(%111) <{fastmath = #arith.fastmath<none>}> : (f16) -> f16
        %221 = "arith.shli"(%101, %11) : (i1, i1) -> i1
        %222 = "vector.transfer_read"(%122, %106, %33, %13) <{operandSegmentSizes = array<i32: 1, 2, 1, 0>, permutation_map = affine_map<(d0, d1) -> ()>}> : (tensor<25x5xi16>, index, index, i16) -> vector<i16>
        %223 = "math.powf"(%10, %5) <{fastmath = #arith.fastmath<none>}> : (f16, f16) -> f16
        %224 = "index.shrs"(%132, %40) : (index, index) -> index
        %225 = "arith.divf"(%10, %130) <{fastmath = #arith.fastmath<none>}> : (f16, f16) -> f16
        "memref.copy"(%74, %74) : (memref<5x5x5xf16>, memref<5x5x5xf16>) -> ()
        "scf.yield"() : () -> ()
      }, {
      }) : (i1) -> ()
      %216 = "vector.reduction"(%123) <{fastmath = #arith.fastmath<none>, kind = #vector.kind<or>}> : (vector<2xi32>) -> i32
      %217 = "arith.shrui"(%87, %6) : (i32, i32) -> i32
      %218 = "arith.remf"(%130, %140) <{fastmath = #arith.fastmath<none>}> : (f16, f16) -> f16
      "scf.yield"(%78) : (memref<5xi32>) -> ()
    }) : () -> memref<5xi32>
    %144 = "spirv.CL.rsqrt"(%109) : (f32) -> f32
    %145 = "spirv.CL.floor"(%83) : (f16) -> f16
    %146 = "affine.vector_load"(%72, %39, %25) <{map = affine_map<(d0, d1) -> (d0, d1)>}> : (memref<15x13xi16>, index, index) -> vector<15xi16>
    %147 = "spirv.CL.ceil"(%10) : (f16) -> f16
    %148 = "spirv.CL.round"(%114) : (f16) -> f16
    %149 = "vector.reduction"(%146) <{fastmath = #arith.fastmath<none>, kind = #vector.kind<mul>}> : (vector<15xi16>) -> i16
    %150 = "tensor.empty"(%39, %16) : (index, index) -> tensor<?x?x6xi1>
    %151 = "tensor.empty"() : () -> tensor<i1>
    %152 = "tensor.empty"(%29, %24) : (index, index) -> tensor<?x?xi1>
    %153 = "linalg.generic"(%150, %151, %152, %151, %150) <{indexing_maps = [affine_map<(d0, d1, d2) -> (d0, d1, d2)>, affine_map<(d0, d1, d2) -> ()>, affine_map<(d0, d1, d2) -> (d0, d1)>, affine_map<(d0, d1, d2) -> ()>, affine_map<(d0, d1, d2) -> (d0, d1, d2)>], iterator_types = [#linalg.iterator_type<parallel>, #linalg.iterator_type<parallel>, #linalg.iterator_type<parallel>], operandSegmentSizes = array<i32: 4, 1>}> ({
    ^bb0(%arg0: i1, %arg1: i1, %arg2: i1, %arg3: i1, %arg4: i1):
      %204 = "arith.addf"(%147, %83) <{fastmath = #arith.fastmath<none>}> : (f16, f16) -> f16
      "linalg.yield"(%arg1) : (i1) -> ()
    }) : (tensor<?x?x6xi1>, tensor<i1>, tensor<?x?xi1>, tensor<i1>, tensor<?x?x6xi1>) -> tensor<?x?x6xi1>
    %154 = "spirv.ULessThanEqual"(%94, %13) : (i16, i16) -> i1
    %155 = "spirv.CL.erf"(%80) : (f16) -> f16
    %156 = "math.fpowi"(%10, %3) <{fastmath = #arith.fastmath<none>}> : (f16, i32) -> f16
    %157 = "spirv.FUnordLessThanEqual"(%111, %14) : (f16, f16) -> i1
    %158 = "memref.alloc"(%44) <{operandSegmentSizes = array<i32: 1, 0>}> : (index) -> memref<?xi1>
    %159 = "spirv.LogicalOr"(%127, %154) : (i1, i1) -> i1
    "vector.warp_execute_on_lane_0"(%16) <{warp_size = 32 : i64}> ({
      %204 = "math.floor"(%114) <{fastmath = #arith.fastmath<none>}> : (f16) -> f16
      %205 = "index.sub"(%134, %32) : (index, index) -> index
      %206 = "scf.while"(%97) ({
      ^bb0(%arg0: f16):
        %212 = "math.ctlz"(%59) : (tensor<?xi32>) -> tensor<?xi32>
        %213 = "vector.matrix_multiply"(%146, %100) <{lhs_columns = 5 : i32, lhs_rows = 3 : i32, rhs_columns = 1 : i32}> : (vector<15xi16>, vector<5xi16>) -> vector<3xi16>
        %214 = "memref.alloc"() <{operandSegmentSizes = array<i32: 0, 0>}> : () -> memref<13x13xi64>
        %215 = "linalg.matmul"(%57, %214, %57) <{operandSegmentSizes = array<i32: 2, 1>}> ({
        ^bb0(%arg1: i64, %arg2: i64, %arg3: i64):
          %222 = "arith.muli"(%arg1, %arg2) : (i64, i64) -> i64
          %223 = "arith.addi"(%arg3, %222) : (i64, i64) -> i64
          "linalg.yield"(%223) : (i64) -> ()
        }) : (tensor<?x13xi64>, memref<13x13xi64>, tensor<?x13xi64>) -> tensor<?x13xi64>
        %216 = "memref.cast"(%121) : (memref<5xf16>) -> memref<?xf16>
        %217 = "math.tanh"(%84) <{fastmath = #arith.fastmath<none>}> : (tensor<?x?x?xf16>) -> tensor<?x?x?xf16>
        %218 = "vector.broadcast"(%88) : (f32) -> vector<5x5x5xf32>
        %219 = "vector.fma"(%218, %218, %218) : (vector<5x5x5xf32>, vector<5x5x5xf32>, vector<5x5x5xf32>) -> vector<5x5x5xf32>
        %220 = "linalg.matmul"(%48, %48, %50) <{operandSegmentSizes = array<i32: 2, 1>}> ({
        ^bb0(%arg1: i1, %arg2: i1, %arg3: i1):
          %222 = "arith.andi"(%arg1, %arg2) : (i1, i1) -> i1
          %223 = "arith.ori"(%arg3, %222) : (i1, i1) -> i1
          "linalg.yield"(%223) : (i1) -> ()
        }) : (tensor<6x6xi1>, tensor<6x6xi1>, tensor<6x6xi1>) -> tensor<6x6xi1>
        %221 = "vector.extract_strided_slice"(%218) <{offsets = [2], sizes = [2], strides = [1]}> : (vector<5x5x5xf32>) -> vector<2x5x5xf32>
        "scf.condition"(%107, %5) : (i1, f16) -> ()
      }, {
      ^bb0(%arg0: f16):
        %212 = "linalg.copy"(%51, %51) <{operandSegmentSizes = array<i32: 1, 1>}> ({
        ^bb0(%arg1: i1, %arg2: i1):
          "linalg.yield"(%arg1) : (i1) -> ()
        }) : (tensor<15x13xi1>, tensor<15x13xi1>) -> tensor<15x13xi1>
        %213 = "arith.minsi"(%8, %8) : (i1, i1) -> i1
        %214 = "bufferization.to_memref"(%59) : (tensor<?xi32>) -> memref<?xi32>
        %215 = "index.shrs"(%30, %41) : (index, index) -> index
        %216 = "arith.remf"(%109, %109) <{fastmath = #arith.fastmath<none>}> : (f32, f32) -> f32
        %217 = "math.fpowi"(%155, %6) <{fastmath = #arith.fastmath<none>}> : (f16, i32) -> f16
        %218 = "index.ceildivu"(%47, %31) : (index, index) -> index
        %219 = "math.absf"(%14) <{fastmath = #arith.fastmath<none>}> : (f16) -> f16
        %220 = "vector.reduction"(%123) <{fastmath = #arith.fastmath<none>, kind = #vector.kind<and>}> : (vector<2xi32>) -> i32
        %221 = "vector.broadcast"(%6) : (i32) -> vector<13xi32>
        %222 = "vector.broadcast"(%107) : (i1) -> vector<13xi1>
        %223 = "vector.maskedload"(%214, %16, %222, %221) : (memref<?xi32>, index, vector<13xi1>, vector<13xi32>) -> vector<13xi32>
        %224 = "affine.max"(%36) <{map = affine_map<(d0) -> (d0 mod 32)>}> : (index) -> index
        %225 = "math.round"(%60) <{fastmath = #arith.fastmath<none>}> : (tensor<15x13xf16>) -> tensor<15x13xf16>
        %226 = "math.ipowi"(%127, %104) : (i1, i1) -> i1
        %227 = "vector.extract_strided_slice"(%146) <{offsets = [8], sizes = [2], strides = [1]}> : (vector<15xi16>) -> vector<2xi16>
        %228 = "memref.alloc"() <{operandSegmentSizes = array<i32: 0, 0>}> : () -> memref<13x15xi16>
        "linalg.transpose"(%72, %228) <{permutation = array<i64: 1, 0>}> ({
        ^bb0(%arg1: i16, %arg2: i16):
          "linalg.yield"(%arg1) : (i16) -> ()
        }) : (memref<15x13xi16>, memref<13x15xi16>) -> ()
        %229 = "math.exp"(%114) <{fastmath = #arith.fastmath<none>}> : (f16) -> f16
        "scf.yield"(%155) : (f16) -> ()
      }) : (f16) -> f16
      %207 = "vector.extract_strided_slice"(%117) <{offsets = [0], sizes = [2], strides = [1]}> : (vector<2xi32>) -> vector<2xi32>
      %208 = "vector.broadcast"(%154) : (i1) -> vector<5x5xi1>
      %209:2 = "vector.scan"(%108, %208) <{inclusive = true, kind = #vector.kind<or>, reduction_dim = 1 : i64}> : (vector<5x5x5xi1>, vector<5x5xi1>) -> (vector<5x5x5xi1>, vector<5x5xi1>)
      %210 = "index.maxs"(%18, %16) : (index, index) -> index
      "scf.index_switch"(%29) <{cases = array<i64: 1, 2, 3, 4>}> ({
        %212 = "arith.addi"(%154, %104) : (i1, i1) -> i1
        %213 = "index.castu"(%210) : (index) -> i32
        %214 = "arith.shrsi"(%12, %141) : (i32, i32) -> i32
        %215 = "tensor.extract"(%52, %16, %16) : (tensor<?x?xi32>, index, index) -> i32
        %216 = "affine.max"(%124, %42, %210, %25) <{map = affine_map<(d0, d1, d2)[s0] -> (-d1 + 2)>}> : (index, index, index, index) -> index
        %217 = "affine.min"(%25) <{map = affine_map<(d0) -> (d0 mod 32)>}> : (index) -> index
        %218 = "math.floor"(%155) <{fastmath = #arith.fastmath<none>}> : (f16) -> f16
        %219 = "arith.andi"(%11, %157) : (i1, i1) -> i1
        %220 = "math.round"(%62) <{fastmath = #arith.fastmath<none>}> : (tensor<5x5x5xf16>) -> tensor<5x5x5xf16>
        %221 = "tensor.dim"(%57, %17) : (tensor<?x13xi64>, index) -> index
        %222 = "vector.bitcast"(%123) : (vector<2xi32>) -> vector<2xi32>
        %223 = "tensor.cast"(%62) : (tensor<5x5x5xf16>) -> tensor<?x?x?xf16>
        %224 = "affine.max"(%17, %36, %40, %124) <{map = affine_map<(d0, d1, d2, d3) -> (-(d1 - 1) + d2)>}> : (index, index, index, index) -> index
        "bufferization.dealloc_tensor"(%152) : (tensor<?x?xi1>) -> ()
        %225 = "bufferization.clone"(%79) : (memref<15x13xi1>) -> memref<15x13xi1>
        "vector.print"(%222) <{punctuation = #vector.punctuation<newline>}> : (vector<2xi32>) -> ()
        "scf.yield"() : () -> ()
      }, {
        %212 = "affine.min"(%29, %124) <{map = affine_map<(d0)[s0] -> (32)>}> : (index, index) -> index
        %213 = "index.and"(%124, %30) : (index, index) -> index
        %214 = "math.fpowi"(%81, %6) <{fastmath = #arith.fastmath<none>}> : (f32, i32) -> f32
        %215 = "math.log"(%97) <{fastmath = #arith.fastmath<none>}> : (f16) -> f16
        %216 = "arith.xori"(%113, %15) : (i1, i1) -> i1
        %217 = "math.powf"(%111, %155) <{fastmath = #arith.fastmath<none>}> : (f16, f16) -> f16
        %218 = "arith.minsi"(%7, %94) : (i16, i16) -> i16
        %219 = "index.shl"(%20, %23) : (index, index) -> index
        %220 = "math.absf"(%147) <{fastmath = #arith.fastmath<none>}> : (f16) -> f16
        %221 = "memref.realloc"(%73) : (memref<?xf16>) -> memref<15xf16>
        %222 = "math.absi"(%3) : (i32) -> i32
        %223 = "vector.bitcast"(%146) : (vector<15xi16>) -> vector<15xi16>
        %224 = "memref.alloca"() <{operandSegmentSizes = array<i32: 0, 0>}> : () -> memref<15x13xi32>
        %225 = "index.xor"(%22, %43) : (index, index) -> index
        %226 = "vector.broadcast"(%154) : (i1) -> vector<2xi1>
        "vector.compressstore"(%143, %17, %226, %123) : (memref<5xi32>, index, vector<2xi1>, vector<2xi32>) -> ()
        %227 = "index.maxu"(%36, %106) : (index, index) -> index
        "scf.yield"() : () -> ()
      }, {
        %212 = "math.tanh"(%80) <{fastmath = #arith.fastmath<none>}> : (f16) -> f16
        %213 = "index.ceildivs"(%33, %34) : (index, index) -> index
        %214 = "tensor.rank"(%63) : (tensor<5xi64>) -> index
        %215 = "memref.alloca"() <{operandSegmentSizes = array<i32: 0, 0>}> : () -> memref<5x5x5xf32>
        %216 = "arith.divf"(%155, %83) <{fastmath = #arith.fastmath<none>}> : (f16, f16) -> f16
        "memref.store"(%0, %70, %16, %16, %18) <{nontemporal = false}> : (i32, memref<5x5x5xi32>, index, index, index) -> ()
        %217 = "math.log"(%60) <{fastmath = #arith.fastmath<none>}> : (tensor<15x13xf16>) -> tensor<15x13xf16>
        %218 = "tensor.collapse_shape"(%122) <{reassociation = [[0, 1]]}> : (tensor<25x5xi16>) -> tensor<125xi16>
        %219 = "math.copysign"(%10, %80) <{fastmath = #arith.fastmath<none>}> : (f16, f16) -> f16
        %220 = "memref.alloc"() <{operandSegmentSizes = array<i32: 0, 0>}> : () -> memref<5xf16>
        "memref.tensor_store"(%61, %220) : (tensor<5xf16>, memref<5xf16>) -> ()
        %221 = "vector.broadcast"(%8) : (i1) -> vector<5x5xi1>
        %222 = "vector.insert"(%221, %108) <{static_position = array<i64: 0>}> : (vector<5x5xi1>, vector<5x5x5xi1>) -> vector<5x5x5xi1>
        %223 = "vector.create_mask"(%27, %26) : (index, index) -> vector<6x6xi1>
        %224 = "tensor.cast"(%52) : (tensor<?x?xi32>) -> tensor<5x15xi32>
        %225 = "math.exp"(%130) <{fastmath = #arith.fastmath<none>}> : (f16) -> f16
        %226 = "arith.minsi"(%154, %11) : (i1, i1) -> i1
        %227 = "math.floor"(%111) <{fastmath = #arith.fastmath<none>}> : (f16) -> f16
        "scf.yield"() : () -> ()
      }, {
        "bufferization.dealloc_tensor"(%125) : (tensor<?xi32>) -> ()
        %212 = "index.sub"(%30, %23) : (index, index) -> index
        %213 = "vector.shuffle"(%108, %108) <{mask = [0, 2, 3, 4, 5, 6, 7, 8, 9]}> : (vector<5x5x5xi1>, vector<5x5x5xi1>) -> vector<9x5x5xi1>
        %214 = "vector.reduction"(%100) <{fastmath = #arith.fastmath<none>, kind = #vector.kind<xor>}> : (vector<5xi16>) -> i16
        %215 = "math.tan"(%1) <{fastmath = #arith.fastmath<none>}> : (f32) -> f32
        %216 = "index.shl"(%29, %46) : (index, index) -> index
        %217 = "memref.alloc"(%40, %38) <{operandSegmentSizes = array<i32: 2, 0>}> : (index, index) -> memref<?x?x5xi64>
        %218 = "vector.matrix_multiply"(%207, %117) <{lhs_columns = 2 : i32, lhs_rows = 1 : i32, rhs_columns = 1 : i32}> : (vector<2xi32>, vector<2xi32>) -> vector<1xi32>
        %219 = "arith.remf"(%83, %95) <{fastmath = #arith.fastmath<none>}> : (f16, f16) -> f16
        %220 = "arith.ceildivsi"(%8, %113) : (i1, i1) -> i1
        %221 = "math.log"(%129) <{fastmath = #arith.fastmath<none>}> : (f32) -> f32
        %222 = "arith.shli"(%3, %141) : (i32, i32) -> i32
        %223 = "index.xor"(%27, %25) : (index, index) -> index
        %224 = "vector.load"(%70, %20, %18, %16) : (memref<5x5x5xi32>, index, index, index) -> vector<6x6xi32>
        %225 = "math.rsqrt"(%147) <{fastmath = #arith.fastmath<none>}> : (f16) -> f16
        %226 = "index.casts"(%0) : (i32) -> index
        "scf.yield"() : () -> ()
      }, {
        "memref.store"(%0, %78, %19) <{nontemporal = false}> : (i32, memref<5xi32>, index) -> ()
        %212 = "index.casts"(%34) : (index) -> i32
        %213 = "vector.broadcast"(%11) : (i1) -> vector<5x5xi1>
        %214:2 = "vector.scan"(%108, %213) <{inclusive = true, kind = #vector.kind<maxui>, reduction_dim = 1 : i64}> : (vector<5x5x5xi1>, vector<5x5xi1>) -> (vector<5x5x5xi1>, vector<5x5xi1>)
        %215 = "tensor.rank"(%54) : (tensor<?x?xf16>) -> index
        %216 = "math.round"(%61) <{fastmath = #arith.fastmath<none>}> : (tensor<5xf16>) -> tensor<5xf16>
        %217 = "arith.mulf"(%148, %80) <{fastmath = #arith.fastmath<none>}> : (f16, f16) -> f16
        %218 = "arith.mulf"(%82, %129) <{fastmath = #arith.fastmath<none>}> : (f32, f32) -> f32
        %219 = "memref.cast"(%64) : (memref<?xi64>) -> memref<?xi64>
        %220 = "index.or"(%18, %26) : (index, index) -> index
        %221 = "index.and"(%106, %34) : (index, index) -> index
        "memref.store"(%94, %72, %22, %21) <{nontemporal = false}> : (i16, memref<15x13xi16>, index, index) -> ()
        %222 = "tensor.extract"(%56, %16, %19) : (tensor<?x13xi16>, index, index) -> i16
        %223 = "tensor.from_elements"(%81, %110, %88, %110, %82, %88, %129, %129, %81, %82, %81, %82, %129, %2, %88, %82, %129, %129, %110, %109, %1, %88, %88, %129, %1, %82, %88, %144, %82, %1, %129, %88, %82, %88, %129, %82, %109, %144, %82, %81, %110, %1, %144, %82, %81, %2, %82, %82, %88, %109, %144, %109, %110, %1, %88, %88, %110, %2, %88, %2, %88, %88, %110, %81, %82, %110, %110, %2, %81, %109, %88, %1, %81, %110, %129, %81, %144, %109, %2, %110, %144, %81, %1, %1, %110, %144, %110, %81, %110, %129, %110, %129, %129, %1, %109, %144, %81, %144, %109, %82, %110, %81, %1, %144, %82, %1, %144, %88, %109, %109, %88, %129, %1, %81, %81, %1, %2, %110, %144, %129, %109, %109, %109, %82, %2) : (f32, f32, f32, f32, f32, f32, f32, f32, f32, f32, f32, f32, f32, f32, f32, f32, f32, f32, f32, f32, f32, f32, f32, f32, f32, f32, f32, f32, f32, f32, f32, f32, f32, f32, f32, f32, f32, f32, f32, f32, f32, f32, f32, f32, f32, f32, f32, f32, f32, f32, f32, f32, f32, f32, f32, f32, f32, f32, f32, f32, f32, f32, f32, f32, f32, f32, f32, f32, f32, f32, f32, f32, f32, f32, f32, f32, f32, f32, f32, f32, f32, f32, f32, f32, f32, f32, f32, f32, f32, f32, f32, f32, f32, f32, f32, f32, f32, f32, f32, f32, f32, f32, f32, f32, f32, f32, f32, f32, f32, f32, f32, f32, f32, f32, f32, f32, f32, f32, f32, f32, f32, f32, f32, f32, f32) -> tensor<5x5x5xf32>
        %224 = "arith.floordivsi"(%141, %6) : (i32, i32) -> i32
        %225 = "math.floor"(%1) <{fastmath = #arith.fastmath<none>}> : (f32) -> f32
        %226 = "arith.divf"(%114, %155) <{fastmath = #arith.fastmath<none>}> : (f16, f16) -> f16
        "scf.yield"() : () -> ()
      }) : (index) -> ()
      %211 = "math.copysign"(%147, %114) <{fastmath = #arith.fastmath<none>}> : (f16, f16) -> f16
      "vector.yield"() : () -> ()
    }) : (index) -> ()
    %160 = "vector.broadcast"(%91) : (i16) -> vector<5x5xi16>
    %161 = "vector.outerproduct"(%100, %100, %160) <{kind = #vector.kind<add>}> : (vector<5xi16>, vector<5xi16>, vector<5x5xi16>) -> vector<5x5xi16>
    %162 = "spirv.CL.round"(%10) : (f16) -> f16
    %163 = "spirv.SGreaterThanEqual"(%94, %94) : (i16, i16) -> i1
    %164 = "arith.divf"(%162, %130) <{fastmath = #arith.fastmath<none>}> : (f16, f16) -> f16
    %165 = "spirv.CL.rsqrt"(%140) : (f16) -> f16
    %166 = "vector.bitcast"(%123) : (vector<2xi32>) -> vector<2xi32>
    %167 = "vector.multi_reduction"(%166, %166) <{kind = #vector.kind<minui>, reduction_dims = []}> : (vector<2xi32>, vector<2xi32>) -> vector<2xi32>
    %168 = "spirv.CL.floor"(%83) : (f16) -> f16
    %169 = "tensor.insert"(%4, %63, %19) : (i64, tensor<5xi64>, index) -> tensor<5xi64>
    %170 = "spirv.CL.sin"(%140) : (f16) -> f16
    %171 = "affine.vector_load"(%143, %102) <{map = affine_map<(d0) -> (d0)>}> : (memref<5xi32>, index) -> vector<5xi32>
    %172 = "spirv.CL.s_abs"(%87) : (i32) -> i32
    %173 = "spirv.CL.floor"(%88) : (f32) -> f32
    "vector.print"(%108) <{punctuation = #vector.punctuation<newline>}> : (vector<5x5x5xi1>) -> ()
    %174 = "spirv.CL.u_min"(%4, %4) : (i64, i64) -> i64
    %175 = "spirv.CL.fabs"(%144) : (f32) -> f32
    %176 = "spirv.IsNan"(%170) : (f16) -> i1
    %177 = "spirv.GL.SMax"(%12, %3) : (i32, i32) -> i32
    %178 = "spirv.CL.erf"(%114) : (f16) -> f16
    %179 = "vector.broadcast"(%87) : (i32) -> vector<5xi32>
    %180 = "arith.remf"(%95, %148) <{fastmath = #arith.fastmath<none>}> : (f16, f16) -> f16
    %181 = "spirv.GL.Sin"(%111) : (f16) -> f16
    %182 = "spirv.BitwiseOr"(%166, %123) : (vector<2xi32>, vector<2xi32>) -> vector<2xi32>
    %183 = "vector.matrix_multiply"(%117, %123) <{lhs_columns = 2 : i32, lhs_rows = 1 : i32, rhs_columns = 1 : i32}> : (vector<2xi32>, vector<2xi32>) -> vector<1xi32>
    %184 = "bufferization.clone"(%121) : (memref<5xf16>) -> memref<5xf16>
    %185 = "vector.shuffle"(%179, %123) <{mask = [6]}> : (vector<5xi32>, vector<2xi32>) -> vector<1xi32>
    "scf.parallel"(%25, %124, %47) <{operandSegmentSizes = array<i32: 1, 1, 1, 0>}> ({
    ^bb0(%arg0: index):
      "memref.assume_alignment"(%66) <{alignment = 16 : i32}> : (memref<?x?x?xf16>) -> ()
      %204 = "vector.reduction"(%166) <{fastmath = #arith.fastmath<none>, kind = #vector.kind<minui>}> : (vector<2xi32>) -> i32
      %205 = "vector.insert"(%13, %100) <{static_position = array<i64: 0>}> : (i16, vector<5xi16>) -> vector<5xi16>
      %206 = "math.round"(%130) <{fastmath = #arith.fastmath<none>}> : (f16) -> f16
      %207 = "math.rsqrt"(%61) <{fastmath = #arith.fastmath<none>}> : (tensor<5xf16>) -> tensor<5xf16>
      %208 = "math.copysign"(%5, %95) <{fastmath = #arith.fastmath<none>}> : (f16, f16) -> f16
      %209 = "arith.divf"(%144, %109) <{fastmath = #arith.fastmath<none>}> : (f32, f32) -> f32
      %210 = "vector.bitcast"(%179) : (vector<5xi32>) -> vector<5xi32>
      %211 = "vector.extract_strided_slice"(%123) <{offsets = [0], sizes = [2], strides = [1]}> : (vector<2xi32>) -> vector<2xi32>
      %212 = "tensor.extract"(%53, %17) : (tensor<5xi64>, index) -> i64
      %213 = "linalg.copy"(%56, %56) <{operandSegmentSizes = array<i32: 1, 1>}> ({
      ^bb0(%arg1: i16, %arg2: i16):
        "linalg.yield"(%arg1) : (i16) -> ()
      }) : (tensor<?x13xi16>, tensor<?x13xi16>) -> tensor<?x13xi16>
      %214 = "tensor.empty"() : () -> tensor<5xi32>
      %215 = "math.fpowi"(%61, %214) <{fastmath = #arith.fastmath<none>}> : (tensor<5xf16>, tensor<5xi32>) -> tensor<5xf16>
      %216 = "tensor.collapse_shape"(%56) <{reassociation = [[0, 1]]}> : (tensor<?x13xi16>) -> tensor<?xi16>
      "vector.warp_execute_on_lane_0"(%16) <{warp_size = 32 : i64}> ({
        "memref.assume_alignment"(%73) <{alignment = 4 : i32}> : (memref<?xf16>) -> ()
        %218 = "affine.max"(%102, %16) <{map = affine_map<(d0)[s0] -> (32)>}> : (index, index) -> index
        %219 = "arith.minui"(%0, %177) : (i32, i32) -> i32
        %220 = "index.sizeof"() : () -> index
        %221 = "index.divs"(%35, %20) : (index, index) -> index
        "affine.vector_store"(%117, %68, %16, %23) <{map = affine_map<(d0, d1) -> (d0, d1)>}> : (vector<2xi32>, memref<15x13xi32>, index, index) -> ()
        "memref.store"(%4, %77, %17) <{nontemporal = false}> : (i64, memref<5xi64>, index) -> ()
        %222 = "vector.transfer_read"(%72, %32, %36, %13) <{operandSegmentSizes = array<i32: 1, 2, 1, 0>, permutation_map = affine_map<(d0, d1) -> (d1)>}> : (memref<15x13xi16>, index, index, i16) -> vector<13xi16>
        "vector.yield"() : () -> ()
      }) : (index) -> ()
      %217 = "index.shl"(%23, %47) : (index, index) -> index
      "memref.assume_alignment"(%184) <{alignment = 4 : i32}> : (memref<5xf16>) -> ()
      "scf.yield"() : () -> ()
    }) : (index, index, index) -> ()
    "memref.assume_alignment"(%64) <{alignment = 2 : i32}> : (memref<?xi64>) -> ()
    %186 = "index.sub"(%35, %106) : (index, index) -> index
    %187 = "affine.for"(%154) <{lowerBoundMap = affine_map<() -> (0)>, operandSegmentSizes = array<i32: 0, 0, 1>, step = 1 : index, upperBoundMap = affine_map<() -> (4)>}> ({
    ^bb0(%arg0: index, %arg1: i1):
      "affine.yield"(%127) : (i1) -> ()
    }) : (i1) -> i1
    %188 = "spirv.GL.Cos"(%181) : (f16) -> f16
    %189 = "spirv.CL.log"(%80) : (f16) -> f16
    %190 = "index.ceildivs"(%21, %186) : (index, index) -> index
    %191 = "arith.ceildivsi"(%4, %4) : (i64, i64) -> i64
    %192 = "spirv.GL.SMin"(%91, %13) : (i16, i16) -> i16
    %193 = "spirv.UGreaterThan"(%87, %12) : (i32, i32) -> i1
    %194 = "spirv.IEqual"(%177, %87) : (i32, i32) -> i1
    %195 = "tensor.extract"(%56, %16, %19) : (tensor<?x13xi16>, index, index) -> i16
    %196 = "spirv.GL.Ldexp"(%88, %192) : (f32, i16) -> f32
    %197 = "bufferization.clone"(%143) : (memref<5xi32>) -> memref<5xi32>
    %198 = "spirv.GL.Sin"(%5) : (f16) -> f16
    %199 = "math.rsqrt"(%84) <{fastmath = #arith.fastmath<none>}> : (tensor<?x?x?xf16>) -> tensor<?x?x?xf16>
    %200 = "spirv.GL.RoundEven"(%129) : (f32) -> f32
    %201 = "bufferization.clone"(%184) : (memref<5xf16>) -> memref<5xf16>
    %202 = "index.shl"(%22, %106) : (index, index) -> index
    %203 = "memref.alloca"() <{operandSegmentSizes = array<i32: 0, 0>}> : () -> memref<5x5x5xf32>
    "vector.print"(%100) <{punctuation = #vector.punctuation<newline>}> : (vector<5xi16>) -> ()
    "vector.print"(%108) <{punctuation = #vector.punctuation<newline>}> : (vector<5x5x5xi1>) -> ()
    "vector.print"(%117) <{punctuation = #vector.punctuation<newline>}> : (vector<2xi32>) -> ()
    "vector.print"(%123) <{punctuation = #vector.punctuation<newline>}> : (vector<2xi32>) -> ()
    "vector.print"(%146) <{punctuation = #vector.punctuation<newline>}> : (vector<15xi16>) -> ()
    "vector.print"(%166) <{punctuation = #vector.punctuation<newline>}> : (vector<2xi32>) -> ()
    "vector.print"(%171) <{punctuation = #vector.punctuation<newline>}> : (vector<5xi32>) -> ()
    "vector.print"(%179) <{punctuation = #vector.punctuation<newline>}> : (vector<5xi32>) -> ()
    "vector.print"(%183) <{punctuation = #vector.punctuation<newline>}> : (vector<1xi32>) -> ()
    "vector.print"(%0) <{punctuation = #vector.punctuation<newline>}> : (i32) -> ()
    "vector.print"(%1) <{punctuation = #vector.punctuation<newline>}> : (f32) -> ()
    "vector.print"(%2) <{punctuation = #vector.punctuation<newline>}> : (f32) -> ()
    "vector.print"(%3) <{punctuation = #vector.punctuation<newline>}> : (i32) -> ()
    "vector.print"(%4) <{punctuation = #vector.punctuation<newline>}> : (i64) -> ()
    "vector.print"(%5) <{punctuation = #vector.punctuation<newline>}> : (f16) -> ()
    "vector.print"(%6) <{punctuation = #vector.punctuation<newline>}> : (i32) -> ()
    "vector.print"(%7) <{punctuation = #vector.punctuation<newline>}> : (i16) -> ()
    "vector.print"(%8) <{punctuation = #vector.punctuation<newline>}> : (i1) -> ()
    "vector.print"(%9) <{punctuation = #vector.punctuation<newline>}> : (i16) -> ()
    "vector.print"(%10) <{punctuation = #vector.punctuation<newline>}> : (f16) -> ()
    "vector.print"(%11) <{punctuation = #vector.punctuation<newline>}> : (i1) -> ()
    "vector.print"(%12) <{punctuation = #vector.punctuation<newline>}> : (i32) -> ()
    "vector.print"(%13) <{punctuation = #vector.punctuation<newline>}> : (i16) -> ()
    "vector.print"(%14) <{punctuation = #vector.punctuation<newline>}> : (f16) -> ()
    "vector.print"(%15) <{punctuation = #vector.punctuation<newline>}> : (i1) -> ()
    "vector.print"(%80) <{punctuation = #vector.punctuation<newline>}> : (f16) -> ()
    "vector.print"(%81) <{punctuation = #vector.punctuation<newline>}> : (f32) -> ()
    "vector.print"(%82) <{punctuation = #vector.punctuation<newline>}> : (f32) -> ()
    "vector.print"(%83) <{punctuation = #vector.punctuation<newline>}> : (f16) -> ()
    "vector.print"(%87) <{punctuation = #vector.punctuation<newline>}> : (i32) -> ()
    "vector.print"(%88) <{punctuation = #vector.punctuation<newline>}> : (f32) -> ()
    "vector.print"(%90) <{punctuation = #vector.punctuation<newline>}> : (i1) -> ()
    "vector.print"(%91) <{punctuation = #vector.punctuation<newline>}> : (i16) -> ()
    "vector.print"(%94) <{punctuation = #vector.punctuation<newline>}> : (i16) -> ()
    "vector.print"(%95) <{punctuation = #vector.punctuation<newline>}> : (f16) -> ()
    "vector.print"(%97) <{punctuation = #vector.punctuation<newline>}> : (f16) -> ()
    "vector.print"(%101) <{punctuation = #vector.punctuation<newline>}> : (i1) -> ()
    "vector.print"(%104) <{punctuation = #vector.punctuation<newline>}> : (i1) -> ()
    "vector.print"(%107) <{punctuation = #vector.punctuation<newline>}> : (i1) -> ()
    "vector.print"(%109) <{punctuation = #vector.punctuation<newline>}> : (f32) -> ()
    "vector.print"(%110) <{punctuation = #vector.punctuation<newline>}> : (f32) -> ()
    "vector.print"(%111) <{punctuation = #vector.punctuation<newline>}> : (f16) -> ()
    "vector.print"(%113) <{punctuation = #vector.punctuation<newline>}> : (i1) -> ()
    "vector.print"(%114) <{punctuation = #vector.punctuation<newline>}> : (f16) -> ()
    "vector.print"(%127) <{punctuation = #vector.punctuation<newline>}> : (i1) -> ()
    "vector.print"(%129) <{punctuation = #vector.punctuation<newline>}> : (f32) -> ()
    "vector.print"(%130) <{punctuation = #vector.punctuation<newline>}> : (f16) -> ()
    "vector.print"(%133) <{punctuation = #vector.punctuation<newline>}> : (i32) -> ()
    "vector.print"(%140) <{punctuation = #vector.punctuation<newline>}> : (f16) -> ()
    "vector.print"(%141) <{punctuation = #vector.punctuation<newline>}> : (i32) -> ()
    "vector.print"(%144) <{punctuation = #vector.punctuation<newline>}> : (f32) -> ()
    "vector.print"(%145) <{punctuation = #vector.punctuation<newline>}> : (f16) -> ()
    "vector.print"(%147) <{punctuation = #vector.punctuation<newline>}> : (f16) -> ()
    "vector.print"(%148) <{punctuation = #vector.punctuation<newline>}> : (f16) -> ()
    "vector.print"(%154) <{punctuation = #vector.punctuation<newline>}> : (i1) -> ()
    "vector.print"(%155) <{punctuation = #vector.punctuation<newline>}> : (f16) -> ()
    "vector.print"(%157) <{punctuation = #vector.punctuation<newline>}> : (i1) -> ()
    "vector.print"(%159) <{punctuation = #vector.punctuation<newline>}> : (i1) -> ()
    "vector.print"(%162) <{punctuation = #vector.punctuation<newline>}> : (f16) -> ()
    "vector.print"(%163) <{punctuation = #vector.punctuation<newline>}> : (i1) -> ()
    "vector.print"(%165) <{punctuation = #vector.punctuation<newline>}> : (f16) -> ()
    "vector.print"(%168) <{punctuation = #vector.punctuation<newline>}> : (f16) -> ()
    "vector.print"(%170) <{punctuation = #vector.punctuation<newline>}> : (f16) -> ()
    "vector.print"(%172) <{punctuation = #vector.punctuation<newline>}> : (i32) -> ()
    "vector.print"(%173) <{punctuation = #vector.punctuation<newline>}> : (f32) -> ()
    "vector.print"(%174) <{punctuation = #vector.punctuation<newline>}> : (i64) -> ()
    "vector.print"(%175) <{punctuation = #vector.punctuation<newline>}> : (f32) -> ()
    "vector.print"(%176) <{punctuation = #vector.punctuation<newline>}> : (i1) -> ()
    "vector.print"(%177) <{punctuation = #vector.punctuation<newline>}> : (i32) -> ()
    "vector.print"(%178) <{punctuation = #vector.punctuation<newline>}> : (f16) -> ()
    "vector.print"(%181) <{punctuation = #vector.punctuation<newline>}> : (f16) -> ()
    "vector.print"(%188) <{punctuation = #vector.punctuation<newline>}> : (f16) -> ()
    "vector.print"(%189) <{punctuation = #vector.punctuation<newline>}> : (f16) -> ()
    "vector.print"(%192) <{punctuation = #vector.punctuation<newline>}> : (i16) -> ()
    "vector.print"(%193) <{punctuation = #vector.punctuation<newline>}> : (i1) -> ()
    "vector.print"(%194) <{punctuation = #vector.punctuation<newline>}> : (i1) -> ()
    "vector.print"(%195) <{punctuation = #vector.punctuation<newline>}> : (i16) -> ()
    "vector.print"(%196) <{punctuation = #vector.punctuation<newline>}> : (f32) -> ()
    "vector.print"(%198) <{punctuation = #vector.punctuation<newline>}> : (f16) -> ()
    "vector.print"(%200) <{punctuation = #vector.punctuation<newline>}> : (f32) -> ()
    "func.return"(%4) : (i64) -> ()
  }) : () -> ()
}) : () -> ()
