"builtin.module"() ({
  "func.func"() <{function_type = (memref<3x19xi16>) -> (), sym_name = "func1", sym_visibility = "private"}> ({
  ^bb0(%arg0: memref<3x19xi16>):
    %0 = "arith.constant"() <{value = 0x4E58E72D : f32}> : () -> f32
    %1 = "arith.constant"() <{value = 1.16853504E+9 : f32}> : () -> f32
    %2 = "arith.constant"() <{value = 0x4E4668C7 : f32}> : () -> f32
    %3 = "arith.constant"() <{value = 2.07111629E+9 : f32}> : () -> f32
    %4 = "arith.constant"() <{value = 1.49177894E+9 : f32}> : () -> f32
    %5 = "arith.constant"() <{value = 1.61666893E+9 : f32}> : () -> f32
    %6 = "arith.constant"() <{value = 539929680 : i64}> : () -> i64
    %7 = "arith.constant"() <{value = false}> : () -> i1
    %8 = "arith.constant"() <{value = 1345925415 : i64}> : () -> i64
    %9 = "arith.constant"() <{value = -22411 : i16}> : () -> i16
    %10 = "arith.constant"() <{value = 695729244 : i32}> : () -> i32
    %11 = "arith.constant"() <{value = 1.185600e+04 : f16}> : () -> f16
    %12 = "arith.constant"() <{value = true}> : () -> i1
    %13 = "arith.constant"() <{value = 10319 : i16}> : () -> i16
    %14 = "arith.constant"() <{value = 5.856000e+04 : f16}> : () -> f16
    %15 = "arith.constant"() <{value = -30341 : i16}> : () -> i16
    %16 = "arith.constant"() <{value = 0 : index}> : () -> index
    %17 = "arith.constant"() <{value = 1 : index}> : () -> index
    %18 = "arith.constant"() <{value = 2 : index}> : () -> index
    %19 = "arith.constant"() <{value = 3 : index}> : () -> index
    %20 = "arith.constant"() <{value = 4 : index}> : () -> index
    %21 = "arith.constant"() <{value = 5 : index}> : () -> index
    %22 = "arith.constant"() <{value = 6 : index}> : () -> index
    %23 = "arith.constant"() <{value = 7 : index}> : () -> index
    %24 = "arith.constant"() <{value = 8 : index}> : () -> index
    %25 = "arith.constant"() <{value = 9 : index}> : () -> index
    %26 = "arith.constant"() <{value = 10 : index}> : () -> index
    %27 = "arith.constant"() <{value = 11 : index}> : () -> index
    %28 = "arith.constant"() <{value = 12 : index}> : () -> index
    %29 = "arith.constant"() <{value = 13 : index}> : () -> index
    %30 = "arith.constant"() <{value = 14 : index}> : () -> index
    %31 = "arith.constant"() <{value = 15 : index}> : () -> index
    %32 = "arith.constant"() <{value = 16 : index}> : () -> index
    %33 = "arith.constant"() <{value = 17 : index}> : () -> index
    %34 = "arith.constant"() <{value = 18 : index}> : () -> index
    %35 = "arith.constant"() <{value = 19 : index}> : () -> index
    %36 = "arith.constant"() <{value = 20 : index}> : () -> index
    %37 = "arith.constant"() <{value = 21 : index}> : () -> index
    %38 = "arith.constant"() <{value = 22 : index}> : () -> index
    %39 = "arith.constant"() <{value = 23 : index}> : () -> index
    %40 = "arith.constant"() <{value = 24 : index}> : () -> index
    %41 = "arith.constant"() <{value = 25 : index}> : () -> index
    %42 = "arith.constant"() <{value = 26 : index}> : () -> index
    %43 = "arith.constant"() <{value = 27 : index}> : () -> index
    %44 = "arith.constant"() <{value = 28 : index}> : () -> index
    %45 = "arith.constant"() <{value = 29 : index}> : () -> index
    %46 = "arith.constant"() <{value = 30 : index}> : () -> index
    %47 = "arith.constant"() <{value = 31 : index}> : () -> index
    %48 = "tensor.empty"() : () -> tensor<3x19xi32>
    %49 = "tensor.empty"() : () -> tensor<19x3xf16>
    %50 = "tensor.empty"(%28) : (index) -> tensor<?x19xf16>
    %51 = "tensor.empty"() : () -> tensor<3x19xi64>
    %52 = "tensor.empty"(%31) : (index) -> tensor<?x3xf32>
    %53 = "tensor.empty"() : () -> tensor<19x3xf16>
    %54 = "tensor.empty"() : () -> tensor<19x8x23xf16>
    %55 = "tensor.empty"() : () -> tensor<19x8x23xi1>
    %56 = "tensor.empty"(%22) : (index) -> tensor<?x19xf32>
    %57 = "tensor.empty"() : () -> tensor<19x8xi64>
    %58 = "tensor.empty"() : () -> tensor<3x19xi1>
    %59 = "tensor.empty"(%32, %16) : (index, index) -> tensor<?x?xi64>
    %60 = "tensor.empty"(%28) : (index) -> tensor<?x8xi1>
    %61 = "tensor.empty"(%17) : (index) -> tensor<?x8x23xf16>
    %62 = "tensor.empty"() : () -> tensor<19x8xf16>
    %63 = "tensor.empty"() : () -> tensor<19x8xf32>
    %64 = "memref.alloc"(%42) <{operandSegmentSizes = array<i32: 1, 0>}> : (index) -> memref<?x3xf32>
    %65 = "memref.alloc"(%41, %29) <{operandSegmentSizes = array<i32: 2, 0>}> : (index, index) -> memref<?x?xf16>
    %66 = "memref.alloc"() <{operandSegmentSizes = array<i32: 0, 0>}> : () -> memref<3x19xi16>
    %67 = "memref.alloc"(%33) <{operandSegmentSizes = array<i32: 1, 0>}> : (index) -> memref<?x8xi64>
    %68 = "memref.alloc"(%29, %42) <{operandSegmentSizes = array<i32: 2, 0>}> : (index, index) -> memref<?x?x23xi1>
    %69 = "memref.alloc"() <{operandSegmentSizes = array<i32: 0, 0>}> : () -> memref<3x19xf32>
    %70 = "memref.alloc"() <{operandSegmentSizes = array<i32: 0, 0>}> : () -> memref<3x19xi1>
    %71 = "memref.alloc"(%21) <{operandSegmentSizes = array<i32: 1, 0>}> : (index) -> memref<?x8x23xi64>
    %72 = "memref.alloc"(%41) <{operandSegmentSizes = array<i32: 1, 0>}> : (index) -> memref<?x19xf16>
    %73 = "memref.alloc"() <{operandSegmentSizes = array<i32: 0, 0>}> : () -> memref<19x8x23xi64>
    %74 = "memref.alloc"() <{operandSegmentSizes = array<i32: 0, 0>}> : () -> memref<19x8x23xi32>
    %75 = "memref.alloc"() <{operandSegmentSizes = array<i32: 0, 0>}> : () -> memref<19x8x23xi1>
    %76 = "memref.alloc"() <{operandSegmentSizes = array<i32: 0, 0>}> : () -> memref<19x8x23xi16>
    %77 = "memref.alloc"() <{operandSegmentSizes = array<i32: 0, 0>}> : () -> memref<19x8xi32>
    %78 = "memref.alloc"() <{operandSegmentSizes = array<i32: 0, 0>}> : () -> memref<19x8xf16>
    %79 = "memref.alloc"() <{operandSegmentSizes = array<i32: 0, 0>}> : () -> memref<19x8x23xf16>
    %80 = "math.tanh"(%54) <{fastmath = #arith.fastmath<none>}> : (tensor<19x8x23xf16>) -> tensor<19x8x23xf16>
    %81 = "memref.alloc"(%25) <{operandSegmentSizes = array<i32: 1, 0>}> : (index) -> memref<?x8x23xf16>
    "memref.tensor_store"(%61, %81) : (tensor<?x8x23xf16>, memref<?x8x23xf16>) -> ()
    %82 = "spirv.IEqual"(%15, %15) : (i16, i16) -> i1
    %83 = "affine.max"(%17, %44, %33, %43) <{map = affine_map<(d0, d1, d2)[s0] -> (-d0)>}> : (index, index, index, index) -> index
    %84 = "math.tanh"(%11) <{fastmath = #arith.fastmath<none>}> : (f16) -> f16
    %85 = "arith.divf"(%0, %4) <{fastmath = #arith.fastmath<none>}> : (f32, f32) -> f32
    %86 = "index.maxu"(%46, %24) : (index, index) -> index
    %87 = "math.fma"(%4, %2, %2) <{fastmath = #arith.fastmath<none>}> : (f32, f32, f32) -> f32
    %88 = "spirv.Not"(%15) : (i16) -> i16
    %89 = "spirv.IEqual"(%15, %9) : (i16, i16) -> i1
    %90 = "spirv.CL.cos"(%3) : (f32) -> f32
    %91 = "index.sizeof"() : () -> index
    %92 = "spirv.CL.s_abs"(%13) : (i16) -> i16
    %93 = "vector.transfer_read"(%51, %32, %32, %6) <{operandSegmentSizes = array<i32: 1, 2, 1, 0>, permutation_map = affine_map<(d0, d1) -> ()>}> : (tensor<3x19xi64>, index, index, i64) -> vector<i64>
    %94 = "spirv.BitCount"(%10) : (i32) -> i32
    %95 = "spirv.SLessThan"(%10, %10) : (i32, i32) -> i1
    %96 = "tensor.empty"() : () -> tensor<19x3xf32>
    %97 = "linalg.transpose"(%69, %96) <{permutation = array<i64: 1, 0>}> ({
    ^bb0(%arg1: f32, %arg2: f32):
      "linalg.yield"(%arg1) : (f32) -> ()
    }) : (memref<3x19xf32>, tensor<19x3xf32>) -> tensor<19x3xf32>
    %98 = "math.roundeven"(%61) <{fastmath = #arith.fastmath<none>}> : (tensor<?x8x23xf16>) -> tensor<?x8x23xf16>
    %99 = "math.log10"(%52) <{fastmath = #arith.fastmath<none>}> : (tensor<?x3xf32>) -> tensor<?x3xf32>
    %100 = "math.fpowi"(%2, %94) <{fastmath = #arith.fastmath<none>}> : (f32, i32) -> f32
    %101 = "spirv.SLessThan"(%8, %6) : (i64, i64) -> i1
    %102 = "bufferization.to_memref"(%49) : (tensor<19x3xf16>) -> memref<19x3xf16>
    %103 = "spirv.GL.UMax"(%9, %88) : (i16, i16) -> i16
    %104 = "vector.broadcast"(%4) : (f32) -> vector<f32>
    %105 = "vector.insertelement"(%4, %104) : (f32, vector<f32>) -> vector<f32>
    %106 = "index.shru"(%23, %30) : (index, index) -> index
    %107 = "spirv.GL.RoundEven"(%11) : (f16) -> f16
    %108 = "vector.broadcast"(%10) : (i32) -> vector<2xi32>
    %109 = "spirv.BitFieldSExtract"(%108, %15, %88) : (vector<2xi32>, i16, i16) -> vector<2xi32>
    %110 = "math.exp"(%90) <{fastmath = #arith.fastmath<none>}> : (f32) -> f32
    %111 = "vector.broadcast"(%14) : (f16) -> vector<19xf16>
    %112 = "vector.broadcast"(%12) : (i1) -> vector<19xi1>
    "vector.compressstore"(%78, %31, %21, %112, %111) : (memref<19x8xf16>, index, index, vector<19xi1>, vector<19xf16>) -> ()
    %113 = "spirv.CL.sqrt"(%14) : (f16) -> f16
    %114 = "vector.contract"(%108, %108, %94) <{indexing_maps = [affine_map<(d0) -> (d0)>, affine_map<(d0) -> (d0)>, affine_map<(d0) -> ()>], iterator_types = [#vector.iterator_type<reduction>], kind = #vector.kind<xor>}> : (vector<2xi32>, vector<2xi32>, i32) -> i32
    %115 = "math.rsqrt"(%5) <{fastmath = #arith.fastmath<none>}> : (f32) -> f32
    %116 = "spirv.CL.round"(%2) : (f32) -> f32
    %117 = "spirv.LogicalNot"(%82) : (i1) -> i1
    %118 = "tensor.rank"(%49) : (tensor<19x3xf16>) -> index
    %119 = "index.and"(%44, %38) : (index, index) -> index
    %120 = "index.sizeof"() : () -> index
    %121 = "tensor.empty"(%35) : (index) -> tensor<?x8x23xf16>
    %122 = "linalg.map"(%61, %61, %121) ({
    ^bb0(%arg1: f16, %arg2: f16):
      %219 = "index.ceildivs"(%34, %43) : (index, index) -> index
      %220 = "affine.parallel"() <{lowerBoundsGroups = dense<1> : tensor<3xi32>, lowerBoundsMap = affine_map<() -> (0, 0, 0)>, reductions = [12], steps = [1, 1, 1], upperBoundsGroups = dense<1> : tensor<3xi32>, upperBoundsMap = affine_map<() -> (3, 19, 19)>}> ({
      ^bb0(%arg3: index, %arg4: index, %arg5: index):
        %259 = "math.rsqrt"(%116) <{fastmath = #arith.fastmath<none>}> : (f32) -> f32
        "affine.yield"(%10) : (i32) -> ()
      }) : () -> memref<3x19x19xi32>
      %221 = "vector.broadcast"(%0) : (f32) -> vector<19x3xf32>
      %222 = "vector.fma"(%221, %221, %221) : (vector<19x3xf32>, vector<19x3xf32>, vector<19x3xf32>) -> vector<19x3xf32>
      "memref.copy"(%64, %64) : (memref<?x3xf32>, memref<?x3xf32>) -> ()
      %223 = "tensor.insert"(%107, %61, %16, %16, %23) : (f16, tensor<?x8x23xf16>, index, index, index) -> tensor<?x8x23xf16>
      %224 = "vector.broadcast"(%6) : (i64) -> vector<19xi64>
      %225 = "vector.transfer_write"(%224, %51, %39, %37) <{operandSegmentSizes = array<i32: 1, 1, 2, 0>, permutation_map = affine_map<(d0, d1) -> (d0)>}> : (vector<19xi64>, tensor<3x19xi64>, index, index) -> tensor<3x19xi64>
      %226 = "math.sqrt"(%113) <{fastmath = #arith.fastmath<none>}> : (f16) -> f16
      %227 = "index.sizeof"() : () -> index
      %228 = "vector.broadcast"(%113) : (f16) -> vector<19x8xf16>
      %229 = "vector.transfer_write"(%228, %54, %44, %91, %91) <{operandSegmentSizes = array<i32: 1, 1, 3, 0>, permutation_map = affine_map<(d0, d1, d2) -> (d0, d1)>}> : (vector<19x8xf16>, tensor<19x8x23xf16>, index, index, index) -> tensor<19x8x23xf16>
      %230 = "vector.broadcast"(%2) : (f32) -> vector<19xf32>
      %231:2 = "vector.scan"(%221, %230) <{inclusive = true, kind = #vector.kind<mul>, reduction_dim = 1 : i64}> : (vector<19x3xf32>, vector<19xf32>) -> (vector<19x3xf32>, vector<19xf32>)
      %232 = "arith.addi"(%101, %12) : (i1, i1) -> i1
      %233 = "vector.broadcast"(%119) : (index) -> vector<8xindex>
      %234 = "vector.broadcast"(%82) : (i1) -> vector<8xi1>
      %235 = "vector.broadcast"(%88) : (i16) -> vector<8xi16>
      "vector.scatter"(%76, %28, %18, %38, %233, %234, %235) : (memref<19x8x23xi16>, index, index, index, vector<8xindex>, vector<8xi1>, vector<8xi16>) -> ()
      %236 = "math.floor"(%arg2) <{fastmath = #arith.fastmath<none>}> : (f16) -> f16
      %237 = "math.sqrt"(%96) <{fastmath = #arith.fastmath<none>}> : (tensor<19x3xf32>) -> tensor<19x3xf32>
      %238 = "vector.reduction"(%108) <{fastmath = #arith.fastmath<none>, kind = #vector.kind<maxui>}> : (vector<2xi32>) -> i32
      %239 = "vector.broadcast"(%11) : (f16) -> vector<19xf16>
      %240 = "vector.transfer_write"(%239, %54, %35, %24, %16) <{operandSegmentSizes = array<i32: 1, 1, 3, 0>, permutation_map = affine_map<(d0, d1, d2) -> (d0)>}> : (vector<19xf16>, tensor<19x8x23xf16>, index, index, index) -> tensor<19x8x23xf16>
      %241 = "arith.negf"(%3) <{fastmath = #arith.fastmath<none>}> : (f32) -> f32
      %242 = "vector.broadcast"(%4) : (f32) -> vector<19x8x23xf32>
      %243 = "vector.fma"(%242, %242, %242) : (vector<19x8x23xf32>, vector<19x8x23xf32>, vector<19x8x23xf32>) -> vector<19x8x23xf32>
      %244 = "vector.extract"(%239) <{static_position = array<i64: 14>}> : (vector<19xf16>) -> f16
      %245 = "scf.if"(%12) ({
        %259 = "math.roundeven"(%11) <{fastmath = #arith.fastmath<none>}> : (f16) -> f16
        %260 = "math.copysign"(%113, %107) <{fastmath = #arith.fastmath<none>}> : (f16, f16) -> f16
        %261 = "vector.reduction"(%108) <{fastmath = #arith.fastmath<none>, kind = #vector.kind<xor>}> : (vector<2xi32>) -> i32
        %262 = "affine.min"(%29, %38, %27) <{map = affine_map<(d0, d1, d2) -> (d0)>}> : (index, index, index) -> index
        %263 = "index.shru"(%22, %44) : (index, index) -> index
        %264 = "vector.load"(%67, %16, %22) : (memref<?x8xi64>, index, index) -> vector<19x3xi64>
        %265 = "index.casts"(%92) : (i16) -> index
        %266 = "index.maxu"(%119, %31) : (index, index) -> index
        "scf.yield"(%77) : (memref<19x8xi32>) -> ()
      }, {
        %259 = "math.rsqrt"(%113) <{fastmath = #arith.fastmath<none>}> : (f16) -> f16
        %260 = "index.casts"(%25) : (index) -> i32
        %261 = "affine.min"(%32, %39, %24) <{map = affine_map<(d0, d1, d2) -> (d0)>}> : (index, index, index) -> index
        %262 = "arith.addf"(%116, %2) <{fastmath = #arith.fastmath<none>}> : (f32, f32) -> f32
        %263 = "math.round"(%3) <{fastmath = #arith.fastmath<none>}> : (f32) -> f32
        %264 = "vector.splat"(%86) : (index) -> vector<19x8xindex>
        %265 = "math.round"(%90) <{fastmath = #arith.fastmath<none>}> : (f32) -> f32
        %266 = "arith.remf"(%90, %0) <{fastmath = #arith.fastmath<none>}> : (f32, f32) -> f32
        "scf.yield"(%77) : (memref<19x8xi32>) -> ()
      }) : (i1) -> memref<19x8xi32>
      %246 = "vector.create_mask"(%24, %32) : (index, index) -> vector<19x3xi1>
      %247 = "scf.while"(%63) ({
      ^bb0(%arg3: tensor<19x8xf32>):
        %259 = "arith.divf"(%90, %5) <{fastmath = #arith.fastmath<none>}> : (f32, f32) -> f32
        %260 = "tensor.collapse_shape"(%51) <{reassociation = [[0, 1]]}> : (tensor<3x19xi64>) -> tensor<57xi64>
        %261 = "math.round"(%14) <{fastmath = #arith.fastmath<none>}> : (f16) -> f16
        %262 = "vector.reduction"(%108) <{fastmath = #arith.fastmath<none>, kind = #vector.kind<minsi>}> : (vector<2xi32>) -> i32
        %263 = "bufferization.clone"(%78) : (memref<19x8xf16>) -> memref<19x8xf16>
        %264 = "index.add"(%34, %41) : (index, index) -> index
        %265 = "math.tanh"(%56) <{fastmath = #arith.fastmath<none>}> : (tensor<?x19xf32>) -> tensor<?x19xf32>
        %266 = "vector.broadcast"(%12) : (i1) -> vector<2xi1>
        "vector.compressstore"(%77, %34, %20, %266, %108) : (memref<19x8xi32>, index, index, vector<2xi1>, vector<2xi32>) -> ()
        "scf.condition"(%117, %63) : (i1, tensor<19x8xf32>) -> ()
      }, {
      ^bb0(%arg3: tensor<19x8xf32>):
        %259 = "memref.alloc"(%91) <{operandSegmentSizes = array<i32: 1, 0>}> : (index) -> memref<?x8xf32>
        %260 = "vector.flat_transpose"(%239) <{columns = 19 : i32, rows = 1 : i32}> : (vector<19xf16>) -> vector<19xf16>
        %261 = "vector.broadcast"(%90) : (f32) -> vector<3xf32>
        %262 = "vector.multi_reduction"(%222, %261) <{kind = #vector.kind<maxf>, reduction_dims = [0]}> : (vector<19x3xf32>, vector<3xf32>) -> vector<3xf32>
        %263 = "index.xor"(%22, %46) : (index, index) -> index
        %264 = "arith.divf"(%2, %3) <{fastmath = #arith.fastmath<none>}> : (f32, f32) -> f32
        %265 = "arith.negf"(%5) <{fastmath = #arith.fastmath<none>}> : (f32) -> f32
        %266 = "bufferization.to_memref"(%51) : (tensor<3x19xi64>) -> memref<3x19xi64>
        %267 = "math.log"(%50) <{fastmath = #arith.fastmath<none>}> : (tensor<?x19xf16>) -> tensor<?x19xf16>
        %268 = "math.log2"(%arg3) <{fastmath = #arith.fastmath<none>}> : (tensor<19x8xf32>) -> tensor<19x8xf32>
        %269 = "vector.flat_transpose"(%239) <{columns = 19 : i32, rows = 1 : i32}> : (vector<19xf16>) -> vector<19xf16>
        %270 = "index.shrs"(%32, %17) : (index, index) -> index
        %271 = "index.sizeof"() : () -> index
        %272 = "affine.min"(%20, %263, %37, %26) <{map = affine_map<(d0, d1, d2)[s0] -> (-d0)>}> : (index, index, index, index) -> index
        "memref.store"(%8, %73, %25, %20, %24) <{nontemporal = false}> : (i64, memref<19x8x23xi64>, index, index, index) -> ()
        %273 = "math.fma"(%3, %2, %1) <{fastmath = #arith.fastmath<none>}> : (f32, f32, f32) -> f32
        %274 = "memref.alloc"() <{operandSegmentSizes = array<i32: 0, 0>}> : () -> memref<8xi16>
        %275 = "memref.realloc"(%274) : (memref<8xi16>) -> memref<19xi16>
        "scf.yield"(%63) : (tensor<19x8xf32>) -> ()
      }) : (tensor<19x8xf32>) -> tensor<19x8xf32>
      %248 = "index.maxs"(%22, %227) : (index, index) -> index
      %249 = "vector.load"(%71, %16, %22, %16) : (memref<?x8x23xi64>, index, index, index) -> vector<19x8x23xi64>
      %250 = "arith.remui"(%89, %7) : (i1, i1) -> i1
      %251 = "arith.addf"(%0, %4) <{fastmath = #arith.fastmath<none>}> : (f32, f32) -> f32
      %252 = "vector.broadcast"(%7) : (i1) -> vector<3x19xi1>
      %253 = "affine.load"(%77, %32, %22) <{map = affine_map<(d0, d1) -> (d0, d1)>}> : (memref<19x8xi32>, index, index) -> i32
      %254 = "tensor.rank"(%57) : (tensor<19x8xi64>) -> index
      %255 = "tensor.empty"(%45, %36) : (index, index) -> tensor<?x?x23xi1>
      %256 = "linalg.map"(%68, %255) ({
      ^bb0(%arg3: i1):
        %259 = "vector.matrix_multiply"(%239, %239) <{lhs_columns = 19 : i32, lhs_rows = 1 : i32, rhs_columns = 1 : i32}> : (vector<19xf16>, vector<19xf16>) -> vector<1xf16>
        %260 = "vector.broadcast"(%4) : (f32) -> vector<19xf32>
        %261:2 = "vector.scan"(%221, %260) <{inclusive = false, kind = #vector.kind<minf>, reduction_dim = 1 : i64}> : (vector<19x3xf32>, vector<19xf32>) -> (vector<19x3xf32>, vector<19xf32>)
        %262 = "tensor.collapse_shape"(%59) <{reassociation = [[0, 1]]}> : (tensor<?x?xi64>) -> tensor<?xi64>
        %263 = "index.shl"(%32, %24) : (index, index) -> index
        %264 = "vector.broadcast"(%12) : (i1) -> vector<3x3xi1>
        %265 = "vector.contract"(%246, %252, %264) <{indexing_maps = [affine_map<(d0, d1, d2) -> (d2, d0)>, affine_map<(d0, d1, d2) -> (d1, d2)>, affine_map<(d0, d1, d2) -> (d0, d1)>], iterator_types = [#vector.iterator_type<parallel>, #vector.iterator_type<parallel>, #vector.iterator_type<reduction>], kind = #vector.kind<add>}> : (vector<19x3xi1>, vector<3x19xi1>, vector<3x3xi1>) -> vector<3x3xi1>
        %266 = "tensor.collapse_shape"(%54) <{reassociation = [[0, 1], [2]]}> : (tensor<19x8x23xf16>) -> tensor<152x23xf16>
        %267 = "index.xor"(%18, %37) : (index, index) -> index
        %268 = "tensor.cast"(%121) : (tensor<?x8x23xf16>) -> tensor<3x8x23xf16>
        %269 = "vector.bitcast"(%222) : (vector<19x3xf32>) -> vector<19x3xi32>
        %270 = "math.cttz"(%57) : (tensor<19x8xi64>) -> tensor<19x8xi64>
        %271 = "index.casts"(%9) : (i16) -> index
        %272 = "index.shru"(%40, %248) : (index, index) -> index
        %273 = "arith.addf"(%3, %90) <{fastmath = #arith.fastmath<none>}> : (f32, f32) -> f32
        %274 = "vector.broadcast"(%103) : (i16) -> vector<3xi16>
        %275 = "vector.broadcast"(%7) : (i1) -> vector<3xi1>
        "vector.compressstore"(%76, %17, %22, %20, %275, %274) : (memref<19x8x23xi16>, index, index, index, vector<3xi1>, vector<3xi16>) -> ()
        %276 = "arith.minui"(%15, %15) : (i16, i16) -> i16
        %277 = "arith.remui"(%88, %88) : (i16, i16) -> i16
        %278 = "bufferization.clone"(%75) : (memref<19x8x23xi1>) -> memref<19x8x23xi1>
        %279 = "math.tanh"(%50) <{fastmath = #arith.fastmath<none>}> : (tensor<?x19xf16>) -> tensor<?x19xf16>
        %280 = "index.sizeof"() : () -> index
        %281 = "arith.cmpi"(%10, %253) <{predicate = 1 : i64}> : (i32, i32) -> i1
        %282 = "tensor.dim"(%49, %16) : (tensor<19x3xf16>, index) -> index
        "memref.store"(%arg2, %79, %26, %18, %24) <{nontemporal = false}> : (f16, memref<19x8x23xf16>, index, index, index) -> ()
        %283 = "tensor.dim"(%53, %17) : (tensor<19x3xf16>, index) -> index
        %284 = "affine.load"(%245, %19, %42) <{map = affine_map<(d0, d1) -> (d0, d1)>}> : (memref<19x8xi32>, index, index) -> i32
        %285 = "index.maxs"(%219, %271) : (index, index) -> index
        %286 = "vector.flat_transpose"(%224) <{columns = 19 : i32, rows = 1 : i32}> : (vector<19xi64>) -> vector<19xi64>
        %287 = "index.floordivs"(%285, %32) : (index, index) -> index
        "memref.tensor_store"(%50, %72) : (tensor<?x19xf16>, memref<?x19xf16>) -> ()
        %288 = "tensor.rank"(%97) : (tensor<19x3xf32>) -> index
        %289 = "math.log1p"(%arg2) <{fastmath = #arith.fastmath<none>}> : (f16) -> f16
        %290 = "vector.reduction"(%286) <{fastmath = #arith.fastmath<none>, kind = #vector.kind<minsi>}> : (vector<19xi64>) -> i64
        %291 = "math.tanh"(%50) <{fastmath = #arith.fastmath<none>}> : (tensor<?x19xf16>) -> tensor<?x19xf16>
        "linalg.yield"(%arg3) : (i1) -> ()
      }) : (memref<?x?x23xi1>, tensor<?x?x23xi1>) -> tensor<?x?x23xi1>
      %257 = "math.log1p"(%53) <{fastmath = #arith.fastmath<none>}> : (tensor<19x3xf16>) -> tensor<19x3xf16>
      %258 = "bufferization.clone"(%220) : (memref<3x19x19xi32>) -> memref<3x19x19xi32>
      "linalg.yield"(%107) : (f16) -> ()
    }) : (tensor<?x8x23xf16>, tensor<?x8x23xf16>, tensor<?x8x23xf16>) -> tensor<?x8x23xf16>
    %123 = "tensor.from_elements"(%94, %10, %10, %94, %10, %94, %10, %10, %94, %94, %94, %94, %94, %94, %94, %10, %10, %94, %94, %94, %94, %10, %10, %94, %94, %10, %10, %10, %94, %94, %10, %10, %10, %10, %94, %10, %94, %94, %10, %94, %10, %10, %10, %94, %94, %94, %10, %94, %10, %94, %10, %10, %10, %10, %10, %10, %10) : (i32, i32, i32, i32, i32, i32, i32, i32, i32, i32, i32, i32, i32, i32, i32, i32, i32, i32, i32, i32, i32, i32, i32, i32, i32, i32, i32, i32, i32, i32, i32, i32, i32, i32, i32, i32, i32, i32, i32, i32, i32, i32, i32, i32, i32, i32, i32, i32, i32, i32, i32, i32, i32, i32, i32, i32, i32) -> tensor<19x3xi32>
    %124 = "spirv.GL.Fma"(%113, %11, %113) : (f16, f16, f16) -> f16
    %125 = "arith.addf"(%113, %11) <{fastmath = #arith.fastmath<none>}> : (f16, f16) -> f16
    %126 = "arith.shrui"(%8, %8) : (i64, i64) -> i64
    %127 = "spirv.UGreaterThanEqual"(%108, %108) : (vector<2xi32>, vector<2xi32>) -> vector<2xi1>
    %128 = "spirv.Not"(%15) : (i16) -> i16
    %129 = "spirv.CL.sqrt"(%14) : (f16) -> f16
    %130 = "spirv.FOrdLessThanEqual"(%4, %2) : (f32, f32) -> i1
    %131 = "index.shl"(%20, %29) : (index, index) -> index
    %132 = "memref.atomic_rmw"(%8, %73, %22, %16, %24) <{kind = 10 : i64}> : (i64, memref<19x8x23xi64>, index, index, index) -> i64
    %133 = "vector.broadcast"(%116) : (f32) -> vector<19x3xf32>
    %134 = "vector.fma"(%133, %133, %133) : (vector<19x3xf32>, vector<19x3xf32>, vector<19x3xf32>) -> vector<19x3xf32>
    %135 = "arith.floordivsi"(%8, %8) : (i64, i64) -> i64
    %136 = "math.tanh"(%53) <{fastmath = #arith.fastmath<none>}> : (tensor<19x3xf16>) -> tensor<19x3xf16>
    %137 = "spirv.IsNan"(%107) : (f16) -> i1
    %138 = "tensor.generate"(%19, %41) ({
    ^bb0(%arg1: index, %arg2: index):
      %219 = "vector.broadcast"(%0) : (f32) -> vector<3x19xf32>
      %220 = "vector.fma"(%219, %219, %219) : (vector<3x19xf32>, vector<3x19xf32>, vector<3x19xf32>) -> vector<3x19xf32>
      "scf.index_switch"(%34) <{cases = array<i64: 1, 2, 3>}> ({
        %223 = "arith.remui"(%9, %9) : (i16, i16) -> i16
        %224 = "index.add"(%37, %119) : (index, index) -> index
        %225 = "math.tanh"(%3) <{fastmath = #arith.fastmath<none>}> : (f32) -> f32
        %226 = "math.fma"(%54, %54, %54) <{fastmath = #arith.fastmath<none>}> : (tensor<19x8x23xf16>, tensor<19x8x23xf16>, tensor<19x8x23xf16>) -> tensor<19x8x23xf16>
        %227 = "math.tanh"(%4) <{fastmath = #arith.fastmath<none>}> : (f32) -> f32
        %228 = "math.round"(%116) <{fastmath = #arith.fastmath<none>}> : (f32) -> f32
        %229 = "math.log"(%49) <{fastmath = #arith.fastmath<none>}> : (tensor<19x3xf16>) -> tensor<19x3xf16>
        %230 = "vector.broadcast"(%9) : (i16) -> vector<8xi16>
        "vector.transfer_write"(%230, %76, %21, %39, %27) <{operandSegmentSizes = array<i32: 1, 1, 3, 0>, permutation_map = affine_map<(d0, d1, d2) -> (d0)>}> : (vector<8xi16>, memref<19x8x23xi16>, index, index, index) -> ()
        %231 = "tensor.from_elements"(%92, %15, %103, %88, %128, %13, %9, %88, %103, %128, %13, %103, %128, %88, %9, %13, %103, %103, %15, %15, %15, %103, %13, %103, %92, %128, %103, %128, %88, %15, %9, %13, %9, %13, %9, %13, %103, %88, %15, %92, %128, %88, %92, %13, %128, %103, %103, %9, %92, %15, %9, %13, %13, %13, %15, %13, %15) : (i16, i16, i16, i16, i16, i16, i16, i16, i16, i16, i16, i16, i16, i16, i16, i16, i16, i16, i16, i16, i16, i16, i16, i16, i16, i16, i16, i16, i16, i16, i16, i16, i16, i16, i16, i16, i16, i16, i16, i16, i16, i16, i16, i16, i16, i16, i16, i16, i16, i16, i16, i16, i16, i16, i16, i16, i16) -> tensor<19x3xi16>
        %232 = "math.rsqrt"(%52) <{fastmath = #arith.fastmath<none>}> : (tensor<?x3xf32>) -> tensor<?x3xf32>
        %233 = "math.floor"(%107) <{fastmath = #arith.fastmath<none>}> : (f16) -> f16
        "memref.copy"(%72, %72) : (memref<?x19xf16>, memref<?x19xf16>) -> ()
        %234 = "vector.broadcast"(%12) : (i1) -> vector<8xi1>
        "vector.compressstore"(%76, %31, %23, %36, %234, %230) : (memref<19x8x23xi16>, index, index, index, vector<8xi1>, vector<8xi16>) -> ()
        %235 = "affine.max"(%42, %47, %34, %46) <{map = affine_map<(d0, d1, d2, d3) -> (d2 mod 64)>}> : (index, index, index, index) -> index
        %236 = "math.ctlz"(%60) : (tensor<?x8xi1>) -> tensor<?x8xi1>
        %237 = "index.add"(%45, %43) : (index, index) -> index
        "scf.yield"() : () -> ()
      }, {
        %223 = "arith.mulf"(%90, %0) <{fastmath = #arith.fastmath<none>}> : (f32, f32) -> f32
        %224 = "tensor.empty"(%42) : (index) -> tensor<?x8x3xi1>
        %225 = "linalg.broadcast"(%60, %224) <{dimensions = array<i64: 2>}> ({
        ^bb0(%arg3: i1, %arg4: i1):
          "linalg.yield"(%arg3) : (i1) -> ()
        }) : (tensor<?x8xi1>, tensor<?x8x3xi1>) -> tensor<?x8x3xi1>
        %226 = "math.atan"(%0) <{fastmath = #arith.fastmath<none>}> : (f32) -> f32
        %227 = "math.fpowi"(%96, %123) <{fastmath = #arith.fastmath<none>}> : (tensor<19x3xf32>, tensor<19x3xi32>) -> tensor<19x3xf32>
        %228 = "memref.alloc"(%83, %41) <{operandSegmentSizes = array<i32: 2, 0>}> : (index, index) -> memref<?x?x23xf16>
        "linalg.broadcast"(%65, %228) <{dimensions = array<i64: 2>}> ({
        ^bb0(%arg3: f16, %arg4: f16):
          "linalg.yield"(%arg3) : (f16) -> ()
        }) : (memref<?x?xf16>, memref<?x?x23xf16>) -> ()
        %229 = "tensor.rank"(%58) : (tensor<3x19xi1>) -> index
        %230 = "math.log"(%53) <{fastmath = #arith.fastmath<none>}> : (tensor<19x3xf16>) -> tensor<19x3xf16>
        %231 = "math.log10"(%56) <{fastmath = #arith.fastmath<none>}> : (tensor<?x19xf32>) -> tensor<?x19xf32>
        %232 = "arith.addi"(%92, %103) : (i16, i16) -> i16
        %233 = "arith.andi"(%9, %88) : (i16, i16) -> i16
        %234 = "affine.vector_load"(%66, %20, %33) <{map = affine_map<(d0, d1) -> (d0, d1)>}> : (memref<3x19xi16>, index, index) -> vector<3xi16>
        %235 = "arith.remf"(%5, %4) <{fastmath = #arith.fastmath<none>}> : (f32, f32) -> f32
        %236 = "index.shru"(%43, %45) : (index, index) -> index
        %237 = "index.shru"(%120, %229) : (index, index) -> index
        %238 = "memref.alloc"() <{operandSegmentSizes = array<i32: 0, 0>}> : () -> memref<3x19x19xi32>
        "linalg.broadcast"(%48, %238) <{dimensions = array<i64: 2>}> ({
        ^bb0(%arg3: i32, %arg4: i32):
          "linalg.yield"(%arg3) : (i32) -> ()
        }) : (tensor<3x19xi32>, memref<3x19x19xi32>) -> ()
        %239 = "vector.broadcast"(%39) : (index) -> vector<19xindex>
        %240 = "vector.broadcast"(%82) : (i1) -> vector<19xi1>
        %241 = "vector.broadcast"(%113) : (f16) -> vector<19xf16>
        "vector.scatter"(%65, %16, %16, %239, %240, %241) : (memref<?x?xf16>, index, index, vector<19xindex>, vector<19xi1>, vector<19xf16>) -> ()
        "scf.yield"() : () -> ()
      }, {
        %223 = "math.exp"(%61) <{fastmath = #arith.fastmath<none>}> : (tensor<?x8x23xf16>) -> tensor<?x8x23xf16>
        %224 = "index.xor"(%32, %26) : (index, index) -> index
        %225 = "index.and"(%83, %86) : (index, index) -> index
        %226 = "vector.broadcast"(%0) : (f32) -> vector<3x3xf32>
        %227 = "vector.contract"(%134, %134, %226) <{indexing_maps = [affine_map<(d0, d1, d2) -> (d2, d0)>, affine_map<(d0, d1, d2) -> (d2, d1)>, affine_map<(d0, d1, d2) -> (d0, d1)>], iterator_types = [#vector.iterator_type<parallel>, #vector.iterator_type<parallel>, #vector.iterator_type<reduction>], kind = #vector.kind<add>}> : (vector<19x3xf32>, vector<19x3xf32>, vector<3x3xf32>) -> vector<3x3xf32>
        %228 = "tensor.extract"(%49, %32, %16) : (tensor<19x3xf16>, index, index) -> f16
        %229 = "arith.negf"(%11) <{fastmath = #arith.fastmath<none>}> : (f16) -> f16
        %230 = "index.sub"(%44, %24) : (index, index) -> index
        %231 = "arith.shrui"(%8, %6) : (i64, i64) -> i64
        %232 = "arith.constant"() <{value = 923833511 : i64}> : () -> i64
        %233 = "math.absi"(%51) : (tensor<3x19xi64>) -> tensor<3x19xi64>
        %234 = "arith.remf"(%3, %2) <{fastmath = #arith.fastmath<none>}> : (f32, f32) -> f32
        %235 = "memref.alloca"() <{operandSegmentSizes = array<i32: 0, 0>}> : () -> memref<19x3xf32>
        "affine.vector_store"(%108, %77, %91, %32) <{map = affine_map<(d0, d1) -> (d0, d1)>}> : (vector<2xi32>, memref<19x8xi32>, index, index) -> ()
        %236 = "vector.broadcast"(%94) : (i32) -> vector<2x2xi32>
        %237 = "vector.outerproduct"(%108, %108, %236) <{kind = #vector.kind<or>}> : (vector<2xi32>, vector<2xi32>, vector<2x2xi32>) -> vector<2x2xi32>
        %238 = "vector.create_mask"(%119, %18) : (index, index) -> vector<19x8xi1>
        %239 = "vector.flat_transpose"(%108) <{columns = 1 : i32, rows = 2 : i32}> : (vector<2xi32>) -> vector<2xi32>
        "scf.yield"() : () -> ()
      }, {
        %223 = "linalg.matmul"(%52, %69, %56) <{operandSegmentSizes = array<i32: 2, 1>}> ({
        ^bb0(%arg3: f32, %arg4: f32, %arg5: f32):
          %242 = "arith.mulf"(%arg3, %arg4) <{fastmath = #arith.fastmath<none>}> : (f32, f32) -> f32
          %243 = "arith.addf"(%arg5, %242) <{fastmath = #arith.fastmath<none>}> : (f32, f32) -> f32
          "linalg.yield"(%243) : (f32) -> ()
        }) : (tensor<?x3xf32>, memref<3x19xf32>, tensor<?x19xf32>) -> tensor<?x19xf32>
        %224 = "tensor.empty"() : () -> tensor<3x19xf16>
        %225 = "linalg.transpose"(%49, %224) <{permutation = array<i64: 1, 0>}> ({
        ^bb0(%arg3: f16, %arg4: f16):
          "linalg.yield"(%arg3) : (f16) -> ()
        }) : (tensor<19x3xf16>, tensor<3x19xf16>) -> tensor<3x19xf16>
        %226 = "arith.floordivsi"(%12, %7) : (i1, i1) -> i1
        %227 = "vector.insertelement"(%10, %108, %16) : (i32, vector<2xi32>, index) -> vector<2xi32>
        %228 = "arith.cmpf"(%5, %116) <{predicate = 9 : i64}> : (f32, f32) -> i1
        %229 = "index.maxs"(%31, %118) : (index, index) -> index
        %230 = "arith.remf"(%3, %3) <{fastmath = #arith.fastmath<none>}> : (f32, f32) -> f32
        %231 = "memref.alloc"() <{operandSegmentSizes = array<i32: 0, 0>}> : () -> memref<19x3xf32>
        "memref.tensor_store"(%96, %231) : (tensor<19x3xf32>, memref<19x3xf32>) -> ()
        %232 = "affine.load"(%75, %43, %47, %21) <{map = affine_map<(d0, d1, d2) -> (d0, d1, d2)>}> : (memref<19x8x23xi1>, index, index, index) -> i1
        %233 = "memref.alloc"() <{operandSegmentSizes = array<i32: 0, 0>}> : () -> memref<19xf32>
        %234 = "tensor.empty"() : () -> tensor<f32>
        %235 = "linalg.dot"(%233, %233, %234) <{operandSegmentSizes = array<i32: 2, 1>}> ({
        ^bb0(%arg3: f32, %arg4: f32, %arg5: f32):
          %242 = "arith.mulf"(%arg3, %arg4) <{fastmath = #arith.fastmath<none>}> : (f32, f32) -> f32
          %243 = "arith.addf"(%arg5, %242) <{fastmath = #arith.fastmath<none>}> : (f32, f32) -> f32
          "linalg.yield"(%243) : (f32) -> ()
        }) : (memref<19xf32>, memref<19xf32>, tensor<f32>) -> tensor<f32>
        %236 = "memref.load"(%69, %16, %34) <{nontemporal = false}> : (memref<3x19xf32>, index, index) -> f32
        %237 = "arith.addf"(%0, %3) <{fastmath = #arith.fastmath<none>}> : (f32, f32) -> f32
        %238 = "index.shrs"(%24, %20) : (index, index) -> index
        %239 = "tensor.empty"() : () -> tensor<57xf16>
        %240 = "tensor.unpack"(%49, %239, %19) <{inner_dims_pos = array<i64: 0>, outer_dims_perm = array<i64: 0>, static_inner_tiles = array<i64: -9223372036854775808>}> : (tensor<19x3xf16>, tensor<57xf16>, index) -> tensor<57xf16>
        "affine.store"(%103, %arg0, %16, %19) <{map = affine_map<(d0, d1) -> (d0, d1)>}> : (i16, memref<3x19xi16>, index, index) -> ()
        %241 = "math.exp2"(%56) <{fastmath = #arith.fastmath<none>}> : (tensor<?x19xf32>) -> tensor<?x19xf32>
        "scf.yield"() : () -> ()
      }) : (index) -> ()
      %221 = "arith.muli"(%13, %103) : (i16, i16) -> i16
      %222 = "vector.broadcast"(%4) : (f32) -> vector<19x8xf32>
      "tensor.yield"(%103) : (i16) -> ()
    }) : (index, index) -> tensor<?x?xi16>
    %139 = "arith.addf"(%90, %90) <{fastmath = #arith.fastmath<none>}> : (f32, f32) -> f32
    %140 = "spirv.CL.log"(%4) : (f32) -> f32
    %141 = "spirv.BitwiseXor"(%108, %108) : (vector<2xi32>, vector<2xi32>) -> vector<2xi32>
    %142 = "affine.load"(%67, %37, %18) <{map = affine_map<(d0, d1) -> (d0, d1)>}> : (memref<?x8xi64>, index, index) -> i64
    %143 = "math.round"(%140) <{fastmath = #arith.fastmath<none>}> : (f32) -> f32
    %144 = "tensor.dim"(%50, %17) : (tensor<?x19xf16>, index) -> index
    %145 = "spirv.FOrdEqual"(%3, %0) : (f32, f32) -> i1
    %146 = "vector.splat"(%16) : (index) -> vector<19x8x23xindex>
    %147 = "spirv.GL.SMin"(%6, %142) : (i64, i64) -> i64
    %148 = "affine.max"(%27) <{map = affine_map<(d0) -> ((d0 mod 128) * 8)>}> : (index) -> index
    %149 = "spirv.GL.Acos"(%129) : (f16) -> f16
    %150 = "tensor.empty"() : () -> tensor<19x8xi32>
    %151 = "math.fpowi"(%63, %150) <{fastmath = #arith.fastmath<none>}> : (tensor<19x8xf32>, tensor<19x8xi32>) -> tensor<19x8xf32>
    %152 = "vector.broadcast"(%95) : (i1) -> vector<2xi1>
    "vector.compressstore"(%74, %26, %20, %26, %152, %108) : (memref<19x8x23xi32>, index, index, index, vector<2xi1>, vector<2xi32>) -> ()
    %153 = "math.absf"(%124) <{fastmath = #arith.fastmath<none>}> : (f16) -> f16
    "memref.store"(%103, %arg0, %16, %33) <{nontemporal = false}> : (i16, memref<3x19xi16>, index, index) -> ()
    %154 = "vector.broadcast"(%1) : (f32) -> vector<3xf32>
    %155:2 = "vector.scan"(%133, %154) <{inclusive = false, kind = #vector.kind<minf>, reduction_dim = 0 : i64}> : (vector<19x3xf32>, vector<3xf32>) -> (vector<19x3xf32>, vector<3xf32>)
    %156 = "spirv.BitwiseOr"(%108, %108) : (vector<2xi32>, vector<2xi32>) -> vector<2xi32>
    %157 = "spirv.LogicalEqual"(%12, %89) : (i1, i1) -> i1
    %158 = "spirv.GL.Asin"(%2) : (f32) -> f32
    %159 = "spirv.GL.Atan"(%116) : (f32) -> f32
    %160 = "arith.addf"(%113, %113) <{fastmath = #arith.fastmath<none>}> : (f16, f16) -> f16
    %161 = "spirv.GL.Cosh"(%116) : (f32) -> f32
    %162 = "math.ctpop"(%48) : (tensor<3x19xi32>) -> tensor<3x19xi32>
    %163 = "spirv.GL.Tan"(%90) : (f32) -> f32
    %164 = "spirv.FOrdGreaterThanEqual"(%163, %0) : (f32, f32) -> i1
    %165 = "math.log10"(%129) <{fastmath = #arith.fastmath<none>}> : (f16) -> f16
    %166 = "spirv.CL.fma"(%1, %4, %4) : (f32, f32, f32) -> f32
    %167 = "spirv.CL.cos"(%0) : (f32) -> f32
    %168 = "spirv.GL.UMax"(%10, %94) : (i32, i32) -> i32
    %169 = "vector.broadcast"(%159) : (f32) -> vector<3xf32>
    %170:2 = "vector.scan"(%134, %169) <{inclusive = true, kind = #vector.kind<mul>, reduction_dim = 0 : i64}> : (vector<19x3xf32>, vector<3xf32>) -> (vector<19x3xf32>, vector<3xf32>)
    %171 = "scf.parallel"(%45, %91, %36, %164) <{operandSegmentSizes = array<i32: 1, 1, 1, 1>}> ({
    ^bb0(%arg1: index):
      %219 = "vector.broadcast"(%147) : (i64) -> vector<3x19xi64>
      %220 = "vector.broadcast"(%157) : (i1) -> vector<3x19xi1>
      %221 = "vector.broadcast"(%168) : (i32) -> vector<3x19xi32>
      %222 = "vector.gather"(%51, %22, %36, %221, %220, %219) : (tensor<3x19xi64>, index, index, vector<3x19xi32>, vector<3x19xi1>, vector<3x19xi64>) -> vector<3x19xi64>
      %223 = "affine.max"(%120, %46, %25, %16) <{map = affine_map<(d0, d1, d2)[s0] -> (-d0)>}> : (index, index, index, index) -> index
      %224 = "bufferization.to_memref"(%59) : (tensor<?x?xi64>) -> memref<?x?xi64>
      %225 = "tensor.extract"(%49, %28, %16) : (tensor<19x3xf16>, index, index) -> f16
      %226 = "math.rsqrt"(%62) <{fastmath = #arith.fastmath<none>}> : (tensor<19x8xf16>) -> tensor<19x8xf16>
      %227 = "tensor.cast"(%51) : (tensor<3x19xi64>) -> tensor<?x?xi64>
      %228 = "arith.muli"(%168, %10) : (i32, i32) -> i32
      "scf.parallel"(%91, %27, %25) <{operandSegmentSizes = array<i32: 1, 1, 1, 0>}> ({
      ^bb0(%arg2: index):
        %237 = "memref.alloc"() <{operandSegmentSizes = array<i32: 0, 0>}> : () -> memref<19x3xi64>
        "linalg.transpose"(%51, %237) <{permutation = array<i64: 1, 0>}> ({
        ^bb0(%arg3: i64, %arg4: i64):
          "linalg.yield"(%arg3) : (i64) -> ()
        }) : (tensor<3x19xi64>, memref<19x3xi64>) -> ()
        %238 = "math.tan"(%62) <{fastmath = #arith.fastmath<none>}> : (tensor<19x8xf16>) -> tensor<19x8xf16>
        %239 = "index.shrs"(%43, %41) : (index, index) -> index
        %240 = "bufferization.to_tensor"(%76) : (memref<19x8x23xi16>) -> tensor<19x8x23xi16>
        %241 = "index.maxu"(%28, %35) : (index, index) -> index
        %242 = "math.atan2"(%2, %161) <{fastmath = #arith.fastmath<none>}> : (f32, f32) -> f32
        %243 = "memref.alloc"(%33) <{operandSegmentSizes = array<i32: 1, 0>}> : (index) -> memref<8x?xi1>
        "linalg.transpose"(%60, %243) <{permutation = array<i64: 1, 0>}> ({
        ^bb0(%arg3: i1, %arg4: i1):
          "linalg.yield"(%arg3) : (i1) -> ()
        }) : (tensor<?x8xi1>, memref<8x?xi1>) -> ()
        %244 = "index.maxs"(%arg1, %120) : (index, index) -> index
        %245 = "index.shl"(%83, %91) : (index, index) -> index
        %246 = "affine.min"(%34, %28, %35, %28) <{map = affine_map<(d0, d1, d2, d3) -> (d0)>}> : (index, index, index, index) -> index
        %247 = "linalg.copy"(%240, %240) <{operandSegmentSizes = array<i32: 1, 1>}> ({
        ^bb0(%arg3: i16, %arg4: i16):
          "linalg.yield"(%arg3) : (i16) -> ()
        }) : (tensor<19x8x23xi16>, tensor<19x8x23xi16>) -> tensor<19x8x23xi16>
        %248 = "arith.cmpi"(%12, %89) <{predicate = 0 : i64}> : (i1, i1) -> i1
        %249 = "math.roundeven"(%97) <{fastmath = #arith.fastmath<none>}> : (tensor<19x3xf32>) -> tensor<19x3xf32>
        %250 = "vector.broadcast"(%149) : (f16) -> vector<23xf16>
        %251 = "vector.broadcast"(%164) : (i1) -> vector<23xi1>
        %252 = "vector.maskedload"(%78, %25, %22, %251, %250) : (memref<19x8xf16>, index, index, vector<23xi1>, vector<23xf16>) -> vector<23xf16>
        %253 = "vector.flat_transpose"(%251) <{columns = 23 : i32, rows = 1 : i32}> : (vector<23xi1>) -> vector<23xi1>
        %254 = "vector.broadcast"(%8) : (i64) -> vector<3xi64>
        %255:2 = "vector.scan"(%219, %254) <{inclusive = true, kind = #vector.kind<mul>, reduction_dim = 1 : i64}> : (vector<3x19xi64>, vector<3xi64>) -> (vector<3x19xi64>, vector<3xi64>)
        "scf.yield"() : () -> ()
      }) : (index, index, index) -> ()
      %229 = "index.divu"(%19, %32) : (index, index) -> index
      %230 = "affine.load"(%102, %34, %19) <{map = affine_map<(d0, d1) -> (d0, d1)>}> : (memref<19x3xf16>, index, index) -> f16
      %231 = "vector.broadcast"(%6) : (i64) -> vector<19xi64>
      %232:2 = "vector.scan"(%222, %231) <{inclusive = true, kind = #vector.kind<maxsi>, reduction_dim = 0 : i64}> : (vector<3x19xi64>, vector<19xi64>) -> (vector<3x19xi64>, vector<19xi64>)
      "memref.assume_alignment"(%77) <{alignment = 4 : i32}> : (memref<19x8xi32>) -> ()
      %233 = "math.round"(%50) <{fastmath = #arith.fastmath<none>}> : (tensor<?x19xf16>) -> tensor<?x19xf16>
      %234 = "tensor.rank"(%55) : (tensor<19x8x23xi1>) -> index
      %235 = "arith.negf"(%1) <{fastmath = #arith.fastmath<none>}> : (f32) -> f32
      %236 = "math.sqrt"(%62) <{fastmath = #arith.fastmath<none>}> : (tensor<19x8xf16>) -> tensor<19x8xf16>
      "scf.reduce"(%130) ({
      ^bb0(%arg2: i1, %arg3: i1):
        %237 = "affine.vector_load"(%75, %120, %37, %131) <{map = affine_map<(d0, d1, d2) -> (d0, d1, d2)>}> : (memref<19x8x23xi1>, index, index, index) -> vector<8xi1>
        %238 = "index.sub"(%43, %144) : (index, index) -> index
        %239 = "tensor.extract"(%52, %16, %18) : (tensor<?x3xf32>, index, index) -> f32
        %240 = "index.shru"(%131, %44) : (index, index) -> index
        %241 = "vector.broadcast"(%94) : (i32) -> vector<2x2xi32>
        %242 = "vector.outerproduct"(%108, %108, %241) <{kind = #vector.kind<mul>}> : (vector<2xi32>, vector<2xi32>, vector<2x2xi32>) -> vector<2x2xi32>
        %243 = "index.casts"(%95) : (i1) -> index
        %244 = "vector.broadcast"(%94) : (i32) -> vector<19xi32>
        %245:2 = "vector.scan"(%221, %244) <{inclusive = true, kind = #vector.kind<xor>, reduction_dim = 0 : i64}> : (vector<3x19xi32>, vector<19xi32>) -> (vector<3x19xi32>, vector<19xi32>)
        %246 = "math.log"(%113) <{fastmath = #arith.fastmath<none>}> : (f16) -> f16
        "scf.reduce.return"(%arg2) : (i1) -> ()
      }) : (i1) -> ()
      "scf.yield"() : () -> ()
    }) : (index, index, index, i1) -> i1
    %172 = "arith.remui"(%9, %128) : (i16, i16) -> i16
    %173 = "arith.muli"(%157, %164) : (i1, i1) -> i1
    %174 = "spirv.IEqual"(%128, %88) : (i16, i16) -> i1
    %175 = "index.maxs"(%19, %36) : (index, index) -> index
    %176 = "spirv.FUnordLessThanEqual"(%129, %107) : (f16, f16) -> i1
    %177 = "tensor.rank"(%58) : (tensor<3x19xi1>) -> index
    %178 = "spirv.CL.rint"(%124) : (f16) -> f16
    %179 = "arith.addi"(%12, %130) : (i1, i1) -> i1
    %180 = "math.sqrt"(%1) <{fastmath = #arith.fastmath<none>}> : (f32) -> f32
    %181 = "spirv.CL.fabs"(%3) : (f32) -> f32
    %182 = "vector.broadcast"(%24) : (index) -> vector<8xindex>
    %183 = "vector.broadcast"(%89) : (i1) -> vector<8xi1>
    %184 = "vector.broadcast"(%147) : (i64) -> vector<8xi64>
    "vector.scatter"(%73, %26, %18, %33, %182, %183, %184) : (memref<19x8x23xi64>, index, index, index, vector<8xindex>, vector<8xi1>, vector<8xi64>) -> ()
    %185 = "spirv.GL.Acos"(%166) : (f32) -> f32
    %186 = "spirv.CL.round"(%161) : (f32) -> f32
    %187 = "spirv.GL.UClamp"(%8, %6, %8) : (i64, i64, i64) -> i64
    %188 = "arith.minui"(%147, %142) : (i64, i64) -> i64
    %189 = "spirv.GL.SAbs"(%147) : (i64) -> i64
    %190 = "spirv.CL.sin"(%129) : (f16) -> f16
    %191 = "spirv.LogicalAnd"(%157, %117) : (i1, i1) -> i1
    %192 = "spirv.LogicalEqual"(%12, %101) : (i1, i1) -> i1
    %193 = "spirv.GL.Sinh"(%14) : (f16) -> f16
    %194 = "spirv.CL.u_min"(%128, %128) : (i16, i16) -> i16
    %195 = "memref.load"(%79, %32, %21, %34) <{nontemporal = false}> : (memref<19x8x23xf16>, index, index, index) -> f16
    %196 = "arith.remf"(%159, %1) <{fastmath = #arith.fastmath<none>}> : (f32, f32) -> f32
    %197 = "index.casts"(%10) : (i32) -> index
    %198 = "tensor.expand_shape"(%54) <{reassociation = [[0], [1], [2, 3]]}> : (tensor<19x8x23xf16>) -> tensor<19x8x23x1xf16>
    %199 = "spirv.CL.s_abs"(%94) : (i32) -> i32
    %200 = "arith.addf"(%161, %186) <{fastmath = #arith.fastmath<none>}> : (f32, f32) -> f32
    %201 = "spirv.Not"(%94) : (i32) -> i32
    %202 = "vector.broadcast"(%193) : (f16) -> vector<19xf16>
    %203 = "vector.broadcast"(%7) : (i1) -> vector<19xi1>
    %204 = "vector.maskedload"(%65, %16, %16, %203, %202) : (memref<?x?xf16>, index, index, vector<19xi1>, vector<19xf16>) -> vector<19xf16>
    %205 = "arith.shrui"(%176, %192) : (i1, i1) -> i1
    %206 = "math.powf"(%185, %185) <{fastmath = #arith.fastmath<none>}> : (f32, f32) -> f32
    %207 = "affine.min"(%21, %177, %18, %42) <{map = affine_map<(d0, d1, d2)[s0] -> ((d2 ceildiv 32 + d1) floordiv 8)>}> : (index, index, index, index) -> index
    %208 = "spirv.BitFieldInsert"(%108, %108, %6, %187) : (vector<2xi32>, vector<2xi32>, i64, i64) -> vector<2xi32>
    %209 = "spirv.FOrdLessThanEqual"(%159, %167) : (f32, f32) -> i1
    %210 = "tensor.generate"(%22) ({
    ^bb0(%arg1: index, %arg2: index, %arg3: index):
      %219 = "vector.flat_transpose"(%108) <{columns = 1 : i32, rows = 2 : i32}> : (vector<2xi32>) -> vector<2xi32>
      %220 = "arith.addi"(%128, %13) : (i16, i16) -> i16
      %221 = "affine.max"(%120) <{map = affine_map<(d0) -> (-d0 - 128)>}> : (index) -> index
      %222 = "arith.remui"(%145, %191) : (i1, i1) -> i1
      "tensor.yield"(%15) : (i16) -> ()
    }) : (index) -> tensor<?x8x23xi16>
    %211 = "tensor.collapse_shape"(%52) <{reassociation = [[0, 1]]}> : (tensor<?x3xf32>) -> tensor<?xf32>
    %212 = "index.divu"(%131, %38) : (index, index) -> index
    %213 = "arith.constant"() <{value = 9.824000e+03 : f16}> : () -> f16
    %214 = "spirv.GL.Asin"(%163) : (f32) -> f32
    %215 = "spirv.CL.sqrt"(%0) : (f32) -> f32
    "memref.copy"(%102, %102) : (memref<19x3xf16>, memref<19x3xf16>) -> ()
    %216 = "spirv.GL.Sin"(%107) : (f16) -> f16
    %217 = "math.tanh"(%167) <{fastmath = #arith.fastmath<none>}> : (f32) -> f32
    %218 = "tensor.rank"(%56) : (tensor<?x19xf32>) -> index
    "vector.print"(%104) <{punctuation = #vector.punctuation<newline>}> : (vector<f32>) -> ()
    "vector.print"(%108) <{punctuation = #vector.punctuation<newline>}> : (vector<2xi32>) -> ()
    "vector.print"(%133) <{punctuation = #vector.punctuation<newline>}> : (vector<19x3xf32>) -> ()
    "vector.print"(%134) <{punctuation = #vector.punctuation<newline>}> : (vector<19x3xf32>) -> ()
    "vector.print"(%202) <{punctuation = #vector.punctuation<newline>}> : (vector<19xf16>) -> ()
    "vector.print"(%203) <{punctuation = #vector.punctuation<newline>}> : (vector<19xi1>) -> ()
    "vector.print"(%204) <{punctuation = #vector.punctuation<newline>}> : (vector<19xf16>) -> ()
    "vector.print"(%0) <{punctuation = #vector.punctuation<newline>}> : (f32) -> ()
    "vector.print"(%1) <{punctuation = #vector.punctuation<newline>}> : (f32) -> ()
    "vector.print"(%2) <{punctuation = #vector.punctuation<newline>}> : (f32) -> ()
    "vector.print"(%3) <{punctuation = #vector.punctuation<newline>}> : (f32) -> ()
    "vector.print"(%4) <{punctuation = #vector.punctuation<newline>}> : (f32) -> ()
    "vector.print"(%5) <{punctuation = #vector.punctuation<newline>}> : (f32) -> ()
    "vector.print"(%6) <{punctuation = #vector.punctuation<newline>}> : (i64) -> ()
    "vector.print"(%7) <{punctuation = #vector.punctuation<newline>}> : (i1) -> ()
    "vector.print"(%8) <{punctuation = #vector.punctuation<newline>}> : (i64) -> ()
    "vector.print"(%9) <{punctuation = #vector.punctuation<newline>}> : (i16) -> ()
    "vector.print"(%10) <{punctuation = #vector.punctuation<newline>}> : (i32) -> ()
    "vector.print"(%11) <{punctuation = #vector.punctuation<newline>}> : (f16) -> ()
    "vector.print"(%12) <{punctuation = #vector.punctuation<newline>}> : (i1) -> ()
    "vector.print"(%13) <{punctuation = #vector.punctuation<newline>}> : (i16) -> ()
    "vector.print"(%14) <{punctuation = #vector.punctuation<newline>}> : (f16) -> ()
    "vector.print"(%15) <{punctuation = #vector.punctuation<newline>}> : (i16) -> ()
    "vector.print"(%82) <{punctuation = #vector.punctuation<newline>}> : (i1) -> ()
    "vector.print"(%88) <{punctuation = #vector.punctuation<newline>}> : (i16) -> ()
    "vector.print"(%89) <{punctuation = #vector.punctuation<newline>}> : (i1) -> ()
    "vector.print"(%90) <{punctuation = #vector.punctuation<newline>}> : (f32) -> ()
    "vector.print"(%92) <{punctuation = #vector.punctuation<newline>}> : (i16) -> ()
    "vector.print"(%94) <{punctuation = #vector.punctuation<newline>}> : (i32) -> ()
    "vector.print"(%95) <{punctuation = #vector.punctuation<newline>}> : (i1) -> ()
    "vector.print"(%101) <{punctuation = #vector.punctuation<newline>}> : (i1) -> ()
    "vector.print"(%103) <{punctuation = #vector.punctuation<newline>}> : (i16) -> ()
    "vector.print"(%107) <{punctuation = #vector.punctuation<newline>}> : (f16) -> ()
    "vector.print"(%113) <{punctuation = #vector.punctuation<newline>}> : (f16) -> ()
    "vector.print"(%116) <{punctuation = #vector.punctuation<newline>}> : (f32) -> ()
    "vector.print"(%117) <{punctuation = #vector.punctuation<newline>}> : (i1) -> ()
    "vector.print"(%124) <{punctuation = #vector.punctuation<newline>}> : (f16) -> ()
    "vector.print"(%128) <{punctuation = #vector.punctuation<newline>}> : (i16) -> ()
    "vector.print"(%129) <{punctuation = #vector.punctuation<newline>}> : (f16) -> ()
    "vector.print"(%130) <{punctuation = #vector.punctuation<newline>}> : (i1) -> ()
    "vector.print"(%137) <{punctuation = #vector.punctuation<newline>}> : (i1) -> ()
    "vector.print"(%140) <{punctuation = #vector.punctuation<newline>}> : (f32) -> ()
    "vector.print"(%142) <{punctuation = #vector.punctuation<newline>}> : (i64) -> ()
    "vector.print"(%145) <{punctuation = #vector.punctuation<newline>}> : (i1) -> ()
    "vector.print"(%147) <{punctuation = #vector.punctuation<newline>}> : (i64) -> ()
    "vector.print"(%149) <{punctuation = #vector.punctuation<newline>}> : (f16) -> ()
    "vector.print"(%157) <{punctuation = #vector.punctuation<newline>}> : (i1) -> ()
    "vector.print"(%158) <{punctuation = #vector.punctuation<newline>}> : (f32) -> ()
    "vector.print"(%159) <{punctuation = #vector.punctuation<newline>}> : (f32) -> ()
    "vector.print"(%161) <{punctuation = #vector.punctuation<newline>}> : (f32) -> ()
    "vector.print"(%163) <{punctuation = #vector.punctuation<newline>}> : (f32) -> ()
    "vector.print"(%164) <{punctuation = #vector.punctuation<newline>}> : (i1) -> ()
    "vector.print"(%166) <{punctuation = #vector.punctuation<newline>}> : (f32) -> ()
    "vector.print"(%167) <{punctuation = #vector.punctuation<newline>}> : (f32) -> ()
    "vector.print"(%168) <{punctuation = #vector.punctuation<newline>}> : (i32) -> ()
    "vector.print"(%174) <{punctuation = #vector.punctuation<newline>}> : (i1) -> ()
    "vector.print"(%176) <{punctuation = #vector.punctuation<newline>}> : (i1) -> ()
    "vector.print"(%178) <{punctuation = #vector.punctuation<newline>}> : (f16) -> ()
    "vector.print"(%181) <{punctuation = #vector.punctuation<newline>}> : (f32) -> ()
    "vector.print"(%185) <{punctuation = #vector.punctuation<newline>}> : (f32) -> ()
    "vector.print"(%186) <{punctuation = #vector.punctuation<newline>}> : (f32) -> ()
    "vector.print"(%187) <{punctuation = #vector.punctuation<newline>}> : (i64) -> ()
    "vector.print"(%189) <{punctuation = #vector.punctuation<newline>}> : (i64) -> ()
    "vector.print"(%190) <{punctuation = #vector.punctuation<newline>}> : (f16) -> ()
    "vector.print"(%191) <{punctuation = #vector.punctuation<newline>}> : (i1) -> ()
    "vector.print"(%192) <{punctuation = #vector.punctuation<newline>}> : (i1) -> ()
    "vector.print"(%193) <{punctuation = #vector.punctuation<newline>}> : (f16) -> ()
    "vector.print"(%194) <{punctuation = #vector.punctuation<newline>}> : (i16) -> ()
    "vector.print"(%199) <{punctuation = #vector.punctuation<newline>}> : (i32) -> ()
    "vector.print"(%201) <{punctuation = #vector.punctuation<newline>}> : (i32) -> ()
    "vector.print"(%209) <{punctuation = #vector.punctuation<newline>}> : (i1) -> ()
    "vector.print"(%214) <{punctuation = #vector.punctuation<newline>}> : (f32) -> ()
    "vector.print"(%215) <{punctuation = #vector.punctuation<newline>}> : (f32) -> ()
    "vector.print"(%216) <{punctuation = #vector.punctuation<newline>}> : (f16) -> ()
    "func.return"() : () -> ()
  }) : () -> ()
  "func.func"() <{function_type = (tensor<?x?xf16>, memref<?x?xf16>, i1) -> (), sym_name = "func2"}> ({
  ^bb0(%arg0: tensor<?x?xf16>, %arg1: memref<?x?xf16>, %arg2: i1):
    %0 = "arith.constant"() <{value = 0x4E58E72D : f32}> : () -> f32
    %1 = "arith.constant"() <{value = 1.16853504E+9 : f32}> : () -> f32
    %2 = "arith.constant"() <{value = 0x4E4668C7 : f32}> : () -> f32
    %3 = "arith.constant"() <{value = 2.07111629E+9 : f32}> : () -> f32
    %4 = "arith.constant"() <{value = 1.49177894E+9 : f32}> : () -> f32
    %5 = "arith.constant"() <{value = 1.61666893E+9 : f32}> : () -> f32
    %6 = "arith.constant"() <{value = 539929680 : i64}> : () -> i64
    %7 = "arith.constant"() <{value = false}> : () -> i1
    %8 = "arith.constant"() <{value = 1345925415 : i64}> : () -> i64
    %9 = "arith.constant"() <{value = -22411 : i16}> : () -> i16
    %10 = "arith.constant"() <{value = 695729244 : i32}> : () -> i32
    %11 = "arith.constant"() <{value = 1.185600e+04 : f16}> : () -> f16
    %12 = "arith.constant"() <{value = true}> : () -> i1
    %13 = "arith.constant"() <{value = 10319 : i16}> : () -> i16
    %14 = "arith.constant"() <{value = 5.856000e+04 : f16}> : () -> f16
    %15 = "arith.constant"() <{value = -30341 : i16}> : () -> i16
    %16 = "arith.constant"() <{value = 0 : index}> : () -> index
    %17 = "arith.constant"() <{value = 1 : index}> : () -> index
    %18 = "arith.constant"() <{value = 2 : index}> : () -> index
    %19 = "arith.constant"() <{value = 3 : index}> : () -> index
    %20 = "arith.constant"() <{value = 4 : index}> : () -> index
    %21 = "arith.constant"() <{value = 5 : index}> : () -> index
    %22 = "arith.constant"() <{value = 6 : index}> : () -> index
    %23 = "arith.constant"() <{value = 7 : index}> : () -> index
    %24 = "arith.constant"() <{value = 8 : index}> : () -> index
    %25 = "arith.constant"() <{value = 9 : index}> : () -> index
    %26 = "arith.constant"() <{value = 10 : index}> : () -> index
    %27 = "arith.constant"() <{value = 11 : index}> : () -> index
    %28 = "arith.constant"() <{value = 12 : index}> : () -> index
    %29 = "arith.constant"() <{value = 13 : index}> : () -> index
    %30 = "arith.constant"() <{value = 14 : index}> : () -> index
    %31 = "arith.constant"() <{value = 15 : index}> : () -> index
    %32 = "arith.constant"() <{value = 16 : index}> : () -> index
    %33 = "arith.constant"() <{value = 17 : index}> : () -> index
    %34 = "arith.constant"() <{value = 18 : index}> : () -> index
    %35 = "arith.constant"() <{value = 19 : index}> : () -> index
    %36 = "arith.constant"() <{value = 20 : index}> : () -> index
    %37 = "arith.constant"() <{value = 21 : index}> : () -> index
    %38 = "arith.constant"() <{value = 22 : index}> : () -> index
    %39 = "arith.constant"() <{value = 23 : index}> : () -> index
    %40 = "arith.constant"() <{value = 24 : index}> : () -> index
    %41 = "arith.constant"() <{value = 25 : index}> : () -> index
    %42 = "arith.constant"() <{value = 26 : index}> : () -> index
    %43 = "arith.constant"() <{value = 27 : index}> : () -> index
    %44 = "arith.constant"() <{value = 28 : index}> : () -> index
    %45 = "arith.constant"() <{value = 29 : index}> : () -> index
    %46 = "arith.constant"() <{value = 30 : index}> : () -> index
    %47 = "arith.constant"() <{value = 31 : index}> : () -> index
    %48 = "tensor.empty"() : () -> tensor<3x19xi32>
    %49 = "tensor.empty"() : () -> tensor<19x3xf16>
    %50 = "tensor.empty"(%28) : (index) -> tensor<?x19xf16>
    %51 = "tensor.empty"() : () -> tensor<3x19xi64>
    %52 = "tensor.empty"(%31) : (index) -> tensor<?x3xf32>
    %53 = "tensor.empty"() : () -> tensor<19x3xf16>
    %54 = "tensor.empty"() : () -> tensor<19x8x23xf16>
    %55 = "tensor.empty"() : () -> tensor<19x8x23xi1>
    %56 = "tensor.empty"(%22) : (index) -> tensor<?x19xf32>
    %57 = "tensor.empty"() : () -> tensor<19x8xi64>
    %58 = "tensor.empty"() : () -> tensor<3x19xi1>
    %59 = "tensor.empty"(%32, %16) : (index, index) -> tensor<?x?xi64>
    %60 = "tensor.empty"(%28) : (index) -> tensor<?x8xi1>
    %61 = "tensor.empty"(%17) : (index) -> tensor<?x8x23xf16>
    %62 = "tensor.empty"() : () -> tensor<19x8xf16>
    %63 = "tensor.empty"() : () -> tensor<19x8xf32>
    %64 = "memref.alloc"(%42) <{operandSegmentSizes = array<i32: 1, 0>}> : (index) -> memref<?x3xf32>
    %65 = "memref.alloc"(%41, %29) <{operandSegmentSizes = array<i32: 2, 0>}> : (index, index) -> memref<?x?xf16>
    %66 = "memref.alloc"() <{operandSegmentSizes = array<i32: 0, 0>}> : () -> memref<3x19xi16>
    %67 = "memref.alloc"(%33) <{operandSegmentSizes = array<i32: 1, 0>}> : (index) -> memref<?x8xi64>
    %68 = "memref.alloc"(%29, %42) <{operandSegmentSizes = array<i32: 2, 0>}> : (index, index) -> memref<?x?x23xi1>
    %69 = "memref.alloc"() <{operandSegmentSizes = array<i32: 0, 0>}> : () -> memref<3x19xf32>
    %70 = "memref.alloc"() <{operandSegmentSizes = array<i32: 0, 0>}> : () -> memref<3x19xi1>
    %71 = "memref.alloc"(%21) <{operandSegmentSizes = array<i32: 1, 0>}> : (index) -> memref<?x8x23xi64>
    %72 = "memref.alloc"(%41) <{operandSegmentSizes = array<i32: 1, 0>}> : (index) -> memref<?x19xf16>
    %73 = "memref.alloc"() <{operandSegmentSizes = array<i32: 0, 0>}> : () -> memref<19x8x23xi64>
    %74 = "memref.alloc"() <{operandSegmentSizes = array<i32: 0, 0>}> : () -> memref<19x8x23xi32>
    %75 = "memref.alloc"() <{operandSegmentSizes = array<i32: 0, 0>}> : () -> memref<19x8x23xi1>
    %76 = "memref.alloc"() <{operandSegmentSizes = array<i32: 0, 0>}> : () -> memref<19x8x23xi16>
    %77 = "memref.alloc"() <{operandSegmentSizes = array<i32: 0, 0>}> : () -> memref<19x8xi32>
    %78 = "memref.alloc"() <{operandSegmentSizes = array<i32: 0, 0>}> : () -> memref<19x8xf16>
    %79 = "memref.alloc"() <{operandSegmentSizes = array<i32: 0, 0>}> : () -> memref<19x8x23xf16>
    %80 = "spirv.Not"(%15) : (i16) -> i16
    %81 = "index.casts"(%6) : (i64) -> index
    %82 = "arith.floordivsi"(%8, %8) : (i64, i64) -> i64
    %83 = "math.ctlz"(%51) : (tensor<3x19xi64>) -> tensor<3x19xi64>
    %84 = "index.ceildivu"(%21, %81) : (index, index) -> index
    %85 = "spirv.GL.FAbs"(%4) : (f32) -> f32
    %86 = "arith.cmpi"(%10, %10) <{predicate = 4 : i64}> : (i32, i32) -> i1
    %87 = "index.casts"(%42) : (index) -> i32
    %88 = "spirv.BitCount"(%9) : (i16) -> i16
    %89 = "vector.broadcast"(%3) : (f32) -> vector<23xf32>
    %90 = "vector.reduction"(%89) <{fastmath = #arith.fastmath<none>, kind = #vector.kind<minf>}> : (vector<23xf32>) -> f32
    %91 = "spirv.CL.tanh"(%85) : (f32) -> f32
    "vector.warp_execute_on_lane_0"(%16) <{warp_size = 32 : i64}> ({
      %216 = "math.log10"(%52) <{fastmath = #arith.fastmath<none>}> : (tensor<?x3xf32>) -> tensor<?x3xf32>
      %217 = "tensor.empty"() : () -> tensor<19xi16>
      %218 = "tensor.empty"() : () -> tensor<i16>
      %219 = "linalg.dot"(%217, %217, %218) <{operandSegmentSizes = array<i32: 2, 1>}> ({
      ^bb0(%arg3: i16, %arg4: i16, %arg5: i16):
        %225 = "arith.muli"(%arg3, %arg4) : (i16, i16) -> i16
        %226 = "arith.addi"(%arg5, %225) : (i16, i16) -> i16
        "linalg.yield"(%226) : (i16) -> ()
      }) {linalg.memoized_indexing_maps = [affine_map<(d0) -> (d0)>, affine_map<(d0) -> (d0)>, affine_map<(d0) -> ()>]} : (tensor<19xi16>, tensor<19xi16>, tensor<i16>) -> tensor<i16>
      %220 = "index.floordivs"(%38, %46) : (index, index) -> index
      %221 = "arith.minui"(%9, %13) : (i16, i16) -> i16
      %222 = "arith.andi"(%7, %12) : (i1, i1) -> i1
      %223 = "arith.minui"(%12, %7) : (i1, i1) -> i1
      %224 = "bufferization.to_tensor"(%arg1) : (memref<?x?xf16>) -> tensor<?x?xf16>
      "affine.store"(%6, %67, %34, %47) <{map = affine_map<(d0, d1) -> (d0, d1)>}> : (i64, memref<?x8xi64>, index, index) -> ()
      "vector.yield"() : () -> ()
    }) : (index) -> ()
    %92 = "index.shru"(%37, %81) : (index, index) -> index
    %93 = "math.roundeven"(%4) <{fastmath = #arith.fastmath<none>}> : (f32) -> f32
    %94 = "spirv.ULessThanEqual"(%15, %80) : (i16, i16) -> i1
    %95 = "vector.broadcast"(%11) : (f16) -> vector<23xf16>
    %96 = "vector.broadcast"(%arg2) : (i1) -> vector<23xi1>
    "vector.compressstore"(%arg1, %16, %16, %96, %95) : (memref<?x?xf16>, index, index, vector<23xi1>, vector<23xf16>) -> ()
    %97 = "index.ceildivs"(%30, %47) : (index, index) -> index
    %98 = "vector.broadcast"(%11) : (f16) -> vector<1xf16>
    %99 = "vector.extract"(%98) <{static_position = array<i64: 0>}> : (vector<1xf16>) -> f16
    %100 = "bufferization.clone"(%74) : (memref<19x8x23xi32>) -> memref<19x8x23xi32>
    %101 = "affine.apply"(%35, %16, %32, %17) <{map = affine_map<(d0, d1, d2)[s0] -> (-d0)>}> : (index, index, index, index) -> index
    %102 = "index.ceildivu"(%21, %17) : (index, index) -> index
    %103 = "vector.flat_transpose"(%98) <{columns = 1 : i32, rows = 1 : i32}> : (vector<1xf16>) -> vector<1xf16>
    %104 = "math.cos"(%54) <{fastmath = #arith.fastmath<none>}> : (tensor<19x8x23xf16>) -> tensor<19x8x23xf16>
    %105 = "spirv.LogicalNot"(%12) : (i1) -> i1
    %106 = "spirv.CL.erf"(%0) : (f32) -> f32
    %107 = "math.log1p"(%52) <{fastmath = #arith.fastmath<none>}> : (tensor<?x3xf32>) -> tensor<?x3xf32>
    %108 = "tensor.rank"(%56) : (tensor<?x19xf32>) -> index
    %109 = "arith.xori"(%15, %13) : (i16, i16) -> i16
    %110 = "spirv.GL.Asin"(%11) : (f16) -> f16
    %111 = "arith.remf"(%4, %5) <{fastmath = #arith.fastmath<none>}> : (f32, f32) -> f32
    %112 = "spirv.CL.exp"(%106) : (f32) -> f32
    %113 = "index.maxu"(%35, %34) : (index, index) -> index
    %114 = "spirv.FUnordLessThan"(%1, %106) : (f32, f32) -> i1
    %115 = "affine.min"(%46, %16, %20) <{map = affine_map<(d0, d1, d2) -> (d0)>}> : (index, index, index) -> index
    %116 = "spirv.FUnordGreaterThanEqual"(%4, %112) : (f32, f32) -> i1
    %117 = "spirv.GL.Round"(%91) : (f32) -> f32
    %118 = "spirv.GL.Cos"(%85) : (f32) -> f32
    %119 = "index.maxu"(%35, %47) : (index, index) -> index
    %120 = "memref.load"(%65, %16, %16) <{nontemporal = false}> : (memref<?x?xf16>, index, index) -> f16
    %121 = "vector.broadcast"(%10) : (i32) -> vector<2xi32>
    %122 = "spirv.BitwiseXor"(%121, %121) : (vector<2xi32>, vector<2xi32>) -> vector<2xi32>
    %123 = "spirv.CL.exp"(%112) : (f32) -> f32
    %124 = "bufferization.clone"(%74) : (memref<19x8x23xi32>) -> memref<19x8x23xi32>
    %125 = "spirv.FNegate"(%0) : (f32) -> f32
    %126 = "spirv.GL.FClamp"(%125, %3, %112) : (f32, f32, f32) -> f32
    %127 = "index.and"(%35, %27) : (index, index) -> index
    %128 = "scf.index_switch"(%26) <{cases = array<i64: 1, 2>}> ({
      %216 = "scf.parallel"(%108, %36, %31, %98) <{operandSegmentSizes = array<i32: 1, 1, 1, 1>}> ({
      ^bb0(%arg3: index):
        %234 = "vector.broadcast"(%12) : (i1) -> vector<1xi1>
        %235 = "vector.mask"(%234) ({
          %252 = "vector.multi_reduction"(%98, %98) <{kind = #vector.kind<mul>, reduction_dims = []}> : (vector<1xf16>, vector<1xf16>) -> vector<1xf16>
          "vector.yield"(%252) : (vector<1xf16>) -> ()
        }) : (vector<1xi1>) -> vector<1xf16>
        %236 = "arith.addi"(%6, %8) : (i64, i64) -> i64
        %237 = "vector.broadcast"(%114) : (i1) -> vector<2xi1>
        %238 = "vector.mask"(%237) ({
          %252 = "vector.multi_reduction"(%121, %121) <{kind = #vector.kind<mul>, reduction_dims = []}> : (vector<2xi32>, vector<2xi32>) -> vector<2xi32>
          "vector.yield"(%252) : (vector<2xi32>) -> ()
        }) : (vector<2xi1>) -> vector<2xi32>
        %239 = "tensor.cast"(%57) : (tensor<19x8xi64>) -> tensor<?x?xi64>
        %240 = "vector.broadcast"(%4) : (f32) -> vector<19x3xf32>
        %241 = "vector.mask"(%237) ({
          %252 = "vector.multi_reduction"(%237, %237) <{kind = #vector.kind<xor>, reduction_dims = []}> : (vector<2xi1>, vector<2xi1>) -> vector<2xi1>
          "vector.yield"(%252) : (vector<2xi1>) -> ()
        }) : (vector<2xi1>) -> vector<2xi1>
        %242 = "index.floordivs"(%36, %46) : (index, index) -> index
        %243 = "vector.contract"(%98, %103, %11) <{indexing_maps = [affine_map<(d0) -> (d0)>, affine_map<(d0) -> (d0)>, affine_map<(d0) -> ()>], iterator_types = [#vector.iterator_type<reduction>], kind = #vector.kind<maxf>}> : (vector<1xf16>, vector<1xf16>, f16) -> f16
        %244 = "memref.alloc"(%102) <{operandSegmentSizes = array<i32: 1, 0>}> : (index) -> memref<19x?xf32>
        "linalg.transpose"(%56, %244) <{permutation = array<i64: 1, 0>}> ({
        ^bb0(%arg4: f32, %arg5: f32):
          "linalg.yield"(%arg4) : (f32) -> ()
        }) : (tensor<?x19xf32>, memref<19x?xf32>) -> ()
        %245 = "math.roundeven"(%91) <{fastmath = #arith.fastmath<none>}> : (f32) -> f32
        %246 = "arith.constant"() <{value = -16568 : i16}> : () -> i16
        %247 = "arith.addf"(%0, %112) <{fastmath = #arith.fastmath<none>}> : (f32, f32) -> f32
        %248 = "math.log1p"(%106) <{fastmath = #arith.fastmath<none>}> : (f32) -> f32
        %249 = "arith.constant"() <{value = 1461112402 : i32}> : () -> i32
        %250 = "arith.xori"(%8, %8) : (i64, i64) -> i64
        %251 = "tensor.rank"(%63) : (tensor<19x8xf32>) -> index
        "scf.reduce"(%98) ({
        ^bb0(%arg4: vector<1xf16>, %arg5: vector<1xf16>):
          %252 = "vector.broadcast"(%9) : (i16) -> vector<8xi16>
          %253 = "vector.broadcast"(%94) : (i1) -> vector<8xi1>
          "vector.compressstore"(%76, %17, %18, %26, %253, %252) : (memref<19x8x23xi16>, index, index, index, vector<8xi1>, vector<8xi16>) -> ()
          %254 = "vector.broadcast"(%30) : (index) -> vector<8xindex>
          %255 = "vector.broadcast"(%105) : (i1) -> vector<8xi1>
          "vector.scatter"(%75, %18, %22, %20, %254, %255, %255) : (memref<19x8x23xi1>, index, index, index, vector<8xindex>, vector<8xi1>, vector<8xi1>) -> ()
          %256 = "arith.addf"(%0, %125) <{fastmath = #arith.fastmath<none>}> : (f32, f32) -> f32
          %257 = "vector.extract"(%121) <{static_position = array<i64: 0>}> : (vector<2xi32>) -> i32
          %258 = "index.shrs"(%36, %113) : (index, index) -> index
          %259 = "memref.alloc"() <{operandSegmentSizes = array<i32: 0, 0>}> : () -> memref<19x8x23xf32>
          "affine.vector_store"(%237, %68, %113, %115, %34) <{map = affine_map<(d0, d1, d2) -> (d0, d1, d2)>}> : (vector<2xi1>, memref<?x?x23xi1>, index, index, index) -> ()
          %260 = "tensor.extract"(%50, %16, %17) : (tensor<?x19xf16>, index, index) -> f16
          "scf.reduce.return"(%98) : (vector<1xf16>) -> ()
        }) : (vector<1xf16>) -> ()
        "scf.yield"() : () -> ()
      }) : (index, index, index, vector<1xf16>) -> vector<1xf16>
      %217 = "vector.multi_reduction"(%98, %98) <{kind = #vector.kind<add>, reduction_dims = []}> : (vector<1xf16>, vector<1xf16>) -> vector<1xf16>
      %218 = "bufferization.to_tensor"(%70) : (memref<3x19xi1>) -> tensor<3x19xi1>
      %219 = "arith.floordivsi"(%12, %12) : (i1, i1) -> i1
      %220 = "arith.mulf"(%112, %117) <{fastmath = #arith.fastmath<none>}> : (f32, f32) -> f32
      %221 = "index.casts"(%12) : (i1) -> index
      %222 = "index.ceildivs"(%30, %113) : (index, index) -> index
      %223 = "vector.broadcast"(%116) : (i1) -> vector<2xi1>
      "vector.compressstore"(%124, %28, %21, %36, %223, %121) : (memref<19x8x23xi32>, index, index, index, vector<2xi1>, vector<2xi32>) -> ()
      %224 = "scf.parallel"(%21, %30, %25, %13) <{operandSegmentSizes = array<i32: 1, 1, 1, 1>}> ({
      ^bb0(%arg3: index):
        %234 = "index.maxs"(%27, %18) : (index, index) -> index
        %235 = "tensor.dim"(%52, %16) : (tensor<?x3xf32>, index) -> index
        %236 = "math.log1p"(%14) <{fastmath = #arith.fastmath<none>}> : (f16) -> f16
        %237 = "vector.broadcast"(%5) : (f32) -> vector<8xf32>
        %238 = "vector.broadcast"(%7) : (i1) -> vector<8xi1>
        %239 = "vector.maskedload"(%69, %18, %22, %238, %237) : (memref<3x19xf32>, index, index, vector<8xi1>, vector<8xf32>) -> vector<8xf32>
        %240 = "bufferization.clone"(%66) : (memref<3x19xi16>) -> memref<3x19xi16>
        %241 = "tensor.empty"() : () -> tensor<19x8xi32>
        %242 = "math.fpowi"(%62, %241) <{fastmath = #arith.fastmath<none>}> : (tensor<19x8xf16>, tensor<19x8xi32>) -> tensor<19x8xf16>
        %243 = "vector.mask"(%238) ({
          %256 = "vector.multi_reduction"(%238, %238) <{kind = #vector.kind<mul>, reduction_dims = []}> : (vector<8xi1>, vector<8xi1>) -> vector<8xi1>
          "vector.yield"(%256) : (vector<8xi1>) -> ()
        }) : (vector<8xi1>) -> vector<8xi1>
        %244 = "vector.broadcast"(%6) : (i64) -> vector<19x8xi64>
        %245 = "vector.broadcast"(%8) : (i64) -> vector<8xi64>
        %246:2 = "vector.scan"(%244, %245) <{inclusive = true, kind = #vector.kind<add>, reduction_dim = 0 : i64}> : (vector<19x8xi64>, vector<8xi64>) -> (vector<19x8xi64>, vector<8xi64>)
        %247 = "vector.matrix_multiply"(%103, %98) <{lhs_columns = 1 : i32, lhs_rows = 1 : i32, rhs_columns = 1 : i32}> : (vector<1xf16>, vector<1xf16>) -> vector<1xf16>
        %248 = "vector.bitcast"(%239) : (vector<8xf32>) -> vector<8xf32>
        %249 = "arith.constant"() <{value = 0.000000e+00 : f32}> : () -> f32
        %250 = "vector.transfer_read"(%56, %81, %20, %249) <{operandSegmentSizes = array<i32: 1, 2, 1, 0>, permutation_map = affine_map<(d0, d1) -> (d0)>}> : (tensor<?x19xf32>, index, index, f32) -> vector<19xf32>
        %251 = "arith.xori"(%7, %116) : (i1, i1) -> i1
        %252 = "arith.xori"(%12, %114) : (i1, i1) -> i1
        %253 = "math.round"(%49) <{fastmath = #arith.fastmath<none>}> : (tensor<19x3xf16>) -> tensor<19x3xf16>
        %254 = "vector.matrix_multiply"(%103, %247) <{lhs_columns = 1 : i32, lhs_rows = 1 : i32, rhs_columns = 1 : i32}> : (vector<1xf16>, vector<1xf16>) -> vector<1xf16>
        %255 = "vector.broadcast"(%9) : (i16) -> vector<3x19xi16>
        "scf.reduce"(%13) ({
        ^bb0(%arg4: i16, %arg5: i16):
          %256 = "arith.floordivsi"(%94, %94) : (i1, i1) -> i1
          %257 = "tensor.from_elements"(%10, %10, %10, %10, %10, %10, %10, %10, %10, %10, %10, %10, %10, %10, %10, %10, %10, %10, %10, %10, %10, %10, %10, %10, %10, %10, %10, %10, %10, %10, %10, %10, %10, %10, %10, %10, %10, %10, %10, %10, %10, %10, %10, %10, %10, %10, %10, %10, %10, %10, %10, %10, %10, %10, %10, %10, %10) : (i32, i32, i32, i32, i32, i32, i32, i32, i32, i32, i32, i32, i32, i32, i32, i32, i32, i32, i32, i32, i32, i32, i32, i32, i32, i32, i32, i32, i32, i32, i32, i32, i32, i32, i32, i32, i32, i32, i32, i32, i32, i32, i32, i32, i32, i32, i32, i32, i32, i32, i32, i32, i32, i32, i32, i32, i32) -> tensor<19x3xi32>
          %258 = "index.maxu"(%44, %35) : (index, index) -> index
          %259 = "math.cttz"(%105) : (i1) -> i1
          %260 = "arith.remf"(%118, %1) <{fastmath = #arith.fastmath<none>}> : (f32, f32) -> f32
          %261 = "arith.divf"(%110, %110) <{fastmath = #arith.fastmath<none>}> : (f16, f16) -> f16
          %262 = "math.powf"(%54, %54) <{fastmath = #arith.fastmath<none>}> : (tensor<19x8x23xf16>, tensor<19x8x23xf16>) -> tensor<19x8x23xf16>
          %263 = "math.ctlz"(%15) : (i16) -> i16
          "scf.reduce.return"(%15) : (i16) -> ()
        }) : (i16) -> ()
        "scf.yield"() : () -> ()
      }) : (index, index, index, i16) -> i16
      %225 = "vector.broadcast"(%arg2) : (i1) -> vector<2xi1>
      "vector.compressstore"(%124, %29, %18, %30, %225, %121) : (memref<19x8x23xi32>, index, index, index, vector<2xi1>, vector<2xi32>) -> ()
      %226 = "vector.broadcast"(%118) : (f32) -> vector<19x3xf32>
      %227 = "vector.fma"(%226, %226, %226) : (vector<19x3xf32>, vector<19x3xf32>, vector<19x3xf32>) -> vector<19x3xf32>
      %228 = "index.floordivs"(%30, %45) : (index, index) -> index
      %229 = "tensor.generate"(%45) ({
      ^bb0(%arg3: index, %arg4: index):
        %234 = "math.exp2"(%110) <{fastmath = #arith.fastmath<none>}> : (f16) -> f16
        "memref.store"(%13, %76, %31, %18, %23) <{nontemporal = false}> : (i16, memref<19x8x23xi16>, index, index, index) -> ()
        %235 = "memref.alloc"() <{operandSegmentSizes = array<i32: 0, 0>}> : () -> memref<19x8xf16>
        "memref.tensor_store"(%62, %235) : (tensor<19x8xf16>, memref<19x8xf16>) -> ()
        %236 = "tensor.from_elements"(%8, %8, %8, %6, %8, %6, %6, %8, %8, %6, %6, %8, %6, %6, %8, %8, %6, %8, %8, %8, %6, %6, %8, %8, %6, %6, %8, %6, %6, %8, %6, %6, %6, %8, %8, %6, %6, %6, %8, %6, %8, %8, %8, %6, %8, %8, %8, %8, %6, %6, %6, %8, %6, %6, %8, %6, %6, %8, %6, %8, %6, %8, %8, %6, %8, %8, %8, %6, %8, %6, %6, %6, %8, %8, %8, %6, %6, %8, %6, %8, %6, %8, %6, %6, %8, %6, %6, %8, %6, %6, %8, %6, %6, %8, %8, %8, %6, %8, %8, %8, %8, %8, %6, %6, %8, %8, %8, %8, %8, %8, %6, %6, %8, %6, %8, %8, %6, %6, %8, %8, %8, %6, %6, %8, %6, %6, %6, %8, %6, %6, %8, %8, %8, %6, %6, %6, %8, %8, %6, %6, %6, %6, %8, %6, %8, %6, %8, %6, %8, %8, %8, %6) : (i64, i64, i64, i64, i64, i64, i64, i64, i64, i64, i64, i64, i64, i64, i64, i64, i64, i64, i64, i64, i64, i64, i64, i64, i64, i64, i64, i64, i64, i64, i64, i64, i64, i64, i64, i64, i64, i64, i64, i64, i64, i64, i64, i64, i64, i64, i64, i64, i64, i64, i64, i64, i64, i64, i64, i64, i64, i64, i64, i64, i64, i64, i64, i64, i64, i64, i64, i64, i64, i64, i64, i64, i64, i64, i64, i64, i64, i64, i64, i64, i64, i64, i64, i64, i64, i64, i64, i64, i64, i64, i64, i64, i64, i64, i64, i64, i64, i64, i64, i64, i64, i64, i64, i64, i64, i64, i64, i64, i64, i64, i64, i64, i64, i64, i64, i64, i64, i64, i64, i64, i64, i64, i64, i64, i64, i64, i64, i64, i64, i64, i64, i64, i64, i64, i64, i64, i64, i64, i64, i64, i64, i64, i64, i64, i64, i64, i64, i64, i64, i64, i64, i64) -> tensor<19x8xi64>
        "tensor.yield"(%11) : (f16) -> ()
      }) : (index) -> tensor<?x3xf16>
      %230 = "math.rsqrt"(%0) <{fastmath = #arith.fastmath<none>}> : (f32) -> f32
      %231 = "math.tanh"(%123) <{fastmath = #arith.fastmath<none>}> : (f32) -> f32
      %232 = "tensor.cast"(%63) : (tensor<19x8xf32>) -> tensor<?x?xf32>
      %233 = "tensor.empty"(%21, %25) : (index, index) -> tensor<?x?xf16>
      "scf.yield"(%233) : (tensor<?x?xf16>) -> ()
    }, {
      %216 = "math.exp"(%110) <{fastmath = #arith.fastmath<none>}> : (f16) -> f16
      %217 = "arith.divf"(%117, %112) <{fastmath = #arith.fastmath<none>}> : (f32, f32) -> f32
      %218 = "arith.mulf"(%110, %110) <{fastmath = #arith.fastmath<none>}> : (f16, f16) -> f16
      %219 = "scf.index_switch"(%37) <{cases = array<i64: 1>}> ({
        %235 = "math.round"(%49) <{fastmath = #arith.fastmath<none>}> : (tensor<19x3xf16>) -> tensor<19x3xf16>
        %236 = "math.floor"(%56) <{fastmath = #arith.fastmath<none>}> : (tensor<?x19xf32>) -> tensor<?x19xf32>
        %237 = "vector.broadcast"(%108) : (index) -> vector<19xindex>
        %238 = "vector.broadcast"(%114) : (i1) -> vector<19xi1>
        %239 = "vector.broadcast"(%118) : (f32) -> vector<19xf32>
        "vector.scatter"(%64, %16, %17, %237, %238, %239) : (memref<?x3xf32>, index, index, vector<19xindex>, vector<19xi1>, vector<19xf32>) -> ()
        %240 = "tensor.dim"(%arg0, %16) : (tensor<?x?xf16>, index) -> index
        %241 = "affine.vector_load"(%79, %46, %36, %36) <{map = affine_map<(d0, d1, d2) -> (d0, d1, d2)>}> : (memref<19x8x23xf16>, index, index, index) -> vector<23xf16>
        %242 = "tensor.rank"(%59) : (tensor<?x?xi64>) -> index
        %243 = "vector.broadcast"(%7) : (i1) -> vector<19xi1>
        "vector.compressstore"(%70, %17, %17, %243, %243) : (memref<3x19xi1>, index, index, vector<19xi1>, vector<19xi1>) -> ()
        %244 = "memref.alloc"() <{operandSegmentSizes = array<i32: 0, 0>}> : () -> memref<19x3xi16>
        %245 = "vector.matrix_multiply"(%241, %241) <{lhs_columns = 23 : i32, lhs_rows = 1 : i32, rhs_columns = 1 : i32}> : (vector<23xf16>, vector<23xf16>) -> vector<1xf16>
        %246 = "affine.vector_load"(%77, %113, %108) <{map = affine_map<(d0, d1) -> (d0, d1)>}> : (memref<19x8xi32>, index, index) -> vector<8xi32>
        %247 = "math.copysign"(%53, %53) <{fastmath = #arith.fastmath<none>}> : (tensor<19x3xf16>, tensor<19x3xf16>) -> tensor<19x3xf16>
        %248 = "index.ceildivu"(%35, %39) : (index, index) -> index
        %249 = "arith.addf"(%5, %2) <{fastmath = #arith.fastmath<none>}> : (f32, f32) -> f32
        %250 = "arith.addf"(%0, %2) <{fastmath = #arith.fastmath<none>}> : (f32, f32) -> f32
        %251 = "math.cos"(%91) <{fastmath = #arith.fastmath<none>}> : (f32) -> f32
        %252 = "tensor.empty"() : () -> tensor<19x8x19xi64>
        %253 = "linalg.broadcast"(%57, %252) <{dimensions = array<i64: 2>}> ({
        ^bb0(%arg3: i64, %arg4: i64):
          "linalg.yield"(%arg3) : (i64) -> ()
        }) : (tensor<19x8xi64>, tensor<19x8x19xi64>) -> tensor<19x8x19xi64>
        "scf.yield"(%5) : (f32) -> ()
      }, {
        %235 = "arith.remf"(%106, %3) <{fastmath = #arith.fastmath<none>}> : (f32, f32) -> f32
        %236 = "math.exp"(%125) <{fastmath = #arith.fastmath<none>}> : (f32) -> f32
        %237 = "memref.alloca"(%38, %34) <{operandSegmentSizes = array<i32: 2, 0>}> : (index, index) -> memref<?x?xi32>
        %238 = "arith.addf"(%117, %112) <{fastmath = #arith.fastmath<none>}> : (f32, f32) -> f32
        %239 = "index.ceildivu"(%30, %31) : (index, index) -> index
        %240 = "math.exp"(%61) <{fastmath = #arith.fastmath<none>}> : (tensor<?x8x23xf16>) -> tensor<?x8x23xf16>
        %241 = "tensor.empty"() : () -> tensor<8x23xi64>
        %242 = "tensor.empty"() : () -> tensor<19x23xi64>
        %243 = "linalg.matmul"(%57, %241, %242) <{operandSegmentSizes = array<i32: 2, 1>}> ({
        ^bb0(%arg3: i64, %arg4: i64, %arg5: i64):
          %255 = "arith.muli"(%arg3, %arg4) : (i64, i64) -> i64
          %256 = "arith.addi"(%arg5, %255) : (i64, i64) -> i64
          "linalg.yield"(%256) : (i64) -> ()
        }) {linalg.memoized_indexing_maps = [affine_map<(d0, d1, d2) -> (d0, d2)>, affine_map<(d0, d1, d2) -> (d2, d1)>, affine_map<(d0, d1, d2) -> (d0, d1)>]} : (tensor<19x8xi64>, tensor<8x23xi64>, tensor<19x23xi64>) -> tensor<19x23xi64>
        %244 = "index.shl"(%28, %38) : (index, index) -> index
        %245 = "vector.broadcast"(%94) : (i1) -> vector<2xi1>
        %246 = "vector.mask"(%245) ({
          %255 = "vector.multi_reduction"(%121, %121) <{kind = #vector.kind<minsi>, reduction_dims = []}> : (vector<2xi32>, vector<2xi32>) -> vector<2xi32>
          "vector.yield"(%255) : (vector<2xi32>) -> ()
        }) : (vector<2xi1>) -> vector<2xi32>
        %247 = "math.ctpop"(%58) : (tensor<3x19xi1>) -> tensor<3x19xi1>
        %248 = "index.maxu"(%34, %33) : (index, index) -> index
        %249 = "vector.matrix_multiply"(%245, %245) <{lhs_columns = 2 : i32, lhs_rows = 1 : i32, rhs_columns = 1 : i32}> : (vector<2xi1>, vector<2xi1>) -> vector<1xi1>
        %250 = "arith.xori"(%6, %8) : (i64, i64) -> i64
        %251 = "vector.broadcast"(%14) : (f16) -> vector<1x1xf16>
        %252 = "vector.outerproduct"(%103, %98, %251) <{kind = #vector.kind<minf>}> : (vector<1xf16>, vector<1xf16>, vector<1x1xf16>) -> vector<1x1xf16>
        %253 = "vector.multi_reduction"(%103, %110) <{kind = #vector.kind<maxf>, reduction_dims = [0]}> : (vector<1xf16>, f16) -> f16
        %254 = "index.shl"(%29, %127) : (index, index) -> index
        "scf.yield"(%117) : (f32) -> ()
      }) : (index) -> f32
      %220 = "vector.reduction"(%98) <{fastmath = #arith.fastmath<none>, kind = #vector.kind<minf>}> : (vector<1xf16>) -> f16
      %221 = "index.bool.constant"() <{value = false}> : () -> i1
      %222 = "tensor.empty"() : () -> tensor<19x3xi32>
      %223 = "math.fpowi"(%53, %222) <{fastmath = #arith.fastmath<none>}> : (tensor<19x3xf16>, tensor<19x3xi32>) -> tensor<19x3xf16>
      %224 = "math.log1p"(%54) <{fastmath = #arith.fastmath<none>}> : (tensor<19x8x23xf16>) -> tensor<19x8x23xf16>
      %225 = "vector.broadcast"(%88) : (i16) -> vector<8xi16>
      %226 = "vector.broadcast"(%114) : (i1) -> vector<8xi1>
      "vector.compressstore"(%76, %21, %17, %27, %226, %225) : (memref<19x8x23xi16>, index, index, index, vector<8xi1>, vector<8xi16>) -> ()
      %227 = "arith.cmpi"(%94, %221) <{predicate = 8 : i64}> : (i1, i1) -> i1
      "scf.index_switch"(%32) <{cases = array<i64: 1, 2, 3>}> ({
        %235 = "tensor.empty"() : () -> tensor<19x8x23x8xf16>
        %236 = "linalg.broadcast"(%79, %235) <{dimensions = array<i64: 3>}> ({
        ^bb0(%arg3: f16, %arg4: f16):
          "linalg.yield"(%arg3) : (f16) -> ()
        }) : (memref<19x8x23xf16>, tensor<19x8x23x8xf16>) -> tensor<19x8x23x8xf16>
        %237 = "index.xor"(%97, %115) : (index, index) -> index
        %238 = "vector.transpose"(%98) <{transp = [0]}> : (vector<1xf16>) -> vector<1xf16>
        %239 = "vector.broadcast"(%110) : (f16) -> vector<3xf16>
        %240 = "vector.broadcast"(%arg2) : (i1) -> vector<3xi1>
        %241 = "vector.maskedload"(%78, %24, %19, %240, %239) : (memref<19x8xf16>, index, index, vector<3xi1>, vector<3xf16>) -> vector<3xf16>
        "memref.store"(%10, %74, %25, %22, %18) <{nontemporal = false}> : (i32, memref<19x8x23xi32>, index, index, index) -> ()
        %242 = "index.xor"(%102, %35) : (index, index) -> index
        %243 = "vector.matrix_multiply"(%240, %240) <{lhs_columns = 3 : i32, lhs_rows = 1 : i32, rhs_columns = 1 : i32}> : (vector<3xi1>, vector<3xi1>) -> vector<1xi1>
        %244 = "tensor.from_elements"(%116, %114, %114, %105, %12, %105, %114, %7, %105, %94, %105, %105, %arg2, %arg2, %arg2, %221, %105, %221, %94, %116, %7, %114, %105, %12, %94, %114, %105, %116, %221, %221, %105, %116, %105, %12, %7, %105, %94, %7, %221, %221, %7, %12, %116, %12, %221, %114, %arg2, %105, %7, %94, %116, %105, %7, %arg2, %12, %94, %105) : (i1, i1, i1, i1, i1, i1, i1, i1, i1, i1, i1, i1, i1, i1, i1, i1, i1, i1, i1, i1, i1, i1, i1, i1, i1, i1, i1, i1, i1, i1, i1, i1, i1, i1, i1, i1, i1, i1, i1, i1, i1, i1, i1, i1, i1, i1, i1, i1, i1, i1, i1, i1, i1, i1, i1, i1, i1) -> tensor<19x3xi1>
        %245 = "arith.mulf"(%14, %110) <{fastmath = #arith.fastmath<none>}> : (f16, f16) -> f16
        %246 = "tensor.collapse_shape"(%60) <{reassociation = [[0, 1]]}> : (tensor<?x8xi1>) -> tensor<?xi1>
        %247 = "memref.alloc"() <{operandSegmentSizes = array<i32: 0, 0>}> : () -> memref<19x8xi64>
        "memref.tensor_store"(%57, %247) : (tensor<19x8xi64>, memref<19x8xi64>) -> ()
        %248 = "tensor.extract"(%60, %16, %17) : (tensor<?x8xi1>, index, index) -> i1
        %249 = "math.atan"(%53) <{fastmath = #arith.fastmath<none>}> : (tensor<19x3xf16>) -> tensor<19x3xf16>
        %250 = "vector.broadcast"(%110) : (f16) -> vector<1x1xf16>
        %251 = "vector.outerproduct"(%98, %103, %250) <{kind = #vector.kind<maxf>}> : (vector<1xf16>, vector<1xf16>, vector<1x1xf16>) -> vector<1x1xf16>
        %252 = "vector.broadcast"(%14) : (f16) -> vector<8xf16>
        %253 = "vector.broadcast"(%221) : (i1) -> vector<8xi1>
        %254 = "vector.maskedload"(%65, %16, %16, %253, %252) : (memref<?x?xf16>, index, index, vector<8xi1>, vector<8xf16>) -> vector<8xf16>
        %255 = "affine.vector_load"(%72, %43, %33) <{map = affine_map<(d0, d1) -> (d0, d1)>}> : (memref<?x19xf16>, index, index) -> vector<19xf16>
        "scf.yield"() : () -> ()
      }, {
        %235 = "arith.minui"(%arg2, %12) : (i1, i1) -> i1
        %236 = "bufferization.to_memref"(%58) : (tensor<3x19xi1>) -> memref<3x19xi1>
        %237 = "tensor.empty"() : () -> tensor<8xf32>
        %238 = "memref.alloc"() <{operandSegmentSizes = array<i32: 0, 0>}> : () -> memref<8xf32>
        %239 = "tensor.empty"() : () -> tensor<f32>
        %240 = "linalg.dot"(%237, %238, %239) <{operandSegmentSizes = array<i32: 2, 1>}> ({
        ^bb0(%arg3: f32, %arg4: f32, %arg5: f32):
          %254 = "arith.mulf"(%arg3, %arg4) <{fastmath = #arith.fastmath<none>}> : (f32, f32) -> f32
          %255 = "arith.addf"(%arg5, %254) <{fastmath = #arith.fastmath<none>}> : (f32, f32) -> f32
          "linalg.yield"(%255) : (f32) -> ()
        }) {linalg.memoized_indexing_maps = [affine_map<(d0) -> (d0)>, affine_map<(d0) -> (d0)>, affine_map<(d0) -> ()>]} : (tensor<8xf32>, memref<8xf32>, tensor<f32>) -> tensor<f32>
        %241 = "bufferization.to_tensor"(%79) : (memref<19x8x23xf16>) -> tensor<19x8x23xf16>
        %242 = "memref.alloca"(%22) <{operandSegmentSizes = array<i32: 1, 0>}> : (index) -> memref<?x8x23xi1>
        %243 = "math.roundeven"(%5) <{fastmath = #arith.fastmath<none>}> : (f32) -> f32
        %244 = "bufferization.clone"(%236) : (memref<3x19xi1>) -> memref<3x19xi1>
        "memref.tensor_store"(%52, %64) : (tensor<?x3xf32>, memref<?x3xf32>) -> ()
        %245 = "arith.mulf"(%0, %5) <{fastmath = #arith.fastmath<none>}> : (f32, f32) -> f32
        %246 = "index.floordivs"(%16, %18) : (index, index) -> index
        %247 = "vector.extract"(%98) <{static_position = array<i64: 0>}> : (vector<1xf16>) -> f16
        %248 = "index.shl"(%42, %33) : (index, index) -> index
        %249 = "vector.create_mask"(%32, %31, %246) : (index, index, index) -> vector<19x8x23xi1>
        %250 = "arith.remui"(%105, %105) : (i1, i1) -> i1
        %251 = "affine.min"(%35) <{map = affine_map<(d0) -> ((d0 mod 128) * 8)>}> : (index) -> index
        %252 = "vector.broadcast"(%arg2) : (i1) -> vector<8x23x8x23xi1>
        %253 = "vector.contract"(%249, %249, %252) <{indexing_maps = [affine_map<(d0, d1, d2, d3, d4) -> (d4, d0, d1)>, affine_map<(d0, d1, d2, d3, d4) -> (d4, d2, d3)>, affine_map<(d0, d1, d2, d3, d4) -> (d0, d1, d2, d3)>], iterator_types = [#vector.iterator_type<parallel>, #vector.iterator_type<parallel>, #vector.iterator_type<parallel>, #vector.iterator_type<parallel>, #vector.iterator_type<reduction>], kind = #vector.kind<maxsi>}> : (vector<19x8x23xi1>, vector<19x8x23xi1>, vector<8x23x8x23xi1>) -> vector<8x23x8x23xi1>
        "scf.yield"() : () -> ()
      }, {
        %235 = "math.cttz"(%12) : (i1) -> i1
        %236 = "arith.subi"(%105, %105) : (i1, i1) -> i1
        %237 = "math.round"(%49) <{fastmath = #arith.fastmath<none>}> : (tensor<19x3xf16>) -> tensor<19x3xf16>
        %238 = "math.round"(%53) <{fastmath = #arith.fastmath<none>}> : (tensor<19x3xf16>) -> tensor<19x3xf16>
        %239 = "memref.cast"(%66) : (memref<3x19xi16>) -> memref<?x19xi16>
        %240 = "arith.addi"(%116, %105) : (i1, i1) -> i1
        %241 = "math.log1p"(%63) <{fastmath = #arith.fastmath<none>}> : (tensor<19x8xf32>) -> tensor<19x8xf32>
        %242 = "arith.cmpi"(%114, %105) <{predicate = 8 : i64}> : (i1, i1) -> i1
        "bufferization.dealloc_tensor"(%62) : (tensor<19x8xf16>) -> ()
        %243 = "arith.constant"() <{value = 1.18566682E+9 : f32}> : () -> f32
        %244 = "math.tanh"(%4) <{fastmath = #arith.fastmath<none>}> : (f32) -> f32
        %245 = "index.sizeof"() : () -> index
        %246 = "arith.floordivsi"(%116, %221) : (i1, i1) -> i1
        %247 = "tensor.insert"(%1, %56, %16, %32) : (f32, tensor<?x19xf32>, index, index) -> tensor<?x19xf32>
        %248 = "vector.broadcast"(%91) : (f32) -> vector<19x3xf32>
        %249 = "math.atan2"(%54, %54) <{fastmath = #arith.fastmath<none>}> : (tensor<19x8x23xf16>, tensor<19x8x23xf16>) -> tensor<19x8x23xf16>
        "scf.yield"() : () -> ()
      }, {
        %235 = "index.add"(%16, %101) : (index, index) -> index
        %236 = "math.tanh"(%2) <{fastmath = #arith.fastmath<none>}> : (f32) -> f32
        %237 = "vector.create_mask"(%37, %102) : (index, index) -> vector<3x19xi1>
        %238 = "vector.flat_transpose"(%121) <{columns = 1 : i32, rows = 2 : i32}> : (vector<2xi32>) -> vector<2xi32>
        %239 = "vector.broadcast"(%24) : (index) -> vector<23xindex>
        %240 = "vector.broadcast"(%221) : (i1) -> vector<23xi1>
        %241 = "vector.broadcast"(%11) : (f16) -> vector<23xf16>
        "vector.scatter"(%79, %29, %20, %24, %239, %240, %241) : (memref<19x8x23xf16>, index, index, index, vector<23xindex>, vector<23xi1>, vector<23xf16>) -> ()
        %242 = "memref.alloc"() <{operandSegmentSizes = array<i32: 0, 0>}> : () -> memref<19x8x23xf16>
        %243 = "tensor.from_elements"(%8, %6, %6, %6, %6, %8, %8, %6, %8, %6, %8, %8, %8, %6, %6, %6, %6, %8, %6, %6, %8, %6, %8, %6, %6, %8, %8, %8, %8, %8, %8, %8, %6, %6, %8, %8, %8, %8, %6, %6, %8, %8, %6, %6, %6, %8, %8, %6, %6, %6, %6, %8, %6, %8, %8, %6, %8, %6, %6, %6, %8, %8, %8, %6, %8, %6, %8, %6, %6, %6, %6, %6, %6, %6, %6, %8, %6, %8, %8, %8, %8, %8, %6, %6, %6, %6, %6, %6, %6, %6, %8, %8, %6, %6, %6, %8, %8, %6, %8, %6, %6, %6, %8, %8, %6, %8, %8, %6, %8, %8, %8, %6, %8, %6, %6, %6, %8, %8, %6, %6, %6, %6, %6, %6, %6, %6, %6, %8, %8, %8, %6, %6, %8, %8, %8, %6, %8, %6, %8, %6, %6, %8, %6, %8, %6, %8, %6, %8, %6, %8, %6, %8, %6, %6, %6, %6, %6, %8, %6, %6, %6, %6, %6, %6, %6, %8, %8, %8, %6, %6, %8, %8, %8, %8, %6, %6, %6, %6, %6, %6, %8, %6, %6, %6, %6, %8, %8, %6, %8, %6, %8, %8, %6, %6, %8, %6, %6, %6, %8, %8, %8, %6, %8, %8, %6, %6, %8, %6, %8, %6, %8, %6, %8, %6, %8, %6, %6, %8, %8, %6, %8, %6, %8, %8, %8, %8, %6, %8, %8, %8, %6, %8, %6, %6, %6, %6, %6, %8, %6, %6, %6, %8, %6, %8, %8, %8, %6, %8, %6, %8, %8, %8, %8, %8, %8, %8, %8, %8, %8, %6, %6, %8, %6, %6, %6, %8, %6, %8, %8, %8, %6, %8, %6, %8, %6, %6, %8, %8, %8, %8, %8, %8, %8, %8, %8, %8, %6, %8, %8, %8, %8, %8, %8, %8, %6, %6, %6, %6, %6, %8, %6, %8, %8, %8, %6, %8, %6, %8, %6, %6, %6, %8, %8, %6, %6, %6, %6, %8, %6, %6, %8, %6, %8, %6, %8, %8, %6, %6, %8, %6, %6, %6, %8, %8, %8, %6, %8, %8, %6, %8, %6, %8, %6, %8, %8, %6, %8, %8, %8, %6, %8, %8, %6, %8, %8, %6, %6, %6, %6, %8, %6, %8, %6, %6, %8, %8, %6, %8, %8, %8, %8, %6, %6, %6, %6, %8, %8, %6, %8, %6, %6, %8, %8, %6, %6, %8, %6, %8, %6, %6, %6, %6, %6, %6, %6, %6, %8, %6, %8, %8, %6, %8, %6, %8, %8, %6, %6, %8, %8, %6, %8, %6, %8, %8, %6, %8, %8, %8, %6, %6, %8, %8, %6, %8, %6, %8, %8, %6, %8, %6, %8, %8, %6, %8, %6, %6, %6, %6, %6, %6, %8, %8, %8, %8, %6, %8, %8, %8, %6, %8, %8, %8, %8, %6, %6, %8, %6, %6, %6, %6, %6, %6, %6, %6, %8, %6, %6, %8, %6, %6, %6, %6, %6, %8, %8, %6, %8, %6, %6, %6, %8, %8, %6, %8, %8, %8, %8, %8, %6, %8, %6, %6, %6, %8, %6, %8, %8, %6, %6, %6, %8, %8, %8, %8, %8, %6, %8, %8, %6, %8, %8, %8, %6, %6, %8, %8, %6, %6, %8, %8, %8, %6, %8, %6, %6, %8, %8, %8, %6, %8, %6, %8, %8, %8, %6, %8, %6, %8, %8, %8, %8, %6, %8, %6, %6, %6, %8, %6, %6, %8, %8, %8, %8, %8, %8, %8, %6, %8, %6, %8, %6, %8, %8, %8, %8, %6, %6, %6, %6, %8, %6, %6, %8, %6, %8, %8, %6, %6, %6, %8, %6, %6, %6, %8, %8, %6, %6, %6, %6, %6, %8, %8, %6, %8, %8, %8, %8, %8, %8, %8, %6, %8, %6, %8, %6, %8, %6, %8, %6, %6, %8, %8, %8, %8, %6, %6, %8, %6, %6, %8, %6, %6, %8, %8, %6, %8, %6, %8, %8, %6, %6, %6, %8, %8, %6, %6, %8, %8, %6, %6, %8, %6, %6, %6, %8, %6, %8, %8, %8, %8, %6, %8, %6, %8, %6, %6, %8, %6, %6, %6, %8, %8, %8, %6, %6, %8, %6, %8, %8, %6, %8, %6, %6, %8, %8, %6, %6, %8, %6, %8, %6, %6, %6, %8, %8, %8, %8, %8, %6, %8, %6, %6, %6, %8, %8, %8, %6, %6, %6, %6, %6, %6, %6, %6, %8, %6, %8, %8, %8, %6, %6, %6, %8, %8, %6, %8, %8, %8, %6, %6, %8, %8, %6, %6, %8, %6, %8, %6, %6, %6, %6, %8, %6, %8, %6, %8, %8, %6, %8, %8, %6, %8, %8, %6, %6, %6, %8, %8, %8, %8, %6, %8, %8, %8, %8, %6, %8, %6, %8, %8, %6, %6, %6, %6, %6, %6, %6, %8, %6, %8, %6, %6, %6, %8, %8, %8, %8, %8, %8, %6, %8, %8, %6, %6, %8, %6, %6, %8, %8, %6, %8, %8, %8, %8, %6, %8, %6, %8, %6, %6, %8, %8, %8, %8, %6, %8, %8, %6, %8, %6, %8, %8, %8, %8, %8, %8, %6, %6, %6, %6, %8, %6, %6, %6, %8, %6, %8, %6, %8, %8, %8, %6, %6, %8, %6, %8, %8, %8, %6, %6, %8, %6, %6, %6, %8, %8, %6, %8, %8, %8, %6, %8, %6, %6, %6, %6, %6, %6, %6, %6, %6, %6, %6, %6, %6, %6, %6, %8, %6, %6, %8, %8, %6, %6, %6, %6, %8, %8, %6, %6, %8, %6, %6, %8, %6, %6, %6, %6, %8, %8, %6, %8, %8, %6, %6, %8, %6, %6, %6, %6, %8, %8, %6, %8, %8, %6, %8, %6, %6, %6, %6, %6, %8, %8, %6, %6, %6, %6, %6, %8, %6, %6, %6, %8, %6, %6, %8, %6, %8, %8, %8, %8, %8, %8, %6, %6, %8, %6, %6, %6, %8, %6, %8, %8, %6, %6, %6, %6, %6, %8, %8, %6, %6, %6, %6, %8, %8, %6, %6, %6, %6, %6, %8, %8, %6, %8, %6, %6, %6, %6, %8, %6, %8, %6, %6, %6, %8, %6, %6, %8, %6, %6, %6, %6, %8, %8, %6, %6, %6, %6, %8, %6, %6, %8, %6, %6, %8, %6, %6, %8, %6, %6, %8, %8, %8, %6, %8, %6, %8, %8, %6, %8, %6, %6, %8, %6, %6, %6, %6, %8, %8, %8, %8, %8, %8, %8, %6, %6, %8, %8, %6, %6, %8, %6, %8, %8, %6, %8, %6, %6, %8, %8, %6, %6, %6, %6, %6, %8, %6, %6, %6, %6, %6, %8, %8, %6, %8, %6, %6, %6, %8, %8, %6, %6, %8, %6, %6, %8, %6, %6, %6, %6, %8, %6, %6, %8, %8, %6, %6, %6, %6, %6, %6, %6, %6, %6, %6, %8, %6, %6, %8, %8, %6, %6, %8, %6, %6, %6, %6, %8, %6, %6, %6, %8, %6, %8, %6, %6, %6, %8, %6, %6, %8, %6, %8, %8, %6, %8, %6, %8, %8, %6, %6, %6, %6, %6, %6, %6, %8, %8, %6, %6, %6, %8, %6, %8, %8, %8, %8, %6, %8, %8, %8, %6, %6, %6, %6, %8, %6, %6, %6, %8, %8, %8, %8, %6, %6, %6, %8, %8, %6, %8, %6, %8, %6, %6, %8, %8, %6, %6, %6, %6, %6, %8, %8, %6, %8, %8, %6, %8, %6, %8, %8, %8, %8, %8, %6, %8, %8, %8, %6, %8, %8, %8, %6, %8, %6, %6, %8, %6, %8, %8, %6, %6, %6, %6, %8, %6, %8, %8, %8, %8, %6, %6, %8, %6, %6, %6, %6, %8, %8, %8, %8, %8, %6, %8, %8, %8, %6, %8, %6, %6, %6, %6, %8, %8, %6, %8, %8, %6, %6, %6, %8, %8, %8, %8, %8, %6, %8, %6, %8, %8, %8, %6, %6, %8, %6, %8, %8, %8, %8, %6, %8, %6, %8, %8, %6, %6, %8, %6, %8, %8, %6, %8, %6, %6, %6, %6, %6, %8, %8, %6, %6, %6, %8, %8, %6, %8, %6, %6, %6, %6, %6, %8, %8, %6, %6, %6, %6, %8, %8, %8, %8, %6, %8, %8, %6, %6, %6, %6, %8, %8, %6, %8, %6, %6, %8, %8, %8, %8, %8, %6, %8, %8, %8, %6, %6, %8, %6, %8, %6, %6, %6, %8, %6, %8, %6, %6, %8, %8, %6, %6, %8, %8, %8, %6, %6, %8, %8, %8, %6, %6, %8, %6, %8, %6, %6, %6, %8, %8, %8, %8, %8, %6, %8, %8, %8, %6, %8, %6, %8, %6, %6, %6, %8, %8, %8, %6, %8, %8, %8, %8, %6, %6, %6, %6, %6, %8, %6, %8, %8, %8, %6, %6, %8, %8, %6, %6, %8, %8, %6, %8, %8, %6, %6, %6, %8, %8, %6, %8, %8, %8, %6, %8, %8, %8, %6, %8, %8, %8, %6, %6, %8, %6, %6, %6, %6, %6, %6, %8, %6, %6, %8, %8, %6, %8, %6, %8, %6, %8, %6, %6, %8, %8, %6, %8, %8, %6, %8, %6, %6, %6, %6, %8, %8, %6, %6, %6, %8, %6, %6, %8, %8, %8, %6, %8, %6, %6, %8, %6, %6, %6, %8, %8, %8, %8, %8, %6, %8, %6, %6, %6, %8, %6, %6, %8, %8, %8, %8, %6, %8, %6, %8, %8, %6, %8, %8, %8, %6, %8, %6, %8, %8, %8, %6, %8, %6, %8, %8, %8, %6, %6, %6, %6, %6, %6, %6, %8, %8, %6, %8, %6, %6, %6, %6, %8, %6, %8, %6, %6, %6, %8, %6, %6, %8, %6, %6, %6, %6, %8, %6, %6, %6, %6, %8, %8, %8, %6, %6, %8, %8, %6, %6, %8, %6, %6, %6, %8, %8, %8, %6, %6, %8, %6, %8, %8, %8, %6, %6, %8, %8, %8, %8, %6, %8, %8, %6, %6, %6, %8, %6, %6, %8, %6, %6, %6, %6, %8, %8, %6, %8, %6, %8, %8, %6, %8, %6, %6, %6, %8, %6, %8, %8, %6, %8, %6, %8, %6, %8, %8, %8, %6, %6, %6, %6, %6, %6, %8, %6, %6, %8, %6, %8, %8, %8, %6, %8, %8, %6, %8, %8, %8, %6, %8, %8, %6, %6, %6, %6, %8, %6, %8, %8, %6, %6, %6, %6, %8, %8, %6, %8, %6, %8, %6, %6, %8, %8, %6, %8, %6, %6, %6, %8, %6, %8, %6, %6, %6, %8, %8, %8, %6, %6, %8, %6, %6, %6, %8, %6, %6, %8, %8, %8, %8, %6, %6, %6, %6, %8, %6, %8, %6, %6, %6, %8, %6, %8, %6, %8, %8, %6, %8, %6, %6, %6, %8, %8, %6, %6, %6, %6, %6, %6, %8, %6, %6, %6, %6, %6, %8, %6, %8, %8, %8, %8, %8, %6, %8, %6, %8, %8, %8, %8, %8, %8, %6, %8, %6, %6, %6, %8, %8, %8, %8, %8, %6, %8, %8, %8, %6, %6, %6, %6, %6, %6, %6, %6, %6, %8, %8, %8, %6, %8, %8, %8, %6, %8, %8, %8, %6, %6, %6, %8, %6, %8, %8, %8, %8, %8, %6, %8, %6, %6, %6, %8, %8, %6, %6, %6, %8, %6, %6, %6, %6, %8, %8, %6, %6, %6, %8, %6, %8, %6, %8, %8, %8, %8, %6, %6, %6, %8, %8, %6, %8, %6, %8, %8, %8, %8, %8, %6, %8, %6, %8, %8, %6, %8, %6, %6, %8, %8, %8, %8, %6, %6, %6, %6, %8, %6, %6, %6, %6, %6, %8, %8, %8, %8, %6, %8, %6, %6, %8, %8, %8, %8, %6, %6, %8, %6, %8, %6, %8, %6, %8, %6, %8, %8, %6, %6, %8, %8, %8, %6, %6, %6, %8, %8, %6, %6, %8, %6, %6, %6, %8, %6, %8, %6, %8, %6, %8, %6, %8, %8, %8, %8, %8, %8, %8, %8, %8, %8, %6, %8, %8, %8, %6, %8, %8, %8, %8, %6, %8, %8, %8, %8, %6, %6, %8, %6, %8, %8, %6, %8, %6, %8, %6, %8, %6, %6, %6, %6, %8, %8, %6, %8, %6, %8, %6, %6, %8, %8, %6, %6, %6, %8, %6, %8, %6, %6, %6, %6, %8, %6, %6, %8, %6, %6, %6, %6, %6, %6, %6, %6, %8, %8, %8, %6, %6, %8, %8, %8, %6, %6, %8, %6, %6, %6, %6, %8, %6, %8, %8, %8, %6, %6, %6, %6, %6, %6, %8, %8, %6, %6, %8, %6, %8, %6, %8, %8, %8, %6, %8, %8, %8, %8, %8, %8, %8, %6, %6, %8, %6, %8, %6, %6, %8, %6, %8, %6, %6, %6, %6, %8, %8, %6, %6, %8, %8, %6, %8, %8, %8, %8, %8, %6, %8, %8, %6, %6, %6, %6, %6, %8, %6, %6, %8, %6, %8, %8, %6, %8, %6, %6, %8, %8, %6, %8, %8, %8, %8, %6, %6, %6, %8, %8, %8, %6, %6, %8, %6, %6, %8, %8, %8, %8, %8, %6, %6, %6, %6, %6, %8, %6, %6, %8, %8, %6, %8, %8, %6, %6, %6, %6, %8, %8, %8, %6, %8, %8, %8, %8, %6, %6, %8, %6, %6, %6, %8, %8, %6, %8, %8, %8, %8, %8, %8, %6, %6, %6, %6, %8, %8, %6, %8, %6, %6, %6, %6, %6, %6, %8, %6, %6, %8, %6, %8, %8, %8, %6, %6, %6, %8, %6, %6, %6, %8, %8, %6, %6, %8, %8, %8, %6, %6, %8, %6, %8, %8, %6, %6, %8, %8, %8, %8, %8, %8, %8, %6, %8, %6, %8, %8, %6, %6, %6, %8, %6, %6, %6, %6, %6, %8, %8, %6, %8, %6, %8, %8, %6, %8, %8, %8, %8, %6, %8, %8, %8, %8, %8, %8, %6, %6, %8, %8, %6, %8, %8, %8, %6, %6, %6, %8, %8, %8, %6, %6, %6, %8, %6, %8, %8, %6, %6, %8, %6, %6, %8, %6, %8, %6, %6, %8, %8, %6, %6, %8, %8, %6, %6, %8, %6, %6, %6, %6, %6, %8, %8, %8, %6, %8, %8, %8, %8, %8, %6, %8, %6, %8, %6, %8, %6, %8, %8, %6, %6, %8, %8, %6, %6, %8, %6, %6, %8, %6, %6, %8, %8, %8, %8, %6, %8, %6, %8, %6, %6, %6, %8, %8, %8, %8, %6, %8, %6, %8, %8, %6, %8, %8, %8, %6, %8, %6, %8, %6, %8, %6, %8, %8, %8, %8, %6, %6, %6, %6, %8, %8, %6, %6, %8, %6, %8, %8, %6, %8, %8, %6, %6, %8, %6, %6, %8, %6, %8, %8, %6, %6, %8, %8, %8, %8, %8, %6, %6, %6, %6, %8, %6, %6, %6, %6, %6, %6, %8, %8, %8, %6, %6, %6, %8, %6, %6, %6, %8, %8, %6, %8, %6, %8, %8, %8, %8, %8, %6, %8, %8, %8, %6, %6, %8, %6, %8, %6, %6, %8, %6, %6, %6, %6, %6, %8, %6, %8, %6, %6, %8, %8, %8, %8, %8, %6, %8, %6, %6, %6, %8, %6, %6, %8, %6, %6, %6, %8, %6, %6, %8, %6, %6, %6, %6, %8, %6, %6, %6, %6, %6, %6, %8, %6, %6, %8, %6, %6, %6, %8, %8, %6, %8, %8, %8, %6, %6, %8, %8, %8, %6, %6, %8, %6, %8, %6, %6, %8, %6, %8, %8, %6, %8, %8, %8, %6, %8, %8, %8, %6, %6, %6, %8, %6, %8, %6, %6, %6, %6, %8, %8, %8, %6, %8, %8, %8, %6, %6, %6, %8, %8, %6, %6, %6, %8, %8, %6, %8, %8, %6, %6, %8, %8, %6, %6, %8, %6, %8, %8, %6, %8, %6, %8, %6, %8, %8, %8, %6, %6, %6, %8, %8, %6, %6, %6, %8, %6, %8, %8, %6, %8, %6, %6, %8, %6, %6, %6, %6, %6, %8, %8, %8, %8, %8, %8, %8, %6, %8, %8, %6, %8, %6, %6, %8, %8, %6, %6, %6, %6, %6, %6, %6, %8, %8, %8, %6, %6, %8, %6, %6, %6, %6, %8, %8, %8, %8, %6, %8, %6, %6, %6, %8, %6, %6, %6, %8, %6, %6, %8, %8, %8, %8, %8, %8, %8, %6, %6, %8, %8, %6, %8, %8, %8, %8, %6, %8, %6, %8, %6, %6, %6, %8, %8, %8, %6, %8, %8, %8, %8, %6, %6, %8, %6, %8, %8, %6, %8, %6, %8, %6, %6, %8, %8, %8, %6, %8, %6, %6, %6, %8, %6, %8, %6, %8, %6, %8, %6, %6, %6, %8, %6, %6, %8, %6, %8, %8, %8, %6, %8, %8, %6, %8, %8, %8, %8, %6, %8, %8, %8, %6, %6, %6, %8, %8, %6, %8, %8, %8, %6, %8, %8, %6, %6, %8, %6, %8, %6, %6, %6, %8, %8, %6, %6, %6, %6, %8, %6, %6, %6, %8, %6, %6, %8, %8, %8, %8, %6, %6, %6, %6, %8, %8, %6, %6, %8, %6, %8, %6, %8, %8, %6, %8, %8, %8, %8, %6, %6, %6, %8, %6, %6, %8, %8, %6, %8, %6, %8, %8, %8, %6, %6, %8, %6, %8, %6, %8, %6, %8, %6, %8, %8, %6, %6, %8, %6, %6, %6, %6, %8, %8, %8, %8, %6, %8, %8, %8, %8, %8, %8, %6, %6, %6, %8, %6, %6, %6, %8, %8, %6, %6, %6, %6, %8, %6, %6, %6, %8, %8, %8, %8, %8, %6, %6, %8, %8, %6, %8, %6, %6, %8, %6, %8, %6, %6, %8, %6, %6, %8, %6, %6, %6, %6, %8, %6, %6, %8, %8, %8, %6, %6, %8, %8, %8, %6, %8, %8, %8, %8, %6, %8, %8, %8, %8, %6, %6, %6, %8, %6, %8, %6, %8, %6, %6, %6, %6, %8, %6, %8, %8, %8, %6, %6, %8, %6, %8, %8, %8, %8, %6, %6, %8, %6, %6, %8, %8, %6, %8, %8, %6, %8, %6, %8, %8, %6, %6, %6, %6, %8, %6, %8, %6, %6, %8, %8, %6, %8, %8, %6, %8, %6, %8, %8, %6, %8, %8, %8, %8, %6, %6, %8, %8, %6, %8, %8, %8, %6, %8, %8, %6, %6, %6, %6, %8, %8, %8, %8, %6, %8, %8, %6, %8, %8, %8, %8, %8, %6, %8, %8, %6, %6, %8, %8, %8, %8, %6, %8, %8, %8, %6, %6, %6, %8, %6, %6, %6, %8, %8, %8, %8, %8, %8, %8, %6, %8, %6, %6, %6, %6, %8, %8, %6, %6, %8, %6, %6, %8, %6, %6, %8, %6, %6, %6, %6, %8, %6, %8, %6, %8, %8, %8, %6, %6, %6, %8, %8, %8, %6, %6, %8, %8, %8, %8, %6, %6, %8, %6, %8, %8, %8, %8, %6, %8, %6, %6, %8, %8, %8, %6, %6, %8, %8, %6, %6, %6, %6, %8, %6, %8, %8, %8, %6, %8, %8, %6, %6, %6, %8, %6, %6, %8, %8, %8, %6, %8, %8, %6, %6, %6, %8, %8, %6, %6, %6, %6, %6, %8, %6, %6, %8, %8, %8, %8, %8, %8, %6, %8, %8, %8, %6, %6, %8, %6, %8, %8, %8, %8, %8, %6, %6, %6, %6, %6, %8, %8, %8, %8, %6, %6, %6, %6, %8, %6, %8, %8, %6, %6, %8, %6, %6, %8, %6, %8, %8, %8, %8, %8, %6, %6, %6, %6, %8, %8, %8, %8, %6, %6, %6, %6, %8, %6, %8, %6, %6, %6, %8, %8, %8, %6, %8, %8, %6, %8, %8, %8, %6, %8, %6, %8, %8, %6, %8, %6, %8, %8, %8, %8, %6, %6, %8, %8, %6, %6, %6, %6, %8, %8, %6, %8, %8, %6, %6, %6, %6, %8, %8, %8, %6, %8, %8, %6, %8, %8, %6, %8, %6, %6, %6, %8, %8, %6, %8, %8, %8, %6, %8, %6, %6, %6, %8, %6, %6, %6, %6, %8, %8, %6, %8, %6, %6, %6, %8, %8, %6, %8, %8, %8, %8, %6, %6, %6, %8, %6, %6, %6, %8, %8, %8, %8, %8, %6, %6, %6, %6, %6, %6, %6, %6, %6, %8, %6, %8, %8, %8, %8, %6, %8, %8, %6, %8, %6, %6, %6, %8, %6, %8, %8, %8, %8, %6, %6, %8, %6, %6, %6, %8, %6, %8, %8, %6, %8, %8, %8, %8, %6, %8, %8, %6, %8, %8, %6, %6, %6, %6, %6, %6, %8, %6, %8, %6, %8, %6, %6, %6, %6, %8, %6, %8, %8, %6, %8, %8, %6, %6, %8, %8, %6, %6, %8, %6, %6, %6, %8, %8, %6, %6, %8, %8, %8, %8, %8, %6, %8, %8, %6, %8, %8, %8, %6, %6, %8, %8, %8, %6, %8, %8, %8, %6, %6, %6, %8, %8, %8, %6, %6, %8, %8, %8, %6, %8, %6, %6, %8, %8, %6, %6, %8, %8, %8, %6, %8, %6, %6, %8, %8, %6, %6, %8, %6, %6, %6, %8, %6, %6, %8, %8, %8, %6, %8, %6, %6, %8, %6, %6, %8, %8, %8, %8, %8, %6, %8, %8, %8, %6, %8, %8, %6, %8, %8, %8, %6, %6, %6, %6, %8, %6, %6, %6, %8, %6, %8, %8, %6, %6, %6, %8, %8, %6, %6, %8, %6, %6, %6, %6, %8, %8, %8, %8, %8, %6, %6, %6, %6, %8, %6, %8, %8, %6, %6, %8, %6, %8, %8, %8, %6, %8, %6, %6, %8, %6, %8, %8, %8, %6, %6, %8, %8, %6, %6, %6, %6, %8, %6, %6, %8, %6, %8, %8, %6, %8, %6, %8, %8, %6, %8, %6, %8, %8, %8, %6, %8, %6, %8, %6, %8, %6, %8, %8, %6, %6, %8, %8, %6, %8, %6, %6, %8, %8, %6, %8, %6, %6, %6, %6, %6, %8, %8, %8, %8, %8, %8, %6, %6, %6, %6, %8, %8, %8, %8, %6, %8, %6, %6) : (i64, i64, i64, i64, i64, i64, i64, i64, i64, i64, i64, i64, i64, i64, i64, i64, i64, i64, i64, i64, i64, i64, i64, i64, i64, i64, i64, i64, i64, i64, i64, i64, i64, i64, i64, i64, i64, i64, i64, i64, i64, i64, i64, i64, i64, i64, i64, i64, i64, i64, i64, i64, i64, i64, i64, i64, i64, i64, i64, i64, i64, i64, i64, i64, i64, i64, i64, i64, i64, i64, i64, i64, i64, i64, i64, i64, i64, i64, i64, i64, i64, i64, i64, i64, i64, i64, i64, i64, i64, i64, i64, i64, i64, i64, i64, i64, i64, i64, i64, i64, i64, i64, i64, i64, i64, i64, i64, i64, i64, i64, i64, i64, i64, i64, i64, i64, i64, i64, i64, i64, i64, i64, i64, i64, i64, i64, i64, i64, i64, i64, i64, i64, i64, i64, i64, i64, i64, i64, i64, i64, i64, i64, i64, i64, i64, i64, i64, i64, i64, i64, i64, i64, i64, i64, i64, i64, i64, i64, i64, i64, i64, i64, i64, i64, i64, i64, i64, i64, i64, i64, i64, i64, i64, i64, i64, i64, i64, i64, i64, i64, i64, i64, i64, i64, i64, i64, i64, i64, i64, i64, i64, i64, i64, i64, i64, i64, i64, i64, i64, i64, i64, i64, i64, i64, i64, i64, i64, i64, i64, i64, i64, i64, i64, i64, i64, i64, i64, i64, i64, i64, i64, i64, i64, i64, i64, i64, i64, i64, i64, i64, i64, i64, i64, i64, i64, i64, i64, i64, i64, i64, i64, i64, i64, i64, i64, i64, i64, i64, i64, i64, i64, i64, i64, i64, i64, i64, i64, i64, i64, i64, i64, i64, i64, i64, i64, i64, i64, i64, i64, i64, i64, i64, i64, i64, i64, i64, i64, i64, i64, i64, i64, i64, i64, i64, i64, i64, i64, i64, i64, i64, i64, i64, i64, i64, i64, i64, i64, i64, i64, i64, i64, i64, i64, i64, i64, i64, i64, i64, i64, i64, i64, i64, i64, i64, i64, i64, i64, i64, i64, i64, i64, i64, i64, i64, i64, i64, i64, i64, i64, i64, i64, i64, i64, i64, i64, i64, i64, i64, i64, i64, i64, i64, i64, i64, i64, i64, i64, i64, i64, i64, i64, i64, i64, i64, i64, i64, i64, i64, i64, i64, i64, i64, i64, i64, i64, i64, i64, i64, i64, i64, i64, i64, i64, i64, i64, i64, i64, i64, i64, i64, i64, i64, i64, i64, i64, i64, i64, i64, i64, i64, i64, i64, i64, i64, i64, i64, i64, i64, i64, i64, i64, i64, i64, i64, i64, i64, i64, i64, i64, i64, i64, i64, i64, i64, i64, i64, i64, i64, i64, i64, i64, i64, i64, i64, i64, i64, i64, i64, i64, i64, i64, i64, i64, i64, i64, i64, i64, i64, i64, i64, i64, i64, i64, i64, i64, i64, i64, i64, i64, i64, i64, i64, i64, i64, i64, i64, i64, i64, i64, i64, i64, i64, i64, i64, i64, i64, i64, i64, i64, i64, i64, i64, i64, i64, i64, i64, i64, i64, i64, i64, i64, i64, i64, i64, i64, i64, i64, i64, i64, i64, i64, i64, i64, i64, i64, i64, i64, i64, i64, i64, i64, i64, i64, i64, i64, i64, i64, i64, i64, i64, i64, i64, i64, i64, i64, i64, i64, i64, i64, i64, i64, i64, i64, i64, i64, i64, i64, i64, i64, i64, i64, i64, i64, i64, i64, i64, i64, i64, i64, i64, i64, i64, i64, i64, i64, i64, i64, i64, i64, i64, i64, i64, i64, i64, i64, i64, i64, i64, i64, i64, i64, i64, i64, i64, i64, i64, i64, i64, i64, i64, i64, i64, i64, i64, i64, i64, i64, i64, i64, i64, i64, i64, i64, i64, i64, i64, i64, i64, i64, i64, i64, i64, i64, i64, i64, i64, i64, i64, i64, i64, i64, i64, i64, i64, i64, i64, i64, i64, i64, i64, i64, i64, i64, i64, i64, i64, i64, i64, i64, i64, i64, i64, i64, i64, i64, i64, i64, i64, i64, i64, i64, i64, i64, i64, i64, i64, i64, i64, i64, i64, i64, i64, i64, i64, i64, i64, i64, i64, i64, i64, i64, i64, i64, i64, i64, i64, i64, i64, i64, i64, i64, i64, i64, i64, i64, i64, i64, i64, i64, i64, i64, i64, i64, i64, i64, i64, i64, i64, i64, i64, i64, i64, i64, i64, i64, i64, i64, i64, i64, i64, i64, i64, i64, i64, i64, i64, i64, i64, i64, i64, i64, i64, i64, i64, i64, i64, i64, i64, i64, i64, i64, i64, i64, i64, i64, i64, i64, i64, i64, i64, i64, i64, i64, i64, i64, i64, i64, i64, i64, i64, i64, i64, i64, i64, i64, i64, i64, i64, i64, i64, i64, i64, i64, i64, i64, i64, i64, i64, i64, i64, i64, i64, i64, i64, i64, i64, i64, i64, i64, i64, i64, i64, i64, i64, i64, i64, i64, i64, i64, i64, i64, i64, i64, i64, i64, i64, i64, i64, i64, i64, i64, i64, i64, i64, i64, i64, i64, i64, i64, i64, i64, i64, i64, i64, i64, i64, i64, i64, i64, i64, i64, i64, i64, i64, i64, i64, i64, i64, i64, i64, i64, i64, i64, i64, i64, i64, i64, i64, i64, i64, i64, i64, i64, i64, i64, i64, i64, i64, i64, i64, i64, i64, i64, i64, i64, i64, i64, i64, i64, i64, i64, i64, i64, i64, i64, i64, i64, i64, i64, i64, i64, i64, i64, i64, i64, i64, i64, i64, i64, i64, i64, i64, i64, i64, i64, i64, i64, i64, i64, i64, i64, i64, i64, i64, i64, i64, i64, i64, i64, i64, i64, i64, i64, i64, i64, i64, i64, i64, i64, i64, i64, i64, i64, i64, i64, i64, i64, i64, i64, i64, i64, i64, i64, i64, i64, i64, i64, i64, i64, i64, i64, i64, i64, i64, i64, i64, i64, i64, i64, i64, i64, i64, i64, i64, i64, i64, i64, i64, i64, i64, i64, i64, i64, i64, i64, i64, i64, i64, i64, i64, i64, i64, i64, i64, i64, i64, i64, i64, i64, i64, i64, i64, i64, i64, i64, i64, i64, i64, i64, i64, i64, i64, i64, i64, i64, i64, i64, i64, i64, i64, i64, i64, i64, i64, i64, i64, i64, i64, i64, i64, i64, i64, i64, i64, i64, i64, i64, i64, i64, i64, i64, i64, i64, i64, i64, i64, i64, i64, i64, i64, i64, i64, i64, i64, i64, i64, i64, i64, i64, i64, i64, i64, i64, i64, i64, i64, i64, i64, i64, i64, i64, i64, i64, i64, i64, i64, i64, i64, i64, i64, i64, i64, i64, i64, i64, i64, i64, i64, i64, i64, i64, i64, i64, i64, i64, i64, i64, i64, i64, i64, i64, i64, i64, i64, i64, i64, i64, i64, i64, i64, i64, i64, i64, i64, i64, i64, i64, i64, i64, i64, i64, i64, i64, i64, i64, i64, i64, i64, i64, i64, i64, i64, i64, i64, i64, i64, i64, i64, i64, i64, i64, i64, i64, i64, i64, i64, i64, i64, i64, i64, i64, i64, i64, i64, i64, i64, i64, i64, i64, i64, i64, i64, i64, i64, i64, i64, i64, i64, i64, i64, i64, i64, i64, i64, i64, i64, i64, i64, i64, i64, i64, i64, i64, i64, i64, i64, i64, i64, i64, i64, i64, i64, i64, i64, i64, i64, i64, i64, i64, i64, i64, i64, i64, i64, i64, i64, i64, i64, i64, i64, i64, i64, i64, i64, i64, i64, i64, i64, i64, i64, i64, i64, i64, i64, i64, i64, i64, i64, i64, i64, i64, i64, i64, i64, i64, i64, i64, i64, i64, i64, i64, i64, i64, i64, i64, i64, i64, i64, i64, i64, i64, i64, i64, i64, i64, i64, i64, i64, i64, i64, i64, i64, i64, i64, i64, i64, i64, i64, i64, i64, i64, i64, i64, i64, i64, i64, i64, i64, i64, i64, i64, i64, i64, i64, i64, i64, i64, i64, i64, i64, i64, i64, i64, i64, i64, i64, i64, i64, i64, i64, i64, i64, i64, i64, i64, i64, i64, i64, i64, i64, i64, i64, i64, i64, i64, i64, i64, i64, i64, i64, i64, i64, i64, i64, i64, i64, i64, i64, i64, i64, i64, i64, i64, i64, i64, i64, i64, i64, i64, i64, i64, i64, i64, i64, i64, i64, i64, i64, i64, i64, i64, i64, i64, i64, i64, i64, i64, i64, i64, i64, i64, i64, i64, i64, i64, i64, i64, i64, i64, i64, i64, i64, i64, i64, i64, i64, i64, i64, i64, i64, i64, i64, i64, i64, i64, i64, i64, i64, i64, i64, i64, i64, i64, i64, i64, i64, i64, i64, i64, i64, i64, i64, i64, i64, i64, i64, i64, i64, i64, i64, i64, i64, i64, i64, i64, i64, i64, i64, i64, i64, i64, i64, i64, i64, i64, i64, i64, i64, i64, i64, i64, i64, i64, i64, i64, i64, i64, i64, i64, i64, i64, i64, i64, i64, i64, i64, i64, i64, i64, i64, i64, i64, i64, i64, i64, i64, i64, i64, i64, i64, i64, i64, i64, i64, i64, i64, i64, i64, i64, i64, i64, i64, i64, i64, i64, i64, i64, i64, i64, i64, i64, i64, i64, i64, i64, i64, i64, i64, i64, i64, i64, i64, i64, i64, i64, i64, i64, i64, i64, i64, i64, i64, i64, i64, i64, i64, i64, i64, i64, i64, i64, i64, i64, i64, i64, i64, i64, i64, i64, i64, i64, i64, i64, i64, i64, i64, i64, i64, i64, i64, i64, i64, i64, i64, i64, i64, i64, i64, i64, i64, i64, i64, i64, i64, i64, i64, i64, i64, i64, i64, i64, i64, i64, i64, i64, i64, i64, i64, i64, i64, i64, i64, i64, i64, i64, i64, i64, i64, i64, i64, i64, i64, i64, i64, i64, i64, i64, i64, i64, i64, i64, i64, i64, i64, i64, i64, i64, i64, i64, i64, i64, i64, i64, i64, i64, i64, i64, i64, i64, i64, i64, i64, i64, i64, i64, i64, i64, i64, i64, i64, i64, i64, i64, i64, i64, i64, i64, i64, i64, i64, i64, i64, i64, i64, i64, i64, i64, i64, i64, i64, i64, i64, i64, i64, i64, i64, i64, i64, i64, i64, i64, i64, i64, i64, i64, i64, i64, i64, i64, i64, i64, i64, i64, i64, i64, i64, i64, i64, i64, i64, i64, i64, i64, i64, i64, i64, i64, i64, i64, i64, i64, i64, i64, i64, i64, i64, i64, i64, i64, i64, i64, i64, i64, i64, i64, i64, i64, i64, i64, i64, i64, i64, i64, i64, i64, i64, i64, i64, i64, i64, i64, i64, i64, i64, i64, i64, i64, i64, i64, i64, i64, i64, i64, i64, i64, i64, i64, i64, i64, i64, i64, i64, i64, i64, i64, i64, i64, i64, i64, i64, i64, i64, i64, i64, i64, i64, i64, i64, i64, i64, i64, i64, i64, i64, i64, i64, i64, i64, i64, i64, i64, i64, i64, i64, i64, i64, i64, i64, i64, i64, i64, i64, i64, i64, i64, i64, i64, i64, i64, i64, i64, i64, i64, i64, i64, i64, i64, i64, i64, i64, i64, i64, i64, i64, i64, i64, i64, i64, i64, i64, i64, i64, i64, i64, i64, i64, i64, i64, i64, i64, i64, i64, i64, i64, i64, i64, i64, i64, i64, i64, i64, i64, i64, i64, i64, i64, i64, i64, i64, i64, i64, i64, i64, i64, i64, i64, i64, i64, i64, i64, i64, i64, i64, i64, i64, i64, i64, i64, i64, i64, i64, i64, i64, i64, i64, i64, i64, i64, i64, i64, i64, i64, i64, i64, i64, i64, i64, i64, i64, i64, i64, i64, i64, i64, i64, i64, i64, i64, i64, i64, i64, i64, i64, i64, i64, i64, i64, i64, i64, i64, i64, i64, i64, i64, i64, i64, i64, i64, i64, i64, i64, i64, i64, i64, i64, i64, i64, i64, i64, i64, i64, i64, i64, i64, i64, i64, i64, i64, i64, i64, i64, i64, i64, i64, i64, i64, i64, i64, i64, i64, i64, i64, i64, i64, i64, i64, i64, i64, i64, i64, i64, i64, i64, i64, i64, i64, i64, i64, i64, i64, i64, i64, i64, i64, i64, i64, i64, i64, i64, i64, i64, i64, i64, i64, i64, i64, i64, i64, i64, i64, i64, i64, i64, i64, i64, i64, i64, i64, i64, i64, i64, i64, i64, i64, i64, i64, i64, i64, i64, i64, i64, i64, i64, i64, i64, i64, i64, i64, i64, i64, i64, i64, i64, i64, i64, i64, i64, i64, i64, i64, i64, i64, i64, i64, i64, i64, i64, i64, i64, i64, i64, i64, i64, i64, i64, i64, i64, i64, i64, i64, i64, i64, i64, i64, i64, i64, i64, i64, i64, i64, i64, i64, i64, i64, i64, i64, i64, i64, i64, i64, i64, i64, i64, i64, i64, i64, i64, i64, i64, i64, i64, i64, i64, i64, i64, i64, i64, i64, i64, i64, i64, i64, i64, i64, i64, i64, i64, i64, i64, i64, i64, i64, i64, i64, i64, i64, i64, i64, i64, i64, i64, i64, i64, i64, i64, i64, i64, i64, i64, i64, i64, i64, i64, i64, i64, i64, i64, i64, i64, i64, i64, i64, i64, i64, i64, i64, i64, i64, i64, i64, i64, i64, i64, i64, i64, i64, i64, i64, i64, i64, i64, i64, i64, i64, i64, i64, i64, i64, i64, i64, i64, i64, i64, i64, i64, i64, i64, i64, i64, i64, i64, i64, i64, i64, i64, i64, i64, i64, i64, i64, i64, i64, i64, i64, i64, i64, i64, i64, i64, i64, i64, i64, i64, i64, i64, i64, i64, i64, i64, i64, i64, i64, i64, i64, i64, i64, i64, i64, i64, i64, i64, i64, i64, i64, i64, i64, i64, i64, i64, i64, i64, i64, i64, i64, i64, i64, i64, i64, i64, i64, i64, i64, i64, i64, i64, i64, i64, i64, i64, i64, i64, i64, i64, i64, i64, i64, i64, i64, i64, i64, i64, i64, i64, i64, i64, i64, i64, i64, i64, i64, i64, i64, i64, i64, i64, i64, i64, i64, i64, i64, i64, i64, i64, i64, i64, i64, i64, i64, i64, i64, i64, i64, i64, i64, i64, i64, i64, i64, i64, i64, i64, i64, i64, i64, i64, i64, i64, i64, i64, i64, i64, i64, i64, i64, i64, i64, i64, i64, i64, i64, i64, i64, i64, i64, i64, i64, i64, i64, i64, i64, i64, i64, i64, i64, i64, i64, i64, i64, i64, i64, i64, i64, i64, i64, i64, i64, i64, i64, i64, i64, i64, i64, i64, i64, i64, i64, i64, i64, i64, i64, i64, i64, i64, i64, i64, i64, i64, i64, i64, i64, i64, i64, i64, i64, i64, i64, i64, i64, i64, i64, i64, i64, i64, i64, i64, i64, i64, i64, i64, i64, i64, i64, i64, i64, i64, i64, i64, i64, i64, i64, i64, i64, i64, i64, i64, i64, i64, i64, i64, i64, i64, i64, i64, i64, i64, i64, i64, i64, i64, i64, i64, i64, i64, i64, i64, i64, i64, i64, i64, i64, i64, i64, i64, i64, i64, i64, i64, i64, i64, i64, i64, i64, i64, i64, i64, i64, i64, i64, i64, i64, i64, i64, i64, i64, i64, i64, i64, i64, i64, i64, i64, i64, i64, i64, i64, i64, i64, i64, i64, i64, i64, i64, i64, i64, i64, i64, i64, i64, i64, i64, i64, i64, i64, i64, i64, i64, i64, i64, i64, i64, i64, i64, i64, i64, i64, i64, i64, i64, i64, i64, i64, i64, i64, i64, i64, i64, i64, i64, i64, i64, i64, i64, i64, i64, i64, i64, i64, i64, i64, i64, i64, i64, i64, i64, i64, i64, i64, i64, i64, i64, i64, i64, i64, i64, i64, i64, i64, i64, i64, i64, i64, i64, i64, i64, i64, i64, i64, i64, i64, i64, i64, i64, i64, i64, i64, i64, i64, i64, i64, i64, i64, i64, i64, i64, i64, i64, i64, i64, i64, i64, i64, i64, i64, i64, i64, i64, i64, i64, i64, i64, i64, i64, i64, i64, i64, i64, i64, i64, i64, i64, i64, i64, i64, i64, i64, i64, i64, i64, i64, i64, i64, i64, i64, i64, i64, i64, i64, i64, i64, i64, i64, i64, i64, i64, i64, i64, i64, i64, i64, i64, i64, i64, i64, i64, i64, i64, i64, i64, i64, i64, i64, i64, i64, i64, i64, i64, i64, i64, i64, i64, i64, i64, i64, i64, i64, i64, i64, i64, i64, i64, i64, i64, i64, i64, i64, i64, i64, i64, i64, i64, i64, i64, i64, i64, i64, i64, i64, i64, i64, i64, i64, i64, i64, i64, i64, i64, i64, i64, i64, i64, i64, i64, i64, i64, i64, i64, i64, i64, i64, i64, i64, i64, i64, i64, i64, i64, i64, i64, i64, i64, i64, i64, i64, i64, i64, i64, i64, i64, i64, i64, i64, i64, i64, i64, i64, i64, i64, i64, i64, i64, i64, i64, i64, i64, i64, i64, i64, i64, i64, i64, i64, i64, i64, i64, i64, i64, i64, i64, i64, i64, i64, i64, i64, i64, i64, i64, i64, i64, i64, i64, i64, i64, i64, i64, i64, i64, i64, i64, i64, i64, i64, i64, i64, i64, i64, i64, i64, i64, i64, i64, i64, i64, i64, i64, i64, i64, i64, i64, i64, i64, i64, i64, i64, i64, i64, i64, i64, i64, i64, i64, i64, i64, i64, i64, i64, i64, i64, i64, i64, i64, i64, i64, i64, i64, i64, i64, i64, i64, i64, i64, i64, i64, i64, i64, i64, i64, i64, i64, i64, i64, i64, i64, i64, i64, i64, i64, i64, i64, i64, i64, i64, i64, i64, i64, i64, i64, i64, i64, i64, i64, i64, i64, i64, i64, i64, i64, i64, i64, i64, i64, i64, i64, i64, i64, i64, i64, i64, i64, i64, i64, i64, i64, i64, i64, i64, i64, i64, i64, i64, i64, i64, i64, i64, i64, i64, i64, i64, i64, i64, i64, i64, i64, i64, i64, i64, i64, i64, i64, i64, i64, i64, i64, i64, i64, i64, i64, i64, i64, i64, i64, i64, i64, i64, i64, i64, i64, i64, i64, i64, i64, i64, i64, i64, i64, i64, i64, i64, i64, i64, i64, i64, i64, i64, i64, i64, i64, i64, i64, i64, i64, i64, i64, i64, i64, i64, i64, i64, i64, i64, i64, i64, i64, i64, i64, i64, i64, i64, i64, i64, i64, i64, i64, i64, i64, i64, i64, i64, i64, i64, i64, i64, i64, i64, i64, i64, i64, i64, i64, i64, i64, i64, i64, i64, i64, i64, i64, i64, i64, i64, i64, i64, i64, i64, i64, i64, i64, i64, i64, i64, i64, i64, i64, i64, i64, i64, i64, i64, i64, i64, i64, i64, i64, i64, i64, i64, i64, i64, i64, i64, i64, i64, i64, i64, i64, i64, i64, i64, i64, i64, i64, i64, i64, i64, i64, i64, i64, i64, i64, i64, i64, i64, i64, i64, i64, i64, i64, i64, i64, i64, i64, i64, i64, i64, i64, i64, i64, i64, i64, i64, i64, i64, i64, i64, i64, i64, i64, i64, i64, i64, i64, i64, i64, i64, i64, i64, i64, i64, i64, i64, i64, i64, i64, i64, i64, i64, i64, i64, i64, i64, i64, i64, i64, i64, i64, i64, i64, i64, i64, i64, i64, i64, i64, i64, i64, i64, i64, i64, i64, i64, i64, i64, i64, i64, i64, i64, i64, i64, i64, i64, i64, i64, i64, i64, i64, i64, i64, i64, i64, i64, i64, i64, i64, i64, i64, i64, i64, i64, i64, i64, i64, i64, i64, i64, i64, i64, i64, i64, i64, i64, i64, i64, i64, i64, i64, i64, i64, i64, i64, i64, i64, i64, i64, i64, i64, i64, i64, i64, i64, i64, i64, i64, i64, i64, i64, i64, i64, i64, i64, i64, i64, i64, i64, i64, i64, i64, i64, i64, i64, i64, i64, i64, i64, i64, i64, i64, i64, i64, i64, i64, i64, i64, i64, i64, i64, i64, i64, i64, i64, i64, i64, i64, i64, i64, i64, i64, i64, i64, i64, i64, i64, i64, i64, i64, i64, i64, i64, i64, i64, i64, i64, i64, i64, i64, i64, i64, i64, i64, i64, i64, i64, i64, i64, i64, i64, i64, i64, i64, i64, i64, i64, i64, i64, i64, i64, i64, i64, i64, i64, i64, i64, i64, i64, i64, i64, i64, i64, i64, i64, i64, i64, i64, i64, i64, i64, i64, i64, i64, i64, i64, i64, i64, i64, i64, i64, i64, i64, i64, i64, i64, i64, i64, i64, i64, i64, i64, i64, i64, i64, i64, i64, i64, i64, i64, i64, i64, i64, i64, i64, i64, i64, i64, i64, i64, i64, i64, i64, i64, i64, i64, i64, i64, i64, i64, i64, i64, i64, i64, i64, i64, i64, i64, i64, i64, i64, i64, i64, i64, i64, i64, i64, i64, i64, i64, i64, i64, i64, i64, i64, i64, i64, i64, i64, i64, i64, i64, i64, i64, i64, i64, i64, i64, i64, i64, i64, i64, i64, i64, i64, i64, i64, i64, i64, i64, i64, i64, i64, i64, i64, i64, i64, i64, i64, i64, i64, i64, i64, i64, i64, i64, i64, i64, i64, i64, i64, i64, i64, i64, i64, i64, i64, i64, i64, i64, i64, i64, i64, i64, i64, i64, i64, i64, i64, i64, i64, i64, i64, i64, i64, i64, i64, i64, i64, i64, i64, i64, i64, i64, i64, i64, i64, i64, i64, i64, i64, i64, i64, i64, i64, i64, i64, i64, i64, i64, i64, i64, i64, i64, i64, i64, i64, i64, i64, i64, i64, i64, i64, i64, i64, i64, i64, i64, i64, i64, i64, i64, i64, i64, i64, i64, i64, i64, i64, i64, i64, i64, i64, i64, i64, i64, i64, i64, i64, i64, i64, i64, i64, i64, i64, i64, i64, i64, i64, i64, i64, i64, i64, i64, i64, i64, i64, i64, i64, i64, i64, i64, i64, i64, i64, i64, i64, i64, i64, i64, i64, i64, i64, i64, i64, i64, i64, i64, i64, i64, i64, i64, i64, i64, i64, i64, i64, i64, i64, i64, i64, i64, i64, i64, i64, i64, i64, i64, i64, i64, i64, i64, i64, i64, i64, i64, i64, i64, i64, i64, i64, i64, i64, i64, i64, i64, i64, i64, i64, i64, i64, i64, i64, i64, i64, i64, i64, i64, i64, i64, i64, i64, i64, i64, i64, i64, i64, i64, i64, i64, i64, i64, i64, i64, i64, i64, i64, i64, i64, i64, i64, i64, i64) -> tensor<19x8x23xi64>
        %244 = "math.cttz"(%105) : (i1) -> i1
        %245 = "vector.contract"(%238, %238, %10) <{indexing_maps = [affine_map<(d0) -> (d0)>, affine_map<(d0) -> (d0)>, affine_map<(d0) -> ()>], iterator_types = [#vector.iterator_type<reduction>], kind = #vector.kind<or>}> : (vector<2xi32>, vector<2xi32>, i32) -> i32
        %246 = "affine.min"(%115) <{map = affine_map<(d0) -> ((d0 mod 128) * 8)>}> : (index) -> index
        %247 = "math.ctpop"(%88) : (i16) -> i16
        %248 = "arith.addf"(%112, %112) <{fastmath = #arith.fastmath<none>}> : (f32, f32) -> f32
        %249 = "arith.remf"(%4, %91) <{fastmath = #arith.fastmath<none>}> : (f32, f32) -> f32
        %250 = "vector.broadcast"(%105) : (i1) -> vector<3xi1>
        %251:2 = "vector.scan"(%237, %250) <{inclusive = false, kind = #vector.kind<or>, reduction_dim = 1 : i64}> : (vector<3x19xi1>, vector<3xi1>) -> (vector<3x19xi1>, vector<3xi1>)
        %252 = "math.round"(%53) <{fastmath = #arith.fastmath<none>}> : (tensor<19x3xf16>) -> tensor<19x3xf16>
        %253 = "math.rsqrt"(%62) <{fastmath = #arith.fastmath<none>}> : (tensor<19x8xf16>) -> tensor<19x8xf16>
        "scf.yield"() : () -> ()
      }) : (index) -> ()
      %228 = "arith.xori"(%13, %80) : (i16, i16) -> i16
      %229 = "tensor.empty"() : () -> tensor<19x8x23xi32>
      %230 = "math.fpowi"(%54, %229) <{fastmath = #arith.fastmath<none>}> : (tensor<19x8x23xf16>, tensor<19x8x23xi32>) -> tensor<19x8x23xf16>
      %231 = "tensor.insert"(%5, %63, %24, %17) : (f32, tensor<19x8xf32>, index, index) -> tensor<19x8xf32>
      %232 = "tensor.insert"(%6, %51, %18, %20) : (i64, tensor<3x19xi64>, index, index) -> tensor<3x19xi64>
      %233 = "math.exp"(%56) <{fastmath = #arith.fastmath<none>}> : (tensor<?x19xf32>) -> tensor<?x19xf32>
      %234 = "tensor.empty"(%42, %16) : (index, index) -> tensor<?x?xf16>
      "scf.yield"(%234) : (tensor<?x?xf16>) -> ()
    }, {
      %216 = "index.xor"(%28, %29) : (index, index) -> index
      %217 = "math.sqrt"(%106) <{fastmath = #arith.fastmath<none>}> : (f32) -> f32
      %218 = "vector.bitcast"(%121) : (vector<2xi32>) -> vector<2xi32>
      %219 = "arith.floordivsi"(%arg2, %116) : (i1, i1) -> i1
      "scf.if"(%105) ({
        %233 = "tensor.cast"(%54) : (tensor<19x8x23xf16>) -> tensor<?x?x?xf16>
        %234 = "vector.broadcast"(%10) : (i32) -> vector<3xi32>
        %235 = "vector.broadcast"(%94) : (i1) -> vector<3xi1>
        %236 = "vector.maskedload"(%77, %20, %22, %235, %234) : (memref<19x8xi32>, index, index, vector<3xi1>, vector<3xi32>) -> vector<3xi32>
        %237 = "arith.addi"(%94, %7) : (i1, i1) -> i1
        %238 = "affine.load"(%68, %33, %35, %44) <{map = affine_map<(d0, d1, d2) -> (d0, d1, d2)>}> : (memref<?x?x23xi1>, index, index, index) -> i1
        %239 = "math.cttz"(%58) : (tensor<3x19xi1>) -> tensor<3x19xi1>
        %240 = "affine.min"(%34, %26, %23, %43) <{map = affine_map<(d0, d1, d2, d3) -> (d2 mod 64)>}> : (index, index, index, index) -> index
        %241 = "memref.alloc"() <{operandSegmentSizes = array<i32: 0, 0>}> : () -> memref<23x19x8xi32>
        "linalg.transpose"(%124, %241) <{permutation = array<i64: 2, 0, 1>}> ({
        ^bb0(%arg3: i32, %arg4: i32):
          "linalg.yield"(%arg3) : (i32) -> ()
        }) : (memref<19x8x23xi32>, memref<23x19x8xi32>) -> ()
        %242 = "vector.extract"(%121) <{static_position = array<i64: 0>}> : (vector<2xi32>) -> i32
        "scf.yield"() : () -> ()
      }, {
      }) : (i1) -> ()
      %220 = "index.ceildivu"(%21, %36) : (index, index) -> index
      %221 = "vector.contract"(%121, %218, %10) <{indexing_maps = [affine_map<(d0) -> (d0)>, affine_map<(d0) -> (d0)>, affine_map<(d0) -> ()>], iterator_types = [#vector.iterator_type<reduction>], kind = #vector.kind<mul>}> : (vector<2xi32>, vector<2xi32>, i32) -> i32
      %222 = "vector.broadcast"(%85) : (f32) -> vector<19x8x23xf32>
      %223 = "vector.fma"(%222, %222, %222) : (vector<19x8x23xf32>, vector<19x8x23xf32>, vector<19x8x23xf32>) -> vector<19x8x23xf32>
      %224 = "memref.alloc"() <{operandSegmentSizes = array<i32: 0, 0>}> : () -> memref<19x8xi32>
      %225 = "arith.addi"(%arg2, %7) : (i1, i1) -> i1
      %226 = "index.xor"(%29, %84) : (index, index) -> index
      %227 = "arith.mulf"(%118, %1) <{fastmath = #arith.fastmath<none>}> : (f32, f32) -> f32
      %228 = "math.log2"(%61) <{fastmath = #arith.fastmath<none>}> : (tensor<?x8x23xf16>) -> tensor<?x8x23xf16>
      %229 = "index.ceildivu"(%42, %36) : (index, index) -> index
      %230 = "index.sizeof"() : () -> index
      %231 = "arith.ori"(%114, %arg2) : (i1, i1) -> i1
      %232 = "tensor.empty"(%24, %229) : (index, index) -> tensor<?x?xf16>
      "scf.yield"(%232) : (tensor<?x?xf16>) -> ()
    }) : (index) -> tensor<?x?xf16>
    %129 = "affine.min"(%127, %108, %101) <{map = affine_map<(d0, d1, d2) -> (d0)>}> : (index, index, index) -> index
    %130 = "index.shl"(%84, %17) : (index, index) -> index
    %131 = "spirv.GL.Tanh"(%118) : (f32) -> f32
    %132 = "spirv.GL.UClamp"(%88, %9, %80) : (i16, i16, i16) -> i16
    %133 = "math.fpowi"(%125, %10) <{fastmath = #arith.fastmath<none>}> : (f32, i32) -> f32
    %134 = "vector.broadcast"(%1) : (f32) -> vector<3x19xf32>
    %135 = "vector.fma"(%134, %134, %134) : (vector<3x19xf32>, vector<3x19xf32>, vector<3x19xf32>) -> vector<3x19xf32>
    %136 = "scf.while"(%103) ({
    ^bb0(%arg3: vector<1xf16>):
      %216 = "scf.parallel"(%127, %115, %30, %130, %29, %36, %58) <{operandSegmentSizes = array<i32: 2, 2, 2, 1>}> ({
      ^bb0(%arg4: index, %arg5: index):
        %225 = "index.shru"(%41, %26) : (index, index) -> index
        %226 = "index.shru"(%23, %39) : (index, index) -> index
        %227 = "affine.apply"(%16, %130) <{map = affine_map<(d0)[s0] -> ((d0 * -128 + 64) * 64)>}> : (index, index) -> index
        %228 = "math.log10"(%1) <{fastmath = #arith.fastmath<none>}> : (f32) -> f32
        %229 = "arith.remui"(%8, %8) : (i64, i64) -> i64
        %230 = "tensor.collapse_shape"(%58) <{reassociation = [[0, 1]]}> : (tensor<3x19xi1>) -> tensor<57xi1>
        %231 = "vector.multi_reduction"(%134, %135) <{kind = #vector.kind<add>, reduction_dims = []}> : (vector<3x19xf32>, vector<3x19xf32>) -> vector<3x19xf32>
        %232 = "math.cttz"(%60) : (tensor<?x8xi1>) -> tensor<?x8xi1>
        %233 = "tensor.empty"() : () -> tensor<19x3xi32>
        %234 = "math.fpowi"(%53, %233) <{fastmath = #arith.fastmath<none>}> : (tensor<19x3xf16>, tensor<19x3xi32>) -> tensor<19x3xf16>
        %235 = "tensor.extract"(%58, %18, %21) : (tensor<3x19xi1>, index, index) -> i1
        %236 = "arith.cmpi"(%6, %6) <{predicate = 1 : i64}> : (i64, i64) -> i1
        %237 = "index.add"(%37, %46) : (index, index) -> index
        %238 = "arith.shli"(%7, %arg2) : (i1, i1) -> i1
        %239 = "vector.transpose"(%103) <{transp = [0]}> : (vector<1xf16>) -> vector<1xf16>
        %240 = "math.rsqrt"(%52) <{fastmath = #arith.fastmath<none>}> : (tensor<?x3xf32>) -> tensor<?x3xf32>
        %241 = "tensor.collapse_shape"(%62) <{reassociation = [[0, 1]]}> : (tensor<19x8xf16>) -> tensor<152xf16>
        "scf.reduce"(%58) ({
        ^bb0(%arg6: tensor<3x19xi1>, %arg7: tensor<3x19xi1>):
          %242 = "arith.remf"(%14, %14) <{fastmath = #arith.fastmath<none>}> : (f16, f16) -> f16
          %243 = "index.or"(%42, %34) : (index, index) -> index
          %244 = "vector.broadcast"(%10) : (i32) -> vector<i32>
          "vector.transfer_write"(%244, %124, %243, %47, %102) <{operandSegmentSizes = array<i32: 1, 1, 3, 0>, permutation_map = affine_map<(d0, d1, d2) -> ()>}> : (vector<i32>, memref<19x8x23xi32>, index, index, index) -> ()
          %245 = "arith.muli"(%9, %13) : (i16, i16) -> i16
          %246 = "tensor.extract"(%63, %34, %21) : (tensor<19x8xf32>, index, index) -> f32
          %247 = "math.round"(%63) <{fastmath = #arith.fastmath<none>}> : (tensor<19x8xf32>) -> tensor<19x8xf32>
          %248 = "tensor.cast"(%63) : (tensor<19x8xf32>) -> tensor<?x?xf32>
          %249 = "vector.broadcast"(%94) : (i1) -> vector<1xi1>
          "vector.compressstore"(%78, %22, %21, %249, %98) : (memref<19x8xf16>, index, index, vector<1xi1>, vector<1xf16>) -> ()
          "scf.reduce.return"(%arg6) : (tensor<3x19xi1>) -> ()
        }) : (tensor<3x19xi1>) -> ()
        "scf.yield"() : () -> ()
      }) : (index, index, index, index, index, index, tensor<3x19xi1>) -> tensor<3x19xi1>
      %217 = "memref.alloc"() <{operandSegmentSizes = array<i32: 0, 0>}> : () -> memref<19x3x8xf16>
      "linalg.broadcast"(%53, %217) <{dimensions = array<i64: 2>}> ({
      ^bb0(%arg4: f16, %arg5: f16):
        "linalg.yield"(%arg4) : (f16) -> ()
      }) : (tensor<19x3xf16>, memref<19x3x8xf16>) -> ()
      %218 = "memref.alloc"(%25, %21) <{operandSegmentSizes = array<i32: 2, 0>}> : (index, index) -> memref<?x?x3xf16>
      "linalg.broadcast"(%65, %218) <{dimensions = array<i64: 2>}> ({
      ^bb0(%arg4: f16, %arg5: f16):
        "linalg.yield"(%arg4) : (f16) -> ()
      }) : (memref<?x?xf16>, memref<?x?x3xf16>) -> ()
      %219 = "index.ceildivs"(%40, %44) : (index, index) -> index
      %220 = "vector.broadcast"(%11) : (f16) -> vector<1x1xf16>
      %221 = "vector.outerproduct"(%98, %98, %220) <{kind = #vector.kind<maxf>}> : (vector<1xf16>, vector<1xf16>, vector<1x1xf16>) -> vector<1x1xf16>
      %222 = "index.shru"(%23, %34) : (index, index) -> index
      %223 = "arith.shrui"(%arg2, %94) : (i1, i1) -> i1
      %224 = "affine.min"(%47, %31, %40) <{map = affine_map<(d0, d1)[s0] -> (-d0)>}> : (index, index, index) -> index
      "scf.condition"(%7, %103) : (i1, vector<1xf16>) -> ()
    }, {
    ^bb0(%arg3: vector<1xf16>):
      %216 = "math.roundeven"(%11) <{fastmath = #arith.fastmath<none>}> : (f16) -> f16
      %217 = "vector.broadcast"(%3) : (f32) -> vector<3xf32>
      %218:2 = "vector.scan"(%135, %217) <{inclusive = false, kind = #vector.kind<add>, reduction_dim = 1 : i64}> : (vector<3x19xf32>, vector<3xf32>) -> (vector<3x19xf32>, vector<3xf32>)
      %219 = "vector.broadcast"(%10) : (i32) -> vector<2x2xi32>
      %220 = "vector.outerproduct"(%121, %121, %219) <{kind = #vector.kind<maxui>}> : (vector<2xi32>, vector<2xi32>, vector<2x2xi32>) -> vector<2x2xi32>
      %221 = "math.sqrt"(%53) <{fastmath = #arith.fastmath<none>}> : (tensor<19x3xf16>) -> tensor<19x3xf16>
      %222 = "affine.for"(%85) <{lowerBoundMap = affine_map<() -> (0)>, operandSegmentSizes = array<i32: 0, 0, 1>, step = 1 : index, upperBoundMap = affine_map<() -> (13)>}> ({
      ^bb0(%arg4: index, %arg5: f32):
        "affine.yield"(%2) : (f32) -> ()
      }) : (f32) -> f32
      %223 = "math.fpowi"(%110, %10) <{fastmath = #arith.fastmath<none>}> : (f16, i32) -> f16
      %224 = "tensor.extract"(%58, %16, %24) : (tensor<3x19xi1>, index, index) -> i1
      %225 = "vector.contract"(%98, %103, %110) <{indexing_maps = [affine_map<(d0) -> (d0)>, affine_map<(d0) -> (d0)>, affine_map<(d0) -> ()>], iterator_types = [#vector.iterator_type<reduction>], kind = #vector.kind<mul>}> : (vector<1xf16>, vector<1xf16>, f16) -> f16
      %226 = "math.roundeven"(%117) <{fastmath = #arith.fastmath<none>}> : (f32) -> f32
      %227 = "scf.parallel"(%97, %22, %113, %23, %30, %17, %10) <{operandSegmentSizes = array<i32: 2, 2, 2, 1>}> ({
      ^bb0(%arg4: index, %arg5: index):
        %235 = "arith.addf"(%85, %125) <{fastmath = #arith.fastmath<none>}> : (f32, f32) -> f32
        %236 = "index.castu"(%26) : (index) -> i32
        "memref.store"(%11, %78, %19, %19) <{nontemporal = false}> : (f16, memref<19x8xf16>, index, index) -> ()
        %237 = "arith.addi"(%80, %9) : (i16, i16) -> i16
        %238 = "tensor.collapse_shape"(%60) <{reassociation = [[0, 1]]}> : (tensor<?x8xi1>) -> tensor<?xi1>
        %239 = "index.xor"(%23, %46) : (index, index) -> index
        %240 = "index.ceildivs"(%24, %28) : (index, index) -> index
        %241 = "math.roundeven"(%56) <{fastmath = #arith.fastmath<none>}> : (tensor<?x19xf32>) -> tensor<?x19xf32>
        %242 = "memref.load"(%68, %16, %16, %30) <{nontemporal = false}> : (memref<?x?x23xi1>, index, index, index) -> i1
        %243 = "memref.alloc"() <{operandSegmentSizes = array<i32: 0, 0>}> : () -> memref<3x19xi32>
        %244 = "vector.transfer_read"(%53, %119, %41, %14) <{operandSegmentSizes = array<i32: 1, 2, 1, 0>, permutation_map = affine_map<(d0, d1) -> (d1)>}> : (tensor<19x3xf16>, index, index, f16) -> vector<19xf16>
        %245 = "math.log1p"(%56) <{fastmath = #arith.fastmath<none>}> : (tensor<?x19xf32>) -> tensor<?x19xf32>
        %246 = "vector.reduction"(%98) <{fastmath = #arith.fastmath<none>, kind = #vector.kind<add>}> : (vector<1xf16>) -> f16
        %247 = "index.floordivs"(%43, %239) : (index, index) -> index
        %248 = "linalg.copy"(%63, %63) <{operandSegmentSizes = array<i32: 1, 1>}> ({
        ^bb0(%arg6: f32, %arg7: f32):
          "linalg.yield"(%arg6) : (f32) -> ()
        }) : (tensor<19x8xf32>, tensor<19x8xf32>) -> tensor<19x8xf32>
        %249 = "tensor.rank"(%60) : (tensor<?x8xi1>) -> index
        "scf.reduce"(%10) ({
        ^bb0(%arg6: i32, %arg7: i32):
          %250 = "math.tanh"(%54) <{fastmath = #arith.fastmath<none>}> : (tensor<19x8x23xf16>) -> tensor<19x8x23xf16>
          %251 = "tensor.rank"(%62) : (tensor<19x8xf16>) -> index
          %252 = "vector.transpose"(%98) <{transp = [0]}> : (vector<1xf16>) -> vector<1xf16>
          %253 = "math.round"(%50) <{fastmath = #arith.fastmath<none>}> : (tensor<?x19xf16>) -> tensor<?x19xf16>
          %254 = "math.tanh"(%5) <{fastmath = #arith.fastmath<none>}> : (f32) -> f32
          %255 = "arith.remf"(%0, %106) <{fastmath = #arith.fastmath<none>}> : (f32, f32) -> f32
          %256 = "vector.contract"(%121, %121, %10) <{indexing_maps = [affine_map<(d0) -> (d0)>, affine_map<(d0) -> (d0)>, affine_map<(d0) -> ()>], iterator_types = [#vector.iterator_type<reduction>], kind = #vector.kind<maxsi>}> : (vector<2xi32>, vector<2xi32>, i32) -> i32
          %257 = "affine.load"(%124, %23, %36, %27) <{map = affine_map<(d0, d1, d2) -> (d0, d1, d2)>}> : (memref<19x8x23xi32>, index, index, index) -> i32
          "scf.reduce.return"(%arg6) : (i32) -> ()
        }) : (i32) -> ()
        "scf.yield"() : () -> ()
      }) : (index, index, index, index, index, index, i32) -> i32
      %228 = "vector.create_mask"(%17, %113) : (index, index) -> vector<19x8xi1>
      %229 = "math.sqrt"(%50) <{fastmath = #arith.fastmath<none>}> : (tensor<?x19xf16>) -> tensor<?x19xf16>
      %230 = "vector.broadcast"(%24) : (index) -> vector<23xindex>
      %231 = "vector.broadcast"(%224) : (i1) -> vector<23xi1>
      %232 = "vector.broadcast"(%110) : (f16) -> vector<23xf16>
      "vector.scatter"(%65, %16, %16, %230, %231, %232) : (memref<?x?xf16>, index, index, vector<23xindex>, vector<23xi1>, vector<23xf16>) -> ()
      %233 = "memref.atomic_rmw"(%11, %78, %28, %16) <{kind = 2 : i64}> : (f16, memref<19x8xf16>, index, index) -> f16
      "bufferization.dealloc_tensor"(%56) : (tensor<?x19xf32>) -> ()
      %234 = "scf.parallel"(%33, %33, %28, %30, %39, %32, %49) <{operandSegmentSizes = array<i32: 2, 2, 2, 1>}> ({
      ^bb0(%arg4: index, %arg5: index):
        %235 = "math.atan2"(%49, %53) <{fastmath = #arith.fastmath<none>}> : (tensor<19x3xf16>, tensor<19x3xf16>) -> tensor<19x3xf16>
        %236 = "index.shru"(%26, %45) : (index, index) -> index
        %237 = "math.floor"(%54) <{fastmath = #arith.fastmath<none>}> : (tensor<19x8x23xf16>) -> tensor<19x8x23xf16>
        %238 = "tensor.rank"(%48) : (tensor<3x19xi32>) -> index
        %239 = "vector.broadcast"(%13) : (i16) -> vector<19x8x23xi16>
        %240 = "tensor.collapse_shape"(%56) <{reassociation = [[0, 1]]}> : (tensor<?x19xf32>) -> tensor<?xf32>
        %241 = "math.ctlz"(%58) : (tensor<3x19xi1>) -> tensor<3x19xi1>
        %242 = "tensor.extract"(%48, %18, %31) : (tensor<3x19xi32>, index, index) -> i32
        %243 = "vector.create_mask"(%92, %38) : (index, index) -> vector<19x8xi1>
        %244 = "bufferization.clone"(%77) : (memref<19x8xi32>) -> memref<19x8xi32>
        %245 = "vector.broadcast"(%118) : (f32) -> vector<19x3xf32>
        %246 = "vector.fma"(%245, %245, %245) : (vector<19x3xf32>, vector<19x3xf32>, vector<19x3xf32>) -> vector<19x3xf32>
        %247 = "math.floor"(%125) <{fastmath = #arith.fastmath<none>}> : (f32) -> f32
        %248 = "math.fpowi"(%4, %10) <{fastmath = #arith.fastmath<none>}> : (f32, i32) -> f32
        %249 = "arith.andi"(%13, %13) : (i16, i16) -> i16
        "bufferization.dealloc_tensor"(%58) : (tensor<3x19xi1>) -> ()
        %250 = "memref.alloc"() <{operandSegmentSizes = array<i32: 0, 0>}> : () -> memref<3x19xi32>
        "memref.tensor_store"(%48, %250) : (tensor<3x19xi32>, memref<3x19xi32>) -> ()
        "scf.reduce"(%53) ({
        ^bb0(%arg6: tensor<19x3xf16>, %arg7: tensor<19x3xf16>):
          %251 = "index.xor"(%44, %129) : (index, index) -> index
          %252 = "arith.remui"(%88, %9) : (i16, i16) -> i16
          %253 = "math.fma"(%4, %85, %123) <{fastmath = #arith.fastmath<none>}> : (f32, f32, f32) -> f32
          %254 = "math.tanh"(%1) <{fastmath = #arith.fastmath<none>}> : (f32) -> f32
          %255 = "bufferization.to_tensor"(%75) : (memref<19x8x23xi1>) -> tensor<19x8x23xi1>
          %256 = "affine.load"(%arg1, %24, %28) <{map = affine_map<(d0, d1) -> (d0, d1)>}> : (memref<?x?xf16>, index, index) -> f16
          %257 = "memref.atomic_rmw"(%6, %73, %31, %23, %38) <{kind = 7 : i64}> : (i64, memref<19x8x23xi64>, index, index, index) -> i64
          %258 = "vector.contract"(%98, %103, %110) <{indexing_maps = [affine_map<(d0) -> (d0)>, affine_map<(d0) -> (d0)>, affine_map<(d0) -> ()>], iterator_types = [#vector.iterator_type<reduction>], kind = #vector.kind<minf>}> : (vector<1xf16>, vector<1xf16>, f16) -> f16
          "scf.reduce.return"(%arg6) : (tensor<19x3xf16>) -> ()
        }) : (tensor<19x3xf16>) -> ()
        "scf.yield"() : () -> ()
      }) : (index, index, index, index, index, index, tensor<19x3xf16>) -> tensor<19x3xf16>
      "scf.yield"(%103) : (vector<1xf16>) -> ()
    }) : (vector<1xf16>) -> vector<1xf16>
    %137 = "math.floor"(%63) <{fastmath = #arith.fastmath<none>}> : (tensor<19x8xf32>) -> tensor<19x8xf32>
    %138 = "spirv.FUnordLessThanEqual"(%5, %123) : (f32, f32) -> i1
    %139 = "spirv.FNegate"(%112) : (f32) -> f32
    %140 = "index.shru"(%129, %40) : (index, index) -> index
    %141 = "spirv.CL.ceil"(%5) : (f32) -> f32
    %142 = "index.casts"(%105) : (i1) -> index
    %143 = "vector.broadcast"(%117) : (f32) -> vector<19x8x23xf32>
    %144 = "spirv.GL.FMin"(%123, %5) : (f32, f32) -> f32
    %145 = "spirv.CL.sin"(%117) : (f32) -> f32
    %146 = "spirv.GL.SAbs"(%13) : (i16) -> i16
    %147 = "tensor.empty"() : () -> tensor<57xf16>
    %148 = "tensor.unpack"(%53, %147, %19) <{inner_dims_pos = array<i64: 0>, outer_dims_perm = array<i64: 0>, static_inner_tiles = array<i64: -9223372036854775808>}> : (tensor<19x3xf16>, tensor<57xf16>, index) -> tensor<57xf16>
    %149 = "memref.atomic_rmw"(%8, %71, %16, %23, %28) <{kind = 8 : i64}> : (i64, memref<?x8x23xi64>, index, index, index) -> i64
    %150 = "spirv.CL.log"(%110) : (f16) -> f16
    %151 = "spirv.ULessThanEqual"(%15, %15) : (i16, i16) -> i1
    %152 = "spirv.FUnordLessThan"(%150, %11) : (f16, f16) -> i1
    %153 = "math.exp2"(%5) <{fastmath = #arith.fastmath<none>}> : (f32) -> f32
    %154 = "spirv.BitCount"(%80) : (i16) -> i16
    %155 = "spirv.CL.tanh"(%112) : (f32) -> f32
    %156 = "vector.reduction"(%103) <{fastmath = #arith.fastmath<none>, kind = #vector.kind<mul>}> : (vector<1xf16>) -> f16
    %157 = "scf.index_switch"(%32) <{cases = array<i64: 1, 2, 3>}> ({
      %216 = "tensor.empty"() : () -> tensor<3x19xf16>
      %217 = "linalg.transpose"(%53, %216) <{permutation = array<i64: 1, 0>}> ({
      ^bb0(%arg3: f16, %arg4: f16):
        "linalg.yield"(%arg3) : (f16) -> ()
      }) : (tensor<19x3xf16>, tensor<3x19xf16>) -> tensor<3x19xf16>
      %218 = "index.or"(%42, %41) : (index, index) -> index
      %219 = "math.floor"(%53) <{fastmath = #arith.fastmath<none>}> : (tensor<19x3xf16>) -> tensor<19x3xf16>
      %220 = "memref.alloc"() <{operandSegmentSizes = array<i32: 0, 0>}> : () -> memref<57xf16>
      %221 = "tensor.empty"() : () -> tensor<f16>
      %222 = "linalg.dot"(%147, %220, %221) <{operandSegmentSizes = array<i32: 2, 1>}> ({
      ^bb0(%arg3: f16, %arg4: f16, %arg5: f16):
        %234 = "arith.mulf"(%arg3, %arg4) <{fastmath = #arith.fastmath<none>}> : (f16, f16) -> f16
        %235 = "arith.addf"(%arg5, %234) <{fastmath = #arith.fastmath<none>}> : (f16, f16) -> f16
        "linalg.yield"(%235) : (f16) -> ()
      }) {linalg.memoized_indexing_maps = [affine_map<(d0) -> (d0)>, affine_map<(d0) -> (d0)>, affine_map<(d0) -> ()>]} : (tensor<57xf16>, memref<57xf16>, tensor<f16>) -> tensor<f16>
      %223 = "index.ceildivs"(%44, %18) : (index, index) -> index
      %224 = "index.xor"(%39, %129) : (index, index) -> index
      %225 = "arith.addi"(%116, %94) : (i1, i1) -> i1
      %226 = "linalg.copy"(%62, %62) <{operandSegmentSizes = array<i32: 1, 1>}> ({
      ^bb0(%arg3: f16, %arg4: f16):
        "linalg.yield"(%arg3) : (f16) -> ()
      }) : (tensor<19x8xf16>, tensor<19x8xf16>) -> tensor<19x8xf16>
      %227 = "tensor.rank"(%61) : (tensor<?x8x23xf16>) -> index
      %228 = "vector.broadcast"(%152) : (i1) -> vector<2xi1>
      "vector.compressstore"(%74, %26, %21, %29, %228, %121) : (memref<19x8x23xi32>, index, index, index, vector<2xi1>, vector<2xi32>) -> ()
      %229 = "index.maxs"(%42, %102) : (index, index) -> index
      %230 = "tensor.empty"() : () -> tensor<19x19xf16>
      %231 = "linalg.matmul"(%53, %217, %230) <{operandSegmentSizes = array<i32: 2, 1>}> ({
      ^bb0(%arg3: f16, %arg4: f16, %arg5: f16):
        %234 = "arith.mulf"(%arg3, %arg4) <{fastmath = #arith.fastmath<none>}> : (f16, f16) -> f16
        %235 = "arith.addf"(%arg5, %234) <{fastmath = #arith.fastmath<none>}> : (f16, f16) -> f16
        "linalg.yield"(%235) : (f16) -> ()
      }) {linalg.memoized_indexing_maps = [affine_map<(d0, d1, d2) -> (d0, d2)>, affine_map<(d0, d1, d2) -> (d2, d1)>, affine_map<(d0, d1, d2) -> (d0, d1)>]} : (tensor<19x3xf16>, tensor<3x19xf16>, tensor<19x19xf16>) -> tensor<19x19xf16>
      %232 = "index.or"(%101, %44) : (index, index) -> index
      "affine.vector_store"(%103, %79, %115, %92, %130) <{map = affine_map<(d0, d1, d2) -> (d0, d1, d2)>}> : (vector<1xf16>, memref<19x8x23xf16>, index, index, index) -> ()
      %233 = "tensor.dim"(%62, %17) : (tensor<19x8xf16>, index) -> index
      "memref.copy"(%77, %77) : (memref<19x8xi32>, memref<19x8xi32>) -> ()
      "scf.yield"(%224) : (index) -> ()
    }, {
      %216 = "vector.broadcast"(%14) : (f16) -> vector<1x1xf16>
      %217 = "vector.outerproduct"(%98, %103, %216) <{kind = #vector.kind<maxf>}> : (vector<1xf16>, vector<1xf16>, vector<1x1xf16>) -> vector<1x1xf16>
      %218 = "tensor.collapse_shape"(%51) <{reassociation = [[0, 1]]}> : (tensor<3x19xi64>) -> tensor<57xi64>
      %219 = "index.shrs"(%97, %130) : (index, index) -> index
      %220 = "tensor.empty"() : () -> tensor<19x8x23xi32>
      %221 = "math.fpowi"(%54, %220) <{fastmath = #arith.fastmath<none>}> : (tensor<19x8x23xf16>, tensor<19x8x23xi32>) -> tensor<19x8x23xf16>
      %222 = "arith.addf"(%117, %3) <{fastmath = #arith.fastmath<none>}> : (f32, f32) -> f32
      %223 = "index.or"(%113, %46) : (index, index) -> index
      %224 = "affine.parallel"() <{lowerBoundsGroups = dense<1> : tensor<1xi32>, lowerBoundsMap = affine_map<() -> (0)>, reductions = [2], steps = [1], upperBoundsGroups = dense<1> : tensor<1xi32>, upperBoundsMap = affine_map<() -> (3)>}> ({
      ^bb0(%arg3: index):
        %235 = "math.cttz"(%94) : (i1) -> i1
        "affine.yield"(%10) : (i32) -> ()
      }) : () -> memref<3xi32>
      %225 = "math.sqrt"(%5) <{fastmath = #arith.fastmath<none>}> : (f32) -> f32
      %226 = "arith.floordivsi"(%8, %8) : (i64, i64) -> i64
      %227 = "arith.remf"(%125, %112) <{fastmath = #arith.fastmath<none>}> : (f32, f32) -> f32
      %228 = "index.mul"(%28, %21) : (index, index) -> index
      %229 = "index.bool.constant"() <{value = false}> : () -> i1
      %230 = "tensor.extract"(%50, %16, %31) : (tensor<?x19xf16>, index, index) -> f16
      %231 = "memref.alloc"(%38) <{operandSegmentSizes = array<i32: 1, 0>}> : (index) -> memref<?x8xi1>
      "memref.tensor_store"(%60, %231) : (tensor<?x8xi1>, memref<?x8xi1>) -> ()
      %232 = "vector.broadcast"(%141) : (f32) -> vector<19xf32>
      %233:2 = "vector.scan"(%134, %232) <{inclusive = true, kind = #vector.kind<maxf>, reduction_dim = 0 : i64}> : (vector<3x19xf32>, vector<19xf32>) -> (vector<3x19xf32>, vector<19xf32>)
      %234 = "math.round"(%147) <{fastmath = #arith.fastmath<none>}> : (tensor<57xf16>) -> tensor<57xf16>
      "scf.yield"(%39) : (index) -> ()
    }, {
      %216 = "tensor.dim"(%arg0, %17) : (tensor<?x?xf16>, index) -> index
      %217 = "tensor.empty"() : () -> tensor<3x19xi16>
      %218 = "vector.broadcast"(%146) : (i16) -> vector<3x19xi16>
      %219 = "vector.broadcast"(%7) : (i1) -> vector<3x19xi1>
      %220 = "vector.broadcast"(%10) : (i32) -> vector<3x19xi32>
      %221 = "vector.gather"(%217, %28, %36, %220, %219, %218) : (tensor<3x19xi16>, index, index, vector<3x19xi32>, vector<3x19xi1>, vector<3x19xi16>) -> vector<3x19xi16>
      %222 = "math.floor"(%50) <{fastmath = #arith.fastmath<none>}> : (tensor<?x19xf16>) -> tensor<?x19xf16>
      %223 = "math.copysign"(%49, %53) <{fastmath = #arith.fastmath<none>}> : (tensor<19x3xf16>, tensor<19x3xf16>) -> tensor<19x3xf16>
      %224 = "math.roundeven"(%147) <{fastmath = #arith.fastmath<none>}> : (tensor<57xf16>) -> tensor<57xf16>
      %225 = "math.cttz"(%217) : (tensor<3x19xi16>) -> tensor<3x19xi16>
      %226 = "math.log2"(%125) <{fastmath = #arith.fastmath<none>}> : (f32) -> f32
      %227 = "math.exp"(%49) <{fastmath = #arith.fastmath<none>}> : (tensor<19x3xf16>) -> tensor<19x3xf16>
      %228 = "math.log2"(%56) <{fastmath = #arith.fastmath<none>}> : (tensor<?x19xf32>) -> tensor<?x19xf32>
      %229 = "math.tanh"(%50) <{fastmath = #arith.fastmath<none>}> : (tensor<?x19xf16>) -> tensor<?x19xf16>
      %230 = "arith.remf"(%106, %85) <{fastmath = #arith.fastmath<none>}> : (f32, f32) -> f32
      %231 = "math.log1p"(%50) <{fastmath = #arith.fastmath<none>}> : (tensor<?x19xf16>) -> tensor<?x19xf16>
      %232 = "vector.create_mask"(%36, %41) : (index, index) -> vector<19x3xi1>
      %233 = "math.round"(%63) <{fastmath = #arith.fastmath<none>}> : (tensor<19x8xf32>) -> tensor<19x8xf32>
      %234 = "tensor.expand_shape"(%62) <{reassociation = [[0], [1, 2]]}> : (tensor<19x8xf16>) -> tensor<19x8x1xf16>
      %235 = "arith.addf"(%85, %125) <{fastmath = #arith.fastmath<none>}> : (f32, f32) -> f32
      "scf.yield"(%102) : (index) -> ()
    }, {
      %216 = "vector.broadcast"(%141) : (f32) -> vector<19x8x23xf32>
      %217 = "vector.fma"(%216, %143, %216) : (vector<19x8x23xf32>, vector<19x8x23xf32>, vector<19x8x23xf32>) -> vector<19x8x23xf32>
      %218 = "arith.addf"(%144, %117) <{fastmath = #arith.fastmath<none>}> : (f32, f32) -> f32
      %219 = "arith.shrui"(%13, %15) : (i16, i16) -> i16
      %220 = "affine.max"(%43, %31) <{map = affine_map<(d0, d1) -> (d1 mod 4)>}> : (index, index) -> index
      %221 = "tensor.cast"(%57) : (tensor<19x8xi64>) -> tensor<?x?xi64>
      %222 = "math.log"(%50) <{fastmath = #arith.fastmath<none>}> : (tensor<?x19xf16>) -> tensor<?x19xf16>
      %223 = "math.fpowi"(%3, %10) <{fastmath = #arith.fastmath<none>}> : (f32, i32) -> f32
      %224 = "arith.remf"(%139, %126) <{fastmath = #arith.fastmath<none>}> : (f32, f32) -> f32
      %225 = "math.fma"(%62, %62, %62) <{fastmath = #arith.fastmath<none>}> : (tensor<19x8xf16>, tensor<19x8xf16>, tensor<19x8xf16>) -> tensor<19x8xf16>
      %226 = "index.shl"(%30, %102) : (index, index) -> index
      "affine.parallel"() <{lowerBoundsGroups = dense<1> : tensor<2xi32>, lowerBoundsMap = affine_map<() -> (0, 0)>, reductions = [], steps = [1, 1], upperBoundsGroups = dense<1> : tensor<2xi32>, upperBoundsMap = affine_map<() -> (23, 8)>}> ({
      ^bb0(%arg3: index, %arg4: index):
        %231 = "index.shl"(%81, %23) : (index, index) -> index
        "affine.yield"() : () -> ()
      }) : () -> ()
      "scf.execute_region"() ({
        %231 = "vector.broadcast"(%112) : (f32) -> vector<3x19xf32>
        %232 = "vector.fma"(%231, %134, %231) : (vector<3x19xf32>, vector<3x19xf32>, vector<3x19xf32>) -> vector<3x19xf32>
        %233 = "index.maxs"(%22, %130) : (index, index) -> index
        %234 = "math.ctpop"(%132) : (i16) -> i16
        %235 = "index.floordivs"(%28, %129) : (index, index) -> index
        %236 = "index.shru"(%30, %81) : (index, index) -> index
        %237 = "index.floordivs"(%35, %42) : (index, index) -> index
        %238 = "arith.addi"(%15, %80) : (i16, i16) -> i16
        %239 = "arith.remui"(%8, %8) : (i64, i64) -> i64
        %240 = "tensor.dim"(%54, %18) : (tensor<19x8x23xf16>, index) -> index
        %241 = "affine.apply"(%20) <{map = affine_map<(d0) -> ((d0 mod 128) * 8)>}> : (index) -> index
        %242 = "vector.shuffle"(%231, %232) <{mask = [0, 1, 3]}> : (vector<3x19xf32>, vector<3x19xf32>) -> vector<3x19xf32>
        "affine.vector_store"(%103, %78, %26, %20) <{map = affine_map<(d0, d1) -> (d0, d1)>}> : (vector<1xf16>, memref<19x8xf16>, index, index) -> ()
        %243 = "bufferization.to_memref"(%57) : (tensor<19x8xi64>) -> memref<19x8xi64>
        %244 = "tensor.empty"() : () -> tensor<f16>
        %245 = "linalg.dot"(%147, %147, %244) <{operandSegmentSizes = array<i32: 2, 1>}> ({
        ^bb0(%arg3: f16, %arg4: f16, %arg5: f16):
          %248 = "arith.mulf"(%arg3, %arg4) <{fastmath = #arith.fastmath<none>}> : (f16, f16) -> f16
          %249 = "arith.addf"(%arg5, %248) <{fastmath = #arith.fastmath<none>}> : (f16, f16) -> f16
          "linalg.yield"(%249) : (f16) -> ()
        }) : (tensor<57xf16>, tensor<57xf16>, tensor<f16>) -> tensor<f16>
        %246 = "math.round"(%50) <{fastmath = #arith.fastmath<none>}> : (tensor<?x19xf16>) -> tensor<?x19xf16>
        %247 = "memref.load"(%79, %28, %18, %18) <{nontemporal = false}> : (memref<19x8x23xf16>, index, index, index) -> f16
        "scf.yield"() : () -> ()
      }) : () -> ()
      %227 = "math.tanh"(%14) <{fastmath = #arith.fastmath<none>}> : (f16) -> f16
      %228 = "tensor.generate"(%35, %130) ({
      ^bb0(%arg3: index, %arg4: index):
        %231 = "math.round"(%106) <{fastmath = #arith.fastmath<none>}> : (f32) -> f32
        %232 = "index.shru"(%36, %16) : (index, index) -> index
        %233 = "math.powf"(%126, %145) <{fastmath = #arith.fastmath<none>}> : (f32, f32) -> f32
        %234 = "vector.transpose"(%135) <{transp = [1, 0]}> : (vector<3x19xf32>) -> vector<19x3xf32>
        "tensor.yield"(%112) : (f32) -> ()
      }) : (index, index) -> tensor<?x?xf32>
      %229 = "arith.divf"(%14, %150) <{fastmath = #arith.fastmath<none>}> : (f16, f16) -> f16
      %230 = "math.round"(%49) <{fastmath = #arith.fastmath<none>}> : (tensor<19x3xf16>) -> tensor<19x3xf16>
      "scf.yield"(%43) : (index) -> ()
    }) : (index) -> index
    %158 = "tensor.unpack"(%49, %147, %19) <{inner_dims_pos = array<i64: 0>, outer_dims_perm = array<i64: 0>, static_inner_tiles = array<i64: -9223372036854775808>}> : (tensor<19x3xf16>, tensor<57xf16>, index) -> tensor<57xf16>
    %159 = "spirv.GL.SAbs"(%13) : (i16) -> i16
    %160 = "math.log2"(%125) <{fastmath = #arith.fastmath<none>}> : (f32) -> f32
    %161 = "spirv.FOrdEqual"(%144, %91) : (f32, f32) -> i1
    %162 = "vector.broadcast"(%125) : (f32) -> vector<8x23x8x23xf32>
    %163 = "vector.contract"(%143, %143, %162) <{indexing_maps = [affine_map<(d0, d1, d2, d3, d4) -> (d4, d0, d1)>, affine_map<(d0, d1, d2, d3, d4) -> (d4, d2, d3)>, affine_map<(d0, d1, d2, d3, d4) -> (d0, d1, d2, d3)>], iterator_types = [#vector.iterator_type<parallel>, #vector.iterator_type<parallel>, #vector.iterator_type<parallel>, #vector.iterator_type<parallel>, #vector.iterator_type<reduction>], kind = #vector.kind<minf>}> : (vector<19x8x23xf32>, vector<19x8x23xf32>, vector<8x23x8x23xf32>) -> vector<8x23x8x23xf32>
    %164 = "spirv.FUnordGreaterThan"(%106, %155) : (f32, f32) -> i1
    %165 = "spirv.CL.rint"(%123) : (f32) -> f32
    %166 = "spirv.CL.ceil"(%91) : (f32) -> f32
    %167 = "memref.alloc"() <{operandSegmentSizes = array<i32: 0, 0>}> : () -> memref<19x8x23xf16>
    %168 = "index.floordivs"(%33, %97) : (index, index) -> index
    %169 = "affine.vector_load"(%74, %25, %20, %101) <{map = affine_map<(d0, d1, d2) -> (d0, d1, d2)>}> : (memref<19x8x23xi32>, index, index, index) -> vector<19xi32>
    %170 = "vector.contract"(%103, %103, %14) <{indexing_maps = [affine_map<(d0) -> (d0)>, affine_map<(d0) -> (d0)>, affine_map<(d0) -> ()>], iterator_types = [#vector.iterator_type<reduction>], kind = #vector.kind<add>}> : (vector<1xf16>, vector<1xf16>, f16) -> f16
    %171 = "arith.cmpi"(%8, %8) <{predicate = 7 : i64}> : (i64, i64) -> i1
    %172 = "spirv.CL.sqrt"(%165) : (f32) -> f32
    %173 = "arith.shrui"(%94, %arg2) : (i1, i1) -> i1
    %174 = "spirv.BitFieldUExtract"(%121, %154, %88) : (vector<2xi32>, i16, i16) -> vector<2xi32>
    %175 = "spirv.IsNan"(%118) : (f32) -> i1
    %176 = "spirv.CL.fmax"(%1, %91) : (f32, f32) -> f32
    %177 = "spirv.CL.ceil"(%11) : (f16) -> f16
    %178 = "spirv.GL.SClamp"(%159, %159, %132) : (i16, i16, i16) -> i16
    %179 = "spirv.GL.UMax"(%154, %80) : (i16, i16) -> i16
    %180 = "spirv.FOrdLessThanEqual"(%3, %141) : (f32, f32) -> i1
    %181 = "tensor.collapse_shape"(%50) <{reassociation = [[0, 1]]}> : (tensor<?x19xf16>) -> tensor<?xf16>
    %182 = "vector.broadcast"(%141) : (f32) -> vector<3xf32>
    %183:2 = "vector.scan"(%134, %182) <{inclusive = true, kind = #vector.kind<add>, reduction_dim = 1 : i64}> : (vector<3x19xf32>, vector<3xf32>) -> (vector<3x19xf32>, vector<3xf32>)
    %184 = "memref.atomic_rmw"(%11, %72, %16, %32) <{kind = 9 : i64}> : (f16, memref<?x19xf16>, index, index) -> f16
    %185 = "tensor.dim"(%59, %17) : (tensor<?x?xi64>, index) -> index
    %186 = "spirv.FOrdGreaterThan"(%11, %177) : (f16, f16) -> i1
    %187 = "affine.vector_load"(%75, %38, %19, %127) <{map = affine_map<(d0, d1, d2) -> (d0, d1, d2)>}> : (memref<19x8x23xi1>, index, index, index) -> vector<23xi1>
    %188 = "math.cttz"(%154) : (i16) -> i16
    %189 = "vector.broadcast"(%10) : (i32) -> vector<19x19xi32>
    %190 = "vector.outerproduct"(%169, %169, %189) <{kind = #vector.kind<or>}> : (vector<19xi32>, vector<19xi32>, vector<19x19xi32>) -> vector<19x19xi32>
    %191 = "tensor.empty"() : () -> tensor<19x8x8xi32>
    %192 = "linalg.broadcast"(%77, %191) <{dimensions = array<i64: 2>}> ({
    ^bb0(%arg3: i32, %arg4: i32):
      "linalg.yield"(%arg3) : (i32) -> ()
    }) : (memref<19x8xi32>, tensor<19x8x8xi32>) -> tensor<19x8x8xi32>
    %193 = "linalg.copy"(%63, %63) <{operandSegmentSizes = array<i32: 1, 1>}> ({
    ^bb0(%arg3: f32, %arg4: f32):
      "linalg.yield"(%arg3) : (f32) -> ()
    }) : (tensor<19x8xf32>, tensor<19x8xf32>) -> tensor<19x8xf32>
    %194 = "memref.alloc"(%92, %92) <{operandSegmentSizes = array<i32: 2, 0>}> : (index, index) -> memref<?x?xi64>
    "memref.tensor_store"(%59, %194) : (tensor<?x?xi64>, memref<?x?xi64>) -> ()
    %195 = "vector.broadcast"(%110) : (f16) -> vector<19x8x23xf16>
    %196 = "math.rsqrt"(%112) <{fastmath = #arith.fastmath<none>}> : (f32) -> f32
    %197 = "spirv.GL.FMin"(%125, %139) : (f32, f32) -> f32
    %198 = "tensor.extract"(%57, %34, %18) : (tensor<19x8xi64>, index, index) -> i64
    %199 = "math.exp"(%63) <{fastmath = #arith.fastmath<none>}> : (tensor<19x8xf32>) -> tensor<19x8xf32>
    %200 = "spirv.CL.exp"(%141) : (f32) -> f32
    %201 = "spirv.CL.ceil"(%4) : (f32) -> f32
    %202 = "arith.floordivsi"(%198, %6) : (i64, i64) -> i64
    %203 = "spirv.BitCount"(%121) : (vector<2xi32>) -> vector<2xi32>
    "scf.index_switch"(%41) <{cases = array<i64: 1>}> ({
      %216 = "vector.broadcast"(%11) : (f16) -> vector<1x1xf16>
      %217 = "vector.outerproduct"(%103, %103, %216) <{kind = #vector.kind<mul>}> : (vector<1xf16>, vector<1xf16>, vector<1x1xf16>) -> vector<1x1xf16>
      %218 = "tensor.collapse_shape"(%63) <{reassociation = [[0, 1]]}> : (tensor<19x8xf32>) -> tensor<152xf32>
      %219 = "memref.alloc"() <{operandSegmentSizes = array<i32: 0, 0>}> : () -> memref<23xi16>
      %220 = "memref.realloc"(%219) : (memref<23xi16>) -> memref<8xi16>
      %221 = "tensor.empty"() : () -> tensor<19x8x8x8xi32>
      %222 = "linalg.broadcast"(%191, %221) <{dimensions = array<i64: 3>}> ({
      ^bb0(%arg3: i32, %arg4: i32):
        "linalg.yield"(%arg3) : (i32) -> ()
      }) : (tensor<19x8x8xi32>, tensor<19x8x8x8xi32>) -> tensor<19x8x8x8xi32>
      %223 = "affine.apply"(%185, %185, %47, %42) <{map = affine_map<(d0, d1, d2)[s0] -> (-d0)>}> : (index, index, index, index) -> index
      %224 = "tensor.insert"(%arg2, %58, %18, %29) : (i1, tensor<3x19xi1>, index, index) -> tensor<3x19xi1>
      %225 = "index.maxs"(%24, %32) : (index, index) -> index
      %226 = "affine.vector_load"(%70, %40, %113) <{map = affine_map<(d0, d1) -> (d0, d1)>}> : (memref<3x19xi1>, index, index) -> vector<8xi1>
      %227 = "scf.index_switch"(%44) <{cases = array<i64: 1, 2, 3, 4>}> ({
        %234 = "arith.cmpi"(%152, %105) <{predicate = 9 : i64}> : (i1, i1) -> i1
        %235 = "math.copysign"(%155, %91) <{fastmath = #arith.fastmath<none>}> : (f32, f32) -> f32
        %236 = "math.sqrt"(%166) <{fastmath = #arith.fastmath<none>}> : (f32) -> f32
        %237 = "math.roundeven"(%49) <{fastmath = #arith.fastmath<none>}> : (tensor<19x3xf16>) -> tensor<19x3xf16>
        %238 = "arith.constant"() <{value = false}> : () -> i1
        %239 = "vector.transfer_read"(%70, %18, %101, %238) <{operandSegmentSizes = array<i32: 1, 2, 1, 0>, permutation_map = affine_map<(d0, d1) -> (0)>}> : (memref<3x19xi1>, index, index, i1) -> vector<19xi1>
        %240 = "vector.broadcast"(%201) : (f32) -> vector<3xf32>
        %241:2 = "vector.scan"(%134, %240) <{inclusive = false, kind = #vector.kind<mul>, reduction_dim = 1 : i64}> : (vector<3x19xf32>, vector<3xf32>) -> (vector<3x19xf32>, vector<3xf32>)
        %242 = "math.exp"(%56) <{fastmath = #arith.fastmath<none>}> : (tensor<?x19xf32>) -> tensor<?x19xf32>
        %243 = "arith.remf"(%118, %200) <{fastmath = #arith.fastmath<none>}> : (f32, f32) -> f32
        %244 = "arith.shrui"(%198, %6) : (i64, i64) -> i64
        %245 = "math.ceil"(%arg0) <{fastmath = #arith.fastmath<none>}> : (tensor<?x?xf16>) -> tensor<?x?xf16>
        "affine.vector_store"(%169, %124, %35, %97, %40) <{map = affine_map<(d0, d1, d2) -> (d0, d1, d2)>}> : (vector<19xi32>, memref<19x8x23xi32>, index, index, index) -> ()
        %246 = "arith.mulf"(%176, %0) <{fastmath = #arith.fastmath<none>}> : (f32, f32) -> f32
        %247 = "index.bool.constant"() <{value = true}> : () -> i1
        "affine.vector_store"(%121, %100, %40, %36, %119) <{map = affine_map<(d0, d1, d2) -> (d0, d1, d2)>}> : (vector<2xi32>, memref<19x8x23xi32>, index, index, index) -> ()
        %248 = "math.round"(%50) <{fastmath = #arith.fastmath<none>}> : (tensor<?x19xf16>) -> tensor<?x19xf16>
        %249 = "arith.muli"(%15, %154) : (i16, i16) -> i16
        %250 = "vector.broadcast"(%110) : (f16) -> vector<19x8xf16>
        "scf.yield"(%250) : (vector<19x8xf16>) -> ()
      }, {
        %234 = "vector.broadcast"(%165) : (f32) -> vector<3xf32>
        %235:2 = "vector.scan"(%135, %234) <{inclusive = true, kind = #vector.kind<add>, reduction_dim = 1 : i64}> : (vector<3x19xf32>, vector<3xf32>) -> (vector<3x19xf32>, vector<3xf32>)
        %236 = "bufferization.clone"(%79) : (memref<19x8x23xf16>) -> memref<19x8x23xf16>
        %237 = "affine.max"(%45, %40, %25) <{map = affine_map<(d0, d1)[s0] -> (-d0)>}> : (index, index, index) -> index
        %238 = "vector.matrix_multiply"(%103, %98) <{lhs_columns = 1 : i32, lhs_rows = 1 : i32, rhs_columns = 1 : i32}> : (vector<1xf16>, vector<1xf16>) -> vector<1xf16>
        %239 = "tensor.empty"() : () -> tensor<3x8xi32>
        %240 = "linalg.matmul"(%48, %77, %239) <{operandSegmentSizes = array<i32: 2, 1>}> ({
        ^bb0(%arg3: i32, %arg4: i32, %arg5: i32):
          %252 = "arith.muli"(%arg3, %arg4) : (i32, i32) -> i32
          %253 = "arith.addi"(%arg5, %252) : (i32, i32) -> i32
          "linalg.yield"(%253) : (i32) -> ()
        }) : (tensor<3x19xi32>, memref<19x8xi32>, tensor<3x8xi32>) -> tensor<3x8xi32>
        %241 = "math.sqrt"(%56) <{fastmath = #arith.fastmath<none>}> : (tensor<?x19xf32>) -> tensor<?x19xf32>
        %242 = "math.ctlz"(%222) : (tensor<19x8x8x8xi32>) -> tensor<19x8x8x8xi32>
        "bufferization.dealloc_tensor"(%181) : (tensor<?xf16>) -> ()
        "bufferization.dealloc_tensor"(%59) : (tensor<?x?xi64>) -> ()
        %243 = "arith.negf"(%112) <{fastmath = #arith.fastmath<none>}> : (f32) -> f32
        %244 = "index.xor"(%108, %113) : (index, index) -> index
        %245 = "vector.matrix_multiply"(%121, %121) <{lhs_columns = 2 : i32, lhs_rows = 1 : i32, rhs_columns = 1 : i32}> : (vector<2xi32>, vector<2xi32>) -> vector<1xi32>
        %246 = "math.log2"(%52) <{fastmath = #arith.fastmath<none>}> : (tensor<?x3xf32>) -> tensor<?x3xf32>
        %247 = "math.copysign"(%150, %11) <{fastmath = #arith.fastmath<none>}> : (f16, f16) -> f16
        %248 = "vector.broadcast"(%176) : (f32) -> vector<3xf32>
        %249:2 = "vector.scan"(%134, %248) <{inclusive = false, kind = #vector.kind<mul>, reduction_dim = 1 : i64}> : (vector<3x19xf32>, vector<3xf32>) -> (vector<3x19xf32>, vector<3xf32>)
        %250 = "math.sqrt"(%50) <{fastmath = #arith.fastmath<none>}> : (tensor<?x19xf16>) -> tensor<?x19xf16>
        %251 = "vector.broadcast"(%11) : (f16) -> vector<19x8xf16>
        "scf.yield"(%251) : (vector<19x8xf16>) -> ()
      }, {
        %234 = "math.floor"(%141) <{fastmath = #arith.fastmath<none>}> : (f32) -> f32
        %235 = "math.sqrt"(%176) <{fastmath = #arith.fastmath<none>}> : (f32) -> f32
        %236 = "arith.cmpf"(%177, %14) <{predicate = 7 : i64}> : (f16, f16) -> i1
        %237 = "math.atan2"(%14, %11) <{fastmath = #arith.fastmath<none>}> : (f16, f16) -> f16
        %238 = "math.log2"(%155) <{fastmath = #arith.fastmath<none>}> : (f32) -> f32
        "affine.vector_store"(%121, %77, %92, %16) <{map = affine_map<(d0, d1) -> (d0, d1)>}> : (vector<2xi32>, memref<19x8xi32>, index, index) -> ()
        %239 = "vector.broadcast"(%198) : (i64) -> vector<19xi64>
        %240 = "vector.broadcast"(%138) : (i1) -> vector<19xi1>
        "vector.compressstore"(%67, %16, %22, %240, %239) : (memref<?x8xi64>, index, index, vector<19xi1>, vector<19xi64>) -> ()
        %241 = "memref.alloc"() <{operandSegmentSizes = array<i32: 0, 0>}> : () -> memref<23x19x8xf16>
        "linalg.transpose"(%79, %241) <{permutation = array<i64: 2, 0, 1>}> ({
        ^bb0(%arg3: f16, %arg4: f16):
          "linalg.yield"(%arg3) : (f16) -> ()
        }) : (memref<19x8x23xf16>, memref<23x19x8xf16>) -> ()
        %242 = "affine.max"(%40, %21, %127, %38) <{map = affine_map<(d0, d1, d2)[s0] -> ((d2 ceildiv 32 + d1) floordiv 8)>}> : (index, index, index, index) -> index
        %243 = "arith.remui"(%164, %arg2) : (i1, i1) -> i1
        %244 = "math.log2"(%53) <{fastmath = #arith.fastmath<none>}> : (tensor<19x3xf16>) -> tensor<19x3xf16>
        %245 = "vector.broadcast"(%175) : (i1) -> vector<1xi1>
        "vector.compressstore"(%241, %21, %31, %23, %245, %98) : (memref<23x19x8xf16>, index, index, index, vector<1xi1>, vector<1xf16>) -> ()
        %246 = "vector.splat"(%130) : (index) -> vector<19x3xindex>
        %247 = "math.copysign"(%4, %125) <{fastmath = #arith.fastmath<none>}> : (f32, f32) -> f32
        %248 = "math.absf"(%arg0) <{fastmath = #arith.fastmath<none>}> : (tensor<?x?xf16>) -> tensor<?x?xf16>
        %249 = "arith.shrsi"(%180, %116) : (i1, i1) -> i1
        %250 = "vector.broadcast"(%177) : (f16) -> vector<19x8xf16>
        "scf.yield"(%250) : (vector<19x8xf16>) -> ()
      }, {
        %234 = "arith.remui"(%175, %116) : (i1, i1) -> i1
        %235 = "math.round"(%165) <{fastmath = #arith.fastmath<none>}> : (f32) -> f32
        %236 = "tensor.dim"(%55, %18) : (tensor<19x8x23xi1>, index) -> index
        "affine.store"(%159, %76, %47, %20, %47) <{map = affine_map<(d0, d1, d2) -> (d0, d1, d2)>}> : (i16, memref<19x8x23xi16>, index, index, index) -> ()
        %237 = "affine.min"(%38) <{map = affine_map<(d0) -> ((d0 mod 128) * 8)>}> : (index) -> index
        %238 = "vector.broadcast"(%114) : (i1) -> vector<1xi1>
        "vector.compressstore"(%79, %23, %17, %32, %238, %103) : (memref<19x8x23xf16>, index, index, index, vector<1xi1>, vector<1xf16>) -> ()
        %239 = "index.casts"(%47) : (index) -> i32
        %240 = "tensor.empty"() : () -> tensor<f32>
        %241 = "linalg.dot"(%218, %218, %240) <{operandSegmentSizes = array<i32: 2, 1>}> ({
        ^bb0(%arg3: f32, %arg4: f32, %arg5: f32):
          %251 = "arith.mulf"(%arg3, %arg4) <{fastmath = #arith.fastmath<none>}> : (f32, f32) -> f32
          %252 = "arith.addf"(%arg5, %251) <{fastmath = #arith.fastmath<none>}> : (f32, f32) -> f32
          "linalg.yield"(%252) : (f32) -> ()
        }) : (tensor<152xf32>, tensor<152xf32>, tensor<f32>) -> tensor<f32>
        %242 = "math.log2"(%106) <{fastmath = #arith.fastmath<none>}> : (f32) -> f32
        %243 = "math.round"(%56) <{fastmath = #arith.fastmath<none>}> : (tensor<?x19xf32>) -> tensor<?x19xf32>
        %244 = "math.sqrt"(%49) <{fastmath = #arith.fastmath<none>}> : (tensor<19x3xf16>) -> tensor<19x3xf16>
        %245 = "arith.ori"(%154, %13) : (i16, i16) -> i16
        %246 = "vector.flat_transpose"(%121) <{columns = 1 : i32, rows = 2 : i32}> : (vector<2xi32>) -> vector<2xi32>
        %247 = "math.exp"(%61) <{fastmath = #arith.fastmath<none>}> : (tensor<?x8x23xf16>) -> tensor<?x8x23xf16>
        %248 = "arith.mulf"(%2, %123) <{fastmath = #arith.fastmath<none>}> : (f32, f32) -> f32
        %249 = "vector.flat_transpose"(%187) <{columns = 23 : i32, rows = 1 : i32}> : (vector<23xi1>) -> vector<23xi1>
        %250 = "vector.broadcast"(%11) : (f16) -> vector<19x8xf16>
        "scf.yield"(%250) : (vector<19x8xf16>) -> ()
      }, {
        %234 = "arith.addi"(%7, %161) : (i1, i1) -> i1
        %235 = "index.maxu"(%185, %39) : (index, index) -> index
        %236 = "arith.cmpf"(%150, %11) <{predicate = 13 : i64}> : (f16, f16) -> i1
        %237 = "tensor.rank"(%62) : (tensor<19x8xf16>) -> index
        %238 = "arith.remui"(%132, %88) : (i16, i16) -> i16
        %239 = "vector.matrix_multiply"(%98, %98) <{lhs_columns = 1 : i32, lhs_rows = 1 : i32, rhs_columns = 1 : i32}> : (vector<1xf16>, vector<1xf16>) -> vector<1xf16>
        %240 = "tensor.collapse_shape"(%59) <{reassociation = [[0, 1]]}> : (tensor<?x?xi64>) -> tensor<?xi64>
        %241 = "arith.andi"(%146, %88) : (i16, i16) -> i16
        %242 = "affine.vector_load"(%71, %92, %41, %142) <{map = affine_map<(d0, d1, d2) -> (d0, d1, d2)>}> : (memref<?x8x23xi64>, index, index, index) -> vector<23xi64>
        %243 = "arith.divf"(%106, %117) <{fastmath = #arith.fastmath<none>}> : (f32, f32) -> f32
        %244 = "tensor.empty"() : () -> tensor<19x8x23xi32>
        %245 = "linalg.broadcast"(%77, %244) <{dimensions = array<i64: 2>}> ({
        ^bb0(%arg3: i32, %arg4: i32):
          "linalg.yield"(%arg3) : (i32) -> ()
        }) : (memref<19x8xi32>, tensor<19x8x23xi32>) -> tensor<19x8x23xi32>
        %246 = "math.floor"(%106) <{fastmath = #arith.fastmath<none>}> : (f32) -> f32
        %247 = "vector.extract"(%143) <{static_position = array<i64: 16>}> : (vector<19x8x23xf32>) -> vector<8x23xf32>
        %248 = "arith.xori"(%105, %186) : (i1, i1) -> i1
        %249 = "vector.extract"(%121) <{static_position = array<i64: 1>}> : (vector<2xi32>) -> i32
        %250 = "affine.load"(%77, %23, %28) <{map = affine_map<(d0, d1) -> (d0, d1)>}> : (memref<19x8xi32>, index, index) -> i32
        %251 = "vector.broadcast"(%14) : (f16) -> vector<19x8xf16>
        "scf.yield"(%251) : (vector<19x8xf16>) -> ()
      }) : (index) -> vector<19x8xf16>
      %228 = "arith.divui"(%151, %arg2) : (i1, i1) -> i1
      %229 = "index.maxu"(%130, %28) : (index, index) -> index
      "affine.store"(%94, %70, %30, %46) <{map = affine_map<(d0, d1) -> (d0, d1)>}> : (i1, memref<3x19xi1>, index, index) -> ()
      %230 = "memref.alloc"() <{operandSegmentSizes = array<i32: 0, 0>}> : () -> memref<23x19x8xi1>
      "linalg.transpose"(%55, %230) <{permutation = array<i64: 2, 0, 1>}> ({
      ^bb0(%arg3: i1, %arg4: i1):
        "linalg.yield"(%arg3) : (i1) -> ()
      }) : (tensor<19x8x23xi1>, memref<23x19x8xi1>) -> ()
      %231 = "arith.andi"(%105, %7) : (i1, i1) -> i1
      %232 = "math.ctlz"(%154) : (i16) -> i16
      %233 = "index.sizeof"() : () -> index
      "scf.yield"() : () -> ()
    }, {
      %216 = "affine.parallel"() <{lowerBoundsGroups = dense<1> : tensor<3xi32>, lowerBoundsMap = affine_map<() -> (0, 0, 0)>, reductions = [10], steps = [1, 1, 1], upperBoundsGroups = dense<1> : tensor<3xi32>, upperBoundsMap = affine_map<() -> (19, 23, 8)>}> ({
      ^bb0(%arg3: index, %arg4: index, %arg5: index):
        %237 = "tensor.empty"() : () -> tensor<57xi32>
        %238 = "tensor.unpack"(%48, %237, %35) <{inner_dims_pos = array<i64: 0>, outer_dims_perm = array<i64: 0>, static_inner_tiles = array<i64: -9223372036854775808>}> : (tensor<3x19xi32>, tensor<57xi32>, index) -> tensor<57xi32>
        "affine.yield"(%8) : (i64) -> ()
      }) : () -> memref<19x23x8xi64>
      %217 = "vector.broadcast"(%117) : (f32) -> vector<3x19xf32>
      %218 = "vector.fma"(%217, %135, %217) : (vector<3x19xf32>, vector<3x19xf32>, vector<3x19xf32>) -> vector<3x19xf32>
      %219 = "math.tanh"(%85) <{fastmath = #arith.fastmath<none>}> : (f32) -> f32
      %220 = "vector.broadcast"(%142) : (index) -> vector<3xindex>
      %221 = "vector.broadcast"(%138) : (i1) -> vector<3xi1>
      %222 = "vector.broadcast"(%14) : (f16) -> vector<3xf16>
      "vector.scatter"(%79, %16, %19, %23, %220, %221, %222) : (memref<19x8x23xf16>, index, index, index, vector<3xindex>, vector<3xi1>, vector<3xf16>) -> ()
      %223 = "tensor.dim"(%50, %16) : (tensor<?x19xf16>, index) -> index
      %224 = "tensor.empty"() : () -> tensor<8x19x8xi32>
      %225 = "linalg.transpose"(%192, %224) <{permutation = array<i64: 2, 0, 1>}> ({
      ^bb0(%arg3: i32, %arg4: i32):
        "linalg.yield"(%arg3) : (i32) -> ()
      }) : (tensor<19x8x8xi32>, tensor<8x19x8xi32>) -> tensor<8x19x8xi32>
      %226 = "arith.minui"(%159, %80) : (i16, i16) -> i16
      %227 = "math.log1p"(%61) <{fastmath = #arith.fastmath<none>}> : (tensor<?x8x23xf16>) -> tensor<?x8x23xf16>
      %228 = "tensor.empty"() : () -> tensor<19x3xi32>
      %229 = "math.fpowi"(%49, %228) <{fastmath = #arith.fastmath<none>}> : (tensor<19x3xf16>, tensor<19x3xi32>) -> tensor<19x3xf16>
      %230 = "math.round"(%54) <{fastmath = #arith.fastmath<none>}> : (tensor<19x8x23xf16>) -> tensor<19x8x23xf16>
      %231 = "math.atan2"(%110, %110) <{fastmath = #arith.fastmath<none>}> : (f16, f16) -> f16
      %232 = "tensor.dim"(%62, %17) : (tensor<19x8xf16>, index) -> index
      %233 = "affine.min"(%23, %42) <{map = affine_map<(d0)[s0] -> ((d0 * -128 + 64) * 64)>}> : (index, index) -> index
      %234 = "tensor.generate"(%25) ({
      ^bb0(%arg3: index, %arg4: index):
        %237 = "index.ceildivu"(%22, %223) : (index, index) -> index
        %238 = "affine.vector_load"(%100, %41, %84, %47) <{map = affine_map<(d0, d1, d2) -> (d0, d1, d2)>}> : (memref<19x8x23xi32>, index, index, index) -> vector<8xi32>
        %239 = "vector.splat"(%33) : (index) -> vector<3x19xindex>
        %240 = "math.round"(%49) <{fastmath = #arith.fastmath<none>}> : (tensor<19x3xf16>) -> tensor<19x3xf16>
        "tensor.yield"(%126) : (f32) -> ()
      }) : (index) -> tensor<?x3xf32>
      %235 = "math.ctlz"(%152) : (i1) -> i1
      %236 = "vector.reduction"(%121) <{fastmath = #arith.fastmath<none>, kind = #vector.kind<mul>}> : (vector<2xi32>) -> i32
      "scf.yield"() : () -> ()
    }) : (index) -> ()
    %204 = "spirv.FUnordGreaterThan"(%106, %106) : (f32, f32) -> i1
    %205 = "spirv.FOrdGreaterThan"(%139, %201) : (f32, f32) -> i1
    %206 = "spirv.GL.SClamp"(%80, %13, %88) : (i16, i16, i16) -> i16
    %207 = "vector.flat_transpose"(%169) <{columns = 19 : i32, rows = 1 : i32}> : (vector<19xi32>) -> vector<19xi32>
    %208 = "spirv.CL.exp"(%145) : (f32) -> f32
    %209 = "vector.transpose"(%187) <{transp = [0]}> : (vector<23xi1>) -> vector<23xi1>
    %210 = "arith.andi"(%175, %164) : (i1, i1) -> i1
    %211 = "spirv.GL.Floor"(%144) : (f32) -> f32
    %212 = "spirv.GL.SAbs"(%146) : (i16) -> i16
    %213 = "spirv.GL.Fma"(%200, %211, %165) : (f32, f32, f32) -> f32
    %214 = "math.absf"(%62) <{fastmath = #arith.fastmath<none>}> : (tensor<19x8xf16>) -> tensor<19x8xf16>
    %215 = "math.rsqrt"(%2) <{fastmath = #arith.fastmath<none>}> : (f32) -> f32
    "vector.print"(%98) <{punctuation = #vector.punctuation<newline>}> : (vector<1xf16>) -> ()
    "vector.print"(%103) <{punctuation = #vector.punctuation<newline>}> : (vector<1xf16>) -> ()
    "vector.print"(%121) <{punctuation = #vector.punctuation<newline>}> : (vector<2xi32>) -> ()
    "vector.print"(%134) <{punctuation = #vector.punctuation<newline>}> : (vector<3x19xf32>) -> ()
    "vector.print"(%135) <{punctuation = #vector.punctuation<newline>}> : (vector<3x19xf32>) -> ()
    "vector.print"(%143) <{punctuation = #vector.punctuation<newline>}> : (vector<19x8x23xf32>) -> ()
    "vector.print"(%169) <{punctuation = #vector.punctuation<newline>}> : (vector<19xi32>) -> ()
    "vector.print"(%187) <{punctuation = #vector.punctuation<newline>}> : (vector<23xi1>) -> ()
    "vector.print"(%195) <{punctuation = #vector.punctuation<newline>}> : (vector<19x8x23xf16>) -> ()
    "vector.print"(%207) <{punctuation = #vector.punctuation<newline>}> : (vector<19xi32>) -> ()
    "vector.print"(%arg2) <{punctuation = #vector.punctuation<newline>}> : (i1) -> ()
    "vector.print"(%0) <{punctuation = #vector.punctuation<newline>}> : (f32) -> ()
    "vector.print"(%1) <{punctuation = #vector.punctuation<newline>}> : (f32) -> ()
    "vector.print"(%2) <{punctuation = #vector.punctuation<newline>}> : (f32) -> ()
    "vector.print"(%3) <{punctuation = #vector.punctuation<newline>}> : (f32) -> ()
    "vector.print"(%4) <{punctuation = #vector.punctuation<newline>}> : (f32) -> ()
    "vector.print"(%5) <{punctuation = #vector.punctuation<newline>}> : (f32) -> ()
    "vector.print"(%6) <{punctuation = #vector.punctuation<newline>}> : (i64) -> ()
    "vector.print"(%7) <{punctuation = #vector.punctuation<newline>}> : (i1) -> ()
    "vector.print"(%8) <{punctuation = #vector.punctuation<newline>}> : (i64) -> ()
    "vector.print"(%9) <{punctuation = #vector.punctuation<newline>}> : (i16) -> ()
    "vector.print"(%10) <{punctuation = #vector.punctuation<newline>}> : (i32) -> ()
    "vector.print"(%11) <{punctuation = #vector.punctuation<newline>}> : (f16) -> ()
    "vector.print"(%12) <{punctuation = #vector.punctuation<newline>}> : (i1) -> ()
    "vector.print"(%13) <{punctuation = #vector.punctuation<newline>}> : (i16) -> ()
    "vector.print"(%14) <{punctuation = #vector.punctuation<newline>}> : (f16) -> ()
    "vector.print"(%15) <{punctuation = #vector.punctuation<newline>}> : (i16) -> ()
    "vector.print"(%80) <{punctuation = #vector.punctuation<newline>}> : (i16) -> ()
    "vector.print"(%85) <{punctuation = #vector.punctuation<newline>}> : (f32) -> ()
    "vector.print"(%88) <{punctuation = #vector.punctuation<newline>}> : (i16) -> ()
    "vector.print"(%91) <{punctuation = #vector.punctuation<newline>}> : (f32) -> ()
    "vector.print"(%94) <{punctuation = #vector.punctuation<newline>}> : (i1) -> ()
    "vector.print"(%105) <{punctuation = #vector.punctuation<newline>}> : (i1) -> ()
    "vector.print"(%106) <{punctuation = #vector.punctuation<newline>}> : (f32) -> ()
    "vector.print"(%110) <{punctuation = #vector.punctuation<newline>}> : (f16) -> ()
    "vector.print"(%112) <{punctuation = #vector.punctuation<newline>}> : (f32) -> ()
    "vector.print"(%114) <{punctuation = #vector.punctuation<newline>}> : (i1) -> ()
    "vector.print"(%116) <{punctuation = #vector.punctuation<newline>}> : (i1) -> ()
    "vector.print"(%117) <{punctuation = #vector.punctuation<newline>}> : (f32) -> ()
    "vector.print"(%118) <{punctuation = #vector.punctuation<newline>}> : (f32) -> ()
    "vector.print"(%123) <{punctuation = #vector.punctuation<newline>}> : (f32) -> ()
    "vector.print"(%125) <{punctuation = #vector.punctuation<newline>}> : (f32) -> ()
    "vector.print"(%126) <{punctuation = #vector.punctuation<newline>}> : (f32) -> ()
    "vector.print"(%131) <{punctuation = #vector.punctuation<newline>}> : (f32) -> ()
    "vector.print"(%132) <{punctuation = #vector.punctuation<newline>}> : (i16) -> ()
    "vector.print"(%138) <{punctuation = #vector.punctuation<newline>}> : (i1) -> ()
    "vector.print"(%139) <{punctuation = #vector.punctuation<newline>}> : (f32) -> ()
    "vector.print"(%141) <{punctuation = #vector.punctuation<newline>}> : (f32) -> ()
    "vector.print"(%144) <{punctuation = #vector.punctuation<newline>}> : (f32) -> ()
    "vector.print"(%145) <{punctuation = #vector.punctuation<newline>}> : (f32) -> ()
    "vector.print"(%146) <{punctuation = #vector.punctuation<newline>}> : (i16) -> ()
    "vector.print"(%150) <{punctuation = #vector.punctuation<newline>}> : (f16) -> ()
    "vector.print"(%151) <{punctuation = #vector.punctuation<newline>}> : (i1) -> ()
    "vector.print"(%152) <{punctuation = #vector.punctuation<newline>}> : (i1) -> ()
    "vector.print"(%154) <{punctuation = #vector.punctuation<newline>}> : (i16) -> ()
    "vector.print"(%155) <{punctuation = #vector.punctuation<newline>}> : (f32) -> ()
    "vector.print"(%159) <{punctuation = #vector.punctuation<newline>}> : (i16) -> ()
    "vector.print"(%161) <{punctuation = #vector.punctuation<newline>}> : (i1) -> ()
    "vector.print"(%164) <{punctuation = #vector.punctuation<newline>}> : (i1) -> ()
    "vector.print"(%165) <{punctuation = #vector.punctuation<newline>}> : (f32) -> ()
    "vector.print"(%166) <{punctuation = #vector.punctuation<newline>}> : (f32) -> ()
    "vector.print"(%172) <{punctuation = #vector.punctuation<newline>}> : (f32) -> ()
    "vector.print"(%175) <{punctuation = #vector.punctuation<newline>}> : (i1) -> ()
    "vector.print"(%176) <{punctuation = #vector.punctuation<newline>}> : (f32) -> ()
    "vector.print"(%177) <{punctuation = #vector.punctuation<newline>}> : (f16) -> ()
    "vector.print"(%178) <{punctuation = #vector.punctuation<newline>}> : (i16) -> ()
    "vector.print"(%179) <{punctuation = #vector.punctuation<newline>}> : (i16) -> ()
    "vector.print"(%180) <{punctuation = #vector.punctuation<newline>}> : (i1) -> ()
    "vector.print"(%186) <{punctuation = #vector.punctuation<newline>}> : (i1) -> ()
    "vector.print"(%197) <{punctuation = #vector.punctuation<newline>}> : (f32) -> ()
    "vector.print"(%198) <{punctuation = #vector.punctuation<newline>}> : (i64) -> ()
    "vector.print"(%200) <{punctuation = #vector.punctuation<newline>}> : (f32) -> ()
    "vector.print"(%201) <{punctuation = #vector.punctuation<newline>}> : (f32) -> ()
    "vector.print"(%204) <{punctuation = #vector.punctuation<newline>}> : (i1) -> ()
    "vector.print"(%205) <{punctuation = #vector.punctuation<newline>}> : (i1) -> ()
    "vector.print"(%206) <{punctuation = #vector.punctuation<newline>}> : (i16) -> ()
    "vector.print"(%208) <{punctuation = #vector.punctuation<newline>}> : (f32) -> ()
    "vector.print"(%211) <{punctuation = #vector.punctuation<newline>}> : (f32) -> ()
    "vector.print"(%212) <{punctuation = #vector.punctuation<newline>}> : (i16) -> ()
    "vector.print"(%213) <{punctuation = #vector.punctuation<newline>}> : (f32) -> ()
    "func.return"() : () -> ()
  }) : () -> ()
}) : () -> ()
