"builtin.module"() ({
  "func.func"() <{function_type = (tensor<19x29xi64>) -> (), sym_name = "func1", sym_visibility = "nested"}> ({
  ^bb0(%arg0: tensor<19x29xi64>):
    %0 = "arith.constant"() <{value = 5.484800e+04 : f16}> : () -> f16
    %1 = "arith.constant"() <{value = 27095 : i16}> : () -> i16
    %2 = "arith.constant"() <{value = 0x4DE956D6 : f32}> : () -> f32
    %3 = "arith.constant"() <{value = -8011 : i16}> : () -> i16
    %4 = "arith.constant"() <{value = -25992 : i16}> : () -> i16
    %5 = "arith.constant"() <{value = 6.788000e+03 : f16}> : () -> f16
    %6 = "arith.constant"() <{value = 1.49357018E+9 : f32}> : () -> f32
    %7 = "arith.constant"() <{value = 1.72445862E+9 : f32}> : () -> f32
    %8 = "arith.constant"() <{value = 939857957 : i64}> : () -> i64
    %9 = "arith.constant"() <{value = 2032878246 : i64}> : () -> i64
    %10 = "arith.constant"() <{value = 9.592000e+03 : f16}> : () -> f16
    %11 = "arith.constant"() <{value = 1078630833 : i64}> : () -> i64
    %12 = "arith.constant"() <{value = 2.299200e+04 : f16}> : () -> f16
    %13 = "arith.constant"() <{value = 4.057600e+04 : f16}> : () -> f16
    %14 = "arith.constant"() <{value = 560718294 : i32}> : () -> i32
    %15 = "arith.constant"() <{value = 1175396684 : i32}> : () -> i32
    %16 = "arith.constant"() <{value = 0 : index}> : () -> index
    %17 = "arith.constant"() <{value = 1 : index}> : () -> index
    %18 = "arith.constant"() <{value = 2 : index}> : () -> index
    %19 = "arith.constant"() <{value = 3 : index}> : () -> index
    %20 = "arith.constant"() <{value = 4 : index}> : () -> index
    %21 = "arith.constant"() <{value = 5 : index}> : () -> index
    %22 = "arith.constant"() <{value = 6 : index}> : () -> index
    %23 = "arith.constant"() <{value = 7 : index}> : () -> index
    %24 = "arith.constant"() <{value = 8 : index}> : () -> index
    %25 = "arith.constant"() <{value = 9 : index}> : () -> index
    %26 = "arith.constant"() <{value = 10 : index}> : () -> index
    %27 = "arith.constant"() <{value = 11 : index}> : () -> index
    %28 = "arith.constant"() <{value = 12 : index}> : () -> index
    %29 = "arith.constant"() <{value = 13 : index}> : () -> index
    %30 = "arith.constant"() <{value = 14 : index}> : () -> index
    %31 = "arith.constant"() <{value = 15 : index}> : () -> index
    %32 = "arith.constant"() <{value = 16 : index}> : () -> index
    %33 = "arith.constant"() <{value = 17 : index}> : () -> index
    %34 = "arith.constant"() <{value = 18 : index}> : () -> index
    %35 = "arith.constant"() <{value = 19 : index}> : () -> index
    %36 = "arith.constant"() <{value = 20 : index}> : () -> index
    %37 = "arith.constant"() <{value = 21 : index}> : () -> index
    %38 = "arith.constant"() <{value = 22 : index}> : () -> index
    %39 = "arith.constant"() <{value = 23 : index}> : () -> index
    %40 = "arith.constant"() <{value = 24 : index}> : () -> index
    %41 = "arith.constant"() <{value = 25 : index}> : () -> index
    %42 = "arith.constant"() <{value = 26 : index}> : () -> index
    %43 = "arith.constant"() <{value = 27 : index}> : () -> index
    %44 = "arith.constant"() <{value = 28 : index}> : () -> index
    %45 = "arith.constant"() <{value = 29 : index}> : () -> index
    %46 = "arith.constant"() <{value = 30 : index}> : () -> index
    %47 = "arith.constant"() <{value = 31 : index}> : () -> index
    %48 = "tensor.empty"(%17) : (index) -> tensor<?xi16>
    %49 = "tensor.empty"(%16, %33) : (index, index) -> tensor<?x?xi16>
    %50 = "tensor.empty"(%16) : (index) -> tensor<?xi1>
    %51 = "tensor.empty"() : () -> tensor<19x29xf32>
    %52 = "tensor.empty"(%41) : (index) -> tensor<?xi16>
    %53 = "tensor.empty"() : () -> tensor<19x29xi64>
    %54 = "tensor.empty"() : () -> tensor<29xi32>
    %55 = "tensor.empty"(%46) : (index) -> tensor<?xf32>
    %56 = "tensor.empty"(%26) : (index) -> tensor<?x29xf16>
    %57 = "tensor.empty"() : () -> tensor<29xi64>
    %58 = "tensor.empty"(%41) : (index) -> tensor<?x29xf32>
    %59 = "tensor.empty"() : () -> tensor<19x29xi16>
    %60 = "tensor.empty"() : () -> tensor<19x29xi64>
    %61 = "tensor.empty"(%35) : (index) -> tensor<?xi64>
    %62 = "tensor.empty"(%22) : (index) -> tensor<?xi64>
    %63 = "tensor.empty"(%36) : (index) -> tensor<?xf32>
    %64 = "memref.alloc"() <{operandSegmentSizes = array<i32: 0, 0>}> : () -> memref<19x29xf16>
    %65 = "memref.alloc"() <{operandSegmentSizes = array<i32: 0, 0>}> : () -> memref<19x29xi1>
    %66 = "memref.alloc"() <{operandSegmentSizes = array<i32: 0, 0>}> : () -> memref<28xi32>
    %67 = "memref.alloc"() <{operandSegmentSizes = array<i32: 0, 0>}> : () -> memref<28xf16>
    %68 = "memref.alloc"(%16) <{operandSegmentSizes = array<i32: 1, 0>}> : (index) -> memref<?x29xi32>
    %69 = "memref.alloc"(%16) <{operandSegmentSizes = array<i32: 1, 0>}> : (index) -> memref<?x29xi32>
    %70 = "memref.alloc"() <{operandSegmentSizes = array<i32: 0, 0>}> : () -> memref<28xi16>
    %71 = "memref.alloc"() <{operandSegmentSizes = array<i32: 0, 0>}> : () -> memref<29xf16>
    %72 = "memref.alloc"() <{operandSegmentSizes = array<i32: 0, 0>}> : () -> memref<19x29xi32>
    %73 = "memref.alloc"() <{operandSegmentSizes = array<i32: 0, 0>}> : () -> memref<19x29xf32>
    %74 = "memref.alloc"() <{operandSegmentSizes = array<i32: 0, 0>}> : () -> memref<19x29xi64>
    %75 = "memref.alloc"() <{operandSegmentSizes = array<i32: 0, 0>}> : () -> memref<19x29xi1>
    %76 = "memref.alloc"() <{operandSegmentSizes = array<i32: 0, 0>}> : () -> memref<19x29xi32>
    %77 = "memref.alloc"(%25) <{operandSegmentSizes = array<i32: 1, 0>}> : (index) -> memref<?xi64>
    %78 = "memref.alloc"() <{operandSegmentSizes = array<i32: 0, 0>}> : () -> memref<19x29xi32>
    %79 = "memref.alloc"(%30) <{operandSegmentSizes = array<i32: 1, 0>}> : (index) -> memref<?xf32>
    %80 = "vector.broadcast"(%9) : (i64) -> vector<12xi64>
    %81 = "vector.flat_transpose"(%80) <{columns = 3 : i32, rows = 4 : i32}> : (vector<12xi64>) -> vector<12xi64>
    %82 = "spirv.GL.SMax"(%3, %4) : (i16, i16) -> i16
    %83 = "spirv.GL.SSign"(%15) : (i32) -> i32
    %84 = "linalg.copy"(%53, %60) <{operandSegmentSizes = array<i32: 1, 1>}> ({
    ^bb0(%arg1: i64, %arg2: i64):
      "linalg.yield"(%arg1) : (i64) -> ()
    }) : (tensor<19x29xi64>, tensor<19x29xi64>) -> tensor<19x29xi64>
    %85 = "vector.broadcast"(%14) : (i32) -> vector<2xi32>
    %86 = "spirv.BitwiseXor"(%85, %85) : (vector<2xi32>, vector<2xi32>) -> vector<2xi32>
    %87 = "spirv.CL.erf"(%6) : (f32) -> f32
    %88 = "bufferization.to_tensor"(%73) : (memref<19x29xf32>) -> tensor<19x29xf32>
    %89 = "index.shl"(%33, %39) : (index, index) -> index
    %90 = "index.shl"(%23, %25) : (index, index) -> index
    %91 = "spirv.ULessThanEqual"(%85, %85) : (vector<2xi32>, vector<2xi32>) -> vector<2xi1>
    %92 = "spirv.CL.cos"(%5) : (f16) -> f16
    %93 = "spirv.CL.u_max"(%11, %11) : (i64, i64) -> i64
    %94 = "spirv.CL.erf"(%10) : (f16) -> f16
    "memref.assume_alignment"(%66) <{alignment = 8 : i32}> : (memref<28xi32>) -> ()
    %95 = "linalg.copy"(%50, %50) <{operandSegmentSizes = array<i32: 1, 1>}> ({
    ^bb0(%arg1: i1, %arg2: i1):
      "linalg.yield"(%arg1) : (i1) -> ()
    }) : (tensor<?xi1>, tensor<?xi1>) -> tensor<?xi1>
    %96 = "arith.addi"(%9, %9) : (i64, i64) -> i64
    %97 = "spirv.BitwiseXor"(%85, %85) : (vector<2xi32>, vector<2xi32>) -> vector<2xi32>
    %98 = "spirv.GL.UMax"(%83, %14) : (i32, i32) -> i32
    %99 = "spirv.GL.Cosh"(%94) : (f16) -> f16
    %100 = "spirv.FOrdLessThan"(%13, %0) : (f16, f16) -> i1
    %101 = "spirv.SGreaterThan"(%9, %8) : (i64, i64) -> i1
    %102 = "spirv.IsInf"(%2) : (f32) -> i1
    %103 = "spirv.GL.Sinh"(%12) : (f16) -> f16
    %104 = "spirv.GL.SClamp"(%3, %4, %4) : (i16, i16, i16) -> i16
    %105 = "index.sub"(%43, %18) : (index, index) -> index
    %106 = "vector.broadcast"(%15) : (i32) -> vector<19x29xi32>
    %107 = "vector.broadcast"(%100) : (i1) -> vector<19x29xi1>
    %108 = "vector.gather"(%72, %37, %89, %106, %107, %106) : (memref<19x29xi32>, index, index, vector<19x29xi32>, vector<19x29xi1>, vector<19x29xi32>) -> vector<19x29xi32>
    %109 = "memref.load"(%74, %34, %28) <{nontemporal = false}> : (memref<19x29xi64>, index, index) -> i64
    %110 = "math.round"(%0) <{fastmath = #arith.fastmath<none>}> : (f16) -> f16
    %111 = "spirv.UGreaterThan"(%85, %85) : (vector<2xi32>, vector<2xi32>) -> vector<2xi1>
    %112 = "spirv.FUnordGreaterThanEqual"(%92, %5) : (f16, f16) -> i1
    %113 = "spirv.CL.ceil"(%0) : (f16) -> f16
    %114 = "bufferization.clone"(%72) : (memref<19x29xi32>) -> memref<19x29xi32>
    %115 = "bufferization.to_memref"(%48) : (tensor<?xi16>) -> memref<?xi16>
    %116 = "spirv.GL.Sinh"(%5) : (f16) -> f16
    %117 = "arith.ceildivsi"(%98, %98) : (i32, i32) -> i32
    %118 = "index.floordivs"(%29, %105) : (index, index) -> index
    %119 = "spirv.CL.round"(%6) : (f32) -> f32
    %120 = "vector.broadcast"(%113) : (f16) -> vector<12xf16>
    "vector.transfer_write"(%120, %64, %89, %47) <{operandSegmentSizes = array<i32: 1, 1, 2, 0>, permutation_map = affine_map<(d0, d1) -> (d0)>}> : (vector<12xf16>, memref<19x29xf16>, index, index) -> ()
    %121 = "vector.flat_transpose"(%81) <{columns = 3 : i32, rows = 4 : i32}> : (vector<12xi64>) -> vector<12xi64>
    %122 = "spirv.FUnordNotEqual"(%0, %13) : (f16, f16) -> i1
    %123 = "vector.broadcast"(%8) : (i64) -> vector<12x12xi64>
    %124 = "vector.outerproduct"(%121, %80, %123) <{kind = #vector.kind<and>}> : (vector<12xi64>, vector<12xi64>, vector<12x12xi64>) -> vector<12x12xi64>
    %125 = "math.tanh"(%92) <{fastmath = #arith.fastmath<none>}> : (f16) -> f16
    %126 = "spirv.CL.round"(%6) : (f32) -> f32
    %127 = "math.log10"(%51) <{fastmath = #arith.fastmath<none>}> : (tensor<19x29xf32>) -> tensor<19x29xf32>
    %128 = "spirv.CL.log"(%113) : (f16) -> f16
    %129 = "spirv.CL.cos"(%92) : (f16) -> f16
    "scf.parallel"(%118, %89, %42) <{operandSegmentSizes = array<i32: 1, 1, 1, 0>}> ({
    ^bb0(%arg1: index):
      "vector.warp_execute_on_lane_0"(%16) <{warp_size = 32 : i64}> ({
        %236 = "vector.broadcast"(%8) : (i64) -> vector<i64>
        %237 = "vector.transfer_write"(%236, %62, %118) <{operandSegmentSizes = array<i32: 1, 1, 1, 0>, permutation_map = affine_map<(d0) -> ()>}> : (vector<i64>, tensor<?xi64>, index) -> tensor<?xi64>
        %238 = "math.ctlz"(%8) : (i64) -> i64
        %239 = "tensor.extract"(%60, %28, %34) : (tensor<19x29xi64>, index, index) -> i64
        %240 = "math.round"(%51) <{fastmath = #arith.fastmath<none>}> : (tensor<19x29xf32>) -> tensor<19x29xf32>
        %241 = "vector.broadcast"(%122) : (i1) -> vector<19xi1>
        %242:2 = "vector.scan"(%107, %241) <{inclusive = true, kind = #vector.kind<maxui>, reduction_dim = 1 : i64}> : (vector<19x29xi1>, vector<19xi1>) -> (vector<19x29xi1>, vector<19xi1>)
        %243 = "math.roundeven"(%6) <{fastmath = #arith.fastmath<none>}> : (f32) -> f32
        %244 = "bufferization.clone"(%65) : (memref<19x29xi1>) -> memref<19x29xi1>
        %245 = "vector.matrix_multiply"(%85, %85) <{lhs_columns = 2 : i32, lhs_rows = 1 : i32, rhs_columns = 1 : i32}> : (vector<2xi32>, vector<2xi32>) -> vector<1xi32>
        "vector.yield"() : () -> ()
      }) : (index) -> ()
      %215 = "tensor.empty"(%17) : (index) -> tensor<?xi1>
      %216 = "linalg.map"(%50, %215) ({
      ^bb0(%arg2: i1):
        %236 = "vector.mask"(%107) ({
          %270 = "vector.multi_reduction"(%107, %107) <{kind = #vector.kind<xor>, reduction_dims = []}> : (vector<19x29xi1>, vector<19x29xi1>) -> vector<19x29xi1>
          "vector.yield"(%270) : (vector<19x29xi1>) -> ()
        }) : (vector<19x29xi1>) -> vector<19x29xi1>
        %237 = "vector.broadcast"(%33) : (index) -> vector<28xindex>
        %238 = "vector.broadcast"(%100) : (i1) -> vector<28xi1>
        %239 = "vector.broadcast"(%14) : (i32) -> vector<28xi32>
        "vector.scatter"(%76, %23, %42, %237, %238, %239) : (memref<19x29xi32>, index, index, vector<28xindex>, vector<28xi1>, vector<28xi32>) -> ()
        %240 = "math.rsqrt"(%51) <{fastmath = #arith.fastmath<none>}> : (tensor<19x29xf32>) -> tensor<19x29xf32>
        %241 = "arith.remf"(%7, %2) <{fastmath = #arith.fastmath<none>}> : (f32, f32) -> f32
        %242 = "vector.insertelement"(%11, %81, %24) : (i64, vector<12xi64>, index) -> vector<12xi64>
        %243 = "arith.andi"(%8, %9) : (i64, i64) -> i64
        %244 = "vector.insertelement"(%13, %120, %29) : (f16, vector<12xf16>, index) -> vector<12xf16>
        %245 = "tensor.cast"(%60) : (tensor<19x29xi64>) -> tensor<?x?xi64>
        %246 = "vector.broadcast"(%126) : (f32) -> vector<28xf32>
        %247 = "vector.fma"(%246, %246, %246) : (vector<28xf32>, vector<28xf32>, vector<28xf32>) -> vector<28xf32>
        %248 = "tensor.rank"(%50) : (tensor<?xi1>) -> index
        %249 = "math.atan2"(%128, %94) <{fastmath = #arith.fastmath<none>}> : (f16, f16) -> f16
        %250 = "vector.broadcast"(%9) : (i64) -> vector<19x29xi64>
        %251 = "vector.gather"(%57, %27, %108, %107, %250) : (tensor<29xi64>, index, vector<19x29xi32>, vector<19x29xi1>, vector<19x29xi64>) -> vector<19x29xi64>
        %252 = "vector.insert"(%11, %81) <{static_position = array<i64: 0>}> : (i64, vector<12xi64>) -> vector<12xi64>
        %253 = "memref.cast"(%79) : (memref<?xf32>) -> memref<12xf32>
        %254 = "arith.cmpf"(%5, %128) <{predicate = 0 : i64}> : (f16, f16) -> i1
        %255 = "math.expm1"(%2) <{fastmath = #arith.fastmath<none>}> : (f32) -> f32
        %256 = "math.log"(%58) <{fastmath = #arith.fastmath<none>}> : (tensor<?x29xf32>) -> tensor<?x29xf32>
        "bufferization.dealloc_tensor"(%52) : (tensor<?xi16>) -> ()
        %257 = "index.bool.constant"() <{value = false}> : () -> i1
        %258 = "index.shrs"(%44, %39) : (index, index) -> index
        %259 = "tensor.expand_shape"(%57) <{reassociation = [[0, 1]]}> : (tensor<29xi64>) -> tensor<29x1xi64>
        %260 = "math.rsqrt"(%128) <{fastmath = #arith.fastmath<none>}> : (f16) -> f16
        %261 = "index.sizeof"() : () -> index
        %262 = "index.or"(%47, %23) : (index, index) -> index
        "memref.copy"(%78, %114) : (memref<19x29xi32>, memref<19x29xi32>) -> ()
        %263 = "vector.shuffle"(%81, %81) <{mask = [1, 4, 6, 11, 12, 17, 19, 21, 23]}> : (vector<12xi64>, vector<12xi64>) -> vector<9xi64>
        %264 = "index.divu"(%41, %36) : (index, index) -> index
        %265 = "math.ceil"(%63) <{fastmath = #arith.fastmath<none>}> : (tensor<?xf32>) -> tensor<?xf32>
        %266 = "arith.andi"(%3, %82) : (i16, i16) -> i16
        %267 = "index.xor"(%18, %258) : (index, index) -> index
        %268 = "memref.cast"(%114) : (memref<19x29xi32>) -> memref<?x29xi32>
        %269 = "arith.remui"(%104, %4) : (i16, i16) -> i16
        "linalg.yield"(%102) : (i1) -> ()
      }) : (tensor<?xi1>, tensor<?xi1>) -> tensor<?xi1>
      %217 = "vector.broadcast"(%10) : (f16) -> vector<19x29xf16>
      %218 = "vector.gather"(%64, %40, %arg1, %108, %107, %217) : (memref<19x29xf16>, index, index, vector<19x29xi32>, vector<19x29xi1>, vector<19x29xf16>) -> vector<19x29xf16>
      %219 = "tensor.from_elements"(%94, %13, %13, %103, %129, %94, %129, %94, %10, %92, %94, %94, %116, %113, %103, %128, %10, %128, %128, %116, %92, %128, %13, %12, %92, %128, %103, %94, %129) : (f16, f16, f16, f16, f16, f16, f16, f16, f16, f16, f16, f16, f16, f16, f16, f16, f16, f16, f16, f16, f16, f16, f16, f16, f16, f16, f16, f16, f16) -> tensor<29xf16>
      %220 = "math.round"(%55) <{fastmath = #arith.fastmath<none>}> : (tensor<?xf32>) -> tensor<?xf32>
      %221 = "vector.broadcast"(%0) : (f16) -> vector<29xf16>
      %222:2 = "vector.scan"(%217, %221) <{inclusive = false, kind = #vector.kind<add>, reduction_dim = 0 : i64}> : (vector<19x29xf16>, vector<29xf16>) -> (vector<19x29xf16>, vector<29xf16>)
      %223 = "math.tan"(%5) <{fastmath = #arith.fastmath<none>}> : (f16) -> f16
      %224 = "bufferization.to_tensor"(%75) : (memref<19x29xi1>) -> tensor<19x29xi1>
      %225 = "index.maxu"(%30, %26) : (index, index) -> index
      %226 = "memref.alloca"(%105) <{operandSegmentSizes = array<i32: 1, 0>}> : (index) -> memref<?xi1>
      %227 = "bufferization.clone"(%114) : (memref<19x29xi32>) -> memref<19x29xi32>
      %228 = "arith.cmpi"(%101, %122) <{predicate = 1 : i64}> : (i1, i1) -> i1
      %229 = "index.floordivs"(%23, %45) : (index, index) -> index
      %230 = "memref.alloc"() <{operandSegmentSizes = array<i32: 0, 0>}> : () -> memref<29xi32>
      %231 = "vector.broadcast"(%83) : (i32) -> vector<28xi32>
      %232 = "vector.broadcast"(%102) : (i1) -> vector<28xi1>
      %233 = "vector.gather"(%230, %36, %231, %232, %231) : (memref<29xi32>, index, vector<28xi32>, vector<28xi1>, vector<28xi32>) -> vector<28xi32>
      %234 = "vector.broadcast"(%92) : (f16) -> vector<f16>
      "vector.transfer_write"(%234, %71, %28) <{operandSegmentSizes = array<i32: 1, 1, 1, 0>, permutation_map = affine_map<(d0) -> ()>}> : (vector<f16>, memref<29xf16>, index) -> ()
      %235 = "math.tan"(%56) <{fastmath = #arith.fastmath<none>}> : (tensor<?x29xf16>) -> tensor<?x29xf16>
      "scf.yield"() : () -> ()
    }) : (index, index, index) -> ()
    %130 = "memref.cast"(%64) : (memref<19x29xf16>) -> memref<?x?xf16>
    %131 = "spirv.BitFieldInsert"(%85, %85, %3, %83) : (vector<2xi32>, vector<2xi32>, i16, i32) -> vector<2xi32>
    %132 = "math.roundeven"(%128) <{fastmath = #arith.fastmath<none>}> : (f16) -> f16
    %133 = "spirv.LogicalEqual"(%112, %101) : (i1, i1) -> i1
    "memref.copy"(%79, %79) : (memref<?xf32>, memref<?xf32>) -> ()
    %134 = "scf.parallel"(%44, %43, %24, %35, %32, %22, %61) <{operandSegmentSizes = array<i32: 2, 2, 2, 1>}> ({
    ^bb0(%arg1: index, %arg2: index):
      %215 = "memref.alloc"() <{operandSegmentSizes = array<i32: 0, 0>}> : () -> memref<29x12xi64>
      %216 = "tensor.empty"() : () -> tensor<19x12xi64>
      %217 = "linalg.matmul"(%74, %215, %216) <{operandSegmentSizes = array<i32: 2, 1>}> ({
      ^bb0(%arg3: i64, %arg4: i64, %arg5: i64):
        %236 = "arith.muli"(%arg3, %arg4) : (i64, i64) -> i64
        %237 = "arith.addi"(%arg5, %236) : (i64, i64) -> i64
        "linalg.yield"(%237) : (i64) -> ()
      }) {linalg.memoized_indexing_maps = [affine_map<(d0, d1, d2) -> (d0, d2)>, affine_map<(d0, d1, d2) -> (d2, d1)>, affine_map<(d0, d1, d2) -> (d0, d1)>]} : (memref<19x29xi64>, memref<29x12xi64>, tensor<19x12xi64>) -> tensor<19x12xi64>
      %218 = "arith.cmpi"(%83, %14) <{predicate = 4 : i64}> : (i32, i32) -> i1
      %219 = "index.bool.constant"() <{value = true}> : () -> i1
      %220 = "vector.broadcast"(%128) : (f16) -> vector<19xf16>
      %221 = "vector.broadcast"(%122) : (i1) -> vector<19xi1>
      %222 = "vector.maskedload"(%67, %36, %221, %220) : (memref<28xf16>, index, vector<19xi1>, vector<19xf16>) -> vector<19xf16>
      %223 = "math.atan2"(%13, %129) <{fastmath = #arith.fastmath<none>}> : (f16, f16) -> f16
      %224 = "memref.load"(%71, %37) <{nontemporal = false}> : (memref<29xf16>, index) -> f16
      %225 = "vector.contract"(%221, %221, %133) <{indexing_maps = [affine_map<(d0) -> (d0)>, affine_map<(d0) -> (d0)>, affine_map<(d0) -> ()>], iterator_types = [#vector.iterator_type<reduction>], kind = #vector.kind<xor>}> : (vector<19xi1>, vector<19xi1>, i1) -> i1
      %226 = "vector.broadcast"(%102) : (i1) -> vector<29xi1>
      %227 = "vector.multi_reduction"(%107, %226) <{kind = #vector.kind<mul>, reduction_dims = [0]}> : (vector<19x29xi1>, vector<29xi1>) -> vector<29xi1>
      "memref.alloca_scope"() ({
        "memref.copy"(%69, %69) : (memref<?x29xi32>, memref<?x29xi32>) -> ()
        %236 = "tensor.empty"() : () -> tensor<29x19xf16>
        %237 = "linalg.broadcast"(%71, %236) <{dimensions = array<i64: 1>}> ({
        ^bb0(%arg3: f16, %arg4: f16):
          "linalg.yield"(%arg3) : (f16) -> ()
        }) : (memref<29xf16>, tensor<29x19xf16>) -> tensor<29x19xf16>
        %238 = "memref.cast"(%67) : (memref<28xf16>) -> memref<?xf16>
        %239 = "arith.cmpi"(%98, %83) <{predicate = 0 : i64}> : (i32, i32) -> i1
        %240 = "vector.insertelement"(%219, %226, %25) : (i1, vector<29xi1>, index) -> vector<29xi1>
        %241 = "memref.cast"(%114) : (memref<19x29xi32>) -> memref<19x?xi32>
        %242 = "memref.load"(%73, %29, %40) <{nontemporal = false}> : (memref<19x29xf32>, index, index) -> f32
        %243 = "arith.mulf"(%119, %2) <{fastmath = #arith.fastmath<none>}> : (f32, f32) -> f32
        %244 = "tensor.rank"(%60) : (tensor<19x29xi64>) -> index
        %245 = "math.ctlz"(%4) : (i16) -> i16
        %246 = "memref.alloc"() <{operandSegmentSizes = array<i32: 0, 0>}> : () -> memref<28xi1>
        %247 = "memref.cast"(%114) : (memref<19x29xi32>) -> memref<19x29xi32>
        %248 = "vector.matrix_multiply"(%221, %221) <{lhs_columns = 19 : i32, lhs_rows = 1 : i32, rhs_columns = 1 : i32}> : (vector<19xi1>, vector<19xi1>) -> vector<1xi1>
        "memref.copy"(%65, %75) : (memref<19x29xi1>, memref<19x29xi1>) -> ()
        %249 = "memref.load"(%75, %16, %35) <{nontemporal = false}> : (memref<19x29xi1>, index, index) -> i1
        %250 = "memref.alloca"() <{operandSegmentSizes = array<i32: 0, 0>}> : () -> memref<19x29xi64>
        "bufferization.dealloc_tensor"(%84) : (tensor<19x29xi64>) -> ()
        %251 = "index.sizeof"() : () -> index
        %252 = "arith.mulf"(%116, %13) <{fastmath = #arith.fastmath<none>}> : (f16, f16) -> f16
        %253 = "vector.transfer_read"(%74, %43, %16, %11) <{operandSegmentSizes = array<i32: 1, 2, 1, 0>, permutation_map = affine_map<(d0, d1) -> (d1)>}> : (memref<19x29xi64>, index, index, i64) -> vector<12xi64>
        "memref.copy"(%115, %115) : (memref<?xi16>, memref<?xi16>) -> ()
        %254 = "vector.extract_strided_slice"(%120) <{offsets = [6], sizes = [5], strides = [1]}> : (vector<12xf16>) -> vector<5xf16>
        "memref.store"(%112, %75, %27, %37) <{nontemporal = false}> : (i1, memref<19x29xi1>, index, index) -> ()
        %255 = "index.mul"(%29, %39) : (index, index) -> index
        %256 = "tensor.collapse_shape"(%216) <{reassociation = [[0, 1]]}> : (tensor<19x12xi64>) -> tensor<228xi64>
        %257 = "math.tan"(%56) <{fastmath = #arith.fastmath<none>}> : (tensor<?x29xf16>) -> tensor<?x29xf16>
        %258 = "linalg.copy"(%53, %84) <{operandSegmentSizes = array<i32: 1, 1>}> ({
        ^bb0(%arg3: i64, %arg4: i64):
          "linalg.yield"(%arg3) : (i64) -> ()
        }) : (tensor<19x29xi64>, tensor<19x29xi64>) -> tensor<19x29xi64>
        %259 = "math.expm1"(%12) <{fastmath = #arith.fastmath<none>}> : (f16) -> f16
        %260 = "affine.min"(%arg1, %37) <{map = affine_map<(d0, d1) -> (d0 * 32 - 128)>}> : (index, index) -> index
        %261 = "math.tan"(%119) <{fastmath = #arith.fastmath<none>}> : (f32) -> f32
        %262 = "memref.load"(%115, %16) <{nontemporal = false}> : (memref<?xi16>, index) -> i16
        %263 = "tensor.empty"() : () -> tensor<29x19xi64>
        %264 = "tensor.empty"() : () -> tensor<19x19xi64>
        %265 = "linalg.matmul"(%60, %263, %264) <{operandSegmentSizes = array<i32: 2, 1>}> ({
        ^bb0(%arg3: i64, %arg4: i64, %arg5: i64):
          %266 = "arith.muli"(%arg3, %arg4) : (i64, i64) -> i64
          %267 = "arith.addi"(%arg5, %266) : (i64, i64) -> i64
          "linalg.yield"(%267) : (i64) -> ()
        }) {linalg.memoized_indexing_maps = [affine_map<(d0, d1, d2) -> (d0, d2)>, affine_map<(d0, d1, d2) -> (d2, d1)>, affine_map<(d0, d1, d2) -> (d0, d1)>]} : (tensor<19x29xi64>, tensor<29x19xi64>, tensor<19x19xi64>) -> tensor<19x19xi64>
        "memref.alloca_scope.return"() : () -> ()
      }) : () -> ()
      %228 = "tensor.empty"() : () -> tensor<551xi64>
      %229 = "tensor.unpack"(%84, %228, %45) <{inner_dims_pos = array<i64: 0>, outer_dims_perm = array<i64: 0>, static_inner_tiles = array<i64: -9223372036854775808>}> : (tensor<19x29xi64>, tensor<551xi64>, index) -> tensor<551xi64>
      %230 = "arith.shrsi"(%82, %82) : (i16, i16) -> i16
      %231 = "index.bool.constant"() <{value = true}> : () -> i1
      %232 = "math.log10"(%119) <{fastmath = #arith.fastmath<none>}> : (f32) -> f32
      %233 = "arith.cmpi"(%14, %98) <{predicate = 5 : i64}> : (i32, i32) -> i1
      %234 = "affine.load"(%67, %25) <{map = affine_map<(d0) -> (d0)>}> : (memref<28xf16>, index) -> f16
      %235 = "math.rsqrt"(%88) <{fastmath = #arith.fastmath<none>}> : (tensor<19x29xf32>) -> tensor<19x29xf32>
      "scf.reduce"(%61) ({
      ^bb0(%arg3: tensor<?xi64>, %arg4: tensor<?xi64>):
        %236 = "affine.load"(%65, %26, %26) <{map = affine_map<(d0, d1) -> (d0, d1)>}> : (memref<19x29xi1>, index, index) -> i1
        %237 = "math.log"(%58) <{fastmath = #arith.fastmath<none>}> : (tensor<?x29xf32>) -> tensor<?x29xf32>
        %238 = "math.ctlz"(%122) : (i1) -> i1
        %239:2 = "vector.scan"(%107, %226) <{inclusive = false, kind = #vector.kind<maxui>, reduction_dim = 0 : i64}> : (vector<19x29xi1>, vector<29xi1>) -> (vector<19x29xi1>, vector<29xi1>)
        %240 = "math.cttz"(%62) : (tensor<?xi64>) -> tensor<?xi64>
        %241 = "index.maxs"(%45, %27) : (index, index) -> index
        %242 = "vector.broadcast"(%6) : (f32) -> vector<29xf32>
        %243 = "vector.fma"(%242, %242, %242) : (vector<29xf32>, vector<29xf32>, vector<29xf32>) -> vector<29xf32>
        %244 = "tensor.extract"(%51, %16, %39) : (tensor<19x29xf32>, index, index) -> f32
        "scf.reduce.return"(%62) : (tensor<?xi64>) -> ()
      }) : (tensor<?xi64>) -> ()
      "scf.yield"() : () -> ()
    }) : (index, index, index, index, index, index, tensor<?xi64>) -> tensor<?xi64>
    %135 = "spirv.GL.Exp"(%126) : (f32) -> f32
    %136 = "math.atan2"(%113, %103) <{fastmath = #arith.fastmath<none>}> : (f16, f16) -> f16
    %137 = "index.shrs"(%32, %22) : (index, index) -> index
    %138 = "vector.contract"(%80, %121, %11) <{indexing_maps = [affine_map<(d0) -> (d0)>, affine_map<(d0) -> (d0)>, affine_map<(d0) -> ()>], iterator_types = [#vector.iterator_type<reduction>], kind = #vector.kind<minui>}> : (vector<12xi64>, vector<12xi64>, i64) -> i64
    %139 = "arith.ceildivsi"(%1, %3) : (i16, i16) -> i16
    %140 = "spirv.LogicalAnd"(%133, %100) : (i1, i1) -> i1
    %141 = "vector.load"(%71, %23) : (memref<29xf16>, index) -> vector<29xf16>
    %142 = "spirv.GL.Asin"(%129) : (f16) -> f16
    %143 = "spirv.GL.FAbs"(%119) : (f32) -> f32
    %144 = "bufferization.clone"(%66) : (memref<28xi32>) -> memref<28xi32>
    %145 = "spirv.GL.SAbs"(%4) : (i16) -> i16
    %146 = "spirv.BitCount"(%3) : (i16) -> i16
    %147 = "memref.alloca"(%40) <{operandSegmentSizes = array<i32: 1, 0>}> : (index) -> memref<?xi1>
    %148 = "index.and"(%35, %33) : (index, index) -> index
    %149 = "arith.remf"(%135, %126) <{fastmath = #arith.fastmath<none>}> : (f32, f32) -> f32
    %150 = "math.tan"(%6) <{fastmath = #arith.fastmath<none>}> : (f32) -> f32
    %151 = "vector.broadcast"(%101) : (i1) -> vector<19xi1>
    %152:2 = "vector.scan"(%107, %151) <{inclusive = false, kind = #vector.kind<maxui>, reduction_dim = 1 : i64}> : (vector<19x29xi1>, vector<19xi1>) -> (vector<19x29xi1>, vector<19xi1>)
    "bufferization.dealloc_tensor"(%51) : (tensor<19x29xf32>) -> ()
    %153 = "spirv.CL.erf"(%129) : (f16) -> f16
    %154 = "spirv.BitFieldUExtract"(%85, %145, %11) : (vector<2xi32>, i16, i64) -> vector<2xi32>
    %155 = "tensor.insert"(%104, %49, %16, %16) : (i16, tensor<?x?xi16>, index, index) -> tensor<?x?xi16>
    %156 = "spirv.BitCount"(%104) : (i16) -> i16
    %157 = "vector.broadcast"(%98) : (i32) -> vector<19xi32>
    %158 = "vector.mask"(%107) ({
      %215 = "vector.multi_reduction"(%108, %157) <{kind = #vector.kind<add>, reduction_dims = [1]}> : (vector<19x29xi32>, vector<19xi32>) -> vector<19xi32>
      "vector.yield"(%215) : (vector<19xi32>) -> ()
    }) : (vector<19x29xi1>) -> vector<19xi32>
    %159 = "affine.min"(%28) <{map = affine_map<(d0) -> (d0 * 2)>}> : (index) -> index
    %160 = "spirv.GL.Sinh"(%13) : (f16) -> f16
    %161 = "math.log2"(%55) <{fastmath = #arith.fastmath<none>}> : (tensor<?xf32>) -> tensor<?xf32>
    %162 = "index.maxu"(%159, %17) : (index, index) -> index
    %163 = "arith.ceildivsi"(%145, %145) : (i16, i16) -> i16
    %164 = "index.floordivs"(%34, %41) : (index, index) -> index
    %165 = "spirv.BitwiseOr"(%85, %85) : (vector<2xi32>, vector<2xi32>) -> vector<2xi32>
    %166 = "scf.execute_region"() ({
      %215 = "affine.for"(%30) <{lowerBoundMap = affine_map<() -> (0)>, operandSegmentSizes = array<i32: 0, 0, 1>, step = 1 : index, upperBoundMap = affine_map<() -> (112)>}> ({
      ^bb0(%arg1: index, %arg2: index):
        "affine.yield"(%18) : (index) -> ()
      }) : (index) -> index
      %216 = "math.round"(%10) <{fastmath = #arith.fastmath<none>}> : (f16) -> f16
      "bufferization.dealloc_tensor"(%58) : (tensor<?x29xf32>) -> ()
      %217 = "math.fma"(%116, %116, %12) <{fastmath = #arith.fastmath<none>}> : (f16, f16, f16) -> f16
      %218 = "vector.insert"(%5, %120) <{static_position = array<i64: 3>}> : (f16, vector<12xf16>) -> vector<12xf16>
      %219 = "tensor.expand_shape"(%58) <{reassociation = [[0], [1, 2]]}> : (tensor<?x29xf32>) -> tensor<?x29x1xf32>
      %220 = "memref.alloca"() <{operandSegmentSizes = array<i32: 0, 0>}> : () -> memref<29xi32>
      "scf.if"(%112) ({
        %231 = "linalg.copy"(%49, %49) <{operandSegmentSizes = array<i32: 1, 1>}> ({
        ^bb0(%arg1: i16, %arg2: i16):
          "linalg.yield"(%arg1) : (i16) -> ()
        }) : (tensor<?x?xi16>, tensor<?x?xi16>) -> tensor<?x?xi16>
        "affine.vector_store"(%80, %74, %18, %20) <{map = affine_map<(d0, d1) -> (d0, d1)>}> : (vector<12xi64>, memref<19x29xi64>, index, index) -> ()
        %232 = "tensor.cast"(%53) : (tensor<19x29xi64>) -> tensor<?x?xi64>
        %233 = "arith.remui"(%82, %146) : (i16, i16) -> i16
        %234 = "vector.multi_reduction"(%157, %157) <{kind = #vector.kind<minsi>, reduction_dims = []}> : (vector<19xi32>, vector<19xi32>) -> vector<19xi32>
        %235 = "math.expm1"(%55) <{fastmath = #arith.fastmath<none>}> : (tensor<?xf32>) -> tensor<?xf32>
        %236 = "math.log"(%103) <{fastmath = #arith.fastmath<none>}> : (f16) -> f16
        %237:2 = "vector.scan"(%108, %157) <{inclusive = false, kind = #vector.kind<maxui>, reduction_dim = 1 : i64}> : (vector<19x29xi32>, vector<19xi32>) -> (vector<19x29xi32>, vector<19xi32>)
        "scf.yield"() : () -> ()
      }, {
      }) : (i1) -> ()
      %221 = "tensor.empty"() : () -> tensor<28xi1>
      %222 = "vector.broadcast"(%101) : (i1) -> vector<28xi1>
      %223 = "vector.broadcast"(%14) : (i32) -> vector<28xi32>
      %224 = "vector.gather"(%221, %21, %223, %222, %222) : (tensor<28xi1>, index, vector<28xi32>, vector<28xi1>, vector<28xi1>) -> vector<28xi1>
      "memref.copy"(%76, %78) : (memref<19x29xi32>, memref<19x29xi32>) -> ()
      %225 = "vector.matrix_multiply"(%223, %157) <{lhs_columns = 1 : i32, lhs_rows = 28 : i32, rhs_columns = 19 : i32}> : (vector<28xi32>, vector<19xi32>) -> vector<532xi32>
      %226 = "arith.cmpi"(%100, %112) <{predicate = 5 : i64}> : (i1, i1) -> i1
      %227 = "arith.shrui"(%140, %102) : (i1, i1) -> i1
      %228 = "math.copysign"(%153, %153) <{fastmath = #arith.fastmath<none>}> : (f16, f16) -> f16
      %229 = "math.rsqrt"(%94) <{fastmath = #arith.fastmath<none>}> : (f16) -> f16
      %230 = "scf.if"(%140) ({
        %231 = "tensor.empty"() : () -> tensor<29xi1>
        %232 = "vector.gather"(%231, %32, %223, %224, %224) : (tensor<29xi1>, index, vector<28xi32>, vector<28xi1>, vector<28xi1>) -> vector<28xi1>
        %233 = "vector.broadcast"(%156) : (i16) -> vector<19x29xi16>
        %234 = "affine.apply"(%46, %37, %25, %164) <{map = affine_map<(d0, d1, d2)[s0] -> (d0 + 30)>}> : (index, index, index, index) -> index
        %235 = "arith.shrui"(%112, %100) : (i1, i1) -> i1
        %236 = "vector.broadcast"(%102) : (i1) -> vector<19xi1>
        %237:2 = "vector.scan"(%107, %236) <{inclusive = false, kind = #vector.kind<xor>, reduction_dim = 1 : i64}> : (vector<19x29xi1>, vector<19xi1>) -> (vector<19x29xi1>, vector<19xi1>)
        %238 = "vector.flat_transpose"(%224) <{columns = 7 : i32, rows = 4 : i32}> : (vector<28xi1>) -> vector<28xi1>
        %239 = "vector.shuffle"(%121, %81) <{mask = [1, 6, 8, 10, 16, 17, 22]}> : (vector<12xi64>, vector<12xi64>) -> vector<7xi64>
        %240 = "math.exp2"(%88) <{fastmath = #arith.fastmath<none>}> : (tensor<19x29xf32>) -> tensor<19x29xf32>
        "scf.yield"(%140) : (i1) -> ()
      }, {
        "affine.vector_store"(%121, %74, %148, %118) <{map = affine_map<(d0, d1) -> (d0, d1)>}> : (vector<12xi64>, memref<19x29xi64>, index, index) -> ()
        %231 = "arith.remf"(%99, %94) <{fastmath = #arith.fastmath<none>}> : (f16, f16) -> f16
        %232 = "index.mul"(%33, %44) : (index, index) -> index
        %233 = "math.rsqrt"(%58) <{fastmath = #arith.fastmath<none>}> : (tensor<?x29xf32>) -> tensor<?x29xf32>
        %234 = "tensor.from_elements"(%112, %100, %133, %100, %101, %112, %102, %122, %140, %122, %140, %101, %122, %122, %101, %133, %140, %122, %133, %101, %140, %112, %133, %112, %122, %101, %133, %140, %133) : (i1, i1, i1, i1, i1, i1, i1, i1, i1, i1, i1, i1, i1, i1, i1, i1, i1, i1, i1, i1, i1, i1, i1, i1, i1, i1, i1, i1, i1) -> tensor<29xi1>
        %235 = "index.add"(%22, %23) : (index, index) -> index
        %236 = "arith.cmpi"(%98, %15) <{predicate = 0 : i64}> : (i32, i32) -> i1
        %237 = "math.atan2"(%126, %126) <{fastmath = #arith.fastmath<none>}> : (f32, f32) -> f32
        "scf.yield"(%133) : (i1) -> ()
      }) : (i1) -> i1
      "scf.yield"(%93) : (i64) -> ()
    }) : () -> i64
    %167 = "tensor.generate"(%37) ({
    ^bb0(%arg1: index):
      %215 = "memref.load"(%114, %22, %38) <{nontemporal = false}> : (memref<19x29xi32>, index, index) -> i32
      %216 = "index.maxu"(%28, %33) : (index, index) -> index
      %217 = "vector.broadcast"(%30) : (index) -> vector<12xindex>
      %218 = "vector.broadcast"(%100) : (i1) -> vector<12xi1>
      %219 = "vector.broadcast"(%119) : (f32) -> vector<12xf32>
      "vector.scatter"(%79, %16, %217, %218, %219) : (memref<?xf32>, index, vector<12xindex>, vector<12xi1>, vector<12xf32>) -> ()
      "memref.tensor_store"(%62, %77) : (tensor<?xi64>, memref<?xi64>) -> ()
      "tensor.yield"(%166) : (i64) -> ()
    }) : (index) -> tensor<?xi64>
    %168 = "spirv.CL.log"(%13) : (f16) -> f16
    %169 = "spirv.GL.SSign"(%15) : (i32) -> i32
    %170 = "vector.splat"(%0) : (f16) -> vector<29xf16>
    %171 = "arith.remf"(%13, %12) <{fastmath = #arith.fastmath<none>}> : (f16, f16) -> f16
    %172 = "spirv.ULessThan"(%14, %14) : (i32, i32) -> i1
    %173 = "bufferization.to_tensor"(%66) : (memref<28xi32>) -> tensor<28xi32>
    %174 = "spirv.FOrdGreaterThan"(%94, %160) : (f16, f16) -> i1
    %175 = "spirv.CL.s_abs"(%156) : (i16) -> i16
    %176 = "tensor.empty"() : () -> tensor<19x29xi64>
    %177 = "linalg.map"(%53, %176) ({
    ^bb0(%arg1: i64):
      %215 = "math.sqrt"(%128) <{fastmath = #arith.fastmath<none>}> : (f16) -> f16
      "affine.vector_store"(%141, %67, %35) <{map = affine_map<(d0) -> (d0)>}> : (vector<29xf16>, memref<28xf16>, index) -> ()
      %216 = "vector.load"(%114, %33, %22) : (memref<19x29xi32>, index, index) -> vector<29xi32>
      %217 = "tensor.empty"() : () -> tensor<28xf16>
      %218 = "tensor.empty"() : () -> tensor<f16>
      %219 = "linalg.dot"(%67, %217, %218) <{operandSegmentSizes = array<i32: 2, 1>}> ({
      ^bb0(%arg2: f16, %arg3: f16, %arg4: f16):
        %243 = "arith.mulf"(%arg2, %arg3) <{fastmath = #arith.fastmath<none>}> : (f16, f16) -> f16
        %244 = "arith.addf"(%arg4, %243) <{fastmath = #arith.fastmath<none>}> : (f16, f16) -> f16
        "linalg.yield"(%244) : (f16) -> ()
      }) {linalg.memoized_indexing_maps = [affine_map<(d0) -> (d0)>, affine_map<(d0) -> (d0)>, affine_map<(d0) -> ()>]} : (memref<28xf16>, tensor<28xf16>, tensor<f16>) -> tensor<f16>
      %220 = "index.or"(%35, %38) : (index, index) -> index
      %221 = "index.or"(%137, %33) : (index, index) -> index
      %222 = "affine.vector_load"(%78, %35, %148) <{map = affine_map<(d0, d1) -> (d0, d1)>}> : (memref<19x29xi32>, index, index) -> vector<29xi32>
      "memref.copy"(%65, %65) : (memref<19x29xi1>, memref<19x29xi1>) -> ()
      %223 = "vector.extract"(%81) <{static_position = array<i64: 10>}> : (vector<12xi64>) -> i64
      %224 = "memref.load"(%70, %21) <{nontemporal = false}> : (memref<28xi16>, index) -> i16
      %225 = "math.log"(%113) <{fastmath = #arith.fastmath<none>}> : (f16) -> f16
      %226 = "math.atan2"(%10, %160) <{fastmath = #arith.fastmath<none>}> : (f16, f16) -> f16
      %227 = "tensor.dim"(%57, %16) : (tensor<29xi64>, index) -> index
      %228 = "tensor.dim"(%54, %16) : (tensor<29xi32>, index) -> index
      %229 = "arith.divsi"(%174, %101) : (i1, i1) -> i1
      %230 = "vector.flat_transpose"(%157) <{columns = 19 : i32, rows = 1 : i32}> : (vector<19xi32>) -> vector<19xi32>
      %231 = "math.tan"(%153) <{fastmath = #arith.fastmath<none>}> : (f16) -> f16
      %232 = "vector.transpose"(%108) <{transp = [0, 1]}> : (vector<19x29xi32>) -> vector<19x29xi32>
      "affine.vector_store"(%121, %77, %23) <{map = affine_map<(d0) -> (d0)>}> : (vector<12xi64>, memref<?xi64>, index) -> ()
      "scf.parallel"(%34, %23, %39, %159, %18, %33) <{operandSegmentSizes = array<i32: 2, 2, 2, 0>}> ({
      ^bb0(%arg2: index, %arg3: index):
        %243 = "vector.broadcast"(%133) : (i1) -> vector<29xi1>
        %244 = "vector.mask"(%243) ({
          %261 = "vector.multi_reduction"(%216, %216) <{kind = #vector.kind<minui>, reduction_dims = []}> : (vector<29xi32>, vector<29xi32>) -> vector<29xi32>
          "vector.yield"(%261) : (vector<29xi32>) -> ()
        }) : (vector<29xi1>) -> vector<29xi32>
        %245 = "affine.load"(%68, %18, %23) <{map = affine_map<(d0, d1) -> (d0, d1)>}> : (memref<?x29xi32>, index, index) -> i32
        %246 = "math.tanh"(%51) <{fastmath = #arith.fastmath<none>}> : (tensor<19x29xf32>) -> tensor<19x29xf32>
        %247 = "tensor.cast"(%52) : (tensor<?xi16>) -> tensor<19xi16>
        %248 = "memref.alloca"(%159) <{operandSegmentSizes = array<i32: 1, 0>}> : (index) -> memref<?x29xi32>
        %249 = "vector.broadcast"(%245) : (i32) -> vector<2x2xi32>
        %250 = "vector.outerproduct"(%85, %85, %249) <{kind = #vector.kind<maxsi>}> : (vector<2xi32>, vector<2xi32>, vector<2x2xi32>) -> vector<2x2xi32>
        "memref.store"(%166, %77, %16) <{nontemporal = false}> : (i64, memref<?xi64>, index) -> ()
        %251 = "arith.cmpf"(%94, %92) <{predicate = 2 : i64}> : (f16, f16) -> i1
        %252 = "tensor.empty"() : () -> tensor<19x29xi32>
        %253 = "vector.gather"(%252, %34, %36, %106, %107, %106) : (tensor<19x29xi32>, index, index, vector<19x29xi32>, vector<19x29xi1>, vector<19x29xi32>) -> vector<19x29xi32>
        %254 = "arith.shrui"(%8, %166) : (i64, i64) -> i64
        %255 = "math.tan"(%217) <{fastmath = #arith.fastmath<none>}> : (tensor<28xf16>) -> tensor<28xf16>
        %256 = "arith.cmpi"(%133, %100) <{predicate = 1 : i64}> : (i1, i1) -> i1
        %257 = "vector.extract_strided_slice"(%107) <{offsets = [8], sizes = [8], strides = [1]}> : (vector<19x29xi1>) -> vector<8x29xi1>
        %258 = "tensor.cast"(%219) : (tensor<f16>) -> tensor<f16>
        %259 = "vector.matrix_multiply"(%120, %120) <{lhs_columns = 12 : i32, lhs_rows = 1 : i32, rhs_columns = 1 : i32}> : (vector<12xf16>, vector<12xf16>) -> vector<1xf16>
        %260 = "affine.min"(%32) <{map = affine_map<(d0) -> ((d0 floordiv 8) mod 4)>}> : (index) -> index
        "scf.yield"() : () -> ()
      }) : (index, index, index, index, index, index) -> ()
      %233 = "math.powf"(%12, %94) <{fastmath = #arith.fastmath<none>}> : (f16, f16) -> f16
      %234 = "vector.flat_transpose"(%230) <{columns = 19 : i32, rows = 1 : i32}> : (vector<19xi32>) -> vector<19xi32>
      %235 = "vector.shuffle"(%121, %81) <{mask = [2, 4, 6, 8, 9, 11, 15, 20, 21, 22]}> : (vector<12xi64>, vector<12xi64>) -> vector<10xi64>
      %236 = "arith.mulf"(%135, %7) <{fastmath = #arith.fastmath<none>}> : (f32, f32) -> f32
      %237 = "index.floordivs"(%22, %27) : (index, index) -> index
      %238 = "vector.transpose"(%216) <{transp = [0]}> : (vector<29xi32>) -> vector<29xi32>
      "affine.vector_store"(%234, %144, %18) <{map = affine_map<(d0) -> (d0)>}> : (vector<19xi32>, memref<28xi32>, index) -> ()
      %239 = "math.fma"(%168, %129, %12) <{fastmath = #arith.fastmath<none>}> : (f16, f16, f16) -> f16
      %240 = "scf.index_switch"(%18) <{cases = array<i64: 1, 2>}> ({
        "bufferization.dealloc_tensor"(%63) : (tensor<?xf32>) -> ()
        %243 = "math.log10"(%12) <{fastmath = #arith.fastmath<none>}> : (f16) -> f16
        %244 = "vector.transfer_read"(%49, %220, %137, %104) <{operandSegmentSizes = array<i32: 1, 2, 1, 0>, permutation_map = affine_map<(d0, d1) -> (d1)>}> : (tensor<?x?xi16>, index, index, i16) -> vector<12xi16>
        %245 = "memref.cast"(%114) : (memref<19x29xi32>) -> memref<?x?xi32>
        %246 = "affine.min"(%17) <{map = affine_map<(d0) -> (d0 * 2)>}> : (index) -> index
        %247 = "tensor.dim"(%56, %16) : (tensor<?x29xf16>, index) -> index
        %248 = "vector.insertelement"(%98, %216, %25) : (i32, vector<29xi32>, index) -> vector<29xi32>
        %249 = "vector.matrix_multiply"(%222, %222) <{lhs_columns = 29 : i32, lhs_rows = 1 : i32, rhs_columns = 1 : i32}> : (vector<29xi32>, vector<29xi32>) -> vector<1xi32>
        %250 = "math.exp"(%129) <{fastmath = #arith.fastmath<none>}> : (f16) -> f16
        %251 = "arith.divsi"(%15, %169) : (i32, i32) -> i32
        %252 = "bufferization.to_tensor"(%78) : (memref<19x29xi32>) -> tensor<19x29xi32>
        %253 = "arith.shrui"(%175, %175) : (i16, i16) -> i16
        %254 = "index.floordivs"(%19, %17) : (index, index) -> index
        %255 = "vector.multi_reduction"(%157, %157) <{kind = #vector.kind<maxsi>, reduction_dims = []}> : (vector<19xi32>, vector<19xi32>) -> vector<19xi32>
        %256 = "vector.transpose"(%120) <{transp = [0]}> : (vector<12xf16>) -> vector<12xf16>
        %257 = "index.floordivs"(%22, %23) : (index, index) -> index
        "scf.yield"(%74) : (memref<19x29xi64>) -> ()
      }, {
        %243 = "vector.insert"(%169, %230) <{static_position = array<i64: 18>}> : (i32, vector<19xi32>) -> vector<19xi32>
        %244 = "vector.transfer_read"(%52, %20, %156) <{operandSegmentSizes = array<i32: 1, 1, 1, 0>, permutation_map = affine_map<(d0) -> ()>}> : (tensor<?xi16>, index, i16) -> vector<i16>
        %245 = "memref.alloc"() <{operandSegmentSizes = array<i32: 0, 0>}> : () -> memref<29x12xi64>
        %246 = "tensor.empty"() : () -> tensor<19x12xi64>
        %247 = "linalg.matmul"(%74, %245, %246) <{operandSegmentSizes = array<i32: 2, 1>}> ({
        ^bb0(%arg2: i64, %arg3: i64, %arg4: i64):
          %267 = "arith.muli"(%arg2, %arg3) : (i64, i64) -> i64
          %268 = "arith.addi"(%arg4, %267) : (i64, i64) -> i64
          "linalg.yield"(%268) : (i64) -> ()
        }) {linalg.memoized_indexing_maps = [affine_map<(d0, d1, d2) -> (d0, d2)>, affine_map<(d0, d1, d2) -> (d2, d1)>, affine_map<(d0, d1, d2) -> (d0, d1)>]} : (memref<19x29xi64>, memref<29x12xi64>, tensor<19x12xi64>) -> tensor<19x12xi64>
        %248 = "linalg.copy"(%50, %50) <{operandSegmentSizes = array<i32: 1, 1>}> ({
        ^bb0(%arg2: i1, %arg3: i1):
          "linalg.yield"(%arg2) : (i1) -> ()
        }) : (tensor<?xi1>, tensor<?xi1>) -> tensor<?xi1>
        %249 = "vector.contract"(%141, %141, %10) <{indexing_maps = [affine_map<(d0) -> (d0)>, affine_map<(d0) -> (d0)>, affine_map<(d0) -> ()>], iterator_types = [#vector.iterator_type<reduction>], kind = #vector.kind<minf>}> : (vector<29xf16>, vector<29xf16>, f16) -> f16
        %250 = "memref.alloc"() <{operandSegmentSizes = array<i32: 0, 0>}> : () -> memref<29x12xi32>
        %251 = "tensor.empty"() : () -> tensor<19x12xi32>
        %252 = "linalg.matmul"(%72, %250, %251) <{operandSegmentSizes = array<i32: 2, 1>}> ({
        ^bb0(%arg2: i32, %arg3: i32, %arg4: i32):
          %267 = "arith.muli"(%arg2, %arg3) : (i32, i32) -> i32
          %268 = "arith.addi"(%arg4, %267) : (i32, i32) -> i32
          "linalg.yield"(%268) : (i32) -> ()
        }) {linalg.memoized_indexing_maps = [affine_map<(d0, d1, d2) -> (d0, d2)>, affine_map<(d0, d1, d2) -> (d2, d1)>, affine_map<(d0, d1, d2) -> (d0, d1)>]} : (memref<19x29xi32>, memref<29x12xi32>, tensor<19x12xi32>) -> tensor<19x12xi32>
        %253 = "tensor.empty"() : () -> tensor<28xf32>
        %254 = "vector.broadcast"(%7) : (f32) -> vector<19x29xf32>
        %255 = "vector.gather"(%253, %159, %108, %107, %254) : (tensor<28xf32>, index, vector<19x29xi32>, vector<19x29xi1>, vector<19x29xf32>) -> vector<19x29xf32>
        %256 = "vector.transpose"(%107) <{transp = [0, 1]}> : (vector<19x29xi1>) -> vector<19x29xi1>
        %257 = "tensor.empty"() : () -> tensor<29x19xi64>
        %258 = "tensor.empty"() : () -> tensor<19x19xi64>
        %259 = "linalg.matmul"(%53, %257, %258) <{operandSegmentSizes = array<i32: 2, 1>}> ({
        ^bb0(%arg2: i64, %arg3: i64, %arg4: i64):
          %267 = "arith.muli"(%arg2, %arg3) : (i64, i64) -> i64
          %268 = "arith.addi"(%arg4, %267) : (i64, i64) -> i64
          "linalg.yield"(%268) : (i64) -> ()
        }) {linalg.memoized_indexing_maps = [affine_map<(d0, d1, d2) -> (d0, d2)>, affine_map<(d0, d1, d2) -> (d2, d1)>, affine_map<(d0, d1, d2) -> (d0, d1)>]} : (tensor<19x29xi64>, tensor<29x19xi64>, tensor<19x19xi64>) -> tensor<19x19xi64>
        "memref.assume_alignment"(%71) <{alignment = 16 : i32}> : (memref<29xf16>) -> ()
        %260 = "bufferization.clone"(%75) : (memref<19x29xi1>) -> memref<19x29xi1>
        %261 = "index.shru"(%105, %34) : (index, index) -> index
        %262 = "bufferization.clone"(%114) : (memref<19x29xi32>) -> memref<19x29xi32>
        %263 = "tensor.splat"(%8) : (i64) -> tensor<19x29xi64>
        %264 = "linalg.copy"(%48, %52) <{operandSegmentSizes = array<i32: 1, 1>}> ({
        ^bb0(%arg2: i16, %arg3: i16):
          "linalg.yield"(%arg2) : (i16) -> ()
        }) : (tensor<?xi16>, tensor<?xi16>) -> tensor<?xi16>
        %265 = "tensor.empty"() : () -> tensor<19x29xi32>
        %266 = "math.fpowi"(%51, %265) <{fastmath = #arith.fastmath<none>}> : (tensor<19x29xf32>, tensor<19x29xi32>) -> tensor<19x29xf32>
        "scf.yield"(%74) : (memref<19x29xi64>) -> ()
      }, {
        %243 = "math.roundeven"(%103) <{fastmath = #arith.fastmath<none>}> : (f16) -> f16
        %244 = "arith.shrui"(%172, %112) : (i1, i1) -> i1
        %245 = "affine.load"(%73, %30, %44) <{map = affine_map<(d0, d1) -> (d0, d1)>}> : (memref<19x29xf32>, index, index) -> f32
        %246 = "memref.cast"(%72) : (memref<19x29xi32>) -> memref<?x29xi32>
        "bufferization.dealloc_tensor"(%176) : (tensor<19x29xi64>) -> ()
        %247 = "index.floordivs"(%46, %31) : (index, index) -> index
        %248 = "vector.broadcast"(%2) : (f32) -> vector<29xf32>
        %249 = "vector.broadcast"(%122) : (i1) -> vector<29xi1>
        %250 = "vector.maskedload"(%73, %33, %30, %249, %248) : (memref<19x29xf32>, index, index, vector<29xi1>, vector<29xf32>) -> vector<29xf32>
        %251 = "math.log10"(%119) <{fastmath = #arith.fastmath<none>}> : (f32) -> f32
        "vector.transfer_write"(%141, %64, %220, %237) <{operandSegmentSizes = array<i32: 1, 1, 2, 0>, permutation_map = affine_map<(d0, d1) -> (d0)>}> : (vector<29xf16>, memref<19x29xf16>, index, index) -> ()
        %252 = "math.round"(%99) <{fastmath = #arith.fastmath<none>}> : (f16) -> f16
        %253 = "math.copysign"(%5, %142) <{fastmath = #arith.fastmath<none>}> : (f16, f16) -> f16
        %254 = "index.mul"(%32, %45) : (index, index) -> index
        %255 = "linalg.copy"(%51, %51) <{operandSegmentSizes = array<i32: 1, 1>}> ({
        ^bb0(%arg2: f32, %arg3: f32):
          "linalg.yield"(%arg2) : (f32) -> ()
        }) : (tensor<19x29xf32>, tensor<19x29xf32>) -> tensor<19x29xf32>
        %256 = "vector.broadcast"(%20) : (index) -> vector<29xindex>
        "vector.scatter"(%64, %24, %24, %256, %249, %141) : (memref<19x29xf16>, index, index, vector<29xindex>, vector<29xi1>, vector<29xf16>) -> ()
        %257 = "memref.alloca"(%36) <{operandSegmentSizes = array<i32: 1, 0>}> : (index) -> memref<?xi1>
        %258 = "affine.load"(%77, %32) <{map = affine_map<(d0) -> (d0)>}> : (memref<?xi64>, index) -> i64
        "scf.yield"(%74) : (memref<19x29xi64>) -> ()
      }) : (index) -> memref<19x29xi64>
      %241 = "math.fpowi"(%92, %83) <{fastmath = #arith.fastmath<none>}> : (f16, i32) -> f16
      "affine.for"() <{lowerBoundMap = affine_map<() -> (0)>, operandSegmentSizes = array<i32: 0, 0, 0>, step = 1 : index, upperBoundMap = affine_map<() -> (28)>}> ({
      ^bb0(%arg2: index):
        "affine.yield"() : () -> ()
      }) : () -> ()
      %242 = "memref.load"(%79, %16) <{nontemporal = false}> : (memref<?xf32>, index) -> f32
      "linalg.yield"(%11) : (i64) -> ()
    }) : (tensor<19x29xi64>, tensor<19x29xi64>) -> tensor<19x29xi64>
    %178 = "vector.broadcast"(%14) : (i32) -> vector<29xi32>
    %179:2 = "vector.scan"(%106, %178) <{inclusive = true, kind = #vector.kind<xor>, reduction_dim = 0 : i64}> : (vector<19x29xi32>, vector<29xi32>) -> (vector<19x29xi32>, vector<29xi32>)
    %180 = "spirv.ULessThanEqual"(%156, %145) : (i16, i16) -> i1
    %181 = "math.ceil"(%6) <{fastmath = #arith.fastmath<none>}> : (f32) -> f32
    %182 = "spirv.SGreaterThan"(%3, %156) : (i16, i16) -> i1
    %183 = "spirv.CL.sin"(%119) : (f32) -> f32
    %184 = "spirv.GL.Pow"(%103, %113) : (f16, f16) -> f16
    %185 = "spirv.FOrdLessThan"(%153, %113) : (f16, f16) -> i1
    %186 = "spirv.BitReverse"(%98) : (i32) -> i32
    %187 = "arith.remf"(%153, %94) <{fastmath = #arith.fastmath<none>}> : (f16, f16) -> f16
    %188 = "spirv.CL.erf"(%87) : (f32) -> f32
    %189 = "vector.insertelement"(%113, %141, %17) : (f16, vector<29xf16>, index) -> vector<29xf16>
    "vector.warp_execute_on_lane_0"(%16) <{warp_size = 32 : i64}> ({
      %215 = "arith.cmpi"(%102, %182) <{predicate = 3 : i64}> : (i1, i1) -> i1
      %216 = "affine.max"(%44, %105, %38, %164, %18) <{map = affine_map<(d0, d1, d2, d3)[s0] -> (d3)>}> : (index, index, index, index, index) -> index
      %217 = "vector.transpose"(%107) <{transp = [0, 1]}> : (vector<19x29xi1>) -> vector<19x29xi1>
      %218 = "math.rsqrt"(%153) <{fastmath = #arith.fastmath<none>}> : (f16) -> f16
      %219 = "affine.parallel"() <{lowerBoundsGroups = dense<1> : tensor<1xi32>, lowerBoundsMap = affine_map<() -> (0)>, reductions = [5], steps = [1], upperBoundsGroups = dense<1> : tensor<1xi32>, upperBoundsMap = affine_map<() -> (28)>}> ({
      ^bb0(%arg1: index):
        %223 = "arith.addi"(%3, %4) : (i16, i16) -> i16
        "affine.yield"(%15) : (i32) -> ()
      }) : () -> memref<28xi32>
      %220 = "math.powf"(%94, %12) <{fastmath = #arith.fastmath<none>}> : (f16, f16) -> f16
      %221 = "arith.ceildivsi"(%175, %1) : (i16, i16) -> i16
      %222 = "arith.addi"(%101, %182) : (i1, i1) -> i1
      "vector.yield"() : () -> ()
    }) : (index) -> ()
    %190 = "spirv.GL.FMin"(%142, %116) : (f16, f16) -> f16
    %191 = "math.tanh"(%113) <{fastmath = #arith.fastmath<none>}> : (f16) -> f16
    %192 = "tensor.empty"() : () -> tensor<551xi64>
    %193 = "tensor.unpack"(%60, %192, %45) <{inner_dims_pos = array<i64: 0>, outer_dims_perm = array<i64: 0>, static_inner_tiles = array<i64: -9223372036854775808>}> : (tensor<19x29xi64>, tensor<551xi64>, index) -> tensor<551xi64>
    %194 = "spirv.GL.SSign"(%83) : (i32) -> i32
    "memref.assume_alignment"(%76) <{alignment = 1 : i32}> : (memref<19x29xi32>) -> ()
    %195 = "index.mul"(%159, %47) : (index, index) -> index
    %196 = "arith.andi"(%4, %1) : (i16, i16) -> i16
    %197 = "spirv.GL.InverseSqrt"(%92) : (f16) -> f16
    %198 = "spirv.CL.round"(%153) : (f16) -> f16
    %199 = "spirv.INotEqual"(%1, %156) : (i16, i16) -> i1
    %200 = "memref.alloc"(%26, %45) <{operandSegmentSizes = array<i32: 2, 0>}> : (index, index) -> memref<?x?x28xf16>
    %201 = "tensor.empty"(%44, %37) : (index, index) -> tensor<?x?x28xf16>
    %202 = "memref.alloc"(%28) <{operandSegmentSizes = array<i32: 1, 0>}> : (index) -> memref<?x28xf16>
    %203 = "memref.alloc"(%42) <{operandSegmentSizes = array<i32: 1, 0>}> : (index) -> memref<?xf16>
    %204 = "linalg.generic"(%200, %201, %202, %203, %201) <{indexing_maps = [affine_map<(d0, d1, d2) -> (d0, d1, d2)>, affine_map<(d0, d1, d2) -> (d0, d1, d2)>, affine_map<(d0, d1, d2) -> (d1, d2)>, affine_map<(d0, d1, d2) -> (d1)>, affine_map<(d0, d1, d2) -> (d0, d1, d2)>], iterator_types = [#linalg.iterator_type<parallel>, #linalg.iterator_type<parallel>, #linalg.iterator_type<parallel>], operandSegmentSizes = array<i32: 4, 1>}> ({
    ^bb0(%arg1: f16, %arg2: f16, %arg3: f16, %arg4: f16, %arg5: f16):
      %215 = "tensor.splat"(%116) : (f16) -> tensor<28xf16>
      "linalg.yield"(%arg1) : (f16) -> ()
    }) : (memref<?x?x28xf16>, tensor<?x?x28xf16>, memref<?x28xf16>, memref<?xf16>, tensor<?x?x28xf16>) -> tensor<?x?x28xf16>
    %205 = "index.add"(%29, %89) : (index, index) -> index
    %206 = "spirv.GL.Cosh"(%197) : (f16) -> f16
    %207 = "spirv.CL.s_min"(%14, %186) : (i32, i32) -> i32
    %208 = "spirv.CL.floor"(%128) : (f16) -> f16
    %209 = "math.rsqrt"(%153) <{fastmath = #arith.fastmath<none>}> : (f16) -> f16
    %210 = "spirv.CL.u_max"(%93, %166) : (i64, i64) -> i64
    "memref.assume_alignment"(%78) <{alignment = 16 : i32}> : (memref<19x29xi32>) -> ()
    %211 = "spirv.CL.s_max"(%194, %207) : (i32, i32) -> i32
    %212 = "spirv.IsNan"(%6) : (f32) -> i1
    %213 = "tensor.unpack"(%53, %192, %45) <{inner_dims_pos = array<i64: 0>, outer_dims_perm = array<i64: 0>, static_inner_tiles = array<i64: -9223372036854775808>}> : (tensor<19x29xi64>, tensor<551xi64>, index) -> tensor<551xi64>
    %214 = "spirv.ULessThan"(%9, %166) : (i64, i64) -> i1
    "vector.print"(%80) <{punctuation = #vector.punctuation<newline>}> : (vector<12xi64>) -> ()
    "vector.print"(%81) <{punctuation = #vector.punctuation<newline>}> : (vector<12xi64>) -> ()
    "vector.print"(%85) <{punctuation = #vector.punctuation<newline>}> : (vector<2xi32>) -> ()
    "vector.print"(%106) <{punctuation = #vector.punctuation<newline>}> : (vector<19x29xi32>) -> ()
    "vector.print"(%107) <{punctuation = #vector.punctuation<newline>}> : (vector<19x29xi1>) -> ()
    "vector.print"(%108) <{punctuation = #vector.punctuation<newline>}> : (vector<19x29xi32>) -> ()
    "vector.print"(%120) <{punctuation = #vector.punctuation<newline>}> : (vector<12xf16>) -> ()
    "vector.print"(%121) <{punctuation = #vector.punctuation<newline>}> : (vector<12xi64>) -> ()
    "vector.print"(%141) <{punctuation = #vector.punctuation<newline>}> : (vector<29xf16>) -> ()
    "vector.print"(%157) <{punctuation = #vector.punctuation<newline>}> : (vector<19xi32>) -> ()
    "vector.print"(%0) <{punctuation = #vector.punctuation<newline>}> : (f16) -> ()
    "vector.print"(%1) <{punctuation = #vector.punctuation<newline>}> : (i16) -> ()
    "vector.print"(%2) <{punctuation = #vector.punctuation<newline>}> : (f32) -> ()
    "vector.print"(%3) <{punctuation = #vector.punctuation<newline>}> : (i16) -> ()
    "vector.print"(%4) <{punctuation = #vector.punctuation<newline>}> : (i16) -> ()
    "vector.print"(%5) <{punctuation = #vector.punctuation<newline>}> : (f16) -> ()
    "vector.print"(%6) <{punctuation = #vector.punctuation<newline>}> : (f32) -> ()
    "vector.print"(%7) <{punctuation = #vector.punctuation<newline>}> : (f32) -> ()
    "vector.print"(%8) <{punctuation = #vector.punctuation<newline>}> : (i64) -> ()
    "vector.print"(%9) <{punctuation = #vector.punctuation<newline>}> : (i64) -> ()
    "vector.print"(%10) <{punctuation = #vector.punctuation<newline>}> : (f16) -> ()
    "vector.print"(%11) <{punctuation = #vector.punctuation<newline>}> : (i64) -> ()
    "vector.print"(%12) <{punctuation = #vector.punctuation<newline>}> : (f16) -> ()
    "vector.print"(%13) <{punctuation = #vector.punctuation<newline>}> : (f16) -> ()
    "vector.print"(%14) <{punctuation = #vector.punctuation<newline>}> : (i32) -> ()
    "vector.print"(%15) <{punctuation = #vector.punctuation<newline>}> : (i32) -> ()
    "vector.print"(%82) <{punctuation = #vector.punctuation<newline>}> : (i16) -> ()
    "vector.print"(%83) <{punctuation = #vector.punctuation<newline>}> : (i32) -> ()
    "vector.print"(%87) <{punctuation = #vector.punctuation<newline>}> : (f32) -> ()
    "vector.print"(%92) <{punctuation = #vector.punctuation<newline>}> : (f16) -> ()
    "vector.print"(%93) <{punctuation = #vector.punctuation<newline>}> : (i64) -> ()
    "vector.print"(%94) <{punctuation = #vector.punctuation<newline>}> : (f16) -> ()
    "vector.print"(%98) <{punctuation = #vector.punctuation<newline>}> : (i32) -> ()
    "vector.print"(%99) <{punctuation = #vector.punctuation<newline>}> : (f16) -> ()
    "vector.print"(%100) <{punctuation = #vector.punctuation<newline>}> : (i1) -> ()
    "vector.print"(%101) <{punctuation = #vector.punctuation<newline>}> : (i1) -> ()
    "vector.print"(%102) <{punctuation = #vector.punctuation<newline>}> : (i1) -> ()
    "vector.print"(%103) <{punctuation = #vector.punctuation<newline>}> : (f16) -> ()
    "vector.print"(%104) <{punctuation = #vector.punctuation<newline>}> : (i16) -> ()
    "vector.print"(%112) <{punctuation = #vector.punctuation<newline>}> : (i1) -> ()
    "vector.print"(%113) <{punctuation = #vector.punctuation<newline>}> : (f16) -> ()
    "vector.print"(%116) <{punctuation = #vector.punctuation<newline>}> : (f16) -> ()
    "vector.print"(%119) <{punctuation = #vector.punctuation<newline>}> : (f32) -> ()
    "vector.print"(%122) <{punctuation = #vector.punctuation<newline>}> : (i1) -> ()
    "vector.print"(%126) <{punctuation = #vector.punctuation<newline>}> : (f32) -> ()
    "vector.print"(%128) <{punctuation = #vector.punctuation<newline>}> : (f16) -> ()
    "vector.print"(%129) <{punctuation = #vector.punctuation<newline>}> : (f16) -> ()
    "vector.print"(%133) <{punctuation = #vector.punctuation<newline>}> : (i1) -> ()
    "vector.print"(%135) <{punctuation = #vector.punctuation<newline>}> : (f32) -> ()
    "vector.print"(%140) <{punctuation = #vector.punctuation<newline>}> : (i1) -> ()
    "vector.print"(%142) <{punctuation = #vector.punctuation<newline>}> : (f16) -> ()
    "vector.print"(%143) <{punctuation = #vector.punctuation<newline>}> : (f32) -> ()
    "vector.print"(%145) <{punctuation = #vector.punctuation<newline>}> : (i16) -> ()
    "vector.print"(%146) <{punctuation = #vector.punctuation<newline>}> : (i16) -> ()
    "vector.print"(%153) <{punctuation = #vector.punctuation<newline>}> : (f16) -> ()
    "vector.print"(%156) <{punctuation = #vector.punctuation<newline>}> : (i16) -> ()
    "vector.print"(%160) <{punctuation = #vector.punctuation<newline>}> : (f16) -> ()
    "vector.print"(%166) <{punctuation = #vector.punctuation<newline>}> : (i64) -> ()
    "vector.print"(%168) <{punctuation = #vector.punctuation<newline>}> : (f16) -> ()
    "vector.print"(%169) <{punctuation = #vector.punctuation<newline>}> : (i32) -> ()
    "vector.print"(%172) <{punctuation = #vector.punctuation<newline>}> : (i1) -> ()
    "vector.print"(%174) <{punctuation = #vector.punctuation<newline>}> : (i1) -> ()
    "vector.print"(%175) <{punctuation = #vector.punctuation<newline>}> : (i16) -> ()
    "vector.print"(%180) <{punctuation = #vector.punctuation<newline>}> : (i1) -> ()
    "vector.print"(%182) <{punctuation = #vector.punctuation<newline>}> : (i1) -> ()
    "vector.print"(%183) <{punctuation = #vector.punctuation<newline>}> : (f32) -> ()
    "vector.print"(%184) <{punctuation = #vector.punctuation<newline>}> : (f16) -> ()
    "vector.print"(%185) <{punctuation = #vector.punctuation<newline>}> : (i1) -> ()
    "vector.print"(%186) <{punctuation = #vector.punctuation<newline>}> : (i32) -> ()
    "vector.print"(%188) <{punctuation = #vector.punctuation<newline>}> : (f32) -> ()
    "vector.print"(%190) <{punctuation = #vector.punctuation<newline>}> : (f16) -> ()
    "vector.print"(%194) <{punctuation = #vector.punctuation<newline>}> : (i32) -> ()
    "vector.print"(%197) <{punctuation = #vector.punctuation<newline>}> : (f16) -> ()
    "vector.print"(%198) <{punctuation = #vector.punctuation<newline>}> : (f16) -> ()
    "vector.print"(%199) <{punctuation = #vector.punctuation<newline>}> : (i1) -> ()
    "vector.print"(%206) <{punctuation = #vector.punctuation<newline>}> : (f16) -> ()
    "vector.print"(%207) <{punctuation = #vector.punctuation<newline>}> : (i32) -> ()
    "vector.print"(%208) <{punctuation = #vector.punctuation<newline>}> : (f16) -> ()
    "vector.print"(%210) <{punctuation = #vector.punctuation<newline>}> : (i64) -> ()
    "vector.print"(%211) <{punctuation = #vector.punctuation<newline>}> : (i32) -> ()
    "vector.print"(%212) <{punctuation = #vector.punctuation<newline>}> : (i1) -> ()
    "vector.print"(%214) <{punctuation = #vector.punctuation<newline>}> : (i1) -> ()
    "func.return"() : () -> ()
  }) : () -> ()
  "func.func"() <{function_type = (i16, index) -> (), sym_name = "func2"}> ({
  ^bb0(%arg0: i16, %arg1: index):
    %0 = "arith.constant"() <{value = 5.484800e+04 : f16}> : () -> f16
    %1 = "arith.constant"() <{value = 27095 : i16}> : () -> i16
    %2 = "arith.constant"() <{value = 0x4DE956D6 : f32}> : () -> f32
    %3 = "arith.constant"() <{value = -8011 : i16}> : () -> i16
    %4 = "arith.constant"() <{value = -25992 : i16}> : () -> i16
    %5 = "arith.constant"() <{value = 6.788000e+03 : f16}> : () -> f16
    %6 = "arith.constant"() <{value = 1.49357018E+9 : f32}> : () -> f32
    %7 = "arith.constant"() <{value = 1.72445862E+9 : f32}> : () -> f32
    %8 = "arith.constant"() <{value = 939857957 : i64}> : () -> i64
    %9 = "arith.constant"() <{value = 2032878246 : i64}> : () -> i64
    %10 = "arith.constant"() <{value = 9.592000e+03 : f16}> : () -> f16
    %11 = "arith.constant"() <{value = 1078630833 : i64}> : () -> i64
    %12 = "arith.constant"() <{value = 2.299200e+04 : f16}> : () -> f16
    %13 = "arith.constant"() <{value = 4.057600e+04 : f16}> : () -> f16
    %14 = "arith.constant"() <{value = 560718294 : i32}> : () -> i32
    %15 = "arith.constant"() <{value = 1175396684 : i32}> : () -> i32
    %16 = "arith.constant"() <{value = 0 : index}> : () -> index
    %17 = "arith.constant"() <{value = 1 : index}> : () -> index
    %18 = "arith.constant"() <{value = 2 : index}> : () -> index
    %19 = "arith.constant"() <{value = 3 : index}> : () -> index
    %20 = "arith.constant"() <{value = 4 : index}> : () -> index
    %21 = "arith.constant"() <{value = 5 : index}> : () -> index
    %22 = "arith.constant"() <{value = 6 : index}> : () -> index
    %23 = "arith.constant"() <{value = 7 : index}> : () -> index
    %24 = "arith.constant"() <{value = 8 : index}> : () -> index
    %25 = "arith.constant"() <{value = 9 : index}> : () -> index
    %26 = "arith.constant"() <{value = 10 : index}> : () -> index
    %27 = "arith.constant"() <{value = 11 : index}> : () -> index
    %28 = "arith.constant"() <{value = 12 : index}> : () -> index
    %29 = "arith.constant"() <{value = 13 : index}> : () -> index
    %30 = "arith.constant"() <{value = 14 : index}> : () -> index
    %31 = "arith.constant"() <{value = 15 : index}> : () -> index
    %32 = "arith.constant"() <{value = 16 : index}> : () -> index
    %33 = "arith.constant"() <{value = 17 : index}> : () -> index
    %34 = "arith.constant"() <{value = 18 : index}> : () -> index
    %35 = "arith.constant"() <{value = 19 : index}> : () -> index
    %36 = "arith.constant"() <{value = 20 : index}> : () -> index
    %37 = "arith.constant"() <{value = 21 : index}> : () -> index
    %38 = "arith.constant"() <{value = 22 : index}> : () -> index
    %39 = "arith.constant"() <{value = 23 : index}> : () -> index
    %40 = "arith.constant"() <{value = 24 : index}> : () -> index
    %41 = "arith.constant"() <{value = 25 : index}> : () -> index
    %42 = "arith.constant"() <{value = 26 : index}> : () -> index
    %43 = "arith.constant"() <{value = 27 : index}> : () -> index
    %44 = "arith.constant"() <{value = 28 : index}> : () -> index
    %45 = "arith.constant"() <{value = 29 : index}> : () -> index
    %46 = "arith.constant"() <{value = 30 : index}> : () -> index
    %47 = "arith.constant"() <{value = 31 : index}> : () -> index
    %48 = "tensor.empty"(%18) : (index) -> tensor<?xi16>
    %49 = "tensor.empty"(%41, %28) : (index, index) -> tensor<?x?xi16>
    %50 = "tensor.empty"(%22) : (index) -> tensor<?xi1>
    %51 = "tensor.empty"() : () -> tensor<19x29xf32>
    %52 = "tensor.empty"(%23) : (index) -> tensor<?xi16>
    %53 = "tensor.empty"() : () -> tensor<19x29xi64>
    %54 = "tensor.empty"() : () -> tensor<29xi32>
    %55 = "tensor.empty"(%20) : (index) -> tensor<?xf32>
    %56 = "tensor.empty"(%18) : (index) -> tensor<?x29xf16>
    %57 = "tensor.empty"() : () -> tensor<29xi64>
    %58 = "tensor.empty"(%39) : (index) -> tensor<?x29xf32>
    %59 = "tensor.empty"() : () -> tensor<19x29xi16>
    %60 = "tensor.empty"() : () -> tensor<19x29xi64>
    %61 = "tensor.empty"(%26) : (index) -> tensor<?xi64>
    %62 = "tensor.empty"(%21) : (index) -> tensor<?xi64>
    %63 = "tensor.empty"(%24) : (index) -> tensor<?xf32>
    %64 = "memref.alloc"() <{operandSegmentSizes = array<i32: 0, 0>}> : () -> memref<19x29xf16>
    %65 = "memref.alloc"() <{operandSegmentSizes = array<i32: 0, 0>}> : () -> memref<19x29xi1>
    %66 = "memref.alloc"() <{operandSegmentSizes = array<i32: 0, 0>}> : () -> memref<28xi32>
    %67 = "memref.alloc"() <{operandSegmentSizes = array<i32: 0, 0>}> : () -> memref<28xf16>
    %68 = "memref.alloc"(%32) <{operandSegmentSizes = array<i32: 1, 0>}> : (index) -> memref<?x29xi32>
    %69 = "memref.alloc"(%26) <{operandSegmentSizes = array<i32: 1, 0>}> : (index) -> memref<?x29xi32>
    %70 = "memref.alloc"() <{operandSegmentSizes = array<i32: 0, 0>}> : () -> memref<28xi16>
    %71 = "memref.alloc"() <{operandSegmentSizes = array<i32: 0, 0>}> : () -> memref<29xf16>
    %72 = "memref.alloc"() <{operandSegmentSizes = array<i32: 0, 0>}> : () -> memref<19x29xi32>
    %73 = "memref.alloc"() <{operandSegmentSizes = array<i32: 0, 0>}> : () -> memref<19x29xf32>
    %74 = "memref.alloc"() <{operandSegmentSizes = array<i32: 0, 0>}> : () -> memref<19x29xi64>
    %75 = "memref.alloc"() <{operandSegmentSizes = array<i32: 0, 0>}> : () -> memref<19x29xi1>
    %76 = "memref.alloc"() <{operandSegmentSizes = array<i32: 0, 0>}> : () -> memref<19x29xi32>
    %77 = "memref.alloc"(%37) <{operandSegmentSizes = array<i32: 1, 0>}> : (index) -> memref<?xi64>
    %78 = "memref.alloc"() <{operandSegmentSizes = array<i32: 0, 0>}> : () -> memref<19x29xi32>
    %79 = "memref.alloc"(%23) <{operandSegmentSizes = array<i32: 1, 0>}> : (index) -> memref<?xf32>
    %80 = "memref.alloca_scope"() ({
      %214 = "math.ctpop"(%54) : (tensor<29xi32>) -> tensor<29xi32>
      %215 = "math.roundeven"(%51) <{fastmath = #arith.fastmath<none>}> : (tensor<19x29xf32>) -> tensor<19x29xf32>
      %216 = "bufferization.clone"(%67) : (memref<28xf16>) -> memref<28xf16>
      %217 = "scf.while"(%48) ({
      ^bb0(%arg2: tensor<?xi16>):
        %250 = "vector.broadcast"(%11) : (i64) -> vector<28xi64>
        %251 = "vector.transpose"(%250) <{transp = [0]}> : (vector<28xi64>) -> vector<28xi64>
        %252 = "index.bool.constant"() <{value = false}> : () -> i1
        "memref.store"(%10, %216, %29) <{nontemporal = false}> : (f16, memref<28xf16>, index) -> ()
        %253 = "vector.broadcast"(%252) : (i1) -> vector<28xi1>
        %254 = "vector.mask"(%253) ({
          %261 = "vector.multi_reduction"(%250, %250) <{kind = #vector.kind<or>, reduction_dims = []}> : (vector<28xi64>, vector<28xi64>) -> vector<28xi64>
          "vector.yield"(%261) : (vector<28xi64>) -> ()
        }) : (vector<28xi1>) -> vector<28xi64>
        %255 = "vector.broadcast"(%3) : (i16) -> vector<28xi16>
        %256 = "vector.broadcast"(%14) : (i32) -> vector<28xi32>
        %257 = "vector.gather"(%59, %22, %32, %256, %253, %255) : (tensor<19x29xi16>, index, index, vector<28xi32>, vector<28xi1>, vector<28xi16>) -> vector<28xi16>
        %258 = "math.exp"(%63) <{fastmath = #arith.fastmath<none>}> : (tensor<?xf32>) -> tensor<?xf32>
        "affine.vector_store"(%255, %70, %arg1) <{map = affine_map<(d0) -> (d0)>}> : (vector<28xi16>, memref<28xi16>, index) -> ()
        %259 = "tensor.dim"(%50, %16) : (tensor<?xi1>, index) -> index
        %260 = "tensor.empty"(%arg1) : (index) -> tensor<?xi16>
        "scf.condition"(%252, %260) : (i1, tensor<?xi16>) -> ()
      }, {
      ^bb0(%arg2: tensor<?xi16>):
        %250 = "math.exp2"(%56) <{fastmath = #arith.fastmath<none>}> : (tensor<?x29xf16>) -> tensor<?x29xf16>
        %251 = "math.fpowi"(%5, %14) <{fastmath = #arith.fastmath<none>}> : (f16, i32) -> f16
        %252 = "arith.shrsi"(%9, %8) : (i64, i64) -> i64
        %253 = "math.round"(%56) <{fastmath = #arith.fastmath<none>}> : (tensor<?x29xf16>) -> tensor<?x29xf16>
        %254 = "tensor.empty"() : () -> tensor<551xi64>
        %255 = "tensor.unpack"(%60, %254, %45) <{inner_dims_pos = array<i64: 0>, outer_dims_perm = array<i64: 0>, static_inner_tiles = array<i64: -9223372036854775808>}> : (tensor<19x29xi64>, tensor<551xi64>, index) -> tensor<551xi64>
        %256 = "index.add"(%37, %43) : (index, index) -> index
        %257 = "math.copysign"(%13, %5) <{fastmath = #arith.fastmath<none>}> : (f16, f16) -> f16
        %258 = "index.ceildivu"(%23, %45) : (index, index) -> index
        %259 = "arith.cmpi"(%4, %4) <{predicate = 8 : i64}> : (i16, i16) -> i1
        %260 = "arith.xori"(%15, %14) : (i32, i32) -> i32
        %261 = "index.shrs"(%16, %16) : (index, index) -> index
        %262 = "math.roundeven"(%58) <{fastmath = #arith.fastmath<none>}> : (tensor<?x29xf32>) -> tensor<?x29xf32>
        %263 = "index.add"(%24, %24) : (index, index) -> index
        %264 = "vector.broadcast"(%10) : (f16) -> vector<1xf16>
        %265 = "vector.extract"(%264) <{static_position = array<i64: 0>}> : (vector<1xf16>) -> f16
        %266 = "affine.vector_load"(%66, %27) <{map = affine_map<(d0) -> (d0)>}> : (memref<28xi32>, index) -> vector<19xi32>
        "memref.store"(%12, %64, %34, %36) <{nontemporal = false}> : (f16, memref<19x29xf16>, index, index) -> ()
        %267 = "tensor.empty"(%40) : (index) -> tensor<?xi16>
        "scf.yield"(%267) : (tensor<?xi16>) -> ()
      }) : (tensor<?xi16>) -> tensor<?xi16>
      %218 = "index.add"(%36, %24) : (index, index) -> index
      %219 = "vector.broadcast"(%7) : (f32) -> vector<1xf32>
      %220 = "arith.constant"() <{value = true}> : () -> i1
      %221 = "vector.broadcast"(%220) : (i1) -> vector<1xi1>
      %222 = "vector.mask"(%221) ({
        %250 = "vector.multi_reduction"(%219, %219) <{kind = #vector.kind<maxf>, reduction_dims = []}> : (vector<1xf32>, vector<1xf32>) -> vector<1xf32>
        "vector.yield"(%250) : (vector<1xf32>) -> ()
      }) : (vector<1xi1>) -> vector<1xf32>
      %223 = "vector.matrix_multiply"(%221, %221) <{lhs_columns = 1 : i32, lhs_rows = 1 : i32, rhs_columns = 1 : i32}> : (vector<1xi1>, vector<1xi1>) -> vector<1xi1>
      %224 = "tensor.rank"(%55) : (tensor<?xf32>) -> index
      %225 = "arith.shrsi"(%arg0, %1) : (i16, i16) -> i16
      %226 = "vector.contract"(%221, %221, %220) <{indexing_maps = [affine_map<(d0) -> (d0)>, affine_map<(d0) -> (d0)>, affine_map<(d0) -> ()>], iterator_types = [#vector.iterator_type<reduction>], kind = #vector.kind<maxui>}> : (vector<1xi1>, vector<1xi1>, i1) -> i1
      %227 = "math.log"(%55) <{fastmath = #arith.fastmath<none>}> : (tensor<?xf32>) -> tensor<?xf32>
      %228 = "tensor.splat"(%6) : (f32) -> tensor<19x29xf32>
      %229 = "vector.broadcast"(%15) : (i32) -> vector<12xi32>
      %230 = "vector.broadcast"(%220) : (i1) -> vector<12xi1>
      %231 = "vector.maskedload"(%66, %36, %230, %229) : (memref<28xi32>, index, vector<12xi1>, vector<12xi32>) -> vector<12xi32>
      %232 = "scf.while"(%216) ({
      ^bb0(%arg2: memref<28xf16>):
        %250 = "index.add"(%32, %39) : (index, index) -> index
        %251 = "index.or"(%16, %41) : (index, index) -> index
        %252 = "index.maxu"(%18, %43) : (index, index) -> index
        %253 = "tensor.insert"(%3, %49, %16, %16) : (i16, tensor<?x?xi16>, index, index) -> tensor<?x?xi16>
        %254 = "math.copysign"(%7, %6) <{fastmath = #arith.fastmath<none>}> : (f32, f32) -> f32
        %255 = "tensor.rank"(%54) : (tensor<29xi32>) -> index
        %256 = "arith.divui"(%15, %14) : (i32, i32) -> i32
        %257 = "affine.min"(%31, %36) <{map = affine_map<(d0)[s0] -> (-d0 - d0 ceildiv 32)>}> : (index, index) -> index
        "scf.condition"(%220, %67) : (i1, memref<28xf16>) -> ()
      }, {
      ^bb0(%arg2: memref<28xf16>):
        %250 = "tensor.dim"(%61, %16) : (tensor<?xi64>, index) -> index
        %251 = "vector.flat_transpose"(%221) <{columns = 1 : i32, rows = 1 : i32}> : (vector<1xi1>) -> vector<1xi1>
        %252 = "math.fpowi"(%5, %14) <{fastmath = #arith.fastmath<none>}> : (f16, i32) -> f16
        %253 = "index.or"(%arg1, %16) : (index, index) -> index
        %254 = "vector.extract"(%251) <{static_position = array<i64: 0>}> : (vector<1xi1>) -> i1
        "memref.store"(%5, %arg2, %29) <{nontemporal = false}> : (f16, memref<28xf16>, index) -> ()
        %255 = "tensor.rank"(%51) : (tensor<19x29xf32>) -> index
        "bufferization.dealloc_tensor"(%58) : (tensor<?x29xf32>) -> ()
        %256 = "index.shrs"(%43, %30) : (index, index) -> index
        %257 = "tensor.from_elements"(%11, %9, %8, %9, %11, %9, %11, %8, %9, %9, %8, %8, %8, %8, %8, %9, %11, %8, %8, %9, %8, %8, %8, %8, %11, %9, %11, %9) : (i64, i64, i64, i64, i64, i64, i64, i64, i64, i64, i64, i64, i64, i64, i64, i64, i64, i64, i64, i64, i64, i64, i64, i64, i64, i64, i64, i64) -> tensor<28xi64>
        %258 = "index.maxs"(%22, %43) : (index, index) -> index
        %259 = "arith.addi"(%9, %8) : (i64, i64) -> i64
        %260 = "arith.cmpi"(%3, %1) <{predicate = 0 : i64}> : (i16, i16) -> i1
        %261 = "vector.load"(%64, %26, %29) : (memref<19x29xf16>, index, index) -> vector<19x29xf16>
        %262 = "vector.mask"(%230) ({
          %264 = "vector.multi_reduction"(%231, %229) <{kind = #vector.kind<minui>, reduction_dims = []}> : (vector<12xi32>, vector<12xi32>) -> vector<12xi32>
          "vector.yield"(%264) : (vector<12xi32>) -> ()
        }) : (vector<12xi1>) -> vector<12xi32>
        %263 = "arith.cmpi"(%8, %11) <{predicate = 2 : i64}> : (i64, i64) -> i1
        "scf.yield"(%216) : (memref<28xf16>) -> ()
      }) : (memref<28xf16>) -> memref<28xf16>
      %233 = "arith.remf"(%6, %7) <{fastmath = #arith.fastmath<none>}> : (f32, f32) -> f32
      %234 = "scf.while"(%61) ({
      ^bb0(%arg2: tensor<?xi64>):
        %250 = "arith.remui"(%11, %8) : (i64, i64) -> i64
        %251 = "memref.atomic_rmw"(%0, %71, %27) <{kind = 0 : i64}> : (f16, memref<29xf16>, index) -> f16
        %252 = "arith.xori"(%220, %220) : (i1, i1) -> i1
        %253 = "math.atan"(%63) <{fastmath = #arith.fastmath<none>}> : (tensor<?xf32>) -> tensor<?xf32>
        %254 = "vector.broadcast"(%2) : (f32) -> vector<19x29xf32>
        %255 = "vector.broadcast"(%220) : (i1) -> vector<19x29xi1>
        %256 = "vector.broadcast"(%14) : (i32) -> vector<19x29xi32>
        %257 = "vector.gather"(%51, %47, %18, %256, %255, %254) : (tensor<19x29xf32>, index, index, vector<19x29xi32>, vector<19x29xi1>, vector<19x29xf32>) -> vector<19x29xf32>
        %258 = "arith.minsi"(%15, %15) : (i32, i32) -> i32
        %259 = "tensor.collapse_shape"(%60) <{reassociation = [[0, 1]]}> : (tensor<19x29xi64>) -> tensor<551xi64>
        %260 = "arith.remf"(%7, %2) <{fastmath = #arith.fastmath<none>}> : (f32, f32) -> f32
        %261 = "tensor.empty"(%17) : (index) -> tensor<?xi64>
        "scf.condition"(%220, %261) : (i1, tensor<?xi64>) -> ()
      }, {
      ^bb0(%arg2: tensor<?xi64>):
        %250 = "tensor.cast"(%54) : (tensor<29xi32>) -> tensor<?xi32>
        %251 = "arith.remf"(%0, %12) <{fastmath = #arith.fastmath<none>}> : (f16, f16) -> f16
        %252 = "linalg.copy"(%52, %52) <{operandSegmentSizes = array<i32: 1, 1>}> ({
        ^bb0(%arg3: i16, %arg4: i16):
          "linalg.yield"(%arg3) : (i16) -> ()
        }) : (tensor<?xi16>, tensor<?xi16>) -> tensor<?xi16>
        %253 = "tensor.empty"() : () -> tensor<551xi16>
        %254 = "tensor.unpack"(%59, %253, %45) <{inner_dims_pos = array<i64: 0>, outer_dims_perm = array<i64: 0>, static_inner_tiles = array<i64: -9223372036854775808>}> : (tensor<19x29xi16>, tensor<551xi16>, index) -> tensor<551xi16>
        %255 = "arith.ceildivsi"(%9, %9) : (i64, i64) -> i64
        %256 = "index.and"(%43, %31) : (index, index) -> index
        %257 = "math.tanh"(%51) <{fastmath = #arith.fastmath<none>}> : (tensor<19x29xf32>) -> tensor<19x29xf32>
        %258 = "vector.load"(%67, %29) : (memref<28xf16>, index) -> vector<28xf16>
        %259 = "tensor.dim"(%arg2, %16) : (tensor<?xi64>, index) -> index
        %260 = "index.and"(%224, %42) : (index, index) -> index
        "memref.copy"(%216, %67) : (memref<28xf16>, memref<28xf16>) -> ()
        %261 = "index.maxs"(%224, %30) : (index, index) -> index
        %262 = "math.log"(%0) <{fastmath = #arith.fastmath<none>}> : (f16) -> f16
        %263 = "arith.addi"(%15, %15) : (i32, i32) -> i32
        %264 = "math.ceil"(%5) <{fastmath = #arith.fastmath<none>}> : (f16) -> f16
        %265 = "vector.multi_reduction"(%229, %229) <{kind = #vector.kind<minui>, reduction_dims = []}> : (vector<12xi32>, vector<12xi32>) -> vector<12xi32>
        %266 = "tensor.empty"(%23) : (index) -> tensor<?xi64>
        "scf.yield"(%266) : (tensor<?xi64>) -> ()
      }) : (tensor<?xi64>) -> tensor<?xi64>
      %235 = "math.ceil"(%0) <{fastmath = #arith.fastmath<none>}> : (f16) -> f16
      %236 = "tensor.dim"(%59, %16) : (tensor<19x29xi16>, index) -> index
      %237 = "vector.insertelement"(%220, %230, %31) : (i1, vector<12xi1>, index) -> vector<12xi1>
      %238 = "vector.shuffle"(%230, %230) <{mask = [0, 6, 9, 10, 12, 19, 21]}> : (vector<12xi1>, vector<12xi1>) -> vector<7xi1>
      %239 = "bufferization.to_memref"(%50) : (tensor<?xi1>) -> memref<?xi1>
      "vector.warp_execute_on_lane_0"(%16) <{warp_size = 32 : i64}> ({
        %250 = "tensor.empty"() : () -> tensor<28xi1>
        %251 = "vector.broadcast"(%220) : (i1) -> vector<19x29xi1>
        %252 = "vector.broadcast"(%15) : (i32) -> vector<19x29xi32>
        %253 = "vector.gather"(%250, %37, %252, %251, %251) : (tensor<28xi1>, index, vector<19x29xi32>, vector<19x29xi1>, vector<19x29xi1>) -> vector<19x29xi1>
        %254 = "arith.divsi"(%220, %220) : (i1, i1) -> i1
        %255 = "math.absf"(%51) <{fastmath = #arith.fastmath<none>}> : (tensor<19x29xf32>) -> tensor<19x29xf32>
        %256 = "tensor.rank"(%56) : (tensor<?x29xf16>) -> index
        %257 = "memref.atomic_rmw"(%3, %70, %41) <{kind = 5 : i64}> : (i16, memref<28xi16>, index) -> i16
        %258 = "vector.broadcast"(%220) : (i1) -> vector<29xi1>
        %259:2 = "vector.scan"(%251, %258) <{inclusive = true, kind = #vector.kind<mul>, reduction_dim = 0 : i64}> : (vector<19x29xi1>, vector<29xi1>) -> (vector<19x29xi1>, vector<29xi1>)
        %260 = "index.or"(%32, %40) : (index, index) -> index
        %261 = "vector.mask"(%253) ({
          %262 = "vector.multi_reduction"(%252, %252) <{kind = #vector.kind<add>, reduction_dims = []}> : (vector<19x29xi32>, vector<19x29xi32>) -> vector<19x29xi32>
          "vector.yield"(%262) : (vector<19x29xi32>) -> ()
        }) : (vector<19x29xi1>) -> vector<19x29xi32>
        "vector.yield"() : () -> ()
      }) : (index) -> ()
      %240 = "vector.broadcast"(%11) : (i64) -> vector<i64>
      %241 = "vector.transfer_write"(%240, %57, %16) <{operandSegmentSizes = array<i32: 1, 1, 1, 0>, permutation_map = affine_map<(d0) -> ()>}> : (vector<i64>, tensor<29xi64>, index) -> tensor<29xi64>
      %242 = "vector.flat_transpose"(%229) <{columns = 3 : i32, rows = 4 : i32}> : (vector<12xi32>) -> vector<12xi32>
      %243 = "math.exp2"(%56) <{fastmath = #arith.fastmath<none>}> : (tensor<?x29xf16>) -> tensor<?x29xf16>
      %244 = "index.shl"(%43, %31) : (index, index) -> index
      "memref.copy"(%73, %73) : (memref<19x29xf32>, memref<19x29xf32>) -> ()
      %245 = "vector.mask"(%223) ({
        %250 = "vector.multi_reduction"(%223, %221) <{kind = #vector.kind<and>, reduction_dims = []}> : (vector<1xi1>, vector<1xi1>) -> vector<1xi1>
        "vector.yield"(%250) : (vector<1xi1>) -> ()
      }) : (vector<1xi1>) -> vector<1xi1>
      %246 = "affine.vector_load"(%76, %236, %37) <{map = affine_map<(d0, d1) -> (d0, d1)>}> : (memref<19x29xi32>, index, index) -> vector<29xi32>
      %247 = "vector.flat_transpose"(%223) <{columns = 1 : i32, rows = 1 : i32}> : (vector<1xi1>) -> vector<1xi1>
      %248 = "vector.shuffle"(%221, %230) <{mask = [0, 4, 5, 9, 11, 12]}> : (vector<1xi1>, vector<12xi1>) -> vector<6xi1>
      %249 = "affine.if"(%30, %42, %26, %25) ({
        %250 = "vector.broadcast"(%2) : (f32) -> vector<29xf32>
        %251 = "vector.fma"(%250, %250, %250) : (vector<29xf32>, vector<29xf32>, vector<29xf32>) -> vector<29xf32>
        %252 = "index.add"(%39, %42) : (index, index) -> index
        %253 = "arith.xori"(%220, %220) : (i1, i1) -> i1
        %254 = "memref.cast"(%77) : (memref<?xi64>) -> memref<?xi64>
        %255 = "vector.extract_strided_slice"(%230) <{offsets = [5], sizes = [7], strides = [1]}> : (vector<12xi1>) -> vector<7xi1>
        %256 = "arith.minui"(%220, %220) : (i1, i1) -> i1
        %257 = "tensor.from_elements"(%6, %6, %2, %6, %7, %7, %6, %7, %6, %7, %2, %2, %6, %7, %7, %7, %7, %6, %7, %2, %7, %7, %6, %2, %6, %6, %6, %7) : (f32, f32, f32, f32, f32, f32, f32, f32, f32, f32, f32, f32, f32, f32, f32, f32, f32, f32, f32, f32, f32, f32, f32, f32, f32, f32, f32, f32) -> tensor<28xf32>
        %258 = "math.rsqrt"(%56) <{fastmath = #arith.fastmath<none>}> : (tensor<?x29xf16>) -> tensor<?x29xf16>
        "affine.yield"(%2) : (f32) -> ()
      }, {
        %250 = "linalg.copy"(%54, %54) <{operandSegmentSizes = array<i32: 1, 1>}> ({
        ^bb0(%arg2: i32, %arg3: i32):
          "linalg.yield"(%arg2) : (i32) -> ()
        }) : (tensor<29xi32>, tensor<29xi32>) -> tensor<29xi32>
        %251 = "arith.remf"(%13, %12) <{fastmath = #arith.fastmath<none>}> : (f16, f16) -> f16
        %252 = "arith.andi"(%14, %14) : (i32, i32) -> i32
        %253 = "vector.mask"(%221) ({
          %257 = "vector.multi_reduction"(%223, %221) <{kind = #vector.kind<maxsi>, reduction_dims = []}> : (vector<1xi1>, vector<1xi1>) -> vector<1xi1>
          "vector.yield"(%257) : (vector<1xi1>) -> ()
        }) : (vector<1xi1>) -> vector<1xi1>
        %254 = "vector.mask"(%230) ({
          %257 = "vector.multi_reduction"(%229, %229) <{kind = #vector.kind<maxsi>, reduction_dims = []}> : (vector<12xi32>, vector<12xi32>) -> vector<12xi32>
          "vector.yield"(%257) : (vector<12xi32>) -> ()
        }) : (vector<12xi1>) -> vector<12xi32>
        %255 = "arith.xori"(%9, %8) : (i64, i64) -> i64
        %256 = "index.bool.constant"() <{value = true}> : () -> i1
        "memref.tensor_store"(%62, %77) : (tensor<?xi64>, memref<?xi64>) -> ()
        "affine.yield"(%7) : (f32) -> ()
      }) {condition = affine_set<(d0, d1, d2, d3) : (d1 >= 0, d0 == 0, d0 + d3 == 0, (d3 ceildiv 32) * 64 == 0)>} : (index, index, index, index) -> f32
      "memref.alloca_scope.return"(%239) : (memref<?xi1>) -> ()
    }) : () -> memref<?xi1>
    %81 = "arith.shrui"(%3, %1) : (i16, i16) -> i16
    %82 = "memref.alloc"(%32) <{operandSegmentSizes = array<i32: 1, 0>}> : (index) -> memref<?x29xf16>
    "memref.tensor_store"(%56, %82) : (tensor<?x29xf16>, memref<?x29xf16>) -> ()
    %83 = "spirv.CL.sin"(%5) : (f16) -> f16
    %84 = "vector.transfer_read"(%70, %40, %1) <{operandSegmentSizes = array<i32: 1, 1, 1, 0>, permutation_map = affine_map<(d0) -> ()>}> : (memref<28xi16>, index, i16) -> vector<i16>
    %85 = "spirv.INotEqual"(%9, %8) : (i64, i64) -> i1
    %86 = "vector.broadcast"(%9) : (i64) -> vector<19x29xi64>
    %87 = "vector.transpose"(%86) <{transp = [0, 1]}> : (vector<19x29xi64>) -> vector<19x29xi64>
    "memref.store"(%6, %73, %16, %32) <{nontemporal = false}> : (f32, memref<19x29xf32>, index, index) -> ()
    %88 = "spirv.GL.Sqrt"(%83) : (f16) -> f16
    %89 = "index.or"(%28, %25) : (index, index) -> index
    %90 = "spirv.CL.s_abs"(%8) : (i64) -> i64
    %91 = "spirv.CL.u_max"(%8, %90) : (i64, i64) -> i64
    %92 = "index.sizeof"() : () -> index
    %93 = "index.casts"(%47) : (index) -> i32
    %94 = "spirv.SLessThanEqual"(%9, %11) : (i64, i64) -> i1
    %95 = "spirv.FOrdGreaterThanEqual"(%83, %88) : (f16, f16) -> i1
    %96 = "spirv.SLessThanEqual"(%9, %9) : (i64, i64) -> i1
    %97 = "math.round"(%88) <{fastmath = #arith.fastmath<none>}> : (f16) -> f16
    %98 = "spirv.CL.pow"(%0, %88) : (f16, f16) -> f16
    %99 = "arith.shrsi"(%9, %11) : (i64, i64) -> i64
    %100 = "vector.broadcast"(%91) : (i64) -> vector<28xi64>
    %101 = "vector.flat_transpose"(%100) <{columns = 7 : i32, rows = 4 : i32}> : (vector<28xi64>) -> vector<28xi64>
    %102 = "spirv.ULessThanEqual"(%arg0, %4) : (i16, i16) -> i1
    %103 = "memref.alloca_scope"() ({
      %214 = "vector.extract_strided_slice"(%101) <{offsets = [10], sizes = [1], strides = [1]}> : (vector<28xi64>) -> vector<1xi64>
      "scf.index_switch"(%23) <{cases = array<i64: 1, 2, 3>}> ({
        %245 = "vector.broadcast"(%95) : (i1) -> vector<28xi1>
        %246 = "vector.mask"(%245) ({
          %261 = "vector.multi_reduction"(%100, %100) <{kind = #vector.kind<minsi>, reduction_dims = []}> : (vector<28xi64>, vector<28xi64>) -> vector<28xi64>
          "vector.yield"(%261) : (vector<28xi64>) -> ()
        }) : (vector<28xi1>) -> vector<28xi64>
        "memref.store"(%14, %76, %23, %20) <{nontemporal = false}> : (i32, memref<19x29xi32>, index, index) -> ()
        %247 = "tensor.empty"() : () -> tensor<29x29xi64>
        %248 = "linalg.matmul"(%60, %247, %53) <{operandSegmentSizes = array<i32: 2, 1>}> ({
        ^bb0(%arg2: i64, %arg3: i64, %arg4: i64):
          %261 = "arith.muli"(%arg2, %arg3) : (i64, i64) -> i64
          %262 = "arith.addi"(%arg4, %261) : (i64, i64) -> i64
          "linalg.yield"(%262) : (i64) -> ()
        }) {linalg.memoized_indexing_maps = [affine_map<(d0, d1, d2) -> (d0, d2)>, affine_map<(d0, d1, d2) -> (d2, d1)>, affine_map<(d0, d1, d2) -> (d0, d1)>]} : (tensor<19x29xi64>, tensor<29x29xi64>, tensor<19x29xi64>) -> tensor<19x29xi64>
        %249 = "math.cos"(%51) <{fastmath = #arith.fastmath<none>}> : (tensor<19x29xf32>) -> tensor<19x29xf32>
        %250 = "arith.divsi"(%91, %91) : (i64, i64) -> i64
        %251 = "math.floor"(%98) <{fastmath = #arith.fastmath<none>}> : (f16) -> f16
        %252 = "math.sqrt"(%58) <{fastmath = #arith.fastmath<none>}> : (tensor<?x29xf32>) -> tensor<?x29xf32>
        %253 = "vector.matrix_multiply"(%214, %101) <{lhs_columns = 1 : i32, lhs_rows = 1 : i32, rhs_columns = 28 : i32}> : (vector<1xi64>, vector<28xi64>) -> vector<28xi64>
        %254 = "bufferization.clone"(%67) : (memref<28xf16>) -> memref<28xf16>
        %255 = "math.ctlz"(%85) : (i1) -> i1
        %256 = "memref.alloc"(%21) <{operandSegmentSizes = array<i32: 1, 0>}> : (index) -> memref<?x19xf32>
        "linalg.broadcast"(%55, %256) <{dimensions = array<i64: 1>}> ({
        ^bb0(%arg2: f32, %arg3: f32):
          "linalg.yield"(%arg2) : (f32) -> ()
        }) : (tensor<?xf32>, memref<?x19xf32>) -> ()
        %257 = "math.log"(%55) <{fastmath = #arith.fastmath<none>}> : (tensor<?xf32>) -> tensor<?xf32>
        %258 = "index.or"(%37, %19) : (index, index) -> index
        %259 = "index.add"(%27, %34) : (index, index) -> index
        "affine.vector_store"(%214, %77, %30) <{map = affine_map<(d0) -> (d0)>}> : (vector<1xi64>, memref<?xi64>, index) -> ()
        %260 = "arith.divsi"(%14, %15) : (i32, i32) -> i32
        "scf.yield"() : () -> ()
      }, {
        %245 = "tensor.splat"(%6) : (f32) -> tensor<28xf32>
        %246 = "math.powf"(%13, %12) <{fastmath = #arith.fastmath<none>}> : (f16, f16) -> f16
        %247 = "affine.apply"(%92, %28) <{map = affine_map<(d0)[s0] -> (-d0 - d0 ceildiv 32)>}> : (index, index) -> index
        %248 = "tensor.empty"() : () -> tensor<29x19xf16>
        %249 = "tensor.empty"() : () -> tensor<19x19xf16>
        %250 = "linalg.matmul"(%64, %248, %249) <{operandSegmentSizes = array<i32: 2, 1>}> ({
        ^bb0(%arg2: f16, %arg3: f16, %arg4: f16):
          %264 = "arith.mulf"(%arg2, %arg3) <{fastmath = #arith.fastmath<none>}> : (f16, f16) -> f16
          %265 = "arith.addf"(%arg4, %264) <{fastmath = #arith.fastmath<none>}> : (f16, f16) -> f16
          "linalg.yield"(%265) : (f16) -> ()
        }) {linalg.memoized_indexing_maps = [affine_map<(d0, d1, d2) -> (d0, d2)>, affine_map<(d0, d1, d2) -> (d2, d1)>, affine_map<(d0, d1, d2) -> (d0, d1)>]} : (memref<19x29xf16>, tensor<29x19xf16>, tensor<19x19xf16>) -> tensor<19x19xf16>
        %251 = "vector.flat_transpose"(%101) <{columns = 7 : i32, rows = 4 : i32}> : (vector<28xi64>) -> vector<28xi64>
        %252 = "math.log"(%51) <{fastmath = #arith.fastmath<none>}> : (tensor<19x29xf32>) -> tensor<19x29xf32>
        %253 = "index.and"(%44, %17) : (index, index) -> index
        %254 = "affine.max"(%89, %18, %36, %47) <{map = affine_map<(d0, d1, d2, d3) -> (d3 + 16)>}> : (index, index, index, index) -> index
        %255 = "memref.alloc"(%26) <{operandSegmentSizes = array<i32: 1, 0>}> : (index) -> memref<?x29xf16>
        %256 = "tensor.empty"() : () -> tensor<551xf32>
        %257 = "tensor.unpack"(%51, %256, %45) <{inner_dims_pos = array<i64: 0>, outer_dims_perm = array<i64: 0>, static_inner_tiles = array<i64: -9223372036854775808>}> : (tensor<19x29xf32>, tensor<551xf32>, index) -> tensor<551xf32>
        %258 = "memref.alloca"() <{operandSegmentSizes = array<i32: 0, 0>}> : () -> memref<19x29xi64>
        %259 = "arith.divsi"(%90, %8) : (i64, i64) -> i64
        %260 = "index.castu"(%arg0) : (i16) -> index
        %261 = "tensor.from_elements"(%90, %8, %90, %8, %91, %11, %11, %9, %8, %8, %91, %11, %9, %91, %11, %8, %8, %8, %91, %90, %90, %90, %91, %8, %90, %9, %8, %91, %91) : (i64, i64, i64, i64, i64, i64, i64, i64, i64, i64, i64, i64, i64, i64, i64, i64, i64, i64, i64, i64, i64, i64, i64, i64, i64, i64, i64, i64, i64) -> tensor<29xi64>
        %262 = "math.round"(%63) <{fastmath = #arith.fastmath<none>}> : (tensor<?xf32>) -> tensor<?xf32>
        %263 = "vector.transfer_read"(%61, %arg1, %91) <{operandSegmentSizes = array<i32: 1, 1, 1, 0>, permutation_map = affine_map<(d0) -> ()>}> : (tensor<?xi64>, index, i64) -> vector<i64>
        "scf.yield"() : () -> ()
      }, {
        %245 = "tensor.cast"(%62) : (tensor<?xi64>) -> tensor<19xi64>
        %246 = "vector.broadcast"(%102) : (i1) -> vector<28xi1>
        %247 = "vector.mask"(%246) ({
          %262 = "vector.multi_reduction"(%101, %100) <{kind = #vector.kind<or>, reduction_dims = []}> : (vector<28xi64>, vector<28xi64>) -> vector<28xi64>
          "vector.yield"(%262) : (vector<28xi64>) -> ()
        }) : (vector<28xi1>) -> vector<28xi64>
        %248 = "memref.alloc"() <{operandSegmentSizes = array<i32: 0, 0>}> : () -> memref<28xi16>
        %249 = "vector.extract_strided_slice"(%246) <{offsets = [24], sizes = [3], strides = [1]}> : (vector<28xi1>) -> vector<3xi1>
        %250 = "math.tan"(%5) <{fastmath = #arith.fastmath<none>}> : (f16) -> f16
        %251 = "index.xor"(%22, %38) : (index, index) -> index
        %252 = "arith.addi"(%9, %9) : (i64, i64) -> i64
        %253 = "math.ceil"(%98) <{fastmath = #arith.fastmath<none>}> : (f16) -> f16
        %254 = "vector.flat_transpose"(%100) <{columns = 7 : i32, rows = 4 : i32}> : (vector<28xi64>) -> vector<28xi64>
        %255 = "index.add"(%47, %41) : (index, index) -> index
        %256 = "index.maxs"(%37, %22) : (index, index) -> index
        %257 = "vector.insert"(%91, %100) <{static_position = array<i64: 6>}> : (i64, vector<28xi64>) -> vector<28xi64>
        %258 = "math.rsqrt"(%55) <{fastmath = #arith.fastmath<none>}> : (tensor<?xf32>) -> tensor<?xf32>
        %259 = "vector.matrix_multiply"(%249, %249) <{lhs_columns = 3 : i32, lhs_rows = 1 : i32, rhs_columns = 1 : i32}> : (vector<3xi1>, vector<3xi1>) -> vector<1xi1>
        %260 = "tensor.from_elements"(%10, %5, %98, %83, %98, %12, %83, %83, %83, %88, %13, %13, %0, %0, %12, %88, %10, %83, %5, %88, %98, %0, %13, %0, %5, %83, %5, %12, %10, %10, %12, %13, %0, %88, %13, %5, %88, %98, %88, %12, %88, %88, %10, %0, %13, %12, %12, %13, %0, %13, %88, %98, %88, %98, %88, %13, %13, %12, %12, %12, %88, %88, %83, %13, %13, %10, %83, %0, %5, %0, %10, %13, %98, %83, %12, %10, %98, %12, %12, %10, %0, %10, %98, %5, %10, %98, %88, %12, %12, %98, %0, %0, %10, %13, %13, %13, %12, %10, %5, %10, %83, %0, %83, %0, %12, %98, %5, %12, %12, %0, %83, %13, %13, %12, %10, %5, %0, %12, %13, %88, %13, %10, %13, %5, %13, %98, %88, %12, %10, %0, %13, %13, %10, %10, %13, %83, %83, %83, %83, %5, %0, %12, %13, %5, %83, %12, %10, %88, %98, %10, %0, %12, %88, %88, %98, %83, %5, %88, %98, %13, %0, %83, %88, %88, %12, %5, %98, %0, %88, %5, %98, %83, %88, %83, %10, %5, %0, %13, %10, %83, %10, %5, %12, %88, %5, %98, %83, %0, %98, %5, %98, %12, %10, %88, %5, %10, %10, %13, %88, %98, %10, %98, %10, %12, %13, %10, %0, %12, %13, %88, %83, %0, %83, %13, %88, %10, %5, %0, %0, %13, %0, %0, %12, %10, %13, %13, %10, %0, %0, %10, %0, %98, %83, %83, %12, %5, %0, %13, %13, %12, %98, %10, %13, %0, %0, %13, %88, %10, %12, %0, %10, %5, %12, %88, %13, %5, %10, %83, %88, %12, %0, %98, %12, %10, %5, %13, %13, %88, %12, %0, %88, %10, %13, %98, %83, %5, %10, %12, %10, %12, %0, %98, %13, %13, %5, %88, %83, %0, %0, %83, %10, %10, %98, %5, %12, %13, %12, %0, %0, %98, %5, %10, %88, %0, %10, %13, %13, %0, %83, %13, %83, %13, %13, %98, %0, %88, %13, %0, %12, %5, %88, %5, %83, %83, %10, %10, %5, %98, %10, %10, %83, %13, %5, %12, %83, %5, %12, %83, %12, %10, %12, %13, %12, %10, %5, %0, %13, %98, %5, %5, %0, %5, %13, %12, %0, %13, %5, %0, %12, %10, %88, %12, %98, %0, %88, %98, %13, %5, %98, %0, %5, %12, %83, %98, %83, %83, %12, %88, %13, %13, %98, %0, %13, %13, %83, %13, %0, %0, %12, %88, %0, %13, %13, %98, %0, %10, %88, %12, %12, %98, %12, %88, %10, %5, %88, %88, %10, %12, %13, %98, %83, %12, %13, %88, %83, %0, %0, %13, %88, %0, %13, %12, %0, %83, %0, %0, %98, %5, %10, %12, %83, %0, %12, %0, %5, %83, %98, %13, %98, %13, %88, %83, %5, %5, %88, %12, %0, %0, %0, %13, %10, %98, %12, %5, %83, %10, %12, %5, %88, %98, %88, %98, %98, %10, %5, %5, %5, %13, %13, %88, %13, %83, %5, %12, %0, %13, %83, %83, %12, %13, %98, %98, %88, %13, %10, %13, %12, %83, %98, %13, %10, %88, %12, %13, %12, %12, %88, %10, %98, %98, %5, %98, %83, %5, %13, %13, %83, %88, %88, %98, %12, %13, %88, %88, %83, %88, %5, %10, %5, %13, %0, %12, %12, %88, %83, %10, %0, %10, %83, %12, %83, %0, %88, %88, %88, %13, %10, %13, %10, %88, %98, %98, %98, %88, %5, %88, %12, %88, %5, %5, %88) : (f16, f16, f16, f16, f16, f16, f16, f16, f16, f16, f16, f16, f16, f16, f16, f16, f16, f16, f16, f16, f16, f16, f16, f16, f16, f16, f16, f16, f16, f16, f16, f16, f16, f16, f16, f16, f16, f16, f16, f16, f16, f16, f16, f16, f16, f16, f16, f16, f16, f16, f16, f16, f16, f16, f16, f16, f16, f16, f16, f16, f16, f16, f16, f16, f16, f16, f16, f16, f16, f16, f16, f16, f16, f16, f16, f16, f16, f16, f16, f16, f16, f16, f16, f16, f16, f16, f16, f16, f16, f16, f16, f16, f16, f16, f16, f16, f16, f16, f16, f16, f16, f16, f16, f16, f16, f16, f16, f16, f16, f16, f16, f16, f16, f16, f16, f16, f16, f16, f16, f16, f16, f16, f16, f16, f16, f16, f16, f16, f16, f16, f16, f16, f16, f16, f16, f16, f16, f16, f16, f16, f16, f16, f16, f16, f16, f16, f16, f16, f16, f16, f16, f16, f16, f16, f16, f16, f16, f16, f16, f16, f16, f16, f16, f16, f16, f16, f16, f16, f16, f16, f16, f16, f16, f16, f16, f16, f16, f16, f16, f16, f16, f16, f16, f16, f16, f16, f16, f16, f16, f16, f16, f16, f16, f16, f16, f16, f16, f16, f16, f16, f16, f16, f16, f16, f16, f16, f16, f16, f16, f16, f16, f16, f16, f16, f16, f16, f16, f16, f16, f16, f16, f16, f16, f16, f16, f16, f16, f16, f16, f16, f16, f16, f16, f16, f16, f16, f16, f16, f16, f16, f16, f16, f16, f16, f16, f16, f16, f16, f16, f16, f16, f16, f16, f16, f16, f16, f16, f16, f16, f16, f16, f16, f16, f16, f16, f16, f16, f16, f16, f16, f16, f16, f16, f16, f16, f16, f16, f16, f16, f16, f16, f16, f16, f16, f16, f16, f16, f16, f16, f16, f16, f16, f16, f16, f16, f16, f16, f16, f16, f16, f16, f16, f16, f16, f16, f16, f16, f16, f16, f16, f16, f16, f16, f16, f16, f16, f16, f16, f16, f16, f16, f16, f16, f16, f16, f16, f16, f16, f16, f16, f16, f16, f16, f16, f16, f16, f16, f16, f16, f16, f16, f16, f16, f16, f16, f16, f16, f16, f16, f16, f16, f16, f16, f16, f16, f16, f16, f16, f16, f16, f16, f16, f16, f16, f16, f16, f16, f16, f16, f16, f16, f16, f16, f16, f16, f16, f16, f16, f16, f16, f16, f16, f16, f16, f16, f16, f16, f16, f16, f16, f16, f16, f16, f16, f16, f16, f16, f16, f16, f16, f16, f16, f16, f16, f16, f16, f16, f16, f16, f16, f16, f16, f16, f16, f16, f16, f16, f16, f16, f16, f16, f16, f16, f16, f16, f16, f16, f16, f16, f16, f16, f16, f16, f16, f16, f16, f16, f16, f16, f16, f16, f16, f16, f16, f16, f16, f16, f16, f16, f16, f16, f16, f16, f16, f16, f16, f16, f16, f16, f16, f16, f16, f16, f16, f16, f16, f16, f16, f16, f16, f16, f16, f16, f16, f16, f16, f16, f16, f16, f16, f16, f16, f16, f16, f16, f16, f16, f16, f16, f16, f16, f16, f16, f16, f16, f16, f16, f16, f16, f16, f16, f16, f16, f16, f16, f16, f16, f16, f16, f16, f16, f16, f16, f16, f16, f16, f16, f16, f16, f16, f16, f16, f16, f16, f16, f16, f16, f16, f16, f16, f16, f16, f16, f16, f16, f16, f16, f16, f16, f16, f16, f16, f16, f16, f16, f16, f16, f16, f16, f16, f16) -> tensor<19x29xf16>
        %261 = "vector.extract"(%249) <{static_position = array<i64: 1>}> : (vector<3xi1>) -> i1
        "scf.yield"() : () -> ()
      }, {
        %245 = "bufferization.to_tensor"(%69) : (memref<?x29xi32>) -> tensor<?x29xi32>
        %246 = "vector.splat"(%6) : (f32) -> vector<28xf32>
        %247 = "vector.contract"(%214, %214, %91) <{indexing_maps = [affine_map<(d0) -> (d0)>, affine_map<(d0) -> (d0)>, affine_map<(d0) -> ()>], iterator_types = [#vector.iterator_type<reduction>], kind = #vector.kind<minui>}> : (vector<1xi64>, vector<1xi64>, i64) -> i64
        %248 = "affine.load"(%76, %22, %25) <{map = affine_map<(d0, d1) -> (d0, d1)>}> : (memref<19x29xi32>, index, index) -> i32
        %249 = "index.shrs"(%26, %31) : (index, index) -> index
        %250 = "vector.broadcast"(%25) : (index) -> vector<12xindex>
        %251 = "vector.broadcast"(%96) : (i1) -> vector<12xi1>
        %252 = "vector.broadcast"(%88) : (f16) -> vector<12xf16>
        "vector.scatter"(%67, %17, %250, %251, %252) : (memref<28xf16>, index, vector<12xindex>, vector<12xi1>, vector<12xf16>) -> ()
        %253 = "bufferization.clone"(%73) : (memref<19x29xf32>) -> memref<19x29xf32>
        %254 = "tensor.splat"(%83) : (f16) -> tensor<29xf16>
        %255 = "tensor.rank"(%52) : (tensor<?xi16>) -> index
        %256 = "math.copysign"(%10, %98) <{fastmath = #arith.fastmath<none>}> : (f16, f16) -> f16
        %257 = "tensor.from_elements"(%15, %14, %248, %15, %15, %14, %248, %14, %15, %15, %15, %15, %248, %14, %15, %15, %15, %14, %248, %248, %15, %248, %248, %15, %14, %15, %248, %15) : (i32, i32, i32, i32, i32, i32, i32, i32, i32, i32, i32, i32, i32, i32, i32, i32, i32, i32, i32, i32, i32, i32, i32, i32, i32, i32, i32, i32) -> tensor<28xi32>
        %258 = "memref.load"(%76, %20, %40) <{nontemporal = false}> : (memref<19x29xi32>, index, index) -> i32
        "bufferization.dealloc_tensor"(%61) : (tensor<?xi64>) -> ()
        %259 = "vector.matrix_multiply"(%101, %101) <{lhs_columns = 28 : i32, lhs_rows = 1 : i32, rhs_columns = 1 : i32}> : (vector<28xi64>, vector<28xi64>) -> vector<1xi64>
        %260 = "vector.flat_transpose"(%100) <{columns = 7 : i32, rows = 4 : i32}> : (vector<28xi64>) -> vector<28xi64>
        "affine.vector_store"(%100, %77, %19) <{map = affine_map<(d0) -> (d0)>}> : (vector<28xi64>, memref<?xi64>, index) -> ()
        "scf.yield"() : () -> ()
      }) : (index) -> ()
      %215 = "math.ctlz"(%4) : (i16) -> i16
      "scf.if"(%95) ({
        "affine.vector_store"(%100, %74, %39, %16) <{map = affine_map<(d0, d1) -> (d0, d1)>}> : (vector<28xi64>, memref<19x29xi64>, index, index) -> ()
        %245 = "tensor.splat"(%arg0) : (i16) -> tensor<29xi16>
        %246 = "index.sizeof"() : () -> index
        %247 = "tensor.extract"(%57, %18) : (tensor<29xi64>, index) -> i64
        %248 = "tensor.collapse_shape"(%51) <{reassociation = [[0, 1]]}> : (tensor<19x29xf32>) -> tensor<551xf32>
        %249 = "memref.load"(%66, %31) <{nontemporal = false}> : (memref<28xi32>, index) -> i32
        %250 = "arith.remf"(%6, %6) <{fastmath = #arith.fastmath<none>}> : (f32, f32) -> f32
        %251 = "vector.transpose"(%86) <{transp = [0, 1]}> : (vector<19x29xi64>) -> vector<19x29xi64>
        "scf.yield"() : () -> ()
      }, {
        %245 = "math.log"(%56) <{fastmath = #arith.fastmath<none>}> : (tensor<?x29xf16>) -> tensor<?x29xf16>
        %246 = "index.floordivs"(%25, %22) : (index, index) -> index
        "memref.store"(%14, %78, %29, %24) <{nontemporal = false}> : (i32, memref<19x29xi32>, index, index) -> ()
        %247 = "tensor.empty"() : () -> tensor<29xf16>
        %248 = "vector.broadcast"(%10) : (f16) -> vector<28xf16>
        %249 = "vector.broadcast"(%85) : (i1) -> vector<28xi1>
        %250 = "vector.broadcast"(%15) : (i32) -> vector<28xi32>
        %251 = "vector.gather"(%247, %23, %250, %249, %248) : (tensor<29xf16>, index, vector<28xi32>, vector<28xi1>, vector<28xf16>) -> vector<28xf16>
        %252 = "arith.cmpi"(%94, %85) <{predicate = 2 : i64}> : (i1, i1) -> i1
        %253 = "vector.transfer_read"(%69, %37, %45, %14) <{operandSegmentSizes = array<i32: 1, 2, 1, 0>, permutation_map = affine_map<(d0, d1) -> ()>}> : (memref<?x29xi32>, index, index, i32) -> vector<i32>
        %254 = "vector.broadcast"(%7) : (f32) -> vector<29xf32>
        %255 = "vector.fma"(%254, %254, %254) : (vector<29xf32>, vector<29xf32>, vector<29xf32>) -> vector<29xf32>
        %256 = "tensor.dim"(%55, %16) : (tensor<?xf32>, index) -> index
        "scf.yield"() : () -> ()
      }) : (i1) -> ()
      %216 = "vector.bitcast"(%86) : (vector<19x29xi64>) -> vector<19x29xi64>
      %217 = "math.log"(%10) <{fastmath = #arith.fastmath<none>}> : (f16) -> f16
      %218 = "tensor.cast"(%56) : (tensor<?x29xf16>) -> tensor<19x29xf16>
      %219 = "math.fma"(%13, %5, %98) <{fastmath = #arith.fastmath<none>}> : (f16, f16, f16) -> f16
      %220 = "math.round"(%55) <{fastmath = #arith.fastmath<none>}> : (tensor<?xf32>) -> tensor<?xf32>
      %221 = "math.expm1"(%10) <{fastmath = #arith.fastmath<none>}> : (f16) -> f16
      %222 = "affine.if"(%46, %18) ({
        %245 = "index.casts"(%95) : (i1) -> index
        %246 = "affine.vector_load"(%67, %38) <{map = affine_map<(d0) -> (d0)>}> : (memref<28xf16>, index) -> vector<29xf16>
        %247 = "index.add"(%24, %42) : (index, index) -> index
        "memref.assume_alignment"(%80) <{alignment = 8 : i32}> : (memref<?xi1>) -> ()
        %248 = "math.rsqrt"(%56) <{fastmath = #arith.fastmath<none>}> : (tensor<?x29xf16>) -> tensor<?x29xf16>
        %249 = "affine.min"(%34, %16, %23, %34, %17) <{map = affine_map<(d0, d1, d2, d3)[s0] -> (-(d0 ceildiv 32))>}> : (index, index, index, index, index) -> index
        %250 = "vector.transpose"(%86) <{transp = [1, 0]}> : (vector<19x29xi64>) -> vector<29x19xi64>
        %251 = "bufferization.to_memref"(%63) : (tensor<?xf32>) -> memref<?xf32>
        %252 = "memref.alloc"() <{operandSegmentSizes = array<i32: 0, 0>}> : () -> memref<29xi64>
        "affine.yield"(%252) : (memref<29xi64>) -> ()
      }, {
        %245 = "arith.addi"(%11, %9) : (i64, i64) -> i64
        %246 = "bufferization.to_memref"(%63) : (tensor<?xf32>) -> memref<?xf32>
        %247 = "arith.divsi"(%102, %102) : (i1, i1) -> i1
        %248 = "tensor.rank"(%59) : (tensor<19x29xi16>) -> index
        %249 = "math.tan"(%88) <{fastmath = #arith.fastmath<none>}> : (f16) -> f16
        %250 = "tensor.cast"(%55) : (tensor<?xf32>) -> tensor<29xf32>
        %251 = "math.copysign"(%2, %7) <{fastmath = #arith.fastmath<none>}> : (f32, f32) -> f32
        %252 = "index.maxs"(%28, %45) : (index, index) -> index
        %253 = "memref.alloc"() <{operandSegmentSizes = array<i32: 0, 0>}> : () -> memref<29xi64>
        "affine.yield"(%253) : (memref<29xi64>) -> ()
      }) {condition = affine_set<(d0, d1) : (d1 >= 0, d0 + d0 mod 2 == 0, d0 + d0 mod 2 == 0, d1 ceildiv 8 >= 0)>} : (index, index) -> memref<29xi64>
      %223 = "vector.extract_strided_slice"(%101) <{offsets = [2], sizes = [17], strides = [1]}> : (vector<28xi64>) -> vector<17xi64>
      %224 = "vector.insertelement"(%90, %101, %arg1) : (i64, vector<28xi64>, index) -> vector<28xi64>
      %225 = "vector.insertelement"(%90, %101, %19) : (i64, vector<28xi64>, index) -> vector<28xi64>
      %226 = "arith.addi"(%9, %9) : (i64, i64) -> i64
      %227 = "vector.broadcast"(%28) : (index) -> vector<19xindex>
      %228 = "vector.broadcast"(%94) : (i1) -> vector<19xi1>
      %229 = "vector.broadcast"(%7) : (f32) -> vector<19xf32>
      "vector.scatter"(%73, %21, %25, %227, %228, %229) : (memref<19x29xf32>, index, index, vector<19xindex>, vector<19xi1>, vector<19xf32>) -> ()
      %230 = "math.round"(%218) <{fastmath = #arith.fastmath<none>}> : (tensor<19x29xf16>) -> tensor<19x29xf16>
      %231 = "memref.cast"(%64) : (memref<19x29xf16>) -> memref<19x?xf16>
      %232 = "index.and"(%34, %33) : (index, index) -> index
      %233 = "index.divs"(%18, %39) : (index, index) -> index
      %234 = "vector.extract"(%86) <{static_position = array<i64: 12>}> : (vector<19x29xi64>) -> vector<29xi64>
      %235 = "index.mul"(%34, %38) : (index, index) -> index
      %236 = "math.expm1"(%58) <{fastmath = #arith.fastmath<none>}> : (tensor<?x29xf32>) -> tensor<?x29xf32>
      %237 = "math.log1p"(%218) <{fastmath = #arith.fastmath<none>}> : (tensor<19x29xf16>) -> tensor<19x29xf16>
      %238 = "index.mul"(%41, %235) : (index, index) -> index
      %239 = "math.fpowi"(%88, %14) <{fastmath = #arith.fastmath<none>}> : (f16, i32) -> f16
      %240 = "tensor.rank"(%63) : (tensor<?xf32>) -> index
      %241 = "math.rsqrt"(%10) <{fastmath = #arith.fastmath<none>}> : (f16) -> f16
      "scf.index_switch"(%232) <{cases = array<i64: 1, 2>}> ({
        %245 = "memref.alloc"(%24) <{operandSegmentSizes = array<i32: 1, 0>}> : (index) -> memref<?x28xi64>
        "linalg.broadcast"(%61, %245) <{dimensions = array<i64: 1>}> ({
        ^bb0(%arg2: i64, %arg3: i64):
          "linalg.yield"(%arg2) : (i64) -> ()
        }) : (tensor<?xi64>, memref<?x28xi64>) -> ()
        %246 = "vector.create_mask"(%240, %21) : (index, index) -> vector<19x29xi1>
        %247 = "tensor.cast"(%52) : (tensor<?xi16>) -> tensor<19xi16>
        %248 = "arith.addi"(%arg0, %arg0) : (i16, i16) -> i16
        %249 = "arith.xori"(%1, %3) : (i16, i16) -> i16
        %250 = "tensor.insert"(%15, %54, %37) : (i32, tensor<29xi32>, index) -> tensor<29xi32>
        "vector.print"(%234) <{punctuation = #vector.punctuation<newline>}> : (vector<29xi64>) -> ()
        %251 = "index.and"(%238, %19) : (index, index) -> index
        %252 = "tensor.empty"() : () -> tensor<28xi32>
        %253 = "vector.broadcast"(%15) : (i32) -> vector<28xi32>
        %254 = "vector.broadcast"(%102) : (i1) -> vector<28xi1>
        %255 = "vector.gather"(%252, %24, %253, %254, %253) : (tensor<28xi32>, index, vector<28xi32>, vector<28xi1>, vector<28xi32>) -> vector<28xi32>
        %256 = "arith.minui"(%3, %3) : (i16, i16) -> i16
        %257 = "tensor.empty"() : () -> tensor<551xi64>
        %258 = "tensor.unpack"(%60, %257, %45) <{inner_dims_pos = array<i64: 0>, outer_dims_perm = array<i64: 0>, static_inner_tiles = array<i64: -9223372036854775808>}> : (tensor<19x29xi64>, tensor<551xi64>, index) -> tensor<551xi64>
        %259 = "tensor.collapse_shape"(%49) <{reassociation = [[0, 1]]}> : (tensor<?x?xi16>) -> tensor<?xi16>
        %260 = "vector.broadcast"(%11) : (i64) -> vector<19xi64>
        %261:2 = "vector.scan"(%216, %260) <{inclusive = false, kind = #vector.kind<mul>, reduction_dim = 1 : i64}> : (vector<19x29xi64>, vector<19xi64>) -> (vector<19x29xi64>, vector<19xi64>)
        %262 = "memref.alloc"() <{operandSegmentSizes = array<i32: 0, 0>}> : () -> memref<29xi32>
        "memref.tensor_store"(%54, %262) : (tensor<29xi32>, memref<29xi32>) -> ()
        %263 = "arith.minui"(%9, %8) : (i64, i64) -> i64
        %264 = "math.log2"(%13) <{fastmath = #arith.fastmath<none>}> : (f16) -> f16
        "scf.yield"() : () -> ()
      }, {
        "bufferization.dealloc_tensor"(%57) : (tensor<29xi64>) -> ()
        %245 = "arith.shrui"(%94, %96) : (i1, i1) -> i1
        %246 = "index.bool.constant"() <{value = false}> : () -> i1
        "affine.vector_store"(%234, %77, %38) <{map = affine_map<(d0) -> (d0)>}> : (vector<29xi64>, memref<?xi64>, index) -> ()
        %247 = "bufferization.to_memref"(%50) : (tensor<?xi1>) -> memref<?xi1>
        %248 = "affine.load"(%69, %33, %20) <{map = affine_map<(d0, d1) -> (d0, d1)>}> : (memref<?x29xi32>, index, index) -> i32
        %249 = "bufferization.to_tensor"(%247) : (memref<?xi1>) -> tensor<?xi1>
        %250 = "vector.insertelement"(%9, %223, %92) : (i64, vector<17xi64>, index) -> vector<17xi64>
        %251 = "math.exp2"(%218) <{fastmath = #arith.fastmath<none>}> : (tensor<19x29xf16>) -> tensor<19x29xf16>
        %252 = "index.maxs"(%235, %18) : (index, index) -> index
        %253 = "index.bool.constant"() <{value = true}> : () -> i1
        %254 = "vector.insertelement"(%9, %100, %238) : (i64, vector<28xi64>, index) -> vector<28xi64>
        %255 = "math.powf"(%13, %88) <{fastmath = #arith.fastmath<none>}> : (f16, f16) -> f16
        %256 = "tensor.extract"(%60, %31, %25) : (tensor<19x29xi64>, index, index) -> i64
        %257 = "vector.broadcast"(%91) : (i64) -> vector<1x1xi64>
        %258 = "vector.outerproduct"(%214, %214, %257) <{kind = #vector.kind<xor>}> : (vector<1xi64>, vector<1xi64>, vector<1x1xi64>) -> vector<1x1xi64>
        "affine.vector_store"(%100, %77, %23) <{map = affine_map<(d0) -> (d0)>}> : (vector<28xi64>, memref<?xi64>, index) -> ()
        "scf.yield"() : () -> ()
      }, {
        "memref.tensor_store"(%50, %80) : (tensor<?xi1>, memref<?xi1>) -> ()
        %245 = "vector.multi_reduction"(%214, %91) <{kind = #vector.kind<xor>, reduction_dims = [0]}> : (vector<1xi64>, i64) -> i64
        %246 = "memref.alloc"() <{operandSegmentSizes = array<i32: 0, 0>}> : () -> memref<29xf16>
        %247 = "bufferization.to_tensor"(%65) : (memref<19x29xi1>) -> tensor<19x29xi1>
        "memref.tensor_store"(%50, %80) : (tensor<?xi1>, memref<?xi1>) -> ()
        %248 = "index.bool.constant"() <{value = false}> : () -> i1
        %249 = "index.sizeof"() : () -> index
        %250 = "math.log2"(%13) <{fastmath = #arith.fastmath<none>}> : (f16) -> f16
        %251 = "index.floordivs"(%25, %46) : (index, index) -> index
        %252 = "arith.shrui"(%8, %90) : (i64, i64) -> i64
        %253 = "index.ceildivu"(%240, %20) : (index, index) -> index
        "affine.vector_store"(%100, %77, %41) <{map = affine_map<(d0) -> (d0)>}> : (vector<28xi64>, memref<?xi64>, index) -> ()
        %254 = "index.sizeof"() : () -> index
        %255 = "tensor.collapse_shape"(%53) <{reassociation = [[0, 1]]}> : (tensor<19x29xi64>) -> tensor<551xi64>
        %256 = "math.cos"(%63) <{fastmath = #arith.fastmath<none>}> : (tensor<?xf32>) -> tensor<?xf32>
        %257 = "math.ctlz"(%85) : (i1) -> i1
        "scf.yield"() : () -> ()
      }) : (index) -> ()
      %242 = "index.ceildivu"(%16, %89) : (index, index) -> index
      %243 = "arith.shrsi"(%85, %94) : (i1, i1) -> i1
      %244 = "math.log10"(%0) <{fastmath = #arith.fastmath<none>}> : (f16) -> f16
      "memref.alloca_scope.return"(%12) : (f16) -> ()
    }) : () -> f16
    %104 = "arith.divsi"(%15, %14) : (i32, i32) -> i32
    %105 = "vector.insert"(%91, %100) <{static_position = array<i64: 19>}> : (i64, vector<28xi64>) -> vector<28xi64>
    %106 = "tensor.from_elements"(%2, %2, %6, %2, %2, %7, %2, %2, %7, %2, %6, %2, %6, %2, %6, %2, %7, %2, %6, %2, %6, %6, %6, %2, %6, %6, %6, %6) : (f32, f32, f32, f32, f32, f32, f32, f32, f32, f32, f32, f32, f32, f32, f32, f32, f32, f32, f32, f32, f32, f32, f32, f32, f32, f32, f32, f32) -> tensor<28xf32>
    %107 = "spirv.CL.fabs"(%13) : (f16) -> f16
    %108 = "tensor.cast"(%59) : (tensor<19x29xi16>) -> tensor<?x?xi16>
    %109 = "tensor.splat"(%85) : (i1) -> tensor<28xi1>
    %110 = "vector.broadcast"(%9) : (i64) -> vector<19xi64>
    %111 = "vector.multi_reduction"(%86, %110) <{kind = #vector.kind<minui>, reduction_dims = [1]}> : (vector<19x29xi64>, vector<19xi64>) -> vector<19xi64>
    %112 = "bufferization.to_tensor"(%77) : (memref<?xi64>) -> tensor<?xi64>
    %113 = "vector.transfer_read"(%49, %22, %37, %1) <{operandSegmentSizes = array<i32: 1, 2, 1, 0>, permutation_map = affine_map<(d0, d1) -> (d1)>}> : (tensor<?x?xi16>, index, index, i16) -> vector<19xi16>
    %114 = "spirv.CL.s_max"(%15, %14) : (i32, i32) -> i32
    %115 = "arith.cmpf"(%107, %0) <{predicate = 8 : i64}> : (f16, f16) -> i1
    %116 = "math.exp2"(%98) <{fastmath = #arith.fastmath<none>}> : (f16) -> f16
    %117 = "index.add"(%28, %38) : (index, index) -> index
    %118 = "vector.broadcast"(%114) : (i32) -> vector<2xi32>
    %119 = "spirv.BitwiseXor"(%118, %118) : (vector<2xi32>, vector<2xi32>) -> vector<2xi32>
    %120 = "index.sizeof"() : () -> index
    %121 = "index.floordivs"(%45, %44) : (index, index) -> index
    %122 = "spirv.GL.FMin"(%107, %0) : (f16, f16) -> f16
    %123 = "spirv.BitwiseXor"(%118, %118) : (vector<2xi32>, vector<2xi32>) -> vector<2xi32>
    %124 = "index.and"(%29, %24) : (index, index) -> index
    %125 = "spirv.SLessThanEqual"(%1, %1) : (i16, i16) -> i1
    %126 = "index.add"(%42, %22) : (index, index) -> index
    %127 = "linalg.copy"(%60, %60) <{operandSegmentSizes = array<i32: 1, 1>}> ({
    ^bb0(%arg2: i64, %arg3: i64):
      "linalg.yield"(%arg2) : (i64) -> ()
    }) : (tensor<19x29xi64>, tensor<19x29xi64>) -> tensor<19x29xi64>
    %128 = "spirv.BitFieldInsert"(%118, %118, %90, %4) : (vector<2xi32>, vector<2xi32>, i64, i16) -> vector<2xi32>
    %129 = "spirv.FUnordGreaterThan"(%5, %10) : (f16, f16) -> i1
    %130 = "index.mul"(%92, %20) : (index, index) -> index
    %131 = "spirv.CL.ceil"(%10) : (f16) -> f16
    %132 = "math.fpowi"(%5, %14) <{fastmath = #arith.fastmath<none>}> : (f16, i32) -> f16
    %133 = "spirv.CL.pow"(%12, %107) : (f16, f16) -> f16
    %134 = "tensor.from_elements"(%83, %122, %10, %98, %107, %83, %10, %88, %12, %10, %0, %83, %133, %83, %88, %133, %88, %12, %5, %103, %131, %83, %12, %0, %131, %13, %133, %98) : (f16, f16, f16, f16, f16, f16, f16, f16, f16, f16, f16, f16, f16, f16, f16, f16, f16, f16, f16, f16, f16, f16, f16, f16, f16, f16, f16, f16) -> tensor<28xf16>
    %135 = "spirv.BitwiseXor"(%118, %118) : (vector<2xi32>, vector<2xi32>) -> vector<2xi32>
    %136 = "vector.matrix_multiply"(%100, %101) <{lhs_columns = 28 : i32, lhs_rows = 1 : i32, rhs_columns = 1 : i32}> : (vector<28xi64>, vector<28xi64>) -> vector<1xi64>
    %137 = "spirv.GL.FMix"(%2, %6, %7) : (f32, f32, f32) -> f32
    %138 = "spirv.GL.SMax"(%15, %14) : (i32, i32) -> i32
    %139 = "index.shl"(%26, %47) : (index, index) -> index
    %140 = "spirv.LogicalNotEqual"(%85, %129) : (i1, i1) -> i1
    %141 = "math.powf"(%98, %88) <{fastmath = #arith.fastmath<none>}> : (f16, f16) -> f16
    %142 = "math.rsqrt"(%107) <{fastmath = #arith.fastmath<none>}> : (f16) -> f16
    %143 = "arith.cmpi"(%91, %8) <{predicate = 1 : i64}> : (i64, i64) -> i1
    %144 = "tensor.rank"(%48) : (tensor<?xi16>) -> index
    %145 = "spirv.CL.fmin"(%107, %13) : (f16, f16) -> f16
    %146 = "arith.shrui"(%8, %9) : (i64, i64) -> i64
    "scf.execute_region"() ({
      %214 = "arith.divsi"(%90, %90) : (i64, i64) -> i64
      %215 = "vector.broadcast"(%41) : (index) -> vector<12xindex>
      %216 = "vector.broadcast"(%140) : (i1) -> vector<12xi1>
      "vector.scatter"(%65, %18, %25, %215, %216, %216) : (memref<19x29xi1>, index, index, vector<12xindex>, vector<12xi1>, vector<12xi1>) -> ()
      %217 = "arith.remui"(%3, %3) : (i16, i16) -> i16
      %218 = "index.mul"(%46, %33) : (index, index) -> index
      %219 = "linalg.copy"(%60, %53) <{operandSegmentSizes = array<i32: 1, 1>}> ({
      ^bb0(%arg2: i64, %arg3: i64):
        "linalg.yield"(%arg2) : (i64) -> ()
      }) : (tensor<19x29xi64>, tensor<19x29xi64>) -> tensor<19x29xi64>
      %220 = "arith.minui"(%95, %129) : (i1, i1) -> i1
      %221 = "vector.insertelement"(%14, %118, %33) : (i32, vector<2xi32>, index) -> vector<2xi32>
      %222 = "tensor.collapse_shape"(%127) <{reassociation = [[0, 1]]}> : (tensor<19x29xi64>) -> tensor<551xi64>
      %223 = "math.cttz"(%53) : (tensor<19x29xi64>) -> tensor<19x29xi64>
      %224 = "vector.insert"(%90, %136) <{static_position = array<i64: 0>}> : (i64, vector<1xi64>) -> vector<1xi64>
      %225 = "vector.broadcast"(%8) : (i64) -> vector<29xi64>
      %226:2 = "vector.scan"(%86, %225) <{inclusive = true, kind = #vector.kind<maxsi>, reduction_dim = 0 : i64}> : (vector<19x29xi64>, vector<29xi64>) -> (vector<19x29xi64>, vector<29xi64>)
      %227 = "index.casts"(%95) : (i1) -> index
      %228 = "vector.contract"(%136, %136, %90) <{indexing_maps = [affine_map<(d0) -> (d0)>, affine_map<(d0) -> (d0)>, affine_map<(d0) -> ()>], iterator_types = [#vector.iterator_type<reduction>], kind = #vector.kind<maxui>}> : (vector<1xi64>, vector<1xi64>, i64) -> i64
      %229 = "vector.broadcast"(%96) : (i1) -> vector<1xi1>
      %230 = "vector.mask"(%229) ({
        %233 = "vector.multi_reduction"(%136, %136) <{kind = #vector.kind<and>, reduction_dims = []}> : (vector<1xi64>, vector<1xi64>) -> vector<1xi64>
        "vector.yield"(%233) : (vector<1xi64>) -> ()
      }) : (vector<1xi1>) -> vector<1xi64>
      %231 = "index.shru"(%42, %41) : (index, index) -> index
      %232 = "vector.transfer_read"(%77, %47, %91) <{operandSegmentSizes = array<i32: 1, 1, 1, 0>, permutation_map = affine_map<(d0) -> ()>}> : (memref<?xi64>, index, i64) -> vector<i64>
      "scf.yield"() : () -> ()
    }) : () -> ()
    %147 = "spirv.CL.s_abs"(%114) : (i32) -> i32
    %148 = "math.log2"(%51) <{fastmath = #arith.fastmath<none>}> : (tensor<19x29xf32>) -> tensor<19x29xf32>
    %149 = "spirv.CL.sin"(%0) : (f16) -> f16
    %150 = "linalg.copy"(%54, %54) <{operandSegmentSizes = array<i32: 1, 1>}> ({
    ^bb0(%arg2: i32, %arg3: i32):
      "linalg.yield"(%arg2) : (i32) -> ()
    }) : (tensor<29xi32>, tensor<29xi32>) -> tensor<29xi32>
    %151 = "memref.alloca"(%26) <{operandSegmentSizes = array<i32: 1, 0>}> : (index) -> memref<?x29xi32>
    %152 = "spirv.INotEqual"(%8, %9) : (i64, i64) -> i1
    "memref.store"(%145, %71, %38) <{nontemporal = false}> : (f16, memref<29xf16>, index) -> ()
    "affine.vector_store"(%101, %77, %32) <{map = affine_map<(d0) -> (d0)>}> : (vector<28xi64>, memref<?xi64>, index) -> ()
    %153 = "spirv.BitwiseXor"(%118, %118) : (vector<2xi32>, vector<2xi32>) -> vector<2xi32>
    %154 = "spirv.CL.round"(%12) : (f16) -> f16
    %155 = "tensor.generate"(%45, %44) ({
    ^bb0(%arg2: index, %arg3: index):
      %214 = "tensor.empty"(%28) : (index) -> tensor<?x29xf32>
      %215 = "linalg.map"(%58, %58, %214) ({
      ^bb0(%arg4: f32, %arg5: f32):
        %221 = "affine.min"(%35, %24, %31, %126, %35) <{map = affine_map<(d0, d1, d2, d3)[s0] -> (-(d0 ceildiv 32))>}> : (index, index, index, index, index) -> index
        %222 = "math.exp2"(%98) <{fastmath = #arith.fastmath<none>}> : (f16) -> f16
        %223 = "arith.remui"(%arg0, %1) : (i16, i16) -> i16
        %224 = "tensor.dim"(%53, %16) : (tensor<19x29xi64>, index) -> index
        %225 = "memref.alloca"(%34) <{operandSegmentSizes = array<i32: 1, 0>}> : (index) -> memref<?x29xf32>
        %226 = "vector.flat_transpose"(%136) <{columns = 1 : i32, rows = 1 : i32}> : (vector<1xi64>) -> vector<1xi64>
        %227 = "tensor.expand_shape"(%54) <{reassociation = [[0, 1]]}> : (tensor<29xi32>) -> tensor<29x1xi32>
        "vector.print"(%136) <{punctuation = #vector.punctuation<newline>}> : (vector<1xi64>) -> ()
        %228 = "math.ctlz"(%48) : (tensor<?xi16>) -> tensor<?xi16>
        %229 = "arith.cmpi"(%147, %15) <{predicate = 6 : i64}> : (i32, i32) -> i1
        "memref.copy"(%74, %74) : (memref<19x29xi64>, memref<19x29xi64>) -> ()
        %230 = "arith.constant"() <{value = 0 : i16}> : () -> i16
        %231 = "vector.transfer_read"(%59, %43, %121, %230) <{operandSegmentSizes = array<i32: 1, 2, 1, 0>, permutation_map = affine_map<(d0, d1) -> (0)>}> : (tensor<19x29xi16>, index, index, i16) -> vector<12xi16>
        %232 = "tensor.collapse_shape"(%53) <{reassociation = [[0, 1]]}> : (tensor<19x29xi64>) -> tensor<551xi64>
        %233 = "arith.remui"(%138, %147) : (i32, i32) -> i32
        %234 = "vector.insert"(%11, %101) <{static_position = array<i64: 13>}> : (i64, vector<28xi64>) -> vector<28xi64>
        %235:2 = "vector.scan"(%86, %110) <{inclusive = false, kind = #vector.kind<mul>, reduction_dim = 1 : i64}> : (vector<19x29xi64>, vector<19xi64>) -> (vector<19x29xi64>, vector<19xi64>)
        "memref.assume_alignment"(%80) <{alignment = 4 : i32}> : (memref<?xi1>) -> ()
        "memref.assume_alignment"(%73) <{alignment = 8 : i32}> : (memref<19x29xf32>) -> ()
        "memref.tensor_store"(%50, %80) : (tensor<?xi1>, memref<?xi1>) -> ()
        %236 = "math.cttz"(%232) : (tensor<551xi64>) -> tensor<551xi64>
        %237 = "memref.cast"(%69) : (memref<?x29xi32>) -> memref<12x?xi32>
        %238 = "vector.create_mask"(%34, %20) : (index, index) -> vector<19x29xi1>
        %239 = "math.exp2"(%51) <{fastmath = #arith.fastmath<none>}> : (tensor<19x29xf32>) -> tensor<19x29xf32>
        %240 = "vector.extract"(%226) <{static_position = array<i64: 0>}> : (vector<1xi64>) -> i64
        %241 = "index.add"(%30, %19) : (index, index) -> index
        %242 = "bufferization.clone"(%64) : (memref<19x29xf16>) -> memref<19x29xf16>
        %243 = "math.round"(%106) <{fastmath = #arith.fastmath<none>}> : (tensor<28xf32>) -> tensor<28xf32>
        %244 = "math.copysign"(%83, %12) <{fastmath = #arith.fastmath<none>}> : (f16, f16) -> f16
        %245 = "math.exp2"(%122) <{fastmath = #arith.fastmath<none>}> : (f16) -> f16
        %246 = "arith.addi"(%152, %125) : (i1, i1) -> i1
        %247 = "vector.shuffle"(%136, %101) <{mask = [0, 1, 2, 3, 5, 6, 7, 11, 13, 14, 15, 16, 18, 22, 24, 25, 28]}> : (vector<1xi64>, vector<28xi64>) -> vector<17xi64>
        %248 = "arith.addi"(%1, %1) : (i16, i16) -> i16
        "linalg.yield"(%137) : (f32) -> ()
      }) : (tensor<?x29xf32>, tensor<?x29xf32>, tensor<?x29xf32>) -> tensor<?x29xf32>
      %216 = "tensor.empty"(%43) : (index) -> tensor<?xi16>
      %217 = "linalg.map"(%48, %52, %216) ({
      ^bb0(%arg4: i16, %arg5: i16):
        %221 = "index.and"(%47, %arg2) : (index, index) -> index
        %222 = "math.log1p"(%122) <{fastmath = #arith.fastmath<none>}> : (f16) -> f16
        %223 = "math.sqrt"(%63) <{fastmath = #arith.fastmath<none>}> : (tensor<?xf32>) -> tensor<?xf32>
        %224 = "index.or"(%37, %25) : (index, index) -> index
        %225 = "vector.broadcast"(%33) : (index) -> vector<19xindex>
        %226 = "vector.broadcast"(%94) : (i1) -> vector<19xi1>
        "vector.scatter"(%74, %28, %29, %225, %226, %110) : (memref<19x29xi64>, index, index, vector<19xindex>, vector<19xi1>, vector<19xi64>) -> ()
        %227 = "index.floordivs"(%arg2, %23) : (index, index) -> index
        %228 = "memref.alloca"() <{operandSegmentSizes = array<i32: 0, 0>}> : () -> memref<19x29xi32>
        %229 = "memref.load"(%79, %16) <{nontemporal = false}> : (memref<?xf32>, index) -> f32
        %230 = "vector.shuffle"(%136, %110) <{mask = [0, 3, 8, 9, 10, 11, 12, 14, 15, 17, 18]}> : (vector<1xi64>, vector<19xi64>) -> vector<11xi64>
        %231 = "tensor.splat"(%90) : (i64) -> tensor<28xi64>
        %232 = "math.atan2"(%10, %154) <{fastmath = #arith.fastmath<none>}> : (f16, f16) -> f16
        "memref.store"(%8, %77, %16) <{nontemporal = false}> : (i64, memref<?xi64>, index) -> ()
        %233 = "math.exp2"(%106) <{fastmath = #arith.fastmath<none>}> : (tensor<28xf32>) -> tensor<28xf32>
        %234 = "math.roundeven"(%51) <{fastmath = #arith.fastmath<none>}> : (tensor<19x29xf32>) -> tensor<19x29xf32>
        %235 = "math.tanh"(%103) <{fastmath = #arith.fastmath<none>}> : (f16) -> f16
        %236 = "vector.transpose"(%110) <{transp = [0]}> : (vector<19xi64>) -> vector<19xi64>
        %237 = "math.floor"(%13) <{fastmath = #arith.fastmath<none>}> : (f16) -> f16
        %238 = "math.cttz"(%54) : (tensor<29xi32>) -> tensor<29xi32>
        %239 = "index.or"(%26, %40) : (index, index) -> index
        %240 = "math.log2"(%7) <{fastmath = #arith.fastmath<none>}> : (f32) -> f32
        %241 = "arith.minui"(%138, %15) : (i32, i32) -> i32
        %242 = "index.add"(%39, %17) : (index, index) -> index
        %243 = "math.ctlz"(%4) : (i16) -> i16
        %244 = "math.ctlz"(%138) : (i32) -> i32
        %245 = "memref.alloca"(%29) <{operandSegmentSizes = array<i32: 1, 0>}> : (index) -> memref<?x29xi16>
        %246 = "vector.broadcast"(%149) : (f16) -> vector<f16>
        "vector.transfer_write"(%246, %67, %224) <{operandSegmentSizes = array<i32: 1, 1, 1, 0>, permutation_map = affine_map<(d0) -> ()>}> : (vector<f16>, memref<28xf16>, index) -> ()
        %247 = "math.powf"(%10, %133) <{fastmath = #arith.fastmath<none>}> : (f16, f16) -> f16
        %248 = "math.exp2"(%134) <{fastmath = #arith.fastmath<none>}> : (tensor<28xf16>) -> tensor<28xf16>
        %249 = "memref.alloc"(%24) <{operandSegmentSizes = array<i32: 1, 0>}> : (index) -> memref<?x29xf16>
        "memref.tensor_store"(%56, %249) : (tensor<?x29xf16>, memref<?x29xf16>) -> ()
        %250 = "index.shru"(%17, %227) : (index, index) -> index
        %251 = "math.rsqrt"(%122) <{fastmath = #arith.fastmath<none>}> : (f16) -> f16
        %252 = "arith.andi"(%102, %152) : (i1, i1) -> i1
        "linalg.yield"(%3) : (i16) -> ()
      }) : (tensor<?xi16>, tensor<?xi16>, tensor<?xi16>) -> tensor<?xi16>
      %218 = "tensor.empty"() : () -> tensor<f32>
      %219 = "linalg.dot"(%106, %106, %218) <{operandSegmentSizes = array<i32: 2, 1>}> ({
      ^bb0(%arg4: f32, %arg5: f32, %arg6: f32):
        %221 = "arith.mulf"(%arg4, %arg5) <{fastmath = #arith.fastmath<none>}> : (f32, f32) -> f32
        %222 = "arith.addf"(%arg6, %221) <{fastmath = #arith.fastmath<none>}> : (f32, f32) -> f32
        "linalg.yield"(%222) : (f32) -> ()
      }) {linalg.memoized_indexing_maps = [affine_map<(d0) -> (d0)>, affine_map<(d0) -> (d0)>, affine_map<(d0) -> ()>]} : (tensor<28xf32>, tensor<28xf32>, tensor<f32>) -> tensor<f32>
      %220 = "index.add"(%36, %40) : (index, index) -> index
      "tensor.yield"(%137) : (f32) -> ()
    }) : (index, index) -> tensor<?x?xf32>
    %156 = "spirv.CL.round"(%6) : (f32) -> f32
    %157 = "vector.broadcast"(%156) : (f32) -> vector<29xf32>
    %158 = "vector.fma"(%157, %157, %157) : (vector<29xf32>, vector<29xf32>, vector<29xf32>) -> vector<29xf32>
    %159 = "memref.cast"(%80) : (memref<?xi1>) -> memref<12xi1>
    %160 = "spirv.CL.fabs"(%98) : (f16) -> f16
    %161 = "scf.parallel"(%126, %17, %126, %47, %23, %20, %54) <{operandSegmentSizes = array<i32: 2, 2, 2, 1>}> ({
    ^bb0(%arg2: index, %arg3: index):
      %214 = "arith.minui"(%94, %140) : (i1, i1) -> i1
      %215 = "arith.remui"(%138, %15) : (i32, i32) -> i32
      "memref.alloca_scope"() ({
        %229 = "tensor.collapse_shape"(%53) <{reassociation = [[0, 1]]}> : (tensor<19x29xi64>) -> tensor<551xi64>
        %230 = "tensor.from_elements"(%1, %arg0, %3, %1, %4, %3, %4, %arg0, %3, %1, %1, %3, %arg0, %arg0, %4, %4, %1, %3, %arg0, %3, %3, %1, %arg0, %1, %4, %arg0, %1, %4, %3) : (i16, i16, i16, i16, i16, i16, i16, i16, i16, i16, i16, i16, i16, i16, i16, i16, i16, i16, i16, i16, i16, i16, i16, i16, i16, i16, i16, i16, i16) -> tensor<29xi16>
        %231 = "tensor.from_elements"(%2, %156, %6, %2, %7, %6, %2, %156, %156, %156, %7, %156, %156, %2, %7, %7, %137, %2, %7, %137, %7, %6, %137, %7, %156, %6, %6, %137, %6) : (f32, f32, f32, f32, f32, f32, f32, f32, f32, f32, f32, f32, f32, f32, f32, f32, f32, f32, f32, f32, f32, f32, f32, f32, f32, f32, f32, f32, f32) -> tensor<29xf32>
        %232 = "vector.insertelement"(%91, %136, %45) : (i64, vector<1xi64>, index) -> vector<1xi64>
        %233 = "vector.shuffle"(%118, %118) <{mask = [2, 3]}> : (vector<2xi32>, vector<2xi32>) -> vector<2xi32>
        %234 = "linalg.copy"(%54, %150) <{operandSegmentSizes = array<i32: 1, 1>}> ({
        ^bb0(%arg4: i32, %arg5: i32):
          "linalg.yield"(%arg4) : (i32) -> ()
        }) : (tensor<29xi32>, tensor<29xi32>) -> tensor<29xi32>
        %235 = "math.expm1"(%156) <{fastmath = #arith.fastmath<none>}> : (f32) -> f32
        %236 = "index.maxu"(%23, %28) : (index, index) -> index
        %237 = "vector.broadcast"(%12) : (f16) -> vector<19x29xf16>
        %238 = "vector.broadcast"(%129) : (i1) -> vector<19x29xi1>
        %239 = "vector.broadcast"(%14) : (i32) -> vector<19x29xi32>
        %240 = "vector.gather"(%134, %28, %239, %238, %237) : (tensor<28xf16>, index, vector<19x29xi32>, vector<19x29xi1>, vector<19x29xf16>) -> vector<19x29xf16>
        %241 = "arith.shrsi"(%9, %11) : (i64, i64) -> i64
        %242 = "linalg.copy"(%55, %63) <{operandSegmentSizes = array<i32: 1, 1>}> ({
        ^bb0(%arg4: f32, %arg5: f32):
          "linalg.yield"(%arg4) : (f32) -> ()
        }) : (tensor<?xf32>, tensor<?xf32>) -> tensor<?xf32>
        %243 = "math.roundeven"(%154) <{fastmath = #arith.fastmath<none>}> : (f16) -> f16
        %244 = "math.log"(%149) <{fastmath = #arith.fastmath<none>}> : (f16) -> f16
        %245 = "math.log2"(%55) <{fastmath = #arith.fastmath<none>}> : (tensor<?xf32>) -> tensor<?xf32>
        %246 = "bufferization.to_memref"(%52) : (tensor<?xi16>) -> memref<?xi16>
        %247 = "arith.cmpi"(%3, %arg0) <{predicate = 6 : i64}> : (i16, i16) -> i1
        %248 = "arith.divui"(%9, %90) : (i64, i64) -> i64
        %249 = "arith.remf"(%156, %137) <{fastmath = #arith.fastmath<none>}> : (f32, f32) -> f32
        %250 = "arith.ceildivsi"(%94, %125) : (i1, i1) -> i1
        %251 = "arith.divf"(%6, %156) <{fastmath = #arith.fastmath<none>}> : (f32, f32) -> f32
        %252 = "tensor.cast"(%59) : (tensor<19x29xi16>) -> tensor<?x?xi16>
        "vector.print"(%86) <{punctuation = #vector.punctuation<newline>}> : (vector<19x29xi64>) -> ()
        %253 = "vector.create_mask"(%45) : (index) -> vector<29xi1>
        %254 = "affine.load"(%74, %22, %23) <{map = affine_map<(d0, d1) -> (d0, d1)>}> : (memref<19x29xi64>, index, index) -> i64
        %255 = "math.ctlz"(%60) : (tensor<19x29xi64>) -> tensor<19x29xi64>
        %256 = "memref.load"(%80, %16) <{nontemporal = false}> : (memref<?xi1>, index) -> i1
        %257 = "bufferization.clone"(%73) : (memref<19x29xf32>) -> memref<19x29xf32>
        %258 = "index.or"(%33, %32) : (index, index) -> index
        %259 = "tensor.dim"(%49, %17) : (tensor<?x?xi16>, index) -> index
        %260 = "math.ceil"(%88) <{fastmath = #arith.fastmath<none>}> : (f16) -> f16
        "vector.print"(%237) <{punctuation = #vector.punctuation<newline>}> : (vector<19x29xf16>) -> ()
        %261 = "tensor.expand_shape"(%57) <{reassociation = [[0, 1]]}> : (tensor<29xi64>) -> tensor<29x1xi64>
        "memref.alloca_scope.return"() : () -> ()
      }) : () -> ()
      %216 = "memref.load"(%76, %32, %22) <{nontemporal = false}> : (memref<19x29xi32>, index, index) -> i32
      %217 = "vector.splat"(%40) : (index) -> vector<19x29xindex>
      %218 = "arith.shrui"(%94, %125) : (i1, i1) -> i1
      %219 = "math.ceil"(%51) <{fastmath = #arith.fastmath<none>}> : (tensor<19x29xf32>) -> tensor<19x29xf32>
      %220 = "math.powf"(%6, %137) <{fastmath = #arith.fastmath<none>}> : (f32, f32) -> f32
      "vector.print"(%86) <{punctuation = #vector.punctuation<newline>}> : (vector<19x29xi64>) -> ()
      %221 = "vector.matrix_multiply"(%157, %158) <{lhs_columns = 29 : i32, lhs_rows = 1 : i32, rhs_columns = 1 : i32}> : (vector<29xf32>, vector<29xf32>) -> vector<1xf32>
      %222 = "math.copysign"(%0, %83) <{fastmath = #arith.fastmath<none>}> : (f16, f16) -> f16
      %223 = "vector.extract_strided_slice"(%101) <{offsets = [26], sizes = [2], strides = [1]}> : (vector<28xi64>) -> vector<2xi64>
      %224 = "vector.broadcast"(%8) : (i64) -> vector<19x29xi64>
      %225 = "math.tan"(%7) <{fastmath = #arith.fastmath<none>}> : (f32) -> f32
      "vector.warp_execute_on_lane_0"(%16) <{warp_size = 32 : i64}> ({
        %229 = "tensor.expand_shape"(%106) <{reassociation = [[0, 1]]}> : (tensor<28xf32>) -> tensor<28x1xf32>
        %230 = "arith.shrui"(%94, %129) : (i1, i1) -> i1
        %231 = "arith.minsi"(%138, %14) : (i32, i32) -> i32
        %232 = "index.mul"(%41, %120) : (index, index) -> index
        %233 = "math.tan"(%145) <{fastmath = #arith.fastmath<none>}> : (f16) -> f16
        %234 = "vector.broadcast"(%90) : (i64) -> vector<29xi64>
        %235 = "vector.insert"(%234, %86) <{static_position = array<i64: 3>}> : (vector<29xi64>, vector<19x29xi64>) -> vector<19x29xi64>
        %236 = "arith.remf"(%137, %156) <{fastmath = #arith.fastmath<none>}> : (f32, f32) -> f32
        %237 = "math.rsqrt"(%13) <{fastmath = #arith.fastmath<none>}> : (f16) -> f16
        "vector.yield"() : () -> ()
      }) : (index) -> ()
      %226 = "vector.broadcast"(%152) : (i1) -> vector<19x29xi1>
      %227 = "vector.broadcast"(%147) : (i32) -> vector<19x29xi32>
      %228 = "vector.gather"(%57, %36, %227, %226, %86) : (tensor<29xi64>, index, vector<19x29xi32>, vector<19x29xi1>, vector<19x29xi64>) -> vector<19x29xi64>
      "scf.reduce"(%54) ({
      ^bb0(%arg4: tensor<29xi32>, %arg5: tensor<29xi32>):
        %229 = "arith.divui"(%3, %3) : (i16, i16) -> i16
        %230 = "vector.broadcast"(%140) : (i1) -> vector<19xi1>
        %231:2 = "vector.scan"(%226, %230) <{inclusive = true, kind = #vector.kind<and>, reduction_dim = 1 : i64}> : (vector<19x29xi1>, vector<19xi1>) -> (vector<19x29xi1>, vector<19xi1>)
        %232 = "vector.splat"(%107) : (f16) -> vector<29xf16>
        %233 = "index.floordivs"(%121, %124) : (index, index) -> index
        "memref.copy"(%68, %68) : (memref<?x29xi32>, memref<?x29xi32>) -> ()
        %234 = "memref.cast"(%72) : (memref<19x29xi32>) -> memref<19x29xi32>
        %235 = "vector.transpose"(%224) <{transp = [0, 1]}> : (vector<19x29xi64>) -> vector<19x29xi64>
        %236 = "index.mul"(%28, %139) : (index, index) -> index
        "scf.reduce.return"(%54) : (tensor<29xi32>) -> ()
      }) : (tensor<29xi32>) -> ()
      "scf.yield"() : () -> ()
    }) : (index, index, index, index, index, index, tensor<29xi32>) -> tensor<29xi32>
    %162 = "vector.broadcast"(%8) : (i64) -> vector<19x19xi64>
    %163 = "vector.outerproduct"(%110, %110, %162) <{kind = #vector.kind<maxui>}> : (vector<19xi64>, vector<19xi64>, vector<19x19xi64>) -> vector<19x19xi64>
    %164 = "spirv.FUnordLessThan"(%160, %12) : (f16, f16) -> i1
    %165 = "spirv.GL.Ldexp"(%160, %8) : (f16, i64) -> f16
    %166 = "tensor.empty"() : () -> tensor<551xf32>
    %167 = "tensor.unpack"(%51, %166, %45) <{inner_dims_pos = array<i64: 0>, outer_dims_perm = array<i64: 0>, static_inner_tiles = array<i64: -9223372036854775808>}> : (tensor<19x29xf32>, tensor<551xf32>, index) -> tensor<551xf32>
    %168 = "index.shrs"(%130, %18) : (index, index) -> index
    %169 = "spirv.GL.SSign"(%138) : (i32) -> i32
    %170 = "spirv.UGreaterThanEqual"(%90, %8) : (i64, i64) -> i1
    %171 = "vector.insert"(%90, %101) <{static_position = array<i64: 18>}> : (i64, vector<28xi64>) -> vector<28xi64>
    %172 = "spirv.GL.FSign"(%6) : (f32) -> f32
    %173 = "affine.parallel"() <{lowerBoundsGroups = dense<1> : tensor<2xi32>, lowerBoundsMap = affine_map<() -> (0, 0)>, reductions = [9], steps = [1, 1], upperBoundsGroups = dense<1> : tensor<2xi32>, upperBoundsMap = affine_map<() -> (19, 29)>}> ({
    ^bb0(%arg2: index, %arg3: index):
      %214 = "memref.cast"(%68) : (memref<?x29xi32>) -> memref<12x29xi32>
      "affine.yield"(%7) : (f32) -> ()
    }) : () -> memref<19x29xf32>
    %174 = "memref.alloca"(%18) <{operandSegmentSizes = array<i32: 1, 0>}> : (index) -> memref<?xi1>
    %175 = "spirv.FUnordLessThanEqual"(%10, %98) : (f16, f16) -> i1
    %176 = "spirv.GL.UMax"(%118, %118) : (vector<2xi32>, vector<2xi32>) -> vector<2xi32>
    %177 = "spirv.IEqual"(%9, %8) : (i64, i64) -> i1
    %178 = "vector.multi_reduction"(%158, %157) <{kind = #vector.kind<mul>, reduction_dims = []}> : (vector<29xf32>, vector<29xf32>) -> vector<29xf32>
    %179 = "math.floor"(%160) <{fastmath = #arith.fastmath<none>}> : (f16) -> f16
    "vector.warp_execute_on_lane_0"(%16) <{warp_size = 32 : i64}> ({
      %214 = "memref.alloc"(%arg1, %37) <{operandSegmentSizes = array<i32: 2, 0>}> : (index, index) -> memref<?x?xf32>
      "memref.tensor_store"(%155, %214) : (tensor<?x?xf32>, memref<?x?xf32>) -> ()
      %215 = "memref.alloca"() <{operandSegmentSizes = array<i32: 0, 0>}> : () -> memref<19x29xi64>
      %216 = "scf.index_switch"(%126) <{cases = array<i64: 1, 2>}> ({
        %222 = "math.log"(%106) <{fastmath = #arith.fastmath<none>}> : (tensor<28xf32>) -> tensor<28xf32>
        %223 = "linalg.copy"(%50, %50) <{operandSegmentSizes = array<i32: 1, 1>}> ({
        ^bb0(%arg2: i1, %arg3: i1):
          "linalg.yield"(%arg2) : (i1) -> ()
        }) : (tensor<?xi1>, tensor<?xi1>) -> tensor<?xi1>
        %224 = "arith.addi"(%164, %175) : (i1, i1) -> i1
        %225 = "vector.extract_strided_slice"(%86) <{offsets = [2], sizes = [4], strides = [1]}> : (vector<19x29xi64>) -> vector<4x29xi64>
        %226 = "math.log1p"(%160) <{fastmath = #arith.fastmath<none>}> : (f16) -> f16
        %227 = "math.tan"(%0) <{fastmath = #arith.fastmath<none>}> : (f16) -> f16
        %228 = "memref.alloc"() <{operandSegmentSizes = array<i32: 0, 0>}> : () -> memref<29xi16>
        %229 = "tensor.empty"() : () -> tensor<29x19xi64>
        %230 = "tensor.empty"() : () -> tensor<19x19xi64>
        %231 = "linalg.matmul"(%53, %229, %230) <{operandSegmentSizes = array<i32: 2, 1>}> ({
        ^bb0(%arg2: i64, %arg3: i64, %arg4: i64):
          %243 = "arith.muli"(%arg2, %arg3) : (i64, i64) -> i64
          %244 = "arith.addi"(%arg4, %243) : (i64, i64) -> i64
          "linalg.yield"(%244) : (i64) -> ()
        }) : (tensor<19x29xi64>, tensor<29x19xi64>, tensor<19x19xi64>) -> tensor<19x19xi64>
        %232 = "vector.broadcast"(%95) : (i1) -> vector<19x29xi1>
        %233 = "vector.mask"(%232) ({
          %243 = "vector.multi_reduction"(%86, %86) <{kind = #vector.kind<maxui>, reduction_dims = []}> : (vector<19x29xi64>, vector<19x29xi64>) -> vector<19x29xi64>
          "vector.yield"(%243) : (vector<19x29xi64>) -> ()
        }) : (vector<19x29xi1>) -> vector<19x29xi64>
        %234 = "vector.shuffle"(%100, %110) <{mask = [0, 2, 3, 7, 9, 10, 11, 12, 13, 16, 17, 20, 21, 25, 26, 30, 32, 33, 37, 38, 40, 42, 44, 45]}> : (vector<28xi64>, vector<19xi64>) -> vector<24xi64>
        %235 = "index.mul"(%34, %92) : (index, index) -> index
        %236 = "vector.extract"(%158) <{static_position = array<i64: 27>}> : (vector<29xf32>) -> f32
        %237 = "index.and"(%144, %19) : (index, index) -> index
        %238 = "tensor.empty"() : () -> tensor<29x28xf32>
        %239 = "tensor.empty"() : () -> tensor<19x28xf32>
        %240 = "linalg.matmul"(%51, %238, %239) <{operandSegmentSizes = array<i32: 2, 1>}> ({
        ^bb0(%arg2: f32, %arg3: f32, %arg4: f32):
          %243 = "arith.mulf"(%arg2, %arg3) <{fastmath = #arith.fastmath<none>}> : (f32, f32) -> f32
          %244 = "arith.addf"(%arg4, %243) <{fastmath = #arith.fastmath<none>}> : (f32, f32) -> f32
          "linalg.yield"(%244) : (f32) -> ()
        }) : (tensor<19x29xf32>, tensor<29x28xf32>, tensor<19x28xf32>) -> tensor<19x28xf32>
        %241 = "tensor.from_elements"(%11, %9, %91, %90, %11, %8, %91, %90, %11, %91, %11, %91, %91, %11, %90, %9, %90, %11, %90, %90, %9, %91, %91, %9, %90, %90, %8, %8, %9) : (i64, i64, i64, i64, i64, i64, i64, i64, i64, i64, i64, i64, i64, i64, i64, i64, i64, i64, i64, i64, i64, i64, i64, i64, i64, i64, i64, i64, i64) -> tensor<29xi64>
        %242 = "tensor.expand_shape"(%109) <{reassociation = [[0, 1]]}> : (tensor<28xi1>) -> tensor<28x1xi1>
        "scf.yield"(%138) : (i32) -> ()
      }, {
        %222 = "memref.load"(%80, %16) <{nontemporal = false}> : (memref<?xi1>, index) -> i1
        %223 = "tensor.cast"(%134) : (tensor<28xf16>) -> tensor<?xf16>
        %224 = "arith.andi"(%114, %147) : (i32, i32) -> i32
        %225 = "memref.load"(%69, %16, %19) <{nontemporal = false}> : (memref<?x29xi32>, index, index) -> i32
        %226 = "math.round"(%137) <{fastmath = #arith.fastmath<none>}> : (f32) -> f32
        %227 = "vector.multi_reduction"(%118, %118) <{kind = #vector.kind<maxsi>, reduction_dims = []}> : (vector<2xi32>, vector<2xi32>) -> vector<2xi32>
        %228 = "memref.alloc"() <{operandSegmentSizes = array<i32: 0, 0>}> : () -> memref<29x28xi64>
        %229 = "tensor.empty"() : () -> tensor<19x28xi64>
        %230 = "linalg.matmul"(%74, %228, %229) <{operandSegmentSizes = array<i32: 2, 1>}> ({
        ^bb0(%arg2: i64, %arg3: i64, %arg4: i64):
          %242 = "arith.muli"(%arg2, %arg3) : (i64, i64) -> i64
          %243 = "arith.addi"(%arg4, %242) : (i64, i64) -> i64
          "linalg.yield"(%243) : (i64) -> ()
        }) : (memref<19x29xi64>, memref<29x28xi64>, tensor<19x28xi64>) -> tensor<19x28xi64>
        %231 = "tensor.empty"() : () -> tensor<29x29xi64>
        %232 = "linalg.matmul"(%74, %231, %127) <{operandSegmentSizes = array<i32: 2, 1>}> ({
        ^bb0(%arg2: i64, %arg3: i64, %arg4: i64):
          %242 = "arith.muli"(%arg2, %arg3) : (i64, i64) -> i64
          %243 = "arith.addi"(%arg4, %242) : (i64, i64) -> i64
          "linalg.yield"(%243) : (i64) -> ()
        }) : (memref<19x29xi64>, tensor<29x29xi64>, tensor<19x29xi64>) -> tensor<19x29xi64>
        %233 = "index.maxs"(%92, %26) : (index, index) -> index
        %234 = "arith.shrui"(%177, %129) : (i1, i1) -> i1
        %235 = "bufferization.clone"(%67) : (memref<28xf16>) -> memref<28xf16>
        %236 = "arith.minui"(%147, %15) : (i32, i32) -> i32
        %237 = "index.maxs"(%28, %168) : (index, index) -> index
        %238 = "arith.shrsi"(%4, %3) : (i16, i16) -> i16
        %239 = "arith.shrui"(%147, %15) : (i32, i32) -> i32
        %240 = "tensor.empty"() : () -> tensor<29x28xi64>
        %241 = "linalg.matmul"(%53, %240, %229) <{operandSegmentSizes = array<i32: 2, 1>}> ({
        ^bb0(%arg2: i64, %arg3: i64, %arg4: i64):
          %242 = "arith.muli"(%arg2, %arg3) : (i64, i64) -> i64
          %243 = "arith.addi"(%arg4, %242) : (i64, i64) -> i64
          "linalg.yield"(%243) : (i64) -> ()
        }) : (tensor<19x29xi64>, tensor<29x28xi64>, tensor<19x28xi64>) -> tensor<19x28xi64>
        "scf.yield"(%114) : (i32) -> ()
      }, {
        %222 = "index.mul"(%139, %27) : (index, index) -> index
        %223 = "vector.broadcast"(%8) : (i64) -> vector<1x1xi64>
        %224 = "vector.outerproduct"(%136, %136, %223) <{kind = #vector.kind<minsi>}> : (vector<1xi64>, vector<1xi64>, vector<1x1xi64>) -> vector<1x1xi64>
        %225 = "math.fma"(%0, %165, %88) <{fastmath = #arith.fastmath<none>}> : (f16, f16, f16) -> f16
        %226 = "math.rsqrt"(%122) <{fastmath = #arith.fastmath<none>}> : (f16) -> f16
        %227 = "memref.alloca"(%21) <{operandSegmentSizes = array<i32: 1, 0>}> : (index) -> memref<?xi64>
        %228 = "tensor.extract"(%50, %16) : (tensor<?xi1>, index) -> i1
        %229 = "tensor.empty"() : () -> tensor<551xi64>
        %230 = "tensor.unpack"(%53, %229, %45) <{inner_dims_pos = array<i64: 0>, outer_dims_perm = array<i64: 0>, static_inner_tiles = array<i64: -9223372036854775808>}> : (tensor<19x29xi64>, tensor<551xi64>, index) -> tensor<551xi64>
        %231 = "tensor.expand_shape"(%53) <{reassociation = [[0], [1, 2]]}> : (tensor<19x29xi64>) -> tensor<19x29x1xi64>
        %232 = "affine.vector_load"(%68, %36, %37) <{map = affine_map<(d0, d1) -> (d0, d1)>}> : (memref<?x29xi32>, index, index) -> vector<28xi32>
        %233 = "math.round"(%56) <{fastmath = #arith.fastmath<none>}> : (tensor<?x29xf16>) -> tensor<?x29xf16>
        %234 = "memref.load"(%66, %41) <{nontemporal = false}> : (memref<28xi32>, index) -> i32
        %235 = "vector.broadcast"(%90) : (i64) -> vector<29xi64>
        %236 = "vector.contract"(%110, %86, %235) <{indexing_maps = [affine_map<(d0, d1) -> (d1)>, affine_map<(d0, d1) -> (d1, d0)>, affine_map<(d0, d1) -> (d0)>], iterator_types = [#vector.iterator_type<parallel>, #vector.iterator_type<reduction>], kind = #vector.kind<minui>}> : (vector<19xi64>, vector<19x29xi64>, vector<29xi64>) -> vector<29xi64>
        %237 = "arith.cmpi"(%177, %140) <{predicate = 7 : i64}> : (i1, i1) -> i1
        %238 = "vector.extract"(%110) <{static_position = array<i64: 4>}> : (vector<19xi64>) -> i64
        %239 = "math.cos"(%10) <{fastmath = #arith.fastmath<none>}> : (f16) -> f16
        %240 = "vector.broadcast"(%138) : (i32) -> vector<2x2xi32>
        %241 = "vector.outerproduct"(%118, %118, %240) <{kind = #vector.kind<add>}> : (vector<2xi32>, vector<2xi32>, vector<2x2xi32>) -> vector<2x2xi32>
        "scf.yield"(%15) : (i32) -> ()
      }) : (index) -> i32
      %217 = "vector.matrix_multiply"(%158, %157) <{lhs_columns = 29 : i32, lhs_rows = 1 : i32, rhs_columns = 1 : i32}> : (vector<29xf32>, vector<29xf32>) -> vector<1xf32>
      %218 = "memref.alloc"(%36) <{operandSegmentSizes = array<i32: 1, 0>}> : (index) -> memref<?xi16>
      "memref.tensor_store"(%52, %218) : (tensor<?xi16>, memref<?xi16>) -> ()
      %219 = "math.round"(%12) <{fastmath = #arith.fastmath<none>}> : (f16) -> f16
      %220 = "arith.remui"(%90, %9) : (i64, i64) -> i64
      %221 = "memref.load"(%71, %40) <{nontemporal = false}> : (memref<29xf16>, index) -> f16
      "vector.yield"() : () -> ()
    }) : (index) -> ()
    %180 = "spirv.CL.fmin"(%88, %0) : (f16, f16) -> f16
    %181 = "vector.splat"(%43) : (index) -> vector<29xindex>
    %182 = "arith.remf"(%122, %83) <{fastmath = #arith.fastmath<none>}> : (f16, f16) -> f16
    %183 = "spirv.CL.s_max"(%114, %169) : (i32, i32) -> i32
    %184 = "arith.divsi"(%183, %147) : (i32, i32) -> i32
    %185 = "tensor.collapse_shape"(%51) <{reassociation = [[0, 1]]}> : (tensor<19x29xf32>) -> tensor<551xf32>
    %186 = "tensor.empty"() : () -> tensor<19x29xf16>
    %187 = "vector.broadcast"(%131) : (f16) -> vector<19x29xf16>
    %188 = "vector.broadcast"(%164) : (i1) -> vector<19x29xi1>
    %189 = "vector.broadcast"(%15) : (i32) -> vector<19x29xi32>
    %190 = "vector.gather"(%186, %16, %30, %189, %188, %187) : (tensor<19x29xf16>, index, index, vector<19x29xi32>, vector<19x29xi1>, vector<19x29xf16>) -> vector<19x29xf16>
    %191 = "spirv.LogicalOr"(%164, %85) : (i1, i1) -> i1
    %192 = "memref.alloca"(%126) <{operandSegmentSizes = array<i32: 1, 0>}> : (index) -> memref<?x29xi16>
    %193 = "memref.alloca"(%28, %24) <{operandSegmentSizes = array<i32: 2, 0>}> : (index, index) -> memref<?x?xi16>
    %194 = "spirv.BitwiseXor"(%118, %118) : (vector<2xi32>, vector<2xi32>) -> vector<2xi32>
    %195 = "spirv.GL.Sqrt"(%103) : (f16) -> f16
    %196 = "spirv.ULessThanEqual"(%114, %183) : (i32, i32) -> i1
    %197 = "spirv.BitFieldUExtract"(%118, %15, %4) : (vector<2xi32>, i32, i16) -> vector<2xi32>
    %198 = "tensor.collapse_shape"(%53) <{reassociation = [[0, 1]]}> : (tensor<19x29xi64>) -> tensor<551xi64>
    %199 = "scf.while"(%175) ({
    ^bb0(%arg2: i1):
      %214 = "index.or"(%38, %42) : (index, index) -> index
      %215 = "math.ctlz"(%164) : (i1) -> i1
      "scf.index_switch"(%34) <{cases = array<i64: 1>}> ({
        %221 = "vector.broadcast"(%140) : (i1) -> vector<29xi1>
        %222:2 = "vector.scan"(%188, %221) <{inclusive = true, kind = #vector.kind<minui>, reduction_dim = 0 : i64}> : (vector<19x29xi1>, vector<29xi1>) -> (vector<19x29xi1>, vector<29xi1>)
        %223 = "vector.insertelement"(%90, %100, %45) : (i64, vector<28xi64>, index) -> vector<28xi64>
        %224 = "linalg.copy"(%198, %198) <{operandSegmentSizes = array<i32: 1, 1>}> ({
        ^bb0(%arg3: i64, %arg4: i64):
          "linalg.yield"(%arg3) : (i64) -> ()
        }) : (tensor<551xi64>, tensor<551xi64>) -> tensor<551xi64>
        %225 = "vector.mask"(%188) ({
          %238 = "vector.multi_reduction"(%86, %110) <{kind = #vector.kind<mul>, reduction_dims = [1]}> : (vector<19x29xi64>, vector<19xi64>) -> vector<19xi64>
          "vector.yield"(%238) : (vector<19xi64>) -> ()
        }) : (vector<19x29xi1>) -> vector<19xi64>
        %226 = "index.maxu"(%28, %39) : (index, index) -> index
        %227 = "vector.extract"(%157) <{static_position = array<i64: 2>}> : (vector<29xf32>) -> f32
        %228 = "tensor.unpack"(%53, %198, %45) <{inner_dims_pos = array<i64: 0>, outer_dims_perm = array<i64: 0>, static_inner_tiles = array<i64: -9223372036854775808>}> : (tensor<19x29xi64>, tensor<551xi64>, index) -> tensor<551xi64>
        %229 = "arith.shrui"(%14, %14) : (i32, i32) -> i32
        %230 = "arith.ceildivsi"(%arg2, %129) : (i1, i1) -> i1
        %231 = "affine.max"(%41) <{map = affine_map<(d0) -> ((d0 mod 2) mod 64 + 16)>}> : (index) -> index
        %232 = "arith.mulf"(%137, %172) <{fastmath = #arith.fastmath<none>}> : (f32, f32) -> f32
        %233 = "vector.broadcast"(%95) : (i1) -> vector<29xi1>
        %234 = "vector.mask"(%233) ({
          %238 = "vector.multi_reduction"(%158, %158) <{kind = #vector.kind<add>, reduction_dims = []}> : (vector<29xf32>, vector<29xf32>) -> vector<29xf32>
          "vector.yield"(%238) : (vector<29xf32>) -> ()
        }) : (vector<29xi1>) -> vector<29xf32>
        %235 = "tensor.unpack"(%127, %198, %45) <{inner_dims_pos = array<i64: 0>, outer_dims_perm = array<i64: 0>, static_inner_tiles = array<i64: -9223372036854775808>}> : (tensor<19x29xi64>, tensor<551xi64>, index) -> tensor<551xi64>
        "linalg.transpose"(%62, %77) <{permutation = array<i64: 0>}> ({
        ^bb0(%arg3: i64, %arg4: i64):
          "linalg.yield"(%arg3) : (i64) -> ()
        }) : (tensor<?xi64>, memref<?xi64>) -> ()
        %236 = "math.ceil"(%55) <{fastmath = #arith.fastmath<none>}> : (tensor<?xf32>) -> tensor<?xf32>
        %237 = "vector.shuffle"(%188, %188) <{mask = [0, 1, 2, 3, 5, 6, 7, 10, 11, 12, 16, 18, 19, 20, 21, 24, 25, 27, 32, 33, 35, 37]}> : (vector<19x29xi1>, vector<19x29xi1>) -> vector<22x29xi1>
        "scf.yield"() : () -> ()
      }, {
        %221 = "tensor.rank"(%61) : (tensor<?xi64>) -> index
        %222 = "bufferization.to_tensor"(%72) : (memref<19x29xi32>) -> tensor<19x29xi32>
        %223 = "tensor.collapse_shape"(%56) <{reassociation = [[0, 1]]}> : (tensor<?x29xf16>) -> tensor<?xf16>
        %224 = "vector.broadcast"(%14) : (i32) -> vector<19xi32>
        %225:2 = "vector.scan"(%189, %224) <{inclusive = false, kind = #vector.kind<add>, reduction_dim = 1 : i64}> : (vector<19x29xi32>, vector<19xi32>) -> (vector<19x29xi32>, vector<19xi32>)
        %226 = "vector.flat_transpose"(%100) <{columns = 7 : i32, rows = 4 : i32}> : (vector<28xi64>) -> vector<28xi64>
        %227 = "memref.load"(%70, %16) <{nontemporal = false}> : (memref<28xi16>, index) -> i16
        %228 = "vector.bitcast"(%226) : (vector<28xi64>) -> vector<28xi64>
        %229 = "tensor.rank"(%56) : (tensor<?x29xf16>) -> index
        %230 = "affine.load"(%78, %35, %46) <{map = affine_map<(d0, d1) -> (d0, d1)>}> : (memref<19x29xi32>, index, index) -> i32
        %231 = "math.powf"(%13, %122) <{fastmath = #arith.fastmath<none>}> : (f16, f16) -> f16
        %232 = "arith.remui"(%15, %114) : (i32, i32) -> i32
        %233 = "vector.shuffle"(%86, %86) <{mask = [0, 1, 4, 6, 7, 8, 9, 10, 11, 19, 20, 21, 22, 24, 26, 29, 30, 31, 32, 33, 34, 35]}> : (vector<19x29xi64>, vector<19x29xi64>) -> vector<22x29xi64>
        %234 = "math.tan"(%131) <{fastmath = #arith.fastmath<none>}> : (f16) -> f16
        %235 = "memref.alloca"(%24) <{operandSegmentSizes = array<i32: 1, 0>}> : (index) -> memref<?x29xi1>
        %236 = "tensor.from_elements"(%arg0, %1, %3, %1, %arg0, %1, %4, %arg0, %3, %3, %4, %4, %arg0, %1, %3, %1, %1, %3, %arg0, %1, %4, %arg0, %arg0, %arg0, %4, %arg0, %arg0, %1, %3, %arg0, %4, %3, %arg0, %4, %4, %1, %4, %3, %3, %1, %arg0, %4, %arg0, %arg0, %3, %3, %3, %1, %1, %3, %1, %4, %1, %4, %4, %arg0, %1, %4, %4, %4, %arg0, %4, %3, %arg0, %3, %4, %4, %arg0, %arg0, %arg0, %arg0, %4, %arg0, %4, %4, %1, %arg0, %3, %3, %1, %1, %4, %4, %1, %4, %arg0, %1, %arg0, %3, %1, %3, %1, %4, %arg0, %1, %1, %1, %4, %arg0, %1, %1, %3, %arg0, %arg0, %3, %arg0, %arg0, %3, %arg0, %1, %4, %1, %4, %3, %1, %4, %arg0, %1, %1, %4, %4, %arg0, %1, %4, %1, %arg0, %3, %1, %1, %3, %3, %1, %4, %4, %arg0, %arg0, %3, %4, %3, %3, %3, %arg0, %4, %4, %1, %4, %3, %3, %3, %3, %4, %4, %3, %3, %1, %arg0, %3, %arg0, %3, %1, %arg0, %3, %arg0, %1, %1, %3, %3, %4, %4, %1, %1, %arg0, %3, %arg0, %arg0, %4, %3, %4, %3, %1, %arg0, %1, %arg0, %3, %1, %arg0, %3, %1, %1, %1, %3, %1, %3, %4, %1, %1, %arg0, %4, %3, %arg0, %3, %1, %1, %arg0, %4, %4, %3, %3, %3, %1, %1, %1, %arg0, %3, %3, %1, %4, %arg0, %arg0, %4, %3, %1, %arg0, %1, %arg0, %1, %1, %4, %4, %arg0, %4, %3, %arg0, %arg0, %4, %arg0, %3, %3, %arg0, %arg0, %3, %1, %arg0, %arg0, %1, %1, %3, %arg0, %1, %3, %4, %4, %4, %arg0, %1, %4, %4, %3, %1, %4, %4, %arg0, %4, %4, %arg0, %1, %arg0, %1, %3, %4, %4, %3, %4, %1, %3, %arg0, %arg0, %3, %arg0, %arg0, %4, %4, %3, %3, %4, %4, %arg0, %arg0, %1, %arg0, %3, %1, %arg0, %3, %1, %arg0, %4, %4, %1, %1, %4, %3, %1, %3, %4, %3, %4, %arg0, %3, %arg0, %arg0, %4, %1, %1, %arg0, %3, %4, %3, %3, %4, %4, %4, %arg0, %4, %1, %3, %arg0, %arg0, %arg0, %4, %arg0, %4, %1, %4, %1, %1, %4, %arg0, %4, %3, %3, %1, %1, %arg0, %4, %1, %1, %3, %1, %3, %arg0, %arg0, %4, %4, %4, %3, %1, %arg0, %1, %arg0, %1, %4, %3, %1, %3, %3, %4, %3, %3, %1, %3, %4, %4, %1, %arg0, %arg0, %4, %arg0, %arg0, %arg0, %1, %1, %1, %arg0, %arg0, %1, %1, %1, %arg0, %1, %arg0, %3, %1, %arg0, %4, %1, %arg0, %3, %3, %1, %4, %1, %4, %3, %1, %arg0, %1, %1, %arg0, %1, %4, %arg0, %arg0, %arg0, %arg0, %1, %1, %1, %arg0, %arg0, %3, %arg0, %3, %4, %4, %1, %3, %1, %arg0, %1, %arg0, %1, %arg0, %1, %1, %3, %1, %4, %arg0, %1, %3, %3, %1, %4, %1, %3, %3, %3, %1, %3, %1, %3, %4, %3, %arg0, %4, %4, %4, %arg0, %1, %3, %4, %4, %3, %3, %4, %1, %3, %4, %arg0, %1, %1, %arg0, %arg0, %3, %4, %1, %arg0, %arg0, %3, %4, %3, %4, %1, %1, %1, %1, %3, %4, %4, %arg0, %3, %arg0, %3, %1, %4, %3, %arg0, %3, %4, %arg0, %3, %3, %4, %4, %4, %arg0, %arg0, %4, %3, %4, %arg0, %4, %3, %4, %arg0, %1, %arg0, %4, %1, %3, %1, %1, %arg0, %arg0, %1, %4, %1, %4, %4, %1, %1, %3, %4, %1, %4, %1, %4, %3, %4, %1, %3, %4, %4, %arg0, %arg0, %3, %arg0, %3, %3, %arg0) : (i16, i16, i16, i16, i16, i16, i16, i16, i16, i16, i16, i16, i16, i16, i16, i16, i16, i16, i16, i16, i16, i16, i16, i16, i16, i16, i16, i16, i16, i16, i16, i16, i16, i16, i16, i16, i16, i16, i16, i16, i16, i16, i16, i16, i16, i16, i16, i16, i16, i16, i16, i16, i16, i16, i16, i16, i16, i16, i16, i16, i16, i16, i16, i16, i16, i16, i16, i16, i16, i16, i16, i16, i16, i16, i16, i16, i16, i16, i16, i16, i16, i16, i16, i16, i16, i16, i16, i16, i16, i16, i16, i16, i16, i16, i16, i16, i16, i16, i16, i16, i16, i16, i16, i16, i16, i16, i16, i16, i16, i16, i16, i16, i16, i16, i16, i16, i16, i16, i16, i16, i16, i16, i16, i16, i16, i16, i16, i16, i16, i16, i16, i16, i16, i16, i16, i16, i16, i16, i16, i16, i16, i16, i16, i16, i16, i16, i16, i16, i16, i16, i16, i16, i16, i16, i16, i16, i16, i16, i16, i16, i16, i16, i16, i16, i16, i16, i16, i16, i16, i16, i16, i16, i16, i16, i16, i16, i16, i16, i16, i16, i16, i16, i16, i16, i16, i16, i16, i16, i16, i16, i16, i16, i16, i16, i16, i16, i16, i16, i16, i16, i16, i16, i16, i16, i16, i16, i16, i16, i16, i16, i16, i16, i16, i16, i16, i16, i16, i16, i16, i16, i16, i16, i16, i16, i16, i16, i16, i16, i16, i16, i16, i16, i16, i16, i16, i16, i16, i16, i16, i16, i16, i16, i16, i16, i16, i16, i16, i16, i16, i16, i16, i16, i16, i16, i16, i16, i16, i16, i16, i16, i16, i16, i16, i16, i16, i16, i16, i16, i16, i16, i16, i16, i16, i16, i16, i16, i16, i16, i16, i16, i16, i16, i16, i16, i16, i16, i16, i16, i16, i16, i16, i16, i16, i16, i16, i16, i16, i16, i16, i16, i16, i16, i16, i16, i16, i16, i16, i16, i16, i16, i16, i16, i16, i16, i16, i16, i16, i16, i16, i16, i16, i16, i16, i16, i16, i16, i16, i16, i16, i16, i16, i16, i16, i16, i16, i16, i16, i16, i16, i16, i16, i16, i16, i16, i16, i16, i16, i16, i16, i16, i16, i16, i16, i16, i16, i16, i16, i16, i16, i16, i16, i16, i16, i16, i16, i16, i16, i16, i16, i16, i16, i16, i16, i16, i16, i16, i16, i16, i16, i16, i16, i16, i16, i16, i16, i16, i16, i16, i16, i16, i16, i16, i16, i16, i16, i16, i16, i16, i16, i16, i16, i16, i16, i16, i16, i16, i16, i16, i16, i16, i16, i16, i16, i16, i16, i16, i16, i16, i16, i16, i16, i16, i16, i16, i16, i16, i16, i16, i16, i16, i16, i16, i16, i16, i16, i16, i16, i16, i16, i16, i16, i16, i16, i16, i16, i16, i16, i16, i16, i16, i16, i16, i16, i16, i16, i16, i16, i16, i16, i16, i16, i16, i16, i16, i16, i16, i16, i16, i16, i16, i16, i16, i16, i16, i16, i16, i16, i16, i16, i16, i16, i16, i16, i16, i16, i16, i16, i16, i16, i16, i16, i16, i16, i16, i16, i16, i16, i16, i16, i16, i16, i16, i16, i16, i16, i16, i16, i16, i16, i16, i16, i16, i16, i16, i16, i16, i16, i16, i16, i16, i16, i16, i16, i16, i16, i16, i16, i16, i16, i16, i16, i16, i16, i16, i16, i16, i16, i16, i16, i16, i16, i16, i16, i16, i16, i16, i16, i16, i16, i16, i16) -> tensor<19x29xi16>
        %237 = "math.ctpop"(%52) : (tensor<?xi16>) -> tensor<?xi16>
        "scf.yield"() : () -> ()
      }) : (index) -> ()
      %216 = "arith.andi"(%90, %91) : (i64, i64) -> i64
      %217 = "index.or"(%39, %30) : (index, index) -> index
      %218 = "bufferization.to_tensor"(%71) : (memref<29xf16>) -> tensor<29xf16>
      %219 = "bufferization.clone"(%71) : (memref<29xf16>) -> memref<29xf16>
      %220 = "arith.ori"(%164, %129) : (i1, i1) -> i1
      "scf.condition"(%170, %140) : (i1, i1) -> ()
    }, {
    ^bb0(%arg2: i1):
      %214 = "index.maxs"(%36, %46) : (index, index) -> index
      %215 = "scf.while"(%122) ({
      ^bb0(%arg3: f16):
        %233 = "vector.matrix_multiply"(%118, %118) <{lhs_columns = 2 : i32, lhs_rows = 1 : i32, rhs_columns = 1 : i32}> : (vector<2xi32>, vector<2xi32>) -> vector<1xi32>
        %234 = "math.atan2"(%186, %186) <{fastmath = #arith.fastmath<none>}> : (tensor<19x29xf16>, tensor<19x29xf16>) -> tensor<19x29xf16>
        %235 = "index.shrs"(%39, %44) : (index, index) -> index
        %236 = "math.exp"(%145) <{fastmath = #arith.fastmath<none>}> : (f16) -> f16
        %237 = "arith.remf"(%12, %0) <{fastmath = #arith.fastmath<none>}> : (f16, f16) -> f16
        %238 = "vector.broadcast"(%32) : (index) -> vector<29xindex>
        %239 = "vector.broadcast"(%164) : (i1) -> vector<29xi1>
        %240 = "vector.broadcast"(%195) : (f16) -> vector<29xf16>
        "vector.scatter"(%71, %31, %238, %239, %240) : (memref<29xf16>, index, vector<29xindex>, vector<29xi1>, vector<29xf16>) -> ()
        %241 = "affine.load"(%75, %41, %25) <{map = affine_map<(d0, d1) -> (d0, d1)>}> : (memref<19x29xi1>, index, index) -> i1
        %242 = "tensor.expand_shape"(%60) <{reassociation = [[0], [1, 2]]}> : (tensor<19x29xi64>) -> tensor<19x29x1xi64>
        "scf.condition"(%94, %13) : (i1, f16) -> ()
      }, {
      ^bb0(%arg3: f16):
        %233 = "arith.ceildivsi"(%14, %138) : (i32, i32) -> i32
        %234 = "tensor.collapse_shape"(%59) <{reassociation = [[0, 1]]}> : (tensor<19x29xi16>) -> tensor<551xi16>
        %235 = "memref.alloca"(%17) <{operandSegmentSizes = array<i32: 1, 0>}> : (index) -> memref<?xi16>
        %236 = "vector.insert"(%169, %118) <{static_position = array<i64: 0>}> : (i32, vector<2xi32>) -> vector<2xi32>
        %237 = "linalg.copy"(%59, %59) <{operandSegmentSizes = array<i32: 1, 1>}> ({
        ^bb0(%arg4: i16, %arg5: i16):
          "linalg.yield"(%arg4) : (i16) -> ()
        }) : (tensor<19x29xi16>, tensor<19x29xi16>) -> tensor<19x29xi16>
        %238 = "math.log"(%0) <{fastmath = #arith.fastmath<none>}> : (f16) -> f16
        %239 = "memref.alloc"(%23) <{operandSegmentSizes = array<i32: 1, 0>}> : (index) -> memref<?xi16>
        "memref.tensor_store"(%48, %239) : (tensor<?xi16>, memref<?xi16>) -> ()
        %240 = "index.sizeof"() : () -> index
        %241 = "index.or"(%120, %124) : (index, index) -> index
        %242 = "index.bool.constant"() <{value = false}> : () -> i1
        %243 = "tensor.unpack"(%51, %185, %45) <{inner_dims_pos = array<i64: 0>, outer_dims_perm = array<i64: 0>, static_inner_tiles = array<i64: -9223372036854775808>}> : (tensor<19x29xf32>, tensor<551xf32>, index) -> tensor<551xf32>
        %244 = "arith.remui"(%102, %170) : (i1, i1) -> i1
        %245 = "math.log2"(%145) <{fastmath = #arith.fastmath<none>}> : (f16) -> f16
        %246 = "vector.bitcast"(%190) : (vector<19x29xf16>) -> vector<19x29xf16>
        %247 = "math.tanh"(%12) <{fastmath = #arith.fastmath<none>}> : (f16) -> f16
        %248 = "index.sub"(%21, %21) : (index, index) -> index
        "scf.yield"(%13) : (f16) -> ()
      }) : (f16) -> f16
      %216 = "memref.alloc"() <{operandSegmentSizes = array<i32: 0, 0>}> : () -> memref<29x19xf16>
      %217 = "tensor.empty"() : () -> tensor<19x19xf16>
      %218 = "linalg.matmul"(%64, %216, %217) <{operandSegmentSizes = array<i32: 2, 1>}> ({
      ^bb0(%arg3: f16, %arg4: f16, %arg5: f16):
        %233 = "arith.mulf"(%arg3, %arg4) <{fastmath = #arith.fastmath<none>}> : (f16, f16) -> f16
        %234 = "arith.addf"(%arg5, %233) <{fastmath = #arith.fastmath<none>}> : (f16, f16) -> f16
        "linalg.yield"(%234) : (f16) -> ()
      }) : (memref<19x29xf16>, memref<29x19xf16>, tensor<19x19xf16>) -> tensor<19x19xf16>
      %219 = "bufferization.to_tensor"(%67) : (memref<28xf16>) -> tensor<28xf16>
      %220 = "tensor.collapse_shape"(%60) <{reassociation = [[0, 1]]}> : (tensor<19x29xi64>) -> tensor<551xi64>
      %221 = "math.cos"(%186) <{fastmath = #arith.fastmath<none>}> : (tensor<19x29xf16>) -> tensor<19x29xf16>
      %222 = "affine.parallel"() <{lowerBoundsGroups = dense<1> : tensor<3xi32>, lowerBoundsMap = affine_map<() -> (0, 0, 0)>, reductions = [0], steps = [1, 1, 1], upperBoundsGroups = dense<1> : tensor<3xi32>, upperBoundsMap = affine_map<() -> (12, 12, 19)>}> ({
      ^bb0(%arg3: index, %arg4: index, %arg5: index):
        %233 = "bufferization.clone"(%66) : (memref<28xi32>) -> memref<28xi32>
        "affine.yield"(%13) : (f16) -> ()
      }) : () -> memref<12x12x19xf16>
      %223 = "math.ctpop"(%1) : (i16) -> i16
      %224 = "math.ctpop"(%129) : (i1) -> i1
      %225 = "memref.load"(%80, %16) <{nontemporal = false}> : (memref<?xi1>, index) -> i1
      %226 = "vector.broadcast"(%164) : (i1) -> vector<28xi1>
      %227 = "vector.mask"(%226) ({
        %233 = "vector.multi_reduction"(%100, %100) <{kind = #vector.kind<minui>, reduction_dims = []}> : (vector<28xi64>, vector<28xi64>) -> vector<28xi64>
        "vector.yield"(%233) : (vector<28xi64>) -> ()
      }) : (vector<28xi1>) -> vector<28xi64>
      %228 = "memref.atomic_rmw"(%14, %72, %18, %39) <{kind = 2 : i64}> : (i32, memref<19x29xi32>, index, index) -> i32
      %229 = "vector.gather"(%71, %21, %189, %188, %190) : (memref<29xf16>, index, vector<19x29xi32>, vector<19x29xi1>, vector<19x29xf16>) -> vector<19x29xf16>
      %230 = "arith.ceildivsi"(%196, %arg2) : (i1, i1) -> i1
      %231 = "vector.extract_strided_slice"(%110) <{offsets = [7], sizes = [4], strides = [1]}> : (vector<19xi64>) -> vector<4xi64>
      %232 = "math.tan"(%98) <{fastmath = #arith.fastmath<none>}> : (f16) -> f16
      "scf.yield"(%125) : (i1) -> ()
    }) : (i1) -> i1
    %200 = "spirv.CL.fabs"(%149) : (f16) -> f16
    %201 = "arith.mulf"(%88, %160) <{fastmath = #arith.fastmath<none>}> : (f16, f16) -> f16
    %202 = "spirv.GL.InverseSqrt"(%200) : (f16) -> f16
    %203 = "spirv.BitwiseXor"(%118, %118) : (vector<2xi32>, vector<2xi32>) -> vector<2xi32>
    %204 = "spirv.IsInf"(%149) : (f16) -> i1
    %205 = "tensor.dim"(%155, %16) : (tensor<?x?xf32>, index) -> index
    %206 = "spirv.GL.InverseSqrt"(%180) : (f16) -> f16
    %207 = "spirv.BitwiseOr"(%118, %118) : (vector<2xi32>, vector<2xi32>) -> vector<2xi32>
    %208 = "spirv.FUnordLessThanEqual"(%2, %7) : (f32, f32) -> i1
    %209 = "spirv.CL.u_max"(%8, %90) : (i64, i64) -> i64
    %210 = "arith.remui"(%175, %208) : (i1, i1) -> i1
    %211 = "spirv.GL.RoundEven"(%160) : (f16) -> f16
    %212 = "index.and"(%120, %23) : (index, index) -> index
    %213 = "memref.load"(%78, %18, %21) <{nontemporal = false}> : (memref<19x29xi32>, index, index) -> i32
    "vector.print"(%86) <{punctuation = #vector.punctuation<newline>}> : (vector<19x29xi64>) -> ()
    "vector.print"(%100) <{punctuation = #vector.punctuation<newline>}> : (vector<28xi64>) -> ()
    "vector.print"(%101) <{punctuation = #vector.punctuation<newline>}> : (vector<28xi64>) -> ()
    "vector.print"(%110) <{punctuation = #vector.punctuation<newline>}> : (vector<19xi64>) -> ()
    "vector.print"(%118) <{punctuation = #vector.punctuation<newline>}> : (vector<2xi32>) -> ()
    "vector.print"(%136) <{punctuation = #vector.punctuation<newline>}> : (vector<1xi64>) -> ()
    "vector.print"(%157) <{punctuation = #vector.punctuation<newline>}> : (vector<29xf32>) -> ()
    "vector.print"(%158) <{punctuation = #vector.punctuation<newline>}> : (vector<29xf32>) -> ()
    "vector.print"(%187) <{punctuation = #vector.punctuation<newline>}> : (vector<19x29xf16>) -> ()
    "vector.print"(%188) <{punctuation = #vector.punctuation<newline>}> : (vector<19x29xi1>) -> ()
    "vector.print"(%189) <{punctuation = #vector.punctuation<newline>}> : (vector<19x29xi32>) -> ()
    "vector.print"(%190) <{punctuation = #vector.punctuation<newline>}> : (vector<19x29xf16>) -> ()
    "vector.print"(%arg0) <{punctuation = #vector.punctuation<newline>}> : (i16) -> ()
    "vector.print"(%0) <{punctuation = #vector.punctuation<newline>}> : (f16) -> ()
    "vector.print"(%1) <{punctuation = #vector.punctuation<newline>}> : (i16) -> ()
    "vector.print"(%2) <{punctuation = #vector.punctuation<newline>}> : (f32) -> ()
    "vector.print"(%3) <{punctuation = #vector.punctuation<newline>}> : (i16) -> ()
    "vector.print"(%4) <{punctuation = #vector.punctuation<newline>}> : (i16) -> ()
    "vector.print"(%5) <{punctuation = #vector.punctuation<newline>}> : (f16) -> ()
    "vector.print"(%6) <{punctuation = #vector.punctuation<newline>}> : (f32) -> ()
    "vector.print"(%7) <{punctuation = #vector.punctuation<newline>}> : (f32) -> ()
    "vector.print"(%8) <{punctuation = #vector.punctuation<newline>}> : (i64) -> ()
    "vector.print"(%9) <{punctuation = #vector.punctuation<newline>}> : (i64) -> ()
    "vector.print"(%10) <{punctuation = #vector.punctuation<newline>}> : (f16) -> ()
    "vector.print"(%11) <{punctuation = #vector.punctuation<newline>}> : (i64) -> ()
    "vector.print"(%12) <{punctuation = #vector.punctuation<newline>}> : (f16) -> ()
    "vector.print"(%13) <{punctuation = #vector.punctuation<newline>}> : (f16) -> ()
    "vector.print"(%14) <{punctuation = #vector.punctuation<newline>}> : (i32) -> ()
    "vector.print"(%15) <{punctuation = #vector.punctuation<newline>}> : (i32) -> ()
    "vector.print"(%83) <{punctuation = #vector.punctuation<newline>}> : (f16) -> ()
    "vector.print"(%85) <{punctuation = #vector.punctuation<newline>}> : (i1) -> ()
    "vector.print"(%88) <{punctuation = #vector.punctuation<newline>}> : (f16) -> ()
    "vector.print"(%90) <{punctuation = #vector.punctuation<newline>}> : (i64) -> ()
    "vector.print"(%91) <{punctuation = #vector.punctuation<newline>}> : (i64) -> ()
    "vector.print"(%94) <{punctuation = #vector.punctuation<newline>}> : (i1) -> ()
    "vector.print"(%95) <{punctuation = #vector.punctuation<newline>}> : (i1) -> ()
    "vector.print"(%96) <{punctuation = #vector.punctuation<newline>}> : (i1) -> ()
    "vector.print"(%98) <{punctuation = #vector.punctuation<newline>}> : (f16) -> ()
    "vector.print"(%102) <{punctuation = #vector.punctuation<newline>}> : (i1) -> ()
    "vector.print"(%103) <{punctuation = #vector.punctuation<newline>}> : (f16) -> ()
    "vector.print"(%107) <{punctuation = #vector.punctuation<newline>}> : (f16) -> ()
    "vector.print"(%114) <{punctuation = #vector.punctuation<newline>}> : (i32) -> ()
    "vector.print"(%122) <{punctuation = #vector.punctuation<newline>}> : (f16) -> ()
    "vector.print"(%125) <{punctuation = #vector.punctuation<newline>}> : (i1) -> ()
    "vector.print"(%129) <{punctuation = #vector.punctuation<newline>}> : (i1) -> ()
    "vector.print"(%131) <{punctuation = #vector.punctuation<newline>}> : (f16) -> ()
    "vector.print"(%133) <{punctuation = #vector.punctuation<newline>}> : (f16) -> ()
    "vector.print"(%137) <{punctuation = #vector.punctuation<newline>}> : (f32) -> ()
    "vector.print"(%138) <{punctuation = #vector.punctuation<newline>}> : (i32) -> ()
    "vector.print"(%140) <{punctuation = #vector.punctuation<newline>}> : (i1) -> ()
    "vector.print"(%145) <{punctuation = #vector.punctuation<newline>}> : (f16) -> ()
    "vector.print"(%147) <{punctuation = #vector.punctuation<newline>}> : (i32) -> ()
    "vector.print"(%149) <{punctuation = #vector.punctuation<newline>}> : (f16) -> ()
    "vector.print"(%152) <{punctuation = #vector.punctuation<newline>}> : (i1) -> ()
    "vector.print"(%154) <{punctuation = #vector.punctuation<newline>}> : (f16) -> ()
    "vector.print"(%156) <{punctuation = #vector.punctuation<newline>}> : (f32) -> ()
    "vector.print"(%160) <{punctuation = #vector.punctuation<newline>}> : (f16) -> ()
    "vector.print"(%164) <{punctuation = #vector.punctuation<newline>}> : (i1) -> ()
    "vector.print"(%165) <{punctuation = #vector.punctuation<newline>}> : (f16) -> ()
    "vector.print"(%169) <{punctuation = #vector.punctuation<newline>}> : (i32) -> ()
    "vector.print"(%170) <{punctuation = #vector.punctuation<newline>}> : (i1) -> ()
    "vector.print"(%172) <{punctuation = #vector.punctuation<newline>}> : (f32) -> ()
    "vector.print"(%175) <{punctuation = #vector.punctuation<newline>}> : (i1) -> ()
    "vector.print"(%177) <{punctuation = #vector.punctuation<newline>}> : (i1) -> ()
    "vector.print"(%180) <{punctuation = #vector.punctuation<newline>}> : (f16) -> ()
    "vector.print"(%183) <{punctuation = #vector.punctuation<newline>}> : (i32) -> ()
    "vector.print"(%191) <{punctuation = #vector.punctuation<newline>}> : (i1) -> ()
    "vector.print"(%195) <{punctuation = #vector.punctuation<newline>}> : (f16) -> ()
    "vector.print"(%196) <{punctuation = #vector.punctuation<newline>}> : (i1) -> ()
    "vector.print"(%200) <{punctuation = #vector.punctuation<newline>}> : (f16) -> ()
    "vector.print"(%202) <{punctuation = #vector.punctuation<newline>}> : (f16) -> ()
    "vector.print"(%204) <{punctuation = #vector.punctuation<newline>}> : (i1) -> ()
    "vector.print"(%206) <{punctuation = #vector.punctuation<newline>}> : (f16) -> ()
    "vector.print"(%208) <{punctuation = #vector.punctuation<newline>}> : (i1) -> ()
    "vector.print"(%209) <{punctuation = #vector.punctuation<newline>}> : (i64) -> ()
    "vector.print"(%211) <{punctuation = #vector.punctuation<newline>}> : (f16) -> ()
    "func.return"() : () -> ()
  }) : () -> ()
}) : () -> ()
