generated/temp581529840236588062208.mlir:3:12: remark: operation has no memory effects
    %cst = arith.constant 2.627200e+04 : f16
           ^
generated/temp581529840236588062208.mlir:3:12: note: see current operation: %cst = arith.constant 2.627200e+04 : f16
generated/temp581529840236588062208.mlir:4:14: remark: operation has no memory effects
    %cst_0 = arith.constant 5.488000e+04 : f16
             ^
generated/temp581529840236588062208.mlir:4:14: note: see current operation: %cst_0 = arith.constant 5.488000e+04 : f16
generated/temp581529840236588062208.mlir:5:14: remark: operation has no memory effects
    %false = arith.constant false
             ^
generated/temp581529840236588062208.mlir:5:14: note: see current operation: %false = arith.constant false
generated/temp581529840236588062208.mlir:6:19: remark: operation has no memory effects
    %c26224_i16 = arith.constant 26224 : i16
                  ^
generated/temp581529840236588062208.mlir:6:19: note: see current operation: %c26224_i16 = arith.constant 26224 : i16
generated/temp581529840236588062208.mlir:7:14: remark: operation has no memory effects
    %cst_1 = arith.constant 1.272800e+04 : f16
             ^
generated/temp581529840236588062208.mlir:7:14: note: see current operation: %cst_1 = arith.constant 1.272800e+04 : f16
generated/temp581529840236588062208.mlir:8:14: remark: operation has no memory effects
    %cst_2 = arith.constant 0x4E34CF3E : f32
             ^
generated/temp581529840236588062208.mlir:8:14: note: see current operation: %cst_2 = arith.constant 0x4E34CF3E : f32
generated/temp581529840236588062208.mlir:9:14: remark: operation has no memory effects
    %cst_3 = arith.constant 1.539200e+04 : f16
             ^
generated/temp581529840236588062208.mlir:9:14: note: see current operation: %cst_3 = arith.constant 1.539200e+04 : f16
generated/temp581529840236588062208.mlir:10:24: remark: operation has no memory effects
    %c1712353702_i64 = arith.constant 1712353702 : i64
                       ^
generated/temp581529840236588062208.mlir:10:24: note: see current operation: %c1712353702_i64 = arith.constant 1712353702 : i64
generated/temp581529840236588062208.mlir:11:13: remark: operation has no memory effects
    %true = arith.constant true
            ^
generated/temp581529840236588062208.mlir:11:13: note: see current operation: %true = arith.constant true
generated/temp581529840236588062208.mlir:12:15: remark: operation has no memory effects
    %true_4 = arith.constant true
              ^
generated/temp581529840236588062208.mlir:12:15: note: see current operation: %true_4 = arith.constant true
generated/temp581529840236588062208.mlir:13:24: remark: operation has no memory effects
    %c1268563714_i32 = arith.constant 1268563714 : i32
                       ^
generated/temp581529840236588062208.mlir:13:24: note: see current operation: %c1268563714_i32 = arith.constant 1268563714 : i32
generated/temp581529840236588062208.mlir:14:15: remark: operation has no memory effects
    %true_5 = arith.constant true
              ^
generated/temp581529840236588062208.mlir:14:15: note: see current operation: %true_5 = arith.constant true
generated/temp581529840236588062208.mlir:15:14: remark: operation has no memory effects
    %cst_6 = arith.constant 9.304000e+03 : f16
             ^
generated/temp581529840236588062208.mlir:15:14: note: see current operation: %cst_6 = arith.constant 9.304000e+03 : f16
generated/temp581529840236588062208.mlir:16:14: remark: operation has no memory effects
    %cst_7 = arith.constant 1.25958618E+9 : f32
             ^
generated/temp581529840236588062208.mlir:16:14: note: see current operation: %cst_7 = arith.constant 1.25958618E+9 : f32
generated/temp581529840236588062208.mlir:17:21: remark: operation has no memory effects
    %c6979223_i64 = arith.constant 6979223 : i64
                    ^
generated/temp581529840236588062208.mlir:17:21: note: see current operation: %c6979223_i64 = arith.constant 6979223 : i64
generated/temp581529840236588062208.mlir:18:14: remark: operation has no memory effects
    %cst_8 = arith.constant 1.04868096E+9 : f32
             ^
generated/temp581529840236588062208.mlir:18:14: note: see current operation: %cst_8 = arith.constant 1.04868096E+9 : f32
generated/temp581529840236588062208.mlir:19:11: remark: operation has no memory effects
    %c0 = arith.constant 0 : index
          ^
generated/temp581529840236588062208.mlir:19:11: note: see current operation: %c0 = arith.constant 0 : index
generated/temp581529840236588062208.mlir:20:11: remark: operation has no memory effects
    %c1 = arith.constant 1 : index
          ^
generated/temp581529840236588062208.mlir:20:11: note: see current operation: %c1 = arith.constant 1 : index
generated/temp581529840236588062208.mlir:21:11: remark: operation has no memory effects
    %c2 = arith.constant 2 : index
          ^
generated/temp581529840236588062208.mlir:21:11: note: see current operation: %c2 = arith.constant 2 : index
generated/temp581529840236588062208.mlir:22:11: remark: operation has no memory effects
    %c3 = arith.constant 3 : index
          ^
generated/temp581529840236588062208.mlir:22:11: note: see current operation: %c3 = arith.constant 3 : index
generated/temp581529840236588062208.mlir:23:11: remark: operation has no memory effects
    %c4 = arith.constant 4 : index
          ^
generated/temp581529840236588062208.mlir:23:11: note: see current operation: %c4 = arith.constant 4 : index
generated/temp581529840236588062208.mlir:24:11: remark: operation has no memory effects
    %c5 = arith.constant 5 : index
          ^
generated/temp581529840236588062208.mlir:24:11: note: see current operation: %c5 = arith.constant 5 : index
generated/temp581529840236588062208.mlir:25:11: remark: operation has no memory effects
    %c6 = arith.constant 6 : index
          ^
generated/temp581529840236588062208.mlir:25:11: note: see current operation: %c6 = arith.constant 6 : index
generated/temp581529840236588062208.mlir:26:11: remark: operation has no memory effects
    %c7 = arith.constant 7 : index
          ^
generated/temp581529840236588062208.mlir:26:11: note: see current operation: %c7 = arith.constant 7 : index
generated/temp581529840236588062208.mlir:27:11: remark: operation has no memory effects
    %c8 = arith.constant 8 : index
          ^
generated/temp581529840236588062208.mlir:27:11: note: see current operation: %c8 = arith.constant 8 : index
generated/temp581529840236588062208.mlir:28:11: remark: operation has no memory effects
    %c9 = arith.constant 9 : index
          ^
generated/temp581529840236588062208.mlir:28:11: note: see current operation: %c9 = arith.constant 9 : index
generated/temp581529840236588062208.mlir:29:12: remark: operation has no memory effects
    %c10 = arith.constant 10 : index
           ^
generated/temp581529840236588062208.mlir:29:12: note: see current operation: %c10 = arith.constant 10 : index
generated/temp581529840236588062208.mlir:30:12: remark: operation has no memory effects
    %c11 = arith.constant 11 : index
           ^
generated/temp581529840236588062208.mlir:30:12: note: see current operation: %c11 = arith.constant 11 : index
generated/temp581529840236588062208.mlir:31:12: remark: operation has no memory effects
    %c12 = arith.constant 12 : index
           ^
generated/temp581529840236588062208.mlir:31:12: note: see current operation: %c12 = arith.constant 12 : index
generated/temp581529840236588062208.mlir:32:12: remark: operation has no memory effects
    %c13 = arith.constant 13 : index
           ^
generated/temp581529840236588062208.mlir:32:12: note: see current operation: %c13 = arith.constant 13 : index
generated/temp581529840236588062208.mlir:33:12: remark: operation has no memory effects
    %c14 = arith.constant 14 : index
           ^
generated/temp581529840236588062208.mlir:33:12: note: see current operation: %c14 = arith.constant 14 : index
generated/temp581529840236588062208.mlir:34:12: remark: operation has no memory effects
    %c15 = arith.constant 15 : index
           ^
generated/temp581529840236588062208.mlir:34:12: note: see current operation: %c15 = arith.constant 15 : index
generated/temp581529840236588062208.mlir:35:12: remark: operation has no memory effects
    %c16 = arith.constant 16 : index
           ^
generated/temp581529840236588062208.mlir:35:12: note: see current operation: %c16 = arith.constant 16 : index
generated/temp581529840236588062208.mlir:36:12: remark: operation has no memory effects
    %c17 = arith.constant 17 : index
           ^
generated/temp581529840236588062208.mlir:36:12: note: see current operation: %c17 = arith.constant 17 : index
generated/temp581529840236588062208.mlir:37:12: remark: operation has no memory effects
    %c18 = arith.constant 18 : index
           ^
generated/temp581529840236588062208.mlir:37:12: note: see current operation: %c18 = arith.constant 18 : index
generated/temp581529840236588062208.mlir:38:12: remark: operation has no memory effects
    %c19 = arith.constant 19 : index
           ^
generated/temp581529840236588062208.mlir:38:12: note: see current operation: %c19 = arith.constant 19 : index
generated/temp581529840236588062208.mlir:39:12: remark: operation has no memory effects
    %c20 = arith.constant 20 : index
           ^
generated/temp581529840236588062208.mlir:39:12: note: see current operation: %c20 = arith.constant 20 : index
generated/temp581529840236588062208.mlir:40:12: remark: operation has no memory effects
    %c21 = arith.constant 21 : index
           ^
generated/temp581529840236588062208.mlir:40:12: note: see current operation: %c21 = arith.constant 21 : index
generated/temp581529840236588062208.mlir:41:12: remark: operation has no memory effects
    %c22 = arith.constant 22 : index
           ^
generated/temp581529840236588062208.mlir:41:12: note: see current operation: %c22 = arith.constant 22 : index
generated/temp581529840236588062208.mlir:42:12: remark: operation has no memory effects
    %c23 = arith.constant 23 : index
           ^
generated/temp581529840236588062208.mlir:42:12: note: see current operation: %c23 = arith.constant 23 : index
generated/temp581529840236588062208.mlir:43:12: remark: operation has no memory effects
    %c24 = arith.constant 24 : index
           ^
generated/temp581529840236588062208.mlir:43:12: note: see current operation: %c24 = arith.constant 24 : index
generated/temp581529840236588062208.mlir:44:12: remark: operation has no memory effects
    %c25 = arith.constant 25 : index
           ^
generated/temp581529840236588062208.mlir:44:12: note: see current operation: %c25 = arith.constant 25 : index
generated/temp581529840236588062208.mlir:45:12: remark: operation has no memory effects
    %c26 = arith.constant 26 : index
           ^
generated/temp581529840236588062208.mlir:45:12: note: see current operation: %c26 = arith.constant 26 : index
generated/temp581529840236588062208.mlir:46:12: remark: operation has no memory effects
    %c27 = arith.constant 27 : index
           ^
generated/temp581529840236588062208.mlir:46:12: note: see current operation: %c27 = arith.constant 27 : index
generated/temp581529840236588062208.mlir:47:12: remark: operation has no memory effects
    %c28 = arith.constant 28 : index
           ^
generated/temp581529840236588062208.mlir:47:12: note: see current operation: %c28 = arith.constant 28 : index
generated/temp581529840236588062208.mlir:48:12: remark: operation has no memory effects
    %c29 = arith.constant 29 : index
           ^
generated/temp581529840236588062208.mlir:48:12: note: see current operation: %c29 = arith.constant 29 : index
generated/temp581529840236588062208.mlir:49:12: remark: operation has no memory effects
    %c30 = arith.constant 30 : index
           ^
generated/temp581529840236588062208.mlir:49:12: note: see current operation: %c30 = arith.constant 30 : index
generated/temp581529840236588062208.mlir:50:12: remark: operation has no memory effects
    %c31 = arith.constant 31 : index
           ^
generated/temp581529840236588062208.mlir:50:12: note: see current operation: %c31 = arith.constant 31 : index
generated/temp581529840236588062208.mlir:51:10: remark: operation has no memory effects
    %0 = tensor.empty(%c26, %c18, %c17) : tensor<?x?x?xi64>
         ^
generated/temp581529840236588062208.mlir:51:10: note: see current operation: %0 = tensor.empty(%c26, %c18, %c17) : tensor<?x?x?xi64>
generated/temp581529840236588062208.mlir:52:10: remark: operation has no memory effects
    %1 = tensor.empty(%c0, %c9) : tensor<?x?xi32>
         ^
generated/temp581529840236588062208.mlir:52:10: note: see current operation: %1 = tensor.empty(%c0, %c9) : tensor<?x?xi32>
generated/temp581529840236588062208.mlir:53:10: remark: operation has no memory effects
    %2 = tensor.empty() : tensor<5x20x20xf16>
         ^
generated/temp581529840236588062208.mlir:53:10: note: see current operation: %2 = tensor.empty() : tensor<5x20x20xf16>
generated/temp581529840236588062208.mlir:54:10: remark: operation has no memory effects
    %3 = tensor.empty() : tensor<5x20x20xi32>
         ^
generated/temp581529840236588062208.mlir:54:10: note: see current operation: %3 = tensor.empty() : tensor<5x20x20xi32>
generated/temp581529840236588062208.mlir:55:10: remark: operation has no memory effects
    %4 = tensor.empty() : tensor<5x5xi16>
         ^
generated/temp581529840236588062208.mlir:55:10: note: see current operation: %4 = tensor.empty() : tensor<5x5xi16>
generated/temp581529840236588062208.mlir:56:10: remark: operation has no memory effects
    %5 = tensor.empty() : tensor<5x5xf16>
         ^
generated/temp581529840236588062208.mlir:56:10: note: see current operation: %5 = tensor.empty() : tensor<5x5xf16>
generated/temp581529840236588062208.mlir:57:10: remark: operation has no memory effects
    %6 = tensor.empty(%c18, %c30) : tensor<?x?xf32>
         ^
generated/temp581529840236588062208.mlir:57:10: note: see current operation: %6 = tensor.empty(%c18, %c30) : tensor<?x?xf32>
generated/temp581529840236588062208.mlir:58:10: remark: operation has no memory effects
    %7 = tensor.empty(%c29) : tensor<?x27x5xf16>
         ^
generated/temp581529840236588062208.mlir:58:10: note: see current operation: %7 = tensor.empty(%c29) : tensor<?x27x5xf16>
generated/temp581529840236588062208.mlir:59:10: remark: operation has no memory effects
    %8 = tensor.empty(%c26, %c28) : tensor<?x?x20xf32>
         ^
generated/temp581529840236588062208.mlir:59:10: note: see current operation: %8 = tensor.empty(%c26, %c28) : tensor<?x?x20xf32>
generated/temp581529840236588062208.mlir:60:10: remark: operation has no memory effects
    %9 = tensor.empty(%c16, %c25) : tensor<?x?x20xi32>
         ^
generated/temp581529840236588062208.mlir:60:10: note: see current operation: %9 = tensor.empty(%c16, %c25) : tensor<?x?x20xi32>
generated/temp581529840236588062208.mlir:61:11: remark: operation has no memory effects
    %10 = tensor.empty() : tensor<5x20x20xf16>
          ^
generated/temp581529840236588062208.mlir:61:11: note: see current operation: %10 = tensor.empty() : tensor<5x20x20xf16>
generated/temp581529840236588062208.mlir:62:11: remark: operation has no memory effects
    %11 = tensor.empty(%c3) : tensor<?x5xi64>
          ^
generated/temp581529840236588062208.mlir:62:11: note: see current operation: %11 = tensor.empty(%c3) : tensor<?x5xi64>
generated/temp581529840236588062208.mlir:63:11: remark: operation has no memory effects
    %12 = tensor.empty(%c26, %c30) : tensor<?x?xi1>
          ^
generated/temp581529840236588062208.mlir:63:11: note: see current operation: %12 = tensor.empty(%c26, %c30) : tensor<?x?xi1>
generated/temp581529840236588062208.mlir:64:11: remark: operation has no memory effects
    %13 = tensor.empty() : tensor<5x5xi64>
          ^
generated/temp581529840236588062208.mlir:64:11: note: see current operation: %13 = tensor.empty() : tensor<5x5xi64>
generated/temp581529840236588062208.mlir:65:11: remark: operation has no memory effects
    %14 = tensor.empty(%c16, %c20) : tensor<?x?x5xi1>
          ^
generated/temp581529840236588062208.mlir:65:11: note: see current operation: %14 = tensor.empty(%c16, %c20) : tensor<?x?x5xi1>
generated/temp581529840236588062208.mlir:66:11: remark: operation has no memory effects
    %15 = tensor.empty() : tensor<5x20x20xf16>
          ^
generated/temp581529840236588062208.mlir:66:11: note: see current operation: %15 = tensor.empty() : tensor<5x20x20xf16>
generated/temp581529840236588062208.mlir:67:14: remark: found an instance of 'allocate' on a value, on resource '<Default>'
    %alloc = memref.alloc(%c24, %c2, %c21) : memref<?x?x?xi1>
             ^
generated/temp581529840236588062208.mlir:67:14: note: see current operation: %alloc = memref.alloc(%c24, %c2, %c21) : memref<?x?x?xi1>
generated/temp581529840236588062208.mlir:68:16: remark: found an instance of 'allocate' on a value, on resource '<Default>'
    %alloc_9 = memref.alloc(%c20, %c4, %c17) : memref<?x?x?xi64>
               ^
generated/temp581529840236588062208.mlir:68:16: note: see current operation: %alloc_9 = memref.alloc(%c20, %c4, %c17) : memref<?x?x?xi64>
generated/temp581529840236588062208.mlir:69:17: remark: found an instance of 'allocate' on a value, on resource '<Default>'
    %alloc_10 = memref.alloc(%c3, %c21) : memref<?x?xf16>
                ^
generated/temp581529840236588062208.mlir:69:17: note: see current operation: %alloc_10 = memref.alloc(%c3, %c21) : memref<?x?xf16>
generated/temp581529840236588062208.mlir:70:17: remark: found an instance of 'allocate' on a value, on resource '<Default>'
    %alloc_11 = memref.alloc(%c24, %c12) : memref<?x?xi1>
                ^
generated/temp581529840236588062208.mlir:70:17: note: see current operation: %alloc_11 = memref.alloc(%c24, %c12) : memref<?x?xi1>
generated/temp581529840236588062208.mlir:71:17: remark: found an instance of 'allocate' on a value, on resource '<Default>'
    %alloc_12 = memref.alloc(%c5) : memref<?x20x20xi64>
                ^
generated/temp581529840236588062208.mlir:71:17: note: see current operation: %alloc_12 = memref.alloc(%c5) : memref<?x20x20xi64>
generated/temp581529840236588062208.mlir:72:17: remark: found an instance of 'allocate' on a value, on resource '<Default>'
    %alloc_13 = memref.alloc() : memref<5x5xi1>
                ^
generated/temp581529840236588062208.mlir:72:17: note: see current operation: %alloc_13 = memref.alloc() : memref<5x5xi1>
generated/temp581529840236588062208.mlir:73:17: remark: found an instance of 'allocate' on a value, on resource '<Default>'
    %alloc_14 = memref.alloc() : memref<5x20x20xf32>
                ^
generated/temp581529840236588062208.mlir:73:17: note: see current operation: %alloc_14 = memref.alloc() : memref<5x20x20xf32>
generated/temp581529840236588062208.mlir:74:17: remark: found an instance of 'allocate' on a value, on resource '<Default>'
    %alloc_15 = memref.alloc() : memref<5x5xf32>
                ^
generated/temp581529840236588062208.mlir:74:17: note: see current operation: %alloc_15 = memref.alloc() : memref<5x5xf32>
generated/temp581529840236588062208.mlir:75:17: remark: found an instance of 'allocate' on a value, on resource '<Default>'
    %alloc_16 = memref.alloc(%c2) : memref<?x20x20xf16>
                ^
generated/temp581529840236588062208.mlir:75:17: note: see current operation: %alloc_16 = memref.alloc(%c2) : memref<?x20x20xf16>
generated/temp581529840236588062208.mlir:76:17: remark: found an instance of 'allocate' on a value, on resource '<Default>'
    %alloc_17 = memref.alloc(%c28, %c31, %c28) : memref<?x?x?xi64>
                ^
generated/temp581529840236588062208.mlir:76:17: note: see current operation: %alloc_17 = memref.alloc(%c28, %c31, %c28) : memref<?x?x?xi64>
generated/temp581529840236588062208.mlir:77:17: remark: found an instance of 'allocate' on a value, on resource '<Default>'
    %alloc_18 = memref.alloc(%c21, %c9) : memref<?x?x20xf32>
                ^
generated/temp581529840236588062208.mlir:77:17: note: see current operation: %alloc_18 = memref.alloc(%c21, %c9) : memref<?x?x20xf32>
generated/temp581529840236588062208.mlir:78:17: remark: found an instance of 'allocate' on a value, on resource '<Default>'
    %alloc_19 = memref.alloc(%c17, %c10) : memref<?x?xi64>
                ^
generated/temp581529840236588062208.mlir:78:17: note: see current operation: %alloc_19 = memref.alloc(%c17, %c10) : memref<?x?xi64>
generated/temp581529840236588062208.mlir:79:17: remark: found an instance of 'allocate' on a value, on resource '<Default>'
    %alloc_20 = memref.alloc(%c18, %c29) : memref<?x?xi32>
                ^
generated/temp581529840236588062208.mlir:79:17: note: see current operation: %alloc_20 = memref.alloc(%c18, %c29) : memref<?x?xi32>
generated/temp581529840236588062208.mlir:80:17: remark: found an instance of 'allocate' on a value, on resource '<Default>'
    %alloc_21 = memref.alloc() : memref<5x27x5xi16>
                ^
generated/temp581529840236588062208.mlir:80:17: note: see current operation: %alloc_21 = memref.alloc() : memref<5x27x5xi16>
generated/temp581529840236588062208.mlir:81:17: remark: found an instance of 'allocate' on a value, on resource '<Default>'
    %alloc_22 = memref.alloc() : memref<5x20x20xf32>
                ^
generated/temp581529840236588062208.mlir:81:17: note: see current operation: %alloc_22 = memref.alloc() : memref<5x20x20xf32>
generated/temp581529840236588062208.mlir:82:17: remark: found an instance of 'allocate' on a value, on resource '<Default>'
    %alloc_23 = memref.alloc() : memref<5x20x20xi16>
                ^
generated/temp581529840236588062208.mlir:82:17: note: see current operation: %alloc_23 = memref.alloc() : memref<5x20x20xi16>
generated/temp581529840236588062208.mlir:83:11: remark: operation has no memory effects
    %16 = spirv.CL.fabs %cst : f16
          ^
generated/temp581529840236588062208.mlir:83:11: note: see current operation: %16 = spirv.CL.fabs %cst : f16
generated/temp581529840236588062208.mlir:84:11: remark: operation has no memory effects
    %17 = spirv.GL.Atan %cst_1 : f16
          ^
generated/temp581529840236588062208.mlir:84:11: note: see current operation: %17 = spirv.GL.Atan %cst_1 : f16
generated/temp581529840236588062208.mlir:85:11: remark: operation has no memory effects
    %18 = spirv.GL.SMin %c1712353702_i64, %c1712353702_i64 : i64
          ^
generated/temp581529840236588062208.mlir:85:11: note: see current operation: %18 = spirv.GL.SMin %c1712353702_i64, %c1712353702_i64 : i64
generated/temp581529840236588062208.mlir:86:11: remark: operation has no memory effects
    %19 = spirv.FUnordNotEqual %cst_1, %cst_0 : f16
          ^
generated/temp581529840236588062208.mlir:86:11: note: see current operation: %19 = spirv.FUnordNotEqual %cst_1, %cst_0 : f16
generated/temp581529840236588062208.mlir:87:11: remark: found an instance of 'read' on a value, on resource '<Default>'
    %20 = memref.load %alloc_19[%c0, %c0] : memref<?x?xi64>
          ^
generated/temp581529840236588062208.mlir:87:11: note: see current operation: %20 = memref.load %alloc_19[%c0, %c0] : memref<?x?xi64>
generated/temp581529840236588062208.mlir:88:11: remark: operation has no memory effects
    %21 = spirv.INotEqual %c6979223_i64, %c1712353702_i64 : i64
          ^
generated/temp581529840236588062208.mlir:88:11: note: see current operation: %21 = spirv.INotEqual %c6979223_i64, %c1712353702_i64 : i64
generated/temp581529840236588062208.mlir:89:11: remark: operation has no memory effects
    %22 = spirv.GL.UMax %c26224_i16, %c26224_i16 : i16
          ^
generated/temp581529840236588062208.mlir:89:11: note: see current operation: %22 = spirv.GL.UMax %c26224_i16, %c26224_i16 : i16
generated/temp581529840236588062208.mlir:90:11: remark: operation has no memory effects
    %23 = math.atan2 %5, %5 : tensor<5x5xf16>
          ^
generated/temp581529840236588062208.mlir:90:11: note: see current operation: %23 = math.atan2 %5, %5 : tensor<5x5xf16>
generated/temp581529840236588062208.mlir:91:11: remark: operation has no memory effects
    %24 = math.log %cst_7 : f32
          ^
generated/temp581529840236588062208.mlir:91:11: note: see current operation: %24 = math.log %cst_7 : f32
generated/temp581529840236588062208.mlir:92:11: remark: operation has no memory effects
    %25 = arith.floordivsi %18, %c1712353702_i64 : i64
          ^
generated/temp581529840236588062208.mlir:92:11: note: see current operation: %25 = arith.floordivsi %18, %c1712353702_i64 : i64
generated/temp581529840236588062208.mlir:94:14: remark: operation has no memory effects
      %131 = math.round %cst_2 : f32
             ^
generated/temp581529840236588062208.mlir:94:14: note: see current operation: %131 = math.round %cst_2 : f32
generated/temp581529840236588062208.mlir:95:14: remark: operation has no memory effects
      %132 = vector.broadcast %cst_0 : f16 to vector<27xf16>
             ^
generated/temp581529840236588062208.mlir:95:14: note: see current operation: %132 = vector.broadcast %cst_0 : f16 to vector<27xf16>
generated/temp581529840236588062208.mlir:96:14: remark: operation has no memory effects
      %133 = vector.broadcast %false : i1 to vector<27xi1>
             ^
generated/temp581529840236588062208.mlir:96:14: note: see current operation: %133 = vector.broadcast %false : i1 to vector<27xi1>
generated/temp581529840236588062208.mlir:97:7: remark: found an instance of 'write' on a value, on resource '<Default>'
      vector.compressstore %alloc_16[%c0, %c7, %c13], %133, %132 : memref<?x20x20xf16>, vector<27xi1>, vector<27xf16>
      ^
generated/temp581529840236588062208.mlir:97:7: note: see current operation: vector.compressstore %alloc_16[%c0, %c7, %c13], %133, %132 : memref<?x20x20xf16>, vector<27xi1>, vector<27xf16>
generated/temp581529840236588062208.mlir:98:14: remark: found an instance of 'read' on a value, on resource '<Default>'
      %134 = memref.load %alloc_19[%c0, %c0] : memref<?x?xi64>
             ^
generated/temp581529840236588062208.mlir:98:14: note: see current operation: %134 = memref.load %alloc_19[%c0, %c0] : memref<?x?xi64>
generated/temp581529840236588062208.mlir:99:14: remark: operation has no memory effects
      %135 = tensor.empty(%c3, %c18) : tensor<?x?xi64>
             ^
generated/temp581529840236588062208.mlir:99:14: note: see current operation: %135 = tensor.empty(%c3, %c18) : tensor<?x?xi64>
generated/temp581529840236588062208.mlir:100:14: remark: operation has no memory effects
      %136 = arith.cmpi ne, %c26224_i16, %22 : i16
             ^
generated/temp581529840236588062208.mlir:100:14: note: see current operation: %136 = arith.cmpi ne, %c26224_i16, %22 : i16
generated/temp581529840236588062208.mlir:101:14: remark: operation has no memory effects
      %137 = index.or %c13, %c28
             ^
generated/temp581529840236588062208.mlir:101:14: note: see current operation: %137 = index.or %c13, %c28
generated/temp581529840236588062208.mlir:102:14: remark: operation has no memory effects
      %dim = tensor.dim %15, %c2 : tensor<5x20x20xf16>
             ^
generated/temp581529840236588062208.mlir:102:14: note: see current operation: %dim = tensor.dim %15, %c2 : tensor<5x20x20xf16>
generated/temp581529840236588062208.mlir:103:16: remark: operation has no memory effects
      %splat = tensor.splat %19 : tensor<5x5xi1>
               ^
generated/temp581529840236588062208.mlir:103:16: note: see current operation: %splat = tensor.splat %19 : tensor<5x5xi1>
generated/temp581529840236588062208.mlir:104:7: remark: operation has no memory effects
      scf.condition(%19) %c26224_i16 : i16
      ^
generated/temp581529840236588062208.mlir:104:7: note: see current operation: scf.condition(%19) %c26224_i16 : i16
generated/temp581529840236588062208.mlir:107:7: remark: found an instance of 'read' on a value, on resource '<Default>'
      memref.copy %alloc_18, %alloc_18 : memref<?x?x20xf32> to memref<?x?x20xf32>
      ^
generated/temp581529840236588062208.mlir:107:7: note: see current operation: memref.copy %alloc_18, %alloc_18 : memref<?x?x20xf32> to memref<?x?x20xf32>
generated/temp581529840236588062208.mlir:107:7: remark: found an instance of 'write' on a value, on resource '<Default>'
      memref.copy %alloc_18, %alloc_18 : memref<?x?x20xf32> to memref<?x?x20xf32>
      ^
generated/temp581529840236588062208.mlir:107:7: note: see current operation: memref.copy %alloc_18, %alloc_18 : memref<?x?x20xf32> to memref<?x?x20xf32>
generated/temp581529840236588062208.mlir:108:14: remark: operation has no memory effects
      %131 = math.round %2 : tensor<5x20x20xf16>
             ^
generated/temp581529840236588062208.mlir:108:14: note: see current operation: %131 = math.round %2 : tensor<5x20x20xf16>
generated/temp581529840236588062208.mlir:109:14: remark: operation has no memory effects
      %132 = arith.remui %false, %true_4 : i1
             ^
generated/temp581529840236588062208.mlir:109:14: note: see current operation: %132 = arith.remui %false, %true_4 : i1
generated/temp581529840236588062208.mlir:110:19: remark: found an instance of 'allocate' on a value, on resource '<Default>'
      %alloc_30 = memref.alloc(%c1, %c1, %c19) : memref<?x?x?x27xi64>
                  ^
generated/temp581529840236588062208.mlir:110:19: note: see current operation: %alloc_30 = memref.alloc(%c1, %c1, %c19) : memref<?x?x?x27xi64>
generated/temp581529840236588062208.mlir:111:7: remark: operation has no memory effects
      linalg.broadcast ins(%0 : tensor<?x?x?xi64>) outs(%alloc_30 : memref<?x?x?x27xi64>) dimensions = [3] 
      ^
generated/temp581529840236588062208.mlir:111:7: note: see current operation: linalg.yield %arg1 : i64
generated/temp581529840236588062208.mlir:111:7: remark: found an instance of 'read' on a value, on resource '<Default>'
      linalg.broadcast ins(%0 : tensor<?x?x?xi64>) outs(%alloc_30 : memref<?x?x?x27xi64>) dimensions = [3] 
      ^
generated/temp581529840236588062208.mlir:111:7: note: see current operation: linalg.broadcast ins(%0 : tensor<?x?x?xi64>) outs(%alloc_30 : memref<?x?x?x27xi64>) dimensions = [3] 
generated/temp581529840236588062208.mlir:111:7: remark: found an instance of 'write' on a value, on resource '<Default>'
      linalg.broadcast ins(%0 : tensor<?x?x?xi64>) outs(%alloc_30 : memref<?x?x?x27xi64>) dimensions = [3] 
      ^
generated/temp581529840236588062208.mlir:111:7: note: see current operation: linalg.broadcast ins(%0 : tensor<?x?x?xi64>) outs(%alloc_30 : memref<?x?x?x27xi64>) dimensions = [3] 
generated/temp581529840236588062208.mlir:112:14: remark: operation has no memory effects
      %133 = vector.broadcast %cst_8 : f32 to vector<1xf32>
             ^
generated/temp581529840236588062208.mlir:112:14: note: see current operation: %133 = vector.broadcast %cst_8 : f32 to vector<1xf32>
generated/temp581529840236588062208.mlir:113:14: remark: operation has no memory effects
      %134 = vector.multi_reduction <mul>, %133, %133 [] : vector<1xf32> to vector<1xf32>
             ^
generated/temp581529840236588062208.mlir:113:14: note: see current operation: %134 = vector.multi_reduction <mul>, %133, %133 [] : vector<1xf32> to vector<1xf32>
generated/temp581529840236588062208.mlir:114:14: remark: found an instance of 'read' on a value, on resource '<Default>'
      %135 = affine.vector_load %alloc_10[%c26, %c15] : memref<?x?xf16>, vector<20xf16>
             ^
generated/temp581529840236588062208.mlir:114:14: note: see current operation: %135 = affine.vector_load %alloc_10[%c26, %c15] : memref<?x?xf16>, vector<20xf16>
generated/temp581529840236588062208.mlir:115:14: remark: operation has no memory effects
      %136 = math.copysign %16, %17 : f16
             ^
generated/temp581529840236588062208.mlir:115:14: note: see current operation: %136 = math.copysign %16, %17 : f16
generated/temp581529840236588062208.mlir:116:14: remark: operation has no memory effects
      %137 = vector.shuffle %133, %133 [0] : vector<1xf32>, vector<1xf32>
             ^
generated/temp581529840236588062208.mlir:116:14: note: see current operation: %137 = vector.shuffle %133, %133 [0] : vector<1xf32>, vector<1xf32>
generated/temp581529840236588062208.mlir:117:14: remark: operation has no memory effects
      %138 = arith.negf %cst : f16
             ^
generated/temp581529840236588062208.mlir:117:14: note: see current operation: %138 = arith.negf %cst : f16
generated/temp581529840236588062208.mlir:118:14: remark: operation has no memory effects
      %139 = index.ceildivu %c12, %c15
             ^
generated/temp581529840236588062208.mlir:118:14: note: see current operation: %139 = index.ceildivu %c12, %c15
generated/temp581529840236588062208.mlir:119:14: remark: operation has no memory effects
      %140 = affine.apply affine_map<(d0, d1, d2) -> ((-d0 - d2) mod 2)>(%c2, %c16, %c9)
             ^
generated/temp581529840236588062208.mlir:119:14: note: see current operation: %140 = affine.apply affine_map<(d0, d1, d2) -> ((-d0 - d2) mod 2)>(%c2, %c16, %c9)
<unknown>:0: remark: operation has no memory effects
<unknown>:0: note: see current operation: linalg.yield %arg1 : i32
generated/temp581529840236588062208.mlir:120:14: remark: operation has no memory effects
      %141 = linalg.copy ins(%1 : tensor<?x?xi32>) outs(%1 : tensor<?x?xi32>) -> tensor<?x?xi32>
             ^
generated/temp581529840236588062208.mlir:120:14: note: see current operation: %141 = linalg.copy ins(%1 : tensor<?x?xi32>) outs(%1 : tensor<?x?xi32>) -> tensor<?x?xi32>
generated/temp581529840236588062208.mlir:121:14: remark: operation has no memory effects
      %142 = vector.bitcast %133 : vector<1xf32> to vector<1xf32>
             ^
generated/temp581529840236588062208.mlir:121:14: note: see current operation: %142 = vector.bitcast %133 : vector<1xf32> to vector<1xf32>
generated/temp581529840236588062208.mlir:123:14: remark: operation has no memory effects
      %143 = math.tan %cst_3 : f16
             ^
generated/temp581529840236588062208.mlir:123:14: note: see current operation: %143 = math.tan %cst_3 : f16
generated/temp581529840236588062208.mlir:124:14: remark: operation has no memory effects
      %144 = math.ctpop %3 : tensor<5x20x20xi32>
             ^
generated/temp581529840236588062208.mlir:124:14: note: see current operation: %144 = math.ctpop %3 : tensor<5x20x20xi32>
generated/temp581529840236588062208.mlir:125:7: remark: operation has no memory effects
      scf.yield %arg0 : i16
      ^
generated/temp581529840236588062208.mlir:125:7: note: see current operation: scf.yield %arg0 : i16
generated/temp581529840236588062208.mlir:127:5: remark: found an instance of 'read' on a value, on resource '<Default>'
    memref.copy %alloc_16, %alloc_16 : memref<?x20x20xf16> to memref<?x20x20xf16>
    ^
generated/temp581529840236588062208.mlir:127:5: note: see current operation: memref.copy %alloc_16, %alloc_16 : memref<?x20x20xf16> to memref<?x20x20xf16>
generated/temp581529840236588062208.mlir:127:5: remark: found an instance of 'write' on a value, on resource '<Default>'
    memref.copy %alloc_16, %alloc_16 : memref<?x20x20xf16> to memref<?x20x20xf16>
    ^
generated/temp581529840236588062208.mlir:127:5: note: see current operation: memref.copy %alloc_16, %alloc_16 : memref<?x20x20xf16> to memref<?x20x20xf16>
generated/temp581529840236588062208.mlir:128:11: remark: operation has no memory effects
    %27 = spirv.LogicalOr %false, %false : i1
          ^
generated/temp581529840236588062208.mlir:128:11: note: see current operation: %27 = spirv.LogicalOr %false, %false : i1
generated/temp581529840236588062208.mlir:129:11: remark: operation has no memory effects
    %28 = math.ctpop %9 : tensor<?x?x20xi32>
          ^
generated/temp581529840236588062208.mlir:129:11: note: see current operation: %28 = math.ctpop %9 : tensor<?x?x20xi32>
generated/temp581529840236588062208.mlir:130:11: remark: operation has no memory effects
    %29 = spirv.GL.UClamp %22, %c26224_i16, %c26224_i16 : i16
          ^
generated/temp581529840236588062208.mlir:130:11: note: see current operation: %29 = spirv.GL.UClamp %22, %c26224_i16, %c26224_i16 : i16
generated/temp581529840236588062208.mlir:131:5: remark: found an instance of 'read' on a value, on resource '<Default>'
    memref.copy %alloc_18, %alloc_18 : memref<?x?x20xf32> to memref<?x?x20xf32>
    ^
generated/temp581529840236588062208.mlir:131:5: note: see current operation: memref.copy %alloc_18, %alloc_18 : memref<?x?x20xf32> to memref<?x?x20xf32>
generated/temp581529840236588062208.mlir:131:5: remark: found an instance of 'write' on a value, on resource '<Default>'
    memref.copy %alloc_18, %alloc_18 : memref<?x?x20xf32> to memref<?x?x20xf32>
    ^
generated/temp581529840236588062208.mlir:131:5: note: see current operation: memref.copy %alloc_18, %alloc_18 : memref<?x?x20xf32> to memref<?x?x20xf32>
generated/temp581529840236588062208.mlir:132:11: remark: operation has no memory effects
    %30 = spirv.CL.fabs %cst : f16
          ^
generated/temp581529840236588062208.mlir:132:11: note: see current operation: %30 = spirv.CL.fabs %cst : f16
generated/temp581529840236588062208.mlir:133:11: remark: operation has no memory effects
    %31 = index.or %c3, %c23
          ^
generated/temp581529840236588062208.mlir:133:11: note: see current operation: %31 = index.or %c3, %c23
generated/temp581529840236588062208.mlir:134:11: remark: operation has no memory effects
    %32 = math.ceil %cst_8 : f32
          ^
generated/temp581529840236588062208.mlir:134:11: note: see current operation: %32 = math.ceil %cst_8 : f32
generated/temp581529840236588062208.mlir:135:11: remark: operation has no memory effects
    %33 = spirv.GL.FAbs %30 : f16
          ^
generated/temp581529840236588062208.mlir:135:11: note: see current operation: %33 = spirv.GL.FAbs %30 : f16
generated/temp581529840236588062208.mlir:136:11: remark: operation has no memory effects
    %34 = spirv.CL.erf %30 : f16
          ^
generated/temp581529840236588062208.mlir:136:11: note: see current operation: %34 = spirv.CL.erf %30 : f16
generated/temp581529840236588062208.mlir:137:11: remark: operation has no memory effects
    %35 = arith.divui %c26224_i16, %22 : i16
          ^
generated/temp581529840236588062208.mlir:137:11: note: see current operation: %35 = arith.divui %c26224_i16, %22 : i16
generated/temp581529840236588062208.mlir:138:11: remark: found an instance of 'read' on a value, on resource '<Default>'
    %36 = bufferization.clone %alloc_14 : memref<5x20x20xf32> to memref<5x20x20xf32>
          ^
generated/temp581529840236588062208.mlir:138:11: note: see current operation: %36 = bufferization.clone %alloc_14 : memref<5x20x20xf32> to memref<5x20x20xf32>
generated/temp581529840236588062208.mlir:138:11: remark: found an instance of 'write' on a value, on resource '<Default>'
    %36 = bufferization.clone %alloc_14 : memref<5x20x20xf32> to memref<5x20x20xf32>
          ^
generated/temp581529840236588062208.mlir:138:11: note: see current operation: %36 = bufferization.clone %alloc_14 : memref<5x20x20xf32> to memref<5x20x20xf32>
generated/temp581529840236588062208.mlir:138:11: remark: found an instance of 'allocate' on a value, on resource '<Default>'
    %36 = bufferization.clone %alloc_14 : memref<5x20x20xf32> to memref<5x20x20xf32>
          ^
generated/temp581529840236588062208.mlir:138:11: note: see current operation: %36 = bufferization.clone %alloc_14 : memref<5x20x20xf32> to memref<5x20x20xf32>
generated/temp581529840236588062208.mlir:139:11: remark: operation has no memory effects
    %37 = vector.broadcast %c1712353702_i64 : i64 to vector<32xi64>
          ^
generated/temp581529840236588062208.mlir:139:11: note: see current operation: %37 = vector.broadcast %c1712353702_i64 : i64 to vector<32xi64>
generated/temp581529840236588062208.mlir:140:11: remark: operation has no memory effects
    %38 = vector.broadcast %true : i1 to vector<32xi1>
          ^
generated/temp581529840236588062208.mlir:140:11: note: see current operation: %38 = vector.broadcast %true : i1 to vector<32xi1>
generated/temp581529840236588062208.mlir:141:5: remark: found an instance of 'write' on a value, on resource '<Default>'
    vector.compressstore %alloc_9[%c0, %c0, %c0], %38, %37 : memref<?x?x?xi64>, vector<32xi1>, vector<32xi64>
    ^
generated/temp581529840236588062208.mlir:141:5: note: see current operation: vector.compressstore %alloc_9[%c0, %c0, %c0], %38, %37 : memref<?x?x?xi64>, vector<32xi1>, vector<32xi64>
generated/temp581529840236588062208.mlir:142:11: remark: operation has no memory effects
    %39 = spirv.CL.s_min %c6979223_i64, %18 : i64
          ^
generated/temp581529840236588062208.mlir:142:11: note: see current operation: %39 = spirv.CL.s_min %c6979223_i64, %18 : i64
generated/temp581529840236588062208.mlir:143:11: remark: operation has no memory effects
    %40 = spirv.GL.Fma %34, %cst_6, %34 : f16
          ^
generated/temp581529840236588062208.mlir:143:11: note: see current operation: %40 = spirv.GL.Fma %34, %cst_6, %34 : f16
generated/temp581529840236588062208.mlir:144:11: remark: operation has no memory effects
    %41 = spirv.CL.rint %cst_6 : f16
          ^
generated/temp581529840236588062208.mlir:144:11: note: see current operation: %41 = spirv.CL.rint %cst_6 : f16
generated/temp581529840236588062208.mlir:145:11: remark: operation has no memory effects
    %42 = spirv.GL.Asin %16 : f16
          ^
generated/temp581529840236588062208.mlir:145:11: note: see current operation: %42 = spirv.GL.Asin %16 : f16
generated/temp581529840236588062208.mlir:146:11: remark: operation has no memory effects
    %43 = vector.broadcast %c1268563714_i32 : i32 to vector<2xi32>
          ^
generated/temp581529840236588062208.mlir:146:11: note: see current operation: %43 = vector.broadcast %c1268563714_i32 : i32 to vector<2xi32>
generated/temp581529840236588062208.mlir:147:11: remark: operation has no memory effects
    %44 = spirv.BitwiseOr %43, %43 : vector<2xi32>
          ^
generated/temp581529840236588062208.mlir:147:11: note: see current operation: %44 = spirv.BitwiseOr %43, %43 : vector<2xi32>
generated/temp581529840236588062208.mlir:148:11: remark: operation has no memory effects
    %45 = spirv.CL.s_max %22, %29 : i16
          ^
generated/temp581529840236588062208.mlir:148:11: note: see current operation: %45 = spirv.CL.s_max %22, %29 : i16
generated/temp581529840236588062208.mlir:149:11: remark: operation has no memory effects
    %46 = spirv.GL.Asin %40 : f16
          ^
generated/temp581529840236588062208.mlir:149:11: note: see current operation: %46 = spirv.GL.Asin %40 : f16
generated/temp581529840236588062208.mlir:150:11: remark: operation has no memory effects
    %47 = index.maxs %c29, %c3
          ^
generated/temp581529840236588062208.mlir:150:11: note: see current operation: %47 = index.maxs %c29, %c3
generated/temp581529840236588062208.mlir:151:11: remark: operation has no memory effects
    %48 = vector.shuffle %43, %43 [2] : vector<2xi32>, vector<2xi32>
          ^
generated/temp581529840236588062208.mlir:151:11: note: see current operation: %48 = vector.shuffle %43, %43 [2] : vector<2xi32>, vector<2xi32>
generated/temp581529840236588062208.mlir:152:11: remark: operation has no memory effects
    %49 = vector.extract %43[0] : i32 from vector<2xi32>
          ^
generated/temp581529840236588062208.mlir:152:11: note: see current operation: %49 = vector.extract %43[0] : i32 from vector<2xi32>
generated/temp581529840236588062208.mlir:153:11: remark: operation has no memory effects
    %50 = spirv.Not %39 : i64
          ^
generated/temp581529840236588062208.mlir:153:11: note: see current operation: %50 = spirv.Not %39 : i64
generated/temp581529840236588062208.mlir:154:11: remark: operation has no memory effects
    %51 = index.castu %true_5 : i1 to index
          ^
generated/temp581529840236588062208.mlir:154:11: note: see current operation: %51 = index.castu %true_5 : i1 to index
generated/temp581529840236588062208.mlir:155:11: remark: operation has no memory effects
    %52 = spirv.CL.s_abs %43 : vector<2xi32>
          ^
generated/temp581529840236588062208.mlir:155:11: note: see current operation: %52 = spirv.CL.s_abs %43 : vector<2xi32>
generated/temp581529840236588062208.mlir:156:18: remark: operation has no memory effects
    %collapsed = tensor.collapse_shape %10 [[0, 1], [2]] : tensor<5x20x20xf16> into tensor<100x20xf16>
                 ^
generated/temp581529840236588062208.mlir:156:18: note: see current operation: %collapsed = tensor.collapse_shape %10 [[0, 1], [2]] : tensor<5x20x20xf16> into tensor<100x20xf16>
generated/temp581529840236588062208.mlir:157:11: remark: operation has no memory effects
    %53 = arith.subi %18, %18 : i64
          ^
generated/temp581529840236588062208.mlir:157:11: note: see current operation: %53 = arith.subi %18, %18 : i64
generated/temp581529840236588062208.mlir:158:11: remark: operation has no memory effects
    %54 = spirv.CL.erf %46 : f16
          ^
generated/temp581529840236588062208.mlir:158:11: note: see current operation: %54 = spirv.CL.erf %46 : f16
generated/temp581529840236588062208.mlir:159:11: remark: operation has no memory effects
    %55 = arith.shli %45, %29 : i16
          ^
generated/temp581529840236588062208.mlir:159:11: note: see current operation: %55 = arith.shli %45, %29 : i16
generated/temp581529840236588062208.mlir:160:11: remark: operation has no memory effects
    %56 = spirv.CL.rsqrt %17 : f16
          ^
generated/temp581529840236588062208.mlir:160:11: note: see current operation: %56 = spirv.CL.rsqrt %17 : f16
generated/temp581529840236588062208.mlir:161:11: remark: operation has no memory effects
    %57 = spirv.FUnordNotEqual %42, %17 : f16
          ^
generated/temp581529840236588062208.mlir:161:11: note: see current operation: %57 = spirv.FUnordNotEqual %42, %17 : f16
generated/temp581529840236588062208.mlir:162:11: remark: operation has no memory effects
    %58 = spirv.FUnordNotEqual %cst_6, %cst_0 : f16
          ^
generated/temp581529840236588062208.mlir:162:11: note: see current operation: %58 = spirv.FUnordNotEqual %cst_6, %cst_0 : f16
generated/temp581529840236588062208.mlir:163:17: remark: operation has no memory effects
    %expanded = tensor.expand_shape %9 [[0], [1], [2, 3]] : tensor<?x?x20xi32> into tensor<?x?x20x1xi32>
                ^
generated/temp581529840236588062208.mlir:163:17: note: see current operation: %expanded = tensor.expand_shape %9 [[0], [1], [2, 3]] : tensor<?x?x20xi32> into tensor<?x?x20x1xi32>
generated/temp581529840236588062208.mlir:164:11: remark: operation has no memory effects
    %59 = affine.apply affine_map<(d0, d1, d2, d3)[s0] -> (d3 mod 2)>(%c27, %c29, %c1, %c24)[%c27]
          ^
generated/temp581529840236588062208.mlir:164:11: note: see current operation: %59 = affine.apply affine_map<(d0, d1, d2, d3)[s0] -> (d3 mod 2)>(%c27, %c29, %c1, %c24)[%c27]
generated/temp581529840236588062208.mlir:165:11: remark: operation has no memory effects
    %60 = spirv.FUnordEqual %cst_2, %cst_2 : f32
          ^
generated/temp581529840236588062208.mlir:165:11: note: see current operation: %60 = spirv.FUnordEqual %cst_2, %cst_2 : f32
generated/temp581529840236588062208.mlir:166:11: remark: operation has no memory effects
    %61 = vector.create_mask %c2, %47, %c10 : vector<5x20x20xi1>
          ^
generated/temp581529840236588062208.mlir:166:11: note: see current operation: %61 = vector.create_mask %c2, %47, %c10 : vector<5x20x20xi1>
generated/temp581529840236588062208.mlir:167:11: remark: operation has no memory effects
    %62 = math.fpowi %2, %3 : tensor<5x20x20xf16>, tensor<5x20x20xi32>
          ^
generated/temp581529840236588062208.mlir:167:11: note: see current operation: %62 = math.fpowi %2, %3 : tensor<5x20x20xf16>, tensor<5x20x20xi32>
generated/temp581529840236588062208.mlir:168:11: remark: operation has no memory effects
    %63 = spirv.LogicalEqual %57, %true_5 : i1
          ^
generated/temp581529840236588062208.mlir:168:11: note: see current operation: %63 = spirv.LogicalEqual %57, %true_5 : i1
generated/temp581529840236588062208.mlir:169:11: remark: operation has no memory effects
    %64 = spirv.CL.exp %46 : f16
          ^
generated/temp581529840236588062208.mlir:169:11: note: see current operation: %64 = spirv.CL.exp %46 : f16
generated/temp581529840236588062208.mlir:170:11: remark: operation has no memory effects
    %65 = spirv.FUnordGreaterThan %17, %34 : f16
          ^
generated/temp581529840236588062208.mlir:170:11: note: see current operation: %65 = spirv.FUnordGreaterThan %17, %34 : f16
generated/temp581529840236588062208.mlir:171:20: remark: operation has no memory effects
    %expanded_24 = tensor.expand_shape %10 [[0], [1], [2, 3]] : tensor<5x20x20xf16> into tensor<5x20x20x1xf16>
                   ^
generated/temp581529840236588062208.mlir:171:20: note: see current operation: %expanded_24 = tensor.expand_shape %10 [[0], [1], [2, 3]] : tensor<5x20x20xf16> into tensor<5x20x20x1xf16>
generated/temp581529840236588062208.mlir:172:11: remark: operation has no memory effects
    %66 = math.ctpop %4 : tensor<5x5xi16>
          ^
generated/temp581529840236588062208.mlir:172:11: note: see current operation: %66 = math.ctpop %4 : tensor<5x5xi16>
generated/temp581529840236588062208.mlir:173:11: remark: operation has no memory effects
    %67 = spirv.GL.Exp %42 : f16
          ^
generated/temp581529840236588062208.mlir:173:11: note: see current operation: %67 = spirv.GL.Exp %42 : f16
generated/temp581529840236588062208.mlir:174:11: remark: operation has no memory effects
    %68 = vector.broadcast %c1268563714_i32 : i32 to vector<2x2xi32>
          ^
generated/temp581529840236588062208.mlir:174:11: note: see current operation: %68 = vector.broadcast %c1268563714_i32 : i32 to vector<2x2xi32>
generated/temp581529840236588062208.mlir:175:11: remark: operation has no memory effects
    %69 = vector.outerproduct %43, %43, %68 {kind = #vector.kind<maxsi>} : vector<2xi32>, vector<2xi32>
          ^
generated/temp581529840236588062208.mlir:175:11: note: see current operation: %69 = vector.outerproduct %43, %43, %68 {kind = #vector.kind<maxsi>} : vector<2xi32>, vector<2xi32>
generated/temp581529840236588062208.mlir:176:11: remark: operation has no memory effects
    %70 = math.round %cst_1 : f16
          ^
generated/temp581529840236588062208.mlir:176:11: note: see current operation: %70 = math.round %cst_1 : f16
generated/temp581529840236588062208.mlir:177:11: remark: operation has no memory effects
    %71 = index.maxs %c25, %59
          ^
generated/temp581529840236588062208.mlir:177:11: note: see current operation: %71 = index.maxs %c25, %59
generated/temp581529840236588062208.mlir:178:11: remark: operation has no memory effects
    %72 = arith.cmpf true, %41, %cst_3 : f16
          ^
generated/temp581529840236588062208.mlir:178:11: note: see current operation: %72 = arith.cmpf true, %41, %cst_3 : f16
generated/temp581529840236588062208.mlir:179:11: remark: operation has no memory effects
    %73 = math.fpowi %30, %c1268563714_i32 : f16, i32
          ^
generated/temp581529840236588062208.mlir:179:11: note: see current operation: %73 = math.fpowi %30, %c1268563714_i32 : f16, i32
generated/temp581529840236588062208.mlir:180:11: remark: operation has no memory effects
    %74 = index.shrs %c9, %c19
          ^
generated/temp581529840236588062208.mlir:180:11: note: see current operation: %74 = index.shrs %c9, %c19
generated/temp581529840236588062208.mlir:181:11: remark: operation has no memory effects
    %75 = tensor.empty(%59) : tensor<?x20xf32>
          ^
generated/temp581529840236588062208.mlir:181:11: note: see current operation: %75 = tensor.empty(%59) : tensor<?x20xf32>
generated/temp581529840236588062208.mlir:184:14: remark: operation has no memory effects
      %131 = arith.remsi %27, %true_5 : i1
             ^
generated/temp581529840236588062208.mlir:184:14: note: see current operation: %131 = arith.remsi %27, %true_5 : i1
generated/temp581529840236588062208.mlir:185:7: remark: operation has no memory effects
      linalg.yield %in : f32
      ^
generated/temp581529840236588062208.mlir:185:7: note: see current operation: linalg.yield %in : f32
generated/temp581529840236588062208.mlir:182:11: remark: found an instance of 'read' on a value, on resource '<Default>'
    %76 = linalg.generic {indexing_maps = [affine_map<(d0, d1, d2) -> (d0, d1, d2)>, affine_map<(d0, d1, d2) -> (d1, d2)>, affine_map<(d0, d1, d2) -> (d1, d2)>, affine_map<(d0, d1, d2) -> (d0, d1, d2)>], iterator_types = ["parallel", "parallel", "parallel"]} ins(%alloc_18, %75, %75 : memref<?x?x20xf32>, tensor<?x20xf32>, tensor<?x20xf32>) outs(%8 : tensor<?x?x20xf32>) {
          ^
generated/temp581529840236588062208.mlir:182:11: note: see current operation: 
%76 = linalg.generic {indexing_maps = [affine_map<(d0, d1, d2) -> (d0, d1, d2)>, affine_map<(d0, d1, d2) -> (d1, d2)>, affine_map<(d0, d1, d2) -> (d1, d2)>, affine_map<(d0, d1, d2) -> (d0, d1, d2)>], iterator_types = ["parallel", "parallel", "parallel"]} ins(%alloc_18, %75, %75 : memref<?x?x20xf32>, tensor<?x20xf32>, tensor<?x20xf32>) outs(%8 : tensor<?x?x20xf32>) {
^bb0(%in: f32, %in_30: f32, %in_31: f32, %out: f32):
  %131 = arith.remsi %27, %true_5 : i1
  linalg.yield %in : f32
} -> tensor<?x?x20xf32>
generated/temp581529840236588062208.mlir:187:11: remark: operation has no memory effects
    %77 = index.sub %c17, %c13
          ^
generated/temp581529840236588062208.mlir:187:11: note: see current operation: %77 = index.sub %c17, %c13
generated/temp581529840236588062208.mlir:188:11: remark: operation has no memory effects
    %78 = spirv.SGreaterThanEqual %50, %39 : i64
          ^
generated/temp581529840236588062208.mlir:188:11: note: see current operation: %78 = spirv.SGreaterThanEqual %50, %39 : i64
generated/temp581529840236588062208.mlir:189:11: remark: operation has no memory effects
    %79 = tensor.empty(%c17) : tensor<5x27x?xf16>
          ^
generated/temp581529840236588062208.mlir:189:11: note: see current operation: %79 = tensor.empty(%c17) : tensor<5x27x?xf16>
generated/temp581529840236588062208.mlir:190:11: remark: operation has no memory effects
    %80 = spirv.CL.round %56 : f16
          ^
generated/temp581529840236588062208.mlir:190:11: note: see current operation: %80 = spirv.CL.round %56 : f16
generated/temp581529840236588062208.mlir:191:11: remark: operation has no memory effects
    %81 = arith.floordivsi %22, %c26224_i16 : i16
          ^
generated/temp581529840236588062208.mlir:191:11: note: see current operation: %81 = arith.floordivsi %22, %c26224_i16 : i16
generated/temp581529840236588062208.mlir:192:11: remark: operation has no memory effects
    %82 = spirv.BitwiseOr %43, %43 : vector<2xi32>
          ^
generated/temp581529840236588062208.mlir:192:11: note: see current operation: %82 = spirv.BitwiseOr %43, %43 : vector<2xi32>
generated/temp581529840236588062208.mlir:193:11: remark: operation has no memory effects
    %83 = spirv.CL.ceil %80 : f16
          ^
generated/temp581529840236588062208.mlir:193:11: note: see current operation: %83 = spirv.CL.ceil %80 : f16
generated/temp581529840236588062208.mlir:194:11: remark: operation has no memory effects
    %84 = arith.divui %27, %78 : i1
          ^
generated/temp581529840236588062208.mlir:194:11: note: see current operation: %84 = arith.divui %27, %78 : i1
generated/temp581529840236588062208.mlir:195:11: remark: operation has no memory effects
    %85 = spirv.GL.FMax %cst_6, %46 : f16
          ^
generated/temp581529840236588062208.mlir:195:11: note: see current operation: %85 = spirv.GL.FMax %cst_6, %46 : f16
generated/temp581529840236588062208.mlir:197:14: remark: operation has no memory effects
      %131 = math.copysign %5, %5 : tensor<5x5xf16>
             ^
generated/temp581529840236588062208.mlir:197:14: note: see current operation: %131 = math.copysign %5, %5 : tensor<5x5xf16>
generated/temp581529840236588062208.mlir:198:14: remark: operation has no memory effects
      %132 = index.castu %c28 : index to i32
             ^
generated/temp581529840236588062208.mlir:198:14: note: see current operation: %132 = index.castu %c28 : index to i32
<unknown>:0: remark: operation has no memory effects
<unknown>:0: note: see current operation: %139 = arith.mulf %arg0, %arg1 : f16
<unknown>:0: remark: operation has no memory effects
<unknown>:0: note: see current operation: %140 = arith.addf %arg2, %139 : f16
<unknown>:0: remark: operation has no memory effects
<unknown>:0: note: see current operation: linalg.yield %140 : f16
generated/temp581529840236588062208.mlir:199:14: remark: operation has no memory effects
      %133 = linalg.matmul ins(%5, %5 : tensor<5x5xf16>, tensor<5x5xf16>) outs(%5 : tensor<5x5xf16>) -> tensor<5x5xf16>
             ^
generated/temp581529840236588062208.mlir:199:14: note: see current operation: %133 = linalg.matmul ins(%5, %5 : tensor<5x5xf16>, tensor<5x5xf16>) outs(%5 : tensor<5x5xf16>) -> tensor<5x5xf16>
generated/temp581529840236588062208.mlir:200:14: remark: operation has no memory effects
      %134 = index.maxs %c11, %c17
             ^
generated/temp581529840236588062208.mlir:200:14: note: see current operation: %134 = index.maxs %c11, %c17
generated/temp581529840236588062208.mlir:201:14: remark: operation has no memory effects
      %135 = math.tan %85 : f16
             ^
generated/temp581529840236588062208.mlir:201:14: note: see current operation: %135 = math.tan %85 : f16
generated/temp581529840236588062208.mlir:202:14: remark: found an instance of 'read' on a value, on resource '<Default>'
      %136 = vector.load %alloc_19[%c0, %c0] : memref<?x?xi64>, vector<5x20x20xi64>
             ^
generated/temp581529840236588062208.mlir:202:14: note: see current operation: %136 = vector.load %alloc_19[%c0, %c0] : memref<?x?xi64>, vector<5x20x20xi64>
generated/temp581529840236588062208.mlir:203:14: remark: operation has no memory effects
      %137 = math.ipowi %c1712353702_i64, %39 : i64
             ^
generated/temp581529840236588062208.mlir:203:14: note: see current operation: %137 = math.ipowi %c1712353702_i64, %39 : i64
generated/temp581529840236588062208.mlir:204:14: remark: operation has no memory effects
      %138 = vector.splat %c15 : vector<27x27xindex>
             ^
generated/temp581529840236588062208.mlir:204:14: note: see current operation: %138 = vector.splat %c15 : vector<27x27xindex>
generated/temp581529840236588062208.mlir:205:19: remark: found an instance of 'allocate' on a value, on resource '<Default>'
      %alloc_30 = memref.alloc() : memref<5x5xi16>
                  ^
generated/temp581529840236588062208.mlir:205:19: note: see current operation: %alloc_30 = memref.alloc() : memref<5x5xi16>
generated/temp581529840236588062208.mlir:206:7: remark: operation has no memory effects
      affine.yield %alloc_30 : memref<5x5xi16>
      ^
generated/temp581529840236588062208.mlir:206:7: note: see current operation: affine.yield %alloc_30 : memref<5x5xi16>
generated/temp581529840236588062208.mlir:208:14: remark: operation has no memory effects
      %131 = arith.xori %c6979223_i64, %50 : i64
             ^
generated/temp581529840236588062208.mlir:208:14: note: see current operation: %131 = arith.xori %c6979223_i64, %50 : i64
generated/temp581529840236588062208.mlir:209:14: remark: operation has no memory effects
      %132 = index.ceildivu %c20, %c7
             ^
generated/temp581529840236588062208.mlir:209:14: note: see current operation: %132 = index.ceildivu %c20, %c7
generated/temp581529840236588062208.mlir:210:14: remark: operation has no memory effects
      %133 = tensor.empty() : tensor<5x5xf16>
             ^
generated/temp581529840236588062208.mlir:210:14: note: see current operation: %133 = tensor.empty() : tensor<5x5xf16>
generated/temp581529840236588062208.mlir:211:14: remark: operation has no memory effects
      %134 = arith.remsi %22, %45 : i16
             ^
generated/temp581529840236588062208.mlir:211:14: note: see current operation: %134 = arith.remsi %22, %45 : i16
generated/temp581529840236588062208.mlir:212:14: remark: operation has no memory effects
      %135 = vector.broadcast %c1268563714_i32 : i32 to vector<2x2xi32>
             ^
generated/temp581529840236588062208.mlir:212:14: note: see current operation: %135 = vector.broadcast %c1268563714_i32 : i32 to vector<2x2xi32>
generated/temp581529840236588062208.mlir:213:14: remark: operation has no memory effects
      %136 = vector.outerproduct %43, %43, %135 {kind = #vector.kind<and>} : vector<2xi32>, vector<2xi32>
             ^
generated/temp581529840236588062208.mlir:213:14: note: see current operation: %136 = vector.outerproduct %43, %43, %135 {kind = #vector.kind<and>} : vector<2xi32>, vector<2xi32>
generated/temp581529840236588062208.mlir:214:20: remark: operation has no memory effects
      %extracted = tensor.extract %10[%c2, %c16, %c4] : tensor<5x20x20xf16>
                   ^
generated/temp581529840236588062208.mlir:214:20: note: see current operation: %extracted = tensor.extract %10[%c2, %c16, %c4] : tensor<5x20x20xf16>
generated/temp581529840236588062208.mlir:215:14: remark: operation has no memory effects
      %137 = index.ceildivu %59, %77
             ^
generated/temp581529840236588062208.mlir:215:14: note: see current operation: %137 = index.ceildivu %59, %77
generated/temp581529840236588062208.mlir:216:14: remark: operation has no memory effects
      %138 = vector.shuffle %61, %61 [0, 1, 2, 3, 6, 7, 8] : vector<5x20x20xi1>, vector<5x20x20xi1>
             ^
generated/temp581529840236588062208.mlir:216:14: note: see current operation: %138 = vector.shuffle %61, %61 [0, 1, 2, 3, 6, 7, 8] : vector<5x20x20xi1>, vector<5x20x20xi1>
generated/temp581529840236588062208.mlir:217:19: remark: found an instance of 'allocate' on a value, on resource '<Default>'
      %alloc_30 = memref.alloc() : memref<5x5xi16>
                  ^
generated/temp581529840236588062208.mlir:217:19: note: see current operation: %alloc_30 = memref.alloc() : memref<5x5xi16>
generated/temp581529840236588062208.mlir:218:7: remark: operation has no memory effects
      affine.yield %alloc_30 : memref<5x5xi16>
      ^
generated/temp581529840236588062208.mlir:218:7: note: see current operation: affine.yield %alloc_30 : memref<5x5xi16>
generated/temp581529840236588062208.mlir:220:11: remark: operation has no memory effects
    %87 = arith.andi %65, %78 : i1
          ^
generated/temp581529840236588062208.mlir:220:11: note: see current operation: %87 = arith.andi %65, %78 : i1
generated/temp581529840236588062208.mlir:221:11: remark: operation has no memory effects
    %88 = spirv.CL.round %17 : f16
          ^
generated/temp581529840236588062208.mlir:221:11: note: see current operation: %88 = spirv.CL.round %17 : f16
generated/temp581529840236588062208.mlir:222:11: remark: operation has no memory effects
    %89 = spirv.CL.rsqrt %cst_2 : f32
          ^
generated/temp581529840236588062208.mlir:222:11: note: see current operation: %89 = spirv.CL.rsqrt %cst_2 : f32
generated/temp581529840236588062208.mlir:223:11: remark: found an instance of 'read' on a value, on resource '<Default>'
    %90 = bufferization.to_tensor %alloc_23 : memref<5x20x20xi16>
          ^
generated/temp581529840236588062208.mlir:223:11: note: see current operation: %90 = bufferization.to_tensor %alloc_23 : memref<5x20x20xi16>
generated/temp581529840236588062208.mlir:224:17: remark: found an instance of 'allocate' on a value, on resource '<Default>'
    %alloc_25 = memref.alloc(%c28, %c2) : memref<?x?xf32>
                ^
generated/temp581529840236588062208.mlir:224:17: note: see current operation: %alloc_25 = memref.alloc(%c28, %c2) : memref<?x?xf32>
generated/temp581529840236588062208.mlir:225:5: remark: found an instance of 'write' on a value, on resource '<Default>'
    memref.tensor_store %6, %alloc_25 : memref<?x?xf32>
    ^
generated/temp581529840236588062208.mlir:225:5: note: see current operation: memref.tensor_store %6, %alloc_25 : memref<?x?xf32>
generated/temp581529840236588062208.mlir:226:17: remark: operation has no memory effects
    %inserted = tensor.insert %cst_2 into %8[%c0, %c0, %c19] : tensor<?x?x20xf32>
                ^
generated/temp581529840236588062208.mlir:226:17: note: see current operation: %inserted = tensor.insert %cst_2 into %8[%c0, %c0, %c19] : tensor<?x?x20xf32>
generated/temp581529840236588062208.mlir:227:11: remark: operation has no memory effects
    %91 = spirv.CL.fabs %85 : f16
          ^
generated/temp581529840236588062208.mlir:227:11: note: see current operation: %91 = spirv.CL.fabs %85 : f16
generated/temp581529840236588062208.mlir:228:11: remark: operation has no memory effects
    %92 = arith.negf %40 : f16
          ^
generated/temp581529840236588062208.mlir:228:11: note: see current operation: %92 = arith.negf %40 : f16
generated/temp581529840236588062208.mlir:229:11: remark: operation has no memory effects
    %93 = vector.broadcast %21 : i1 to vector<5x20xi1>
          ^
generated/temp581529840236588062208.mlir:229:11: note: see current operation: %93 = vector.broadcast %21 : i1 to vector<5x20xi1>
generated/temp581529840236588062208.mlir:230:33: remark: operation has no memory effects
    %dest, %accumulated_value = vector.scan <maxsi>, %61, %93 {inclusive = false, reduction_dim = 2 : i64} : vector<5x20x20xi1>, vector<5x20xi1>
                                ^
generated/temp581529840236588062208.mlir:230:33: note: see current operation: %dest, %accumulated_value = vector.scan <maxsi>, %61, %93 {inclusive = false, reduction_dim = 2 : i64} : vector<5x20x20xi1>, vector<5x20xi1>
generated/temp581529840236588062208.mlir:231:11: remark: operation has no memory effects
    %94 = spirv.CL.sin %cst_0 : f16
          ^
generated/temp581529840236588062208.mlir:231:11: note: see current operation: %94 = spirv.CL.sin %cst_0 : f16
generated/temp581529840236588062208.mlir:232:11: remark: operation has no memory effects
    %95 = spirv.ULessThan %18, %c1712353702_i64 : i64
          ^
generated/temp581529840236588062208.mlir:232:11: note: see current operation: %95 = spirv.ULessThan %18, %c1712353702_i64 : i64
generated/temp581529840236588062208.mlir:235:16: remark: operation has no memory effects
        %146 = index.shrs %c29, %c11
               ^
generated/temp581529840236588062208.mlir:235:16: note: see current operation: %146 = index.shrs %c29, %c11
generated/temp581529840236588062208.mlir:236:16: remark: operation has no memory effects
        %147 = arith.floordivsi %21, %63 : i1
               ^
generated/temp581529840236588062208.mlir:236:16: note: see current operation: %147 = arith.floordivsi %21, %63 : i1
generated/temp581529840236588062208.mlir:237:26: remark: operation has no memory effects
        %from_elements = tensor.from_elements %39, %18, %18, %c6979223_i64, %50, %c1712353702_i64, %c6979223_i64, %50, %39, %c1712353702_i64, %39, %c6979223_i64, %39, %c1712353702_i64, %39, %c1712353702_i64, %18, %50, %c1712353702_i64, %50, %18, %39, %18, %39, %c1712353702_i64, %50, %18, %c6979223_i64, %39, %50, %39, %c6979223_i64, %39, %c1712353702_i64, %18, %c6979223_i64, %39, %39, %c1712353702_i64, %50, %18, %18, %18, %18, %50, %c1712353702_i64, %39, %c6979223_i64, %c6979223_i64, %c1712353702_i64, %c6979223_i64, %c1712353702_i64, %39, %c6979223_i64, %c6979223_i64, %c1712353702_i64, %c6979223_i64, %50, %39, %c6979223_i64, %39, %50, %18, %18, %c1712353702_i64, %50, %c1712353702_i64, %c6979223_i64, %c1712353702_i64, %39, %c1712353702_i64, %c6979223_i64, %39, %c6979223_i64, %c1712353702_i64, %50, %c1712353702_i64, %c6979223_i64, %18, %50, %18, %c6979223_i64, %18, %50, %c1712353702_i64, %18, %c1712353702_i64, %c1712353702_i64, %18, %39, %39, %18, %50, %50, %39, %18, %18, %18, %c6979223_i64, %50, %c6979223_i64, %50, %c1712353702_i64, %c1712353702_i64, %c6979223_i64, %c1712353702_i64, %50, %50, %39, %50, %c1712353702_i64, %18, %18, %c6979223_i64, %39, %18, %50, %c1712353702_i64, %39, %c1712353702_i64, %50, %c1712353702_i64, %c1712353702_i64, %18, %50, %c1712353702_i64, %c1712353702_i64, %50, %18, %18, %18, %18, %39, %c1712353702_i64, %c1712353702_i64, %c1712353702_i64, %18, %c1712353702_i64, %18, %c6979223_i64, %18, %18, %c6979223_i64, %18, %50, %50, %39, %39, %18, %c6979223_i64, %50, %c1712353702_i64, %39, %18, %c6979223_i64, %18, %c6979223_i64, %c6979223_i64, %50, %50, %50, %50, %c6979223_i64, %c1712353702_i64, %18, %39, %18, %18, %18, %c1712353702_i64, %50, %c1712353702_i64, %c1712353702_i64, %50, %39, %50, %c1712353702_i64, %c6979223_i64, %18, %c1712353702_i64, %18, %39, %39, %c6979223_i64, %50, %50, %39, %18, %50, %50, %39, %18, %c1712353702_i64, %c6979223_i64, %39, %18, %c6979223_i64, %18, %c1712353702_i64, %c1712353702_i64, %50, %39, %39, %18, %50, %c1712353702_i64, %c6979223_i64, %c6979223_i64, %18, %18, %c1712353702_i64, %c6979223_i64, %c6979223_i64, %39, %c1712353702_i64, %50, %39, %c1712353702_i64, %50, %50, %c6979223_i64, %c6979223_i64, %18, %c1712353702_i64, %18, %18, %39, %c6979223_i64, %50, %50, %18, %50, %50, %18, %39, %c1712353702_i64, %39, %c6979223_i64, %50, %39, %c1712353702_i64, %c1712353702_i64, %c6979223_i64, %c6979223_i64, %c1712353702_i64, %50, %50, %c6979223_i64, %c1712353702_i64, %c6979223_i64, %c6979223_i64, %39, %c1712353702_i64, %18, %18, %c6979223_i64, %c6979223_i64, %c1712353702_i64, %39, %39, %c6979223_i64, %39, %18, %c1712353702_i64, %18, %c6979223_i64, %50, %39, %39, %18, %39, %c6979223_i64, %18, %c6979223_i64, %39, %c1712353702_i64, %c1712353702_i64, %c1712353702_i64, %18, %c6979223_i64, %c6979223_i64, %18, %39, %39, %50, %18, %c6979223_i64, %50, %c1712353702_i64, %c1712353702_i64, %50, %c6979223_i64, %c6979223_i64, %50, %18, %50, %18, %18, %c6979223_i64, %c1712353702_i64, %18, %c1712353702_i64, %c6979223_i64, %39, %39, %39, %39, %18, %18, %18, %c6979223_i64, %c1712353702_i64, %39, %39, %50, %39, %c1712353702_i64, %39, %c6979223_i64, %c1712353702_i64, %18, %c6979223_i64, %c1712353702_i64, %c1712353702_i64, %50, %50, %c1712353702_i64, %c1712353702_i64, %18, %50, %39, %c6979223_i64, %50, %c1712353702_i64, %18, %c6979223_i64, %c6979223_i64, %18, %39, %50, %50, %c1712353702_i64, %39, %39, %18, %c6979223_i64, %c1712353702_i64, %50, %c6979223_i64, %c1712353702_i64, %39, %18, %39, %c1712353702_i64, %c6979223_i64, %c6979223_i64, %c1712353702_i64, %39, %c6979223_i64, %50, %c6979223_i64, %39, %39, %c1712353702_i64, %39, %18, %18, %c6979223_i64, %39, %39, %c6979223_i64, %39, %39, %39, %c1712353702_i64, %c6979223_i64, %39, %c1712353702_i64, %50, %50, %50, %18, %c1712353702_i64, %c6979223_i64, %50, %c6979223_i64, %50, %c1712353702_i64, %18, %c1712353702_i64, %50, %c6979223_i64, %c6979223_i64, %c6979223_i64, %c6979223_i64, %c1712353702_i64, %c1712353702_i64, %c1712353702_i64, %18, %39, %c1712353702_i64, %c6979223_i64, %18, %50, %c1712353702_i64, %c6979223_i64, %18, %c1712353702_i64, %c6979223_i64, %18, %c6979223_i64, %39, %c1712353702_i64, %c6979223_i64, %39, %c1712353702_i64, %c6979223_i64, %50, %39, %c1712353702_i64, %c1712353702_i64, %39, %50, %18, %50, %50, %c6979223_i64, %c6979223_i64, %39, %39, %50, %18, %50, %c1712353702_i64, %18, %50, %50, %39, %18, %c1712353702_i64, %50, %50, %c6979223_i64, %c1712353702_i64, %c1712353702_i64, %39, %50, %c6979223_i64, %50, %50, %c6979223_i64, %39, %50, %39, %39, %c1712353702_i64, %c6979223_i64, %c6979223_i64, %50, %39, %18, %39, %c6979223_i64, %39, %c1712353702_i64, %c1712353702_i64, %50, %39, %c6979223_i64, %c6979223_i64, %50, %18, %50, %18, %50, %39, %39, %50, %18, %39, %c6979223_i64, %c1712353702_i64, %50, %c6979223_i64, %18, %c1712353702_i64, %c6979223_i64, %18, %18, %39, %c6979223_i64, %39, %c6979223_i64, %39, %c1712353702_i64, %50, %c6979223_i64, %39, %c6979223_i64, %39, %c6979223_i64, %50, %39, %c1712353702_i64, %c1712353702_i64, %39, %18, %c1712353702_i64, %c1712353702_i64, %39, %18, %c1712353702_i64, %c1712353702_i64, %c6979223_i64, %39, %c1712353702_i64, %50, %18, %39, %18, %c6979223_i64, %39, %50, %c1712353702_i64, %50, %50, %c1712353702_i64, %39, %39, %c1712353702_i64, %18, %50, %18, %c6979223_i64, %c6979223_i64, %39, %39, %18, %18, %50, %18, %39, %c1712353702_i64, %18, %39, %c6979223_i64, %c1712353702_i64, %50, %50, %39, %50, %50, %39, %50, %c6979223_i64, %18, %39, %39, %39, %c6979223_i64, %c1712353702_i64, %39, %39, %c1712353702_i64, %c1712353702_i64, %18, %c1712353702_i64, %50, %c1712353702_i64, %c1712353702_i64, %50, %39, %18, %c1712353702_i64, %c1712353702_i64, %39, %c1712353702_i64, %39, %c6979223_i64, %50, %c6979223_i64, %39, %39, %c1712353702_i64, %50, %c1712353702_i64, %c1712353702_i64, %39, %c1712353702_i64, %c6979223_i64, %18, %c1712353702_i64, %18, %18, %39, %50, %39, %c6979223_i64, %c6979223_i64, %39, %c1712353702_i64, %50, %c1712353702_i64, %18, %50, %39, %18, %c1712353702_i64, %c6979223_i64, %18, %39, %50, %50, %c6979223_i64, %50, %39, %50, %39, %c1712353702_i64, %c6979223_i64, %39, %c6979223_i64, %18, %18, %39, %18, %18, %39, %c1712353702_i64, %39, %c6979223_i64, %50, %c1712353702_i64, %39, %50, %c1712353702_i64, %c6979223_i64, %c6979223_i64, %c1712353702_i64, %50, %c1712353702_i64, %39, %39, %50, %39, %c6979223_i64, %18, %39, %39, %c1712353702_i64, %50, %c6979223_i64, %50, %18, %c6979223_i64, %39, %c1712353702_i64, %c1712353702_i64, %50, %c1712353702_i64, %50, %c6979223_i64, %50, %c1712353702_i64, %c1712353702_i64, %50, %18, %c1712353702_i64, %39, %c6979223_i64, %c6979223_i64, %c6979223_i64, %50, %39, %c1712353702_i64 : tensor<5x27x5xi64>
                         ^
generated/temp581529840236588062208.mlir:237:26: note: see current operation: %from_elements = tensor.from_elements %39, %18, %18, %c6979223_i64, %50, %c1712353702_i64, %c6979223_i64, %50, %39, %c1712353702_i64, %39, %c6979223_i64, %39, %c1712353702_i64, %39, %c1712353702_i64, %18, %50, %c1712353702_i64, %50, %18, %39, %18, %39, %c1712353702_i64, %50, %18, %c6979223_i64, %39, %50, %39, %c6979223_i64, %39, %c1712353702_i64, %18, %c6979223_i64, %39, %39, %c1712353702_i64, %50, %18, %18, %18, %18, %50, %c1712353702_i64, %39, %c6979223_i64, %c6979223_i64, %c1712353702_i64, %c6979223_i64, %c1712353702_i64, %39, %c6979223_i64, %c6979223_i64, %c1712353702_i64, %c6979223_i64, %50, %39, %c6979223_i64, %39, %50, %18, %18, %c1712353702_i64, %50, %c1712353702_i64, %c6979223_i64, %c1712353702_i64, %39, %c1712353702_i64, %c6979223_i64, %39, %c6979223_i64, %c1712353702_i64, %50, %c1712353702_i64, %c6979223_i64, %18, %50, %18, %c6979223_i64, %18, %50, %c1712353702_i64, %18, %c1712353702_i64, %c1712353702_i64, %18, %39, %39, %18, %50, %50, %39, %18, %18, %18, %c6979223_i64, %50, %c6979223_i64, %50, %c1712353702_i64, %c1712353702_i64, %c6979223_i64, %c1712353702_i64, %50, %50, %39, %50, %c1712353702_i64, %18, %18, %c6979223_i64, %39, %18, %50, %c1712353702_i64, %39, %c1712353702_i64, %50, %c1712353702_i64, %c1712353702_i64, %18, %50, %c1712353702_i64, %c1712353702_i64, %50, %18, %18, %18, %18, %39, %c1712353702_i64, %c1712353702_i64, %c1712353702_i64, %18, %c1712353702_i64, %18, %c6979223_i64, %18, %18, %c6979223_i64, %18, %50, %50, %39, %39, %18, %c6979223_i64, %50, %c1712353702_i64, %39, %18, %c6979223_i64, %18, %c6979223_i64, %c6979223_i64, %50, %50, %50, %50, %c6979223_i64, %c1712353702_i64, %18, %39, %18, %18, %18, %c1712353702_i64, %50, %c1712353702_i64, %c1712353702_i64, %50, %39, %50, %c1712353702_i64, %c6979223_i64, %18, %c1712353702_i64, %18, %39, %39, %c6979223_i64, %50, %50, %39, %18, %50, %50, %39, %18, %c1712353702_i64, %c6979223_i64, %39, %18, %c6979223_i64, %18, %c1712353702_i64, %c1712353702_i64, %50, %39, %39, %18, %50, %c1712353702_i64, %c6979223_i64, %c6979223_i64, %18, %18, %c1712353702_i64, %c6979223_i64, %c6979223_i64, %39, %c1712353702_i64, %50, %39, %c1712353702_i64, %50, %50, %c6979223_i64, %c6979223_i64, %18, %c1712353702_i64, %18, %18, %39, %c6979223_i64, %50, %50, %18, %50, %50, %18, %39, %c1712353702_i64, %39, %c6979223_i64, %50, %39, %c1712353702_i64, %c1712353702_i64, %c6979223_i64, %c6979223_i64, %c1712353702_i64, %50, %50, %c6979223_i64, %c1712353702_i64, %c6979223_i64, %c6979223_i64, %39, %c1712353702_i64, %18, %18, %c6979223_i64, %c6979223_i64, %c1712353702_i64, %39, %39, %c6979223_i64, %39, %18, %c1712353702_i64, %18, %c6979223_i64, %50, %39, %39, %18, %39, %c6979223_i64, %18, %c6979223_i64, %39, %c1712353702_i64, %c1712353702_i64, %c1712353702_i64, %18, %c6979223_i64, %c6979223_i64, %18, %39, %39, %50, %18, %c6979223_i64, %50, %c1712353702_i64, %c1712353702_i64, %50, %c6979223_i64, %c6979223_i64, %50, %18, %50, %18, %18, %c6979223_i64, %c1712353702_i64, %18, %c1712353702_i64, %c6979223_i64, %39, %39, %39, %39, %18, %18, %18, %c6979223_i64, %c1712353702_i64, %39, %39, %50, %39, %c1712353702_i64, %39, %c6979223_i64, %c1712353702_i64, %18, %c6979223_i64, %c1712353702_i64, %c1712353702_i64, %50, %50, %c1712353702_i64, %c1712353702_i64, %18, %50, %39, %c6979223_i64, %50, %c1712353702_i64, %18, %c6979223_i64, %c6979223_i64, %18, %39, %50, %50, %c1712353702_i64, %39, %39, %18, %c6979223_i64, %c1712353702_i64, %50, %c6979223_i64, %c1712353702_i64, %39, %18, %39, %c1712353702_i64, %c6979223_i64, %c6979223_i64, %c1712353702_i64, %39, %c6979223_i64, %50, %c6979223_i64, %39, %39, %c1712353702_i64, %39, %18, %18, %c6979223_i64, %39, %39, %c6979223_i64, %39, %39, %39, %c1712353702_i64, %c6979223_i64, %39, %c1712353702_i64, %50, %50, %50, %18, %c1712353702_i64, %c6979223_i64, %50, %c6979223_i64, %50, %c1712353702_i64, %18, %c1712353702_i64, %50, %c6979223_i64, %c6979223_i64, %c6979223_i64, %c6979223_i64, %c1712353702_i64, %c1712353702_i64, %c1712353702_i64, %18, %39, %c1712353702_i64, %c6979223_i64, %18, %50, %c1712353702_i64, %c6979223_i64, %18, %c1712353702_i64, %c6979223_i64, %18, %c6979223_i64, %39, %c1712353702_i64, %c6979223_i64, %39, %c1712353702_i64, %c6979223_i64, %50, %39, %c1712353702_i64, %c1712353702_i64, %39, %50, %18, %50, %50, %c6979223_i64, %c6979223_i64, %39, %39, %50, %18, %50, %c1712353702_i64, %18, %50, %50, %39, %18, %c1712353702_i64, %50, %50, %c6979223_i64, %c1712353702_i64, %c1712353702_i64, %39, %50, %c6979223_i64, %50, %50, %c6979223_i64, %39, %50, %39, %39, %c1712353702_i64, %c6979223_i64, %c6979223_i64, %50, %39, %18, %39, %c6979223_i64, %39, %c1712353702_i64, %c1712353702_i64, %50, %39, %c6979223_i64, %c6979223_i64, %50, %18, %50, %18, %50, %39, %39, %50, %18, %39, %c6979223_i64, %c1712353702_i64, %50, %c6979223_i64, %18, %c1712353702_i64, %c6979223_i64, %18, %18, %39, %c6979223_i64, %39, %c6979223_i64, %39, %c1712353702_i64, %50, %c6979223_i64, %39, %c6979223_i64, %39, %c6979223_i64, %50, %39, %c1712353702_i64, %c1712353702_i64, %39, %18, %c1712353702_i64, %c1712353702_i64, %39, %18, %c1712353702_i64, %c1712353702_i64, %c6979223_i64, %39, %c1712353702_i64, %50, %18, %39, %18, %c6979223_i64, %39, %50, %c1712353702_i64, %50, %50, %c1712353702_i64, %39, %39, %c1712353702_i64, %18, %50, %18, %c6979223_i64, %c6979223_i64, %39, %39, %18, %18, %50, %18, %39, %c1712353702_i64, %18, %39, %c6979223_i64, %c1712353702_i64, %50, %50, %39, %50, %50, %39, %50, %c6979223_i64, %18, %39, %39, %39, %c6979223_i64, %c1712353702_i64, %39, %39, %c1712353702_i64, %c1712353702_i64, %18, %c1712353702_i64, %50, %c1712353702_i64, %c1712353702_i64, %50, %39, %18, %c1712353702_i64, %c1712353702_i64, %39, %c1712353702_i64, %39, %c6979223_i64, %50, %c6979223_i64, %39, %39, %c1712353702_i64, %50, %c1712353702_i64, %c1712353702_i64, %39, %c1712353702_i64, %c6979223_i64, %18, %c1712353702_i64, %18, %18, %39, %50, %39, %c6979223_i64, %c6979223_i64, %39, %c1712353702_i64, %50, %c1712353702_i64, %18, %50, %39, %18, %c1712353702_i64, %c6979223_i64, %18, %39, %50, %50, %c6979223_i64, %50, %39, %50, %39, %c1712353702_i64, %c6979223_i64, %39, %c6979223_i64, %18, %18, %39, %18, %18, %39, %c1712353702_i64, %39, %c6979223_i64, %50, %c1712353702_i64, %39, %50, %c1712353702_i64, %c6979223_i64, %c6979223_i64, %c1712353702_i64, %50, %c1712353702_i64, %39, %39, %50, %39, %c6979223_i64, %18, %39, %39, %c1712353702_i64, %50, %c6979223_i64, %50, %18, %c6979223_i64, %39, %c1712353702_i64, %c1712353702_i64, %50, %c1712353702_i64, %50, %c6979223_i64, %50, %c1712353702_i64, %c1712353702_i64, %50, %18, %c1712353702_i64, %39, %c6979223_i64, %c6979223_i64, %c6979223_i64, %50, %39, %c1712353702_i64 : tensor<5x27x5xi64>
generated/temp581529840236588062208.mlir:238:16: remark: operation has no memory effects
        %148 = index.sub %c9, %c30
               ^
generated/temp581529840236588062208.mlir:238:16: note: see current operation: %148 = index.sub %c9, %c30
generated/temp581529840236588062208.mlir:239:19: remark: operation has no memory effects
        %dim_32 = tensor.dim %2, %c0 : tensor<5x20x20xf16>
                  ^
generated/temp581529840236588062208.mlir:239:19: note: see current operation: %dim_32 = tensor.dim %2, %c0 : tensor<5x20x20xf16>
generated/temp581529840236588062208.mlir:241:16: remark: operation has no memory effects
        %149 = index.or %c1, %c19
               ^
generated/temp581529840236588062208.mlir:241:16: note: see current operation: %149 = index.or %c1, %c19
generated/temp581529840236588062208.mlir:243:16: remark: operation has no memory effects
        %150 = tensor.empty(%c13, %c18) : tensor<?x?xf32>
               ^
generated/temp581529840236588062208.mlir:243:16: note: see current operation: %150 = tensor.empty(%c13, %c18) : tensor<?x?xf32>
generated/temp581529840236588062208.mlir:244:9: remark: operation has no memory effects
        scf.condition(%true_4) %150 : tensor<?x?xf32>
        ^
generated/temp581529840236588062208.mlir:244:9: note: see current operation: scf.condition(%true_4) %150 : tensor<?x?xf32>
generated/temp581529840236588062208.mlir:247:16: remark: operation has no memory effects
        %146 = arith.muli %c26224_i16, %22 : i16
               ^
generated/temp581529840236588062208.mlir:247:16: note: see current operation: %146 = arith.muli %c26224_i16, %22 : i16
generated/temp581529840236588062208.mlir:248:9: remark: found an instance of 'write' on a value, on resource '<Default>'
        affine.vector_store %43, %alloc_20[%31, %c23] : memref<?x?xi32>, vector<2xi32>
        ^
generated/temp581529840236588062208.mlir:248:9: note: see current operation: affine.vector_store %43, %alloc_20[%31, %c23] : memref<?x?xi32>, vector<2xi32>
generated/temp581529840236588062208.mlir:249:16: remark: operation has no memory effects
        %147 = arith.ceildivsi %27, %95 : i1
               ^
generated/temp581529840236588062208.mlir:249:16: note: see current operation: %147 = arith.ceildivsi %27, %95 : i1
generated/temp581529840236588062208.mlir:250:16: remark: operation has no memory effects
        %148 = index.or %c18, %c27
               ^
generated/temp581529840236588062208.mlir:250:16: note: see current operation: %148 = index.or %c18, %c27
generated/temp581529840236588062208.mlir:251:16: remark: operation has no memory effects
        %149 = index.maxu %c7, %c3
               ^
generated/temp581529840236588062208.mlir:251:16: note: see current operation: %149 = index.maxu %c7, %c3
generated/temp581529840236588062208.mlir:252:16: remark: operation has no memory effects
        %150 = index.mul %59, %c17
               ^
generated/temp581529840236588062208.mlir:252:16: note: see current operation: %150 = index.mul %59, %c17
generated/temp581529840236588062208.mlir:253:16: remark: operation has no memory effects
        %151 = arith.floordivsi %c26224_i16, %c26224_i16 : i16
               ^
generated/temp581529840236588062208.mlir:253:16: note: see current operation: %151 = arith.floordivsi %c26224_i16, %c26224_i16 : i16
generated/temp581529840236588062208.mlir:254:16: remark: found an instance of 'read' on a value, on resource '<Default>'
        %152 = memref.load %alloc_11[%c0, %c0] : memref<?x?xi1>
               ^
generated/temp581529840236588062208.mlir:254:16: note: see current operation: %152 = memref.load %alloc_11[%c0, %c0] : memref<?x?xi1>
generated/temp581529840236588062208.mlir:255:16: remark: operation has no memory effects
        %153 = math.powf %5, %5 : tensor<5x5xf16>
               ^
generated/temp581529840236588062208.mlir:255:16: note: see current operation: %153 = math.powf %5, %5 : tensor<5x5xf16>
generated/temp581529840236588062208.mlir:256:16: remark: operation has no memory effects
        %154 = vector.broadcast %33 : f16 to vector<5x20x20xf16>
               ^
generated/temp581529840236588062208.mlir:256:16: note: see current operation: %154 = vector.broadcast %33 : f16 to vector<5x20x20xf16>
generated/temp581529840236588062208.mlir:257:16: remark: found an instance of 'read' on a value, on resource '<Default>'
        %155 = memref.load %alloc_13[%c1, %c3] : memref<5x5xi1>
               ^
generated/temp581529840236588062208.mlir:257:16: note: see current operation: %155 = memref.load %alloc_13[%c1, %c3] : memref<5x5xi1>
generated/temp581529840236588062208.mlir:258:16: remark: operation has no memory effects
        %156 = math.fpowi %15, %3 : tensor<5x20x20xf16>, tensor<5x20x20xi32>
               ^
generated/temp581529840236588062208.mlir:258:16: note: see current operation: %156 = math.fpowi %15, %3 : tensor<5x20x20xf16>, tensor<5x20x20xi32>
generated/temp581529840236588062208.mlir:259:16: remark: operation has no memory effects
        %157 = arith.shrsi %39, %39 : i64
               ^
generated/temp581529840236588062208.mlir:259:16: note: see current operation: %157 = arith.shrsi %39, %39 : i64
generated/temp581529840236588062208.mlir:260:16: remark: operation has no memory effects
        %158 = math.atan2 %80, %41 : f16
               ^
generated/temp581529840236588062208.mlir:260:16: note: see current operation: %158 = math.atan2 %80, %41 : f16
generated/temp581529840236588062208.mlir:261:16: remark: operation has no memory effects
        %159 = vector.broadcast %c26224_i16 : i16 to vector<5xi16>
               ^
generated/temp581529840236588062208.mlir:261:16: note: see current operation: %159 = vector.broadcast %c26224_i16 : i16 to vector<5xi16>
generated/temp581529840236588062208.mlir:262:16: remark: operation has no memory effects
        %160 = vector.broadcast %27 : i1 to vector<5xi1>
               ^
generated/temp581529840236588062208.mlir:262:16: note: see current operation: %160 = vector.broadcast %27 : i1 to vector<5xi1>
generated/temp581529840236588062208.mlir:263:9: remark: found an instance of 'write' on a value, on resource '<Default>'
        vector.compressstore %alloc_21[%c1, %c6, %c2], %160, %159 : memref<5x27x5xi16>, vector<5xi1>, vector<5xi16>
        ^
generated/temp581529840236588062208.mlir:263:9: note: see current operation: vector.compressstore %alloc_21[%c1, %c6, %c2], %160, %159 : memref<5x27x5xi16>, vector<5xi1>, vector<5xi16>
generated/temp581529840236588062208.mlir:264:16: remark: operation has no memory effects
        %161 = arith.remsi %27, %true_4 : i1
               ^
generated/temp581529840236588062208.mlir:264:16: note: see current operation: %161 = arith.remsi %27, %true_4 : i1
generated/temp581529840236588062208.mlir:265:16: remark: operation has no memory effects
        %162 = tensor.empty(%148, %c14) : tensor<?x?xf32>
               ^
generated/temp581529840236588062208.mlir:265:16: note: see current operation: %162 = tensor.empty(%148, %c14) : tensor<?x?xf32>
generated/temp581529840236588062208.mlir:266:9: remark: operation has no memory effects
        scf.yield %162 : tensor<?x?xf32>
        ^
generated/temp581529840236588062208.mlir:266:9: note: see current operation: scf.yield %162 : tensor<?x?xf32>
generated/temp581529840236588062208.mlir:268:14: remark: operation has no memory effects
      %132 = index.xor %c26, %c2
             ^
generated/temp581529840236588062208.mlir:268:14: note: see current operation: %132 = index.xor %c26, %c2
generated/temp581529840236588062208.mlir:269:7: remark: found an instance of 'read' on a value, on resource '<Default>'
      memref.copy %alloc_18, %alloc_18 : memref<?x?x20xf32> to memref<?x?x20xf32>
      ^
generated/temp581529840236588062208.mlir:269:7: note: see current operation: memref.copy %alloc_18, %alloc_18 : memref<?x?x20xf32> to memref<?x?x20xf32>
generated/temp581529840236588062208.mlir:269:7: remark: found an instance of 'write' on a value, on resource '<Default>'
      memref.copy %alloc_18, %alloc_18 : memref<?x?x20xf32> to memref<?x?x20xf32>
      ^
generated/temp581529840236588062208.mlir:269:7: note: see current operation: memref.copy %alloc_18, %alloc_18 : memref<?x?x20xf32> to memref<?x?x20xf32>
generated/temp581529840236588062208.mlir:270:14: remark: operation has no memory effects
      %dim = tensor.dim %75, %c0 : tensor<?x20xf32>
             ^
generated/temp581529840236588062208.mlir:270:14: note: see current operation: %dim = tensor.dim %75, %c0 : tensor<?x20xf32>
generated/temp581529840236588062208.mlir:271:14: remark: operation has no memory effects
      %133 = math.absi %65 : i1
             ^
generated/temp581529840236588062208.mlir:271:14: note: see current operation: %133 = math.absi %65 : i1
generated/temp581529840236588062208.mlir:272:14: remark: operation has no memory effects
      %134 = vector.broadcast %c1268563714_i32 : i32 to vector<2x2xi32>
             ^
generated/temp581529840236588062208.mlir:272:14: note: see current operation: %134 = vector.broadcast %c1268563714_i32 : i32 to vector<2x2xi32>
generated/temp581529840236588062208.mlir:273:14: remark: operation has no memory effects
      %135 = vector.outerproduct %43, %43, %134 {kind = #vector.kind<and>} : vector<2xi32>, vector<2xi32>
             ^
generated/temp581529840236588062208.mlir:273:14: note: see current operation: %135 = vector.outerproduct %43, %43, %134 {kind = #vector.kind<and>} : vector<2xi32>, vector<2xi32>
generated/temp581529840236588062208.mlir:274:19: remark: found an instance of 'allocate' on a value, on resource '<Default>'
      %alloc_30 = memref.alloc(%c30, %c19, %dim) : memref<?x?x?xi1>
                  ^
generated/temp581529840236588062208.mlir:274:19: note: see current operation: %alloc_30 = memref.alloc(%c30, %c19, %dim) : memref<?x?x?xi1>
generated/temp581529840236588062208.mlir:276:16: remark: found an instance of 'read' on a value, on resource '<Default>'
        %146 = affine.load %alloc_16[%c30, %c11, %c10] : memref<?x20x20xf16>
               ^
generated/temp581529840236588062208.mlir:276:16: note: see current operation: %146 = affine.load %alloc_16[%c30, %c11, %c10] : memref<?x20x20xf16>
generated/temp581529840236588062208.mlir:277:16: remark: operation has no memory effects
        %147 = math.ipowi %22, %45 : i16
               ^
generated/temp581529840236588062208.mlir:277:16: note: see current operation: %147 = math.ipowi %22, %45 : i16
generated/temp581529840236588062208.mlir:278:16: remark: operation has no memory effects
        %148 = affine.max affine_map<(d0) -> (-36)>(%59)
               ^
generated/temp581529840236588062208.mlir:278:16: note: see current operation: %148 = affine.max affine_map<(d0) -> (-36)>(%59)
generated/temp581529840236588062208.mlir:279:16: remark: operation has no memory effects
        %149 = math.ctpop %4 : tensor<5x5xi16>
               ^
generated/temp581529840236588062208.mlir:279:16: note: see current operation: %149 = math.ctpop %4 : tensor<5x5xi16>
generated/temp581529840236588062208.mlir:280:16: remark: operation has no memory effects
        %150 = vector.shuffle %61, %61 [4, 5, 7, 8] : vector<5x20x20xi1>, vector<5x20x20xi1>
               ^
generated/temp581529840236588062208.mlir:280:16: note: see current operation: %150 = vector.shuffle %61, %61 [4, 5, 7, 8] : vector<5x20x20xi1>, vector<5x20x20xi1>
generated/temp581529840236588062208.mlir:281:16: remark: operation has no memory effects
        %151 = index.sub %c23, %c30
               ^
generated/temp581529840236588062208.mlir:281:16: note: see current operation: %151 = index.sub %c23, %c30
generated/temp581529840236588062208.mlir:283:21: remark: found an instance of 'allocate' on a value, on resource '<Default>'
        %alloc_32 = memref.alloc(%c24, %c13) : memref<?x?x5xi16>
                    ^
generated/temp581529840236588062208.mlir:283:21: note: see current operation: %alloc_32 = memref.alloc(%c24, %c13) : memref<?x?x5xi16>
generated/temp581529840236588062208.mlir:284:16: remark: operation has no memory effects
        %152 = arith.remf %56, %146 : f16
               ^
generated/temp581529840236588062208.mlir:284:16: note: see current operation: %152 = arith.remf %56, %146 : f16
generated/temp581529840236588062208.mlir:285:16: remark: operation has no memory effects
        %153 = arith.cmpf uno, %80, %83 : f16
               ^
generated/temp581529840236588062208.mlir:285:16: note: see current operation: %153 = arith.cmpf uno, %80, %83 : f16
generated/temp581529840236588062208.mlir:286:16: remark: operation has no memory effects
        %154 = arith.floordivsi %true, %true : i1
               ^
generated/temp581529840236588062208.mlir:286:16: note: see current operation: %154 = arith.floordivsi %true, %true : i1
generated/temp581529840236588062208.mlir:287:16: remark: operation has no memory effects
        %155 = index.divs %c9, %c25
               ^
generated/temp581529840236588062208.mlir:287:16: note: see current operation: %155 = index.divs %c9, %c25
generated/temp581529840236588062208.mlir:288:16: remark: operation has no memory effects
        %156 = math.exp2 %33 : f16
               ^
generated/temp581529840236588062208.mlir:288:16: note: see current operation: %156 = math.exp2 %33 : f16
generated/temp581529840236588062208.mlir:289:16: remark: operation has no memory effects
        %157 = vector.create_mask %c13, %c1, %c26 : vector<5x27x5xi1>
               ^
generated/temp581529840236588062208.mlir:289:16: note: see current operation: %157 = vector.create_mask %c13, %c1, %c26 : vector<5x27x5xi1>
generated/temp581529840236588062208.mlir:290:16: remark: operation has no memory effects
        %158 = arith.remsi %57, %95 : i1
               ^
generated/temp581529840236588062208.mlir:290:16: note: see current operation: %158 = arith.remsi %57, %95 : i1
generated/temp581529840236588062208.mlir:291:16: remark: operation has no memory effects
        %159 = math.ceil %54 : f16
               ^
generated/temp581529840236588062208.mlir:291:16: note: see current operation: %159 = math.ceil %54 : f16
generated/temp581529840236588062208.mlir:292:16: remark: found an instance of 'read' on a value, on resource '<Default>'
        %160 = bufferization.to_tensor %alloc_13 : memref<5x5xi1>
               ^
generated/temp581529840236588062208.mlir:292:16: note: see current operation: %160 = bufferization.to_tensor %alloc_13 : memref<5x5xi1>
generated/temp581529840236588062208.mlir:293:16: remark: operation has no memory effects
        %161 = vector.broadcast %cst_2 : f32 to vector<20xf32>
               ^
generated/temp581529840236588062208.mlir:293:16: note: see current operation: %161 = vector.broadcast %cst_2 : f32 to vector<20xf32>
generated/temp581529840236588062208.mlir:294:16: remark: operation has no memory effects
        %162 = vector.broadcast %true : i1 to vector<20xi1>
               ^
generated/temp581529840236588062208.mlir:294:16: note: see current operation: %162 = vector.broadcast %true : i1 to vector<20xi1>
generated/temp581529840236588062208.mlir:295:9: remark: found an instance of 'write' on a value, on resource '<Default>'
        vector.compressstore %36[%c0, %c19, %c5], %162, %161 : memref<5x20x20xf32>, vector<20xi1>, vector<20xf32>
        ^
generated/temp581529840236588062208.mlir:295:9: note: see current operation: vector.compressstore %36[%c0, %c19, %c5], %162, %161 : memref<5x20x20xf32>, vector<20xi1>, vector<20xf32>
generated/temp581529840236588062208.mlir:296:16: remark: operation has no memory effects
        %163 = math.ceil %cst_1 : f16
               ^
generated/temp581529840236588062208.mlir:296:16: note: see current operation: %163 = math.ceil %cst_1 : f16
generated/temp581529840236588062208.mlir:297:16: remark: operation has no memory effects
        %164 = math.log %cst_8 : f32
               ^
generated/temp581529840236588062208.mlir:297:16: note: see current operation: %164 = math.log %cst_8 : f32
generated/temp581529840236588062208.mlir:298:16: remark: operation has no memory effects
        %165 = index.divu %c21, %c9
               ^
generated/temp581529840236588062208.mlir:298:16: note: see current operation: %165 = index.divu %c21, %c9
generated/temp581529840236588062208.mlir:299:16: remark: operation has no memory effects
        %166 = affine.min affine_map<(d0, d1) -> (d0 - 1)>(%165, %c29)
               ^
generated/temp581529840236588062208.mlir:299:16: note: see current operation: %166 = affine.min affine_map<(d0, d1) -> (d0 - 1)>(%165, %c29)
generated/temp581529840236588062208.mlir:300:16: remark: operation has no memory effects
        %167 = vector.broadcast %c24 : index to vector<20xindex>
               ^
generated/temp581529840236588062208.mlir:300:16: note: see current operation: %167 = vector.broadcast %c24 : index to vector<20xindex>
generated/temp581529840236588062208.mlir:301:16: remark: operation has no memory effects
        %168 = vector.broadcast %58 : i1 to vector<20xi1>
               ^
generated/temp581529840236588062208.mlir:301:16: note: see current operation: %168 = vector.broadcast %58 : i1 to vector<20xi1>
generated/temp581529840236588062208.mlir:302:16: remark: operation has no memory effects
        %169 = vector.broadcast %22 : i16 to vector<20xi16>
               ^
generated/temp581529840236588062208.mlir:302:16: note: see current operation: %169 = vector.broadcast %22 : i16 to vector<20xi16>
generated/temp581529840236588062208.mlir:303:9: remark: found an instance of 'write' on a value, on resource '<Default>'
        vector.scatter %alloc_23[%c4, %c0, %c3] [%167], %168, %169 : memref<5x20x20xi16>, vector<20xindex>, vector<20xi1>, vector<20xi16>
        ^
generated/temp581529840236588062208.mlir:303:9: note: see current operation: vector.scatter %alloc_23[%c4, %c0, %c3] [%167], %168, %169 : memref<5x20x20xi16>, vector<20xindex>, vector<20xi1>, vector<20xi16>
generated/temp581529840236588062208.mlir:304:16: remark: found an instance of 'read' on a value, on resource '<Default>'
        %170 = affine.vector_load %alloc_22[%c0, %c22, %c4] : memref<5x20x20xf32>, vector<20xf32>
               ^
generated/temp581529840236588062208.mlir:304:16: note: see current operation: %170 = affine.vector_load %alloc_22[%c0, %c22, %c4] : memref<5x20x20xf32>, vector<20xf32>
generated/temp581529840236588062208.mlir:305:24: remark: operation has no memory effects
        %expanded_33 = tensor.expand_shape %5 [[0], [1, 2]] : tensor<5x5xf16> into tensor<5x5x1xf16>
                       ^
generated/temp581529840236588062208.mlir:305:24: note: see current operation: %expanded_33 = tensor.expand_shape %5 [[0], [1, 2]] : tensor<5x5xf16> into tensor<5x5x1xf16>
generated/temp581529840236588062208.mlir:306:16: remark: operation has no memory effects
        %171 = math.expm1 %expanded_33 : tensor<5x5x1xf16>
               ^
generated/temp581529840236588062208.mlir:306:16: note: see current operation: %171 = math.expm1 %expanded_33 : tensor<5x5x1xf16>
generated/temp581529840236588062208.mlir:307:16: remark: found an instance of 'read' on a value, on resource '<Default>'
        %172 = memref.atomic_rmw addi %c1268563714_i32, %alloc_20[%c0, %c0] : (i32, memref<?x?xi32>) -> i32
               ^
generated/temp581529840236588062208.mlir:307:16: note: see current operation: %172 = memref.atomic_rmw addi %c1268563714_i32, %alloc_20[%c0, %c0] : (i32, memref<?x?xi32>) -> i32
generated/temp581529840236588062208.mlir:307:16: remark: found an instance of 'write' on a value, on resource '<Default>'
        %172 = memref.atomic_rmw addi %c1268563714_i32, %alloc_20[%c0, %c0] : (i32, memref<?x?xi32>) -> i32
               ^
generated/temp581529840236588062208.mlir:307:16: note: see current operation: %172 = memref.atomic_rmw addi %c1268563714_i32, %alloc_20[%c0, %c0] : (i32, memref<?x?xi32>) -> i32
generated/temp581529840236588062208.mlir:308:16: remark: operation has no memory effects
        %173 = math.powf %88, %80 : f16
               ^
generated/temp581529840236588062208.mlir:308:16: note: see current operation: %173 = math.powf %88, %80 : f16
generated/temp581529840236588062208.mlir:309:16: remark: operation has no memory effects
        %174 = index.casts %c1712353702_i64 : i64 to index
               ^
generated/temp581529840236588062208.mlir:309:16: note: see current operation: %174 = index.casts %c1712353702_i64 : i64 to index
generated/temp581529840236588062208.mlir:310:16: remark: found an instance of 'read' on a value, on resource '<Default>'
        %175 = affine.vector_load %alloc_18[%c17, %c28, %c5] : memref<?x?x20xf32>, vector<5xf32>
               ^
generated/temp581529840236588062208.mlir:310:16: note: see current operation: %175 = affine.vector_load %alloc_18[%c17, %c28, %c5] : memref<?x?x20xf32>, vector<5xf32>
generated/temp581529840236588062208.mlir:311:16: remark: operation has no memory effects
        %176 = arith.divui %65, %78 : i1
               ^
generated/temp581529840236588062208.mlir:311:16: note: see current operation: %176 = arith.divui %65, %78 : i1
generated/temp581529840236588062208.mlir:312:16: remark: operation has no memory effects
        %177 = arith.addf %cst_7, %cst_8 : f32
               ^
generated/temp581529840236588062208.mlir:312:16: note: see current operation: %177 = arith.addf %cst_7, %cst_8 : f32
generated/temp581529840236588062208.mlir:313:9: remark: operation has no memory effects
        memref.alloca_scope.return %alloc_16 : memref<?x20x20xf16>
        ^
generated/temp581529840236588062208.mlir:313:9: note: see current operation: memref.alloca_scope.return %alloc_16 : memref<?x20x20xf16>
generated/temp581529840236588062208.mlir:315:7: remark: found an instance of 'write' on a value, on resource '<Default>'
      affine.vector_store %43, %alloc_20[%59, %59] : memref<?x?xi32>, vector<2xi32>
      ^
generated/temp581529840236588062208.mlir:315:7: note: see current operation: affine.vector_store %43, %alloc_20[%59, %59] : memref<?x?xi32>, vector<2xi32>
generated/temp581529840236588062208.mlir:316:14: remark: operation has no memory effects
      %137 = arith.divsi %18, %39 : i64
             ^
generated/temp581529840236588062208.mlir:316:14: note: see current operation: %137 = arith.divsi %18, %39 : i64
<unknown>:0: remark: operation has no memory effects
<unknown>:0: note: see current operation: linalg.yield %arg0 : i1
generated/temp581529840236588062208.mlir:317:14: remark: operation has no memory effects
      %138 = linalg.copy ins(%14 : tensor<?x?x5xi1>) outs(%14 : tensor<?x?x5xi1>) -> tensor<?x?x5xi1>
             ^
generated/temp581529840236588062208.mlir:317:14: note: see current operation: %138 = linalg.copy ins(%14 : tensor<?x?x5xi1>) outs(%14 : tensor<?x?x5xi1>) -> tensor<?x?x5xi1>
generated/temp581529840236588062208.mlir:318:14: remark: operation has no memory effects
      %139 = math.absi %18 : i64
             ^
generated/temp581529840236588062208.mlir:318:14: note: see current operation: %139 = math.absi %18 : i64
generated/temp581529840236588062208.mlir:319:14: remark: operation has no memory effects
      %140 = vector.insert %c1268563714_i32, %43 [0] : i32 into vector<2xi32>
             ^
generated/temp581529840236588062208.mlir:319:14: note: see current operation: %140 = vector.insert %c1268563714_i32, %43 [0] : i32 into vector<2xi32>
generated/temp581529840236588062208.mlir:320:14: remark: operation has no memory effects
      %141 = index.shl %c3, %51
             ^
generated/temp581529840236588062208.mlir:320:14: note: see current operation: %141 = index.shl %c3, %51
generated/temp581529840236588062208.mlir:321:14: remark: operation has no memory effects
      %142 = arith.cmpi sgt, %c1268563714_i32, %c1268563714_i32 : i32
             ^
generated/temp581529840236588062208.mlir:321:14: note: see current operation: %142 = arith.cmpi sgt, %c1268563714_i32, %c1268563714_i32 : i32
generated/temp581529840236588062208.mlir:322:19: remark: found an instance of 'allocate' on a value, on resource '<Default>'
      %alloc_31 = memref.alloc() : memref<20xi64>
                  ^
generated/temp581529840236588062208.mlir:322:19: note: see current operation: %alloc_31 = memref.alloc() : memref<20xi64>
generated/temp581529840236588062208.mlir:323:14: remark: operation has no memory effects
      %143 = tensor.empty() : tensor<i64>
             ^
generated/temp581529840236588062208.mlir:323:14: note: see current operation: %143 = tensor.empty() : tensor<i64>
generated/temp581529840236588062208.mlir:324:14: remark: operation has no memory effects
      %144 = tensor.empty() : tensor<20xi64>
             ^
generated/temp581529840236588062208.mlir:324:14: note: see current operation: %144 = tensor.empty() : tensor<20xi64>
generated/temp581529840236588062208.mlir:327:16: remark: operation has no memory effects
        %146 = index.floordivs %c23, %c6
               ^
generated/temp581529840236588062208.mlir:327:16: note: see current operation: %146 = index.floordivs %c23, %c6
generated/temp581529840236588062208.mlir:328:9: remark: operation has no memory effects
        linalg.yield %in : i64
        ^
generated/temp581529840236588062208.mlir:328:9: note: see current operation: linalg.yield %in : i64
generated/temp581529840236588062208.mlir:325:14: remark: found an instance of 'read' on a value, on resource '<Default>'
      %145 = linalg.generic {indexing_maps = [affine_map<(d0) -> (d0)>, affine_map<(d0) -> (d0)>, affine_map<(d0) -> ()>, affine_map<(d0) -> (d0)>], iterator_types = ["parallel"]} ins(%alloc_31, %alloc_31, %143 : memref<20xi64>, memref<20xi64>, tensor<i64>) outs(%144 : tensor<20xi64>) {
             ^
generated/temp581529840236588062208.mlir:325:14: note: see current operation: 
%145 = linalg.generic {indexing_maps = [affine_map<(d0) -> (d0)>, affine_map<(d0) -> (d0)>, affine_map<(d0) -> ()>, affine_map<(d0) -> (d0)>], iterator_types = ["parallel"]} ins(%alloc_31, %alloc_31, %143 : memref<20xi64>, memref<20xi64>, tensor<i64>) outs(%144 : tensor<20xi64>) {
^bb0(%in: i64, %in_32: i64, %in_33: i64, %out: i64):
  %146 = index.floordivs %c23, %c6
  linalg.yield %in : i64
} -> tensor<20xi64>
generated/temp581529840236588062208.mlir:325:14: remark: found an instance of 'read' on a value, on resource '<Default>'
      %145 = linalg.generic {indexing_maps = [affine_map<(d0) -> (d0)>, affine_map<(d0) -> (d0)>, affine_map<(d0) -> ()>, affine_map<(d0) -> (d0)>], iterator_types = ["parallel"]} ins(%alloc_31, %alloc_31, %143 : memref<20xi64>, memref<20xi64>, tensor<i64>) outs(%144 : tensor<20xi64>) {
             ^
generated/temp581529840236588062208.mlir:325:14: note: see current operation: 
%145 = linalg.generic {indexing_maps = [affine_map<(d0) -> (d0)>, affine_map<(d0) -> (d0)>, affine_map<(d0) -> ()>, affine_map<(d0) -> (d0)>], iterator_types = ["parallel"]} ins(%alloc_31, %alloc_31, %143 : memref<20xi64>, memref<20xi64>, tensor<i64>) outs(%144 : tensor<20xi64>) {
^bb0(%in: i64, %in_32: i64, %in_33: i64, %out: i64):
  %146 = index.floordivs %c23, %c6
  linalg.yield %in : i64
} -> tensor<20xi64>
generated/temp581529840236588062208.mlir:330:7: remark: operation has no memory effects
      scf.yield %77 : index
      ^
generated/temp581529840236588062208.mlir:330:7: note: see current operation: scf.yield %77 : index
generated/temp581529840236588062208.mlir:332:11: remark: operation has no memory effects
    %97 = arith.shrsi %21, %65 : i1
          ^
generated/temp581529840236588062208.mlir:332:11: note: see current operation: %97 = arith.shrsi %21, %65 : i1
generated/temp581529840236588062208.mlir:335:14: remark: operation has no memory effects
      %131 = index.ceildivu %c7, %arg0
             ^
generated/temp581529840236588062208.mlir:335:14: note: see current operation: %131 = index.ceildivu %c7, %arg0
generated/temp581529840236588062208.mlir:336:14: remark: operation has no memory effects
      %132 = tensor.empty(%51, %c12, %c13) : tensor<?x?x?xi64>
             ^
generated/temp581529840236588062208.mlir:336:14: note: see current operation: %132 = tensor.empty(%51, %c12, %c13) : tensor<?x?x?xi64>
generated/temp581529840236588062208.mlir:339:24: remark: operation has no memory effects
          %extracted = tensor.extract %7[%c0, %c25, %c2] : tensor<?x27x5xf16>
                       ^
generated/temp581529840236588062208.mlir:339:24: note: see current operation: %extracted = tensor.extract %7[%c0, %c25, %c2] : tensor<?x27x5xf16>
generated/temp581529840236588062208.mlir:340:18: remark: operation has no memory effects
          %135 = affine.apply affine_map<(d0, d1, d2) -> ((-d0 - d2) mod 2)>(%c8, %arg1, %c2)
                 ^
generated/temp581529840236588062208.mlir:340:18: note: see current operation: %135 = affine.apply affine_map<(d0, d1, d2) -> ((-d0 - d2) mod 2)>(%c8, %arg1, %c2)
generated/temp581529840236588062208.mlir:341:18: remark: operation has no memory effects
          %136 = arith.ceildivsi %21, %27 : i1
                 ^
generated/temp581529840236588062208.mlir:341:18: note: see current operation: %136 = arith.ceildivsi %21, %27 : i1
generated/temp581529840236588062208.mlir:342:22: remark: operation has no memory effects
          %true_31 = index.bool.constant true
                     ^
generated/temp581529840236588062208.mlir:342:22: note: see current operation: %true_31 = index.bool.constant true
generated/temp581529840236588062208.mlir:343:18: remark: operation has no memory effects
          %137 = math.rsqrt %91 : f16
                 ^
generated/temp581529840236588062208.mlir:343:18: note: see current operation: %137 = math.rsqrt %91 : f16
generated/temp581529840236588062208.mlir:344:18: remark: operation has no memory effects
          %138 = arith.remui %22, %29 : i16
                 ^
generated/temp581529840236588062208.mlir:344:18: note: see current operation: %138 = arith.remui %22, %29 : i16
generated/temp581529840236588062208.mlir:345:18: remark: operation has no memory effects
          %139 = arith.shrsi %57, %21 : i1
                 ^
generated/temp581529840236588062208.mlir:345:18: note: see current operation: %139 = arith.shrsi %57, %21 : i1
generated/temp581529840236588062208.mlir:346:18: remark: operation has no memory effects
          %140 = arith.shrsi %c1712353702_i64, %in : i64
                 ^
generated/temp581529840236588062208.mlir:346:18: note: see current operation: %140 = arith.shrsi %c1712353702_i64, %in : i64
generated/temp581529840236588062208.mlir:347:18: remark: operation has no memory effects
          %141 = index.ceildivu %c12, %c21
                 ^
generated/temp581529840236588062208.mlir:347:18: note: see current operation: %141 = index.ceildivu %c12, %c21
generated/temp581529840236588062208.mlir:348:18: remark: operation has no memory effects
          %142 = math.fma %30, %54, %cst_6 : f16
                 ^
generated/temp581529840236588062208.mlir:348:18: note: see current operation: %142 = math.fma %30, %54, %cst_6 : f16
generated/temp581529840236588062208.mlir:349:18: remark: operation has no memory effects
          %143 = bufferization.to_memref %14 : memref<?x?x5xi1>
                 ^
generated/temp581529840236588062208.mlir:349:18: note: see current operation: %143 = bufferization.to_memref %14 : memref<?x?x5xi1>
generated/temp581529840236588062208.mlir:350:18: remark: operation has no memory effects
          %144 = index.maxu %c18, %96
                 ^
generated/temp581529840236588062208.mlir:350:18: note: see current operation: %144 = index.maxu %c18, %96
generated/temp581529840236588062208.mlir:351:18: remark: found an instance of 'read' on a value, on resource '<Default>'
          %145 = bufferization.clone %alloc_14 : memref<5x20x20xf32> to memref<5x20x20xf32>
                 ^
generated/temp581529840236588062208.mlir:351:18: note: see current operation: %145 = bufferization.clone %alloc_14 : memref<5x20x20xf32> to memref<5x20x20xf32>
generated/temp581529840236588062208.mlir:351:18: remark: found an instance of 'write' on a value, on resource '<Default>'
          %145 = bufferization.clone %alloc_14 : memref<5x20x20xf32> to memref<5x20x20xf32>
                 ^
generated/temp581529840236588062208.mlir:351:18: note: see current operation: %145 = bufferization.clone %alloc_14 : memref<5x20x20xf32> to memref<5x20x20xf32>
generated/temp581529840236588062208.mlir:351:18: remark: found an instance of 'allocate' on a value, on resource '<Default>'
          %145 = bufferization.clone %alloc_14 : memref<5x20x20xf32> to memref<5x20x20xf32>
                 ^
generated/temp581529840236588062208.mlir:351:18: note: see current operation: %145 = bufferization.clone %alloc_14 : memref<5x20x20xf32> to memref<5x20x20xf32>
generated/temp581529840236588062208.mlir:352:18: remark: operation has no memory effects
          %146 = vector.bitcast %43 : vector<2xi32> to vector<2xi32>
                 ^
generated/temp581529840236588062208.mlir:352:18: note: see current operation: %146 = vector.bitcast %43 : vector<2xi32> to vector<2xi32>
generated/temp581529840236588062208.mlir:353:18: remark: operation has no memory effects
          %147 = math.ipowi %in_30, %c6979223_i64 : i64
                 ^
generated/temp581529840236588062208.mlir:353:18: note: see current operation: %147 = math.ipowi %in_30, %c6979223_i64 : i64
generated/temp581529840236588062208.mlir:354:18: remark: operation has no memory effects
          %148 = affine.max affine_map<(d0, d1) -> (d0 - 1)>(%c15, %c8)
                 ^
generated/temp581529840236588062208.mlir:354:18: note: see current operation: %148 = affine.max affine_map<(d0, d1) -> (d0 - 1)>(%c15, %c8)
generated/temp581529840236588062208.mlir:355:18: remark: operation has no memory effects
          %149 = index.and %c26, %c30
                 ^
generated/temp581529840236588062208.mlir:355:18: note: see current operation: %149 = index.and %c26, %c30
generated/temp581529840236588062208.mlir:357:26: remark: operation has no memory effects
          %expanded_32 = tensor.expand_shape %90 [[0], [1], [2, 3]] : tensor<5x20x20xi16> into tensor<5x20x20x1xi16>
                         ^
generated/temp581529840236588062208.mlir:357:26: note: see current operation: %expanded_32 = tensor.expand_shape %90 [[0], [1], [2, 3]] : tensor<5x20x20xi16> into tensor<5x20x20x1xi16>
generated/temp581529840236588062208.mlir:358:18: remark: operation has no memory effects
          %150 = arith.shrsi %true_31, %true_31 : i1
                 ^
generated/temp581529840236588062208.mlir:358:18: note: see current operation: %150 = arith.shrsi %true_31, %true_31 : i1
generated/temp581529840236588062208.mlir:359:18: remark: operation has no memory effects
          %151 = math.absf %56 : f16
                 ^
generated/temp581529840236588062208.mlir:359:18: note: see current operation: %151 = math.absf %56 : f16
generated/temp581529840236588062208.mlir:360:11: remark: found an instance of 'write' on a value, on resource '<Default>'
          memref.store %cst_2, %alloc_18[%c0, %c0, %c16] : memref<?x?x20xf32>
          ^
generated/temp581529840236588062208.mlir:360:11: note: see current operation: memref.store %cst_2, %alloc_18[%c0, %c0, %c16] : memref<?x?x20xf32>
generated/temp581529840236588062208.mlir:361:18: remark: operation has no memory effects
          %152 = arith.divsi %c1712353702_i64, %39 : i64
                 ^
generated/temp581529840236588062208.mlir:361:18: note: see current operation: %152 = arith.divsi %c1712353702_i64, %39 : i64
generated/temp581529840236588062208.mlir:362:18: remark: operation has no memory effects
          %153 = index.ceildivu %c15, %c21
                 ^
generated/temp581529840236588062208.mlir:362:18: note: see current operation: %153 = index.ceildivu %c15, %c21
generated/temp581529840236588062208.mlir:363:18: remark: operation has no memory effects
          %154 = math.tan %extracted : f16
                 ^
generated/temp581529840236588062208.mlir:363:18: note: see current operation: %154 = math.tan %extracted : f16
generated/temp581529840236588062208.mlir:364:11: remark: found an instance of 'write' on a value, on resource '<Default>'
          affine.store %60, %alloc_13[%c3, %c13] : memref<5x5xi1>
          ^
generated/temp581529840236588062208.mlir:364:11: note: see current operation: affine.store %60, %alloc_13[%c3, %c13] : memref<5x5xi1>
generated/temp581529840236588062208.mlir:365:19: remark: operation has no memory effects
          %rank = tensor.rank %1 : tensor<?x?xi32>
                  ^
generated/temp581529840236588062208.mlir:365:19: note: see current operation: %rank = tensor.rank %1 : tensor<?x?xi32>
generated/temp581529840236588062208.mlir:366:18: remark: operation has no memory effects
          %155 = index.divs %135, %c19
                 ^
generated/temp581529840236588062208.mlir:366:18: note: see current operation: %155 = index.divs %135, %c19
generated/temp581529840236588062208.mlir:367:18: remark: operation has no memory effects
          %156 = index.casts %c1268563714_i32 : i32 to index
                 ^
generated/temp581529840236588062208.mlir:367:18: note: see current operation: %156 = index.casts %c1268563714_i32 : i32 to index
generated/temp581529840236588062208.mlir:368:18: remark: operation has no memory effects
          %157 = vector.reduction <maxsi>, %43 : vector<2xi32> into i32
                 ^
generated/temp581529840236588062208.mlir:368:18: note: see current operation: %157 = vector.reduction <maxsi>, %43 : vector<2xi32> into i32
generated/temp581529840236588062208.mlir:369:18: remark: operation has no memory effects
          %158 = affine.apply affine_map<(d0, d1, d2)[s0] -> (d2 * 2)>(%rank, %59, %c23)[%arg1]
                 ^
generated/temp581529840236588062208.mlir:369:18: note: see current operation: %158 = affine.apply affine_map<(d0, d1, d2)[s0] -> (d2 * 2)>(%rank, %59, %c23)[%arg1]
generated/temp581529840236588062208.mlir:370:18: remark: operation has no memory effects
          %159 = math.atan %83 : f16
                 ^
generated/temp581529840236588062208.mlir:370:18: note: see current operation: %159 = math.atan %83 : f16
generated/temp581529840236588062208.mlir:371:11: remark: operation has no memory effects
          linalg.yield %c1712353702_i64 : i64
          ^
generated/temp581529840236588062208.mlir:371:11: note: see current operation: linalg.yield %c1712353702_i64 : i64
generated/temp581529840236588062208.mlir:337:17: remark: found an instance of 'read' on a value, on resource '<Default>'
      %mapped = linalg.map ins(%alloc_17, %0 : memref<?x?x?xi64>, tensor<?x?x?xi64>) outs(%132 : tensor<?x?x?xi64>)
                ^
generated/temp581529840236588062208.mlir:337:17: note: see current operation: 
%mapped = linalg.map ins(%alloc_17, %0 : memref<?x?x?xi64>, tensor<?x?x?xi64>) outs(%132 : tensor<?x?x?xi64>)
  (%in: i64, %in_30: i64) {
    %extracted = tensor.extract %7[%c0, %c25, %c2] : tensor<?x27x5xf16>
    %135 = affine.apply affine_map<(d0, d1, d2) -> ((-d0 - d2) mod 2)>(%c8, %arg1, %c2)
    %136 = arith.ceildivsi %21, %27 : i1
    %true_31 = index.bool.constant true
    %137 = math.rsqrt %91 : f16
    %138 = arith.remui %22, %29 : i16
    %139 = arith.shrsi %57, %21 : i1
    %140 = arith.shrsi %c1712353702_i64, %in : i64
    %141 = index.ceildivu %c12, %c21
    %142 = math.fma %30, %54, %cst_6 : f16
    %143 = bufferization.to_memref %14 : memref<?x?x5xi1>
    %144 = index.maxu %c18, %96
    %145 = bufferization.clone %alloc_14 : memref<5x20x20xf32> to memref<5x20x20xf32>
    %146 = vector.bitcast %43 : vector<2xi32> to vector<2xi32>
    %147 = math.ipowi %in_30, %c6979223_i64 : i64
    %148 = affine.max affine_map<(d0, d1) -> (d0 - 1)>(%c15, %c8)
    %149 = index.and %c26, %c30
    vector.print %61 : vector<5x20x20xi1>
    %expanded_32 = tensor.expand_shape %90 [[0], [1], [2, 3]] : tensor<5x20x20xi16> into tensor<5x20x20x1xi16>
    %150 = arith.shrsi %true_31, %true_31 : i1
    %151 = math.absf %56 : f16
    memref.store %cst_2, %alloc_18[%c0, %c0, %c16] : memref<?x?x20xf32>
    %152 = arith.divsi %c1712353702_i64, %39 : i64
    %153 = index.ceildivu %c15, %c21
    %154 = math.tan %extracted : f16
    affine.store %60, %alloc_13[%c3, %c13] : memref<5x5xi1>
    %rank = tensor.rank %1 : tensor<?x?xi32>
    %155 = index.divs %135, %c19
    %156 = index.casts %c1268563714_i32 : i32 to index
    %157 = vector.reduction <maxsi>, %43 : vector<2xi32> into i32
    %158 = affine.apply affine_map<(d0, d1, d2)[s0] -> (d2 * 2)>(%rank, %59, %c23)[%arg1]
    %159 = math.atan %83 : f16
    linalg.yield %c1712353702_i64 : i64
  }
generated/temp581529840236588062208.mlir:373:14: remark: operation has no memory effects
      %133 = math.ceil %40 : f16
             ^
generated/temp581529840236588062208.mlir:373:14: note: see current operation: %133 = math.ceil %40 : f16
<unknown>:0: remark: operation has no memory effects
<unknown>:0: note: see current operation: linalg.yield %arg2 : f32
generated/temp581529840236588062208.mlir:374:14: remark: operation has no memory effects
      %134 = linalg.copy ins(%6 : tensor<?x?xf32>) outs(%6 : tensor<?x?xf32>) -> tensor<?x?xf32>
             ^
generated/temp581529840236588062208.mlir:374:14: note: see current operation: %134 = linalg.copy ins(%6 : tensor<?x?xf32>) outs(%6 : tensor<?x?xf32>) -> tensor<?x?xf32>
generated/temp581529840236588062208.mlir:375:7: remark: operation has no memory effects
      tensor.yield %58 : i1
      ^
generated/temp581529840236588062208.mlir:375:7: note: see current operation: tensor.yield %58 : i1
generated/temp581529840236588062208.mlir:377:11: remark: operation has no memory effects
    %98 = math.exp %67 : f16
          ^
generated/temp581529840236588062208.mlir:377:11: note: see current operation: %98 = math.exp %67 : f16
generated/temp581529840236588062208.mlir:378:11: remark: operation has no memory effects
    %99 = spirv.GL.UMax %29, %c26224_i16 : i16
          ^
generated/temp581529840236588062208.mlir:378:11: note: see current operation: %99 = spirv.GL.UMax %29, %c26224_i16 : i16
generated/temp581529840236588062208.mlir:379:5: remark: found an instance of 'write' on a value, on resource '<Default>'
    memref.store %c1712353702_i64, %alloc_9[%c0, %c0, %c0] : memref<?x?x?xi64>
    ^
generated/temp581529840236588062208.mlir:379:5: note: see current operation: memref.store %c1712353702_i64, %alloc_9[%c0, %c0, %c0] : memref<?x?x?xi64>
generated/temp581529840236588062208.mlir:380:12: remark: operation has no memory effects
    %100 = spirv.CL.u_max %18, %50 : i64
           ^
generated/temp581529840236588062208.mlir:380:12: note: see current operation: %100 = spirv.CL.u_max %18, %50 : i64
generated/temp581529840236588062208.mlir:381:12: remark: operation has no memory effects
    %101 = index.shrs %51, %c7
           ^
generated/temp581529840236588062208.mlir:381:12: note: see current operation: %101 = index.shrs %51, %c7
generated/temp581529840236588062208.mlir:383:12: remark: operation has no memory effects
    %102 = spirv.IsNan %64 : f16
           ^
generated/temp581529840236588062208.mlir:383:12: note: see current operation: %102 = spirv.IsNan %64 : f16
generated/temp581529840236588062208.mlir:384:12: remark: operation has no memory effects
    %103 = spirv.CL.ceil %cst_8 : f32
           ^
generated/temp581529840236588062208.mlir:384:12: note: see current operation: %103 = spirv.CL.ceil %cst_8 : f32
generated/temp581529840236588062208.mlir:386:14: remark: found an instance of 'read' on a value, on resource '<Default>'
      %131 = affine.vector_load %alloc_21[%c4, %71, %c5] : memref<5x27x5xi16>, vector<20xi16>
             ^
generated/temp581529840236588062208.mlir:386:14: note: see current operation: %131 = affine.vector_load %alloc_21[%c4, %71, %c5] : memref<5x27x5xi16>, vector<20xi16>
generated/temp581529840236588062208.mlir:387:14: remark: operation has no memory effects
      %132 = vector.insert %c1268563714_i32, %43 [0] : i32 into vector<2xi32>
             ^
generated/temp581529840236588062208.mlir:387:14: note: see current operation: %132 = vector.insert %c1268563714_i32, %43 [0] : i32 into vector<2xi32>
generated/temp581529840236588062208.mlir:388:14: remark: operation has no memory effects
      %133 = math.absi %arg0 : i64
             ^
generated/temp581529840236588062208.mlir:388:14: note: see current operation: %133 = math.absi %arg0 : i64
generated/temp581529840236588062208.mlir:389:14: remark: operation has no memory effects
      %134 = math.powf %42, %85 : f16
             ^
generated/temp581529840236588062208.mlir:389:14: note: see current operation: %134 = math.powf %42, %85 : f16
generated/temp581529840236588062208.mlir:390:14: remark: operation has no memory effects
      %135 = arith.negf %41 : f16
             ^
generated/temp581529840236588062208.mlir:390:14: note: see current operation: %135 = arith.negf %41 : f16
generated/temp581529840236588062208.mlir:391:14: remark: operation has no memory effects
      %136 = index.divu %c17, %c11
             ^
generated/temp581529840236588062208.mlir:391:14: note: see current operation: %136 = index.divu %c17, %c11
generated/temp581529840236588062208.mlir:393:14: remark: operation has no memory effects
      %137 = math.powf %80, %94 : f16
             ^
generated/temp581529840236588062208.mlir:393:14: note: see current operation: %137 = math.powf %80, %94 : f16
generated/temp581529840236588062208.mlir:394:7: remark: operation has no memory effects
      scf.condition(%58) %39 : i64
      ^
generated/temp581529840236588062208.mlir:394:7: note: see current operation: scf.condition(%58) %39 : i64
generated/temp581529840236588062208.mlir:397:14: remark: operation has no memory effects
      %131 = vector.shuffle %43, %43 [0] : vector<2xi32>, vector<2xi32>
             ^
generated/temp581529840236588062208.mlir:397:14: note: see current operation: %131 = vector.shuffle %43, %43 [0] : vector<2xi32>, vector<2xi32>
generated/temp581529840236588062208.mlir:398:14: remark: operation has no memory effects
      %132 = index.sub %c11, %c10
             ^
generated/temp581529840236588062208.mlir:398:14: note: see current operation: %132 = index.sub %c11, %c10
generated/temp581529840236588062208.mlir:400:16: remark: operation has no memory effects
        %145 = index.xor %c24, %c16
               ^
generated/temp581529840236588062208.mlir:400:16: note: see current operation: %145 = index.xor %c24, %c16
generated/temp581529840236588062208.mlir:401:16: remark: operation has no memory effects
        %146 = arith.remf %40, %83 : f16
               ^
generated/temp581529840236588062208.mlir:401:16: note: see current operation: %146 = arith.remf %40, %83 : f16
generated/temp581529840236588062208.mlir:402:16: remark: operation has no memory effects
        %147 = math.log1p %80 : f16
               ^
generated/temp581529840236588062208.mlir:402:16: note: see current operation: %147 = math.log1p %80 : f16
generated/temp581529840236588062208.mlir:403:16: remark: operation has no memory effects
        %148 = index.ceildivs %c20, %c13
               ^
generated/temp581529840236588062208.mlir:403:16: note: see current operation: %148 = index.ceildivs %c20, %c13
generated/temp581529840236588062208.mlir:404:16: remark: operation has no memory effects
        %149 = arith.shli %true, %102 : i1
               ^
generated/temp581529840236588062208.mlir:404:16: note: see current operation: %149 = arith.shli %true, %102 : i1
generated/temp581529840236588062208.mlir:405:9: remark: found an instance of 'write' on a value, on resource '<Default>'
        affine.vector_store %43, %alloc_20[%c7, %c25] : memref<?x?xi32>, vector<2xi32>
        ^
generated/temp581529840236588062208.mlir:405:9: note: see current operation: affine.vector_store %43, %alloc_20[%c7, %c25] : memref<?x?xi32>, vector<2xi32>
generated/temp581529840236588062208.mlir:406:16: remark: operation has no memory effects
        %150 = math.atan %cst : f16
               ^
generated/temp581529840236588062208.mlir:406:16: note: see current operation: %150 = math.atan %cst : f16
generated/temp581529840236588062208.mlir:407:16: remark: operation has no memory effects
        %151 = index.sub %c25, %96
               ^
generated/temp581529840236588062208.mlir:407:16: note: see current operation: %151 = index.sub %c25, %96
generated/temp581529840236588062208.mlir:399:7: remark: operation has no memory effects
      vector.warp_execute_on_lane_0(%c0)[32] {
      ^
generated/temp581529840236588062208.mlir:399:7: note: see current operation: vector.yield
generated/temp581529840236588062208.mlir:409:14: remark: operation has no memory effects
      %133 = vector.broadcast %c1712353702_i64 : i64 to vector<20xi64>
             ^
generated/temp581529840236588062208.mlir:409:14: note: see current operation: %133 = vector.broadcast %c1712353702_i64 : i64 to vector<20xi64>
generated/temp581529840236588062208.mlir:410:14: remark: operation has no memory effects
      %134 = vector.broadcast %57 : i1 to vector<20xi1>
             ^
generated/temp581529840236588062208.mlir:410:14: note: see current operation: %134 = vector.broadcast %57 : i1 to vector<20xi1>
generated/temp581529840236588062208.mlir:411:7: remark: found an instance of 'write' on a value, on resource '<Default>'
      vector.compressstore %alloc_19[%c0, %c0], %134, %133 : memref<?x?xi64>, vector<20xi1>, vector<20xi64>
      ^
generated/temp581529840236588062208.mlir:411:7: note: see current operation: vector.compressstore %alloc_19[%c0, %c0], %134, %133 : memref<?x?xi64>, vector<20xi1>, vector<20xi64>
generated/temp581529840236588062208.mlir:412:14: remark: operation has no memory effects
      %135 = index.sub %132, %77
             ^
generated/temp581529840236588062208.mlir:412:14: note: see current operation: %135 = index.sub %132, %77
generated/temp581529840236588062208.mlir:413:19: remark: found an instance of 'allocate' on a value, on resource '<Default>'
      %alloc_30 = memref.alloc() : memref<5x20x20x27xf16>
                  ^
generated/temp581529840236588062208.mlir:413:19: note: see current operation: %alloc_30 = memref.alloc() : memref<5x20x20x27xf16>
generated/temp581529840236588062208.mlir:414:7: remark: operation has no memory effects
      linalg.broadcast ins(%15 : tensor<5x20x20xf16>) outs(%alloc_30 : memref<5x20x20x27xf16>) dimensions = [3] 
      ^
generated/temp581529840236588062208.mlir:414:7: note: see current operation: linalg.yield %arg1 : f16
generated/temp581529840236588062208.mlir:414:7: remark: found an instance of 'read' on a value, on resource '<Default>'
      linalg.broadcast ins(%15 : tensor<5x20x20xf16>) outs(%alloc_30 : memref<5x20x20x27xf16>) dimensions = [3] 
      ^
generated/temp581529840236588062208.mlir:414:7: note: see current operation: linalg.broadcast ins(%15 : tensor<5x20x20xf16>) outs(%alloc_30 : memref<5x20x20x27xf16>) dimensions = [3] 
generated/temp581529840236588062208.mlir:414:7: remark: found an instance of 'write' on a value, on resource '<Default>'
      linalg.broadcast ins(%15 : tensor<5x20x20xf16>) outs(%alloc_30 : memref<5x20x20x27xf16>) dimensions = [3] 
      ^
generated/temp581529840236588062208.mlir:414:7: note: see current operation: linalg.broadcast ins(%15 : tensor<5x20x20xf16>) outs(%alloc_30 : memref<5x20x20x27xf16>) dimensions = [3] 
generated/temp581529840236588062208.mlir:415:14: remark: operation has no memory effects
      %136 = vector.splat %c23 : vector<27x27xindex>
             ^
generated/temp581529840236588062208.mlir:415:14: note: see current operation: %136 = vector.splat %c23 : vector<27x27xindex>
generated/temp581529840236588062208.mlir:416:14: remark: operation has no memory effects
      %137 = vector.insertelement %c1268563714_i32, %43[%77 : index] : vector<2xi32>
             ^
generated/temp581529840236588062208.mlir:416:14: note: see current operation: %137 = vector.insertelement %c1268563714_i32, %43[%77 : index] : vector<2xi32>
generated/temp581529840236588062208.mlir:417:14: remark: operation has no memory effects
      %138 = vector.broadcast %39 : i64 to vector<5x5xi64>
             ^
generated/temp581529840236588062208.mlir:417:14: note: see current operation: %138 = vector.broadcast %39 : i64 to vector<5x5xi64>
generated/temp581529840236588062208.mlir:418:14: remark: operation has no memory effects
      %139 = vector.transfer_write %138, %0[%47, %c29, %c16] {permutation_map = affine_map<(d0, d1, d2) -> (d0, d1)>} : vector<5x5xi64>, tensor<?x?x?xi64>
             ^
generated/temp581529840236588062208.mlir:418:14: note: see current operation: %139 = vector.transfer_write %138, %0[%47, %c29, %c16] {permutation_map = affine_map<(d0, d1, d2) -> (d0, d1)>} : vector<5x5xi64>, tensor<?x?x?xi64>
generated/temp581529840236588062208.mlir:419:14: remark: operation has no memory effects
      %140 = arith.remf %64, %33 : f16
             ^
generated/temp581529840236588062208.mlir:419:14: note: see current operation: %140 = arith.remf %64, %33 : f16
generated/temp581529840236588062208.mlir:420:14: remark: operation has no memory effects
      %141 = index.ceildivu %c26, %c23
             ^
generated/temp581529840236588062208.mlir:420:14: note: see current operation: %141 = index.ceildivu %c26, %c23
generated/temp581529840236588062208.mlir:421:14: remark: operation has no memory effects
      %142 = arith.floordivsi %29, %22 : i16
             ^
generated/temp581529840236588062208.mlir:421:14: note: see current operation: %142 = arith.floordivsi %29, %22 : i16
generated/temp581529840236588062208.mlir:422:20: remark: operation has no memory effects
      %extracted = tensor.extract %3[%c2, %c5, %c3] : tensor<5x20x20xi32>
                   ^
generated/temp581529840236588062208.mlir:422:20: note: see current operation: %extracted = tensor.extract %3[%c2, %c5, %c3] : tensor<5x20x20xi32>
generated/temp581529840236588062208.mlir:423:14: remark: found an instance of 'read' on a value, on resource '<Default>'
      %143 = vector.load %alloc_23[%c4, %c18, %c12] : memref<5x20x20xi16>, vector<5x27x5xi16>
             ^
generated/temp581529840236588062208.mlir:423:14: note: see current operation: %143 = vector.load %alloc_23[%c4, %c18, %c12] : memref<5x20x20xi16>, vector<5x27x5xi16>
generated/temp581529840236588062208.mlir:424:14: remark: operation has no memory effects
      %144 = index.castu %22 : i16 to index
             ^
generated/temp581529840236588062208.mlir:424:14: note: see current operation: %144 = index.castu %22 : i16 to index
generated/temp581529840236588062208.mlir:425:7: remark: found an instance of 'write' on a value, on resource '<Default>'
      affine.vector_store %43, %alloc_20[%c19, %c3] : memref<?x?xi32>, vector<2xi32>
      ^
generated/temp581529840236588062208.mlir:425:7: note: see current operation: affine.vector_store %43, %alloc_20[%c19, %c3] : memref<?x?xi32>, vector<2xi32>
generated/temp581529840236588062208.mlir:426:7: remark: operation has no memory effects
      scf.yield %39 : i64
      ^
generated/temp581529840236588062208.mlir:426:7: note: see current operation: scf.yield %39 : i64
generated/temp581529840236588062208.mlir:429:14: remark: operation has no memory effects
      %131 = affine.min affine_map<(d0, d1, d2) -> (d0 ceildiv 4)>(%c29, %c19, %51)
             ^
generated/temp581529840236588062208.mlir:429:14: note: see current operation: %131 = affine.min affine_map<(d0, d1, d2) -> (d0 ceildiv 4)>(%c29, %c19, %51)
generated/temp581529840236588062208.mlir:430:14: remark: operation has no memory effects
      %132 = arith.addf %30, %cst_0 : f16
             ^
generated/temp581529840236588062208.mlir:430:14: note: see current operation: %132 = arith.addf %30, %cst_0 : f16
generated/temp581529840236588062208.mlir:431:14: remark: operation has no memory effects
      %133 = index.xor %c7, %59
             ^
generated/temp581529840236588062208.mlir:431:14: note: see current operation: %133 = index.xor %c7, %59
generated/temp581529840236588062208.mlir:432:14: remark: operation has no memory effects
      %134 = arith.shrsi %102, %true_4 : i1
             ^
generated/temp581529840236588062208.mlir:432:14: note: see current operation: %134 = arith.shrsi %102, %true_4 : i1
generated/temp581529840236588062208.mlir:433:14: remark: operation has no memory effects
      %135 = affine.max affine_map<(d0, d1) -> ((-d1) floordiv 8 - 16)>(%59, %31)
             ^
generated/temp581529840236588062208.mlir:433:14: note: see current operation: %135 = affine.max affine_map<(d0, d1) -> ((-d1) floordiv 8 - 16)>(%59, %31)
generated/temp581529840236588062208.mlir:434:14: remark: found an instance of 'read' on a value, on resource '<Default>'
      %136 = memref.atomic_rmw mulf %89, %alloc_15[%c2, %c3] : (f32, memref<5x5xf32>) -> f32
             ^
generated/temp581529840236588062208.mlir:434:14: note: see current operation: %136 = memref.atomic_rmw mulf %89, %alloc_15[%c2, %c3] : (f32, memref<5x5xf32>) -> f32
generated/temp581529840236588062208.mlir:434:14: remark: found an instance of 'write' on a value, on resource '<Default>'
      %136 = memref.atomic_rmw mulf %89, %alloc_15[%c2, %c3] : (f32, memref<5x5xf32>) -> f32
             ^
generated/temp581529840236588062208.mlir:434:14: note: see current operation: %136 = memref.atomic_rmw mulf %89, %alloc_15[%c2, %c3] : (f32, memref<5x5xf32>) -> f32
generated/temp581529840236588062208.mlir:435:14: remark: operation has no memory effects
      %137 = arith.shli %60, %58 : i1
             ^
generated/temp581529840236588062208.mlir:435:14: note: see current operation: %137 = arith.shli %60, %58 : i1
generated/temp581529840236588062208.mlir:436:14: remark: operation has no memory effects
      %138 = vector.extract %61[1] : vector<20x20xi1> from vector<5x20x20xi1>
             ^
generated/temp581529840236588062208.mlir:436:14: note: see current operation: %138 = vector.extract %61[1] : vector<20x20xi1> from vector<5x20x20xi1>
generated/temp581529840236588062208.mlir:428:5: remark: operation has no memory effects
    scf.if %63 {
    ^
generated/temp581529840236588062208.mlir:428:5: note: see current operation: scf.yield
generated/temp581529840236588062208.mlir:438:12: remark: operation has no memory effects
    %105 = index.casts %47 : index to i32
           ^
generated/temp581529840236588062208.mlir:438:12: note: see current operation: %105 = index.casts %47 : index to i32
generated/temp581529840236588062208.mlir:439:12: remark: operation has no memory effects
    %106 = vector.bitcast %61 : vector<5x20x20xi1> to vector<5x20x20xi1>
           ^
generated/temp581529840236588062208.mlir:439:12: note: see current operation: %106 = vector.bitcast %61 : vector<5x20x20xi1> to vector<5x20x20xi1>
generated/temp581529840236588062208.mlir:440:12: remark: operation has no memory effects
    %107 = spirv.LogicalEqual %true, %21 : i1
           ^
generated/temp581529840236588062208.mlir:440:12: note: see current operation: %107 = spirv.LogicalEqual %true, %21 : i1
generated/temp581529840236588062208.mlir:441:12: remark: operation has no memory effects
    %108 = arith.divui %c1268563714_i32, %c1268563714_i32 : i32
           ^
generated/temp581529840236588062208.mlir:441:12: note: see current operation: %108 = arith.divui %c1268563714_i32, %c1268563714_i32 : i32
generated/temp581529840236588062208.mlir:728:14: remark: operation has no memory effects
      %131 = vector.broadcast %true_4 : i1 to vector<32x32xi1>
             ^
generated/temp581529840236588062208.mlir:728:14: note: see current operation: %131 = vector.broadcast %true_4 : i1 to vector<32x32xi1>
generated/temp581529840236588062208.mlir:729:7: remark: found an instance of 'write' on a value, on resource '<Default>'
      vector.transfer_write %131, %alloc[%c16, %77, %c2] {permutation_map = affine_map<(d0, d1, d2) -> (d0, d1)>} : vector<32x32xi1>, memref<?x?x?xi1>
      ^
generated/temp581529840236588062208.mlir:729:7: note: see current operation: vector.transfer_write %131, %alloc[%c16, %77, %c2] {permutation_map = affine_map<(d0, d1, d2) -> (d0, d1)>} : vector<32x32xi1>, memref<?x?x?xi1>
generated/temp581529840236588062208.mlir:730:14: remark: operation has no memory effects
      %132 = arith.andi %18, %39 : i64
             ^
generated/temp581529840236588062208.mlir:730:14: note: see current operation: %132 = arith.andi %18, %39 : i64
generated/temp581529840236588062208.mlir:731:14: remark: operation has no memory effects
      %133 = arith.remf %34, %88 : f16
             ^
generated/temp581529840236588062208.mlir:731:14: note: see current operation: %133 = arith.remf %34, %88 : f16
generated/temp581529840236588062208.mlir:732:14: remark: operation has no memory effects
      %134 = tensor.empty() : tensor<25xf16>
             ^
generated/temp581529840236588062208.mlir:732:14: note: see current operation: %134 = tensor.empty() : tensor<25xf16>
generated/temp581529840236588062208.mlir:733:17: remark: operation has no memory effects
      %unpack = tensor.unpack %5 outer_dims_perm = [0] inner_dims_pos = [0] inner_tiles = [%c5] into %134 : tensor<5x5xf16> -> tensor<25xf16>
                ^
generated/temp581529840236588062208.mlir:733:17: note: see current operation: %unpack = tensor.unpack %5 outer_dims_perm = [0] inner_dims_pos = [0] inner_tiles = [%c5] into %134 : tensor<5x5xf16> -> tensor<25xf16>
generated/temp581529840236588062208.mlir:734:14: remark: operation has no memory effects
      %135 = math.fma %15, %15, %10 : tensor<5x20x20xf16>
             ^
generated/temp581529840236588062208.mlir:734:14: note: see current operation: %135 = math.fma %15, %15, %10 : tensor<5x20x20xf16>
generated/temp581529840236588062208.mlir:735:14: remark: operation has no memory effects
      %136 = arith.muli %99, %99 : i16
             ^
generated/temp581529840236588062208.mlir:735:14: note: see current operation: %136 = arith.muli %99, %99 : i16
generated/temp581529840236588062208.mlir:736:14: remark: found an instance of 'read' on a value, on resource '<Default>'
      %137 = bufferization.clone %alloc_15 : memref<5x5xf32> to memref<5x5xf32>
             ^
generated/temp581529840236588062208.mlir:736:14: note: see current operation: %137 = bufferization.clone %alloc_15 : memref<5x5xf32> to memref<5x5xf32>
generated/temp581529840236588062208.mlir:736:14: remark: found an instance of 'write' on a value, on resource '<Default>'
      %137 = bufferization.clone %alloc_15 : memref<5x5xf32> to memref<5x5xf32>
             ^
generated/temp581529840236588062208.mlir:736:14: note: see current operation: %137 = bufferization.clone %alloc_15 : memref<5x5xf32> to memref<5x5xf32>
generated/temp581529840236588062208.mlir:736:14: remark: found an instance of 'allocate' on a value, on resource '<Default>'
      %137 = bufferization.clone %alloc_15 : memref<5x5xf32> to memref<5x5xf32>
             ^
generated/temp581529840236588062208.mlir:736:14: note: see current operation: %137 = bufferization.clone %alloc_15 : memref<5x5xf32> to memref<5x5xf32>
generated/temp581529840236588062208.mlir:737:14: remark: operation has no memory effects
      %138 = arith.remsi %95, %false : i1
             ^
generated/temp581529840236588062208.mlir:737:14: note: see current operation: %138 = arith.remsi %95, %false : i1
generated/temp581529840236588062208.mlir:738:14: remark: operation has no memory effects
      %139 = math.absi %12 : tensor<?x?xi1>
             ^
generated/temp581529840236588062208.mlir:738:14: note: see current operation: %139 = math.absi %12 : tensor<?x?xi1>
generated/temp581529840236588062208.mlir:739:14: remark: operation has no memory effects
      %140 = math.fpowi %91, %c1268563714_i32 : f16, i32
             ^
generated/temp581529840236588062208.mlir:739:14: note: see current operation: %140 = math.fpowi %91, %c1268563714_i32 : f16, i32
generated/temp581529840236588062208.mlir:740:7: remark: found an instance of 'write' on a value, on resource '<Default>'
      affine.vector_store %43, %alloc_20[%c6, %c10] : memref<?x?xi32>, vector<2xi32>
      ^
generated/temp581529840236588062208.mlir:740:7: note: see current operation: affine.vector_store %43, %alloc_20[%c6, %c10] : memref<?x?xi32>, vector<2xi32>
generated/temp581529840236588062208.mlir:741:14: remark: operation has no memory effects
      %141 = index.divu %c18, %c11
             ^
generated/temp581529840236588062208.mlir:741:14: note: see current operation: %141 = index.divu %c18, %c11
generated/temp581529840236588062208.mlir:742:14: remark: operation has no memory effects
      %142 = index.ceildivs %c2, %c21
             ^
generated/temp581529840236588062208.mlir:742:14: note: see current operation: %142 = index.ceildivs %c2, %c21
generated/temp581529840236588062208.mlir:743:14: remark: found an instance of 'read' on a value, on resource '<Default>'
      %143 = bufferization.to_tensor %alloc_19 : memref<?x?xi64>
             ^
generated/temp581529840236588062208.mlir:743:14: note: see current operation: %143 = bufferization.to_tensor %alloc_19 : memref<?x?xi64>
generated/temp581529840236588062208.mlir:744:14: remark: operation has no memory effects
      %144 = vector.broadcast %c1268563714_i32 : i32 to vector<2x2xi32>
             ^
generated/temp581529840236588062208.mlir:744:14: note: see current operation: %144 = vector.broadcast %c1268563714_i32 : i32 to vector<2x2xi32>
generated/temp581529840236588062208.mlir:745:14: remark: operation has no memory effects
      %145 = vector.outerproduct %43, %43, %144 {kind = #vector.kind<minui>} : vector<2xi32>, vector<2xi32>
             ^
generated/temp581529840236588062208.mlir:745:14: note: see current operation: %145 = vector.outerproduct %43, %43, %144 {kind = #vector.kind<minui>} : vector<2xi32>, vector<2xi32>
generated/temp581529840236588062208.mlir:746:14: remark: operation has no memory effects
      %146 = vector.create_mask %c20, %c29 : vector<27x27xi1>
             ^
generated/temp581529840236588062208.mlir:746:14: note: see current operation: %146 = vector.create_mask %c20, %c29 : vector<27x27xi1>
generated/temp581529840236588062208.mlir:442:5: remark: operation has no memory effects
    scf.index_switch %c3 
    ^
generated/temp581529840236588062208.mlir:442:5: note: see current operation: scf.yield
generated/temp581529840236588062208.mlir:444:14: remark: operation has no memory effects
      %131 = math.absi %expanded : tensor<?x?x20x1xi32>
             ^
generated/temp581529840236588062208.mlir:444:14: note: see current operation: %131 = math.absi %expanded : tensor<?x?x20x1xi32>
generated/temp581529840236588062208.mlir:445:14: remark: operation has no memory effects
      %132 = tensor.empty() : tensor<2000xf16>
             ^
generated/temp581529840236588062208.mlir:445:14: note: see current operation: %132 = tensor.empty() : tensor<2000xf16>
generated/temp581529840236588062208.mlir:446:17: remark: operation has no memory effects
      %unpack = tensor.unpack %collapsed outer_dims_perm = [0] inner_dims_pos = [0] inner_tiles = [%c20] into %132 : tensor<100x20xf16> -> tensor<2000xf16>
                ^
generated/temp581529840236588062208.mlir:446:17: note: see current operation: %unpack = tensor.unpack %collapsed outer_dims_perm = [0] inner_dims_pos = [0] inner_tiles = [%c20] into %132 : tensor<100x20xf16> -> tensor<2000xf16>
generated/temp581529840236588062208.mlir:447:14: remark: operation has no memory effects
      %133 = index.divu %c29, %47
             ^
generated/temp581529840236588062208.mlir:447:14: note: see current operation: %133 = index.divu %c29, %47
generated/temp581529840236588062208.mlir:448:14: remark: operation has no memory effects
      %134 = math.fma %cst_2, %cst_8, %103 : f32
             ^
generated/temp581529840236588062208.mlir:448:14: note: see current operation: %134 = math.fma %cst_2, %cst_8, %103 : f32
generated/temp581529840236588062208.mlir:449:14: remark: operation has no memory effects
      %135 = arith.divui %39, %c1712353702_i64 : i64
             ^
generated/temp581529840236588062208.mlir:449:14: note: see current operation: %135 = arith.divui %39, %c1712353702_i64 : i64
generated/temp581529840236588062208.mlir:450:14: remark: found an instance of 'read' on a value, on resource '<Default>'
      %136 = vector.load %alloc_10[%c0, %c0] : memref<?x?xf16>, vector<27x27xf16>
             ^
generated/temp581529840236588062208.mlir:450:14: note: see current operation: %136 = vector.load %alloc_10[%c0, %c0] : memref<?x?xf16>, vector<27x27xf16>
generated/temp581529840236588062208.mlir:451:14: remark: operation has no memory effects
      %137 = index.sub %c15, %c27
             ^
generated/temp581529840236588062208.mlir:451:14: note: see current operation: %137 = index.sub %c15, %c27
generated/temp581529840236588062208.mlir:452:14: remark: operation has no memory effects
      %138 = vector.insertelement %c1268563714_i32, %43[%c30 : index] : vector<2xi32>
             ^
generated/temp581529840236588062208.mlir:452:14: note: see current operation: %138 = vector.insertelement %c1268563714_i32, %43[%c30 : index] : vector<2xi32>
generated/temp581529840236588062208.mlir:453:14: remark: operation has no memory effects
      %139 = vector.bitcast %106 : vector<5x20x20xi1> to vector<5x20x20xi1>
             ^
generated/temp581529840236588062208.mlir:453:14: note: see current operation: %139 = vector.bitcast %106 : vector<5x20x20xi1> to vector<5x20x20xi1>
generated/temp581529840236588062208.mlir:454:14: remark: operation has no memory effects
      %140 = arith.muli %65, %true_4 : i1
             ^
generated/temp581529840236588062208.mlir:454:14: note: see current operation: %140 = arith.muli %65, %true_4 : i1
generated/temp581529840236588062208.mlir:455:14: remark: operation has no memory effects
      %141 = tensor.empty() : tensor<25xi16>
             ^
generated/temp581529840236588062208.mlir:455:14: note: see current operation: %141 = tensor.empty() : tensor<25xi16>
generated/temp581529840236588062208.mlir:456:20: remark: operation has no memory effects
      %unpack_30 = tensor.unpack %4 outer_dims_perm = [0] inner_dims_pos = [0] inner_tiles = [%c5] into %141 : tensor<5x5xi16> -> tensor<25xi16>
                   ^
…
_8, %28, %85, %93, %cst_7, %in, %58, %36, %44, %in, %73, %25, %92, %25, %83, %60, %50, %44, %26, %cst_8, %26, %92, %73, %93, %58, %93, %cst_8, %in, %in, %65, %36, %cst_8, %cst_7, %30, %30, %51, %65, %93, %25, %82, %65, %cst_8, %92, %82, %93, %cst_2, %51, %cst_8, %60, %83, %cst_7, %cst_2, %28, %50, %cst_7, %44, %73, %50, %cst_2, %60, %85, %44, %73, %28, %92, %44, %44, %28, %60, %36, %82, %73, %44, %44, %92, %50, %cst_2, %93, %in, %26, %83, %30, %28, %25, %30, %26, %cst_7, %25, %25, %36, %58, %36, %cst_7, %36, %82, %28, %cst_2, %26, %83, %92, %26, %51, %26, %60, %92, %65, %25, %83, %44, %28, %26, %83, %93, %36, %28, %85, %in, %cst_8, %50, %73, %in, %93, %50, %82, %28, %30, %cst_7, %in, %cst_7, %82, %cst_8, %85, %65, %65, %28, %85, %73, %25, %25, %73, %in, %25, %73, %58, %60, %60, %50, %44, %85, %51, %cst_8, %25, %85, %36, %92, %83, %65, %26, %30, %73, %82, %30, %85, %28, %cst_7, %73, %26, %60, %92, %36, %92, %26, %65, %83, %in, %44, %92, %83, %93, %51, %51, %25, %cst_8, %in, %44, %44, %in, %26, %44, %cst_2, %25, %in, %73, %65, %51, %36, %85, %in, %92, %26, %28, %50, %cst_7, %30, %in, %85, %93, %cst_7, %58, %85, %82, %36, %cst_7, %in, %51, %73, %65, %30, %28, %cst_7, %30, %26, %60, %58, %93, %73, %85, %73, %58, %36, %65, %51, %cst_2, %30, %83, %85, %cst_8, %85, %73, %44, %36, %65, %51, %92, %58, %in, %36, %36, %cst_8, %51, %58, %in, %cst_7, %65, %in, %58, %83, %28, %36, %60, %50, %58, %25, %cst_8, %73, %83, %cst_2, %25, %73, %93, %60, %30, %60, %58, %36, %cst_8, %50, %cst_8, %cst_8, %cst_8, %93, %73, %cst_7, %50, %50, %82, %82, %cst_8, %cst_7, %58, %26, %44, %28, %44, %85, %50, %85, %cst_2, %28, %83, %30, %50, %82, %65, %65, %in, %60, %cst_7, %44, %60, %58, %51, %in, %93, %50, %50, %73, %cst_7, %cst_7, %85, %82, %92, %82, %83, %25, %65, %83, %51, %cst_2, %51, %60, %51, %50, %30, %26, %in, %51, %cst_7, %58, %60, %36, %65, %82, %25, %51, %60, %cst_8, %25, %92, %30, %82, %93, %36, %25, %51, %26, %92, %26, %28, %36, %83, %36, %83, %cst_8, %30, %26, %85, %25, %51, %30, %60, %cst_7, %in, %36, %44, %58, %30, %51, %in, %60, %83, %82, %30, %cst_7, %85, %cst_8, %50, %cst_2, %92, %93, %85, %73, %85, %50, %51, %51, %73, %51, %cst_2, %30, %51, %44, %44, %50, %65, %83, %36, %28, %36, %44, %58, %cst_7, %85, %25, %73, %30, %65, %83, %93, %51, %cst_2, %cst_8, %50, %44, %82, %30, %30, %25, %cst_8, %44, %26, %26, %85, %28, %51, %25, %cst_8, %85, %44, %65, %82, %92, %50, %83, %25, %60, %51, %73, %51, %cst_7, %50, %92, %28, %73, %65, %50, %83, %51, %60, %36, %92, %58, %51, %cst_8, %73, %in, %73, %58, %26, %cst_7, %65, %92, %in, %cst_8, %82, %30, %93, %36, %93, %83, %44, %cst_8, %28, %44, %85, %93, %73, %cst_7, %36, %cst_2, %65, %cst_2, %in, %73, %cst_8, %73, %cst_7, %36, %cst_2, %51, %cst_2, %82, %44, %in, %26, %cst_7, %82, %60, %65, %28, %83, %28, %28, %73, %83, %93, %28, %cst_2, %cst_7, %65, %44, %cst_2, %in, %73, %26, %in, %30, %73, %cst_2, %cst_8, %83, %92, %82, %58, %36, %25, %28, %36, %cst_8, %50, %92, %25, %83, %cst_7, %93, %25, %44, %85, %65, %58, %93, %cst_2, %26, %cst_2, %83 : tensor<5x27x5xf32>
generated/temp581529840236588062208.mlir:1505:18: remark: operation has no memory effects
          %178 = vector.extract_strided_slice %32 {offsets = [3], sizes = [2], strides = [1]} : vector<5x20x20xi1> to vector<2x20x20xi1>
                 ^
generated/temp581529840236588062208.mlir:1505:18: note: see current operation: %178 = vector.extract_strided_slice %32 {offsets = [3], sizes = [2], strides = [1]} : vector<5x20x20xi1> to vector<2x20x20xi1>
generated/temp581529840236588062208.mlir:1506:18: remark: operation has no memory effects
          %179 = arith.divsi %84, %76 : i1
                 ^
generated/temp581529840236588062208.mlir:1506:18: note: see current operation: %179 = arith.divsi %84, %76 : i1
generated/temp581529840236588062208.mlir:1507:18: remark: operation has no memory effects
          %180 = affine.max affine_map<(d0, d1, d2, d3) -> (d1 ceildiv 128)>(%c17, %c22, %c9, %c26)
                 ^
generated/temp581529840236588062208.mlir:1507:18: note: see current operation: %180 = affine.max affine_map<(d0, d1, d2, d3) -> (d1 ceildiv 128)>(%c17, %c22, %c9, %c26)
generated/temp581529840236588062208.mlir:1509:18: remark: found an instance of 'read' on a value, on resource '<Default>'
          %181 = vector.load %arg0[%c0, %c2] : memref<?x27xi64>, vector<27x27xi64>
                 ^
generated/temp581529840236588062208.mlir:1509:18: note: see current operation: %181 = vector.load %arg0[%c0, %c2] : memref<?x27xi64>, vector<27x27xi64>
generated/temp581529840236588062208.mlir:1510:18: remark: operation has no memory effects
          %182 = index.maxu %c11, %c17
                 ^
generated/temp581529840236588062208.mlir:1510:18: note: see current operation: %182 = index.maxu %c11, %c17
generated/temp581529840236588062208.mlir:1511:26: remark: operation has no memory effects
          %expanded_41 = tensor.expand_shape %8 [[0], [1], [2, 3]] : tensor<?x?x20xf32> into tensor<?x?x20x1xf32>
                         ^
generated/temp581529840236588062208.mlir:1511:26: note: see current operation: %expanded_41 = tensor.expand_shape %8 [[0], [1], [2, 3]] : tensor<?x?x20xf32> into tensor<?x?x20x1xf32>
generated/temp581529840236588062208.mlir:1512:11: remark: operation has no memory effects
          scf.yield
          ^
generated/temp581529840236588062208.mlir:1512:11: note: see current operation: scf.yield
generated/temp581529840236588062208.mlir:1514:16: remark: found an instance of 'read' on a value, on resource '<Default>'
        %156 = bufferization.clone %alloc_21 : memref<5x27x5xi16> to memref<5x27x5xi16>
               ^
generated/temp581529840236588062208.mlir:1514:16: note: see current operation: %156 = bufferization.clone %alloc_21 : memref<5x27x5xi16> to memref<5x27x5xi16>
generated/temp581529840236588062208.mlir:1514:16: remark: found an instance of 'write' on a value, on resource '<Default>'
        %156 = bufferization.clone %alloc_21 : memref<5x27x5xi16> to memref<5x27x5xi16>
               ^
generated/temp581529840236588062208.mlir:1514:16: note: see current operation: %156 = bufferization.clone %alloc_21 : memref<5x27x5xi16> to memref<5x27x5xi16>
generated/temp581529840236588062208.mlir:1514:16: remark: found an instance of 'allocate' on a value, on resource '<Default>'
        %156 = bufferization.clone %alloc_21 : memref<5x27x5xi16> to memref<5x27x5xi16>
               ^
generated/temp581529840236588062208.mlir:1514:16: note: see current operation: %156 = bufferization.clone %alloc_21 : memref<5x27x5xi16> to memref<5x27x5xi16>
generated/temp581529840236588062208.mlir:1515:16: remark: operation has no memory effects
        %157 = arith.addi %61, %true_35 : i1
               ^
generated/temp581529840236588062208.mlir:1515:16: note: see current operation: %157 = arith.addi %61, %true_35 : i1
generated/temp581529840236588062208.mlir:1516:16: remark: found an instance of 'read' on a value, on resource '<Default>'
        %158 = bufferization.to_tensor %alloc_19 : memref<?x?xi64>
               ^
generated/temp581529840236588062208.mlir:1516:16: note: see current operation: %158 = bufferization.to_tensor %alloc_19 : memref<?x?xi64>
generated/temp581529840236588062208.mlir:1517:16: remark: operation has no memory effects
        %159 = vector.broadcast %c31 : index to vector<32xindex>
               ^
generated/temp581529840236588062208.mlir:1517:16: note: see current operation: %159 = vector.broadcast %c31 : index to vector<32xindex>
generated/temp581529840236588062208.mlir:1518:16: remark: operation has no memory effects
        %160 = vector.broadcast %64 : i1 to vector<32xi1>
               ^
generated/temp581529840236588062208.mlir:1518:16: note: see current operation: %160 = vector.broadcast %64 : i1 to vector<32xi1>
generated/temp581529840236588062208.mlir:1519:9: remark: found an instance of 'write' on a value, on resource '<Default>'
        vector.scatter %alloc_27[%c2] [%159], %160, %160 : memref<5xi1>, vector<32xindex>, vector<32xi1>, vector<32xi1>
        ^
generated/temp581529840236588062208.mlir:1519:9: note: see current operation: vector.scatter %alloc_27[%c2] [%159], %160, %160 : memref<5xi1>, vector<32xindex>, vector<32xi1>, vector<32xi1>
generated/temp581529840236588062208.mlir:1520:16: remark: operation has no memory effects
        %161 = arith.muli %c1712353702_i64, %47 : i64
               ^
generated/temp581529840236588062208.mlir:1520:16: note: see current operation: %161 = arith.muli %c1712353702_i64, %47 : i64
generated/temp581529840236588062208.mlir:1521:16: remark: operation has no memory effects
        %162 = arith.ceildivsi %84, %22 : i1
               ^
generated/temp581529840236588062208.mlir:1521:16: note: see current operation: %162 = arith.ceildivsi %84, %22 : i1
generated/temp581529840236588062208.mlir:1522:20: remark: operation has no memory effects
        %rank_37 = tensor.rank %6 : tensor<?x?xf32>
                   ^
generated/temp581529840236588062208.mlir:1522:20: note: see current operation: %rank_37 = tensor.rank %6 : tensor<?x?xf32>
generated/temp581529840236588062208.mlir:1523:16: remark: operation has no memory effects
        %163 = math.log1p %cst_7 : f32
               ^
generated/temp581529840236588062208.mlir:1523:16: note: see current operation: %163 = math.log1p %cst_7 : f32
generated/temp581529840236588062208.mlir:1524:20: remark: operation has no memory effects
        %rank_38 = tensor.rank %14 : tensor<?x?x5xi1>
                   ^
generated/temp581529840236588062208.mlir:1524:20: note: see current operation: %rank_38 = tensor.rank %14 : tensor<?x?x5xi1>
generated/temp581529840236588062208.mlir:1525:16: remark: operation has no memory effects
        %164 = vector.broadcast %47 : i64 to vector<27xi64>
               ^
generated/temp581529840236588062208.mlir:1525:16: note: see current operation: %164 = vector.broadcast %47 : i64 to vector<27xi64>
generated/temp581529840236588062208.mlir:1526:16: remark: operation has no memory effects
        %165 = vector.transfer_write %164, %0[%c20, %c7, %c31] {permutation_map = affine_map<(d0, d1, d2) -> (d0)>} : vector<27xi64>, tensor<?x?x?xi64>
               ^
generated/temp581529840236588062208.mlir:1526:16: note: see current operation: %165 = vector.transfer_write %164, %0[%c20, %c7, %c31] {permutation_map = affine_map<(d0, d1, d2) -> (d0)>} : vector<27xi64>, tensor<?x?x?xi64>
generated/temp581529840236588062208.mlir:1527:16: remark: operation has no memory effects
        %166 = arith.cmpf false, %25, %28 : f32
               ^
generated/temp581529840236588062208.mlir:1527:16: note: see current operation: %166 = arith.cmpf false, %25, %28 : f32
generated/temp581529840236588062208.mlir:1528:16: remark: operation has no memory effects
        %167 = math.roundeven %48 : f16
               ^
generated/temp581529840236588062208.mlir:1528:16: note: see current operation: %167 = math.roundeven %48 : f16
generated/temp581529840236588062208.mlir:1529:16: remark: operation has no memory effects
        %168 = index.divu %c14, %c15
               ^
generated/temp581529840236588062208.mlir:1529:16: note: see current operation: %168 = index.divu %c14, %c15
generated/temp581529840236588062208.mlir:1530:16: remark: operation has no memory effects
        %169 = math.ctpop %true : i1
               ^
generated/temp581529840236588062208.mlir:1530:16: note: see current operation: %169 = math.ctpop %true : i1
generated/temp581529840236588062208.mlir:1532:18: remark: operation has no memory effects
          %171 = vector.broadcast %88 : i64 to vector<27x27xi64>
                 ^
generated/temp581529840236588062208.mlir:1532:18: note: see current operation: %171 = vector.broadcast %88 : i64 to vector<27x27xi64>
generated/temp581529840236588062208.mlir:1533:18: remark: operation has no memory effects
          %172 = vector.outerproduct %164, %164, %171 {kind = #vector.kind<add>} : vector<27xi64>, vector<27xi64>
                 ^
generated/temp581529840236588062208.mlir:1533:18: note: see current operation: %172 = vector.outerproduct %164, %164, %171 {kind = #vector.kind<add>} : vector<27xi64>, vector<27xi64>
generated/temp581529840236588062208.mlir:1534:18: remark: operation has no memory effects
          %173 = vector.create_mask %c28, %rank_37, %c10 : vector<5x20x20xi1>
                 ^
generated/temp581529840236588062208.mlir:1534:18: note: see current operation: %173 = vector.create_mask %c28, %rank_37, %c10 : vector<5x20x20xi1>
generated/temp581529840236588062208.mlir:1535:22: remark: operation has no memory effects
          %rank_39 = tensor.rank %95 : tensor<i1>
                     ^
generated/temp581529840236588062208.mlir:1535:22: note: see current operation: %rank_39 = tensor.rank %95 : tensor<i1>
generated/temp581529840236588062208.mlir:1536:18: remark: operation has no memory effects
          %174 = math.absf %26 : f32
                 ^
generated/temp581529840236588062208.mlir:1536:18: note: see current operation: %174 = math.absf %26 : f32
generated/temp581529840236588062208.mlir:1537:18: remark: operation has no memory effects
          %175 = affine.apply affine_map<(d0, d1)[s0] -> (d1 ceildiv 64 - d0 + 4)>(%c13, %c24)[%c27]
                 ^
generated/temp581529840236588062208.mlir:1537:18: note: see current operation: %175 = affine.apply affine_map<(d0, d1)[s0] -> (d1 ceildiv 64 - d0 + 4)>(%c13, %c24)[%c27]
generated/temp581529840236588062208.mlir:1538:18: remark: operation has no memory effects
          %176 = arith.muli %true, %34 : i1
                 ^
generated/temp581529840236588062208.mlir:1538:18: note: see current operation: %176 = arith.muli %true, %34 : i1
generated/temp581529840236588062208.mlir:1539:18: remark: operation has no memory effects
          %177 = index.or %c20, %c26
                 ^
generated/temp581529840236588062208.mlir:1539:18: note: see current operation: %177 = index.or %c20, %c26
generated/temp581529840236588062208.mlir:1541:18: remark: operation has no memory effects
          %178 = vector.shuffle %173, %32 [0, 3] : vector<5x20x20xi1>, vector<5x20x20xi1>
                 ^
generated/temp581529840236588062208.mlir:1541:18: note: see current operation: %178 = vector.shuffle %173, %32 [0, 3] : vector<5x20x20xi1>, vector<5x20x20xi1>
generated/temp581529840236588062208.mlir:1542:18: remark: operation has no memory effects
          %179 = arith.shrsi %true, %true_5 : i1
                 ^
generated/temp581529840236588062208.mlir:1542:18: note: see current operation: %179 = arith.shrsi %true, %true_5 : i1
generated/temp581529840236588062208.mlir:1543:18: remark: operation has no memory effects
          %180 = index.castu %c1268563714_i32 : i32 to index
                 ^
generated/temp581529840236588062208.mlir:1543:18: note: see current operation: %180 = index.castu %c1268563714_i32 : i32 to index
generated/temp581529840236588062208.mlir:1544:21: remark: found an instance of 'allocate' on a value, on resource 'AutomaticAllocationScope'
          %alloca = memref.alloca() : memref<5x20x20xi1>
                    ^
generated/temp581529840236588062208.mlir:1544:21: note: see current operation: %alloca = memref.alloca() : memref<5x20x20xi1>
generated/temp581529840236588062208.mlir:1545:18: remark: operation has no memory effects
          %181 = vector.broadcast %61 : i1 to vector<5xi1>
                 ^
generated/temp581529840236588062208.mlir:1545:18: note: see current operation: %181 = vector.broadcast %61 : i1 to vector<5xi1>
generated/temp581529840236588062208.mlir:1546:18: remark: found an instance of 'read' on a value, on resource '<Default>'
          %182 = vector.maskedload %alloc_27[%c2], %181, %181 : memref<5xi1>, vector<5xi1>, vector<5xi1> into vector<5xi1>
                 ^
generated/temp581529840236588062208.mlir:1546:18: note: see current operation: %182 = vector.maskedload %alloc_27[%c2], %181, %181 : memref<5xi1>, vector<5xi1>, vector<5xi1> into vector<5xi1>
generated/temp581529840236588062208.mlir:1547:18: remark: found an instance of 'read' on a value, on resource '<Default>'
          %183 = affine.load %alloc_14[%c10, %c19, %c24] : memref<5x20x20xf32>
                 ^
generated/temp581529840236588062208.mlir:1547:18: note: see current operation: %183 = affine.load %alloc_14[%c10, %c19, %c24] : memref<5x20x20xf32>
generated/temp581529840236588062208.mlir:1548:18: remark: operation has no memory effects
          %184 = arith.ceildivsi %49, %49 : i1
                 ^
generated/temp581529840236588062208.mlir:1548:18: note: see current operation: %184 = arith.ceildivsi %49, %49 : i1
generated/temp581529840236588062208.mlir:1549:18: remark: found an instance of 'read' on a value, on resource '<Default>'
          %185 = bufferization.to_tensor %alloc : memref<?x?x?xi1>
                 ^
generated/temp581529840236588062208.mlir:1549:18: note: see current operation: %185 = bufferization.to_tensor %alloc : memref<?x?x?xi1>
generated/temp581529840236588062208.mlir:1552:20: remark: operation has no memory effects
            %186 = math.fpowi %36, %c1268563714_i32 : f32, i32
                   ^
generated/temp581529840236588062208.mlir:1552:20: note: see current operation: %186 = math.fpowi %36, %c1268563714_i32 : f32, i32
generated/temp581529840236588062208.mlir:1553:20: remark: operation has no memory effects
            %187 = arith.cmpi slt, %true_35, %49 : i1
                   ^
generated/temp581529840236588062208.mlir:1553:20: note: see current operation: %187 = arith.cmpi slt, %true_35, %49 : i1
generated/temp581529840236588062208.mlir:1554:20: remark: operation has no memory effects
            %188 = index.ceildivs %177, %37
                   ^
generated/temp581529840236588062208.mlir:1554:20: note: see current operation: %188 = index.ceildivs %177, %37
generated/temp581529840236588062208.mlir:1555:20: remark: operation has no memory effects
            %189 = math.cos %cst_2 : f32
                   ^
generated/temp581529840236588062208.mlir:1555:20: note: see current operation: %189 = math.cos %cst_2 : f32
generated/temp581529840236588062208.mlir:1556:20: remark: operation has no memory effects
            %190 = math.copysign %5, %5 : tensor<5x5xf16>
                   ^
generated/temp581529840236588062208.mlir:1556:20: note: see current operation: %190 = math.copysign %5, %5 : tensor<5x5xf16>
generated/temp581529840236588062208.mlir:1557:25: remark: operation has no memory effects
            %inserted = tensor.insert %26 into %45[%c0, %c0, %c0] : tensor<?x?x?xf32>
                        ^
generated/temp581529840236588062208.mlir:1557:25: note: see current operation: %inserted = tensor.insert %26 into %45[%c0, %c0, %c0] : tensor<?x?x?xf32>
generated/temp581529840236588062208.mlir:1558:13: remark: found an instance of 'write' on a value, on resource '<Default>'
            affine.vector_store %181, %alloc_27[%c9] : memref<5xi1>, vector<5xi1>
            ^
generated/temp581529840236588062208.mlir:1558:13: note: see current operation: affine.vector_store %181, %alloc_27[%c9] : memref<5xi1>, vector<5xi1>
generated/temp581529840236588062208.mlir:1559:20: remark: found an instance of 'free' on a value, on resource '<Default>'
            %191 = memref.realloc %alloc_27 : memref<5xi1> to memref<20xi1>
                   ^
generated/temp581529840236588062208.mlir:1559:20: note: see current operation: %191 = memref.realloc %alloc_27 : memref<5xi1> to memref<20xi1>
generated/temp581529840236588062208.mlir:1559:20: remark: found an instance of 'allocate' on a value, on resource '<Default>'
            %191 = memref.realloc %alloc_27 : memref<5xi1> to memref<20xi1>
                   ^
generated/temp581529840236588062208.mlir:1559:20: note: see current operation: %191 = memref.realloc %alloc_27 : memref<5xi1> to memref<20xi1>
generated/temp581529840236588062208.mlir:1560:13: remark: operation has no memory effects
            scf.reduce.return %68 : f16
            ^
generated/temp581529840236588062208.mlir:1560:13: note: see current operation: scf.reduce.return %68 : f16
generated/temp581529840236588062208.mlir:1562:11: remark: operation has no memory effects
          scf.yield
          ^
generated/temp581529840236588062208.mlir:1562:11: note: see current operation: scf.yield
generated/temp581529840236588062208.mlir:1564:9: remark: operation has no memory effects
        linalg.yield %36 : f32
        ^
generated/temp581529840236588062208.mlir:1564:9: note: see current operation: linalg.yield %36 : f32
generated/temp581529840236588062208.mlir:1428:18: remark: operation has no memory effects
    %mapped_32 = linalg.map ins(%6 : tensor<?x?xf32>) outs(%100 : tensor<?x?xf32>)
                 ^
generated/temp581529840236588062208.mlir:1428:18: note: see current operation: 
%mapped_32 = linalg.map ins(%6 : tensor<?x?xf32>) outs(%100 : tensor<?x?xf32>)
  (%in: f32) {
    %141 = affine.if affine_set<(d0, d1) : (-(d0 + d1 - 1) >= 0, ((-d0) mod 128 - (d0 - 1)) * 2 >= 0)>(%c12, %c0) -> memref<5x5xf16> {
      %171 = arith.divsi %90, %90 : i1
      memref.assume_alignment %alloc_10, 8 : memref<?x?xf16>
      %172 = vector.matrix_multiply %16, %16 {lhs_columns = 5 : i32, lhs_rows = 1 : i32, rhs_columns = 1 : i32} : (vector<5xi32>, vector<5xi32>) -> vector<1xi32>
      %173 = affine.vector_load %alloc_17[%c20, %c31, %c10] : memref<?x?x?xi64>, vector<32xi64>
      %174 = math.absf %30 : f32
      %alloc_39 = memref.alloc(%c0, %c4, %c31) : memref<?x?x?x32xi1>
      linalg.broadcast ins(%72 : tensor<?x?x?xi1>) outs(%alloc_39 : memref<?x?x?x32xi1>) dimensions = [3] 
      %175 = arith.shli %90, %84 : i1
      bufferization.dealloc_tensor %15 : tensor<5x20x20xf16>
      %alloc_40 = memref.alloc() : memref<5x5xf16>
      affine.yield %alloc_40 : memref<5x5xf16>
    } else {
      %171 = math.atan2 %92, %58 : f32
      %172 = index.casts %c22 : index to i32
      %alloc_39 = memref.alloc(%c24, %c31) : memref<?x?xi16>
      %173 = arith.divsi %c6979223_i64, %88 : i64
      %174 = index.maxs %c20, %37
      %splat = tensor.splat %true : tensor<5x20x20xi1>
      %175 = vector.broadcast %26 : f32 to vector<20xf32>
      %176 = vector.broadcast %22 : i1 to vector<20xi1>
      %177 = vector.maskedload %alloc_18[%c0, %c0, %c17], %176, %175 : memref<?x?x20xf32>, vector<20xi1>, vector<20xf32> into vector<20xf32>
      %178 = linalg.copy ins(%6 : tensor<?x?xf32>) outs(%100 : tensor<?x?xf32>) -> tensor<?x?xf32>
      %alloc_40 = memref.alloc() : memref<5x5xf16>
      affine.yield %alloc_40 : memref<5x5xf16>
    }
    %142 = arith.ceildivsi %true, %61 : i1
    %143 = index.shl %rank, %c9
    %144 = affine.max affine_map<(d0, d1, d2, d3)[s0] -> (d3 mod 2)>(%c25, %c11, %c13, %c5)[%c31]
    %145 = math.round %45 : tensor<?x?x?xf32>
    %146 = arith.shrsi %34, %84 : i1
    %true_35 = index.bool.constant true
    %rank_36 = tensor.rank %8 : tensor<?x?x20xf32>
    bufferization.dealloc_tensor %15 : tensor<5x20x20xf16>
    %147 = tensor.empty() : tensor<5x5xi32>
    %148 = math.fpowi %5, %147 : tensor<5x5xf16>, tensor<5x5xi32>
    %149 = linalg.matmul ins(%5, %5 : tensor<5x5xf16>, tensor<5x5xf16>) outs(%5 : tensor<5x5xf16>) -> tensor<5x5xf16>
    %150 = scf.execute_region -> index {
      %171 = vector.insertelement %c1268563714_i32, %16[%rank : index] : vector<5xi32>
      %172 = index.ceildivu %c10, %143
      vector.print %16 : vector<5xi32>
      %173 = math.round %73 : f32
      %174 = index.or %144, %c14
      memref.store %26, %alloc_18[%c0, %c0, %c11] : memref<?x?x20xf32>
      %175 = arith.floordivsi %true, %62 : i1
      %176 = vector.bitcast %32 : vector<5x20x20xi1> to vector<5x20x20xi1>
      %177 = vector.shuffle %176, %32 [0, 1, 3] : vector<5x20x20xi1>, vector<5x20x20xi1>
      %178 = arith.mulf %36, %82 : f32
      %179 = math.atan2 %5, %5 : tensor<5x5xf16>
      %180 = index.ceildivu %c22, %rank
      %181 = arith.divui %true, %true_35 : i1
      memref.copy %arg1, %arg1 : memref<5x20x20xf16> to memref<5x20x20xf16>
      %182 = math.absi %4 : tensor<5x5xi16>
      %183 = index.sizeof
      scf.yield %c2 : index
    }
    %151 = math.round %82 : f32
    %152 = memref.load %alloc_13[%c3, %c2] : memref<5x5xi1>
    %153 = vector.broadcast %150 : index to vector<32xindex>
    %154 = vector.broadcast %76 : i1 to vector<32xi1>
    %155 = vector.broadcast %c26224_i16 : i16 to vector<32xi16>
    vector.scatter %alloc_21[%c1, %c20, %c2] [%153], %154, %155 : memref<5x27x5xi16>, vector<32xindex>, vector<32xi1>, vector<32xi16>
    affine.vector_store %16, %alloc_20[%c22, %c22] : memref<?x?xi32>, vector<5xi32>
    scf.parallel (%arg3) = (%c28) to (%143) step (%c5) {
      %alloc_39 = memref.alloc(%c23, %c26) : memref<?x?xi1>
      %171 = arith.minui %88, %21 : i64
      bufferization.dealloc_tensor %7 : tensor<?x27x5xf16>
      %172 = math.powf %48, %cst_6 : f16
      %173 = math.tanh %85 : f32
      %174 = index.shl %c4, %c2
      %alloc_40 = memref.alloc() : memref<27x27xi64>
      %175 = tensor.empty(%c27) : tensor<?x27xi64>
      %176 = linalg.matmul ins(%arg0, %alloc_40 : memref<?x27xi64>, memref<27x27xi64>) outs(%175 : tensor<?x27xi64>) -> tensor<?x27xi64>
      %177 = arith.floordivsi %29, %c1712353702_i64 : i64
      %from_elements = tensor.from_elements %82, %50, %92, %50, %50, %65, %28, %25, %25, %26, %50, %30, %65, %26, %93, %83, %26, %65, %73, %44, %65, %51, %cst_8, %30, %26, %in, %cst_2, %92, %73, %73, %cst_2, %in, %92, %cst_7, %58, %28, %cst_8, %83, %25, %26, %50, %65, %73, %83, %93, %44, %25, %60, %65, %in, %26, %28, %73, %28, %36, %82, %44, %93, %82, %30, %36, %cst_2, %65, %85, %65, %44, %36, %cst_7, %28, %cst_7, %65, %60, %44, %93, %83, %51, %30, %44, %83, %28, %36, %82, %44, %51, %92, %65, %58, %82, %in, %85, %58, %36, %cst_8, %82, %44, %83, %30, %44, %51, %58, %30, %65, %28, %60, %30, %25, %cst_8, %cst_7, %73, %60, %cst_7, %83, %25, %36, %cst_8, %58, %92, %58, %93, %60, %cst_8, %28, %85, %93, %cst_7, %in, %58, %36, %44, %in, %73, %25, %92, %25, %83, %60, %50, %44, %26, %cst_8, %26, %92, %73, %93, %58, %93, %cst_8, %in, %in, %65, %36, %cst_8, %cst_7, %30, %30, %51, %65, %93, %25, %82, %65, %cst_8, %92, %82, %93, %cst_2, %51, %cst_8, %60, %83, %cst_7, %cst_2, %28, %50, %cst_7, %44, %73, %50, %cst_2, %60, %85, %44, %73, %28, %92, %44, %44, %28, %60, %36, %82, %73, %44, %44, %92, %50, %cst_2, %93, %in, %26, %83, %30, %28, %25, %30, %26, %cst_7, %25, %25, %36, %58, %36, %cst_7, %36, %82, %28, %cst_2, %26, %83, %92, %26, %51, %26, %60, %92, %65, %25, %83, %44, %28, %26, %83, %93, %36, %28, %85, %in, %cst_8, %50, %73, %in, %93, %50, %82, %28, %30, %cst_7, %in, %cst_7, %82, %cst_8, %85, %65, %65, %28, %85, %73, %25, %25, %73, %in, %25, %73, %58, %60, %60, %50, %44, %85, %51, %cst_8, %25, %85, %36, %92, %83, %65, %26, %30, %73, %82, %30, %85, %28, %cst_7, %73, %26, %60, %92, %36, %92, %26, %65, %83, %in, %44, %92, %83, %93, %51, %51, %25, %cst_8, %in, %44, %44, %in, %26, %44, %cst_2, %25, %in, %73, %65, %51, %36, %85, %in, %92, %26, %28, %50, %cst_7, %30, %in, %85, %93, %cst_7, %58, %85, %82, %36, %cst_7, %in, %51, %73, %65, %30, %28, %cst_7, %30, %26, %60, %58, %93, %73, %85, %73, %58, %36, %65, %51, %cst_2, %30, %83, %85, %cst_8, %85, %73, %44, %36, %65, %51, %92, %58, %in, %36, %36, %cst_8, %51, %58, %in, %cst_7, %65, %in, %58, %83, %28, %36, %60, %50, %58, %25, %cst_8, %73, %83, %cst_2, %25, %73, %93, %60, %30, %60, %58, %36, %cst_8, %50, %cst_8, %cst_8, %cst_8, %93, %73, %cst_7, %50, %50, %82, %82, %cst_8, %cst_7, %58, %26, %44, %28, %44, %85, %50, %85, %cst_2, %28, %83, %30, %50, %82, %65, %65, %in, %60, %cst_7, %44, %60, %58, %51, %in, %93, %50, %50, %73, %cst_7, %cst_7, %85, %82, %92, %82, %83, %25, %65, %83, %51, %cst_2, %51, %60, %51, %50, %30, %26, %in, %51, %cst_7, %58, %60, %36, %65, %82, %25, %51, %60, %cst_8, %25, %92, %30, %82, %93, %36, %25, %51, %26, %92, %26, %28, %36, %83, %36, %83, %cst_8, %30, %26, %85, %25, %51, %30, %60, %cst_7, %in, %36, %44, %58, %30, %51, %in, %60, %83, %82, %30, %cst_7, %85, %cst_8, %50, %cst_2, %92, %93, %85, %73, %85, %50, %51, %51, %73, %51, %cst_2, %30, %51, %44, %44, %50, %65, %83, %36, %28, %36, %44, %58, %cst_7, %85, %25, %73, %30, %65, %83, %93, %51, %cst_2, %cst_8, %50, %44, %82, %30, %30, %25, %cst_8, %44, %26, %26, %85, %28, %51, %25, %cst_8, %85, %44, %65, %82, %92, %50, %83, %25, %60, %51, %73, %51, %cst_7, %50, %92, %28, %73, %65, %50, %83, %51, %60, %36, %92, %58, %51, %cst_8, %73, %in, %73, %58, %26, %cst_7, %65, %92, %in, %cst_8, %82, %30, %93, %36, %93, %83, %44, %cst_8, %28, %44, %85, %93, %73, %cst_7, %36, %cst_2, %65, %cst_2, %in, %73, %cst_8, %73, %cst_7, %36, %cst_2, %51, %cst_2, %82, %44, %in, %26, %cst_7, %82, %60, %65, %28, %83, %28, %28, %73, %83, %93, %28, %cst_2, %cst_7, %65, %44, %cst_2, %in, %73, %26, %in, %30, %73, %cst_2, %cst_8, %83, %92, %82, %58, %36, %25, %28, %36, %cst_8, %50, %92, %25, %83, %cst_7, %93, %25, %44, %85, %65, %58, %93, %cst_2, %26, %cst_2, %83 : tensor<5x27x5xf32>
      %178 = vector.extract_strided_slice %32 {offsets = [3], sizes = [2], strides = [1]} : vector<5x20x20xi1> to vector<2x20x20xi1>
      %179 = arith.divsi %84, %76 : i1
      %180 = affine.max affine_map<(d0, d1, d2, d3) -> (d1 ceildiv 128)>(%c17, %c22, %c9, %c26)
      bufferization.dealloc_tensor %1 : tensor<?x?xi32>
      %181 = vector.load %arg0[%c0, %c2] : memref<?x27xi64>, vector<27x27xi64>
      %182 = index.maxu %c11, %c17
      %expanded_41 = tensor.expand_shape %8 [[0], [1], [2, 3]] : tensor<?x?x20xf32> into tensor<?x?x20x1xf32>
      scf.yield
    }
    %156 = bufferization.clone %alloc_21 : memref<5x27x5xi16> to memref<5x27x5xi16>
    %157 = arith.addi %61, %true_35 : i1
    %158 = bufferization.to_tensor %alloc_19 : memref<?x?xi64>
    %159 = vector.broadcast %c31 : index to vector<32xindex>
    %160 = vector.broadcast %64 : i1 to vector<32xi1>
    vector.scatter %alloc_27[%c2] [%159], %160, %160 : memref<5xi1>, vector<32xindex>, vector<32xi1>, vector<32xi1>
    %161 = arith.muli %c1712353702_i64, %47 : i64
    %162 = arith.ceildivsi %84, %22 : i1
    %rank_37 = tensor.rank %6 : tensor<?x?xf32>
    %163 = math.log1p %cst_7 : f32
    %rank_38 = tensor.rank %14 : tensor<?x?x5xi1>
    %164 = vector.broadcast %47 : i64 to vector<27xi64>
    %165 = vector.transfer_write %164, %0[%c20, %c7, %c31] {permutation_map = affine_map<(d0, d1, d2) -> (d0)>} : vector<27xi64>, tensor<?x?x?xi64>
    %166 = arith.cmpf false, %25, %28 : f32
    %167 = math.roundeven %48 : f16
    %168 = index.divu %c14, %c15
    %169 = math.ctpop %true : i1
    %170 = scf.parallel (%arg3, %arg4) = (%c15, %150) to (%c15, %144) step (%c27, %c10) init (%cst_1) -> f16 {
      %171 = vector.broadcast %88 : i64 to vector<27x27xi64>
      %172 = vector.outerproduct %164, %164, %171 {kind = #vector.kind<add>} : vector<27xi64>, vector<27xi64>
      %173 = vector.create_mask %c28, %rank_37, %c10 : vector<5x20x20xi1>
      %rank_39 = tensor.rank %95 : tensor<i1>
      %174 = math.absf %26 : f32
      %175 = affine.apply affine_map<(d0, d1)[s0] -> (d1 ceildiv 64 - d0 + 4)>(%c13, %c24)[%c27]
      %176 = arith.muli %true, %34 : i1
      %177 = index.or %c20, %c26
      memref.assume_alignment %alloc_11, 16 : memref<?x?xi1>
      %178 = vector.shuffle %173, %32 [0, 3] : vector<5x20x20xi1>, vector<5x20x20xi1>
      %179 = arith.shrsi %true, %true_5 : i1
      %180 = index.castu %c1268563714_i32 : i32 to index
      %alloca = memref.alloca() : memref<5x20x20xi1>
      %181 = vector.broadcast %61 : i1 to vector<5xi1>
      %182 = vector.maskedload %alloc_27[%c2], %181, %181 : memref<5xi1>, vector<5xi1>, vector<5xi1> into vector<5xi1>
      %183 = affine.load %alloc_14[%c10, %c19, %c24] : memref<5x20x20xf32>
      %184 = arith.ceildivsi %49, %49 : i1
      %185 = bufferization.to_tensor %alloc : memref<?x?x?xi1>
      scf.reduce(%cst_0)  : f16 {
      ^bb0(%arg5: f16, %arg6: f16):
        %186 = math.fpowi %36, %c1268563714_i32 : f32, i32
        %187 = arith.cmpi slt, %true_35, %49 : i1
        %188 = index.ceildivs %177, %37
        %189 = math.cos %cst_2 : f32
        %190 = math.copysign %5, %5 : tensor<5x5xf16>
        %inserted = tensor.insert %26 into %45[%c0, %c0, %c0] : tensor<?x?x?xf32>
        affine.vector_store %181, %alloc_27[%c9] : memref<5xi1>, vector<5xi1>
        %191 = memref.realloc %alloc_27 : memref<5xi1> to memref<20xi1>
        scf.reduce.return %68 : f16
      }
      scf.yield
    }
    linalg.yield %36 : f32
  }
generated/temp581529840236588062208.mlir:1566:12: remark: found an instance of 'read' on a value, on resource '<Default>'
    %101 = bufferization.to_tensor %alloc_11 : memref<?x?xi1>
           ^
generated/temp581529840236588062208.mlir:1566:12: note: see current operation: %101 = bufferization.to_tensor %alloc_11 : memref<?x?xi1>
generated/temp581529840236588062208.mlir:1567:12: remark: operation has no memory effects
    %102 = arith.muli %87, %64 : i1
           ^
generated/temp581529840236588062208.mlir:1567:12: note: see current operation: %102 = arith.muli %87, %64 : i1
generated/temp581529840236588062208.mlir:1568:16: remark: operation has no memory effects
    %rank_33 = tensor.rank %100 : tensor<?x?xf32>
               ^
generated/temp581529840236588062208.mlir:1568:16: note: see current operation: %rank_33 = tensor.rank %100 : tensor<?x?xf32>
generated/temp581529840236588062208.mlir:1569:12: remark: operation has no memory effects
    %103 = vector.insertelement %c1268563714_i32, %16[%c8 : index] : vector<5xi32>
           ^
generated/temp581529840236588062208.mlir:1569:12: note: see current operation: %103 = vector.insertelement %c1268563714_i32, %16[%c8 : index] : vector<5xi32>
generated/temp581529840236588062208.mlir:1570:12: remark: operation has no memory effects
    %104 = vector.bitcast %32 : vector<5x20x20xi1> to vector<5x20x20xi1>
           ^
generated/temp581529840236588062208.mlir:1570:12: note: see current operation: %104 = vector.bitcast %32 : vector<5x20x20xi1> to vector<5x20x20xi1>
generated/temp581529840236588062208.mlir:1571:12: remark: operation has no memory effects
    %105 = spirv.GL.SClamp %29, %c1712353702_i64, %c6979223_i64 : i64
           ^
generated/temp581529840236588062208.mlir:1571:12: note: see current operation: %105 = spirv.GL.SClamp %29, %c1712353702_i64, %c6979223_i64 : i64
generated/temp581529840236588062208.mlir:1572:12: remark: operation has no memory effects
    %106 = spirv.CL.tanh %82 : f32
           ^
generated/temp581529840236588062208.mlir:1572:12: note: see current operation: %106 = spirv.CL.tanh %82 : f32
generated/temp581529840236588062208.mlir:1573:12: remark: operation has no memory effects
    %107 = spirv.GL.Fma %54, %54, %74 : f16
           ^
generated/temp581529840236588062208.mlir:1573:12: note: see current operation: %107 = spirv.GL.Fma %54, %54, %74 : f16
generated/temp581529840236588062208.mlir:1574:12: remark: operation has no memory effects
    %108 = index.maxs %c23, %c1
           ^
generated/temp581529840236588062208.mlir:1574:12: note: see current operation: %108 = index.maxs %c23, %c1
generated/temp581529840236588062208.mlir:1575:12: remark: operation has no memory effects
    %109 = spirv.GL.UClamp %21, %21, %21 : i64
           ^
generated/temp581529840236588062208.mlir:1575:12: note: see current operation: %109 = spirv.GL.UClamp %21, %21, %21 : i64
generated/temp581529840236588062208.mlir:1576:12: remark: found an instance of 'read' on a value, on resource '<Default>'
    %110 = affine.load %alloc_17[%c2, %c16, %c4] : memref<?x?x?xi64>
           ^
generated/temp581529840236588062208.mlir:1576:12: note: see current operation: %110 = affine.load %alloc_17[%c2, %c16, %c4] : memref<?x?x?xi64>
generated/temp581529840236588062208.mlir:1577:12: remark: operation has no memory effects
    %111 = spirv.GL.SSign %21 : i64
           ^
generated/temp581529840236588062208.mlir:1577:12: note: see current operation: %111 = spirv.GL.SSign %21 : i64
generated/temp581529840236588062208.mlir:1578:12: remark: operation has no memory effects
    %112 = index.shl %c31, %c11
           ^
generated/temp581529840236588062208.mlir:1578:12: note: see current operation: %112 = index.shl %c31, %c11
generated/temp581529840236588062208.mlir:1579:12: remark: operation has no memory effects
    %113 = index.sub %rank, %c30
           ^
generated/temp581529840236588062208.mlir:1579:12: note: see current operation: %113 = index.sub %rank, %c30
generated/temp581529840236588062208.mlir:1580:20: remark: operation has no memory effects
    %expanded_34 = tensor.expand_shape %expanded_25 [[0], [1], [2], [3, 4]] : tensor<5x20x20x1xf16> into tensor<5x20x20x1x1xf16>
                   ^
generated/temp581529840236588062208.mlir:1580:20: note: see current operation: %expanded_34 = tensor.expand_shape %expanded_25 [[0], [1], [2], [3, 4]] : tensor<5x20x20x1xf16> into tensor<5x20x20x1x1xf16>
generated/temp581529840236588062208.mlir:1581:12: remark: operation has no memory effects
    %114 = spirv.GL.Tanh %cst : f16
           ^
generated/temp581529840236588062208.mlir:1581:12: note: see current operation: %114 = spirv.GL.Tanh %cst : f16
generated/temp581529840236588062208.mlir:1582:12: remark: operation has no memory effects
    %115 = vector.broadcast %c3 : index to vector<5xindex>
           ^
generated/temp581529840236588062208.mlir:1582:12: note: see current operation: %115 = vector.broadcast %c3 : index to vector<5xindex>
generated/temp581529840236588062208.mlir:1583:12: remark: operation has no memory effects
    %116 = vector.broadcast %90 : i1 to vector<5xi1>
           ^
generated/temp581529840236588062208.mlir:1583:12: note: see current operation: %116 = vector.broadcast %90 : i1 to vector<5xi1>
generated/temp581529840236588062208.mlir:1584:5: remark: found an instance of 'write' on a value, on resource '<Default>'
    vector.scatter %alloc_27[%c1] [%115], %116, %116 : memref<5xi1>, vector<5xindex>, vector<5xi1>, vector<5xi1>
    ^
generated/temp581529840236588062208.mlir:1584:5: note: see current operation: vector.scatter %alloc_27[%c1] [%115], %116, %116 : memref<5xi1>, vector<5xindex>, vector<5xi1>, vector<5xi1>
generated/temp581529840236588062208.mlir:1585:12: remark: operation has no memory effects
    %117 = spirv.BitCount %99 : i64
           ^
generated/temp581529840236588062208.mlir:1585:12: note: see current operation: %117 = spirv.BitCount %99 : i64
generated/temp581529840236588062208.mlir:1586:12: remark: found an instance of 'read' on a value, on resource '<Default>'
    %118 = vector.load %alloc_15[%c0, %c0] : memref<5x5xf32>, vector<5x5xf32>
           ^
generated/temp581529840236588062208.mlir:1586:12: note: see current operation: %118 = vector.load %alloc_15[%c0, %c0] : memref<5x5xf32>, vector<5x5xf32>
generated/temp581529840236588062208.mlir:1587:12: remark: operation has no memory effects
    %119 = spirv.CL.fabs %74 : f16
           ^
generated/temp581529840236588062208.mlir:1587:12: note: see current operation: %119 = spirv.CL.fabs %74 : f16
generated/temp581529840236588062208.mlir:1588:12: remark: operation has no memory effects
    %120 = spirv.GL.FClamp %cst_2, %44, %83 : f32
           ^
generated/temp581529840236588062208.mlir:1588:12: note: see current operation: %120 = spirv.GL.FClamp %cst_2, %44, %83 : f32
generated/temp581529840236588062208.mlir:1589:12: remark: operation has no memory effects
    %121 = vector.shuffle %16, %16 [2, 6, 7, 8, 9] : vector<5xi32>, vector<5xi32>
           ^
generated/temp581529840236588062208.mlir:1589:12: note: see current operation: %121 = vector.shuffle %16, %16 [2, 6, 7, 8, 9] : vector<5xi32>, vector<5xi32>
generated/temp581529840236588062208.mlir:1590:12: remark: operation has no memory effects
    %122 = spirv.CL.erf %cst : f16
           ^
generated/temp581529840236588062208.mlir:1590:12: note: see current operation: %122 = spirv.CL.erf %cst : f16
generated/temp581529840236588062208.mlir:1591:12: remark: operation has no memory effects
    %123 = spirv.CL.sqrt %60 : f32
           ^
generated/temp581529840236588062208.mlir:1591:12: note: see current operation: %123 = spirv.CL.sqrt %60 : f32
generated/temp581529840236588062208.mlir:1592:12: remark: operation has no memory effects
    %124 = spirv.GL.UMax %110, %21 : i64
           ^
generated/temp581529840236588062208.mlir:1592:12: note: see current operation: %124 = spirv.GL.UMax %110, %21 : i64
generated/temp581529840236588062208.mlir:1593:12: remark: operation has no memory effects
    %125 = arith.remsi %29, %29 : i64
           ^
generated/temp581529840236588062208.mlir:1593:12: note: see current operation: %125 = arith.remsi %29, %29 : i64
generated/temp581529840236588062208.mlir:1594:12: remark: operation has no memory effects
    %126 = vector.broadcast %34 : i1 to vector<i1>
           ^
generated/temp581529840236588062208.mlir:1594:12: note: see current operation: %126 = vector.broadcast %34 : i1 to vector<i1>
generated/temp581529840236588062208.mlir:1595:12: remark: operation has no memory effects
    %127 = vector.transfer_write %126, %12[%c23, %c10] : vector<i1>, tensor<?x?xi1>
           ^
generated/temp581529840236588062208.mlir:1595:12: note: see current operation: %127 = vector.transfer_write %126, %12[%c23, %c10] : vector<i1>, tensor<?x?xi1>
generated/temp581529840236588062208.mlir:1596:12: remark: operation has no memory effects
    %128 = spirv.GL.SAbs %88 : i64
           ^
generated/temp581529840236588062208.mlir:1596:12: note: see current operation: %128 = spirv.GL.SAbs %88 : i64
generated/temp581529840236588062208.mlir:1597:12: remark: found an instance of 'read' on a value, on resource '<Default>'
    %129 = affine.vector_load %alloc_16[%c16, %c31, %c11] : memref<?x20x20xf16>, vector<20xf16>
           ^
generated/temp581529840236588062208.mlir:1597:12: note: see current operation: %129 = affine.vector_load %alloc_16[%c16, %c31, %c11] : memref<?x20x20xf16>, vector<20xf16>
generated/temp581529840236588062208.mlir:1598:12: remark: operation has no memory effects
    %130 = spirv.LogicalNotEqual %86, %59 : i1
           ^
generated/temp581529840236588062208.mlir:1598:12: note: see current operation: %130 = spirv.LogicalNotEqual %86, %59 : i1
<unknown>:0: remark: operation has no memory effects
<unknown>:0: note: see current operation: linalg.yield %arg3 : i64
generated/temp581529840236588062208.mlir:1599:12: remark: operation has no memory effects
    %131 = linalg.copy ins(%11 : tensor<?x5xi64>) outs(%11 : tensor<?x5xi64>) -> tensor<?x5xi64>
           ^
generated/temp581529840236588062208.mlir:1599:12: note: see current operation: %131 = linalg.copy ins(%11 : tensor<?x5xi64>) outs(%11 : tensor<?x5xi64>) -> tensor<?x5xi64>
generated/temp581529840236588062208.mlir:1600:12: remark: operation has no memory effects
    %132 = arith.shrsi %117, %29 : i64
           ^
generated/temp581529840236588062208.mlir:1600:12: note: see current operation: %132 = arith.shrsi %117, %29 : i64
generated/temp581529840236588062208.mlir:1601:12: remark: operation has no memory effects
    %133 = spirv.GL.SAbs %21 : i64
           ^
generated/temp581529840236588062208.mlir:1601:12: note: see current operation: %133 = spirv.GL.SAbs %21 : i64
generated/temp581529840236588062208.mlir:1602:12: remark: operation has no memory effects
    %134 = spirv.CL.floor %82 : f32
           ^
generated/temp581529840236588062208.mlir:1602:12: note: see current operation: %134 = spirv.CL.floor %82 : f32
generated/temp581529840236588062208.mlir:1603:12: remark: operation has no memory effects
    %135 = vector.broadcast %c26224_i16 : i16 to vector<20xi16>
           ^
generated/temp581529840236588062208.mlir:1603:12: note: see current operation: %135 = vector.broadcast %c26224_i16 : i16 to vector<20xi16>
generated/temp581529840236588062208.mlir:1604:12: remark: operation has no memory effects
    %136 = vector.broadcast %84 : i1 to vector<20xi1>
           ^
generated/temp581529840236588062208.mlir:1604:12: note: see current operation: %136 = vector.broadcast %84 : i1 to vector<20xi1>
generated/temp581529840236588062208.mlir:1605:5: remark: found an instance of 'write' on a value, on resource '<Default>'
    vector.compressstore %alloc_23[%c3, %c2, %c7], %136, %135 : memref<5x20x20xi16>, vector<20xi1>, vector<20xi16>
    ^
generated/temp581529840236588062208.mlir:1605:5: note: see current operation: vector.compressstore %alloc_23[%c3, %c2, %c7], %136, %135 : memref<5x20x20xi16>, vector<20xi1>, vector<20xi16>
generated/temp581529840236588062208.mlir:1606:12: remark: operation has no memory effects
    %137 = tensor.empty() : tensor<5x20x20x5xi32>
           ^
generated/temp581529840236588062208.mlir:1606:12: note: see current operation: %137 = tensor.empty() : tensor<5x20x20x5xi32>
generated/temp581529840236588062208.mlir:1607:20: remark: operation has no memory effects
    %broadcasted = linalg.broadcast ins(%3 : tensor<5x20x20xi32>) outs(%137 : tensor<5x20x20x5xi32>) dimensions = [3] 
                   ^
generated/temp581529840236588062208.mlir:1607:20: note: see current operation: linalg.yield %arg3 : i32
generated/temp581529840236588062208.mlir:1607:20: remark: operation has no memory effects
    %broadcasted = linalg.broadcast ins(%3 : tensor<5x20x20xi32>) outs(%137 : tensor<5x20x20x5xi32>) dimensions = [3] 
                   ^
generated/temp581529840236588062208.mlir:1607:20: note: see current operation: %broadcasted = linalg.broadcast ins(%3 : tensor<5x20x20xi32>) outs(%137 : tensor<5x20x20x5xi32>) dimensions = [3] 
generated/temp581529840236588062208.mlir:1608:12: remark: operation has no memory effects
    %138 = affine.max affine_map<(d0, d1, d2, d3)[s0] -> ((d2 floordiv 128) * 2 - d2)>(%c2, %c26, %c16, %c10)[%c2]
           ^
generated/temp581529840236588062208.mlir:1608:12: note: see current operation: %138 = affine.max affine_map<(d0, d1, d2, d3)[s0] -> ((d2 floordiv 128) * 2 - d2)>(%c2, %c26, %c16, %c10)[%c2]
generated/temp581529840236588062208.mlir:1609:12: remark: operation has no memory effects
    %139 = spirv.GL.RoundEven %48 : f16
           ^
generated/temp581529840236588062208.mlir:1609:12: note: see current operation: %139 = spirv.GL.RoundEven %48 : f16
generated/temp581529840236588062208.mlir:1610:12: remark: operation has no memory effects
    %140 = index.xor %c27, %138
           ^
generated/temp581529840236588062208.mlir:1610:12: note: see current operation: %140 = index.xor %c27, %138
generated/temp581529840236588062208.mlir:1692:5: remark: operation has no memory effects
    return %2 : tensor<5x20x20xf16>
    ^
generated/temp581529840236588062208.mlir:1692:5: note: see current operation: func.return %2 : tensor<5x20x20xf16>
mlir-opt: /home/jacob/projects/MLIRSmith/llvm/include/llvm/ADT/SmallVector.h:294: T& llvm::SmallVectorTemplateCommon<T, <template-parameter-1-2> >::operator[](llvm::SmallVectorTemplateCommon<T, <template-parameter-1-2> >::size_type) [with T = mlir::Attribute; <template-parameter-1-2> = void; llvm::SmallVectorTemplateCommon<T, <template-parameter-1-2> >::reference = mlir::Attribute&; llvm::SmallVectorTemplateCommon<T, <template-parameter-1-2> >::size_type = long unsigned int]: Assertion `idx < size()' failed.
PLEASE submit a bug report to https://github.com/llvm/llvm-project/issues/ and include the crash backtrace.
Stack dump:
0.	Program arguments: ../build/bin/mlir-opt --test-side-effects --arith-bufferize --convert-shape-to-std --test-merge-blocks --linalg-fuse-elementwise-ops --tosa-make-broadcastable --gpu-async-region --scf-parallel-loop-tiling --affine-data-copy-generate --buffer-results-to-out-params generated/temp581529840236588062208.mlir
Stack dump without symbol names (ensure you have llvm-symbolizer in your PATH or set the environment var `LLVM_SYMBOLIZER_PATH` to point to it):
0  mlir-opt        0x0000556d95c57bdb llvm::sys::PrintStackTrace(llvm::raw_ostream&, int) + 59
1  mlir-opt        0x0000556d95c549cc
2  libpthread.so.0 0x00007fcf1ba05980
3  libc.so.6       0x00007fcf1a632e87 gsignal + 199
4  libc.so.6       0x00007fcf1a6347f1 abort + 321
5  libc.so.6       0x00007fcf1a6243fa
6  libc.so.6       0x00007fcf1a624472
7  mlir-opt        0x0000556d9787ee38
8  mlir-opt        0x0000556d978b29a3
9  mlir-opt        0x0000556d978c1270
10 mlir-opt        0x0000556d985c34de mlir::Operation::fold(llvm::ArrayRef<mlir::Attribute>, llvm::SmallVectorImpl<mlir::OpFoldResult>&) + 62
11 mlir-opt        0x0000556d985c387d mlir::Operation::fold(llvm::SmallVectorImpl<mlir::OpFoldResult>&) + 733
12 mlir-opt        0x0000556d9850c841 mlir::OpBuilder::tryFold(mlir::Operation*, llvm::SmallVectorImpl<mlir::Value>&) + 193
13 mlir-opt        0x0000556d9847c5d3
14 mlir-opt        0x0000556d9847d3a8
15 mlir-opt        0x0000556d98480e70 mlir::applyPartialConversion(mlir::Operation*, mlir::ConversionTarget const&, mlir::FrozenRewritePatternSet const&, llvm::DenseSet<mlir::Operation*, llvm::DenseMapInfo<mlir::Operation*, void>>*) + 96
16 mlir-opt        0x0000556d9810208b
17 mlir-opt        0x0000556d983cf301 mlir::detail::OpToOpPassAdaptor::run(mlir::Pass*, mlir::Operation*, mlir::AnalysisManager, bool, unsigned int) + 1297
18 mlir-opt        0x0000556d983d0223
19 mlir-opt        0x0000556d983d08c1 mlir::PassManager::run(mlir::Operation*) + 1153
20 mlir-opt        0x0000556d983c0efc
21 mlir-opt        0x0000556d983c28b5
22 mlir-opt        0x0000556d983c2a71
23 mlir-opt        0x0000556d984c8260 mlir::splitAndProcessBuffer(std::unique_ptr<llvm::MemoryBuffer, std::default_delete<llvm::MemoryBuffer>>, llvm::function_ref<mlir::LogicalResult (std::unique_ptr<llvm::MemoryBuffer, std::default_delete<llvm::MemoryBuffer>>, llvm::raw_ostream&)>, llvm::raw_ostream&, bool, bool) + 96
24 mlir-opt        0x0000556d983bbbc9 mlir::MlirOptMain(llvm::raw_ostream&, std::unique_ptr<llvm::MemoryBuffer, std::default_delete<llvm::MemoryBuffer>>, mlir::DialectRegistry&, mlir::MlirOptMainConfig const&) + 185
25 mlir-opt        0x0000556d983c2d9a mlir::MlirOptMain(int, char**, llvm::StringRef, mlir::DialectRegistry&) + 746
26 mlir-opt        0x0000556d95baa0c5 main + 165
27 libc.so.6       0x00007fcf1a615c87 __libc_start_main + 231
28 mlir-opt        0x0000556d95c2b95a _start + 42
Aborted
